ac_2d_model_para_5/checkpoint_1450.pth (torch, 291152 bytes, 17 tensors)

linear_layer.0.weight f4 [100, 3]
0.22355616 0.15858045 -0.19200416 0.013136041 -0.07238897 0.111139104 0.049695432 -0.062278777
-0.2833073 0.26701167 -0.035281144 0.21464746 -0.16364495 -0.15387999 -0.36428136 -0.06590136
-0.19999465 -0.13201119 -0.10440533 0.13515793 -0.12323193 -0.07738973 -0.04465566 -0.33099172
0.5301004 0.049589187 0.01990713 -0.15995151 -0.1876385 -0.073796675 0.038826913 -0.22090477
0.1328793 -0.11063386 0.0655443 -0.23725344 0.41911224 -0.0044391495 -0.114094645 0.2852217
-0.00955236 0.24718979 0.19492611 0.15736039 0.18222293 -0.18331179 -0.19618091 0.026356662
0.31788674 0.021854507 -0.2887271 -0.21269481 -0.14967117 -0.15495612 -0.30048612 -0.01744998
0.09684501 0.15458146 0.16145569 -0.2365102 0.08623708 -0.20174544 0.07939352 0.43544787
-0.0851852 0.07780423 -0.27636132 -0.15412536 0.023536302 0.15433921 0.024736244 -0.48019993
0.23827825 0.034165256 0.3061763 0.18196741 0.08286671 0.0060020974 -0.31420225 -0.21581466
-0.08596672 0.055481743 0.26908734 0.05550855 0.20895231 -0.21147087 0.053254224 0.10235587
-0.018873863 -0.10389651 -0.047136094 -0.16172932 -0.13936247 0.43297878 0.016418496 0.32659248
0.09874483 -0.22524601 0.13059326 -0.40303612 0.017053492 -0.106322385 0.06542877 -0.09737025
-0.2895717 0.12870002 -0.14401253 0.20695925 -0.15922272 0.26823175 0.020099398 0.28050622
0.14687082 0.063775584 -0.028829142 -0.09158064 -0.39829192 -0.14118774 -0.028003931 -0.15159066
0.090193264 0.09525017 -0.12829147 -0.19293864 -0.010673826 0.13273183 -0.23679237 0.17174576
-0.12743835 0.14860164 -0.066516034 0.25072452 -0.15765344 0.1998736 0.12822564 -0.07673428
-0.11188196 0.14698559 -0.45889413 0.15737185 -0.28308538 0.40217134 0.0011768079 -0.13027668
0.092577256 0.09503896 0.09423698 0.3865554 -0.1033119 -0.117000245 0.23382209 0.11227106
-0.1245466 0.20405836 -0.055691604 -0.14962918 -0.107772686 0.25507006 0.094560295 0.01782998
0.056898467 0.25752163 0.122753516 0.08560441 0.005114435 0.3456977 -0.07325801 0.11016481
0.5516033 0.014808828 -0.012366597 0.3444713 -0.119486 -0.25635117 0.34609294 0.008364253
-0.14378637 -0.056734078 -0.17742603 0.2687118 -0.14249554 0.118319646 -0.0065713055 0.011548907
0.28529522 0.024572324 0.32560572 -0.15066223 -0.06180473 -0.0005153627 0.118239686 -0.19823408
0.4081771 -0.15382831 0.07365448 0.029403644 0.10422575 0.32262394 0.15014124 -0.027911538
-0.37286925 -0.47127345 -0.027857672 0.109944865 0.38745508 -0.11851425 0.01717746 -0.097952195
0.10407693 0.025363375 -0.2891017 0.015554014 -0.036445595 0.11841139 0.1549551 0.08950648
-0.087942526 0.26692986 -0.09807874 0.10763835 0.1525815 -0.21380678 0.49403936 0.032226328
-0.08148002 -0.029363737 0.3523263 0.14659429 -0.16892777 -0.41267392 0.25181732 -0.37588078
-0.09651342 -0.17523998 -0.022547852 0.21768928 -0.007304139 0.028690934 -0.19889681 0.052920256
0.14744024 -0.0567373 -0.03770561 -0.14624254 -0.2033377 -0.079476856 -0.25431955 0.16161776
0.0853845 0.17986754 -0.111757 0.47846475 0.27480355 -0.03407478 -0.26824668 0.21237966
00000000: e8eb 643e ea62 223e bd9c 44be 8d38 573c
00000010: ab40 94bd e69c e33d 708d 4b3d 0818 7fbd
00000020: a80d 91be c1b5 883e f682 10bd 8bcc 5b3e
00000030: 8b92 27be b792 1dbe 1683 babe 4bf7 86bd
00000040: 66cb 4cbe f12d 07be 76d2 d5bd d766 0a3e
00000050: 0661 fcbd 827e 9ebd dae8 36bd bf77 a9be
00000060: a9b4 073f 081e 4b3d 4714 a33c 54ca 23be
00000070: 4f24 40be b622 97bd f808 1f3d dc34 62be
00000080: 8311 083e 0194 e2bd 173c 863d 91f2 72be
00000090: e195 d63e 4976 91bb 74aa e9bd 9408 923e
000000a0: 8081 1cbc 521f 7d3e b69a 473e 1523 213e
000000b0: a698 3a3e 16b6 3bbe a6e3 48be ede9 d73c
000000c0: 0dc2 a23e 3908 b33c 0ad4 93be abcc 59be
000000d0: 6643 19be d1ac 1ebe 51d9 99be 43f3 8ebc
000000e0: ad56 c63d 9a4a 1e3e a454 253e bb2f 72be
000000f0: 119d b03d 5b96 4ebe 1299 a23d 06f3 de3e
00000100: 9475 aebd d357 9f3d 3b7f 8dbe 0ad3 1dbe
00000110: 34cf c03c 190b 1e3e aaa3 ca3c c4dc f5be
00000120: 37ff 733e def0 0b3d 24c3 9c3e aa55 3a3e
00000130: 06b6 a93d 3ead c43b 1edf a0be 85fe 5cbe
00000140: 520f b0bd d340 633d d1c5 893e ef5c 633d
00000150: 98f7 553e d28b 58be 1a21 5a3d f49f d13d
00000160: 5c9d 9abc b2c7 d4bd c711 41bd 5f9c 25be
00000170: 09b5 0ebe 65af dd3e 1580 863c 2137 a73e
00000180: bb3a ca3d e4a6 66be 3dba 053e c05a cebe
00000190: c4b3 8b3c 8dbf d9bd 85ff 853d 0e6a c7bd
000001a0: be42 94be f0c9 033e 0578 13be 20ed 533e
000001b0: 480b 23be ac55 893e 7ea7 a43c 839e 8f3e
000001c0: 4e65 163e c69c 823d 182b ecbc a18e bbbd
000001d0: ebec cbbe 8593 10be 8068 e5bc 953a 1bbe
000001e0: 3fb7 b83d 8512 c33d d75e 03be b591 45be
000001f0: 45e1 2ebc daea 073e b379 72be 1fde 2f3e
00000200: 337f 02be 072b 183e 8f39 88bd f75e 803e
00000210: e76f 21be aaab 4c3e 954d 033e dd26 9dbd
00000220: 5e22 e5bd 6483 163e 2cf4 eabe 1626 213e
00000230: 91f0 90be 67e9 cd3e 1f3f 9a3a 4067 05be
00000240: 2599 bd3d c9a3 c23d 51ff c03d 97ea c53e
00000250: 3095 d3bd d39d efbd 0f6f 6f3e 5fee e53d
00000260: 4a12 ffbd adf4 503e e11c 64bd 6438 19be
00000270: edb7 dcbd 8b98 823e d4a8 c13d 2e10 923c
00000280: 5e0e 693d e0d9 833e 3266 fb3d 5d51 af3d
00000290: fe96 a73b 4aff b03e 4c08 96bd 179e e13d
000002a0: e035 0d3f baa0 723c 449d 4abc 8b5e b03e
000002b0: 13b5 f4bd 7640 83be 1833 b13e 380a 093c
000002c0: bc3c 13be fe61 68bd 2baf 35be 9894 893e
000002d0: 5aea 11be 9251 f23d 1b54 d7bb a037 3d3c
000002e0: 3712 923e e64b c93c cbb5 a63e 3347 1abe
000002f0: f526 7dbd 6819 07ba a627 f23d e0fd 4abe
00000300: 97fc d03e 2b85 1dbe 29d8 963d e9df f03c
00000310: 4f74 d53d f72e a53e a0be 193e bda6 e4bc
00000320: b8e8 bebe c14a f1be c635 e4bc c62a e13d
00000330: 8360 c63e 99b7 f2bd bfb7 8c3c 299b c8bd
00000340: 4926 d53d dac6 cf3c 2305 94be 43d6 7e3c
00000350: fa47 15bd ac81 f23d 8dac 1e3e 2c4f b73d
00000360: 361b b4bd 08ab 883e 82dd c8bd 7f71 dc3d
00000370: 533e 1c3e 2af0 5abe baf2 fc3e c1ff 033d
00000380: ffde a6bd 388c f0bc 1d64 b43e d01c 163e
00000390: 67fb 2cbe ff49 d3be 33ee 803e 7273 c0be
000003a0: d4a8 c5bd 1c72 33be 46b6 b8bc f0e9 5e3e
000003b0: 8f57 efbb 4009 eb3c 9bab 4bbe e9c2 583d
000003c0: 93fa 163e 5f65 68bd 3371 1abd 9bc0 15be
000003d0: c237 50be c3c4 a2bd 2c36 82be 207f 253e
000003e0: 12de ae3d 322f 383e dbe0 e4bd 55f9 f43e
000003f0: 0db3 8c3e ff91 0bbd a157 89be 0e7a 593e

linear_layer.0.bias f4 [100]
-0.021239199 -0.07170743 0.19596027 -0.03872376 0.021615874 -0.030575674 0.08110262 0.13668443
-0.19315228 0.05612203 0.057258748 -0.1307532 0.19584455 0.21605043 0.055733368 0.0007983438
-0.14077716 0.018650126 -0.02983725 -0.0040254984 -0.12400156 -0.07111101 -0.04597718 0.02448229
0.045530144 0.1671347 0.10813001 -0.035432544 0.05483266 -0.11950838 -0.072183385 -0.014319514
0.12991452 -0.10538785 -0.08224068 0.06854844 -0.02669687 -0.17805843 0.15824561 0.17384203
0.09297136 -0.05564239 0.07440273 -0.29637545 0.021115813 -0.12406454 -0.13083495 0.022040177
-0.09352324 -0.18786685 0.26219594 0.08373426 -0.0025133537 -0.24342619 0.10312372 0.1196265
0.03101354 -0.009303303 -0.0061290325 0.00997027 -0.11520972 -0.01861371 0.004819556 0.16796991
-0.13654184 0.08720789 -0.22256514 -0.0034230675 -0.087099485 0.10060147 0.18211882 -0.092190124
-0.10150547 0.21509151 -0.015962318 0.030315492 0.018644301 0.08045489 -0.12023579 -0.02978886
0.15458913 0.12980045 -0.054462787 0.014627159 0.03379857 0.052707765 0.1266785 0.15474765
-0.10987657 -0.10322653 -0.13765664 -0.19867726 -0.07173658 0.13276553 -0.038446058 0.04158751
0.2610826 0.06382975 -0.0768666 0.05585254
00000000: d4fd adbc 58db 92bd cfa9 483e ce9c 1ebd
00000010: c613 b13c d679 fabc 2119 a63d 01f7 0b3e
00000020: b6c9 45be 37e0 653d 2688 6a3d 2be4 05be
00000030: 798b 483e 533c 5d3e ac48 643d f247 513a
00000040: e327 10be 26c8 983c 406d f4bc 54e8 83bb
00000050: 88f4 fdbd a6a2 91bd 9152 3cbd 158f c83c
00000060: d17d 3a3d 5c25 2b3e 4473 dd3d b721 11bd
00000070: 3698 603d cfc0 f4bd e2d4 93bd 659c 6abc
00000080: 5008 053e 96d5 d7bd cd6d a8bd 2063 8c3d
00000090: 65b3 dabc f354 36be 230b 223e a503 323e
000000a0: c567 be3d 46e9 63bd 7560 983d 86be 97be
000000b0: 12fb ac3c 8d15 febd 99f9 05be 9a8d b43c
000000c0: 1d89 bfbd 2b60 40be 8c3e 863e de7c ab3d
000000d0: 14b7 24bb b744 79be 8732 d33d bdfe f43d
000000e0: 1c10 fe3c e26c 18bc 0dd6 c8bb 585a 233c
000000f0: 13f3 ebbd c77b 98bc 5eed 9d3b 4e00 2c3e
00000100: a0d1 0bbe 0d9a b23d 1ee8 63be 8b55 60bb
00000110: 3761 b2bd 2508 ce3d 5b7d 3a3e 2dce bcbd
00000120: 1ae2 cfbd f340 5c3e 68c3 82bc 3258 f83c
00000130: efbb 983c 89c5 a43d 2f3e f6bd c407 f4bc
00000140: 9d4c 1e3e 69ea 043e 5f14 5fbd c0a6 6f3c
00000150: 5f70 0a3d 19e4 573d 02b8 013e 2b76 1e3e
00000160: f806 e1bd 6e68 d3bd ddf5 0cbe 0d72 4bbe
00000170: a1ea 92bd b0f3 073e 9d79 1dbd aa57 2a3d
00000180: 9eac 853e 2cb9 823d 3c6c 9dbd a2c5 643d

linear_layer.1.weight f4 [100, 100]
0.056275323 0.15127087 -0.065196075 -0.023457978 -0.015228493 0.004446945 0.09992426 0.057280324
0.1490479 -0.15151119 -0.079314336 0.010871745 -0.24350636 -0.07474405 0.06624707 0.06802672
-0.21945323 -0.1535137 0.21042037 0.0029059087 -0.090413295 0.109898575 0.034847982 0.15300186
-0.06947148 0.0040183757 -0.08557331 -0.013571209 -0.23623738 -0.0894243 -0.012924451 -0.004949933
-0.042466175 0.2294083 -0.08261795 -0.06349348 -0.09117608 -0.011454954 0.12960587 -0.14283958
0.05130185 0.16014367 -0.13875167 -0.055920977 0.0019484068 -0.033795014 0.056713216 0.026027614
0.0020207316 0.12305132 -0.013321601 -0.2843427 0.115848385 0.0932085 -0.03381067 -0.21792641
-0.14339669 -0.076580845 0.15272388 0.16975847 0.013729051 0.06357811 -0.010695053 -0.16050974
-0.023762375 0.18208754 -0.012447394 0.05468845 0.02410891 -0.088617735 0.010325907 0.09865607
-0.072640166 0.04164507 -0.2492057 0.029834475 -0.038997214 0.008679625 -0.17470378 -0.11729489
-0.033035364 -0.012856967 -0.02530314 -0.10008613 0.05926249 0.12593853 -0.029363386 -0.07679542
0.09353992 0.121924356 -0.0062016514 0.13364263 -0.0877788 -0.06475546 -0.0082169045 -0.10560049
-0.06283936 -0.019041754 -0.13059743 -0.0790484 0.048229042 0.21793474 -0.023648584 0.061374336
-0.0554274 -0.16842851 0.13405046 -0.27871135 -0.049343664 -0.0713196 -0.06653271 0.038553733
0.108299024 0.11964523 0.15967341 -0.14926623 -0.042377047 -0.2861078 0.013240617 0.18925469
-0.1124058 -0.022696756 0.029529473 0.118830465 0.18925959 0.07987452 -0.09149708 0.11997403
-0.12304195 -0.08083282 -0.06924373 -0.10196416 0.17462751 -0.11313813 -0.10810319 0.036186364
0.1884819 0.018246576 -0.02774011 -0.084061384 0.20208587 -0.09903874 0.12562181 -0.18029474
0.20064652 -0.23002857 -0.27027264 -0.06643244 0.038573343 -0.093871914 -0.016399251 -0.034577835
0.08751179 -0.16943192 -0.04131202 0.09604658 0.025742196 -0.07554189 -0.120372094 -0.042066827
0.13373584 -0.08892113 -0.020234803 0.05750844 -0.13961539 0.14903842 -0.037602764 -0.18292059
-0.37445456 0.23316061 -0.01883402 0.07862004 0.0463911 0.13507338 0.11196167 0.18691094
0.007765701 -0.0044286465 -0.11137061 0.049032617 0.20342442 -0.20471758 -0.04051848 0.08150476
0.015234807 -0.07765847 0.032410335 0.03875414 0.01339457 -0.1340663 0.08163167 -0.12748046
0.028860075 -0.09588081 0.122252524 -0.13146435 0.16037329 0.14092866 -0.11681735 0.19967775
-0.1117985 -0.0500355 0.104454696 -0.06585501 -0.12881699 0.04790403 -0.032730572 0.15059379
-0.19138071 -0.027513126 0.08524892 0.036718242 -0.10402228 0.009819401 0.029162493 -0.029842503
-0.018901521 0.12482111 -0.16210094 -0.1679369 0.075577915 0.075769715 0.038033005 -0.13577084
-0.15946853 -0.16697629 0.045526553 0.07683284 -0.039855223 0.0993881 -0.12632777 -0.075811096
0.032857712 0.008937012 0.016633114 0.006980507 -0.10325942 -0.08501409 -0.06645324 0.017399495
0.22949667 0.2011909 -0.021423623 0.13783784 -0.12478878 0.14571214 0.11259644 -0.13640644
-0.06840817 -0.09217498 0.048542593 0.0066413037 -0.046351373 -0.0632654 -0.14782313 -0.033047855
00000000: f480 663d c0e6 1a3e 8585 85bd f22a c0bc
00000010: ee80 79bc aeb7 913b 17a5 cc3d c69e 6a3d
00000020: 03a0 183e c025 1bbe 8e6f a2bd 671f 323c
00000030: bb59 79be 6913 99bd 8bac 873d 9851 8b3d
00000040: 59b8 60be b232 1dbe 7078 573e 0f71 3e3b
00000050: 9b2a b9bd 8112 e13d c2bc 0e3d 85ac 1c3e
00000060: 1047 8ebd 94ac 833b 0f41 afbd c759 5ebc
00000070: 36e8 71be 1624 b7bd 14c1 53bc 0c33 a2bb
00000080: 03f1 2dbd 02ea 6a3e 9a33 a9bd df08 82bd
00000090: 86ba babd 8fad 3bbc 67b7 043e 8a44 12be
000000a0: e321 523d b4fc 233e eb14 0ebe 650d 65bd
000000b0: af61 ff3a a46c 0abd 1e4c 683d dd37 d53c
000000c0: 406e 043b 5502 fc3d d842 5abc 5e95 91be
000000d0: eb41 ed3d 19e4 be3d 0f7d 0abd 1a28 5fbe
000000e0: 95d6 12be 6bd6 9cbd a663 1c3e 2ad5 2d3e
000000f0: d0ef 603c 3d35 823d 4e3a 2fbc aa5c 24be
00000100: 50a9 c2bc 2875 3a3e 28f0 4bbc ff00 603d
00000110: 0c80 c53c 377d b5bd fe2d 293c 320c ca3d
00000120: 5ec4 94bd 0594 2a3d c72f 7fbe 6e67 f43c
00000130: 8bbb 1fbd fc34 0e3c 8ce5 32be 4e38 f0bd
00000140: 1750 07bd 07a6 52bc 8848 cfbc f5f9 ccbd
00000150: 3abd 723d 08f6 003e 7c8b f0bc eb46 9dbd
00000160: dc91 bf3d 7ab3 f93d 3937 cbbb 9dd9 083e
00000170: 5fc5 b3bd 839e 84bd 32a0 06bc 1245 d8bd
00000180: ecb1 80bd 74fd 9bbc 55bb 05be 21e4 a1bd
00000190: d18b 453d 492a 5f3e adba c1bc a863 7b3d
000001a0: d707 63bd 8678 2cbe 8644 093e 41b3 8ebe
000001b0: 951c 4abd 0310 92bd 4d42 88bd 85ea 1d3d
000001c0: e1cb dd3d 8f08 f53d 6d81 233e 3fd9 18be
000001d0: 8e93 2dbd b97c 92be 2cef 583c fbcb 413e
000001e0: 0335 e6bd 8cee b9bc cbe7 f13c 635d f33d
000001f0: 44cd 413e 4195 a33d d262 bbbd f2b4 f53d
00000200: 6bfd fbbd ad8b a5bd a8cf 8dbd 96d2 d0bd
00000210: 8ed1 323e f7b4 e7bd 3565 ddbd 2738 143d
00000220: 6601 413e d879 953c 3a3f e3bc 6028 acbd
00000230: 99ef 4e3e d3d4 cabd 01a3 003e 2f9f 38be
00000240: 4876 4d3e 9c8c 6bbe 2d61 8abe bb0d 88bd
00000250: 15ff 1d3d eb3f c0bd b957 86bc 7da1 0dbd
00000260: 6239 b33d 907f 2dbe cb36 29bd 12b4 c43d
00000270: 4ce1 d23c b5b5 9abd a585 f6bd 444e 2cbd
00000280: 0cf2 083e 481c b6bd 75c3 a5bc f88d 6b3d
00000290: 56f7 0ebe 879d 183e 5b05 1abd 894f 3bbe
000002a0: 82b8 bfbe a8c1 6e3e cd49 9abc 8b03 a13d
000002b0: 9804 3e3d ad50 0a3e 294c e53d 9565 3f3e
000002c0: 6c77 fe3b 2e1e 91bb 4616 e4bd 6dd6 483d
000002d0: 7e4e 503e 7ca1 51be b5f6 25bd f8eb a63d
000002e0: 699b 793c 670b 9fbd b3c0 043d a9bc 1e3d
000002f0: e674 5b3c ad48 09be 812e a73d 3d8a 02be
00000300: f76b ec3c 285d c4bd 885f fa3d 979e 06be
00000310: e538 243e 9a4f 103e ef3d efbd 5378 4c3e
00000320: 9df6 e4bd 06f2 4cbd 58ec d53d fede 86bd
00000330: 9ae8 03be 0437 443d 7e10 06bd 4235 1a3e
00000340: 4ef9 43be 3563 e1bc fc96 ae3d de65 163d
00000350: a209 d5bd 8ee1 203c 2ee6 ee3c 4478 f4bc
00000360: 5dd7 9abc 36a2 ff3d cafd 25be a7f7 2bbe
00000370: 98c8 9a3d 272d 9b3d 7fc8 1b3d 8307 0bbe
00000380: b84b 23be d5fb 2abe 0d7a 3a3d 895a 9d3d
00000390: 3b3f 23bd fd8b cb3d 115c 01be d942 9bbd
000003a0: cf95 063d 8c6c 123c 2b42 883c bdbc e43b
000003b0: ad79 d3bd de1b aebd a318 88bd 6389 8e3c
000003c0: 2d01 6b3e fd04 4e3e 9880 afbc 5d25 0d3e
000003d0: 4391 ffbd 9035 153e f698 e63d 21ae 0bbe
000003e0: 9519 8cbd 3cc6 bcbd 99d4 463d 4b9f d93b
000003f0: f0da 3dbd 4a91 81bd f25e 17be 305d 07bd

linear_layer.1.bias f4 [100]
-0.0805124 0.0820343 -0.024456033 0.18295723 -0.021426715 -0.06363109 -0.11366309 0.12719417
-0.10923293 0.076722205 -0.08216132 -0.021069271 0.13422199 0.09493488 -0.07023519 -0.07519714
0.0015546599 0.124305464 0.020708999 -0.058394827 -0.05138229 0.044953275 -0.030125994 0.08269365
0.13112512 0.031087438 0.14956091 -0.05340859 -0.092174955 -0.06334876 -0.2241027 0.11142222
0.0041417694 -0.093269624 -0.070555955 0.07538523 0.12892905 -0.13853265 0.010780892 -0.019828888
-0.11116942 -0.12917627 0.032222323 0.15720657 -0.06939288 0.010494016 0.0014870517 -0.13354003
0.062559664 -0.1054498 -0.049412537 -0.008568115 -0.00354312 -0.11543553 0.011107057 0.023898644
0.13638549 -0.087410055 -0.0028750119 0.031107739 -0.12794524 -0.00626311 0.035439424 0.1665121
0.038223658 0.037045553 -0.106812455 0.021543037 0.0037511904 -0.16817234 -0.09395853 0.0071618496
-0.04320962 -0.03710098 0.07652489 0.00960162 0.07943098 -0.12776293 0.059010364 -0.05030797
-0.13741478 -0.0700814 0.032702237 -0.029139893 0.094432294 0.015392219 -0.007153552 0.0585561
0.15778367 -0.031223906 -0.08667121 -0.1745637 0.093972154 0.027210461 0.050058175 0.038384736
0.06527748 -0.0074846908 -0.01177647 0.089444906
00000000: afe3 a4bd 9901 a83d 0558 c8bc 2459 3b3e
00000010: 1487 afbc 0451 82bd 32c8 e8bd 303f 023e
00000020: 84b5 dfbd 8820 9d3d 3244 a8bd 7799 acbc
00000030: 7d71 093e 386d c23d 78d7 8fbd f500 9abd
00000040: bbc5 cb3a dd93 fe3d eba5 a93c 6a2f 6fbd
00000050: 3c76 52bd ed20 383d caca f6bc 4a5b a93d
00000060: aa45 063e 15ab fe3c 7f26 193e f7c2 5abd
00000070: 39c6 bcbd ffbc 81bd 2e7b 65be 5531 e43d
00000080: aeb7 873b 2504 bfbd a47f 90bd 9263 9a3d
00000090: fa05 043e 81db 0dbe 57a2 303c 3170 a2bc
000000a0: cbac e3bd c946 04be 8efb 033d c2fa 203e
000000b0: db1d 8ebd 18ef 2b3c 2de9 c23a b8be 08be
000000c0: 481f 803d 11f6 d7bd cd64 4abd 4761 0cbc
000000d0: b133 68bb 7769 ecbd 60fa 353c 17c7 c33c
000000e0: a3a8 0b3e 0b04 b3bd b26a 3cbb a8d5 fe3c
000000f0: 1404 03be c63a cdbb ee28 113d 2682 2a3e
00000100: 6990 1c3d 14bd 173d 7dc0 dabd 067b b03c
00000110: 88d6 753b 5f35 2cbe 546d c0bd f3ad ea3b
00000120: 92fc 30bd 32f7 17bd 15b9 9c3d 1d50 1d3c
00000130: b6ac a23d 49d4 02be dab4 713d bb0f 4ebd
00000140: 76b6 0cbe d686 8fbd c8f2 053d c9b6 eebc
00000150: b865 c13d a52f 7c3c 5868 eabb 85d8 6f3d
00000160: 0b92 213e 47c9 ffbc ad80 b1bd d4c0 32be
00000170: 7974 c03d 79e8 de3c cd09 4d3d 5039 1d3d
00000180: 33b0 853d 2342 f5bb 18f2 40bc e42e b73d

linear_layer.2.weight f4 [100, 100]
-0.053151045 0.026853496 0.06618488 -0.2501509 0.092835344 -0.04049999 0.061871532 -0.08857473
0.097076066 -0.05519582 -0.04281217 0.037040293 -0.06262737 -0.093558975 0.026276007 -0.13668549
0.04734529 -0.087169744 -0.035431538 0.12942974 0.02705217 0.047529086 -0.062522225 -0.073896624
-0.12920175 0.0021133453 -0.22335708 -0.017203134 0.02643139 -0.0009435864 0.050842844 -0.05391703
0.01451472 0.0051884353 0.068770394 -0.00917553 -0.025820233 0.29948708 0.029082477 -0.067515604
0.14224519 0.16726375 0.07662807 0.009441134 0.12293295 -0.015757719 0.1162381 0.048049707
-0.16074657 0.11911429 0.011832154 0.062073346 -0.1346066 0.04245239 -0.11480445 -0.03384761
-0.3348526 0.055590168 0.090962835 0.012023416 -0.032976154 0.0039754207 -0.025077855 -0.024712924
0.034181602 0.12513469 0.06137179 -0.056876868 0.08816957 0.028176615 0.24306084 0.25480622
0.01765962 -0.12574105 -0.20079719 0.027843997 -0.037070993 -0.016198821 -0.07691171 0.10175413
-0.08652212 0.05479333 -0.011024122 0.106610335 0.23388343 -0.13334964 0.16261788 -0.27137282
-0.07711101 -0.1140807 0.05083247 0.14302765 0.0014118222 -0.11789693 -0.031724393 -0.029005965
-0.06899605 0.019476812 0.011583644 0.054339446 -0.014688171 0.020051172 -0.04803799 -0.3337039
0.0041926485 0.07516516 0.07915823 -0.2639307 0.05020345 -0.1437096 0.11389602 -0.12740251
-0.07828763 -0.2989129 -0.08859693 0.036066204 -0.0051872623 -0.10605215 0.08218362 0.05927231
0.11250572 0.13923247 -0.0112787075 -0.076121494 0.04388111 0.05372564 -0.26728326 0.09309373
0.090831265 0.013659488 0.121152185 -0.21395741 0.27362898 0.10532837 -0.04327373 -0.081984214
-0.0029972708 0.08504777 0.23549898 -0.00021221247 0.18904798 -0.0061649545 0.14774764 0.016583513
0.12735115 0.17927544 -0.17442742 0.059492502 -0.22390398 0.07916634 -0.024218032 -0.1653393
0.08694283 0.08330815 0.22129227 0.15188397 -0.08693108 0.0170325 -0.06232218 -0.073651135
0.04879852 0.1477542 0.18921371 -0.030833123 -0.24724574 -0.061575133 0.009575673 0.018647734
0.01117868 0.042050567 -0.015134837 0.071123086 0.018122138 -0.12534288 -0.0018667907 -0.08010573
-0.0039469586 0.118088365 0.0059195943 0.09574953 0.019937368 -0.0856414 -0.12868233 -0.15142815
-0.045771964 0.13265471 0.057671737 -0.12158103 -0.025771538 -0.06482754 0.051715933 0.10435848
0.048899606 -0.1355136 -0.007947511 -0.09747119 0.054320145 0.040154707 0.017278535 -0.04757435
-0.025835862 -0.0938882 -0.032479133 0.053880036 0.15475458 -0.08481574 0.07885647 0.03271901
-0.058193926 0.20007014 -0.16115151 -0.13096744 -0.09714421 -0.16567256 -0.038491033 0.06497373
0.18306914 0.10023614 -0.16379306 -0.0076878117 -0.13269156 0.118385896 -0.25311106 0.0793472
-0.10781759 -0.081675015 0.11489536 0.016628586 -0.15735815 0.058348004 -0.13668393 0.09535288
-0.08350168 0.035935998 -0.048176322 0.12603882 -0.06490725 -0.17969364 -0.010678791 0.06860171
-0.1438902 0.012558609 -0.11576294 0.0028867475 0.0132402675 -0.09069126 -0.0046316767 0.010374919
-0.026152976 -0.037636474 -0.13930038 0.060380973 -0.109045744 0.032977622 0.022457566 0.018422255
00000000: e9b4 59bd ddfb db3c f08b 873d c713 80be
00000010: 7520 be3d 51e3 25bd 016d 7d3d ab66 b5bd
00000020: d1cf c63d 0315 62bd d05b 2fbd 90b7 173d
00000030: c742 80bd d99b bfbd c840 d73c 48f7 0bbe
00000040: 23ed 413d 0d86 b2bd a920 11bd 3b89 043e
00000050: 839c dd3c dcad 423d a70b 80bd 1d57 97bd
00000060: 774d 04be 0d80 0a3b b8b7 64be 96ed 8cbc
00000070: a486 d83c 035b 77ba 9640 503d 1bd8 5cbd
00000080: 26cf 6d3c c003 aa3b 7ed7 8c3d f654 16bc
00000090: f484 d3bc 5f56 993e 603e ee3c 9f45 8abd
000000a0: b9a8 113e 3047 2b3e 2def 9c3d fcae 1a3c
000000b0: 45c4 fb3d 5516 81bc 3e0e ee3d c5cf 443d
000000c0: c09a 24be 31f2 f33d a7db 413c 9f40 7e3d
000000d0: 50d6 09be 8fe2 2d3d 981e ebbd cba3 0abd
000000e0: cd71 abbe 84b2 633d b94a ba3d ddfd 443c
000000f0: 0112 07bd 3f44 823b 1370 cdbc c272 cabc
00000100: 0202 0c3d 4f23 003e fc60 7b3d b8f7 68bd
00000110: 3f92 b43d a5d2 e63c f1e4 783e f675 823e
00000120: e8aa 903c 43c2 00be c79d 4dbe 1819 e43c
00000130: c1d7 17bd 64b3 84bc e383 9dbd 7864 d03d
00000140: 8232 b1bd f96e 603d 859e 34bc 8556 da3d
00000150: 237f 6f3e cf8c 08be 4d85 263e 61f1 8abe
00000160: 61ec 9dbd 24a3 e9bd b535 503d d775 123e
00000170: e40c b93a f273 f1bd 70f1 01bd eb9d edbc
00000180: cd4d 8dbd d68d 9f3c 53c9 3d3c 0a93 5e3d
00000190: a8a6 70bc 5b42 a43c 7cc3 44bd 3ddb aabe
000001a0: 7c62 893b 31f0 993d b61d a23d ed21 87be
000001b0: 22a2 4d3d 9c28 13be 5142 e93d ce75 02be
000001c0: 4455 a0bd 1d0b 99be 4f72 b5bd 28ba 133d
000001d0: e9f9 a9bb df31 d9bd e34f a83d 86c7 723d
000001e0: 6669 e63d f592 0e3e 54ca 38bc 96e5 9bbd
000001f0: aebc 333d 6b0f 5c3d 5ad9 88be eda7 be3d
00000200: be05 ba3d 0ccc 5f3c a31e f83d a717 5bbe
00000210: 1919 8c3e 67b6 d73d cb3f 31bd 57e7 a7bd
00000220: dc6d 44bb 862d ae3d a526 713e 5a85 5eb9
00000230: cb95 413e 6303 cabb 284b 173e 26da 873c
00000240: 5768 023e fb93 373e 1a9d 32be 69ae 733d
00000250: 1647 65be f621 a23d e564 c6bc b54e 29be
00000260: 150f b23d 779d aa3d 719a 623e 7987 1b3e
00000270: ec08 b2bd be87 8b3c 8b45 7fbd 68d6 96bd
00000280: f5e0 473d e14c 173e 3dc1 413e bf95 fcbc
00000290: fd2d 7dbe 3536 7cbd 49e3 1c3c 22c3 983c
000002a0: c826 373c 373d 2c3d 1bf8 77bc fba8 913d
000002b0: e174 943c e259 00be 1aaf f4ba 790e a4bd
000002c0: 7d55 81bb 50d8 f13d 28f9 c13b 5418 c43d
000002d0: b153 a33c c264 afbd 4dc5 03be fb0f 1bbe
000002e0: 627b 3bbd a3d6 073e 3339 6c3d 7aff f8bd
000002f0: d51e d3bc 4dc4 84bd 16d4 533d e6b9 d53d
00000300: f44a 483d 14c4 0abe 4736 02bc fa9e c7bd
00000310: cd7e 5e3d 4379 243d b78b 8d3c 52dd 42bd
00000320: bba5 d3bc 7548 c0bd d708 05bd 50b1 5c3d
00000330: fc77 1e3e e0b3 adbd 807f a13d 5e04 063d
00000340: c15c 6ebd 30df 4c3e e704 25be 541c 06be
00000350: 8bf3 c6bd 11a6 29be c6a8 1dbd f210 853d
00000360: 7a76 3b3e 9b48 cd3d 5eb9 27be 0aea fbbb
00000370: 4ce0 07be 4e74 f23d c697 81be c980 a23d
00000380: 78cf dcbd 3b45 a7bd 424e eb3d ac38 883c
00000390: 7f22 21be 51fe 6e3d dff6 0bbe 5f48 c33d
000003a0: ee02 abbd a031 133d 8954 45bd 5210 013e
000003b0: 18ee 84bd 9c01 38be 19f6 2ebc 0e7f 8c3d
000003c0: f457 13be a0c2 4d3c 1f15 edbd 962f 3d3b
000003d0: b5ed 583c 57bc b9bd 52c5 97bb 90fb 293c
000003e0: c43e d6bc b428 1abd c2a4 0ebe 0a52 773d
000003f0: 6053 dfbd 8b13 073d eef8 b73c 45ea 963c

linear_layer.2.bias f4 [100]
-0.06543584 -0.05592506 0.018601347 0.03424805 0.01853238 0.043507513 0.05805387 0.015505053
-0.0094594415 0.032926537 -0.036632083 -0.062390648 -0.09867087 0.17222765 -0.016384762 -0.024601227
-0.071966946 0.14035153 0.009914373 -0.028863085 -0.12752414 -0.04980698 0.013610011 0.085215665
0.024970176 -0.059924897 -0.05126627 -0.06904861 0.062522024 -0.07051718 -0.11353647 -0.042261593
0.030871613 0.054195113 -0.019359179 -0.077233866 -0.031953458 -0.059301343 -0.029265035 -0.03167752
-0.03919211 -0.09827969 -0.036238205 0.03450754 0.0121092405 0.026331054 0.028465532 0.006034936
-0.0021245538 0.008606481 -0.022828689 0.0045780004 0.0819955 0.10144127 0.06618531 -0.33103374
-0.06470089 -0.018396704 0.0071301567 -0.054318048 0.16242129 0.048312623 0.15448545 0.033082765
-0.04129431 -0.026478209 -0.06979242 0.00812782 -0.2183036 0.011776537 0.016619988 0.030412393
0.017512634 -0.0076486105 -0.024933934 -0.056816142 -0.015733466 0.00901089 0.028071111 -0.09025486
-0.06916712 -0.019141804 -0.09887735 -0.039539 0.04390439 0.054831043 0.016807241 0.2115357
-0.038168296 -0.00524362 0.018377138 0.045026407 -0.016349653 -0.28303337 0.0058524664 -0.07206468
-0.042389788 0.013700269 -0.06339315 -0.019281298
00000000: 3a03 86bd ad11 65bd da61 983c af47 0c3d
00000010: 38d1 973c ef34 323d e5c9 6d3d e808 7e3c
00000020: c6fb 1abc fadd 063d 860b 16bd 568d 7fbd
00000030: f413 cabd 725c 303e 5639 86bc 8388 c9bc
00000040: 6863 93bd 50b8 0f3e e56f 223c 4772 ecbc
00000050: b095 02be 6702 4cbd 86fc 5e3c 8d85 ae3d
00000060: 418e cc3c cf73 75bd 95fc 51bd 5c69 8dbd
00000070: 8c0b 803d 506b 90bd cf85 e8bd 7e1a 2dbd
00000080: 77e6 fc3c b2fb 5d3d 2497 9ebc ca2c 9ebd
00000090: a1e1 02bd f7e5 72bd 3abd efbc 4ac0 01bd
000000a0: e887 20bd dd46 c9bd 836e 14bd c757 0d3d
000000b0: d665 463c 39b4 d73c 8c30 e93c b6c0 c53b
000000c0: 193c 0bbb 3302 0d3c 3b03 bbbc 0d03 963b
000000d0: 42ed a73d 71c0 cf3d 2a8c 873d 417d a9be
000000e0: e681 84bd afb4 96bc 17a4 e93b 9a7c 5ebd
000000f0: c451 263e 75e3 453d 6f31 1e3e cb81 073d
00000100: 3924 29bd d4e8 d8bc 54ef 8ebd 8c2a 053c
00000110: fb8a 5fbe 60f2 403c a426 883c 6923 f93c
00000120: a876 8f3c 32a1 fabb 4042 ccbc 0bb8 68bd
00000130: 78e3 80bc 69a2 133c 63f5 e53c 8ad7 b8bd
00000140: 7ea7 8dbd 46cf 9cbc 3580 cabd a5f3 21bd
00000150: 17d5 333d 8496 603d 57af 893c d19c 583e
00000160: 5c56 1cbd acd2 abbb a78b 963c 9c6d 383d
00000170: b5ef 85bc c0e9 90be 0cc6 bf3b a696 93bd
00000180: eaa0 2dbd 1877 603c 45d4 81bd d0f3 9dbc

linear_layer.3.weight f4 [100, 100]
-0.16503738 0.10214428 -0.049227264 0.16393101 -0.0038120316 -0.022871576 0.060525585 0.106076136
-0.11473408 -0.099837095 -0.21999653 0.07588461 -0.1426639 0.5912239 -0.060663477 0.03570542
-0.25366905 0.15120243 -0.093203045 0.018331772 -0.40436214 -0.12227098 -0.030865056 0.14159779
0.005027204 0.07261959 -0.016292246 -0.0715681 0.21779661 -0.013776525 -0.15703826 -0.14002305
-0.12461159 -0.034551643 -0.064405516 -0.016687097 -0.30527744 -0.20884751 -0.23976178 -0.116417766
0.1352393 -0.20309058 -0.16066694 0.14535786 0.039720815 -0.019054301 0.053653218 0.17054655
-0.24790147 0.11087341 0.12388985 -0.06295314 -0.027402405 0.3034187 0.24477994 0.0033028845
0.08785803 -0.1600799 -0.15693828 -0.13140602 0.015364421 -0.13377434 0.3060773 -0.089657046
0.0990216 0.01168927 0.049821563 -0.016745511 0.10232236 -0.01844313 0.19104737 -0.045614753
0.09922749 -0.02519858 0.19401601 0.103703275 -0.07639813 -0.012478254 0.013010037 -0.25879598
0.0050653955 0.12022088 -0.075331405 -0.019717064 0.24706165 -0.14195102 0.036906015 0.030016834
-0.12908322 0.03571878 -0.19242442 0.27286005 -0.0043327212 0.07278482 0.008417278 0.13205543
0.077932246 0.03386475 -0.18774185 -0.08515225 0.1753146 -0.012565729 0.009779877 -0.11883268
0.031442463 0.023727523 -0.10989325 0.058210347 0.004885399 -0.06802419 -0.10211984 0.1322588
-0.041073762 0.28605324 -0.10728879 -0.022240713 -0.061035383 -0.08397552 0.10113365 0.019533351
0.09817954 -0.069837786 0.0002243361 -0.17940576 -0.155012 0.10001607 0.025015144 -0.189089
0.15519775 0.09739678 -0.17400502 0.2026972 0.04841843 -0.16762953 0.071773335 -0.054410283
0.11753754 -0.2245421 0.0021967245 -0.007019191 0.015509282 0.1004828 -0.04139042 0.036311746
0.20075859 -0.0059736255 -0.17375599 0.03849226 0.03872362 0.16635442 0.059640016 0.014699643
0.11646979 -0.026163789 0.04842269 -0.0414114 -0.05424363 -0.07703833 0.1249452 0.06628781
0.06418673 -0.08819952 -0.005620831 -0.03981878 0.09040627 -0.1016516 -0.16772906 -0.024169512
-0.1302455 -0.18190786 -0.07067759 -0.019781813 0.20217083 -0.06890481 -0.08421704 -0.04699935
-0.09237269 -0.15013829 0.008786159 -0.011311734 -0.038632285 -0.044973962 -0.022139508 0.15711044
0.041573163 0.065597124 0.0015591534 -0.11157827 -0.029410353 -0.028677443 0.008996394 0.10119169
-0.030308217 -0.04494886 0.022777438 -0.117870174 0.001612963 -0.1065257 -0.20306806 0.019467046
-0.020186689 0.028350826 -0.053277027 -0.089073144 -0.014808195 -0.08528907 -0.050245542 -0.11161445
0.041727975 -0.1550065 0.053870022 0.14354396 -0.09994675 -0.0064124195 0.019876575 0.051983286
-0.008853011 -0.12518072 -0.23257004 -0.03975321 0.21548328 0.011407315 0.0279547 -0.11183712
0.009579385 -0.047344323 0.11854255 0.08356415 -0.04684132 0.08896889 -0.06710731 -0.0624839
0.055321008 -0.11164551 -0.19511414 0.20911941 0.077645734 0.05228067 0.061941084 0.25630486
0.060625393 0.064418234 -0.07080583 -0.11840231 0.08294973 -0.055058684 -0.112755254 -0.0115736835
-0.0019804926 -0.1820606 0.037185643 0.090903066 -0.07789107 -0.0422486 -0.17977256 0.20919695
00000000: 8fff 28be 0531 d13d 87a2 49bd 88dd 273e
00000010: 47d3 79bb 2c5d bbbc ade9 773d 723e d93d
00000020: b4f9 eabd 6477 ccbd c546 61be 6469 9b3d
00000030: 7c16 12be 735a 173f 447a 78bd d93f 123d
00000040: e9e0 81be cfd4 1a3e 3de1 bebd 832c 963c
00000050: 8e08 cfbe 3569 fabd b7d8 fcbc 03ff 103e
00000060: 3ebb a43b 94b9 943d 5177 85bc 4c92 92bd
00000070: 1306 5f3e efb6 61bc a3ce 20be 3462 0fbe
00000080: 5c34 ffbd 0686 0dbd 0ae7 83bd 61b3 88bc
00000090: 534d 9cbe 1fdc 55be 1d84 75be 706c eebd
000000a0: 2c7c 0a3e faf6 4fbe e085 24be b1d8 143e
000000b0: 4bb2 223d c417 9cbc 7ac3 5b3d c1a3 2e3e
000000c0: e2d9 7dbe 9911 e33d f6b9 fd3d 93ed 80bd
000000d0: 027b e0bc b259 9b3e 98a7 7a3e 3575 583b
000000e0: e9ee b33d fceb 23be 6eb4 20be 4d8f 06be
000000f0: 0dbb 7b3c 24fc 08be 2ab6 9c3e 1d9e b7bd
00000100: d6cb ca3d 5a84 3f3c b211 4c3d e22d 89bc
00000110: 638e d13d 0c16 97bc eca1 433e 89d6 3abd
00000120: c837 cb3d 416d cebc 22ac 463e 6262 d43d
00000130: 9f76 9cbd 9771 4cbc 0d28 553c e880 84be
00000140: 9efb a53b 5d36 f63d 5a47 9abd ae85 a1bc
00000150: bbfd 7c3e 9c5b 11be c32a 173d dde5 f53c
00000160: 642e 04be db4d 123d e80a 45be 50b4 8b3e
00000170: 80f9 8dbb 3510 953d 9fe8 093c 8a39 073e
00000180: f19a 9f3d c4b5 0a3d 663f 40be 4e64 aebd
00000190: ac85 333e 7de0 4dbc c73b 203c 8c5e f3bd
000001a0: d0c9 003d 3960 c23c b60f e1bd f96d 6e3d
000001b0: b215 a03b 4450 8bbd 3524 d1bd da6e 073e
000001c0: f63c 28bd 9275 923e 3aba dbbd 2832 b6bc
000001d0: 3d00 7abd 5cfb abbd 291f cf3d 6804 a03c
000001e0: 5b12 c93d 1d07 8fbd c33b 6b39 25b6 37be
000001f0: 77bb 1ebe 3ad5 cc3d 8fec cc3c 8ca0 41be
00000200: 29ec 1e3e f777 c73d 5f2e 32be db8f 4f3e
00000210: 6752 463d 13a7 2bbe e6fd 923d 51dd 5ebd
00000220: 86b7 f03d 5dee 65be ecf6 0f3b 3e01 e6bb
00000230: a51a 7e3c edc9 cd3d 0089 29bd a0bb 143d
00000240: a993 4d3e 67be c3bb 17ed 31be 0faa 1d3d
00000250: a99c 1e3d d058 2a3e 1749 743d c5d6 703c
00000260: b787 ee3d 7155 d6bc df56 463d 009f 29bd
00000270: 922e 5ebd 46c6 9dbd 45e3 ff3d e7c1 873d
00000280: 5574 833d f3a1 b4bd f32e b8bb 0419 23bd
00000290: ec26 b93d b72e d0bd 2bc1 2bbe 24ff c5bc
000002a0: 145f 05be 0e46 3abe 6abf 90bd 780d a2bc
000002b0: df05 4f3e f71d 8dbd fc79 acbd 6482 40bd
000002c0: e52d bdbd dabd 19be d2f3 0f3c da54 39bc
000002d0: e33c 1ebd 9e36 38bd ea5d b5bc 8fe1 203e
000002e0: 9f48 2a3d c957 863d 825c cc3a 2683 e4bd
000002f0: fbed f0bc f5ec eabc 9d65 133c 973d cf3d
00000300: f048 f8bc 4c1c 38bd c097 ba3c eb65 f1bd
00000310: 0f6a d33a 252a dabd 13f1 4fbe 5b79 9f3c
00000320: 8e5e a5bc fe3f e83c 0339 5abd fb6b b6bd
00000330: 129e 72bc 09ac aebd 45ce 4dbd 1e96 e4bd
00000340: f4ea 2a3d 06ba 1ebe d0a6 5c3d 30fd 123e
00000350: e2b0 ccbd 461f d2bb 33d4 a23c 6dec 543d
00000360: 380c 11bc 602f 00be d726 6ebe 43d4 22bd
00000370: a6a7 5c3e bfe5 3a3c 4101 e53c dc0a e5bd
00000380: daf2 1c3c 1fec 41bd 70c6 f23d ae23 ab3d
00000390: afdc 3fbd 5235 b63d 8f6f 89bd 1eef 7fbd
000003a0: 4898 623d 67a6 e4bd 00cc 47be 6623 563e
000003b0: ba04 9f3d 4124 563d efb5 7d3d 643a 833e
000003c0: 5552 783d b5ed 833d a602 91bd e97c f2bd
000003d0: 8ce1 a93d 3785 61bd 3aec e6bd 8c9f 3dbc
000003e0: 27cb 01bb 186e 3abe f94f 183d 632b ba3d
000003f0: 5a85 9fbd de0c 2dbd 4c16 38be ba37 563e

linear_layer.3.bias f4 [100]
0.10229475 0.0167475 -0.05966282 -0.11387099 -0.01701983 -0.03954496 0.09175568 0.046490744
0.0424666 0.00315849 -0.045369316 -0.03186868 0.011024845 0.036532555 0.008263745 0.012759331
-0.077650115 -0.009046362 0.016579552 0.04054034 -0.062222112 0.05427903 0.028678685 0.03930214
0.006451051 -0.04372756 0.067976676 0.06336192 0.03615099 0.05447688 -0.022716267 -0.003212656
0.019174391 0.029708635 0.0015264528 -0.02890504 0.016830916 -0.011650746 -0.044026345 -0.0075968807
-0.014782242 0.013928268 0.04463403 -0.01231495 0.06913664 0.058770392 0.09392159 -0.18628892
0.05204957 -0.045800906 0.033814624 -0.025676318 -0.007827713 0.0009618375 -0.021287346 -0.021643836
-0.050617553 -0.01669576 0.045797147 0.04933044 0.0051867305 0.030944698 0.007015297 0.01454538
0.025168443 0.016232004 0.06801331 -0.0018290948 0.016456291 -0.043653358 0.031445492 -0.03821042
-0.0029395155 -0.009998178 -0.03346302 0.020135516 -0.009405631 -0.31476742 0.044097155 -0.055372857
-0.009719817 0.02048788 -0.0018092406 -0.024653155 -0.047163 0.05081268 0.022562232 0.055870198
-0.032868396 0.0074505825 0.029846689 0.02808708 0.04258875 -0.035930075 0.007605758 0.042024504
0.02299966 0.021764264 -0.039727334 -0.05484534
00000000: e97f d13d 0e32 893c 0061 74bd 3235 e9bd
00000010: 2c6d 8bbc e5f9 21bd 67ea bb3d 146d 3e3d
00000020: 75f1 2d3d abfe 4e3b 2dd5 39bd bc88 02bd
00000030: 8da1 343c 29a3 153d a964 073c 830c 513c
00000040: 0607 9fbd 3137 14bc d7d1 873c a10d 263d
00000050: 9ddc 7ebd b053 5e3d 90ef ea3c 48fb 203d
00000060: 5763 d33b ac1b 33bd 5b37 8b3d e5c3 813d
00000070: 0f13 143d 2623 5f3d 7717 babc 6c8b 52bb
00000080: 9d13 9d3c 865f f33c 4213 c83a 43ca ecbc
00000090: fde0 893c c5e2 3ebc f854 34bd 41ef f8bb
000000a0: 3731 72bc 6433 643c 2cd2 363d a5c4 49bc
000000b0: 8397 8d3d 39b9 703d f659 c03d 86c2 3ebe
000000c0: ee31 553d bb99 3bbd 3481 0a3d 2457 d2bc
000000d0: cf3f 00bc d223 7c3a cd62 aebc 6a4e b1bc
000000e0: 5a54 4fbd 8cc5 88bc ca95 3b3d b70e 4a3d
000000f0: 73f5 a93b bc7f fd3c 94e0 e53b bf4f 6e3c
00000100: 0d2e ce3c fbf8 843c 904a 8b3d 3dbe efba
00000110: 58cf 863c ddcd 32bd fdcc 003d 8882 1cbd
00000120: e3a4 40bb 66cf 23bc 8510 09bd 3df3 a43c
00000130: 131a 1abc 3229 a1be 389f 343d a6ce 62bd
00000140: de3f 1fbc 33d6 a73c 0a24 edba 6af5 c9bc
00000150: fd2d 41bd f520 503d 6ed4 b83c 26d8 643d
00000160: 03a1 06bd 0424 f43b 0b81 f43c e016 e63c
00000170: 8b71 2e3d 6a2b 13bd b939 f93b e321 2c3d
00000180: c869 bc3c f84a b23c 21b9 22bd 82a5 60bd

linear_layer.4.weight f4 [100, 100]
-0.023487747 0.035969447 0.07243758 0.079221666 0.056112077 -0.0011709158 -0.05242084 0.14487275
0.081565075 0.023370482 -0.14512844 0.100103475 0.08624748 0.14988862 0.12487041 0.21749537
0.13397376 0.33219862 0.00987184 0.036490463 0.013163735 0.051710825 -0.020425191 0.13342825
0.15233037 -0.0981655 0.07106418 -0.10249616 0.16190502 -0.04107312 0.13678412 -0.06590347
-0.16248906 0.041767664 0.0059659267 0.003634401 -0.19683881 0.06166175 0.14329337 0.0257011
-0.21016829 -0.27076855 -0.28362492 0.08300937 -0.044024978 -0.2581129 0.17043996 -0.055315625
0.06922442 0.022716302 -0.052156657 -0.10096075 -0.09624871 -0.016157383 0.0095127495 0.06430515
0.05542996 0.073909335 0.08414725 0.057828728 0.083335616 0.006818524 0.014423169 0.028398983
0.120613456 0.03705325 0.011622678 -0.0131539125 -0.21760467 0.11576514 0.031956386 0.064919196
-0.09319383 0.187404 0.020070938 -0.16292799 0.08703591 0.09517409 -0.0153088365 0.032051254
0.044900667 0.07608576 0.053674776 -0.0026823257 -0.043404486 -0.009208256 0.1338069 -0.01793033
-0.03408223 -0.031801216 -0.019627526 0.12512675 -0.21106462 0.07814301 -0.08387489 -0.08426096
0.020615483 -0.01531355 -0.10120443 -0.028005572 -0.09976172 0.002557914 -0.123559326 0.016146474
-0.026448727 -0.07007091 -0.20986426 0.007769174 0.005368985 -0.06937197 -0.030175908 -0.018143717
0.13459586 0.108635806 0.22450106 -0.047251932 -0.11781557 -0.08108834 -0.06164418 0.06705358
-0.08161367 0.10487347 0.09206124 -0.07494013 0.01691755 -0.043991983 0.07270966 0.13440634
0.23129463 0.08406543 -0.068420805 0.06719823 0.056605577 0.026759775 -0.025446175 -0.22726582
-0.12118966 -0.09343074 0.109623075 0.090461224 0.04046614 0.033999164 0.0881203 0.16389193
0.04377953 -0.039375063 0.22705519 0.11193995 -0.037830867 -0.15964642 -0.039167043 0.051843815
-0.042353515 -0.085506335 -0.050420664 -0.09371828 -0.0511029 0.08838421 -0.052310135 -0.010586366
-0.009556568 0.04346588 0.016074065 -0.22219643 -0.038503524 0.14800112 0.13909411 0.14688934
-0.11841934 -0.09959814 -0.10307348 -0.11280004 0.005632293 -0.18443848 -0.0044995593 0.07803162
0.052767493 -0.2041537 -0.17265761 0.11510871 0.14588359 -0.15675148 0.03151457 -0.038097348
0.060598254 -0.027818792 -0.15493518 -0.061301112 -0.16927613 -0.1568972 0.089545265 -0.07501879
-0.13231769 0.05082811 0.026061099 0.023519468 -0.030554486 -0.08477148 0.10696341 0.026903486
0.059971202 -0.009250679 -0.18969142 0.10708681 -0.21883743 -0.08598108 0.053576183 0.11184007
-0.2715866 0.0034138316 0.067447044 0.025850069 -0.0059402604 -0.109630235 0.045658864 0.17105883
-0.16939415 -0.1817018 0.050143484 0.058954835 -0.04946076 -0.0021253522 0.17456019 0.032140005
0.017370325 -0.05023402 -0.046426084 0.0020180214 0.16504873 -0.06277694 -0.19448549 0.07019063
0.17810617 0.14990674 -0.07919134 0.03712168 -0.020657882 0.1624662 -0.13867073 -0.020687547
-0.13837366 0.055377953 0.17763689 -0.14828654 -0.14213192 0.0073414193 0.15295655 0.34664863
0.091015376 0.055920277 0.32067245 0.013262831 0.06173739 0.058898658 0.20035358 0.10071811
00000000: 6069 c0bc b354 133d 275a 943d f83e a23d
00000010: c7d5 653d 6a79 99ba 3cb7 56bd 8659 143e
00000020: 970b a73d 7473 bf3c 8d9c 14be 0d03 cd3d
00000030: 85a2 b03d 677c 193e 0fbc ff3d 1bb7 5e3e
00000040: 6b30 093e f015 aa3e 7fbd 213c 0677 153d
00000050: b5ac 573c bbce 533d bb52 a7bc 6aa1 083e
00000060: 7efc 1b3e fe0a c9bd 198a 913d 82e9 d1bd
00000070: 6eca 253e 4a3c 28bd 2311 0c3e 66f8 86bd
00000080: 8863 26be 9214 2b3d d27d c33b 212f 6e3b
00000090: 1d90 49be 0891 7c3d 7fbb 123e 1d8b d23c
000000a0: 5b36 57be 2da2 8abe 4937 91be d100 aa3d
000000b0: 8953 34bd 6027 84be d087 2e3e a392 62bd
000000c0: 88c5 8d3d 8a17 ba3c 38a2 55bd 82c4 cebd
000000d0: 0b1e c5bd 7d5c 84bc 5ddb 1b3c 6bb2 833d
000000e0: 870a 633d c75d 973d 6555 ac3d d1dd 6c3d
000000f0: ddab aa3d ed6d df3b 284f 6c3c fca4 e83c
00000100: 3004 f73d 26c5 173d 0b6d 3e3c 8283 57bc
00000110: c2d3 5ebe 4616 ed3d b3e4 023d 5bf4 843d
00000120: 68dc bebd d6e6 3f3e cf6b a43c 98d6 26be
00000130: e23f b23d a2ea c23d ead1 7abc 2d48 033d
00000140: c3e9 373d dad2 9b3d 15da 5b3d f5c9 2fbb
00000150: e7c8 31bd 3ade 16bc ad04 093e a1e2 92bc
00000160: cf99 0bbd fe41 02bd e8c9 a0bc 3a21 003e
00000170: 5321 58be 7109 a03d 99c6 abbd 0391 acbd
00000180: cde1 a83c afe5 7abc 4544 cfbd f16b e5bc
00000190: df4f ccbd ada2 273b ac0c fdbd 9c45 843c
000001a0: 00ab d8bc 5681 8fbd a8e6 56be 8e94 fe3b
000001b0: 4fee af3b e412 8ebd 7733 f7bc 22a2 94bc
000001c0: 7fd3 093e 737c de3d 9be3 653e 3e8b 41bd
000001d0: 4a49 f1bd a511 a6bd 9c7e 7cbd 6353 893d
000001e0: 1125 a7bd e7c7 d63d 9a8a bc3d 367a 99bd
000001f0: ac96 8a3c f030 34bd cde8 943d d1a1 093e
00000200: 80d8 6c3e 7f2a ac3d 3520 8cbd 3a9f 893d
00000210: 40db 673d 5137 db3c 7f74 d0bc 5fb8 68be
00000220: 4932 f8bd 9e58 bfbd 1082 e03d bc43 b93d
00000230: d3bf 253d b542 0b3d 6a78 b43d 49d3 273e
00000240: 2a52 333d bf47 21bd 2881 683e c640 e53d
00000250: 8af4 1abd 5a7a 23be 9f6d 20bd 2e5a 543d
00000260: e17a 2dbd f21d afbd e685 4ebd 5fef bfbd
00000270: 4651 51bd c802 b53d 2743 56bd 7072 2dbc
00000280: 2793 1cbc 4709 323d c2ad 833c 7687 63be
00000290: dfb5 1dbd 9b8d 173e b06e 0e3e 296a 163e
000002a0: d785 f2bd 1cfa cbbd 3018 d3bd b503 e7bd
000002b0: 198f b83b 71dd 3cbe 0a71 93bb 0bcf 9f3d
000002c0: ba22 583d ab0d 51be 28cd 30be 1ebe eb3d
000002d0: 8262 153e 7683 20be 6c15 013d f70b 1cbd
000002e0: e035 783d 3ce4 e3bc 54a7 1ebe e016 7bbd
000002f0: b956 2dbe a9a9 20be 8263 b73d 74a3 99bd
00000300: 4a7e 07be 2331 503d 167e d53c e6ab c03c
00000310: 674d fabc ab9c adbd a20f db3d b364 dc3c
00000320: 5da4 753d 2990 17bc 783e 42be 5450 db3d
00000330: eb16 60be d916 b0bd b372 5b3d 680c e53d
00000340: 660d 8bbe 97ba 5f3b ad21 8a3d 86c3 d33c
00000350: 84a6 c2bb d185 e0bd ca04 3b3d 0c2a 2f3e
00000360: a975 2dbe 0910 3abe 4163 4d3d a07a 713d
00000370: 5e97 4abd 7e49 0bbb e8bf 323e 3da5 033d
00000380: 364c 8e3c 30c2 4dbd 4729 3ebd c840 043b
00000390: 8902 293e 3291 80bd 3427 47be 1bc0 8f3d
000003a0: 7761 363e 2781 193e 122f a2bd e70c 183d
000003b0: b83a a9bc 8a5d 263e b3ff 0dbe ee78 a9bc
000003c0: d3b1 0dbe fed3 623d 72e6 353e 6dd8 17be
000003d0: 088b 11be 4a90 f03b a4a0 1c3e ee7b b13e
000003e0: 4566 ba3d a90c 653d 2e2f a43e 584c 593c
000003f0: 58e0 7c3d b83f 713d 7d29 4d3e 4c45 ce3d

linear_layer.4.bias f4 [100]
-0.007558735 -0.033770792 0.06412866 -0.01865476 -0.13525954 -0.017398242 -0.03534329 0.012220529
0.045009162 0.026479946 0.015025953 -0.094977476 -0.020473924 0.017693136 -0.026854286 0.018293938
0.036683075 -0.026179334 -0.06387017 0.0505844 0.0642352 -0.02649348 0.006656054 0.011441196
0.015114273 0.027026128 -0.01620084 -0.008301132 -0.03715846 -0.04419446 0.027107675 0.016783817
-0.022768278 -0.03721228 0.03787796 -0.07253076 0.041464016 0.15434428 0.016298946 -0.037429627
-0.0042353086 0.018139377 -0.002439849 -0.011040741 -0.052580927 0.012709306 -0.03494888 -0.019646984
-0.0043026838 -0.0201377 0.0010605087 -0.0074958303 0.0022523436 0.018466908 0.0071276417 -0.024779523
0.0010302528 0.00030461195 -0.019840743 -0.0011897581 -0.0023335828 0.07660864 0.011101345 -0.008061579
0.010246178 0.004011839 0.0020136633 -0.020359408 0.04212427 -0.024810188 -0.059179235 -0.011221398
0.019701801 0.0021705658 0.029504148 -0.03820229 -0.013873683 0.02644547 0.044982083 0.0084425295
0.050819647 -0.02954856 0.08287385 0.05488852 -0.0568498 -0.061206236 -0.006292691 -0.023342662
-0.010411651 0.012171069 0.008530047 0.01970993 -0.018885722 0.019416751 0.06048259 -0.024904536
-0.0009649777 -0.018577643 -0.04444717 -0.019049715
00000000: 44af f7bb 3e53 0abd e355 833d ded1 98bc
00000010: 7a81 0abe c286 8ebc 20c4 10bd 9d38 483c
00000020: 875b 383d 79ec d83c 6a2f 763c 8d83 c2bd
00000030: eeb8 a7bc 32f1 903c 85fd dbbc 2bdd 953c
00000040: fe40 163d 0b76 d6bc 5dce 82bd 9631 4f3d
00000050: bf8d 833d db08 d9bc 071b da3b db73 3b3c
00000060: dba1 773c e665 dd3c a0b7 84bc 7901 08bc
00000070: 7833 18bd 4005 35bd ea10 de3c 377e 893c
00000080: 8a84 babc e76b 18bd eb25 1b3d 028b 94bd
00000090: 2cd6 293d 6d0c 1e3e 5e85 853c cf4f 19bd
000000a0: 58c8 8abb 0899 943c e0e5 1fbb 39e4 34bc
000000b0: 195f 57bd b13a 503c 8f26 0fbd b6f2 a0bc
000000c0: 87fd 8cbb d1f7 a4bc c400 8b3a 959f f5bb
000000d0: 0e9c 133b ea47 973c fe8e e93b 6dfe cabc
000000e0: 8c09 873a 53b4 9f39 0e89 a2bc a8f1 9bba
000000f0: 06ef 18bb fee4 9c3d 6ae2 353c b714 04bc
00000100: 96df 273c bf75 833b aaf7 033b c6c8 a6bc
00000110: 808a 2c3d bc3e cbbc ed65 72bd f4d9 37bc
00000120: ac65 a13c 0d40 0e3b afb2 f13c 017a 1cbd
00000130: 724e 63bc 2ca4 d83c 223f 383d 8952 0a3c
00000140: 4328 503d d20f f2bc c4b9 a93d c9d2 603d
00000150: 56db 68bd 64b3 7abd eb32 cebb 1c39 bfbc
00000160: a195 2abc 2a69 473c 9cc1 0b3c b876 a13c
00000170: 3bb6 9abc e10f 9f3c 98bc 773d 9904 ccbc
00000180: 8ff6 7cba 2430 98bc 3c0e 36bd 260e 9cbc

linear_layer.5.weight f4 [100, 100]
0.058100194 0.045591414 0.022148965 0.026686631 -0.025759535 -0.22110291 -0.13466832 -0.040197257
-0.06085327 0.07450483 0.04979656 -0.04469224 -0.11499606 -0.08111483 0.015236408 0.07463044
-0.046025757 -0.059911568 0.06653961 -0.019338073 -0.1896019 0.098839544 0.0284139 0.029645732
-0.12809849 0.09942168 -0.03830498 -0.008181418 0.004333789 -0.17203939 0.07314963 0.03925687
0.092277996 -0.020616144 0.19172633 0.03061771 0.08919944 -0.27376974 0.071207486 0.2103414
-0.14137694 -0.14065194 -0.008164191 0.08637961 -0.07977386 0.10429652 0.07791468 0.15251014
-0.25040212 -0.051580235 -0.16819796 -0.011898641 -0.02030173 0.07821023 0.006248521 0.008024541
0.1376611 -0.12803209 0.04688006 0.13824935 0.012353349 0.045309037 -0.10081126 0.20949237
-0.073139735 -0.15680243 -0.07136086 0.09542274 -0.06139829 -0.124377 -0.14128102 0.12743403
0.03114085 0.08630051 -0.017880064 -0.11118708 -0.037536975 -0.026531473 0.07176219 0.1410985
-0.05012213 0.054356992 -0.048395514 -0.25475806 0.06631575 -0.20350616 0.21692094 0.071693614
-0.008336546 -0.002294965 -0.029071823 0.2668638 -0.012303281 -0.26870313 0.071577154 0.014061171
0.12638016 -0.13210241 -0.051223535 0.14447282 -0.079261415 0.06319727 -0.031058637 0.10949356
-0.058139056 0.07915489 0.16118135 0.04690638 -0.042007245 -0.14366572 -0.18468934 0.06325748
-0.08211682 -0.0021946342 -0.046706967 -0.09567999 -0.0012186061 0.13478121 0.11776558 -0.18809156
-0.18465886 -0.044304565 0.03029821 0.1212388 0.09885798 0.09710454 0.08871006 0.010122072
0.096635245 0.081905216 -0.017196208 0.07032086 -0.03791464 0.0131334085 -0.23315792 0.09852401
0.055494744 -0.13989691 -0.10180261 0.07843511 -0.0022155128 -0.101303585 0.13570832 -0.10035957
0.16141358 -0.03225515 0.17487048 0.035603058 0.06497193 0.013176194 -0.0027507332 0.23069055
-0.07768579 0.038553383 -0.06649728 0.12579145 -0.11153996 0.16396402 0.20541753 0.09432832
-0.02669855 -0.12911355 0.0036697015 0.10853732 0.083425105 -0.0009546272 0.17367378 -0.040073946
-0.16556185 0.06357235 0.14915325 -0.077100225 0.0009360687 0.035151828 0.037210103 0.18018867
-0.06583444 -0.02641157 -0.01245604 -0.111082576 -0.12297548 -0.0011937241 -0.09799808 -0.07417708
-0.10288889 0.16203271 -0.05500203 0.08062932 0.08434036 0.029476259 -0.1850167 0.08032906
0.07117121 -0.09144292 -0.0081931725 0.011986365 -0.017149307 -0.0842847 0.037324406 -0.121857844
-0.08035068 0.032518562 -0.038549453 -0.15735798 -0.07597707 0.12377642 -0.097830445 -0.16811076
0.07428877 0.010414629 0.024525367 -0.13528311 0.0084532965 0.034704383 0.121543705 -0.17512064
0.17303553 0.0029592963 0.03030265 -0.018031133 0.10850085 -0.07924123 -0.047583215 0.12875655
0.108046025 -0.083494805 -0.11178231 -0.018041583 -0.0134761 0.17336962 0.18098076 -0.028989267
-0.065762274 0.10976798 0.11690807 -0.022033626 0.14593412 0.17897128 0.108038194 0.15087302
-0.09242013 -0.0643228 -0.12310509 0.08236412 -0.052996702 -0.09220691 0.14291367 -0.11658666
-0.073426954 0.1109722 0.08899588 -0.08525874 -0.13778633 0.018298548 -0.018473836 -0.10408515
00000000: 78fa 6d3d 10be 3a3d bf71 b53c ec9d da3c
00000010: a905 d3bc cd68 62be 7ee6 09be e1a5 24bd
00000020: 4741 79bd fd95 983d 7af7 4b3d 360f 37bd
00000030: 0e83 ebbd 881f a6bd 21a2 793c d8d7 983d
00000040: 8185 3cbd d565 75bd eb45 883d e16a 9ebc
00000050: 0027 42be 636c ca3d 44c4 e83c 9bdb f23c
00000060: 402c 03be 989d cb3d afe5 1cbd 5b0b 06bc
00000070: 7502 8e3b 182b 30be 79cf 953d d0cb 203d
00000080: 3ffc bc3d 30e3 a8bc e853 443e fed1 fa3c
00000090: 32ae b63d 8c2b 8cbe 3bd5 913d bc63 573e
000000a0: 1ec5 10be 1007 10be 19c3 05bc cbe7 b03d
000000b0: 7a60 a3bd 6a99 d53d bb91 9f3d 9e2b 1c3e
000000c0: b534 80be cc45 53bd 163c 2cbe 84f2 42bc
000000d0: d04f a6bc af2c a03d 65c0 cc3b 5d79 033c
000000e0: 08f7 0c3e d81a 03be 4e05 403d 3d91 0d3e
000000f0: b365 4a3c f895 393d 2276 cebd 2b85 563e
00000100: 49ca 95bd d190 20be a425 92bd ff6c c33d
00000110: c67c 7bbd 5eb9 febd f9ab 10be 117e 023e
00000120: 191b ff3c 52be b03d 3679 92bc 0db6 e3bd
00000130: 5fc0 19bd 8858 d9bc 0ef8 923d 207c 103e
00000140: dd4c 4dbd 70a5 5e3d 603a 46bd a66f 82be
00000150: 8dd0 873d eb63 50be 8620 5e3e 1ad4 923d
00000160: 0296 08bc 2067 16bb 0828 eebc 5fa2 883e
00000170: b393 49bc 7593 89be 0b97 923d d360 663c
00000180: cd69 013e db45 07be c5cf 51bd aff0 133e
00000190: cf53 a2bd 926d 813d af6e febc 293e e03d
000001a0: 3823 6ebd f51b a23d b90c 253e e820 403d
000001b0: ca0f 2cbd 1b1d 13be 341f 3dbe 238d 813d
000001c0: dd2c a8bd dad3 0fbb ce4f 3fbd dff3 c3bd
000001d0: a3b9 9fba 1604 0a3e 152f f13d 139b 40be
000001e0: 3617 3dbe b478 35bd f433 f83c 0c4c f83d
000001f0: 0d76 ca3d bfde c63d 9fad b53d 0cd7 253c
00000200: b3e8 c53d ecbd a73d 10df 8cbc 6204 903d
00000210: 624c 1bbd 822d 573c f3c0 6ebe f5c6 c93d
00000220: 754e 633d 2341 0fbe e37d d0bd 96a2 a03d
00000230: 2332 11bb 4178 cfbd 1ff7 0a3e 5189 cdbd
00000240: 9a49 253e fa1d 04bd 3f11 333e 83d4 113d
00000250: 0110 853d f7e0 573c a545 34bb 253a 6c3e
00000260: ba19 9fbd 27ea 1d3d ba2f 88bd 79cf 003e
00000270: 106f e4bd 2fe6 273e f958 523e 352f c13d
00000280: ebb6 dabc 5836 04be 607f 703b d048 de3d
00000290: c8da aa3d f23f 7aba 8ad7 313e 9424 24bd
000002a0: 0c89 29be 3832 823d a1bb 183e b9e6 9dbd
000002b0: 8262 753a 5dfb 0f3d 9f69 183d 6183 383e
000002c0: 35d4 86bd 145d d8bc 6b14 4cbc 437f e3bd
000002d0: 92da fbbd bc76 9cba 38b3 c8bd 27ea 97bd
000002e0: 69b7 d2bd e7eb 253e cf49 61bd fc20 a53d
000002f0: a3ba ac3d 3278 f13c 0575 3dbe 9083 a43d
00000300: 36c2 913d 6d46 bbbd a83c 06bc 7562 443c
00000310: b47c 8cbc 759d acbd 7ae1 183d 9b90 f9bd
00000320: e68e a4bd 2f32 053d 08e6 1dbd 7322 21be
00000330: de99 9bbd 7e7e fd3d 545b c8bd 3a25 2cbe
00000340: b624 983d 1fa2 2a3c 6ce9 c83c a887 0abe
00000350: b27f 0a3c 2f26 0e3d e8eb f83d d352 33be
00000360: 3a30 313e c1f0 413b 433d f83c 07b6 93bc
00000370: b235 de3d 3a49 a2bd 9ee6 42bd c2d8 033e
00000380: 3c47 dd3d 53ff aabd 20ee e4bd f1cb 93bc
00000390: dcca 5cbc ce87 313e 0553 393e e67a edbc
000003a0: 5fae 86bd 09ce e03d 806d ef3d dd7f b4bc
000003b0: c16f 153e 3f44 373e 2143 dd3d 757e 1a3e
000003c0: c446 bdbd acbb 83bd 851e fcbd 85ae a83d
000003d0: 1213 59bd fad6 bcbd f657 123e fdc4 eebd
000003e0: df60 96bd 6545 e33d 7943 b63d 229c aebd
000003f0: dc17 0dbe d6e6 953c 7156 97bc 982a d5bd
