ac_2d_model_para_5/checkpoint_550.pth (torch, 291130 bytes, 17 tensors)

linear_layer.0.weight f4 [100, 3]
0.21690656 0.15870191 -0.1918867 0.011972502 -0.073483184 0.110315405 0.050405327 -0.06279984
-0.28239107 0.19783506 -0.035607025 0.21835962 -0.15336838 -0.15428308 -0.36126587 -0.05238763
-0.20063384 -0.12995058 -0.10162679 0.1360069 -0.12441145 -0.075146355 -0.04532829 -0.3288184
0.522501 0.049807798 0.02228845 -0.14810051 -0.18801278 -0.07520304 0.045684315 -0.25033528
0.13493691 -0.0979245 0.06603207 -0.2399454 0.35693464 -0.004525996 -0.11182174 0.24673942
-0.009686917 0.23932755 0.18601711 0.15760285 0.17964996 -0.17658056 -0.19735444 0.022684352
0.30878744 0.021986518 -0.28857425 -0.20897253 -0.15009098 -0.15617362 -0.25735188 -0.017490521
0.09900472 0.15151131 0.1617347 -0.23613493 0.088425055 -0.20282379 0.07565118 0.41873726
-0.08540824 0.08043694 -0.2715241 -0.15423895 0.023219991 0.13879012 0.024844665 -0.47912
0.22848496 0.034367215 0.30671293 0.17193265 0.08325751 0.011178155 -0.30304298 -0.21624136
-0.09118569 0.053553175 0.27041814 0.054785535 0.20183878 -0.21193479 0.05399719 0.09026221
-0.018943079 -0.102331914 -0.04708041 -0.16220371 -0.13965799 0.40728477 0.016505316 0.32475278
0.09096609 -0.22575611 0.12807311 -0.37848884 0.017198231 -0.10976965 0.06375316 -0.09749498
-0.2899724 0.124610744 -0.1443254 0.20615543 -0.15501389 0.26862472 0.019460961 0.26356485
0.14734748 0.06781296 -0.023984248 -0.09216109 -0.39047647 -0.12035363 -0.028293468 -0.15248975
0.09381158 0.09636852 -0.1280993 -0.16631338 -0.010740961 0.13120107 -0.23336187 0.17210597
-0.12630534 0.1355834 -0.06671725 0.23821075 -0.15492465 0.200361 0.12701367 -0.072924376
-0.11214327 0.14422189 -0.4476622 0.15772729 -0.28867066 0.3545639 0.0011641082 -0.12924127
0.08919205 0.09561864 0.09394017 0.34910017 -0.10350864 -0.11520068 0.20174327 0.112571
-0.12683713 0.18165772 -0.056179885 -0.1471585 -0.106355384 0.2558678 0.094556816 0.01694277
0.05745602 0.25446 0.1133401 0.085850015 0.004370339 0.3266552 -0.07352455 0.1147951
0.5406482 0.014801324 -0.011752507 0.33617884 -0.1196984 -0.2584187 0.31550357 0.0084632505
-0.1418654 -0.05291015 -0.18289912 0.2630437 -0.12938473 0.11875733 -0.008096784 0.008543289
0.28829178 0.026115447 0.31808883 -0.15088184 -0.063193284 -0.0038932867 0.11857767 -0.1943225
0.37979382 -0.1542258 0.08052281 0.029209834 0.10441667 0.32184038 0.13621813 -0.027936334
-0.3744532 -0.33742025 -0.028034022 0.12286324 0.37337372 -0.11877638 0.018618625 -0.093991876
0.10449069 0.025597971 -0.26765105 0.015608297 -0.03906053 0.11574177 0.15549994 0.091162376
-0.08352449 0.26753697 -0.09752116 0.0999376 0.15305427 -0.20655094 0.47881037 0.03236533
-0.08148758 -0.029394932 0.35372788 0.14632541 -0.16477552 -0.41328526 0.25197315 -0.37128896
-0.096662514 -0.17624275 -0.015877688 0.2183245 -0.0068157436 0.028616643 -0.20060816 0.051839486
0.1467275 -0.057399835 -0.036537673 -0.1362752 -0.2036276 -0.07911378 -0.24927104 0.16200167
0.085447595 0.1740073 -0.111991264 0.4774711 0.271278 -0.034381744 -0.26792812 0.20457311
00000000: c11c 5e3e c182 223e f27d 44be 5028 443c
00000010: 5a7e 96bd 0bed e13d d175 4e3d 349d 80bd
00000020: 9095 90be 4695 4a3e acd8 11bd aa99 5f3e
00000030: 9a0c 1dbe 62fc 1dbe d7f7 b8be 6994 56bd
00000040: f572 4dbe c411 05be b521 d0bd 6545 0b3e
00000050: 6ecb febd 55e6 99bd 28aa 39bd e35a a8be
00000060: a0c2 053f 4303 4c3d 4496 b63c a9a7 17be
00000070: 6c86 40be 0d04 9abd 7a1f 3b3d f22b 80be
00000080: e72c 0a3e a48c c8bd d23b 873d 3fb4 75be
00000090: 23c0 b63e ce4e 94bb cc02 e5bd 42a9 7c3e
000000a0: e0b5 1ebc 4812 753e 457b 3e3e a462 213e
000000b0: 29f6 373e 89d1 34be 4817 4abe 89d4 b93c
000000c0: 6319 9e3e 121d b43c 01c0 93be e5fc 55be
000000d0: 73b1 19be faeb 1fbe a0c3 83be 4848 8fbc
000000e0: fdc2 ca3d c825 1b3e c89d 253e 5bcd 71be
000000f0: 3218 b53d 0ab1 4fbe 02ef 9a3d bb64 d63e
00000100: 84ea aebd 1fbc a43d 3505 8bbe d1f0 1dbe
00000110: da37 be3c ff1e 0e3e 0a87 cb3c 374f f5be
00000120: f6f7 693e a3c4 0c3d 7a09 9d3e 1d0f 303e
00000130: ea82 aa3d 9524 373c 7328 9bbe 606e 5dbe
00000140: 90bf babd 935a 5b3d 3f74 8a3e cc66 603d
00000150: d3ae 4e3e 6f05 59be 282c 5d3d 65db b83d
00000160: 842e 9bbc 6593 d1bd 63d7 40bd bb18 26be
00000170: 8102 0fbe a187 d03e 2836 873c ff45 a63e
00000180: 6e4c ba3d 9c2c 67be 9925 033e 4ac9 c1be
00000190: 4ee3 8c3c e9ce e0bd 0491 823d 73ab c7bd
000001a0: 4377 94be eb33 ff3d 0aca 13be 691a 533e
000001b0: f6bb 1ebe 2e89 893e 986c 9f3c f9f1 863e
000001c0: 42e2 163e 85e1 8a3d 9d7a c4bc f4be bcbd
000001d0: 88ec c7be f77b f6bd b4c7 e7bc 4626 1cbe
000001e0: 4920 c03d dc5c c53d 772c 03be 0e4e 2abe
000001f0: dbfa 2fbc 9359 063e 6af6 6ebe 8c3c 303e
00000200: 3056 01be 60d6 0a3e 0ea3 88bd 85ed 733e
00000210: 91a4 1ebe 6f2b 4d3e df0f 023e 6059 95bd
00000220: 5fab e5bd e7ae 133e fb33 e5be 4383 213e
00000230: a4cc 93be 6689 b53e fd94 983a d357 04be
00000240: 52aa b63d b5d3 c33d b463 c03d 42bd b23e
00000250: 56fc d3bd 56ee ebbd ca95 4e3e a08b e63d
00000260: 98e1 01be 7b04 3a3e e11c 66bd b8b0 16be
00000270: dad0 d9bd 1b01 833e 01a7 c13d 90cb 8a3c
00000280: 0157 6b3d 9548 823e db1e e83d 22d2 af3d
00000290: 1035 8f3b 5a3f a73e 0a94 96bd b219 eb3d
000002a0: ec67 0a3f 4181 723c 968d 40bc a21f ac3e
000002b0: 6f24 f5bd 754f 84be af89 a13e 72a9 0a3c
000002c0: 2a45 11be 50b8 58bd e849 3bbe aaad 863e
000002d0: 6e7d 04be 0b37 f33d 60a8 04bc 27f9 0b3c
000002e0: fb9a 933e 10f0 d53c 8adc a23e c580 1abe
000002f0: 7b6b 81bd 8326 7fbb d9d8 f23d 7afc 46be
00000300: 5674 c23e 5eed 1dbe 25e9 a43d 7649 ef3c
00000310: 68d8 d53d 43c8 a43e c47c 0b3e bdda e4bc
00000320: 54b8 bfbe 59c2 acbe 9ba7 e5bc b99f fb3d
00000330: d72a bf3e 0841 f3bd 1686 983c d07e c0bd
00000340: 37ff d53d d6b2 d13c 8f09 89be f1b9 7f3c
00000350: effd 1fbd 050a ed3d 603b 1f3e 57b3 ba3d
00000360: e30e abbd 9bfa 883e 2db9 c7bd 16ac cc3d
00000370: 42ba 1c3e 1782 53be a226 f53e 8291 043d
00000380: f6e2 a6bd a4cd f0bc d21b b53e 54d6 153e
00000390: eaba 28be 209a d3be a002 813e 9619 bebe
000003a0: fff6 c5bd fb78 34be ed11 82bc 7590 5f3e
000003b0: 9a56 dfbb 736d ea3c 3a6c 4dbe a455 543d
000003c0: bc3f 163e 171c 6bbd 87a8 15bd ba8b 0bbe
000003d0: c183 50be 6806 a2bd e840 7fbe c4e3 253e
000003e0: 26ff ae3d f82e 323e ad5b e5bd 1877 f43e
000003f0: f3e4 8a3e dfd3 0cbd e02d 89be 9d7b 513e

linear_layer.0.bias f4 [100]
-0.021133138 -0.06951585 0.19100122 -0.02688525 0.024364017 -0.023464294 0.07640304 0.12998122
-0.18652855 0.056650307 0.0543486 -0.12089166 0.16080429 0.17783655 0.04133058 -0.00064830494
-0.13314058 0.016833676 -0.024299258 -0.0028299878 -0.10905744 -0.06507564 -0.045350693 0.018923411
0.0434151 0.15147373 0.09912845 -0.033645794 0.05268649 -0.107567854 -0.0677975 -0.01664197
0.10515181 -0.09723832 -0.079369776 0.06252485 -0.02724 -0.15054598 0.15436946 0.1468258
0.087781325 -0.046641227 0.072832435 -0.2665657 0.019322654 -0.10825891 -0.128711 0.014625465
-0.086333126 -0.16336596 0.19774432 0.07511177 -0.004419502 -0.23022062 0.09518448 0.10588268
0.029561471 -0.01032101 -0.0071531506 0.00953195 -0.108754866 -0.018409327 0.0042506536 0.15430799
-0.12245377 0.082180195 -0.18610458 0.0026464988 -0.0822561 0.09600432 0.1672849 -0.08675394
-0.097201824 0.19447641 -0.013351739 0.028815974 0.014898795 0.07762972 -0.10931372 -0.02815635
0.15308332 0.122040324 -0.05464698 0.013509479 0.032796506 0.04004425 0.114409275 0.1470744
-0.10685936 -0.10048469 -0.13340743 -0.19127446 -0.06826349 0.12502833 -0.03243107 0.041875318
0.22050986 0.05765572 -0.07258601 0.05233848
00000000: 671f adbc 535e 8ebd d395 433e 753e dcbc
00000010: 0c97 c73c 3138 c0bc 3279 9c3d cc19 053e
00000020: 5701 3fbe 270a 683d a39c 5e3d 0c96 f7bd
00000030: e1a9 243e c91a 363e 414a 293d 02f3 29ba
00000040: 0156 08be c7e6 893c 3d0f c7bc 5177 39bb
00000050: 8259 dfbd 6146 85bd a6c1 39bd 4505 9b3c
00000060: 08d4 313d ee1b 1b3e db03 cb3d 2cd0 09bd
00000070: cacd 573d 894c dcbd 6ad9 8abd be54 88bc
00000080: d559 d73d e224 c7bd 9f8c a2bd 070d 803d
00000090: 6c26 dfbc ba28 1abe 0713 1e3e 8159 163e
000000a0: b2c6 b33d df0a 3fbd 2c29 953d 4d7b 88be
000000b0: 8b4a 9e3c d9b6 ddbd d1cc 03be a59f 6f3c
000000c0: 6ccf b0bd 6849 27be 7d7d 4a3e 33d4 993d
000000d0: 78d1 90bb f4be 6bbe 15f0 c23d 05d9 d83d
000000e0: e62a f23c 7419 29bc fa64 eabb e52b 1c3c
000000f0: dfba debd 28cf 96bc 1149 8b3b ea02 1e3e
00000100: 0bc9 fabd 174e a83d 3392 3ebe e270 2d3b
00000110: e375 a8bd ea9d c43d bc4c 2b3e 0dac b1bd
00000120: c011 c7bd d324 473e 41c1 5abc 7a0f ec3c
00000130: 131a 743c 55fc 9e3d dfdf dfbd 25a8 e6bc
00000140: e0c1 1c3e 47f0 f93d 83d5 5fbd dd56 5d3c
00000150: a155 063d 7105 243d 694f ea3d ac9a 163e
00000160: 15d9 dabd ebca cdbd f59b 08be 74dd 43be
00000170: bbcd 8bbd 6d07 003e 71d6 04bd 7485 2b3d
00000180: 56cd 613e 6728 6c3d f9a7 94bd e060 563d

linear_layer.1.weight f4 [100, 100]
0.056696553 0.15088116 -0.06441403 -0.022288647 -0.015744265 0.004036794 0.10013626 0.05723244
0.15108068 -0.15187092 -0.07944429 0.009806753 -0.23367845 -0.06847436 0.06695747 0.067551255
-0.22147533 -0.15413529 0.20531753 0.0032542506 -0.09074554 0.110601254 0.034059633 0.15366231
-0.06700218 0.0054940996 -0.086068854 -0.0132765 -0.2361905 -0.091246136 -0.013467246 0.00032145955
-0.04243319 0.22421901 -0.0833377 -0.0633272 -0.0910462 -0.011126049 0.1297117 -0.14236878
0.052035008 0.15390219 -0.13870057 -0.056895126 0.0021666382 -0.034484725 0.05589956 0.035870723
0.002215355 0.12267012 -0.01198725 -0.2836229 0.11607588 0.09218808 -0.03281629 -0.21649629
-0.133921 -0.07657542 0.16415702 0.16950113 0.013394667 0.0638405 -0.010531584 -0.1599138
-0.023683842 0.1828992 -0.015116671 0.050379217 0.024318151 -0.0881351 0.010669569 0.09893862
-0.0725784 0.042440526 -0.2446034 0.03017013 -0.0393416 0.0075734053 -0.17461704 -0.11756024
-0.031715684 -0.013092007 -0.025452178 -0.09984272 0.0600951 0.12641895 -0.027800579 -0.076181166
0.093365096 0.12071982 -0.006540327 0.13341725 -0.08735319 -0.064995706 -0.008485416 -0.10466678
-0.062002882 -0.018493077 -0.1309085 -0.0786641 0.049058244 0.21821932 -0.026960524 0.06147627
-0.056506313 -0.1689999 0.13394347 -0.28067052 -0.047609124 -0.07219492 -0.067139596 0.039346594
0.10786878 0.11873219 0.16011737 -0.14997712 -0.041052412 -0.28691077 0.012523161 0.18993355
-0.11227061 -0.022073524 0.028947905 0.1194601 0.18904771 0.07895088 -0.09262219 0.120643005
-0.12357033 -0.079483174 -0.06933671 -0.10194048 0.17390995 -0.112763844 -0.1071342 0.035580195
0.18886814 0.019583998 -0.032915145 -0.08655282 0.2022589 -0.09952229 0.12553068 -0.17585826
0.2008007 -0.23000826 -0.2695665 -0.06549288 0.03994453 -0.09183987 -0.017549219 -0.034941398
0.087841555 -0.16668977 -0.041721053 0.095396824 0.026253935 -0.07442938 -0.11941073 -0.042613324
0.13452047 -0.08834122 -0.020106792 0.05682783 -0.13891026 0.14838837 -0.036428787 -0.18392804
-0.3736533 0.23164162 -0.020724425 0.07956986 0.04706027 0.13453004 0.11301204 0.18734153
0.007042126 -0.005531472 -0.11058224 0.048710465 0.20250697 -0.20576231 -0.04024274 0.08111223
0.016141409 -0.07679856 0.03172994 0.038655493 0.013502504 -0.13375883 0.082579896 -0.12534289
0.030616175 -0.097115666 0.12189845 -0.13062648 0.16008158 0.14145306 -0.11697798 0.19901735
-0.11128944 -0.049903005 0.10531634 -0.065283395 -0.12851489 0.04814736 -0.032994986 0.15134804
-0.18851309 -0.027471272 0.085324004 0.036994096 -0.10143814 0.009971599 0.02904909 -0.02992608
-0.017308237 0.12484851 -0.16592449 -0.16756265 0.07584725 0.07662878 0.037703708 -0.1342748
-0.15951085 -0.16675477 0.045300674 0.07668215 -0.039560065 0.100345984 -0.1260431 -0.07444015
0.032955118 0.00744059 0.017251357 0.0070276815 -0.10354803 -0.08456604 -0.06576407 0.016039455
0.22980165 0.19746444 -0.02178876 0.13818727 -0.12518941 0.14554662 0.1121642 -0.13404408
-0.068432674 -0.09133809 0.048923496 0.0076147225 -0.04665359 -0.06388654 -0.14776598 -0.0323816
00000000: a53a 683d 9780 1a3e 81eb 83bd ae96 b6bc
00000010: 1efa 80bc 1547 843b 3d14 cd3d 906c 6a3d
00000020: e5b4 1a3e 0d84 1bbe b0b3 a2bd 81ac 203c
00000030: 6749 6fbe 493c 8cbd ff20 893d 5058 8a3d
00000040: 6eca 62be a4d5 1dbe c23e 523e 4445 553b
00000050: ccd8 b9bd e982 e23d 1d82 0b3d a759 1d3e
00000060: 7038 89bd d907 b43b de44 b0bd ad85 59bc
00000070: ecdb 71be 41df babd b9a5 5cbc 9289 a839
00000080: 6dce 2dbd ab99 653e f5ac aabd b1b1 81bd
00000090: 6e76 babd 084a 36bc 25d3 043e 1fc9 11be
000000a0: a922 553d 8998 1d3e 8607 0ebe dd0a 69bd
000000b0: 28fe 0d3b db3f 0dbd f0f6 643d 2eed 123d
000000c0: 7d2f 113b 793a fb3d 2c66 44bc 0537 91be
000000d0: 31b9 ed3d 1bcd bc3d 606a 06bd 34b1 5dbe
000000e0: 9622 09be 93d3 9cbd c718 283e b491 2d3e
000000f0: 4e75 5b3c cfbe 823d aa8c 2cbc 71c0 23be
00000100: 9e04 c2bc ee49 3b3e eaab 77bc 705a 4e3d
00000110: dc36 c73c 2d80 b4bd 6acf 2e3c 55a0 ca3d
00000120: fca3 94bd 1ed6 2d3d 5079 7abe 5927 f73c
00000130: a824 21bd 542a f83b cfce 32be 6cc3 f0bd
00000140: 4ee8 01bd db7f 56bc 1681 d0bc 577a ccbd
00000150: 4826 763d f873 013e 0abe e3bc df04 9cbd
00000160: 3336 bf3d f43b f73d 3d50 d6bb 889e 083e
00000170: 3be6 b2bd 781c 85bd 6a06 0bbc 895b d6bd
00000180: bcf6 7dbd cb7e 97bc e10c 06be a51a a1bd
00000190: 4cf1 483d e374 5f3e 51dc dcbc 8bce 7b3d
000001a0: 2a73 67bd 4f0e 2dbe 7a28 093e 0cb4 8fbe
000001b0: c901 43bd eeda 93bd 7c80 89bd e529 213d
000001c0: 4fea dc3d dd29 f33d cff5 233e 9a93 19be
000001d0: 9326 28bd f8e5 92be f22d 4d3c f17d 423e
000001e0: 22ee e5bd 89d3 b4bc 2824 ed3c 7fa7 f43d
000001f0: b995 413e 00b1 a13d b4b0 bdbd ae13 f73d
00000200: 7112 fdbd 13c8 a2bd 6800 8ebd 2cc6 d0bd
00000210: 7315 323e bbf0 e6bd 2d69 dbbd 8abc 113d
00000220: a666 413e 9f6e a03c 08d2 06bd 9b42 b1bd
00000230: f51c 4f3e 58d2 cbbd 1d8b 003e 3014 34be
00000240: b39e 4d3e 4987 6bbe 9f04 8abe 2221 86bd
00000250: e09c 233d 8b16 bcbd 61c3 8fbc b61e 0fbd
00000260: 46e6 b33d b9b0 2abe b2e3 2abd 695f c33d
00000270: 7e12 d73c 6e6e 98bd 9d8d f4bd 4f8b 2ebd
00000280: bcbf 093e 3eec b4bd 00b7 a4bc 4cc4 683d
00000290: 7e3e 0ebe 1ff3 173e 5a36 15bd a257 3cbe
000002a0: 7c4f bfbe 7633 6d3e 45c6 a9bc 86f5 a23d
000002b0: 45c2 403d 3ec2 093e db72 e73d 75d6 3f3e
000002c0: a2c1 e63b 5a41 b5bb f178 e2bd a084 473d
000002d0: fd5d 4f3e 5bb3 52be 92d5 24bd 2b1e a63d
000002e0: fd3a 843c 9048 9dbd 41f7 013d 3955 1e3d
000002f0: 9b39 5d3c 13f8 08be a61f a93d e359 00be
00000300: c6ce fa3c 94e4 c6bd e5a5 f93d f3c2 05be
00000310: 6dec 233e 12d9 103e 2792 efbd 34cb 4b3e
00000320: b8eb e3bd 1867 4cbd 18b0 d73d 4db3 85bd
00000330: 6899 03be 2b36 453d c025 07bd fbfa 1a3e
00000340: 9309 41be 6f0b e1bc 5abe ae3d 1f87 173d
00000350: cdbe cfbd eb5f 233c 5bf8 ed3c 8a27 f5bc
00000360: 01ca 8dbc 93b0 ff3d 1ce8 29be 8b95 2bbe
00000370: ce55 9b3d 8def 9c3d 346f 1a3d 557f 09be
00000380: d056 23be c3c1 2abe 338d 393d 880b 9d3d
00000390: bc09 22bd 3282 cd3d 7111 01be 1474 98bd
000003a0: f2fb 063d 31d0 f33b b852 8d3c 7748 e63b
000003b0: fd10 d4bd f630 adbd 50af 86bd 2d65 833c
000003c0: 2051 6b3e 1e34 4a3e 577e b2bc f780 0d3e
000003d0: a731 00be 2c0a 153e 58b6 e53d da42 09be
000003e0: 6e26 8cbd 770f bbbd 0164 483d ec84 f93b
000003f0: d617 3fbd f2d6 82bd f74f 17be 92a2 04bd

linear_layer.1.bias f4 [100]
-0.0718491 0.08033971 -0.025001446 0.17340468 -0.020344093 -0.05802248 -0.11222181 0.11918421
-0.1076725 0.064296216 -0.0779248 -0.02067914 0.12582731 0.09390858 -0.06822516 -0.072856426
-3.236481e-05 0.1193024 0.016378498 -0.055564437 -0.048176043 0.045223534 -0.028967252 0.07217752
0.10215077 0.026476778 0.14354637 -0.05080526 -0.08948355 -0.06925344 -0.20916252 0.08603908
0.005755796 -0.06616058 -0.06539314 0.057671536 0.124721 -0.1158655 0.01187064 -0.020300372
-0.10919635 -0.11267469 0.031233072 0.15138227 -0.06784223 0.011048319 0.001027927 -0.11561299
0.043805845 -0.10135853 -0.044795725 -0.0074075046 -0.003066706 -0.11198382 0.012977549 0.026638972
0.12578925 -0.07778759 -0.0030720285 0.031582955 -0.10804022 -0.0058299094 0.033724606 0.15767461
0.0334763 0.038237702 -0.09638428 0.021332508 0.0040794685 -0.1581376 -0.0891119 0.0081488285
-0.041708842 -0.03480356 0.06858986 0.009390354 0.07725295 -0.11565996 0.059334844 -0.05311942
-0.13535206 -0.066638105 0.028846422 -0.029657984 0.088600434 0.0019565595 -0.0026035619 0.055337023
0.14891191 -0.024833597 -0.081509374 -0.14661643 0.08877633 0.027562378 0.047505986 0.037138827
0.06404809 -0.003007468 -0.009022253 0.08361232
00000000: 9f25 93bd 2589 a43d d5cf ccbc ff90 313e
00000010: a8a8 a6bc fba8 6dbd 8cd4 e5bd da16 f43d
00000020: 6683 dcbd bcad 833d 0a97 9fbd 4d67 a9bc
00000030: e0d8 003e 2453 c03d a2b9 8bbd c035 95bd
00000040: 73bf 07b8 d154 f43d 332c 863c 8997 63bd
00000050: 3e54 45bd 503c 393d bb4c edbc cfd1 933d
00000060: 6c34 d13d d4e5 d83c d2fd 123e 2d19 50bd
00000070: 2743 b7bd bfd4 8dbd b32e 56be 4235 b03d
00000080: 1e9b bc3b 337f 87bd d7ec 85bd fd38 6c3d
00000090: b96d ff3d e44a edbd 137d 423c f74c a6bc
000000a0: 56a2 dfbd fdc1 e6bd 80dc ff3c f403 1b3e
000000b0: def0 8abd 0204 353c 82bb 863a 81c6 ecbd
000000c0: c26d 333d 1095 cfbd b97b 37bd a7ba f2bb
000000d0: cafa 48bb c657 e5bd c99f 543c f939 da3c
000000e0: e6ce 003e 1a4f 9fbd 1654 49bb 215d 013d
000000f0: 3144 ddbd d308 bfbb d022 0a3d 7475 213e
00000100: 721e 093d 239f 1c3d 1f65 c5bd 83c1 ae3c
00000110: 10ad 853b d3ee 21be 4d80 b6bd aa82 053c
00000120: e4d6 2abd 2d8e 0ebd d778 8c3d 00da 193c
00000130: cb36 9e3d 21df ecbd 1809 733d c093 59bd
00000140: bb99 0abe 8f79 88bd 554f ec3c 4df5 f2bc
00000150: 2574 b53d 9f39 003b 85a0 2abb 13a9 623d
00000160: 5d7c 183e d46f cbbc 63ee a6bd 9e22 16be
00000170: 5dd0 b53d 7fca e13c a395 423d e21e 183d
00000180: a52b 833d f118 45bb 12d2 13bc f03c ab3d

linear_layer.2.weight f4 [100, 100]
-0.053274337 0.02392807 0.0688691 -0.23624307 0.08977442 -0.041161258 0.063859776 -0.08500205
0.09677198 -0.050838303 -0.041595675 0.037156526 -0.062466748 -0.09268894 0.025450502 -0.138815
0.047818422 -0.082615025 -0.036669612 0.13043126 0.025370192 0.046495337 -0.061385788 -0.075162366
-0.13252169 0.0022550793 -0.21893936 -0.018151706 0.020692885 -0.0010649213 0.0505568 -0.04145247
0.01080578 0.004475945 0.06402528 -0.00871685 -0.02631945 0.28986314 0.025880817 -0.06513943
0.14249878 0.16647995 0.076139055 0.014020798 0.12334509 -0.021541843 0.11926098 0.046098966
-0.1561934 0.11641463 0.008886039 0.06100403 -0.13478538 0.04328019 -0.11877222 -0.03792549
-0.33684355 0.0560146 0.09157145 0.011364996 -0.029164564 0.00062614534 -0.027934836 -0.025045872
0.038537007 0.123628885 0.05960051 -0.05921297 0.08794725 0.030303376 0.24646115 0.2532039
0.016075704 -0.1242101 -0.19753624 0.027395658 -0.035876773 -0.020797284 -0.07650712 0.10009668
-0.088036165 0.05808608 -0.004295359 0.10644073 0.23514004 -0.13458252 0.16121855 -0.2715212
-0.07278078 -0.1098637 0.047699112 0.14487535 -0.0017229893 -0.1159835 -0.03570989 -0.027795158
-0.071334876 0.020207271 0.012864329 0.056784146 -0.014933578 0.024361676 -0.049288977 -0.3280439
0.008065176 0.075269125 0.070147865 -0.26225016 0.04720776 -0.13918339 0.11170173 -0.12692234
-0.074218936 -0.2991285 -0.0882325 0.035674836 -0.0051586265 -0.09921876 0.08347257 0.058449246
0.11266159 0.1403463 -0.011208559 -0.07453541 0.045384005 0.054105796 -0.26539993 0.09349024
0.078670986 0.013971395 0.11931656 -0.20319438 0.27655756 0.104701795 -0.043187805 -0.0810799
-0.0024447693 0.080823004 0.24029355 -0.0001688689 0.18708469 -0.0077290367 0.14871125 0.018901035
0.12531309 0.18021692 -0.17519398 0.058220137 -0.21900965 0.0786178 -0.02413683 -0.16631064
0.087249406 0.0823975 0.22066583 0.15095986 -0.08268509 0.016635781 -0.06318578 -0.07295176
0.047590155 0.1472492 0.19106743 -0.028848441 -0.2448127 -0.06067775 0.009223634 0.021714402
0.017269388 0.041183814 -0.016822854 0.07181761 0.017165463 -0.1266911 -0.0007829345 -0.0797985
-0.0025803454 0.11096339 0.006879246 0.09638599 0.01959512 -0.08723067 -0.12751901 -0.1509978
-0.046471845 0.13355173 0.058575224 -0.11897368 -0.019291325 -0.065603815 0.051856667 0.10281191
0.05138194 -0.13453515 0.0006621319 -0.09803446 0.05928988 0.0397085 0.016373487 -0.04349695
-0.026388774 -0.09531858 -0.030709274 0.05413746 0.15244739 -0.085802674 0.080323964 0.032816928
-0.057146166 0.19986278 -0.16028216 -0.13069004 -0.09339495 -0.16478814 -0.0391992 0.06586664
0.18219027 0.102732934 -0.16458452 -0.0073051807 -0.13309854 0.11732825 -0.25269026 0.077391565
-0.11169117 -0.08215205 0.11857562 0.015223276 -0.16088839 0.057399936 -0.135155 0.095663
-0.08634209 0.03761037 -0.050816532 0.12628086 -0.06380971 -0.1795941 -0.017671304 0.06773697
-0.14296372 0.012706661 -0.115957595 0.0034498947 0.014164736 -0.096304424 0.0008036997 0.01161111
-0.025863947 -0.037649244 -0.14148085 0.0617721 -0.10845697 0.033616807 0.02309551 0.017760595
00000000: 3136 5abd cd04 c43c 3e0b 8d3d b4e9 71be
00000010: a7db b73d b598 28bd eac8 823d 8e15 aebd
00000020: 6330 c63d d33b 50bd 3a60 2abd 7131 183d
00000030: 22dd 7fbd b3d3 bdbd 927d d03c 8525 0ebe
00000040: 40dd 433d 1132 a9bd e032 16bd c68f 053e
00000050: 26d5 cf3c e571 3e3d aa6f 7bbd baee 99bd
00000060: c4b3 07be f4c9 133b a431 60be e3b2 94bc
00000070: 2084 a93c d494 8bba a614 4f3d 11ca 29bd
00000080: ba0a 313c f3aa 923b b01f 833d 1ed1 0ebc
00000090: e39b d7bc f168 943e 0204 d43c d267 85bd
000000a0: 33eb 113e b879 2a3e cbee 9b3d 7db7 653c
000000b0: 5a9c fc3d 8578 b0bc 1a3f f43d 45d2 3c3d
000000c0: 2af1 1fbe cb6a ee3d c096 113c 5ddf 793d
000000d0: 2e05 0abe 9246 313d da3e f3bd c257 1bbd
000000e0: c276 acbe 916f 653d d089 bb3d 4034 3a3c
000000f0: 86ea eebc e723 243a 99d7 e4bc 002d cdbc
00000100: fbd8 1d3d 2431 fd3d aa1f 743d 4d89 72bd
00000110: b01d b43d c93e f83c 5060 7c3e f1a3 813e
00000120: 32b1 833c dd61 febd f146 4abe dc6c e03c
00000130: 86f3 12bd 115f aabc c4af 9cbd 7dff cc3d
00000140: 4e4c b4bd abeb 6d3d 15c0 8cbb 99fd d93d
00000150: 8dc8 703e 00d0 09be 7a16 253e d404 8bbe
00000160: 170e 95bd 3800 e1bd 2560 433d 345a 143e
00000170: edd5 e1ba c288 edbd 8944 12bd acb2 e3bc
00000180: 0518 92bd b889 a53c e8c4 523c 7e96 683d
00000190: f7ab 74bc 2392 c73c 3de3 49bd 5ff5 a7be
000001a0: cd23 043c b326 9a3d afa9 8f3d a745 86be
000001b0: ed5c 413d 1786 0ebe e0c3 e43d eef7 01be
000001c0: 1900 98bd 5f27 99be 3eb3 b4bd c71f 123d
000001d0: b209 a9bb 3533 cbbd abf3 aa3d 7a68 6f3d
000001e0: 1fbb e63d f1b6 0f3e 1ba4 37bc 05a6 98bd
000001f0: 94e4 393d 0a9e 5d3d 80e2 87be d077 bf3d
00000200: 411e a13d 47e8 643c 3e5c f43d 3012 50be
00000210: f498 8d3e e56d d63d b2e5 30bd 380d a6bd
00000220: 6c38 20bb 8886 a53d 830f 763e 6612 31b9
00000230: 2193 3f3e dc43 fdbb c347 183e 58d6 9a3c
00000240: 1352 003e c98a 383e 0d66 33be 3d78 6e3d
00000250: 1144 60be 5e02 a13d 9aba c5bc 564d 2abe
00000260: d1af b23d 05c0 a83d 39f6 613e 3995 1a3e
00000270: cd56 a9bd c347 883c 8c67 81bd bb67 95bd
00000280: e5ed 423d 7fc8 163e 2ea7 433e 9153 ecbc
00000290: 2eb0 7abe 3b89 78bd ba1e 173c 67e2 b13c
000002a0: 8878 8d3c 5cb0 283d 15d0 89bc 1c15 933d
000002b0: 969e 8c3c 50bb 01be d83d 4dba 656d a3bd
000002c0: 031b 29bb c640 e33d 4c6b e13b 0566 c53d
000002d0: f285 a03c fea5 b2bd 5894 02be 2b9f 1abe
000002e0: 4359 3ebd c9c1 083e 93ec 6f3d 79a8 f3bd
000002f0: d708 9ebc 4b5b 86bd a867 543d 0d8f d23d
00000300: de75 523d 95c3 09be eb92 2d3a 4ac6 c8bd
00000310: f2d9 723d 61a5 223d b121 863c dc29 32bd
00000320: 452d d8bc 6336 c3bd 0492 fbbc 3ebf 5d3d
00000330: 2b1b 1c3e 50b9 afbd e480 a43d 0b6b 063d
00000340: 1912 6abd d4a8 4c3e 0221 24be 9cd3 05be
00000350: da45 bfbd 39be 28be 578f 20bd 17e5 863d
00000360: 1690 3a3e a565 d23d d888 28be 4c60 efbb
00000370: fc4a 08be cb49 f03d 9e60 81be 787f 9e3d
00000380: 57be e4bd 563f a8bd c6d7 f23d 0c6b 793c
00000390: edbf 24be 321c 6b3d 1366 0abe f7ea c33d
000003a0: 1fd4 b0bd 550d 1a3d ff24 50bd c54f 013e
000003b0: aaae 82bd 84e7 37be 69c3 90bc aeb9 8a3d
000003c0: 1565 12be 992f 503c 2d7b edbd a117 623b
000003d0: 3513 683c 413b c5bd 60af 523a 863c 3e3c
000003e0: a1e0 d3bc 1836 1abd 5be0 10be be04 7d3d
000003f0: b01e debd c7b1 093d cc32 bd3c ab7e 913c

linear_layer.2.bias f4 [100]
-0.062375132 -0.053597353 0.016984962 0.023027396 0.021636436 0.042509098 0.05716856 -0.012185714
-0.011294131 0.03400052 -0.03310277 -0.061264783 -0.096644945 0.1574333 -0.01717547 -0.020046253
-0.068799116 0.12006792 0.015831046 -0.029386008 -0.11434395 -0.04754296 0.011952225 0.08436731
0.034787208 -0.05837168 -0.046360224 -0.06836124 0.066995956 -0.0661801 -0.10285477 -0.03625425
0.029337587 0.054221198 -0.017824817 -0.076821305 -0.028228523 -0.056478404 -0.029969798 -0.033350274
-0.045754813 -0.09739058 -0.030627614 0.031909563 0.013998688 0.023769213 0.03402093 0.0047462783
-0.051410023 0.008234344 -0.0225996 0.0010821625 0.07838521 0.09109447 0.055887185 -0.20137253
-0.059346076 -0.018530028 0.0074323067 -0.052880976 0.11515918 0.044992406 0.14227226 0.029465739
-0.04064925 -0.024220789 -0.055992536 0.0078071686 -0.16417181 0.012891564 0.013934332 0.025586572
0.0063862475 -0.009639029 -0.028240405 -0.05881456 -0.014133907 0.008854696 0.028264 -0.08505673
-0.0643233 -0.019282404 -0.09807989 -0.04092547 0.042695966 0.050567426 0.015902106 0.17840353
-0.035435542 -0.0074079446 0.017848859 0.04248502 -0.018097067 -0.23250091 0.008046296 -0.075027645
-0.040216718 0.012331353 -0.059320126 -0.023484934
00000000: 117d 7fbd e688 5bbd 0c24 8b3c f3a3 bc3c
00000010: e53e b13c 051e 2e3d 9429 6a3d 97a6 47bc
00000020: 050b 39bc 2144 0b3d c596 07bd c8f0 7abd
00000030: c9ed c5bd 3236 213e 92b3 8cbc 0a38 a4bc
00000040: 8de6 8cbd 2be6 f53d 1cb0 813c edba f0bc
00000050: 292d eabd 68bc 42bd 44d3 433c c5c8 ac3d
00000060: 087d 0e3d 2517 6fbd 38e4 3dbd fa00 8cbd
00000070: 2d35 893d 6f89 87bd 86a5 d2bd 567f 14bd
00000080: 6155 f03c 0c17 5e3d 5a05 92bc 7d54 9dbd
00000090: 813f e7bc e655 67bd 3983 f5bc 4c9a 08bd
000000a0: 6669 3bbd b674 c7bd c3e6 fabc 9ab3 023d
000000b0: c15a 653c a7b7 c23c 8859 0b3d ab86 9b3b
000000c0: 5193 52bd 58e9 063c cc22 b9bc 59d7 8d3a
000000d0: 6d88 a03d bd8f ba3d f6e9 643d 9a34 4ebe
000000e0: df14 73bd 49cc 97bc b58a f33b b999 58bd
000000f0: 93d8 eb3d f549 383d d2af 113e 2262 f13c
00000100: d47f 26bd ad6a c6bc 6e58 65bd 47d3 ff3b
00000110: a81c 28be 2337 533c d34c 643c ee9a d13c
00000120: ba43 d13b 05ed 1dbc 6c58 e7bc 89e7 70bd
00000130: e791 67bc 4913 113c e789 e73c 3932 aebd
00000140: efbb 83bd 22f6 9dbc 1cde c8bd 77a1 27bd
00000150: f7e1 2e3d ca1f 4f3d 2245 823c 6aaf 363e
00000160: dc24 11bd 58be f2bb c537 923c c604 2e3d
00000170: 4d40 94bc b814 6ebe 9dd4 033c 18a8 99bd
00000180: 49ba 24bd 7109 4a3c a9f9 72bd 7a63 c0bc

linear_layer.3.weight f4 [100, 100]
-0.16542219 0.10339391 -0.04934601 0.15946326 -0.0031236305 -0.022299238 0.05997563 0.031260435
-0.09379906 -0.09919517 -0.21565902 0.075130254 -0.14609616 0.5171888 -0.059985556 0.035245966
-0.25321364 0.14499855 -0.09323024 0.017359283 -0.36024955 -0.122190475 -0.031609543 0.14102082
0.005827091 0.07203193 -0.014985885 -0.07113876 0.21906793 -0.011939248 -0.15172912 -0.12320964
-0.12333545 -0.033464167 -0.065761946 -0.01714501 -0.3062679 -0.20682941 -0.21721582 -0.116478205
0.13130306 -0.2036707 -0.15956122 0.14229035 0.03888907 -0.016637402 0.053910095 0.17044091
-0.26884475 0.110287175 0.11601067 -0.06008214 -0.02727306 0.28559512 0.24419034 0.0032534979
0.0884523 -0.16106868 -0.1562286 -0.13133022 0.009870584 -0.1330332 0.2708207 -0.094398946
0.09848488 0.013441624 0.042445984 -0.015176213 0.10201536 -0.018960966 0.19080749 -0.045612283
0.09957715 -0.024062995 0.19383359 0.10408597 -0.076055095 -0.0123035265 0.012740604 -0.24769886
0.005071486 0.11938019 -0.0713354 -0.020571733 0.24855238 -0.14229533 0.036655746 0.023794806
-0.12782437 0.035567295 -0.19247589 0.27010342 -0.0042184163 0.071303956 0.009579289 0.13104549
0.07701561 0.03393636 -0.1840586 -0.07246238 0.17329289 -0.013686889 0.009573793 -0.12024092
0.031752765 0.02401573 -0.11028795 0.057434715 0.0054195113 -0.069080524 -0.10052425 0.13389604
-0.040996853 0.28507552 -0.10655371 -0.021381985 -0.06038642 -0.08106457 0.10059145 0.019825064
0.09944836 -0.06857383 0.0018354403 -0.17771927 -0.15345567 0.09961617 0.02633583 -0.18927065
0.15604399 0.09577495 -0.17126992 0.20537743 0.04642173 -0.16731372 0.070603244 -0.054538473
0.1178487 -0.22524975 0.0014838222 -0.007162668 0.015234702 0.100960664 -0.04000988 0.03643105
0.20018683 -0.004300212 -0.17395096 0.038522076 0.04072203 0.16690373 0.05869099 0.014422613
0.11531181 -0.025661463 0.045986556 -0.040470432 -0.053230684 -0.078341484 0.12399103 0.06708252
0.066255026 -0.090459645 -0.005374875 -0.038267203 0.08970559 -0.10076148 -0.1692917 -0.02375551
-0.13002048 -0.18230988 -0.07030506 -0.017817516 0.20336159 -0.06928242 -0.081556275 -0.047691323
-0.09192407 -0.15100957 0.008393754 -0.011371255 -0.039167274 -0.044546474 -0.021556044 0.15785567
0.04103117 0.06551789 8.507679e-05 -0.107776016 -0.029782195 -0.02919904 0.008201891 0.10064692
-0.030987378 -0.04537049 0.02309163 -0.119038925 0.0033496397 -0.107686326 -0.20423555 0.020927984
-0.023260765 0.029688593 -0.057764918 -0.09128245 -0.011407514 -0.08361692 -0.049576834 -0.106998846
0.043131612 -0.15924901 0.056840833 0.14343303 -0.100786336 -0.0072713075 0.016316956 0.04973032
-0.010238512 -0.1260003 -0.23019376 -0.042299367 0.21692497 0.007892357 0.027555507 -0.11156273
0.013297389 -0.046330422 0.11674783 0.077415116 -0.043324385 0.089180894 -0.06533928 -0.059478704
0.05733421 -0.10808381 -0.19616549 0.21185637 0.07539066 0.054575916 0.059151944 0.2588459
0.062525116 0.06252753 -0.069521315 -0.12033398 0.079808876 -0.05396702 -0.10849894 -0.0075974045
0.004649783 -0.18526483 0.036091644 0.08969689 -0.081491046 -0.043298375 -0.17272967 0.19577096
00000000: 6f64 29be 30c0 d33d 0b1f 4abd 564a 233e
00000010: d3b5 4cbb e4ac b6bc 02a9 753d f10a 003d
00000020: b919 c0bd d626 cbbd b8d5 5cbe e4dd 993d
00000030: 3b9a 15be 7c66 043f 6ab3 75bd 135e 103d
00000040: 38a5 81be 807a 143e 7fef bebd 0e35 8e3c
00000050: a172 b8be 003f fabd 0279 01bd c367 103e
00000060: 2ff1 be3b 7a85 933d 5b87 75bc 33b1 91bd
00000070: 5853 603e d69c 43bc e15e 1bbe 5655 fcbd
00000080: 4c97 fcbd b911 09bd 33ae 86bd b173 8cbc
00000090: 25cf 9cbe 17cb 53be d36d 5ebe 208c eebd
000000a0: 4f74 063e 0d8f 50be 0464 23be 90b4 113e
000000b0: 254a 1f3d 294b 88bc d5d0 5c3d 1088 2e3e
000000c0: 05a6 89be 3ede e13d 0197 ed3d b118 76bd
000000d0: c16b dfbc 8639 923e 080d 7a3e a338 553b
000000e0: 7b26 b53d 30ef 24be 64fa 1fbe 6e7b 06be
000000f0: 3bb8 213c db39 08be 03a9 8a3e 3c54 c1bd
00000100: 71b2 c93d 423a 5c3c d7db 2d3d a7a5 78bc
00000110: 6eed d03d 0754 9bbc 0a63 433e f2d3 3abd
00000120: 1bef cb3d c21f c5bc 507c 463e 062b d53d
00000130: c6c2 9bbd bb94 49bc f7bd 503c c5a4 7dbe
00000140: b52e a63b 9a7d f43d 4b18 92bd 0d86 a8bc
00000150: 8484 7e3e deb5 11be 5624 163d 53ed c23c
00000160: 64e4 02be 03af 113d 6618 45be ff4a 8a3e
00000170: a43a 8abb cf07 923d 73f2 1c3c ca30 063e
00000180: 5cba 9d3d da00 0b3d dc79 3cbe 2867 94bd
00000190: b173 313e f93e 60bc 66db 1c3c df40 f6bd
000001a0: 300f 023d a3bc c43c a6de e1bd aa40 6b3d
000001b0: 2896 b13b 177a 8dbd a8df cdbd 0b1c 093e
000001c0: 51ec 27bd 6bf5 913e d538 dabd 4629 afbc
000001d0: c057 77bd 2e05 a6bd e402 ce3d 2c68 a23c
000001e0: 95ab cb3d 7070 8cbd 2893 f03a 0afc 35be
000001f0: 7c23 1dbe 9003 cc3d 3dbe d73c 2ad0 41be
00000200: ffc9 1f3e a825 c43d 6261 2fbe 764e 523e
00000210: b624 3e3d 4a54 2bbe 6f98 903d bc63 5fbd
00000220: a95a f13d dfa7 66be d07c c23a d0b4 eabb
00000230: f99a 793c 77c4 ce3d 66e1 23bd ba38 153d
00000240: c7fd 4c3e cbe8 8cbb 3320 32be 53c9 1d3d
00000250: 25cc 263d d0e8 2a3e f765 703d d34c 6c3c
00000260: 9928 ec3d fd37 d2bc 665c 3c3d 53c4 25bd
00000270: 6b08 5abd 8071 a0bd 02ef fd3d 8f62 893d
00000280: b7b0 873d e842 b9bd b81f b0bb 12be 1cbd
00000290: 90b7 b73d 095c cebd ce5a 2dbe ea9a c2bc
000002a0: 1724 05be 71af 3abe 19fc 8fbd 0af6 91bc
000002b0: 053e 503e f1e3 8dbd fa06 a7bd fa57 43bd
000002c0: b042 bcbd 41a2 1abe f585 093c 804e 3abc
000002d0: dd6d 20bd 5d76 36bd 4d96 b0bc eba4 213e
000002e0: 4d10 283d 3e2e 863d 416b b238 acb9 dcbd
000002f0: caf9 f3bc d332 efbc 3961 063c f91f ce3d
00000300: 3ed9 fdbc 68d6 39bd a82a bd3c aeca f3bd
00000310: a185 5b3b a68a dcbd 2023 51be 2a71 ab3c
00000320: 5c8d bebc 7e35 f33c e89a 6cbd 4bf2 babd
00000330: 95e6 3abc 593f abbd 1411 4bbd 3622 dbbd
00000340: c6aa 303d 2c12 23be efd1 683d 1ce0 123e
00000350: 1169 cebd 2644 eebb 23ab 853c 05b2 4b3d
00000360: 6fbf 27bc 3906 01be eab7 6bbe 1a42 2dbd
00000370: 9421 5e3e f24e 013c 16bc e13c 007b e4bd
00000380: 4bdd 593c f8c4 3dbd 7c19 ef3d d18b 9e3d
00000390: e974 31bd 79a4 b63d 9ad0 85bd f19f 73bd
000003a0: 47d7 6a3d 0b5b ddbd 9bdf 48be e0f0 583e
000003b0: 6b66 9a3d ff8a 5f3d 4f49 723d 7387 843e
000003c0: 2b0d 803d 6f0e 803d 3161 8ebd a971 f6bd
000003d0: d672 a33d 860c 5dbd b134 debd a6f3 f8bb
000003e0: 355d 983b 10b6 3dbe d5d4 133d 01b3 b73d
000003f0: c7e4 a6bd a359 31bd 0ce0 30be 2f78 483e

linear_layer.3.bias f4 [100]
0.096067026 0.018095324 -0.056465942 -0.11113747 -0.013427951 -0.035965655 0.089201786 0.04428024
0.042249486 0.002647205 -0.043555688 -0.029223466 0.0030050857 0.036943283 0.0059041446 0.00393283
-0.0743886 -0.016017096 0.008761198 0.039200697 -0.061786786 0.05053118 0.023746835 0.040720727
0.0036182823 -0.034303337 0.06770537 0.06034846 0.036589395 0.04334941 -0.020144716 -0.005066334
0.014378083 0.027804285 -0.00097106444 -0.028180785 0.018357517 -0.005165542 -0.037721615 -0.004906429
-0.019817537 0.012145661 0.009523641 -0.011200961 0.052716848 0.045592792 0.08311407 -0.15197751
0.049851652 -0.041657466 0.037324425 -0.02459165 -0.007491951 0.00030090768 -0.019002853 -0.02178332
-0.051854677 -0.023675064 0.042275913 0.0510238 0.0037689756 0.030741237 0.0069681727 0.010893166
0.023491269 0.015147361 0.063214645 -0.0006239132 0.017419927 -0.037242856 0.03277146 -0.03735028
-0.005601611 -0.010126436 -0.024724992 0.012738149 -0.0021060368 -0.21153362 0.03793882 -0.0476727
-0.011101795 0.020943651 -0.007158859 -0.02389256 -0.09352237 0.04264741 0.021167897 0.047388297
-0.029566187 -0.005452759 0.025932135 0.025504785 0.04363125 -0.031766575 0.0046624946 0.044229623
0.023469893 0.025039311 -0.038589478 -0.05291678
00000000: cabe c43d a53c 943c d548 67bd 0b9c e3bd
00000010: e900 5cbc b950 13bd 6daf b63d 325f 353d
00000020: cc0d 2d3d bb7c 2d3b 7367 32bd 0d66 efbc
00000030: f9f0 443b d751 173d 8e77 c13b f8de 803b
00000040: 0d59 98bd 4936 83bc 218b 0f3c e990 203d
00000050: 2414 7dbd c8f9 4e3d b988 c23c c7ca 263d
00000060: b420 6d3b a881 0cbd 1da9 8a3d f22f 773d
00000070: c3de 153d 278f 313d 8806 a5bc 7d03 a6bb
00000080: 0d92 6b3c d0c5 e33c 088f 7eba 64db e6bc
00000090: 8162 963c b543 a9bb fb81 1abd 1cc6 a0bb
000000a0: 6358 a2bc 98fe 463c 0c09 1c3c 3c84 37bc
000000b0: 9fed 573d 82bf 3a3d b637 aa3d fe9f 1bbe
000000c0: 3f31 4c3d 05a1 2abd 7fe1 183d 6e74 c9bc
000000d0: 0a7f f5bb 25c3 9d39 dfab 9bbc ef72 b2bc
000000e0: 9265 54bd 35f2 c1bc 8229 2d3d 55fe 503d
000000f0: eb00 773b 0cd5 fb3c 4555 e43b 4079 323c
00000100: c370 c03c a32c 783c ae76 813d 1b8e 23ba
00000110: 3cb4 8e3c f78b 18bd 5e3b 063d 9bfc 18bd
00000120: b88d b7bb 5ae9 25bc 118c cabc abb3 503c
00000130: 6f05 0abb 459c 58be bc65 1b3d 7344 43bd
00000140: 4ee4 35bc 0592 ab3c dd94 eabb 54ba c3bc
00000150: a888 bfbd 0daf 2e3d 4c68 ad3c 3b1a 423d
00000160: ca34 f2bc 0fad b2bb a16f d43c 69ef d03c
00000170: aeb6 323d ab1d 02bd d7c7 983b 1f2a 353d
00000180: ef43 c03c 3e1f cd3c 0010 1ebd 44bf 58bd

linear_layer.4.weight f4 [100, 100]
-0.023476321 0.03931041 0.069486074 0.07802549 0.055530492 -0.002891741 -0.05051767 0.14563942
0.096116655 0.024314474 -0.15282007 0.088012904 0.089289114 0.1485142 0.12415294 0.21565355
0.14499542 0.32437 0.0068927878 0.03577293 0.0017962509 0.053025924 -0.017433176 0.1348503
0.15434857 -0.094328575 0.072317705 -0.09982945 0.16226068 -0.04465879 0.1374389 -0.078707546
-0.173208 0.041489772 0.0064613493 0.00039804942 -0.19205768 0.057596274 0.14162487 0.026489884
-0.21395823 -0.26984715 -0.29087222 0.0770256 -0.042444296 -0.25060415 0.16755153 -0.06271093
0.07118861 0.019093694 -0.04985158 -0.10497033 -0.10168922 -0.0065730284 -0.0012871459 0.0696212
0.054658704 0.068177864 0.08355572 0.058140922 0.08676901 0.0047860113 0.02277922 0.033419937
0.11407631 0.03607388 0.009384557 -0.021185815 -0.22221333 0.12422399 0.052743945 0.07838999
-0.09861115 0.18322866 0.018791864 -0.16709957 0.09728894 0.08868702 -0.016577031 0.031867106
0.060304612 0.07498082 0.04770219 -0.0024464193 -0.044351015 -0.006357322 0.13839436 -0.019670488
-0.053869423 -0.046734065 -0.01809707 0.12839231 -0.21051958 0.08416354 -0.09037223 -0.081605315
0.021755075 -0.011063868 -0.09846092 -0.026914028 -0.092847615 0.0004038178 -0.12186743 0.018198656
-0.02268286 -0.06888677 -0.20716907 -0.0052961474 -0.0076148883 -0.06999239 -0.030030878 -0.018487314
0.1379978 0.10618954 0.22419806 -0.049674455 -0.11497434 -0.081638865 -0.062153734 0.06354679
-0.08234877 0.103832 0.09111951 -0.07736559 0.014331825 -0.038023226 0.068310104 0.13202062
0.23179051 0.083913125 -0.06916289 0.06702993 0.056018513 0.025588585 -0.022921838 -0.22831173
-0.11975464 -0.09077399 0.11078423 0.08886362 0.042220253 0.03743969 0.08528867 0.16145048
0.0437593 -0.027793482 0.23076263 0.11086824 -0.03901553 -0.16072406 -0.03703189 0.052738007
-0.04263254 -0.08093869 -0.05460244 -0.09144958 -0.051328335 0.08946842 -0.051146574 -0.010358195
-0.004875258 0.04314533 0.014716337 -0.22290902 -0.037456017 0.1506395 0.13712355 0.14456943
-0.12082511 -0.09644089 -0.103017986 -0.1068086 0.0064731534 -0.18412274 -0.005418866 0.07768801
0.055825755 -0.20221855 -0.17442504 0.11491041 0.14425911 -0.15622582 0.038173057 -0.048179116
0.060210574 -0.021683078 -0.15366426 -0.060352195 -0.16770813 -0.15640216 0.0889039 -0.07683964
-0.13377357 0.052721098 0.025325168 0.025559789 -0.030685445 -0.0872057 0.10699772 0.0288438
0.052906815 -0.009681066 -0.17143399 0.114909954 -0.20408286 -0.08952562 0.057375368 0.10907153
-0.31432995 0.0052276193 0.05418604 0.026838258 -0.059227142 -0.1167129 0.03731107 0.16662149
-0.13247211 -0.18153569 0.036088977 0.048154984 -0.072157405 -0.015250654 0.1660448 0.02833779
0.009478004 -0.02180927 -0.053015612 -0.0015980022 0.17357229 -0.05457817 -0.20243806 0.060392983
0.1720483 0.1332572 -0.12328185 0.043901887 -0.0010835424 0.1571827 -0.13121365 -0.009957745
-0.118778475 0.05840746 0.13543509 -0.164763 -0.1512937 0.017240752 0.14662199 0.34769303
0.081835225 0.0704464 0.3149505 0.018547464 0.049528565 0.06932952 0.18262893 0.09413134
00000000: 6a51 c0bc f403 213d b74e 8e3d d4cb 9f3d
00000010: f173 633d 5d83 3dbb 9eeb 4ebd 8022 153e
00000020: cfd8 c43d 262f c73c dd7c 1cbe 1c40 b43d
00000030: 36dd b63d 1b14 183e e643 fe3d 49d4 5c3e
00000040: ae79 143e d313 a63e e5dc e13b a386 123d
00000050: 2e70 eb3a b631 593d 05d0 8ebc 3216 0a3e
00000060: 8d0d 1e3e 572f c1bd 4e1b 943d 6273 ccbd
00000070: aa27 263e 23ec 36bd c8bc 0c3e 6c31 a1bd
00000080: 705d 31be 2ef1 293d bab9 d33b 4ab1 d039
00000090: c5aa 44be 12ea 6b3d 1c06 113e 5001 d93c
000000a0: de17 5bbe 6829 8abe 34ed 94be 99bf 9d3d
000000b0: 12da 2dbd 304f 80be a192 2b3e 976e 80bd
000000c0: 55cb 913d 616a 9c3c 2c31 4cbd affa d6bd
000000d0: 7042 d0bd 8f62 d7bb 73b5 a8ba 8f95 8e3d
000000e0: cee1 5f3d d6a0 8b3d 431f ab3d 2d25 6e3d
000000f0: f3b3 b13d f9d3 9c3b 7d9b ba3c 58e3 083d
00000100: d7a0 e93d 34c2 133d afc1 193c e08d adbc
00000110: e48b 63be 2669 fe3d 090a 583d ee8a a03d
00000120: a5f4 c9bd 4ba0 3b3e 65f1 993c 261c 2bbe
00000130: 6c3f c73d 8aa1 b53d 8ecc 87bc 1587 023d
00000140: f801 773d 8b8f 993d 5f63 433d 1b54 20bb
00000150: 69a9 35bd 1551 d0bb 40b7 0d3e 0124 a1bc
00000160: 2fa6 5cbd 386c 3fbd 4e40 94bc 4679 033e
00000170: 7292 57be ef5d ac3d 1315 b9bd b020 a7bd
00000180: b337 b23c 3a45 35bc e1a5 c9bd cf7a dcbc
00000190: e426 bebd 82b7 d339 a295 f9bd 5915 953c
000001a0: 68d1 b9bc 8214 8dbd 2124 54be 4e8b adbb
000001b0: 5086 f9bb 2c58 8fbd 5103 f6bc b572 97bc
000001c0: 4c4f 0d3e e779 d93d 2d94 653e 7177 4bbd
000001d0: ab77 ebbd 4732 a7bd ea94 7ebd d224 823d
000001e0: 79a6 a8bd dfa5 d43d de9c ba3d da71 9ebd
000001f0: 08d0 6a3c 3ebe 1bbd 2be6 8b3d 6a30 073e
00000200: 7e5a 6d3e a5da ab3d 46a5 8dbd fd46 893d
00000210: ab73 653d 279f d13c 94c6 bbbc 8dca 69be
00000220: ec41 f5bd b7e7 b9bd d8e2 e23d 21fe b53d
00000230: 25ef 2c3d 5c5a 193d d4ab ae3d 4653 253e
00000240: f43c 333d 28af e3bc 0a4d 6c3e e30e e33d
00000250: c0ce 1fbd d994 24be c0ae 17bd cf03 583d
00000260: 759f 2ebd 2fc3 a5bd cfa6 5fbd eb49 bbbd
00000270: a93d 52bd 383b b73d 127f 51bd 6bb5 29bc
00000280: a1c0 9fbb 28b9 303d cb1c 713c 4342 64be
00000290: 7b6b 19bd 3e41 1a3e 1e6a 0c3e 020a 143e
000002a0: 2873 f7bd cd82 c5bd 18fb d2bd 78be dabd
000002b0: bf1c d43b ac8a 3cbe be90 b1bb e41a 9f3d
000002c0: 8ca9 643d 6112 4fbe 7a9c 32be 2656 eb3d
000002d0: a9b8 133e a9f9 1fbe 5a5b 1c3d 7757 45bd
000002e0: 5d9f 763d b6a0 b1bc 2a5a 1dbe dd33 77bd
000002f0: aebb 2bbe e327 20be 3f13 b63d 1a5e 9dbd
00000300: f0fb 08be 14f2 573d ba76 cf3c c362 d13c
00000310: 0b60 fbbc e798 b2bd 9f21 db3d d549 ec3c
00000320: d1b4 583d 559d 1ebc 648c 2fbe e955 eb3d
00000330: 19fb 50be 3559 b7bd 6f02 6b3d e560 df3d
00000340: dbef a0be 734c ab3b 2ef2 5d3d e8db db3c
00000350: 2998 72bd 2c07 efbd 7ed3 183d d39e 2a3e
00000360: c5a6 07be 7ee4 39be 09d2 133d 293e 453d
00000370: 43c7 93bd e1dd 79bc a607 2a3e a724 e83c
00000380: a149 1b3c 5ba9 b2bc e626 59bd 0e74 d1ba
00000390: efbc 313e 5c8d 5fbd ec4b 4fbe a25e 773d
000003a0: 6e2d 303e 9374 083e 327b fcbd 77d2 333d
000003b0: a605 8eba 80f4 203e df5c 06be cf25 23bc
000003c0: 2142 f3bd a93c 6f3d 7faf 0a3e a2b7 28be
000003d0: bcec 1abe 7a3c 8d3c 1324 163e d204 b23e
000003e0: 3a99 a73d 3446 903d 3141 a13e daf0 973c
000003f0: 77de 4a3d a3fc 8d3d 1403 3b3e efc7 c03d

linear_layer.4.bias f4 [100]
-0.0043262034 -0.03238805 0.05601403 -0.018980894 -0.13386805 -0.0051037096 -0.031533096 0.011030455
0.042214353 0.020606127 0.013895491 -0.09060514 -0.020645866 0.019614302 -0.023153981 0.013891775
0.03768862 -0.023918454 -0.051688567 0.042475216 0.08110025 -0.022924373 0.008182804 0.020124644
0.014427756 0.02276699 -0.013438236 -0.0069033187 -0.03552488 -0.041318525 0.024773132 0.017977426
-0.019999987 -0.035879783 0.034951687 -0.06861292 0.03728011 0.17887674 0.015353982 -0.033510048
-0.0063532386 0.011871519 -0.009893376 -0.0064734872 -0.04767836 0.008356518 -0.033335138 -0.01606244
-0.0148783205 -0.019534023 0.00084509014 -0.009680435 0.00022412743 0.01596365 0.0009513551 -0.02332869
-0.002000663 -0.004088034 -0.019171044 0.00037054048 -0.007452079 0.07078019 0.009972223 -0.01118826
0.005453499 0.0035140296 0.005526548 -0.022320343 0.035541166 -0.023092926 -0.054631997 -0.015907979
0.006757999 -0.009689578 0.02938812 -0.044242203 -0.015285115 0.027628567 0.049765546 0.007811496
0.040545356 -0.027973628 0.084070325 0.04762939 -0.058365535 -0.064893275 -0.004202854 -0.033156194
-0.0144352615 0.008576137 0.0115299225 0.017085556 -0.024171134 0.016577478 0.061608505 -0.019479318
-0.004475559 -0.01396897 -0.046780925 -0.01673529
00000000: d3c2 8dbb 55a9 04bd f86e 653d d27d 9bbc
00000010: b514 09be 053d a7bb d928 01bd 15b9 343c
00000020: f5e8 2c3d 2ece a83c eaa9 633c 308f b9bd
00000030: 8521 a9bc 2cae a03c 6bad bdbc 549a 633c
00000040: 625f 1a3d a2f0 c3bc 64b7 53bd 7efa 2d3d
00000050: e317 a63d e5cb bbbc 2b11 063c 70dc a43c
00000060: 6562 6c3c d781 ba3c 0c2c 5cbc 3c35 e2bb
00000070: 8982 11bd 9d3d 29bd 06f1 ca3c 6545 933c
00000080: 03d7 a3bc aef6 12bd 8029 0f3d ee84 8cbd
00000090: 07b3 183d 772b 373e 458f 7b3c d541 09bd
000000a0: d42e d0bb c280 423c d417 22bc 8c1f d4bb
000000b0: 624a 43bd c7e9 083c 6d8a 08bd 6195 83bc
000000c0: 33c4 73bc d105 a0bc 0a89 5d3a b09a 1ebc
000000d0: c003 6b39 33c6 823c 5c64 793a cf1b bfbc
000000e0: 8e1d 03bb eaf4 85bb 980c 9dbc 1a45 c239
000000f0: 9230 f4bb 34f5 903d 8962 233c f74e 37bc
00000100: 44b3 b23b a24b 663b 0b18 b53b 27d9 b6bc
00000110: 9d93 113d 602d bdbc cdc5 5fbd 7351 82bc
00000120: 3472 dd3b 09c1 1ebc 5bbf f03c 5037 35bd
00000130: 6b6e 7abc 4e55 e23c f5d6 4b3d 94f7 ff3b
00000140: e312 263d f328 e5bc 102d ac3d 0917 433d
00000150: b310 6fbd c4e6 84bd 18b8 89bb cace 07bd
00000160: e081 6cbc ed82 0c3c 00e8 3c3c 02f7 8b3c
00000170: 8b02 c6bc 7ecd 873c 3359 7c3d 1793 9fbc
00000180: b6a7 92bb 1bde 64bc 5b9d 3fbd 7218 89bc

linear_layer.5.weight f4 [100, 100]
0.060620088 0.046497066 0.020653483 0.026210804 -0.026238983 -0.21925887 -0.1329756 -0.042839203
-0.060824282 0.07442574 0.043738075 -0.04578129 -0.114992246 -0.08362728 0.014948606 0.07469488
-0.04306865 -0.06350725 0.068453185 -0.022112755 -0.18959332 0.09909545 0.028239125 0.031477623
-0.13018425 0.0977454 -0.037065595 -0.009036687 0.0045623495 -0.17129208 0.07136311 0.03770555
0.09284133 -0.020499203 0.18440783 0.031013718 0.0877811 -0.2768225 0.06990894 0.2133255
-0.14095874 -0.13868828 -0.008820063 0.08514924 -0.07970973 0.10390412 0.079712614 0.15393715
-0.24732631 -0.05159386 -0.16690794 -0.012411826 -0.022380564 0.078823745 0.011505056 0.006106188
0.11693296 -0.12589937 0.04998508 0.14057343 0.011265261 0.043800887 -0.099642426 0.20370144
-0.0783865 -0.15706106 -0.07321396 0.09232816 -0.062176898 -0.12421946 -0.14016587 0.12783015
0.031703204 0.08657153 -0.016973998 -0.10904705 -0.032628153 -0.028011914 0.07102045 0.13731146
-0.052093267 0.0560459 -0.046188336 -0.25543022 0.06768052 -0.2013702 0.20994952 0.07167153
-0.008452249 0.0056278533 -0.02885781 0.25746924 -0.012762024 -0.27040055 0.06960227 0.01626044
0.12238974 -0.13034968 -0.04873253 0.1475724 -0.078399375 0.06857734 -0.029246323 0.10502022
-0.06042917 0.076885484 0.1582755 0.05209994 -0.029680459 -0.14984174 -0.1947886 0.06518408
-0.082338 -0.004372028 -0.040740497 -0.10144699 0.00074600073 0.14239721 0.11164468 -0.1879595
-0.17615661 -0.050935905 0.032407954 0.1271751 0.09449791 0.09685524 0.08478754 0.013213575
0.0960573 0.07836085 -0.008327516 0.070818275 -0.044554032 0.006920584 -0.22213568 0.09584632
0.06189667 -0.13817404 -0.086624384 0.08155978 -0.012893759 -0.1016031 0.14206854 -0.09668979
0.15553711 -0.0348298 0.16816714 0.03706847 0.0670218 0.011717195 -0.01027563 0.23223671
-0.07594013 0.04862859 -0.06386458 0.11710262 -0.10096202 0.1664738 0.20414077 0.092143394
-0.027081471 -0.12415803 0.003936158 0.10521933 0.092508964 -0.0013004801 0.17049791 -0.050277315
-0.16967145 0.06027871 0.14230423 -0.08414656 -0.004878042 0.024622561 0.030721527 0.17332777
-0.061433606 -0.025386214 -0.011948227 -0.10045403 -0.117024936 -0.0019493288 -0.09622777 -0.08154339
-0.10714873 0.1534322 -0.05757567 0.08386612 0.084483474 0.03202906 -0.18784715 0.08178888
0.067311436 -0.09047391 0.0010761756 0.008230506 -0.008695622 -0.082390934 0.033298578 -0.118966006
-0.081834175 0.03251543 -0.038554143 -0.1565822 -0.07224094 0.121135235 -0.09936423 -0.17099452
0.073222965 0.0072445385 0.02549379 -0.13646173 0.007301377 0.03632972 0.12127765 -0.17424314
0.17118792 0.004326362 0.031600125 -0.015894344 0.107192874 -0.07723742 -0.04575336 0.12833126
0.105731845 -0.08242334 -0.112965375 -0.018730411 -0.013413054 0.17448488 0.18548116 -0.03004236
-0.06382181 0.11088576 0.12006597 -0.020680683 0.14402965 0.17528068 0.109112225 0.15043212
-0.09209393 -0.066457964 -0.12629348 0.08416465 -0.052609954 -0.09133762 0.14477389 -0.11271983
-0.07649335 0.11092891 0.08868046 -0.08422486 -0.13943647 0.015211563 -0.020332662 -0.10494332
00000000: c54c 783d b573 3e3d 7e31 a93c 0ab8 d63c
00000010: 23f3 d6bc 6685 60be c12a 08be 2978 2fbd
00000020: e222 79bd 866c 983d b226 333d 2985 3bbd
00000030: 0e81 ebbd c844 abbd ffea 743c a1f9 983d
00000040: c168 30bd 1710 82bd 2f31 8c3d cf25 b5bc
00000050: c024 42be 8ef2 ca3d bd55 e73c aeee 003d
00000060: 054f 05be be2e c83d 18d2 17bd 9d0e 14bc
00000070: c37f 953b 3167 2fbe d226 923d 2371 1a3d
00000080: 9823 be3d f2ed a7bc 68d5 3c3e 7b10 fe3c
00000090: 94c6 b33d aebb 8dbe 6b2c 8f3d 0072 5a3e
000000a0: 7d57 10be 4d04 0ebe 0782 10bc ba62 ae3d
000000b0: db3e a3bd afcb d43d 5e40 a33d b3a1 1d3e
000000c0: 1c43 7dbe 1554 53bd eae9 2abe f95a 4bbc
000000d0: 7257 b7bc 586e a13d b47f 3c3c 6b16 c83b
000000e0: 8c7a ef3d c4eb 00be 28bd 4c3d 7bf2 0f3e
000000f0: ee91 383c 8f68 333d 5411 ccbd 1c97 503e
00000100: 1a89 a0bd 9dd4 20be 33f1 95bd 8c16 bd3d
00000110: 34ad 7ebd c666 febd a487 0fbe e8e5 023e
00000120: 38db 013d 6a4c b13d 0e0d 8bbc 0f54 dfbd
00000130: 19a5 05bd 3e79 e5bc 2b73 913d 609b 0c3e
00000140: c05f 55bd 6390 653d fb2f 3dbd c0c7 82be
00000150: 169c 8a3d fd33 4ebe 02fd 563e 86c8 923d
00000160: 4d7b 0abc db69 b83b 3767 ecbc 02d3 833e
00000170: cf17 51bc f171 8abe a38b 8e3d 9d34 853c
00000180: 79a7 fa3d 637a 05be c39b 47bd 381d 173e
00000190: da8f a0bd 4772 8c3d fc95 efbc d714 d73d
000001a0: 9484 77bd 2376 9d3d f912 223e bf66 553d
000001b0: 6f24 f3bc 1d70 19be aa76 47be 3b7f 853d
000001c0: d3a0 a8bd 3b43 8fbb 82df 26bd 71c3 cfbd
000001d0: 438f 433a 93d0 113e f7a5 e43d 7578 40be
000001e0: 6662 34be 2ba2 50bd 34be 043d 303a 023e
000001f0: 1f88 c13d 0a5c c63d 17a5 ad3d c07d 583c
00000200: b1b9 c43d a77b a03d 2270 08bc 2c09 913d
00000210: 4a7e 36bd 11c6 e23b 8977 63be 134b c43d
00000220: 5d87 7d3d 7f7d 0dbe 2068 b1bd d008 a73d
00000230: 5840 53bc 4915 d0bd 6a7a 113e 4c05 c6bd
00000240: 1f45 1f3e b1a9 0ebd 0234 2c3e 1cd5 173d
00000250: ba42 893d 7af9 3f3c 1e5b 28bc 76cf 6d3e
00000260: 8086 9bbd c62e 473d 6fcb 82bd 80d3 ef3d
00000270: 2dc5 cebd 1c78 2a3e 470a 513e adb5 bc3d
00000280: f6d9 ddbc 9146 febd e3fa 803b 3b7d d73d
00000290: 5775 bd3d df74 aaba 0197 2e3e 96ef 4dbd
000002a0: 5abe 2dbe cfe6 763d 33b8 113e 0855 acbd
000002b0: fbd7 9fbb 41b5 c93c b6ab fb3c d67c 313e
000002c0: cea1 7bbd c0f6 cfbc 7fc2 43bc d8ba cdbd
000002d0: c5aa efbd 9f80 ffba 1113 c5bd 3900 a7bd
000002e0: cb70 dbbd 551d 1d3e 77d4 6bbd 00c2 ab3d
000002f0: ac05 ad3d e730 033d 015b 40be ee80 a73d
00000300: 94da 893d 634a b9bd 760e 8d3a 3fd9 063c
00000310: 1578 0ebc 94bc a8bd 1764 083d 73a4 f3bd
00000320: ad98 a7bd e62e 053d f3ea 1dbd 1657 20be
00000330: 0ff3 93bd c015 f83d 797f cbbd 3019 2fbe
00000340: ecf5 953d 9863 ed3b 5ad8 d03c a0bc 0bbe
00000350: 6440 ef3b 79ce 143d 6b60 f83d cb6c 32be
00000360: e34b 2f3e 28c4 8d3b 226f 013d db34 82bc
00000370: f087 db3d a72e 9ebd e067 3bbd 4569 033e
00000380: f089 d83d 91cd a8bd 645a e7bd 8570 99bc
00000390: 6dc2 5bbc 2aac 323e c6ee 3d3e 651b f6bc
000003a0: 02b5 82bd 1318 e33d 26e5 f53d 896a a9bc
000003b0: 827c 133e c77c 333e 3b76 df3d e10a 1a3e
000003c0: be9b bcbd 1d1b 88bd 1453 01be 845e ac3d
000003d0: 897d 57bd 380f bbbd 9b3f 143e a7d9 e6bd
000003e0: 8ca8 9cbd b22e e33d 1a9e b53d 157e acbd
000003f0: 6fc8 0ebe eb39 793c af90 a6bc 86ec d6bd
