ac_2d_model_para_5/checkpoint_1100.pth (torch, 291152 bytes, 17 tensors)

linear_layer.0.weight f4 [100, 3]
0	0x3e63024c	0.22168845
1	0x3e227716	0.1586574
2	0xbe4477ff	-0.191864
3	0x3c52d283	0.012867573
4	0xbd953f1e	-0.07287429
5	0x3de334cf	0.11094057
6	0x3d4c74c1	0.049916033
7	0xbd8003f8	-0.06250757
8	0xbe90dfaf	-0.28295657
9	0x3e80c17c	0.25147617
10	0xbd110d76	-0.035413228
11	0x3e5d25fc	0.21596521
12	0xbe24cd66	-0.16093978
13	0xbe1dcb77	-0.15409647
14	0xbeb9e543	-0.36307725
15	0xbd7b4f06	-0.06135466
16	0xbe4d1df1	-0.20030953
17	0xbe05c8eb	-0.13064925
18	0xbdd42bb2	-0.10359897
19	0x3e0ac44a	0.13551441
20	0xbdfd6186	-0.12372117
21	0xbd9df1c7	-0.07712131
22	0xbd38138c	-0.044940516
23	0xbea90903	-0.33014688
24	0x3f071a14	0.5277417
25	0x3d4b7ac8	0.04967764
26	0x3ca8d199	0.020607756
27	0xbe2013c7	-0.15632544
28	0xbe405353	-0.18781786
29	0xbd97e903	-0.0741749
30	0x3d26975e	0.0406717
31	0xbe73af26	-0.23797283
32	0x3e086e8e	0.13323423
33	0xbddc030a	-0.10742767
34	0x3d86a207	0.06573873
35	0xbe73895d	-0.23782869
36	0x3ecc5f8c	0.39916646
37	0xbb928010	-0.0044708326
38	0xbde7d7dc	-0.11320469
39	0x3e8bdcde	0.27316946
40	0xbc1d4e06	-0.009601122
41	0x3e7ac041	0.24487402
42	0x3e43f39b	0.19135897
43	0x3e213d03	0.1574593
44	0x3e391332	0.18073729
45	0xbe392b49	-0.18082918
46	0xbe4995de	-0.19686076
47	0x3ccea797	0.025226397
48	0x3ea15445	0.31509605
49	0x3cb37833	0.021907901
50	0xbe93c846	-0.28863734
51	0xbe58a9bb	-0.21158497
52	0xbe197851	-0.14987303
53	0xbe1eda8a	-0.15513054
54	0xbe93cb45	-0.2886602
55	0xbc8f163d	-0.017466659
56	0x3dc714fe	0.09720801
57	0x3e1d38b0	0.15353656
58	0x3e25776a	0.16158834
59	0xbe71efa0	-0.23626566
60	0x3db02579	0.08600897
61	0xbe4f0da3	-0.20220046
62	0x3da12668	0.078686535
63	0x3edc8ede	0.4307775
64	0xbdaea79f	-0.08528065
65	0x3da0ae7a	0.07845779
66	0xbe8cc825	-0.27496448
67	0xbe1de93d	-0.15421005
68	0x3cc102d3	0.023560917
69	0x3e19db01	0.1502495
70	0x3ccb0aee	0.024785485
71	0xbef59c90	-0.4797101
72	0x3e70da46	0.23520765
73	0x3d0c2f9b	0.034225088
74	0x3e9ce911	0.30646566
75	0x3e3768bc	0.17911047
76	0x3daa09b2	0.083026305
77	0x3bf7971d	0.007555856
78	0xbe9f406c	-0.31103837
79	0xbe5d2f67	-0.21600114
80	0xbdb2e443	-0.08734944
81	0x3d618406	0.055057548
82	0x3e8a223c	0.26979244
83	0x3d6417b2	0.05568666
84	0x3e53cd03	0.20683675
85	0xbe58bfb7	-0.21166883
86	0x3d5aec8e	0.053448252
87	0x3dca1e9a	0.09869118
88	0xbc9aedea	-0.018912274
89	0xbdd446c0	-0.10365057
90	0xbd41a45d	-0.04727589
91	0xbe25d8f0	-0.16196036
92	0xbe0e9cdc	-0.13927025
93	0x3ed9e05b	0.42553982
94	0x3c86ccb4	0.016455032
95	0x3ea762bd	0.3269252
96	0x3dc6da52	0.0970961
97	0xbe66e834	-0.22549516
98	0x3e04740f	0.12934898
99	0xbeca6e57	-0.39537308
100	0x3c8c28a8	0.01710923
101	0xbddc27c4	-0.10749772
102	0x3d84d393	0.06485667
103	0xbdc78ce6	-0.09743671
104	0xbe94569e	-0.28972334
105	0x3e02c7ba	0.12771502
106	0xbe13a045	-0.14416607
107	0x3e536729	0.20644821
108	0xbe21f7e5	-0.1581722
109	0x3e8972a4	0.26845276
110	0x3ca501c4	0.020142443
111	0x3e8cade8	0.2747643
112	0x3e169a66	0.14707336
113	0x3d85ba27	0.06529646
114	0xbcdc81bd	-0.026917333
115	0xbdbc09fb	-0.09181591
116	0xbecaf7f8	-0.3964231
117	0xbe0b636e	-0.13612148
118	0xbce66a9d	-0.028127009
119	0xbe1bacb7	-0.15202604
120	0x3db9e8bc	0.09077594
121	0x3dc3e114	0.095644146
122	0xbe030a1a	-0.12796822
123	0xbe3c2d2d	-0.18376608
124	0xbc2f44ce	-0.010697557
125	0x3e06dece	0.1317093
126	0xbe718f20	-0.23589754
127	0x3e300a84	0.17191511
128	0xbe0250bf	-0.12726115
129	0x3e143c96	0.14476237
130	0xbd886ac7	-0.06660991
131	0x3e7e0e79	0.24810208
132	0xbe208897	-0.15677105
133	0x3e4cf96d	0.20017023
134	0x3e02f10c	0.12787265
135	0xbd9b5011	-0.07583631
136	0xbde55f70	-0.11199844
137	0x3e157e89	0.1459905
138	0xbee941e2	-0.45558077
139	0x3e214e55	0.15752538
140	0xbe91b80c	-0.2846073
141	0x3ec50271	0.38478425
142	0x3a996e9d	0.0011705939
143	0xbe057816	-0.1303409
144	0x3dbba2f8	0.09161943
145	0x3dc32a12	0.09529509
146	0x3dc16482	0.094429985
147	0x3ebfe6fd	0.37480918
148	0xbdd3c62f	-0.10340535
149	0xbdef2007	-0.116760306
150	0x3e60706c	0.21917886
151	0x3de62b15	0.11238686
152	0xbe010f74	-0.12603551
153	0x3e4c4220	0.199471
154	0xbd64ec4f	-0.055889424
155	0xbe18f1bd	-0.14935966
156	0xbddb9145	-0.10721067
157	0x3e82d376	0.25551957
158	0x3dc0d7ea	0.09416182
159	0x3c8e273c	0.017352693
160	0x3d69ed65	0.057111163
161	0x3e836470	0.25662565
162	0x3df58ab5	0.11989347
163	0x3daf868f	0.08570587
164	0x3b9f15ab	0.004854878
165	0x3eae47e4	0.34039223
166	0xbd96416f	-0.07336699
167	0x3de48bdd	0.11159489
168	0x3f0c58fc	0.5482328
169	0x3c72c9d6	0.014818629
170	0xbc45b5ef	-0.012067302
171	0x3eaf1e00	0.34202576
172	0xbdf4e6c1	-0.11958075
173	0xbe83924d	-0.25697556
174	0x3eac8459	0.33694723
175	0x3c0981ee	0.008392794
176	0xbe1296a9	-0.14315285
177	0xbd63ab08	-0.05558303
178	0xbe3883a9	-0.18018974
179	0x3e88c35b	0.26711544
180	0xbe0e85a2	-0.13918164
181	0x3df2b603	0.11851122
182	0xbbda20c6	-0.006656739
183	0x3c30c827	0.010789908
184	0x3e92d796	0.28680104
185	0x3ccb98cd	0.024853135
186	0x3ea5837c	0.32326877
187	0xbe1a6326	-0.15076885
188	0xbd7e80b4	-0.06213446
189	0xbab81219	-0.001404348
190	0x3df287b3	0.11842289
191	0xbe4a05e6	-0.19728813
192	0x3ecc8e42	0.39952284
193	0xbe1dae3d	-0.15398498
194	0x3d9b13c7	0.075721316
195	0x3cf110e4	0.029427
196	0x3dd5abab	0.10433134
197	0x3ea50fc1	0.32238582
198	0x3e158ac3	0.14603715
199	0xbce4d6d3	-0.027934467
200	0xbebf2f3f	-0.37340733
201	0xbedf0f1c	-0.43566215
202	0xbce4c440	-0.02792561
203	0x3de623d2	0.11237301
204	0x3ec435ef	0.38322398
205	0xbdf2efea	-0.11862166
206	0x3c927422	0.017877642
207	0xbdc5f3dd	-0.09665654
208	0x3dd57c2b	0.10424074
209	0x3cd00020	0.025390685
210	0xbe909dfd	-0.28245535
211	0x3c7f4686	0.015580779
212	0xbd17e523	-0.037083756
213	0x3df077e4	0.11741617
214	0x3e1ef235	0.15522082
215	0x3db84a61	0.08998562
216	0xbdb1bd30	-0.08678663
217	0x3e88d4fe	0.26725
218	0xbdc7f8b7	-0.097642355
219	0x3dd6875b	0.10475036
220	0x3e1c7257	0.15277992
221	0xbe585d72	-0.21129397
222	0x3efab164	0.48963463
223	0x3d043f71	0.032287065
224	0xbda66fee	-0.08126818
225	0xbced5138	-0.028969392
226	0x3eb4b465	0.3529388
227	0x3e15ec69	0.14640965
228	0xbe2bbbdf	-0.16770886
229	0xbed38877	-0.41315052
230	0x3e80b1aa	0.25135547
231	0xbebfa7ff	-0.37432858
232	0xbdc5db05	-0.09660915
233	0xbe33d83a	-0.17562953
234	0xbca7e6cf	-0.0204958
235	0x3e5f35c6	0.21797857
236	0xbbdcebe5	-0.006741988
237	0x3ce9d266	0.028542709
238	0xbe4c7b9f	-0.19969033
239	0x3d58e398	0.052951425
240	0x3e16d7d3	0.14730768
241	0xbd69917c	-0.05702351
242	0xbd187062	-0.03721655
243	0xbe12d0bc	-0.14337438
244	0xbe50627a	-0.20350066
245	0xbda2c0ba	-0.07946916
246	0xbe817d9f	-0.25291154
247	0x3e25ae55	0.16179784
248	0x3daef750	0.08543265
249	0x3e361286	0.17780504
250	0xbde51f9a	-0.11187668
251	0x3ef4ce6d	0.4781374
252	0x3e8c2579	0.2737234
253	0xbd0c2e51	-0.03422386
254	0xbe893c7c	-0.26803958
255	0x3e58bb85	0.21165283

linear_layer.0.bias f4 [100]
0	0xbcad50a5	-0.021156618
1	0xbd916878	-0.07100004
2	0x3e4730d7	0.19452225
3	0xbd167146	-0.03672912
4	0x3cbae0b7	0.02281223
5	0xbce1e850	-0.027576596
6	0x3da2aca2	0.07943083
7	0x3e0a344c	0.13496512
8	0xbe439367	-0.19099198
9	0x3d6680d3	0.0562752
10	0x3d67ee85	0.056623954
11	0xbe02bc68	-0.12767184
12	0x3e3dddfc	0.18541712
13	0x3e50563a	0.20345393
14	0x3d4f7804	0.050651565
15	0x3a1e703b	0.00060439453
16	0xbe0dca1d	-0.13846631
17	0x3c95d51c	0.018290095
18	0xbce9b49e	-0.028528508
19	0xbb6efd4d	-0.0036466897
20	0xbdf5c349	-0.12000138
21	0xbd8df346	-0.06931166
22	0xbd3b75ba	-0.04576657
23	0x3cbe1bae	0.023206558
24	0x3d37f6b9	0.044913027
25	0x3e269975	0.16269477
26	0x3dd74784	0.105116874
27	0xbd0f6e29	-0.035017166
28	0x3d5cf60b	0.053945582
29	0xbded864d	-0.115978815
30	0xbd91360c	-0.07090387
31	0xbc6928a4	-0.014230881
32	0x3dfbeac3	0.123006366
33	0xbdd2d23b	-0.102940045
34	0xbda66647	-0.081249766
35	0x3d87e4f9	0.0663547
36	0xbcdba705	-0.02681304
37	0xbe2d091a	-0.16898003
38	0x3e20f1e6	0.15717277
39	0x3e295650	0.16536832
40	0x3dbb8f6d	0.09158216
41	0xbd5950f4	-0.05305572
42	0x3d973d95	0.07384793
43	0xbe93a298	-0.28834987
44	0x3ca820b4	0.020523407
45	0xbdf42a0e	-0.11922084
46	0xbe04fb1a	-0.12986413
47	0x3cacbe52	0.021086846
48	0xbdbb123f	-0.091343395
49	0xbe38d750	-0.18050885
50	0x3e6c109d	0.23053212
51	0x3da653ee	0.08121477
52	0xbb684a5a	-0.0035444708
53	0xbe75215d	-0.23938508
54	0x3dcd4e98	0.10024756
55	0x3decb478	0.11557859
56	0x3cfbf898	0.030758187
57	0xbc1b570a	-0.009481201
58	0xbbb92efc	-0.005651353
59	0x3c1e8b07	0.009676701
60	0xbde83239	-0.11337704
61	0xbc9a3a79	-0.01882671
62	0x3b9bc773	0.004754001
63	0x3e279abb	0.16367619
64	0xbe076b55	-0.13224538
65	0x3daf6103	0.085634254
66	0xbe59f163	-0.21283488
67	0xbb86df6a	-0.0041159885
68	0xbdaf0109	-0.08545119
69	0x3dcb221d	0.09918616
70	0x3e35acec	0.17741746
71	0xbdb94956	-0.09047191
72	0xbdcce659	-0.10004873
73	0x3e5574c7	0.20845328
74	0xbc74d5f7	-0.014943591
75	0x3cefc6c3	0.029269582
76	0x3c8c528b	0.017129203
77	0x3da2e3f4	0.07953635
78	0xbdeed751	-0.11662162
79	0xbceeceaf	-0.029151289
80	0x3e1de624	0.15419823
81	0x3e02a654	0.12758762
82	0xbd5f8aeb	-0.054575842
83	0x3c67d34d	0.014149499
84	0x3d09c598	0.033635706
85	0x3d47f296	0.048815332
86	0x3dfc835c	0.12329742
87	0x3e1c0d69	0.1523949
88	0xbddee31f	-0.10883164
89	0xbdd1a2c1	-0.10236121
90	0xbe0bdede	-0.13659236
91	0xbe490c79	-0.19633664
92	0xbd9112d8	-0.07083672
93	0x3e05b35b	0.130567
94	0xbd189eda	-0.037260868
95	0x3d2c3635	0.042043883
96	0x3e814778	0.2524984
97	0x3d7cd2e9	0.061724577
98	0xbd9b931a	-0.07596417
99	0x3d5ecb8d	0.05439334

linear_layer.1.weight f4 [100, 100]
0	0x3d67334e	0.056445412
1	0x3e1ac085	0.15112503
2	0xbd84f0ae	-0.064912185
3	0xbcbe2dbb	-0.023215165
4	0xbc7b5ec4	-0.015342418
5	0x3b8dd3cd	0.004328227
6	0x3dccd448	0.10001427
7	0x3d6b184b	0.057396214
8	0x3e1965f8	0.14980304
9	0xbe1b4338	-0.1516236
10	0xbda29402	-0.079383865
11	0x3c2ef833	0.0106792925
12	0xbe7693ca	-0.24079815
13	0xbd95d79e	-0.07316516
14	0x3d88121c	0.06644079
15	0x3d8b0006	0.06787114
16	0xbe606b91	-0.21916033
17	0xbe1d5fd0	-0.15368581
18	0x3e55740f	0.20845054
19	0x3b487fe4	0.0030593807
20	0xbdb9676a	-0.09052928
21	0x3de16c21	0.11006952
22	0x3d0dbe0e	0.03460508
23	0x3e1db120	0.15399599
24	0xbd8d3f8a	-0.06896885
25	0x3b917a2a	0.004439612
26	0xbdaf920a	-0.085727766
27	0xbc5cc3de	-0.013474433
28	0xbe71eb61	-0.23624946
29	0xbdb7d763	-0.08976629
30	0xbc5621d5	-0.01306959
31	0xbb75c185	-0.003749938
32	0xbd2e06f0	-0.042487085
33	0x3e697da2	0.22801831
34	0xbda97b4a	-0.08275469
35	0xbd820d92	-0.063502446
36	0xbdba9dc8	-0.09112126
37	0xbc39dc03	-0.011343959
38	0x3e04d184	0.12970549
39	0xbe120da1	-0.14263012
40	0x3d5328f6	0.051552735
41	0x3e213d2c	0.15745991
42	0xbe0e08d2	-0.13870552
43	0xbd666ce2	-0.056256182
44	0x3b03f962	0.0020137657
45	0xbd0b66df	-0.034033652
46	0x3d678c13	0.05653007
47	0x3ce77a99	0.028256701
48	0x3b08405e	0.002079032
49	0x3dfbd935	0.12297288
50	0xbc533f43	-0.012893501
51	0xbe91756e	-0.28409904
52	0x3ded694c	0.115923494
53	0x3dbe28bb	0.092851125
54	0xbd094d5e	-0.03352105
55	0xbe5ec829	-0.21756043
56	0xbe101d6f	-0.14073728
57	0xbd9cc34c	-0.076544374
58	0x3e20395e	0.15646884
59	0x3e2db2c1	0.1696272
60	0x3c5fc0fa	0.013656849
61	0x3d8263c6	0.063666865
62	0xbc2e97ff	-0.010656356
63	0xbe242537	-0.16029821
64	0xbcc2aa73	-0.023762917
65	0x3e3a9eb6	0.18224606
66	0xbc52e3ff	-0.012871741
67	0x3d58879a	0.052863695
68	0x3cc5e01e	0.024154719
69	0xbdb534e6	-0.0884798
70	0x3c2a27a3	0.010385427
71	0x3dca3b4a	0.0987459
72	0xbd94ad10	-0.072595716
73	0x3d2baac8	0.041910917
74	0xbe7d8597	-0.24757992
75	0x3cf5477c	0.029941313
76	0xbd2038c9	-0.039116655
77	0x3c0930c2	0.008373441
78	0xbe32d95c	-0.17465729
79	0xbdf069e0	-0.11738944
80	0xbd05d7b5	-0.032676417
81	0xbc53f708	-0.012937315
82	0xbccf92da	-0.025338579
83	0xbdcd1706	-0.10014157
84	0x3d7435dc	0.059621677
85	0x3e0119f1	0.12607552
86	0xbced6e17	-0.028983159
87	0xbd9cd9a5	-0.076587
88	0x3dbf6be9	0.09346754
89	0x3df8c193	0.12146296
90	0xbbcd9dc8	-0.0062749125
91	0x3e08c505	0.13356407
92	0xbdb396a1	-0.087689646
93	0xbd84c7bc	-0.06483409
94	0xbc087d81	-0.008330704
95	0xbdd790c3	-0.10525658
96	0xbd8026fd	-0.062574364
97	0xbc9a5bf6	-0.018842679
98	0xbe05e092	-0.13073948
99	0xbda20160	-0.079104185
100	0x3d462851	0.048378292
101	0x3e5f7a0d	0.21823902
102	0xbccf39b4	-0.02529607
103	0x3d7c03b2	0.06152696
104	0xbd6549e7	-0.055978682
105	0xbe2ca0f1	-0.1685827
106	0x3e091604	0.13387305
107	0xbe8f45a7	-0.27982828
108	0xbd47f7ac	-0.048820183
109	0xbd928e63	-0.07156064
110	0xbd888576	-0.06666081
111	0x3d1eb15f	0.038743373
112	0x3ddd2180	0.10797405
113	0x3df4764b	0.11936625
114	0x3e239e51	0.15978362
115	0xbe18fd0d	-0.14940281
116	0xbd2c46d7	-0.042059746
117	0xbe929c84	-0.28635037
118	0x3c57fb00	0.013182402
119	0x3e41e491	0.18934847
120	0xbde5d3c1	-0.112220295
121	0xbcb81f58	-0.022475883
122	0x3cf17977	0.029476864
123	0x3df3695b	0.11885329
124	0x3e41d45c	0.18928665
125	0x3da29617	0.079387836
126	0xbdbc0b92	-0.09181894
127	0x3df60c18	0.120140254
128	0xbdfc4034	-0.12316933
129	0xbda4ca33	-0.08046379
130	0xbd8dd196	-0.06924741
131	0xbdd0af68	-0.10189706
132	0x3e32a156	0.17444357
133	0xbde76761	-0.11299015
134	0xbddd2394	-0.107978016
135	0x3d13b8ff	0.036065098
136	0x3e41153a	0.18855754
137	0x3c98e3f4	0.018663384
138	0xbcf9d464	-0.030496784
139	0xbdae2fae	-0.08505188
140	0x3e4ec54f	0.20192455
141	0xbdcaa702	-0.098951355
142	0x3e0080a4	0.12549073
143	0xbe368f28	-0.17828047
144	0x3e4d84d3	0.200702
145	0xbe6b4c77	-0.22978388
146	0xbe8a48c7	-0.2700865
147	0xbd87c27b	-0.06628891
148	0x3d1ff0db	0.039048057
149	0xbdbefd67	-0.093256764
150	0xbc8cce2d	-0.017188156
151	0xbd0f0acf	-0.034922417
152	0x3db35e33	0.087582015
153	0xbe2c4796	-0.16824183
154	0xbd2a9f43	-0.04165579
155	0x3dc44523	0.09583499
156	0x3cd34689	0.02579047
157	0xbd9a5cac	-0.07537207
158	0xbdf636f5	-0.12022201
159	0xbd2c8f1d	-0.04212867
160	0x3e093273	0.13398151
161	0xbdb5d8db	-0.088792525
162	0xbca598dd	-0.020214492
163	0x3d697666	0.05699768
164	0xbe0ea889	-0.13931479
165	0x3e189075	0.14898856
166	0xbd18d202	-0.037309654
167	0xbe3b7b9c	-0.18308872
168	0xbebf9418	-0.37417674
169	0x3e6e203b	0.23254482
170	0xbc9f7db6	-0.019469123
171	0x3da19af3	0.07890882
172	0x3d3eaf4c	0.046553895
173	0x3e09d128	0.13458693
174	0x3de5ba59	0.112171836
175	0x3e3f7dfe	0.18700406
176	0x3bf9c18b	0.007621949
177	0xbb9cce14	-0.0047853086
178	0xbde3a2e5	-0.11115054
179	0x3d48cc55	0.04902299
180	0x3e4ff4dd	0.20308252
181	0xbe51f52d	-0.20503683
182	0xbd2582e0	-0.040408015
183	0x3da6ea42	0.0815015
184	0x3c7a8455	0.0152903395
185	0xbd9e6d12	-0.07735647
186	0x3d040505	0.03223135
187	0x3d1db274	0.038500264
188	0x3c5d322a	0.01350073
189	0xbe08b2db	-0.13349478
190	0x3da7d2a6	0.08194475
191	0xbe01b558	-0.12666833
192	0x3cf3910a	0.029732246
193	0xbdc5303e	-0.09628342
194	0x3dfa6364	0.122259885
195	0xbe0684b2	-0.13136557
196	0x3e23d83c	0.16000456
197	0x3e1053d4	0.14094478
198	0xbdef032e	-0.11670528
199	0x3e4c5e2f	0.19957803
200	0xbde4d59f	-0.111735575
201	0xbd4ca134	-0.049958423
202	0x3dd6e1e0	0.10492301
203	0xbd869042	-0.06570484
204	0xbe03b009	-0.12860121
205	0x3d44e11a	0.048066236
206	0xbd06956a	-0.032857336
207	0x3e1aba8a	0.15110222
208	0xbe4346a6	-0.19069919
209	0xbce06149	-0.02739014
210	0x3daec5de	0.08533834
211	0x3d168ee8	0.03675738
212	0xbdd33097	-0.10312002
213	0x3c21a417	0.009865782
214	0x3cedc85c	0.029026203
215	0xbcf3e75b	-0.029773405
216	0xbc96fe15	-0.018431703
217	0x3dffe679	0.12495131
218	0xbe272fc0	-0.16326809
219	0xbe2bed5e	-0.16789767
220	0x3d9b101e	0.075714335
221	0x3d9bc5a5	0.07606057
222	0x3d1bc885	0.038033027
223	0xbe0a72ae	-0.1352031
224	0xbe2374c5	-0.15962513
225	0xbe2af431	-0.16694714
226	0x3d3ab86a	0.045586027
227	0x3d9d1260	0.076695204
228	0xbd229808	-0.03969577
229	0x3dcc272c	0.09968409
230	0xbe013065	-0.12616117
231	0xbd9aef97	-0.075652294
232	0x3d070730	0.03296584
233	0x3c0ae1d3	0.008476692
234	0x3c8a6d06	0.01689769
235	0x3be6f31c	0.007048024
236	0xbdd3cf92	-0.10342325
237	0xbdae2717	-0.085035495
238	0xbd874892	-0.066056386
239	0x3c8f9007	0.017524732
240	0x3e6b0e6d	0.22954722
241	0x3e4cb4e9	0.19990887
242	0xbcb0c8fe	-0.021580216
243	0x3e0d3259	0.13788737
244	0xbdfff7a8	-0.124984086
245	0x3e153263	0.14570002
246	0x3de63d3f	0.112421505
247	0xbe0ae344	-0.13563257
248	0xbd8c6576	-0.0685529
249	0xbdbc2e50	-0.09188521
250	0x3d47399c	0.048638925
251	0x3be6b8f5	0.0070410916
252	0xbd3e8ddb	-0.046522003
253	0xbd82828c	-0.06372556
254	0xbe176a8b	-0.14786737
255	0xbd06541f	-0.032795068

linear_layer.1.bias f4 [100]
0	0xbda0b617	-0.07847231
1	0x3da6c9ef	0.081439845
2	0xbcc8ad9a	-0.024496842
3	0x3e382918	0.17984426
4	0xbca9b681	-0.020716907
5	0xbd8137a6	-0.06309442
6	0xbde7e664	-0.113232404
7	0x3dff0675	0.124524035
8	0xbddecf68	-0.10879403
9	0x3d946892	0.07246508
10	0xbda57471	-0.0807885
11	0xbcaaa41d	-0.020830208
12	0x3e06f091	0.13177706
13	0x3dc1a443	0.094551586
14	0xbd8eabc4	-0.069663554
15	0xbd98538f	-0.074378125
16	0x39b84458	0.00035146135
17	0x3dfb8781	0.12281705
18	0x3ca349d4	0.019932665
19	0xbd6d7dce	-0.057981305
20	0xbd4f5842	-0.05062128
21	0x3d388f4b	0.04505853
22	0xbcf35990	-0.029705793
23	0x3da19c58	0.07891148
24	0x3dff0968	0.12452966
25	0x3cf13f01	0.029448988
26	0x3e16b165	0.14716108
27	0xbd588719	-0.052863214
28	0xbdba63ba	-0.091010526
29	0xbd84f99b	-0.06492921
30	0xbe6256f6	-0.22103485
31	0x3dd001b6	0.10156576
32	0x3b913be9	0.0044321907
33	0xbdb1ac74	-0.08675471
34	0xbd8dac55	-0.06917635
35	0x3d9058f3	0.07048216
36	0x3e02c358	0.1276983
37	0xbe0685c3	-0.13136964
38	0x3c34d91c	0.011038091
39	0xbca4e87b	-0.020130387
40	0xbde266ce	-0.11054765
41	0xbdff3889	-0.12461955
42	0x3d03888c	0.032112643
43	0x3e1f3039	0.15545739
44	0xbd8d0f7d	-0.0688772
45	0x3c31e761	0.010858388
46	0x3aa0032f	0.001220798
47	0xbe03d484	-0.12874037
48	0x3d67aafa	0.05655954
49	0xbdd4eeac	-0.103970855
50	0xbd43f92f	-0.047845062
51	0xbc0e5445	-0.008687084
52	0xbb3ddc6a	-0.0028970488
53	0xbde9f1eb	-0.11423095
54	0x3c42ab19	0.011881613
55	0x3ccb3810	0.024807006
56	0x3e0902af	0.1337993
57	0xbdae0e11	-0.08498777
58	0xbb3d3fea	-0.0028877207
59	0x3d00c37c	0.03143643
60	0xbdfa10ca	-0.122102335
61	0xbbcb6d6f	-0.006208114
62	0x3d0fd005	0.035110492
63	0x3e289f31	0.16466977
64	0x3d155d95	0.0364662
65	0x3d17d321	0.037066583
66	0xbdd429c4	-0.10359529
67	0x3caf5d88	0.021406904
68	0x3b7d7e5d	0.0038680055
69	0xbe298970	-0.16556334
70	0xbdbded58	-0.09273785
71	0x3bf0fb1e	0.0073541543
72	0xbd2f19b2	-0.042749114
73	0xbd132e2b	-0.0359327
74	0x3d96d48f	0.07364761
75	0x3c18f40a	0.009335527
76	0x3da0e2f0	0.07855785
77	0xbdfe5400	-0.124183655
78	0x3d71763f	0.05895066
79	0xbd4ccd08	-0.05000022
80	0xbe0c0c21	-0.13676502
81	0xbd8e5484	-0.06949714
82	0x3d004f44	0.031325594
83	0xbcf1640a	-0.029466648
84	0x3dbe85e0	0.093028784
85	0x3c08873f	0.008333026
86	0xbbc1d4a0	-0.0059152395
87	0x3d6cf83f	0.057853933
88	0x3e1e7b69	0.15476765
89	0xbcf1696c	-0.029469214
90	0xbdb03b33	-0.08605041
91	0xbe28be50	-0.16478848
92	0x3dbd4691	0.09241975
93	0x3cdee99d	0.027211005
94	0x3d485016	0.0489045
95	0x3d1ee820	0.03879559
96	0x3d84c457	0.06482761
97	0xbbc80564	-0.0061041582
98	0xbc46226e	-0.01209317
99	0x3db39399	0.087683864

linear_layer.2.weight f4 [100, 100]
0	0xbd5a1d54	-0.053250626
1	0x3cd37023	0.025810307
2	0x3d88f88d	0.06688032
3	0xbe7c107f	-0.24615668
4	0x3dbc004f	0.09179746
5	0xbd26b8ca	-0.040703572
6	0x3d8113dd	0.06302617
7	0xbdb37558	-0.08762616
8	0x3dc6e3db	0.09711429
9	0xbd5cd404	-0.05391313
10	0xbd2e8f77	-0.042617287
11	0x3d17a66b	0.037023943
12	0xbd7f2e90	-0.062300265
13	0xbdbf2278	-0.09332746
14	0x3cd55049	0.02603926
15	0xbe0c6565	-0.13710554
16	0x3d428fa4	0.047500268
17	0xbdaffafa	-0.08592792
18	0xbd1292bb	-0.035784464
19	0x3e04d5eb	0.12972228
20	0x3cda2062	0.02662677
21	0x3d418b4c	0.047251984
22	0xbd7f27db	-0.06229387
23	0xbd97bfe7	-0.07409649
24	0xbe050d3f	-0.12993334
25	0x3b10f52c	0.002211879
26	0xbe636cc4	-0.2220946
27	0xbc8f56c1	-0.017497422
28	0x3ccabf14	0.024749316
29	0xba83b99d	-0.0010049824
30	0x3d501c25	0.05080809
31	0xbd4e3d97	-0.050351705
32	0x3c598743	0.013276878
33	0x3ba96d5f	0.0051705088
34	0x3d89d939	0.06730885
35	0xbc14b489	-0.009076246
36	0xbcd417ce	-0.025890257
37	0x3e981b24	0.29708207
38	0x3ce6b7a3	0.028163737
39	0xbd890ec2	-0.06692268
40	0x3e11d75c	0.1424231
41	0x3e2b2ce9	0.1671635
42	0x3d9ca2cd	0.07648239
43	0x3c2d204d	0.010566783
44	0x3dfc39d6	0.12315719
45	0xbc8c2a7b	-0.0171101
46	0x3defb861	0.11705089
47	0x3d42abe7	0.04752722
48	0xbe236479	-0.15956296
49	0x3df2a219	0.11847324
50	0x3c348184	0.011017207
51	0x3d7dcd84	0.061963573
52	0xbe09ef22	-0.13470128
53	0x3d2e856a	0.042607702
54	0xbded4662	-0.1158569
55	0xbd0f67ad	-0.035010982
56	0xbeabb5b9	-0.3353708
57	0x3d63c11a	0.055604078
58	0x3dbaaa09	0.09114463
59	0x3c41e4f3	0.011834371
60	0xbd035669	-0.03206483
61	0x3b56d3b4	0.0032779993
62	0xbcd256a9	-0.025676088
63	0xbccaf4b2	-0.024774883
64	0x3d103dc7	0.035215165
65	0x3dff65b0	0.12470567
66	0x3d795ff7	0.060882535
67	0xbd6b89b9	-0.05750439
68	0x3db39801	0.08769227
69	0x3cea812c	0.028626047
70	0x3e79d525	0.24397714
71	0x3e823e19	0.25438002
72	0x3c8de535	0.017321208
73	0xbe004bdd	-0.1252894
74	0xbe4cc8cb	-0.19998471
75	0x3ce327f3	0.02772901
76	0xbd16080e	-0.036628775
77	0xbc8f7d2d	-0.017515743
78	0xbd9d4d29	-0.07680733
79	0x3dcf343f	0.10117387
80	0xbdb20461	-0.086922415
81	0x3d63ce30	0.055616558
82	0xbc1ba5a1	-0.009499938
83	0x3dd9c5d8	0.10633439
84	0x3e6fdfe3	0.2342525
85	0xbe08ec37	-0.13371359
86	0x3e261f1d	0.16222806
87	0xbe8b2607	-0.2717745
88	0xbd9b564b	-0.075848185
89	0xbde7785c	-0.113022536
90	0x3d4ccc58	0.049999565
91	0x3e12ca5d	0.14335008
92	0x3a0c1b87	0.0005344678
93	0xbdf09b16	-0.1174833
94	0xbd078d62	-0.033093818
95	0xbcea78c5	-0.02862204
96	0xbd8eef32	-0.06979217
97	0x3ca14a8c	0.019688867
98	0x3c43b134	0.011944104
99	0x3d60959d	0.054830182
100	0xbc7363c7	-0.014855332
101	0x3cafa6a6	0.021441769
102	0xbd470ea4	-0.048597947
103	0xbea98b18	-0.33113933
104	0x3bae2ede	0.0053156456
105	0x3d9a0084	0.075196296
106	0x3d9b5d98	0.07586211
107	0xbe86db96	-0.26339406
108	0x3d499878	0.04921767
109	0xbe11c0c7	-0.14233695
110	0x3de749d4	0.112933785
111	0xbe024f52	-0.12725571
112	0xbd9bbffe	-0.07604979
113	0xbe990fd8	-0.298949
114	0xbdb538f6	-0.08848755
115	0x3d129a9f	0.03579199
116	0xbba932a0	-0.0051635057
117	0xbdd374b7	-0.10324996
118	0x3da92f33	0.08260956
119	0x3d718c92	0.05897195
120	0x3de66ac6	0.11250834
121	0x3e0ef4fb	0.1396064
122	0xbc388f16	-0.011264583
123	0xbd9ab152	-0.075533524
124	0x3d3607d6	0.044441067
125	0x3d5c9d1e	0.053860776
126	0xbe88646a	-0.2663911
127	0x3dbebbc1	0.09313155
128	0x3daf36c8	0.085553706
129	0x3c623d62	0.01380858
130	0x3df6a9f6	0.12044136
131	0xbe558110	-0.20850015
132	0x3e8c8093	0.27441844
133	0x3dd6eda6	0.104945466
134	0xbd325aa5	-0.043543477
135	0xbda743a6	-0.081672
136	0xbb324740	-0.0027203113
137	0x3daaaf66	0.08334236
138	0x3e7369e5	0.23770864
139	0xb9a0a625	-0.00030641365
140	0x3e40eeb3	0.18841057
141	0xbbdb00c3	-0.0066834404
142	0x3e17a22b	0.14807956
143	0x3c8e9c8e	0.017408635
144	0x3e01ba4f	0.12668727
145	0x3e37eb65	0.1796089
146	0xbe32ce1a	-0.17461434
147	0x3d717972	0.05895371
148	0xbe636428	-0.22206175
149	0x3da19a53	0.07890763
150	0xbcc70d77	-0.024298413
151	0xbe29c94d	-0.16580696
152	0x3db23e5c	0.087033
153	0x3da9da98	0.082936466
154	0x3e628f4c	0.22124976
155	0x3e1b746d	0.15181132
156	0xbdae7043	-0.08517506
157	0x3c892edf	0.016745983
158	0xbd802d51	-0.062586434
159	0xbd964d2c	-0.07338938
160	0x3d45ef13	0.048323702
161	0x3e171e4a	0.14757648
162	0x3e4286c0	0.18996716
163	0xbcf5f6c4	-0.030024894
164	0xbe7c625e	-0.24646899
165	0xbd7b0f35	-0.0612938
166	0x3c192df4	0.009349335
167	0x3ca2f37c	0.019891493
168	0x3c5b1a79	0.013373011
169	0x3d2aaaf5	0.041666944
170	0xbc829ec9	-0.015944855
171	0x3d9225bb	0.07136103
172	0x3c91f8fe	0.017818924
173	0xbe00cc25	-0.12577875
174	0xbabbbbcb	-0.0014322934
175	0xbda3ea59	-0.08003683
176	0xbb5fe516	-0.0034163645
177	0x3debf20f	0.115207784
178	0x3bcb9771	0.0062131216
179	0x3dc452c6	0.095861
180	0x3ca1d2f3	0.019753909
181	0xbdb09951	-0.08622993
182	0xbe035132	-0.12823942
183	0xbe1b150f	-0.15144752
184	0xbd3c27c4	-0.04593636
185	0x3e0821c6	0.13294134
186	0x3d6d7c72	0.05798001
187	0xbdf7036f	-0.12061202
188	0xbcc22f41	-0.023704173
189	0xbd8559c1	-0.0651126
190	0x3d5387fb	0.051643353
191	0x3dd4445c	0.10364601
192	0x3d4c2208	0.049837142
193	0xbe0a762b	-0.1352164
194	0xbb980f63	-0.004640506
195	0xbdc7f060	-0.09762645
196	0x3d659ebc	0.056059584
197	0x3d23c41e	0.039981954
198	0x3c8b15a4	0.016978092
199	0xbd3cd1fc	-0.046098694
200	0xbcd5bfa0	-0.02609235
201	0xbdc11852	-0.09428467
202	0xbd021bfc	-0.03176497
203	0x3d5aebda	0.05344758
204	0x3e1dd11f	0.15411805
205	0xbdaebae4	-0.0853174
206	0x3da26265	0.079289235
207	0x3d06550d	0.032795954
208	0xbd6d14d5	-0.057881195
209	0x3e4cc8d7	0.1999849
210	0xbe23fadf	-0.16013668
211	0xbe0623d8	-0.13099611
212	0xbdc5d448	-0.0965963
213	0xbe29129c	-0.16511005
214	0xbd1f3ff1	-0.03887934
215	0x3d854897	0.06507986
216	0x3e3b68f7	0.1830176
217	0x3dced162	0.1009853
218	0xbe27f09a	-0.16400376
219	0xbbf79a8e	-0.007556266
220	0xbe0835db	-0.13301794
221	0x3df1671b	0.11787244
222	0xbe819c84	-0.25314724
223	0x3da22037	0.07916301
224	0xbdde4bab	-0.10854276
225	0xbda71fc7	-0.08160358
226	0x3decf669	0.115704365
227	0x3c848e42	0.016181115
228	0xbe21f949	-0.15817751
229	0x3d6d07c0	0.05786872
230	0xbe0ba5e0	-0.13637495
231	0x3dc2dd93	0.09514918
232	0xbdacaa4e	-0.084309205
233	0x3d153c4d	0.03643446
234	0xbd46d7cd	-0.048545647
235	0x3e00eced	0.1259038
236	0xbd83df79	-0.064391084
237	0xbe37c56d	-0.17946406
238	0xbc4a6ec9	-0.012355515
239	0x3d8c8273	0.06860819
240	0xbe13024f	-0.1435635
241	0x3c4e47ef	0.0125903925
242	0xbded3812	-0.1158296
243	0x3b459989	0.0030151329
244	0x3c5ded29	0.013545313
245	0xbdbd1993	-0.092333935
246	0xbb398b4b	-0.0028311785
247	0x3c31bfc7	0.010848946
248	0xbcd54ee4	-0.026038595
249	0xbd1b19e8	-0.037866503
250	0xbe0f26a1	-0.1397958
251	0x3d78fc80	0.060787678
252	0xbddf3aec	-0.1089991
253	0x3d06d12c	0.032914326
254	0x3cba3ee5	0.022735069
255	0x3c9679a0	0.018368542

linear_layer.2.bias f4 [100]
0	0xbd844a97	-0.064595394
1	0xbd61549e	-0.055012338
2	0x3c93ce65	0.018042753
3	0x3d070042	0.03295923
4	0x3c9da7bf	0.019245027
5	0x3d315049	0.043289457
6	0x3d6d46f5	0.057928998
7	0x3b93893e	0.0045024445
8	0xbc2afee1	-0.010436744
9	0x3d074421	0.033023957
10	0xbd145dc6	-0.03622224
11	0xbd7e3f4d	-0.062072087
12	0xbdc7495d	-0.0973079
13	0x3e2a9672	0.16658953
14	0xbc8817b1	-0.01661286
15	0xbcbe7962	-0.02325124
16	0xbd920ad5	-0.07130972
17	0x3e0a1e08	0.13488019
18	0x3c3d289d	0.0115453275
19	0xbcf053e8	-0.029336885
20	0xbdfeccc8	-0.12441403
21	0xbd4740a4	-0.04864563
22	0x3c61a213	0.013771552
23	0x3dadf410	0.08493817
24	0x3ce696cf	0.028148083
25	0xbd742cca	-0.059613027
26	0xbd4aee31	-0.049543563
27	0xbd8cabfe	-0.068687424
28	0x3d837de8	0.06420499
29	0xbd8e0277	-0.06934064
30	0xbde26fda	-0.1105649
31	0xbd25507d	-0.040359963
32	0x3cfb3df5	0.030669192
33	0x3d5e071e	0.054206006
34	0xbc9aa16e	-0.018875804
35	0xbd9d9a18	-0.07695407
36	0xbcfd3a04	-0.030911453
37	0xbd6c4700	-0.0576849
38	0xbcf6f900	-0.03014803
39	0xbd0405b4	-0.032232
40	0xbd30c575	-0.04315706
41	0xbdc7e2f7	-0.09760087
42	0xbd0e6f26	-0.03477397
43	0x3d0ac970	0.033883512
44	0x3c51bc9b	0.012801315
45	0x3cd18438	0.025575742
46	0x3cf7b004	0.030235298
47	0x3bacf3d1	0.0052780886
48	0xbd1327e5	-0.03592672
49	0x3c089b8d	0.008337867
50	0xbcb63d43	-0.022246009
51	0x3b86c878	0.004113253
52	0x3da62eb6	0.08114378
53	0x3dca1bff	0.09868621
54	0x3d7d6ad6	0.061869465
55	0xbe98abfe	-0.2981872
56	0xbd8212c9	-0.06351239
57	0xbc9688e7	-0.018375827
58	0x3c07062a	0.008241216
59	0xbd5cd704	-0.053915992
60	0x3e1fe6b8	0.15615356
61	0x3d42bacd	0.04754143
62	0x3e1b4c8e	0.15165922
63	0x3cfed85d	0.03110903
64	0xbd291ccf	-0.04128724
65	0xbcd2ff06	-0.02575637
66	0xbd8be09f	-0.068299524
67	0x3bfdf740	0.0077504218
68	0xbe5d554f	-0.21614574
69	0x3c481fd1	0.012214617
70	0x3c7f9748	0.015600033
71	0x3cf491d7	0.029854698
72	0x3c627b09	0.013823279
73	0xbc0d34a3	-0.008618507
74	0xbcd33f49	-0.025787013
75	0xbd6aba23	-0.05730642
76	0xbc815e4c	-0.015792035
77	0x3c1591ae	0.009128971
78	0x3ce4d96c	0.027935706
79	0xbdb588bc	-0.08863971
80	0xbd8c637e	-0.06854914
81	0xbc9f8898	-0.019474313
82	0xbdcaaa63	-0.0989578
83	0xbd23b6ef	-0.03996938
84	0x3d32030f	0.04345995
85	0x3d5c4b72	0.053782888
86	0x3c84457f	0.01614642
87	0x3e4dbfed	0.20092745
88	0xbd1809b0	-0.037118614
89	0xbbb1a40c	-0.0054211672
90	0x3c96aaf2	0.01839206
91	0x3d34aa16	0.04410752
92	0xbc801a9a	-0.015637685
93	0xbe8be740	-0.27324867
94	0x3bcc91f6	0.006242986
95	0xbd940fd6	-0.07229583
96	0xbd2ab032	-0.04167194
97	0x3c59baf4	0.013289202
98	0xbd7ed631	-0.062215988
99	0xbca3736f	-0.019952504

linear_layer.3.weight f4 [100, 100]
0	0xbe29196d	-0.16513605
1	0x3dd1e5ad	0.10248885
2	0xbd4977c6	-0.04918649
3	0x3e26a023	0.16272025
4	0xbb7706fa	-0.0037693367
5	0xbcbadc94	-0.022810258
6	0x3d76ccf4	0.060254052
7	0x3dc16755	0.09443537
8	0xbddf193c	-0.10893485
9	0xbdcbe93b	-0.099565946
10	0xbe60a0f5	-0.219364
11	0x3d9b3d32	0.075800315
12	0xbe12fbb8	-0.14353836
13	0x3f126f96	0.57201517
14	0xbd77458a	-0.060369052
15	0x3d125a4e	0.035730653
16	0xbe81e62b	-0.25370917
17	0x3e193757	0.14962517
18	0xbdbf1d45	-0.093317546
19	0x3c95bff9	0.018280016
20	0xbecae771	-0.396297
21	0xbdfa1f04	-0.12212947
22	0xbd009525	-0.031392235
23	0x3e10cfd5	0.14141782
24	0x3ba6fcc2	0.005096049
25	0x3d94865b	0.07252189
26	0xbc851d89	-0.016249435
27	0xbd92ab36	-0.07161562
28	0x3e5f2ee0	0.21795225
29	0xbc5824f1	-0.013192401
30	0xbe1f6d19	-0.15568961
31	0xbe0bebdf	-0.13664196
32	0xbdfee845	-0.12446646
33	0xbd0d22f9	-0.03445718
34	0xbd843663	-0.06455686
35	0xbc8b01ef	-0.016968695
36	0xbe9c5b92	-0.30538613
37	0xbe55779c	-0.20846409
38	0xbe6f7345	-0.23383816
39	0xbdeea4be	-0.11652516
40	0x3e08d4c8	0.1336242
41	0xbe502486	-0.20326433
42	0xbe241d3e	-0.1602678
43	0x3e1422d7	0.14466415
44	0x3d22a664	0.039709464
45	0xbc9a16dd	-0.01880973
46	0x3d5c5dea	0.0538005
47	0x3e2e86ac	0.1704356
48	0xbe818c40	-0.25302315
49	0x3de31450	0.11087859
50	0x3dfa85f4	0.12232581
51	0xbd806edc	-0.06271145
52	0xbcdf93ff	-0.02729225
53	0x3e9904d5	0.298865
54	0x3e7ab1c7	0.24481879
55	0x3b515453	0.003194113
56	0x3db3dd4d	0.08782444
57	0xbe240f92	-0.16021565
58	0xbe20a817	-0.15689121
59	0xbe06aeff	-0.13152693
60	0x3c646080	0.013939023
61	0xbe08ed06	-0.13371667
62	0x3e970bdf	0.29501244
63	0xbdba43c5	-0.09094957
64	0x3dca5695	0.098797955
65	0x3c435989	0.011923202
66	0x3d45ef9e	0.04832422
67	0xbc84e065	-0.01622028
68	0x3dd14190	0.10217583
69	0xbc990ab6	-0.018681865
70	0x3e438fb6	0.1909779
71	0xbd3b6a02	-0.045755394
72	0x3dcb2430	0.099190116
73	0xbcd0f292	-0.025506292
74	0x3e470b54	0.19437915
75	0x3dd4b11e	0.10385345
76	0xbd9c19d9	-0.076221175
77	0xbc4d3ad4	-0.012526233
78	0x3c5217b0	0.01282303
79	0xbe82ef27	-0.25573084
80	0x3ba6aa4f	0.0050862203
81	0x3df62304	0.120183975
82	0xbd97d431	-0.07413519
83	0xbca21ea3	-0.01979
84	0x3e7d582f	0.2474067
85	0xbe1196a2	-0.14217618
86	0x3d162e59	0.036665294
87	0x3ce8f100	0.02843523
88	0xbe03fdfc	-0.12889856
89	0x3d11c959	0.03559241
90	0xbe44f90a	-0.19235626
91	0x3e8b42c3	0.27199373
92	0xbb8fcbe2	-0.0043883184
93	0x3d948ac0	0.07253027
94	0x3c0afe0a	0.008483419
95	0x3e071b9e	0.13194129
96	0x3d9f4502	0.07776834
97	0x3d0a48eb	0.033760946
98	0xbe3f64d0	-0.186908
99	0xbda9012e	-0.08252178
100	0x3e32aa30	0.17447734
101	0xbc57f9af	-0.013182088
102	0x3c1f158d	0.009709728
103	0xbdf2a56c	-0.11847958
104	0x3d00c53d	0.0314381
105	0x3cc34105	0.023834715
106	0xbde11db1	-0.10991991
107	0x3d6ae21b	0.057344537
108	0x3b9237d4	0.0044622216
109	0xbd8c44ad	-0.06849036
110	0xbdcff484	-0.101540595
111	0x3e080a42	0.13285163
112	0xbd292e22	-0.04130376
113	0x3e927372	0.28603703
114	0xbddb53b0	-0.107093215
115	0xbcb3a082	-0.021927122
116	0xbd7a34cf	-0.06108552
117	0xbda95fd4	-0.08270231
118	0x3dcec9b7	0.10097068
119	0x3c9ebf6d	0.019378388
120	0x3dc98304	0.09839442
121	0xbd8e0977	-0.06935399
122	0x3a83d594	0.0010058158
123	0xbe370a6a	-0.17875066
124	0xbe1e6780	-0.1546917
125	0x3dcc44e2	0.09974076
126	0x3cce4738	0.025180444
127	0xbe41ca18	-0.18924749
128	0x3e1f04a8	0.1552912
129	0x3dc6121a	0.09671421
130	0xbe318f62	-0.17339852
131	0x3e50485d	0.20340104
132	0x3d444f8d	0.047927428
133	0xbe2bbea7	-0.16771947
134	0x3d92266d	0.071362354
135	0xbd5ef180	-0.05442953
136	0x3df17662	0.11790158
137	0xbe6668c9	-0.2250091
138	0x3ae52083	0.0017481003
139	0xbbe5ddca	-0.0070149647
140	0x3c7703eb	0.015076618
141	0x3dcdcad2	0.100484505
142	0xbd27812a	-0.040894665
143	0x3d15a01a	0.036529638
144	0x3e4d89ac	0.20072049
145	0xbbaa885a	-0.0052042427
146	0xbe321ac1	-0.17393018
147	0x3d1ddcfe	0.038540833
148	0x3d1f8634	0.038946345
149	0x3e2a91bd	0.16657157
150	0x3d731980	0.05935049
151	0x3c74a8cc	0.014932822
152	0x3dede4fd	0.11615942
153	0xbccfd9a4	-0.025372334
154	0x3d424d99	0.047437284
155	0xbd28a52b	-0.04117314
156	0xbd5d92b8	-0.054095
157	0xbd9e618a	-0.07733448
158	0x3dff2a76	0.12459271
159	0x3d88299f	0.066485636
160	0x3d858208	0.06518942
161	0xbdb632b9	-0.08896393
162	0xbba6f974	-0.005095655
163	0xbd1e804a	-0.038696565
164	0x3db8f12a	0.090303734
165	0xbdcfb5da	-0.10142107
166	0xbe2ca786	-0.1686078
167	0xbcc3fc6a	-0.023924071
168	0xbe0519c7	-0.12998115
169	0xbe3a5386	-0.18195924
170	0xbd9055d1	-0.07047618
171	0xbc9af426	-0.018915247
172	0x3e4f69b6	0.2025517
173	0xbd8d92f9	-0.069127984
174	0xbda92ba1	-0.08260275
175	0xbd41c9e1	-0.047311667
176	0xbdbcf915	-0.09227196
177	0xbe1a0044	-0.15039164
178	0x3c0d602d	0.008628887
179	0xbc3ff8bc	-0.011717018
180	0xbd1fa1f6	-0.038972817
181	0xbd372821	-0.044716004
182	0xbcb6b17d	-0.02230143
183	0x3e2132aa	0.15741983
184	0x3d2a4c3f	0.04157662
185	0x3d867a8a	0.06566341
186	0x3a7ec3d1	0.000971851
187	0xbde163c8	-0.1100536
188	0xbcf4c9a1	-0.0298813
189	0xbceb878a	-0.028751153
190	0x3c0e9164	0.008701656
191	0x3dcef70a	0.10105713
192	0xbcf9f2cd	-0.030511284
193	0xbd383100	-0.044968605
194	0x3cbe49a8	0.023228481
195	0xbdf1d5e7	-0.11808377
196	0x3b1c5c9a	0.0023858906
197	0xbddb0480	-0.10694218
198	0xbe5085fd	-0.20363612
199	0x3ca405b7	0.020022256
200	0xbcaaa8ce	-0.020832445
201	0x3ceb1ce3	0.028700298
202	0xbd5f1421	-0.054462556
203	0xbdb7293a	-0.0894341
204	0xbc666b35	-0.014063646
205	0xbdae380b	-0.08506783
206	0xbd4d23ae	-0.050082855
207	0xbde1d431	-0.110268004
208	0x3d2bf449	0.041981015
209	0xbe1ff03b	-0.15618984
210	0x3d62409e	0.055237405
211	0x3e12aa15	0.14322694
212	0xbdcc4bf4	-0.099754244
213	0xbbd697d2	-0.00654886
214	0x3c9cbefd	0.019134039
215	0x3d524d0a	0.051343
216	0xbc0f124c	-0.00873239
217	0xbdffc67d	-0.124890305
218	0xbe6da718	-0.23208272
219	0xbd252b65	-0.040324587
220	0x3e5d3eca	0.21605983
221	0x3c2b900f	0.010471358
222	0x3ce717b2	0.028209541
223	0xbde63c39	-0.11241955
224	0x3c298432	0.010346459
225	0xbd41146d	-0.04713862
226	0x3df30860	0.11866832
227	0x3da9adbd	0.08285091
228	0xbd3cb251	-0.046068493
229	0x3db66602	0.08906175
230	0xbd884b76	-0.06655018
231	0xbd7a5b5f	-0.061122295
232	0x3d64dad2	0.055872746
233	0xbde31bdb	-0.110892974
234	0xbe47c8d6	-0.19510207
235	0x3e56c26e	0.20972607
236	0x3d9d65d9	0.076854415
237	0x3d56969e	0.052389733
238	0x3d7aa9c4	0.061197057
239	0x3e839772	0.2570148
240	0x3d7c3ee9	0.061583433
241	0x3d83476f	0.06410109
242	0xbd9035f4	-0.07041541
243	0xbdf36df9	-0.1188621
244	0x3da7d9a0	0.081958055
245	0xbd5ed7e1	-0.054405097
246	0xbde57e75	-0.112057604
247	0xbc2e68b6	-0.010645082
248	0x3a2b35c4	0.0006531144
249	0xbe3ba1a7	-0.18323384
250	0x3d16583c	0.03670524
251	0x3dba0fc2	0.09085037
252	0xbda34316	-0.0797178
253	0xbd2c6980	-0.0420928
254	0xbe368093	-0.17822485
255	0x3e5397b1	0.20663334

linear_layer.3.bias f4 [100]
0	0x3dce41fe	0.10071181
1	0x3c8eb6f6	0.017421227
2	0xbd71fb00	-0.059077263
3	0xbde78aef	-0.11305796
4	0xbc8515d6	-0.016245764
5	0xbd1e779e	-0.038688295
6	0x3dbb6663	0.09150388
7	0x3d3bd865	0.045860667
8	0x3d2bb391	0.041919295
9	0x3b45e8c5	0.0030198556
10	0xbd37cbb0	-0.044871986
11	0xbd01aa73	-0.031656694
12	0x3bd6e9f0	0.0065586492
13	0x3d15f6d2	0.03661234
14	0x3bf925d0	0.0076033846
15	0x3c13eb84	0.009028319
16	0xbd9c036b	-0.076178394
17	0xbc40ecd3	-0.011775213
18	0x3c733924	0.014845166
19	0x3d242a29	0.04007927
20	0xbd8603d0	-0.06543696
21	0x3d59766e	0.05309146
22	0x3ce2a968	0.02766867
23	0x3d207231	0.0391714
24	0x3baa10cb	0.00518999
25	0xbd27efeb	-0.041000288
26	0x3d8ab99e	0.06773685
27	0x3d7ef848	0.0622485
28	0x3d112410	0.035434783
29	0x3d4e5942	0.05037809
30	0xbcb1af4b	-0.021690032
31	0xbb623851	-0.003451843
32	0x3c916800	0.017749786
33	0x3cf01a0c	0.029309295
34	0x3a517541	0.00079901895
35	0xbcec8d72	-0.02887604
36	0x3c8b14b7	0.016977651
37	0xbc1f9bdb	-0.009741749
38	0xbd2b77d2	-0.041862316
39	0xbbd4e25b	-0.0064967102
40	0xbc85d9c9	-0.0163392
41	0x3c5c36d7	0.013440809
42	0x3d12a8e0	0.035805583
43	0xbc47d820	-0.012197524
44	0x3d84f80d	0.064926244
45	0x3d5e171c	0.054221258
46	0x3db66657	0.089062385
47	0xbe34f17c	-0.17670244
48	0x3d529ddd	0.05142008
49	0xbd380ed2	-0.04493601
50	0x3d0d8ca3	0.03455795
51	0xbcd13c74	-0.025541522
52	0xbbe873f8	-0.0070939027
53	0x3aa8eb0c	0.0012887432
54	0xbca9cd86	-0.020727884
55	0xbc9ded10	-0.01927808
56	0xbd4f2a9e	-0.050577752
57	0xbc963c4e	-0.018339302
58	0x3d3849c3	0.04499222
59	0x3d4d85a4	0.050176278
60	0x3bab532a	0.00522842
61	0x3cfd5c42	0.030927781
62	0x3bd03431	0.006353878
63	0x3c6bb565	0.01438651
64	0x3cc92c3f	0.024557231
65	0x3c81ceb0	0.015845627
66	0x3d896049	0.06707818
67	0xba997c28	-0.0011709975
68	0x3c8d8db4	0.017279483
69	0xbd2d1d0d	-0.042264033
70	0x3d012049	0.03152493
71	0xbd1df8ae	-0.038567238
72	0xbb7a5316	-0.0038196496
73	0xbc228d50	-0.009921387
74	0xbcefd68b	-0.029277107
75	0x3c998940	0.018742204
76	0xbbd8de5d	-0.0066183046
77	0xbe981c77	-0.29709217
78	0x3d24cb1e	0.04023277
79	0xbd58b199	-0.052903745
80	0xbc2dbf6a	-0.010604719
81	0x3ca74932	0.020420644
82	0xbb89b0e6	-0.004201996
83	0xbcca020d	-0.024659181
84	0xbd75b386	-0.05998566
85	0x3d4f0988	0.0505462
86	0x3cb55ed1	0.022139939
87	0x3d589947	0.05288055
88	0xbcfc226b	-0.03077813
89	0x3b7b391f	0.0038333607
90	0x3ced917c	0.029000036
91	0x3cdde95b	0.027088812
92	0x3d2ea6c5	0.042639513
93	0xbd0f1a56	-0.034937225
94	0x3bab4633	0.0052268743
95	0x3d35abab	0.04435317
96	0x3cc041de	0.023468908
97	0x3cb57889	0.022152202
98	0xbd1e69a2	-0.038674958
99	0xbd6033af	-0.05473679

linear_layer.4.weight f4 [100, 100]
0	0xbcc941e7	-0.024567557
1	0x3d15f95b	0.036614757
2	0x3d92fad8	0.07176751
3	0x3da301f8	0.0795936
4	0x3d666edb	0.056258064
5	0xba2e3376	-0.00066452415
6	0xbd5532c1	-0.052050356
7	0x3e1417cd	0.14462204
8	0x3daf481f	0.08558678
9	0x3cbd2bab	0.023092112
10	0xbe145f0b	-0.14489381
11	0x3dc9093a	0.09816213
12	0x3db26813	0.08711257
13	0x3e18999f	0.14902352
14	0x3dfeb333	0.12436523
15	0x3e5e8394	0.2172988
16	0x3e0c9bff	0.13731383
17	0x3ea8edbf	0.32993886
18	0x3c10b0d6	0.0088312235
19	0x3d14283e	0.03617119
20	0x3c2c1313	0.0105025945
21	0x3d555a3b	0.052088004
22	0xbc9f2273	-0.019425606
23	0x3e088de1	0.13335373
24	0x3e1c3220	0.15253496
25	0xbdc68f40	-0.096952915
26	0x3d9154c6	0.070962474
27	0xbdd10877	-0.10206693
28	0x3e2532e6	0.16132697
29	0xbd2ef721	-0.04271615
30	0x3e0e649f	0.13905571
31	0xbd8c38ff	-0.06846809
32	0xbe287ea9	-0.16454567
33	0x3d299e2d	0.041410614
34	0x3bd9991e	0.0066405674
35	0x3b4019b5	0.0029312198
36	0xbe4870de	-0.19574305
37	0x3d793e87	0.060850646
38	0x3e12e925	0.1434675
39	0x3cdb46bd	0.02676713
40	0xbe58a3bb	-0.21156208
41	0xbe8a9d41	-0.270731
42	0xbe92ff9d	-0.28710642
43	0x3da7fbae	0.08202301
44	0xbd336f5f	-0.043807384
45	0xbe824533	-0.2544342
46	0x3e2c8dcf	0.1685097
47	0xbd65134d	-0.05592661
48	0x3d8df534	0.069315344
49	0x3cb60a96	0.022221845
50	0xbd5460f5	-0.051850278
51	0xbdd0b18f	-0.101901166
52	0xbdc7cba2	-0.09755637
53	0xbc624dcd	-0.013812494
54	0x3c125c7c	0.008933183
55	0x3d8463f5	0.06464378
56	0x3d64175a	0.055686332
57	0x3d95d98d	0.07316885
58	0x3daae097	0.08343618
59	0x3d693188	0.056932002
60	0x3dac3790	0.08409035
61	0x3bbc6d72	0.0057503516
62	0x3c80646f	0.01567289
63	0x3cf206e0	0.029544294
64	0x3defca38	0.11708492
65	0x3d14ee73	0.036360215
66	0x3c316154	0.0108264275
67	0xbc7d21ad	-0.015449923
68	0xbe606a79	-0.21915616
69	0x3df1dcf4	0.118097216
70	0x3d1d246a	0.038364805
71	0x3d8efd6e	0.069819316
72	0xbdc37651	-0.095440514
73	0x3e3e6b37	0.18595587
74	0x3ca70838	0.020389661
75	0xbe28c971	-0.16483094
76	0x3db501bb	0.08838221
77	0x3dc0e48a	0.0941859
78	0xbc7a40f1	-0.015274272
79	0x3d03b94d	0.03215914
80	0x3d3e0a2d	0.046396423
81	0x3d98f2bc	0.07468173
82	0x3d5541e7	0.052064802
83	0xbb093d85	-0.002094121
84	0xbd2dfcf7	-0.042477574
85	0xbc0f84a2	-0.0087596495
86	0x3e095643	0.13411812
87	0xbc9a0779	-0.018802391
88	0xbd218540	-0.039433718
89	0xbd1032ca	-0.035204686
90	0xbca193b2	-0.019723747
91	0x3e00846d	0.12550516
92	0xbe57f134	-0.21088105
93	0x3da4aad9	0.08040399
94	0xbdb027c2	-0.08601333
95	0xbdab8882	-0.08375646
96	0x3cad5028	0.021156386
97	0xbc638812	-0.013887422
98	0xbdc943a6	-0.09827356
99	0xbcddc6b6	-0.027072292
100	0xbdc91c42	-0.09819843
101	0x3b00e4e5	0.0019667682
102	0xbdfc88a7	-0.12330752
103	0x3c88c0d2	0.016693506
104	0xbcd203d3	-0.02563659
105	0xbd8e947c	-0.06961915
106	0xbe55de04	-0.20885473
107	0x3b84dec2	0.004054875
108	0x3ab97873	0.0014150277
109	0xbd8f01b1	-0.069827445
110	0xbcfb7714	-0.03069643
111	0xbc93af1a	-0.01802783
112	0x3e0a478f	0.1350386
113	0x3dddd3cc	0.10831413
114	0x3e665cbd	0.22496314
115	0xbd4298d4	-0.04750903
116	0xbdef7c00	-0.11693573
117	0xbda6771e	-0.081281886
118	0xbd7c7e97	-0.061644163
119	0x3d87e5e8	0.06635648
120	0xbda7f1d0	-0.08200419
121	0x3dd68ef1	0.10476483
122	0x3dbc2852	0.09187378
123	0xbd9a69ad	-0.07539687
124	0x3c87c858	0.016575024
125	0xbd2e3672	-0.04253239
126	0x3d92d133	0.07168808
127	0x3e08f5e6	0.13375053
128	0x3e6c8671	0.2309816
129	0x3dac8b4f	0.084250085
130	0xbd8d676a	-0.0690449
131	0x3d894922	0.06703402
132	0x3d67c5b3	0.056585025
133	0x3cd847ec	0.026401483
134	0xbccd42d2	-0.025056276
135	0xbe691870	-0.22763228
136	0xbdf801ed	-0.12109742
137	0xbdbd78fc	-0.092515916
138	0x3de0e970	0.10982025
139	0x3db82720	0.089918375
140	0x3d26f71e	0.040763013
141	0x3d0f4f14	0.034987524
142	0x3db237b4	0.08702031
143	0x3e277394	0.16352683
144	0x3d334514	0.04376705
145	0xbd194e54	-0.037428215
146	0x3e693e74	0.2277773
147	0x3de492f4	0.111608416
148	0xbd1beadd	-0.03806578
149	0xbe23ff9c	-0.16015476
150	0xbd1e42d3	-0.038637947
151	0x3d531aba	0.05153916
152	0xbd2ce3be	-0.04220938
153	0xbdab4e26	-0.08364515
154	0xbd50a107	-0.050934818
155	0xbdbeca47	-0.09315925
156	0xbd526004	-0.0513611
157	0x3db5b95f	0.08873247
158	0xbd548cff	-0.051892277
159	0xbc2a315c	-0.010387745
160	0xbbfb2491	-0.007664271
161	0x3d33f0c5	0.043930788
162	0x3c82bdac	0.015959583
163	0xbe63adcf	-0.22234271
164	0xbd1b2e72	-0.03788609
165	0x3e18875a	0.14895383
166	0x3e0e152b	0.13875262
167	0x3e1636d4	0.14669353
168	0xbdf3adf4	-0.11898413
169	0xbdca7bc4	-0.09886888
170	0xbdd20ced	-0.10256372
171	0xbde5db48	-0.11223465
172	0x3bd041c7	0.0063554975
173	0xbe3d554a	-0.18489566
174	0xbba37d7c	-0.004989324
175	0x3d9f57b8	0.07780403
176	0x3d5abcdb	0.053402763
177	0xbe50474f	-0.20339702
178	0xbe3136e3	-0.17306094
179	0x3deb414c	0.11487064
180	0x3e154cfb	0.14580147
181	0xbe205d60	-0.1566062
182	0x3d07102d	0.03297441
183	0xbd2d2e9b	-0.042280775
184	0x3d7672fa	0.060168244
185	0xbcd76db1	-0.026297422
186	0xbe1e0c87	-0.15434466
187	0xbd79a844	-0.060951486
188	0xbe2e345a	-0.17012158
189	0xbe2076c7	-0.1567031
190	0x3db78bf1	0.089622386
191	0xbd9aa963	-0.07551839
192	0xbe07cc93	-0.13261633
193	0x3d51eb31	0.051249687
194	0x3cd3c5dc	0.025851183
195	0x3cc1f85c	0.023677997
196	0xbcf8c3bd	-0.030366773
197	0xbdaebb69	-0.085318394
198	0x3dda8ed9	0.10671777
199	0x3ce05690	0.027385026
200	0x3d701105	0.05860998
201	0xbc13369e	-0.00898519
202	0xbe3e90a8	-0.1860987
203	0x3de0fd70	0.10985839
204	0xbe5ce9f0	-0.21573615
205	0xbdaf4638	-0.08558315
206	0x3d663875	0.056206185
207	0x3de3be2d	0.111202575
208	0xbe8ee102	-0.27906042
209	0x3b01d964	0.0019813413
210	0x3d83a5f7	0.0642814
211	0x3cd1c888	0.025608316
212	0xbc9f9112	-0.019478355
213	0xbde35015	-0.11099259
214	0x3d37baee	0.044856004
215	0x3e2f825f	0.17139576
216	0xbe23243b	-0.1593179
217	0xbe3ac143	-0.18237786
218	0x3d479455	0.048725445
219	0x3d65d8f9	0.056115124
220	0xbd5ea32f	-0.054354843
221	0xbbade0aa	-0.005306323
222	0x3e3153f7	0.17317186
223	0x3d01198d	0.031518508
224	0x3c878296	0.01654176
225	0xbd2decd1	-0.042462174
226	0xbd40f8c8	-0.047112256
227	0x3b02ac41	0.0019939097
228	0x3e278404	0.16358954
229	0xbd6f15fa	-0.058370568
230	0xbe4a955c	-0.19783539
231	0x3d8b866b	0.068127476
232	0x3e357b80	0.17722893
233	0x3e136b1b	0.14396326
234	0xbdb6ffd7	-0.08935516
235	0x3d21f117	0.03953656
236	0xbc33d04b	-0.010974954
237	0x3e249411	0.16072108
238	0xbe0ceb27	-0.13761579
239	0xbc95f0b3	-0.01830325
240	0xbe09049a	-0.13380662
241	0x3d693704	0.056937233
242	0x3e2d0a5e	0.16898486
243	0xbe19c36a	-0.15015951
244	0xbe1302c8	-0.1435653
245	0x3c32d759	0.010915601
246	0x3e1b3308	0.15156186
247	0x3eb132fd	0.34609213
248	0x3db78a1f	0.089618914
249	0x3d727ea7	0.059202816
250	0x3ea31280	0.31850052
251	0x3c834669	0.016024785
252	0x3d76c9d8	0.060251087
253	0x3d7c2c1e	0.06156551
254	0x3e475b6b	0.19468467
255	0x3dcf3ab8	0.101186216

linear_layer.4.bias f4 [100]
0	0xbbe2e9ea	-0.0069248574
1	0xbd090c5e	-0.03345906
2	0x3d81242d	0.06305728
3	0xbc999e40	-0.018752217
4	0xbe0a3168	-0.1349541
5	0xbc73dca4	-0.014884148
6	0xbd0afcce	-0.0339325
7	0x3c42d0f6	0.0118906405
8	0x3d36d4c0	0.044636488
9	0x3cc7e400	0.024400711
10	0x3c6e6b7f	0.014551996
11	0xbdc2eae3	-0.09517457
12	0xbca4c999	-0.02011566
13	0x3c95673f	0.018237708
14	0xbcd5c4fa	-0.026094902
15	0x3c8e8bbe	0.017400619
16	0x3d17ce1d	0.0370618
17	0xbcd3147a	-0.0257666
18	0xbd755ba4	-0.05990185
19	0x3d43e9d7	0.04783043
20	0x3d8e6309	0.06952483
21	0xbcd1bcac	-0.025602661
22	0x3be121b8	0.0068704747
23	0x3c68c621	0.014207394
24	0x3c793949	0.015211412
25	0x3cd29e9f	0.025710402
26	0xbc71a68a	-0.014749179
27	0xbc03348a	-0.008008132
28	0xbd16c7a9	-0.036811505
29	0xbd3271db	-0.043565612
30	0x3cda2148	0.026627198
31	0x3c8ccfa4	0.017188855
32	0xbcb14baa	-0.021642525
33	0xbd181dbe	-0.03713774
34	0x3cf9dddb	0.030501297
35	0xbd923e44	-0.071407825
36	0x3d23eddd	0.040021766
37	0x3e1f9309	0.15583433
38	0x3c84e4aa	0.016222317
39	0xbd136ced	-0.03599255
40	0xbba4c1c9	-0.005027984
41	0x3c87b40a	0.016565342
42	0xbb95b459	-0.0045686183
43	0xbc1bebb3	-0.009516644
44	0xbd5109ad	-0.05103462
45	0x3c35e9ba	0.011103088
46	0xbd0edde1	-0.03487957
47	0xbc98f93d	-0.018673534
48	0xbbe59df0	-0.007007353
49	0xbca5ffe1	-0.020263614
50	0x3a5c797c	0.00084104366
51	0xbbec75bf	-0.007216185
52	0x3ae77dbe	0.0017661375
53	0x3c9089e1	0.01764387
54	0x3bbd3e2c	0.0057752337
55	0xbcc72839	-0.024311172
56	0x38e53b54	0.00010930622
57	0xba5c40f8	-0.0008402015
58	0xbca200fe	-0.019775864
59	0xba101aaa	-0.00054971373
60	0xbb774216	-0.00377286
61	0x3d9ac965	0.07557944
62	0x3c3a345d	0.011365023
63	0xbc09707e	-0.008388637
64	0x3c18f04f	0.009334638
65	0x3b614e27	0.0034378858
66	0x3b22a379	0.0024816676
67	0xbcab29c8	-0.020893946
68	0x3d257f1d	0.040404428
69	0xbcc7b226	-0.02437694
70	0xbd6c5e55	-0.05770715
71	0xbc552a19	-0.013010525
72	0x3c7f3986	0.0155776795
73	0xbaa273c9	-0.0012394126
74	0x3cf29f95	0.02961711
75	0xbd20ba35	-0.03924008
76	0xbc835432	-0.016031358
77	0x3cd91db8	0.026503429
78	0x3d3e8e8e	0.04652267
79	0x3bf2e653	0.0074127107
80	0x3d4157cf	0.04720288
81	0xbcee2103	-0.029068476
82	0x3dab20bd	0.08355854
83	0x3d58b071	0.052902643
84	0xbd68142a	-0.056659855
85	0xbd7f39e7	-0.06231108
86	0xbbb59c27	-0.0055422965
87	0xbcd4db19	-0.02598338
88	0xbc34982e	-0.011022611
89	0x3c362dfc	0.011119362
90	0x3c1b4c88	0.009478696
91	0x3cb7ab37	0.022420509
92	0xbca8d1bb	-0.02060782
93	0x3c9536df	0.018214641
94	0x3d79b2a5	0.060961384
95	0xbcbe22b3	-0.023209905
96	0xbb78963c	-0.0037931344
97	0xbc8d29d1	-0.017231854
98	0xbd3913e2	-0.045184977
99	0xbc9955eb	-0.018717727
