ac_2d_model_para_5/checkpoint_2000.pth (torch, 291152 bytes, 17 tensors)

linear_layer.0.weight f4 [100, 3]
000000 d7 82 67 3e bf 40 22 3e d7 ad 44 be d6 a9 5b 3c
       0.22608505 0.15845011 -0.1920694 0.013407191
000010 bf da 92 bd 80 49 e4 3d 18 f9 4a 3d d4 93 7d bd
       -0.07170629 0.111468315 0.04955396 -0.061908558
000020 14 54 91 be 66 12 92 3e 5b ca 0f bd cd 02 5b 3e
       -0.2838446 0.28529662 -0.03510509 0.21387787
000030 84 53 2b be f5 29 1d be d3 6f bb be 59 0d 92 bd
       -0.16731077 -0.15348037 -0.36608753 -0.07131452
000040 df 43 4c be 5f a0 09 be 70 fb d7 bd 50 eb 09 3e
       -0.19947766 -0.13440083 -0.10546005 0.13468671
000050 ef 29 fb bd 3a cc 9e bd 90 0b 35 bd 9d 1c aa be
       -0.122638576 -0.07753797 -0.04420048 -0.33224955
000060 d4 80 08 3f b6 80 4a 3d 8a eb 9e 3c 0a 39 29 be
       0.53321576 0.049439155 0.019399423 -0.16525665
000070 1b d6 3f be f6 37 98 bd 12 ce 18 3d 81 53 53 be
       -0.18734019 -0.07432549 0.0373059 -0.20637323
000080 1a fc 07 3e 4d 61 e9 bd 02 a1 85 3d d0 bb 72 be
       0.13279763 -0.11395512 0.065248504 -0.23704457
000090 f1 ba e4 3e a0 af 8f bb e0 a8 e9 bd c8 ba 99 3e
       0.44673875 -0.00438495 -0.114091635 0.30025315
0000a0 ca 1e 1b bc 3a 30 80 3e f5 7b 4d 3e ae fc 20 3e
       -0.00946779 0.25036794 0.20066817 0.1572139
0000b0 16 3d 3d 3e 99 f8 3e be 1c b7 47 be a6 c9 e2 3c
       0.18480334 -0.1864952 -0.19503444 0.027684044
0000c0 1c 92 a4 3e 69 2c b2 3c e9 e4 93 be 66 69 5b be
       0.32142723 0.021749692 -0.28885582 -0.21426925
0000d0 b9 e9 18 be 07 a3 1e be bf 38 a1 be 30 ba 8e bc
       -0.14932908 -0.15491877 -0.31488606 -0.017422765
0000e0 9b de c4 3d bd f7 1f 3e 3e 19 25 3e f1 8c 72 be
       0.09612771 0.15621848 0.1612291 -0.23686577
0000f0 bb c5 b1 3d 9c e5 4d be b3 96 a4 3d 26 0b e2 3e
       0.08680292 -0.2010712 0.08036556 0.4414913
000100 7b 2d ae bd 6f 9e 9e 3d 9f 72 8e be 90 aa 1d be
       -0.085047685 0.077450626 -0.27821824 -0.15397096
000110 9b 94 bf 3c 74 7b 23 3e 4d ee c9 3c 70 f8 f5 be
       0.02338629 0.15965062 0.024649763 -0.48041105
000120 50 29 78 3e da 87 0b 3d 1e bb 9c 3e 0a cf 3d 3e
       0.2423451 0.034065105 0.3061151 0.1853601
000130 10 3c a9 3d 22 37 90 3b a2 11 a3 be c1 ad 5c be
       0.08263409 0.0044011036 -0.3184939 -0.21550657
000140 dd 20 ae bd ef fa 63 3d 50 2a 89 3e 0d 1b 62 3d
       -0.08502362 0.05565923 0.26790094 0.05520158
000150 23 27 59 3e 22 34 58 be 4d 3e 59 3d 68 ff db 3d
       0.21206336 -0.21113637 0.05303793 0.10742074
000160 e1 45 9a bc 73 6a d4 bd f5 32 40 bd bd 35 25 be
       -0.018832149 -0.10371866 -0.046923596 -0.16133781
000170 45 06 0f be c1 58 e2 3e 23 fb 85 3c e7 68 a7 3e
       -0.13967235 0.4420834 0.016355103 0.32697222
000180 37 e2 cd 3d 6c 38 66 be 1b 53 07 3e 85 73 d3 be
       0.10052913 -0.2248246 0.13215296 -0.41299072
000190 1e fb 8a 3c 51 7a d7 bd 05 8f 87 3d ab 2b c7 bd
       0.016965445 -0.10521377 0.06619076 -0.09725126
0001a0 92 1e 94 be 6b fc 04 3e f6 32 13 be 14 ce 54 3e
       -0.28929573 0.12986915 -0.14374909 0.20781738
0001b0 b9 9e 24 be 1f 23 89 3e 7d 70 a2 3c a1 1a 94 3e
       -0.16076173 0.26784608 0.01982903 0.28926566
0001c0 51 10 16 3e 80 d9 7d 3d c4 30 01 bd 62 c5 ba bd
       0.14654662 0.061975002 -0.031540647 -0.09119679
0001d0 0f 12 cd be d2 0d 16 be 7c 90 e3 bc 15 5e 1b be
       -0.4005284 -0.1465371 -0.027778856 -0.15172608
0001e0 77 a9 b7 3d 2d f6 c1 3d 01 e6 03 be fa 73 54 be
       0.0896787 0.094707824 -0.12880708 -0.20747367
0001f0 8e 61 2e bc 79 ef 08 3e d2 c4 73 be fa 9b 2f 3e
       -0.010643376 0.13372602 -0.2380555 0.17149344
000200 84 0c 03 be 2a 30 1d 3e 08 fc 87 bd e4 05 82 3e
       -0.12797743 0.15350404 -0.06639868 0.2539512
000210 98 fe 22 be 48 2e 4c 3e b6 92 03 3e bb 88 9f bd
       -0.15917432 0.1993953 0.12848935 -0.07789751
000220 16 ca e4 bd fd b2 17 3e d3 17 ed be 8e e8 20 3e
       -0.11171357 0.14814372 -0.4630724 0.15713713
000230 9d 10 90 be 70 58 dc 3e 6a b3 9a 3a 5b 95 01 be
       -0.28137675 0.43036222 0.0011802737 -0.12654631
000240 e1 6a c0 3d 6f c2 c1 3d 07 e7 c0 3d 19 96 cd 3e
       0.093953855 0.094609134 0.09419065 0.40153578
000250 c6 51 d3 bd 20 1a ee bd 38 c8 83 3e 20 99 e5 3d
       -0.103183314 -0.11626077 0.25738692 0.11210847
000260 e2 69 f9 bd 3c 35 57 3e 09 c7 62 bd b4 1f 19 be
       -0.12178399 0.21016401 -0.055365596 -0.149535
000270 5f a8 de bd 42 36 82 3e 10 f9 c2 3d 7e 3b 97 3c
       -0.10871958 0.2543202 0.09520161 0.018460985
000280 39 aa 67 3d 80 a6 84 3e db f9 01 3e ee ff ae 3d
       0.05655882 0.2590828 0.12692969 0.085449085
000290 a0 45 b2 3b 73 75 b4 3e 02 a9 95 bd 91 2a de 3d
       0.005440429 0.35245857 -0.07307626 0.10847963
0002a0 ce 5b 0e 3f 9e 45 72 3c 4c 2a 4d bc d1 0d b2 3e
       0.5560883 0.014787106 -0.012522291 0.34776166
0002b0 05 6a f4 bd 9f c2 82 be 21 6d b7 3e 2a 6e 08 3c
       -0.11934284 -0.2553911 0.35825446 0.008327046
0002c0 64 e2 12 be df 72 6d bd 39 f6 2f be da b8 8a 3e
       -0.14344174 -0.057970878 -0.1718377 0.27094156
0002d0 77 06 16 be 3a ae f1 3d 0c cc db bb 97 cc 4e 3c
       -0.14650904 0.11800809 -0.006707674 0.01262202
0002e0 93 d1 90 3e 98 c3 c8 3c 3b 58 a8 3e f2 1b 1a be
       0.28284892 0.024507329 0.32879815 -0.15049723
0002f0 d0 8c 7a bd 03 ee 9c 3a 6f 97 f1 3d e2 4f 4c be
       -0.061169446 0.0011972788 0.11796462 -0.19952348
000300 01 63 d7 3e b3 4e 1d be 17 01 93 3d 26 f0 f1 3c
       0.4206772 -0.15362053 0.07177942 0.029533457
000310 2a 0e d5 3d f2 74 a5 3e 4a 37 1f 3e 0e 79 e4 bc
       0.10403092 0.32315785 0.15548435 -0.027889755
000320 e5 68 be be 8c 26 02 bf 77 5e e3 bc b9 2a d9 3d
       -0.37189403 -0.5084007 -0.027755005 0.10603852
000330 16 7c c9 3e a6 69 f2 bd 8e 8c 88 3c 99 0c cc bd
       0.39352483 -0.11836557 0.016668584 -0.0996334
000340 83 b0 d4 3d 34 19 cf 3c 44 c2 98 be 1f 92 7e 3c
       0.103852294 0.025280572 -0.29835713 0.015537768
000350 16 f9 14 bd eb 8c f5 3d 6a 38 1e 3e 2a 1f b6 3d
       -0.03637036 0.119897686 0.15451208 0.08892663
000360 88 0a b7 bd 45 64 88 3e 69 13 ca bd 40 fc e6 3d
       -0.089375556 0.26639 -0.098669834 0.112785816
000370 b1 f2 1b 3e df d6 5e be d1 cc ff 3e 57 9a 03 3d
       0.15229298 -0.21761654 0.4996095 0.03212961
000380 98 31 a7 bd 1d d2 f2 bc 2d e0 b3 3e 4b 3d 16 3e
       -0.08163756 -0.029641205 0.3513197 0.14671819
000390 73 a4 2e be 22 d9 d2 be a3 7c 81 3e 2d 9a c1 be
       -0.1705492 -0.41181284 0.25290403 -0.3781294
0003a0 d0 46 c5 bd d2 41 33 be 67 ec cf bc ca 69 5e 3e
       -0.09632647 -0.17505577 -0.02538128 0.21720043
0003b0 b2 1a 04 bc 76 17 eb 3c 9e 7b 4a be fc 4d 58 3d
       -0.008063005 0.02869771 -0.19773719 0.052808747
0003c0 0c 38 17 3e 6a 6f 66 bd 35 7f 1d bd ae 64 19 be
       0.14767474 -0.056258596 -0.038451392 -0.14979813
0003d0 2b eb 4f be 81 ef a2 bd cf 4f 83 be 5f 38 25 3e
       -0.20304553 -0.07955838 -0.25646827 0.16134785
0003e0 42 cc ae 3d d0 cf 3a 3e cc 86 e4 bd 5b 4c f5 3e
       0.08535053 0.18243337 -0.11158523 0.47909817
0003f0 51 74 8d 3e 04 9d 0a bd 53 64 89 be fe e0 59 3e
       0.27627805 -0.033841148 -0.26834354 0.21277234

linear_layer.0.bias f4 [100]
000000 01 f8 ae bc 87 ab 94 bd 2e a8 4a 3e ea e9 26 bd
       -0.021358492 -0.07259279 0.19790718 -0.04075042
000010 c8 5b a2 3c f3 6a 0a bd 00 33 ab 3d 4c 57 0e 3e
       0.019819155 -0.0337934 0.08359337 0.13900489
000020 35 c9 48 be 5a de 62 3d 64 ad 6c 3d 2e 4a 0a be
       -0.19608004 0.055387832 0.057782546 -0.1350486
000030 8a 6d 57 3e 11 85 6e 3e 94 29 7f 3d 6c a6 91 3a
       0.2103788 0.23292948 0.06229551 0.001111222
000040 a2 88 13 be e5 46 9d 3c 04 af 00 bd fd 8f 98 bb
       -0.1440759 0.019198844 -0.031416908 -0.0046558366
000050 f3 3c 03 be 77 90 96 bd 7c 38 3d bd 43 83 d3 3c
       -0.12816219 -0.07351773 -0.046196446 0.025819426
000060 ff 0d 3e 3d db ac 30 3e c7 27 e6 3d 23 e1 13 bd
       0.046400066 0.17253439 0.11238056 -0.03610338
000070 c9 b9 65 3d 69 87 fd bd 0f 30 97 bd 54 5b 69 bc
       0.05608538 -0.12379343 -0.07382213 -0.014242966
000080 13 06 0d 3e 66 5d de bd f7 f0 aa bd 38 71 92 3d
       0.13771848 -0.10857658 -0.08346742 0.07150501
000090 dd 7f d9 bc d8 35 45 be c2 3d 23 3e 0d 06 3d 3e
       -0.026550228 -0.19258821 0.15941527 0.1845934
0000a0 ef 7c c1 3d 16 b2 73 bd a9 95 99 3d 75 a2 9c be
       0.09447657 -0.059496008 0.074992485 -0.30592695
0000b0 52 1c b3 3c ac 3f 05 be 18 3e 07 be e7 8a c0 3c
       0.02186409 -0.1301257 -0.1320728 0.023503734
0000c0 64 11 c5 bd d8 0c 4a be 16 31 92 3e 47 64 b2 3d
       -0.096224576 -0.19731462 0.28553075 0.08710533
0000d0 e1 3a 37 ba 3e 1a 7f be 99 eb da 3d be a9 fe 3d
       -0.00069896696 -0.24912354 0.10689468 0.124347195
0000e0 66 76 00 3d d6 dc 13 bc ac 39 e2 bb 1d e5 31 3c
       0.031362914 -0.009024819 -0.0069038477 0.0108578475
0000f0 e3 ec f0 bd b4 5e 96 bc e5 dc a3 3b ba 06 32 3e
       -0.117639326 -0.018355705 0.005000698 0.17385378
000100 9c 8e 11 be a7 ce b6 3d 7d 8d 6f be a0 d8 2b 3a
       -0.14214557 0.089261346 -0.23393817 0.0006555412
000110 4e b4 b6 bd dd 8d d1 3d 6e 0a 41 3e 7c cb c1 bd
       -0.08921109 0.102321364 0.18851635 -0.0946264
000120 7f e5 d3 bd 40 ff 64 3e 42 d2 8e bc f7 98 01 3d
       -0.10346507 0.22362995 -0.017434243 0.03164002
000130 64 c7 ad 3c cf c8 a6 3d 40 db ff bd a5 52 fc bc
       0.02121324 0.0814377 -0.124929905 -0.030801127
000140 f8 be 1e 3e 86 fa 07 3e a4 eb 5d bd 1c 30 7c 3c
       0.15502536 0.13279161 -0.054179803 0.01539233
000150 24 d1 0a 3d 24 f4 6a 3d 4a 36 06 3e 7f 81 21 3e
       0.03389086 0.057361737 0.13106647 0.15772055
000160 58 be e3 bd c5 da d5 bd 73 5d 0e be 37 52 4e be
       -0.111202896 -0.104421176 -0.13902836 -0.2014855
000170 bd 48 95 bd 14 d3 0a 3e 9b 68 20 bd 1b 46 26 3d
       -0.07289264 0.13557082 -0.03916226 0.0405942
000180 31 c0 89 3e 20 50 87 3d 66 2a 9f bd 42 a8 6d 3d
       0.26904443 0.066070795 -0.07771759 0.05802179

linear_layer.1.weight f4 [100, 100]
000000 50 39 65 3d 3d 28 1b 3e 02 44 86 bd 79 71 c1 bc
       0.05596286 0.15152068 -0.0655594 -0.023613678
000010 94 3b 77 bc 95 b5 97 3b 72 48 cc 3d ad b5 69 3d
       -0.015089888 0.0046298006 0.09974755 0.057058025
000020 62 61 17 3e aa f3 1a be 2b 1d a2 bd aa d9 32 3c
       0.14783242 -0.15132013 -0.079157196 0.010916153
000030 7a 90 7c be 83 1f 9c bd 21 24 87 3d b9 d8 8b 3d
       -0.24664488 -0.07623198 0.06598688 0.06828446
000040 85 48 62 be f6 f2 1c be 36 70 5a 3e 6a 3e 2b 3b
       -0.22097977 -0.15327057 0.21331868 0.002612973
000050 bc c2 b8 bd 61 c7 e0 3d 06 35 10 3d 2c 67 1a 3e
       -0.09021518 0.109755285 0.035206817 0.1507842
000060 9c 2e 8f bd 27 c1 63 3b 19 bc ae bd ab 36 61 bc
       -0.06991312 0.003475258 -0.085319705 -0.013745944
000070 9f d2 71 be 0e 93 b6 bd fd 75 50 bc 63 69 c6 bb
       -0.23615502 -0.08914767 -0.012723443 -0.0060550435
000080 4d 7f 2d bd c9 74 6c 3e dc ea a8 bd 8f ca 81 bd
       -0.04235773 0.23091425 -0.08247921 -0.06337463
000090 18 fc ba bd f8 26 3f bc e9 90 04 3e 5e 89 12 be
       -0.09130114 -0.011667006 0.12945904 -0.14310214
0000a0 06 89 50 3d 4a 5f 28 3e 28 36 0e be fa 0e 63 bd
       0.050911926 0.164426 -0.13887846 -0.055434205
0000b0 7b be ef 3a b0 e6 08 bd 01 ca 68 3d 55 44 c0 3c
       0.001829102 -0.033423126 0.05683327 0.023470083
0000c0 46 a5 f8 3a b8 33 fc 3d 03 4d 64 bc 32 bc 91 be
       0.0018970154 0.12314552 -0.013934377 -0.28463894
0000d0 0f f8 ec 3d bf d1 bf 3d f5 1a 0c bd 6f 82 5f be
       0.11570751 0.09366178 -0.034205396 -0.218271
0000e0 8a e4 15 be da ec 9c bd a0 71 18 3e be 19 2e 3e
       -0.14637962 -0.07662363 0.14887094 0.17002007
0000f0 f5 2d 61 3c 8b de 81 3d 73 43 2f bc 8d b4 24 be
       0.013743867 0.06341275 -0.0106972335 -0.160845
000100 1d 30 c2 bc fb 4b 3a 3e fd d0 46 bc 20 62 6b 3d
       -0.023704583 0.18193047 -0.012134788 0.057466626
000110 ae 6d c5 3c 09 e7 b5 bd ff c5 28 3c 19 b5 c9 3d
       0.02410015 -0.08881957 0.010301112 0.09848995
000120 25 08 95 bd f2 ed 28 3d 9a c8 80 be d6 f5 f2 3c
       -0.07276944 0.041242547 -0.25153047 0.02965824
000130 29 d4 1e bd 78 d2 14 3c 9d 06 33 be a5 dd ef bd
       -0.03877655 0.009083383 -0.17482992 -0.11712197
000140 9a cf 08 bd 11 01 50 bc 65 4d cf bc 9b 80 cc bd
       -0.03340111 -0.012695567 -0.02530546 -0.09985467
000150 5f 96 70 3d 61 c4 00 3e 3c 3b f3 bc 72 f1 9d bd
       0.058737155 0.12574913 -0.029691331 -0.07712068
000160 7f dc bf 3d d6 02 fb 3d b9 bf ca bb a6 e6 08 3e
       0.09368228 0.122564 -0.006187406 0.13369235
000170 9f 01 b4 bd 83 4c 84 bd e5 0c 03 bc 25 6a d9 bd
       -0.08789372 -0.06459906 -0.00799868 -0.106159486
000180 da 7a 81 bd f2 b5 9e bc 24 75 05 be fc 41 a1 bd
       -0.0632226 -0.019373868 -0.13032967 -0.07873914
000190 a7 f8 44 3d 59 a9 5e 3e 7c 4c b0 bc 94 01 7a 3d
       0.048088696 0.21744289 -0.021520846 0.06103666
0001a0 6b 51 5f bd 99 3a 2c be 00 9a 09 3e 52 e1 8d be
       -0.054521006 -0.16819228 0.13437653 -0.27710968
0001b0 24 f0 4c bd 95 71 91 bd 11 08 88 bd da 4c 1d 3d
       -0.050033703 -0.07101742 -0.066421635 0.03840337
0001c0 32 67 de 3d a0 88 f5 3d 7f 3b 23 3e f0 b0 18 be
       0.10859527 0.1198895 0.15940665 -0.14911246
0001d0 3b f4 2e bd 2d 4b 92 be ee b3 5a 3c 72 bc 41 3e
       -0.042713385 -0.2857298 0.013348563 0.18919542
0001e0 6d d5 e6 bd af 52 bd bc 5c 80 f2 3c 61 74 f3 3d
       -0.112711765 -0.023110716 0.029602222 0.11887432
0001f0 31 9b 41 3e c6 8d a4 3d 79 8a ba bd d5 53 f5 3d
       0.18906857 0.08034854 -0.09108443 0.1197888
000200 14 d1 fb bd 12 5c a6 bd e7 7c 8d bd 4b 53 d1 bd
       -0.12295738 -0.0812303 -0.06908589 -0.10220965
000210 b7 fe 32 3e 9b c9 e7 bd a3 6d dd bd c2 82 14 3d
       0.17479979 -0.1131775 -0.10811927 0.036257513
000220 77 fa 40 3e 46 1d 91 3c 28 8d c5 bc d4 6b a9 bd
       0.18845545 0.017714154 -0.02411516 -0.0827252
000230 71 30 4f 3e 4c 0b cb bd f0 ea 00 3e 07 6a 3b be
       0.20233323 -0.09914264 0.12589622 -0.18302165
000240 37 6d 4d 3e 6d f0 6b be e2 6e 8a be d7 88 88 bd
       0.20061193 -0.23040934 -0.27037722 -0.06666725
000250 ba 6c 1b 3d 56 dd c1 bd ef 69 7d bc 7f 05 0c bd
       0.037945487 -0.094660446 -0.015467151 -0.03418493
000260 e5 24 b3 3d 9e 10 2f be 61 dd 27 bd 4e 02 c5 3d
       0.087472714 -0.17096183 -0.040982608 0.0961958
000270 07 95 d1 3c 63 2d 9b bd cb ec f6 bd 3e 41 2c bd
       0.025583757 -0.07577016 -0.120568834 -0.042054407
000280 05 b4 08 3e 1c 5f b6 bd d9 c4 a6 bc 5a c3 6e 3d
       0.13349922 -0.089048594 -0.020357536 0.05829177
000290 73 7b 0f be 8a 85 18 3e b8 40 1b bd bb 09 3b be
       -0.14011936 0.14894691 -0.037903517 -0.1826543
0002a0 bf f5 bf be 85 92 6f 3e 7c 74 93 bc 8a 4b a0 3d
       -0.37492177 0.23395737 -0.01799988 0.07826908
0002b0 08 6d 3d 3d 89 0b 0b 3e b8 a7 e4 3d 1a 4b 3f 3e
       0.04624656 0.13578619 0.11164802 0.18680993
0002c0 90 59 01 3c b7 cc 7d bb 66 90 e4 bd 07 a3 48 3d
       0.0078948885 -0.0038726756 -0.11160354 0.0489836
0002d0 19 a6 50 3e af 39 51 be 21 2d 26 bd b0 b8 a6 3d
       0.20375861 -0.20432161 -0.040570382 0.08140695
0002e0 46 d0 78 3c dc 24 a0 bd e9 24 05 3d 1e 4d 20 3d
       0.015186375 -0.0781953 0.032505903 0.039136045
0002f0 8d c5 57 3c 82 17 0a be 78 7f a6 3d e9 a8 03 be
       0.013169658 -0.1348553 0.081297815 -0.12857403
000300 73 50 e1 3c ea 4d c3 bd 5b 35 fa 3d 5e b6 06 be
       0.027504181 -0.09536345 0.12217208 -0.13155505
000310 46 bb 24 3e f0 55 10 3e ee b1 ef bd 94 83 4c 3e
       0.16087064 0.14095283 -0.11703859 0.19972068
000320 86 13 e5 bd 5b 76 4d bd b7 5a d4 3d c1 60 87 bd
       -0.111853644 -0.0501617 0.10368865 -0.06610251
000330 56 48 04 be c2 20 43 3d d9 37 05 bd 4f 50 19 3e
       -0.12918219 0.047638662 -0.032523964 0.14972042
000340 83 f0 44 be ec 27 e3 bc b8 44 ae 3d 6f 60 16 3d
       -0.19232373 -0.027728997 0.08509201 0.03671306
000350 c4 cd d7 bd 0d f6 1e 3c 4e c4 f0 3c 86 88 f5 bc
       -0.105372936 0.009702218 0.02939048 -0.029972326
000360 6a 67 a0 bc 81 29 ff 3d a6 3a 24 be 7b fd 2b be
       -0.019580562 0.12459088 -0.16037998 -0.16795914
000370 17 56 9a 3d 3c 43 9a 3d 3a aa 1b 3d 4a e9 0b be
       0.075359516 0.07532355 0.038004138 -0.13663211
000380 33 0c 23 be f0 0b 2b be 99 f2 39 3d 0a d5 9d 3d
       -0.15922622 -0.16703773 0.045397375 0.077066496
000390 9d 54 24 bd 9f b0 ca 3d ea a1 01 be 88 a6 9b bd
       -0.040119756 0.09896969 -0.12659422 -0.07600123
0003a0 5f c8 05 3d 11 d3 1d 3c 5e dd 84 3c a0 74 e0 3b
       0.032661792 0.009632842 0.016218837 0.0068498403
0003b0 48 eb d2 bd e2 ef ad bd 2a 74 89 bd 8b fa 8b 3c
       -0.102987826 -0.0849302 -0.0671161 0.017087242
0003c0 98 f0 6a 3e 2d 02 50 3e 1b 70 ad bc bf 17 0d 3e
       0.22943342 0.2031333 -0.02117162 0.1377859
0003d0 b0 ec fe bd ba 37 15 3e d3 2b e7 3d 06 e0 0c be
       -0.12447488 0.14572039 0.11287656 -0.13757333
0003e0 0e 92 8b bd 40 af bd bd 80 0a 46 3d 2c 11 c5 3b
       -0.06814967 -0.09261942 0.048349857 0.00601401
0003f0 25 b4 3c bd 48 f4 7f bd c9 4d 17 be 0b 05 09 bd
       -0.046070237 -0.062488824 -0.14775766 -0.033452075

linear_layer.1.bias f4 [100]
000000 2f 00 a9 bd 16 68 a9 3d f4 86 c8 bc ba 06 40 3e
       -0.08251988 0.08271806 -0.024478413 0.18752566
000010 9a 35 b8 bc 17 92 83 bd c2 d7 e9 bd 7a 87 06 3e
       -0.022486497 -0.06424349 -0.11418106 0.13137618
000020 d0 b8 e0 bd 11 fc a8 3d 3c 35 ab bd df ab ae bc
       -0.1097275 0.08251203 -0.08359763 -0.021322189
000030 57 88 0c 3e d3 9c c3 3d f2 1d 91 bd 4e 7e 9c bd
       0.13723885 0.09551396 -0.0708579 -0.07641278
000040 aa f5 57 3b 31 6e 01 3e 93 27 b1 3c a9 fc 6f bd
       0.0032952824 0.12639691 0.021625316 -0.058590565
000050 39 1a 56 bd 33 b0 36 3d 3e 73 fa bc 26 1a b6 3d
       -0.0522711 0.04460163 -0.03057253 0.08891706
000060 c7 85 0f 3e 96 f7 07 3d e9 ef 1b 3e 61 30 5d bd
       0.14015876 0.0331951 0.15228237 -0.054001216
000070 bb 5f bf bd b1 7b 7c bd 6a b3 69 be 20 3f fb 3d
       -0.09344431 -0.0616414 -0.22822347 0.122678995
000080 16 95 81 3b 7e 7a c1 bd 35 d3 93 bd 2c ac a3 3d
       0.00395454 -0.09447192 -0.07218019 0.079918236
000090 a1 e6 05 3e 50 3e 16 be e1 a3 2b 3c c9 0d a1 bc
       0.13076259 -0.14672208 0.0104760835 -0.019659894
0000a0 43 5d e5 bd 70 71 08 be a7 80 04 3d 13 63 23 3e
       -0.11199429 -0.13324523 0.032349255 0.15955763
0000b0 ab 78 8f bd 07 c1 29 3c 8c 96 f1 3a 9f 35 0e be
       -0.070054375 0.010360963 0.0018431707 -0.13887642
0000c0 4b 0a 92 3d 40 23 dc bd 82 5d 52 bd 32 d5 cc bb
       0.071308695 -0.10748911 -0.051358707 -0.006251001
0000d0 aa 59 95 bb e4 f9 ef bd 8f ca 23 3c 9d 13 b9 3c
       -0.004557808 -0.11717585 0.009997024 0.02259236
0000e0 fb d7 0e 3e ec 28 b9 bd d8 cf 37 bb 65 c7 fd 3c
       0.13949578 -0.09041008 -0.0028047469 0.030978868
0000f0 e6 68 0b be 3b a0 c8 bb 0d 4b 12 3d 2e 38 2c 3e
       -0.13614234 -0.0061226166 0.035716105 0.16818306
000100 39 42 27 3d b1 31 18 3d 16 d9 e5 bd 96 14 b2 3c
       0.04083464 0.037156764 -0.112230465 0.021738332
000110 d4 8a 75 3b 37 a9 2f be bf 69 c3 bd 91 d6 e0 3b
       0.0037466781 -0.17154394 -0.09541654 0.006861516
000120 bb b4 33 bd 84 19 1e bd 03 5a a5 3d 19 a4 23 3c
       -0.04387353 -0.038598552 0.08073809 0.009987854
000130 13 8a a5 3d fa 2b 08 be f9 e9 71 3d cd a3 52 bd
       0.08082976 -0.13298026 0.059061024 -0.051425744
000140 60 88 0d be 9b b2 91 bd 7e 32 0d 3d f2 8c e9 bc
       -0.13821554 -0.071141444 0.03447198 -0.02850959
000150 80 38 c5 3d 81 74 dd 3c da de 0c bc 2b 83 73 3d
       0.09629917 0.027033092 -0.008598054 0.059451263
000160 9d d7 25 3e ca 07 09 bd 38 6f b3 bd fd fc 41 be
       0.16195531 -0.033454694 -0.08761448 -0.18944164
000170 e6 c8 c4 3d 27 b7 df 3c e4 61 53 3d a1 3f 17 3d
       0.09608631 0.027309014 0.051607028 0.036925916
000180 de c8 86 3d 6c 1a 12 bc 2c 1e 33 bc c3 f2 bb 3d
       0.06581281 -0.008917432 -0.0109324865 0.091771625

linear_layer.2.weight f4 [100, 100]
000000 4f 8c 57 bd 69 3a e5 3c ef b5 86 3d 11 1a 83 be
       -0.052624043 0.027981954 0.0657767 -0.25605825
000010 68 1a c0 3d d8 a3 24 bd 20 24 7a 3d 54 fa b6 bd
       0.093800366 -0.040195316 0.061069608 -0.08934465
000020 fd 90 c6 3d 50 b1 66 bd 96 91 2e bd 4e d3 18 3d
       0.09695623 -0.056321442 -0.04261931 0.03731089
000030 42 0b 84 bd 19 2e c0 bd 56 d7 d9 3c f8 69 0b be
       -0.0644746 -0.093837924 0.026591938 -0.13614643
000040 6d 53 40 3d 0d 66 b4 bd ba 37 0f bd fd 1b 04 3e
       0.04695456 -0.08808527 -0.034965254 0.12901302
000050 85 15 e1 3c dd dc 43 3d 0a 61 7f bd 3c 3c 98 bd
       0.027476082 0.047818054 -0.062348403 -0.07433364
000060 5d 25 04 be 04 7d de 3a 8c ed 65 be e2 b5 88 bc
       -0.12904878 0.0016974513 -0.22453898 -0.016688291
000070 70 f8 e4 3c 07 03 58 ba 6d 9d 52 3d b7 47 6d bd
       0.027950495 -0.0008240197 0.051419664 -0.05792972
000080 02 8c 80 3c 69 21 b8 3b 56 57 90 3d 3d 23 15 bc
       0.01569176 0.005619217 0.07047908 -0.00910264
000090 62 a9 d6 bc e7 8a 9a 3e 2e 10 f4 3c 6f fa 8a bd
       -0.026203815 0.301841 0.029792871 -0.06786048
0000a0 3d 56 11 3e a8 1b 2b 3e 87 87 9d 3d fc 67 0e 3c
       0.14193054 0.16709769 0.076918654 0.008691784
0000b0 29 07 fb 3d bd 85 7b bc c6 d1 ec 3d 5c 86 48 3d
       0.12257225 -0.01535171 0.115634486 0.04895626
0000c0 54 62 25 be 72 e1 f4 3d 18 32 4f 3c 73 2b 80 3d
       -0.1615079 0.11957063 0.012646221 0.06258287
0000d0 08 7b 09 be ce 92 2f 3d 76 00 ea bd 47 eb 06 bd
       -0.13425839 0.042864613 -0.11425869 -0.03293922
0000e0 cd d1 ab be 90 2a 66 3d 38 99 b9 3d 3b 3f 4a 3c
       -0.33558503 0.056192935 0.09062427 0.012344177
0000f0 9c 52 08 bd 23 52 89 3b af ff d1 bc 45 4d cb bc
       -0.033281907 0.0041906997 -0.025634615 -0.024817118
000100 d0 b2 09 3d 54 98 00 3e 58 5e 7e 3d 32 51 67 bd
       0.033617795 0.12558109 0.062101692 -0.05647392
000110 02 94 b6 3d 14 b6 e8 3c 0f a2 78 3e 10 a6 82 3e
       0.08914949 0.028407134 0.2428057 0.2551732
000120 c4 19 91 3c 46 58 01 be b5 32 4e be ba a9 e6 3c
       0.017712481 -0.1263133 -0.2013653 0.028157104
000130 c1 9f 19 bd 8c 1b 77 bc ae 5e 9d bd 93 18 d2 3d
       -0.03750587 -0.015082251 -0.07684074 0.102585934
000140 7e 0a b0 bd 14 fc 5e 3d a3 80 41 bc 94 13 dc 3d
       -0.08595751 0.05443962 -0.011810455 0.10745922
000150 8d fe 6e 3e d6 13 08 be 07 e5 26 3e 43 e4 8a be
       0.23339291 -0.13288817 0.16298304 -0.27127275
000160 49 38 a0 bd e7 cc ea bd 76 d0 52 3d ed 18 13 3e
       -0.078232355 -0.11464863 0.051468335 0.14364977
000170 90 ce 02 3b 38 a2 f1 bd 0f 62 f9 bc cd 1f f2 bc
       0.0019959547 -0.11798519 -0.030442266 -0.02955618
000180 81 e7 8b bd 15 cf 9c 3c 24 40 37 3c 91 36 5d 3d
       -0.06831265 0.019141713 0.011184726 0.054007117
000190 bf 74 6f bc 2a 0a 96 3c 42 43 43 bd 1f 78 ac be
       -0.014615237 0.018315393 -0.047671564 -0.33685395
0001a0 b1 99 2d 3b 34 a0 99 3d c5 02 ab 3d 19 b5 87 be
       0.0026489312 0.075012594 0.083501376 -0.26505354
0001b0 f3 09 53 3d 44 e1 15 be 85 06 eb 3d 83 cc 02 be
       0.05152316 -0.14636713 0.11475853 -0.12773328
0001c0 06 4a a6 bd 52 fe 98 be 5f ea b5 bd d8 7d 16 3d
       -0.081195876 -0.2988153 -0.08882593 0.036741108
0001d0 0a 54 a8 bb c6 16 e4 bd 78 d8 a6 3d d3 e9 74 3d
       -0.0051369714 -0.11137156 0.08146757 0.059793305
0001e0 84 6b e6 3d a1 16 0e 3e 10 74 3c bc 41 73 9d bd
       0.11250976 0.1387582 -0.011502281 -0.076879986
0001f0 6c e9 30 3d d8 db 5b 3d 45 79 89 be b6 4e be 3d
       0.04319136 0.053676456 -0.26850334 0.09292357
000200 13 d2 c8 3d a8 05 5a 3c 70 0e fa 3d 3d b1 64 be
       0.098056935 0.013307013 0.12209785 -0.22333236
000210 15 7c 8b 3e 5d 4c d9 3d 97 30 31 bd 30 c1 a8 bd
       0.27243105 0.10610268 -0.04325923 -0.082399726
000220 18 a9 55 bb 2b 44 b3 3d 1c 33 6e 3e 7c 14 a8 b9
       -0.0032602008 0.087532364 0.23261684 -0.0003205872
000230 21 8a 42 3e 9b 42 ad bb 3e b2 16 3e 8b 8c 75 3c
       0.18998004 -0.005287481 0.14716431 0.014987121
000240 a9 5b 03 3e 68 56 37 3e 29 96 32 be 39 78 76 3d
       0.12827934 0.17904055 -0.17440094 0.060173247
000250 63 12 6a be 27 3f a3 3d 8a 23 c6 bc 58 64 28 be
       -0.22858576 0.0797103 -0.024186868 -0.16444528
000260 2d 97 b1 3d 61 60 ab 3d bb fe 62 3e 70 cf 1c 3e
       0.086714126 0.08367992 0.22167484 0.15313506
000270 98 c7 b6 bd 40 2c 8d 3c dc 3a 7d bd c9 dc 97 bd
       -0.08924788 0.017233014 -0.06182371 -0.07415158
000280 3e 10 4a 3d ca cc 17 3e 70 e9 40 3e 0f 75 02 bd
       0.049331896 0.14824215 0.1883905 -0.031849917
000290 c0 bd 7e be 30 f6 7d bd 5d cd 1f 3c ec aa 8d 3c
       -0.24877071 -0.06200236 0.009753552 0.017293416
0002a0 84 12 ab 3b 29 e0 2d 3d 0d bb 68 bc 55 12 91 3d
       0.005220713 0.042450104 -0.014204753 0.07083575
0002b0 29 90 99 3c 8b 4c ff bd 36 61 3a bb 06 2c a4 bd
       0.018745499 -0.12465771 -0.002843929 -0.08016209
0002c0 af 83 96 bb 7d e8 02 3e ca 82 af 3b cb 6b c3 3d
       -0.0045933346 0.12784 0.0053561674 0.09542044
0002d0 b8 c5 a4 3c 94 f8 ad bd 0b bd 04 be d8 4c 1b be
       0.02011381 -0.08494678 -0.12962739 -0.15166032
0002e0 b7 19 3a bd 4e 59 07 3e e6 72 6a 3d c3 5d fc bd
       -0.04543468 0.13217661 0.057238482 -0.12322571
0002f0 46 6d ef bc df 65 84 bd 17 ec 54 3d 91 8b d7 3d
       -0.02922691 -0.06464743 0.051982965 0.10524667
000300 b4 96 43 3d 67 67 0b be 5e 31 55 bc a4 ef c6 bd
       0.047751144 -0.13613664 -0.013012258 -0.097136766
000310 30 dd 55 3d 47 0b 26 3d 5c 5f 91 3c 69 cd 4e bd
       0.052212894 0.0405381 0.017745666 -0.050488863
000320 40 8e cf bc 6f 6e bf bd 9e 23 07 bd e2 0e 5e 3d
       -0.025336385 -0.093472354 -0.03299295 0.054213412
000330 f3 4e 1f 3e 0b 53 ac bd 79 90 a0 3d 44 ff 05 3d
       0.1555746 -0.08414277 0.07840056 0.032714143
000340 ec 80 6f bd e1 08 4d 3e e2 fe 25 be 83 09 06 be
       -0.05847256 0.20022918 -0.16210511 -0.13089566
000350 94 a0 c9 bd 16 7d 2a be 30 91 1b bd d9 d1 84 3d
       -0.09845081 -0.16649279 -0.03798026 0.06485338
000360 a1 63 3b 3e a9 24 cb 3d 60 71 27 be f8 72 ff bb
       0.18299724 0.09919102 -0.16351843 -0.0077956878
000370 16 5c 07 be 93 ae f3 3d 6a 81 81 be fb d5 a1 3d
       -0.13218722 0.11898532 -0.25294048 0.07902142
000380 0d 51 dc bd 61 cc a7 bd 68 ca e8 3d 99 ac 8d 3c
       -0.10757647 -0.08193279 0.11366731 0.017294215
000390 a6 d6 1f be e8 1a 71 3d 7a 16 0c be f3 81 c3 3d
       -0.15609226 0.05886355 -0.13680449 0.0954627
0003a0 44 bd a8 bd fa 85 10 3d ff a6 42 bd 20 25 01 3e
       -0.082392246 0.03528402 -0.04752254 0.12611818
0003b0 eb c7 86 bd db 2d 38 be 93 e7 17 bc 5e db 8c 3d
       -0.065811 -0.17986242 -0.00927152 0.068777785
0003c0 c6 b3 13 be 8d 32 4e 3c 98 02 ed bd 64 7f 31 3b
       -0.14424047 0.012585294 -0.1157276 0.0027083987
0003d0 e6 07 54 3c fb da b5 bd 64 fd e6 bb 20 db 21 3c
       0.012941336 -0.08879658 -0.0070492495 0.009878904
0003e0 1a 52 d7 bc d2 d0 18 bd 8f dc 0d be 60 2a 75 3d
       -0.026284266 -0.03730852 -0.13853668 0.059854865
0003f0 8e 5f df bd c7 e2 08 3d 2c d4 b3 3c 21 83 96 3c
       -0.109068975 0.033419397 0.021951757 0.018373074

linear_layer.2.bias f4 [100]
000000 be ed 88 bd bf 4b 6a bd 73 6b 9d 3c 72 27 0e 3d
       -0.06685971 -0.057201143 0.019216275 0.034705587
000010 d3 4b 92 3c ff 21 33 3d 78 3a 6e 3d 1d ff 05 3d
       0.017858421 0.043733593 0.05816123 0.032713998
000020 f7 0b 08 bc e7 1b 07 3d 2a 79 17 bd 3a 53 80 bd
       -0.008303634 0.032985594 -0.036980785 -0.06265874
000030 90 a7 ce bd f5 15 39 3e 19 cb 84 bc 51 d3 d8 bc
       -0.10090554 0.18074782 -0.016210126 -0.026467951
000040 a7 69 95 bd f8 b8 16 3e bf b0 fb 3b 4f d5 e4 bc
       -0.07295542 0.14718997 0.007680982 -0.027933745
000050 5d 66 08 be 59 c9 50 bd c8 dc 62 3c dc f8 ae 3d
       -0.13320298 -0.05097327 0.013846584 0.0854356
000060 98 6d a6 3c 02 0a 76 bd f2 e2 5d bd 87 a7 8e bd
       0.02031593 -0.060068138 -0.05417151 -0.06965547
000070 72 77 76 3d 4f 67 92 bd 79 67 ef bd 3f 61 39 bd
       0.060172506 -0.07148611 -0.11689658 -0.045258757
000080 10 83 00 3d 4d ca 5c 3d 3c c3 a3 bc a9 01 9f bd
       0.03137499 0.053903867 -0.019990556 -0.077639885
000090 31 5c 05 bd 76 62 7f bd b7 06 f7 bc 6d 60 fd bc
       -0.032558624 -0.06234976 -0.03015457 -0.030929768
0000a0 62 39 12 bd 5f 69 cb bd 64 6c 21 bd 8a 13 13 3d
       -0.035699256 -0.09932207 -0.03941001 0.035907306
0000b0 ad 76 36 3c 5a b3 e2 3c d5 ab de 3c f8 37 e5 3b
       0.011136693 0.027673412 0.027181545 0.0069951974
0000c0 08 37 7a 3d 54 ec 10 3c ee 01 c3 bc 37 b5 9d 3b
       0.06108764 0.0088454075 -0.023804631 0.0048128623
0000d0 c6 6f a9 3d 82 75 d7 3d fd d6 93 3d 56 e0 ba be
       0.08273272 0.1052046 0.0721874 -0.3649928
0000e0 eb a9 88 bd 7b d5 96 bc 8b c6 de 3b d7 1f 60 bd
       -0.06673034 -0.018412342 0.0067985705 -0.054717865
0000f0 50 c2 2c 3e 59 10 49 3d 92 19 22 3e 94 5b 14 3d
       0.16871 0.049087856 0.15830067 0.03622015
000100 1e 4c 2c bd 3e 88 e0 bc 9f b9 8d bd f8 20 0d 3c
       -0.04206478 -0.027408715 -0.0692017 0.008613817
000110 1e 90 59 be 06 31 35 3c 2b da 91 3c a1 5c f6 3c
       -0.21246383 0.011059051 0.017804226 0.030073466
000120 01 15 b5 3c 43 d6 e5 bb a9 ac c3 bc b6 bf 66 bd
       0.022104742 -0.0070140674 -0.023886042 -0.056335174
000130 e5 b1 70 bc df 65 10 3c ff d1 e7 3c b7 ae bc bd
       -0.014690851 0.00881335 0.028298376 -0.09213012
000140 e3 65 8d bd 92 8a 96 bc b2 a2 ca bd b9 af 20 bd
       -0.06904199 -0.018376622 -0.09894313 -0.039230082
000150 11 6c 35 3d a3 b0 65 3d 22 74 93 3c f4 44 65 3e
       0.044292513 0.056076657 0.017999712 0.22389585
000160 96 30 24 bd 33 8d ac bb 55 79 96 3c f9 cb 3d 3d
       -0.040085398 -0.0052658557 0.018368402 0.0463371
000170 3e 93 95 bc c9 d7 97 be 65 85 b3 3b 62 46 93 bd
       -0.018258687 -0.29656819 0.0054785484 -0.07191159
000180 2e ac 2e bd c6 ab 61 3c 8a da 84 bd 1d 2e 9b bc
       -0.042644672 0.013773864 -0.064869955 -0.018942887

linear_layer.3.weight f4 [100, 100]
000000 ae 42 28 be e2 61 d1 3d 1d ff 49 bd 28 5e 29 3e
       -0.16431686 0.10223748 -0.04931556 0.16539824
000010 5e 55 7b bb 97 57 bc bc ff 92 79 3d 2e e4 e6 3d
       -0.0038350443 -0.022990985 0.060931202 0.112739906
000020 1e de f7 bd eb 1f cd bd db b5 61 be a7 9a 9b 3d
       -0.12102912 -0.100158535 -0.22042029 0.07597857
000030 c0 9c 10 be e5 4e 1d 3f b5 46 7a bd ef d2 11 3d
       -0.14122295 0.6144851 -0.061102588 0.035601553
000040 80 c4 81 be 64 2c 1b 3e 59 75 be bd c7 e8 96 3c
       -0.2534523 0.15153652 -0.09299726 0.018421544
000050 fe e9 d3 be 86 dc fa bd 53 40 00 bd df 0a 11 3e
       -0.4138946 -0.12249093 -0.031311344 0.14164303
000060 d3 2f a3 3b 10 43 95 3d 32 12 84 bc 27 32 92 bd
       0.0049800663 0.07288182 -0.016121957 -0.07138472
000070 f2 e4 5e 3e 49 67 5c bc 29 6c 22 be b3 27 13 be
       0.21767023 -0.0134523595 -0.15861572 -0.14370613
000080 59 71 ff bd 1e ad 0d bd 81 95 83 bd b5 ab 84 bc
       -0.12472791 -0.034588926 -0.06425 -0.016195158
000090 09 3f 9c be 7d 46 56 be a1 0f 7b be 1f f9 ed bd
       -0.30516842 -0.20925327 -0.2451768 -0.11619782
0000a0 a4 6f 0d 3e 97 a6 4f be ba 03 25 be fe 8d 15 3e
       0.13812119 -0.20278393 -0.16114703 0.14604947
0000b0 8e 66 22 3d 85 d2 aa bc 6d 86 5a 3d 61 d7 2e 3e
       0.039648585 -0.020852337 0.053350855 0.17074348
0000c0 f7 be 79 be 47 e8 e2 3d 14 2b 01 3e 62 0f 81 bd
       -0.24389254 0.1107946 0.12614089 -0.06301762
0000d0 2c a1 e1 bc 6a 1e 9e 3e a6 25 7a 3e 1a e9 6c 3b
       -0.027542673 0.3088258 0.24428424 0.0036149682
0000e0 d5 39 b4 3d 35 c2 23 be 1e b5 20 be f9 4f 06 be
       0.08800093 -0.15992053 -0.1569409 -0.13116445
0000f0 a6 3e 7f 3c a3 02 09 be a3 4a a4 3e cc 69 b7 bd
       0.015578901 -0.13379912 0.32088193 -0.08955726
000100 19 84 cb 3d d2 e1 3b 3c 91 09 59 3d 3d 82 90 bc
       0.09937305 0.011467414 0.05298764 -0.017640227
000110 b9 2c d2 3d 46 01 94 bc 98 a1 43 3e 41 c2 3d bd
       0.102624364 -0.018067013 0.19104612 -0.046327833
000120 d5 50 cb 3d 34 5b c8 bc f4 1c 46 3e 99 25 d4 3d
       0.09927527 -0.024457552 0.19346982 0.10358734
000130 4e 08 9d bd ee c3 4a bc 32 90 59 3c ba 6d 86 be
       -0.076675996 -0.012375815 0.013279008 -0.2625559
000140 6b 1f b1 3b 39 2b f6 3d ed 49 9d bd 11 3d a1 bc
       0.0054053566 0.12019963 -0.07680116 -0.019682439
000150 cd 2e 7c 3e 39 0d 11 be 3c 7c 18 3d f7 ad f8 3c
       0.24627228 -0.141652 0.037227854 0.03035639
000160 ee 58 04 be 87 47 13 3d bb 20 45 be c1 3f 8c 3e
       -0.12924549 0.035956886 -0.19250767 0.2739239
000170 7c 84 8a bb 5a 89 95 3d c9 02 0a 3c 3e 52 07 3e
       -0.004227219 0.07301588 0.008423516 0.13214967
000180 6c f3 9f 3d 5d 75 0b 3d 9a 8d 40 be 2e 7b b7 bd
       0.07810101 0.034047473 -0.18804017 -0.089590415
000190 d8 47 34 3e 23 e2 40 bc fc 77 21 3c 4b ab f4 bd
       0.17605531 -0.011772665 0.009855267 -0.11946734
0001a0 6c 66 01 3d b3 49 c2 3c 87 f3 e0 bd c7 cb 75 3d
       0.031591818 0.023716783 -0.10983949 0.06000879
0001b0 10 ef b3 3b d8 64 8a bd 3c a8 d2 bd e5 aa 06 3e
       0.005491145 -0.06757516 -0.102859944 0.13151129
0001c0 72 bf 27 bd ee b9 92 3e cb 5c dc bd 03 fd b9 bc
       -0.04095406 0.28657478 -0.10759886 -0.022703653
0001d0 85 f8 79 bd 37 cf ae bd b0 a6 cf 3d b5 f0 9d 3c
       -0.061028022 -0.08535617 0.10139215 0.019279817
0001e0 62 00 c8 3d da 48 90 bd 6a 8b 15 ba 80 55 38 be
       0.09765698 -0.07045145 -0.0005704673 -0.18001366
0001f0 71 f4 1e be a3 d2 cc 3d 44 4a cb 3c c9 8d 41 be
       -0.15522934 0.10001113 0.024815686 -0.18901743
000200 7c 03 1f 3e fc b3 c8 3d b0 38 33 be b7 94 4e 3e
       0.15528673 0.09799954 -0.17502093 0.20173918
000210 a2 87 48 3d 23 50 2b be 4f b6 93 3d ff 85 5e bd
       0.048957475 -0.16729788 0.07212507 -0.054327007
000220 66 21 ef 3d 98 8d 65 be 20 54 2b 3b 82 5a e6 bb
       0.11676292 -0.22417295 0.0026142672 -0.0070298323
000230 d9 7d 84 3c a0 ad cd 3d 04 2c 2c bd cc 9b 13 3d
       0.01617329 0.10042882 -0.042034164 0.03603725
000240 1e 56 4d 3e d9 98 d9 bb 16 d6 31 be 10 b7 1d 3d
       0.20052382 -0.0066405353 -0.17366824 0.03850466
000250 da c1 1e 3d b3 f3 29 3e 9e 87 75 3d 6c 59 6e 3c
       0.03875909 0.1659687 0.059943788 0.014547687
000260 49 41 ef 3d 1e f6 dc bc e4 70 4b 3d 5c 21 2a bd
       0.11682374 -0.026972827 0.049668208 -0.04153572
000270 46 c9 5e bd ae 75 9d bd 75 64 00 3e 95 30 87 3d
       -0.054391168 -0.07688461 0.12538321 0.06601063
000280 51 38 81 3d 00 65 b2 bd 39 d9 c0 bb 7f f4 28 bd
       0.063095696 -0.087106705 -0.00588527 -0.041248795
000290 e8 7c b9 3d d3 0f d0 bd 07 8c 2a be 92 d5 c8 bc
       0.09057027 -0.10159268 -0.16654979 -0.0245159
0002a0 58 b9 05 be ca 2d 3a be 27 39 91 bd 0d f6 a7 bc
       -0.13058984 -0.1818153 -0.07090979 -0.020503068
0002b0 9e a7 4e 3e 3e 7e 8c bd ef c7 b1 bd ea 61 3f bd
       0.20181128 -0.06860016 -0.086807124 -0.046724238
0002c0 10 a4 bd bd 17 6b 19 be a6 6a 14 3c 69 ce 34 bc
       -0.09259808 -0.14982258 0.00905863 -0.01103554
0002d0 0b 14 1d bd 90 43 3a bd 60 32 b4 bc ae 6d 20 3e
       -0.038349193 -0.04547459 -0.021996677 0.1566684
0002e0 2c 56 2b 3d 9b 41 86 3d fb 33 1c 3b 5e f3 e7 bd
       0.041830227 0.06555482 0.0023834694 -0.113257155
0002f0 29 e1 eb bc 06 e6 e9 bc a3 6e 18 3c 8b 05 d0 3d
       -0.028793888 -0.028552067 0.009303722 0.10157307
000300 e5 e7 f5 bc 55 c4 38 bd a9 70 bb 3c 93 67 f1 bd
       -0.030017802 -0.04510911 0.022880869 -0.11787333
000310 bb 90 b8 39 94 00 d9 bd b3 74 4f be f8 02 9c 3c
       0.00035203047 -0.105958134 -0.20259361 0.019044384
000320 7b e7 a1 bc ee 02 e4 3c 2a fa 55 bd c7 d8 b6 bd
       -0.019763699 0.027833428 -0.05224053 -0.08928066
000330 0a 4a 7d bc 05 f9 ae bd 96 c7 4f bd 30 5b e8 bd
       -0.015459547 -0.085435905 -0.05072745 -0.11345518
000340 53 6b 2b 3d 29 7b 1d be 0f 5e 5a 3d c0 18 13 3e
       0.0418504 -0.15379013 0.053312358 0.1436491
000350 03 94 cd bd 81 4f d5 bb 03 8a b1 3c 27 0e 57 3d
       -0.100379966 -0.0065097217 0.021672254 0.05250373
000360 47 da 13 bc c1 9f 00 be a9 89 6e be 4a 38 21 bd
       -0.009024209 -0.12560941 -0.232947 -0.039360322
000370 17 2b 5c 3e 71 46 4b 3c fb f9 e6 3c 10 f8 e2 bd
       0.21500812 0.012406931 0.028195372 -0.110824704
000380 63 22 12 3c b3 19 43 bd a1 b1 f5 3d 0f 05 ad 3d
       0.008919331 -0.04763193 0.11996771 0.084482305
000390 01 cb 42 bd 97 6d b5 3d d1 de 89 bd 6c 48 82 bd
       -0.04755688 0.08858793 -0.06731952 -0.063614696
0003a0 74 4c 5e 3d 2c 03 e6 bd 85 0b 48 be 3f b4 55 3e
       0.05427213 -0.11231074 -0.19535644 0.2086954
0003b0 45 c2 a0 3d 1a 73 5a 3d 43 d8 80 3d 48 df 82 3e
       0.07849554 0.053332426 0.06291249 0.25560975
0003c0 f8 fc 72 3d ae 7f 84 3d fc 1e 91 bd 36 06 f3 bd
       0.05932328 0.064696655 -0.07085988 -0.11866419
0003d0 bd 10 ac 3d 98 54 64 bd 47 c1 e8 bd 9a 32 4c bc
       0.0840163 -0.055744737 -0.1136499 -0.012463236
0003e0 61 13 bf bb a6 0d 39 be 1a 53 18 3d db 8e ba 3d
       -0.0058311676 -0.18071613 0.037188627 0.09109279
0003f0 ea e4 9b bd fc fe 31 bd d1 97 3c be b6 e8 59 3e
       -0.07612021 -0.043456063 -0.18417288 0.21280178

linear_layer.3.bias f4 [100]
000000 1b 32 d2 3d 46 04 84 3c 24 2a 76 bd ba c6 eb bd
       0.10263463 0.016115319 -0.060098782 -0.115125135
000010 3e 71 91 bc d9 45 26 bd 9c e7 bd 3d 8a 13 42 3d
       -0.017754193 -0.040593956 0.092726916 0.047381915
000020 f0 51 33 3d a0 02 6f 3b aa 19 3c bd c7 f2 00 bd
       0.043779314 0.003647007 -0.045922913 -0.03148153
000030 73 8b 85 3c dd 53 16 3d eb 0f 10 3c f7 c0 96 3c
       0.016301846 0.036701072 0.008792858 0.01840256
000040 9e e3 a2 bd 42 86 a9 bb 14 19 95 3c d9 71 29 3d
       -0.07953571 -0.0051734755 0.018200435 0.04136834
000050 f7 14 70 bd 0b 45 63 3d f4 07 ee 3c ed b6 23 3d
       -0.058613744 0.055485766 0.029056527 0.039969373
000060 8b 3b fc 3b 6b e5 3c bd 84 dc 8b 3d 84 71 84 3d
       0.0076975278 -0.046117228 0.068291694 0.06466964
000070 6d cd 19 3d 72 71 6e 3d ab c4 c8 bc b7 9f 54 bb
       0.037549425 0.05821366 -0.024507841 -0.003244383
000080 02 cb ab 3c bf ff f3 3c fd 2a 60 39 44 1e ed bc
       0.020970825 0.029785035 0.00021378319 -0.028945096
000090 84 76 88 3c f3 4e 63 bc 3b 60 3f bd d4 8c 13 bc
       0.016658075 -0.013873803 -0.046722632 -0.009005744
0000a0 c5 22 5d bc d5 d3 71 3c e2 94 52 3d c5 ef 4f bc
       -0.013497059 0.014759977 0.051411517 -0.012691443
0000b0 de 25 98 3d c3 80 84 3d 6f 1f cf 3d 0e 0f 49 be
       0.074290976 0.06469872 0.10113417 -0.19634649
0000c0 d0 02 58 3d 87 ba 40 bd 4a d6 07 3d a8 70 d3 bc
       0.052737057 -0.047052886 0.033163346 -0.025810555
0000d0 f2 ef 17 bc bc 2b b2 38 b8 1f b3 bc 83 69 cd bc
       -0.009273516 8.4958476e-05 -0.02186571 -0.025074726
0000e0 79 43 4d bd 33 ac 7b bc 1a 80 40 3d ba 3d 45 3d
       -0.050113175 -0.01536088 0.046997167 0.04815457
0000f0 52 50 a5 3b ca 59 fb 3c 10 e8 05 3c c8 e6 69 3c
       0.0050449753 0.030682463 0.008173004 0.014276214
000100 a9 68 d2 3c 39 86 87 3c 14 b4 8b 3d 55 d1 51 bb
       0.025684671 0.016543495 0.068214566 -0.003201564
000110 b2 1b 74 3c fe de 36 bd c0 73 fe 3c 64 9e 1c bd
       0.014899181 -0.044646256 0.031061053 -0.03823699
000120 5b 76 bc ba 58 a2 2b bc 38 58 1d bd 14 06 b2 3c
       -0.0014378534 -0.0104757175 -0.03841421 0.021731414
000130 cc 56 49 bc 4a ee a6 be 0c 45 4c 3d 29 8e 70 bd
       -0.01228876 -0.32603675 0.049870536 -0.058729324
000140 fc 5a 07 bc 75 82 ad 3c 5f 0a 3c 3a a3 34 c8 bc
       -0.008261438 0.02118037 0.0007173176 -0.024439162
000150 1b 83 04 bd 64 2c 47 3d 09 de bb 3c 27 1b 76 3d
       -0.032351594 0.04862632 0.022933023 0.06008449
000160 1e a3 10 bd cc 38 3e 3c 27 bd fb 3c 48 8f ec 3c
       -0.03531181 0.011610221 0.030729843 0.028876916
000170 1f 0f 2e 3d e6 b0 16 bd 47 34 43 3c 13 28 2f 3d
       0.04249489 -0.036789797 0.011914319 0.042762827
000180 ca f4 b9 3c 7e b7 ae 3c 6c f0 2b bd bf e0 63 bd
       0.022699732 0.02132773 -0.04197733 -0.055634256

linear_layer.4.weight f4 [100, 100]
000000 b9 5f ac bc bb 40 11 3d 49 d7 94 3d cd 26 a0 3d
       -0.021041738 0.035462122 0.07267625 0.07819901
000010 2f 60 63 3d 70 d0 11 bb d0 16 57 bd 51 7b 15 3e
       0.05551165 -0.0022249483 -0.05251199 0.14597823
000020 7d fc a0 3d 36 71 c6 3c f9 2a 16 be 14 62 cf 3d
       0.07860658 0.024223905 -0.1466483 0.10126129
000030 cd ed b1 3d cb e2 1a 3e 4d 41 01 3e 67 7f 5f 3e
       0.08687935 0.15125577 0.12622567 0.21825944
000040 d6 fe 04 3e 38 68 ab 3e 66 ba 37 3c a1 1e 17 3d
       0.12987837 0.3347795 0.011213874 0.036894444
000050 1b 58 7b 3c 96 60 53 3d 07 5a ae bc 3e 17 09 3e
       0.01534083 0.051605783 -0.021283163 0.13387772
000060 8d 21 1c 3e ea 84 cc bd 59 80 92 3d 4c 04 d2 bd
       0.15247174 -0.09986289 0.071533866 -0.10254726
000070 a7 55 26 3e 2a 8a 1a bd a8 97 08 3e 21 cf 83 bd
       0.16243611 -0.03772942 0.13339102 -0.06435991
000080 e5 14 25 be 91 56 2f 3d 24 8d c2 3b 97 cb 8d 3b
       -0.16121252 0.042807166 0.0059372354 0.0043272483
000090 51 8d 4a be 24 92 7d 3d 0a f0 11 3e ff a3 c3 3c
       -0.1978047 0.06190695 0.14251724 0.02388191
0000a0 3f 80 55 be ba 85 8a be 3b 6d 8e be 30 bc aa 3d
       -0.20849703 -0.2705515 -0.2781771 0.08336675
0000b0 a0 f8 33 bd 77 3c 86 be 7c 9f 31 3e 5b fa 62 bd
       -0.04393828 -0.26218006 0.17345995 -0.05541454
0000c0 5b b5 8e 3d 82 78 b9 3c b1 3a 55 bd b6 bb cc bd
       0.069681846 0.02264047 -0.052057926 -0.099967405
0000d0 09 42 c2 bd 3e d6 97 bc f5 a3 0d 3c cb 7a 81 3d
       -0.094852515 -0.018534776 0.008645047 0.06322249
0000e0 02 f3 5f 3d f5 8d 97 3d a9 82 af 3d 3f 67 73 3d
       0.05467511 0.07400123 0.08569843 0.059424635
0000f0 d1 c5 a8 3d 2f 53 07 3c 73 09 74 3c 50 9e e4 3c
       0.082408555 0.008259579 0.014894831 0.02790752
000100 0f 6c 01 3e b0 6b 1b 3d 9c 19 52 3c 3b e9 30 bc
       0.12638877 0.037944496 0.012823489 -0.010797794
000110 16 06 5d be 31 f8 e6 3d 27 b8 c5 3c f4 cd 6d 3d
       -0.21584353 0.112778075 0.024135662 0.05805774
000120 d8 20 b9 bd 53 b8 41 3e a7 7b a1 3c 8e 2a 24 be
       -0.090394676 0.1891797 0.019712282 -0.16031858
000130 70 82 b0 3d 5a df c3 3d c7 f8 79 bc db a3 00 3d
       0.08618629 0.09564085 -0.015257067 0.031406265
000140 b0 38 37 3d 14 19 a1 3d 17 0a 64 3d 42 64 7c bb
       0.044731796 0.078661114 0.055673685 -0.0038511907
000150 f8 19 38 bd 1a 9b 15 bc b4 f5 08 3e 0b d9 86 bc
       -0.04494664 -0.009131217 0.13374978 -0.016460916
000160 24 6c e6 bc 05 84 f2 bc 47 ab 99 bc f3 4f 00 3e
       -0.028127737 -0.029603967 -0.01875843 0.12530498
000170 4a 9e 58 be 6e 2d 9b 3d 09 11 a7 bd d8 98 ae bd
       -0.21154132 0.075770244 -0.08157546 -0.085252464
000180 e2 53 a3 3c ef 98 8b bc ed a0 d8 bd 1c e8 f1 bc
       0.01993746 -0.017040698 -0.10577569 -0.029529624
000190 75 ae cf bd f1 93 4c 3b 89 2c fd bd 60 7e 81 3c
       -0.10140697 0.003121611 -0.1236201 0.01580733
0001a0 36 d1 de bc f4 d2 90 bd c3 a0 58 be c6 5d 40 3c
       -0.027199369 -0.07071486 -0.21155076 0.011741107
0001b0 12 95 17 3c c8 dc 8c bd fd 76 f4 bc 24 7e 96 bc
       0.00925185 -0.06878048 -0.029841894 -0.018370695
0001c0 e1 a1 09 3e 87 69 de 3d e1 5a 65 3e 8f a6 40 bd
       0.13440658 0.108599715 0.22397949 -0.047033843
0001d0 83 b8 f3 bd 8f ed a5 bd 37 9d 7d bd 05 0b 8a 3d
       -0.11900427 -0.08101951 -0.06191751 0.06740383
0001e0 f8 7b a6 bd 1c 67 d6 3d 2c ff bc 3d fc 21 99 bd
       -0.08129114 0.10468885 0.09228358 -0.07477185
0001f0 38 08 8e 3c 73 a1 39 bd 06 42 96 3d a6 32 0a 3e
       0.017337903 -0.045319986 0.07336812 0.13495883
000200 03 10 6e 3e a2 92 ab 3d 4a 81 8a bd 9c d6 89 3d
       0.23248295 0.08377577 -0.06762941 0.067303866
000210 77 41 67 3d 60 72 de 3c ec 35 d4 bc 2d 3c 68 be
       0.056458917 0.027154148 -0.025904618 -0.22679205
000220 5b ac f7 bd 73 c4 c1 bd e6 40 e0 3d 04 09 bb 3d
       -0.12093421 -0.09461298 0.109498784 0.09132579
000230 88 80 24 3d c1 c7 06 3d 3b 4b b7 3d 2d ca 27 3e
       0.04016164 0.032905344 0.08949896 0.16385718
000240 dd 04 32 3d cd bd 26 bd 7a 37 68 3e 6c 29 e6 3d
       0.04346167 -0.040708352 0.22677413 0.11238369
000250 45 ae 1a bd 6a c4 22 be f2 ad 21 bd 9a 36 57 3d
       -0.037763853 -0.15895239 -0.039472528 0.052542306
000260 63 3b 2f bd 99 bc b4 bd a4 21 4f bd 50 89 c1 bd
       -0.042781245 -0.08825035 -0.05056919 -0.094500184
000270 20 74 4f bd f5 f0 b3 3d 45 de 57 bd 94 8e 35 bc
       -0.050647855 0.08786193 -0.052702207 -0.011081357
000280 b1 7b 42 bc 13 50 2d 3d eb 4e 87 3c c4 6d 63 be
       -0.011870311 0.042312693 0.016517123 -0.22209841
000290 16 89 20 bd 8c 15 16 3e 04 89 0e 3e 31 c9 15 3e
       -0.039193235 0.14656657 0.13919455 0.1462753
0002a0 80 b0 f1 bd 99 bd cd bd 53 a5 d4 bd fc 08 e7 bd
       -0.11801243 -0.100459285 -0.103830956 -0.112810105
0002b0 e8 c9 8b 3b 75 49 3c be fb 67 72 bb ab e3 a0 3d
       0.0042660125 -0.18387397 -0.0036988247 0.07855924
0002c0 c5 ab 54 3d 4e 37 52 be 26 38 30 be f3 f5 ec 3d
       0.051921625 -0.2052891 -0.17208919 0.115703486
0002d0 03 63 15 3e c1 a3 20 be 67 7b f1 3c 34 7c 02 bd
       0.14588551 -0.15687467 0.029477788 -0.03185673
0002e0 c1 d7 79 3d 15 09 f3 bc e4 59 1f be 6c ff 7d bd
       0.060996775 -0.029667417 -0.15561634 -0.062011167
0002f0 6e 0f 2d be 3a 16 21 be c6 d8 b6 3d 49 aa 98 bd
       -0.16900417 -0.15731135 0.08928065 -0.07454354
000300 45 67 07 be 15 81 4f 3d f8 a6 d6 3c 44 54 c1 3c
       -0.13222988 0.05066021 0.026202664 0.023599751
000310 ff ff fd bc d1 1a ac bd 45 c0 db 3d 0d ac d7 3c
       -0.031005858 -0.08403552 0.10730032 0.026327157
000320 53 a8 74 3d 42 80 1e bc b1 b2 44 be e9 c9 d1 3d
       0.05973084 -0.009674134 -0.1920879 0.102435894
000330 7c dc 62 be ea 2f b4 bd 36 a8 37 3d dd 83 e7 3d
       -0.2215442 -0.087982014 0.044838153 0.11304448
000340 3c 65 8d be 53 a2 1b 3c 4a 24 8f 3d 5c 0d e0 3c
       -0.27616298 0.00949915 0.069893435 0.02735012
000350 42 8f 2e 3b d2 d9 de bd 0d 6e 30 3d 66 a9 2d 3e
       0.0026635681 -0.1088139 0.043073703 0.16959152
000360 f7 af 36 be 53 76 39 be 7e 4f 4b 3d 4b 31 7d 3d
       -0.17840563 -0.18111543 0.049636357 0.061814588
000370 aa c7 33 bd 10 e8 85 ba ca 1e 33 3e 80 2d 07 3d
       -0.043891586 -0.0010216255 0.17492214 0.033002377
000380 73 3a 8a 3c 51 ec 6d bd 2f 6e 3b bd fc 37 ea 3a
       0.016873574 -0.058086697 -0.045759376 0.0017869468
000390 af 97 2b 3e 4d 3b 8b bd 53 20 43 be 4d a7 92 3d
       0.16757081 -0.0679842 -0.190553 0.07160816
0003a0 1c 4f 37 3e c1 21 20 3e 8d d5 8d bd a0 e5 0a 3d
       0.17901272 0.15637876 -0.06925497 0.033910394
0003b0 cd 48 08 bd 24 a0 27 3e 84 d8 0e be f4 b9 b7 bc
       -0.033272553 0.16369683 -0.13949782 -0.022427537
0003c0 59 37 11 be c0 dc 5e 3d da a4 3f 3e a2 24 18 be
       -0.1418127 0.054409742 0.1871523 -0.14857724
0003d0 27 8d 10 be c7 5d 74 3b 14 d4 1e 3e fd fe b0 3e
       -0.14116345 0.003728734 0.15510589 0.3456954
0003e0 0a 96 bc 3d 50 2d 61 3d ad cc a3 3e dd 3a 0d 3c
       0.09208305 0.054974854 0.31992093 0.008619991
0003f0 f9 b9 7f 3d 74 a9 6c 3d 2f 19 53 3e 17 b8 cc 3d
       0.062433217 0.05777879 0.20615076 0.0999605

linear_layer.4.bias f4 [100]
000000 bb 46 04 bc 9b 39 0d bd 89 9c 84 3d 8b c2 99 bc
       -0.008073504 -0.034478765 0.06475169 -0.018769523
000010 3d 9c 0c be 70 52 9e bc 47 36 18 bd 45 70 4c 3c
       -0.13731475 -0.019326419 -0.037161138 0.012477939
000020 17 81 3a 3d 7d 25 ed 3c 1d ec 7e 3c 93 18 c1 bd
       0.045533266 0.02894854 0.0155592235 -0.09428515
000030 9c fa c0 bc 9b 87 8f 3c b3 63 e6 bc 96 56 9d 3c
       -0.023557 0.017520716 -0.028123712 0.019206326
000040 b9 af 12 3d 82 3f da bc b7 60 8d bd 34 a7 60 3d
       0.035812113 -0.026641611 -0.069032125 0.054846957
000050 dc 05 72 3d 8a 51 e0 bc 81 5e d6 3b 7a 58 07 3c
       0.05908762 -0.02738263 0.0065420275 0.008260841
000060 e4 38 73 3c af 7c ee 3c c0 b1 93 bc 24 ff 05 bc
       0.014845107 0.029112188 -0.018029094 -0.008178506
000070 94 eb 18 bd b9 ce 37 bd 49 51 e3 3c fe a3 85 3c
       -0.03733404 -0.04487488 0.02774872 0.01631355
000080 29 7e c6 bc 6c d5 18 bd 9f 14 39 3d be eb 96 bd
       -0.02423008 -0.03731291 0.04518568 -0.07369183
000090 27 ae 32 3d a8 8a 1e 3e 95 ef 78 3c f6 71 21 bd
       0.043623116 0.1548258 0.01519384 -0.039415322
0000a0 3b df 38 bb a5 d8 a4 3c 12 88 d8 b9 69 42 35 bc
       -0.0028209228 0.020122835 -0.0004130011 -0.011063197
0000b0 81 63 5f bd 7e 8f 73 3c 35 37 0d bd c6 8a ab bc
       -0.054538254 0.014865754 -0.034476478 -0.020940196
0000c0 07 c6 a1 ba a0 67 a3 bc 92 77 be 3a 5b 53 10 bc
       -0.0012342342 -0.019946873 0.0014531484 -0.008808936
0000d0 57 08 23 3b 60 d5 a1 3c 17 17 06 3c 71 78 d0 bc
       0.0024876797 0.019755065 0.008184216 -0.025448056
0000e0 39 74 15 3b 85 53 01 3b 39 83 a5 bc 10 41 13 bb
       0.002280487 0.001973362 -0.020204173 -0.00224692
0000f0 4f a0 cd b9 72 d3 9e 3d 1a 5e 29 3c aa 51 07 bc
       -0.00039220086 0.07755174 0.010337377 -0.008259216
000100 d7 9d 35 3c b2 c9 98 3b a9 8a e0 3a ed b2 a3 bc
       0.011084995 0.004662716 0.0017131168 -0.01998278
000110 09 1a 33 3d 0a f2 cb bc 33 9f 7a bd 81 5c 24 bc
       0.043726 -0.024895687 -0.06118698 -0.01003182
000120 5d e2 cc 3c cc f9 c2 3b 3b bd ee 3c 7f c7 19 bd
       0.025010282 0.0059501883 0.029142966 -0.03754377
000130 7c 8e 11 bc 87 ad db 3c 8e 11 33 3d da e7 22 3c
       -0.008884069 0.026816143 0.043717913 0.009942973
000140 4c ed 60 3d 5e 6e f7 bc 70 e4 a7 3d 09 58 6c 3d
       0.054913804 -0.030203994 0.08197868 0.057701144
000150 67 ba 67 bd ea e9 71 bd e7 5a f4 bb 6e ea ac bc
       -0.05657425 -0.05906097 -0.0074571255 -0.021107879
000160 09 ad 21 bc 36 64 59 3c be 1f ec 3b 41 7d 68 3c
       -0.009867915 0.013268521 0.0072059324 0.014190019
000170 97 0c c5 bc d2 d7 b0 3c 05 dd 75 3d 14 d1 dd bc
       -0.024053855 0.021587286 0.060025234 -0.027077235
000180 7d 68 de 3a d0 37 a2 bc bc cf 35 bd 01 1a 9c bc
       0.0016968396 -0.019802004 -0.044387564 -0.019055368
