ac_2d_model_para_5/checkpoint_200.pth (torch, 291130 bytes, 17 tensors)

linear_layer.0.weight f4 [100, 3]
0.18223952 0.15747681 -0.18981165 -0.008569363 -0.06944561 0.1036269 0.061994232 -0.06219806
-0.28067467 0.13239457 -0.03536715 0.21201034 -0.13342813 -0.14887692 -0.35561028 -0.047577154
-0.19567041 -0.13741149 -0.07909682 0.13212557 -0.12588581 -0.04109437 -0.043641303 -0.31802264
0.49378714 0.0491688 0.020191906 -0.12538303 -0.18496588 -0.059200346 0.04006863 -0.237991
0.14443904 -0.08502475 0.06613607 -0.2375036 0.23946863 -0.0048705554 -0.10216576 0.2036864
-0.01000091 0.22241631 0.1698871 0.15686204 0.19276504 -0.17009708 -0.18952827 0.020961624
0.28646103 0.02140352 -0.28027895 -0.18442225 -0.1463662 -0.16813321 -0.17068894 -0.017441217
0.08871041 0.13669711 0.16038115 -0.22895047 0.08805211 -0.19942997 0.07225422 0.34553236
-0.08517623 0.09833667 -0.2180508 -0.15221377 0.018949477 0.11521732 0.024206119 -0.47083294
0.20686975 0.034220465 0.30491343 0.15936658 0.082884975 0.019582087 -0.27004287 -0.2136898
-0.09932049 0.050434303 0.26083565 0.04135443 0.1941391 -0.21060096 0.06482665 0.06056664
-0.018213592 -0.10424325 -0.04321291 -0.16092834 -0.1395526 0.29921332 0.016414927 0.30037615
0.0824941 -0.2239108 0.13565397 -0.31360257 0.017363604 -0.119177215 0.060151283 -0.095910095
-0.28717905 0.11670134 -0.14331776 0.21434963 -0.09395035 0.2656676 0.0019939085 0.22252816
0.14505757 0.053739168 -0.039140273 -0.09157242 -0.37224525 -0.095570095 -0.027320124 -0.14130205
0.10912562 0.09598805 -0.12905177 -0.11939619 -0.010661942 0.1249912 -0.1864428 0.16964707
-0.10545902 0.08766637 -0.06578321 0.21733218 -0.14394124 0.19423845 0.12651283 -0.06939576
-0.11127883 0.14161076 -0.40261936 0.15702818 -0.30598637 0.27425802 0.0015329923 -0.13291724
0.08032736 0.09272223 0.084941864 0.3014532 -0.10239179 -0.10161744 0.15274653 0.11211959
-0.10931473 0.13294414 -0.05558995 -0.124776095 -0.092822656 0.24977878 0.09698128 0.011887538
0.05704299 0.2512459 0.09659445 0.08487048 0.0059147915 0.29274917 -0.073466785 0.12618692
0.49019492 0.013942634 -0.008527421 0.30683476 -0.11928292 -0.26952812 0.2760222 0.008511997
-0.1508627 -0.06606398 -0.18274921 0.23371695 -0.10651296 0.11763036 -0.015584473 0.0067329374
0.25991488 0.025828851 0.27554345 -0.14975956 -0.08662879 -0.00823014 0.116091534 -0.18543884
0.34193647 -0.1528713 0.09148261 0.021760417 0.10341721 0.32007548 0.116950184 -0.02644732
-0.3629636 -0.25477177 -0.027313909 0.12750357 0.27582806 -0.11833043 -0.005936258 -0.08263766
0.103438675 0.028142145 -0.21136773 0.016100755 -0.040762417 0.10149278 0.15295942 0.090355314
-0.07504764 0.26433894 -0.100664295 0.0692181 0.1515484 -0.2029214 0.41972667 0.03171802
-0.078087464 -0.030426707 0.346397 0.14873087 -0.147896 -0.40355524 0.25868702 -0.33339384
-0.09420873 -0.17196423 -0.0063594533 0.21708632 -0.0146494955 0.026875457 -0.19165316 0.04501012
0.13108328 -0.055735 -0.03885613 -0.121424474 -0.20052592 -0.07283927 -0.20059812 0.15967692
0.0738645 0.15824844 -0.11172653 0.4537521 0.2545799 -0.033257023 -0.26401895 0.18448678
00000000: ff9c 3a3e 9a41 213e fc5d 42be 8366 0cbc
00000010: 8039 8ebd 573a d43d aaed 7d3d 65c3 7ebd
00000020: 97b4 8fbe 7192 073e 25dd 10bd 3d19 593e
00000030: 62a1 08be 3173 18be 8d12 b6be 43e0 42bd
00000040: d35d 48be 99b5 0cbe 83fd a1bd ed4b 073e
00000050: 36e8 00be 9252 28bd 39c1 32bd ddd3 a2be
00000060: abd1 fc3e 3965 493d 7f69 a53c 6964 00be
00000070: b267 3dbe 107c 72bd 011f 243d eab3 73be
00000080: d4e7 133e 7521 aebd 5972 873d 2534 73be
00000090: 4437 753e 2e99 9fbb 483c d1bd 2b93 503e
000000a0: dbda 23bc 1ac1 633e e2f6 2d3e 71a0 203e
000000b0: 3364 453e ee2d 2ebe b313 42be b6b7 ab3c
000000c0: 05ab 923e 6f56 af3c b980 8fbe 30d9 3cbe
000000d0: 05e1 15be 1d2b 2cbe 15c9 2ebe e2e0 8ebc
000000e0: cead b53d 54fa 0b3e f53a 243e fe71 6abe
000000f0: aa54 b43d 5f37 4cbe 05fa 933d 9ee9 b03e
00000100: e070 aebd bc64 c93d b548 5fbe eddd 1bbe
00000110: ef3b 9b3c 0ff7 eb3d e94b c63c 0411 f1be
00000120: aad5 533e c22a 0c3d 9d1d 9c3e fe30 233e
00000130: 99bf a93d 9d6a a03c 0f43 8abe 80d1 5abe
00000140: 8b68 cbbd 3394 4e3d 408c 853e 4363 293d
00000150: 66cc 463e c7a7 57be d6c3 843d ba14 783d
00000160: ac34 95bc 7c7d d5bd 0500 31bd 66ca 24be
00000170: e0e6 0ebe 7d32 993e 9978 863c e7ca 993e
00000180: abf2 a83d df48 65be e0e8 0a3e 8490 a0be
00000190: 1e3e 8e3c 2f13 f4bd 3161 763d 836c c4bd
000001a0: 2209 93be 1d01 ef3d e4c1 12be 787e 5b3e
000001b0: 0b69 c0bd 9505 883e 3cac 023b 6cde 633e
000001c0: f989 143e 9a1d 5c3d 8d51 20bd 528a bbbd
000001d0: ee96 bebe 41ba c3bd 74ce dfbc 7cb1 10be
000001e0: 417d df3d 6295 c43d 2626 04be fd85 f4bd
000001f0: 6daf 2ebc 63fb ff3d ddea 3ebe f6b7 2d3e
00000200: e6fa d7bd 6d8a b33d 59b9 86bd 548c 5e3e
00000210: 5565 13be 72e6 463e 948c 013e 5d1f 8ebd
00000220: 28e6 e3bd 6902 113e 2024 cebe ffcb 203e
00000230: 3faa 9cbe 8c6b 8c3e b0ee c83a 751b 08be
00000240: ac82 a43d 27e5 bd3d 00f6 ad3d 1358 9a3e
00000250: c9b2 d1bd ce1c d0bd 9669 1c3e f59e e53d
00000260: 67e0 dfbd 8222 083e 4ab2 63bd 9c8a ffbd
00000270: ce19 bebd 02c6 7f3e 1f9e c63d f3c3 423c
00000280: e9a5 693d 4da3 803e 50d3 c53d 93d0 ad3d
00000290: ded0 c13b 38e3 953e c175 96bd 2537 013e
000002a0: d4fa fa3e a56f 643c 99b6 0bbc 7219 9d3e
000002b0: 9b4a f4bd 97ff 89be c852 8d3e e775 0b3c
000002c0: c07b 1abe 8d4c 87bd 9c22 3bbe 7f53 6f3e
000002d0: 7723 dabd 30e8 f03d 0456 7fbc f99f dc3b
000002e0: 9013 853e 0797 d33c 0814 8d3e 925a 19be
000002f0: 6f6a b1bd b6d7 06bc 66c1 ed3d aee3 3dbe
00000300: 4c12 af3e 4b8a 1cbe 3c5b bb3d e742 b23c
00000310: 67cc d33d efe0 a33e 9483 ef3d 0da8 d8bc
00000320: 5dd6 b9be 7271 82be 6bc1 dfbc 4c90 023e
00000330: 5639 8d3e 3957 f2bd f184 c2bb ef3d a9bd
00000340: a8d7 d33d 5b8a e63c c870 58be bbe5 833c
00000350: 7ef6 26bd 72db cf3d 65a1 1c3e 350c b93d
00000360: 94b2 99bd 6f57 873e 1529 cebd 38c2 8d3d
00000370: 812f 1b3e a1ca 4fbe 6ae6 d63e c1ea 013d
00000380: 52ec 9fbd 6e41 f9bc f35a b13e e84c 183e
00000390: 0d72 17be cb9e cebe a072 843e 99b2 aabe
000003a0: 82f0 c0bd 6417 30be f662 d0bb e04b 5e3e
000003b0: 7004 70bc eb29 dc3c ba40 44be 885c 383d
000003c0: b23a 063e 624a 64bd 9b27 1fbd 65ad f8bd
000003d0: ab56 4dbe c12c 95bd 9869 4dbe 5982 233e
000003e0: 4546 973d e10b 223e e1d0 e4bd 3252 e83e
000003f0: 4c58 823e 8438 08bd 7e2d 87be 1aea 3c3e

linear_layer.0.bias f4 [100]
-0.0155914845 -0.061985612 0.16295323 -0.021065246 0.030550517 -0.024122907 0.059229907 0.10483455
-0.15771204 0.05860061 0.052704815 -0.10125413 0.1045398 0.10787632 0.033507034 -0.005285483
-0.10295684 0.0045339167 -0.02454369 0.009483402 -0.07773659 -0.035562772 -0.041270986 0.026310407
0.036879715 0.11196241 0.07617091 -0.035495356 0.050405998 -0.0755544 -0.05731719 -0.040317785
0.0873214 -0.06991759 -0.06375089 0.054865446 -0.028412497 -0.10401947 0.14372528 0.09711572
0.074039206 -0.03847435 0.07956539 -0.18547997 0.016373022 -0.085844085 -0.112130806 0.006654507
-0.07700509 -0.10456781 0.1389882 0.07025332 -0.005092318 -0.1571717 0.082090944 0.08502083
0.020842403 -0.012088491 -0.009855538 -0.008932241 -0.097676955 -0.015998162 -0.013903109 0.11969199
-0.08452174 0.07193351 -0.118691005 -0.0011111338 -0.0712709 0.08610707 0.11125127 -0.056991972
-0.086671546 0.14336653 -0.0026429247 0.028646948 0.00223713 0.064507894 -0.09719793 -0.02289157
0.12959623 0.096444026 -0.056913592 -0.0009579133 0.034528207 0.026083084 0.096353434 0.12997842
-0.102173105 -0.09172479 -0.11290015 -0.17263351 -0.05862435 0.1109298 -0.027201168 0.0450545
0.14413114 0.055736925 -0.05949773 0.036879245
00000000: 6d73 7fbc a0e4 7dbd 36dd 263e 0691 acbc
00000010: 1445 fa3c 679d c5bc 0f9b 723d 7fb3 d63d
00000020: 447f 21be 3107 703d 01e1 573d 535e cfbd
00000030: f618 d63d 43ee dc3d ac3e 093d d831 adbb
00000040: 09db d2bd 4091 943b d90f c9bc 4560 1b3c
00000050: 5c34 9fbd 45aa 11bd c40b 29bd ec88 d73c
00000060: 2f0f 173d 8c4c e53d 7eff 9b3d 9463 11bd
00000070: 8576 4e3d 44bc 9abd 6ec5 6abd 4324 25bd
00000080: 90d5 b23d f430 8fbd d48f 82bd 97ba 603d
00000090: 53c1 e8bc 2908 d5bd b82c 133e 9be4 c63d
000000a0: dea1 973d 4897 1dbd 2ef3 a23d 76ee 3dbe
000000b0: b720 863c 06cf afbd d6a4 e5bd 0d0e da3b
000000c0: d8b4 9dbd a627 d6bd ec52 0e3e f9e0 8f3d
000000d0: 76dd a6bb 9ef1 20be 4c1f a83d 671f ae3d
000000e0: b0bd aa3c ce0e 46bc 1f79 21bc 8958 12bc
000000f0: db0a c8bd 940e 83bc dec9 63bc 1321 f53d
00000100: bc19 adbd e051 933d 4514 f3bd 77a3 91ba
00000110: 7af6 91bd e758 b03d b5d7 e33d 6a70 69bd
00000120: da80 b1bd adce 123e eb34 2dbb 01ad ea3c
00000130: d09c 123b b71c 843d b50f c7bd 1a87 bbbc
00000140: e0b4 043e 7284 c53d 3a1e 69bd 791c 7bba
00000150: 736d 0d3d 31ac d53c f354 c53d 1019 053e
00000160: 2240 d1bd 35da bbbd 3238 e7bd d7c6 30be
00000170: 1620 70bd 2a2f e33d fcd4 debc 118b 383d
00000180: 1d97 133e 674c 643d e4b3 73bd b10e 173d

linear_layer.1.weight f4 [100, 100]
0.059798606 0.1493452 -0.057953816 -0.022501556 -0.014724299 0.004506241 0.10010791 0.062461644
0.17584108 -0.15225329 -0.07953401 0.010838805 -0.19466688 -0.062976584 0.06722917 0.0663169
-0.2006921 -0.15461768 0.17021707 0.006021352 -0.09039764 0.11527958 0.031677507 0.1727948
-0.066158086 0.00835617 -0.08722878 -0.01342562 -0.23483123 -0.08695824 -0.013038982 0.006939058
-0.042159062 0.20984925 -0.080880836 -0.06328087 -0.092029504 -0.009581538 0.13348478 -0.14017765
0.05509458 0.09521297 -0.1398884 -0.058876287 0.0004319408 -0.036801714 0.053772595 0.08196068
0.0020028641 0.12665449 -0.008435351 -0.27765113 0.11494426 0.08658264 -0.031022964 -0.21193846
-0.08787549 -0.07183103 0.21520494 0.16777782 0.011579432 0.06353967 -0.007305316 -0.15822126
-0.021071056 0.181258 -0.010441132 0.017215703 0.02774245 -0.08921242 0.0027031882 0.0989538
-0.072916225 0.044724144 -0.2067942 0.029419703 -0.040603243 0.0045905425 -0.17497228 -0.11743467
-0.026315242 -0.01323872 -0.028122919 -0.10166077 0.07194854 0.12600689 -0.025415203 -0.07456973
0.095093094 0.10895901 -0.008543519 0.13245349 -0.088770576 -0.0649947 -0.009396515 -0.0982844
-0.060002845 -0.016087838 -0.1324029 -0.08340588 0.05037157 0.21794018 -0.03712309 0.05868997
-0.049661957 -0.16826674 0.13496737 -0.27897292 -0.046846956 -0.073293805 -0.069031276 0.042754218
0.1020393 0.114146665 0.15594515 -0.15047063 -0.038746066 -0.28512225 0.013255675 0.19131818
-0.112836964 -0.02420454 0.02962038 0.12167886 0.18462831 0.07072891 -0.09336873 0.12176517
-0.12587522 -0.07545447 -0.06477408 -0.10525543 0.17163636 -0.108133614 -0.10184616 0.03302
0.19044125 0.020959798 -0.031436067 -0.089226596 0.20211425 -0.09938926 0.12675278 -0.16983819
0.20147227 -0.23001006 -0.26653203 -0.06603915 0.041640885 -0.09006364 -0.020485299 -0.03918385
0.088902615 -0.15911089 -0.046997372 0.09150346 0.023338273 -0.074076846 -0.11904931 -0.044174876
0.1376092 -0.087172315 -0.022329835 0.056730513 -0.1400143 0.14246717 -0.03286827 -0.18410036
-0.3746794 0.22649458 -0.022851879 0.0807129 0.0491489 0.13398339 0.11189965 0.18778348
0.0060356683 -0.0043185945 -0.10850191 0.047580022 0.1977891 -0.20735887 -0.03771468 0.07864114
0.016702063 -0.079305425 0.028223699 0.03832395 0.0126382 -0.13293342 0.08585829 -0.122227035
0.026644643 -0.09875542 0.120538965 -0.13022758 0.15920272 0.14207684 -0.118261896 0.1962395
-0.106254525 -0.050887283 0.10436419 -0.040761493 -0.13468453 0.04471545 -0.033788465 0.14313105
-0.1574172 -0.03187111 0.08519272 0.021905156 -0.065676086 0.042206712 0.03560987 -0.034962233
-0.0128507735 0.11773533 -0.20150991 -0.16431843 0.07527952 0.0862956 0.029815799 -0.13815868
-0.1417776 -0.15735401 0.038436014 0.079324014 -0.037779003 0.09871061 -0.12992366 -0.028180217
0.033840712 -0.051479902 0.013948528 0.011012691 -0.10321566 -0.07673627 -0.07042654 -0.0018214589
0.23503308 0.175991 -0.023811921 0.14057438 -0.124716654 0.14201501 0.10107051 -0.11575101
-0.06337441 -0.08843382 0.056295857 0.011312101 -0.0455482 -0.06014246 -0.14108141 -0.017010711
00000000: 62ef 743d f3ed 183e fb60 6dbd 2f55 b8bc
00000010: 303e 71bc 17a9 933b 6005 cd3d c8d7 7f3d
00000020: af0f 343e 49e8 1bbe bae2 a2bd 3e95 313c
00000030: c156 47be def9 80bd 72af 893d 28d1 873d
00000040: 3b82 4dbe 1954 1ebe 624d 2e3e c34e c53b
00000050: 6622 b9bd b317 ec3d 46c0 013d 1ff1 303e
00000060: e47d 87bd 51e8 083c 01a5 b2bd 22f7 5bbc
00000070: 9977 70be 2917 b2bd 74a1 55bc 0a61 e33b
00000080: fbae 2cbd b9e2 563e daa4 a5bd 6799 81bd
00000090: f779 bcbd e2fb 1cbc 3cb0 083e bb8a 0fbe
000000a0: dbaa 613d 05ff c23d e83e 0fbe 4328 71bd
000000b0: 1d76 e239 65bd 16bd a740 5c3d 00db a73d
000000c0: 7c42 033b b7b1 013e 6d34 0abc 4a28 8ebe
000000d0: e567 eb3d 3d52 b13d df23 febc 6506 59be
000000e0: 11f8 b3bd 261c 93bd af5e 5c3e f3cd 2b3e
000000f0: a8b7 3d3c 1621 823d 6f61 efbb c104 22be
00000100: 359d acbc b29b 393e 4811 2bbc f207 8d3c
00000110: 2244 e33c 00b5 b6bd f927 313b 4aa8 ca3d
00000120: 1a55 95bd aa30 373d dcc1 53be 9701 f13c
00000130: 964f 26bd 436c 963b ef2b 33be 9781 f0bd
00000140: 1093 d7bc 37e7 58bc 0962 e6bc 8633 d0bd
00000150: c259 933d f307 013e 8b33 d0bc 04b8 98bd
00000160: 2bc0 c23d e725 df3d 1efa 0bbc e3a1 073e
00000170: 59cd b5bd f11b 85bd d7f3 19bc 5549 c9bd
00000180: 8bc5 75bd a4ca 83bc a094 07be b4d0 aabd
00000190: 6b52 4e3d b62b 5f3e 620e 18bd e564 703d
000001a0: 566a 4bbd 1e4e 2cbe e334 0a3e 8ad5 8ebe
000001b0: 98e2 3fbd 101b 96bd 4560 8dbd 0c1f 2f3d
000001c0: fbf9 d03d bac5 e93d 16b0 1f3e f914 1abe
000001d0: 32b4 1ebd 8bfb 91be 552e 593c eae8 433e
000001e0: 1117 e7bd 9948 c6bc 70a6 f23c c432 f93d
000001f0: 340f 3d3e 52da 903d 1b38 bfbd 0460 f93d
00000200: 6fe5 00be e087 9abd 46a8 84bd 2990 d7bd
00000210: 71c1 2f3e 2875 ddbd b894 d0bd fb3f 073d
00000220: 0803 433e e2b3 ab3c 1bc3 00bd 6fbc b6bd
00000230: 0af7 4e3e 998c cbbd 7bcb 013e 10ea 2dbe
00000240: bf4e 4e3e c287 6bbe e376 88be 893f 87bd
00000250: a28f 2a3d 4973 b8bd c9d0 a7bc 3f7f 20bd
00000260: 9312 b63d f7ed 22be 5180 40bd 2b66 bb3d
00000270: e82f bf3c 9ab5 97bd 20d0 f3bd b7f0 34bd
00000280: 6de9 0c3e 6687 b2bd 0fed b6bc 415e 683d
00000290: e95f 0fbe eae2 113e e1a0 06bd ce84 3cbe
000002a0: fad5 bfbe 32ee 673e dd33 bbbc ce4c a53d
000002b0: 5b50 493d f132 093e a52b e53d 504a 403e
000002c0: dbc6 c53b ff82 8dbb 4036 debd 45e3 423d
000002d0: 3a89 4a3e e255 54be b57a 1abd 9b0e a13d
000002e0: c4d2 883c e26a a2bd 6335 e73c 93f9 1c3d
000002f0: 7410 4f3c b31f 08be 79d6 af3d 2b52 fabd
00000300: de45 da3c 4840 cabd 22dd f63d 615a 05be
00000310: 0a06 233e 977c 113e 4b33 f2bd 02f3 483e
00000320: f99b d9bd 2f6f 50bd e4bc d53d 86f5 26bd
00000330: beea 09be 8c27 373d c665 0abd f290 123e
00000340: f931 21be 488b 02bd 8579 ae3d 7172 b33c
00000350: 2f81 86bd f2e0 2c3d a8db 113d 8f34 0fbd
00000360: 0d8c 52bc 381f f13d 9d58 4ebe 1743 28be
00000370: 262c 9a3d bfbb b03d 4340 f43c 7879 0dbe
00000380: 262e 11be 6921 21be 156f 1d3d a174 a23d
00000390: 28be 1abd ca28 ca3d b50a 05be 33da e6bc
000003a0: 8f9c 0a3d 97dc 52bd 5e88 643c 936e 343c
000003b0: bb62 d3bd e827 9dbd ca3b 90bd 05be eeba
000003c0: 83ac 703e fc36 343e 3811 c3bc bbf2 0f3e
000003d0: 726b ffbd 626c 113e 0efe ce3d de0e edbd
000003e0: 71ca 81bd ca1c b5bd 7c96 663d 6456 393c
000003f0: c090 3abd f157 76bd a577 10be 0c5a 8bbc

linear_layer.1.bias f4 [100]
-0.06413987 0.07501366 -0.017111083 0.13930523 -0.017448546 -0.037799228 -0.100213096 0.10602084
-0.09864557 0.033065055 -0.07182358 -0.021825943 0.112849005 0.09709717 -0.061003353 -0.051166113
0.00036265605 0.10259917 0.016504575 -0.04932777 -0.040344708 0.040673684 -0.023853235 0.05589093
0.05137952 0.028491633 0.1076942 -0.04780049 -0.07993641 -0.057809014 -0.12834083 0.05746361
-0.0042576534 -0.025009315 -0.047687907 0.032635223 0.11359713 -0.08133596 0.013596217 -0.018638358
-0.097032465 -0.09902096 0.029329516 0.12950525 -0.063348986 0.0013037646 0.0034154365 -0.08270112
0.008642811 -0.08877225 -0.04021668 0.024016833 0.000354379 -0.07951676 0.019505568 0.037872966
0.10321374 -0.06439624 0.015842145 0.03021872 -0.056436893 -0.006465755 0.016305745 0.12993495
0.020760505 0.038836386 -0.06796476 0.016973408 -0.03940996 -0.11373621 -0.07214308 0.0039397855
-0.039378244 -0.04174169 0.052684993 0.019481763 0.06848125 -0.06310468 0.05973515 -0.047624197
-0.12928495 -0.035820052 0.028684141 -0.031803504 0.07258366 -0.003369021 0.0077928025 0.039180424
0.104839906 -0.011670392 -0.064910404 -0.094957784 0.063477695 0.028783945 0.049744297 0.028220175
0.061135743 -0.0068497476 0.0031552655 0.050308872
00000000: c45b 83bd c3a0 993d 8b2c 8cbc 08a6 0e3e
00000010: 41f0 8ebc 5dd3 1abd 863c cdbd 7421 d93d
00000020: b006 cabd 396f 073d 3e18 93bd 52cc b2bc
00000030: 611d e73d e2da c63d a7de 79bd 8f93 51bd
00000040: df22 be39 831f d23d 9a34 873c ea0b 4abd
00000050: 7e40 25bd 7399 263d dc67 c3bc e3ed 643d
00000060: 5573 523d 4967 e93c c78e dc3d 72ca 43bd
00000070: b3b5 a3bd 25c9 6cbd c76b 03be f65e 6b3d
00000080: c983 8bbb 56e0 ccbc 6554 43bd 83ac 053d
00000090: 9da5 e83d 7893 a6bd abc2 5e3c 78af 98bc
000000a0: f5b8 c6bd 80cb cabd 7444 f03c 069d 043e
000000b0: 1dbd 81bd 15e3 aa3a 84d5 5f3b 345f a9bd
000000c0: 949a 0d3c 3ace b5bd 3fba 24bd f3be c43c
000000d0: f2cb b939 afd9 a2bd 24ca 9f3c af20 1b3d
000000e0: ba61 d33d 2de2 83bd 63c7 813c 408d f73c
000000f0: 5f2a 67bd afde d3bb a093 853c ab0d 053e
00000100: ef11 aa3c e712 1f3d 1c31 8bbd d10b 8b3c
00000110: 576c 21bd 88ee e8bd c0bf 93bd 5119 813b
00000120: 154b 21bd 56f9 2abd 38cc 573d 3898 9f3c
00000130: e63f 8c3d 073d 81bd d8ac 743d 9711 43bd
00000140: 4663 04be 0cb8 12bd 01fb ea3c 6444 02bd
00000150: bea6 943d cbca 5cbb c45a ff3b a77b 203d
00000160: 4eb6 d63d 2c35 3fbc bfef 84bd 3a79 c2bd
00000170: 9800 823d 4fcc eb3c adc0 4b3d ff2d e73c
00000180: 7969 7a3d d973 e0bb 92c8 4e3b ad10 4e3d

linear_layer.2.weight f4 [100, 100]
-0.0573574 0.024448132 0.06994497 -0.20594075 0.089971706 -0.042406354 0.05194655 -0.08121701
0.092392735 -0.04718364 -0.043867107 0.036014248 -0.054822087 -0.091165885 0.024283344 -0.14376591
0.04980883 -0.07861015 -0.039688658 0.13229293 0.022608798 0.046377935 -0.06373293 -0.06830214
-0.12517197 0.004346961 -0.21260068 -0.020925978 0.012731368 -0.00072011095 0.041345805 -0.007627233
0.009641452 2.8833254e-05 0.055818483 -0.008532606 -0.022089068 0.27056223 0.026410498 -0.06312026
0.14088102 0.16549651 0.07489569 0.019176032 0.121307924 -0.013933161 0.12149815 0.038760584
-0.1518421 0.1121601 0.004840303 0.056081157 -0.13613273 0.037152685 -0.11862368 -0.03931001
-0.32614347 0.047872737 0.093462095 0.010278996 -0.03184619 5.472641e-05 -0.011456067 -0.0221689
0.044008173 0.121901974 0.054681454 -0.059070818 0.09142162 0.02156902 0.24275939 0.25187948
0.016343342 -0.12117347 -0.19366646 0.026371408 -0.033166684 -0.023577632 -0.07799718 0.09703584
-0.09165883 0.05359946 0.0040064035 0.10133608 0.23740375 -0.13610135 0.15998493 -0.26282185
-0.06811393 -0.11119909 0.04432254 0.13234714 0.0019796959 -0.11614999 -0.032035116 -0.02532067
-0.06868365 0.02149518 0.014331587 0.06266267 -0.02371614 0.016802954 -0.041400127 -0.34420738
0.0057211937 0.068726376 0.07240248 -0.25421834 0.053107563 -0.13543253 0.11730052 -0.13460298
-0.09314602 -0.29544833 -0.09414622 0.030795572 0.0032007992 -0.10201901 0.07534762 0.06579619
0.10602923 0.13398348 -0.021332094 -0.05948499 0.061747298 0.06356705 -0.26119685 0.087792546
0.07815603 0.010813563 0.108284146 -0.2070392 0.2729851 0.10044281 -0.04490823 -0.08883005
0.0066043087 0.08652564 0.25095087 0.006687926 0.19388951 -0.0013873684 0.14182925 0.011971235
0.13178416 0.19394523 -0.16823778 0.048607398 -0.22292526 0.07272349 -0.030975219 -0.17132421
0.07952289 0.07088063 0.22741437 0.15791968 -0.079656206 0.009318489 -0.056717925 -0.078759536
0.031630397 0.15710159 0.20413776 -0.035789523 -0.24946228 -0.070156366 0.000935025 0.013170344
0.026543166 0.029502869 -0.02874975 0.064790025 0.023388658 -0.11766258 0.006178752 -0.0867959
-0.009271777 0.11362992 0.0019657 0.09057663 0.011996615 -0.10587466 -0.13761076 -0.1572282
-0.039899 0.12561145 0.04905733 -0.11226244 -0.0129251005 -0.08138406 0.04400284 0.09178246
0.061406273 -0.14051166 0.002274827 -0.090178214 0.052884765 0.04662761 0.024406578 -0.035249162
-0.03215298 -0.09445914 -0.049053274 0.05991814 0.1552075 -0.08760202 0.080667764 0.021509988
-0.055573463 0.18832444 -0.17878832 -0.13589777 -0.071144655 -0.16842136 -0.038228784 0.06759701
0.18455645 0.08300086 -0.16636756 -0.0038078541 -0.1291737 0.120287165 -0.26142466 0.08685942
-0.099177934 -0.07645906 0.109509856 0.010396888 -0.149863 0.061546016 -0.1384718 0.09062666
-0.08177457 0.036029804 -0.052365053 0.122208565 -0.05462152 -0.17296942 0.0036337466 0.054363575
-0.139525 0.0178013 -0.11984712 -0.008279767 0.016192263 -0.08672691 -0.012197983 0.010675154
-0.043929156 -0.031536676 -0.13697816 0.060372356 -0.11261288 0.025696374 0.045959212 0.04617743
00000000: 98ef 6abd 7347 c83c 4f3f 8f3d 22e2 52be
00000010: 1643 b83d 49b2 2dbd e8c5 543d 1b55 a6bd
00000020: 6738 bd3d a243 41bd ffad 33bd ad83 133d
00000030: 208d 60bd 2eb5 babd dded c63c 5f37 13be
00000040: 5804 4c3d 5cfe a0bd 9390 22bd cc77 073e
00000050: 1636 b93c caf6 3d3d 6986 82bd fee1 8bbd
00000060: 152d 00be f470 8e3b feb3 59be f56c abbc
00000070: 3a97 503c d4c5 3cba 385a 293d deed f9bb
00000080: 2ef7 1d3c f1de f137 eca1 643d 58cc 0bbc
00000090: 22f4 b4bc 2287 8a3e d45a d83c 3245 81bd
000000a0: 1d43 103e eb77 293e e962 993d 0e17 9d3c
000000b0: 4a70 f83d ea47 64bc 06d4 f83d 6bc3 1e3d
000000c0: 7f7c 1bbe 32b4 e53d 689b 9e3b 5bb5 653d
000000d0: 6166 0bbe 6a2d 183d f9f0 f2bd 8803 21bd
000000e0: 47fc a6be 3416 443d 0e69 bf3d 3c69 283c
000000f0: 2771 02bd 098a 6538 3ab2 3bbc 8e9b b5bc
00000100: ea41 343d bea7 f93d a9f9 5f3d 3ef4 71bd
00000110: 423b bb3d 83b1 b03c eb95 783e 59f6 803e
00000120: 79e2 853c cc29 f8bd 8050 46be da08 d83c
00000130: cad9 07bd e125 c1bc fcbc 9fbd baba c63d
00000140: a0b7 bbbd 1b8b 5b3d 2648 833b 4a89 cf3d
00000150: f819 733e 275e 0bbe 17d3 233e 9690 86be
00000160: 517f 8bbd 59bc e3bd 8d8b 353d 0286 073e
00000170: c9bd 013b 0ce0 edbd 4137 03bd 4b6d cfbc
00000180: 03aa 8cbd a916 b03c 08cf 6a3c 4955 803d
00000190: 5a48 c2bc 59a6 893c 2e93 29bd f33b b0be
000001a0: da78 bb3b 6ac0 8c3d c047 943d e828 82be
000001b0: 5187 593d d3ae 0abe 413b f03d 5dd5 09be
000001c0: 57c3 bebd 0145 97be bccf c0bd ff46 fc3c
000001d0: 80c4 513b 58ef d0bd da4f 9a3d 27c0 863d
000001e0: da25 d93d f732 093e a5c0 aebc 88a6 73bd
000001f0: bcea 7c3d 712f 823d 98bb 85be 94cc b33d
00000200: 4510 a03d 5f2b 313c 14c4 dd3d 1602 54be
00000210: b4c4 8b3e f6b4 cd3d b1f1 37bd 87ec b5bd
00000220: f568 d83b 5b34 b13d a27c 803e 6426 db3b
00000230: f98a 463e 5cd8 b5ba b03b 113e 0023 443c
00000240: 6df2 063e 9499 463e 8646 2cbe 8d18 473d
00000250: 8546 64be 0ef0 943d bebf fdbc 9d6f 2fbe
00000260: e6dc a23d dd29 913d 50df 683e b2b5 213e
00000270: cb22 a3bd 93ac 183c 0e51 68bd ae4c a1bd
00000280: e08e 013d 3ddf 203e 7d09 513e 0998 12bd
00000290: 0a73 7fbe 24ae 8fbd 771c 753a 6dc8 573c
000002a0: 0e71 d93c 00b0 f13c 9984 ebbc a2b0 843d
000002b0: 9299 bf3c 14f9 f0bd 2177 ca3b 0cc2 b1bd
000002c0: a7e8 17bc ceb6 e83d f9d2 003b 3d80 b93d
000002d0: 738d 443c d0d4 d8bd d6e9 0cbe 6e00 21be
000002e0: 226d 23bd 4aa0 003e 57f0 483d dae9 e5bd
000002f0: cdc3 53bc b0ac a6bd 523c 343d 71f8 bb3d
00000300: 2585 7b3d 4ae2 0fbe 4415 153b 5baf b8bd
00000310: b29d 583d 98fc 3e3d 4ef0 c73c 6d61 10bd
00000320: d8b2 03bd cb73 c1bd 16ec 48bd b96c 753d
00000330: b7ee 1e3e b068 b3bd 2435 a53d b735 b03c
00000340: 00a1 63bd 1fd8 403e 4914 37be c928 0bbe
00000350: 4ab4 91bd a676 2cbe c995 1cbd 4d70 8a3d
00000360: 5efc 3c3e 5bfc a93d 425c 2abe 318d 79bb
00000370: 1c46 04be 1e59 f63d 74d9 85be 5ae3 b13d
00000380: cd1d cbbd 9196 9cbd b446 e03d b557 2a3c
00000390: b075 19be ad17 7c3d 8dcb 0dbe 789a b93d
000003a0: 6d79 a7bd fd93 133d bd7c 56bd 7c48 fa3d
000003b0: d1ba 5fbd e51e 31be 2724 6e3b 57ac 5e3d
000003c0: a4df 0ebe 08d4 913c 6872 f5bd dca7 07bc
000003d0: a3a5 843c e19d b1bd 0dda 47bc d7e6 2e3c
000003e0: 0fef 33bd 9a2c 01bd 0144 0cbe 0149 773d
000003f0: 95a1 e6bd 3481 d23c ba3f 3c3d 8b24 3d3d

linear_layer.2.bias f4 [100]
-0.05229834 -0.044777356 0.016004829 0.013920791 0.02046313 0.03946618 0.060466662 -0.01114221
0.024800535 0.03147986 -0.033238303 -0.06101292 -0.09433765 0.10709842 -0.021626297 -0.018112108
-0.061748933 0.06464716 0.01497168 -0.030394182 -0.08808409 -0.06375195 -0.016408458 0.08993731
0.021570152 -0.05156515 -0.04421504 -0.065329276 0.055707887 -0.06264468 -0.07241762 -0.029244587
0.0027535502 0.030514235 -0.013889828 -0.08598402 -0.028725378 -0.05602303 -0.015694894 -0.02830557
-0.034159925 -0.08662357 -0.018566167 0.027474457 0.010047243 0.0050509525 0.002396742 0.0020791555
0.022185415 0.020093994 -0.025409486 -0.0020945643 0.079559304 0.052456893 0.056811903 -0.10492894
-0.045327507 -0.008116358 -0.0014259582 -0.050979804 0.022029517 0.037670087 0.07056518 -0.01188635
-0.041628137 -0.0014633579 -0.023357436 0.007008837 -0.041639317 0.017261121 0.012301444 -0.026546668
-0.017029583 -0.006671594 -0.03368602 -0.059864823 0.005997852 0.008768468 0.026692422 -0.042334672
-0.04820996 -0.010087516 -0.055647146 -0.03827725 0.04409223 0.050434925 0.019556094 0.11445469
-0.035076786 -0.006494096 0.012785585 0.033209994 -0.020374231 -0.12320801 0.016955454 -0.0644539
-0.035750695 0.014171411 -0.048674922 -0.02861754
00000000: c936 56bd 7668 37bd 8f1c 833c 0814 643c
00000010: 4ba2 a73c 4aa7 213d e4ab 773d d18d 36bc
00000020: 7e2a cb3c 07f1 003d e324 08bd afe8 79bd
00000030: 1934 c1bd 6b56 db3d a229 b1bc d85f 94bc
00000040: 73ec 7cbd bb65 843d c74b 753c 38fd f8bc
00000050: 6e65 b4bd 6290 82bd 086b 86bc 0d31 b83d
00000060: e3b3 b03c fb35 53bd d41a 35bd 5bcb 85bd
00000070: f42d 643d db4b 80bd b04f 94bd 5892 efbc
00000080: e874 343b fdf8 f93c 2992 63bc 6418 b0bd
00000090: 7c51 ebbc 6878 65bd 9492 80bc 15e1 e7bc
000000a0: 47eb 0bbd b367 b1bd 1318 98bc 1d12 e13c
000000b0: 319d 243c 7682 a53b a912 1d3b 7142 083b
000000c0: 30be b53c 299c a43c 8e27 d0bc f544 09bb
000000d0: fdef a23d 0add 563d 99b3 683d fce4 d6bd
000000e0: 56a9 39bd 79fa 04bc 38e7 baba 33d0 50bd
000000f0: 3f77 b43c f34b 1a3d 7a84 903d f7be 42bc
00000100: 4482 2abd 25ce bfba 1858 bfbc 63aa e53b
00000110: fd8d 2abd 3267 8d3c ff8b 493c 6678 d9bc
00000120: a081 8bbc 639d dabb 5afa 09bd d134 75bd
00000130: a189 c43b 9fa9 0f3c 11aa da3c 1f67 2dbd
00000140: cf77 45bd 1c46 25bc 43ee 63bd 9bc8 1cbd
00000150: 0e9a 343d da94 4e3d 1a34 a03c 3867 ea3d
00000160: adac 0fbd 6dcc d4bb a17a 513c 3407 083d
00000170: dce7 a6bc 7b54 fcbd 2ae6 8a3c 6800 84bd
00000180: 526f 12bd 352f 683c 5b5f 47bd 556f eabc

linear_layer.3.weight f4 [100, 100]
-0.15898457 0.11157486 -0.05142495 0.14792578 -0.0010424465 -0.023669835 0.059399758 0.0133567415
-0.028028714 -0.098538466 -0.20067963 0.07365758 -0.10056551 0.35480875 -0.059212085 0.032959793
-0.24258155 0.09716017 -0.09205138 0.017553553 -0.1978849 -0.12235052 -0.06963125 0.13596225
0.008881782 0.07575802 -0.0072271302 -0.06484116 0.2223134 0.013942731 -0.11949724 -0.04308942
-0.11953559 -0.030315975 -0.067634225 -0.015564037 -0.30968735 -0.19910312 -0.13127115 -0.11481811
0.14640011 -0.20061482 -0.15413088 0.13076243 0.035639502 -0.02563303 0.052684676 0.17173453
-0.27595812 0.10725186 0.10099911 -0.05517754 -0.029883647 0.24411638 0.23917983 0.0044686454
0.093150176 -0.16384867 -0.15412246 -0.12725705 -0.034790445 -0.1308505 0.13696948 -0.14472833
0.09900635 0.01667219 0.043614578 -0.014861261 0.10309002 -0.0187183 0.18770082 -0.07830087
0.1017697 0.0055830395 0.18939067 0.10783568 -0.07656085 -0.010273391 0.013316533 -0.19551112
0.012950047 0.116557375 -0.05966023 -0.023788156 0.24684307 -0.1434648 0.038450465 -0.023769721
-0.12260035 0.03667408 -0.19317456 0.2624388 -0.0024154992 0.06738886 0.012123339 0.12809332
0.07462979 0.035300765 -0.1567567 -0.060604393 0.16598703 -0.003980257 0.004785678 -0.12432506
0.040200606 0.032744206 -0.104415864 0.0544921 -0.00030155567 -0.072400905 -0.10554276 0.12434785
-0.043947376 0.28106725 -0.11297904 -0.02908803 -0.06120992 -0.07630747 0.106682844 0.01295246
0.098005034 -0.076850936 -0.0014103095 -0.17946137 -0.14379372 0.09195378 0.031120105 -0.18760023
0.16657409 0.09381006 -0.1721955 0.20274049 0.0534908 -0.15707606 0.06359179 -0.051553525
0.10728651 -0.22528984 -0.0033301285 -0.0029359045 0.013649938 0.09216156 -0.047898937 0.04144544
0.18967216 -0.0043470156 -0.17967074 0.043572392 0.03613507 0.15942991 0.06153511 0.01733187
0.10976483 -0.029197296 0.05448258 -0.03199833 -0.047367938 -0.08831223 0.1303007 0.07132704
0.06396039 -0.07972192 -0.0105401045 -0.039827947 0.09435127 -0.0862009 -0.17341368 -0.033111818
-0.12376536 -0.1757748 -0.074855044 -0.022276463 0.20896052 -0.07575396 -0.09225343 -0.04434474
-0.0959279 -0.1461576 0.01579699 -0.01125605 -0.03792085 -0.05505722 -0.021215657 0.14926589
0.05022015 0.05972122 0.0040872395 -0.099838406 -0.025459383 -0.024872577 0.001681421 0.105659425
-0.025646174 -0.0554981 0.039726168 -0.12865481 -0.008791096 -0.10044959 -0.20726928 0.022438746
-0.02765749 0.028808441 -0.058217313 -0.11481964 -0.00484928 -0.079877704 -0.05243536 -0.0896253
0.06640462 -0.15194732 0.054598566 0.15600999 -0.109116875 -0.025224593 0.019072065 0.060180444
-0.015951326 -0.14924544 -0.22982979 -0.042605475 0.21488784 0.0047043995 0.020739803 -0.09081779
0.021068707 -0.040238783 0.09959806 0.06313904 -0.03592814 0.08498934 -0.06586225 -0.05246194
0.047874723 -0.10175951 -0.2021113 0.20413823 0.07372462 0.07559785 0.0667011 0.25197893
0.07030524 0.058545943 -0.07052433 -0.13115905 0.07744016 -0.060630415 -0.06599055 -0.009737136
0.023130763 -0.17846084 0.031666216 0.087767534 -0.074635714 -0.064165995 -0.16202894 0.11389696
00000000: dacc 22be 5c81 e43d f8a2 52bd db79 173e
00000010: b3a2 88ba 3ee7 c1bc 294d 733d 3cd6 5a3c
00000020: 799c e5bc 89ce c9bd f67e 4dbe c9d9 963d
00000030: 4af5 cdbd 7ea9 b53e 5f88 72bd d900 073d
00000040: 4c67 78be e9fb c63d 6f85 bcbd 78cc 8f3c
00000050: 57a2 4abe e992 fabd d49a 8ebd b039 0b3e
00000060: e584 113c 0527 9b3d 90d1 ecbb 71cb 84bd
00000070: 20a6 633e 0d70 643c f8ba f4bd 887e 30bd
00000080: 13cf f4bd 3559 f8bc d083 8abd 4d00 7fbc
00000090: 578f 9ebe b0e1 4bbe f26b 06be c225 ebbd
000000a0: e9e9 153e f96d 4dbe 7cd4 1dbe 96e6 053e
000000b0: bafa 113d 5cfc d1bc e3cb 573d 2ddb 2f3e
000000c0: 624a 8dbe dda6 db3d 9fd8 ce3d d801 62bd
000000d0: 8dce f4bc a5f9 793e 8feb 743e b76d 923b
000000e0: 85c5 be3d f2c7 27be 47d2 1dbe ac4f 02be
000000f0: 6d80 0ebd acfd 05be ba41 0c3e aa33 14be
00000100: d7c3 ca3d 1e94 883c 33a5 323d a57c 73bc
00000110: dc20 d33d 1f57 99bc a534 403e 355c a0bd
00000120: a26c d03d eef1 b63b a1ef 413e f4d8 dc3d
00000130: efcb 9cbd ba51 28bc 962d 5a3c 1134 48be
00000140: 6f2c 543c a2b5 ee3d 495e 74bd 61df c2bc
00000150: 6ec4 7c3e 70e8 12be 3c7e 1d3d b8b8 c2bc
00000160: e415 fbbd 8f37 163d 8dcf 45be 615e 863e
00000170: 5a4d 1ebb 2c03 8a3d f8a0 463c e52a 033e
00000180: 81d7 983d 8997 103d d484 20be 503c 78bd
00000190: 81f8 293e d16c 82bb 2dd1 9c3b 239e febd
000001a0: 64a9 243d ca1e 063d fcd7 d5bd 1c33 5f3d
000001b0: 1e1a 9eb9 ed46 94bd cd26 d8bd 16aa fe3d
000001c0: 2a02 34bd 0ce8 8f3e 8e61 e7bd 054a eebc
000001d0: 41b7 7abd 1747 9cbd 897c da3d 8e36 543c
000001e0: ddb6 c83d 0664 9dbd 22da b8ba b9c4 37be
000001f0: a93e 13be 4352 bc3d 97ef fe3c 461a 40be
00000200: 6692 2a3e 7d1f c03d 0454 30be 349b 4f3e
00000210: 2b19 5b3d 8cd8 20be 6a3c 823d ca29 53bd
00000220: 08b9 db3d 61b2 66be 493e 5abb 4e68 40bb
00000230: fda3 5f3c 33bf bc3d ad31 44bd b2c2 293d
00000240: 6b39 423e 6971 8ebb 9bfb 37be f778 323d
00000250: 5e02 143d 9841 233e 3d0c 7c3d 91fb 8d3c
00000260: 62cc e03d 2b2f efbc 2029 5f3d ae10 03bd
00000270: e204 42bd 0bdd b4bd 8c6d 053e e913 923d
00000280: aafd 823d 3f45 a3bd 67b0 2cbc a122 23bd
00000290: 3d3b c13d 198a b0bd 5b93 31be 42a0 07bd
000002a0: b178 fdbd 4ffe 33be 9a4d 99bd 217d b6bc
000002b0: bff9 553e e424 9bbd 5eef bcbd d5a2 35bd
000002c0: d975 c4bd 57aa 15be b068 813c 4c6b 38bc
000002d0: e552 1bbd ae83 61bd 75cc adbc 28d9 183e
000002e0: a5b3 4d3d 3d9e 743d 40ee 853b 1478 ccbd
000002f0: 3290 d0bc 93c1 cbbc 2063 dc3a f863 d83d
00000300: ed17 d2bc fa51 63bd e8b7 223d 16be 03be
00000310: 8708 10bc 84b8 cdbd 663e 54be 76d1 b73c
00000320: f691 e2bc aeff eb3c 4775 6ebd 8f26 ebbd
00000330: b6e6 9ebb ec96 a3bd 76c6 56bd 788d b7bd
00000340: 25ff 873d 1498 1bbe bfa2 5f3d 15c1 1f3e
00000350: ab78 dfbd cea3 cebc 053d 9c3c c57f 763d
00000360: 5bac 82bc ccd3 18be 8058 6bbe 1483 2ebd
00000370: 8f0b 5c3e 5d27 9a3b 85e6 a93c adfe b9bd
00000380: 4898 ac3c 6cd1 24bd 11fa cb3d 0a4f 813d
00000390: 6329 13bd e40e ae3d cae2 86bd 55e2 56bd
000003a0: 4918 443d 4a67 d0bd 44f6 4ebe 9d09 513e
000003b0: effc 963d 0cd3 9a3d 969a 883d 6203 813e
000003c0: 32fc 8f3d dfcd 6f3d 0f6f 90bd 8f4e 06be
000003d0: f298 9e3d 9957 78bd 0e26 87bd 8288 1fbc
000003e0: ba7c bd3c 70be 36be 6fb4 013d 77bf b33d
000003f0: 9cda 98bd 7669 83bd eaea 25be cf42 e93d

linear_layer.3.bias f4 [100]
0.048504822 0.019793274 -0.047512986 -0.06710589 -0.011449421 -0.033753842 0.048622224 0.042576697
0.04028517 -0.008842834 -0.041682158 -0.04545352 0.03715175 0.027704844 0.009363 -0.002179967
-0.03311549 -0.006835497 -0.0005252937 0.038366202 -0.05127046 0.04466984 0.024868352 0.03945547
0.0129054785 -0.0031011857 0.058850344 0.050061133 0.039044596 0.050918937 -0.017097734 -0.00877794
0.03457395 0.038518615 0.016362976 -0.034969635 0.020802569 0.0066732755 -0.039473154 0.004362679
-0.02365187 0.008919555 -0.029849596 -0.0099903075 0.030714732 0.032234896 0.06465024 -0.03484265
0.049598064 -0.035429936 0.037393965 -0.024246596 -0.017164925 -0.016173523 -0.016348373 -0.016746763
-0.043072183 -0.032852784 0.022243764 0.054744814 0.0044990815 0.0073709157 0.0063647972 0.017829403
0.017166233 0.0073659383 0.08099045 -0.021719942 0.010488215 -0.002201712 0.04331088 -0.009502701
-0.007043534 -0.008734077 -0.044093583 -0.015284719 0.001758175 -0.066362515 0.031569764 -0.035286393
-0.004132334 0.013604435 -0.0024428903 -0.027178178 -0.064030886 0.02650985 0.020917878 0.035151925
-0.03210757 -0.010045156 0.015920628 0.028454494 0.050492857 -0.022467759 0.0028699208 -0.011531055
0.0154881 0.025120137 -0.04581262 -0.04567781
00000000: feac 463d 8125 a23c fa9c 42bd d06e 89bd
00000010: 5a96 3bbc 7841 0abd 1928 473d e764 2e3d
00000020: 1002 253d 89e1 10bc e9ba 2abd 782d 3abd
00000030: 6f2c 183d 45f5 e23c 4567 193c c7dd 0ebb
00000040: 1ca4 07bd 4efc dfbb ddb3 09ba e125 1d3d
00000050: f900 52bd b9f7 363d b7b8 cb3c 0f9c 213d
00000060: 8071 533c 433d 4bbb 0f0d 713d e70c 4d3d
00000070: 3aed 1f3d 6090 503d 8c10 8cbc 59d1 0fbc
00000080: 6a9d 0d3d b2c5 1d3d a60b 863c 523c 0fbd
00000090: 266a aa3c 7eab da3b 9aae 21bd cef4 8e3b
000000a0: 91c1 c1bc 5323 123c 2487 f4bc 63ae 23bc
000000b0: 769d fb3c bd08 043d 5867 843d 2bb7 0ebd
000000c0: 5727 4b3d fb1e 11bd 6a2a 193d cca0 c6bc
000000d0: 759d 8cbc 567e 84bc 06ed 85bc 8230 89bc
000000e0: 756c 30bd a490 06bd 8e38 b63c 193c 603d
000000f0: 086d 933b b987 f13b ca8f d03b f80e 923c
00000100: 33a0 8c3c f85d f13b 52de a53d 05ee b1bc
00000110: c3d6 2b3c 994a 10bb c066 313d 38b1 1bbc
00000120: 72cd e6bb 6019 0fbc 799b 34bd c26c 7abc
00000130: 9072 e63a 12e9 87bd 4c4f 013d 7788 10bd
00000140: 8868 87bb 23e5 5e3c e618 20bb c5a4 debc
00000150: a022 83bd 2f2b d93c f85b ab3c 77fb 0f3d
00000160: 3a83 03bd 7094 24bc fa6b 823c 6619 e93c
00000170: 99d1 4e3d 4e0e b8bc 4815 3c3b c0ec 3cbc
00000180: cdc1 7d3c bfc8 cd3c 04a6 3bbd a818 3bbd

linear_layer.4.weight f4 [100, 100]
-0.026382083 0.03800767 0.0667311 0.07682495 0.05623183 -0.0046520014 -0.053714786 0.14353834
0.086134896 0.030847067 -0.14164709 0.08379282 0.09201153 0.14577538 0.11344016 0.19744383
0.16589421 0.3146851 0.0019270945 0.028043238 -0.0054234695 0.053279206 -0.009925292 0.13602336
0.15145268 -0.08431649 0.071817316 -0.0991839 0.15165275 -0.059510812 0.15252861 -0.07741079
-0.17506596 0.039708935 0.0106465835 0.004882769 -0.1878812 0.05448293 0.14278083 0.030420607
-0.21920107 -0.26247773 -0.30642906 0.07963803 -0.04099809 -0.23484223 0.16374311 -0.06732256
0.071902126 0.022348225 -0.05198029 -0.10181059 -0.073974796 0.008485049 -0.012522419 0.06282487
0.05926655 0.066537455 0.08130936 0.056044202 0.08763437 0.0015975466 0.013268238 0.031493925
0.107967824 0.037111435 0.003985842 -0.030496731 -0.22541624 0.14374578 0.059667993 0.09709034
-0.103921115 0.18144904 0.018936537 -0.17497851 0.10376641 0.071118884 -0.025702538 0.033027172
0.069368675 0.07115125 0.04487338 4.3775515e-05 -0.046750043 -0.0065781153 0.13570434 -0.02459498
-0.044122957 -0.059254106 -0.018558636 0.12906939 -0.21080716 0.091608964 -0.10102309 -0.084715426
0.02644679 -0.015238715 -0.07173044 -0.022514146 -0.07749953 -0.017307926 -0.111923 0.0028585377
-0.015265475 -0.05652511 -0.20495507 -0.028810441 -0.017421056 -0.08151752 -0.02730736 -0.012303309
0.16950755 0.103613466 0.23701413 -0.06209278 -0.1241377 -0.06912639 -0.048887372 0.06024665
-0.0778779 0.09412556 0.0782027 -0.06722158 0.019750634 -0.059128582 0.08081185 0.13345405
0.20677882 0.08890142 -0.068989135 0.061289296 0.042827547 0.019379241 -0.009612487 -0.2297478
-0.14039762 -0.08193021 0.10792357 0.06645708 0.054201186 0.033171188 0.08043692 0.15796928
0.041786913 0.0012406176 0.23533426 0.10205016 -0.04439638 -0.15754697 -0.043573502 0.062695764
-0.045502186 -0.05897538 -0.06531423 -0.08250215 -0.0470752 0.098748885 -0.056390222 -0.0027407655
-0.02090258 0.06073078 0.017875914 -0.21775082 -0.010933565 0.17096731 0.14314264 0.16816504
-0.13130482 -0.096027054 -0.1062495 -0.115430236 0.0057751886 -0.18483084 0.004671558 0.095728844
0.06461106 -0.1820154 -0.1833968 0.11269758 0.1318469 -0.15993764 0.07846944 -0.068555094
0.066751435 0.004551636 -0.15149263 -0.059374634 -0.14855835 -0.16419286 0.08555473 -0.08086021
-0.13428974 0.037432496 0.03372013 0.02118485 -0.041342475 -0.08947553 0.104939304 0.045244444
0.04166287 0.00078887475 -0.1521524 0.11055858 -0.18583396 -0.08947932 0.038339335 0.1262076
-0.20621637 0.021564776 -0.0020503846 0.008761709 -0.055547826 -0.12295757 0.052925684 0.17849793
-0.102369055 -0.19119109 -0.0021955275 0.052410103 -0.083837956 -0.0074466504 0.163377 0.03238388
0.072829686 -0.0085376585 -0.057331022 -0.0026628075 0.1875267 -0.054373216 -0.22540586 0.014275205
0.10304022 0.15265921 -0.15147407 0.044995137 -0.00029806176 0.13448814 -0.11942258 0.0105568785
-0.11531704 0.056686923 0.12341301 -0.19528668 -0.17051984 0.00241427 0.14498858 0.30454442
0.07624383 0.06939158 0.37494972 0.026862985 0.021584315 0.048572306 0.18428704 0.10204187
00000000: 3d1f d8bc eead 1b3d 51aa 883d 6656 9d3d
00000010: 5953 663d d16f 98bb 0904 5cbd b7fb 123e
00000020: 7e67 b03d fdb2 fc3c ef0b 11be 929b ab3d
00000030: 8b70 bc3d 2446 153e 5153 e83d b72e 4a3e
00000040: 2ce0 293e 681e a13e 9096 fc3a efba e53c
00000050: 5cb7 b1bb 4c3b 5a3d b19d 22bc b549 0b3e
00000060: 6916 1b3e 20ae acbd f514 933d ee20 cbbd
00000070: dc4a 1b3e 9cc1 73bd 7630 1c3e 8c89 9ebd
00000080: 7e44 33be d6a5 223d 026f 2e3c a3ff 9f3b
00000090: ee63 40be 7e29 5f3d 2335 123e a334 f93c
000000a0: 3f76 60be 7b63 86be 45e4 9cbe 4319 a33d
000000b0: 9ded 27bd 7b7a 70be 46ac 273e 69e0 89bd
000000c0: 6c41 933d a013 b73c 49e9 54bd 1282 d0bd
000000d0: 1980 97bd e004 0b3c d52a 4dbc 53aa 803d
000000e0: 7bc1 723d ca44 883d 8685 a63d 9b8e 653d
000000f0: a679 b33d c564 d13a 0663 593c c6ff 003d
00000100: 3c1e dd3d 2902 183d ab9b 823b 48d4 f9bc
00000110: 84d3 66be 1832 133e 6d66 743d 4dd7 c63d
00000120: 98d4 d4bd c7cd 393e cc20 9b3c 912d 33be
00000130: 7c83 d43d c7a6 913d 218e d2bc 8047 073d
00000140: 2a11 8e3d bfb7 913d 26cd 373d 9a9b 3738
00000150: f97c 3fbd 3b8d d7bb 14f6 0a3e 697b c9bc
00000160: 46ba 34bd 6fb4 72bd 4808 98bc c42a 043e
00000170: d5dd 57be 7b9d bb3d 32e5 cebd 487f adbd
00000180: f0a6 d83c ceab 79bc 69e7 92bd 966f b8bc
00000190: 13b8 9ebd 5ac9 8dbc e337 e5bd 4e56 3b3b
000001a0: 0b1c 7abc e086 67bd bedf 51be e003 ecbc
000001b0: 9ab6 8ebc a8f2 a6bd afb3 dfbc d193 49bc
000001c0: 6393 2d3e 4c33 d43d d5b3 723e 0055 7ebd
000001d0: e83b febd 2392 8dbd 203e 48bd 31c5 763d
000001e0: 737e 9fbd e7c4 c03d bd28 a03d 78ab 89bd
000001f0: 15cc a13c d030 72bd af80 a53d 2ea8 083e
00000200: d4bd 533e f311 b63d 2d4a 8dbd 7c0a 7b3d
00000210: f06b 2f3d 37c1 9e3c b17d 1dbc 0243 6bbe
00000220: 65c4 0fbe 07cb a7bd 0807 dd3d a61a 883d
00000230: 1002 5e3d 83de 073d 1dbc a43d b3c2 213e
00000240: c128 2b3d 389c a23a 77fb 703e adff d03d
00000250: fbd8 35bd fe53 21be 217a 32bd a366 803d
00000260: 8060 3abd 2b90 71bd 78c3 85bd e3f6 a8bd
00000270: edd1 40bd db3c ca3d 6ff9 66bd 6a9e 33bb
00000280: e33b abbc d7c0 783d 8270 923c 12fa 5ebe
00000290: b222 33bc 0e12 2f3e fc93 123e 7533 2c3e
000002a0: c574 06be d5a9 c4bd 5699 d9bd b066 ecbd
000002b0: cb3d bd3b 4c44 3dbe de13 993b 7c0d c43d
000002c0: ce52 843d 3f62 3abe 5fcc 3bbe fdcd e63d
000002d0: e002 073e b1c6 23be 96b4 a03d 9d66 8cbd
000002e0: fab4 883d e425 953b e220 1bbe d132 73bd
000002f0: ae1f 18be 2c22 28be 5137 af3d 0a9a a5bd
00000300: 4083 09be d152 193d 1e1e 0a3d da8b ad3c
00000310: ba56 29bd f23e b7bd 6bea d63d 3d52 393d
00000320: b0a6 2a3d 7dcc 4e3a d7cd 1bbe 896c e23d
00000330: 424b 3ebe ef40 b7bd b509 1d3d 913c 013e
00000340: 622a 53be 9da8 b03c bf5f 06bb 458d 0f3c
00000350: 1e86 63bd 2ed1 fbbd 9ac8 583d 29c8 363e
00000360: dea6 d1bd 99c7 43be d7e2 0fbb faab 563d
00000370: 3cb3 abbd 0803 f4bb 4d4c 273e f6a4 043d
00000380: bb27 953d 89e1 0bbc efd3 6abd 7f82 2ebb
00000390: 0007 403e 73b6 5ebd cbd0 66be 8de2 693c
000003a0: c006 d33d b252 1c3e 051c 1bbe d24c 383d
000003b0: 2c45 9cb9 42b7 093e d393 f4bd c2f6 2c3c
000003c0: 572b ecbd 8c30 683d f6bf fc3d 3bf9 47be
000003d0: c19c 2ebe bb38 1e3b e377 143e 3fed 9b3e
000003e0: ba25 9c3d 2c1d 8e3d 69f9 bf3e c30f dc3c
000003f0: 97d1 b03c c1f3 463d beb5 3c3e 54fb d03d

linear_layer.4.bias f4 [100]
0.00055134617 -0.023908187 0.033746086 -0.017930482 -0.12686679 0.007842484 -0.025564075 0.008481498
0.02765323 0.0212527 0.0074992767 -0.038977347 -0.0044771116 0.033912387 -0.021379553 0.009496495
0.029152049 -0.024048576 -0.048227735 0.03658991 0.07644282 -0.017878074 0.012270534 0.023099031
0.014851864 0.01397676 -0.011027886 -0.00681068 -0.035846233 -0.032802172 0.028650256 0.015431054
-0.01521414 -0.030598847 0.011592441 -0.05305654 0.03110789 0.119791016 0.026567021 -0.023915602
-0.0045733554 0.002897227 -0.0063934573 -0.01191349 -0.03719551 0.0017046696 -0.02692445 -0.010630006
-0.015667591 -0.014384029 -0.00527214 -0.021833494 0.017806059 0.007435935 -0.010482773 -0.021485846
-0.0019007346 -0.02091964 -0.013890012 -8.819198e-05 -0.016745197 0.04437682 0.0066746073 -0.012984235
-0.00031730937 -0.0029788597 0.026498865 -0.02661346 0.024111971 -0.02635705 -0.04728651 -0.0038742407
-0.0067961295 -0.020212274 0.035182454 -0.032353222 -0.007243049 0.02241134 0.03897569 0.035569735
0.02848786 -0.025418187 0.06461009 0.03612601 -0.05612546 -0.039634917 0.029865189 -0.03002939
-0.009053324 -0.01603105 0.014564089 -0.00033042772 -0.018653858 0.011247386 0.057284098 -0.013983299
-0.009486805 -0.0081869075 -0.04269192 -0.013473639
00000000: 3788 103a 1adb c3bc 5639 0a3d f2e2 92bc
00000010: 5ee9 01be c37d 003c c06b d1bc fbf5 0a3c
00000020: 0789 e23c 241a ae3c 7ebc f53b b6a6 1fbd
00000030: bcb4 92bb b7e7 0a3d 2c24 afbc 3097 1b3c
00000040: 47d0 ee3c 8501 c5bc 728a 45bd 4ddf 153d
00000050: 0e8e 9c3d 0a75 92bc 5a0a 493c 2e3a bd3c
00000060: 3c55 733c c8fe 643c 4eae 34bc 202c dfbb
00000070: 80d3 12bd 925b 06bd f1b3 ea3c 88d2 7c3c
00000080: ba44 79bc 6faa fabc 39ee 3d3c d151 59bd
00000090: f9d5 fe3c fe54 f53d 15a3 d93c a7ea c3bc
000000a0: 16dc 95bb 67df 3d3b 3580 d1bb cc30 43bc
000000b0: 525a 18bd 386f df3a aa90 dcbc 7a29 2ebc
000000c0: 5259 80bc feaa 6bbc eac1 acbb 28dc b2bc
000000d0: 03de 913c 25a9 f33b f0bf 2bbc 1603 b0bc
000000e0: 1222 f9ba aa5f abbc ef92 63bc b5f3 b8b8
000000f0: 392d 89bc 78c4 353d aab6 da3b d4bb 54bc
00000100: 8b5c a6b9 f938 43bb 2614 d93c 7904 dabc
00000110: 7886 c53c bdea d7bc 80af 41bd f9e6 7dbb
00000120: 11b2 debb 3694 a5bc 7a1b 103d d084 04bd
00000130: 1957 edbb fd97 b73c f9a4 1f3d 92b1 113d
00000140: 5f5f e93c cd39 d0bc 4b52 843d def8 133d
00000150: cfe3 65bd 3958 22bd d7a7 f43c 3200 f6bc
00000160: 6554 14bc 8c53 83bc 379e 6e3c 423d adb9
00000170: facf 98bc f546 383c bba2 6a3d 351a 65bc
00000180: 8b6e 1bbc 6122 06bc b9dd 2ebd 8ac0 5cbc

linear_layer.5.weight f4 [100, 100]
0.061178643 0.05113335 0.015616913 0.02349193 -0.040726833 -0.21302174 -0.13049094 -0.050559502
-0.063807204 0.074558556 0.029648585 -0.04137707 -0.116337895 -0.08800641 0.01977526 0.068455346
-0.039432023 -0.063118555 0.06857653 -0.027409231 -0.19075552 0.1027523 0.02286108 0.030730423
-0.13366608 0.09170283 -0.03775771 -0.007826906 0.0050804424 -0.16953889 0.070526846 0.03362519
0.09623772 -0.020147795 0.17820749 0.031695936 0.086849004 -0.26492125 0.06743959 0.21629699
-0.14750683 -0.13800643 -0.0037934717 0.081290774 -0.07628596 0.1006927 0.08117268 0.14990214
-0.23835436 -0.0498276 -0.1634035 -0.005946473 -0.023900637 0.0874303 0.014516557 0.007703575
0.11537508 -0.11924484 0.054626845 0.13956288 0.02231378 0.042796865 -0.09441414 0.19062604
-0.08487685 -0.15799282 -0.07156034 0.091581024 -0.06667684 -0.119594224 -0.14135991 0.12626916
0.033034984 0.08575727 -0.017625337 -0.1049204 -0.024213718 -0.026982049 0.06622118 0.13023382
-0.059999123 0.061138548 -0.041553695 -0.25965282 0.062351678 -0.199736 0.20199324 0.07820561
-0.0047076815 0.022209065 -0.03381135 0.24509183 -0.015575461 -0.2743751 0.06976241 0.022322072
0.11542769 -0.13100754 -0.04605114 0.16311683 -0.079534166 0.083019465 -0.029637624 0.09575491
-0.069138266 0.07080728 0.15965763 0.06605129 -0.01961308 -0.16353062 -0.20576224 0.08473208
-0.075979695 -0.011824855 -0.03320408 -0.094173454 0.009709847 0.15259139 0.10112446 -0.17935628
-0.09161361 -0.057726614 0.04463396 0.13692278 0.0882231 0.08836032 0.082806125 0.019001575
0.09830318 0.06925659 0.014379525 0.07426293 -0.046175383 -0.003911565 -0.20731892 0.093886495
0.079639815 -0.14176992 -0.04358424 0.08636385 -0.03758799 -0.108674094 0.16447227 -0.09210582
0.14909923 -0.041284777 0.16176692 0.03944661 0.06771968 0.02154643 -0.0199039 0.22770411
-0.06904777 0.046957172 -0.06316108 0.10006677 -0.099279724 0.16119112 0.21350522 0.080417626
-0.017703045 -0.11650101 0.011340569 0.09779142 0.117556445 -0.003994635 0.16603737 -0.07480766
-0.16402996 0.063365884 0.119865395 -0.09919222 -0.009565637 0.021057459 0.019659445 0.15364979
-0.054333933 -0.02851442 -0.005305402 -0.067349225 -0.11059951 -0.006041498 -0.0872556 -0.064216085
-0.10057768 0.13601469 -0.06864538 0.09473132 0.079707004 0.03954948 -0.18368624 0.09885917
0.06669067 -0.09318234 0.0044899057 -0.005764681 0.0104969 -0.07455538 0.048907734 -0.11886891
-0.080839336 0.030592894 -0.041116703 -0.15150544 -0.05798363 0.11853714 -0.09918936 -0.17834911
0.074231796 0.007978626 0.028695615 -0.12728769 0.007438021 0.038494416 0.1282173 -0.16697864
0.16456653 0.0057727066 0.0201199 -0.011663626 0.10488144 -0.07409174 -0.047861576 0.12623437
0.104083076 -0.0808941 -0.10974709 -0.019180682 -0.013471719 0.17506973 0.18665133 -0.025531748
-0.06267935 0.111544296 0.12190849 -0.020065853 0.14454971 0.17204584 0.10732571 0.15064734
-0.09812942 -0.07299067 -0.13075283 0.08441844 -0.05365626 -0.08945366 0.13759074 -0.116475835
-0.080388255 0.1120614 0.09007688 -0.08413965 -0.14103532 0.025390562 -0.025395097 -0.09324741
00000000: 7596 7a3d 3471 513d 15de 7f3c 2672 c03c
00000010: 2ed1 26bd 5f22 5abe 6b9f 05be 7b17 4fbd
00000020: 5aad 82bd 28b2 983d 97e1 f23c 017b 29bd
00000030: 9042 eebd b43c b4bd baff a13c 5132 8c3d
00000040: 7983 21bd 4d44 81bd da71 8c3d 5389 e0bc
00000050: 6a55 43be cc6f d23d 2947 bb3c 5ebe fb3c
00000060: c3df 08be b1ce bb3d d4a7 1abd 6c3c 00bc
00000070: d779 a63b 9a9b 2dbe 6170 903d 91ba 093d
00000080: 4818 c53d fd0c a5bc 067c 363e 99d3 013d
00000090: e4dd b13d c2a3 87be c51d 8a3d f57c 5d3e
000000a0: 080c 17be 8f51 0dbe e59b 78bb c77b a63d
000000b0: d03b 9cbd f937 ce3d dd3d a63d f27f 193e
000000c0: 2a13 74be 0718 4cbd 3f53 27be a2da c2bb
000000d0: 45cb c3bc a80e b33d dad6 6d3c 456e fc3b
000000e0: c549 ec3d a436 f4bd 66c0 5f3d 92e9 0e3e
000000f0: 63cb b63c c44b 2f3d 335c c1bd 7933 433e
00000100: ead3 adbd dfc8 21be 3a8e 92bd d58e bb3d
00000110: de8d 88bd d1ed f4bd a7c0 10be b44c 013e
00000120: b14f 073d 82a1 af3d 0363 90bc 82e0 d6bd
00000130: d95b c6bc 7509 ddbc f89e 873d 045c 053e
00000140: a4c1 75bd 6a6c 7a3d 3534 2abd 37f1 84be
00000150: 7964 7f3d 9887 4cbe 51d7 4e3e 432a a03d
00000160: e542 9abb c9ef b53c c57d 0abd 5af9 7a3e
00000170: 3830 7fbc e57a 8cbe 98df 8e3d c7dc b63c
00000180: 5a65 ec3d d726 06be 1fa0 3cbd 1908 273e
00000190: cfe2 a2bd 1c06 aa3d 9aca f2bc 261b c43d
000001a0: 5d98 8dbd 6803 913d 4a7d 233e e645 873d
000001b0: 9cab a0bc 9274 27be 56b3 52be 0388 ad3d
000001c0: 3e9b 9bbd 09bd 41bc 0001 08bd 03de c0bd
000001d0: 0d16 1f3c eb40 1c3e 571a cf3d 2ca9 37be
000001e0: eb9f bbbd be72 6cbd 19d2 363d 7c35 0c3e
000001f0: 50ae b43d 41f6 b43d 4296 a93d 31a9 9b3c
00000200: 2d53 c93d 66d6 8d3d 1998 6b3c 2a17 983d
00000210: 6622 3dbd 962c 80bb 694b 54be 9047 c03d
00000220: 331a a33d 222c 11be 6385 32bd 88df b03d
00000230: ddf5 19bd 8690 debd 6b6b 283e faa1 bcbd
00000240: 78ad 183e 3a1a 29bd 3aa6 253e c592 213d
00000250: 9eb0 8a3d 2482 b03c 810d a3bc 442b 693e
00000260: eb68 8dbd 2a56 403d 995a 81bd cfef cc3d
00000270: 2b53 cbbd 490f 253e 1da1 5a3e ffb1 a43d
00000280: fa05 91bc 1598 eebd cbcd 393c de46 c83d
00000290: 6fc1 f03d 6de5 82bb b305 2a3e c234 99bd
000002a0: 78f7 27be f9c5 813d fd7b f53d 4a25 cbbd
000002b0: 31b9 1cbc b180 ac3c d80c a13c 5f56 1d3e
000002c0: 428d 5ebd 1397 e9bc f0d8 adbb 64ee 89bd
000002d0: ff81 e2bd c2f7 c5bb 10b3 b2bd b983 83bd
000002e0: acfb cdbd 6f47 0b3e f395 8cbd 7f02 c23d
000002f0: 6d3d a33d a3fe 213d 3f18 3cbe ad76 ca3d
00000300: 1e95 883d 62d6 bebd 0f20 933b a6e5 bcbb
00000310: 31fb 2b3c 7eb0 98bd 7a53 483d 8b71 f3bd
00000320: 188f a5bd f39d fa3c fd69 28bd 3e24 1bbe
00000330: 3e80 6dbd 9ac3 f23d cb23 cbbd 26a1 36be
00000340: d706 983d c8b8 023c 1113 eb3c b457 02be
00000350: a4ba f33b 52ac 1d3d 654b 033e 73fc 2abe
00000360: 2184 283e f928 bd3b 7dd2 a43c cb18 3fbc
00000370: 15cc d63d 69bd 97bd 800a 44bd 9543 013e
00000380: 8229 d53d ceab a5bd 15c3 e0bd ce20 9dbc
00000390: 7cb8 5cbc 7b45 333e 8721 3f3e f527 d1bc
000003a0: 085e 80bd 5671 e43d 29ab f93d 2561 a4bc
000003b0: d704 143e c92c 303e 95cd db3d 4c43 1a3e
000003c0: 14f8 c8bd 227c 95bd 12e4 05be 93e3 ac3d
000003d0: abc6 5bbd 7b33 b7bd 96e4 0c3e e28a eebd
000003e0: 99a2 a4bd 7380 e53d 3a7a b83d 6951 acbd
000003f0: 906b 10be deff cf3c 6109 d0bc 80f8 bebd
