ac_2d_model_para_5/checkpoint_100.pth (torch, 291130 bytes, 17 tensors)

linear_layer.0.weight f4 [100, 3]
0.16734336 0.15633272 -0.18298614 -0.036235437 -0.06945671 0.09936643 0.06708553 -0.06253561
-0.2723722 0.11311952 -0.03329068 0.2058355 -0.12163686 -0.1392282 -0.3396608 -0.04109986
-0.1869178 -0.13411346 -0.07301364 0.12827042 -0.12631069 -0.02578309 -0.041761786 -0.3060273
0.465735 0.049638268 0.030285684 -0.11849497 -0.18085459 -0.054429416 0.046151936 -0.2265899
0.14522807 -0.080106996 0.06470834 -0.22011927 0.20556225 -0.0052705836 -0.09406772 0.19687721
-0.009676944 0.20429167 0.15435359 0.15452157 0.19582511 -0.15293233 -0.17845854 0.0271249
0.27414995 0.022314558 -0.2711722 -0.16468036 -0.141665 -0.16911867 -0.1526218 -0.017348824
0.08623978 0.1208308 0.15765993 -0.21434498 0.094045915 -0.19689406 0.074019365 0.31935188
-0.083631985 0.09899621 -0.19147621 -0.15049213 0.022892099 0.09852461 0.023266444 -0.45633903
0.18715633 0.03299152 0.29170445 0.14173213 0.08208035 0.023232747 -0.25670096 -0.20927183
-0.092640415 0.037117086 0.24215572 0.038073655 0.18543948 -0.20777804 0.06329611 0.058396958
-0.016012019 -0.0949455 -0.04288131 -0.15752804 -0.13679391 0.2659922 0.017374614 0.28099516
0.08965877 -0.22163425 0.13337892 -0.2678516 0.017704247 -0.11610728 0.06231857 -0.09028943
-0.27657664 0.10589159 -0.1406958 0.2071167 -0.08017515 0.26369247 -0.009178672 0.21339318
0.14276177 0.0522424 -0.031994235 -0.09087897 -0.3568433 -0.08662057 -0.025916103 -0.13787742
0.10724615 0.09243257 -0.12884258 -0.08151265 -0.009630829 0.113434695 -0.17732926 0.16462715
-0.0975824 0.08894514 -0.065115705 0.2067319 -0.139619 0.16956128 0.12606007 -0.0657757
-0.109474786 0.14224868 -0.36393395 0.15632203 -0.2926938 0.23996253 0.0019751326 -0.13914038
0.07750863 0.08801614 0.0821467 0.28425875 -0.099725924 -0.09372065 0.14559294 0.11107207
-0.10762093 0.12491927 -0.055066533 -0.11908262 -0.09195732 0.23954181 0.08951465 0.014307224
0.056747496 0.23921186 0.09065026 0.083138324 0.0063238842 0.27789012 -0.073007695 0.12454373
0.45641202 0.01431284 -0.013897281 0.28285182 -0.11914224 -0.26269063 0.26115197 0.009529207
-0.141506 -0.0746805 -0.16995482 0.22172561 -0.101676114 0.115739554 -0.011695367 0.005362434
0.21658179 0.025562307 0.2430745 -0.14883773 -0.10508267 -0.0018058205 0.113445476 -0.18258117
0.32838494 -0.14919613 0.0839177 0.016791547 0.101204626 0.3136759 0.11485136 -0.02575447
-0.33821198 -0.23226604 -0.025753517 0.12145425 0.24122305 -0.11639081 -0.017645337 -0.07637319
0.0975175 0.032564364 -0.19020745 0.015984833 -0.042857505 0.10001228 0.15091681 0.08250738
-0.07163008 0.26078597 -0.09959584 0.060880747 0.14964719 -0.19624802 0.37520382 0.031356834
-0.06463502 -0.03524931 0.3230156 0.14781259 -0.14076927 -0.3889912 0.23984274 -0.30770507
-0.09392876 -0.152828 -0.004271607 0.21525237 -0.01290967 0.01455176 -0.1798213 0.03953901
0.114716925 -0.05595388 -0.019216727 -0.113535345 -0.19547164 -0.08136684 -0.18205059 0.15731107
0.064066485 0.14392607 -0.109644346 0.4283636 0.23258013 -0.032756705 -0.2604535 0.17904432
00000000: 0f5c 2b3e af15 203e b860 3bbe 9c6b 14bd
00000010: 523f 8ebd a080 cb3d 2364 893d ab12 80bd
00000020: 5e74 8bbe 35ab e73d cf5b 08bd 8bc6 523e
00000030: bf1c f9bd d691 0ebe 05e8 adbe 5458 28bd
00000040: 6167 3fbe 0a55 09be 2d88 95bd 5259 033e
00000050: 9757 01be 0f37 d3bc 680e 2bbd 9caf 9cbe
00000060: d174 ee3e 7f51 4b3d af19 f83c 7ead f2bd
00000070: f231 39be 61f1 5ebd d009 3d3d 2f07 68be
00000080: abb6 143e 230f a4bd ce85 843d f266 61be
00000090: e97e 523e dcb4 acbb 94a6 c0bd 2e9a 493e
000000a0: 0c8c 1ebc d631 513e de0e 1e3e e73a 1e3e
000000b0: 6186 483e 4b9a 1cbe d6bd 36be 0a35 de3c
000000c0: 625d 8c3e 05cd b63c 15d7 8abe f8a1 28be
000000d0: a110 11be 722d 2dbe e448 1cbe 1f1f 8ebc
000000e0: 7b9e b03d 2376 f73d 9b71 213e 407d 5bbe
000000f0: 259b c03d 999e 49be 7797 973d 1782 a33e
00000100: 3f47 abbd 86be ca3d 5712 44be 9c1a 1abe
00000110: 3688 bb3c 45c7 c93d 4599 be3c 45a5 e9be
00000120: e9a5 3f3e 1e22 073d 495a 953e 3a22 113e
00000130: be19 a83d 9a52 be3c 4f6e 83be 5b4b 56be
00000140: 42ba bdbd 1608 183d abf7 773e 1ff3 1b3d
00000150: d9e3 3d3e c4c3 54be 64a1 813d a631 6f3d
00000160: a32b 83bc c972 c2bd 50a4 2fbd 084f 21be
00000170: b413 0cbe 2130 883e 3555 8e3c 99de 8f3e
00000180: 049f b73d 17f4 62be 7c94 083e d823 89be
00000190: 7f08 913c a7c9 edbd c241 7f3d aae9 b8bd
000001a0: 749b 8dbe b1dd d83d 8f12 10be 6616 543e
000001b0: de32 a4bd b302 873e 2462 16bc be83 5a3e
000001c0: 2430 123e 20fc 553d 630c 03bd c11e babd
000001d0: 2ab4 b6be 2066 b1bd 024e d4bc bd2f 0dbe
000001e0: dfa3 db3d 4a4d bd3d 4fef 03be 1bf0 a6bd
000001f0: a0ca 1dbc 7350 e83d cd95 35be 0594 283e
00000200: 48d9 c7bd df28 b63d 625b 85bd 87b1 533e
00000210: 48f8 0ebe 79a1 2d3e e415 013e 69b5 86bd
00000220: 5134 e0bd a3a9 113e 8d55 babe e212 203e
00000230: f6db 95be bdb8 753e 3a71 013b d17a 0ebe
00000240: d8bc 9e3d ce41 b43d 873c a83d 5d8a 913e
00000250: 1b3d ccbd 9df0 bfbd 5116 153e c179 e33d
00000260: 5d68 dcbd add5 ff3d 728d 61bd 97e1 f3bd
00000270: 1f54 bcbd 734a 753e 7553 b73d d968 6a3c
00000280: 1070 683d f4f3 743e d8a6 b93d 6d44 aa3d
00000290: 9638 cf3b 9d47 8e3e 0f85 95bd c810 ff3d
000002a0: d6ae e93e 6780 6a3c 6cb1 63bc f4d1 903e
000002b0: d900 f4bd 637f 86be b6b5 853e 6420 1c3c
000002c0: f3e6 10be 17f2 98bd a308 2ebe 0a0c 633e
000002d0: 913b d0bd dc08 ed3d ed9d 3fbc 5bb7 af3b
000002e0: 9ec7 5d3e 0b68 d13c 86e8 783e eb68 18be
000002f0: 9535 d7bd 48b1 ecba 1a56 e83d 8ff6 3abe
00000300: 1222 a83e dfc6 18be 0bdd ab3d 6d8e 893c
00000310: 5f44 cf3d 219a a03e 3137 eb3d 0afb d2bc
00000320: 1f2a adbe 26d7 6dbe 0af9 d2bc 01bd f83d
00000330: 2d03 773e 4e5e eebd f48c 90bc 8c69 9cbd
00000340: 41b7 c73d 3662 053d bec5 42be a0f2 823c
00000350: 5a8b 2fbd 3dd3 cc3d f089 1a3e a1f9 a83d
00000360: cbb2 92bd bd85 853e e7f8 cbbd 175e 793d
00000370: 1d3d 193e 3ef5 48be b71a c03e 0670 003d
00000380: 5e5f 84bd 9561 10bd 4d62 a53e 2f5c 173e
00000390: d225 10be db29 c7be 5699 753e 858b 9dbe
000003a0: b95d c0bd f17e 1cbe d6f8 8bbb 1e6b 5c3e
000003b0: 1583 53bc 816a 6e3c 1323 38be a8f3 213d
000003c0: b5f0 ea3d e52f 65bd 666c 9dbc 3885 e8bd
000003d0: b829 48be a8a3 a6bd 786b 3abe 2716 213e
000003e0: 4a35 833d 5b61 133e 378d e0bd 7952 db3e
000003f0: 7c29 6e3e e52b 06bd 295a 85be 6557 373e

linear_layer.0.bias f4 [100]
-0.013153893 -0.05178684 0.13604009 -0.025845101 0.04215711 -0.019451065 0.05466246 0.101019226
-0.12965164 0.058097057 0.053126264 -0.079368584 0.07643064 0.08958267 0.026059274 0.00044589725
-0.08809166 0.007003023 -0.020318685 0.018113865 -0.0638023 -0.03735886 -0.030228464 0.034643967
0.019549062 0.09210437 0.07417723 -0.03548875 0.0433935 -0.06171655 -0.050280694 -0.055492867
0.0750115 -0.050019827 -0.052255504 0.04236952 -0.021739129 -0.090349205 0.13283902 0.07865024
0.066580005 -0.035369754 0.07824851 -0.14689894 0.014255093 -0.07024852 -0.07428343 0.0036007292
-0.072171435 -0.09105312 0.112563536 0.058906246 -0.01164972 -0.13339403 0.07124498 0.07280876
0.008331984 -0.00043192707 -0.00495089 -0.01578879 -0.089415416 -0.017654307 -0.024915742 0.10494391
-0.07808112 0.06190032 -0.09767502 -0.001377766 -0.06420593 0.07857008 0.077201225 -0.04858522
-0.08158063 0.12966087 0.0017289057 0.023269564 -0.01145954 0.052471828 -0.090327784 -0.023077527
0.10849731 0.08042964 -0.056128632 -0.012943452 0.0271435 0.0037370785 0.07296026 0.11547527
-0.09459361 -0.07851728 -0.10273273 -0.15143989 -0.061937455 0.10996138 -0.022727739 0.038693506
0.12191103 0.048525263 -0.05518025 0.02453489
00000000: 6d83 57bc 701e 54bd 184e 0b3e 1bb9 d3bc
00000010: efac 2c3d d757 9fbc bee5 5f3d 2be3 ce3d
00000020: 66c3 04be 2ef7 6d3d ed9a 593d ff8b a2bd
00000030: ab87 9c3d 1e77 b73d 427a d53c 51c7 e939
00000040: 6669 b4bd 9d79 e53b 5f73 a6bc 8763 943c
00000050: c8aa 82bd 9b05 19bd afa1 f7bc d5e6 0d3d
00000060: 5b25 a03c 37a1 bc3d 3bea 973d a75c 11bd
00000070: 62bd 313d 7eca 7cbd 21f3 4dbd 7d4c 63bd
00000080: a19f 993d 97e1 4cbd de09 56bd a98b 2d3d
00000090: 4216 b2bc 0109 b9bd f406 083e 6113 a13d
000000a0: 195b 883d e0df 10bd c140 a03d ad6c 16be
000000b0: 328e 693c 75de 8fbd e921 98bd 36fa 6b3b
000000c0: 9ece 93bd 0f7a babd b687 e63d ad47 713d
000000d0: 78de 3ebc 7298 08be e3e8 913d c21c 953d
000000e0: e082 083c 4574 e2b9 133b a2bb 7e57 81bc
000000f0: 6e1f b7bd c49f 90bc 191c ccbc d5ec d63d
00000100: ffe8 9fbd 318b 7d3d d709 c8bd 2896 b4ba
00000110: 667e 83bd 5ae9 a03d ad1b 9e3d 4c01 47bd
00000120: bf13 a7bd d2c5 043e 739c e23a d09f be3c
00000130: cbc0 3bbc b3ec 563d c6fd b8bd 150d bdbc
00000140: d633 de3d 4cb8 a43d 23e7 65bd c610 54bc
00000150: 0c5c de3c c6e9 743b 306c 953d 4c7e ec3d
00000160: 4bba c1bd abcd a0bd 8a65 d2bd 0f13 1bbe
00000170: 21b2 7dbd 6f33 e13d 862f babc 157d 1e3d
00000180: 7dac f93d 6dc2 463d b004 62bd 65fd c83c

linear_layer.1.weight f4 [100, 100]
0.058187168 0.14902428 -0.053338446 -0.016562495 -0.015365114 0.0046977364 0.09889088 0.063940935
0.1764869 -0.15099935 -0.07699323 0.0022324743 -0.17518868 -0.04987922 0.06817639 0.06682227
-0.20838161 -0.1552097 0.15993063 0.004551812 -0.08951767 0.11928843 0.03119248 0.16884156
-0.060350128 0.011595361 -0.08657149 -0.014732566 -0.23210318 -0.09165115 -0.013478661 0.013776157
-0.039131578 0.19516306 -0.082441695 -0.059306316 -0.093755014 -0.011004431 0.1352637 -0.13692981
0.05604389 0.0752909 -0.14121042 -0.060764514 -0.0006887446 -0.037201837 0.047695644 0.0898202
-2.4091678e-05 0.12710722 -0.006256883 -0.27336943 0.11367619 0.08223931 -0.029038498 -0.2043611
-0.07164174 -0.07065053 0.2221389 0.16967392 0.007474937 0.062244125 -0.0055966293 -0.1579467
-0.018960252 0.18346348 -0.016191483 0.010753587 0.029181397 -0.08881719 0.0031083084 0.09781209
-0.07555921 0.045385364 -0.19707438 0.028810026 -0.03878149 0.0031397012 -0.17741756 -0.116291046
-0.01849499 -0.011642841 -0.030814517 -0.09576929 0.0744191 0.12647818 -0.016236298 -0.074102834
0.09600382 0.10414219 -0.012614311 0.12757665 -0.08893945 -0.06312425 -0.0078099896 -0.098140635
-0.0594228 -0.016429272 -0.13124363 -0.07660133 0.04665912 0.22532617 -0.04640043 0.05833397
-0.023441238 -0.15713748 0.12925278 -0.27816093 -0.04882037 -0.06792861 -0.06607698 0.0443383
0.085874155 0.1078818 0.13832082 -0.14391808 -0.038469285 -0.2722851 0.01963206 0.18739499
-0.105493106 -0.024667567 0.037990108 0.12228062 0.17534894 0.045369368 -0.08751749 0.11594379
-0.123073734 -0.07171326 -0.04758638 -0.115093656 0.17383279 -0.09831149 -0.09267314 0.033932686
0.18541168 0.016762385 -0.02650232 -0.08760171 0.19425258 -0.093545705 0.12002587 -0.15553671
0.19164898 -0.22247143 -0.2638739 -0.06995733 0.037657034 -0.08219379 -0.03280952 -0.04358543
0.08197529 -0.1559596 -0.06522219 0.08781184 0.014399815 -0.06916166 -0.12230489 -0.040619694
0.13670431 -0.09333416 -0.014743124 0.048756424 -0.13454954 0.13040954 -0.029514752 -0.1798024
-0.3658601 0.20186888 -0.024515735 0.074840866 0.04630417 0.12525758 0.10571671 0.17871778
0.0099305175 0.0045298836 -0.11183249 0.053806014 0.1945324 -0.20259984 -0.040775783 0.07746753
0.015098137 -0.09253418 0.02433836 0.029350681 0.022025794 -0.1279117 0.0848932 -0.122285254
0.011433803 -0.09463959 0.124861434 -0.1351371 0.15034826 0.13613243 -0.11353154 0.19605581
-0.10346189 -0.0536139 0.106798425 -0.031732768 -0.13716784 0.043048937 -0.033559415 0.14217046
-0.14954482 -0.03370067 0.085278586 0.014555979 -0.04780985 0.054827165 0.038645424 -0.037692886
-0.011087723 0.11461646 -0.21667331 -0.16195208 0.07471514 0.09186728 0.025961943 -0.13862145
-0.13448618 -0.15179595 0.035673365 0.080460995 -0.036353044 0.0975362 -0.13193507 -0.01669227
0.03465379 -0.07061603 0.012482983 0.013309773 -0.10302968 -0.073878534 -0.0711776 -0.0049044043
0.2393759 0.16146162 -0.024397727 0.13920678 -0.124809176 0.13886537 0.09433338 -0.10565276
-0.061791386 -0.08677501 0.061359953 0.015246113 -0.045192942 -0.06095302 -0.13690257 -0.008066804
00000000: ab55 6e3d d299 183e 6a79 5abd 12ae 87bc
00000010: f6bd 7bbc 78ef 993b 4d87 ca3d 77f3 823d
00000020: fbb8 343e 939f 1abe a0ae 9dbd b44e 123b
00000030: a964 33be 274e 4cbd 10a0 8b3d 1dda 883d
00000040: fd61 55be 4bef 1ebe dbc4 233e 5e27 953b
00000050: 0a55 b7bd 7e4d f43d 5f87 ff3c cde4 2c3e
00000060: b231 77bd 78fa 3d3c 654c b1bd dc60 71bc
00000070: 75ac 6dbe 99b3 bbbd 9ad5 5cbc 64b5 613c
00000080: 6f48 20bd d3d8 473e 31d7 a8bd 2eeb 72bd
00000090: a102 c0bd ee4b 34bc 9182 0a3e 5437 0cbe
000000a0: 478e 653d 1e32 9a3d 7799 10be 36e4 78bd
000000b0: de8c 34ba f460 18bd 825c 433d a7f3 b73d
000000c0: 7c18 cab7 6528 023e 8a06 cdbb 14f7 8bbe
000000d0: 10cf e83d 156d a83d 25e2 edbc 0944 51be
000000e0: e8b8 92bd 3ab1 90bd 6178 633e 00bf 2d3e
000000f0: 51f0 f43b b2f3 7e3d ee63 b7bb c8bc 21be
00000100: 8852 9bbc dadd 3b3e 00a4 84bc d02f 303c
00000110: d30d ef3c c9e5 b5bd c3b4 4b3b b451 c83d
00000120: c9be 9abd 01e6 393d decd 49be 0103 ec3c
00000130: 57d9 1ebd 72c3 4d3b f3ac 35be 002a eebd
00000140: ce82 97bc 9dc1 3ebc ba6e fcbc b122 c4bd
00000150: 0b69 983d 7f83 013e fc01 85bc 3ac3 97bd
00000160: a79d c43d 8048 d53d 41ac 4ebc 74a3 023e
00000170: e325 b6bd 4947 81bd f1ea ffbb f5fd c8bd
00000180: 5265 73bd ae96 86bc bb64 06be 28e1 9cbd
00000190: a21d 3f3d e7bb 663e 610e 3ebd 9aef 6e3d
000001a0: d707 c0bc a6e8 20be d75a 043e 1c6b 8ebe
000001b0: def7 47bd 281e 8bbd 5e53 87bd 149c 353d
000001c0: cade af3d 22f1 dc3d f9a3 0d3e 435f 13be
000001d0: f891 1dbd f468 8bbe 6ad3 a03c 79e4 3f3e
000001e0: c50c d8bd a313 cabc 849b 1b3d 436e fa3d
000001f0: ac8e 333e 3bd5 393d 5f3c b3bd f073 ed3d
00000200: 150e fcbd 67de 92bd f0e9 42bd 39b6 ebbd
00000210: 3901 323e 8957 c9bd 6acb bdbd 00fd 0a3d
00000220: 8fdc 3d3e 4551 893c 651b d9bc 8668 b3bd
00000230: 26ea 463e e494 bfbd 20d0 f53d 0445 1fbe
00000240: a13f 443e 8dcf 63be 7b1a 87be ca45 8fbd
00000250: 433e 1a3d 3855 a8bd 4663 06bd a386 32bd
00000260: a9e2 a73d e0b3 1fbe 3693 85bd b2d6 b33d
00000270: 34ed 6b3c a1a4 8dbd fc7a fabd d660 26bd
00000280: 37fc 0b3e fb25 bfbd 258d 71bc d1b4 473d
00000290: 5bc7 09be 148a 053e ecc8 f1bc 1f1e 38be
000002a0: 0452 bbbe b7b6 4e3e 39d5 c8bc 2b46 993d
000002b0: 71a9 3d3d 8643 003e 0182 d83d cb01 373e
000002c0: 9cb3 223c 6b6f 943b 6f08 e5bd b263 5c3d
000002d0: 8033 473e 5576 4fbe 8204 27bd 4ca7 9e3d
000002e0: 2d5e 773c 8f82 bdbd 3e61 c73c d770 f03c
000002f0: 706f b43c 49fb 02be 7cdc ad3d b170 fabd
00000300: d854 3b3c 67d2 c1bd 5ab7 ff3d 6161 0abe
00000310: e5f4 193e 4d66 0b3e 3983 e8bd dbc2 483e
00000320: d4e3 d3bd 409a 5bbd 22b9 da3d 38fa 01bd
00000330: ba75 0cbe 1554 303d 9975 09bd 2295 113e
00000340: 4722 19be b709 0abd 8aa6 ae3d 337c 6e3c
00000350: 43d4 43bd 7392 603d aa4a 1e3d db63 1abd
00000360: 48a9 35bc 09bc ea3d 9cdf 5dbe c4d6 25be
00000370: 4004 993d ea24 bc3d 24ae d43c c8f2 0dbe
00000380: bfb6 09be 6670 1bbe 3c1e 123d bcc8 a43d
00000390: eee6 14bd 0fc1 c73d fd19 07be 3abe 88bc
000003a0: 22f1 0d3d 239f 90bd 6d85 4c3c 3c11 5a3c
000003b0: 3a01 d3bd a14d 97bd 90c5 91bd 20b5 a0bb
000003c0: f51e 753e 3256 253e bedd c7bc 398c 0e3e
000003d0: f49b ffbd b932 0e3e dc31 c13d 7960 d8bd
000003e0: f718 7dbd 19b7 b1bd 9354 7b3d d5ca 793c
000003f0: 3c1c 39bd e0a9 79bd 3030 0cbe a12a 04bc

linear_layer.1.bias f4 [100]
-0.048999004 0.06890217 -0.011096015 0.1162331 -0.020980256 -0.034536704 -0.09317005 0.09943612
-0.087258115 0.0067197205 -0.07065814 -0.027823765 0.090980336 0.094631016 -0.050932992 -0.034741607
-0.0065714936 0.100712456 0.010819639 -0.049085334 -0.029528955 0.039983172 -0.013374824 0.049800213
0.02997568 0.024358079 0.08886764 -0.053305354 -0.06960446 -0.03900746 -0.10538142 0.041079897
-0.0068478053 -0.015176238 -0.04631905 0.032218795 0.095566854 -0.070215374 -0.00112882 -0.026039114
-0.08850948 -0.07832661 0.029242208 0.11461945 -0.057233848 -0.002000458 0.0047658854 -0.075424775
0.0047717793 -0.07938826 -0.03970424 0.030188123 0.009415138 -0.0613094 0.018744988 0.038583193
0.09105608 -0.057416752 0.016298696 0.03413192 -0.056811158 -0.003165111 0.01268606 0.10715779
0.0150329005 0.03553874 -0.058674507 0.001766822 -0.04241192 -0.10154615 -0.061530896 0.0088175265
-0.039204787 -0.027184613 0.047116876 0.017298058 0.06170353 -0.05111258 0.06255417 -0.046942342
-0.1224554 -0.01051443 0.020947326 -0.029273057 0.07006817 -0.0030456574 0.014893658 0.033425894
0.09069129 0.01066855 -0.06551427 -0.08603672 0.011032371 0.024953773 0.036221433 0.019507816
0.055981442 -0.0076340777 -0.0017493827 0.022038696
00000000: 2eb3 48bd 951c 8d3d 0fcc 35bc 9f0b ee3d
00000010: c9de abbc 5c76 0dbd f0cf bebd 2aa5 cb3d
00000020: 62b4 b2bd 1a31 dc3b 37b5 90bd aaee e3bc
00000030: e653 ba3d e8cd c13d 1d9f 50bd 374d 0ebd
00000040: af55 d7bb 5542 ce3d db44 313c b40d 49bd
00000050: b5e6 f1bc 65c5 233d 1422 5bbc 4ffb 4b3d
00000060: 8f8f f53c 988a c73c 3d00 b63d b756 5abd
00000070: c88c 8ebd 49c6 1fbd 37d2 d7bd 6543 283d
00000080: 8e63 e0bb c1a5 78bc 0bb9 3dbd dbf7 033d
00000090: 8eb8 c33d 14cd 8fbd eaf4 93ba fb4f d5bc
000000a0: 7544 b5bd b469 a0bd 5b8d ef3c 9abd ea3d
000000b0: 0a6e 6abd 1e1a 03bb 252b 9c3b 4e78 9abd
000000c0: 965c 9c3b 5096 a2bd eaa0 22bd 154d f73c
000000d0: f341 1a3c 911f 7bbd 178f 993c 6909 1e3d
000000e0: 9c7b ba3d d42d 6bbd d884 853c eacd 0b3d
000000f0: d1b2 68bd c06d 4fbb 31d9 4f3c 8b75 db3d
00000100: 8e4c 763c 1291 113d ae54 70bd b594 e73a
00000110: 1fb8 2dbd 6ef7 cfbd d207 7cbd 6377 103c
00000120: 3395 20bd 44b2 debc a0fd 403d a8b4 8d3c
00000130: d7bc 7c3d 6d5b 51bd 671c 803d 9d46 40bd
00000140: e6c9 fabd b744 2cbc ba99 ab3c 0dce efbc
00000150: e77f 8f3d a799 47bb 8804 743c 97e9 083d
00000160: 5bbc b93d 24cb 2e3c 582c 86bd 0534 b0bd
00000170: 1ec1 343c db6b cc3c ed5c 143d dbce 9f3c
00000180: cc4c 653d 4927 fabb 8b4b e5ba 7f8a b43c

linear_layer.2.weight f4 [100, 100]
-0.058636837 0.023200499 0.06747534 -0.18937938 0.084747665 -0.04251978 0.054893397 -0.08228884
0.090046786 -0.050717503 -0.05110178 0.037979946 -0.042724032 -0.091204144 0.024843046 -0.14190866
0.04855625 -0.07553495 -0.040829338 0.13137941 0.0232635 0.04941397 -0.062252864 -0.06947368
-0.12889595 0.003386836 -0.2043457 -0.024082616 0.0036057401 -0.0011540232 0.042934667 0.010613513
0.0035438226 0.0035207777 0.037022438 -0.0022143784 -0.02006743 0.2566963 0.026952896 -0.06661166
0.13906138 0.16470519 0.075618 0.021508008 0.11970669 -0.023987098 0.12276426 0.037296727
-0.15112539 0.112802915 0.0026024266 0.060593586 -0.13383223 0.037081707 -0.11404526 -0.037747584
-0.32288125 0.04199967 0.093998946 0.01133328 -0.03266124 -0.0026304203 -0.007017088 -0.016998919
0.04273986 0.12165016 0.0501467 -0.057471093 0.07550846 0.0191272 0.23841171 0.25350675
0.01752397 -0.11974488 -0.19405785 0.030395027 -0.022305934 -0.02360132 -0.0804723 0.09270011
-0.0922127 0.05440769 0.01558222 0.09390876 0.23942576 -0.13674626 0.16082966 -0.27125368
-0.07116365 -0.110718094 0.04238014 0.12660804 -0.00019933 -0.11857409 -0.03648697 -0.024980895
-0.06901888 0.021480273 0.013701154 0.057557296 -0.031024506 0.015071768 -0.04031537 -0.3258949
0.0010541166 0.06415571 0.07256461 -0.24986254 0.053094972 -0.13754365 0.110380515 -0.13959742
-0.077609815 -0.2892068 -0.09901799 0.025784 0.009429098 -0.09761729 0.072908126 0.06847121
0.10086984 0.13216257 -0.027859652 -0.051093493 0.068650745 0.070405506 -0.24980848 0.0833563
0.060815144 0.0039993376 0.103604384 -0.19563858 0.2668206 0.09734516 -0.05320651 -0.09150139
0.014702076 0.082312085 0.26102433 0.008291741 0.19641262 0.00094718667 0.13945721 0.009507297
0.13345696 0.1980159 -0.16396765 0.041020874 -0.22647908 0.06734767 -0.03721919 -0.1725739
0.07431183 0.06252898 0.23550673 0.16673553 -0.07218943 0.00034653908 -0.053493254 -0.08266586
0.020081853 0.16297051 0.21738866 -0.034415036 -0.2530858 -0.07287901 -0.006279947 0.0140907485
0.02297032 0.020294536 -0.04401026 0.060969163 0.027190696 -0.115668714 0.010009679 -0.0896799
-0.0067955097 0.11938747 -0.00018414455 0.085487545 0.00619017 -0.11678219 -0.14008951 -0.16440415
-0.03630719 0.121916644 0.047145486 -0.113395244 -0.011491219 -0.09145321 0.03870148 0.077498965
0.06179431 -0.1439787 -5.7327776e-05 -0.084684275 0.052806273 0.049801957 0.027971176 -0.03493846
-0.033470616 -0.096407555 -0.042294562 0.052879974 0.15858941 -0.091612495 0.08263905 0.025408017
-0.052266132 0.19081143 -0.16868232 -0.14216186 -0.077371396 -0.1636592 -0.04492022 0.062902756
0.19215505 0.08250578 -0.1672579 0.003720261 -0.13352665 0.10991949 -0.26584896 0.091527864
-0.09504071 -0.0707416 0.10363766 0.011328091 -0.14495572 0.053228587 -0.14050262 0.082531
-0.07679471 0.03049612 -0.042266343 0.110831864 -0.052786298 -0.16500631 0.003726364 0.05984522
-0.13504641 0.020411605 -0.124635816 -0.0075404453 0.020239484 -0.081365354 -0.012371068 0.012010999
-0.045784205 -0.033705894 -0.13486612 0.056944855 -0.11987672 0.023634732 0.045404065 0.044522807
00000000: 2e2d 70bd f90e be3c 8330 8a3d abec 41be
00000010: 2f90 ad3d 3929 2ebd e6d7 603d 0d87 a8bd
00000020: 736a b83d 28bd 4fbd 1a50 51bd dc90 1b3d
00000030: 65ff 2ebd 3dc9 babd a583 cb3c 8150 11be
00000040: ebe2 463d 11b2 9abd aa3c 27bd 5388 063e
00000050: 1893 be3c 4e66 4a3d dcfc 7ebd 3748 8ebd
00000060: 4dfd 03be aef5 5d3b 0040 51be e848 c5bc
00000070: 484e 6c3b 9842 97ba 43dc 2f3d 4de4 2d3c
00000080: 7a3f 683b d9bc 663b d7a4 173d 1b1f 11bb
00000090: 7364 a4bc b36d 833e 52cc dc3c b26b 88bd
000000a0: 1b66 0e3e 7aa8 283e 9cdd 9a3d 9031 b03c
000000b0: c828 f53d 9780 c4bc d46b fb3d 74c4 183d
000000c0: 9dc0 1abe 3705 e73d 798d 2a3b fb30 783d
000000d0: 510b 09be fde2 173d 9090 e9bd 369d 1abd
000000e0: b150 a5be d907 2c3d 8582 c03d 39af 393c
000000f0: cbc7 05bd 2163 2cbb 9aef e5bb 5141 8bbc
00000100: fe0f 2f3d b823 f93d a066 4d3d cf66 6bbd
00000110: 2ea4 9a3d a5b0 9c3c 3322 743e a3cb 813e
00000120: 6e8e 8f3c ce3c f5bd 1ab7 46be fefe f83c
00000130: efba b6bc 8e57 c1bc a9ce a4bd 8ed9 bd3d
00000140: 03da bcbd 99da 5e3d 914c 7f3c 3c53 c03d
00000150: 072c 753e 3607 0cbe 88b0 243e c3e1 8abe
00000160: 3fbe 91bd 2bc0 e2bd cc96 2d3d 8aa5 013e
00000170: 3d03 51b9 f9d6 f2bd 5c73 15bd bca4 ccbc
00000180: c559 8dbd 66f7 af3c ce7a 603c 33c1 6b3d
00000190: 1b27 febc 94ef 763c bb21 25bd b2db a6be
000001a0: 492a 8a3a 1264 833d c19c 943d f7db 7fbe
000001b0: 1d7a 593d 3ed8 0cbe 2e0f e23d a0f2 0ebe
000001c0: e5f1 9ebd ea12 94be f2c9 cabd f838 d33c
000001d0: 817c 1a3c 93eb c7bd db50 953d a23a 8c3d
000001e0: d994 ce3d a055 073e ed39 e4bc 6947 51bd
000001f0: c398 8c3d c330 903d cbcd 7fbe b5b6 aa3d
00000200: 4d19 793d e00c 833b 892e d43d 7b55 48be
00000210: b69c 883e e65c c73d 12ef 59bd 1565 bbbd
00000220: fae0 703c 3d93 a83d fba4 853e 15da 073c
00000230: 6420 493e 9f4c 783a dfcd 0e3e 7ec4 1b3c
00000240: f1a8 083e aec4 4a3e 23e7 27be 8105 283d
00000250: 22ea 67be 93ed 893d 2673 18bd 36b7 30be
00000260: cd30 983d 320f 803d ad28 713e b8bc 2a3e
00000270: 0dd8 93bd b0af b539 be1b 5bbd b84c a9bd
00000280: b382 a43c bee1 263e 229b 5e3e c8f6 0cbd
00000290: 7694 81be 9741 95bd 03c8 cdbb e2dc 663c
000002a0: 412c bc3c ba40 a63c 1a44 34bd cdba 793d
000002b0: 06bf de3c b8e3 ecbd a3ff 233c 18aa b7bd
000002c0: deac debb 6b81 f43d ed16 41b9 1814 af3d
000002d0: e9d6 ca3b 802b efbd a073 0fbe 9059 28be
000002e0: d9b6 14bd 6faf f93d a01b 413d c43b e8bd
000002f0: aa45 3cbc d24b bbbd 7185 1e3d c7b7 9e3d
00000300: 081c 7d3d 276f 13be 3b73 70b8 f36e adbd
00000310: 644b 583d 23fd 4b3d cf23 e53c a11b 0fbd
00000320: 7c18 09bd 5371 c5bd 103d 2dbd ac98 583d
00000330: 4365 223e 559f bbbd aa3e a93d 7924 d03c
00000340: 0315 56bd 1264 433e 0fbb 2cbe e192 11be
00000350: e574 9ebd 4796 27be 44fe 37bd 29d3 803d
00000360: 4bc4 443e caf8 a83d a845 2bbe 9fcf 733b
00000370: 36bb 08be 781d e13d 5b1d 88be f672 bb3d
00000380: b4a4 c2bd f9e0 90bd fb3f d43d 7599 393c
00000390: 466f 14be 3806 5a3d ebdf 0fbe 0306 a93d
000003a0: 8b46 9dbd 00d3 f93c 791f 2dbd d1fb e23d
000003b0: 7236 58bd 6af7 28be 0436 743b 4320 753d
000003c0: 9b49 0abe 3d36 a73c 1041 ffbd d715 f7bb
000003d0: 46cd a53c e1a2 a6bd 05b0 4abc c8c9 443c
000003e0: 3888 3bbd 310f 0abd 581a 0abe 023f 693d
000003f0: ed81 f5bd a09d c13c 9df9 393d 8c5d 363d

linear_layer.2.bias f4 [100]
-0.051537015 -0.03932234 0.014214514 0.008890343 0.021697404 0.039141234 0.052382335 -0.003451995
0.035010688 0.04420422 -0.034182217 -0.053972524 -0.074051835 0.07969204 -0.0236361 -0.019855777
-0.059735734 0.059512887 0.015987065 -0.032418046 -0.086746424 -0.04725403 -0.0209004 0.08668871
0.022002716 -0.046240516 -0.044375286 -0.061792552 0.039705563 -0.050961602 -0.0647373 -0.026908033
0.004204126 0.010265758 -0.015330245 -0.06973004 -0.027339382 -0.06083256 -0.014674207 -0.020464338
-0.033505373 -0.06425019 -0.01813386 0.028248316 0.01175812 -0.005383269 -0.007057376 0.0045417226
0.02483387 0.020227747 -0.022465792 -0.0015191742 0.077330284 0.04094537 0.055544823 -0.063395895
-0.044939335 -0.00740053 0.019316344 -0.050263412 0.0051091346 0.03548111 0.047580313 -0.021602202
-0.037949402 0.0026684392 -0.021823034 0.0049182395 0.0042939694 0.022751933 0.010194764 -0.021296421
-0.0173117 -0.0077612535 -0.034553148 -0.062044986 -0.0137599055 0.0071709245 0.02370048 -0.041437235
-0.05532139 -0.007990556 -0.031485353 -0.030160453 0.04987919 0.047225732 0.022226408 0.08585058
-0.03502904 0.0061872965 0.012305829 0.025170177 -0.019959299 -0.09733458 0.00991592 -0.058800966
-0.026505314 0.013436164 -0.048465233 -0.01920772
00000000: 7a18 53bd 7610 21bd fee3 683c cda8 113c
00000010: c1be b13c 8f52 203d dc8e 563d de3a 62bb
00000020: 5e67 0f3d 7c0f 353d a702 0cbd 4b12 5dbd
00000030: 7da8 97bd 9535 a33d 7fa0 c1bc 95a8 a2bc
00000040: 75ad 74bd c9c3 733d 4ef7 823c c9c8 04bd
00000050: 1ca8 b1bd 718d 41bd 5137 abbc da89 b13d
00000060: 0a3f b43c b266 3dbd dcc2 35bd 301a 7dbd
00000070: 4da2 223d 1dbd 50bd fd94 84bd 3c6e dcbc
00000080: c4c2 893b b631 283c b52b 7bbc a0ce 8ebd
00000090: d7f6 dfbc 902b 79bd 166c 70bc d4a4 a7bc
000000a0: ee3c 09bd 9b95 83bd 768d 94bc 0369 e73c
000000b0: 21a5 403c 2266 b0bb 9041 e7bb bbd2 943b
000000c0: 6670 cb3c a9b4 a53c 2e0a b8bc 071f c7ba
000000d0: 575f 9e3d 55b6 273d f882 633d b5d5 81bd
000000e0: 4f12 38bd 2580 f2bb 4f3d 9e3c 02e1 4dbd
000000f0: 876a a73b a454 113d 93e3 423d 1af7 b0bc
00000100: d570 1bbd fbe0 2e3b 38c6 b2bc 2f29 a13b
00000110: 6db4 8c3b 4362 ba3c f007 273c d575 aebc
00000120: 44d1 8dbc 1d52 febb 9a87 0dbd e222 7ebd
00000130: 3a71 61bc 13fa ea3b 8227 c23c 17ba 29bd
00000140: af98 62bd d2ea 02bc c9f6 00bd 0e13 f7bc
00000150: 1f4e 4c3d c56f 413d 2814 b63c 6ed2 af3d
00000160: 9c7a 0fbd cebe ca3b 639e 493c b031 ce3c
00000170: af81 a3bc 5a57 c7bd 6276 223c 48d9 70bd
00000180: ac21 d9bc 5b23 5c3c 7b83 46bd 8259 9dbc

linear_layer.3.weight f4 [100, 100]
-0.15658794 0.106495574 -0.049272723 0.12460658 -0.004426938 -0.027054047 0.056036334 0.037115145
0.00084042974 -0.086836696 -0.19153617 0.071561344 -0.109106965 0.3057877 -0.056728106 0.031262502
-0.2417018 0.09092999 -0.09141436 0.016936408 -0.16075385 -0.12264101 -0.064309195 0.13609955
0.0064579397 0.07075534 -0.004828591 -0.06410731 0.2208417 0.010828527 -0.10643026 -0.02949276
-0.113462165 -0.031696904 -0.062509865 -0.015800951 -0.31439734 -0.19126697 -0.06997626 -0.11623516
0.16525261 -0.20043309 -0.15008678 0.09826979 0.03704611 -0.02182125 0.05111215 0.17008072
-0.26129928 0.10424653 0.08199988 -0.0590842 -0.026509508 0.19487524 0.2385514 0.0060632797
0.092653535 -0.16166395 -0.1509761 -0.12814848 -0.032751147 -0.12565064 0.06307747 -0.14449832
0.10164156 0.015063284 0.070239455 0.00717642 0.10481785 -0.023642229 0.19133745 -0.07368756
0.09811391 0.042581495 0.17849755 0.10693043 -0.07759513 -0.0067506526 0.008471517 -0.097361475
0.0054247133 0.117168084 -0.04411389 -0.027071392 0.2448131 -0.13390818 0.043636832 -0.03051735
-0.11607983 0.03689666 -0.1871227 0.25274032 -0.0014504336 0.06971274 0.01435678 0.12913562
0.070646204 0.03370711 -0.13978139 -0.06457864 0.16574743 -0.0021062775 0.0043400694 -0.1272427
0.03875562 0.03313877 -0.10337097 0.059906237 -0.0001645362 -0.0698092 -0.10781717 0.12266542
-0.045086183 0.28005904 -0.11534039 -0.0317672 -0.06170748 -0.07331593 0.10786983 0.014265378
0.09672942 -0.0768361 -0.0050619342 -0.18114431 -0.14560078 0.09106181 0.0316716 -0.18676274
0.16434345 0.09335653 -0.17234968 0.20149295 0.058199108 -0.1582023 0.06461073 -0.047800403
0.10598181 -0.22307509 -0.0020017049 -0.0008448526 0.01373506 0.08978092 -0.05151084 0.039047964
0.1915269 -0.00775606 -0.18469138 0.045413606 0.039117396 0.15749303 0.06497924 0.014419361
0.11085095 -0.02964577 0.05606667 -0.026811138 -0.046883557 -0.087054074 0.13365147 0.07300803
0.06179952 -0.07680014 -0.011677558 -0.0431165 0.098268315 -0.08921185 -0.16973078 -0.03425845
-0.118429095 -0.17459708 -0.075837426 -0.02799156 0.20870703 -0.07562011 -0.09454598 -0.04288302
-0.09928412 -0.14346774 0.015147651 -0.009385871 -0.037369527 -0.05399057 -0.020616308 0.14726101
0.04870947 0.06006104 0.007222054 -0.0956279 -0.023370592 -0.020657523 0.0022390939 0.107768804
-0.022526838 -0.05514185 0.037895493 -0.12709184 -0.010556974 -0.10072851 -0.20688787 0.019073531
-0.03218359 0.023775049 -0.058563013 -0.12162227 -0.0034842342 -0.076633185 -0.05173494 -0.084181465
0.07283202 -0.14810285 0.05367715 0.15199496 -0.12358802 -0.028739851 0.015506987 0.054736037
-0.02435941 -0.15260111 -0.22524236 -0.043799687 0.21141225 -0.00047788184 0.01912383 -0.08579636
0.02359804 -0.044752076 0.09032938 0.053858917 -0.031894296 0.074004255 -0.070211984 -0.05892289
0.058743276 -0.098043695 -0.20183153 0.20609404 0.06347795 0.08218468 0.06856471 0.2527232
0.07709916 0.049404703 -0.07649648 -0.13611768 0.07503157 -0.060959227 -0.06618876 -0.0080784
0.031721342 -0.1852672 0.030372811 0.08647213 -0.069616415 -0.069253445 -0.15199868 0.108468905
00000000: 9758 20be 5a1a da3d 32d2 49bd bc31 ff3d
00000010: d90f 91bb 73a0 ddbc 5b86 653d 0d06 183d
00000020: 4950 5c3a 70d7 b1bd 0f22 44be c18e 923d
00000030: 7973 dfbd 3590 9c3e bb5b 68bd 1c0d 003d
00000040: ad80 77be 8139 ba3d 7437 bbbd 39be 8a3c
00000050: a89c 24be 362b fbbd 8ab4 83bd ae5d 0b3e
00000060: 209d d33b 2de8 903d 2839 9ebb b14a 83bd
00000070: 5424 623e 226a 313c 1cf8 d9bd cd9a f1bc
00000080: da5e e8bd 9dd4 01bd 2c05 80bd ff70 81bc
00000090: b0f8 a0be 7ddb 43be b74f 8fbd b30c eebd
000000a0: fb37 293e 553e 4dbe 59b0 19be ac41 c93d
000000b0: a9bd 173d 7ac2 b2bc f95a 513d a429 2e3e
000000c0: 05c9 85be 347f d53d 8eef a73d 4602 72bd
000000d0: 782a d9bc 608d 473e d146 743e 7aae c63b
000000e0: 23c1 bd3d 3c8b 25be 7b99 1abe 5b39 03be
000000f0: 1126 06bd 90aa 00be c32e 813d 5ef7 13be
00000100: 7329 d03d fecb 763c b4d9 8f3d 2d28 eb3b
00000110: beaa d63d 59ad c1bc f7ed 433e 81e9 96bd
00000120: f2ef c83d ef69 2e3d 10c8 363e 57fe da3d
00000130: 32ea 9ebd 9434 ddbb 1ecc 0a3c 7465 c7bd
00000140: cbc1 b13b d2f5 ef3d c4b0 34bd d3c4 ddbc
00000150: 49b0 7a3e 3a1f 09be 89bc 323d 86ff f9bc
00000160: 43bb edbd f420 173d 189d 3fbe 2e67 813e
00000170: 7a1c beba 8ec5 8e3d b338 6b3c 213c 043e
00000180: f5ae 903d 7710 0a3d da22 0fbe ce41 84bd
00000190: b2b9 293e 7909 0abb 2437 8e3b e94b 02be
000001a0: 37be 1e3d 85bc 073d 29b4 d3bd 3e60 753d
000001b0: 5a87 2cb9 20f8 8ebd 40cf dcbd 0238 fb3d
000001c0: 4aac 38bd e663 8f3e 9537 ecbd 531e 02bd
000001d0: fcc0 7cbd aa26 96bd dcea dc3d 55b9 693c
000001e0: 131a c63d 3f5c 9dbd 95de a5bb e57d 39be
000001f0: 5f18 15be 9d7e ba3d 14ba 013d bb3e 3fbe
00000200: a649 283e b531 bf3d 6f7c 30be 2b54 4e3e
00000210: 3062 6e3d c9ff 21be a152 843d 5bca 43bd
00000220: fe0c d93d cc6d 64be 092f 03bb 1979 5dba
00000230: 0409 613c 0fdf b73d 08fd 52bd c2f0 1f3d
00000240: a11f 443e 8c26 febb bd1f 3dbe 9e03 3a3d
00000250: 9039 203d da45 213e d613 853d 2f3f 6c3c
00000260: d305 e33d b0db f2bc 2aa6 653d 08a3 dbbc
00000270: f908 40bd 6849 b2bd eedb 083e 3c85 953d
00000280: 7e21 7d3d 6449 9dbd 3a53 3fbc ed9a 30bd
00000290: e640 c93d b4b4 b6bd e8cd 2dbe 9752 0cbd
000002a0: f48a f2bd 94c9 32be a750 9bbd 8e4e e5bc
000002b0: 4cb7 553e b7de 9abd 53a1 c1bd 1ba6 2fbd
000002c0: 7955 cbbd 35e9 12be da2d 783c 32c7 19bc
000002d0: ca10 19bd 3725 5dbd 88e3 a8bc 97cb 163e
000002e0: 9583 473d 9102 763d fba6 ec3b 8fd8 c3bd
000002f0: af73 bfbc f739 a9bc c3bd 123b e4b5 dc3d
00000300: 348a b8bc 6cdc 61bd 4e38 1b3d 5d24 02be
00000310: 29f7 2cbc c04a cebd 6ada 53be 1840 9c3c
00000320: f1d2 03bd e4c3 c23c c5df 6fbd 1915 f9bd
00000330: c057 64bb dcf1 9cbd 04e8 53bd 5567 acbd
00000340: f428 953d 46a8 17be 92dc 5b3d 91a4 1b3e
00000350: b71b fdbd d66f ebbc 0511 7e3c e532 603d
00000360: 638d c7bc 7743 1cbe efa5 66be 4d67 33bd
00000370: 747c 583e 378c fab9 94a9 9c3c 01b6 afbd
00000380: ad50 c13c f44d 37bd 9cfe b83d 2b9b 5c3d
00000390: 98a3 02bd 8b8f 973d 4dcb 8fbd 2159 71bd
000003a0: ca9c 703d 22cb c8bd edac 4ebe 510a 533e
000003b0: ba00 823d 7150 a83d a86b 8c3d ef64 813e
000003c0: 2ae6 9d3d 965c 4a3d 30aa 9cbd 6f62 0bbe
000003d0: 27aa 993d 62b0 79bd f98d 87bd 445b 04bc
000003e0: 3dee 013d afb6 3dbe 67d0 f83c 4d18 b13d
000003f0: 0d93 8ebd c0d4 8dbd 8ba5 1bbe f224 de3d

linear_layer.3.bias f4 [100]
0.041593846 0.019899052 -0.043947063 -0.04720728 -0.01566914 -0.037519075 0.05876047 0.03898226
0.04024879 -0.0047389343 -0.046734966 -0.039980534 0.04363358 0.016880421 0.009258738 -0.0028473125
-0.0240778 -0.0037262503 -0.0020721045 0.03783024 -0.05906663 0.04714715 0.030354748 0.03570639
0.0090628825 -0.00039066825 0.058080062 0.041618865 0.01750363 0.05081706 -0.016840339 -0.007314305
0.038030796 0.030112699 0.006287606 -0.035664003 0.028042033 0.00528582 -0.039007735 0.0061153295
-0.024440115 0.009028926 -0.028498935 -0.007891996 0.030569449 0.030124297 0.050012488 -0.05181449
0.057175163 -0.03284646 0.031335976 -0.024086075 -0.018011006 -0.019658845 -0.014639848 -0.0148798395
-0.035656817 -0.037175026 0.020810043 0.05396063 0.0039073112 0.002516635 0.0035881416 0.020733448
0.012668898 0.00555663 0.06346997 -0.02575762 0.0091082705 0.002091313 0.043117546 -0.004596938
-0.006835314 -0.008526021 -0.039444458 -0.017879164 0.0024450668 -0.033598207 0.021878595 -0.035630923
-0.0025667967 0.0133430995 -0.007853727 -0.012386073 -0.05676866 0.024817307 0.022459598 0.031650137
-0.024104316 -0.011687461 0.018062692 0.027929582 0.05336646 -0.0229525 0.0054389 -0.027747327
0.017762782 0.021914512 -0.04176326 -0.045040313
00000000: 4f5e 2a3d 5603 a33c d601 34bd 6c5c 41bd
00000010: 915c 80bc 9aad 19bd d2ae 703d ddab 1f3d
00000020: eadb 243d 1049 9bbb 2a6d 3fbd a1c2 23bd
00000030: 20b9 323d cf48 8a3c f6b1 173c fa99 3abb
00000040: ce3e c5bc 1b34 74bb 25cc 07bb e2f3 1a3d
00000050: daef 71bd 5f1d 413d 85aa f83c dd40 123d
00000060: 7c7c 143c 9bd2 ccb9 5ce5 6d3d 8b78 2a3d
00000070: c663 8f3c 8d25 503d c0f4 89bc d6ac efbb
00000080: 2ec6 1b3d e8ae f63c 4308 ce3b 6b14 12bd
00000090: 68b8 e53c ac34 ad3b 93c6 1fbd 1a63 c83b
000000a0: a336 c8bc 0fee 133c 9976 e9bc 6e4d 01bc
000000b0: c86c fa3c 3bc7 f63c e5d9 4c3d 6e3b 54bd
000000c0: 8130 6a3d 028a 06bd 275a 003d 2950 c5bc
000000d0: d18b 93bc 960b a1bc f9db 6fbc 92ca 73bc
000000e0: e20c 12bd d744 18bd d379 aa3c d205 5d3d
000000f0: e708 803b 21ee 243b 0727 6b3b 31d9 a93c
00000100: 3691 4f3c 6414 b63b 8bfc 813d a501 d3bc
00000110: db3a 153c 690e 093b 069c 303d e9a1 96bb
00000120: c5fa dfbb b9b0 0bbc 8390 21bd 5377 92bc
00000130: 6a3d 203b 469e 09bd bd3a b33c bbf1 11bd
00000140: b437 28bb 049d 5a3c ebac 00bc f5ee 4abc
00000150: 4186 68bd aa4d cb3c 31fd b73c 93a3 013d
00000160: 6a76 c5bc c47c 3fbc 36f8 933c 94cc e43c
00000170: ca96 5a3d e206 bcbc cd38 b23b 5d4e e3bc
00000180: 4183 913c 1086 b33c f40f 2bbd 317c 38bd

linear_layer.4.weight f4 [100, 100]
-0.022781208 0.04057375 0.065512106 0.07448865 0.055631146 -0.008438053 -0.047271416 0.14504048
0.08808033 0.037312437 -0.14273596 0.07752964 0.08259494 0.14704795 0.11347224 0.19218479
0.16445886 0.30831924 0.0025221522 0.029698862 -0.006527156 0.054972947 -0.0067866542 0.13747056
0.15306216 -0.08316135 0.072250456 -0.09829664 0.15492617 -0.06544321 0.15285777 -0.076808125
-0.17301376 0.04272419 0.012569174 0.0035522063 -0.1788359 0.05221091 0.1418029 0.035095565
-0.22108252 -0.25907153 -0.30747813 0.07587097 -0.040412813 -0.23034166 0.16710815 -0.06645518
0.073909946 0.017626563 -0.04675211 -0.10856713 -0.077907555 0.006242757 -0.023697667 0.06365393
0.055345718 0.0638362 0.08376649 0.05642018 0.092013456 -0.0008685471 0.008831731 0.032761876
0.101719856 0.035300847 0.00623293 -0.031876888 -0.22169235 0.14297679 0.062373657 0.09751871
-0.103544615 0.18962513 0.01567018 -0.17618433 0.09968098 0.06793925 -0.025408022 0.031859666
0.06970941 0.073419824 0.04194948 0.0013302161 -0.04620346 -0.0040571215 0.13690683 -0.024517061
-0.042208385 -0.06536437 -0.017050717 0.13039471 -0.20965245 0.0921312 -0.1096084 -0.070958674
0.02916332 -0.010206713 -0.07152436 -0.026058363 -0.07490637 -0.021728633 -0.11716738 -0.014408536
-0.019689206 -0.060892724 -0.1947989 -0.020187346 -0.009047142 -0.07071743 -0.029772319 -0.022241676
0.15086682 0.104576655 0.2568185 -0.067270964 -0.14150034 -0.078966476 -0.025482371 0.062576964
-0.08323395 0.100884825 0.08666497 -0.04717222 0.046864416 -0.062267274 0.08990458 0.13706738
0.18573 0.07964458 -0.07109057 0.063859105 0.04981875 0.029282693 -0.00029580313 -0.23268072
-0.13378073 -0.074888185 0.10384765 0.061379574 0.045683566 0.040151145 0.07077723 0.17012876
0.04521874 0.010028117 0.2325359 0.07993814 -0.03830942 -0.15655132 -0.032394778 0.059781525
-0.044683337 -0.052436482 -0.057331562 -0.082016885 -0.043244638 0.09336611 -0.052739464 0.008806461
-0.042474598 0.0818533 0.017223185 -0.2121466 -0.00422546 0.18908581 0.1557115 0.18059589
-0.13202432 -0.102425866 -0.09966743 -0.13518451 0.0050700703 -0.18610938 -0.0060206335 0.107743904
0.063633956 -0.1929422 -0.18642475 0.106496766 0.13115752 -0.15986305 0.070429645 -0.0901928
0.056141514 0.017254973 -0.14369865 -0.05400058 -0.1386451 -0.16511261 0.09002121 -0.07632991
-0.1288399 0.030643903 0.025693437 0.036181096 -0.033045746 -0.08468079 0.105431914 0.051063463
0.046807483 0.0062768105 -0.14732206 0.1322429 -0.1778526 -0.09697973 0.052974623 0.12360692
-0.19672748 0.026131023 -0.0054761744 0.0056873495 -0.06027235 -0.12470748 0.053678934 0.17087674
-0.12862079 -0.19741605 0.0063062715 0.05281936 -0.07848162 -0.0020297854 0.1649869 0.020352332
0.060984664 -0.022650689 -0.066083014 -0.0074557588 0.18554455 -0.054724462 -0.22557397 0.016382763
0.08191714 0.14345899 -0.12197416 0.041265 0.0020886895 0.14169568 -0.11109871 -0.0012466136
-0.100364864 0.0483289 0.121827476 -0.20317334 -0.1748661 -0.0022800982 0.15204728 0.30535668
0.062038694 0.060013436 0.3443217 0.021241765 0.016754486 0.056304395 0.17874007 0.1152871
00000000: a89f babc a930 263d 362b 863d 818d 983d
00000010: 7cdd 633d c23f 0abc ac9f 41bd 7e85 143e
00000020: 7663 b43d edd4 183d 6029 12be dcc7 9e3d
00000030: 8927 a93d bd93 163e 2264 e83d 17cc 443e
00000040: e767 283e 05dc 9d3e b14a 253b 074b f33c
00000050: c1e1 d5bb 502b 613d 9562 debb 15c5 0c3e
00000060: 54bc 1c3e 7f50 aabd 0cf8 933d c04f c9bd
00000070: f7a4 1e3e 1707 86bd bf86 1c3e 944d 9dbd
00000080: 852a 31be 8fff 2e3d f0ee 4d3c 22cc 683b
00000090: c220 37be 1bdb 553d c834 113e 5ec0 0f3d
000000a0: 7563 62be 06a5 84be c66d 9dbe 3d62 9b3d
000000b0: e887 25bd afde 6bbe 661e 2b3e a719 88bd
000000c0: 195e 973d 9565 903c 247f 3fbd 7258 debd
000000d0: ff8d 9fbd 0b90 cc3b 9c21 c2bc fe5c 823d
000000e0: 31b2 623d 8ebc 823d c48d ab3d d918 673d
000000f0: 8d71 bc3d 36af 63ba f7b2 103c 5131 063d
00000100: 8052 d03d 9f97 103d 9b3d cc3b 5791 02bd
00000110: 5203 63be 8268 123e 857b 7f3d e4b7 c73d
00000120: 330f d4bd 172d 423e c05e 803c aa69 34be
00000130: 8b25 cc3d bc23 8b3d 7c24 d0bc 487f 023d
00000140: cfc3 8e3d 225d 963d 38d3 2b3d a55a ae3a
00000150: d73f 3dbd 9af1 84bb 4e31 0c3e 01d8 c8bc
00000160: b3e2 2cbd c1dd 85bd f2ad 8bbc 3186 053e
00000170: 22af 56be 48af bc3d 5e7a e0bd c852 91bd
00000180: eae7 ee3c 0f3a 27bc 5d7b 92bd 5978 d5bc
00000190: 8368 99bd 3f00 b2bc 74f5 efbd c811 6cbc
000001a0: 424b a1bc a66a 79bd 5d79 47be ef5f a5bc
000001b0: 773a 14bc 4dd4 90bd 14e5 f3bc 2d34 b6bc
000001c0: d57c 1a3e 492c d63d b77d 833e 5cc5 89bd
000001d0: 77e5 10be 2db9 a1bd 68c0 d0bc 5a28 803d
000001e0: 9076 aabd b49c ce3d 677d b13d a837 41bd
000001f0: e7f4 3f3d f80b 7fbd e41f b83d 645b 0c3e
00000200: 0130 3e3e b31c a33d ef97 91bd 90c8 823d
00000210: bf0e 4c3d 42e2 ef3c 0616 9bb9 db43 6ebe
00000220: d1fd 08be fa5e 99bd 14ae d43d 2669 7b3d
00000230: b11e 3b3d 8775 243d a7f3 903d 3c36 2e3e
00000240: 4937 393d f94c 243c e41d 6e3e 9cb6 a33d
00000250: 57ea 1cbd fd4e 20be 63b0 04bd 79dd 743d
00000260: e005 37bd a3c7 56bd 80d4 6abd 78f8 a7bd
00000270: 4a21 31bd bb36 bf3d 5605 58bd f948 103c
00000280: d8f9 2dbd b4a2 a73d a317 8d3c f53c 59be
00000290: ba75 8abb b69f 413e d672 1f3e 21ee 383e
000002a0: 6231 07be a7c4 d1bd 701e ccbd cf6d 0abe
000002b0: d522 a63b 7593 3ebe bc48 c5bb d6a8 dc3d
000002c0: 8552 823d a492 45be 21e6 3ebe fa1a da3d
000002d0: 284e 063e 24b3 23be 6b3d 903d 01b7 b8bd
000002e0: a5f4 653d 4d5a 8d3c bd25 13be b62f 5dbd
000002f0: fbf8 0dbe 4813 29be 0a5d b83d db52 9cbd
00000300: 9bee 03be ec08 fb3c 0b7b d23c a132 143d
00000310: fa5a 07bd 1f6d adbd b0ec d73d ec27 513d
00000320: 34b9 3f3d b4ad cd3b 98db 16be af6a 073e
00000330: fe1e 36be 4f9d c6bd ebfb 583d a025 fd3d
00000340: ee72 49be ba10 d63c 7b71 b3bb f25c ba3b
00000350: 24e0 76bd a366 ffbd 71de 5b3d 50fa 2e3e
00000360: 2bb5 03be 6f27 4abe d7a4 ce3b 1d59 583d
00000370: f9ba a0bd 2606 05bb 53f2 283e efb9 a63c
00000380: 0ecb 793d f08d b9bc 8856 87bd 704f f4bb
00000390: 64ff 3d3e c226 60bd ddfc 66be 2535 863c
000003a0: 2cc4 a73d eae6 123e 97cd f9bd 7d05 293d
000003b0: 65e2 083b ac18 113e b887 e3bd 6965 a3ba
000003c0: 188c cdbd 86f4 453d af80 f93d ac0c 50be
000003d0: 1910 33be b36d 15bb 48b2 1b3e b657 9c3e
000003e0: 491c 7e3d a6d0 753d ef4a b03e 3603 ae3c
000003f0: b440 893c 709f 663d a307 373e a51b ec3d

linear_layer.4.bias f4 [100]
0.00050794234 -0.022609077 0.025469746 -0.025360985 -0.12382205 0.010143651 -0.026402699 0.0064176726
0.025325162 0.022423016 0.013776794 -0.03952971 -0.01107592 0.03247799 -0.019144157 0.008573686
0.02000154 -0.022508051 -0.048112538 0.03433705 0.07350126 -0.0184617 0.010469216 0.020977542
0.018547941 0.014021313 -0.0057492545 -0.0057083676 -0.032764055 -0.03179354 0.023082701 0.013624294
-0.014849505 -0.029940803 0.016504066 -0.05095248 0.029699469 0.11497441 0.024637949 -0.021689527
-0.004511301 0.0012675606 -0.0036168634 -0.010495897 -0.028772287 0.0019525981 -0.019011617 -0.009566535
-0.022123383 -0.0140480315 -0.0045733973 -0.022818305 0.01100143 0.007095188 -0.028666547 -0.017867507
-0.0029530306 -0.024429202 -0.012709005 0.0008083819 -0.015662782 0.03813997 0.0028936348 -0.012664159
-0.003157747 -0.0046789036 0.020284858 -0.020613965 0.022317002 -0.019780537 -0.042398307 -0.0037527035
-0.0076385536 -0.021694278 0.027937252 -0.03613836 -0.008302954 0.019951947 0.04967129 0.03341005
0.034961432 -0.025491541 0.062811024 0.032702804 -0.06700744 -0.04032137 0.0211133 -0.034311425
-0.0064791897 -0.0154089155 0.014152036 -0.006132004 -0.017665561 0.011583464 0.039584193 -0.012208521
-0.016621958 -0.013487538 -0.041036364 -0.013314078
00000000: 6f27 053a ac36 b9bc eea5 d03c d7c1 cfbc
00000010: 6a96 fdbd 8e31 263c 794a d8bc 574b d23b
00000020: b776 cf3c 79b0 b73c 10b8 613c e8e9 21bd
00000030: c777 35bc a407 053d 35d4 9cbc a578 0c3c
00000040: 45da a33c ce62 b8bc a711 45bd 02a5 0c3d
00000050: d487 963d fe3c 97bc 1387 2b3c 18d9 ab3c
00000060: daf1 973c a6b9 653c 3e64 bcbb 420d bbbb
00000070: 9a33 06bd f139 02bd ef17 bd3c 6e38 5f3c
00000080: 574b 73bc 6a46 f5bc 8933 873c 8cb3 50bd
00000090: 4d4c f33c b477 eb3d 86d5 c93c 3cae b1bc
000000a0: 89d3 93bb 4724 a63a e608 6dbb fcf6 2bbc
000000b0: dcb3 ebbc 52ee ff3a 40be 9bbc f5bc 1cbc
000000c0: 193c b5bc b729 66bc 70dc 95bb 74ed babc
000000d0: 583f 343c c07e e83b 1bd6 eabc e15e 92bc
000000e0: a287 41bb c01f c8bc 6e39 50bc 97e9 533a
000000f0: 3c4f 80bc a838 1c3d 23a3 3d3b 557d 4fbc
00000100: 34f2 4ebb 7d51 99bb 6e2c a63c 9ede a8bc
00000110: 25d2 b63c cb0a a2bc d9a9 2dbd ebef 75bb
00000120: d54c fabb 33b8 b1bc aadc e43c d105 14bd
00000130: 1d09 08bc 4472 a33c 1f74 4b3d fad8 083d
00000140: b833 0f3d a3d3 d0bc 11a3 803d 60f3 053d
00000150: 323b 89bd 0528 25bd cdf5 ac3c 238a 0cbd
00000160: 624f d4bb ad75 7cbc f1dd 673c faee c8bb
00000170: 5eb7 90bc 92c8 3d3c 0923 223d 4006 48bc
00000180: c62a 88bc d6fa 5cbc bf15 28bd 4a23 5abc

linear_layer.5.weight f4 [100, 100]
0.056689743 0.0494762 0.016360417 0.02015658 -0.040260147 -0.21414255 -0.13135877 -0.053906996
-0.0626962 0.07290293 0.029088145 -0.03810144 -0.11785572 -0.088494174 0.019337581 0.071810335
-0.037905443 -0.069805525 0.06834343 -0.025158618 -0.1852243 0.10455174 0.024957864 0.032223947
-0.13339639 0.08951675 -0.033680107 -0.006505375 0.002260248 -0.17063369 0.071229614 0.035291474
0.0937556 -0.021387743 0.17088507 0.030411491 0.08852761 -0.26005623 0.06904693 0.21782728
-0.15014169 -0.14066093 -0.007990209 0.08591514 -0.07201637 0.09911691 0.08120961 0.14946099
-0.23674858 -0.048681505 -0.16534115 -0.007894319 -0.027073456 0.092751406 0.013177288 0.007872621
0.11280956 -0.12215613 0.05116097 0.14062409 0.020530539 0.044040594 -0.09665663 0.18909726
-0.08626591 -0.16058853 -0.07050218 0.09144671 -0.06195973 -0.12349733 -0.14322305 0.12507246
0.032377344 0.08466425 -0.01461712 -0.10841364 -0.027215267 -0.025778068 0.06899028 0.13119861
-0.06000555 0.06237702 -0.03980858 -0.2565471 0.05938733 -0.20108125 0.19585857 0.077706754
-0.0074700266 0.037101515 -0.027857568 0.2411921 -0.017873911 -0.27171496 0.071953714 0.02138314
0.1035712 -0.13013588 -0.037805475 0.1602916 -0.08594498 0.08335778 -0.030161526 0.09137089
-0.07223575 0.06564898 0.15831058 0.064106084 -0.021230105 -0.16394705 -0.20922422 0.0667374
-0.07866269 -0.01668158 -0.029761503 -0.095351994 0.014095261 0.15473808 0.102226645 -0.17827195
-0.065698214 -0.057164114 0.04737465 0.13895008 0.08964608 0.083138295 0.08398818 0.018912565
0.09527398 0.072518855 0.015825205 0.08081316 -0.05369992 -0.0052118828 -0.20197642 0.09117181
0.08475289 -0.13436632 -0.03335304 0.08896479 -0.04019892 -0.10996427 0.16112879 -0.09425433
0.14072119 -0.043434337 0.16164902 0.03411701 0.06759796 0.030443123 -0.018165411 0.22578219
-0.06901467 0.06758226 -0.06294108 0.09506986 -0.116835415 0.15701067 0.21237412 0.078349225
-0.012986063 -0.116962545 0.013583368 0.098214366 0.12258684 -0.004371869 0.16249196 -0.084837705
-0.16516063 0.05957132 0.1190004 -0.10021132 -0.009429119 0.019452203 0.019341024 0.1284341
-0.056969833 -0.028885532 0.014728887 -0.06214638 -0.113280185 -0.003451362 -0.08272062 -0.05059963
-0.099581055 0.12693396 -0.072554946 0.0706586 0.06617104 0.04347665 -0.1857764 0.10053529
0.066768736 -0.09444402 0.0024852427 -0.010144337 0.015433794 -0.07059461 0.057050396 -0.120924294
-0.08257449 0.0326253 -0.042060513 -0.15334685 -0.058332656 0.11707997 -0.09823823 -0.17931451
0.0753276 0.009505251 0.026436398 -0.12934098 0.005768183 0.037112694 0.12827855 -0.16891383
0.16756082 0.00910687 0.019048167 -0.014370246 0.10031307 -0.07336594 -0.04747451 0.12651968
0.10510558 -0.08393286 -0.10849349 -0.0173824 -0.012911182 0.17523864 0.18531838 -0.022485025
-0.06288668 0.11016118 0.11852803 -0.020758113 0.14425609 0.17311367 0.107120655 0.15134381
-0.09450726 -0.0732781 -0.12977251 0.08403504 -0.052111693 -0.09118999 0.13528416 -0.12010384
-0.078826785 0.11270722 0.09182782 -0.08402346 -0.13993618 0.024108885 -0.024543392 -0.09237568
00000000: 8133 683d 8ea7 4a3d 4806 863c 691f a53c
00000010: d3e7 24bd 2f48 5bbe ea82 06be 95cd 5cbd
00000020: de66 80bd 224e 953d 434a ee3c 4110 1cbd
00000030: 575e f1bd 6f3c b5bd d969 9e3c 4c11 933d
00000040: bd42 1bbd 33f6 8ebd a4f7 8b3d 7219 cebc
00000050: 70ab 3dbe 391f d63d 6f74 cc3c 42fd 033d
00000060: 1099 08be 8f54 b73d 27f4 09bd 0a2b d5bb
00000070: ab20 143b 99ba 2ebe d5e0 913d cb8d 103d
00000080: f002 c03d 5935 afbc 7ffc 2e3e 8521 f93c
00000090: f74d b53d 1726 85be 7a68 8d3d 1d0e 5f3e
000000a0: bebe 19be 6b09 10be 5ee9 02bc 47f4 af3d
000000b0: 527d 93bd cefd ca3d 3951 a63d 4d0c 193e
000000c0: 386e 72be 4266 47bd 314f 29be 2c57 01bc
000000d0: 27c9 ddbc 73f4 bd3d 8de5 573c 2afc 003c
000000e0: b308 e73d fe2c fabd 2a8e 513d c3ff 0f3e
000000f0: a92f a83c e963 343d e9f3 c5bd b6a2 413e
00000100: 2eac b0bd 5271 24be 7263 90bd 6a48 bb3d
00000110: 7cc9 7dbd 2bec fcbd 10a9 12be ff12 003e
00000120: 1b9e 043d 7364 ad3d a57c 6fbc f807 debd
00000130: 8df2 debc 872c d3bc c74a 8d3d ee58 063e
00000140: 61c8 75bd 0c7f 7f3d 520e 23bd 245a 83be
00000150: 2140 733d 3ee8 4dbe 268f 483e b824 9f3d
00000160: 20c7 f4bb c2f7 173d 8e35 e4bc 10fb 763e
00000170: 4f6c 92bc 391e 8bbe 785c 933d b22b af3c
00000180: 231d d43d 5742 05be ead9 1abd 7b23 243e
00000190: ec03 b0bd 7cb7 aa3d 4e15 f7bc a920 bb3d
000001a0: 56f0 93bd f972 863d 2b1c 223e 0d4a 833d
000001b0: c2ea adbc bce1 27be e03e 56be 9ead 883d
000001c0: e819 a1bd cfa7 88bc 65ce f3bc e847 c3bd
000001d0: cfef 663c a973 1e3e 345c d13d ec8c 36be
000001e0: c98c 86bd eb24 6abd ec0b 423d ee48 0e3e
000001f0: 5d98 b73d 6944 aa3d ff01 ac3d 86ee 9a3c
00000200: 011f c33d c484 943d dca3 813c 5f81 a53d
00000210: 73f4 5bbd 71c8 aabb e8d2 4ebe 49b8 ba3d
00000220: ec92 ad3d 5397 09be 339d 08bd 2c33 b63d
00000230: 9fa7 24bd f234 e1bd f2fe 243e 6a08 c1bd
00000240: 3719 103e 34e8 31bd 5287 253e 47be 0b3d
00000250: cd70 8a3d db63 f93c a1cf 94bc 7233 673e
00000260: 9057 8dbd 9168 8a3d 41e7 80bd fdb3 c23d
00000270: 6847 efbd 68c7 203e 9a78 593e 8f75 a03d
00000280: 7fc3 54bc 0f8a efbd c68c 5e3c 9d24 c93d
00000290: cf0e fb3d e541 8fbb 4b64 263e 64bf adbd
000002a0: de1f 29be 0e01 743d 7bb6 f33d 983b cdbd
000002b0: 977c 1abc 3a5a 9f3c 1171 9e3c 3b84 033e
000002c0: 3359 69bd 5aa1 ecbc 6e51 713c 348d 7ebd
000002d0: 71ff e7bd 3f30 62bb 6e69 a9bd 8f41 4fbd
000002e0: 27f1 cbbd fafa 013e b097 94bd 75b5 903d
000002f0: af84 873d 9214 323d 2b3c 3ebe 72e5 cd3d
00000300: 0cbe 883d de6b c1bd 74df 223b 6f34 26bc
00000310: 06de 7c3c e893 90bd adad 693d 28a7 f7bd
00000320: d01c a9bd 1ba2 053d a547 2cbd f506 1dbe
00000330: 39ee 6ebd a0c7 ef3d 2031 c9bd 399e 37be
00000340: 5b45 9a3d eabb 1b3c 2591 d83c f671 04be
00000350: 0703 bd3b 7b03 183d 745b 033e bff7 2cbe
00000360: 1095 2b3e fb34 153c e70a 9c3c 2e71 6bbc
00000370: f070 cd3d e240 96bd a274 42bd 608e 013e
00000380: 9841 d73d fee4 abbd d631 debd 8965 8ebc
00000390: 6c89 53bc c271 333e 1ac4 3d3e 8432 b8bc
000003a0: bbca 80bd 2f9c e13d d3be f23d eb0c aabc
000003b0: deb7 133e b644 313e 1362 db3d dff9 1a3e
000003c0: 068d c1bd d412 96bd 16e3 04be 901a ac3d
000003d0: 1273 55bd d1c1 babd ee87 0a3e 01f9 f5bd
000003e0: f06f a1bd 0bd3 e63d 3910 bc3d 7e14 acbd
000003f0: 6e4b 0fbe ff7f c53c 390f c9bc 762f bdbd
