ac_2d_model_para_5/checkpoint_2500.pth (torch, 291152 bytes, 17 tensors)

linear_layer.0.weight f4 [100, 3]
0.22818586 0.15833572 -0.19205594 0.013666322 -0.07113002 0.11178485 0.049466178 -0.06159957
-0.28436524 0.2992543 -0.034958262 0.21320625 -0.17037995 -0.15311304 -0.3675018 -0.076190114
-0.1990078 -0.13648067 -0.10630113 0.1343119 -0.12213834 -0.07783189 -0.04382831 -0.33335543
0.53577375 0.049316667 0.01916837 -0.17034417 -0.18707643 -0.07524185 0.0365749 -0.2009685
0.13282965 -0.116121225 0.06499658 -0.23699565 0.46983498 -0.004334531 -0.11388339 0.3120426
-0.009396585 0.25300357 0.2059293 0.15708995 0.18698518 -0.18881077 -0.19401665 0.02857981
0.32409576 0.021666609 -0.28908005 -0.2156669 -0.1490305 -0.15494087 -0.32584867 -0.0173988
0.09569953 0.15770087 0.16102022 -0.23720074 0.08718368 -0.2004809 0.080974415 0.44617006
-0.08492577 0.07712975 -0.2797785 -0.15382761 0.02326099 0.16380452 0.02457777 -0.4805168
0.24575423 0.033972114 0.30619118 0.18766254 0.082422376 0.0034618 -0.32207483 -0.21525134
-0.08462526 0.055681698 0.26683435 0.05495475 0.2147473 -0.21081899 0.052840028 0.11167569
-0.018786468 -0.10351889 -0.046759136 -0.16095006 -0.14001806 0.44914302 0.01630314 0.3272831
0.1018822 -0.22445016 0.13316484 -0.42087048 0.016885076 -0.104458 0.06681206 -0.09710967
-0.2890748 0.13083595 -0.14350137 0.20860036 -0.16215952 0.26748034 0.019610839 0.29778993
0.1462815 0.060514808 -0.033907093 -0.09088659 -0.40194482 -0.15051155 -0.02758623 -0.1518472
0.089225076 0.09425417 -0.1292309 -0.22187917 -0.010623146 0.13442492 -0.23925859 0.1712699
-0.12850249 0.15779302 -0.06628389 0.25589487 -0.16052173 0.1989539 0.12865053 -0.07867092
-0.11155845 0.14886285 -0.46616367 0.15693827 -0.28023103 0.45759162 0.0011849977 -0.122684926
0.09519587 0.0942338 0.09413861 0.4126995 -0.10306398 -0.11566659 0.27357942 0.111967094
-0.12012605 0.21493673 -0.05506335 -0.14939393 -0.10961711 0.25364158 0.09596363 0.019344755
0.056277703 0.26061332 0.13051826 0.08530439 0.0056450544 0.35763368 -0.07291407 0.10721804
0.55972666 0.014770349 -0.012616739 0.3504769 -0.11921086 -0.2546144 0.36800098 0.008303579
-0.14285323 -0.05858193 -0.16692531 0.27273473 -0.14949219 0.11772497 -0.006782833 0.013522444
0.28068516 0.024592834 0.331454 -0.15034415 -0.060672518 0.0029431237 0.117717095 -0.20049551
0.43101564 -0.15344377 0.07019717 0.029786913 0.10382425 0.3237221 0.15970835 -0.027849544
-0.3715621 -0.53075296 -0.027674062 0.102903664 0.39866886 -0.11823487 0.016326802 -0.1009504
0.10365154 0.025275417 -0.30634874 0.015519275 -0.036504563 0.12119084 0.15414767 0.08842554
-0.090360776 0.26591626 -0.09911328 0.11741568 0.15203585 -0.22057252 0.50392485 0.032053772
-0.08184125 -0.029713076 0.35037664 0.14682406 -0.171823 -0.41104254 0.25406075 -0.38008225
-0.096157685 -0.17500332 -0.027591314 0.21676004 -0.008552347 0.028567847 -0.19678296 0.052746847
0.14784285 -0.05582862 -0.03904951 -0.15267952 -0.20279069 -0.07963282 -0.25848392 0.16111456
0.0854177 0.18458317 -0.111439385 0.47953147 0.2775028 -0.033633105 -0.26840886 0.21302922
00000000: 8ea9 693e c222 223e 50aa 44be b6e8 5f3c
00000010: 9eac 91bd 75ef e43d 0c9d 4a3d d54f 7cbd
00000020: 5298 91be dc37 993e 6530 0fbd bd52 5a3e
00000030: 1578 2ebe aac9 1cbe 3229 bcbe 9009 9cbd
00000040: b3c8 4bbe 97c1 0bbe 68b4 d9bd 0f89 093e
00000050: aa23 fabd 5366 9fbd 5085 33bd 90ad aabe
00000060: 7828 093f 4600 4a3d fc06 9d3c b46e 2ebe
00000070: f790 3fbe 6618 9abd 90cf 153d b0ca 4dbe
00000080: 7f04 083e f7d0 edbd ed1c 853d fdae 72be
00000090: 368e f03e ae08 8ebb b23b e9bd 0cc4 9f3e
000000a0: 22f4 19bc af89 813e 21df 523e 30dc 203e
000000b0: 0b79 3f3e 9c57 41be 4dac 46be 3520 ea3c
000000c0: e1ef a53e 2c7e b13c 4d02 94be c9d7 5cbe
000000d0: 749b 18be d2a8 1ebe a3d5 a6be ee87 8ebc
000000e0: 1dfe c33d 567c 213e 7ce2 243e c0e4 72be
000000f0: 5b8d b23d dd4a 4dbe ead5 a53d 6770 e43e
00000100: 90ed adbd 34f6 9d3d 213f 8fbe fc84 1dbe
00000110: d58d be3c 5fbc 273e 5257 c93c 4c06 f6be
00000120: ffa6 7b3e 5826 0b3d 17c5 9c3e 9c2a 403e
00000130: 10cd a83d 5edf 623b fee6 a4be d96a 5cbe
00000140: 0250 adbd 7e12 643d 839e 883e 3b18 613d
00000150: b7e6 5b3e efe0 57be c96e 583d 39b6 e43d
00000160: 14e6 99bc b601 d4bd 8286 3fbd 18d0 24be
00000170: e560 0fbe 13f6 e53e 2a8e 853c a791 a73e
00000180: 9da7 d03d 43d6 65be 5d5c 083e 567c d7be
00000190: 9252 8a3c 13ee d5bd c3d4 883d 6fe1 c6bd
000001a0: 9d01 94be dcf9 053e 06f2 12be 559b 553e
000001b0: 250d 26be 2ff3 883e e9a6 a03c ec77 983e
000001c0: d1ca 153e 60de 773d 2ae2 0abd c022 babd
000001d0: b6cb cdbe b31f 1abe 84fc e1bc d57d 1bbe
000001e0: a3bb b63d 5508 c13d 1b55 04be 4b34 63be
000001f0: b40c 2ebc b0a6 093e 3400 75be 6061 2f3e
00000200: 2896 03be 7e94 213e d9bf 87bd a704 833e
00000210: cf5f 24be 92ba 4b3e f7bc 033e 381e a1bd
00000220: c278 e4bd 816f 183e 01ad eebe 6db4 203e
00000230: 717a 8fbe 7349 ea3e ed51 9b3a 3c42 fbbd
00000240: 0df6 c23d a7fd c03d becb c03d 594d d33e
00000250: 3513 d3bd 9be2 ecbd 9a12 8c3e 014f e53d
00000260: a604 f6bd 6018 5c3e 1b8a 61bd b9fa 18be
00000270: ef7e e0bd 4fdd 813e 9488 c43d e478 9e3c
00000280: 7383 663d 1c6f 853e 94a6 053e 11b4 ae3d
00000290: 26fa b83b c31b b73e f953 95bd 2295 db3d
000002a0: 3f4a 0f3f 55ff 713c 70b6 4ebc b571 b33e
000002b0: d324 f4bd d25c 82be a06a bc3e bc0b 083c
000002c0: 1e48 12be 9bf3 6fbd 78ee 2abe e3a3 8b3e
000002d0: 7b14 19be ca19 f13d 8742 debb 3e8d 5d3c
000002e0: f7b5 8f3e e976 c93c 57b4 a93e d1f3 19be
000002f0: bf83 78bd 6ce1 403b a915 f13d b24e 4dbe
00000300: 15ae dc3e 5d20 1dbe 89c3 8f3d af03 f43c
00000310: cfa1 d43d e7be a53e 968a 233e ba24 e4bc
00000320: 633d bebe 6ddf 07bf b7b4 e2bc 28bf d23d
00000330: 531e cc3e 2025 f2bd c9bf 853c 15bf cebd
00000340: 4247 d43d 640e cf3c bed9 9cbe 8f44 7e3c
00000350: cf85 15bd e732 f83d e3d8 1d3e 7318 b53d
00000360: 120f b9bd 2d26 883e e7fb cabd a277 f03d
00000370: 49af 1b3e c3dd 61be 3801 013f d14a 033d
00000380: 639c a7bd d668 f3bc 9164 b33e 0c59 163e
00000390: 5ef2 2fbe 2b74 d2be 4014 823e 249a c2be
000003a0: 52ee c4bd 1234 33be 2e07 e2bc 58f6 5d3e
000003b0: 251f 0cbc 1e07 ea3c 7981 49be 140d 583d
000003c0: 1e64 173e 8dac 64bd 61f2 1fbd 0558 1cbe
000003d0: 5da8 4fbe 8816 a3bd 0158 84be 37fb 243e
000003e0: 7aef ae3d 5f03 3d3e 553a e4bd 2685 f53e
000003f0: d914 8e3e dec2 09bd e36c 89be 5524 5a3e

linear_layer.0.bias f4 [100]
-0.021512281 -0.07325975 0.19951564 -0.042941034 0.018577363 -0.035738513 0.08586314 0.1411611
-0.19862226 0.054736584 0.057840947 -0.13846421 0.22137721 0.24583992 0.06677864 0.0014583677
-0.1470201 0.01983905 -0.032237064 -0.005335952 -0.13097076 -0.07569232 -0.0462473 0.026416773
0.04696518 0.17662553 0.11609648 -0.036870044 0.057009768 -0.12727766 -0.07512799 -0.0146323675
0.14309616 -0.11065782 -0.08443165 0.073731504 -0.026422707 -0.20562226 0.16049862 0.1931941
0.09559244 -0.062437568 0.075476244 -0.31347308 0.02255501 -0.13474447 -0.132839 0.023267083
-0.098387934 -0.2046836 0.29733795 0.0896374 0.001068078 -0.25418127 0.10970321 0.12757649
0.031354956 -0.0089027295 -0.008196597 0.01173704 -0.11940788 -0.018218696 0.005069688 0.17883922
-0.14723353 0.09086523 -0.24253154 0.005105697 -0.09124131 0.10371016 0.1942676 -0.096773416
-0.10499094 0.23038808 -0.018938353 0.032621 0.023728639 0.08230827 -0.12837343 -0.03182899
0.15535052 0.13543205 -0.053661734 0.01579645 0.033793807 0.06064256 0.1340921 0.16006072
-0.112327114 -0.10540187 -0.1400598 -0.20389092 -0.074136674 0.13786376 -0.039544262 0.039402172
0.2738795 0.067389876 -0.078434795 0.059829015
00000000: 863a b0bc 3509 96bd d44d 4c3e f0e2 2fbd
00000010: 8e2f 983c 8c62 12bd 04d9 af3d 898c 103e
00000020: a263 4bbe 7833 603d a1ea 6c3d 90c9 0dbe
00000030: b5b0 623e 76bd 7b3e 3dc3 883d b326 bf3a
00000040: 708c 16be 8185 a23c 030b 04bd 36d9 aebb
00000050: 331d 06be 9304 9bbd cf6d 3dbd fd67 d83c
00000060: 905e 403d 53dd 343e fec3 ed3d 0b05 17bd
00000070: 1383 693d 1355 02be b4dc 99bd 99bc 6fbc
00000080: cd87 123e 91a0 e2bd 80ea acbd 8b00 973d
00000090: 6f74 d8bc a48e 52be c059 243e add4 453e
000000a0: f8c5 c33d 89be 7fbd 4a93 9a3d 8b7f a0be
000000b0: 49c5 b83c 74fa 09be f206 08be 9c9a be3c
000000c0: 9d7f c9bd 9498 51be ae3c 983e d093 b73d
000000d0: c0fe 8b3a 0c24 82be 14ac e03d 69a3 023e
000000e0: 0e6e 003d c1dc 11bc 054b 06bc b74c 403c
000000f0: 1e8c f4bd 603f 95bc a01f a63b a121 373e
00000100: 63c4 16be 8d17 ba3d 305a 78be b14d a73b
00000110: b9dc babd fe65 d43d 16ee 463e 2431 c6bd
00000120: 7d05 d7bd daea 6b3e 9b24 9bbc 999d 053d
00000130: 9062 c23c 3d91 a83d 5374 03be 1d5f 02bd
00000140: 3514 1f3e b3ae 0a3e 68cc 5bbd 8f67 813c
00000150: 606b 0a3d 5564 783d 714f 093e f5e6 233e
00000160: c20b e6bd f0dc d7bd d66b 0fbe c8c8 50be
00000170: f8d4 97bd 282c 0d3e 2af9 21bd 2c64 213d
00000180: ef39 8c3e b403 8a3d 6ca2 a0bd 450f 753d

linear_layer.1.weight f4 [100, 100]
0.055683605 0.15173878 -0.06579614 -0.02364632 -0.014977343 0.004790143 0.09957767 0.056887783
0.14686008 -0.15114626 -0.07899412 0.010837534 -0.24866295 -0.07709009 0.06578066 0.06851313
-0.2221069 -0.1530692 0.21541767 0.002345905 -0.090034224 0.109712996 0.035498533 0.14874256
-0.070160985 0.0030716904 -0.085093714 -0.013912403 -0.23604365 -0.0889794 -0.01255698 -0.0066845394
-0.04222314 0.231859 -0.0823735 -0.06321973 -0.09143514 -0.0118693495 0.1293655 -0.14327747
0.0505872 0.16760556 -0.13901983 -0.055041805 0.0017071137 -0.03311343 0.056850787 0.021932656
0.0017684363 0.12324207 -0.014410657 -0.28481397 0.11556774 0.093971185 -0.034511667 -0.21844171
-0.14821054 -0.07662279 0.14680065 0.1702542 0.013698145 0.063253574 -0.01065374 -0.1611277
-0.023613522 0.1818211 -0.011962131 0.059466254 0.024141612 -0.08899551 0.010261388 0.09833022
-0.0729148 0.04091138 -0.25322524 0.029496381 -0.038570017 0.009392111 -0.17497191 -0.11695906
-0.03360007 -0.01253534 -0.025349967 -0.09960147 0.05837967 0.12559159 -0.029844547 -0.07739396
0.09382804 0.12300179 -0.0062351944 0.13368963 -0.08799687 -0.06444307 -0.0077937283 -0.10662561
-0.063530535 -0.019660197 -0.13008276 -0.078386314 0.047977667 0.21707462 -0.019982189 0.060759753
-0.05382125 -0.16796008 0.13462596 -0.2759469 -0.050559014 -0.07076752 -0.06632766 0.03829662
0.108766414 0.12005866 0.15915571 -0.14897384 -0.042947564 -0.28540727 0.013453855 0.18914728
-0.11292478 -0.023452766 0.029682377 0.11890923 0.18889773 0.08062634 -0.09075291 0.11963182
-0.122896135 -0.08151064 -0.06884018 -0.10242128 0.17493276 -0.11316271 -0.10809258 0.03631071
0.18843682 0.017292082 -0.02163156 -0.08171235 0.20248921 -0.09919268 0.12611139 -0.18502502
0.20056851 -0.23067586 -0.27043107 -0.06687013 0.03744529 -0.095234685 -0.014882362 -0.033910852
0.087435976 -0.17208123 -0.040826194 0.09628229 0.025432967 -0.075937904 -0.120726556 -0.042038467
0.13332894 -0.08916028 -0.020466723 0.05889321 -0.1405163 0.14884746 -0.038115922 -0.18242487
-0.375294 0.23449872 -0.017374747 0.07799523 0.046134707 0.13631156 0.11139302 0.18670855
0.007998054 -0.003419098 -0.11178593 0.0489536 0.20397578 -0.20400594 -0.040592354 0.08133628
0.015141335 -0.0786846 0.03255542 0.039395608 0.012998773 -0.13541518 0.08105296 -0.12942415
0.026428947 -0.09495116 0.122118816 -0.1316312 0.16120504 0.14095359 -0.11719136 0.19975485
-0.11185049 -0.05031266 0.10310938 -0.06642743 -0.12944329 0.047422826 -0.03231632 0.14911632
-0.19314238 -0.0279093 0.084930174 0.03680636 -0.106494024 0.009485162 0.029553019 -0.030091679
-0.0200511 0.124418914 -0.15897605 -0.16792093 0.07515719 0.074907266 0.037973493 -0.1371787
-0.15919505 -0.16712473 0.045292594 0.077270396 -0.040366758 0.09867527 -0.12680298 -0.07636483
0.032463342 0.010299781 0.015919564 0.0066891313 -0.10274423 -0.08486538 -0.067602985 0.017039945
0.22941461 0.2046462 -0.020926636 0.13767363 -0.12421097 0.14569522 0.11316883 -0.13853672
-0.06794519 -0.092992894 0.04816505 0.0055028023 -0.045828324 -0.061911926 -0.14771795 -0.033848904
00000000: 7e14 643d 6961 1b3e 20c0 86bd edb5 c1bc
00000010: 8863 75bc a2f6 9c3b 61ef cb3d 2a03 693d
00000020: 7d62 163e 16c6 1abe abc7 a1bd ea8f 313c
00000030: 80a1 7ebe 69e1 9dbd 03b8 863d 9d50 8c3d
00000040: fe6f 63be 2cbe 1cbe 7396 5c3e c1bd 193b
00000050: dd63 b8bd 35b1 e03d e966 113d f84f 183e
00000060: 90b0 8fbd 6a4e 493b 9d45 aebd d9f0 63bc
00000070: 6db5 71be d53a b6bd cbbb 4dbc fb09 dbbb
00000080: 2cf2 2cbd 726c 6d3e 70b3 a8bd 5979 81bd
00000090: 5942 bbbd a977 42bc 6478 043e 54b7 12be
000000a0: 8634 4f3d cba0 2b3e 375b 0ebe 8473 61bd
000000b0: 3bc1 df3a f3a1 07bd 5fdc 683d 1dac b33c
000000c0: e0ca e73a 5766 fc3d ad1a 6cbc 23d3 91be
000000d0: c7ae ec3d f773 c03d 1b5c 0dbd 2faf 5fbe
000000e0: 81c4 17be 69ec 9cbd e952 163e 1e57 2e3e
000000f0: 2f6e 603c 178b 813d 068d 2ebc a9fe 24be
00000100: 2571 c1bc 4f2f 3a3e d0fc 43bc e392 733d
00000110: a1c4 c53c 4743 b6bd 611f 283c 5b61 c93d
00000120: 5b54 95bd b192 273d bda6 81be 65a2 f13c
00000130: 98fb 1dbd 5ee1 193c d62b 33be 3b88 efbd
00000140: 3aa0 09bd 0761 4dbc bcaa cfbc dbfb cbbd
00000150: 851f 6f3d 159b 003e 8d7c f4bc b980 9ebd
00000160: ea28 c03d 5de8 fb3d 9a50 ccbb efe5 083e
00000170: b437 b4bd bafa 83bd 8862 ffbb 875e dabd
00000180: 4c1c 82bd 6c0e a1bc 6a34 05be 0189 a0bd
00000190: 3b84 443d cf48 5e3e b0b1 a3bc 38df 783d
000001a0: ac73 5cbd bafd 2bbe 63db 093e e948 8dbe
000001b0: f816 4fbd 90ee 90bd ccd6 87bd ebdc 1c3d
000001c0: edc0 de3d 51e1 f53d b7f9 223e 998c 18be
000001d0: c9e9 2fbd e720 92be 8f6d 5c3c d3af 413e
000001e0: 1b45 e7bd 0420 c0bc 7528 f33c af86 f33d
000001f0: 686e 413e 6c1f a53d a9dc b9bd 8701 f53d
00000200: f8b0 fbbd 0def a6bd 15fc 8cbd 40c2 d1bd
00000210: 9321 333e dac1 e7bd a55f ddbd 8aba 143d
00000220: 95f5 403e 20a8 8d3c ab34 b1bc ce58 a7bd
00000230: 5559 4f3e 8825 cbbd 5823 013e 3377 3dbe
00000240: d561 4d3e 4b36 6cbe f175 8abe 35f3 88bd
00000250: 3b60 193d 670a c3bd 27d5 73bc 1be6 0abd
00000260: a211 b33d 1036 30be 5e39 27bd a62f c53d
00000270: cc58 d03c 5585 9bbd 7c3f f7bd 8730 2cbd
00000280: 6287 083e aa99 b6bd d4a9 a7bc 023a 713d
00000290: 81e3 0fbe 786b 183e 711f 1cbd 96cd 3abe
000002a0: 8926 c0be 6f20 703e 7c55 8ebc f7bb 9f3d
000002b0: bff7 3c3d 4295 0b3e 0622 e43d 8730 3f3e
000002c0: 450a 033c f212 60bb 06f0 e4bd 9283 483d
000002d0: 07df 503e efe6 50be 2b44 26bd a393 a63d
000002e0: 5d13 783c 6425 a1bd d558 053d 4a5d 213d
000002f0: cef8 543c 47aa 0abe 18ff a53d c487 04be
00000300: 8581 d83c c175 c2bd 6e19 fa3d 54ca 06be
00000310: ef12 253e 2356 103e 0602 f0bd 898c 4c3e
00000320: df11 e5bd a614 4ebd 032b d33d 1b0b 88bd
00000330: c88c 04be 703e 423d 1e5e 04bd f3b1 183e
00000340: 1ec7 45be 0ba2 e4bc dfef ad3d 44c2 163d
00000350: 8a19 dabd a767 1b3c 2c19 f23c d382 f6bc
00000360: 3442 a4bc 58cf fe3d 9eca 22be 77f3 2bbe
00000370: 03ec 993d fb68 993d 188a 1b3d 9378 0cbe
00000380: 0704 23be bf22 2bbe ba84 393d f13f 9e3d
00000390: 9d57 25bd 4316 ca3d a4d8 01be 2a65 9cbd
000003a0: 48f8 043d 6ac0 283c bf69 823c 8030 db3b
000003b0: 916b d2bd e6cd adbd 6f73 8abd 5b97 8b3c
000003c0: aaeb 6a3e c68e 513e 566e abbc 51fa 0c3e
000003d0: 5262 febd 2131 153e 0fc5 e73d 92dc 0dbe
000003e0: d926 8bbd 0f73 bebd b748 453d da50 b43b
000003f0: 7bb6 3bbd 5c97 7dbd 6043 17be 26a5 0abd

linear_layer.1.bias f4 [100]
-0.08373187 0.083211355 -0.024546372 0.19195645 -0.023349779 -0.0650266 -0.114608824 0.13525793
-0.1100951 0.087748386 -0.08447531 -0.021454068 0.13955027 0.09598819 -0.07125512 -0.077385485
0.0047045997 0.12835827 0.022461567 -0.058599535 -0.052912805 0.044199076 -0.030804627 0.09464204
0.1466119 0.034548048 0.15434143 -0.054354213 -0.09447047 -0.060600147 -0.23121428 0.13036197
0.0037502912 -0.09098414 -0.07342 0.08306854 0.13223417 -0.15273128 0.010222286 -0.01955635
-0.11259449 -0.13581565 0.032501876 0.1616877 -0.07057748 0.010394714 0.002139347 -0.14264
0.07914833 -0.10907535 -0.052917864 -3.1675543e-05 -0.0053246273 -0.11847045 0.00898951 0.021442955
0.14190169 -0.09277301 -0.0028552187 0.031012217 -0.14258978 -0.0060285646 0.035776157 0.1691733
0.04334362 0.037273526 -0.11740644 0.02188053 0.0040407307 -0.17417774 -0.09642532 0.0064956197
-0.04445558 -0.039687354 0.08422814 0.010576404 0.08212893 -0.13771941 0.059107535 -0.052658837
-0.13883267 -0.07213947 0.036096063 -0.027837534 0.09767652 0.035005573 -0.009610548 0.06017212
0.16570428 -0.03506365 -0.08880644 -0.20258488 0.097703084 0.027462306 0.052834723 0.035577282
0.06617932 -0.009821821 -0.009919104 0.09367915
00000000: 9d7b abbd b76a aa3d 7915 c9bc 3b90 443e
00000010: 0948 bfbc ab2c 85bd 08b8 eabd 0e81 0a3e
00000020: 8a79 e1bd 6db5 b33d 6401 adbd 71c0 afbc
00000030: 44e6 0e3e 7595 c43d 34ee 91bd 487c 9ebd
00000040: 0b29 9a3b 5a70 033e 5201 b83c 1106 70bd
00000050: 19bb 58bd 170a 353d fc59 fcbc b0d3 c13d
00000060: 6e21 163e 4182 0d3d ae0b 1e3e 86a2 5ebd
00000070: bc79 c1bd dc37 78bd 70c3 6cbe 9c7d 053e
00000080: 72c7 753b e555 babd 3a5d 96bd d71f aa3d
00000090: 6568 073e 9765 1cbe 607b 273c a334 a0bc
000000a0: f197 e6bd 4213 0bbe b020 053d 7691 253e
000000b0: ed8a 90bd 974e 2a3c 4934 0c3b 3810 12be
000000c0: 8518 a23d e662 dfbd 67c0 58bd 5bdb 04b8
000000d0: 367a aebb a3a0 f2bd bd48 133c 23a9 af3c
000000e0: ad4e 113e c7ff bdbd 9f1e 3bbb 550d fe3c
000000f0: 0e03 12be 448b c5bb 058a 123d c43b 2d3e
00000100: 1489 313d 20ac 183d ca72 f0bd cc3e b33c
00000110: 1b68 843b a65b 32be a37a c5bd 35d9 d43b
00000120: 0e17 36bd 358f 22bd ce7f ac3d a748 2d3c
00000130: 3633 a83d 5106 0dbe be1a 723d cbb0 57bd
00000140: 272a 0ebe dcbd 93bd 77d9 133d 8a0b e4bc
00000150: a10a c83d 0162 0f3d 8f75 1dbc 0a77 763d
00000160: 62ae 293e e79e 0fbd 27e0 b5bd 6972 4fbe
00000170: 8e18 c83d a1f8 e03c 3969 583d 7cb9 113d
00000180: 0689 873d b4eb 20bc bd83 22bc dbda bf3d

linear_layer.2.weight f4 [100, 100]
-0.051856007 0.028696872 0.06570447 -0.2614933 0.09430004 -0.039872743 0.061214004 -0.089783214
0.0968529 -0.056885086 -0.04226736 0.037738703 -0.0671424 -0.09410794 0.026906645 -0.13559763
0.046450403 -0.08840158 -0.034518704 0.1286151 0.027825747 0.048061673 -0.061837252 -0.075291194
-0.12961075 0.0011023617 -0.22530907 -0.016115934 0.028821973 -0.0006620051 0.05239266 -0.061094955
0.016352642 0.006464121 0.071843386 -0.008925495 -0.026914917 0.30368534 0.029992824 -0.06796241
0.14161976 0.16677502 0.077258535 0.008545693 0.122249596 -0.01600978 0.115377605 0.04999844
-0.16166432 0.11982777 0.013262184 0.0634629 -0.1337818 0.04369893 -0.11441004 -0.03264492
-0.33743647 0.057163987 0.090230614 0.012691055 -0.032789208 0.0038895837 -0.027059723 -0.024970364
0.033629138 0.12593985 0.06288918 -0.056378238 0.09001512 0.029233634 0.24337266 0.25543106
0.017479906 -0.1268274 -0.20162459 0.028581446 -0.03776316 -0.01456598 -0.07660255 0.10334359
-0.08535992 0.054784764 -0.011710936 0.10848126 0.23292099 -0.13247068 0.1632561 -0.27178377
-0.078825444 -0.11442899 0.051773492 0.14494406 0.0019591132 -0.11774455 -0.029918145 -0.030091656
-0.068018116 0.01878556 0.0108447345 0.05376488 -0.014663625 0.017072339 -0.047648955 -0.33923328
0.0015032789 0.07483931 0.08652637 -0.2662083 0.052546702 -0.14906594 0.1151925 -0.12808782
-0.08349611 -0.29870868 -0.08905517 0.037474398 -0.00503432 -0.11628197 0.080826804 0.06027225
0.11251789 0.13840583 -0.011825318 -0.07746989 0.04267958 0.05372347 -0.2695652 0.09274189
0.10404283 0.012948133 0.12283759 -0.23185383 0.27149585 0.1069125 -0.04342603 -0.08274658
-0.0034089482 0.08966795 0.23063688 -0.0005638986 0.19076821 -0.004476832 0.14662369 0.013377721
0.1290249 0.17907076 -0.17455666 0.06067824 -0.23457345 0.08028012 -0.024179075 -0.16354118
0.08645328 0.08388264 0.22220069 0.15552682 -0.09104021 0.017280223 -0.0613572 -0.07462986
0.049691003 0.14881505 0.18789966 -0.032586496 -0.2503379 -0.06236145 0.0098232785 0.016515195
-0.0027130235 0.04269345 -0.013584219 0.07063923 0.019366805 -0.12405892 -0.003894518 -0.08019346
-0.0050937487 0.14524913 0.0048311157 0.0950808 0.020215018 -0.08446754 -0.13068795 -0.15198897
-0.045121986 0.13174345 0.056898333 -0.124825984 -0.03235802 -0.064656146 0.052354913 0.105911866
0.04692765 -0.13676386 -0.017294083 -0.09681645 0.050792437 0.040920947 0.018150158 -0.05357447
-0.024904205 -0.093205 -0.03323029 0.05450174 0.1561294 -0.08363232 0.07809884 0.0328023
-0.05865909 0.20039001 -0.16282907 -0.13075769 -0.09929122 -0.16713314 -0.037598968 0.06478043
0.1827743 0.0985814 -0.1632893 -0.007885828 -0.13180938 0.11944379 -0.25269672 0.07837759
-0.10794661 -0.08226644 0.11296981 0.017805208 -0.15536155 0.05918764 -0.13673909 0.09561707
-0.081601724 0.034777965 -0.047118623 0.12623124 -0.06656561 -0.18004352 -0.008800903 0.06892181
-0.14450672 0.012582951 -0.11567928 0.0026690725 0.012726486 -0.087903224 -0.008670185 0.009503647
-0.02629446 -0.037135046 -0.13807039 0.059464343 -0.10899287 0.03394134 0.021531763 0.018272957
00000000: f766 54bd b415 eb3c 1190 863d 73e2 85be
00000010: 6120 c13d 9a51 23bd 89bb 7a3d 43e0 b7bd
00000020: d05a c63d 5600 69bd 8a20 2dbd e693 1a3d
00000030: f481 89bd aabb c0bd 536b dc3c 1bda 0abe
00000040: c742 3e3d e30b b5bd 7c63 0dbd adb3 033e
00000050: d2f2 e33c 51dc 443d 0f49 7dbd 4532 9abd
00000060: aeb8 04be 1f7d 903a 6cb7 66be 9005 84bc
00000070: 0f1c ec3c 698a 2dba b099 563d b43e 7abd
00000080: faf5 853c fad0 d33b a022 933d 3d3c 12bc
00000090: ac7c dcbc a57c 9b3e 83b3 f53c e02f 8bbd
000000a0: c504 113e 12c7 2a3e b939 9e3d 3c03 0c3c
000000b0: ff5d fa3d f126 83bc 184b ec3d 2acb 4c3d
000000c0: 558b 25be 4368 f53d a249 593c d6f8 813d
000000d0: 19fe 08be a6fd 323d d04f eabd aeb6 05bd
000000e0: 79c4 acbe c924 6a3d d4ca b83d 25ee 4f3c
000000f0: fa4d 06bd 63e8 7e3b 5aac ddbc a68e ccbc
00000100: b5be 093d 60f6 003e 0bcc 803d deec 66bd
00000110: d959 b83d 607b ef3c af36 793e dcc7 823e
00000120: 0532 8f3c 0bdf 01be ad76 4ebe a323 ea3c
00000130: 8bad 1abd 26a6 6ebc cce1 9cbd cea5 d33d
00000140: 2fd1 aebd fd65 603d 3adf 3fbc 6c2b de3d
00000150: d782 6e3e 65a6 07be 9b2c 273e 3e27 8bbe
00000160: 3c6f a1bd bf59 eabd 7110 543d 376c 143e
00000170: 7764 003b 0e24 f1bd e616 f5bc c782 f6bc
00000180: 154d 8bbd 2de4 993c 1dae 313c 9038 5c3d
00000190: b33f 70bc 4adb 8b3c 8d2b 43bd fcaf adbe
000001a0: ab09 c53a 5a45 993d bd34 b13d 744c 88be
000001b0: 363b 573d bea4 18be 0cea eb3d 7429 03be
000001c0: 0200 abbd 58f0 98be 8f62 b6bd c17e 193d
000001d0: f0f6 a4bb 3e25 eebd 8688 a53d 09e0 763d
000001e0: c86f e63d 42ba 0d3e fbbe 41bc 89a8 9ebd
000001f0: c9d0 2e3d 240d 5c3d 7304 8abe 76ef bd3d
00000200: 6814 d53d 6824 543c 4692 fb3d 176b 6dbe
00000210: 8101 8b3e f1f4 da3d 7edf 31bd 0a77 a9bd
00000220: a968 5fbb d5a3 b73d 132c 6c3e 98d2 13ba
00000230: be58 433e 64b2 92bb 8524 163e 3b2e 5b3c
00000240: 1a1f 043e 535e 373e fbbe 32be bf89 783d
00000250: 0634 70be e769 a43d 3213 c6bc 5777 27be
00000260: 6b0e b13d a9ca ab3d 9488 633e 6c42 1f3e
00000270: 4a73 babd 418f 8d3c b051 7bbd 8ad7 98bd
00000280: cb88 4b3d f962 183e c568 403e 6b79 05bd
00000290: 4a2c 80be b86e 7fbd d1f1 203c e04a 873c
000002a0: fbcc 31bb 54df 2e3d 5890 5ebc 4dab 903d
000002b0: 22a7 9e3c 9a12 febd 2b3b 7fbb 783c a4bd
000002c0: 76e9 a6bb 30bc 143e 564e 9e3b b9b9 c23d
000002d0: f799 a53c 51fd acbd 10d3 05be ffa2 1bbe
000002e0: d5d1 38bd c1e7 063e 3a0e 693d c4a4 ffbd
000002f0: d889 04bd 716a 84bd 1b72 563d 52e8 d83d
00000300: 3537 403d d30b 0cbe 52ac 8dbc b447 c6bd
00000310: bb0b 503d b99c 273d a4af 943c e770 5bbd
00000320: e703 ccbc 43e2 bebd 7c1c 08bd 373d 5f3d
00000330: 63e0 1f3e 6c47 abbd 49f2 9f3d b45b 063d
00000340: 8444 70bd 0a33 4d3e aabc 26be 58e5 05be
00000350: 3259 cbbd f324 2bbe 6001 1abd 9aab 843d
00000360: 3029 3b3e 0ce5 c93d 4f35 27be 8f33 01bc
00000370: 0af9 06be f29e f43d 7761 81be 6e84 a03d
00000380: 1d13 ddbd 4f7b a8bd b75c e73d 3adc 913c
00000390: 1917 1fbe bd6e 723d 5505 0cbe e2d2 c33d
000003a0: ce1e a7bd 5773 0e3d 75ff 40bd c342 013e
000003b0: 8d53 88bd 545d 38be aa31 10bc e126 8d3d
000003c0: 92f9 13be b928 4e3c 42e9 ecbd 9beb 2e3b
000003d0: c082 503c 9b06 b4bd 640d 0ebc 2fb5 1b3c
000003e0: 7b67 d7bc eb1a 18bd 5362 0dbe e290 733d
000003f0: a737 dfbd 1306 0b3d 6163 b03c 2bb1 953c

linear_layer.2.bias f4 [100]
-0.06840958 -0.058246657 0.01966726 0.03540103 0.017425368 0.043862082 0.058210533 0.047366787
-0.007516083 0.03326258 -0.037420794 -0.0627962 -0.103008166 0.1872539 -0.016161516 -0.02771109
-0.0739205 0.15301716 0.0059275073 -0.027125988 -0.13951716 -0.05160669 0.015324221 0.085545816
0.016060308 -0.060123105 -0.057040785 -0.07016114 0.058608007 -0.07195478 -0.11909166 -0.048126187
0.031845737 0.053584717 -0.020458495 -0.077898584 -0.032559272 -0.06458308 -0.031622004 -0.030317033
-0.033122964 -0.100234725 -0.041568223 0.037087016 0.010292919 0.028907962 0.026445614 0.0075891996
0.117280096 0.008978795 -0.024689762 0.004737427 0.08338791 0.10816796 0.077276774 -0.39040792
-0.06854979 -0.01817773 0.0072875437 -0.054900903 0.17388156 0.04957114 0.161354 0.03906502
-0.043313347 -0.028149484 -0.06733093 0.009109369 -0.2072584 0.01045199 0.01863275 0.029323159
0.02506879 -0.0066482634 -0.023473598 -0.056085106 -0.0135619445 0.008702834 0.02844588 -0.09344367
-0.06859974 -0.017596243 -0.09906035 -0.039155867 0.044424072 0.056994706 0.0190225 0.2321564
-0.04208781 -0.0051338044 0.018437505 0.047266085 -0.020494899 -0.305646 0.005330074 -0.071945935
-0.042930614 0.01372127 -0.06609865 -0.018952081
00000000: 521a 8cbd 0c94 6ebd 3c1d a13c ac00 113d
00000010: a5bf 8e3c baa8 333d 2b6e 6e3d ad03 423d
00000020: 7949 f6bb 583e 083d 8c46 19bd 4b9b 80bd
00000030: f2f5 d2bd 7dbf 3f3e 2865 84bc 5e02 e3bc
00000040: a263 97bd 88b0 1c3e 893b c23b 5237 debc
00000050: 96dd 0ebe 8961 53bd 7112 7b3c a532 af3d
00000060: e890 833c a543 76bd 99a3 69bd a5b0 8fbd
00000070: f30e 703d 075d 93bd 54e6 f3bd f71f 45bd
00000080: ad70 023d a67b 5b3d 9398 a7bc 4b89 9fbd
00000090: df5c 05bd 2244 84bd 1386 01bd 6d5b f8bc
000000a0: f2ab 07bd dd47 cdbd 7143 2abd 8ee8 173d
000000b0: a2a3 283c 64d0 ec3c 79a4 d83c d2ae f83b
000000c0: 8c30 f03d cc1b 133c 2f42 cabc 6b3c 9b3b
000000d0: 48c7 aa3d 2a87 dd3d 4943 9e3d 8ce3 c7be
000000e0: d563 8cbd 76e9 94bc 59cc ee3b c5df 60bd
000000f0: 020e 323e 1c0b 4b3d fc39 253e a402 203d
00000100: 5669 31bd bf99 e6bc cce4 89bd 763f 153c
00000110: 8c3b 54be d33e 2b3c b5a3 983c 1f37 f03c
00000120: 105d cd3c add9 d9bb b44b c0bc 7fb9 65bd
00000130: eb32 5ebc 5596 0e3c 5607 e93c 655f bfbd
00000140: 057e 8cbd ff25 90bc 27e0 cabd e761 20bd
00000150: 04f6 353d 4873 693d 13d5 9b3c 68ba 6d3e
00000160: 4464 2cbd 7939 a8bb 400a 973c 159a 413d
00000170: ebe4 a7bc a27d 9cbe e7a7 ae3b 6458 93bd
00000180: 03d8 2fbd 2dcf 603c bb5e 87bd 6541 9bbc

linear_layer.3.weight f4 [100, 100]
-0.16345096 0.102398634 -0.049348734 0.16642337 -0.003915024 -0.023172395 0.06122384 0.114310354
-0.12435531 -0.10032584 -0.22061843 0.07609206 -0.14081098 0.6327928 -0.061415743 0.035539705
-0.25329387 0.15150325 -0.09285714 0.018567925 -0.4215199 -0.122615725 -0.031672265 0.14165829
0.004897628 0.073099054 -0.01594973 -0.07124318 0.21752906 -0.013332976 -0.15987235 -0.14666586
-0.1248309 -0.034649797 -0.06402613 -0.01576439 -0.30506006 -0.20957899 -0.24722214 -0.11602101
0.13932654 -0.20251401 -0.16146134 0.14640945 0.039618004 -0.02200803 0.05309614 0.17087406
-0.24193172 0.110752866 0.12802254 -0.0631096 -0.027609874 0.31279737 0.2436677 0.0039037208
0.08809387 -0.15971725 -0.1569821 -0.13095596 0.015495108 -0.13381979 0.3326878 -0.089688845
0.09963145 0.011289341 0.057035554 -0.01826706 0.10289062 -0.017789926 0.19105956 -0.046846278
0.09922456 -0.02355237 0.19304615 0.10349606 -0.07685668 -0.012339605 0.013435877 -0.26535642
0.005638596 0.12020733 -0.077824876 -0.019620044 0.24540773 -0.14136228 0.037366014 0.03032527
-0.12938565 0.03612407 -0.19250032 0.27464998 -0.0041926466 0.0732098 0.008463658 0.13227929
0.07819953 0.034151874 -0.18801074 -0.09335571 0.1764891 -0.01113575 0.009888422 -0.1197114
0.031727675 0.02371433 -0.10972626 0.061506443 0.0057103806 -0.06736711 -0.10349023 0.13104619
-0.040928647 0.28732917 -0.107892364 -0.023034904 -0.061025787 -0.08626532 0.10160537 0.01892384
0.09710052 -0.07084657 -0.001097943 -0.18030064 -0.1553744 0.099893615 0.02462934 -0.18903425
0.15537255 0.09830822 -0.17589927 0.20103604 0.049229976 -0.16700153 0.07225013 -0.054176435
0.11621324 -0.22412336 0.0027082446 -0.007000162 0.016630217 0.100439385 -0.042457506 0.036044933
0.2002182 -0.007023749 -0.17371047 0.03858167 0.038885444 0.16569264 0.06027209 0.01464259
0.11708096 -0.027260853 0.050466858 -0.041545406 -0.05452308 -0.07682807 0.12562273 0.06579812
0.06235749 -0.08634665 -0.005698557 -0.042288665 0.090735406 -0.10138447 -0.16569765 -0.024835497
-0.13081789 -0.18167458 -0.07108098 -0.020845776 0.20165685 -0.06846185 -0.08891133 -0.04661405
-0.092808284 -0.14961562 0.009287418 -0.011109349 -0.03819936 -0.045878775 -0.022052158 0.15639941
0.042108737 0.06554471 0.002992977 -0.11435817 -0.028536396 -0.028451454 0.009470112 0.10201324
-0.029839912 -0.045234427 0.023378707 -0.11795668 -0.0006121773 -0.10556425 -0.20234041 0.018833447
-0.019434731 0.027553804 -0.051660117 -0.08963439 -0.015962493 -0.08568921 -0.05146941 -0.114870965
0.042014524 -0.15309206 0.053867072 0.14376956 -0.10045055 -0.007213349 0.023594983 0.052921005
-0.0089306235 -0.12652694 -0.23331058 -0.039132062 0.21504119 0.013143834 0.028499765 -0.11030333
0.008420044 -0.047752447 0.12241306 0.085470006 -0.048117187 0.08840361 -0.06697099 -0.063776836
0.053178266 -0.11282243 -0.19536863 0.20830621 0.07926972 0.05494619 0.06364235 0.2550207
0.058663566 0.0650739 -0.07045056 -0.11929331 0.08470865 -0.056382295 -0.11409544 -0.013074556
-0.008366353 -0.17972273 0.036796506 0.09136134 -0.076014906 -0.045201927 -0.18926224 0.21532553
00000000: b05f 27be 60b6 d13d e621 4abd e36a 2a3e
00000010: 9a49 80bb 09d4 bdbc d9c5 7a3d 8c1b ea3d
00000020: ffad febd a277 cdbd cce9 61be 27d6 9b3d
00000030: c130 10be b5fe 213f 138f 7bbd 1592 113d
00000040: bcaf 81be ab23 1b3e e22b bebd c31b 983c
00000050: 75d1 d7be f41d fbbd c7ba 01bd df0e 113e
00000060: 487c a03b f5b4 953d 02a9 82bc f2e7 91bd
00000070: f0bf 5e3e 8e72 5abc 94b5 23be 932f 16be
00000080: 58a7 ffbd f2ec 0dbd 2220 83bd 5224 81bc
00000090: d530 9cbe e09b 56be cd27 7dbe 6c9c edbd
000000a0: 9eab 0e3e d55f 4fbe 1f56 25be 5cec 153e
000000b0: 7d46 223d 2f4a b4bc 577b 593d 9cf9 2e3e
000000c0: f3bc 77be 66d2 e23d 5718 033e 9b3f 81bd
000000d0: 1a2e e2bc fa26 a03e 0784 793e 91d5 7f3b
000000e0: 8f6a b43d eb8c 23be eabf 20be 5219 06be
000000f0: 32df 7d3c 0e08 09be 0e56 aa3e c9ae b7bd
00000100: 930b cc3d eef6 383c 1d9e 693d cda4 95bc
00000110: 51b8 d23d 2ebc 91bc 1ea5 433e e2e1 3fbd
00000120: 3f36 cb3d e6f0 c0bc e4ad 453e bef5 d33d
00000130: 0967 9dbd 0e2c 4abc 2722 5c3c ccdc 87be
00000140: f9c3 b83b 432f f63d a662 9fbd 37ba a0bc
00000150: 2a4c 7b3e 46c1 10be 1b0d 193d b36c f83c
00000160: ac7d 04be d5f6 133d ce1e 45be ec9e 8c3e
00000170: 7862 89bb 05ef 953d 28ab 0a3c 3974 073e
00000180: 1327 a03d d6e2 0b3d e385 40be 4731 bfbd
00000190: 8fb9 343e b972 36bc 0c03 223c 402b f5bd
000001a0: e1f4 013d 8e44 c23c 29b8 e0bd 2eee 7b3d
000001b0: 251e bb3b c4f7 89bd b0f2 d3bd f930 063e
000001c0: cca4 27bd cf1c 933e acf6 dcbd b2b3 bcbc
000001d0: 2df6 79bd dfab b0bd 7a16 d03d 2b06 9b3c
000001e0: a3dc c63d 0218 91bd dbe8 8fba bba0 38be
000001f0: 771a 1fbe 0695 cc3d 78c3 c93c 3292 41be
00000200: fb19 1f3e d255 c93d f01e 34be 64dc 4d3e
00000210: 5fa5 493d 7302 2bbe e0f7 933d 1ce8 5dbd
00000220: 3501 ee3d 9880 65be ce7c 313b 9d61 e5bb
00000230: 183c 883c 2ab3 cd3d ece7 2dbd daa3 133d
00000240: 0006 4d3e 7a27 e6bb 28e1 31be d007 1e3d
00000250: 5846 1f3d 55ab 293e dedf 763d 79e7 6f3c
00000260: 24c8 ef3d 2752 dfbc 56b6 4e3d 842b 2abd
00000270: 9853 5fbd 0958 9dbd 3fa3 003e 2ac1 863d
00000280: 916a 7f3d 83d6 b0bd f6ba babb e136 2dbd
00000290: 7cd3 b93d a9a2 cfbd a5ac 29be d073 cbbc
000002a0: 20f5 05be e708 3abe e892 91bd c3c4 aabc
000002b0: 227f 4e3e ba35 8cbd 2517 b6bd 60ee 3ebd
000002c0: 4512 bebd d634 19be 412a 183c fd03 36bc
000002d0: ef76 1cbd 62eb 3bbd baa6 b4bc 2b27 203e
000002e0: 367a 2c3d 4e3c 863d d225 443b 9e34 eabd
000002f0: 29c5 e9bc 0613 e9bc 8728 1b3c 51ec d03d
00000300: d572 f4bc bc47 39bd b484 bf3c 4693 f1bd
00000310: 867a 20ba 1232 d8bd 5332 4fbe 9a48 9a3c
00000320: 9635 9fbc 84b8 e13c 8f99 53bd 3c92 b7bd
00000330: c6c3 82bc d37d afbd 97d1 52bd 7841 ebbd
00000340: 6c17 2c3d 2ac4 1cbe b8a3 5c3d 5438 133e
00000350: 05b9 cdbd f55d ecbb 444a c13c b2c3 583d
00000360: c051 12bc 4790 01be f8e8 6ebe f148 20bd
00000370: c233 5c3e 3c59 573c 5778 e93c b6e6 e1bd
00000380: 39f4 093c 1298 43bd b3b3 fa3d e60a af3d
00000390: 8716 45bd f40c b53d 1628 89bd 6e9d 82bd
000003a0: 74d1 593d 720f e7bd b70e 48be 394e 553e
000003b0: 2a58 a23d 420f 613d ec56 823d 1392 823e
000003c0: 3549 703d 7745 853d 6248 90bd 0d50 f4bd
000003d0: bb7b ad3d 1ff1 66bd dfaa e9bd aa36 56bc
000003e0: 0713 09bc 3c09 38be efb7 163d a71b bb3d
000003f0: b4ad 9bbd a825 39bd f6cd 41be 4c7e 5c3e

linear_layer.3.bias f4 [100]
0.10260336 0.015745766 -0.060496937 -0.116159104 -0.01840902 -0.041495822 0.09391009 0.04802318
0.044954963 0.004055152 -0.046341803 -0.030996047 0.02161312 0.037196178 0.009101722 0.02262264
-0.07993545 -0.0021575792 0.01903584 0.042636935 -0.05683534 0.05620693 0.029453002 0.040636007
0.0083283195 -0.047162656 0.068585075 0.065747805 0.03865942 0.059873067 -0.025766982 -0.0034600957
0.02188948 0.029792774 -0.0018679518 -0.029268079 0.016506921 -0.015228644 -0.048439205 -0.009907286
-0.012789547 0.015406177 0.05419056 -0.013129754 0.07837347 0.06844843 0.106837876 -0.203851
0.05331016 -0.047998697 0.032776438 -0.025770802 -0.010297832 -0.001117059 -0.022453876 -0.027359737
-0.050007723 -0.01466075 0.047849286 0.04726412 0.0051952135 0.030389385 0.009148504 0.013966974
0.026008436 0.016525408 0.06780916 -0.004724279 0.013488122 -0.045430508 0.028849654 -0.038837656
0.00024443463 -0.011066444 -0.04062762 0.022924572 -0.013617321 -0.33150592 0.054961655 -0.061524022
-0.007024468 0.022093879 0.0015102697 -0.024110874 -0.024152644 0.04362281 0.02302044 0.06329659
-0.036877207 0.014742581 0.031353705 0.029085502 0.042341497 -0.037418086 0.015221413 0.044111658
0.0224405 0.020600274 -0.044286806 -0.056694172
00000000: b621 d23d 44fd 803c a3cb 77bd d3e4 edbd
00000010: 83ce 96bc 86f7 29bd ef53 c03d f4b3 443d
00000020: b222 383d 15e1 843b e7d0 3dbd 6ceb fdbc
00000030: ff0d b13c 055b 183d 641f 153c 1d53 b93c
00000040: 32b5 a3bd 2c66 0dbb 0df1 9b3c 11a4 2e3d
00000050: 2ccc 68bd 3d39 663d 6c47 f13c f171 263d
00000060: 8173 083c a12d 41bd 5576 8c3d c9a6 863d
00000070: 5759 1e3d 763d 753d 4715 d3bc c6c2 62bb
00000080: 9151 b33c fa0f f43c 10d6 f4ba 9cc3 efbc
00000090: 8639 873c 9081 79bc 3068 46bd 2b52 22bc
000000a0: 408b 51bc 316a 7c3c ecf6 5d3d 2e1e 57bc
000000b0: 4582 a03d b12e 8c3d d1cd da3d 51be 50be
000000c0: c15b 5a3d 489a 44bd 9640 063d 4a1d d3bc
000000d0: 3db8 28bc 486a 92ba 31f1 b7bc 8721 e0bc
000000e0: e6d4 4cbd a433 70bc 9dfd 433d 0698 413d
000000f0: 9c3c aa3b 29f3 f83c 9be3 153c bcd5 643c
00000100: a50f d53c 4b60 873c 87df 8a3d 20ce 9abb
00000110: 49fd 5c3c 5715 3abd 1c56 ec3c 3c14 1fbd
00000120: 7627 8039 0850 35bc 2669 26bd 50cc bb3c
00000130: 2f1b 5fbc 25bb a9be 791f 613d 9d00 7cbd
00000140: 822d e6bb 39fe b43c 3ef4 c53a 2b84 c5bc
00000150: c4db c5bc d5ad 323d 5d95 bc3c a4a1 813d
00000160: 8e0c 17bd de8a 713c be6c 003d b844 ee3c
00000170: 476e 2d3d b543 19bd 3c63 793c 6dae 343d
00000180: 24d5 b73c e8c1 a83c 1566 35bd 2638 68bd

linear_layer.4.weight f4 [100, 100]
-0.018937362 0.035136208 0.072543845 0.07746532 0.0550112 -0.003011753 -0.052357707 0.14698106
0.0777055 0.024988953 -0.1474038 0.10171799 0.08843249 0.15208483 0.1276443 0.21878742
0.12730135 0.33662248 0.011956831 0.036952324 0.016565332 0.05188092 -0.021392226 0.13405417
0.15235412 -0.10132507 0.07174253 -0.10260841 0.16350448 -0.034971926 0.13134691 -0.06409028
-0.16094214 0.043993246 0.006044453 0.0048788553 -0.198396 0.061532516 0.14196166 0.0225326
-0.20749947 -0.2705519 -0.27283213 0.083187394 -0.04390532 -0.26511967 0.1755276 -0.055087417
0.07008104 0.022356575 -0.05114157 -0.099407755 -0.09467726 -0.019927185 0.007559508 0.06211638
0.054182656 0.07371654 0.08705513 0.060359165 0.08141047 0.009254183 0.0168219 0.02819695
0.13110848 0.038458537 0.013453195 -0.009949321 -0.21473987 0.11024941 0.01858371 0.052384675
-0.08893463 0.1907163 0.019802142 -0.15845452 0.0861463 0.09559166 -0.015538951 0.030884217
0.044155437 0.08072863 0.057055056 -0.0046615414 -0.045631375 -0.009268939 0.13392098 -0.015393131
-0.023424866 -0.029068941 -0.018187612 0.12555242 -0.21246417 0.074495815 -0.08020144 -0.08587429
0.019490577 -0.018129159 -0.10904809 -0.03063123 -0.10238854 0.0035147904 -0.12372603 0.015698092
-0.02788406 -0.07127282 -0.21268998 0.014710716 0.012019533 -0.0681684 -0.029904693 -0.018588383
0.1340029 0.108632796 0.22339362 -0.046804953 -0.119835615 -0.08103873 -0.062022794 0.06768698
-0.081301995 0.10462212 0.09243393 -0.07476589 0.018072063 -0.046508826 0.07367769 0.13531514
0.2337066 0.08369775 -0.06723716 0.0673316 0.056136627 0.027479272 -0.0262744 -0.22675943
-0.12042665 -0.09553589 0.10924375 0.09189119 0.03987443 0.03224387 0.09044296 0.1633253
0.04319383 -0.041728284 0.22721791 0.11254407 -0.037640087 -0.15874472 -0.03925827 0.05279191
-0.04333972 -0.090171024 -0.051490642 -0.09503442 -0.050538063 0.08744111 -0.052596595 -0.011316518
-0.012700896 0.04136702 0.017126445 -0.22189327 -0.039543625 0.1454737 0.13917185 0.14544824
-0.117907956 -0.10131773 -0.10442028 -0.112958364 0.003018334 -0.18316922 -0.0030510034 0.07941745
0.051341154 -0.2061228 -0.17171176 0.116086155 0.1459015 -0.15658507 0.027596679 -0.026696257
0.061103057 -0.030829387 -0.15596251 -0.062286332 -0.16916752 -0.15779217 0.089146145 -0.07396652
-0.13233222 0.05068373 0.026209071 0.024032233 -0.03146224 -0.08341396 0.10744688 0.025673646
0.057228237 -0.009477318 -0.19207318 0.098913945 -0.22293374 -0.09038446 0.035255373 0.1136782
-0.2866745 0.0153133515 0.07044179 0.02816546 0.0040933564 -0.10832625 0.040884104 0.16809687
-0.18231294 -0.18134908 0.048911143 0.06350522 -0.041027714 -0.0032206562 0.17526951 0.03365922
0.016929744 -0.06252449 -0.045279358 0.0017471942 0.16957924 -0.07162211 -0.1883054 0.07161509
0.17918997 0.16067176 -0.06378594 0.030952487 -0.040548462 0.16328019 -0.13993971 -0.022550587
-0.14401616 0.055325095 0.19249754 -0.14970833 -0.14075787 0.002536446 0.15593083 0.34372887
0.092597835 0.05716478 0.3197426 0.0044278237 0.06318791 0.057203498 0.20959194 0.09939049
00000000: 8722 9bbc fcea 0f3d de91 943d 23a6 9e3d
00000010: 6d53 613d d560 45bb 0975 56bd 3482 163e
00000020: 1024 9f3d a2b5 cc3c 06f1 16be 8651 d03d
00000030: 181c b53d 20bc 1b3e 30b5 023e cf09 603e
00000040: 495b 023e c859 ac3e 96e6 433c 525b 173d
00000050: 05b4 873c 1681 543d c03e afbc 7f45 093e
00000060: b802 1c3e 8583 cfbd bfed 923d 5c24 d2bd
00000070: b86d 273e b93e 0fbd ce7f 063e c441 83bd
00000080: 04ce 24be 4332 343d 8c10 c63b cede 9f3b
00000090: 5228 4bbe 8509 7c3d 665e 113e 4a96 b83c
000000a0: be7a 54be c785 8abe a7b0 8bbe 275e aa3d
000000b0: 11d6 33bd c4bd 87be 82bd 333e 58a3 61bd
000000c0: a686 8f3d 2325 b73c d379 51bd 4b96 cbbd
000000d0: 27e6 c1bd 563e a3bc c0b5 f73b bf6d 7e3d
000000e0: a2ee 5d3d b3f8 963d f649 b23d 2c3b 773d
000000f0: 88ba a63d db9e 173c 15ce 893c 4afd e63c
00000100: 4d41 063e b386 1d3d ca6a 5c3c 7a02 23bc
00000110: c5e4 5bbe 71ca e13d dd3c 983c 5091 563d
00000120: 5c23 b6bd 224b 433e 1a38 a23c e741 22be
00000130: 796d b03d 8fc5 c33d 1697 7ebc e600 fd3c
00000140: 55dc 343d 0d55 a53d 90b2 693d d8bf 98bb
00000150: f7e7 3abd bfdc 17bc 9522 093e 7933 7cbc
00000160: 81e5 bfbc fd21 eebc 30fe 94bc d090 003e
00000170: 3590 59be 4391 983d a740 a4bd dcde afbd
00000180: b4aa 9f3c 9a83 94bc 9b54 dfbd 58ee fabc
00000190: 15b1 d1bd 6658 663b 1364 fdbd 4999 803c
000001a0: 1d6d e4bc 7cf7 91bd 67cb 59be 3705 713c
000001b0: 93ed 443c e09b 8bbd b0fa f4bc aa46 98bc
000001c0: 0e38 093e df7a de3d 4cc1 643e 8db6 3fbd
000001d0: 606c f5bd a2f7 a5bd 9d0b 7ebd 799f 8a3d
000001e0: a981 a6bd 1f44 d63d 004e bd3d dc1e 99bd
000001f0: dd0b 943c 0a80 3ebd 54e4 963d 0d90 0a3e
00000200: c850 6f3e ba69 ab3d a3b3 89bd 26e5 893d
00000210: 85ef 653d 361c e13c 693d d7bc a033 68be
00000220: 3fa2 f6bd 52a8 c3bd 30bb df3d 7331 bc3d
00000230: 5f53 233d 2612 043d 293a b93d bf3e 273e
00000240: 03ec 303d 47eb 2abd d0ab 683e 817d e63d
00000250: 7e2c 1abd fa8d 22be 48cd 20bd 543c 583d
00000260: fe84 31bd 96ab b8bd dae7 52bd 68a1 c2bd
00000270: 0001 4fbd 5314 b33d 876f 57bd eb68 39bc
00000280: 6b17 50bc 7770 293d c24c 8c3c fd37 63be
00000290: 7ff8 21bd 0ff7 143e 1183 0e3e 62f0 143e
000002a0: ba79 f1bd ac7f cfbd 4dda d5bd b756 e7bd
000002b0: 3ecf 453b b690 3bbe 58f3 47bb 9ea5 a23d
000002c0: 1a4b 523d db11 53be 35d5 2fbe 94be ed3d
000002d0: 3467 153e d657 20be 6e12 e23c 1cb2 dabc
000002e0: 3347 7a3d e98d fcbc a3b4 1fbe f41f 7fbd
000002f0: 403a 2dbe 4594 21be 4192 b63d c27b 97bd
00000300: 1982 07be be99 4f3d 68b4 d63c 3fdf c43c
00000310: 8dde 00bd f0d4 aabd 1c0d dc3d 8a51 d23c
00000320: 2868 6a3d c146 1bbc d5ae 44be 6593 ca3d
00000330: be48 64be 7d1b b9bd f067 103d 1ed0 e83d
00000340: 00c7 92be dae4 7a3c c943 903d 40bb e63c
00000350: 9021 863b 27da ddbd 1776 273d 9621 2c3e
00000360: 3eb0 3abe 93b3 39be 0d57 483d 060f 823d
00000370: ad0c 28bd a511 53bb da79 333e 40de 093d
00000380: 3fb0 8a3c d70c 80bd d976 39bd 1c02 e53a
00000390: 2ea6 2d3e 9dae 92bd 21d3 40be efaa 923d
000003a0: 937d 373e 2387 243e 34a2 82bd 1290 fd3c
000003b0: 2516 26bd ec32 273e 5b4c 0fbe 02bc b8bc
000003c0: f978 13be 919c 623d 131e 453e 244d 19be
000003d0: d522 10be 813a 263b 55ac 1f3e 3bfd af3e
000003e0: efa3 bd3d 9e25 6a3d 4db5 a33e 4717 913b
000003f0: aa68 813d 374e 6a3d 459f 563e 3e8d cb3d

linear_layer.4.bias f4 [100]
-0.008577889 -0.03503457 0.06499922 -0.01909073 -0.13810015 -0.020339865 -0.038322054 0.012347526
0.0460771 0.030713676 0.015663678 -0.09383945 -0.02553335 0.017772347 -0.02946795 0.019887185
0.03498972 -0.027117003 -0.07259237 0.058554683 0.05559988 -0.027972978 0.0066021443 0.0062413216
0.014803593 0.030866498 -0.019748911 -0.007865298 -0.03728574 -0.045627423 0.028208314 0.016187916
-0.025303809 -0.037469037 0.048214093 -0.07441341 0.04565336 0.15420057 0.014386375 -0.041041072
-0.0015281901 0.021546159 0.0012442211 -0.009655858 -0.056195036 0.016329955 -0.033998698 -0.022126773
0.0010189065 -0.020002756 0.0015144441 -0.009697915 0.0025033318 0.020737106 0.008652492 -0.026034445
0.0030065328 0.003588727 -0.020451576 -0.0031508002 0.0012577408 0.07813857 0.009613045 -0.008707449
0.011676701 0.0049218256 0.0016258862 -0.019773105 0.044845916 -0.024685767 -0.06276844 -0.00976037
0.029068938 0.008129307 0.028933866 -0.038318697 -0.0035757371 0.027188499 0.043160245 0.0109558
0.058014706 -0.030731998 0.08128018 0.059959456 -0.056053985 -0.057587326 -0.008435348 -0.02003687
-0.010003603 0.0138075445 0.0060528624 0.010929482 -0.030387055 0.023336923 0.059769034 -0.028895853
0.0030898496 -0.02040253 -0.045136876 -0.018704223
00000000: 468a 0cbc 6980 0fbd 501e 853d 2a64 9cbc
00000010: 206a 0dbe ca9f a6bc 96f7 1cbd 474d 4a3c
00000020: 57bb 3c3d 3f9b fb3c 1d51 803c e62e c0bd
00000030: 512b d1bc 5097 913c c566 f1bc 73ea a23c
00000040: 6151 0f3d 7a24 debc 4fab 94bd 09d7 6f3d
00000050: b3bc 633d 9627 e5bc cd56 d83b 0084 cc3b
00000060: c58a 723c bddb fc3c 78c8 a1bc 73dd 00bc
00000070: efb8 18bd d2e3 3abd 1f15 e73c 859c 843c
00000080: ef49 cfbc 2279 19bd 247c 453d 0f66 98bd
00000090: 05ff 3a3d c1e6 1d3e d5b4 6b3c af1a 28bd
000000a0: 8d4d c8ba 9281 b03c 2215 a33a 9b33 1ebc
000000b0: c42c 66bd 66c6 853c 3842 0bbd 3543 b5bc
000000c0: d48c 853a d2dc a3bc 5080 c63a 01e4 1ebc
000000d0: f00e 243b dde0 a93c 2fc3 0d3c 3046 d5bc
000000e0: 4009 453b d930 6b3b 108a a7bc a87d 4ebb
000000f0: c7da a43a 1d07 a03d 0880 1d3c b0a9 0ebc
00000100: a24f 3f3c 4447 a13b b01b d53a 35fb a1bc
00000110: 5ab0 373d ce39 cabc bd8c 80bd f5e9 1fbc
00000120: fb21 ee3c c930 053c b706 ed3c 11f4 1cbd
00000130: ea56 6abb 6aba de3c ccc8 303d f57f 333c
00000140: d4a0 6d3d acc1 fbbc 3976 a63d 0c98 753d
00000150: dd98 65bd b0e0 6bbd 6a34 0abc 5d24 a4bc
00000160: 27e6 23bc 0a39 623c 1757 c63b 9211 333c
00000170: 46ee f8bc 132d bf3c 60d0 743d ffb6 ecbc
00000180: 137f 4a3b 3523 a7bc 72e1 38bd 9939 99bc

linear_layer.5.weight f4 [100, 100]
0.05618027 0.04683172 0.023696488 0.025746759 -0.027350787 -0.22089685 -0.1346833 -0.036429953
-0.061026882 0.072620764 0.054597877 -0.043003935 -0.114261754 -0.07897453 0.0147837205 0.07315098
-0.04914361 -0.055308368 0.067169055 -0.017435243 -0.19042622 0.09731002 0.030636314 0.02738414
-0.1283528 0.100408435 -0.04125869 -0.0072709774 0.0049718255 -0.17283827 0.0745029 0.039087337
0.09360237 -0.019655412 0.19504118 0.032715794 0.08812798 -0.2736817 0.072076336 0.21005774
-0.14122067 -0.14393544 -0.0057974174 0.08729439 -0.08207113 0.103410445 0.077367924 0.15140638
-0.24886452 -0.051231593 -0.16870852 -0.010880485 -0.020281004 0.0861744 0.004855474 0.008877796
0.14248346 -0.12709491 0.047309265 0.1352969 0.011309372 0.04584852 -0.1006743 0.21164565
-0.06833608 -0.1570912 -0.068583384 0.095911875 -0.062234294 -0.12342965 -0.14035298 0.12788434
0.032609448 0.08470121 -0.019394016 -0.11087126 -0.03950909 -0.026186928 0.07003412 0.14361176
-0.05061617 0.055064186 -0.049157087 -0.25652096 0.06863406 -0.20304853 0.22011574 0.07398888
-0.0059094294 -0.0067213606 -0.032226235 0.27009284 -0.011403587 -0.26860243 0.070469506 0.015921403
0.13058311 -0.13241085 -0.054446843 0.14444081 -0.08079969 0.060470816 -0.03245471 0.11043856
-0.057454634 0.07962368 0.1616769 0.041921023 -0.04346403 -0.1411153 -0.18064618 0.06458083
-0.08272493 -0.001846365 -0.050018147 -0.08810745 -0.0020698544 0.13359688 0.122054756 -0.18572025
-0.18535823 -0.04049527 0.031234827 0.11724425 0.09928839 0.09633128 0.08940038 0.008475802
0.09397068 0.083590694 -0.01776961 0.07307716 -0.04098867 0.015500115 -0.23691188 0.0993728
0.053787272 -0.13913944 -0.10514533 0.07730728 0.0024569603 -0.10325097 0.13247979 -0.10048058
0.16577399 -0.030142505 0.17886476 0.035339944 0.063265316 0.016112454 -0.0002982745 0.23001191
-0.08008445 0.024554534 -0.070820406 0.12787493 -0.117799446 0.16321802 0.20614918 0.09375954
-0.02517496 -0.13154216 0.0041624657 0.110585 0.07952786 -0.002926019 0.1748744 -0.03857132
-0.16447933 0.0660779 0.15280291 -0.07100171 0.0034663936 0.037968755 0.037653405 0.18465209
-0.06879118 -0.02571059 -0.010657915 -0.1119316 -0.12572922 7.5035685e-05 -0.09842531 -0.07068915
-0.10156406 0.16546336 -0.054222833 0.08019451 0.08384582 0.028237632 -0.17905976 0.0781999
0.07244244 -0.08733138 -0.012843635 0.010276181 -0.019572573 -0.08453661 0.041162927 -0.12643851
-0.08029854 0.033821713 -0.038181584 -0.1576343 -0.078631476 0.12469953 -0.09719822 -0.16675405
0.07452114 0.011568344 0.023972435 -0.13417347 0.008664489 0.03391275 0.12243934 -0.17479874
0.17360464 0.0018390237 0.026685638 -0.018558916 0.10845108 -0.080551974 -0.048864238 0.12959875
0.10942556 -0.08389558 -0.111691356 -0.017444333 -0.0132277785 0.17268397 0.17930347 -0.027766513
-0.0671476 0.10911705 0.11554192 -0.02272102 0.14679852 0.1812995 0.107902564 0.15148123
-0.0936869 -0.06347874 -0.12156455 0.08131738 -0.05437821 -0.0929007 0.14087108 -0.120611474
-0.07107027 0.11004461 0.08961388 -0.08572678 -0.13757782 0.021913927 -0.017453326 -0.10198302
00000000: 481d 663d 9ed2 3f3d 231f c23c deea d23c
00000010: c20e e0bc c932 62be 6bea 09be 9337 15bd
00000020: 53f7 79bd 32ba 943d 06a2 5f3d e524 30bd
00000030: 1102 eabd 66bd a1bd 6b37 723c 2ed0 953d
00000040: cf4a 49bd 078b 62bd ee8f 893d 5bd4 8ebc
00000050: 17ff 42be 7a4a c73d 02f9 fa3c b454 e03c
00000060: eb6e 03be f0a2 cd3d dffe 28bd 6141 eebb
00000070: b2ea a23b 84fc 30be fa94 983d 0b1a 203d
00000080: 99b2 bf3d 6304 a1bc e0b8 473e ff00 063d
00000090: 717c b43d 0220 8cbe c29c 933d 6019 573e
000000a0: 279c 10be d063 13be 43f8 bdbb 67c7 b23d
000000b0: e914 a8bd dbc8 d33d 1373 9e3d 460a 1b3e
000000c0: 57d6 7ebe 38d8 51bd edc1 2cbe 1044 32bc
000000d0: 5924 a6bc 347c b03d ab1a 9f3b 2d74 113c
000000e0: 2fe7 113e 2b25 02be 5cc7 413d 458b 0a3e
000000f0: f24a 393c a8cb 3b3d 542e cebd a3b9 583e
00000100: c9f3 8bbd 84dc 20be 7275 8cbd 726d c43d
00000110: 63e9 7ebd afc8 fcbd b1b8 0fbe 1df4 023e
00000120: 7c91 053d d477 ad3d 33e0 9ebc 7910 e3bd
00000130: 49d4 21bd f885 d6bc 0c6e 8f3d f60e 133e
00000140: e752 4fbd fc8a 613d f158 49bd b756 83be
00000150: 0490 8c3d f4eb 4fbe 0566 613e 7b87 973d
00000160: e3a3 c1bb dc3e dcbb a8ff 03bd 9c49 8a3e
00000170: 1cd6 3abc 4286 89be 5152 903d 9a6d 823c
00000180: 94b7 053e b696 07be a703 5fbd 4be8 133e
00000190: 4f7a a5bd 3fb0 773d 3bef 04bd 9d2d e23d
000001a0: 8d55 6bbd bd11 a33d a18e 253e 61b5 2b3d
000001b0: 5707 32bd 8780 10be 50fb 38be f442 843d
000001c0: b06b a9bd bb01 f2ba d4df 4cbd ae71 b4bd
000001d0: 65a6 07bb 9fcd 083e d8f7 f93d 732d 3ebe
000001e0: 8cce 3dbe 5ede 25bd 2ee0 ff3c c11d f03d
000001f0: b657 cb3d 5649 c53d 8c17 b73d 17de 0a3c
00000200: b373 c03d 9931 ab3d 9391 91bc 7aa9 953d
00000210: bce3 27bd 32f4 7d3c 0799 72be f783 cb3d
00000220: 0b50 5c3d 927a 0ebe 6f56 d7bd 4753 9e3d
00000230: f404 213b 3f75 d3bd c8a8 073e c3c8 cdbd
00000240: a8c0 293e 6aed f6bc 5328 373e 9ec0 103d
00000250: 3f91 813d 44fe 833c ba61 9cb9 3e88 6b3e
00000260: 5103 a4bd 9726 c93c 4a0a 91bd a5f1 023e
00000270: d640 f1bd a022 273e c518 533e 0005 c03d
00000280: b83b cebc fdb2 06be 4b65 883b 637a e23d
00000290: 81df a23d 74c2 3fbb 4612 333e f6fc 1dbd
000002a0: 456d 28be da53 873d 5e78 1c3e 5869 91bd
000002b0: 6f2c 633b 2085 1b3d 753a 1a3d 7015 3d3e
000002c0: 64e2 8cbd 049f d2bc 899e 2ebc 653c e5bd
000002d0: 29bf 00be 7a5c 9d38 3593 c9bd 79c5 90bd
000002e0: d100 d0bd 3a6f 293e c318 5ebd 053d a43d
000002f0: 5bb7 ab3d 9b52 e73c 715b 37be 4527 a03d
00000300: b45c 943d cbda b2bd 1c6e 52bc 6d5d 283c
00000310: a956 a0bc 8821 adbd 759a 283d 1979 01be
00000320: 9073 a4bd a388 0a3d 4b64 1cbd e36a 21be
00000330: 8a09 a1bd 7862 ff3d dc0f c7bd 93c1 2abe
00000340: 8a9e 983d 2789 3d3c d761 c43c c564 09be
00000350: 80f5 0d3c 19e8 0a3d 7ac1 fa3d 71fe 32be
00000360: 6ac5 313e 650b f13a d79b da3c de08 98bc
00000370: 9a1b de3d 6ff8 a4bd de25 48bd 89b5 043e
00000380: 821a e03d 72d1 abbd 70be e4bd 6be7 8ebc
00000390: 53b9 58bc 11d4 303e 549b 373e 9976 e3bc
000003a0: ae84 89bd c378 df3d 3ea1 ec3d 6f21 babc
000003b0: 5a52 163e 93a6 393e 05fc dc3d e51d 1b3e
000003c0: ebde bfbd 2401 82bd d6f6 f8bd ba89 a63d
000003d0: b0bb 5ebd b942 bebd 8240 103e 2603 f7bd
000003e0: 4a8d 91bd 125f e13d 7b87 b73d 8691 afbd
000003f0: 33e1 0cbe d684 b33c 47fa 8ebc 79dc d0bd
