ac_2d_model_para_5/checkpoint_2050.pth (torch, 291152 bytes, 17 tensors)

linear_layer.0.weight f4 [100, 3]
0.22629957 0.15843791 -0.19207533 0.013429697 -0.071645275 0.11150173 0.04954263 -0.061880235
-0.28389764 0.2867461 -0.035090744 0.21381661 -0.16762102 -0.15344273 -0.3662582 -0.07176642
-0.1994295 -0.13464989 -0.105543576 0.13464542 -0.12258608 -0.07755736 -0.04416467 -0.3323696
0.5334764 0.049427588 0.019360483 -0.16573328 -0.18731375 -0.07442009 0.03721421 -0.2056294
0.13278228 -0.114194825 0.06522565 -0.23702922 0.4490331 -0.004381808 -0.1141096 0.30148238
-0.00946348 0.25063384 0.20116383 0.15719946 0.18505225 -0.18675628 -0.19493406 0.027782016
0.32170963 0.021743018 -0.2888824 -0.21440756 -0.14930014 -0.15491816 -0.31603307 -0.017419202
0.09609461 0.15636395 0.16120881 -0.23691213 0.08684158 -0.201009 0.08043448 0.4419728
-0.08503603 0.07741172 -0.2783743 -0.15395619 0.02338141 0.16007216 0.024641996 -0.48043463
0.2426824 0.03405424 0.3061335 0.18562134 0.08261027 0.0042908364 -0.31885904 -0.21548173
-0.084980994 0.05566114 0.2677957 0.055189073 0.21233132 -0.21110725 0.053004097 0.1078472
-0.018826539 -0.10370571 -0.046903726 -0.16129735 -0.13971494 0.44280204 0.016348617 0.32704225
0.1006765 -0.2247904 0.13225776 -0.41379353 0.016959293 -0.10513204 0.0662532 -0.0972358
-0.28927955 0.12996374 -0.14372726 0.2078879 -0.16089454 0.2678124 0.019805366 0.29007515
0.14652108 0.06180939 -0.031782012 -0.09116585 -0.40070996 -0.14696726 -0.027761912 -0.15175435
0.08963885 0.09465771 -0.12884909 -0.2088023 -0.010639831 0.13383646 -0.2381633 0.17147227
-0.12803203 0.15392494 -0.06638587 0.25423154 -0.15930909 0.19935097 0.12851448 -0.07798193
-0.11169564 0.14821987 -0.46340108 0.15711889 -0.28124386 0.43301624 0.0011799277 -0.12614314
0.094071686 0.09457317 0.09419731 0.40273222 -0.10317051 -0.11621257 0.25915232 0.11209194
-0.121579766 0.21064608 -0.055337798 -0.1495446 -0.108795576 0.254253 0.09527984 0.018527936
0.056532886 0.25924385 0.1272865 0.08543278 0.0054566874 0.352995 -0.07306245 0.10831893
0.55645615 0.014784541 -0.012543713 0.34803152 -0.11933057 -0.25531033 0.35924622 0.0083240215
-0.14342305 -0.058050822 -0.17129333 0.271135 -0.1468318 0.11798231 -0.0067092306 0.012712074
0.28263384 0.02452098 0.32906467 -0.1504835 -0.06111052 0.001364733 0.11793683 -0.19964102
0.42173666 -0.15360229 0.07162172 0.029549265 0.104008876 0.32321817 0.15593146 -0.027883813
-0.3718553 -0.51100546 -0.027746055 0.105813175 0.39403632 -0.11835259 0.016629934 -0.09976933
0.10383048 0.025284436 -0.29914966 0.015534846 -0.036356974 0.12003042 0.1544772 0.08887692
-0.08949106 0.266346 -0.09871161 0.11326656 0.15226388 -0.21796146 0.50005597 0.032121606
-0.081673294 -0.029650122 0.35122606 0.14672853 -0.17068411 -0.4117358 0.2530238 -0.37832397
-0.09631006 -0.17504749 -0.025612025 0.21715981 -0.008113923 0.028681507 -0.19763619 0.05280978
0.14769273 -0.056218896 -0.03851559 -0.1500965 -0.20302153 -0.07956351 -0.2566575 0.16132508
0.08536253 0.18264998 -0.1115716 0.4791611 0.2763967 -0.033821 -0.26835102 0.21279395
00000000: 13bb 673e 8c3d 223e 65af 44be 3b08 5c3c
00000010: c2ba 92bd 055b e43d 36ed 4a3d 2176 7dbd
00000020: 085b 91be 63d0 923e 50bb 0fbd bef2 5a3e
00000030: d8a4 2bbe 1720 1dbe 3286 bbbe 46fa 92bd
00000040: 3f37 4cbe a9e1 09be 3b27 d8bd 7de0 093e
00000050: 690e fbbd 65d6 9ebd 03e6 34bd 592c aabe
00000060: e991 083f 9574 4a3d e099 9e3c fcb5 29be
00000070: 2dcf 3fbe 8f69 98bd ed6d 183d 8390 52be
00000080: 14f8 073e fade e9bd 0795 853d cab7 72be
00000090: abe7 e53e 4595 8fbb 4bb2 e9bd e65b 9a3e
000000a0: b60c 1bbc 1453 803e e4fd 4d3e e5f8 203e
000000b0: 567e 3d3e 0a3d 3fbe cb9c 47be 1c97 e33c
000000c0: 20b7 a43e 6a1e b23c 65e8 93be a88d 5bbe
000000d0: 23e2 18be dea2 1ebe 16cf a1be b7b2 8ebc
000000e0: 40cd c43d df1d 203e ec13 253e 1899 72be
000000f0: 00da b13d 4ed5 4dbe d5ba a43d 424a e23e
00000100: 5f27 aebd 098a 9e3d 1487 8ebe b1a6 1dbe
00000110: 5f8a bf3c f5e9 233e 03de c93c 87fb f5be
00000120: bc81 783e 757c 0b3d 88bd 9c3e 8513 3e3e
00000130: 932f a93d 259a 8c3b 7e41 a3be 3ea7 5cbe
00000140: 840a aebd effc 633d 851c 893e f00d 623d
00000150: 626d 593e 802c 58be d31a 593d fede dc3d
00000160: 1d3a 9abc a963 d4bd 1f1e 40bd 222b 25be
00000170: 6f11 0fbe f3b6 e23e 89ed 853c 1572 a73e
00000180: 7b2f ce3d 742f 66be 946e 073e bfdc d3be
00000190: 37ee 8a3c 784f d7bd c2af 873d 9023 c7bd
000001a0: 731c 94be 3715 053e 3d2d 13be 91e0 543e
000001b0: 8ac1 24be b51e 893e dd3e a23c bb84 943e
000001c0: 9f09 163e d82b 7d3d db2d 02bd 29b5 babd
000001d0: db29 cdbe 967e 16be f36c e3bc 7e65 1bbe
000001e0: 9394 b73d e7db c13d 04f1 03be 45d0 55be
000001f0: b052 2ebc 6d0c 093e 15e1 73be 6d96 2f3e
00000200: d41a 03be 809e 1d3e 51f5 87bd a32a 823e
00000210: ec21 23be a922 4c3e 4d99 033e fdb4 9fbd
00000220: afc0 e4bd f3c6 173e e842 edbe c6e3 203e
00000230: 32ff 8fbe 4eb4 dd3e cea7 9a3a ab2b 01be
00000240: a8a8 c03d 94af c13d 85ea c03d eb32 ce3e
00000250: 0f4b d3bd db00 eebd 9daf 843e 7690 e53d
00000260: d0fe f8bd 9bb3 573e e3a9 62bd 3822 19be
00000270: 37d0 debd 732d 823e 1422 c33d e6c7 973c
00000280: 078f 673d 9cbb 843e 6457 023e 62f7 ae3d
00000290: 03ce b23b c3bb b43e c4a1 95bd 51d6 dd3d
000002a0: e973 0e3f dc3a 723c 2584 4dbc 3031 b23e
000002b0: 9663 f4bd 09b8 82be 1fef b73e 7a61 083c
000002c0: 7edd 12be b3c6 6dbd 8567 2fbe 35d2 8a3e
000002d0: 135b 16be b6a0 f13d 1bd9 dbbb 4e46 503c
000002e0: 62b5 903e 39e0 c83c 2a7b a83e 5918 1abe
000002f0: 064f 7abd d7e0 b23a dd88 f13d b26e 4cbe
00000300: deed d73e eb49 1dbe 69ae 923d 4d11 f23c
00000310: 9b02 d53d da7c a53e 7fac 1f3e 986c e4bc
00000320: d163 bebe 41d1 02bf b24b e3bc 94b4 d83d
00000330: 21bf c93e d862 f2bd 803b 883c dd53 ccbd
00000340: 13a5 d43d 4e21 cf3c 252a 99be de85 7e3c
00000350: 0deb 14bd 82d2 f53d 452f 1e3e 1a05 b63d
00000360: 1747 b7bd 815e 883e 5029 cabd 4cf8 e73d
00000370: 10eb 1b3e 4a31 5fbe ab03 003f f291 033d
00000380: 5444 a7bd d0e4 f2bc e7d3 b33e 0140 163e
00000390: d1c7 2ebe 09cf d2be 568c 813e aeb3 c1be
000003a0: 353e c5bd a63f 33be 4fd0 d1bc 245f 5e3e
000003b0: 42f0 04bc 7bf5 ea3c 2461 4abe 114f 583d
000003c0: c33c 173e c945 66bd 86c2 1dbd e6b2 19be
000003d0: e0e4 4fbe 32f2 a2bd 9d68 83be 6732 253e
000003e0: 8dd2 ae3d 9908 3b3e a77f e4bd 9b54 f53e
000003f0: de83 8d3e e487 0abd 4e65 89be a8e6 593e

linear_layer.0.bias f4 [100]
-0.021372575 -0.07265854 0.19806899 -0.040914718 0.019655246 -0.034060694 0.08381424 0.13920097
-0.1963353 0.055293623 0.057794426 -0.13540922 0.2115895 0.23432355 0.06283308 0.0011394228
-0.14436917 0.019253874 -0.031527087 -0.004725638 -0.12846449 -0.07372428 -0.046204552 0.025889512
0.046486706 0.17296718 0.11274114 -0.036158096 0.056177255 -0.12414648 -0.07396524 -0.014214769
0.13830957 -0.10883317 -0.08357344 0.071742676 -0.026539177 -0.1939404 0.15949991 0.18545923
0.09458982 -0.059812196 0.07502988 -0.3066528 0.021939132 -0.13061807 -0.13216741 0.023622144
-0.096435785 -0.1980929 0.28694883 0.08736447 -0.0005173127 -0.24960601 0.107199356 0.12469366
0.031377614 -0.009002992 -0.0070095635 0.010954768 -0.11782772 -0.018330753 0.005024667 0.17434803
-0.14262152 0.08943723 -0.23486269 0.0011622208 -0.089392476 0.102467224 0.18908389 -0.09484097
-0.10362039 0.22429392 -0.017580342 0.031744827 0.021464627 0.08151725 -0.12529962 -0.030886855
0.15506034 0.13304853 -0.054139417 0.015466538 0.033890877 0.05772651 0.1314222 0.15796703
-0.1113078 -0.10452072 -0.13913271 -0.2017016 -0.07298216 0.13578993 -0.039204083 0.04047353
0.26959044 0.06622965 -0.077777766 0.058212735
00000000: 8a15 afbc 00ce 94bd 99d2 4a3e 3196 27bd
00000010: 0a04 a13c 3a83 0bbd cda6 ab3d b38a 0e3e
00000020: 1f0c 49be 917b 623d d9b9 6c3d b7a8 0abe
00000030: ebaa 583e 83f2 6f3e a1ae 803d af58 953a
00000040: 83d5 13be 4dba 9d3c 8c22 01bd 86d9 9abb
00000050: 328c 03be c1fc 96bd fc40 3dbd 3e16 d43c
00000060: d868 3e3d 4f1e 313e d4e4 e63d 831a 14bd
00000070: 1f1a 663d 8240 febd 167b 97bd 10e5 68bc
00000080: 06a1 0d3e ede3 debd 8d28 abbd d3ed 923d
00000090: b068 d9bc 5098 46be f253 233e 06e9 3d3e
000000a0: 4fb8 c13d a2fd 74bd 44a9 993d 9901 9dbe
000000b0: b2b9 b33c bec0 05be e556 07be 3a83 c13c
000000c0: 2080 c5bd ddd8 4abe f5ea 923e 25ec b23d
000000d0: 459c 07ba b898 7fbe 568b db3d 645f ff3d
000000e0: d085 003d 4981 13bc 7bb0 e5bb a17b 333c
000000f0: a94f f1bd 602a 96bc f6a5 a43b 4a88 323e
00000100: 600b 12be de2a b73d d87f 70be a955 983a
00000110: 6713 b7bd 56da d13d 359f 413e fc3b c2bd
00000120: ed36 d4bd 4ead 653e a604 90bc dd06 023d
00000130: 96d6 af3c 84f2 a63d 8b4e 00be 6e06 fdbc
00000140: 23c8 1e3e e03d 083e 4bc1 5dbd 5d67 7d3c
00000150: 29d1 0a3d a272 6c3d 8b93 063e 1cc2 213e
00000160: 58f5 e3bd f60e d6bd ce78 0ebe dd8a 4ebe
00000170: ac77 95bd 840c 0b3e 7694 20bd 92c7 253d
00000180: c207 8a3e 69a3 873d f349 9fbd 7a70 6e3d

linear_layer.1.weight f4 [100, 100]
0.05593748 0.15154132 -0.065590255 -0.023616914 -0.015082767 0.004642781 0.0997328 0.057033025
0.14773907 -0.15130618 -0.07914377 0.010910777 -0.2468633 -0.07631926 0.06596922 0.06830448
-0.22111848 -0.15325394 0.21354079 0.0025886772 -0.09019956 0.10974779 0.035233706 0.15056267
-0.06993363 0.0034359926 -0.08530058 -0.0137594165 -0.23614714 -0.08913222 -0.012709628 -0.0061147846
-0.042347718 0.23101315 -0.08247204 -0.0633621 -0.09131135 -0.011683321 0.1294434 -0.14313033
0.050880924 0.16477007 -0.13888977 -0.05539447 0.0018200935 -0.033393778 0.056838106 0.023297166
0.0018883031 0.12315226 -0.013981118 -0.28466234 0.11569665 0.09370054 -0.03423416 -0.21829191
-0.14657879 -0.07662776 0.14862633 0.17004202 0.0137431305 0.06339995 -0.010696396 -0.16087191
-0.023698468 0.18192272 -0.012120367 0.057678074 0.02410118 -0.08883479 0.010297565 0.09847741
-0.072780654 0.041210886 -0.25170615 0.029644996 -0.038758785 0.009110835 -0.17484078 -0.1171082
-0.033426423 -0.012683116 -0.025306342 -0.09982993 0.0586943 0.1257363 -0.02970864 -0.07714613
0.093693875 0.1226167 -0.006188021 0.13369833 -0.08789944 -0.06458757 -0.00798056 -0.10620425
-0.06325171 -0.019400373 -0.13030687 -0.078705505 0.048074175 0.21740519 -0.021342874 0.06100774
-0.05444074 -0.16816363 0.13440074 -0.27697772 -0.050092973 -0.07098726 -0.06640944 0.03839032
0.108615935 0.11990883 0.15937626 -0.14909452 -0.042741925 -0.28569084 0.013360365 0.18918762
-0.11273247 -0.02314595 0.029613605 0.11887631 0.18905097 0.080380306 -0.09104555 0.11976898
-0.12294825 -0.08126335 -0.069056965 -0.10223242 0.17481641 -0.11317787 -0.108117506 0.0362651
0.18844995 0.017665934 -0.023823796 -0.082611874 0.20234928 -0.0991485 0.12591669 -0.18324065
0.20060386 -0.2304367 -0.27038503 -0.06668923 0.0378884 -0.094724126 -0.015401197 -0.034152627
0.08746506 -0.1710903 -0.0409651 0.096207075 0.025567366 -0.07578695 -0.12058739 -0.042050432
0.13347812 -0.08906342 -0.02036644 0.058353797 -0.14016047 0.14893651 -0.037928868 -0.18262905
-0.3749598 0.2340142 -0.017929874 0.07823555 0.04623186 0.13584103 0.111619264 0.18679579
0.007908912 -0.0038217055 -0.11162597 0.048983343 0.20378578 -0.2042846 -0.04057625 0.08140058
0.015181535 -0.078251496 0.03251294 0.039162718 0.01315436 -0.1349199 0.08126878 -0.12866867
0.027381873 -0.09531595 0.122168586 -0.13156576 0.16090518 0.14095107 -0.11705377 0.19972582
-0.11185961 -0.050173353 0.10362387 -0.0661263 -0.12921521 0.04761519 -0.032505248 0.14964396
-0.19241661 -0.027746966 0.08507873 0.036710985 -0.1054872 0.009694545 0.029411005 -0.02998286
-0.019645007 0.124571204 -0.1602248 -0.16796146 0.07533979 0.075282596 0.038002186 -0.13670944
-0.15920317 -0.16704175 0.045387827 0.077086754 -0.040142942 0.09892848 -0.12661836 -0.076019526
0.032645367 0.009692778 0.016180405 0.006839122 -0.102964 -0.084926635 -0.0671738 0.017077835
0.22942847 0.20330575 -0.021148855 0.13777725 -0.12444694 0.1457207 0.112900466 -0.13767882
-0.06812877 -0.092661485 0.048333548 0.0059590368 -0.046045534 -0.062426012 -0.14775091 -0.033486843
00000000: b31e 653d a62d 1b3e 2f54 86bd 4278 c1bc
00000010: b61d 77bc 7822 983b b640 cc3d 769b 693d
00000020: e948 173e 02f0 1abe 2116 a2bd 1ec3 323c
00000030: bcc9 7cbe 464d 9cbd df1a 873d 38e3 8b3d
00000040: e26c 62be 9aee 1cbe 70aa 5a3e cca6 293b
00000050: 8cba b8bd 73c3 e03d 3851 103d 1a2d 1a3e
00000060: 5d39 8fbd 642e 613b 12b2 aebd 2d6f 61bc
00000070: 8ed0 71be f48a b6bd 0b3c 50bc 885e c8bb
00000080: cd74 2dbd b68e 6c3e 1ae7 a8bd fdc3 81bd
00000090: 7201 bbbd 666b 3fbc d08c 043e c290 12be
000000a0: 8468 503d 7cb9 283e 1f39 0ebe 50e5 62bd
000000b0: 3490 ee3a eac7 08bd 13cf 683d b3d9 be3c
000000c0: f080 f73a 4137 fc3d 0f11 65bc 43bf 91be
000000d0: 5ef2 ec3d 12e6 bf3d 1e39 0cbd ea87 5fbe
000000e0: c018 16be 04ef 9cbd 8031 183e 7f1f 2e3e
000000f0: de2a 613c d5d7 813d f03f 2fbc 9bbb 24be
00000100: 4a23 c2bc f349 3a3e 8194 46bc d83f 6c3d
00000110: d66f c53c 04ef b5bd 1eb7 283c 86ae c93d
00000120: 060e 95bd bfcc 283d a1df 80be 10da f23c
00000130: 88c1 1ebd 9d45 153c 7609 33be 6dd6 efbd
00000140: 25ea 08bd d8cc 4fbc 3f4f cfbc a273 ccbd
00000150: 6f69 703d 04c1 003e 895f f3bc cafe 9dbd
00000160: 93e2 bf3d 771e fb3d e2c4 cabb 37e8 083e
00000170: 9f04 b4bd 7d46 84bd e5c0 02bc 9d81 d9bd
00000180: 1d8a 81bd 88ed 9ebc 2a6f 05be 5a30 a1bd
00000190: 6de9 443d 779f 5e3e 40d7 aebc 41e3 793d
000001a0: 41fd 5ebd 1633 2cbe 59a0 093e 06d0 8dbe
000001b0: 4a2e 4dbd c561 91bd ac01 88bd 2b3f 1d3d
000001c0: 0872 de3d c392 f53d 8833 233e 3cac 18be
000001d0: 2812 2fbd 1246 92be 6fe5 5a3c 66ba 413e
000001e0: 48e0 e6bd 939c bdbc 3b98 f23c 6c75 f33d
000001f0: 9496 413e 6e9e a43d 1776 babd 7049 f53d
00000200: 4bcc fbbd 666d a6bd bd6d 8dbd 3b5f d1bd
00000210: 1303 333e cdc9 e7bd b66c ddbd b78a 143d
00000220: 06f9 403e 26b8 903c 1f2a c3bc 6a30 a9bd
00000230: a634 4f3e 5e0e cbbd 4ef0 003e 70a3 3bbe
00000240: 196b 4d3e 99f7 6bbe e86f 8abe 5d94 88bd
00000250: de30 1b3d b9fe c1bd 4d55 7cbc a0e3 0bbd
00000260: e220 b33d 4c32 2fbe 05cb 27bd 3708 c53d
00000270: a772 d13c 3036 9bbd 86f6 f6bd 133d 2cbd
00000280: 7dae 083e e266 b6bd 85d7 a6bc 6404 6f3d
00000290: 3a86 0fbe d082 183e 4d5b 1bbd 1c03 3bbe
000002a0: bbfa bfbe 6ba1 6f3e ace1 92bc f639 a03d
000002b0: 9e5d 3d3d e919 0b3e a498 e43d 6547 3f3e
000002c0: 6294 013c 9475 7abb 289c e4bd c2a2 483d
000002d0: 38ad 503e fb2f 51be 4833 26bd 59b5 a63d
000002e0: f9bb 783c 5242 a0bd 4a2c 053d 1669 203d
000002f0: 6285 573c 7128 0abe 3f70 a63d b8c1 03be
00000300: f34f e03c 0235 c3bd 8633 fa3d 2db9 06be
00000310: 54c4 243e 7a55 103e e3b9 efbd ed84 4c3e
00000320: a716 e5bd 9382 4dbd c038 d43d 3a6d 87bd
00000330: fe50 04be 2508 433d 3924 05bd 443c 193e
00000340: dc08 45be 9b4d e3bc c23d ae3d 425e 163d
00000350: ac09 d8bd ded5 1e3c 59ef f03c 9d9e f5bc
00000360: 91ee a0bc 301f ff3d f811 24be 17fe 2bbe
00000370: bf4b 9a3d c32d 9a3d 2ea8 1b3d 8ffd 0bbe
00000380: 2806 23be fe0c 2bbe 96e8 393d a9df 9d3d
00000390: ed6c 24bd 049b ca3d 3ea8 01be 20b0 9bbd
000003a0: 26b7 053d 75ce 1e3c c58c 843c b71a e03b
000003b0: cade d2bd 04ee adbd 6b92 89bd d1e6 8b3c
000003c0: 4cef 6a3e 622f 503e 5d40 adbc 7b15 0d3e
000003d0: 0ade febd cf37 153e 5c38 e73d adfb 0cbe
000003e0: 1987 8bbd 4ec5 bdbd 66f9 453d 0644 c33b
000003f0: 3e9a 3cbd 6bb2 7fbd 044c 17be 8029 09bd

linear_layer.1.bias f4 [100]
-0.08265365 0.08277395 -0.024474476 0.18791725 -0.0225825 -0.06430809 -0.11422493 0.13174717
-0.10977066 0.083046004 -0.08368845 -0.021342035 0.13746198 0.09555894 -0.07089698 -0.07651221
0.003443465 0.12658629 0.021706173 -0.058598228 -0.052337203 0.044555645 -0.03060874 0.08951473
0.14094721 0.03335844 0.15245591 -0.05404765 -0.09352083 -0.06151162 -0.22859439 0.123474374
0.0039358595 -0.09428251 -0.07230382 0.08020865 0.13091901 -0.14729509 0.01044807 -0.019643055
-0.112065636 -0.1335418 0.03235813 0.15976489 -0.07011215 0.010373317 0.0018736555 -0.13927574
0.0721266 -0.107654005 -0.051514156 -0.00581565 -0.004646193 -0.117333375 0.009890751 0.022471244
0.13973804 -0.09064949 -0.0027913547 0.03097993 -0.13685636 -0.0061023217 0.03572305 0.16830243
0.04108782 0.037159488 -0.11272995 0.021748582 0.0037783121 -0.17182507 -0.095523395 0.0068266066
-0.043932457 -0.038721174 0.081094824 0.010006821 0.080950044 -0.13346294 0.059062425 -0.05142875
-0.13827273 -0.071244486 0.03461376 -0.028431408 0.09646212 0.027978871 -0.008712401 0.059531935
0.16236103 -0.03364917 -0.08770382 -0.19075434 0.09626697 0.02731853 0.05174526 0.036741585
0.06585811 -0.009013752 -0.0108430665 0.09196795
00000000: 5146 a9bd 6485 a93d b27e c8bc 616d 403e
00000010: effe b8bc f6b3 83bd c3ee e9bd bbe8 063e
00000020: 71cf e0bd 0614 aa3d da64 abbd 7ed5 aebc
00000030: d5c2 0c3e 68b4 c33d 7032 91bd 6fb2 9cbd
00000040: c2ab 613b d69f 013e 25d1 b13c b204 70bd
00000050: 895f 56bd fb7f 363d 2ebf fabc 8053 b73d
00000060: 7754 103e dca2 083d 671d 1c3e 1261 5dbd
00000070: d987 bfbd 9cf3 7bbd a614 6abe 22e0 fc3d
00000080: 62f8 803b 3017 c1bd 0614 94bd 6f44 a43d
00000090: a20f 063e 86d4 16be 622e 2b3c 79ea a0bc
000000a0: ab82 e5bd 2ebf 08be f589 043d 6899 233e
000000b0: f596 8fbd d8f4 293c 7295 f53a 4d9e 0ebe
000000c0: 1cb7 933d b479 dcbd 8200 53bd 3591 bebb
000000d0: 173f 98bb 7b4c f0bd d10c 223c 9d15 b83c
000000e0: 7d17 0f3e 71a6 b9bd 29ef 36bb 9fc9 fd3c
000000f0: 1324 0cbe fcf5 c7bb 5552 123d 7957 2c3e
00000100: b44b 283d 8c34 183d f6de e6bd 152a b23c
00000110: 8f9d 773b e9f2 2fbe c5a1 c3bd bab1 df3b
00000120: 85f2 33bd 189a 1ebd 0b15 a63d a6f3 233c
00000130: 23c9 a53d 82aa 08be 71eb 713d f4a6 52bd
00000140: 5e97 0dbe a1e8 91bd 28c7 0d3d fce8 e8bc
00000150: ef8d c53d f233 e53c 75be 0ebc c2d7 733d
00000160: f841 263e b6d3 09bd 0f9e b3bd 1b55 43be
00000170: 9e27 c53d 1ccb df3c d6f2 533d 587e 163d
00000180: 9ee0 863d 6bae 13bc 1ea7 31bc b159 bc3d

linear_layer.2.weight f4 [100, 100]
-0.052556198 0.028055975 0.065768585 -0.25662854 0.09385893 -0.040166847 0.06106755 -0.0893853
0.09695186 -0.056383353 -0.042580068 0.037347768 -0.06472041 -0.09386173 0.026620096 -0.13609594
0.046908043 -0.08812256 -0.0349257 0.12897663 0.027507758 0.04783864 -0.06230742 -0.07441043
-0.12908079 0.0016443616 -0.22461869 -0.016636617 0.028045049 -0.00081146456 0.051501434 -0.058264833
0.01576673 0.005687436 0.07062124 -0.009090048 -0.026263118 0.30202985 0.029821184 -0.06786888
0.14190446 0.16707315 0.076948166 0.008665293 0.12254475 -0.015388768 0.115606785 0.049052298
-0.16152997 0.11959311 0.012706901 0.06265568 -0.13421556 0.0429346 -0.114259206 -0.032902844
-0.33574152 0.05627848 0.09059029 0.01237525 -0.033257473 0.0041737733 -0.025754465 -0.024838487
0.033608016 0.12561361 0.062174432 -0.056463074 0.08924292 0.028471105 0.24284154 0.25519514
0.017698677 -0.12636 -0.20139004 0.028193008 -0.037538663 -0.0150263375 -0.07682416 0.10266063
-0.085903704 0.05445206 -0.011818518 0.107554466 0.23334962 -0.13285013 0.16300684 -0.2713033
-0.078298055 -0.11464821 0.05150017 0.1437575 0.0020105366 -0.11797108 -0.030374192 -0.02960529
-0.068281606 0.019109877 0.011154226 0.0539872 -0.014618106 0.018181575 -0.047662914 -0.33711553
0.0025323513 0.07499426 0.08383387 -0.26516768 0.051633567 -0.14663199 0.11481604 -0.12776949
-0.08143874 -0.29880303 -0.08884978 0.036806136 -0.0051245717 -0.111899264 0.08140196 0.059842248
0.11250944 0.13871871 -0.011533805 -0.076938 0.043141298 0.053681348 -0.26861936 0.09290571
0.09872536 0.013269899 0.12217158 -0.2242506 0.2723388 0.10617359 -0.043261614 -0.082439475
-0.0032759304 0.08776072 0.23242623 -0.00034100193 0.19006296 -0.0052042697 0.14710869 0.0148258
0.1283593 0.1790421 -0.17441487 0.06022616 -0.22913174 0.07976468 -0.024182927 -0.16436376
0.08668677 0.08370134 0.22172546 0.15334013 -0.08943294 0.017240712 -0.061775863 -0.07420052
0.049367048 0.14829941 0.18833654 -0.031931352 -0.2489256 -0.06203985 0.009763697 0.017205773
0.0045502004 0.042474583 -0.014140868 0.070813954 0.018808426 -0.1245959 -0.0029462609 -0.08016902
-0.004652385 0.12922028 0.005302015 0.095388986 0.02012488 -0.08489927 -0.12973309 -0.1516886
-0.04540317 0.13213192 0.057202663 -0.12337481 -0.029546035 -0.06464771 0.052019566 0.10531454
0.047669202 -0.13619992 -0.013441718 -0.09710438 0.05205601 0.040577307 0.017787598 -0.050779294
-0.025292464 -0.09344444 -0.033016 0.054236982 0.15563512 -0.08409218 0.07836972 0.032718595
-0.05849002 0.20024198 -0.16217412 -0.13088879 -0.09856237 -0.16655698 -0.037942685 0.06484512
0.18298547 0.09911152 -0.16349728 -0.0078012235 -0.13214791 0.11903023 -0.25292224 0.07897016
-0.10759059 -0.08195927 0.11357416 0.017347686 -0.15599407 0.05889521 -0.13680092 0.09547002
-0.082306005 0.035231657 -0.047472585 0.1261228 -0.06588963 -0.17987388 -0.00920907 0.06879662
-0.14426537 0.012590272 -0.115727484 0.0026951535 0.012921515 -0.088671826 -0.007232676 0.0098419795
-0.026292833 -0.03728481 -0.13847867 0.05981421 -0.10906955 0.033468187 0.021908728 0.018365968
00000000: 2b45 57bd a5d5 e53c aeb1 863d d164 83be
00000010: 1c39 c03d fe85 24bd f821 7a3d a40f b7bd
00000020: b28e c63d 3bf2 66bd 7068 2ebd f9f9 183d
00000030: 228c 84bd 943a c0bd 6312 da3c bc5c 0bbe
00000040: a622 403d 9a79 b4bd 400e 0fbd 7312 043e
00000050: f357 e13c 73f2 433d 1136 7fbd 7f64 98bd
00000060: c12d 04be 9f87 d73a 7102 66be 8449 88bc
00000070: bbbe e53c 77b8 54ba 2bf3 523d 1ba7 6ebd
00000080: 3b29 813c ac5d ba3b dea1 903d 6dee 14bc
00000090: c025 d7bc a8a3 9a3e 8e4b f43c d7fe 8abd
000000a0: 674f 113e 3915 2b3e 0097 9d3d e0f8 0d3c
000000b0: bef8 fa3d 2c21 7cbc 40c3 ec3d 10eb 483d
000000c0: 1d68 25be 3ced f43d 9b30 503c 9f51 803d
000000d0: ce6f 09be 31dc 2f3d bb00 eabd 22c5 06bd
000000e0: 50e6 abbe 4384 663d 6787 b93d 90c1 4a3c
000000f0: fd38 08bd 26c4 883b 07fb d2bc 157a cbbc
00000100: 8fa8 093d dba0 003e 9eaa 7e3d d345 67bd
00000110: fec4 b63d 3c3c e93c 74ab 783e f0a8 823e
00000120: d1fc 903c 8464 01be 3139 4ebe 06f5 e63c
00000130: 24c2 19bd 0731 76bc fc55 9dbd bd3f d23d
00000140: 48ee afbd 2009 5f3d 75a2 41bc 8445 dc3d
00000150: 34f3 6e3e dd09 08be 44eb 263e 44e8 8abe
00000160: bb5a a0bd aecc eabd d8f1 523d 2b35 133e
00000170: 35c3 033b d29a f1bd 4cd3 f8bc cb86 f2bc
00000180: 3ad7 8bbd 518c 9c3c 37c0 363c af21 5d3d
00000190: c880 6fbc 87f1 943c 303a 43bd 689a acbe
000001a0: cef5 253b 9796 993d 18b1 ab3d 0fc4 87be
000001b0: b87d 533d b226 16be ac24 eb3d 01d6 02be
000001c0: 5bc9 a6bd b6fc 98be e0f6 b5bd 08c2 163d
000001d0: 06ec a7bb 712b e5bd 12b6 a63d 251d 753d
000001e0: 596b e63d 470c 0e3e 49f8 3cbc ac91 9dbd
000001f0: eeb4 303d f9e0 5b3d 7a88 89be 5945 be3d
00000200: 8630 ca3d fe69 593c 1835 fa3d f3a1 65be
00000210: fe6f 8b3e 8a71 d93d 1733 31bd 07d6 a8bd
00000220: feb0 56bb e4bb b33d 2401 6e3e 81c8 b2b9
00000230: dd9f 423e 9488 aabb a9a3 163e eae7 723c
00000240: 9f70 033e d056 373e d099 32be b5af 763d
00000250: 83a1 6abe aa5b a33d 461b c6bc f94e 28be
00000260: d588 b13d 9c6b ab3d 000c 633e 3205 1d3e
00000270: 9e28 b7bd 653c 8d3c b008 7dbd 71f6 97bd
00000280: 1a35 4a3d cddb 173e 4bdb 403e 73ca 02bd
00000290: 5ae6 7ebe 7f1d 7ebd eaf7 1f3c 1ff3 8c3c
000002a0: d919 953b d4f9 2d3d 19af 67bc e806 913d
000002b0: 2114 9a3c 232c ffbd 0e16 41bb a82f a4bd
000002c0: 0973 98bb 5252 043e 87bc ad3b 4d5b c33d
000002d0: efdc a43c abdf adbd c0d8 04be 4254 1bbe
000002e0: adf8 39bd 974d 073e 574d 6a3d efab fcbd
000002f0: 870a f2bc 0566 84bd 7812 553d 26af d73d
00000300: c840 433d fe77 0bbe a73a 5cbc a9de c6bd
00000310: af38 553d 6434 263d 4cb7 913c f3fd 4fbd
00000320: 2432 cfbc cc5f bfbd c93b 07bd 9927 5e3d
00000330: d05e 1f3e 8538 acbd 4e80 a03d ef03 063d
00000340: 3b93 6fbd 3c0c 4d3e f910 26be b607 06be
00000350: 11db c9bd ea8d 2abe ca69 1bbd 85cd 843d
00000360: 8b60 3b3e fbfa ca3d d56b 27be 68a1 ffbb
00000370: c851 07be 1fc6 f33d 067f 81be 1bbb a13d
00000380: 7558 dcbd 43da a7bd 9299 e83d bc1c 8e3c
00000390: e9bc 1fbe 1b3c 713d 8a15 0cbe c985 c33d
000003a0: 0d90 a8bd 124f 103d 9d72 42bd 5626 013e
000003b0: 24f1 86bd dc30 38be a4e1 16bc 3ee5 8c3d
000003c0: 4dba 13be 6e47 4e3c 8802 edbd 2ca1 303b
000003d0: c3b4 533c 9399 b5bd 1500 edbb 4140 213c
000003e0: 1164 d7bc f5b7 18bd 5acd 0dbe bfff 743d
000003f0: db5f dfbd f015 093d ef79 b33c 3a74 963c

linear_layer.2.bias f4 [100]
-0.06700506 -0.05730617 0.019261787 0.034810014 0.01781838 0.04374943 0.058158543 0.03417012
-0.008250316 0.033002544 -0.03701606 -0.0626877 -0.10108597 0.18147393 -0.01619797 -0.026591733
-0.07302915 0.14777201 0.0074699307 -0.027853888 -0.13379417 -0.051037893 0.01400385 0.085441776
0.019887986 -0.060073126 -0.054456968 -0.06970268 0.05999721 -0.07152625 -0.11712898 -0.045548003
0.031422812 0.05385986 -0.020043628 -0.07766946 -0.032559846 -0.062600024 -0.030363588 -0.030868309
-0.035417013 -0.09940177 -0.03964351 0.036058173 0.01104765 0.027804574 0.027105292 0.007058798
0.0669753 0.008860662 -0.023890626 0.004821208 0.08280748 0.10554263 0.07273618 -0.3675945
-0.06693832 -0.018401206 0.006925957 -0.054735795 0.16928925 0.04914519 0.15865532 0.036536355
-0.04206329 -0.027490916 -0.069079675 0.008662292 -0.21196453 0.010986697 0.017891405 0.030084863
0.022486549 -0.0069921114 -0.023784308 -0.056296363 -0.014572663 0.00879256 0.028327547 -0.09228901
-0.06899249 -0.018295864 -0.09895485 -0.039209723 0.044314206 0.056180093 0.018093225 0.22480772
-0.040282663 -0.0052638547 0.018370302 0.04643243 -0.018443745 -0.29769927 0.0054473807 -0.07192484
-0.042625815 0.013771517 -0.06498312 -0.01890054
00000000: f339 89bd e0b9 6abd e5ca 9d3c f294 0e3d
00000010: daf7 913c 9a32 333d a737 6e3d f8f5 0b3d
00000020: 552c 07bc ad2d 073d 279e 17bd 6962 80bd
00000030: 2906 cfbd 4dd4 393e 9bb1 84bc e8d6 d9bc
00000040: 4f90 95bd 8c51 173e 52c6 f43b d62d e4bc
00000050: 5701 09be 1c0d 51bd 6770 653c 19fc ae3d
00000060: 21ec a23c 3d0f 76bd 450e 5fbd 47c0 8ebd
00000070: a2bf 753d 5b7c 92bd 52e1 efbd 8b90 3abd
00000080: 35b5 003d 289c 5c3d 8932 a4bc 2a11 9fbd
00000090: 795d 05bd 7134 80bd 0fbd f8bc 89df fcbc
000000a0: 6e11 11bd 2893 cbbd 3c61 22bd bcb1 133d
000000b0: 3401 353c 6bc6 e33c eb0b de3c 7d4d e73b
000000c0: 592a 893d 4f2c 113c 46b6 c3bc 39fb 9d3b
000000d0: f896 a93d bc26 d83d b5f6 943d 5935 bcbe
000000e0: f516 89bd 20be 96bc 23f3 e23b a432 60bd
000000f0: 295a 2d3e 774c 493d 8a76 223e 25a7 153d
00000100: 8e4a 2cbd a134 e1bc a579 8dbd 49ec 0d3c
00000110: 3b0d 59be 8c01 343c ff90 923c 8874 f63c
00000120: b635 b83c 151e e5bb 4fd7 c2bc 0497 66bd
00000130: 2ec2 6ebc ab0e 103c 2c0f e83c 0502 bdbd
00000140: ef4b 8dbd 35e1 95bc d7a8 cabd 609a 20bd
00000150: d082 353d 191d 663d 3e38 943c ff33 663e
00000160: 6fff 24bd 6a7c acbb 517d 963c ef2f 3e3d
00000170: 5617 97bc 0a6c 98be f17f b23b 554d 93bd
00000180: 6898 2ebd eea1 613c df15 85bd 4ed5 9abc

linear_layer.3.weight f4 [100, 100]
-0.1641997 0.10227953 -0.049319837 0.1655202 -0.0038421373 -0.023008948 0.060963348 0.11306752
-0.12148371 -0.10017856 -0.22045705 0.07599054 -0.14109467 0.61645144 -0.06113665 0.035596058
-0.25343177 0.1514923 -0.09298281 0.018438954 -0.4147006 -0.122505166 -0.031401362 0.14163928
0.0049719284 0.07292712 -0.016108233 -0.071369976 0.217656 -0.0133834155 -0.15874822 -0.14402655
-0.12474088 -0.03459537 -0.06422963 -0.016153036 -0.3051543 -0.20929018 -0.24556042 -0.11618003
0.13838233 -0.20275289 -0.16118225 0.1461067 0.039646607 -0.02112707 0.053326108 0.17075722
-0.24361444 0.110791266 0.12636958 -0.06302678 -0.027549887 0.30927268 0.24422836 0.0036424987
0.08800982 -0.15990128 -0.15694503 -0.13114467 0.015527535 -0.13380449 0.3221511 -0.089615814
0.099399835 0.011445116 0.0534034 -0.017727066 0.10264957 -0.018036539 0.19104348 -0.04643423
0.09927155 -0.024395093 0.19342375 0.103578605 -0.07669541 -0.012370875 0.013296903 -0.262871
0.0054539037 0.12020156 -0.076916724 -0.019675894 0.24617037 -0.14162646 0.037246644 0.030312315
-0.1292617 0.03597438 -0.19250926 0.27400628 -0.0042228336 0.073036656 0.008419454 0.13216206
0.07811598 0.034059007 -0.18803275 -0.09013471 0.1760871 -0.011709992 0.009859102 -0.11950023
0.031608973 0.023725592 -0.109827265 0.06015295 0.00552134 -0.06755065 -0.10292893 0.13145205
-0.04097194 0.28665882 -0.107630655 -0.02274338 -0.06104165 -0.085449085 0.101417094 0.019228974
0.09759118 -0.07049902 -0.00062863756 -0.18004349 -0.15524259 0.09997857 0.024785807 -0.18902414
0.15529947 0.09802254 -0.17512639 0.2016493 0.04899531 -0.16726424 0.07213363 -0.054313254
0.11669411 -0.22416522 0.0026230086 -0.0070270323 0.016208617 0.10041262 -0.04208742 0.03603234
0.20049185 -0.006678035 -0.17367058 0.038512427 0.038753536 0.16593581 0.05997426 0.014563984
0.11685411 -0.02700566 0.04976407 -0.04153787 -0.054407965 -0.07688025 0.12541592 0.06598286
0.0630182 -0.087012224 -0.005868682 -0.04136067 0.09058891 -0.1015718 -0.16647166 -0.024545606
-0.13061374 -0.18180168 -0.07092579 -0.020547425 0.20179479 -0.068582796 -0.087028526 -0.046715133
-0.09262241 -0.149797 0.0090854345 -0.011041196 -0.038341604 -0.04552162 -0.022001594 0.15663406
0.04187307 0.065557316 0.0024507109 -0.113368884 -0.028759312 -0.028538814 0.009322132 0.101620905
-0.029993901 -0.045125727 0.022930091 -0.11788322 0.00023579902 -0.105911 -0.20257872 0.019018628
-0.019721879 0.027776944 -0.052167665 -0.089339726 -0.015521986 -0.08546739 -0.050797306 -0.11360605
0.041893374 -0.15370487 0.053355314 0.14366144 -0.10038585 -0.0065580723 0.021874906 0.052552428
-0.009001641 -0.12565821 -0.23298827 -0.03933064 0.21500383 0.012495935 0.028253322 -0.11076561
0.00885525 -0.04765399 0.120243415 0.08462598 -0.047628175 0.08856591 -0.067287676 -0.06364123
0.054179132 -0.11237695 -0.19535895 0.20865987 0.07856493 0.053497303 0.06300987 0.25554988
0.059244223 0.06474315 -0.07082025 -0.11874573 0.08410001 -0.05578669 -0.11371439 -0.01253502
-0.006122368 -0.180622 0.03714107 0.09112039 -0.07609332 -0.04363266 -0.18475819 0.21308325
00000000: f723 28be ee77 d13d 9903 4abd 217e 293e
00000010: 5ecc 7bbb 437d bcbc b4b4 793d f28f e73d
00000020: 74cc f8bd 6b2a cdbd 7ebf 61be eea0 9b3d
00000030: 1f7b 10be c3cf 1d3f 6d6a 7abd 2ccd 113d
00000040: cfc1 81be cc20 1b3e c66d bebd 4a0d 973c
00000050: a353 d4be fde3 fabd b79e 00bd e309 113e
00000060: 8feb a23b d05a 953d 6af5 83bc 6c2a 92bd
00000070: 37e1 5e3e 1d46 5bbc e58e 22be b27b 13be
00000080: 2678 ffbd e0b3 0dbd d38a 83bd 5f53 84bc
00000090: 2f3d 9cbe 2a50 56be 3174 7bbe ccef edbd
000000a0: 19b4 0d3e 749e 4fbe f60c 25be ff9c 153e
000000b0: 7b64 223d ad12 adbc 7a6c 5a3d fbda 2e3e
000000c0: 1076 79be 88e6 e23d 0767 013e 2f14 81bd
000000d0: 4db0 e1bc fd58 9e3e 0017 7a3e fdb6 6e3b
000000e0: 7e3e b43d 29bd 23be 33b6 20be ca4a 06be
000000f0: 3467 7e3c 0b04 09be fdf0 a43e 7f88 b7bd
00000100: 2492 cb3d 4c84 3b3c 86bd 5a3d 5a38 91bc
00000110: f039 d23d 5dc1 93bc e7a0 433e d231 3ebd
00000120: e24e cb3d 38d8 c7bc e010 463e 0521 d43d
00000130: 7c12 9dbd 36af 4abc 41db 593c 0797 86be
00000140: a9b6 b23b 3c2c f63d 8486 9dbd 572f a1bc
00000150: 1614 7c3e 8706 11be f08f 183d 8851 f83c
00000160: 2e5d 04be df59 133d 2621 45be 8d4a 8c3e
00000170: b25f 8abb 3e94 953d c0f1 093c 7e55 073e
00000180: 45fb 9f3d 7581 0b3d a88b 40be 8c98 b8bd
00000190: 2d50 343e 44db 3fbc 1288 213c 89bc f4bd
000001a0: 6978 013d 2c5c c23c 1eed e0bd f162 763d
000001b0: 5bec b43b ff57 8abd 67cc d2bd 5e9b 063e
000001c0: 31d2 27bd f2c4 923e 766d dcbd 5350 babc
000001d0: cf06 7abd eeff aebd c4b3 cf3d 1586 9d3c
000001e0: e2dd c73d ca61 90bd 27cb 24ba 525d 38be
000001f0: eaf7 1ebe 91c1 cc3d 9b0b cb3c 8b8f 41be
00000200: d306 1f3e 0bc0 c83d 5554 33be 277d 4e3e
00000210: 4eaf 483d 5147 2bbe ccba 933d 9377 5ebd
00000220: 52fd ee3d 918b 65be c8e6 2b3b 0543 e6bb
00000230: efc7 843c 22a5 cd3d dc63 2cbd a696 133d
00000240: bc4d 4d3e 6bd3 dabb b3d6 31be 35bf 1d3d
00000250: 07bc 1e3d 14eb 293e 92a7 753d c79d 6e3c
00000260: 3551 ef3d f93a ddbc 69d5 4b3d 9d23 2abd
00000270: e3da 5ebd 6473 9dbd 086d 003e 0622 873d
00000280: b00f 813d 7733 b2bd 134e c0bb ce69 29bd
00000290: ae86 b93d e004 d0bd 8c77 2abe de13 c9bc
000002a0: 9cbf 05be 382a 3abe 8a41 91bd 1353 a8bc
000002b0: 4ba3 4e3e 2375 8cbd 033c b2bd 5e58 3fbd
000002c0: d1b0 bdbd 6364 19be 13db 143c 22e6 34bc
000002d0: 160c 1dbd e174 3abd b03c b4bc ae64 203e
000002e0: 1983 2b3d ea42 863d 1b9c 203b f22d e8bd
000002f0: a698 ebbc 3bca e9bc dbbb 183c 9f1e d03d
00000300: c5b5 f5bc c1d5 38bd e3d7 bb3c c26c f1bd
00000310: d140 7739 dee7 d8bd cc70 4fbe f4cc 9b3c
00000320: c78f a1bc 798c e33c c3ad 55bd bff7 b6bd
00000330: ee4f 7ebc 8709 afbd d610 50bd 4aaa e8bd
00000340: 6398 2b3d cf64 1dbe 1a8b 5a3d fc1b 133e
00000350: 1997 cdbd 19e5 d6bb 0133 b33c 3741 573d
00000360: 9e7b 13bc 8cac 00be 7a94 6ebe 2a19 21bd
00000370: f729 5c3e c0bb 4c3c 8373 e73c 15d9 e2bd
00000380: 9c15 113c d530 43bd 2e42 f63d 6350 ad3d
00000390: c315 43bd 0b62 b53d 1fce 89bd 5556 82bd
000003a0: f0ea 5d3d e325 e6bd 2d0c 48be efaa 553e
000003b0: a6e6 a03d fd1f 5b3d 520b 813d 6fd7 823e
000003c0: 12aa 723d 0e98 843d 350a 91bd f630 f3bd
000003d0: a03c ac3d 9680 64bd 17e3 e8bd af5f 4dbc
000003e0: 259e c8bb f9f4 38be 3c21 183d 549d ba3d
000003f0: d1d6 9bbd 29b8 32bd 4031 3dbe 7f32 5a3e

linear_layer.3.bias f4 [100]
0.10259058 0.016086215 -0.060149696 -0.11517726 -0.01780749 -0.04069747 0.09294486 0.04744974
0.043947354 0.0037082878 -0.04597748 -0.031426407 0.01673339 0.036712103 0.008838084 0.018862493
-0.0796394 -0.004854693 0.018311486 0.041470755 -0.05845875 0.05556776 0.029104702 0.04002294
0.0077624777 -0.046253134 0.06831384 0.06477977 0.03767771 0.0584415 -0.024664508 -0.0032598411
0.021118263 0.029781608 1.4449958e-05 -0.028978173 0.016642496 -0.014016581 -0.046932507 -0.009126081
-0.013420041 0.014836101 0.051808 -0.012735699 0.074726745 0.065106206 0.10154232 -0.19694656
0.05278085 -0.047136094 0.03312017 -0.02582468 -0.009410579 -2.153551e-05 -0.021914914 -0.02531908
-0.049986348 -0.015275286 0.047095623 0.04805538 0.0050387904 0.030642172 0.008251291 0.014222765
0.025692116 0.016558342 0.06816942 -0.0033325958 0.014738235 -0.044770032 0.03087958 -0.03813605
-0.0012769985 -0.010537913 -0.03879282 0.021886574 -0.012443419 -0.32673982 0.05043782 -0.059033137
-0.008112628 0.021250602 0.00084995764 -0.024404136 -0.031419184 0.048219763 0.022958295 0.06043486
-0.035489526 0.011944741 0.03082123 0.028880766 0.042484324 -0.036864318 0.012277845 0.043062415
0.022675788 0.021252807 -0.04223785 -0.055759948
00000000: 031b d23d 3dc7 833c 875f 76bd 0ee2 ebbd
00000010: 03e1 91bc 64b2 26bd e059 be3d a95a 423d
00000020: 2402 343d bf06 733b e252 3cbd fab8 00bd
00000030: 7614 893c 6e5f 163d 9ccd 103c 8485 9a3c
00000040: fb19 a3bd 1e14 9fbb f801 963c 3ddd 293d
00000050: 7172 6fbd 059b 633d fc6c ee3c 18ef 233d
00000060: 625c fe3b ed73 3dbd 20e8 8b3d 42ab 843d
00000070: f153 1a3d 5b60 6f3d 390d cabc 0fa3 55bb
00000080: 3500 ad3c 8ff8 f33c 196e 7237 a263 edbc
00000090: d855 883c cda5 65bc 4d3c 40bd 8f85 15bc
000000a0: bbdf 5bbc 1e13 733c a034 543d 65a9 50bc
000000b0: 560a 993d 6756 853d 6bf5 cf3d 5cac 49be
000000c0: bc30 583d c711 41bd 04a9 073d 488e d3bc
000000d0: d42e 1abc 28a7 b4b7 e886 b3bc f669 cfbc
000000e0: 7cbe 4cbd 3145 7abc 57e7 403d b8d5 443d
000000f0: 701c a53b 4b05 fb3c 6c30 073c 9a06 693c
00000100: 4678 d23c 5ca5 873c 699c 8b3d ae67 5abb
00000110: a378 713c c860 37bd 2cf7 fc3c 8c34 1cbd
00000120: f660 a7ba 36a7 2cbc 38e5 1ebd 794b b33c
00000130: 7bdf 4bbc 714a a7be e397 4e3d bbcc 71bd
00000140: d4ea 04bc be15 ae3c b1cf 5e3a 2feb c7bc
00000150: 67b1 00bd 1682 453d 0913 bc3c 8b8a 773d
00000160: 775d 11bd e0b3 433c ce7c fc3c 5b97 ec3c
00000170: 0b04 2e3d 0aff 16bd 0429 493c 3762 303d
00000180: 93c2 b93c 5e1a ae3c 9901 2dbd 8b64 64bd

linear_layer.4.weight f4 [100, 100]
-0.020814227 0.03542528 0.07266395 0.07810655 0.055448472 -0.0022969423 -0.052483175 0.14608493
0.07846904 0.02432001 -0.14674917 0.101340696 0.08698919 0.15135805 0.12634777 0.2182916
0.1295687 0.33498028 0.011315334 0.03692328 0.0154713895 0.05162686 -0.021320224 0.13391235
0.15248041 -0.10000385 0.0715736 -0.10254293 0.16249217 -0.037427403 0.13314193 -0.0643139
-0.16117 0.04291557 0.005970695 0.0043742773 -0.19786559 0.061907675 0.142443 0.023732493
-0.20837606 -0.27053607 -0.27766657 0.083352216 -0.043924455 -0.2624817 0.17368913 -0.05540463
0.06973704 0.022612927 -0.052000128 -0.099915825 -0.09479067 -0.018684085 0.008533507 0.06313416
0.05461287 0.0739947 0.08584615 0.05954856 0.08233197 0.008367651 0.015010607 0.02790903
0.1268753 0.038013496 0.0129091265 -0.010663247 -0.21572523 0.112527475 0.023541203 0.057470825
-0.090194166 0.1893431 0.019706009 -0.1601087 0.08617047 0.09565773 -0.0153062865 0.031339873
0.044660684 0.07887838 0.055819925 -0.0039463835 -0.045066703 -0.009126941 0.13375981 -0.016333126
-0.027603237 -0.029503865 -0.01868155 0.12533711 -0.21159947 0.07561342 -0.08141271 -0.0852963
0.019887106 -0.01716435 -0.10614172 -0.02964441 -0.10151912 0.00316336 -0.123634376 0.015775844
-0.027276604 -0.07076985 -0.2116636 0.012085182 0.009561407 -0.06871647 -0.029840717 -0.01839118
0.13437408 0.10860052 0.22393176 -0.047018494 -0.11911037 -0.08102576 -0.061923977 0.06743367
-0.08128504 0.10468407 0.092305504 -0.07475146 0.017401595 -0.045415312 0.07342115 0.13501008
0.23259723 0.08375323 -0.06758122 0.06730916 0.05644464 0.027190704 -0.025940137 -0.22677737
-0.120895214 -0.09470983 0.109469876 0.09138965 0.040128045 0.032836434 0.08960081 0.1638416
0.04344042 -0.040822156 0.22679189 0.11240628 -0.03774526 -0.15891439 -0.039450392 0.05257687
-0.042827036 -0.08846849 -0.05061365 -0.09456081 -0.050623614 0.08781582 -0.052702893 -0.011111635
-0.012032518 0.04219849 0.016571144 -0.22206585 -0.039244175 0.14644746 0.13920426 0.14619365
-0.11799034 -0.10052855 -0.10388923 -0.1128085 0.0041480255 -0.18381484 -0.0036379076 0.07863802
0.051858168 -0.2053879 -0.17204548 0.115745775 0.14588314 -0.1568608 0.029283427 -0.031355686
0.061014045 -0.029797314 -0.15566048 -0.062038727 -0.16900113 -0.15735118 0.0892654 -0.074482426
-0.13222145 0.050662443 0.026200289 0.023654316 -0.03104368 -0.08397175 0.107325494 0.02627368
0.05954797 -0.009702381 -0.192168 0.10202954 -0.22172008 -0.08819462 0.044004187 0.113115236
-0.2770201 0.010116378 0.0699819 0.027477527 0.0030062539 -0.10877785 0.04283268 0.16942312
-0.17893776 -0.18111253 0.04956366 0.06200728 -0.043543704 -0.0011859272 0.17493771 0.033090293
0.016879164 -0.05862619 -0.04569425 0.001784735 0.16778646 -0.068397015 -0.19028002 0.07163193
0.17906752 0.15685129 -0.06857255 0.033640638 -0.034214057 0.16371989 -0.1395605 -0.02249748
-0.14204961 0.054427247 0.18777551 -0.14863034 -0.14109635 0.0035541432 0.1551788 0.34549287
0.09215906 0.055179752 0.31990957 0.008170835 0.062470417 0.057731695 0.20658146 0.099905595
00000000: 9982 aabc 191a 113d d6d0 943d 54f6 9f3d
00000010: f01d 633d 4c88 16bb 99f8 56bd 4a97 153e
00000020: 60b4 a03d c23a c73c 6a45 16be b68b cf3d
00000030: 6327 b23d 9bfd 1a3e 4f61 013e d587 5f3e
00000040: a8ad 043e 8982 ab3e f363 393c de3c 173d
00000050: b67b 7d3c b076 533d c0a7 aebc 5220 093e
00000060: d323 1c3e d2ce ccbd 2e95 923d 0702 d2bd
00000070: 5964 263e 7a4d 19bd 5c56 083e 02b7 83bd
00000080: c009 25be 3dc8 2f3d d2a5 c33b 1956 8f3b
00000090: 479d 4abe e792 7d3d 94dc 113e a56a c23c
000000a0: 8960 55be b483 8abe 502a 8ebe 91b4 aa3d
000000b0: 21ea 33bd 0064 86be 90db 313e f7ef 62bd
000000c0: 4bd2 8e3d bf3e b93c 16fe 54bd aba0 ccbd
000000d0: 9c21 c2bd 5e0f 99bc 1fd0 0b3c 7c4c 813d
000000e0: bfb1 5f3d 898a 973d 1bd0 af3d 31e9 733d
000000f0: aa9d a83d 7918 093c 0def 753c 7aa1 e43c
00000100: 99eb 013e 0ab4 1b3d cd80 533c e6b4 2ebc
00000110: 13e7 5cbe ce74 e63d 7bd9 c03c 8766 6b3d
00000120: b8b7 b8bd 28e3 413e 7f6e a13c 89f3 23be
00000130: 257a b03d 33e8 c33d 38c7 7abc 3d5e 003d
00000140: 1fee 363d fd8a a13d 6fa3 643d aa50 81bb
00000150: dd97 38bd 2a89 15bc 55f8 083e 0ccd 85bc
00000160: 2f20 e2bc 17b2 f1bc 0d0a 99bc 5f58 003e
00000170: 88ad 58be 35db 9a3d b5bb a6bd d4af aebd
00000180: 49ea a23c 409c 8cbc d560 d9bd d5d8 f2bc
00000190: 42e9 cfbd 6050 4f3b 0534 fdbd 583c 813c
000001a0: 2f73 dfbc c8ef 90bd 58be 58be ed00 463c
000001b0: 73a7 1c3c 38bb 8cbd 8574 f4bc 1aa9 96bc
000001c0: 5c99 093e f369 de3d 5e4e 653e 7796 40bd
000001d0: 23f0 f3bd d5f0 a5bd ffa3 7dbd aa1a 8a3d
000001e0: c578 a6bd 9a64 d63d ab0a bd3d 4b17 99bd
000001f0: ca8d 8e3c 6805 3abd d45d 963d 1540 0a3e
00000200: f82d 6e3e d086 ab3d 0668 8abd 63d9 893d
00000210: 7f32 673d 0abf de3c 6980 d4bc 5438 68be
00000220: e997 f7bd 3af7 c1bd be31 e03d 7f2a bb3d
00000230: 4e5d 243d 7f7f 063d a180 b73d 18c6 273e
00000240: 95ee 313d 2235 27bd 223c 683e 4435 e63d
00000250: c69a 1abd 74ba 22be bc96 21bd d85a 573d
00000260: 676b 2fbd f82e b5bd 4250 4fbd 19a9 c1bd
00000270: b55a 4fbd c8d8 b33d fdde 57bd 930d 36bc
00000280: 0a24 45bc 53d8 2c3d 35c0 873c 3b65 63be
00000290: 80be 20bd 53f6 153e 908b 0e3e cab3 153e
000002a0: eba4 f1bd eae1 cdbd e0c3 d4bd 2508 e7bd
000002b0: 29ec 873b f539 3cbe f669 6ebb f80c a13d
000002c0: 3b69 543d 3551 52be b12c 30be 1f0c ed3d
000002d0: 6462 153e 1ea0 20be cce3 ef3c d26e 00bd
000002e0: dde9 793d 7f19 f4bc 7665 1fbe 521c 7ebd
000002f0: a20e 2dbe ab20 21be c7d0 b63d 3e8a 98bd
00000300: 0f65 07be 6c83 4f3d fda1 d63c b2c6 c13c
00000310: 514f febc 62f9 abbd 78cd db3d e73b d73c
00000320: 92e8 733d bcf6 1ebc b0c7 44be ddf4 d03d
00000330: 970a 63be 629f b4bd bc3d 343d f6a8 e73d
00000340: 94d5 8dbe 2abf 253c ac52 8f3d 8d18 e13c
00000350: 9204 453b ecc6 debd 5271 2f3d 417d 2d3e
00000360: 763b 37be 9075 39be 4403 4b3d 58fb 7d3d
00000370: e25a 32bd 1d71 9bba df22 333e b089 073d
00000380: 2c46 8a3c 0422 70bd e529 3bbd c5ed e93a
00000390: 37d0 2b3e bc13 8cbd c4d8 42be c3b3 923d
000003a0: 7a5d 373e a09d 203e c46f 8cbd c4ca 093d
000003b0: 0a24 0cbd 30a6 273e f3e8 0ebe a34c b8bc
000003c0: 7475 11be 1bef 5e3d 3948 403e 8d32 18be
000003d0: 907b 10be a1ec 683b 31e7 1e3e 71e4 b03e
000003e0: e4bd bc3d 2a04 623d 30cb a33e f7de 053c
000003f0: fbe0 7f3d 1278 6c3d 178a 533e 4e9b cc3d

linear_layer.4.bias f4 [100]
-0.008115624 -0.03453268 0.06479741 -0.018794397 -0.13731551 -0.019454638 -0.037296653 0.012476992
0.04558022 0.029168984 0.015556241 -0.094378166 -0.023870183 0.017510394 -0.028248116 0.019264435
0.035744525 -0.02667266 -0.069450885 0.055222657 0.05861445 -0.027453752 0.0065471064 0.008009181
0.014831467 0.029280469 -0.01821436 -0.008176376 -0.03733527 -0.044965003 0.027801009 0.016264357
-0.024353068 -0.037326284 0.045754507 -0.07376353 0.04382626 0.15472725 0.01510312 -0.03956204
-0.0026901162 0.020285599 -0.00026217842 -0.010977388 -0.05472027 0.015052777 -0.034426417 -0.02106361
-0.00097272295 -0.01993859 0.0014763648 -0.008900216 0.002491564 0.019873017 0.008245017 -0.02553245
0.0023998236 0.0021482697 -0.020234365 -0.00235427 -0.0002264012 0.077669464 0.010265588 -0.008273447
0.011159985 0.0047069183 0.001681251 -0.019954277 0.043844964 -0.024873104 -0.06135165 -0.009990555
0.025444956 0.0062151346 0.029120753 -0.03752655 -0.008336425 0.02686996 0.043669175 0.010082058
0.055287138 -0.030260753 0.08186358 0.057939634 -0.05654531 -0.058888156 -0.007580296 -0.021032512
-0.00982659 0.013364083 0.007079436 0.013744445 -0.024679903 0.021785315 0.06001426 -0.027256846
0.0018581277 -0.01988634 -0.0444218 -0.019029867
00000000: 65f7 04bc 2472 0dbd 81b4 843d b5f6 99bc
00000010: 709c 0cbe 555f 9fbc 60c4 18bd 4c6c 4c3c
00000020: 53b2 3a3d cbf3 ee3c 9bdf 7e3c 5749 c1bd
00000030: 678b c3bc f571 8f3c 9868 e7bc 73d0 9d3c
00000040: da68 123d 9f80 dabc 443c 8ebd 2731 623d
00000050: b515 703d b1e6 e0bc 1c89 d63b f138 033c
00000060: aeff 723c 98dd ef3c 4836 95bc 35f6 05bc
00000070: deec 18bd 392d 38bd f1be e33c d43c 853c
00000080: 1680 c7bc 72e3 18bd 1469 3b3d 5511 97bd
00000090: 2a83 333d d270 1e3e 1473 773c ce0b 22bd
000000a0: a94c 30bb fc2d a63c fe74 89b9 81da 33bc
000000b0: 5d22 60bd ec9f 763c b702 0dbd 988d acbc
000000c0: 55fe 7eba 4156 a3bc 9582 c13a 36d2 11bc
000000d0: 8249 233b bdcc a23c 1c16 073c 6e29 d1bc
000000e0: 5c46 1d3b fcc9 0c3b 8ac2 a5bc 194a 1abb
000000f0: 1c66 6db9 2b11 9f3d ff30 283c 5a8d 07bc
00000100: 5fd8 363c 7e3c 9a3b 6c5d dc3a 2777 a3bc
00000110: c796 333d aec2 cbbc de4b 7bbd 6daf 23bc
00000120: f171 d03c 54a8 cb3b a58e ee3c 71b5 19bd
00000130: 8095 08bc 641e dc3c 73de 323d 372f 253c
00000140: c474 623d 66e5 f7bc 18a8 a73d 1c52 6d3d
00000150: 0e9c 67bd b534 71bd 2264 f8bb 604c acbc
00000160: b5ff 20bc 07f5 5a3c 9dfa e73b 6130 613c
00000170: 822d cabc 1e77 b23c 83d1 753d c049 dfbc
00000180: 6b8c f33a ade8 a2bc a2f3 35bd 86e4 9bbc

linear_layer.5.weight f4 [100, 100]
0.056855597 0.046252757 0.022986075 0.026149124 -0.026937986 -0.2209609 -0.13456352 -0.03782964
-0.061051007 0.07343027 0.052829023 -0.043614075 -0.11449313 -0.079900816 0.014980844 0.07358545
-0.04779561 -0.057188142 0.06692681 -0.018384084 -0.19003168 0.09797556 0.029777264 0.028236063
-0.12802202 0.100008994 -0.04002601 -0.0075909006 0.004788467 -0.17244528 0.07381661 0.039224543
0.09318595 -0.019974409 0.1939056 0.031900615 0.08850851 -0.27353168 0.07157408 0.2101417
-0.14126652 -0.1425479 -0.0067251846 0.08684967 -0.080967546 0.10374941 0.07753618 0.15181708
-0.24965739 -0.05144518 -0.16842729 -0.011263038 -0.019990403 0.08309767 0.0054326206 0.008660472
0.14056367 -0.12772141 0.0470023 0.1365482 0.01195013 0.045494203 -0.10076464 0.2111732
-0.07017637 -0.15704729 -0.069725655 0.09584017 -0.061879445 -0.12383467 -0.14072537 0.12783863
0.032028187 0.085503735 -0.018676748 -0.11106203 -0.03887974 -0.0264059 0.07073822 0.14241092
-0.050440315 0.054769527 -0.048888683 -0.25583553 0.0677204 -0.20316541 0.21895255 0.07311535
-0.0069096177 -0.0051303282 -0.030875018 0.26916265 -0.011634959 -0.26871443 0.07083794 0.015111457
0.1288059 -0.13243707 -0.053143453 0.14434992 -0.080535725 0.061422694 -0.0319189 0.110278174
-0.057742964 0.07941258 0.16150284 0.043793686 -0.043655742 -0.14200169 -0.1817003 0.06414704
-0.08246868 -0.001966838 -0.048745934 -0.09092041 -0.0016917567 0.13369739 0.12041368 -0.18666485
-0.18476854 -0.041683536 0.030935902 0.11877029 0.0990075 0.09656069 0.08932521 0.009097898
0.095559515 0.083128236 -0.017585423 0.07177661 -0.039246526 0.014402484 -0.23562178 0.09901896
0.054301474 -0.13955326 -0.103799805 0.07758859 0.0008986769 -0.10289823 0.1335778 -0.10032044
0.16446021 -0.030995509 0.1774589 0.035358436 0.0638111 0.015053688 -0.0011156688 0.23027529
-0.07924737 0.032602664 -0.06925157 0.12725575 -0.11585461 0.16352461 0.20587838 0.09409272
-0.025668507 -0.13065282 0.0040554306 0.10982454 0.08095091 -0.0022172674 0.17442694 -0.03864485
-0.16512282 0.06523747 0.15128306 -0.07326763 0.0026240386 0.03728266 0.03746869 0.18267871
-0.06784355 -0.026015751 -0.011336999 -0.111860596 -0.12494129 -0.00038174866 -0.098234035 -0.07214647
-0.101980746 0.16437317 -0.054527026 0.08024866 0.08407456 0.028781466 -0.18130398 0.07902886
0.07207542 -0.08872575 -0.011365649 0.011451496 -0.018636223 -0.08441434 0.040028516 -0.12445712
-0.08025703 0.03327433 -0.038356397 -0.15763398 -0.07756302 0.12450032 -0.09742836 -0.16720863
0.07448659 0.011202096 0.02406241 -0.1346016 0.008598446 0.034208365 0.122101545 -0.17497435
0.17345075 0.0023012487 0.028009892 -0.018463533 0.10841456 -0.08009781 -0.0483603 0.12941143
0.108948834 -0.0838237 -0.11167193 -0.017659962 -0.013289312 0.17294872 0.17983417 -0.028261263
-0.0666052 0.10939258 0.11598731 -0.022490297 0.14648436 0.1804424 0.10798618 0.15122929
-0.093249135 -0.06373781 -0.12211945 0.08166919 -0.053821 -0.092645966 0.14152627 -0.119005375
-0.071913086 0.11037943 0.08929918 -0.08552049 -0.13761623 0.020655641 -0.017840343 -0.102838084
00000000: 6ae1 683d 8873 3d3d 4b4d bc3c b036 d63c
00000010: 0dad dcbc 9343 62be 05cb 09be 41f3 1abd
00000020: 9f10 7abd 9c62 963d 3f63 583d aca4 32bd
00000030: 607b eabd 0aa3 a3bd 3772 753c f8b3 963d
00000040: 54c5 43bd 1d3e 6abd ec10 893d 389a 96bc
00000050: aa97 42be 69a7 c83d 73ef f33c 514f e73c
00000060: 3418 03be 84d1 cc3d 50f2 23bd 17bd f8bb
00000070: 93e8 9c3b 7f95 30be 2a2d 973d eaa9 203d
00000080: 46d8 be3d 5fa1 a3bc 318f 463e 38aa 023d
00000090: f343 b53d 580c 8cbe 6e95 923d 632f 573e
000000a0: 2ca8 10be 14f8 11be f05e dcbb 3dde b13d
000000b0: 50d2 a5bd 927a d43d 4acb 9e3d f075 1b3e
000000c0: 30a6 7fbe 2eb8 52bd 3478 2cbe 9b88 38bc
000000d0: eac2 a3bc 1c2f aa3d 2004 b23b a7e4 0d3c
000000e0: ecef 0f3e 67c9 02be 7c85 403d 4bd3 0b3e
000000f0: 7aca 433c 2158 3a3d b15d cebd ca3d 583e
00000100: a1b8 8fbd 01d1 20be 53cc 8ebd da47 c43d
00000110: 4d75 7dbd 089d fdbd 501a 10be 21e8 023e
00000120: fd2f 033d 951c af3d fbff 98bc 7d74 e3bd
00000130: 5d40 1fbd 3051 d8bc 33df 903d 2bd4 113e
00000140: 819a 4ebd 0356 603d 803f 48bd e0fc 82be
00000150: feb0 8a3d 980a 50be 1935 603e 80bd 953d
00000160: 136a e2bb 501c a8bb 9bed fcbc b0cf 893e
00000170: 8ea0 3ebc f094 89be 7b13 913d 0b96 773c
00000180: b2e5 033e 959d 07be f3ac 59bd 77d0 133e
00000190: eaef a4bd 5d96 7b3d 64bd 02bd 86d9 e13d
000001a0: e383 6cbd 10a3 a23d 0061 253e 0261 333d
000001b0: 5dd0 32bd e468 11be a50f 3abe 865f 833d
000001c0: 57e5 a8bd 11e6 00bb d1a9 47bd 7b34 babd
000001d0: efbd ddba f8e7 083e 739b f63d 1225 3fbe
000001e0: f733 3dbe 5bbc 2abd 4a6d fd3c d63d f33d
000001f0: 72c4 ca3d 9cc1 c53d 23f0 b63d 5a0f 153c
00000200: b5b4 c33d 233f aa3d 4e0f 90bc 9eff 923d
00000210: f7c0 20bd 65f8 6b3c d646 71be 74ca ca3d
00000220: 396b 5e3d 0de7 0ebe fe94 d4bd c4e6 9e3d
00000230: 3095 6b3a 4fbc d2bd 9ec8 083e ce74 cdbd
00000240: 4268 283e 4bea fdbc c9b7 353e 02d4 103d
00000250: 65af 823d bea3 763c a23b 92ba 49cd 6b3e
00000260: 724c a2bd 5f8a 053d c4d3 8dbd 554f 023e
00000270: 2f45 edbd ff72 273e c8d1 523e afb3 c03d
00000280: c346 d2bc dac9 05be 6be3 843b b0eb e03d
00000290: 97c9 a53d 934f 11bb fa9c 323e 104a 1ebd
000002a0: f515 29be 399b 853d f2e9 1a3e 570d 96bd
000002b0: 10f8 2b3b b4b5 183d c578 193d 2110 3b3e
000002c0: 8ff1 8abd fc1e d5bc d2be 39bc 2b17 e5bd
000002d0: 38e1 ffbd 7025 c8b9 ed2e c9bd 87c1 93bd
000002e0: 48db d0bd 7151 283e bb57 5fbd 6959 a43d
000002f0: 482f ac3d 1cc7 eb3c c0a7 39be e2d9 a13d
00000300: 479c 933d d9b5 b5bd fd36 3abc 0e9f 3b3c
00000310: feaa 98bc 6de1 acbd f1f4 233d 60e3 febd
00000320: cc5d a4bd aa4a 083d 991b 1dbd cd6a 21be
00000330: 5cd9 9ebd 06fa fe3d 8588 c7bd bd38 2bbe
00000340: 6d8c 983d ff88 373c 881e c53c 00d5 09be
00000350: 7fe0 0c3c 121e 0c3d 6010 fa3d 7a2c 33be
00000360: 139d 313e 8cd0 163b 0075 e53c d640 97bc
00000370: 7408 de3d 520a a4bd 7315 46bd 6e84 043e
00000380: 9120 df3d c3ab abbd 41b4 e4bd a0ab 90bc
00000390: 6abb 59bc 7819 313e 7326 383e 2a84 e7bc
000003a0: 4f68 88bd 3809 e03d c18a ed3d 923d b8bc
000003b0: ffff 153e e4c5 383e dc27 dd3d dadb 1a3e
000003c0: 67f9 bebd f888 82bd c319 fabd 2d42 a73d
000003d0: 6973 5cbd 2bbd bdbd 43ec 103e 17b9 f3bd
000003e0: 2b47 93bd 9c0e e23d 7de2 b63d 5e25 afbd
000003f0: 45eb 0cbe 0536 a93c e925 92bc c69c d2bd
