ac_2d_model_para_5/checkpoint_1900.pth (torch, 291152 bytes, 17 tensors)

linear_layer.0.weight f4 [100, 3]
0.22565901 0.15847379 -0.1920517 0.013359431 -0.07182671 0.11140183 0.04957336 -0.06197162
-0.28374293 0.28235587 -0.035135884 0.2140024 -0.1666929 -0.15355408 -0.36575347 -0.070403986
-0.19957225 -0.1339455 -0.105291754 0.13476862 -0.122740775 -0.07751436 -0.044278 -0.33200768
0.5326964 0.04946439 0.019492889 -0.16431272 -0.18739353 -0.07419704 0.037518684 -0.20809044
0.13279836 -0.11346358 0.06529994 -0.23705178 0.44209415 -0.0043944763 -0.11399182 0.29773307
-0.009481819 0.24980737 0.19966504 0.15723924 0.18433866 -0.18597026 -0.19524184 0.02746979
0.32085308 0.021766283 -0.28880116 -0.21399316 -0.14938906 -0.15492578 -0.3125599 -0.017427692
0.0961864 0.15593025 0.16127013 -0.2367834 0.08671914 -0.20119372 0.08020491 0.4405101
-0.08507259 0.07754316 -0.27790192 -0.15400003 0.023405602 0.15878814 0.024665428 -0.48032245
0.24165928 0.03408391 0.30610093 0.18483391 0.08267763 0.004645418 -0.31776902 -0.21555986
-0.08515788 0.055650696 0.26811665 0.05525491 0.21152326 -0.21119827 0.053095292 0.1065626
-0.018841371 -0.103723176 -0.046964105 -0.16141303 -0.13959457 0.44061548 0.016366234 0.3268926
0.10024235 -0.22489999 0.13189454 -0.41135293 0.016981024 -0.10540124 0.066065036 -0.09727741
-0.28932753 0.12968378 -0.14379734 0.2076573 -0.16049229 0.26791793 0.01987384 0.28767774
0.1466017 0.062361 -0.03106871 -0.09126168 -0.40016037 -0.14568163 -0.02781751 -0.15170379
0.089756474 0.09480451 -0.1287118 -0.20483305 -0.0106484415 0.13347366 -0.2378398 0.17153907
-0.12787528 0.15266009 -0.06642211 0.25342736 -0.15890503 0.19948283 0.12843925 -0.07771749
-0.111745626 0.1479588 -0.46239892 0.15717818 -0.28165004 0.4251617 0.0011794053 -0.12718213
0.09371152 0.09468518 0.09420276 0.3991415 -0.10320798 -0.11633096 0.25371605 0.1121384
-0.122173116 0.20918173 -0.055425104 -0.14952077 -0.10855646 0.25445807 0.095049754 0.018338036
0.0566164 0.25878644 0.12620541 0.08547848 0.005401821 0.35135132 -0.07310856 0.108800024
0.55534065 0.014790875 -0.012471455 0.34721082 -0.11936903 -0.25554627 0.3562387 0.008332666
-0.14342675 -0.05779651 -0.17293693 0.2705228 -0.1458638 0.11806424 -0.006691838 0.012435947
0.28329167 0.024500784 0.3282603 -0.15052754 -0.061277825 0.0008627457 0.1180162 -0.19928083
0.41855773 -0.15365762 0.07212424 0.02950181 0.1040702 0.32303733 0.15460676 -0.027896468
-0.37195718 -0.50294757 -0.027772577 0.10645068 0.39248723 -0.11839236 0.016775683 -0.09935639
0.10389376 0.025277076 -0.29676574 0.015541802 -0.036410082 0.11963582 0.15458839 0.08903665
-0.08914226 0.2664851 -0.0985691 0.11181148 0.1523465 -0.21693324 0.4986996 0.032145903
-0.08156392 -0.029617932 0.35150748 0.14669016 -0.17027973 -0.4119707 0.2526632 -0.37773803
-0.09636013 -0.17508009 -0.024903005 0.21728824 -0.007950625 0.028717557 -0.1979415 0.052821252
0.14763765 -0.056344185 -0.038317457 -0.14920145 -0.20309699 -0.0795688 -0.25608757 0.16139573
0.08532871 0.18200867 -0.11161523 0.4789785 0.2760344 -0.03388335 -0.26831958 0.21272087
00000000: 2813 673e f446 223e 33a9 44be 84e1 5a3c
00000010: e219 93bd a526 e43d 6f0d 4b3d f4d5 7dbd
00000020: c146 91be f390 903e a5ea 0fbd 7223 5b3e
00000030: 8bb1 2abe 483d 1dbe 0a44 bbbe f72f 90bd
00000040: ab5c 4cbe 0229 09be 34a3 d7bd c900 0a3e
00000050: 845f fbbd d9bf 9ebd d95c 35bd e9fc a9be
00000060: cb5e 083f 2c9b 4a3d 8daf 9f3c 9841 28be
00000070: 17e4 3fbe 9ef4 97bd 31ad 193d a915 55be
00000080: 4bfc 073e 985f e8bd fabb 853d b4bd 72be
00000090: 2a5a e23e 8aff 8fbb 8b74 e9bd 7870 983e
000000a0: a259 1bbc 81cd 7f3e fe74 4c3e 5303 213e
000000b0: 46c3 3c3e fd6e 3ebe 7aed 47be 5308 e13c
000000c0: db46 a43e 344f b23c bfdd 93be 0621 5bbe
000000d0: 72f9 18be dda4 1ebe da07 a0be 85c4 8ebc
000000e0: 60fd c43d 2eac 1f3e ff23 253e 5977 72be
000000f0: ce99 b13d ba05 4ebe 7942 a43d 8a8a e13e
00000100: 8a3a aebd f3ce 9e3d 2949 8ebe 2fb2 1dbe
00000110: 1bbd bf3c 5c99 223e 270f ca3c d3ec f5be
00000120: 8875 773e 929b 0b3d 43b9 9c3e 1a45 3d3e
00000130: e452 a93d 9738 983b 9fb2 a2be b9bb 5cbe
00000140: 4167 aebd fcf1 633d 9646 893e f952 623d
00000150: 8e99 583e 5c44 58be 737a 593d 7e3d da3d
00000160: 3859 9abc d16c d4bd 6f5d 40bd 7549 25be
00000170: e1f1 0ebe 5a98 e13e 7b12 863c 785e a73e
00000180: dc4b cd3d 2f4c 66be 5d0f 073e da9c d2be
00000190: ca1b 8b3c 9bdc d7bd 1b4d 873d 6139 c7bd
000001a0: bd22 94be d3cb 043e 9c3f 13be 1ea4 543e
000001b0: 1758 24be 8a2c 893e 77ce a23c 7f4a 933e
000001c0: c21e 163e 3f6e 7f3d cf83 febc 67e7 babd
000001d0: d2e1 ccbe 912d 15be 8ce1 e3bc 3d58 1bbe
000001e0: 3ed2 b73d de28 c23d 07cd 03be c1bf 51be
000001f0: cd76 2ebc 52ad 083e 478c 73be f0a7 2f3e
00000200: bdf1 02be ed52 1c3e 5108 88bd 3bc1 813e
00000210: 00b8 22be 3a45 4c3e 9485 033e 592a 9fbd
00000220: e4da e4bd 8382 173e 8dbf ecbe 51f3 203e
00000230: 6f34 90be cbae d93e 4696 9a3a 083c 02be
00000240: d3eb bf3d 4eea c13d 60ed c03d 465c cc3e
00000250: b55e d3bd ed3e eebd 12e7 813e d1a8 e53d
00000260: e635 fabd bc33 563e 6f05 63bd f91b 19be
00000270: d952 debd 5448 823e 72a9 c23d a639 963c
00000280: 99e6 673d a87f 843e fe3b 013e 570f af3d
00000290: c201 b13b 52e4 b33e f1b9 95bd 8cd2 de3d
000002a0: ce2a 0e3f 6d55 723c 1355 4cbc 9ec5 b13e
000002b0: c077 f4bd f6d6 82be eb64 b63e bc85 083c
000002c0: 76de 12be 09bc 6cbd 6116 31be f781 8a3e
000002d0: 525d 15be aacb f13d 3547 dbbb 24c0 4b3c
000002e0: 9b0b 913e deb5 c83c bc11 a83e e423 1abe
000002f0: 75fe 7abd e229 623a 7ab2 f13d 4610 4cbe
00000300: 334d d63e 6c58 1dbe e0b5 933d c8ad f13c
00000310: c222 d53d 2665 a53e 3c51 1e3e 2287 e4bc
00000320: 2c71 bebe 2cc1 00bf 5183 e3bc d002 da3d
00000330: 16f4 c83e b277 f2bd 286d 893c 5d7b cbbd
00000340: 40c6 d43d df11 cf3c aef1 97be 0ba3 7e3c
00000350: bd22 15bd a003 f53d 6b4c 1e3e d958 b63d
00000360: 3890 b6bd bc70 883e 99de c9bd 6bfd e43d
00000370: b900 1c3e bf23 5ebe 8e55 ff3e 6cab 033d
00000380: fc0a a7bd 4ea1 f2bc caf8 b33e f235 163e
00000390: cf5d 2ebe d3ed d2be 125d 813e e166 c1be
000003a0: 7658 c5bd 3248 33be 6301 ccbc cf80 5e3e
000003b0: 5743 02bc 1541 eb3c 2db1 4abe 195b 583d
000003c0: 532e 173e 29c9 66bd c4f2 1cbd 44c8 18be
000003d0: a8f8 4fbe f8f4 a2bd e91d 83be ec44 253e
000003e0: d2c0 ae3d 7b60 3a3e 8796 e4bd ac3c f53e
000003f0: 6254 8d3e 45c9 0abd 2f61 89be 80d3 593e

linear_layer.0.bias f4 [100]
-0.021331312 -0.072448306 0.19756973 -0.040388353 0.020141914 -0.033261873 0.083140634 0.13859268
-0.19555232 0.055554487 0.057740845 -0.13430192 0.2079348 0.23004241 0.06120104 0.0010554757
-0.14347337 0.019088143 -0.031187886 -0.0045264983 -0.12750882 -0.0730724 -0.04616983 0.025652343
0.046239287 0.17163885 0.11161916 -0.03597862 0.055884045 -0.12305102 -0.07353325 -0.014262873
0.13647346 -0.10805181 -0.08325238 0.07100503 -0.02657884 -0.18984088 0.1592234 0.18275301
0.09423542 -0.058836088 0.074895546 -0.30433488 0.02171881 -0.12911162 -0.13187793 0.02337828
-0.095771134 -0.19566803 0.28242812 0.08655394 -0.0010603905 -0.24810709 0.10625819 0.12360491
0.031327344 -0.00906586 -0.006677485 0.010667662 -0.11724241 -0.018403495 0.004967539 0.17281699
-0.14113873 0.08890216 -0.2320218 -0.00039498816 -0.08882169 0.10202113 0.1873495 -0.094191074
-0.103137404 0.22217987 -0.017146852 0.031415977 0.0207216 0.081274986 -0.124157906 -0.030611608
0.15495577 0.13225248 -0.054257754 0.015260407 0.03389341 0.05659512 0.13032643 0.15721075
-0.11097261 -0.10421642 -0.13880603 -0.20101191 -0.07269472 0.13509463 -0.03906888 0.04081542
0.26787397 0.06573943 -0.07758004 0.057627246
00000000: 01bf aebc c75f 94bd b84f 4a3e 426e 25bd
00000010: a800 a53c 9a3d 08bd a345 aa3d 3deb 0d3e
00000020: de3e 48be 1a8d 633d aa81 6c3d 7186 09be
00000030: dcec 543e 3d90 6b3e f1ad 7a3d e357 8a3a
00000040: afea 12be bd5e 9c3c bd7d ffbc 0553 94bb
00000050: ac91 02be fca6 95bd 931c 3dbd dd24 d23c
00000060: 6865 3d3d 18c2 2f3e 9698 e43d 515e 13bd
00000070: abe6 643d 2c02 fcbd 9a98 96bd d3ae 69bc
00000080: b3bf 0b3e 444a ddbd 3980 aabd 166b 913d
00000090: debb d9bc a665 42be 750b 233e 9b23 3b3e
000000a0: 80fe c03d 1cfe 70bd d662 993d c8d1 9bbe
000000b0: a5eb b13c d635 04be 020b 07be cf83 bf3c
000000c0: a823 c4bd 335d 48be 6b9a 903e 3143 b13d
000000d0: cdfc 8aba c90f 7ebe e59d d93d 9224 fd3d
000000e0: 1a51 003d f988 14bc cece dabb 6bc7 2e3c
000000f0: ca1c f0bd edc2 96bc bdc6 a23b f0f6 303e
00000100: ac86 10be 5612 b63d 1f97 6dbe 6a16 cfb9
00000110: 25e8 b5bd 74f0 d03d 8cd8 3f3e 40e7 c0bd
00000120: b439 d3bd 1f83 633e 8e77 8cbc 0aae 003d
00000130: 58c0 a93c 8073 a63d 8046 febd 32c5 fabc
00000140: baac 1e3e 326d 073e 613d 5ebd c906 7a3c
00000150: d1d3 0a3d 49d0 673d 4b74 053e dbfb 203e
00000160: 9c45 e3bd 6b6f d5bd 2b23 0ebe 11d6 4dbe
00000170: f8e0 94bd 3f56 0a3e b106 20bd 122e 273d
00000180: c726 893e 65a2 863d 49e2 9ebd 8c0a 6c3d

linear_layer.1.weight f4 [100, 100]
0.05601842 0.15147486 -0.06549813 -0.023604358 -0.015111803 0.0045975097 0.099781804 0.057102684
0.1480171 -0.15135351 -0.07918759 0.0109202275 -0.24616712 -0.07602215 0.066030234 0.06823881
-0.22073534 -0.15331058 0.21285209 0.002666039 -0.09025214 0.10976828 0.03514604 0.15120451
-0.0698555 0.0035653093 -0.08536324 -0.01371386 -0.2361739 -0.08919362 -0.012758172 -0.005915231
-0.042380683 0.23069426 -0.08250261 -0.0634014 -0.09127651 -0.0116310585 0.1294854 -0.14304268
0.05098051 0.16370387 -0.13885151 -0.05552401 0.0018524526 -0.033488985 0.056822475 0.023837024
0.0019188724 0.12312343 -0.013829374 -0.28459463 0.11573438 0.09358217 -0.034138694 -0.21822514
-0.14595279 -0.076621 0.14938796 0.16997264 0.013746773 0.063443474 -0.010702605 -0.16078411
-0.023721747 0.18195507 -0.012183795 0.057025693 0.024093943 -0.08878243 0.010319954 0.098519586
-0.07274355 0.041313667 -0.25116357 0.029690359 -0.038816936 0.009020697 -0.17480513 -0.11715412
-0.033346724 -0.01272479 -0.025300363 -0.099903494 0.058819506 0.12578107 -0.029649805 -0.07706265
0.093653664 0.122459255 -0.006184784 0.13368079 -0.08787504 -0.06462706 -0.008039419 -0.1060633
-0.06315634 -0.019314913 -0.13037993 -0.07880317 0.04811269 0.21752386 -0.021868 0.061093826
-0.054673817 -0.16823815 0.13432339 -0.27737054 -0.049919836 -0.07106977 -0.066442035 0.03842825
0.10855065 0.11984978 0.15945569 -0.14914025 -0.04265953 -0.28579503 0.013329432 0.18920602
-0.11266376 -0.023040172 0.029588183 0.11886788 0.18910259 0.08027711 -0.09115479 0.119821906
-0.12297194 -0.08116682 -0.06912501 -0.10216682 0.17476983 -0.11317482 -0.10812071 0.036245026
0.18846008 0.01780431 -0.02469161 -0.082947485 0.20229587 -0.099127464 0.12585104 -0.18257481
0.20062062 -0.23034868 -0.2703618 -0.06662627 0.03805248 -0.09453279 -0.015610722 -0.034249447
0.08748098 -0.17071109 -0.041029055 0.09617293 0.025611928 -0.07573344 -0.120536275 -0.04205778
0.13353805 -0.089025386 -0.020336714 0.05816137 -0.14003563 0.14896488 -0.037854552 -0.1827004
-0.37484363 0.2338341 -0.01813677 0.0783284 0.046271566 0.13566935 0.111700736 0.18683043
0.007872241 -0.0039674537 -0.11156359 0.048990242 0.20370656 -0.20438924 -0.0405624 0.08142229
0.01519512 -0.078097075 0.032491732 0.039076112 0.013206153 -0.13472748 0.081353284 -0.12838991
0.02773505 -0.0954516 0.12218413 -0.13153961 0.16079213 0.14095052 -0.11700408 0.19971308
-0.111844435 -0.050138537 0.10382561 -0.06605604 -0.12911601 0.047686473 -0.03256183 0.14988016
-0.19215234 -0.02769034 0.0851204 0.03671363 -0.10513517 0.009722195 0.029349253 -0.029948972
-0.019458646 0.124632366 -0.1606878 -0.16795613 0.075399235 0.07540481 0.038009692 -0.13647825
-0.15927005 -0.16702615 0.045420535 0.077024154 -0.040071793 0.09904556 -0.1265468 -0.07596791
0.032697473 0.0095091 0.016293915 0.0068736975 -0.10303708 -0.08494448 -0.06699614 0.01713213
0.22944388 0.20278588 -0.021217668 0.13779677 -0.12453168 0.14571977 0.11282656 -0.13736357
-0.068195745 -0.09253865 0.048386645 0.006126669 -0.046121195 -0.06262664 -0.14776888 -0.033379395
00000000: 9273 653d 3a1c 1b3e e223 86bd ed5d c1bc
00000010: 7f97 77bc b5a6 963b 675a cc3d 81e4 693d
00000020: cb91 173e 6afc 1abe 1a2d a2bd c1ea 323c
00000030: 3c13 7cbe 80b1 9bbd dc3a 873d cac0 8b3d
00000040: 7208 62be 73fd 1cbe e6f5 593e b6b8 2e3b
00000050: 1dd6 b8bd 31ce e03d 4bf5 0f3d 5bd5 1a3e
00000060: 6610 8fbd f7a7 693b ecd2 aebd 19b0 60bc
00000070: 92d7 71be 25ab b6bd a707 51bc 8ed4 c1bb
00000080: 5e97 2dbd 1e3b 6c3e 21f7 a8bd 98d8 81bd
00000090: 2eef babd 3290 3ebc d297 043e c879 12be
000000a0: f0d0 503d fda1 273e 172f 0ebe 256d 63bd
000000b0: ffcd f23a bf2b 09bd afbe 683d dd45 c33c
000000c0: ac82 fb3a 2328 fc3d 9994 62bc 63b6 91be
000000d0: 2606 ed3d 02a8 bf3d 04d5 0bbd 6976 5fbe
000000e0: a674 15be 79eb 9cbd 28f9 183e 4f0d 2e3e
000000f0: 253a 613c a7ee 813d fb59 2fbc 97a4 24be
00000100: 1c54 c2bc 6e52 3a3e 8a9e 47bc c693 693d
00000110: a960 c53c 90d3 b5bd 0615 293c a3c4 c93d
00000120: 92fa 94bd 8538 293d 8398 80be 3239 f33c
00000130: 82fe 1ebd 8ccb 133c 1e00 33be 80ee efbd
00000140: 9396 08bd a37b 50bc b542 cfbc 349a ccbd
00000150: b9ec 703d c1cc 003e 26e4 f2bc 06d3 9dbd
00000160: 7ecd bf3d ebcb fa3d bba9 cabb 9ee3 083e
00000170: d4f7 b3bd 315b 84bd c4b7 03bc b737 d9bd
00000180: 1c58 81bd 4f3a 9ebc 5182 05be 8e63 a1bd
00000190: d011 453d 93be 5e3e 8524 b3bc 853d 7a3d
000001a0: a7f1 5fbd 9f46 2cbe 128c 093e 8303 8ebe
000001b0: be78 4cbd 078d 91bd c312 88bd f166 1d3d
000001c0: ce4f de3d cd73 f53d 5a48 233e 39b8 18be
000001d0: c2bb 2ebd ba53 92be b163 5a3c 39bf 413e
000001e0: 42bc e6bd bebe bcbc eb62 f23c 0171 f33d
000001f0: 1ca4 413e 5368 a43d 5daf babd 3065 f53d
00000200: b6d8 fbbd ca3a a6bd 6a91 8dbd d63c d1bd
00000210: ddf6 323e 33c8 e7bd 646e ddbd aa75 143d
00000220: aefb 403e 58da 913c 0f46 cabc 5fe0 a9bd
00000230: a626 4f3e 5703 cbbd 18df 003e e4f4 3abe
00000240: 7e6f 4d3e 86e0 6bbe dd6c 8abe 5b73 88bd
00000250: ebdc 1b3d 689a c1bd 1dc4 7fbc 2649 0cbd
00000260: 3a29 b33d e3ce 2ebe 150e 28bd 50f6 c43d
00000270: 1bd0 d13c 221a 9bbd b9db f6bd c744 2cbd
00000280: 33be 083e f152 b6bd 2e99 a6bc 9e3a 6e3d
00000290: 8065 0fbe 408a 183e 600d 1bbd d015 3bbe
000002a0: 81eb bfbe 3572 6f3e 9093 94bc a46a a03d
000002b0: 4187 3d3d e8ec 0a3e 5bc3 e43d 7a50 3f3e
000002c0: 92fa 003c 6a01 82bb 747b e4bd fea9 483d
000002d0: 7498 503e 6a4b 51be c224 26bd bbc0 a63d
000002e0: f4f4 783c 5cf1 9fbd 0d16 053d 460e 203d
000002f0: 9f5e 583c 00f6 09be 8d9c a63d a578 03be
00000300: 9e34 e33c 217c c3bd ac3b fa3d 52b2 06be
00000310: b1a6 243e 5555 103e d69f efbd 9681 4c3e
00000320: b20e e5bd 115e 4dbd 85a2 d43d 6448 87bd
00000330: fd36 04be e452 433d 8e5f 05bd 2f7a 193e
00000340: 95c3 44be dad6 e2bc 9b53 ae3d 0861 163d
00000350: 1c51 d7bd d749 1f3c d86d f03c 8c57 f5bc
00000360: bd67 9fbc 413f ff3d 588b 24be b1fc 2bbe
00000370: ea6a 9a3d d66d 9a3d 0db0 1b3d f4c0 0bbe
00000380: b017 23be e708 2bbe e20a 3a3d d7be 9d3d
00000390: 5222 24bd 66d8 ca3d 7c95 01be 1095 9bbd
000003a0: c9ed 053d 0ecc 1b3c d17a 853c c13c e13b
000003b0: 1b05 d3bd 5ff7 adbd 4635 89bd ae58 8c3c
000003c0: 56f3 6a3e 1aa7 4f3e add0 adbc 991a 0d3e
000003d0: 770a ffbd 9037 153e 9d11 e73d 09a9 0cbe
000003e0: 36aa 8bbd e784 bdbd 1331 463d 39c2 c83b
000003f0: 94e9 3cbd 6542 80bd ba50 17be d5b8 08bd

linear_layer.1.bias f4 [100]
-0.082208104 0.08260669 -0.024475645 0.18670408 -0.022299832 -0.06412117 -0.114091285 0.1305939
-0.109642126 0.08142799 -0.08339521 -0.021288209 0.1367549 0.09541437 -0.070761606 -0.07619734
0.0029941963 0.12600707 0.021455271 -0.058576286 -0.05212617 0.044686448 -0.03050547 0.08773622
0.13858777 0.03285725 0.15186194 -0.053918734 -0.09325133 -0.061899394 -0.22747749 0.120988496
0.0039821086 -0.09482329 -0.07192442 0.07932556 0.1304437 -0.14542931 0.010529593 -0.019687377
-0.11185687 -0.13261944 0.03232071 0.15912384 -0.06993671 0.010350091 0.0017825639 -0.13801324
0.06965834 -0.10713389 -0.05102621 -0.007030218 -0.004382186 -0.116868526 0.010210714 0.022830639
0.13896938 -0.0899016 -0.0028142864 0.030980863 -0.13471095 -0.0061527435 0.03568597 0.16793427
0.040332675 0.037134573 -0.11119499 0.021709234 0.0037125587 -0.17096168 -0.095184796 0.006926932
-0.043750364 -0.03834157 0.079982586 0.009916881 0.080586776 -0.13200203 0.059053957 -0.051300354
-0.13808693 -0.07093166 0.03415817 -0.0286464 0.09599104 0.025021154 -0.008366154 0.05929272
0.16117305 -0.033075728 -0.087423675 -0.18678871 0.09571903 0.027284596 0.05132951 0.03726266
0.06572194 -0.008696091 -0.01108551 0.091366045
00000000: b95c a8bd b22d a93d 2681 c8bc 5b2f 3f3e
00000010: 23ae b6bc f651 83bd b1a8 e9bd 68ba 053e
00000020: 0d8c e0bd b8c3 a63d 1ccb aabd 9c64 aebc
00000030: 7a09 0c3e 9c68 c33d 76eb 90bd 5a0d 9cbd
00000040: 473a 443b ff07 013e f7c2 af3c b0ed 6fbd
00000050: 4082 55bd 2309 373d 9be6 f9bc 0caf b33d
00000060: f4e9 0d3e 5395 063d b281 1b3e e4d9 5cbd
00000070: 8efa bebd 388a 7dbd dcef 68be d1c8 f73d
00000080: 597c 823b b732 c2bd 1c4d 93bd 7075 a23d
00000090: 0993 053e 6ceb 14be 5084 2c3c 6c47 a1bc
000000a0: 3715 e5bd 64cd 07be b962 043d 5cf1 223e
000000b0: fa3a 8fbd 6e93 293c eba4 e93a 5853 0dbe
000000c0: 08a9 8e3d 0369 dbbd dc00 51bd be5d e6bb
000000d0: 7198 8fbb c458 efbd d74a 273c 5207 bb3c
000000e0: fd4d 0e3e 541e b8bd e46f 38bb 94cb fd3c
000000f0: abf1 09be f49c c9bb 742b 123d f6f6 2b3e
00000100: e033 253d 6c1a 183d 33ba e3bd 90d7 b13c
00000110: 664e 733b 9410 2fbe 3ff0 c2bd 51fb e23b
00000120: 9533 33bd 0d0c 1dbd e9cd a33d 6a7a 223c
00000130: ae0a a53d 8a2b 07be 90e2 713d 5220 52bd
00000140: a966 0dbe 9e44 91bd 70e9 0b3d dbab eabc
00000150: f396 c43d 2af9 cc3c 3112 09bc ecdc 723d
00000160: 8c0a 253e 6a7a 07bd 2f0b b3bd 8a45 3fbe
00000170: 5708 c43d f283 df3c e43e 523d bba0 183d
00000180: 3999 863d 0d7a 0ebc 00a0 35bc 1f1e bb3d

linear_layer.2.weight f4 [100, 100]
-0.05274704 0.027805291 0.06581706 -0.2549996 0.09366504 -0.040254716 0.06114113 -0.08923638
0.096983515 -0.056165446 -0.042672615 0.037242554 -0.0640508 -0.09378651 0.026532391 -0.1362491
0.04704034 -0.08797952 -0.035051238 0.12909074 0.027405351 0.047766935 -0.0624158 -0.0742027
-0.12901194 0.0017939936 -0.22436501 -0.016790288 0.027739478 -0.00085142255 0.05127512 -0.057282675
0.015523127 0.005499631 0.07019876 -0.009132918 -0.026099663 0.30147746 0.02971011 -0.06782282
0.14199297 0.16714825 0.076857366 0.008769035 0.12264125 -0.01532318 0.1157099 0.048775315
-0.16143054 0.119509034 0.0125178015 0.06245251 -0.13433789 0.042745695 -0.114292644 -0.03304795
-0.33534378 0.05604411 0.09069414 0.012279824 -0.033299144 0.0042039733 -0.025444994 -0.024793884
0.033661753 0.1255065 0.061962496 -0.056517366 0.08897364 0.028306125 0.24277517 0.25511593
0.01773278 -0.12621084 -0.20129466 0.02808498 -0.03744853 -0.015230275 -0.07687142 0.102436475
-0.08606487 0.05444136 -0.011758617 0.10728117 0.23348221 -0.13297157 0.1629239 -0.27123767
-0.07807509 -0.11461592 0.051386215 0.14346828 0.001942837 -0.118003264 -0.030615246 -0.029454214
-0.06840562 0.01920762 0.011254006 0.05405512 -0.014611644 0.018591082 -0.047691606 -0.3363677
0.0029101013 0.075046025 0.082808405 -0.26482582 0.051305957 -0.14583506 0.11465838 -0.12766625
-0.0807428 -0.2988354 -0.08878171 0.036601447 -0.005153008 -0.110369585 0.0815982 0.059698373
0.1125077 0.13883239 -0.011445885 -0.07675668 0.043300223 0.053673144 -0.26829782 0.09296273
0.09685445 0.013377163 0.12194181 -0.22168173 0.27264407 0.10595024 -0.043222085 -0.08233402
-0.003227626 0.08711317 0.2330507 -0.00027486662 0.18981883 -0.0054492843 0.14727241 0.015298746
0.12812349 0.17905746 -0.17438331 0.060065314 -0.22755243 0.07960029 -0.024184765 -0.16461869
0.08676171 0.08363138 0.22157367 0.15276577 -0.08887592 0.017219529 -0.06191852 -0.07405704
0.049253944 0.14813764 0.18850523 -0.03169408 -0.24846822 -0.061928485 0.009736853 0.017479617
0.0065941624 0.04239555 -0.014337221 0.07087819 0.018622315 -0.12477941 -0.0026428471 -0.08015735
-0.004496418 0.12534595 0.005464079 0.09549199 0.020090716 -0.0850525 -0.12943614 -0.1515943
-0.045500692 0.13226289 0.057309676 -0.12291477 -0.028583754 -0.0646571 0.051921386 0.10510862
0.047930975 -0.13601233 -0.012116746 -0.09720267 0.0525363 0.040463116 0.01766373 -0.049905993
-0.025431234 -0.093530245 -0.032944877 0.054176945 0.15544559 -0.0842548 0.07846443 0.032708783
-0.058436304 0.20020127 -0.1619685 -0.13091363 -0.09819576 -0.1663501 -0.038065 0.06486503
0.18302542 0.09935761 -0.16356352 -0.0077811866 -0.13227631 0.118890464 -0.25298074 0.07912244
-0.10755369 -0.08187531 0.11387116 0.017180283 -0.15630077 0.058785748 -0.13681103 0.0954528
-0.08257302 0.03538556 -0.04763644 0.12610821 -0.0656461 -0.1798411 -0.009412589 0.0687416
-0.14418755 0.012577802 -0.115731716 0.002733751 0.012983424 -0.08906201 -0.006659256 0.009947245
-0.026266718 -0.037364133 -0.13866697 0.059933916 -0.109072424 0.033316374 0.022043213 0.018389674
00000000: 480d 58bd ecc7 e33c 18cb 863d 4f8f 82be
00000010: 75d3 bf3d 21e2 24bd 1f6f 7a3d 90c1 b6bd
00000020: 4b9f c63d bd0d 66bd 7bc9 2ebd a68b 183d
00000030: 112d 83bd 2413 c0bd 755a d93c e284 0bbe
00000040: 5fad 403d 9b2e b4bd e391 0fbd 5d30 043e
00000050: 3081 e03c 43a7 433d b6a7 7fbd 96f7 97bd
00000060: b51b 04be 7024 eb3a f1bf 65be c98b 89bc
00000070: e73d e33c 0032 5fba dc05 523d 3da1 6abd
00000080: b754 7e3c 4036 b43b 5ec4 8f3d 3ca2 15bc
00000090: f6ce d5bc 415b 9a3e 9e62 f33c b1e6 8abd
000000a0: 9b66 113e e928 2b3e 6567 9d3d 00ac 0f3c
000000b0: 562b fb3d 130e 7bbc 50f9 ec3d a0c8 473d
000000c0: 0c4e 25be 27c1 f43d 7717 4d3c 34ce 7f3d
000000d0: df8f 09be 1c16 2f3d 4312 eabd 4a5d 07bd
000000e0: 2eb2 abbe 828e 653d d9bd b93d 5131 493c
000000f0: af64 08bd 7cc1 893b 0572 d0bc 8b1c cbbc
00000100: e8e0 093d c784 003e 63cc 7d3d c17e 67bd
00000110: d037 b63d 3fe2 e73c 0e9a 783e 8e9e 823e
00000120: 5644 913c 6a3d 01be 3020 4ebe 7912 e63c
00000130: a163 19bd 6788 79bc c36e 9dbd 37ca d13d
00000140: c742 b0bd e7fd 5e3d 37a7 40bc 3bb6 db3d
00000150: f615 6f3e b329 08be 86d5 263e aadf 8abe
00000160: d5e5 9fbd c0bb eabd 5a7a 523d 59e9 123e
00000170: cba6 fe3a b2ab f1bd d3cc fabc f749 f1bc
00000180: 3f18 8cbd 4c59 9d3c b962 383c e768 5d3d
00000190: ad65 6fbc 534c 983c 4658 43bd 6338 acbe
000001a0: 66b7 3e3b bbb1 993d 7497 a93d 4097 87be
000001b0: 3226 523d c955 15be 03d2 ea3d f1ba 02be
000001c0: 7b5c a5bd f400 99be 2fd3 b5bd 66eb 153d
000001d0: 90da a8bb 7309 e2bd f51c a73d 4886 743d
000001e0: 706a e63d 142a 0e3e 8587 3bbc 9b32 9dbd
000001f0: 935b 313d 5fd8 5b3d 555e 89be 3e63 be3d
00000200: a05b c63d e32b 5b3c a1bc f93d 8900 63be
00000210: 0198 8b3e 70fc d83d a409 31bd bd9e a8bd
00000220: 9486 53bb 6468 b23d d8a4 6e3e f91b 90b9
00000230: de5f 423e e98f b2bb 94ce 163e 97a7 7a3c
00000240: ce32 033e d75a 373e 8a91 32be 0c07 763d
00000250: 8103 69be 7a05 a33d 211f c6bc cd91 28be
00000260: 20b0 b13d ee46 ab3d 35e4 623e a16e 1c3e
00000270: 9404 b6bd f80f 8d3c 469e 7dbd 38ab 97bd
00000280: 81be 493d 65b1 173e 8407 413e a7d1 01bd
00000290: 746e 7ebe b9a8 7dbd 5287 1f3c 6a31 8f3c
000002a0: d813 d83b f5a6 2d3d aae6 6abc 9628 913d
000002b0: d38d 983c 598c ffbd 9e33 2dbb 8929 a4bd
000002c0: b056 93bb b05a 003e 040c b33b 4e91 c33d
000002d0: 4995 a43c 0130 aebd e88a 04be 893b 1bbe
000002e0: ef5e 3abd ec6f 073e 8dbd 6a3d bdba fbbd
000002f0: 7a28 eabc f16a 84bd 85ab 543d 3043 d73d
00000300: 4553 443d d146 0bbe 5185 46bc 3212 c7bd
00000310: 4e30 573d a7bc 253d 87b3 903c 3a6a 4cbd
00000320: 2a55 d0bc c98c bfbd 35f1 06bd a5e8 5d3d
00000330: 212d 1f3e c88d acbd f6b1 a03d a5f9 053d
00000340: e85a 6fbd 9001 4d3e 12db 25be 390e 06be
00000350: dc1a c9bd ae57 2abe 0cea 1bbd f5d7 843d
00000360: 046b 3b3e 017c cb3d 327d 27be 53f9 febb
00000370: 7173 07be d87c f33d b186 81be f20a a23d
00000380: 1c45 dcbd 3eae a7bd 4835 e93d aabd 8c3c
00000390: 4f0d 20be 53c9 703d 3118 0cbe c27c c33d
000003a0: 0b1c a9bd 73f0 103d 6d1e 43bd 8322 013e
000003b0: 7671 86bd 4428 38be 4237 1abc 65c8 8c3d
000003c0: e7a5 13be 2013 4e3c c004 edbd bb28 333b
000003d0: 6db8 543c 2566 b6bd e335 dabb c5f9 223c
000003e0: 4d2d d7bc 220b 19bd b7fe 0dbe 447d 753d
000003f0: 5d61 dfbd c076 083d f893 b43c f1a5 963c

linear_layer.2.bias f4 [100]
-0.06658155 -0.0569845 0.019126635 0.034468185 0.017959671 0.043702945 0.058151204 0.029661743
-0.008446619 0.032960307 -0.03691616 -0.06261572 -0.10050641 0.17928065 -0.016239459 -0.0261622
-0.07279917 0.14597082 0.008078683 -0.028108755 -0.13207446 -0.05081472 0.01360479 0.08541134
0.021140728 -0.06004817 -0.05361487 -0.06955061 0.060544297 -0.071366146 -0.11638872 -0.044704225
0.03127407 0.053946037 -0.019885246 -0.07756896 -0.032530338 -0.061772354 -0.029822957 -0.031066814
-0.036247447 -0.09915202 -0.03885275 0.035626117 0.011314821 0.027419783 0.027361121 0.006854117
0.049102712 0.00881649 -0.023601942 0.004788829 0.08261532 0.1045296 0.07120162 -0.35918158
-0.066344626 -0.01843142 0.006792052 -0.0546684 0.16754755 0.048986055 0.15761638 0.03561644
-0.04189135 -0.027246602 -0.069490165 0.008522122 -0.21363503 0.011191309 0.017622167 0.030150713
0.021375619 -0.007077189 -0.024064584 -0.056412462 -0.014926324 0.008841059 0.028257197 -0.091805175
-0.06911066 -0.018527 -0.09891421 -0.039263666 0.044243295 0.05586715 0.017801696 0.22189161
-0.039702833 -0.005279634 0.018366642 0.046132483 -0.017862042 -0.29416806 0.005529865 -0.07190511
-0.042636264 0.013770553 -0.064634085 -0.018982636
00000000: e85b 88bd 9468 69bd 76af 9c3c 832e 0d3d
00000010: 2920 933c dc01 333d f52f 6e3d 2ffd f23c
00000020: b063 0abc 6301 073d 6635 17bd ac3c 80bd
00000030: 4ed6 cdbd 5995 373e 9d08 85bc 1c52 d6bc
00000040: bb17 95bd 6079 153e 745c 043c 5544 e6bc
00000050: 873e 07be 1923 50bd a0e6 5e3c 24ec ae3d
00000060: 522f ad3c 12f5 75bd 449b 5bbd 8d70 8ebd
00000070: 4cfd 773d 6a28 92bd 365d eebd c71b 37bd
00000080: 3d19 003d 85f6 5c3d 62e6 a2bc 7adc 9ebd
00000090: 883e 05bd 0205 7dbd 464f f4bc d57f febc
000000a0: 3478 14bd 3710 cbbd 1024 1fbd b1ec 113d
000000b0: cd61 393c 749f e03c 6e24 e03c 8098 e03b
000000c0: ed1f 493d 0a73 103c dc58 c1bc 9ceb 9c3b
000000d0: 3932 a93d 9d13 d63d 28d2 913d a6e6 b7be
000000e0: b1df 87bd 7dfd 96bc dd8f de3b f9eb 5fbd
000000f0: 9691 2b3e 9aa5 483d 3066 213e 8be2 113d
00000100: 4496 2bbd 4434 dfbc dc50 8ebd 5fa0 0b3c
00000110: 24c3 5abe c15b 373c 5d5c 903c a1fe f63c
00000120: ec1b af3c c4e7 e7bb 1723 c5bc c110 67bd
00000130: 8a8d 74bc 17da 103c a37b e73c 5a04 bcbd
00000140: e489 8dbd efc5 97bc 8993 cabd f0d2 20bd
00000150: 7538 353d f4d4 643d ddd4 913c 8e37 633e
00000160: 709f 22bd c800 adbb a475 963c 6af5 3c3d
00000170: 6b53 92bc 329d 96be df33 b53b fc42 93bd
00000180: 5da3 2ebd e39d 613c e05e 84bd 7981 9bbc

linear_layer.3.weight f4 [100, 100]
-0.16452469 0.10217608 -0.049303934 0.16515502 -0.0038255134 -0.022960322 0.060864136 0.11196139
-0.12010287 -0.100114025 -0.2203553 0.075957134 -0.14151071 0.61056983 -0.061028734 0.035617087
-0.2534927 0.15158206 -0.093029946 0.018392228 -0.4122775 -0.12245812 -0.031163234 0.14164719
0.0049915677 0.07280889 -0.016154265 -0.07141615 0.21769474 -0.013563908 -0.15834637 -0.14308384
-0.124706 -0.03458024 -0.06428522 -0.016281722 -0.30519184 -0.2091829 -0.24446961 -0.11623537
0.13759753 -0.2028454 -0.16107276 0.14594108 0.039658017 -0.02031833 0.053403787 0.17071198
-0.24446955 0.11080538 0.12570313 -0.063004024 -0.027525667 0.30793393 0.24438986 0.0035573046
0.08797853 -0.15995502 -0.15693621 -0.13120528 0.015640039 -0.1337911 0.31834635 -0.089480825
0.09931549 0.011507271 0.05222461 -0.017471371 0.10257124 -0.01813204 0.19105126 -0.04614505
0.09927616 -0.02459733 0.19356725 0.10360462 -0.0766326 -0.012389904 0.013238387 -0.26192477
0.0053187953 0.120200105 -0.076564535 -0.019691925 0.24645494 -0.14170428 0.037180588 0.030401153
-0.12921596 0.035917748 -0.19250089 0.27375308 -0.0042402414 0.07297679 0.008424318 0.13212995
0.078071915 0.034020197 -0.18804225 -0.08854401 0.1759571 -0.0119035775 0.009847189 -0.119372234
0.031557716 0.02370998 -0.10985737 0.059695475 0.0054058544 -0.06763356 -0.10273696 0.13163051
-0.040955756 0.2864419 -0.10753856 -0.022622498 -0.061023343 -0.08514188 0.10134307 0.01935611
0.09776514 -0.070352696 -0.0004497499 -0.17993474 -0.15520261 0.100040264 0.0248484 -0.18901968
0.1552612 0.09792406 -0.1748338 0.20190164 0.04887379 -0.16736592 0.072091006 -0.054351576
0.1169062 -0.22421092 0.0025688722 -0.007033474 0.016072534 0.10044022 -0.041929483 0.03607017
0.20058528 -0.006551905 -0.1736674 0.038492154 0.03874573 0.16603984 0.05989059 0.014536965
0.116766386 -0.026870668 0.04947427 -0.04152948 -0.054369338 -0.07689547 0.12531361 0.06605697
0.063265316 -0.08729273 -0.005884851 -0.041013543 0.09053601 -0.10163016 -0.16673605 -0.024454307
-0.13053894 -0.18183976 -0.07087288 -0.020410215 0.20185323 -0.06864414 -0.08635671 -0.04675704
-0.09255172 -0.14987552 0.00900666 -0.011051679 -0.038382925 -0.045380473 -0.022004582 0.156743
0.04176922 0.065556385 0.002243621 -0.11299474 -0.028882787 -0.02857814 0.009261912 0.10149035
-0.030067964 -0.045073073 0.022790182 -0.11785602 0.00057724427 -0.106054455 -0.20265333 0.0190922
-0.019819645 0.027924454 -0.05237202 -0.08920803 -0.01536201 -0.08540935 -0.050622568 -0.11313395
0.04181239 -0.1539587 0.053291224 0.14364143 -0.10031673 -0.0064488915 0.021311862 0.052426677
-0.009009865 -0.12551087 -0.23289199 -0.039409027 0.21506175 0.012251134 0.028110351 -0.11098176
0.009017266 -0.047590844 0.11957997 0.08429942 -0.047446918 0.08865576 -0.06732973 -0.063489854
0.054487452 -0.11221077 -0.1953157 0.20875064 0.07835285 0.05306168 0.062756866 0.25570938
0.05952503 0.06464526 -0.07089047 -0.11855876 0.08385207 -0.055634364 -0.11350572 -0.01233482
-0.005188969 -0.18093453 0.03724265 0.091042474 -0.07629912 -0.04316971 -0.18322502 0.21219482
00000000: 2979 28be b141 d13d ecf2 49bd 661e 293e
00000010: 77b5 7abb 4917 bcbc ac4c 793d 034c e53d
00000020: 7ef8 f5bd 9508 cdbd d2a4 61be 6a8f 9b3d
00000030: 2fe8 10be 4e4e 1c3f 44f9 79bd 39e3 113d
00000040: ccc9 81be 5438 1b3e 7c86 bebd 4cab 963c
00000050: 0916 d3be 53cb fabd 0a4a ffbc f60b 113e
00000060: 4e90 a33b d41c 953d f355 84bc a142 92bd
00000070: 5feb 5e3e 273b 5ebc 8d25 22be 9284 12be
00000080: dc65 ffbd 02a4 0dbd f8a7 83bd 3f61 85bc
00000090: 1b42 9cbe 0b34 56be 3e56 7abe cf0c eebd
000000a0: 5ee6 0c3e b4b6 4fbe 42f0 24be 9471 153e
000000b0: 7270 223d a072 a6bc eebd 5a3d 1fcf 2e3e
000000c0: 3a56 7abe eeed e23d 52b8 003e 4108 81bd
000000d0: 827d e1bc 84a9 9d3e 5641 7a3e ab21 693b
000000e0: 162e b43d 40cb 23be e3b3 20be ad5a 06be
000000f0: 8a1f 803c 8900 09be 4bfe a23e b941 b7bd
00000100: eb65 cb3d fe88 3c3c 79e9 553d 1f20 8fbc
00000110: df10 d23d a589 94bc f1a2 433e 9802 3dbd
00000120: 4d51 cb3d 5780 c9bc 7e36 463e a92e d43d
00000130: 8df1 9cbd 06ff 4abc d2e5 583c 011b 86be
00000140: 4a49 ae3b 792b f63d decd 9cbd f650 a1bc
00000150: af5e 7c3e ed1a 11be ac4a 183d d70b f93c
00000160: 3051 04be 7d1e 133d f41e 45be 5d29 8c3e
00000170: b9f1 8abb db74 953d 2706 0a3c 134d 073e
00000180: 2be4 9f3d c358 0b3d 268e 40be 9056 b5bd
00000190: 192e 343e 3907 43bc 1b56 213c 6e79 f4bd
000001a0: aa42 013d 6f3b c23c e7fc e0bd 3e83 743d
000001b0: 9823 b13b 7783 8abd c167 d2bd 26ca 063e
000001c0: 39c1 27bd 83a8 923e 2d3d dcbd d152 b9bc
000001d0: 9df3 79bd de5e aebd f58c cf3d b490 9e3c
000001e0: 1739 c83d 1315 90bd 69cc ebb9 d040 38be
000001f0: 6fed 1ebe e9e1 cc3d df8e cb3c 608e 41be
00000200: cbfc 1e3e 698c c83d a207 33be 4ebf 4e3e
00000210: e22f 483d f961 2bbe 73a4 933d c29f 5ebd
00000220: 856c ef3d 8c97 65be 865a 283b 0e79 e6bb
00000230: 8caa 833c 9ab3 cd3d 40be 2bbd 51be 133d
00000240: 3a66 4d3e 5db1 d6bb ded5 31be f3a9 1d3d
00000250: d8b3 1e3d 5906 2a3e d64f 753d 732c 6e3c
00000260: 3723 ef3d e01f dcbc 88a5 4a3d d11a 2abd
00000270: 62b2 5ebd 5f7b 9dbd 3652 003e e048 873d
00000280: 3f91 813d 88c6 b2bd b5d5 c0bb d1fd 27bd
00000290: f26a b93d 7923 d0bd dbbc 2abe 6654 c8bc
000002a0: 00ac 05be 3434 3abe cd25 91bd 5333 a7bc
000002b0: 9db2 4e3e 4d95 8cbd c9db b0bd 4f84 3fbd
000002c0: c28b bdbd f878 19be ac90 133c 1a12 35bc
000002d0: 6a37 1dbd e0e0 39bd f442 b4bc 3d81 203e
000002e0: 3416 2b3d 6d42 863d b709 133b c969 e7bd
000002f0: 989b ecbc b41c eabc 46bf 173c 2cda cf3d
00000300: 1751 f6bc 8b9e 38bd 7ab2 ba3c 7f5e f1bd
00000310: 3552 173a 1433 d9bd 5b84 4fbe 3f67 9c3c
00000320: cf5c a2bc d3c1 e43c 0b84 56bd b3b2 b6bd
00000330: f1b0 7bbc 19eb aebd 9c59 4fbd c6b2 e7bd
00000340: 7843 2b3d 59a7 1dbe e647 5a3d bd16 133e
00000350: dc72 cdbd 3951 d3bb 3796 ae3c 5bbd 563d
00000360: 1d9e 13bc ec85 00be 3d7b 6ebe 5c6b 21bd
00000370: 2639 5c3e fbb8 483c ae47 e63c 684a e3bd
00000380: 28bd 133c 9eee 42bd 58e6 f43d 2da5 ac3d
00000390: b357 42bd 2791 b53d 2be4 89bd f806 82bd
000003a0: 3c2e 5f3d c3ce e5bd d700 48be bac2 553e
000003b0: 7677 a03d 3457 593d ac86 803d 57ec 823e
000003c0: 85d0 733d bc64 843d 062f 91bd efce f2bd
000003d0: a2ba ab3d dce0 63bd b075 e8bd fc17 4abc
000003e0: 3a08 aabb e746 39be c08b 183d 7a74 ba3d
000003f0: b742 9cbd b9d2 30bd 579f 3bbe 9949 593e

linear_layer.3.bias f4 [100]
0.10267938 0.016201025 -0.06003478 -0.11499189 -0.017641407 -0.040421996 0.09246702 0.047257263
0.0435191 0.0035522645 -0.04582825 -0.031603247 0.015534816 0.036665034 0.008730661 0.017432686
-0.079315566 -0.005845361 0.017985314 0.041175142 -0.05911538 0.055318933 0.029004278 0.039854575
0.007522599 -0.04577562 0.06824858 0.06445407 0.037286147 0.057686333 -0.02421644 -0.0032063895
0.020688392 0.029805608 0.00057901617 -0.028913386 0.016688243 -0.013545122 -0.046288762 -0.0087777
-0.013665589 0.014607673 0.05070384 -0.012608052 0.07341968 0.0637646 0.10009034 -0.19439135
0.052636635 -0.046841256 0.033240527 -0.02579365 -0.009027921 0.00022956495 -0.021762647 -0.024545403
-0.050252266 -0.015538734 0.046801113 0.048350867 0.0050557707 0.030700164 0.007975166 0.01433784
0.025643678 0.016505843 0.0682033 -0.0029913522 0.015211738 -0.044499353 0.03125295 -0.038182322
-0.0017312133 -0.010366958 -0.037663348 0.021465356 -0.0118897455 -0.32475975 0.04880164 -0.058152128
-0.008516768 0.02101598 0.00043077065 -0.024494614 -0.034625135 0.04925858 0.022895815 0.05936909
-0.034920342 0.010954014 0.030578854 0.028802987 0.042517047 -0.03665467 0.011172246 0.042293087
0.022747936 0.021471174 -0.04155347 -0.055434007
00000000: 9149 d23d 03b8 843c 08e7 75bd de80 ebbd
00000010: b684 90bc 8991 25bd 595f bd3d d590 413d
00000020: 1541 323d 1ccd 683b 67b6 3bbd 6872 01bd
00000030: be85 7e3c 132e 163d 0c0b 0f3c fece 8e3c
00000040: 3370 a2bd 718a bfbb f055 933c 44a7 283d
00000050: f822 72bd 1b96 623d 619a ed3c 8d3e 233d
00000060: 2280 f63b 377f 3bbd e9c5 8b3d 7f00 843d
00000070: 5cb9 183d 8148 6c3d 8e61 c6bc 4a22 52bb
00000080: b47a a93c e42a f43c 1ec9 173a c4db ecbc
00000090: c8b5 883c 5cec 5dbc 4999 3dbd 58d0 0fbc
000000a0: a2e5 5fbc 0555 6f3c d4ae 4f3d 0192 4ebc
000000b0: 0f5d 963d 0497 823d 2afc cc3d 870e 47be
000000c0: 8399 573d 9edc 3fbd 3827 083d 344d d3bc
000000d0: d8e9 13bc 5fb7 7039 9447 b2bc 7113 c9bc
000000e0: 52d5 4dbd 2d96 7ebc 86b2 3f3d 8f0b 463d
000000f0: e1aa a53b e97e fb3c 45aa 023c 42e9 6a3c
00000100: b112 d23c 4337 873c 2cae 8b3d 900a 44bb
00000110: a73a 793c f444 36bd 1803 003d 1165 1cbd
00000120: e1e9 e2ba 2cda 29bc e244 1abd 1dd8 af3c
00000130: 35cd 42bc e946 a6be 3ae4 473d ed30 6ebd
00000140: ea89 0bbc b429 ac3c 0fd9 e139 eea8 c8bc
00000150: 16d3 0dbd 5dc3 493d 0190 bb3c 012d 733d
00000160: a208 0fbd 7778 333c 8180 fa3c 3ef4 eb3c
00000170: 5b26 2e3d 3523 16bd cc0b 373c 843b 2d3d
00000180: e159 ba3c 51e4 af3c f933 2abd c50e 63bd

linear_layer.4.weight f4 [100, 100]
-0.021486672 0.035538223 0.07267786 0.07838376 0.05563175 -0.0020558538 -0.052527655 0.14575018
0.07894692 0.02406305 -0.14641058 0.101107016 0.08666691 0.15103191 0.12595771 0.218129
0.1305251 0.33435693 0.011007406 0.036824845 0.01504911 0.051586356 -0.021181978 0.13380173
0.15245622 -0.099551626 0.07145274 -0.10255533 0.16232769 -0.038365774 0.13392785 -0.06448897
-0.16135155 0.0425943 0.0058956654 0.0042147473 -0.19766176 0.061902743 0.14266652 0.024206536
-0.2087558 -0.27058277 -0.27921456 0.083356366 -0.043964297 -0.26152596 0.17296496 -0.05538523
0.069580644 0.022683764 -0.052141245 -0.100101076 -0.0950153 -0.018215707 0.00886127 0.06342892
0.05480434 0.0740088 0.08540912 0.05917357 0.08257529 0.008021375 0.014655731 0.027907295
0.12534331 0.03779685 0.012618403 -0.011118561 -0.2161076 0.11331067 0.025378257 0.059261665
-0.09082531 0.18886 0.01973393 -0.16075224 0.08624932 0.09559666 -0.015208751 0.03153622
0.04477467 0.078211494 0.055347547 -0.003642683 -0.04470074 -0.0091545265 0.13373631 -0.016718896
-0.029098785 -0.029834509 -0.018925989 0.12524343 -0.21142954 0.07612592 -0.08192668 -0.085095845
0.020049121 -0.016790789 -0.104950614 -0.029276956 -0.10116485 0.0030312827 -0.12360191 0.015855202
-0.027058514 -0.07059867 -0.21127504 0.011093645 0.008617726 -0.068895064 -0.029866103 -0.01832447
0.13446137 0.10860412 0.22408186 -0.04707303 -0.118791275 -0.08101782 -0.06188291 0.06735334
-0.08131868 0.104714885 0.09224479 -0.07479961 0.017236426 -0.045075264 0.0732745 0.13486974
0.23224701 0.08381755 -0.06774708 0.06729099 0.05649536 0.027082006 -0.025828328 -0.22684011
-0.12100878 -0.0944179 0.10954117 0.091197096 0.040218998 0.033064965 0.08928089 0.16389897
0.04351261 -0.040519897 0.22675775 0.11232401 -0.03778738 -0.15903944 -0.039471224 0.052452
-0.04269008 -0.08781154 -0.050476603 -0.09437152 -0.05070178 0.08795702 -0.052678227 -0.011011733
-0.01153786 0.042503864 0.016417203 -0.22212829 -0.039094847 0.14679559 0.13918808 0.14639643
-0.118063755 -0.10028046 -0.10370617 -0.112789296 0.0045090383 -0.18398826 -0.0038374274 0.078413084
0.052062098 -0.20509662 -0.17218268 0.115611516 0.14588636 -0.15688641 0.029860053 -0.032884654
0.06095408 -0.029394118 -0.15552218 -0.061930615 -0.16900304 -0.15722953 0.08931414 -0.07464588
-0.13223411 0.050678607 0.026194615 0.023547523 -0.030920165 -0.084167466 0.10724887 0.026445024
0.0599716 -0.009661689 -0.1918438 0.10324458 -0.22116376 -0.08752347 0.046576455 0.11282143
-0.2747441 0.0082915 0.06963062 0.027107187 0.0018948334 -0.108919464 0.043598518 0.16990219
-0.17721274 -0.18115605 0.049794544 0.061391164 -0.044689428 -0.0009548411 0.1748906 0.032853734
0.016942667 -0.056920536 -0.04586531 0.001819902 0.16709374 -0.06714123 -0.19114873 0.07149117
0.17889187 0.15532903 -0.07068871 0.034561116 -0.03135009 0.16361482 -0.13938834 -0.022255072
-0.14131258 0.054452386 0.18575928 -0.14840667 -0.14128245 0.004228813 0.15479976 0.3460219
0.09194246 0.05487101 0.3200423 0.009582227 0.062343493 0.057887807 0.20530088 0.10009434
00000000: d104 b0bc 8790 113d 21d8 943d aa87 a03d
00000010: 1ede 633d 81bb 06bb 3d27 57bd 893f 153e
00000020: ecae a13d e01f c53c a8ec 15be 3211 cf3d
00000030: 6c7e b13d 1ca8 1a3e 0ffb 003e 355d 5f3e
00000040: 5fa8 053e d530 ab3e 6858 343c a6d5 163d
00000050: 8b90 763c 374c 533d d485 adbc 5203 093e
00000060: 7c1d 1c3e b9e1 cbbd d055 923d 8708 d2bd
00000070: 3b39 263e 6e25 1dbd 6224 093e cb12 84bd
00000080: 5739 25be 5c77 2e3d 6d30 c13b dd1b 8a3b
00000090: d867 4abe bb8d 7d3d 2c17 123e c94c c63c
000000a0: 15c4 55be d389 8abe 36f5 8ebe beb6 aa3d
000000b0: e813 34bd bbe6 85be ba1d 313e 9fdb 62bd
000000c0: 4c80 8e3d 4dd3 b93c 0f92 55bd cb01 cdbd
000000d0: 6297 c2bd 1b39 95bc dc2e 113c 06e7 813d
000000e0: 847a 603d ed91 973d faea ae3d fc5f 723d
000000f0: 3c1d a93d 166c 033c 971e 703c d79d e43c
00000100: ff59 003e dfd0 1a3d 6bbd 4e3c a02a 36bc
00000110: 504b 5dbe 6d0f e83d 10e6 cf3c 5cbc 723d
00000120: 9f02 babd 8464 413e 0da9 a13c 3c9c 24be
00000130: 7ca3 b03d 2fc8 c33d 202e 79bc 202c 013d
00000140: a565 373d 592d a03d 1cb4 623d 14ba 6ebb
00000150: 2018 37bd defc 15bc 2cf2 083e 11f6 88bc
00000160: 9360 eebc 8067 f4bc ad0a 9bbc d03f 003e
00000170: fc80 58be e8e7 9b3d 2dc9 a7bd bb46 aebd
00000180: 0e3e a43c d68c 89bc 59f0 d6bd 3ad6 efbc
00000190: 842f cfbd 7ca8 463b 0023 fdbd c5e2 813c
000001a0: d1a9 ddbc 0996 90bd 7c58 58be 1fc2 353c
000001b0: 5d31 0d3c db18 8dbd c2a9 f4bc 331d 96bc
000001c0: 3eb0 093e d66b de3d b775 653e a6cf 40bd
000001d0: d748 f3bd acec a5bd ef78 7dbd 8cf0 893d
000001e0: 688a a6bd c274 d63d d6ea bc3d 8a30 99bd
000001f0: 6833 8d3c d7a0 38bd f110 963d 4b1b 0a3e
00000200: 29d2 6d3e 89a8 ab3d fbbe 8abd dccf 893d
00000210: ae67 673d 15db dd3c ee95 d3bc c648 68be
00000220: 74d3 f7bd 2c5e c1bd 1f57 e03d 8bc5 ba3d
00000230: adbc 243d 216f 073d e6d8 b63d 22d5 273e
00000240: 473a 323d 31f8 25bd 2f33 683e 210a e63d
00000250: f1c6 1abd 3cdb 22be 94ac 21bd e9d7 563d
00000260: cbdb 2ebd 89d6 b3bd 8ec0 4ebd db45 c1bd
00000270: abac 4fbd cf22 b43d 20c5 57bd 8e6a 34bc
00000280: 4b09 3dbc 8818 2e3d 5f7d 863c 9975 63be
00000290: eb21 20bd 9551 163e 5287 0e3e f2e8 153e
000002a0: 69cb f1bd d85f cdbd e763 d4bd 13fe e6bd
000002b0: 8ec0 933b 6b67 3cbe 597d 7bbb 0a97 a03d
000002c0: 113f 553d d904 52be a850 30be bbc5 ec3d
000002d0: 3c63 153e d5a6 20be 129d f43c 0fb2 06bd
000002e0: fcaa 793d efcb f0bc 3541 1fbe f5aa 7dbd
000002f0: 220f 2dbe c700 21be 55ea b63d f0df 98bd
00000300: 6168 07be 5f94 4f3d 1796 d63c bce6 c03c
00000310: 494c fdbc fe5f acbd 4ca5 db3d 3ca3 d83c
00000320: c8a4 753d 104c 1ebc b372 44be e571 d33d
00000330: c178 62be 813f b3bd f4c6 3e3d ec0e e73d
00000340: 42ab 8cbe 12d9 073c 809a 8e3d e40f de3c
00000350: 0f5c f83a 2b11 dfbd 5c94 323d d7fa 2d3e
00000360: 4277 35be f980 39be 5df5 4b3d 4d75 7b3d
00000370: 430c 37bd 4d4e 7aba 8516 333e a391 063d
00000380: 59cb 8a3c 8225 69bd 43dd 3bbd c789 ee3a
00000390: 9f1a 2b3e 5781 89bd 7ebc 43be f669 923d
000003a0: 6e2f 373e 930e 1f3e 3ec5 90bd f58f 0d3d
000003b0: f468 00bd a58a 273e d1bb 0ebe 4550 b6bc
000003c0: 3fb4 10be 7709 5f3d ae37 3e3e ebf7 17be
000003d0: 59ac 10be db91 8a3b d483 1e3e c829 b13e
000003e0: 544c bc3d 6dc0 603d 96dc a33e c6fe 1c3c
000003f0: e45b 7f3d c41b 6d3d 653a 523e 43fe cc3d

linear_layer.4.bias f4 [100]
-0.00799077 -0.03436259 0.06468335 -0.018730586 -0.13706446 -0.019061947 -0.03688419 0.012459777
0.045454178 0.02855218 0.015491543 -0.094352864 -0.022969283 0.017546995 -0.02788079 0.019067355
0.03597601 -0.026560167 -0.06819876 0.054080952 0.059835814 -0.02724074 0.0065497835 0.008764932
0.014873968 0.028749524 -0.01770482 -0.0082374355 -0.037328605 -0.044740524 0.027659042 0.01639404
-0.023996428 -0.037282903 0.044215262 -0.07353626 0.043225057 0.15475315 0.015415642 -0.039091498
-0.0030938166 0.019771395 -0.0006970035 -0.011219502 -0.05420044 0.0145171685 -0.03459273 -0.020708298
-0.0017378865 -0.019954119 0.0013935093 -0.008566781 0.0024617391 0.019507052 0.008044927 -0.025323544
0.002071147 0.00164602 -0.020135287 -0.0020503704 -0.00074387516 0.07736658 0.01049758 -0.008198333
0.0109654805 0.0045739007 0.0017292311 -0.020040223 0.043477748 -0.024925811 -0.060835622 -0.010104928
0.024115158 0.0053513097 0.029196301 -0.03759696 -0.00985992 0.026725827 0.043865867 0.009677443
0.054208606 -0.030073317 0.08211986 0.05721598 -0.056656096 -0.059463773 -0.0072442186 -0.021348473
-0.0099463565 0.0131081585 0.0074445712 0.015131029 -0.022772547 0.021205567 0.06008354 -0.026702488
0.0013379194 -0.019645901 -0.044307675 -0.019094296
00000000: b8eb 02bc cabf 0cbd b478 843d e370 99bc
00000010: a05a 0cbe cd27 9cbc e013 17bd 1824 4c3c
00000020: 292e 3a3d 43e6 e93c 3ed0 7d3c 133c c1bd
00000030: 142a bcbc b7be 8f3c 4166 e4bc 2433 9c3c
00000040: 955b 133d b594 d9bc cbab 8bbd fd83 5d3d
00000050: 6616 753d f927 dfbc 919f d63b ca9a 0f3c
00000060: f2b1 733c 1f84 eb3c b309 91bc 4ff6 06bc
00000070: e1e5 18bd d741 37bd 3795 e23c cb4c 863c
00000080: 2894 c4bc f5b5 18bd 101b 353d 2e9a 96bd
00000090: c20c 313d 9c77 1e3e e491 7c3c 681e 20bd
000000a0: a1c1 4abb 9ff7 a13c 1db7 36ba 01d2 37bc
000000b0: 4801 5ebd 6bd9 6d3c 1bb1 0dbd 73a4 a9bc
000000c0: cbc9 e3ba d276 a3bc 6aa6 b63a af5b 0cbc
000000d0: 2155 213b 41cd 9f3c dfce 033c 5273 cfbc
000000e0: 15bc 073b 44bf d73a c2f2 a4bc 825f 06bb
000000f0: 9e00 43ba 5f72 9e3d 0bfe 2b3c 4d52 06bc
00000100: 8fa8 333c a9e0 953b 5ea7 e23a 652b a4bc
00000110: b915 323d 3731 ccbc c62e 79bd 248f 25bc
00000120: 278d c53c 0a5a af3b 152d ef3c 45ff 19bd
00000130: 808b 21bc 1ff0 da3c b2ac 333d 238e 1e3c
00000140: d809 5e3d 515c f6bc 752e a83d 4e5b 6a3d
00000150: 3910 68bd 4990 73bd e960 edbb fee2 aebc
00000160: 0bf6 22bc 9ac3 563c 97f1 f33b 23e8 773c
00000170: 7e8d babc 4cb7 ad3c 281a 763d 2dbf dabc
00000180: 205d af3a 71f0 a0bc f77b 35bd a46b 9cbc

linear_layer.5.weight f4 [100, 100]
0.057131026 0.046054237 0.02275627 0.026300872 -0.026716497 -0.22100624 -0.13454935 -0.03838066
-0.06102343 0.07371045 0.052143045 -0.04385958 -0.11459051 -0.080192186 0.015032945 0.07382517
-0.047342032 -0.057873793 0.06682701 -0.018644137 -0.18990172 0.09819827 0.02944637 0.028553747
-0.1279769 0.099886134 -0.03957179 -0.0077315737 0.004689393 -0.17233762 0.07362501 0.03925996
0.09299492 -0.020115241 0.19344422 0.03158804 0.08868042 -0.27351812 0.07144708 0.21016063
-0.14130099 -0.14208215 -0.0070739905 0.08670778 -0.080648616 0.10389019 0.07762553 0.1519795
-0.249911 -0.051519424 -0.16836298 -0.011418889 -0.019967245 0.08191839 0.0055966494 0.008573144
0.13995151 -0.12790091 0.04691427 0.13698667 0.012103807 0.045398217 -0.10081339 0.21091455
-0.07086587 -0.15699635 -0.07009624 0.09574913 -0.061755836 -0.12399115 -0.14087546 0.12777494
0.031822223 0.08575097 -0.018449755 -0.111129545 -0.038598433 -0.026464935 0.07100559 0.1420492
-0.050362043 0.054641843 -0.0487985 -0.25556776 0.067374565 -0.203243 0.21849543 0.072776064
-0.007276158 -0.0045077424 -0.030404875 0.26873583 -0.011742028 -0.26873046 0.07100984 0.014827261
0.12819989 -0.1324143 -0.05269509 0.14431202 -0.080315396 0.06177355 -0.031748075 0.11018359
-0.057799067 0.07942413 0.1614473 0.04451437 -0.043528564 -0.14231789 -0.18223622 0.06393896
-0.08236769 -0.0019744302 -0.048315182 -0.09204742 -0.0016107692 0.13383305 0.11983539 -0.18705404
-0.1846983 -0.042210292 0.030756917 0.119286664 0.09895607 0.096708566 0.08927314 0.009297373
0.09598398 0.08290398 -0.017582528 0.071326494 -0.038761206 0.01415884 -0.23511513 0.098934695
0.05445575 -0.13966031 -0.10349705 0.07774747 0.00029387724 -0.10260803 0.13400365 -0.100323215
0.16389234 -0.031264428 0.17692156 0.035428293 0.06404245 0.014594953 -0.0014460857 0.23038432
-0.07891009 0.034352418 -0.06864265 0.12703285 -0.114923194 0.16364227 0.20575996 0.09419816
-0.025925035 -0.13036022 0.0039447555 0.109537594 0.08133121 -0.0019326337 0.17429732 -0.03879968
-0.1652939 0.064869374 0.15082087 -0.07408871 0.0022945574 0.03694653 0.037428148 0.18208978
-0.06744376 -0.026120435 -0.011609409 -0.111797504 -0.12454507 -0.00057853875 -0.09821544 -0.072713725
-0.10217257 0.16397046 -0.054593477 0.08027062 0.08415828 0.028915858 -0.1821887 0.079323396
0.0719151 -0.089331806 -0.010678525 0.011741191 -0.018304026 -0.08442237 0.03949155 -0.123766616
-0.08026265 0.033096913 -0.038408134 -0.15760505 -0.077206075 0.12436952 -0.09751031 -0.16739836
0.07445084 0.01104471 0.024139537 -0.13474578 0.008575706 0.034306746 0.12197042 -0.17502652
0.17339876 0.0024610183 0.028551552 -0.018398063 0.1084193 -0.07991145 -0.048169382 0.12928672
0.10875339 -0.0837748 -0.11168325 -0.017739011 -0.013320924 0.1730473 0.18005858 -0.028445028
-0.06639961 0.109479025 0.116175815 -0.022407832 0.14636235 0.18011416 0.10800282 0.15114643
-0.09306568 -0.063854575 -0.12232593 0.08181705 -0.053624097 -0.09255462 0.14182888 -0.118440434
-0.07224592 0.11052781 0.08921737 -0.085450836 -0.13764086 0.020171123 -0.01798245 -0.10314288
00000000: 3902 6a3d 5ea3 3c3d 5b6b ba3c ed74 d73c
00000010: 8edc dabc 764f 62be 4ec7 09be 0a35 1dbd
00000020: b4f3 79bd 81f5 963d f293 553d 1aa6 33bd
00000030: 6eae eabd cd3b a4bd be4c 763c a731 973d
00000040: b8e9 41bd 120d 6dbd 99dc 883d 97bb 98bc
00000050: 9975 42be 2d1c c93d 8439 f13c 8ce9 e93c
00000060: 600c 03be 1a91 cc3d 0716 22bd 2459 fdbb
00000070: 7ba9 993b 4679 30be b6c8 963d 0dcf 203d
00000080: 1f74 be3d b8c8 a4bc 3e16 463e 7662 013d
00000090: 149e b53d 910a 8cbe d952 923d 5934 573e
000000a0: 35b1 10be fc7d 11be efcc e7bb d993 b13d
000000b0: 1a2b a5bd 61c4 d43d 22fa 9e3d 84a0 1b3e
000000c0: abe8 7fbe 0806 53bd 5867 2cbe 4b16 3bbc
000000d0: 5992 a3bc d4c4 a73d 1964 b73b 5f76 0c3c
000000e0: 734f 0f3e 75f8 02be 2d29 403d 3c46 0c3e
000000f0: 0c4f 463c 7bf3 393d 4077 cebd fcf9 573e
00000100: 2022 91bd a7c3 20be 9e8e 8fbd 1f18 c43d
00000110: b0f3 7cbd 12ef fdbd a841 10be 6fd7 023e
00000120: 0558 023d 349e af3d f123 97bc e397 e3bd
00000130: 6419 1ebd fecc d8bc 616b 913d 5875 113e
00000140: 6e48 4ebd 20d0 5f3d f0e0 47bd c7d9 82be
00000150: adfb 893d ef1e 50be 44bd 5f3e 9e0b 953d
00000160: d66c eebb afb5 93bb a513 f9bc be97 893e
00000170: a361 40bc 0a97 89be 9b6d 913d 0aee 723c
00000180: d546 033e 9d97 07be cfd6 57bd 88c6 133e
00000190: 667c a4bd 4306 7d3d 450a 02bd efa7 e13d
000001a0: b7be 6cbd 1ea9 a23d 7152 253e b354 363d
000001b0: 024b 32bd c8bb 11be 229c 3abe 6ef2 823d
000001c0: 64b0 a8bd 7165 01bb 24e6 45bd 5c83 bcbd
000001d0: 7220 d3ba 880b 093e 426c f53d 188b 3fbe
000001e0: 8d21 3dbe b3e4 2cbd eef5 fb3c 914c f43d
000001f0: 7ba9 ca3d 240f c63d d6d4 b63d 0254 183c
00000200: 4093 c43d 90c9 a93d 3c09 90bc a013 923d
00000210: 12c4 1ebd 7bfa 673c 05c2 70be 469e ca3d
00000220: fe0c 5f3d 1d03 0fbe 43f6 d3bd 113a 9f3d
00000230: 8913 9a39 2924 d2bd 4138 093e 4276 cdbd
00000240: 65d3 273e 210f 00bd ed2a 353e 421d 113d
00000250: b028 833d ab1f 6f3c 968a bdba dee9 6b3e
00000260: 9d9b a1bd 1fb5 0c3d 8594 8cbd e614 023e
00000270: da5c ebbd d791 273e bdb2 523e f7ea c03d
00000280: bd60 d4bc 267d 05be 0243 813b 3f55 e03d
00000290: fa90 a63d 6d50 fdba ff7a 323e 6aec 1ebd
000002a0: ce42 29be 3cda 843d c970 1a3e d2bb 97bd
000002b0: 4960 163b 3f55 173d 424e 193d be75 3a3e
000002c0: f41f 8abd 86fa d5bc 6435 3ebc 17f6 e4bd
000002d0: 7c11 ffbd 14a9 17ba 2d25 c9bd efea 94bd
000002e0: da3f d1bd dfe7 273e 699d 5fbd ec64 a43d
000002f0: 2d5b ac3d f3e0 ec3c ad8f 3abe 4e74 a23d
00000300: 3948 933d 98f3 b6bd fbf4 2ebc 205e 403c
00000310: 53f2 95bc a3e5 acbd e4c1 213d 5a79 fdbd
00000320: bf60 a4bd a190 073d d951 1dbd 3863 21be
00000330: 381e 9ebd 72b5 fe3d 7cb3 c7bd 7a6a 2bbe
00000340: af79 983d dff4 343c 47c0 c53c ccfa 09be
00000350: 1e81 0c3c 3b85 0c3d a1cb f93d 273a 33be
00000360: 728f 313e 0949 213b f2e4 e93c 89b7 96bc
00000370: f00a de3d 9da8 a3bd 424d 45bd bd63 043e
00000380: 19ba de3d 1f92 abbd 30ba e4bd 6751 91bc
00000390: 0140 5abc 5033 313e 4761 383e 8c05 e9bc
000003a0: 85fc 87bd 8a36 e03d 96ed ed3d a190 b7bc
000003b0: 03e0 153e d96f 383e 9530 dd3d 21c6 1a3e
000003c0: 3899 bebd 30c6 82bd 0486 fabd b38f a73d
000003d0: f1a4 5bbd 478d bdbd 973b 113e e690 f2bd
000003e0: abf5 93bd 685c e23d 99b7 b63d d900 afbd
000003f0: baf1 0cbe e93d a53c ee4f 93bc 933c d3bd
