ac_2d_model_para_5/checkpoint_2150.pth (torch, 291152 bytes, 17 tensors)

linear_layer.0.weight f4 [100, 3]
0	0x3e682a21	0.22672321
1	0x3e22377c	0.15841478
2	0xbe44ae5e	-0.19207141
3	0x3c5ce154	0.013481457
4	0xbd927e28	-0.07152969
5	0x3de47c17	0.11156481
6	0x3d4ad32f	0.049517807
7	0xbd7d31af	-0.06181496
8	0xbe916972	-0.2840076
9	0x3e945244	0.28969014
10	0xbd0f9bdf	-0.03506076
11	0x3e5ad719	0.21371116
12	0xbe2c4d0e	-0.16826269
13	0xbe1d0cdd	-0.15336938
14	0xbebbad46	-0.36655635
15	0xbd94f65c	-0.07273552
16	0xbe4c1eb0	-0.19933581
17	0xbe0a56b4	-0.13509637
18	0xbdd88179	-0.1057157
19	0x3e09cc8a	0.13456932
20	0xbdfada6a	-0.122486904
21	0xbd9ef2b5	-0.077611364
22	0xbd349314	-0.044085577
23	0xbeaa4b92	-0.3326078
24	0x3f08b40d	0.53399736
25	0x3d4a5924	0.049401417
26	0x3c9e3b16	0.019315284
27	0xbe2abf25	-0.16674478
28	0xbe3fc118	-0.18726003
29	0xbd98c36d	-0.074591495
30	0x3d17bbc6	0.03704431
31	0xbe513533	-0.2043045
32	0x3e07fac7	0.13279258
33	0xbdead3f0	-0.11466205
34	0x3d85796d	0.06517301
35	0xbe72b48b	-0.23701684
36	0x3ee84f3e	0.45372957
37	0xbb8f38e5	-0.004370796
38	0xbde9a06d	-0.11407552
39	0x3e9b9cfb	0.30393204
40	0xbc1ac9cb	-0.009447525
41	0x3e809929	0.25116852
42	0x3e4f1af4	0.20225126
43	0x3e20f293	0.15717535
44	0x3e3df732	0.18551329
45	0xbe3fbeaf	-0.18725084
46	0xbe4766b2	-0.19472769
47	0x3ce52f3b	0.027976623
48	0x3ea4ffd0	0.3222642
49	0x3cb1f796	0.021724503
50	0xbe93ebe1	-0.288909
51	0xbe5bd7bf	-0.2146902
52	0xbe18d20d	-0.14923878
53	0xbe1ea5df	-0.15492962
54	0xbea2f883	-0.31830224
55	0xbc8ea9db	-0.017414978
56	0x3dc494a1	0.09598661
57	0x3e206947	0.1566516
58	0x3e250906	0.16116723
59	0xbe72aa22	-0.23697713
60	0x3db20708	0.08692747
61	0xbe4db686	-0.20089158
62	0x3da50b5d	0.08058808
63	0x3ee2c97e	0.4429435
64	0xbdae1a5d	-0.08501122
65	0x3d9e6daa	0.077357605
66	0xbe8eb091	-0.27869084
67	0xbe1d9f4c	-0.15392798
68	0x3cbf489b	0.02335005
69	0x3e24c79c	0.1609177
70	0x3cc9bf81	0.024627449
71	0xbef5fed3	-0.48045978
72	0x3e793a07	0.24338542
73	0x3d0b6a1b	0.034036737
74	0x3e9cbf0a	0.306145
75	0x3e3e9340	0.18610859
76	0x3da91a6d	0.082569934
77	0x3b8552d2	0.004068711
78	0xbea3a270	-0.31959867
79	0xbe5c9904	-0.21542746
80	0xbdade403	-0.084907554
81	0x3d6404a6	0.055668496
82	0x3e890047	0.26758024
83	0x3d61cf50	0.05512935
84	0x3e59fa6b	0.21286933
85	0xbe581bb9	-0.21104325
86	0x3d58f6c4	0.05296971
87	0x3dde9fac	0.10870299
88	0xbc9a29f9	-0.018818842
89	0xbdd44416	-0.10364549
90	0xbd3ffded	-0.046873022
91	0xbe2517db	-0.16122381
92	0xbe0f22ee	-0.13978168
93	0x3ee378a1	0.4442797
94	0x3c85d810	0.016338378
95	0x3ea77db1	0.32713082
96	0x3dcec657	0.10096424
97	0xbe661b34	-0.22471315
98	0x3e07a7d8	0.13247621
99	0xbed4b1ea	-0.41541988
100	0x3c8acace	0.016942408
101	0xbdd6fada	-0.10497065
102	0x3d87f0f9	0.06637759
103	0xbdc71655	-0.09721056
104	0xbe941610	-0.28923082
105	0x3e05490e	0.1301615
106	0xbe13200f	-0.14367698
107	0x3e5509d7	0.20804535
108	0xbe25097b	-0.16116898
109	0x3e891512	0.26773888
110	0x3ca1cf0c	0.019752048
111	0x3e955fc4	0.29174626
112	0x3e15fafa	0.14646521
113	0x3d7c0426	0.061527394
114	0xbd042f4f	-0.03227168
115	0xbdba92b8	-0.09110016
116	0xbecd55fe	-0.4010467
117	0xbe175d3f	-0.14781664
118	0xbce31710	-0.027720958
119	0xbe1b7add	-0.15183587
120	0x3db762c3	0.08954384
121	0x3dc1ac74	0.09456721
122	0xbe040bdb	-0.12895148
123	0xbe58a9e1	-0.21158554
124	0xbc2e42ee	-0.0106360745
125	0x3e0937c3	0.13400178
126	0xbe741f57	-0.2384008
127	0x3e2f8a91	0.17142703
128	0xbe033601	-0.1281357
129	0x3e1e84d7	0.15480362
130	0xbd87ea70	-0.06636512
131	0x3e826c06	0.2547304
132	0xbe236934	-0.159581
133	0x3e4c0c10	0.19926476
134	0x3e03a265	0.12854917
135	0xbda00a72	-0.07814492
136	0xbde4b18c	-0.11166677
137	0x3e17f527	0.14839612
138	0xbeed9764	-0.46404564
139	0x3e20d8f3	0.1570776
140	0xbe8fde99	-0.28099516
141	0x3ee0868b	0.43852648
142	0x3a9ad16c	0.001181168
143	0xbe003caf	-0.12523149
144	0x3dc12b64	0.09432104
145	0x3dc1872d	0.09449611
146	0x3dc0ea23	0.09419658
147	0x3ecf65af	0.40507266
148	0xbdd33f53	-0.103148125
149	0xbdedab74	-0.11604968
150	0x3e8679cc	0.262648
151	0x3de5820e	0.112064466
152	0xbdf841b3	-0.12121906
153	0x3e58af5a	0.21160641
154	0xbd62696d	-0.055276323
155	0xbe191b2b	-0.1495177
156	0xbddf2408	-0.10895544
157	0x3e821ba0	0.254117
158	0x3dc36a97	0.09541815
159	0x3c992cb7	0.01869808
160	0x3d675080	0.056473255
161	0x3e84e4ed	0.25955907
162	0x3e031416	0.12800631
163	0x3daee912	0.085405484
164	0x3bb421af	0.0054971795
165	0x3eb5476b	0.3540605
166	0xbd959045	-0.07302908
167	0x3ddd50b8	0.108064115
168	0x3f0ea4a0	0.5571995
169	0x3c722d31	0.014781282
170	0xbc4dc865	-0.012559985
171	0x3eb279fd	0.34858695
172	0xbdf455ad	-0.11930404
173	0xbe82a2da	-0.2551487
174	0x3eb8f416	0.36123723
175	0x3c084c34	0.0083189495
176	0xbe12c200	-0.14331818
177	0xbd6e53b4	-0.058185294
178	0xbe2e45e2	-0.17018846
179	0x3e8b0093	0.27148876
180	0xbe17004b	-0.14746206
181	0x3df18247	0.117924266
182	0xbbdcb709	-0.0067356867
183	0x3c53542c	0.012898486
184	0x3e907c0c	0.2821964
185	0x3cc8fc65	0.024534414
186	0x3ea8c2a0	0.32960987
187	0xbe1a1037	-0.15045248
188	0xbd79df80	-0.06100416
189	0x3addd6e7	0.0016925008
190	0x3df16fbd	0.117888905
191	0xbe4ca480	-0.19984627
192	0x3ed908b3	0.4238945
193	0xbe1d4093	-0.15356664
194	0x3d921a49	0.0713392
195	0x3cf279f4	0.029599167
196	0x3dd4eecf	0.103971116
197	0x3ea58af1	0.32332566
198	0x3e208a23	0.15677695
199	0xbce46138	-0.027878389
200	0xbebe52b7	-0.3717248
201	0xbf041bca	-0.516049
202	0xbce328a6	-0.027729344
203	0x3dd74e53	0.10512986
204	0x3eca4962	0.39509112
205	0xbdf25513	-0.11832633
206	0x3c87aa42	0.016560677
207	0xbdcce1ec	-0.10004029
208	0x3dd490aa	0.10379155
209	0x3ccf0be9	0.025274234
210	0xbe99fd5d	-0.30076113
211	0x3c7e7bcd	0.015532446
212	0xbd151969	-0.036401186
213	0x3df65eb9	0.12029786
214	0x3e1e1b13	0.15440015
215	0x3db5d60c	0.08878717
216	0xbdb7b82f	-0.08970677
217	0x3e8851ce	0.26624912
218	0xbdca5a93	-0.09880557
219	0x3de9daab	0.11418661
220	0x3e1bde0d	0.15221424
221	0xbe5fdefe	-0.21862409
222	0x3f003dcb	0.5009429
223	0x3d038168	0.032105833
224	0xbda753aa	-0.081702545
225	0xbcf31459	-0.029672788
226	0x3eb3bb83	0.35103998
227	0x3e16440b	0.14674394
228	0xbe2f0a2f	-0.17093728
229	0xbed2ba3a	-0.41157705
230	0x3e81a96d	0.25324574
231	0xbec1e892	-0.3787275
232	0xbdc52c16	-0.09627549
233	0xbe333e62	-0.17504266
234	0xbcd5a4d7	-0.026079578
235	0x3e5e4788	0.21706975
236	0xbc06ace6	-0.008219933
237	0x3ceac9e9	0.028660731
238	0xbe4a2ddc	-0.19744056
239	0x3d5836d2	0.052786656
240	0x3e17454e	0.14772531
241	0xbd65e891	-0.056129996
242	0xbd1e4b2f	-0.03864592
243	0xbe1a4ae2	-0.15067628
244	0xbe4fd70e	-0.2029688
245	0xbda2fd52	-0.07958473
246	0xbe839c11	-0.25705007
247	0x3e2525d6	0.16127715
248	0x3daed6f8	0.08537096
249	0x3e3b7b76	0.18308815
250	0xbde46fd1	-0.1115414
251	0x3ef561f9	0.4792631
252	0x3e8da40e	0.27664226
253	0xbd0a5b63	-0.03377856
254	0xbe89670b	-0.26836428
255	0x3e59f539	0.21284951

linear_layer.0.bias f4 [100]
0	0xbcaf5980	-0.021404982
1	0xbd9516e2	-0.07279755
2	0x3e4b2780	0.19839287
3	0xbd29581b	-0.04134379
4	0x3c9ed51a	0.019388724
5	0xbd0d33e2	-0.034473307
6	0x3dac95b7	0.08426993
7	0x3e0ef924	0.13962227
8	0xbe49943b	-0.19685452
9	0x3d6201a1	0.055177335
10	0x3d6ce571	0.057836
11	0xbe0b6193	-0.1361144
12	0x3e5b000e	0.2138674
13	0x3e72b8ff	0.23703383
14	0x3d82a7f4	0.06379691
15	0x3a9e3749	0.001207092
16	0xbe147228	-0.14496672
17	0x3c9ebd36	0.019377332
18	0xbd01db11	-0.03170306
19	0xbb9f50c6	-0.004861924
20	0xbe04284b	-0.12905996
21	0xbd97ecf7	-0.07418244
22	0xbd3d5262	-0.046221144
23	0x3cd51d32	0.026014898
24	0x3d3edf9a	0.04659996
25	0x3e31fa74	0.17380697
26	0x3de87373	0.11350145
27	0xbd14bdea	-0.03631393
28	0x3d66e2d6	0.05636867
29	0xbdffb9c2	-0.12486602
30	0xbd980677	-0.07423108
31	0xbc6a2a24	-0.014292274
32	0x3e0ece41	0.13945867
33	0xbddfcadc	-0.10927364
34	0xbdab91d4	-0.08377424
35	0x3d93e1c5	0.072207965
36	0xbcd929de	-0.026509222
37	0xbe49766f	-0.19674085
38	0x3e238ab9	0.15970887
39	0x3e3fbfd8	0.18725526
40	0x3dc229ab	0.09480604
41	0xbd775302	-0.060381897
42	0x3d99e25c	0.07513878
43	0xbe9dcf96	-0.30822438
44	0x3cb4dc8c	0.022077821
45	0xbe06b898	-0.13156354
46	0xbe078240	-0.1323328
47	0x3cc1154c	0.023569725
48	0xbdc66cfb	-0.09688755
49	0xbe4c73c1	-0.19966032
50	0x3e94443b	0.28958306
51	0x3db3fa53	0.0878798
52	0xb928fcf9	-0.00016115968
53	0xbe80528f	-0.25062987
54	0x3ddcb91d	0.10777495
55	0x3e00640e	0.12538168
56	0x3d008987	0.031381156
57	0xbc131027	-0.008976019
58	0xbbeeee1d	-0.007291569
59	0x3c3637b6	0.011121681
60	0xbdf2166d	-0.11820684
61	0xbc95f224	-0.018303938
62	0x3ba5083f	0.0050363834
63	0x3e33941c	0.17536968
64	0xbe1318c3	-0.14364915
65	0x3db7d7f4	0.08976737
66	0xbe725bde	-0.23667857
67	0x3b13f887	0.0022578554
68	0xbdb7ebbd	-0.089805104
69	0x3dd27000	0.102752686
70	0x3e42d084	0.19024855
71	0xbdc31e15	-0.09527222
72	0xbdd4df6c	-0.10394177
73	0x3e6715c6	0.225669
74	0xbc927b1b	-0.017880967
75	0x3d02da0a	0.03194622
76	0x3cb3e227	0.021958424
77	0x3da74c0e	0.08168803
78	0xbe010d21	-0.12602665
79	0xbcfebf16	-0.031096976
80	0x3e1ed8fd	0.15512462
81	0x3e08cc08	0.13359082
82	0xbd5d5ec5	-0.054045457
83	0x3c7eed62	0.015559526
84	0x3d0abd8b	0.03387217
85	0x3d6f4e29	0.05842415
86	0x3e073a8d	0.13205929
87	0x3e223ec8	0.15844262
88	0xbde47011	-0.111541875
89	0xbdd6757b	-0.10471626
90	0xbe0eb0f6	-0.13934693
91	0xbe4f0a6d	-0.20218821
92	0xbd95eeab	-0.07320913
93	0x3e0b8a26	0.13626918
94	0xbd20ea55	-0.039285976
95	0x3d24d3e2	0.04024113
96	0x3e8a8fc2	0.27062804
97	0x3d8832c5	0.066503085
98	0xbd9f9182	-0.07791425
99	0x3d6ffb8a	0.058589496

linear_layer.1.weight f4 [100, 100]
0	0x3d64e457	0.055881824
1	0x3e1b393e	0.15158555
2	0xbd866eab	-0.06564077
3	0xbcc187f2	-0.023624394
4	0xbc76bc85	-0.015059595
5	0x3b99346d	0.004675439
6	0x3dcc2ed7	0.099698715
7	0x3d697657	0.056997623
8	0x3e17168d	0.14754696
9	0xbe1ae6ee	-0.15127155
10	0xbda20572	-0.07911195
11	0x3c329002	0.010898592
12	0xbe7d38e7	-0.24728738
13	0xbd9cab48	-0.07649857
14	0x3d870481	0.06592656
15	0x3d8bfb50	0.068350434
16	0xbe62ac63	-0.22136073
17	0xbe1ce3e1	-0.15321304
18	0x3e5b1c62	0.21397546
19	0x3b262cc3	0.002535627
20	0xbdb8a763	-0.090163015
21	0x3de0be26	0.10973768
22	0x3d108f79	0.035293076
23	0x3e19bd57	0.15013634
24	0xbd8f5552	-0.069986954
25	0x3b5ba984	0.0033517787
26	0xbdae9a48	-0.085255206
27	0xbc61fa8e	-0.013792647
28	0xbe71caea	-0.23612562
29	0xbdb676ca	-0.08909376
30	0xbc4fac00	-0.012675285
31	0xbbcc9a13	-0.006243953
32	0xbd2d59e1	-0.042322043
33	0x3e6cc213	0.23120908
34	0xbda8db49	-0.0824495
35	0xbd81b483	-0.06333258
36	0xbdbb0f60	-0.09133792
37	0xbc40100c	-0.011722576
38	0x3e048795	0.12942345
39	0xbe129b10	-0.14316964
40	0x3d502327	0.050814774
41	0x3e2967c6	0.16543493
42	0xbe0e4065	-0.13891752
43	0xbd629030	-0.05531329
44	0x3aeb591c	0.0017955634
45	0xbd0885cb	-0.03333072
46	0x3d68d574	0.05684419
47	0x3cbc2a40	0.022969365
48	0x3af438ac	0.0018632612
49	0x3dfc41e7	0.123172574
50	0xbc66ae48	-0.014079638
51	0xbe91c425	-0.2846996
52	0x3dece3b7	0.11566871
53	0x3dc00871	0.0937661
54	0xbd0c7b90	-0.034297526
55	0xbe5f91cd	-0.21832962
56	0xbe167d25	-0.14696176
57	0xbd9cef29	-0.07662804
58	0x3e17bad3	0.14817362
59	0x3e2e2bbe	0.17008874
60	0x3c610c19	0.013735794
61	0x3d81c725	0.06336812
62	0xbc2f1eee	-0.010688527
63	0xbe24cab8	-0.16092956
64	0xbcc1fdff	-0.023680685
65	0x3e3a43bf	0.18189906
66	0xbc45f033	-0.012081194
67	0x3d6defce	0.058090024
68	0x3cc57fe5	0.024108836
69	0xbdb601ff	-0.088870995
70	0x3c288b0f	0.01028706
71	0x3dc99dca	0.09844549
72	0xbd951cbf	-0.072808735
73	0x3d2885bc	0.041143164
74	0xbe810d23	-0.25205335
75	0x3cf29506	0.029612076
76	0xbd1e96d8	-0.038718075
77	0x3c164e15	0.00917389
78	0xbe3310b6	-0.17486843
79	0xbdefc558	-0.11707562
80	0xbd091854	-0.033470467
81	0xbc4f48d3	-0.01265164
82	0xbccf602a	-0.02531441
83	0xbdcc5955	-0.09977976
84	0x3d701bb7	0.05862018
85	0x3e00b864	0.1257034
86	0xbcf3a649	-0.029742377
87	0xbd9e1c00	-0.07720184
88	0x3dbff1de	0.093723044
89	0x3dfb4e7d	0.1227083
90	0xbbcb0464	-0.0061955918
91	0x3e08e8c0	0.13370037
92	0xbdb40f88	-0.08792025
93	0xbd843659	-0.064556785
94	0xbc021559	-0.00793966
95	0xbdd9b2c3	-0.10629799
96	0xbd81ab61	-0.06331516
97	0xbc9f668b	-0.019458076
98	0xbe056237	-0.13025747
99	0xbda10ca9	-0.07863743
100	0x3d44d60d	0.048055697
101	0x3e5e8976	0.21732125
102	0xbcac2e4b	-0.021018168
103	0x3d79a0c6	0.06094434
104	0xbd5e5d09	-0.054287944
105	0xbe2c282e	-0.16812202
106	0x3e09afaa	0.13445917
107	0xbe8dae43	-0.27672014
108	0xbd4da125	-0.050202508
109	0xbd914921	-0.07094026
110	0xbd87fa7c	-0.06639573
111	0x3d1d2da5	0.03837361
112	0x3dde83cf	0.10864984
113	0x3df5a298	0.11993903
114	0x3e2325da	0.15932408
115	0xbe18a61d	-0.14907117
116	0xbd2f42ec	-0.04278843
117	0xbe923d92	-0.285626
118	0x3c5b3ff4	0.013381947
119	0x3e41b916	0.18918261
120	0xbde6fba8	-0.11278468
121	0xbcbe3ac7	-0.023221387
122	0x3cf2b2ea	0.029626328
123	0x3df37c01	0.11888886
124	0x3e418bbb	0.18900959
125	0x3da4bd67	0.08043938
126	0xbdba540a	-0.090980604
127	0x3df53b71	0.11974228
128	0xbdfbc88d	-0.122941114
129	0xbda68add	-0.08131955
130	0xbd8d58b9	-0.06901688
131	0xbdd1791e	-0.102281794
132	0x3e3308dc	0.17483848
133	0xbde7c664	-0.11317137
134	0xbddd680d	-0.10810862
135	0x3d149029	0.036270294
136	0x3e40f997	0.18845211
137	0x3c900823	0.017582005
138	0xbcbeaba9	-0.023275213
139	0xbda8c132	-0.08239974
140	0x3e4f3f29	0.20238937
141	0xbdcb14b8	-0.09916061
142	0x3e00fdc2	0.12596801
143	0xbe3c1466	-0.18367156
144	0x3e4d6a82	0.20060161
145	0xbe6c0845	-0.2305003
146	0xbe8a70b3	-0.27039108
147	0xbd88ab33	-0.06673279
148	0x3d1ac82f	0.037788566
149	0xbdc23eec	-0.09484658
150	0xbc7a3f6f	-0.015273913
151	0xbd0ba9d9	-0.034097526
152	0x3db32003	0.0874634
153	0xbe2f6fb8	-0.17132461
154	0xbd27a383	-0.04092742
155	0x3dc50f4b	0.096220575
156	0x3cd12ca7	0.025533987
157	0xbd9b4a14	-0.07582489
158	0xbdf70781	-0.12061978
159	0xbd2c3f80	-0.042052746
160	0x3e08a6af	0.13344835
161	0xbdb66ff3	-0.08908071
162	0xbca71183	-0.020394092
163	0x3d6f8fa4	0.058486596
164	0xbe0f9d4e	-0.1402485
165	0x3e187c1d	0.14891095
166	0xbd1b85c4	-0.037969366
167	0xbe3af684	-0.18258101
168	0xbec00578	-0.37504172
169	0x3e6fc1bc	0.23413748
170	0xbc91cdd5	-0.017798344
171	0x3da01e40	0.0781827
172	0x3d3d4b11	0.046214167
173	0x3e0b38a5	0.13595827
174	0x3de47c89	0.11156566
175	0x3e3f43a1	0.18678142
176	0x3c01d839	0.007925087
177	0xbb743a62	-0.0037266244
178	0xbde4ad4a	-0.11165865
179	0x3d48958d	0.048970748
180	0x3e50b83e	0.20382783
181	0xbe512007	-0.20422374
182	0xbd263308	-0.04057601
183	0x3da6aa0c	0.081379026
184	0x3c789b0c	0.015173685
185	0xbda074d1	-0.07834781
186	0x3d0531aa	0.032518066
187	0x3d20aa8a	0.03922514
188	0x3c56d486	0.013112193
189	0xbe0a4857	-0.13504158
190	0x3da657ff	0.08122253
191	0xbe03efc1	-0.12884428
192	0x3cde7213	0.027154004
193	0xbdc30a81	-0.09523488
194	0x3dfa2a58	0.12215108
195	0xbe06bc57	-0.13157783
196	0x3e24d878	0.16098201
197	0x3e105714	0.14095718
198	0xbdefce67	-0.1170929
199	0x3e4c8545	0.19972713
200	0xbde517fa	-0.11186214
201	0xbd4d9f6f	-0.050200876
202	0x3dd3f6f6	0.103498384
203	0xbd878b90	-0.06618416
204	0xbe04602c	-0.12927312
205	0x3d42d8b3	0.04756994
206	0xbd04fa08	-0.03246501
207	0x3e191854	0.14950687
208	0xbe4533de	-0.19258067
209	0xbce39cb4	-0.027784683
210	0x3dae2d59	0.08504743
211	0x3d166a70	0.0367226
212	0xbdd882d2	-0.10571827
213	0x3c1e41de	0.009659259
214	0x3cf13aa7	0.029446913
215	0xbcf5d15e	-0.03000706
216	0xbca1c851	-0.019748839
217	0x3dff0b67	0.12453347
218	0xbe23c562	-0.15993264
219	0xbe2bfd12	-0.16795757
220	0x3d9a36a1	0.07529951
221	0x3d9a0299	0.07520027
222	0x3d1ba1b1	0.037995998
223	0xbe0c1eaa	-0.13683572
224	0xbe2300f9	-0.1591834
225	0xbe2b1118	-0.1670574
226	0x3d39d0f0	0.045365274
227	0x3d9df5a3	0.07712867
228	0xbd24a071	-0.04019207
229	0x3dca795a	0.09886427
230	0xbe01b3d9	-0.12666263
231	0xbd9bcdbb	-0.07607599
232	0x3d058eb8	0.03260681
233	0x3c20ef35	0.009822656
234	0x3c840383	0.016114956
235	0x3bdf2492	0.0068097794
236	0xbdd2c4e3	-0.102914594
237	0xbdade66a	-0.084912136
238	0xbd89ca68	-0.06728059
239	0x3c8badbd	0.017050618
240	0x3e6aedab	0.22942226
241	0x3e5083e7	0.20362817
242	0xbcacdbff	-0.021100996
243	0x3e0d110b	0.13776033
244	0xbdfec17a	-0.124392465
245	0x3e153717	0.14571796
246	0x3de75578	0.11295599
247	0xbe0d3043	-0.13787942
248	0xbd8b7006	-0.06808476
249	0xbdbded95	-0.09273831
250	0x3d45d1af	0.048295673
251	0x3bbfc2e2	0.0058520893
252	0xbd3c661a	-0.04599581
253	0xbd7f2e11	-0.06229979
254	0xbe1749ad	-0.14774199
255	0xbd097a5e	-0.033563964

linear_layer.1.bias f4 [100]
0	0xbda9d178	-0.08291906
1	0x3da9b9cf	0.08287393
2	0xbcc8986e	-0.024486747
3	0x3e414c5a	0.18876782
4	0xbcba7359	-0.02276008
5	0xbd84056b	-0.06446346
6	0xbdea1b7c	-0.114310235
7	0x3e07b3cf	0.13252185
8	0xbde0f6e6	-0.10984592
9	0x3dac421f	0.08411049
10	0xbdabc36f	-0.083868854
11	0xbcaf0c3d	-0.02136814
12	0x3e0d3b61	0.13792183
13	0x3dc3eae8	0.09566289
14	0xbd916325	-0.070989884
15	0xbd9d205d	-0.076721884
16	0x3b74c25a	0.0037347288
17	0x3e02066f	0.12697767
18	0x3cb341f2	0.021882031
19	0xbd700eec	-0.05860798
20	0xbd56f0ff	-0.052475926
21	0x3d362c8f	0.044476088
22	0xbcfb23e1	-0.030656757
23	0x3db9a008	0.09063727
24	0x3e11ac45	0.14225872
25	0x3d09e07b	0.033661347
26	0x3e1c8783	0.15286069
27	0xbd5daf68	-0.05412236
28	0xbdbff015	-0.09371964
29	0xbd7b0b00	-0.061289787
30	0xbe6ab19b	-0.22919314
31	0x3e00050b	0.12501924
32	0x3b7f68a4	0.0038972283
33	0xbdc0069e	-0.09376262
34	0xbd9494dd	-0.07254956
35	0x3da58aa1	0.08083082
36	0x3e065dde	0.13121745
37	0xbe1820aa	-0.1485621
38	0x3c2a53b5	0.010395934
39	0xbca0c52f	-0.019625274
40	0xbde5c3d2	-0.112189904
41	0xbe09507e	-0.13409612
42	0x3d04a7ce	0.032386594
43	0x3e240c77	0.1602038
44	0xbd8fcefa	-0.070218995
45	0x3c29e886	0.010370379
46	0x3afe8431	0.0019418058
47	0xbe0f6e86	-0.14007005
48	0x3d970f69	0.07375986
49	0xbddd2ca9	-0.10799534
50	0xbd545ab4	-0.051844314
51	0xbba0a0bd	-0.004901974
52	0xbb9d6538	-0.004803326
53	0xbdf0d8f5	-0.11760131
54	0x3c1ea509	0.009682902
55	0x3cb62a2b	0.022236904
56	0x3e0f968c	0.14022273
57	0xbdbaa478	-0.09113401
58	0xbb370bc0	-0.0027930588
59	0x3cfdcce0	0.030981481
60	0xbe0d7ffa	-0.1381835
61	0xbbc75c8f	-0.006084032
62	0x3d125445	0.035724897
63	0x3e2c8f31	0.16851498
64	0x3d2a62a0	0.041597962
65	0x3d1854d8	0.03719029
66	0xbde901ca	-0.11377294
67	0x3cb264c3	0.021776563
68	0x3b7ac195	0.0038262357
69	0xbe307fe4	-0.17236286
70	0xbdc40f40	-0.09573221
71	0x3bdd799b	0.0067588813
72	0xbd34740c	-0.044055983
73	0xbd1f92de	-0.038958423
74	0x3da7936f	0.081824176
75	0x3c25cff6	0.0101203825
76	0x3da64f81	0.08120633
77	0xbe09a84a	-0.13443103
78	0x3d71f758	0.059073776
79	0xbd532b0f	-0.051554736
80	0xbe0db8f4	-0.13840085
81	0xbd924e33	-0.071438216
82	0x3d0f281f	0.03495037
83	0xbce7b0cf	-0.028282551
84	0x3dc62656	0.09675281
85	0x3cf42e70	0.0298073
86	0xbc123976	-0.008924833
87	0x3d746f6b	0.05967657
88	0x3e270d5c	0.1631369
89	0xbd0b287d	-0.03397416
90	0xbdb40ef6	-0.08791916
91	0xbe45fe7e	-0.19335362
92	0x3dc5d64d	0.09660015
93	0x3ce00d6d	0.027350152
94	0x3d54f776	0.05199381
95	0x3d1564b5	0.036472995
96	0x3d870892	0.065934315
97	0xbc16f8e7	-0.009214616
98	0xbc2e7d27	-0.010649956
99	0x3dbd24fd	0.092355706

linear_layer.2.weight f4 [100, 100]
0	0xbd56b80f	-0.052421626
1	0x3ce70dea	0.028204877
2	0x3d86a7a0	0.06574941
3	0xbe83f10b	-0.2576984
4	0x3dc07274	0.0939683
5	0xbd24481e	-0.04010784
6	0x3d7a1393	0.061053824
7	0xbdb73d87	-0.08947282
8	0x3dc6851d	0.09693358
9	0xbd6778dd	-0.05651175
10	0xbd2e1f53	-0.04251034
11	0x3d1947b8	0.037421912
12	0xbd8589d6	-0.06520431
13	0xbdc0545d	-0.09391091
14	0x3cda8aa9	0.026677446
15	0xbe0b4237	-0.13599478
16	0x3d3fc2af	0.046816524
17	0xbdb4a150	-0.088198304
18	0xbd0eb98c	-0.03484492
19	0x3e03ff0f	0.12890266
20	0x3ce1ded1	0.027572067
21	0x3d442082	0.047882564
22	0xbd7ee056	-0.062225662
23	0xbd98b4f7	-0.07456391
24	0xbe043edf	-0.12914608
25	0x3ac9c08a	0.0015392464
26	0xbe662b3a	-0.22477427
27	0xbc877082	-0.01653314
28	0x3ce73ecc	0.028228186
29	0xba4d5a36	-0.0007833572
30	0x3d53a02d	0.051666427
31	0xbd71411c	-0.058899984
32	0x3c8252d0	0.015908629
33	0x3bbf04a6	0.0058294116
34	0x3d912fc6	0.0708919
35	0xbc14748a	-0.009060988
36	0xbcd81f6f	-0.026382176
37	0x3e9ad328	0.30239224
38	0x3cf4c4ec	0.029879056
39	0xbd8b0980	-0.06788921
40	0x3e11407f	0.1418476
41	0x3e2b06d7	0.16701828
42	0x3d9db703	0.07700922
43	0x3c0d2183	0.008613947
44	0x3dfad8ad	0.12248359
45	0xbc7d5c06	-0.015463835
46	0x3deca62f	0.115551345
47	0x3d49b2ff	0.04924297
48	0xbe257479	-0.16157712
49	0x3df505ea	0.11964019
50	0x3c5223b6	0.012825897
51	0x3d80a0df	0.06280684
52	0xbe095973	-0.13413028
53	0x3d306dd8	0.043073505
54	0xbdea0059	-0.114258476
55	0xbd06724a	-0.03282384
56	0xbeac0f1a	-0.33605272
57	0x3d673462	0.05644644
58	0x3db962c3	0.090520404
59	0x3c4bcc83	0.012438896
60	0xbd0804b7	-0.03320762
61	0x3b87a277	0.0041392404
62	0xbcd4e762	-0.025989238
63	0xbccbc1a8	-0.024872616
64	0x3d09962c	0.03359048
65	0x3e00b22a	0.12567964
66	0x3d7f40bc	0.062317595
67	0xbd672cbb	-0.056439143
68	0x3db72245	0.08942083
69	0x3cea483b	0.028598895
70	0x3e78be68	0.24291384
71	0x3e82af28	0.2552426
72	0x3c90bb84	0.01766754
73	0xbe017d92	-0.12645558
74	0xbe4e46d3	-0.20144205
75	0x3ce791d6	0.028267782
76	0xbd19fe30	-0.037595928
77	0xbc744391	-0.014908687
78	0xbd9d4338	-0.076788366
79	0x3dd28bed	0.10280595
80	0xbdafb541	-0.08579493
81	0x3d5f24a7	0.054478314
82	0xbc41d9d8	-0.011831723
83	0x3ddca8af	0.10774361
84	0x3e6edca5	0.23326357
85	0xbe07f57b	-0.13277237
86	0x3e26f817	0.16305576
87	0xbe8af144	-0.27137196
88	0xbda0a00b	-0.07843026
89	0xbdeacd02	-0.114648834
90	0x3d5333f7	0.05156323
91	0x3e136d2f	0.14397119
92	0x3b0565c9	0.0020354858
93	0xbdf18a8c	-0.11794004
94	0xbcf7c179	-0.030243622
95	0xbcf3572e	-0.029704656
96	0xbd8bb4da	-0.06821604
97	0x3c9c0352	0.019044552
98	0x3c35baa4	0.011091862
99	0x3d5cf505	0.053944606
100	0xbc6fb32e	-0.014630122
101	0x3c92bc14	0.017911948
102	0xbd432c26	-0.047649525
103	0xbeacda31	-0.33760217
104	0x3b15d551	0.0022862742
105	0x3d998235	0.07495538
106	0x3dad0b52	0.08449425
107	0xbe87e265	-0.26539913
108	0x3d546417	0.051853266
109	0xbe16b681	-0.14718057
110	0x3deb592d	0.11491618
111	0xbe02e9d8	-0.12784517
112	0xbda7b9dd	-0.081897475
113	0xbe98f987	-0.29877874
114	0xbdb6111f	-0.08889984
115	0x3d175547	0.03694656
116	0xbba72485	-0.005100789
117	0xbde7455f	-0.11292528
118	0x3da66ea3	0.08126571
119	0x3d7587ab	0.059943836
120	0x3de66a4c	0.11250743
121	0x3e0df7e8	0.138641
122	0xbc3e12cd	-0.011601162
123	0xbd9dce2e	-0.07705341
124	0x3d304cb4	0.0430419
125	0x3d5bed90	0.053693354
126	0xbe89a472	-0.26883274
127	0x3dbe2f24	0.09286335
128	0x3dccbe93	0.09997287
129	0x3c582c06	0.01319409
130	0x3dfa820d	0.122318365
131	0xbe676e67	-0.22600709
132	0x3e8b55ba	0.27213842
133	0x3dd9c1b5	0.1063265
134	0xbd31564d	-0.043295193
135	0xbda8fdda	-0.08251543
136	0xbb586c87	-0.0033023672
137	0x3db4a3e4	0.08820322
138	0x3e6d986d	0.23202677
139	0xb9ca2b32	-0.00038560625
140	0x3e42cb8d	0.19022961
141	0xbba4f689	-0.005034272
142	0x3e1685bd	0.14699455
143	0x3c6d8482	0.014496924
144	0x3e039a85	0.12851913
145	0x3e37580a	0.17904678
146	0xbe32a034	-0.17443925
147	0x3d771994	0.060327128
148	0xbe6bcf37	-0.23028265
149	0x3da395a6	0.079875275
150	0xbcc61ea3	-0.02418453
151	0xbe282188	-0.16419041
152	0x3db16b83	0.08663084
153	0x3dab8010	0.08374035
154	0x3e6328f8	0.22183597
155	0x3e1d7a07	0.15378581
156	0xbdb7e697	-0.089795284
157	0x3c8d4a35	0.017247299
158	0xbd7c9fc8	-0.061675817
159	0xbd982b6c	-0.07430157
160	0x3d4a7cf5	0.049435575
161	0x3e17fabf	0.14841746
162	0x3e40c0ff	0.18823622
163	0xbd03718c	-0.03209071
164	0xbe7f3a14	-0.24924499
165	0xbd7e6fd2	-0.06211836
166	0x3c2028eb	0.009775381
167	0x3c8b8730	0.017032236
168	0x3b48ebe6	0.0030658185
169	0x3d2e29cf	0.04252034
170	0xbc65aefa	-0.014018768
171	0x3d90ef1b	0.07076856
172	0x3c9b25fe	0.018939015
173	0xbdfee92a	-0.12446816
174	0xbb4eadc9	-0.003153669
175	0xbda435a9	-0.08018047
176	0xbb9bfaf9	-0.004760143
177	0x3e07804d	0.13232537
178	0x3baa0cf6	0.0051895333
179	0x3dc3349c	0.09531519
180	0x3ca50219	0.020142602
181	0xbdadae77	-0.08480542
182	0xbe0510de	-0.12994716
183	0xbe1b66e6	-0.15175971
184	0xbd39b03e	-0.045334093
185	0x3e073539	0.13203897
186	0x3d69fec5	0.057127733
187	0xbdfd4f47	-0.123686366
188	0xbcf75ad1	-0.030194672
189	0xbd846803	-0.06465151
190	0x3d555a03	0.052087795
191	0x3dd7f3fd	0.10544584
192	0x3d4294d8	0.04750523
193	0xbe0b9a98	-0.13633192
194	0xbc6a94bf	-0.01431769
195	0xbdc6b9f7	-0.09703439
196	0x3d53f2c0	0.051745176
197	0x3d2689eb	0.040658873
198	0x3c926e16	0.017874759
199	0xbd52780e	-0.051384024
200	0xbcce6dc0	-0.025198817
201	0xbdbf3fbf	-0.093383305
202	0xbd0771f4	-0.03306766
203	0x3d5e67d9	0.054298256
204	0x3e1f7f01	0.15575792
205	0xbdabfe51	-0.083981164
206	0x3da05c8f	0.07830154
207	0x3d06172d	0.032736946
208	0xbd6fc093	-0.058533262
209	0x3e4d15bc	0.20027822
210	0xbe263927	-0.1623274
211	0xbe06007b	-0.13086121
212	0xbdca3ead	-0.09875236
213	0xbe2ab241	-0.16669561
214	0xbd1b1122	-0.037858136
215	0x3d84c3f2	0.06482686
216	0x3e3b5611	0.1829455
217	0x3dcab372	0.09897508
218	0xbe275e8c	-0.1634466
219	0xbc0029e9	-0.007822492
220	0xbe073b6d	-0.13206263
221	0x3df3f9f0	0.11912906
222	0xbe817878	-0.25287223
223	0x3da17af1	0.07884777
224	0xbddc7784	-0.10764983
225	0xbda7fd34	-0.082025915
226	0x3de84564	0.1134136
227	0x3c8f05a5	0.017458746
228	0xbe1f9191	-0.15582873
229	0x3d718a93	0.058970045
230	0xbe0c1413	-0.13679533
231	0x3dc39602	0.09550096
232	0xbda835f6	-0.08213417
233	0x3d0fdf0c	0.035124823
234	0xbd4210e9	-0.047379408
235	0x3e012ca5	0.12614687
236	0xbd874595	-0.066050686
237	0xbe383ab8	-0.1799115
238	0xbc1528f9	-0.009104007
239	0x3d8cf798	0.06883162
240	0xbe13c9bb	-0.14432423
241	0x3c4e3eaf	0.012588187
242	0xbdecfc81	-0.11571599
243	0x3b2ff632	0.0026849625
244	0x3c52e8f3	0.012872922
245	0xbdb529dd	-0.088458754
246	0xbbf8b771	-0.0075902273
247	0x3c1ffbb7	0.009764603
248	0xbcd76a4e	-0.026295807
249	0xbd188d7d	-0.03724431
250	0xbe0db08c	-0.13836879
251	0x3d74a7a2	0.05973018
252	0xbddf58ba	-0.10905595
253	0x3d0986a5	0.033575673
254	0x3cb2b6b5	0.021815637
255	0x3c963f4d	0.018340731

linear_layer.2.bias f4 [100]
0	0xbd89d271	-0.06729592
1	0xbd6b9538	-0.057515353
2	0x3c9e9407	0.019357694
3	0x3d0f0a1e	0.034921758
4	0x3c91402a	0.017730791
5	0x3d334da0	0.0437752
6	0x3d6e44b7	0.058171
7	0x3d18cc63	0.037304293
8	0xbc033e91	-0.008010522
9	0x3d07634b	0.033053678
10	0xbd17e9a4	-0.03708805
11	0xbd807536	-0.06272356
12	0xbdcfdcbc	-0.101495236
13	0x3e3b3c7c	0.18284792
14	0xbc84977b	-0.016185513
15	0xbcdc22aa	-0.026871998
16	0xbd95eed9	-0.07320947
17	0x3e1887eb	0.14895599
18	0x3be8b9e7	0.0071022394
19	0xbce2c527	-0.0276819
20	0xbe0a3df2	-0.13500193
21	0xbd51a0d9	-0.051178787
22	0x3c6a3c09	0.01429654
23	0x3daf0992	0.08546747
24	0x3c9bfbc9	0.019040959
25	0xbd76229a	-0.060091592
26	0xbd615355	-0.055011112
27	0xbd8ef92f	-0.06981122
28	0x3d745013	0.059646677
29	0xbd92a31c	-0.07160017
30	0xbdf0e51e	-0.11762451
31	0xbd3ce8ea	-0.04612056
32	0x3d011df0	0.03152269
33	0x3d5c504d	0.05378752
34	0xbca50272	-0.020142768
35	0xbd9f3278	-0.07773298
36	0xbd057e50	-0.032591164
37	0xbd8138ea	-0.063096836
38	0xbcfb089b	-0.030643752
39	0xbcfbd6d1	-0.03074208
40	0xbd0f101c	-0.034927472
41	0xbdcbf4fc	-0.099588364
42	0xbd24627d	-0.04013299
43	0x3d14aa3f	0.03629517
44	0x3c323a55	0.010878165
45	0x3ce5e676	0.028063994
46	0x3cdcbb81	0.026944878
47	0x3bebb24a	0.0071928846
48	0x3da14451	0.078743584
49	0x3c118cd2	0.008883672
50	0xbcc574de	-0.024103578
51	0x3b9e4912	0.004830488
52	0x3da9d0f5	0.082918085
53	0x3dd95cef	0.10613429
54	0x3d96f115	0.073702015
55	0xbebf0358	-0.3730724
56	0xbd89dcb2	-0.067315474
57	0xbc9673bc	-0.018365733
58	0x3be37b03	0.0069421544
59	0xbd605ea2	-0.05477775
60	0x3e2e8632	0.17043379
61	0x3d49b605	0.049245853
62	0x3e2313dd	0.15925546
63	0x3d180a8f	0.037119444
64	0xbd2d7936	-0.042351924
65	0xbce2602e	-0.027633753
66	0xbd8caec5	-0.06869272
67	0x3c0fcd3b	0.008776958
68	0xbe580687	-0.2109624
69	0x3c31d623	0.010854277
70	0x3c940650	0.018069416
71	0x3cf56ce9	0.029959159
72	0x3cbdb745	0.023158679
73	0xbbe1f47a	-0.006895599
74	0xbcc21333	-0.023690796
75	0xbd665757	-0.056235638
76	0xbc6ac717	-0.014329693
77	0x3c0fdbd2	0.008780437
78	0x3ce85bf0	0.028364152
79	0xbdbd8c98	-0.09255332
80	0xbd8d17eb	-0.068893276
81	0xbc94ab84	-0.018148191
82	0xbdcab358	-0.09897488
83	0xbd2082b3	-0.039187144
84	0x3d35a8e4	0.04435052
85	0x3d66f1cb	0.056382935
86	0x3c95d8bd	0.018291825
87	0x3e680fb0	0.22662234
88	0xbd2697ba	-0.04067204
89	0xbbac0aa4	-0.005250292
90	0x3c9698ce	0.01838341
91	0x3d3f0bdb	0.046642166
92	0xbc9add53	-0.018904364
93	0xbe9977dd	-0.2997426
94	0x3bb16d5c	0.005414648
95	0xbd934cac	-0.071923584
96	0xbd2ec856	-0.042671524
97	0x3c617166	0.013759946
98	0xbd859ab5	-0.06523649
99	0xbc9a6c7e	-0.018850561

linear_layer.3.weight f4 [100, 100]
0	0xbe27f9a6	-0.16403827
1	0x3dd18557	0.10230511
2	0xbd4a0e26	-0.0493299
3	0x3e29b692	0.16573551
4	0xbb7c7961	-0.0038524496
5	0xbcbcbdd4	-0.023039736
6	0x3d79f645	0.061025877
7	0x3de88c8e	0.11354934
8	0xbdfa5d17	-0.12224787
9	0xbdcd3fea	-0.10021956
10	0xbe61c8d2	-0.22049263
11	0x3d9bab30	0.07601011
12	0xbe1053a5	-0.14094408
13	0x3f1ec27e	0.6201552
14	0xbd7ab117	-0.061204042
15	0x3d11bc1e	0.035579793
16	0xbe81bd2f	-0.25339648
17	0x3e1b22c8	0.15149987
18	0xbdbe5ce9	-0.09295065
19	0x3c973a46	0.018460404
20	0xbed51c21	-0.41623023
21	0xbdfaf372	-0.12253465
22	0xbd00e8c5	-0.031471986
23	0x3e110b03	0.14164357
24	0x3ba2937c	0.004961429
25	0x3d956ca6	0.07296114
26	0xbc83a3bd	-0.016069287
27	0xbd92199f	-0.07133793
28	0x3e5edaf1	0.21763207
29	0xbc5ad75e	-0.013357012
30	0xbe22d077	-0.15899836
31	0xbe141015	-0.1445926
32	0xbdff8180	-0.12475872
33	0xbd0dbbcb	-0.03460292
34	0xbd83779e	-0.064192995
35	0xbc839b09	-0.016065137
36	0xbe9c3adf	-0.30513665
37	0xbe5660d5	-0.20935376
38	0xbe7bfa5d	-0.24607225
39	0xbdeddc4b	-0.11614283
40	0x3e0e08a5	0.13870485
41	0xbe4f903d	-0.20269866
42	0xbe251ebc	-0.16125005
43	0x3e15b237	0.14618765
44	0x3d225864	0.039635077
45	0xbcaf925d	-0.021432096
46	0x3d5a3454	0.05327256
47	0x3e2ee2f1	0.17078759
48	0xbe790167	-0.24316941
49	0x3de2e01d	0.110779025
50	0x3e01c802	0.12673953
51	0xbd8119bc	-0.063037366
52	0xbce1d6ce	-0.027568247
53	0x3e9ec45d	0.31009188
54	0x3e79f67c	0.24410433
55	0x3b729982	0.0037017767
56	0x3db44b2a	0.08803399
57	0xbe23b440	-0.15986729
58	0xbe20b771	-0.15694977
59	0xbe063f40	-0.13110065
60	0x3c7e548a	0.015523085
61	0xbe090450	-0.13380551
62	0x3ea62bc9	0.3245528
63	0xbdb790fc	-0.089632004
64	0x3dcbaf64	0.099455625
65	0x3c3af951	0.011411981
66	0x3d5dfaec	0.054194376
67	0xbc9247f4	-0.017856576
68	0x3dd25695	0.102704205
69	0xbc9345d6	-0.017977636
70	0x3e43a186	0.19104585
71	0xbd3ea114	-0.046540335
72	0x3dcb4d22	0.09926821
73	0xbcc654e8	-0.024210408
74	0x3e45f99d	0.19333501
75	0x3dd4179b	0.10356065
76	0xbd9d280d	-0.07673655
77	0xbc4a81af	-0.012360021
78	0x3c5a77ff	0.013334273
79	0xbe86e2dc	-0.26344955
80	0x3bb4378e	0.0054997867
81	0x3df62aff	0.120199196
82	0xbd9df89e	-0.077134356
83	0xbca11d21	-0.01966721
84	0x3e7beb6b	0.24601524
85	0xbe10f755	-0.1415685
86	0x3d18b476	0.037281476
87	0x3cf862bf	0.030320523
88	0xbe0463fa	-0.12928763
89	0x3d138114	0.03601177
90	0xbe452213	-0.1925128
91	0x3e8c5eec	0.2741617
92	0xbb89fddc	-0.0042111706
93	0x3d95a6e2	0.07307221
94	0x3c0a2129	0.008430758
95	0x3e075ad1	0.13218237
96	0x3da005a9	0.078135796
97	0x3d0b9bfd	0.03408431
98	0xbe408cd3	-0.1880372
99	0xbdba7666	-0.09104614
100	0x3e346b93	0.17619161
101	0xbc3db8a5	-0.011579667
102	0x3c21a977	0.009867064
103	0xbdf4e3b8	-0.119574964
104	0x3d0196c5	0.031637926
105	0x3cc25748	0.02372326
106	0xbde0e382	-0.10980894
107	0x3d77b264	0.06047286
108	0x3bb70cd4	0.005586246
109	0xbd8a3e82	-0.06750204
110	0xbdd30b46	-0.103048846
111	0x3e0680b4	0.13135034
112	0xbd27be72	-0.040953107
113	0x3e92d704	0.2867967
114	0xbddc8b59	-0.10768766
115	0xbcbae5d1	-0.022814663
116	0xbd79ffde	-0.06103503
117	0xbdaf6844	-0.08564809
118	0x3dcfca50	0.1014601
119	0x3c9cfc06	0.019163143
120	0x3dc7a731	0.09748686
121	0xbd908e51	-0.07058395
122	0xba42467e	-0.0007411017
123	0xbe38706b	-0.18011634
124	0xbe1eff4a	-0.15527073
125	0x3dccbbeb	0.0999678
126	0x3ccacd36	0.024756055
127	0xbe418ebc	-0.18902105
128	0x3e1f0c5d	0.1553206
129	0x3dc8e98b	0.0981017
130	0xbe3382ac	-0.17530316
131	0x3e4e5761	0.2015052
132	0x3d48f4c6	0.04906156
133	0xbe2b36dc	-0.16720146
134	0x3d93cc6e	0.07216726
135	0xbd5e5c3f	-0.05428719
136	0x3deebdc3	0.11657288
137	0xbe6584ee	-0.2241399
138	0x3b2e47ff	0.0026593206
139	0xbbe626d7	-0.007023673
140	0x3c85a7db	0.016315391
141	0x3dcda8eb	0.10041984
142	0xbd2cc250	-0.0421775
143	0x3d13830e	0.036013655
144	0x3e4d3e0c	0.200432
145	0xbbdd99e0	-0.006762728
146	0xbe31d7d2	-0.17367485
147	0x3d1dcc5b	0.038524967
148	0x3d1edb8d	0.0387836
149	0x3e29dad0	0.16587377
150	0x3d75e424	0.060032025
151	0x3c6ebe82	0.014571788
152	0x3def6c84	0.116906196
153	0xbcdde7ec	-0.027088128
154	0x3d4c88c4	0.049935117
155	0xbd2a2911	-0.04154307
156	0xbd5ef205	-0.054430027
157	0xbd9d6ce9	-0.076867886
158	0x3e007bb0	0.12547183
159	0x3d870bf7	0.06594079
160	0x3d80bca3	0.062859796
161	0xbdb1def8	-0.08685106
162	0xbbbfc04a	-0.00585178
163	0xbd2a52e3	-0.041582953
164	0x3db99776	0.09062092
165	0xbdcfefac	-0.10153136
166	0xbe2a4597	-0.16628109
167	0xbcc99a43	-0.02460969
168	0xbe05ccaa	-0.13066354
169	0xbe3a23b6	-0.18177685
170	0xbd915472	-0.07096185
171	0xbca8f787	-0.020625843
172	0x3e4e9948	0.2017566
173	0xbd8c61a7	-0.06854563
174	0xbdb321d2	-0.08746685
175	0xbd3f37d3	-0.046684097
176	0xbdbdc6cd	-0.09266434
177	0xbe19587d	-0.14975162
178	0x3c159ef7	0.009132138
179	0xbc34de60	-0.011039346
180	0xbd1ce475	-0.03830381
181	0xbd3ace1a	-0.04560671
182	0xbcb43e71	-0.02200243
183	0x3e20545f	0.15657185
184	0x3d2bb59c	0.041921243
185	0x3d8640c5	0.065553226
186	0x3b291813	0.0025801703
187	0xbde8adff	-0.11361312
188	0xbceb04f7	-0.02868889
189	0xbce99bda	-0.028516699
190	0x3c19599a	0.009359742
191	0x3dd04a18	0.10170382
192	0xbcf55f6d	-0.02995273
193	0xbd38f4f2	-0.045155473
194	0x3cbca419	0.023027467
195	0xbdf17553	-0.11789956
196	0x38217ce2	3.8501697e-05
197	0xbdd8bb6c	-0.10582623
198	0xbe4f601d	-0.20251508
199	0x3c9b7569	0.018976884
200	0xbca11c77	-0.019666893
201	0x3ce305d3	0.027712738
202	0xbd5524c8	-0.05203703
203	0xbdb71ae5	-0.089406766
204	0xbc7feb2d	-0.015620035
205	0xbdaf1d01	-0.08550454
206	0xbd509e76	-0.05093237
207	0xbde946e4	-0.113904744
208	0x3d2bbae7	0.04192629
209	0xbe1d3a35	-0.15354235
210	0x3d5acc4a	0.05341748
211	0x3e131ebf	0.14367197
212	0xbdcdad50	-0.10042822
213	0xbbdacea5	-0.006677466
214	0x3cb659c5	0.022259602
215	0x3d5791eb	0.052629393
216	0xbc139122	-0.00900677
217	0xbe00d0f8	-0.12579715
218	0xbe6ea624	-0.23305565
219	0xbd20eb1b	-0.039286714
220	0x3e5c254b	0.21498601
221	0x3c4f3ad4	0.012648303
222	0x3ce8117c	0.02832865
223	0xbde29517	-0.11063593
224	0x3c0f819a	0.008758927
225	0xbd4354d9	-0.04768834
226	0x3df72c4f	0.12068998
227	0x3dadacae	0.08480202
228	0xbd4387e8	-0.047737032
229	0x3db545dd	0.08851216
230	0xbd89b775	-0.06724445
231	0xbd827e78	-0.06371778
232	0x3d5d092d	0.05396383
233	0xbde659d9	-0.11247606
234	0xbe481150	-0.19537854
235	0x3e5596d3	0.20858316
236	0x3da13694	0.07871738
237	0x3d5c5aa6	0.053797387
238	0x3d815bbb	0.06316324
239	0x3e82c7e4	0.2554313
240	0x3d71fc86	0.059078716
241	0x3d84b66c	0.06480107
242	0xbd90ec37	-0.070763044
243	0xbdf368c2	-0.11885215
244	0x3dac8a40	0.084248066
245	0xbd64fdb1	-0.055906
246	0xbde922aa	-0.11383565
247	0xbc4f8a57	-0.01266726
248	0xbbdb5dbc	-0.0066945236
249	0xbe38becb	-0.18041532
250	0x3d17e259	0.037081096
251	0x3dbaba33	0.09117546
252	0xbd9ba341	-0.075994976
253	0xbd3415dc	-0.04396616
254	0xbe3e3a7d	-0.18576999
255	0x3e5ac509	0.21364225

linear_layer.3.bias f4 [100]
0	0x3dd21f58	0.102598846
1	0x3c830da3	0.015997713
2	0xbd76a5b5	-0.060216624
3	0xbdec1381	-0.115271576
4	0xbc92d551	-0.017923983
5	0xbd27769c	-0.0408846
6	0x3dbeb0a8	0.09311038
7	0x3d42d7d3	0.047569107
8	0x3d34f4af	0.04417866
9	0x3b779cd0	0.0037782677
10	0xbd3cac4e	-0.04606276
11	0xbd0039a5	-0.031304974
12	0x3c915ada	0.017743517
13	0x3d16bcfb	0.03680132
14	0x3c11e170	0.008903846
15	0x3ca22f29	0.019797878
16	0xbda35cdd	-0.07976697
17	0xbb8ac215	-0.004234562
18	0x3c977bfa	0.018491734
19	0x3d2ac135	0.041688163
20	0xbd6da9df	-0.05802333
21	0x3d6447e5	0.055732626
22	0x3cef1f67	0.029189778
23	0x3d246a09	0.040140186
24	0x3c01eec9	0.007930466
25	0xbd3edad8	-0.046595424
26	0x3d8bfd3c	0.0683541
27	0x3d851d9b	0.064997874
28	0x3d1b3982	0.03789664
29	0x3d7115fe	0.058858864
30	0xbccc97fa	-0.024974812
31	0xbb573564	-0.003283822
32	0x3caed684	0.021342523
33	0x3cf3c8ea	0.02975889
34	0xb9aaf030	-0.0003260388
35	0xbcedc231	-0.029023262
36	0x3c8809bb	0.016606202
37	0xbc6a9a11	-0.014318959
38	0xbd41ccab	-0.047314327
39	0xbc191f94	-0.009345908
40	0xbc59831b	-0.013275887
41	0x3c757630	0.014981791
42	0x3d56f3fc	0.052478775
43	0xbc521e4f	-0.012824609
44	0x3d9ab40d	0.07553873
45	0x3d871d7f	0.06597423
46	0x3dd2a09c	0.1028454
47	0xbe4b51a7	-0.19855367
48	0x3d58a885	0.052895088
49	0xbd42042b	-0.047367256
50	0x3d074ab9	0.033030245
51	0xbcd37f0e	-0.02581742
52	0xbc1db564	-0.009625766
53	0xb9428682	-0.0001855139
54	0xbcb464b3	-0.022020673
55	0xbcd3dcb4	-0.025862075
56	0xbd4c8b92	-0.049937792
57	0xbc77ba8a	-0.015120158
58	0x3d41838c	0.047244594
59	0x3d441494	0.047871187
60	0x3ba54b22	0.005044357
61	0x3cfac984	0.030613668
62	0x3c0aa415	0.008461972
63	0x3c682ee1	0.014171333
64	0x3cd30815	0.02576069
65	0x3c87e878	0.016590342
66	0x3d8b85d6	0.068126366
67	0xbb6b0857	-0.0035863125
68	0x3c6c3eb7	0.014419249
69	0xbd380ce5	-0.044934172
70	0x3cfa5d9d	0.030562216
71	0xbd1c15c9	-0.038106713
72	0xba7aa372	-0.00095610984
73	0xbc2e5c65	-0.010642146
74	0xbd21347d	-0.039356697
75	0x3cb588a5	0.022159884
76	0xbc51361d	-0.012769249
77	0xbea7efa5	-0.32800022
78	0x3d52cc81	0.05146456
79	0xbd741caa	-0.05959765
80	0xbc00f816	-0.007871648
81	0x3cafa5b0	0.02144131
82	0x3a9525d9	0.0011379077
83	0xbcc764aa	-0.024339993
84	0xbcf1e7ac	-0.029529415
85	0x3d4215d6	0.047384106
86	0x3cbc3e92	0.022979055
87	0x3d7a4154	0.061097458
88	0xbd12cbca	-0.03583888
89	0x3c4e4a41	0.012590946
90	0x3cfda641	0.030963065
91	0x3ced1ef8	0.028945431
92	0x3d2de1cf	0.042451676
93	0xbd178b49	-0.036998067
94	0x3c54dbfb	0.012991901
95	0x3d3124a1	0.043247823
96	0x3cb968d9	0.022633003
97	0x3cad11d9	0.021126674
98	0xbd2ecc6a	-0.042675413
99	0xbd652765	-0.055945773

linear_layer.4.weight f4 [100, 100]
0	0xbca6d986	-0.020367395
1	0x3d10e266	0.03537216
2	0x3d94c9fb	0.07265087
3	0x3d9f9c43	0.077934764
4	0x3d62a9b7	0.055337634
5	0xbb21ebf9	-0.00247073
6	0xbd56d0f7	-0.05244538
7	0x3e15d0c9	0.14630426
8	0x3da03850	0.07823241
9	0x3cc8a467	0.024492456
10	0xbe1679fd	-0.14694972
11	0x3dcfc8ce	0.10145722
12	0x3db2ae68	0.087246716
13	0x3e1b3286	0.15155992
14	0x3e01a9b1	0.12662388
15	0x3e5fac8e	0.21843168
16	0x3e04164e	0.12899134
17	0x3eabb5c9	0.3353713
18	0x3c3c4741	0.011491598
19	0x3d175fbf	0.036956545
20	0x3c80ea05	0.01573659
21	0x3d53a1f0	0.051668108
22	0xbcaf0e44	-0.021369107
23	0x3e092f9f	0.13397072
24	0x3e1c2171	0.15247132
25	0xbdcd6709	-0.10029418
26	0x3d92b7fa	0.07163997
27	0xbdd2004f	-0.10253965
28	0x3e268d99	0.16264953
29	0xbd16d998	-0.036828607
30	0x3e07dcc3	0.13267808
31	0xbd83855b	-0.0642192
32	0xbe24f1d6	-0.16107878
33	0x3d30be7e	0.043150418
34	0x3bc4748c	0.005995339
35	0x3b929e19	0.004474413
36	0xbe4abbdc	-0.19798225
37	0x3d7d5b6a	0.061854757
38	0x3e11ba22	0.1423116
39	0x3cc006d4	0.023440756
40	0xbe5523b8	-0.20814407
41	0xbe8a8039	-0.2705095
42	0xbe8d9de3	-0.2765952
43	0x3daaa40b	0.0833207
44	0xbd33d333	-0.043902587
45	0xbe86b324	-0.26308548
46	0x3e32564f	0.17415737
47	0xbd62d993	-0.055383276
48	0x3d8f02d4	0.06982961
49	0x3cb8ad61	0.022543611
50	0xbd545d6d	-0.05184691
51	0xbdcc64b1	-0.09980143
52	0xbdc1e8c7	-0.09468227
53	0xbc9b774b	-0.018977782
54	0x3c080208	0.008301266
55	0x3d80d728	0.06291038
56	0x3d5f2c25	0.05448546
57	0x3d976e9a	0.073941424
58	0x3db068b4	0.086137205
59	0x3d74d18b	0.05977015
60	0x3da842ba	0.08215852
61	0x3c0c96fb	0.008580918
62	0x3c7ac801	0.015306474
63	0x3ce4dd3d	0.027937526
64	0x3e02e8f2	0.12784174
65	0x3d1c311d	0.038132776
66	0x3c564b9f	0.013079553
67	0xbc2ad344	-0.010426346
68	0xbe5ca2e8	-0.21546519
69	0x3de568f1	0.112016566
70	0x3cb714ad	0.022348726
71	0x3d66a462	0.05630911
72	0xbdb7fbc3	-0.089835666
73	0x3e4237f8	0.18966663
74	0x3ca15982	0.019696001
75	0xbe238ba4	-0.15971237
76	0x3db05bd6	0.08611266
77	0x3dc3f008	0.09567267
78	0xbc7b4ffe	-0.015338896
79	0x3cffac4a	0.031210084
80	0x3d36b5c0	0.044606924
81	0x3da27415	0.07932297
82	0x3d65da22	0.05611623
83	0xbb8777c9	-0.0041341526
84	0xbd39546e	-0.045246534
85	0xbc1565b3	-0.009118485
86	0x3e08fd12	0.13377789
87	0xbc83d85e	-0.016094383
88	0xbcda444c	-0.026643895
89	0xbcf054e5	-0.029337356
90	0xbc97d446	-0.018533837
91	0x3e006751	0.12539412
92	0xbe58d5a9	-0.21175255
93	0x3d9a3f35	0.07531587
94	0xbda61b24	-0.081106454
95	0xbdaef8e2	-0.085435644
96	0x3ca21e5b	0.019789865
97	0xbc8eb4b9	-0.01742016
98	0xbddad541	-0.10685206
99	0xbcf4e87b	-0.029896012
100	0xbdd056d0	-0.10172808
101	0x3b54d5e1	0.0032476115
102	0xbdfd3dc7	-0.12365299
103	0x3c80ed74	0.015738226
104	0xbce09a24	-0.02741725
105	0xbd912bea	-0.07088454
106	0xbe590135	-0.21191867
107	0x3c507e54	0.0127254315
108	0x3c26716e	0.01015888
109	0xbd8c7edd	-0.06860135
110	0xbcf4745e	-0.029840644
111	0xbc970ba1	-0.018438162
112	0x3e098668	0.13430178
113	0x3dde6aa5	0.108601846
114	0x3e6531da	0.22382298
115	0xbd406aa7	-0.04697671
116	0xbdf457be	-0.11930798
117	0xbda5f0e4	-0.08102587
118	0xbd7dc574	-0.061955884
119	0x3d8a38bd	0.06749103
120	0xbda67371	-0.081274875
121	0x3dd65a4f	0.10466444
122	0x3dbd1bca	0.09233816
123	0xbd990e8a	-0.07473476
124	0x3c8fa10e	0.017532852
125	0xbd3af43b	-0.045643073
126	0x3d9685e3	0.073497556
127	0x3e0a552e	0.13509056
128	0x3e6e71df	0.23285626
129	0x3dab79c9	0.08372838
130	0xbd8a3633	-0.06748619
131	0x3d89dd50	0.06731665
132	0x3d66f2d5	0.056383926
133	0x3cdf4fc4	0.027259715
134	0xbcd51a28	-0.026013449
135	0xbe683250	-0.22675443
136	0xbdf765a3	-0.120799325
137	0xbdc25c0b	-0.09490212
138	0x3de01a9e	0.10942577
139	0x3dbb6acf	0.091512315
140	0x3d24245f	0.04007375
141	0x3d05e474	0.032688573
142	0x3db7ea73	0.089802645
143	0x3e27ad90	0.16374803
144	0x3d31b3c5	0.043384332
145	0xbd27ffae	-0.04101532
146	0x3e684d1e	0.22685668
147	0x3de64cd6	0.11245124
148	0xbd1a8397	-0.03772315
149	0xbe22abda	-0.15885869
150	0xbd217ab0	-0.039423645
151	0x3d57a263	0.0526451
152	0xbd2fda9d	-0.042933095
153	0xbdb60985	-0.088885345
154	0xbd4ff6dc	-0.050772533
155	0xbdc1e715	-0.094679035
156	0xbd4f3c0e	-0.050594382
157	0x3db3a8ef	0.08772456
158	0xbd57dce8	-0.052700907
159	0xbc36fe52	-0.011169033
160	0xbc4917ef	-0.012273773
161	0x3d2c09ed	0.042001653
162	0x3c88b107	0.016685976
163	0xbe6359d2	-0.22202232
164	0xbd2111e9	-0.03932372
165	0x3e15bb72	0.14622286
166	0x3e0e8cb4	0.13920861
167	0x3e158ddd	0.14604898
168	0xbdf192ed	-0.11795602
169	0xbdce3d0f	-0.1007024
170	0xbdd50354	-0.104010254
171	0xbde71615	-0.11283509
172	0x3b7fa440	0.0039007813
173	0xbe3c164c	-0.1836788
174	0xbb65080f	-0.003494743
175	0x3da162fc	0.07880208
176	0x3d53e168	0.051728636
177	0xbe527f5b	-0.20556395
178	0xbe301612	-0.17195919
179	0x3ded388a	0.115830496
180	0x3e156284	0.14588362
181	0xbe2095ad	-0.15682097
182	0x3cecc3ba	0.028901923
183	0xbcf85fa9	-0.030319052
184	0x3d7a0a92	0.061045237
185	0xbcf62d04	-0.030050762
186	0xbe1f7b17	-0.15574299
187	0xbd7e61c6	-0.062104963
188	0xbe2d1775	-0.1690348
189	0xbe213a35	-0.1574486
190	0x3db6c14b	0.089235865
191	0xbd98509e	-0.074372515
192	0xbe0766e4	-0.13222843
193	0x3d4f7e20	0.05065739
194	0x3cd6ae5f	0.026206193
195	0x3cc24af5	0.023717383
196	0xbcff1223	-0.031136578
197	0xbdabb457	-0.083840065
198	0x3ddbdf71	0.107359774
199	0x3cd62bbf	0.026143907
200	0x3d726231	0.059175674
201	0xbc1ee604	-0.009698395
202	0xbe44e9d3	-0.19229822
203	0x3dcf60db	0.101258956
204	0xbe6362d9	-0.22205676
205	0xbdb59513	-0.08866324
206	0x3d2c7275	0.042101342
207	0x3de81d17	0.113336734
208	0xbe8ebc32	-0.27877957
209	0x3c39412a	0.01130704
210	0x3d8faac0	0.0701499
211	0x3ce2cf9e	0.02768689
212	0x3b65486f	0.00349858
213	0xbdde8bb3	-0.10866489
214	0x3d2d732e	0.042346172
215	0x3e2d2804	0.16909796
216	0xbe383b5a	-0.17991391
217	0xbe3974ef	-0.18111013
218	0x3d4a6764	0.049415007
219	0x3d7f9b86	0.062404178
220	0xbd2f9e51	-0.04287559
221	0xbab4d24f	-0.0013795587
222	0x3e332b89	0.17497076
223	0x3d0827f7	0.03324124
224	0x3c8a178e	0.016856935
225	0xbd745655	-0.059652645
226	0xbd3aba3d	-0.045587767
227	0x3ae82d60	0.0017713718
228	0x3e2c449e	0.1682305
229	0xbd8da92c	-0.069170326
230	0xbe4252df	-0.18976925
231	0x3d92cac4	0.07167581
232	0x3e376ab3	0.17911796
233	0x3e219519	0.15779532
234	0xbd89e1cb	-0.0673252
235	0x3d0737a6	0.033012055
236	0xbd132416	-0.035923086
237	0x3e27a616	0.1637195
238	0xbe0f047a	-0.13966551
239	0xbcb9260f	-0.022601156
240	0xbe11e9d7	-0.14249359
241	0x3d5f3c3e	0.05450081
242	0x3e418860	0.18899679
243	0xbe18720c	-0.14887255
244	0xbe1060cc	-0.14099425
245	0x3b52473b	0.0032085914
246	0x3e1f2d3c	0.155446
247	0x3eb0b313	0.34511623
248	0x3dbd001b	0.09228536
249	0x3d630611	0.055425707
250	0x3ea3c129	0.31983307
251	0x3bedcd2c	0.0072571244
252	0x3d80305c	0.06259224
253	0x3d6c0c52	0.057628937
254	0x3e54494e	0.20731089
255	0x3dcc5a90	0.09978211

linear_layer.4.bias f4 [100]
0	0xbc065ec1	-0.008201302
1	0xbd0dee44	-0.034651056
2	0x3d84d405	0.06485752
3	0xbc9a886a	-0.018863875
4	0xbe0cb521	-0.1374097
5	0xbca12ccc	-0.019674681
6	0xbd19cd96	-0.037549578
7	0x3c4c72b0	0.0124785155
8	0x3d3b21be	0.045686476
9	0x3cf1d531	0.029520603
10	0x3c7ff5c0	0.015622556
11	0xbdc0e032	-0.09417762
12	0xbcc79341	-0.024362208
13	0x3c8f2265	0.017472455
14	0xbce9918d	-0.028511787
15	0x3c9ee2e0	0.019395292
16	0x3d119d13	0.03555019
17	0xbcdb4b94	-0.026769437
18	0xbd8fdc7b	-0.07024475
19	0x3d653a71	0.055963937
20	0x3d6d4d42	0.057935007
21	0xbce1de47	-0.02757181
22	0x3bd66a3f	0.0065434272
23	0x3bf78b00	0.007554412
24	0x3c728f39	0.014804655
25	0x3cf2de73	0.029647088
26	0xbc97eaa0	-0.018544495
27	0xbc04ab45	-0.008097474
28	0xbd18ebf7	-0.03733441
29	0xbd38cbf9	-0.0451164
30	0x3ce4a19e	0.027909096
31	0x3c84ea85	0.016225109
32	0xbcc954b7	-0.024576528
33	0xbd190a61	-0.037363414
34	0x3d3e8f31	0.046523277
35	0xbd97617a	-0.07391639
36	0x3d352179	0.044221375
37	0x3e1e5734	0.15462953
38	0x3c74ab5c	0.014933433
39	0xbd23482c	-0.03986375
40	0xbb1ef440	-0.002425447
41	0x3ca891d6	0.020577352
42	0x38a0b953	7.663914e-05
43	0xbc2f527e	-0.01070082
44	0xbd61920f	-0.055070933
45	0x3c7ba101	0.015358211
46	0xbd0c94de	-0.03432166
47	0xbcae5763	-0.021281904
48	0xba052055	-0.0005078365
49	0xbca34e86	-0.019934904
50	0x3ac5b110	0.0015082676
51	0xbc1679c5	-0.009184306
52	0x3b228d48	0.0024803448
53	0x3ca4869d	0.02008372
54	0x3c08c485	0.008347635
55	0xbcd21c21	-0.025648179
56	0x3b279410	0.002557043
57	0x3b218346	0.0024644895
58	0xbca64b8d	-0.020299697
59	0xbb262c17	-0.002535587
60	0x38f2c4c6	0.00011576111
61	0x3d9f4fc8	0.07778889
62	0x3c25c33f	0.010117351
63	0xbc08ebec	-0.008357029
64	0x3c38c8e9	0.011278369
65	0x3b9c247f	0.004765093
66	0x3adeffcf	0.0017013493
67	0xbca30aac	-0.01990255
68	0x3d347f13	0.0440665
69	0xbccb7d7e	-0.024840113
70	0xbd7ca773	-0.06168313
71	0xbc22458d	-0.0099042775
72	0x3cd78a63	0.026311105
73	0x3bdb7995	0.0066978433
74	0x3cee3739	0.029079067
75	0xbd1a1f62	-0.037627585
76	0xbbedc9d6	-0.0072567267
77	0x3cdcac12	0.026937518
78	0x3d324503	0.043522846
79	0x3c288ec3	0.010287943
80	0x3d65369c	0.055960283
81	0xbcf8d2f6	-0.030374032
82	0x3da74dce	0.08169137
83	0x3d6f3c61	0.05840719
84	0xbd6732ec	-0.056445047
85	0xbd6feb2a	-0.05857388
86	0xbc002c15	-0.00782301
87	0xbcaa125a	-0.020760704
88	0xbc2169db	-0.009851898
89	0x3c5d5f86	0.013511544
90	0x3be09ea1	0.0068548475
91	0x3c53b0f0	0.012920603
92	0xbcd55cfa	-0.026045311
93	0x3cb577bb	0.022151818
94	0x3d759c46	0.059963487
95	0xbce26032	-0.02763376
96	0x3b0c4758	0.002140483
97	0xbca3e752	-0.020007763
98	0xbd3668cf	-0.044533547
99	0xbc9b649d	-0.018968875
