ac_2d_model_para_5/checkpoint_50.pth (torch, 291108 bytes, 17 tensors)

linear_layer.0.weight f4 [100, 3]
0.1632662 0.15590432 -0.17421314 -0.03889575 -0.06958345 0.09761574 0.06844136 -0.062500365
-0.27143726 0.108532004 -0.033576835 0.20450966 -0.11929783 -0.13797748 -0.3278139 -0.039803214
-0.18262497 -0.1324794 -0.06923808 0.12713079 -0.1255638 -0.025578015 -0.04095398 -0.30142653
0.4594422 0.049424466 0.032204017 -0.118638456 -0.17922087 -0.05375357 0.04763655 -0.22342774
0.14621355 -0.079663254 0.06393851 -0.21478753 0.2009076 -0.0054795146 -0.091778524 0.19669646
-0.009221649 0.20068325 0.15353289 0.15358862 0.19139577 -0.14763501 -0.17201002 0.028899608
0.2720268 0.022395648 -0.26939923 -0.16446176 -0.13945866 -0.16697036 -0.15018888 -0.01771581
0.08060528 0.119017944 0.15642688 -0.2022241 0.09766565 -0.19571109 0.07771146 0.31061018
-0.08280384 0.095112175 -0.18372393 -0.14946793 0.026973557 0.09615017 0.022814503 -0.4474825
0.18512185 0.032697506 0.2827171 0.1390356 0.08214972 0.022348221 -0.25449553 -0.20755333
-0.09053982 0.03508795 0.23643693 0.039323445 0.18330202 -0.20699145 0.063622236 0.059650324
-0.01482868 -0.08927384 -0.04400725 -0.15655926 -0.13379653 0.26221174 0.017424768 0.27873203
0.09070068 -0.22043933 0.13313699 -0.2621558 0.017818112 -0.11463157 0.06517001 -0.08848838
-0.2666479 0.10607229 -0.140114 0.20262459 -0.07771243 0.26184058 -0.016295213 0.2075959
0.1420265 0.05268474 -0.03450071 -0.090230845 -0.3556462 -0.08714077 -0.025270145 -0.13734305
0.10674076 0.09196814 -0.12881516 -0.079102196 -0.00907876 0.10590371 -0.16994016 0.16295043
-0.09875368 0.08942431 -0.06477458 0.20726317 -0.13529964 0.16499083 0.12686273 -0.06579101
-0.10878468 0.14209759 -0.35626662 0.15579881 -0.2847893 0.232135 0.0025999523 -0.13819905
0.07521745 0.08694987 0.080581784 0.27832326 -0.099469885 -0.09258343 0.14389634 0.11064325
-0.10997941 0.12547304 -0.05504627 -0.11479094 -0.09076693 0.2351414 0.08149186 0.017561937
0.05671127 0.23844838 0.089625604 0.082601115 0.0052371593 0.27416578 -0.07285288 0.12421147
0.4455503 0.014107785 -0.013429382 0.27885482 -0.11878048 -0.25908464 0.25815275 0.010000326
-0.13717775 -0.08043066 -0.16910915 0.21179187 -0.09666747 0.1149236 -0.0086838035 0.005340686
0.20969656 0.026654592 0.23286866 -0.14808048 -0.10693944 0.0015402766 0.11289816 -0.18310025
0.32194546 -0.1487602 0.08422646 0.017232535 0.10096934 0.30517444 0.11521518 -0.025282415
-0.32934082 -0.22614135 -0.025604084 0.122668706 0.23340711 -0.11565082 -0.018851168 -0.07288389
0.096298255 0.034589753 -0.18289746 0.016112674 -0.046720136 0.09899244 0.14936654 0.08282014
-0.06725279 0.2591225 -0.09657776 0.06128587 0.14922678 -0.19737099 0.36664408 0.030937087
-0.05332075 -0.03238534 0.31052724 0.14329548 -0.14001401 -0.38209447 0.22534865 -0.30268872
-0.093025 -0.1493114 -0.003597347 0.21451536 -0.012873815 0.015681608 -0.17627518 0.03955462
0.115986235 -0.0556505 -0.01564456 -0.1101783 -0.19363958 -0.08515097 -0.17726913 0.15638688
0.05793204 0.14125165 -0.10835043 0.41564444 0.22891892 -0.032666296 -0.25309005 0.1737885
00000000: 412f 273e 62a5 1f3e ee64 32be 2651 1fbd
00000010: c581 8ebd c3ea c73d fc2a 8c3d 3100 80bd
00000020: d3f9 8abe 0746 de3d dd87 09bd fb6a 513e
00000030: 6c52 f4bd f849 0dbe 39d7 a7be b208 23bd
00000040: 0a02 3bbe aea8 07be b2cc 8dbd 932e 023e
00000050: cc93 00be fc88 d1bc 5cbf 27bd 9454 9abe
00000060: 023c eb3e 4f71 4a3d 5ce8 033d b8f8 f2bd
00000070: ad85 37be b42c 5cbd 8b1e 433d 3eca 64be
00000080: 01b9 153e 7d26 a3bd 32f2 823d 43f1 5bbe
00000090: b9ba 4d3e 808d b3bb 61f6 bbbd cc6a 493e
000000a0: 6616 17bc e97f 4d3e ba37 1d3e 5646 1d3e
000000b0: 41fd 433e a22d 17be 6523 30be dfbe ec3c
000000c0: 1947 8b3e 1477 b73c b2ee 89be aa68 28be
000000d0: 40ce 0ebe 47fa 2abe 1dcb 19be bf20 91bc
000000e0: 6214 a53d aebf f33d 5e2e 203e d613 4fbe
000000f0: ee04 c83d 7d68 48be 3027 9f3d 4c08 9f3e
00000100: 0f95 a9bd 2cca c23d 2022 3cbe 1f0e 19be
00000110: a6f7 dc3c 61ea c43d 7be5 ba3c 6d1c e5be
00000120: 9590 3d3e d2ed 053d 4cc0 903e 595f 0e3e
00000130: 1d3e a83d 9e13 b73c 3d4d 82be dc88 54be
00000140: f16c b9bd 62b8 0f3d 861c 723e 9f11 213d
00000150: 86b3 3b3e 91f5 53be 604c 823d e653 743d
00000160: fef3 72bc 34d5 b6bd f240 34bd 1251 20be
00000170: f501 09be 9e40 863e 63be 8e3c f7b5 8e3e
00000180: 47c1 b93d d9ba 61be 1055 083e 4939 86be
00000190: 4af7 913c f5c3 eabd db77 853d 6539 b5bd
000001a0: 1386 88be 6e3c d93d 0b7a 0fbe d27c 4f3e
000001b0: b227 9fbd f80f 863e 8a7d 85bc 0594 543e
000001c0: 656f 113e f4cb 573d 9e50 0dbd f3ca b8bd
000001d0: 4217 b6be dc76 b2bd 5603 cfbc a8a3 0cbe
000001e0: e69a da3d cb59 bc3d 1fe8 03be 5500 a2bd
000001f0: 14bf 14bc 0be4 d83d cb04 2ebe 7adc 263e
00000200: 5f3f cabd 1824 b73d 89a8 84bd cc3c 543e
00000210: fd8b 0abe 5bf3 283e 4ee8 013e 70bd 86bd
00000220: 81ca debd 0882 113e 9468 b6be b989 1f3e
00000230: e7cf 91be ccb4 6d3e f663 2a3b 0d84 0dbe
00000240: 9b0b 9a3d c612 b23d 1008 a53d 6380 8e3e
00000250: deb6 cbbd 629c bdbd 9059 133e ee98 e23d
00000260: e33c e1bd 017c 003e 3378 61bd 8317 ebbd
00000270: 03e4 b9bd e8c8 703e 34e5 a63d 0dde 8f3c
00000280: 144a 683d d02b 743e a18d b73d c62a a93d
00000290: 7a9c ab3b 755f 8c3e e433 95bd 9562 fe3d
000002a0: 2b1f e43e 5724 673c e906 5cbc 0fc6 8e3e
000002b0: 2e43 f3bd bea6 84be 992c 843e 68d8 233c
000002c0: 5378 0cbe d4b8 a4bd f32a 2dbe f8df 583e
000002d0: 98f9 c5bd 105d eb3d 8346 0ebc ec00 af3b
000002e0: b2ba 563e bb5a da3c 1f75 6e3e 69a2 17be
000002f0: 1103 dbbd 1be3 c93a 2737 e73d a27e 3bbe
00000300: 09d6 a43e 9854 18be ec7e ac3d 3f2b 8d3c
00000310: 03c9 ce3d d33f 9c3e f0f5 eb3d 111d cfbc
00000320: 5c9f a8be 9991 67be a8bf d1bc bb39 fb3d
00000330: 4602 6f3e 56da ecbd c46d 9abc 2644 95bd
00000340: 0538 c53d fcad 0d3d 7949 3bbe bafe 833c
00000350: 9d5d 3fbd 8cbc ca3d 8bf3 183e 9b9d a93d
00000360: d5bb 89bd b4ab 843e 90ca c5bd e406 7b3d
00000370: e8ce 183e 9f1b 4abe c6b8 bb3e c66f fd3c
00000380: dc66 5abd 7ea6 04bd 6dfd 9e3e 0dbc 123e
00000390: d55f 0fbe e3a1 c3be ccc1 663e 04fa 9abe
000003a0: e483 bebd 16e5 18be 78c1 6bbb eaa9 5b3e
000003b0: b2ec 52bc b776 803c 7b81 34be 0604 223d
000003c0: 318a ed3d c7f1 63bd 0529 80bc 29a5 e1bd
000003d0: 7449 46be a263 aebd 0a86 35be e223 203e
000003e0: 264a 6d3d 46a4 103e d5e6 ddbd 59cf d43e
000003f0: b969 6a3e 18cd 05bd 0595 81be 9df5 313e

linear_layer.0.bias f4 [100]
-0.010567664 -0.050817706 0.12753528 -0.024207424 0.043383077 -0.018920848 0.052942503 0.10132739
-0.12466857 0.055816725 0.055096008 -0.07530644 0.07166498 0.08612822 0.018794367 0.0012784026
-0.085974544 0.012268283 -0.018617623 0.019768193 -0.05757815 -0.037149377 -0.02794744 0.038527835
0.011905707 0.08728991 0.07263863 -0.03116302 0.043034542 -0.057879426 -0.04813562 -0.057068158
0.072483934 -0.046824854 -0.04805654 0.040651783 -0.021150153 -0.086306944 0.13136084 0.073984444
0.06221423 -0.034762345 0.07535866 -0.13407104 0.014172557 -0.066416845 -0.06570381 0.003820645
-0.068916 -0.08975277 0.10916722 0.05659424 -0.011856185 -0.1266894 0.067181386 0.06976574
0.006324178 -0.00053031894 -0.0035905128 -0.017517725 -0.08456938 -0.016673103 -0.026863296 0.09854832
-0.076745756 0.05798153 -0.09179302 -0.0025660817 -0.06293577 0.07615234 0.06923079 -0.04577896
-0.077758975 0.12162018 0.0050765956 0.019988997 -0.01970476 0.047473572 -0.0886513 -0.021603439
0.10202699 0.07415325 -0.054459997 -0.016227465 0.027180424 0.00029173435 0.0645122 0.10752173
-0.09395018 -0.07577264 -0.095293075 -0.14428133 -0.061483454 0.10694671 -0.02013349 0.040758654
0.11445774 0.044946484 -0.053201847 0.021459034
00000000: ff23 2dbc 3a26 50bd 9c98 023e a64e c6bc
00000010: 74b2 313d e5ff 9abc 3dda 583d bc84 cf3d
00000020: 3c52 ffbd 14a0 643d 5aac 613d 433a 9abd
00000030: 17c5 923d fe63 b03d a5f6 993c 1390 a73a
00000040: 6c13 b0bd e900 493c fc83 98bc e8f0 a13c
00000050: 11d7 6bbd f229 18bd 08f2 e4bc 5dcf 1d3d
00000060: 2810 433c 0dc5 b23d 90c3 943d 9749 ffbc
00000070: fd44 303d fa12 6dbd db29 45bd 4dc0 69bd
00000080: 7572 943d 6bcb 3fbd efd6 44bd 7c82 263d
00000090: 1643 adbc b2c1 b0bd 7583 063e 2885 973d
000000a0: 59d4 7e3d f662 0ebd a455 9a3d eb49 09be
000000b0: 0334 683c 8e05 88bd b88f 86bd c963 7a3b
000000c0: d523 8dbd 4dd0 b7bd 1093 df3d 5dcf 673d
000000d0: 7240 42bc deba 01be 6596 893d 57e1 8e3d
000000e0: 0d3b cf3b 1a05 0bba cf4e 6bbb 5581 8fbc
000000f0: b632 adbd 0896 88bc 6a10 dcbc b4d3 c93d
00000100: e12c 9dbd 0a7e 6d3d fbfd bbbd b52b 28bb
00000110: 78e4 80bd c2f5 9b3d dfc8 8d3d b882 3bbd
00000120: 1940 9fbd 0014 f93d 9259 a63b f7bf a33c
00000130: e06b a1bc a673 423d d08e b5bd b2f9 b0bc
00000140: 87f3 d03d a9dd 973d 7211 5fbd 76ef 84bc
00000150: 7ba9 de3c ecf3 9839 f91e 843d 5a34 dc3d
00000160: f468 c0bd b02e 9bbd 0429 c3bd 7cbe 13be
00000170: 13d6 7bbd e006 db3d fdee a4bc 8cf2 263d
00000180: d268 ea3d ce19 383d 2eea 59bd dbca af3c

linear_layer.1.weight f4 [100, 100]
0.05727671 0.14890206 -0.051691074 -0.017120048 -0.014822378 0.005078371 0.09896649 0.06536815
0.17456661 -0.15007676 -0.07629386 0.0014016547 -0.17464454 -0.049648993 0.067688465 0.06754711
-0.21072966 -0.15449049 0.16090965 0.0038931696 -0.0894424 0.11871648 0.03181979 0.1681754
-0.06067208 0.011628857 -0.08565253 -0.015364218 -0.23166873 -0.09336804 -0.013281539 0.012881424
-0.038431216 0.19545257 -0.08285192 -0.0587551 -0.094242565 -0.012330963 0.13642086 -0.13409111
0.05592799 0.07452061 -0.14102039 -0.06235485 -0.00081130496 -0.037160657 0.04734404 0.088442124
-0.001507237 0.12610537 -0.0061338767 -0.27262753 0.11327428 0.08020659 -0.02902332 -0.204219
-0.07254781 -0.07083724 0.22035639 0.17028642 0.006582606 0.06168926 -0.0057203947 -0.15758508
-0.019250501 0.18370609 -0.017637886 0.012414464 0.028619742 -0.08824759 0.0070926147 0.09689364
-0.076282516 0.04555918 -0.19841444 0.028482433 -0.03808969 0.0043166643 -0.17828229 -0.115958184
-0.017218662 -0.010699947 -0.031291515 -0.09519523 0.07410214 0.12618922 -0.015947524 -0.07398676
0.096152544 0.102933645 -0.013718134 0.124899365 -0.0897897 -0.061910808 -0.007374975 -0.09884908
-0.059677966 -0.016860737 -0.13126594 -0.07588667 0.046527024 0.22685824 -0.044173658 0.05520469
-0.0152178705 -0.15253718 0.12834856 -0.27327436 -0.048961125 -0.06627262 -0.06630275 0.047446445
0.083216965 0.102467366 0.13126308 -0.14208205 -0.036560126 -0.26695228 0.020287795 0.18728746
-0.10359806 -0.025094206 0.040577196 0.12595454 0.16766004 0.03658107 -0.0855639 0.11410619
-0.12277022 -0.06758017 -0.04105482 -0.12175641 0.17341417 -0.093363956 -0.085742176 0.032440975
0.18401025 0.015601243 -0.021589478 -0.08492826 0.19264598 -0.09385289 0.118232735 -0.15363814
0.18774381 -0.22107933 -0.26130083 -0.069381654 0.0363167 -0.07809054 -0.036458056 -0.0426189
0.07949519 -0.15800391 -0.07193891 0.084979154 0.012512844 -0.06516339 -0.12184899 -0.040683065
0.137299 -0.095224105 -0.011284042 0.047373023 -0.13286838 0.121958286 -0.025316436 -0.17981939
-0.36257017 0.19489095 -0.025615444 0.07266409 0.046228617 0.12329707 0.10426612 0.17514642
0.0106271515 0.0083171725 -0.11231222 0.05556672 0.1924711 -0.20095977 -0.041797508 0.074022636
0.017366135 -0.09796132 0.020425476 0.027165588 0.025562922 -0.13038793 0.085179016 -0.12225294
0.0051212288 -0.09343735 0.1250266 -0.13564536 0.14775668 0.13514686 -0.11358669 0.19323719
-0.10237593 -0.05442792 0.10517742 -0.02849732 -0.13967945 0.041361596 -0.033364065 0.13917102
-0.14745449 -0.035221517 0.08483421 0.013176157 -0.046098217 0.057252582 0.040805064 -0.03923701
-0.011248541 0.11243589 -0.21821235 -0.1610377 0.0741016 0.09397315 0.024209924 -0.14064279
-0.13134347 -0.14983238 0.03383618 0.08173697 -0.036463205 0.09652999 -0.13370793 -0.013061099
0.034391277 -0.07347777 0.010419851 0.013821415 -0.102180086 -0.07215785 -0.07368186 -0.0074937516
0.24059796 0.16127387 -0.024374953 0.1402901 -0.12368429 0.13791515 0.09255112 -0.1045536
-0.060140815 -0.08687521 0.0628878 0.014856198 -0.044091363 -0.058937892 -0.13513072 -0.00601545
00000000: fc9a 6a3d c879 183e 05ba 53bd 583f 8cbc
00000010: 8fd9 72bc 7768 a63b f1ae ca3d bddf 853d
00000020: 97c1 323e b9ad 19be f53f 9cbd bab7 b73a
00000030: 05d6 32be be5c 4bbd 40a0 8a3d 2456 8a3d
00000040: 84c9 57be c132 1ebe 80c5 243e 8c24 7f3b
00000050: 942d b7bd a021 f33d 7855 023d 2c36 2c3e
00000060: 4983 78bd f686 3e3c 986a afbd 33ba 7bbc
00000070: 913a 6dbe be37 bfbd d09a 59bc 9c0c 533c
00000080: 0d6a 1dbd b824 483e 44ae a9bd 30a9 70bd
00000090: 3f02 c1bd cf07 4abc e9b1 0b3e 2e4f 09be
000000a0: bf14 653d 439e 983d a667 10be cd67 7fbd
000000b0: c1ad 54ba c635 18bd d3eb 413d 2521 b53d
000000c0: 7b8e c5ba c421 013e b0fe c8bb d695 8bbe
000000d0: 59fc e73d 5a43 a43d 50c2 edbc c91e 51be
000000e0: f293 94bd 1d13 91bd 1ba5 613e 905f 2e3e
000000f0: e7b2 d73b e1ad 7c3d 2672 bbbb fc5d 21be
00000100: 3ab3 9dbc 731d 3c3e 547d 90bc 0966 4b3c
00000110: f373 ea3c 27bb b4bd 2a69 e83b 2c70 c63d
00000120: 023a 9cbd 439c 3a3d 282d 4bbe fe53 e93c
00000130: ef03 1cbd ce72 8d3b a28f 36be 7c7b edbd
00000140: 270e 8dbc d54e 2fbc 882b 00bd b7f5 c2bd
00000150: ddc2 973d bf37 013e 62a4 82bc 5f86 97bd
00000160: a0eb c43d e0ce d23d 06c2 60bc 3dcb ff3d
00000170: aae3 b7bd 3096 7dbd c6a9 f1bb 6371 cabd
00000180: e270 74bd 871f 8abc 946a 06be 786a 9bbd
00000190: 1f93 3e3d 874d 683e 70ef 34bd 501e 623d
000001a0: 6054 79bc b532 1cbe ce6d 033e 9eea 8bbe
000001b0: 768b 48bd f0b9 87bd bcc9 87bd 3457 423d
000001c0: a86d aa3d 69da d13d d469 063e f57d 11be
000001d0: 12c0 15bd f8ad 88be 9732 a63c 49c8 3f3e
000001e0: 382b d4bd 5d92 cdbc 4634 263d 3afa 003e
000001f0: 13af 2b3e 08d6 153d 203c afbd 82b0 e93d
00000200: f46e fbbd 7967 8abd 1929 28bd 6d5b f9bd
00000210: 7c93 313e 9a35 bfbd 9899 afbd d4e0 043d
00000220: 2f6d 3c3e 5b9c 7f3c 6bdc b0bc deee adbd
00000230: fd44 453e f235 c0bd 0124 f23d 5153 1dbe
00000240: ea3f 403e 9f62 62be 39c9 85be f817 8ebd
00000250: d2c0 143d efed 9fbd 0b55 15bd 2891 2ebd
00000260: 60ce a23d c7cb 21be b554 93bd 8d09 ae3d
00000270: ac02 4d3c 6274 85bd f78b f9bd 49a3 26bd
00000280: 1c98 0c3e db04 c3bd b4e0 38bc 370a 423d
00000290: a60e 08be 44c5 f93d 6a64 cfbc 9322 38be
000002a0: cca2 b9be 7e91 473e 7bd7 d1bc e9d0 943d
000002b0: 385a 3d3d 2d83 fc3d 7a89 d53d 9559 333e
000002c0: 811d 2e3c c044 083c f303 e6bd ee99 633d
000002d0: 2517 453e 66c8 4dbe dd33 2bbd 2e99 973d
000002e0: 6d43 8e3c f29f c8bd 5453 a73c 5e8a de3c
000002f0: 5569 d13c 6a84 05be 5672 ae3d c05f fabd
00000300: fbcf a73b 155c bfbd f906 003e 9ee6 0abe
00000310: 874d 173e f063 0a3e 23a0 e8bd f8df 453e
00000320: 79aa d1bd d0ef 5ebd 4267 d73d 3673 e9bc
00000330: 2108 0fbe c76a 293d c2a8 08bd d982 0e3e
00000340: 4ffe 16be 7044 10bd 8fbd ad3d cfe0 573c
00000350: 7cd1 3cbd af81 6a3d 3623 273d fdb6 20bd
00000360: cd4b 38bc ca44 e63d 0f73 5fbe 11e7 24be
00000370: 94c2 973d ff74 c03d e453 c63c aa04 10be
00000380: e77e 06be a96d 19be ce97 0a3d b665 a73d
00000390: 715a 15bd 84b1 c53d bbea 08be 38fe 55bc
000003a0: dedd 0c3d 837b 96bd 06b8 2a3c 3773 623c
000003b0: cb43 d1bd 7fc7 93bd 84e6 96bd 258e f5bb
000003c0: 505f 763e fa24 253e fbad c7bc 35a8 0f3e
000003d0: 304e fdbd a139 0d3e 718b bd3d 3320 d6bd
000003e0: 3756 76bd a1eb b1bd 52cb 803d 6967 733c
000003f0: 2599 34bd dc68 71bd b55f 0abe 411d c5bb

linear_layer.1.bias f4 [100]
-0.04641839 0.06478252 -0.01053314 0.1108852 -0.024865353 -0.029807689 -0.08572167 0.10526786
-0.08203527 -0.0012243193 -0.06610577 -0.027365388 0.081465974 0.09617616 -0.049222548 -0.022338884
-0.011109374 0.09500153 0.011146432 -0.05759017 -0.028089006 0.038442478 -0.010078806 0.048275843
0.02844563 0.021083765 0.08413848 -0.051658466 -0.06755289 -0.031617228 -0.09393478 0.038022242
-0.007394259 -0.012298188 -0.04414121 0.03209646 0.09456704 -0.06678125 -0.0007700059 -0.029570956
-0.080060035 -0.074485525 0.031176431 0.1116832 -0.053221896 -0.0021811852 0.005155246 -0.068860374
0.003196189 -0.073657244 -0.037645847 0.034859467 0.009420364 -0.057318237 0.018769596 0.0384792
0.08765782 -0.053168103 0.015307444 0.034948308 -0.0569823 -0.0033455703 0.011975857 0.098213725
0.014560267 0.033410117 -0.05583564 0.0019153487 -0.043434616 -0.0982073 -0.05975517 0.008939619
-0.0371939 -0.026554223 0.04652846 0.016206825 0.057813626 -0.04917132 0.057108793 -0.04601151
-0.11855156 -0.007375208 0.018227305 -0.029537806 0.07137749 -0.0030614114 0.01775555 0.03137914
0.087853156 0.010390882 -0.060211483 -0.08256376 0.0038819478 0.021357523 0.03155271 0.018688176
0.051814217 -0.0072796876 -0.0028836464 0.0208646
00000000: 3621 3ebd b3ac 843d 3193 2cbc c817 e33d
00000010: 6db2 cbbc 412f f4bc d88e afbd ad96 d73d
00000020: 1c02 a8bd 5779 a0ba 7662 87bd 612d e0bc
00000030: a2d7 a63d 02f8 c43d 959d 49bd 0900 b7bc
00000040: 1804 36bc 2a90 c23d 869f 363c ace3 6bbd
00000050: ea1a e6bc dc75 1d3d 9421 25bc e4bc 453d
00000060: cf06 e93c dcb7 ac3c cc50 ac3d d497 53bd
00000070: 2b59 8abd 1181 01bd e160 c0bd 36bd 1b3d
00000080: 8a4b f2bb 577e 49bc 6acd 34bd 9477 033d
00000090: 5dac c13d 9cc4 88bd 39da 49ba ca3e f2bc
000000a0: 84f6 a3bd de8b 98bd b765 ff3c 29ba e43d
000000b0: 34ff 59bd 37f2 0ebb 56ed a83b ab06 8dbd
000000c0: 2777 513b 9cd9 96bd 8832 1abd cdc8 0e3d
000000d0: df57 1a3c 87c6 6abd b2c2 993c 5e9c 1d3d
000000e0: f185 b33d ccc6 59bd 13cc 7a3c f525 0f3d
000000f0: 4666 69bd 5b41 5bbb 6336 443c 4724 c93d
00000100: 308e 6e3c 0cd9 083d e9b3 64bd 700c fb3a
00000110: 7fe8 31bd e920 c9bd d6c1 74bd 7b77 123c
00000120: a258 18bd 3e88 d9bc a094 3e3d 2dc4 843c
00000130: fbcd 6c3d de67 49bd e9ea 693d 9176 3cbd
00000140: 29cb f2bd bbab f1bb 6e51 953c 45f9 f1bc
00000150: 5d2e 923d f6a1 48bb 1674 913c 6a87 003d
00000160: 5bec b33d 853e 2a3c 51a0 76bd 3017 a9bd
00000170: 4768 7e3b f9f5 ae3c 6a3d 013d f217 993c
00000180: 253b 543d 728a eebb 8ffb 3cbb 3dec aa3c

linear_layer.2.weight f4 [100, 100]
-0.061344367 0.021971637 0.06642546 -0.18457113 0.08237492 -0.043817084 0.055281326 -0.083398476
0.08938289 -0.0538011 -0.054617148 0.037183736 -0.038392004 -0.090807356 0.023940148 -0.14130877
0.049130935 -0.07466076 -0.042214792 0.1321226 0.022369733 0.050368685 -0.06362607 -0.068171486
-0.12839995 0.0047891364 -0.20104794 -0.026765967 0.00018817332 -0.0016363926 0.04164002 0.015719581
0.000577504 0.0046869204 0.030414011 -0.00011640785 -0.017495114 0.25267106 0.027619462 -0.06865866
0.13924615 0.16530868 0.07462313 0.020565704 0.11958949 -0.024650337 0.123938866 0.03468688
-0.15195669 0.11235029 0.00057106366 0.06262695 -0.1341368 0.034854125 -0.11080942 -0.035978537
-0.32085907 0.03803854 0.095616885 0.010599563 -0.03441216 -0.0010469191 -0.003984786 -0.015127366
0.04071796 0.12055887 0.046447434 -0.056946676 0.06924248 0.016046867 0.235919 0.25362346
0.020138614 -0.11775578 -0.19395497 0.031219652 -0.017935283 -0.02220624 -0.08336728 0.089692734
-0.093846396 0.05327434 0.017172644 0.08984462 0.2413042 -0.13853472 0.16016608 -0.27293825
-0.07396165 -0.11257689 0.04114176 0.12395394 -0.00080837065 -0.121552624 -0.03751982 -0.023296867
-0.069218725 0.02309835 0.014677472 0.056480173 -0.036201473 0.010921646 -0.036651533 -0.32006705
-0.0056108744 0.06008027 0.074434444 -0.2424333 0.054665495 -0.13563545 0.10906734 -0.14262164
-0.074811384 -0.28535765 -0.10252807 0.022989335 0.012154423 -0.08529621 0.06919618 0.07213153
0.0964216 0.12969007 -0.031083899 -0.047781847 0.06455884 0.07361871 -0.23998588 0.08016931
0.048529863 0.00043910937 0.09987179 -0.18793316 0.2592295 0.096758395 -0.059642687 -0.091036014
0.018401962 0.077425994 0.25520325 0.011356629 0.19887282 0.002972155 0.13591196 0.011338588
0.13574444 0.193113 -0.15703003 0.035145078 -0.2232872 0.061413392 -0.04388295 -0.17109731
0.07166903 0.058460828 0.2351933 0.1620256 -0.07112795 -0.0043305014 -0.050411068 -0.08589367
0.021408925 0.16379367 0.22038698 -0.035652928 -0.25304064 -0.07734777 -0.01290503 0.010437282
0.01921489 0.016971622 -0.044094358 0.057206057 0.029202247 -0.11228831 0.01810774 -0.09128781
-0.0042424556 0.11294884 -0.0021779994 0.081100896 0.001798733 -0.1128019 -0.13671286 -0.16883163
-0.032557122 0.11803336 0.0425366 -0.11652964 -0.009704329 -0.0880511 0.032135524 0.0739737
0.054286033 -0.14600936 -0.006197185 -0.079872265 0.0498661 0.053244993 0.03185522 -0.03285598
-0.032633767 -0.09842022 -0.042353425 0.04968494 0.16199763 -0.0912261 0.084904216 0.024365127
-0.049150627 0.18853794 -0.16613433 -0.14461908 -0.07957861 -0.16427566 -0.04499816 0.06250747
0.1932192 0.08040521 -0.16877109 0.005556238 -0.13287145 0.106378525 -0.2677935 0.093396425
-0.09212794 -0.069392584 0.10049311 0.011844366 -0.14185296 0.053766098 -0.14077845 0.07843439
-0.07341399 0.027994713 -0.03793838 0.10534753 -0.05271717 -0.16115297 0.0060724295 0.059713222
-0.13179271 0.023202151 -0.12697624 -0.009529862 0.023482442 -0.077267945 -0.014824567 0.013811928
-0.0489929 -0.032227658 -0.1323659 0.05587649 -0.12258222 0.023113253 0.047202647 0.04673231
00000000: 3b44 7bbd ddfd b33c 120a 883d 3700 3dbe
00000010: 2fb4 a83d 8b79 33bd ac6e 623d d2cc aabd
00000020: 600e b73d 8b5e 5cbd 3bb6 5fbd f94d 183d
00000030: ef40 1dbd 35f9 b9bd 211e c43c 3fb3 10be
00000040: 853d 493d bee7 98bd 6be9 2cbd 264b 073e
00000050: bb40 b73c 654f 4e3d 634e 82bd 7e9d 8bbd
00000060: 477b 03be 30ee 9c3b 83df 4dbe 4d44 dbbc
00000070: 6450 4539 397c d6ba ba8e 2a3d 5ac6 803c
00000080: a363 173a bd94 993b ce26 f93c fd1f f4b8
00000090: ea51 8fbc 1a5e 813e 3642 e23c e99c 8cbd
000000a0: 8b96 0e3e ae46 293e 03d4 983d 6879 a83c
000000b0: 56eb f43d 81ef c9bc a9d3 fd3d d413 0e3d
000000c0: 899a 1bbe e917 e63d 6fb3 153a 8f42 803d
000000d0: 285b 09be 33c3 0e3d 0df0 e2bd 3b5e 13bd
000000e0: a447 a4be 4dce 1b3d c9d2 c33d caa9 2d3c
000000f0: c4f3 0cbd c738 89ba cf92 82bb c6d8 77bc
00000100: e0c7 263d 92e7 f63d aa3f 3e3d eb40 69bd
00000110: 00cf 8d3d b874 833c c094 713e efda 813e
00000120: bcf9 a43c f129 f1bd 229c 46be 5bc0 ff3c
00000130: 04ed 92bc dce9 b5bc 77bc aabd d3b0 b73d
00000140: 8a32 c0bd 3236 5a3d a5ad 8c3c 7500 b83d
00000150: 7318 773e 0cdc 0dbe 9402 243e 90be 8bbe
00000160: 3579 97bd b68e e6bd 4384 283d 90db fd3d
00000170: d6e8 53ba 95f0 f8bd 62ae 19bd 12d9 bebc
00000180: 8cc2 8dbd c038 bd3c c879 703c c157 673d
00000190: ff47 14bd b4f0 323c eb1f 16bd d4df a3be
000001a0: 6ddb b7bb bb16 763d 1671 983d 6f40 78be
000001b0: ede8 5f3d 05e4 0abe b35e df3d 680b 12be
000001c0: b636 99bd 661a 92be 3dfa d1bd 2154 bc3c
000001d0: 5823 473c c8af aebd bab6 8d3d b2b9 933d
000001e0: b078 c53d 79cd 043e a9a3 febc e6b6 43bd
000001f0: 6d37 843d 68c5 963d dcbe 75be cf2f a43d
00000200: 40c7 463d 4338 e639 9589 cc3d 8d71 40be
00000210: bbb9 843e 4429 c63d e44b 74bd 1771 babd
00000220: b6bf 963c 8591 9e3d 00aa 823e 2811 3a3c
00000230: 51a5 4b3e 7dc8 423b 812c 0b3e 7cc5 393c
00000240: 9700 0b3e 6abf 453e 7bcc 20be 49f4 0f3d
00000250: 66a5 64be 9c8c 7b3d 9cbe 33bd 2234 2fbe
00000260: 36c7 923d 9f74 6f3d 83d6 703e 0aea 253e
00000270: 88ab 91bd e1e6 8dbb d67b 4ebd 05e9 afbd
00000280: c561 af3c 87b9 273e 20ad 613e ce08 12bd
00000290: 8b8e 81be 8268 9ebd 9e6f 53bc 2201 2b3c
000002a0: 8c68 9d3c 1208 8b3c 499c 34bd e650 6a3d
000002b0: 8d39 ef3c 6af7 e5bd af56 943c 1af5 babd
000002c0: 4c04 8bbb b951 e73d c4bc 0ebb 3a18 a63d
000002d0: 77c3 eb3a af04 e7bd 75fe 0bbe 33e2 2cbe
000002e0: 9e5a 05bd 79bb f13d dc3a 2e3d 18a7 eebd
000002f0: e8fe 1ebc 2354 b4bd 8aa0 033d 867f 973d
00000300: 085b 5e3d 7a83 15be c111 cbbb 1294 a3bd
00000310: 6540 4c3d 6c17 5a3d 9f7a 023d fe93 06bd
00000320: fcaa 05bd 8a90 c9bd c97a 2dbd 7082 4b3d
00000330: b5e2 253e c0d4 babd 43e2 ad3d 6099 c73c
00000340: 2b52 49bd 1710 413e 1e1f 2abe 0617 14be
00000350: 1cfa a2bd e137 28be fe4f 38bd eb03 803d
00000360: 41db 453e 7dab a43d 54d2 2cbe 1a11 b63b
00000370: 740f 08be fcdc d93d 3b1c 89be a046 bf3d
00000380: 93ad bcbd b31d 8ebd 55cf cd3d df0e 423c
00000390: e741 11be d739 5c3d 3a28 10be 36a2 a03d
000003a0: 135a 96bd 2b55 e53c 4665 1bbd 72c0 d73d
000003b0: f6ed 57bd 4905 25be 3bfb c63b da95 743d
000003c0: abf4 06be 7012 be3c 0f06 02be 2323 1cbc
000003d0: 405e c03c a83e 9ebd bee2 72bc 6d4b 623c
000003e0: c7ac 48bd 2601 04bd ed8a 07be bfde 643d
000003f0: 630c fbbd 0158 bd3c 9057 413d 616a 3f3d

linear_layer.2.bias f4 [100]
-0.049191687 -0.033125628 0.012054343 0.007273199 0.019228952 0.03837517 0.04908682 0.0030515864
0.034157373 0.04157477 -0.034965027 -0.05346261 -0.068840705 0.07529842 -0.023482911 -0.018388243
-0.056278214 0.057317253 0.014863317 -0.032462377 -0.08778767 -0.04383705 -0.021995768 0.08258775
0.022707613 -0.041200966 -0.043271724 -0.05977078 0.03848759 -0.047513634 -0.06354759 -0.02589697
0.0022013374 0.010704684 -0.012831164 -0.06250611 -0.024063889 -0.062382855 -0.0145005 -0.016761867
-0.032205265 -0.054127593 -0.018985668 0.026991688 0.012201847 -0.0063964673 -0.005502324 0.004388754
0.027520262 0.022376321 -0.023664707 -0.0022998378 0.073362015 0.0366368 0.054689135 -0.05112853
-0.042365745 -0.005164192 0.024147281 -0.04878794 -0.00065482187 0.034468256 0.04124749 -0.020741876
-0.030537637 0.003378511 -0.020743351 0.006253298 0.005812575 0.0236614 0.007853423 -0.01948274
-0.017328037 -0.007884674 -0.034867335 -0.059007823 -0.008370036 0.007239891 0.022532579 -0.041198365
-0.05555317 -0.007562773 -0.029643776 -0.030276783 0.04736006 0.046661153 0.024582203 0.08094791
-0.03261929 0.0041074525 0.01019345 0.02012804 -0.018688615 -0.09104425 0.009944756 -0.055759545
-0.02289766 0.012487701 -0.04540258 -0.022003295
00000000: 397d 49bd bdae 07bd 947f 453c 0454 ee3b
00000010: 0986 9d3c 482f 1d3d 430f 493d 20fd 473b
00000020: 9ae8 0b3d 4e4a 2a3d 7d37 0fbd 9cfb 5abd
00000030: 5bfc 8cbd 0f36 9a3d 3c5f c0bc f1a2 96bc
00000040: fc83 66bd 7fc5 6a3d 4585 733c 45f7 04bd
00000050: 06ca b3bd 7b8e 33bd 7830 b4bc c423 a93d
00000060: 5105 ba3c 58c2 28bd b13d 31bd 35d2 74bd
00000070: 2aa5 1d3d a89d 42bd 3d25 82bd e225 d4bc
00000080: 5044 103b b362 2f3c cd39 52bc 3403 80bd
00000090: a221 c5bc 2a85 7fbd 8193 6dbc 2f50 89bc
000000a0: abe9 03bd e5b4 5dbd d587 9bbc ac1d dd3c
000000b0: 41ea 473c 7599 d1bb d74c b4bb 89cf 8f3b
000000c0: 2c72 e13c 8c4e b73c 7ddc c1bc e0b8 16bb
000000d0: d33e 963d 7810 163d b701 603d 266c 51bd
000000e0: b487 2dbd 6238 a9bb 85d0 c53c ddd5 47bd
000000f0: 5aa8 2bba 962e 0d3d 21f3 283d deea a9bc
00000100: 112a fabc 026a 5d3b f6ed a9bc 77e8 cc3b
00000110: 6a77 be3b 8dd5 c13c a5ab 003c 449a 9fbc
00000120: 87f3 8dbc b82e 01bc 0dd1 0ebd 30b2 71bd
00000130: 7a22 09bc 9c3c ed3b 3e96 b83c 9ebf 28bd
00000140: b98b 63bd 23d1 f7bb 81d7 f2bc 0407 f8bc
00000150: 9ffc 413d c41f 3f3d 9e60 c93c 05c8 a53d
00000160: ce9b 05bd cf97 863b 6e02 273c 8fe3 a43c
00000170: de18 99bc 6875 babd 54ef 223c 1f64 64bd
00000180: e093 bbbc 3799 4c3c 0ef8 39bd 4140 b4bc

linear_layer.3.weight f4 [100, 100]
-0.15345542 0.10585625 -0.04750278 0.10769578 -0.006994824 -0.030977229 0.052983016 0.05012729
0.0057862382 -0.07974186 -0.18566428 0.07085265 -0.11078903 0.2796542 -0.05478015 0.031616952
-0.24069561 0.086764276 -0.092031956 0.018597407 -0.14778818 -0.122792415 -0.06247968 0.13579245
0.0048247874 0.06980436 -0.0026710357 -0.06310956 0.21971706 0.010538637 -0.10154083 -0.025741788
-0.11081938 -0.03285321 -0.05798772 -0.01698304 -0.31723708 -0.18500787 -0.018367555 -0.11816866
0.17647798 -0.20072138 -0.14532992 0.08190381 0.038245562 -0.0193615 0.051440854 0.16807273
-0.25490555 0.10222553 0.079140864 -0.06267699 -0.024531811 0.17764132 0.2357235 0.00622135
0.092528 -0.15965311 -0.15082705 -0.12895001 -0.032058872 -0.1230114 0.039886285 -0.14693628
0.102300145 0.012520662 0.08522442 0.012223228 0.10439559 -0.02855819 0.19242696 -0.076901056
0.09594931 0.056799013 0.17302047 0.10721409 -0.076930314 -0.0053051463 0.0038886764 -0.06127093
0.005029635 0.118269295 -0.035860624 -0.028291496 0.24228431 -0.13124277 0.047675747 -0.03499404
-0.11018766 0.03590962 -0.18261945 0.24665478 -0.001818361 0.07138261 0.016644843 0.12998252
0.06716391 0.031805146 -0.13214108 -0.06915727 0.166013 -0.0011482268 0.002713952 -0.12904745
0.038912646 0.03275254 -0.102774955 0.061871845 -0.0005849087 -0.06993726 -0.1061686 0.12170591
-0.0442662 0.2779667 -0.116126314 -0.03335284 -0.06056474 -0.073001646 0.10902094 0.01440578
0.098564506 -0.07733602 -0.004773685 -0.18256408 -0.14418538 0.09137351 0.033051327 -0.18558764
0.16540952 0.09410515 -0.17049268 0.20234971 0.061312642 -0.15610796 0.06529584 -0.04533007
0.10538209 -0.22118108 -0.0008804459 0.00091083086 0.016229289 0.089881375 -0.050194323 0.037051167
0.18964688 -0.0067876354 -0.18738858 0.047053218 0.03912412 0.15470144 0.06498076 0.014167155
0.10886804 -0.03049118 0.05562854 -0.023112241 -0.04522758 -0.08817707 0.13522513 0.07492552
0.061451055 -0.0761562 -0.012825497 -0.04287924 0.10060197 -0.0895185 -0.16707762 -0.034295812
-0.11576399 -0.1739505 -0.07705418 -0.028065963 0.21021217 -0.074883044 -0.095161654 -0.04160271
-0.1009834 -0.14124128 0.014895822 -0.007957245 -0.036549892 -0.05547031 -0.020771513 0.14482407
0.047679074 0.05923263 0.009023831 -0.094972484 -0.020166516 -0.018998818 0.0013937434 0.10773402
-0.020186683 -0.055965472 0.03916729 -0.12844507 -0.010963699 -0.0998119 -0.20605648 0.01950413
-0.03636431 0.023311276 -0.060586605 -0.122071326 -0.0010188468 -0.0733072 -0.049366165 -0.07924531
0.07265811 -0.14864135 0.051989403 0.14948104 -0.13198626 -0.028438075 0.010726667 0.049846876
-0.031172778 -0.15070058 -0.22228913 -0.045427036 0.20896424 -0.0032141376 0.017643804 -0.084875934
0.025962155 -0.045311503 0.0831229 0.04390466 -0.02952103 0.06792958 -0.07387517 -0.064019
0.06237695 -0.09587658 -0.20356664 0.20775762 0.057003457 0.084045105 0.066107824 0.25421372
0.08419331 0.041817322 -0.07975437 -0.13604717 0.072824895 -0.062046893 -0.06837208 -0.0054708095
0.03987636 -0.19073056 0.0313933 0.084559545 -0.0658352 -0.06895372 -0.14514819 0.10137149
00000000: 6b23 1dbe 29cb d83d 4692 42bd 9b8f dc3d
00000010: d634 e5bb f5c3 fdbc b804 593d 4652 4d3d
00000020: 7c9a bd3b b34f a3bd c71e 3ebe 321b 913d
00000030: 5ce5 e2bd d62e 8f3e 2761 60bd c780 013d
00000040: e978 76be 78b1 b13d 407b bcbd 9759 983c
00000050: c955 17be 977a fbbd b1ea 7fbd 2d0d 0b3e
00000060: 4019 9e3b 97f5 8e3d 8b0c 2fbb 963f 81bd
00000070: 82fd 603e 3faa 2c3c a4f4 cfbd 71e0 d2bc
00000080: 45f5 e2bd 1691 06bd 8884 6dbd 0420 8bbc
00000090: e66c a2be b472 3dbe 8e77 96bc 6902 f2bd
000000a0: a5b6 343e e889 4dbe 5ed1 14be 2fbd a73d
000000b0: 61a7 1c3d 029c 9ebc a5b3 523d 421b 2c3e
000000c0: fb82 82be 9e5b d13d 9b14 a23d cb5c 80bd
000000d0: f0f6 c8bc 9be7 353e 8061 713e 77dc cb3b
000000e0: 527f bd3d 1b7c 23be 6872 1abe 790b 04be
000000f0: 2a50 03bd 67ed fbbd cd5f 233d 7776 16be
00000100: bd82 d13d 7623 4d3c 248a ae3d ef43 483c
00000110: 5bcd d53d def2 e9bc 930b 453e 4d7e 9dbd
00000120: 1281 c43d 15a6 683d 472c 313e 1093 db3d
00000130: a48d 9dbd cbd6 adbb 2ad9 7e3b 3af7 7abd
00000140: a3cf a43b 2c37 f23d 97e2 12bd 91c3 e7bc
00000150: 6119 783e 8164 06be a547 433d e955 0fbd
00000160: 11aa e1bd f715 133d 9800 3bbe 1293 7c3e
00000170: 1256 eeba 0c31 923d c45a 883c 231a 053e
00000180: 3b8d 893d 1d46 023d fe4f 07be 54a2 8dbd
00000190: 50ff 293e 1980 96ba 8fdc 313b 0425 04be
000001a0: de62 1f3d 8727 063d ad7b d2bd 556d 7d3d
000001b0: 8f54 19ba 443b 8fbd ec6e d9bd f340 f93d
000001c0: 7a50 35bd a751 8e3e a2d3 edbd fd9c 08bd
000001d0: bc12 78bd e381 95bd 5f46 df3d 3806 6c3c
000001e0: 30dc c93d 5962 9ebd 926c 9cbb 14f2 3abe
000001f0: 55a5 13be 0922 bb3d d460 073d b00a 3ebe
00000200: 1d61 293e 33ba c03d a295 2ebe c334 4f3e
00000210: f722 7b3d c4da 1fbe d3b9 853d 06ac 39bd
00000220: 91d2 d73d 4b7d 62be b9cd 66ba d3c4 6e3a
00000230: 49f3 843c ba13 b83d 9098 4dbd f7c2 173d
00000240: cb32 423e d06a debb cbe2 3fbe e0ba 403d
00000250: 9d40 203d 0e6a 1e3e a214 853d 5b1d 683c
00000260: 35f6 de3d a4c8 f9bc c1da 633d e255 bdbc
00000270: 8e40 39bd 2e96 b4bd 7578 0a3e 8d72 993d
00000280: 1ab4 7b3d c8f7 9bbd 0922 52bc 24a2 2fbd
00000290: 6808 ce3d 7a55 b7bd 6516 2bbe c479 0cbd
000002a0: ac15 edbd 1420 32be 95ce 9dbd 97ea e5bc
000002b0: dc41 573e 485c 99bd 1de4 c2bd 9a67 2abd
000002c0: 63d0 cebd 8ea1 10be 9b0d 743c 1b5f 02bc
000002d0: 57b5 15bd d634 63bd 0529 aabc c34c 143e
000002e0: 224b 433d ea9d 723d b1d8 133c ef80 c2bd
000002f0: 4034 a5bc 69a3 9bbc 45ae b63a a7a3 dc3d
00000300: 8b5e a5bc 0d3c 65bd e16d 203d 1b87 03be
00000310: 16a1 33bc 2e6a ccbd 7800 53be 20c7 9f3c
00000320: bef2 14bd 4af7 be3c a929 78bd 8800 fabd
00000330: d38a 85ba 1622 96bd 2d34 4abd 5d4b a2bd
00000340: c6cd 943d 7035 18be d7f2 543d 8f11 193e
00000350: 6827 07be f7f6 e8bc e7be 2f3c 3d2c 4c3d
00000360: 0e5e ffbc 4151 1abe c39f 63be b311 3abd
00000370: b9fa 553e 48a4 52bb bd89 903c 6fd3 adbd
00000380: 96ae d43c 8e98 39bd 573c aa3d 5fd5 333d
00000390: 16d6 f1bc aa1e 8b3d dd4b 97bd 651c 83bd
000003a0: f97e 7f3d f15a c4bd c673 50be 6abe 543e
000003b0: 757c 693d d71f ac3d 8a63 873d 4d28 823e
000003c0: 8b6d ac3d a448 2b3d 4256 a3bd f34f 0bbe
000003d0: 3825 953d e224 7ebd a906 8cbd 7a44 b3bb
000003e0: 6555 233d df4e 43be 4396 003d 8e2d ad3d
000003f0: 9bd4 86bd 9c37 8dbd baa1 14be db9b cf3d

linear_layer.3.bias f4 [100]
0.036733065 0.019587705 -0.039591923 -0.048013717 -0.015981693 -0.039564528 0.058361378 0.039740577
0.04021266 -0.005230932 -0.048456687 -0.037943326 0.040567983 0.015076198 0.006826457 -0.002459933
-0.0124949 -0.0036618656 -0.002924624 0.038666837 -0.06291581 0.04623492 0.030868342 0.03368215
0.00900043 0.0009970368 0.0553848 0.040038537 0.02098454 0.048700754 -0.017026067 -0.0065695033
0.039005443 0.031292133 0.011057801 -0.035705477 0.026198227 0.00411294 -0.036426343 0.0055550225
-0.024950966 0.008569857 -0.028001284 -0.004659392 0.030057674 0.02833261 0.04711177 -0.060057677
0.05074136 -0.030275922 0.028326891 -0.024010003 -0.016501458 -0.021443363 -0.013597086 -0.0143815605
-0.03407049 -0.03895884 0.019812394 0.047774844 0.0035568925 0.0029430662 0.0046358425 0.019212028
0.0037135924 0.0055550295 0.06169627 -0.026335243 0.00861729 0.00588765 0.03889011 0.0033725952
-0.007005647 -0.008699187 -0.036609426 -0.019108186 0.0029492457 -0.01915392 0.018559216 -0.034374367
-0.0042818934 0.012958846 -0.009370589 -0.006888344 -0.048428517 0.02243012 0.023637878 0.030242521
-0.022427918 -0.0112457005 0.017088957 0.027019816 0.053228833 -0.023267273 0.005727121 -0.020704497
0.017633032 0.018396756 -0.035504058 -0.040428463
00000000: 6975 163d 6576 a03c 242b 22bd 08aa 44bd
00000010: 0aec 82bc 6a0e 22bd 570c 6f3d 04c7 223d
00000020: 08b6 243d 3d68 abbb 857a 46bd 766a 1bbd
00000030: 9d2a 263d 2802 773c 79b0 df3b d436 21bb
00000040: 69b7 4cbc e9fb 6fbb 0cab 3fbb 1e61 1e3d
00000050: 01da 80bd d460 3d3d 9bdf fc3c 4bf6 093d
00000060: 8a76 133c 01af 823a 2cdb 623d 73ff 233d
00000070: c5e7 ab3c 717a 473d 407a 8bbc fd44 d7bb
00000080: 2cc4 1f3d 2e2c 003d c72b 353c e83f 12bd
00000090: aa9d d63c d7c5 863b ca33 15bd e806 b63b
000000a0: f865 ccbc 9668 0c3c f362 e5bc d0ad 98bb
000000b0: 833b f63c ca19 e83c 45f8 403d 0aff 75bd
000000c0: 2cd6 4f3d 3605 f8bc cc0d e83c a0b0 c4bc
000000d0: 112e 87bc fea9 afbc 50c6 5ebc a3a0 6bbc
000000e0: 808d 0bbd 4e93 1fbd 9a4d a23c 8eaf 433d
000000f0: c11a 693b 75e0 403b 44e8 973b 8b62 9d3c
00000100: be5f 733b f706 b63b 3ab5 7c3d 02bd d7bc
00000110: 892f 0d3c 30ed c03b 3c4b 1f3d c206 5d3b
00000120: a08f e5bb 0987 0ebc c4f3 15bd c588 9cbc
00000130: 2248 413b aee8 9cbc 7f09 983c 23cc 0cbd
00000140: 204f 8cbb 5751 543c 1987 19bc 9eb7 e1bb
00000150: fb5c 46bd 5fbf b73c 39a4 c13c 2abf f73c
00000160: c1ba b7bc e33f 38bc 24fe 8b3c a958 dd3c
00000170: 7a06 5a3d 029b bebc 93aa bb3b 7a9c a9bc
00000180: 2673 903c cbb4 963c b46c 11bd 5198 25bd

linear_layer.4.weight f4 [100, 100]
-0.022505887 0.041445415 0.06573164 0.075027294 0.055644743 -0.008733706 -0.0468745 0.14542334
0.088690616 0.036444817 -0.14121732 0.07734741 0.08240162 0.14732987 0.11318643 0.19236428
0.16467689 0.30773842 0.0028846047 0.029753173 -0.0065599442 0.055058468 -0.0069341925 0.13741052
0.1525708 -0.08376042 0.07227615 -0.09770517 0.15325893 -0.0651631 0.15299314 -0.077254556
-0.1742439 0.04211228 0.012091577 0.0027702153 -0.17860764 0.052035842 0.14164288 0.03540629
-0.22060552 -0.2593852 -0.3088125 0.07665546 -0.040321764 -0.22935529 0.16851367 -0.06610549
0.073796906 0.016961936 -0.047076866 -0.10841132 -0.07801775 0.0065183057 -0.022775695 0.06304808
0.05480962 0.06353855 0.083690405 0.056491695 0.09317511 -0.0012514108 0.008433529 0.03255741
0.10130429 0.035139963 0.0059039416 -0.032038167 -0.22105104 0.14369524 0.06321935 0.09802525
-0.10305359 0.18913086 0.015754966 -0.17613132 0.09902071 0.06807084 -0.0257309 0.031988263
0.06949233 0.07404777 0.04121221 0.0016326674 -0.045236763 -0.0022490039 0.13688257 -0.024733523
-0.047149647 -0.066370904 -0.016860845 0.13055618 -0.20907062 0.09235574 -0.10979115 -0.07009143
0.029014321 -0.009731905 -0.07120921 -0.02628935 -0.07447117 -0.021229496 -0.11730514 -0.016323844
-0.020279115 -0.0619148 -0.19421464 -0.020855555 -0.009609255 -0.069393165 -0.02685628 -0.023244482
0.14808176 0.10505462 0.25456408 -0.066593245 -0.13971317 -0.08057102 -0.024450537 0.062360402
-0.08443411 0.10163915 0.08798248 -0.044132218 0.049376372 -0.06401927 0.09082316 0.13689864
0.18922243 0.078861594 -0.07054199 0.063644156 0.049428243 0.029059816 0.0019673628 -0.23278305
-0.13272005 -0.07529923 0.103334785 0.0616711 0.0444736 0.041864038 0.07076741 0.1678297
0.04566816 0.011419899 0.23285417 0.08015544 -0.037839152 -0.15645076 -0.031925976 0.05997646
-0.044466045 -0.05314539 -0.057152987 -0.08233649 -0.043057807 0.0933949 -0.052305307 0.01123281
-0.041803576 0.08193098 0.01602293 -0.21168798 -0.004410696 0.18566816 0.15381348 0.17975464
-0.13254294 -0.101363845 -0.099010445 -0.1336371 0.0039473767 -0.18636772 -0.008081981 0.10908112
0.062880576 -0.19448887 -0.18616258 0.10589345 0.13051687 -0.15983999 0.06961926 -0.08954031
0.05569566 0.019918697 -0.14373364 -0.054502655 -0.14003123 -0.16470398 0.090722755 -0.07565962
-0.12744196 0.03202432 0.024168449 0.040376596 -0.031697426 -0.08458098 0.10667611 0.050922476
0.047726747 0.0062763086 -0.14343877 0.13719462 -0.17464638 -0.09784932 0.05228445 0.1211312
-0.19588192 0.031090805 -0.00093953806 0.005728557 -0.062290084 -0.12564787 0.050888985 0.16424584
-0.13355634 -0.19877629 0.009668805 0.05455736 -0.07733546 -0.0020070127 0.16396846 0.016705422
0.056507483 -0.021499189 -0.0683323 -0.009805848 0.18162023 -0.05842027 -0.22518708 0.018563097
0.07491826 0.13392656 -0.113950774 0.039265092 0.0012423742 0.14230253 -0.10849995 -0.0050147423
-0.09309787 0.0441376 0.120513506 -0.20076491 -0.17644233 0.006748068 0.15373653 0.29275993
0.057368312 0.057914156 0.32532927 0.020089297 0.015859738 0.05666173 0.18004422 0.120329715
00000000: 445e b8bc abc2 293d 4f9e 863d e9a7 993d
00000010: beeb 633d d117 0fbc 7aff 3fbd dbe9 143e
00000020: 6da3 b53d 2947 153d 469b 10be 5268 9e3d
00000030: 2ec2 a83d a4dd 163e 49ce e73d 24fb 443e
00000040: 0fa1 283e e48f 9d3e a30b 3d3b edbc f33c
00000050: cdf4 d6bb fd84 613d 3938 e3bb 58b5 0c3e
00000060: 853b 1c3e 958a abbd 8505 943d a619 c8bd
00000070: e9ef 1c3e 3b74 85bd 3caa 1c3e a337 9ebd
00000080: fe6c 32be ed7d 2c3d c01b 463c 808c 353b
00000090: ece4 36be 8923 553d d50a 113e 3006 113d
000000a0: 6ae6 61be 23ce 84be ac1c 9ebe 8afd 9c3d
000000b0: 6f28 25bd 1ddc 6abe d98e 2c3e 5162 87bd
000000c0: d522 973d c2f3 8a3c acd3 40bd c106 debd
000000d0: c5c7 9fbd 8397 d53b 1894 babc 5a1f 813d
000000e0: 0d80 603d 8020 823d e065 ab3d d663 673d
000000f0: 98d2 be3d 6106 a4ba c92c 0a3c eb5a 053d
00000100: a078 cf3d ecee 0f3d da75 c13b 743a 03bd
00000110: 345b 62be d824 133e 2679 813d 76c1 c83d
00000120: c30d d3bd 85ab 413e 8f10 813c c55b 34be
00000130: 5fcb ca3d b968 8b3d 9cc9 d2bc 2006 033d
00000140: ff51 8e3d 5ba6 973d 22ce 283d 3aff d53a
00000150: 2f4a 39bd 0664 13bb f22a 0c3e f59d cabc
00000160: fd1f 41bd 78ed 87bd c11f 8abc 85b0 053e
00000170: 9c16 56be 0225 bd3d 2fda e0bd 188c 8fbd
00000180: 71af ed3c 9172 1fbc 22d6 91bd c35c d7bc
00000190: 5784 98bd 7be9 adbc ad3d f0bd 95b9 85bc
000001a0: 6320 a6bc 609a 7dbd 34e0 46be 45d9 aabc
000001b0: 2370 1dbc 011e 8ebd b401 dcbc 366b bebc
000001c0: bfa2 173e e026 d73d 3956 823e 0a62 88bd
000001d0: f810 0fbe 6b02 a5bd 7e4c c8bc 9f6d 7f3d
000001e0: caeb acbd 3028 d03d 2930 b43d fcc3 34bd
000001f0: e13e 4a3d 891c 83bd 7e01 ba3d 282f 0c3e
00000200: 86c3 413e 3082 a13d 5278 90bd de57 823d
00000210: 4575 4a3d da0e ee3c dfee 003b ae5e 6ebe
00000220: c4e7 07be 7c36 9abd 30a1 d33d d69a 7c3d
00000230: f329 363d a079 2b3d 81ee 903d 8ddb 2b3e
00000240: 890e 3b3d 871a 3b3c 5371 6e3e 8928 a43d
00000250: 3afd 1abd a134 20be d0c4 02bd e0a9 753d
00000260: 0722 36bd fbae 59bd 4019 6abd 09a0 a8bd
00000270: 625d 30bd d345 bf3d 173e 56bd d209 383c
00000280: 3a3a 2bbd 6ecb a73d 8542 833c bcc4 58be
00000290: 9a87 90bb cb1f 3e3e 4881 1d3e 9a11 383e
000002a0: 56b9 07be d997 cfbd fdc5 cabd 2ad8 08be
000002b0: ff58 813b 2ed7 3ebe 496a 04bc ec65 df3d
000002c0: 88c7 803d 1728 47be 67a1 3ebe aade d83d
000002d0: 37a6 053e 18ad 23be 8b94 8e3d e960 b7bd
000002e0: 2221 643d 892c a33c e92e 13be 2d3e 5fbd
000002f0: 5964 0fbe 29a8 28be dacc b93d 6ef3 9abd
00000300: 2580 02be ef2b 033d e9fc c53c ee61 253d
00000310: 29d5 01bd cb38 adbd 0179 da3d 1694 503d
00000320: 1f7d 433d 7ea9 cd3b 9de1 12be bf7c 0c3e
00000330: 80d6 32be 3965 c8bd 3828 563d a213 f83d
00000340: 4595 48be 25b2 fe3c 554b 76ba 9eb6 bb3b
00000350: e323 7fbd d6a9 00be f870 503d 1030 283e
00000360: fec2 08be 038c 4bbe e869 1e3c 8a77 5f3d
00000370: 0e62 9ebd 1688 03bb 59e7 273e cfd9 883c
00000380: 6474 673d 111f b0bc cef1 8bbd b5a8 20bc
00000390: a7fa 393e 184a 6fbd 7197 66be a311 983c
000003a0: bf6e 993d 0b24 093e 065f e9bd 6fd4 203d
000003b0: 29d7 a23a c1b7 113e 3935 debd b552 a4bb
000003c0: 19aa bebd a1c9 343d c9cf f63d 5195 4dbe
000003d0: 4cad 34be e61e dd3b 1c6d 1d3e a1e4 953e
000003e0: 09fb 6a3d 6537 6d3d 8f91 a63e 4f92 a43c
000003f0: 48ec 813c 2116 683d 835d 383e 6d6f f63d

linear_layer.4.bias f4 [100]
0.0006998164 -0.02195624 0.02234369 -0.026886865 -0.11726176 0.010870902 -0.026459662 0.005767401
0.025496388 0.02194053 0.014100072 -0.03735142 -0.01184697 0.03324084 -0.017888317 0.008125807
0.022508597 -0.02069999 -0.04597095 0.034023143 0.06870799 -0.018629637 0.01005587 0.019356232
0.01915935 0.014421716 -0.0057032965 -0.0049222508 -0.03325693 -0.030989151 0.020464962 0.013433631
-0.014800714 -0.027999511 0.01467128 -0.047688216 0.029085139 0.10786069 0.02321116 -0.021791175
-0.0039716857 -0.0005658277 -0.0030262156 -0.012007637 -0.025296975 0.0017739208 -0.019857828 -0.00963575
-0.022386743 -0.013320916 -0.005668054 -0.021821886 0.012284281 0.006748633 -0.02754128 -0.016539931
-0.0030971237 -0.023300048 -0.012937926 0.00084231363 -0.013243169 0.037495907 0.0008840153 -0.012422578
-0.0032425327 -0.00519889 0.018676646 -0.019569095 0.022133933 -0.0241742 -0.039985478 0.00035560684
-0.007220176 -0.023883209 0.024310285 -0.033886034 -0.012661627 0.02023808 0.047320034 0.032639522
0.036213838 -0.025672138 0.06089264 0.030867439 -0.06981737 -0.042140804 0.017876409 -0.033208076
-0.004979529 -0.013792598 0.013609513 -0.003983842 -0.014688512 0.011460446 0.026038779 -0.011543348
-0.017503409 -0.019690346 -0.04063488 -0.012233517
00000000: e273 373a 93dd b3bc 1d0a b73c d841 dcbc
00000010: ef26 f0bd de1b 323c efc1 d8bc 77fc bc3b
00000020: cddd d03c a0bc b33c fd03 673c cdfd 18bd
00000030: cb19 42bc 8c27 083d 858a 92bc 1b22 053c
00000040: f363 b83c 0793 a9bc 094c 3cbd da5b 0b3d
00000050: c6b6 8c3d 2e9d 98bc 60c1 243c f690 9e3c
00000060: 12f4 9c3c 1049 6c3c b8e2 babb d54a a1bb
00000070: 6b38 08bd f6dc fdbc 23a6 a73c bb18 5c3c
00000080: b27e 72bc 3b5f e5bc cf5f 703c b854 43bd
00000090: f543 ee3c 11e6 dc3d 5525 be3c 6883 b2bc
000000a0: ea24 82bb 0e54 14ba 7953 46bb aebb 44bc
000000b0: 9a3b cfbc e882 e83a e2ac a2bc 44df 1dbc
000000c0: 6764 b7bc f93f 5abc 15bb b9bb d0c3 b2bc
000000d0: 0244 493c a323 dd3b 409e e1bc c07e 87bc
000000e0: 1df9 4abb bedf bebc 98f9 53bc b6ce 5c3a
000000f0: e0f9 58bc 4f95 193d 43bd 673a 1288 4bbc
00000100: ac80 54bb 735b aabb c4ff 983c 5e4f a0bc
00000110: 3952 b53c f908 c6bc d0c7 23bd be70 ba39
00000120: 3a97 ecbb b8a6 c3bc 5d26 c73c 15cc 0abd
00000130: b672 4fbc 54ca a53c a7d2 413d 05b1 053d
00000140: f654 143d 604e d2bc 906a 793d b6dd fc3c
00000150: 69fc 8ebd d69b 2cbd 8c71 923c 3105 08bd
00000160: 512b a3bb 59fa 61bc 6ffa 5e3c e48a 82bb
00000170: 16a8 70bc 98c4 3b3c 474f d53c 5020 3dbc
00000180: 4f63 8fbc a64d a1bc c370 26bd 176f 48bc

linear_layer.5.weight f4 [100, 100]
0.056552716 0.048871763 0.016066583 0.020970628 -0.04081195 -0.21428066 -0.1313128 -0.054905955
-0.062310804 0.074723974 0.029470084 -0.038643856 -0.11786983 -0.08782444 0.01930154 0.07475407
-0.037621286 -0.07224737 0.06828672 -0.024370113 -0.18382134 0.10600599 0.024569174 0.032416783
-0.13324401 0.089515336 -0.032268316 -0.007569195 0.001675677 -0.17035069 0.071079634 0.035847306
0.092983365 -0.021553941 0.16977516 0.029961264 0.08872988 -0.25966862 0.06930448 0.2183061
-0.15028037 -0.14107719 -0.010863091 0.08642331 -0.0713452 0.100510985 0.08156246 0.15016119
-0.23798847 -0.048524566 -0.16543563 -0.008967603 -0.026743734 0.093575306 0.012950322 0.008486304
0.11223225 -0.12391099 0.05031162 0.14116599 0.01933495 0.044590823 -0.0977632 0.18980315
-0.08750104 -0.16110833 -0.07007983 0.091491595 -0.06040475 -0.1252761 -0.14309515 0.12494204
0.032382336 0.08441567 -0.013274586 -0.110006906 -0.029146975 -0.025313964 0.070135795 0.13146487
-0.059418593 0.06139241 -0.03937967 -0.2551002 0.05814027 -0.20134258 0.19716577 0.076074325
-0.00909711 0.035595123 -0.024704557 0.23870373 -0.017793149 -0.2714467 0.07261029 0.020967344
0.100468196 -0.13075797 -0.03675327 0.15903911 -0.08869313 0.08226649 -0.028112395 0.08985755
-0.071236156 0.06582319 0.15706018 0.06200018 -0.024656812 -0.16612211 -0.20839907 0.06561833
-0.08161163 -0.015457305 -0.029373383 -0.09505537 0.014085276 0.15551059 0.10342544 -0.17595214
-0.057493567 -0.055906173 0.05091739 0.13871637 0.08812473 0.083260424 0.08185068 0.01801494
0.09852171 0.073847294 0.016908646 0.081778 -0.051366366 -0.0007772453 -0.19946133 0.09337691
0.08538968 -0.13214917 -0.030860906 0.093226865 -0.038851257 -0.11061384 0.15751645 -0.09212681
0.13622916 -0.042535685 0.16295603 0.03428793 0.06656563 0.034104753 -0.01617062 0.22706112
-0.07032712 0.06913851 -0.0635534 0.09386969 -0.121716864 0.15871069 0.21040995 0.07706058
-0.0139693795 -0.11787961 0.012758948 0.09957708 0.122723766 -0.0065980284 0.16262367 -0.086315
-0.16603212 0.05713027 0.1205023 -0.100573465 -0.009152563 0.019109579 0.018459314 0.117882006
-0.05835069 -0.027568875 0.022531142 -0.059302114 -0.11480593 -0.0041594743 -0.08262765 -0.05314626
-0.09662897 0.12297213 -0.07184927 0.06305102 0.06055452 0.042816818 -0.1839593 0.10089538
0.06613503 -0.095492266 0.0017422781 -0.011009511 0.017414987 -0.07072822 0.06118551 -0.122678004
-0.08364342 0.03239084 -0.04195026 -0.15330647 -0.056814503 0.11599087 -0.09864022 -0.18077494
0.074527614 0.009238416 0.027533067 -0.12987952 0.0042509497 0.037478175 0.12925322 -0.16753358
0.16741098 0.009995793 0.019117916 -0.012857669 0.0982806 -0.07201322 -0.046501372 0.12619595
0.10393773 -0.0844784 -0.10867297 -0.016386792 -0.012027875 0.176279 0.18469982 -0.02170787
-0.062281508 0.111324094 0.11856556 -0.019735763 0.14346035 0.17213114 0.10550667 0.15190145
-0.09329923 -0.07526101 -0.13056996 0.08491713 -0.04991435 -0.09086684 0.13389707 -0.12275389
-0.07930934 0.113278605 0.09308394 -0.08286554 -0.1405934 0.026339142 -0.026173351 -0.09062904
00000000: d2a3 673d c22d 483d 119e 833c 98ca ab3c
00000010: 6e2a 27bd 646c 5bbe dd76 06be 11e5 60bd
00000020: 9d39 7fbd e208 993d 3f6b f13c 0549 1ebd
00000030: bd65 f1bd 4ddd b3bd 431e 9e3c a918 993d
00000040: c718 1abd 6ef6 93bd e8d9 8b3d d5a3 c7bc
00000050: a93b 3cbe ab19 d93d 4b45 c93c 76c7 043d
00000060: 1e71 08be d153 b73d c82b 04bd 0207 f8bb
00000070: 64a2 db3a 6970 2ebe 3392 913d a0d4 123d
00000080: 106e be3d e491 b0bc 8ad9 2d3e 5371 f53c
00000090: 03b8 b53d 49f3 84be 82ef 8d3d a28b 5f3e
000000a0: 19e3 19be 8a76 10be 1bfb 31bc b4fe b03d
000000b0: 6f1d 92bd b4d8 cd3d 380a a73d dbc3 193e
000000c0: 40b3 73be b2c1 46bd f567 29be daec 12bc
000000d0: ad15 dbbc 69a4 bf3d 962d 543c 240a 0b3c
000000e0: 06da e53d 0cc5 fdbd 8f13 4e3d d18d 103e
000000f0: 5464 9e3c dea4 363d 1338 c8bd c25b 423e
00000100: bf33 b3bd 95f9 24be 0486 8fbd f25f bb3d
00000110: f96a 77bd 6148 00be 8987 12be 9de1 ff3d
00000120: 57a3 043d 1fe2 ac3d a67d 59bc 4d4b e1bd
00000130: a3c5 eebc 3b5f cfbc 5ba3 8f3d ba9e 063e
00000140: e960 73bd 9c76 7b3d 944c 21bd 7e9c 82be
00000150: 7e24 6e3d c02c 4ebe d3e5 493e dbcc 9b3d
00000160: 0b0c 15bc 31cc 113d 3661 cabc c06e 743e
00000170: f0c2 91bc 10fb 8abe b4b4 943d b5c3 ab3c
00000180: 45c2 cd3d 6be5 05be 998a 16bd 26db 223e
00000190: bea4 b5bd 557b a83d f74b e6bc 3c07 b83d
000001a0: 43e4 91bd 4fce 863d 62d4 203e e7f3 7d3d
000001b0: 15fd c9bc ea1b 2abe 9166 55be e762 863d
000001c0: 0024 a7bd a340 7dbc 73a0 f0bc 64ac c2bd
000001d0: eec5 663c 2b3e 1f3e b8d0 d33d cc2c 34be
000001e0: 607e 6bbd dffd 64bd c18e 503d aa0b 0e3e
000001f0: bd7a b43d 7184 aa3d 54a1 a73d 1194 933c
00000200: c0c5 c93d 403d 973d 0084 8a3c 397b a73d
00000210: 8a65 52bd 0dc0 4bba 973f 4cbe 653c bf3d
00000220: c9e0 ae3d 1d52 07be 03d0 fcbc baed be3d
00000230: 7f22 1fbd 8289 e2bd fe4b 213e fbac bcbd
00000240: a87f 0b3e e639 2ebd f2dd 263e 8071 0c3d
00000250: 9053 883d 6db1 0b3d 4078 84bc b682 683e
00000260: aa07 90bd 7e98 8d3d 4928 82bd c13e c03d
00000270: b146 f9bd 0e85 223e b575 573e f0d1 9d3d
00000280: d3df 64bc dd6a f1bd e80a 513c 11ef cb3d
00000290: 9956 fb3d 4634 d8bb d286 263e ebc5 b0bd
000002a0: 5304 2abe 6e01 6a3d e9c9 f63d 76f9 cdbd
000002b0: a2f4 15bc b18b 9c3c fd37 973c 1f6c f13d
000002c0: 2201 6fbd 1fd8 e1bc 3b93 b83c c6e6 72bd
000002d0: 5f1f ebbd 334c 88bb af38 a9bd e5af 59bd
000002e0: 69e5 c5bd d0d8 fb3d b625 93bd e520 813d
000002f0: 0408 783d b060 2f3d d45f 3cbe 3da2 ce3d
00000300: cd71 873d 7391 c3bd 275d e43a 3c61 34bc
00000310: e0a9 8e3c f5d9 90bd a89d 7a3d 9b3e fbbd
00000320: 3e4d abbd 42ac 043d 09d4 2bbd 5ffc 1cbe
00000330: 53b6 68bd 9f8c ed3d e203 cabd 111d 39be
00000340: efa1 983d ba5c 173c 078d e13c 23ff 04be
00000350: 8d4b 8b3b b782 193d f55a 043e ec8d 2bbe
00000360: c96d 2b3e 65c5 233c 2d9d 9c3c f9a8 52bc
00000370: 5747 c93d ab7b 93bd 3978 3ebd 8339 013e
00000380: 4edd d43d 0303 adbd ef8f debd 983d 86bc
00000390: 9010 45bc 7b82 343e f321 3d3e b4d4 b1bc
000003a0: e51a 7fbd e3fd e33d 80d2 f23d e5ac a1bc
000003b0: 45e7 123e 2543 303e e213 d83d 0e8c 1b3e
000003c0: ab13 bfbd 7222 9abd 22b4 05be 08e9 ad3d
000003d0: fd72 4cbd 6518 babd 501c 093e 6466 fbbd
000003e0: ef6c a2bd 9dfe e73d cba2 be3d 69b5 a9bd
000003f0: b7f7 0fbe 2fc5 d73c 7f69 d6bc b89b b9bd
