ac_2d_model_para_5/checkpoint_800.pth (torch, 291130 bytes, 17 tensors)

linear_layer.0.weight f4 [100, 3]
00000000: 61f9 603e f584 223e f067 44be b9c2 4b3c
00000010: b417 96bd 5bbe e23d 670f 4d3d ff69 80bd
00000020: 94af 90be be0e 6d3e f683 11bd 194f 5e3e
00000030: cb68 21be 09ee 1dbe dd4f b9be 878c 66bd
00000040: 175a 4dbe cbaa 04be 926e d2bd ec14 0b3e
00000050: 7d32 febd 5b99 9cbd a716 39bd e88e a8be
00000060: 5977 063f 8ed2 4b3d 51af af3c f02b 1cbe
00000070: 3877 40be 319c 99bd 5d4b 323d 52ca 7dbe
00000080: 76e9 083e 1381 d3bd 58fa 863d 3a53 74be
00000090: 455a c23e 7989 93bb f377 e5bd 364f 853e
000000a0: 521d 1ebc 3918 783e 9380 413e dc51 213e
000000b0: f104 383e 67df 36be 9f0a 4abe 2e86 c53c
000000c0: 58d8 9f3e aae5 b33c ecc5 93be ec7f 57be
000000d0: 56a2 19be b220 1fbe a3d9 8cbe de30 8fbc
000000e0: 1b9f c83d 524c 1c3e e792 253e 39d0 71be
000000f0: abc0 b13d 7c6f 4fbe 772d 9f3d 03db d93e
00000100: c1cf aebd d288 a23d 9b06 8cbe a1f6 1dbe
00000110: 2904 c13c beec 143e 1159 cb3c f445 f5be
00000120: c39d 6d3e a06a 0c3d 5703 9d3e 7e01 343e
00000130: 984d aa3d 0105 1a3c df80 9dbe 2f58 5dbe
00000140: 8e69 b6bd bd81 5e3d c962 8a3e 8ad9 633d
00000150: 40ad 513e e9e8 58be 2f45 5b3d 0b7a c23d
00000160: 0719 9bbc aaf3 d2bd fcee 40bd 0100 26be
00000170: 8baf 0ebe e1bc d53e 0c0a 873c 0444 a73e
00000180: b37e c13d 1f19 67be 0cf6 023e b973 c6be
00000190: 8197 8c3c be84 debd 7de3 833d 1f9b c7bd
000001a0: 0c64 94be 84a6 013e 02bd 13be afdb 523e
000001b0: 8ac0 20be c387 893e fdd3 a33c 14fb 893e
000001c0: 8fc7 163e eb96 883d 85d1 cdbc f377 bcbd
000001d0: 5dba c9be e26f 04be 9045 e7bc 5a05 1cbe
000001e0: ff8c bb3d 86a2 c43d 34cc 02be de98 33be
000001f0: 8999 2fbc c708 063e 7087 70be 9d2d 303e
00000200: 0a12 02be cb5e 103e 078c 88bd b5f5 793e
00000210: 67b0 1fbe c426 4d3e 6186 023e e484 98bd
00000220: 5e8b e5bd a052 143e 137c e7be 4c70 213e
00000230: b98a 92be a92f bd3e 35aa 983a d889 04be
00000240: db38 b93d 6e95 c33d 47bf c13d b786 b93e
00000250: dce8 d3bd 8c57 edbd 3d30 573e 175f e63d
00000260: b810 02be 1a51 463e dc9d 65bd ea34 18be
00000270: 62cf dabd b6fa 823e 427d c03d 3f98 8c3c
00000280: aebd 6a3d 10d8 823e ac7b ef3d b5af af3d
00000290: e673 933b 6f39 ab3e c870 96bd 4050 e73d
000002a0: 8b78 0b3f add9 723c c70f 42bc d6c3 ad3e
000002b0: 800f f5bd 1edf 83be 3370 a73e 6c17 0a3c
000002c0: b561 11be 2ed2 5ebd 6750 3abe 8fd2 873e
000002d0: 833b 0abe c207 f33d 481b e4bb 6286 1c3c
000002e0: f565 933e 800e d03c 464a a43e 4b79 1abe
000002f0: 28c6 7fbd b3f1 26bb e8c7 f23d 46d6 48be
00000300: e9ed c73e 17d2 1dbe 29e7 9f3d 9b4a f03c
00000310: 54c9 d53d 25ef a43e b6de 103e 61e6 e4bc
00000320: 7a61 bfbe 1d61 c8be 504a e5bc 73ba ee3d
00000330: 6fee c13e f31f f3bd 554a 983c 0180 c3bd
00000340: 7bbf d53d 0cab d03c b529 8dbe e08c 7f3c
00000350: 7ba9 1bbd dea1 ee3d 3a29 1f3e 1162 b93d
00000360: 49fd aebd 07f3 883e cc37 c7bd cde1 d13d
00000370: 8c9c 1c3e d40e 56be af3d f83e e075 043d
00000380: 4451 a6bd 10b7 eebc 34f3 b43e 3896 153e
00000390: 0367 2abe 7caa d3be 91b3 803e adf0 bebe
000003a0: bafb c5bd 1937 34be 509a 97bc 2d70 5f3e
000003b0: 2bae cfbb 3788 ea3c 7724 4dbe 224d 583d
000003c0: bca5 163e cb91 6abd b3b8 16bd 1a91 0fbe
000003d0: 9280 50be a7a1 a2bd ebbd 80be 4dd4 253e
000003e0: 511c af3d a812 343e dc4d e5bd 3a94 f43e
000003f0: 998d 8b3e 33a8 0cbd 561e 89be 471e 573e
0.2197013 0.15871032 -0.19180274 0.012436562 -0.0732874 0.11071464 0.050063517 -0.06270217
-0.28258955 0.23150155 -0.03552624 0.21709861 -0.15762632 -0.15422834 -0.36193743 -0.05628636
-0.20053898 -0.12955777 -0.10274996 0.135822 -0.124119736 -0.07646438 -0.04518762 -0.3292153
0.5252586 0.049761347 0.021445902 -0.15251136 -0.18795478 -0.07500494 0.043528903 -0.2478421
0.13370308 -0.10327353 0.06590718 -0.23859873 0.37959495 -0.004502472 -0.11204519 0.26036996
-0.009650545 0.2422799 0.18896703 0.15753883 0.17970635 -0.17858659 -0.19730614 0.024111833
0.31219745 0.021960098 -0.2886194 -0.21044892 -0.15003332 -0.15539816 -0.27509794 -0.017479356
0.09795972 0.15263489 0.1616932 -0.23614587 0.086793266 -0.20257372 0.077723436 0.42549905
-0.0853572 0.07936253 -0.2734879 -0.15426113 0.023561554 0.14543435 0.024822744 -0.47904932
0.23204713 0.034281373 0.3066661 0.17578694 0.08315581 0.009400607 -0.30762383 -0.2161567
-0.08906852 0.054322947 0.27028492 0.055627383 0.20476246 -0.21182598 0.053532775 0.09495934
-0.018932832 -0.103003815 -0.047102913 -0.16210939 -0.13934152 0.41745666 0.016484283 0.3266908
0.09447994 -0.22568177 0.12789172 -0.38760164 0.017162086 -0.10865162 0.06439874 -0.09746384
-0.2898258 0.12661177 -0.1442757 0.20591615 -0.15698448 0.2686139 0.019998545 0.2694937
0.14724563 0.0666941 -0.02512432 -0.09202566 -0.39399996 -0.12933305 -0.028231412 -0.15236416
0.09157752 0.096013114 -0.1277321 -0.17538783 -0.010717758 0.13089286 -0.23489165 0.172049
-0.12702194 0.1409866 -0.06667333 0.24410136 -0.15594636 0.20034319 0.12746574 -0.07447222
-0.11208223 0.14484644 -0.4521185 0.15765494 -0.28621462 0.36950424 0.0011647405 -0.12943208
0.090440474 0.09549986 0.094603114 0.36235592 -0.10347149 -0.11588964 0.21014495 0.11248606
-0.1270169 0.19366875 -0.05605875 -0.14863935 -0.106840864 0.25581902 0.09398891 0.01716244
0.0573098 0.25555468 0.116935104 0.08578435 0.0044999 0.33442256 -0.0734573 0.11294603
0.5448081 0.014822406 -0.011844582 0.33938473 -0.11965847 -0.25756162 0.3270279 0.008428436
-0.14197429 -0.05439966 -0.18194734 0.2652783 -0.13499264 0.11866714 -0.00696126 0.009553524
0.28788725 0.02539754 0.32087916 -0.15085332 -0.062444836 -0.0025473654 0.11854535 -0.19612989
0.390487 -0.15412174 0.07807762 0.02933245 0.10438791 0.32213703 0.14147457 -0.027941884
-0.37379056 -0.39136592 -0.027989537 0.11656656 0.37877223 -0.11871328 0.018590132 -0.09545899
0.104369126 0.025472187 -0.27570882 0.015597552 -0.038003426 0.116519675 0.1554307 0.09051908
-0.08544404 0.26747915 -0.09727439 0.10248146 0.15294093 -0.20904094 0.4848456 0.032338977
-0.08120969 -0.029140025 0.353418 0.14608085 -0.16640858 -0.41341007 0.25136998 -0.37292996
-0.09667154 -0.17599143 -0.0185062 0.21820135 -0.006337901 0.028629405 -0.20033441 0.052807935
0.1471166 -0.057267945 -0.036797237 -0.14020196 -0.20361546 -0.07940989 -0.25144896 0.16194268
0.08550323 0.17585242 -0.11196491 0.47769338 0.27256468 -0.034340095 -0.26780957 0.21007644

linear_layer.0.bias f4 [100]
00000000: c259 adbc a4ea 8fbd b5a8 453e 5b50 0abd
00000010: 7ffa c23c f813 cabc 3ca6 9f3d 4334 083e
00000020: ca6f 41be 5d94 663d 3380 633d d261 febd
00000030: 5339 323e f373 433e 8d80 3a3d d426 9c39
00000040: 3b67 0bbe 3268 923c 79fd d8bc d9a4 58bb
00000050: d56c ebbd 937f 8abd b12c 3abd 8c26 af3c
00000060: 4cb3 343d 0a58 213e 55b1 d13d f2fd 0cbd
00000070: c13a 593d 7ca5 e5bd 2b4d 8ebd a885 73bc
00000080: d833 e93d f712 cdbd 9b76 a4bd 3149 833d
00000090: 5b55 dcbc 907c 24be 7f97 1f3e ef7e 203e
000000a0: 584a b83d edee 4cbd e13d 963d 84c4 8ebe
000000b0: e39a a33c d497 e9bd 63fe 03be ef5b 993c
000000c0: 3928 b6bd 036f 31be 1413 583e 0756 a03d
000000d0: 267a 88bb 840e 71be 2087 c73d 6c86 e23d
000000e0: 9f01 f83c 889c 1fbc d69a bcbb 9504 1d3c
000000f0: eec3 e3bd 8e09 9bbc 656a 973b 630b 233e
00000100: 2d07 03be 83e9 ab3d 8134 4ebe afd0 1eba
00000110: 98cc abbd cf09 c83d 3cf3 303e e9c9 b5bd
00000120: 77ea c9bd 2f82 4e3e 4e84 67bc 3946 e93c
00000130: 5acb 823c 9a0a a13d 1c52 e7bd b03d eabc
00000140: 9e6a 1d3e 3c2c 003e 67a3 5fbd e2de 5f3c
00000150: eb65 083d 5b6a 363d 9a98 f33d 915c 193e
00000160: 97ab dcbd 4bbc cfbd 7299 0abe a68b 46be
00000170: 9d08 8fbd d641 033e c9d1 10bd 94ee 2b3d
00000180: 6f7f 753e 9761 733d bd3a 99bd dd9c 593d
-0.021160964 -0.07027176 0.19302638 -0.03376804 0.023801086 -0.024667725 0.077953786 0.13301186
-0.188903 0.056293834 0.055542182 -0.124210015 0.1740468 0.190872 0.04553275 0.00029783568
-0.13613598 0.01787195 -0.026488053 -0.0033057241 -0.114953674 -0.06762614 -0.045452777 0.021380685
0.044116303 0.1575624 0.102389015 -0.03442187 0.053034548 -0.11213204 -0.06948312 -0.014863409
0.113868415 -0.10013383 -0.08030435 0.064104445 -0.02689617 -0.16063142 0.15585135 0.15673421
0.08998555 -0.050032545 0.07336021 -0.27884305 0.019971317 -0.11405912 -0.1289001 0.018720595
-0.088943906 -0.17327504 0.21101028 0.078289084 -0.004164952 -0.23540694 0.0974257 0.11060795
0.03027421 -0.00974191 -0.0057557626 0.009583612 -0.11121355 -0.018925454 0.0046208375 0.15922312
-0.12795706 0.08394148 -0.20137216 -0.0006058318 -0.083886325 0.09767496 0.17280287 -0.08876402
-0.09859174 0.20166849 -0.014130665 0.028475868 0.015966106 0.0786335 -0.11294958 -0.028593868
0.15372702 0.12516874 -0.054599192 0.013663979 0.03330032 0.044535022 0.11894341 0.14976718
-0.10774916 -0.10143336 -0.13535097 -0.19389209 -0.06984065 0.12818083 -0.035356317 0.041975573
0.23974393 0.05941924 -0.074819066 0.053128112

linear_layer.1.weight f4 [100, 100]
00000000: 2b98 673d 9e9f 1a3e 3c76 84bd 0928 bbbc
00000010: 3b61 7ebc 5c24 893b bafc cc3d 4cf2 6a3d
00000020: 6ece 193e 5e5f 1bbe 95a4 a2bd d53c 283c
00000030: 3f8c 73be 2948 91bd b78e 883d 6bb6 8a3d
00000040: e513 62be 9393 1dbe 410b 543e cd93 4d3b
00000050: 97a6 b9bd 5bc5 e13d 3bc6 0c3d 1383 1d3e
00000060: 208b 8bbd e06e a13b 98da afbd 7c34 5bbc
00000070: ebe8 71be 9660 b9bd 8a4b 59bc ba31 09bb
00000080: 4ced 2dbd 58d1 673e 7c11 aabd f4e8 81bd
00000090: 8a82 babd 11c2 38bc 9ed4 043e fecd 11be
000000a0: be14 543d b28a 1f3e 5100 0ebe 24ea 67bd
000000b0: d525 0a3b e44a 0cbd 6573 663d d685 f93c
000000c0: 6c81 0b3b 8d6d fb3d 0e43 4cbc 495d 91be
000000d0: 8797 ed3d ff74 bd3d d6f6 07bd bb50 5ebe
000000e0: 5f50 0dbe 53e3 9cbd c96d 233e c3a3 2d3e
000000f0: 32f2 5d3c 2591 823d 6d43 2ebc 9df1 23be
00000100: 6fc8 c2bc 46ef 3a3e 0c1a 64bc 1ddb 533d
00000110: cc09 c63c 92d2 b4bd 4bed 2f3c 0466 ca3d
00000120: 25a7 94bd 3bb6 2c3d 9346 7cbe b44a f63c
00000130: 8e94 20bd e3ea 033c 36d4 32be 0098 f0bd
00000140: a013 04bd c9fa 54bc e8c7 cfbc 85da ccbd
00000150: 28b1 743d 6947 013e 5d1e e9bc f271 9cbd
00000160: 633f bf3d 9829 f83d 1266 d1bb 96a5 083e
00000170: c247 b3bd eee8 84bd 4ec6 09bc 8b13 d7bd
00000180: c130 7fbd dc12 99bc cdf8 05be 2995 a1bd
00000190: 53ed 463d 0bab 5f3e f6e5 d9bc 302c 7c3d
000001a0: dfa1 66bd d1bc 2cbe 96ff 083e 29aa 8fbe
000001b0: 3de4 45bd 59fd 92bd 00d6 88bd 84a9 1f3d
000001c0: 2b90 dc3d e2d0 f33d 1ea4 233e 9c22 19be
000001d0: bbce 2abd 4eb1 92be 7879 563c 120a 423e
000001e0: 3d9a e5bd 2bca b6bc fced f03c 6aa3 f33d
000001f0: 14c0 413e 4f99 a13d c1a3 bcbd c75f f63d
00000200: 9393 fcbd 3500 a4bd 6c9f 8dbd 27ba d0bd
00000210: 546b 323e d305 e7bd 9aa5 dcbd e707 133d
00000220: 582f 413e cbee 9b3c a268 05bd afd4 afbd
00000230: 39b1 4e3e 6da0 cabd f672 003e 69e9 34be
00000240: c491 4d3e da28 6bbe a629 8abe 4663 87bd
00000250: ff90 213d 01c3 bdbd 9aad 91bc ee24 10bd
00000260: 0686 b33d 1547 2bbe 5df9 2bbd b3c3 c33d
00000270: 97e8 d33c 36dc 99bd 5ad3 f5bd bc06 2dbd
00000280: 7676 093e 3592 b5bd d095 a5bc b40b 683d
00000290: 686e 0ebe 5f63 183e 397a 17bd 3db2 3bbe
000002a0: e376 bfbe 8a95 6d3e 4c0e a4bc a51d a23d
000002b0: 0f72 3f3d 6279 093e e539 e63d 0694 3f3e
000002c0: 1aea f33b cbd8 a5bb 382e e3bd 7d9a 483d
000002d0: bc9a 4f3e 0a40 52be b805 25bd a0bf a63d
000002e0: 1df7 7c3c dc0d 9ebd 5a12 033d 1c0f 1d3d
000002f0: ca3a 5e3c 1558 08be f475 a83d 2405 01be
00000300: 6119 f83c bae6 c5bd e448 fa3d 165a 06be
00000310: 2594 233e 5e66 103e 97f6 eebd 9a33 4c3e
00000320: ed9f e4bd 3a6b 4cbd ee87 d73d 7d5f 86bd
00000330: 7989 03be 7b53 453d 43ef 06bd 2f12 1b3e
00000340: 539d 42be 32df dfbc d8dd ae3d 58ff 163d
00000350: 84cd d1bd 63d9 203c ac0a ed3c 24bb f3bc
00000360: ca70 93bc 6206 003e 1631 28be 6bd9 2bbe
00000370: a542 9b3d 5238 9c3d c4a5 1b3d 0dfb 09be
00000380: 5d9a 23be d7f1 2abe 33b6 3a3d 1ee9 9c3d
00000390: 9432 22bd 1fbd cc3d 7810 01be 6db3 9abd
000003a0: 7f36 073d bc86 053c a529 8c3c d566 e73b
000003b0: 0006 d4bd 7d0a aebd 1cbb 86bd 7787 8e3c
000003c0: da1e 6b3e 00a4 4b3e 3aaa b1bc ad45 0d3e
000003d0: 9e1f 00be ae2b 153e 1709 e63d 4c3f 0abe
000003e0: f287 8cbd 85b1 bbbd 4d7d 473d b272 f03b
000003f0: 3403 3fbd f712 83bd 9072 17be 2bae 05bd
0.056541603 0.15099952 -0.06467864 -0.022846239 -0.015526111 0.0041852426 0.10009141 0.05735998
0.15020153 -0.15173098 -0.07941548 0.01026841 -0.23783968 -0.070938416 0.06667846 0.06773075
-0.22077902 -0.15388326 0.20707418 0.0031368614 -0.090649776 0.11023971 0.034368735 0.15382032
-0.06813645 0.0049265474 -0.08586615 -0.0133792125 -0.23624007 -0.090516254 -0.013262639 -0.002093418
-0.042462632 0.22638452 -0.08304116 -0.063432604 -0.091069296 -0.011276738 0.12971732 -0.14238736
0.051777594 0.15580252 -0.13867308 -0.05661978 0.0021079679 -0.03425111 0.056262393 0.030459326
0.0021286858 0.122767545 -0.012467159 -0.28391483 0.11601167 0.09250831 -0.033194385 -0.21710484
-0.1380019 -0.07660546 0.15959848 0.16957001 0.013546513 0.0637534 -0.010636193 -0.16010137
-0.023777215 0.18255338 -0.013922226 0.051722635 0.024174593 -0.088292256 0.010737727 0.09882739
-0.07258443 0.042165976 -0.24636297 0.030064918 -0.039204173 0.008051607 -0.17463765 -0.11747742
-0.03224528 -0.012999245 -0.025363877 -0.10002617 0.059739262 0.12624897 -0.028456861 -0.07638921
0.09338262 0.121173084 -0.0063903416 0.13344416 -0.08753921 -0.0648974 -0.008409096 -0.105017744
-0.062302355 -0.01868575 -0.13083191 -0.07889778 0.048566174 0.21842591 -0.026598912 0.061565578
-0.056306716 -0.16868903 0.13378748 -0.2805951 -0.048313368 -0.071772285 -0.06681442 0.038980022
0.10769685 0.119050756 0.15980574 -0.14954609 -0.04170106 -0.28650898 0.013090484 0.18949154
-0.11211059 -0.022313198 0.029410355 0.11896403 0.18920928 0.078905694 -0.09210921 0.12029987
-0.12332835 -0.08007852 -0.06915173 -0.10191756 0.17423755 -0.11280408 -0.107737735 0.035896208
0.18865716 0.019034764 -0.03257049 -0.08585488 0.20184793 -0.0989388 0.12543854 -0.17667164
0.20075136 -0.22964802 -0.269849 -0.06610732 0.03944492 -0.0926571 -0.017782975 -0.03519147
0.08765797 -0.16726334 -0.04198586 0.09558811 0.025867743 -0.07512705 -0.12003203 -0.04224275
0.13424096 -0.088657774 -0.020213038 0.056651786 -0.13909304 0.14881657 -0.036981795 -0.18329711
-0.3739539 0.23201576 -0.020026349 0.079158105 0.046739634 0.1342521 0.11241511 0.1870881
0.0074436786 -0.005061244 -0.110928 0.048975457 0.2027387 -0.20532241 -0.040288657 0.08142018
0.015439776 -0.07717487 0.031999923 0.038344488 0.013563821 -0.1331485 0.08225623 -0.12599617
0.03028554 -0.09663148 0.12220934 -0.13120303 0.15974481 0.1410155 -0.11668127 0.1994156
-0.11163316 -0.049906947 0.105239734 -0.06561182 -0.1284541 0.048175316 -0.03294302 0.15143655
-0.19005327 -0.027328108 0.08538407 0.03686461 -0.10244277 0.009817454 0.028935753 -0.029752322
-0.017998118 0.12502435 -0.16424975 -0.16782157 0.07581071 0.0762793 0.037999883 -0.13474675
-0.15976854 -0.16693817 0.045583915 0.07661651 -0.039599016 0.099970095 -0.12603939 -0.07553754
0.033010956 0.008149799 0.017109701 0.007061819 -0.10352707 -0.08498094 -0.06578657 0.017398579
0.22960988 0.1988678 -0.021687616 0.1379611 -0.12512061 0.14567444 0.112322025 -0.13500708
-0.06861867 -0.091647185 0.04870348 0.0073378915 -0.046633914 -0.06400102 -0.14789796 -0.032636803

linear_layer.1.bias f4 [100]
00000000: 2e3e 9abd 289f a53d b7f4 c9bc 3e12 353e
00000010: 5e8e a6bc 79ac 7cbd 84e9 e6bd 1bdf f93d
00000020: cbbf ddbd 0c99 8c3d d344 a2bd 943b a9bc
00000030: 19fc 033e 03bd c03d 7902 8dbd 1cdb 96bd
00000040: 235a f9b9 aa68 f83d ec43 983c 3346 6abd
00000050: a91c 4bbd fc83 383d e7a8 efbc a98b 9a3d
00000060: 0ab9 ed3d d30d e43c 91a5 143e 588e 55bd
00000070: ba88 b8bd a2c8 88bd 3d30 5ebe 0c41 be3d
00000080: 5920 a43b e76c 9dbd 5176 8abd ccad 863d
00000090: fd59 013e 908b fdbd 9704 3a3c be44 a7bc
000000a0: 2b38 e1bd be13 f2bd 30be 023d 0257 1d3e
000000b0: 39f1 8bbd a42b 363c b950 883a 88e1 fbbd
000000c0: 8003 523d 3a40 d2bd 437f 3dbd 7cbe 0ebc
000000d0: 868a 23bb be6d e7bd c8dd 4b3c c84d d23c
000000e0: d769 053e 43d2 a7bd fc7f 47bb 5293 023d
000000f0: b568 edbd ceeb c4bb 8f96 0d3d 097c 253e
00000100: e27c 0f3d 5ba7 183d 6bf0 cdbd 3d49 ae3c
00000110: 6dfd 853b 5c82 26be 688d babd 6e47 fb3b
00000120: 700e 2dbd 4833 0ebd 5567 913d aa28 153c
00000130: eea6 9f3d 3ed6 f6bd 2579 713d 5e3a 4ebd
00000140: ac51 0bbe 606b 8cbd 5c1c f53c 62fb f2bc
00000150: ff14 bb3d 421f 623b 1cac 8fbb d012 693d
00000160: 6bdd 1b3e edaf e0bc eb9a adbd 5fa1 1fbe
00000170: d778 b93d 88a0 df3c 14fc 433d 3ec0 1c3d
00000180: 8cdd 833d 656f 8ebb 89c7 3dbc 13f3 af3d
-0.07531391 0.08086997 -0.024652822 0.1768274 -0.020331558 -0.06168792 -0.11275008 0.12200757
-0.10827597 0.06865129 -0.079232834 -0.020658292 0.12889136 0.09411051 -0.06885237 -0.073660105
-0.00047560138 0.12129338 0.018587075 -0.057195853 -0.04958788 0.045047745 -0.029255344 0.07546169
0.11607559 0.027838623 0.14516284 -0.052137703 -0.090104535 -0.06678893 -0.21698089 0.092897505
0.005008739 -0.07686787 -0.06760848 0.06576118 0.12631984 -0.12380135 0.011353633 -0.020418521
-0.10997041 -0.11820172 0.03191966 0.15365222 -0.06833119 0.011118803 0.0010400034 -0.12298876
0.05127287 -0.102661565 -0.046263944 -0.008712407 -0.0024954393 -0.113002285 0.0124430135 0.025671855
0.13028656 -0.08194401 -0.0030441275 0.031878777 -0.11592237 -0.0060095554 0.034567412 0.16160597
0.035031207 0.037268978 -0.10055622 0.021275157 0.0040890486 -0.16260666 -0.09109002 0.007668427
-0.042250097 -0.034716874 0.07099787 0.009103933 0.07795511 -0.12052582 0.058953423 -0.050348632
-0.13605374 -0.06856418 0.02992075 -0.029660884 0.09134864 0.0034503494 -0.0043845307 0.056902707
0.15221183 -0.027427638 -0.08476814 -0.15588902 0.090562515 0.027298227 0.047847822 0.038269274
0.06438741 -0.0043467754 -0.011583217 0.085912846

linear_layer.2.weight f4 [100, 100]
00000000: eb33 5abd 182e cb3c eac9 8a3d c07e 77be
00000010: 56d9 b93d 2ea7 27bd 0cfc 823d b616 b1bd
00000020: 78c2 c63d 18e2 56bd ffea 2cbd 95d3 173d
00000030: 022e 7fbd db87 bebd 580e d33c 770b 0dbe
00000040: 6027 433d e3f2 acbd b319 14bd c928 053e
00000050: c2b0 d53c 8b27 403d 519d 7dbd 7c97 98bd
00000060: 4823 06be 89f4 133b acf5 61be 98c0 91bc
00000070: 5264 bb3c e530 8eba 4824 503d 44db 3dbd
00000080: 389d 443c c580 a63b ea99 863d 7a12 12bc
00000090: 3f83 d5bc c78f 963e 3715 de3c 1572 87bd
000000a0: 39f5 113e d4ec 2a3e 9354 9c3d 1d4f 453c
000000b0: f88e fc3d b7de 9bbc 3ebd f13d dd3f 403d
000000c0: 13df 21be 26d9 f03d b3c0 243c a0ea 7c3d
000000d0: 8bfc 09be 18be 2f3d 73f9 efbd bce8 14bd
000000e0: bc17 acbe c06d 643d f409 bb3d a66d 3e3c
000000f0: 3d8d fcbc e243 123b e161 dabc 8ef5 cbbc
00000100: 1103 163d 9968 fe3d 501a 773d e7b0 6ebd
00000110: 604c b33d 494c f03c 8f02 7b3e 72f9 813e
00000120: 8cbf 893c 9e9e ffbd 1cb4 4bbe db25 e23c
00000130: 294b 14bd 3ed9 9bbc 7efd 9cbd 4918 ce3d
00000140: 57fc b2bd 8433 683d 4989 f1bb a59c d93d
00000150: 5c47 703e 9255 09be 95a8 253e b543 8bbe
00000160: ed5d 98bd 55ae e4bd 5fa5 483d cb6b 133e
00000170: 2a11 05ba 3c59 efbd 282b 0dbd 0753 e7bc
00000180: a19c 90bd 8f3e a33c 877a 4a3c 23b7 633d
00000190: 2138 75bc f979 bc3c 32ae 49bd 266b a8be
000001a0: f7f6 d83b db12 9a3d 7dbf 943d 85a5 86be
000001b0: cd3b 453d af62 10be 4244 e53d 6d24 02be
000001c0: 0345 98bd 481a 99be 47f2 b4bd be53 123d
000001d0: bd6e a9bb ea5b cfbd 1219 aa3d e954 703d
000001e0: e591 e63d aa64 0f3e f76e 38bc d196 99bd
000001f0: a628 383d 7426 5d3d 090a 88be f0f3 be3d
00000200: 6146 a63d ecea 633c af5d f53d e6ca 51be
00000210: 4afc 8c3e f19a d63d cfc2 32bd 858e a6bd
00000220: f72d 24bb 6796 a73d 455b 753e c5cd dfb9
00000230: a43a 403e 5241 ecbb bcf9 173e 5685 943c
00000240: e0fc 003e f642 383e 682a 33be 589f 6f3d
00000250: 02f5 61be 9a53 a13d 05f2 c6bc 8510 2abe
00000260: 217a b23d 0b2c a93d e472 623e 5c64 1b3e
00000270: df3b abbd df8f 873c d5c3 80bd 02ce 95bd
00000280: a825 443d 95f6 163e ae3c 433e 9e9e efbc
00000290: 6ea0 7bbe 11ab 79bd 9fc6 163c f84c ad3c
000002a0: ce7d 763c 4e50 293d bb30 88bc 1bbf 923d
000002b0: 238d 8f3c bb49 01be eed0 99ba efa1 a3bd
000002c0: 5fb6 3cbb 6e0d e83d 107e d53b 94b1 c43d
000002d0: 85cf a03c abbc b1bd d5ee 02be 6f01 1bbe
000002e0: 1712 3dbd f775 083e 2ef2 6e3d 1455 f5bd
000002f0: a4b4 b1bc fef2 85bd feea 533d aa11 d33d
00000300: adcd 4f3d d027 0abe 6e06 d3ba 0a53 c8bd
00000310: a32c 6d3d 7523 233d f347 883c 5bd5 37bd
00000320: 9596 d6bc d1f3 c1bd 59b7 f9bc 84c7 593d
00000330: c825 1d3e f395 afbd de45 a33d 2345 073d
00000340: 89be 6bbd 9de1 4c3e 8ddf 22be 6614 06be
00000350: 7a3f c5bd db97 28be 61a3 20bd d988 853d
00000360: 643e 3b3e 78b5 d03d 6f23 28be 3c9b f3bb
00000370: 6883 08be 3167 f03d 5088 81be b5bc a03d
00000380: 2c0b e1bd 5b61 a7bd ef37 ef3d e3af 813c
00000390: cf0a 23be 6f24 6b3d 5136 0bbe 32c1 c23d
000003a0: a34e aebd aacd 163d 03e0 48bd 70dd 003e
000003b0: fe68 83bd a0a3 37be 9c70 7ebc deda 8c3d
000003c0: 06b3 12be ff79 4e3c f350 edbd fd7a 573b
000003d0: a0dd 623c a0cb c0bd 00ab 56ba 003f 383c
000003e0: 384e d3bc 8bde 1bbd a5d3 0fbe c142 7a3d
000003f0: 70fa debd 4bdd 073d b1ef b93c 4a7e 923c
-0.05327217 0.024802253 0.06776793 -0.24169445 0.09074657 -0.04093092 0.063957304 -0.0864691
0.09705061 -0.052461714 -0.042216297 0.037067015 -0.062299736 -0.09303256 0.025763676 -0.13773905
0.047644973 -0.084447645 -0.03615732 0.1300384 0.026085261 0.04691271 -0.061917607 -0.07450768
-0.13099396 0.0022576174 -0.22066373 -0.017792031 0.022874985 -0.0010848312 0.05081585 -0.046351686
0.0120003745 0.0050812685 0.065723255 -0.008915538 -0.02606356 0.29406568 0.027109725 -0.06613556
0.14253701 0.16691905 0.07633319 0.012042788 0.123319566 -0.019027097 0.11803673 0.046935905
-0.15807752 0.11760168 0.010055709 0.061747193 -0.13475244 0.042905897 -0.117175005 -0.036354765
-0.33611858 0.05576873 0.09132758 0.011622822 -0.030829066 0.0022318293 -0.026658 -0.024897363
0.036624018 0.12422294 0.060327828 -0.058274176 0.08754802 0.02933325 0.24512695 0.25385624
0.01681497 -0.12481426 -0.19892925 0.027605942 -0.03620449 -0.019024488 -0.07665537 0.10063226
-0.08739536 0.056689754 -0.007371102 0.10625581 0.23464721 -0.13411549 0.1617759 -0.27200094
-0.0743979 -0.11166064 0.048985835 0.14396589 -0.0005076105 -0.11686942 -0.034464985 -0.028237833
-0.070611246 0.019927291 0.012358314 0.055594575 -0.014966995 0.02300738 -0.04923839 -0.32894248
0.0066212374 0.07523128 0.07263086 -0.26298156 0.048152734 -0.14100145 0.1119466 -0.12709208
-0.07435038 -0.29902864 -0.08835273 0.035724394 -0.0051706717 -0.10124953 0.08305563 0.058674727
0.11258296 0.14003244 -0.011256925 -0.07499469 0.04496064 0.05399175 -0.26570156 0.09323871
0.081188925 0.01391099 0.11980759 -0.20487556 0.2753623 0.104787715 -0.043642815 -0.08132652
-0.0025051811 0.08182984 0.23960598 -0.00042687185 0.1877237 -0.007209935 0.1484136 0.018129986
0.12596464 0.17994294 -0.17496645 0.05850157 -0.2206612 0.07877274 -0.024285326 -0.16607864
0.087147005 0.08260354 0.2211414 0.15175003 -0.08361029 0.016548095 -0.06287352 -0.073146835
0.047887474 0.14742501 0.19066116 -0.02925044 -0.24572918 -0.060954157 0.009202628 0.021154866
0.015044643 0.04133635 -0.016624799 0.07165357 0.017523354 -0.12625782 -0.001173524 -0.07989871
-0.0028795225 0.113306865 0.006515272 0.09604183 0.019630203 -0.08678564 -0.1278642 -0.15137266
-0.04615983 0.1332625 0.05833643 -0.11979118 -0.021692581 -0.06540488 0.051737778 0.103061035
0.050733257 -0.1349175 -0.0016099939 -0.097814634 0.057903897 0.039828736 0.01663587 -0.044881206
-0.02619485 -0.094703324 -0.030482935 0.05316879 0.15346444 -0.085735224 0.079723105 0.03302492
-0.057554755 0.2000794 -0.1590559 -0.13093719 -0.09631248 -0.16464178 -0.03921831 0.06520242
0.18285519 0.101908624 -0.16419767 -0.007434277 -0.13331378 0.11738432 -0.2529931 0.07848493
-0.10988459 -0.08172866 0.1168059 0.01583094 -0.15922092 0.057407793 -0.13594939 0.09509505
-0.085110925 0.03681723 -0.04904176 0.12584472 -0.0641651 -0.17933512 -0.015529778 0.06877683
-0.14326105 0.012602328 -0.115877055 0.0032879703 0.013846785 -0.094138384 -0.0008188933 0.011245489
-0.025794134 -0.03805403 -0.1404558 0.061098818 -0.10887611 0.033170026 0.022697302 0.017882485

linear_layer.2.bias f4 [100]
00000000: c164 82bd c705 5ebd 46c3 8f3c 4790 e73c
00000010: 08d0 a43c 5009 303d 180d 6c3d b0e3 76bb
00000020: 3557 38bc f04f 093d 14d5 0fbd 32fe 7bbd
00000030: 8caa c5bd c0ee 253e e258 8abc 0539 b3bc
00000040: 7231 90bd 5ed5 033e 89f4 5c3c 210a f1bc
00000050: 32c0 f7bd 3e13 42bd ced3 5c3c 234c ad3d
00000060: 52bf 023d f027 72bd 56b3 44bd 1c40 8cbd
00000070: 0e02 873d 4ddb 8abd 6aa9 dabd 15eb 1dbd
00000080: a012 f93c 5709 5d3d cca6 96bc 09d3 9cbd
00000090: bc8e f2bc 22da 68bd de63 ffbc 6362 06bd
000000a0: 61ac 40bd a934 c7bd 8b06 07bd 4517 083d
000000b0: f371 5e3c 0aee cb3c 1693 063d d699 9a3b
000000c0: 4aea 60bd b8ad 043c 1e99 b4bc bccf 4b3b
000000d0: a0a7 a33d 2c71 c33d 27ab 6e3d 8c3f 80be
000000e0: af22 7ebd 024c 98bc 012b 1e3c e40c 5bbd
000000f0: 83a0 143e f0e1 3e3d eabb 173e 7eb7 f63c
00000100: 3f65 2cbd 0bfc cdbc 0d05 84bd 0cc2 f63b
00000110: 4300 4bbe e37f 4d3c c581 6f3c f114 eb3c
00000120: df6a 233c b3ef 1abc f1d7 dabc ac3d 6dbd
00000130: 366e 7bbc 7b50 133c 7dca e33c 4de3 b1bd
00000140: 8a81 89bd 76d5 9fbc af7f cabd 48cd 25bd
00000150: d991 303d 0403 573d ded5 823c 7c7b 423e
00000160: bf53 14bd 79df ccbb 36f0 953c bb8f 313d
00000170: 80e9 7dbc 868b 83be 068d df3b 4d5f 95bd
00000180: 1e2b 27bd 5ce7 4c3c 4c7e 7abd b3f4 adbc
-0.063668735 -0.05420473 0.017549168 0.028267039 0.020118728 0.04297763 0.057629675 -0.0037672333
-0.0112512605 0.0335235 -0.035115317 -0.061521716 -0.0965167 0.16204357 -0.016888086 -0.021877775
-0.07040681 0.12874362 0.013486036 -0.029423775 -0.12097205 -0.047381632 0.013478233 0.084617876
0.03192074 -0.05912012 -0.04802259 -0.068481654 0.06592189 -0.067801096 -0.106768444 -0.03855427
0.030404389 0.053963985 -0.018390082 -0.07657439 -0.029609077 -0.056848653 -0.03117555 -0.032808673
-0.047039393 -0.09726841 -0.032965224 0.033225317 0.013576972 0.02489378 0.032855116 0.0047180457
-0.054910935 0.008098058 -0.022045668 0.003109916 0.07990956 0.0954307 0.058268692 -0.25048482
-0.062044796 -0.01859093 0.009653808 -0.05347909 0.14514355 0.04660219 0.14817777 0.030116793
-0.042088743 -0.025144598 -0.06446276 0.0075304564 -0.19824319 0.012542698 0.014618342 0.02869651
0.0099742105 -0.009456563 -0.026714297 -0.057920143 -0.015346101 0.008991356 0.027806515 -0.08685932
-0.06714161 -0.019510966 -0.09887635 -0.040478975 0.04310784 0.05249311 0.01597112 0.18992418
-0.03621268 -0.006252226 0.018303018 0.043349963 -0.015497565 -0.25692385 0.006822231 -0.07293568
-0.040812604 0.012506332 -0.061155602 -0.021234846

linear_layer.3.weight f4 [100, 100]
00000000: d21e 29be 3cdd d23d e996 49bd b428 253e
00000010: c2be 6cbb 8ac7 b9bc 6606 763d 07bf 7e3d
00000020: 6145 d1bd b968 cbbd 5955 5fbe 95d5 9a3d
00000030: 71e8 13be f793 0c3f d85a 76bd e5e6 113d
00000040: bed5 81be 9acf 163e eb27 bfbd a9d7 933c
00000050: 5e06 c5be 760b fabd eb4c 02bd de8f 103e
00000060: d749 ac3b ad4e 943d 6d1d 82bc d66d 92bd
00000070: 0d84 5f3e 2ac3 47bc 8aae 1dbe 64e9 06be
00000080: 5738 febd 280c 0cbd c0f5 84bd 7f35 8cbc
00000090: a37c 9cbe 2bd8 54be 7c51 67be aea8 eebd
000000a0: a836 073e 7051 50be 2eb7 23be 1912 133e
000000b0: ecdd 213d df7b 96bc 7784 5c3d 337d 2e3e
000000c0: 72df 85be 44c7 e23d e125 f63d 388b 7dbd
000000d0: 54f1 debc c329 963e 706b 7a3e 8669 543b
000000e0: 8123 b43d e14f 24be 2176 20be 16af 06be
000000f0: 69eb 413c a3ba 08be c423 913e 9d0a bebd
00000100: 390b ca3d 35da 4a3c d938 3e3d 0ea6 80bc
00000110: d72e d13d 7b7b 9abc 9676 433e b7a5 3bbd
00000120: 8a48 cb3d f39c cebc 311d 473e e009 d53d
00000130: ede7 9bbd 405d 4cbc 593a 503c 6312 81be
00000140: 002a a93b 76ba f53d 982b 95bd 06ff a3bc
00000150: b1b7 7d3e 0ec1 11be 6cd2 153d 16a9 d53c
00000160: 8c9e 03be f3af 113d 40f5 44be d5ca 8a3e
00000170: 859e 8ebb 87b9 933d be87 0f3c 2adc 063e
00000180: 53c5 9e3d 2e4e 0a3d 1602 3ebe d148 a1bd
00000190: cfeb 313e 31bd 5ebc ce86 1d3c 910b f3bd
000001a0: ab29 013d c91b c43c 263f e1bd 488d 6a3d
000001b0: cbf5 8f3b 4733 8dbd da01 cfbd b29d 083e
000001c0: c6fb 28bd 666d 923e 79f9 dabd f356 b1bc
000001d0: c47a 79bd e519 a7bd 8381 ce3d bebd 9e3c
000001e0: 2427 ca3d f02f 8dbd fd6e d93a 1c73 36be
000001f0: 5be6 1dbe eaff cb3d 6be0 d03c 37e4 41be
00000200: 1a49 1f3e 3bf8 c43d e9bd 30be 8c1d 513e
00000210: 8cb1 413d 37aa 2bbe 0059 913d 8ff0 5ebd
00000220: 0cd7 f13d e7c0 66be 471c bc3a 7105 e6bb
00000230: 00f2 753c 471a ce3d 5dac 25bd 0518 163d
00000240: b258 4d3e 9dcf 95bb 7b48 32be 4125 1e3d
00000250: 1d8d 223d bcbe 2a3e 9002 723d 0298 733c
00000260: 421a ed3d 73f2 cbbc c812 3f3d 6d33 27bd
00000270: 256b 5cbd cc44 9fbd 997c fe3d d5af 883d
00000280: 1532 873d e1d6 b7bd 2086 9abb 45ae 1bbd
00000290: f69f b83d 460f cfbd ee2c 2dbe 8412 c3bc
000002a0: 57eb 04be 7b63 3abe e51d 90bd de62 94bc
000002b0: 7fd3 4f3e 2bf7 8dbd 3b4f a7bd 4aa4 42bd
000002c0: 2ada bcbd 8f41 1abe 69b3 0b3c eea6 43bc
000002d0: ce5a 20bd 3381 36bd f69c b6bc 3478 213e
000002e0: 21a1 293d df5f 863d 1280 0b3a 2383 debd
000002f0: 5077 f6bc 4e3e ecbc af81 093c 85cd ce3d
00000300: 5c7a fbbc 20e1 38bd 9dd8 be3c 94a3 f2bd
00000310: efa4 493b b9c4 dbbd a2fa 50be 16d9 a73c
00000320: 9eb7 b1bc 9419 f03c 8fac 65bd ec74 b8bd
00000330: eb78 56bc 6b73 adbd 2df8 4bbd d7c5 debd
00000340: a946 2d3d d389 21be 5c29 673d 517a 123e
00000350: 4432 ccbd 3b67 d3bb ffca 933c 4a4c 4f3d
00000360: 07bb 0fbc b70f 00be 53f8 6cbe d511 28bd
00000370: fbc1 5d3e 342e 1a3c 7d19 e73c 89cc e6bd
00000380: 017a 3a3c 4077 3fbd 6eb9 f23d e2c9 a63d
00000390: 92bb 38bd c1af b63d cf45 87bd fa87 75bd
000003a0: a62e 673d 111a e1bd f3fb 47be aead 573e
000003b0: 7af3 9b3d 5737 593d 2980 763d bb0f 843e
000003c0: e887 7f3d fb83 823d 410a 8fbd a8b8 f4bd
000003d0: 52cc a53d a52d 5dbd 2144 e3bd 9779 18bc
000003e0: 7b58 423b bfcf 3cbe 97e8 143d 7030 b93d
000003f0: 0951 a6bd 67fc 2cbd 8ebd 34be b21d 503e
-0.16515663 0.10296103 -0.049216185 0.16128808 -0.0036124443 -0.022678155 0.060064696 0.062193897
-0.10218311 -0.09932084 -0.21809901 0.07560269 -0.14444138 0.54913276 -0.06014523 0.03562059
-0.25358385 0.14727631 -0.093337856 0.01804717 -0.3848142 -0.12209217 -0.031811636 0.14117381
0.005257826 0.07241569 -0.015883172 -0.07149856 0.21827717 -0.012192527 -0.15398613 -0.13174969
-0.1241309 -0.03419128 -0.064921856 -0.017115353 -0.3056384 -0.20785587 -0.22589678 -0.11653267
0.13204443 -0.20343566 -0.15987846 0.14362372 0.03951828 -0.018369613 0.053837266 0.17039947
-0.26147038 0.11073163 0.120189436 -0.061900347 -0.027214684 0.29328737 0.24455047 0.003241153
0.08795834 -0.16046096 -0.15670063 -0.13152727 0.011835911 -0.13352446 0.283476 -0.09279368
0.09865422 0.012381126 0.046440933 -0.015704181 0.10214012 -0.018857708 0.19088206 -0.045812335
0.09925945 -0.025221324 0.1944473 0.10402274 -0.07612596 -0.012473404 0.012709224 -0.2520934
0.0051624775 0.11998455 -0.072837055 -0.020019066 0.24777104 -0.14233801 0.036577627 0.026081603
-0.1285345 0.03556819 -0.1923418 0.27107874 -0.004352393 0.07213121 0.008760391 0.13169923
0.0775248 0.033765964 -0.18555483 -0.07875217 0.1737511 -0.013594911 0.0096146595 -0.118674405
0.03153388 0.02393903 -0.10998373 0.057263643 0.0043933145 -0.06894546 -0.10107775 0.13341406
-0.041255735 0.2859909 -0.106921144 -0.021647906 -0.060908094 -0.08159236 0.10083296 0.019377586
0.09870747 -0.06893909 0.0016588863 -0.17817348 -0.15419905 0.09960921 0.025497636 -0.18934713
0.1555523 0.09617659 -0.17259945 0.20421427 0.047288463 -0.1676415 0.070970535 -0.054428633
0.11808595 -0.22534524 0.0014351689 -0.0070196916 0.015011311 0.10063606 -0.04044758 0.036644
0.20053366 -0.0045718686 -0.17410462 0.038609747 0.039685357 0.16674322 0.059084475 0.014867784
0.11577274 -0.024895882 0.04664877 -0.040820528 -0.05381312 -0.07776794 0.12426109 0.06674162
0.06601349 -0.08976532 -0.004715696 -0.038007993 0.09014885 -0.10110335 -0.1691167 -0.02381254
-0.129804 -0.18202011 -0.07036952 -0.01811355 0.20295523 -0.06931909 -0.08169409 -0.04751996
-0.09221299 -0.15064071 0.008526661 -0.011941655 -0.039149098 -0.044556808 -0.022291642 0.1576851
0.04141343 0.06561255 0.0005321513 -0.10864856 -0.03008619 -0.028838303 0.008392735 0.100977935
-0.030697994 -0.04513657 0.023296649 -0.11847606 0.0030768474 -0.10730881 -0.20408109 0.020489257
-0.021694 0.029309072 -0.056072768 -0.09006676 -0.0130903525 -0.0846928 -0.049797226 -0.10877579
0.042303715 -0.15775232 0.056435928 0.14304473 -0.09970525 -0.006451515 0.018041132 0.050609864
-0.008772618 -0.12505995 -0.23141603 -0.04103263 0.21656029 0.00941043 0.028210396 -0.11269481
0.011381627 -0.046744585 0.11851774 0.08143975 -0.045100756 0.08920241 -0.06605112 -0.05994413
0.05644097 -0.109913 -0.19529705 0.21062347 0.07614799 0.05303129 0.060180817 0.2579325
0.06238547 0.063728295 -0.06984378 -0.11949283 0.08095612 -0.05399861 -0.11096979 -0.009306333
0.002965479 -0.18438624 0.036354627 0.09042442 -0.08120925 -0.042232897 -0.17650434 0.20323828

linear_layer.3.bias f4 [100]
00000000: 176f c93d 8a26 933c 85a1 6ebd 9a01 e6bd
00000010: 48ea 78bc cb3c 1abd e27a bb3d 9913 3a3d
00000020: 46d1 2b3d 5229 533b aa93 34bd e7fe fabc
00000030: aed8 5d3b bc7e 173d 14ae df3b 32e5 c13b
00000040: 107c 99bd 9651 69bc dc22 483c 28df 213d
00000050: f960 87bd 5516 553d f710 d23c 50ed 213d
00000060: 50f0 813b 5b6a 1cbd 3abb 8a3d 9f8a 7a3d
00000070: 9a19 103d 264b 3b3d 510b aebc 39b0 7dbb
00000080: 1ff5 873c a441 ea3c 4cdf 09ba 1b64 e9bc
00000090: dfd2 8d3c 642f f7bb 47a0 22bd d30e b7bb
000000a0: 2f09 95bc 9352 553c c296 d63c 8a82 43bc
000000b0: 2088 753d 183a 4c3d b7eb af3d 0e4d 26be
000000c0: 39cd 4f3d 28b7 32bd c676 123d cc9e cebc
000000d0: 4136 e9bb d36c 9d3a 6322 a3bc 0515 9ebc
000000e0: 8b32 50bd 4945 aabc 4178 343d f8fe 4f3d
000000f0: 0bab 9f3b d60a fd3c b356 d03b ca91 573c
00000100: 6122 c53c 7de0 7e3c 985f 853d 33a5 0dba
00000110: 0506 923c 5337 25bd 865b 033d f9a3 1dbd
00000120: 6a39 99bb a1f4 23bc 2904 d1bc 878c 893c
00000130: 6c9c 8abb df17 86be 047c 1c3d 5d4d 4ebd
00000140: a15d 33bc 5998 aa3c 54a6 c5bb b1c3 c7bc
00000150: 1eac 97bd cee3 443d 04a9 b03c 9995 4d3d
00000160: 75da eebc cc76 f8b9 3f0f e53c c154 d73c
00000170: 7d3c 2f3d 8a6b 09bd 37c9 8e3b 119f 403d
00000180: d51b c43c f559 bf3c 5adc 1bbd 0e47 60bd
0.09835642 0.017962713 -0.058259506 -0.11230774 -0.015192576 -0.037655633 0.091542974 0.045428846
0.041947626 0.0032220674 -0.044086136 -0.030639125 0.0033851075 0.036986098 0.0068261717 0.005917215
-0.07494366 -0.014240643 0.012215342 0.03951946 -0.06610293 0.05202325 0.025642855 0.03953296
0.003965415 -0.038187366 0.06773992 0.061167356 0.035180666 0.045725964 -0.02124563 -0.0038709773
0.016596375 0.028595753 -0.0005259409 -0.028490117 0.017312465 -0.007543491 -0.039703634 -0.005586484
-0.018192856 0.0130201755 0.026194934 -0.011932978 0.059944272 0.04986009 0.08589881 -0.16240332
0.050732825 -0.043631703 0.035757802 -0.025222205 -0.0071170633 0.0012010582 -0.019913858 -0.019297132
-0.05082945 -0.02078499 0.044059996 0.050780267 0.004872685 0.030888956 0.0063579916 0.013157317
0.024064245 0.015556452 0.06512374 -0.000540334 0.017825136 -0.040335964 0.032069705 -0.038486455
-0.0046760337 -0.010007055 -0.025514679 0.016790641 -0.0042300727 -0.26190087 0.038204208 -0.050366748
-0.010947616 0.020824598 -0.0060317907 -0.024385305 -0.074058756 0.048068814 0.021564968 0.050191496
-0.029156903 -0.00047390757 0.027961371 0.026285531 0.042782295 -0.033549823 0.004357483 0.047026698
0.023939053 0.023358325 -0.03805194 -0.054755263

linear_layer.4.weight f4 [100, 100]
00000000: 1f8b c8bc 32ef 1a3d aecf 903d 3467 a23d
00000010: 7c97 653d bcc1 96ba b2a5 52bd 1264 143e
00000020: e833 ba3d 2035 bf3c eae4 16be 90e6 c03d
00000030: 4f27 b53d 7f2a 183e dd01 fe3d ade5 5d3e
00000040: 2f44 103e b394 a73e bb09 013c b9bf 133d
00000050: ddb0 d83b c305 573d 3a7f 97bc 43f2 083e
00000060: 9dcf 1c3e 4332 c4bd 62fd 913d 552b cfbd
00000070: 1811 253e 6a94 33bd 23e3 0e3e 17c2 95bd
00000080: 155b 2cbe 6ba8 283d 7664 f23b 159c df3a
00000090: a5ab 46be 1498 733d fe6f 123e b812 de3c
000000a0: cced 59be ad74 8abe 3561 94be a783 a33d
000000b0: 4d33 31bd 7ab1 80be bf91 2b3e 4999 6cbd
000000c0: 514a 8f3d bb05 ab3c 2b88 53bd 7272 d3bd
000000d0: 107d cbbd 1d1a 36bc 015e b53b ef0e 873d
000000e0: 4a75 623d 0feb 913d d39a aa3d 7edd 683d
000000f0: 57c7 ae3d 31e1 a43b 41a2 983c a7bf ff3c
00000100: 2a4f eb3d e311 133d b39a 283c ee6c 93bc
00000110: 7a0a 62be 5586 f73d ebe0 3a3d 4051 983d
00000120: 14ec c6bd 6cd0 3c3e 88b0 a63c b150 2abe
00000130: bbc6 ba3d 2b6d bc3d 6e44 81bc b4d3 023d
00000140: 66b8 4f3d d553 983d af6c 4c3d 748e faba
00000150: 3ef2 2dbd 29bb fbbb 77de 0a3e 141c 9fbc
00000160: 45c5 3cbd 691a 27bd 91a1 9bbc 3e93 013e
00000170: 10be 57be fe53 a93d 529c b4bd 23b9 a9bd
00000180: f836 b03c 6a73 45bc 12a9 c7bd ac57 dbbc
00000190: 169b c4bd 7a0b 9e3a d449 fbbd ff5c 8f3c
000001a0: 08f8 c6bc 1dc8 8dbd 65fa 54be 2510 14ba
000001b0: 8429 71bb c18e 8fbd fd0b fdbc 6323 94bc
000001c0: 0d47 0b3e 4400 dc3d 1b9b 663e da71 45bd
000001d0: b988 edbd cf1a a7bd cdc8 7dbd 9856 853d
000001e0: f886 a8bd 578f d53d afa0 bb3d 4854 9cbd
000001f0: c51a 823c 7984 25bd 0370 8f3d ea03 083e
00000200: 1ae0 6c3e a656 ac3d df15 8ebd 7b15 893d
00000210: 4864 673d 9468 d43c cfa7 c7bc 1a65 69be
00000220: 4edc f6bd 6aa0 bbbd 20ee e13d e03b b73d
00000230: ec35 293d b4e1 133d f154 b03d 5ba9 263e
00000240: 503d 323d a8f5 0abd 2a6f 6a3e b301 e43d
00000250: 61fe 1dbd 703e 24be 9694 1bbd 9aec 533d
00000260: f259 2dbd 8147 a8bd 11b7 55bd 435a bdbd
00000270: d550 52bd 2e79 b63d 7dd2 52bd f51b 2cbc
00000280: 8ca6 c6bb 7751 333d e5be 803c 3c0a 64be
00000290: c558 19bd 8a57 193e 8071 0d3e b62c 153e
000002a0: be5e f5bd 6d46 c8bd b1d3 d1bd ab2b e2bd
000002b0: 0b53 da3b a177 3dbe 5206 b0bb 0412 9f3d
000002c0: f879 5e3d 1dcd 4fbe 94bf 31be 093d eb3d
000002d0: 92db 143e 9c40 20be 3c98 0f3d 7cc7 3abd
000002e0: 574a 753d ab7c c9bc cd84 1dbe aff6 79bd
000002f0: 2e51 2ebe 1c46 20be 3009 b73d 5940 9cbd
00000300: c44e 08be 90ae 543d 59a7 d13c 5feb c83c
00000310: 4538 f9bc f368 b0bd b39a da3d 5b14 e63c
00000320: 4e04 653d 99e3 1cbc c735 38be 96a3 e53d
00000330: 1cdf 57be e0df b0bd 078f 643d cb6e e13d
00000340: d5a5 98be 40ac 0d3b 3b06 7a3d 1ef6 dd3c
00000350: 021f 19bd 904d e8bd 81b8 263d 2320 2f3e
00000360: 63fc 15be 7a5b 3abe 817d 353d 245c 563d
00000370: f5b9 74bd 1a7b 2ebc 9be6 2d3e dc2a f83c
00000380: 4eb6 4c3c 80c9 05bd 569d 47bd ea40 8e3a
00000390: 6ea8 273e fe81 5dbd b49c 4dbe 63b3 873d
000003a0: fa78 343e 50a7 0c3e 10d0 d4bd f2fb 2d3d
000003b0: bb92 9ebb 6d1c 233e 8ff2 0abe f65e 75bc
000003c0: 7b7b 01be f444 6d3d 7499 213e 4303 1ebe
000003d0: 02bf 15be 48f9 613c 964e 193e c243 b13e
000003e0: 6349 b23d 9195 853d a50e a13e e5d0 983c
000003f0: 9967 693d 8498 873d a544 413e 1665 cc3d
-0.0244804 0.03782577 0.07070862 0.07929841 0.05605267 -0.0011501829 -0.05142755 0.14491299
0.090919316 0.023340762 -0.14735761 0.09418976 0.08845388 0.14859961 0.12402699 0.21669646
0.1408851 0.32730636 0.007875855 0.036071513 0.0066128806 0.05249573 -0.018493284 0.13373666
0.15313573 -0.09579899 0.07128407 -0.10115687 0.16119802 -0.04384271 0.13953833 -0.0731241
-0.1683162 0.04117624 0.00739723 0.0017060066 -0.19401415 0.059471205 0.14300534 0.027108535
-0.21282119 -0.27042142 -0.28980413 0.07984095 -0.043261815 -0.25135404 0.16754816 -0.05776337
0.069965966 0.020876756 -0.05164353 -0.10324563 -0.09935963 -0.011114624 0.005534888 0.06594645
0.055287637 0.07124912 0.083303116 0.056851856 0.08534115 0.0050317277 0.018632056 0.031219317
0.11489709 0.03590573 0.010290789 -0.017996278 -0.22074309 0.12086169 0.045624655 0.07437372
-0.09712997 0.18438882 0.020347849 -0.16632344 0.09119936 0.0920051 -0.0157797 0.031940177
0.050712965 0.07437865 0.049908336 -0.0019115941 -0.04246735 -0.0076822233 0.13561426 -0.019422568
-0.04608657 -0.04079667 -0.01899794 0.12653825 -0.21068597 0.08267973 -0.08818878 -0.08287265
0.021510586 -0.012051443 -0.097490445 -0.026775204 -0.09599893 0.0012057864 -0.12269941 0.017500399
-0.024288192 -0.06922934 -0.20798643 -0.00056481577 -0.0036798427 -0.0700965 -0.030889506 -0.01808328
0.13601322 0.10742238 0.22520106 -0.04820428 -0.115983434 -0.0815941 -0.061959077 0.06510657
-0.08228868 0.104277305 0.09161507 -0.07633263 0.015881905 -0.04040954 0.070037864 0.13282743
0.23132363 0.084149644 -0.06937765 0.0669355 0.05649212 0.025928773 -0.02437201 -0.22792473
-0.120537385 -0.09161456 0.11031747 0.08946967 0.04131119 0.03610392 0.08609951 0.16275541
0.043515503 -0.033925682 0.22893968 0.111331366 -0.038572673 -0.16039443 -0.0379835 0.051739313
-0.042322107 -0.08216763 -0.05217654 -0.09245732 -0.05134662 0.08909832 -0.05147027 -0.010504712
-0.0060623344 0.043778863 0.015716026 -0.22269529 -0.037438173 0.149748 0.13812828 0.14567837
-0.11980961 -0.09779058 -0.10245455 -0.11043485 0.0066627315 -0.18502666 -0.005371847 0.07767108
0.054315537 -0.20293088 -0.17358238 0.11486251 0.14536884 -0.15649647 0.03505729 -0.0456004
0.05988535 -0.02459558 -0.1538269 -0.06102627 -0.17023155 -0.15651745 0.08937299 -0.07629461
-0.13311297 0.05192429 0.025592493 0.024526296 -0.03042234 -0.086137675 0.10674038 0.028085878
0.05591231 -0.009575748 -0.17989264 0.11212842 -0.21081203 -0.08636451 0.055800464 0.1100746
-0.2981402 0.0021617562 0.061041098 0.027094897 -0.037383087 -0.11342919 0.0407033 0.17102103
-0.14647059 -0.18198958 0.044309143 0.052333966 -0.059747655 -0.010649467 0.169825 0.030293874
0.012494637 -0.03266287 -0.04873403 0.0010853086 0.16372845 -0.05407905 -0.20079309 0.06626012
0.17624274 0.137357 -0.10391247 0.042476602 -0.004839269 0.15928812 -0.13569091 -0.014976254
-0.1264476 0.057927087 0.15781194 -0.15430932 -0.14623645 0.013792343 0.14971384 0.34622008
0.08705404 0.06522668 0.31456485 0.018654296 0.056983564 0.06620887 0.18873842 0.09980218

linear_layer.4.bias f4 [100]
00000000: 5d30 c2bb 7349 08bd 1858 793d d8bb 9cbc
00000010: 4f25 0abe 7ca9 37bc de11 06bd 2cad 3d3c
00000020: 463f 333d edf4 b83c 7c0d 663c dbdc c1bd
00000030: 9b23 abbc b586 993c 3a56 cdbc 52f1 823c
00000040: de1b 183d ee9b ccbc 1eb3 64bd cf4f 393d
00000050: e326 9b3d 57dc c7bc 61c6 ef3b bab5 8d3c
00000060: 507b 753c ba4e c73c 16b7 5ebc 7669 f1bb
00000070: 636e 14bd 565a 2ebd 9736 d63c 92ef 903c
00000080: 0485 aabc e99e 16bd f60e ea3c 185d 8fbd
00000090: 6ab1 1e3d e7b4 293e 04bf 803c d94c 0ebd
000000a0: 1027 bbbb 7225 6f3c b1d0 e5bb 0abe f6bb
000000b0: d95d 4abd 96f7 1d3c 00c2 0cbd 7f07 90bc
000000c0: 273c 29bc cfa6 a4bc 9e10 4f3a 935f 07bc
000000d0: 7bee 973a 1c1f 8a3c 5a2a 7a3b 7406 c3bc
000000e0: 3b8e 6eba 29e7 22bb fe95 a0bc 9562 d9b6
000000f0: 247f b0bb 48ce 973d 36c3 353c e739 17bc
00000100: 7a2f 023c cb0d 553b 44ad 543b 35a9 b1bc
00000110: 9f52 1c3d 0740 c2bc 1b8f 66bd addf 71bc
00000120: 3709 393c cf24 adbb 1b74 ee3c 1600 28bd
00000130: 120b 87bc 434f dd3c a799 463d 3c4a e23b
00000140: ea47 313d 261a e9bc 9bdf ab3d aea6 4f3d
00000150: 13aa 6abd 28db 81bd f8c5 9ebb 9f20 eebc
00000160: 8e77 46bc 2b5a 223c b572 2c3c 5613 b23c
00000170: 644f c0bc 2b8b 8e3c a940 7c3d c6d4 aebc
00000180: 4146 babb 4cf5 7fbc 0b4f 3cbd 3c18 93bc
-0.0059261755 -0.03327317 0.06087503 -0.01913254 -0.13490795 -0.011209842 -0.032731883 0.011576932
0.043761514 0.022577727 0.014041301 -0.09465953 -0.020891001 0.018740991 -0.02506553 0.015984211
0.03713595 -0.024976697 -0.055834882 0.045242127 0.075757764 -0.024397058 0.00731735 0.017298568
0.014983013 0.024329532 -0.013593456 -0.0073673083 -0.036238085 -0.04256662 0.026149077 0.017692361
-0.02081538 -0.036772642 0.028571587 -0.07000178 0.038743414 0.16572915 0.015716083 -0.034741256
-0.0057114437 0.01459633 -0.0070134033 -0.0075299786 -0.049405906 0.009641549 -0.0343647 -0.0175817
-0.010329283 -0.020099072 0.00078988995 -0.008262533 0.0011591458 0.016860537 0.0038172216 -0.023806788
-0.00091001735 -0.002485702 -0.019602772 -6.4785804e-06 -0.00538625 0.07412392 0.011093905 -0.009230114
0.00794589 0.0032509442 0.0032451907 -0.02168713 0.03816473 -0.023712171 -0.05628882 -0.014762801
0.011293701 -0.005283929 0.029108098 -0.041015707 -0.01648477 0.027015334 0.048486378 0.006905822
0.043281473 -0.028454851 0.08392259 0.050696068 -0.0572911 -0.06340629 -0.004845377 -0.02906829
-0.012113465 0.009909193 0.010525395 0.021737736 -0.023475356 0.017400345 0.061585102 -0.021341693
-0.0056846444 -0.015622448 -0.04597382 -0.017955892

linear_layer.5.weight f4 [100, 100]
00000000: f35b 753d e455 3c3d fe2e b03c 3722 d93c
00000010: a8b8 d0bc 0fb0 61be 62be 09be 790c 2fbd
00000020: 221b 77bd 3872 993d 8472 3a3d 91ad 3cbd
00000030: a37d ecbd 67f8 a9bd 087b 813c 3bf5 993d
00000040: 7012 34bd 5414 7ebd 8be2 883d ead3 aabc
00000050: 7e19 42be 19e7 ca3d 2f6b e63c a5af 003d
00000060: 85e0 03be ee79 c93d f191 19bd cbc3 0fbc
00000070: ec11 823b 1f9a 2fbe 9472 943d ee18 1e3d
00000080: fe9c bb3d e035 abbc 4bb8 3f3e b905 f63c
00000090: 6156 b63d ef43 8dbe 2d06 913d 7ed7 583e
000000a0: 219c 10be b305 0ebe b2f3 17bc ff5f b03d
000000b0: 33dc a1bd 0708 d63d 535e a03d 5789 1d3e
000000c0: ee9a 7ebe ac75 52bd 89e2 2bbe ab65 4dbc
000000d0: 9e66 b5bc 093f 9c3d 1e3e 113c 6327 bf3b
000000e0: b14e 013e 3369 01be 5892 453d fb27 0f3e
000000f0: 8d23 3f3c c7de 383d 8cc2 ccbd b4c3 523e
00000100: 9122 9dbd 927f 20be 10af 96bd cd31 c23d
00000110: afd8 7bbd 8f28 ffbd 2e6a 10be 26eb 013e
00000120: 8d55 f93c 1366 b03d f177 8ebc b7dd e1bd
00000130: 6b50 0fbd a678 dabc 9578 933d 2ad7 0e3e
00000140: 3e70 4dbd 2e1c 613d 8c49 3fbd 043a 82be
00000150: e55a 883d 7cc3 4fbe 496a 5a3e c1f8 903d
00000160: 1243 17bc 63be 2b3b 3123 e4bc 69c1 853e
00000170: 926f 59bc d0da 89be 62b7 913d 56f1 693c
00000180: 52ba fc3d febe 05be 8684 48bd 22d3 153e
00000190: 43e9 9ebd f1b5 883d d130 f4bc 8d3d db3d
000001a0: 6702 73bd 8cdd 9e3d 9bcc 233e 1f76 523d
000001b0: 49cd 0fbd 7ae1 16be f38b 43be ad59 813d
000001c0: 21b9 a7bd 29e4 5fbb 3656 30bd 06e6 cebd
000001d0: be7f 2cb9 a278 0e3e 8f8d e83d 5003 41be
000001e0: 2098 3abe 5fca 49bd 3afb fc3c e539 003e
000001f0: b908 c83d 075d c73d dfd7 af3d 3441 463c
00000200: 4020 c63d cdb4 a23d 31cc 59bc 2739 8f3d
00000210: 3952 23bd c569 2b3c c6f7 67be d749 c73d
00000220: 122a 703d 8f2a 0fbe 797a c2bd b45a a43d
00000230: a973 febb 89eb cbbd e527 0f3e 3e07 cbbd
00000240: 8771 203e f128 0cbd a983 2e3e 6359 163d
00000250: 49d0 883d 8d98 373c 3f11 eabb d9d6 6c3e
00000260: f222 9bbd 3d33 363d 6406 82bd 3c79 f73d
00000270: d6d8 d6bd f91b 293e 408b 513e 19ad be3d
00000280: e145 e1bc 88c2 00be 425f 723b 835e da3d
00000290: 0286 b63d 16da 9738 80dd 2f3e 248f 37bd
000002a0: 71ca 2cbe 905e 7b3d 0e14 153e d4d2 a8bd
000002b0: 9a1b 2dbb c936 ea3c 42bd 0d3d 13d9 343e
000002c0: db79 7fbd 6562 d8bc 96ee 56bc 3179 d9bd
000002d0: 0c22 f4bd e220 f0ba 2bcf c6bd b531 a1bd
000002e0: ceb2 d6bd 3edf 203e 3923 67bd 0d6d a83d
000002f0: 209a ad3d 1866 fd3c 6662 41be 6f18 a83d
00000300: 1a8b 8d3d 7b6b bfbd 0037 28bb dc2f 293c
00000310: b55a 51bc 63b3 aabd 0d5f 063d f21d f5bd
00000320: 4f40 a6bd 20c2 033d 5053 1ebd 6478 20be
00000330: bebc 96bd 6a05 fa3d 313b cabd 6802 2ebe
00000340: 9fe7 963d 92c7 0c3c 6a7f d03c bb90 0bbe
00000350: 1de4 fe3b 4fbc 123d 0205 f83d 92ed 32be
00000360: e3d3 2f3e ad14 773b 2b41 023d 275a 88bc
00000370: c607 dd3d dc66 9fbd 2102 3ebd 0f23 033e
00000380: 9b21 da3d 4342 a9bd e741 e6bd 808a 98bc
00000390: a64c 5fbc 6b52 323e 9a35 3c3e 7a31 f3bc
000003a0: a175 84bd 1b30 e23d ba59 f33d ceb7 acbc
000003b0: 0f79 143e ead1 343e 07a4 de3d 251a 1a3e
000003c0: 9e51 bcbd 1962 86bd 1e17 00be 334b ab3d
000003d0: 6d75 55bd 3d66 bbbd e5ec 133e 6040 e8bd
000003e0: c51e 9bbd c6cc e33d 83c8 b53d bd55 adbd
000003f0: c7fe 0dbe 280d 733c 50cb a1bc 5a2a d7bd
0.059902143 0.04598035 0.021506783 0.026505573 -0.025478676 -0.22039817 -0.13451532 -0.042736504
-0.06032861 0.074924886 0.045519367 -0.046063963 -0.11547401 -0.08299332 0.015805736 0.07517477
-0.043962896 -0.062031105 0.06683835 -0.020853002 -0.18955037 0.0990736 0.028127281 0.031417508
-0.12878616 0.09837709 -0.037492696 -0.008774708 0.0039694216 -0.17148636 0.072484165 0.038597994
0.09160803 -0.020899713 0.18722646 0.030032026 0.08903194 -0.27590892 0.07081256 0.21175954
-0.14122058 -0.13869362 -0.00927441 0.0861206 -0.07903328 0.1045075 0.07830491 0.15384422
-0.24863788 -0.051381752 -0.16785635 -0.012536447 -0.022143658 0.076292105 0.008864908 0.0058335527
0.12627675 -0.12637787 0.048235267 0.13980095 0.011666191 0.045134332 -0.09998044 0.20582467
-0.07672609 -0.15673664 -0.07357609 0.09482155 -0.061485942 -0.12458908 -0.14103004 0.12687358
0.030436302 0.08613219 -0.017391177 -0.11028617 -0.034988802 -0.026668858 0.072007336 0.13949266
-0.05015587 0.054958515 -0.046701 -0.25434887 0.06657962 -0.20289415 0.21329607 0.07078696
-0.009232299 0.0026206009 -0.027848812 0.26124123 -0.013271229 -0.26924753 0.071150556 0.01427873
0.12340225 -0.13061139 -0.04895451 0.14631322 -0.07759335 0.066753276 -0.029808434 0.10705099
-0.059328463 0.077571005 0.1599602 0.05138218 -0.035107885 -0.1473445 -0.19096355 0.063159324
-0.081896074 -0.0034163094 -0.043050967 -0.10102467 -0.00016450786 0.13913205 0.11355125 -0.1884892
-0.18222094 -0.04926526 0.030881513 0.12522085 0.09767289 0.097345404 0.08586096 0.012100507
0.0967412 0.07944641 -0.013293312 0.06993323 -0.039873336 0.010462229 -0.22653112 0.09730881
0.05863387 -0.13981079 -0.09496016 0.08025113 -0.0077652526 -0.09957034 0.13980062 -0.09913491
0.15668307 -0.034218732 0.17042412 0.03670634 0.06680352 0.0112058045 -0.007143169 0.23128833
-0.07575025 0.04448246 -0.06348875 0.120836705 -0.10490577 0.16514577 0.20463276 0.093103595
-0.027499141 -0.12574208 0.0036983048 0.10662558 0.08912279 7.240863e-05 0.1717434 -0.044814244
-0.168741 0.06136948 0.14558432 -0.08243337 -0.0026414157 0.028590577 0.03460432 0.17660932
-0.06237207 -0.026414106 -0.013118407 -0.106188186 -0.119205564 -0.0018320347 -0.09707483 -0.07870809
-0.10483323 0.1571016 -0.056430075 0.08223925 0.08476663 0.030932471 -0.18885192 0.08207785
0.06911297 -0.09346672 -0.0025667548 0.010326352 -0.012777974 -0.083349966 0.03280549 -0.11968602
-0.08117735 0.032167554 -0.03865367 -0.15670925 -0.073602185 0.12208064 -0.09874571 -0.16993105
0.07368397 0.008592503 0.02545138 -0.13629429 0.007778658 0.035824116 0.1211033 -0.17473438
0.17170672 0.0037701533 0.03180043 -0.01664455 0.10792498 -0.07783291 -0.04638875 0.12806343
0.10650941 -0.082645915 -0.112430386 -0.01862073 -0.013629114 0.17414252 0.18379822 -0.029686678
-0.064677484 0.11044332 0.11882348 -0.021083739 0.14499305 0.17658201 0.108711295 0.15049036
-0.09195255 -0.065616794 -0.12508819 0.083639525 -0.05211394 -0.0915036 0.14445837 -0.113404036
-0.07574228 0.11123042 0.08876135 -0.08463619 -0.13866721 0.01483468 -0.019750267 -0.10506125
