ac_2d_model_para_5/checkpoint_2650.pth (torch, 291152 bytes, 17 tensors)

linear_layer.0.weight f4 [100, 3]
000000 26 5e 6a 3e 5b 18 22 3e 35 a0 44 be f0 4a 61 3c
       0.22887477 0.15829603 -0.19201739 0.013750777
000010 21 49 91 bd bf 14 e5 3d 7b 74 4a 3d d2 fd 7b bd
       -0.07094026 0.11185598 0.04942749 -0.06152136
000020 98 a2 91 be e3 4a 9b 3e 75 05 0f bd 5d 0c 5a 3e
       -0.28444362 0.30330572 -0.034917314 0.21293779
000030 c4 5e 2f be 1e ab 1c be 29 4f bc be 17 64 9f bd
       -0.17125994 -0.15299651 -0.36779144 -0.077827625
000040 c7 a0 4b be 1b 51 0c be 96 47 da bd 35 69 09 3e
       -0.1988555 -0.13702814 -0.10658185 0.1341904
000050 b9 d4 f9 bd 39 ce 9f bd b5 21 33 bd e9 c2 aa be
       -0.12198777 -0.07803006 -0.043733317 -0.3335183
000060 ed 5f 09 3f 36 dd 49 3d 6c d6 9c 3c 89 25 30 be
       0.53661996 0.04928323 0.019145213 -0.17201819
000070 8a 7a 3f be a0 9a 9a bd e7 4a 15 3d f1 a7 4c be
       -0.18699089 -0.07549024 0.036448386 -0.1998594
000080 c0 0f 08 3e 34 f9 ee bd 33 fc 84 3d 98 a1 72 be
       0.13287258 -0.116686255 0.06493416 -0.23694456
000090 b4 3a f4 3e e2 d4 8d bb 8e 8a e8 bd eb 6a a1 3e
       0.47701037 -0.004328356 -0.11354552 0.31526884
0000a0 a6 d3 19 bc 0d e2 81 3e 36 91 54 3e 01 d0 20 3e
       -0.00938884 0.25367776 0.20758519 0.15704347
0000b0 6d 04 40 3e e1 ff 41 be 35 5c 46 be 4f e8 eb 3c
       0.18751688 -0.18945266 -0.19371112 0.028797297
0000c0 6c 5c a6 3e ea 53 b1 3c 3f 09 94 be f6 53 5d be
       0.32492387 0.021646459 -0.28913304 -0.2161406
0000d0 75 83 18 be 02 a5 1e be 6c 8a a8 be fc 6a 8e bc
       -0.14893897 -0.15492633 -0.32918108 -0.017384999
0000e0 4a 89 c3 3d 45 10 22 3e cb d0 24 3e 3b ec 72 be
       0.0954767 0.15826519 0.16095273 -0.23722927
0000f0 b7 cf b2 3d c3 18 4d be ff fd a5 3d e0 2f e5 3e
       0.08731025 -0.20028977 0.081050865 0.44763088
000100 41 db ad bd a9 de 9d 3d 61 82 8f be 21 77 1d be
       -0.08489085 0.07708485 -0.2802916 -0.15377475
000110 6a 35 be 3c e9 22 29 3e 2f 1e c9 3c ef e1 f5 be
       0.02321883 0.16517223 0.024550525 -0.48023936
000120 88 b6 7c 3e 55 fe 0a 3d b3 c1 9c 3e 94 c5 40 3e
       0.24679005 0.033933956 0.3061653 0.1882537
000130 fc a3 a8 3d a5 f8 5a 3b c8 7d a5 be b8 58 5c be
       0.082344025 0.0033412364 -0.32322526 -0.21518219
000140 90 0e ad bd 80 33 64 3d 9b 75 88 3e ec ca 60 3d
       -0.08450043 0.055713177 0.26652226 0.05488102
000150 b2 c7 5c 3e 3d c9 57 be 93 56 58 3d 7f 83 e7 3d
       0.21560553 -0.2107286 0.05281694 0.11304378
000160 67 bc 99 bc 88 ca d3 bd af 47 3f bd 57 ac 24 be
       -0.018766595 -0.10341364 -0.046699222 -0.16081367
000170 3a 79 0f be 83 11 e7 3e fd 5f 85 3c 26 88 a7 3e
       -0.14011088 0.45130548 0.016281122 0.3272106
000180 34 57 d1 3d 51 bc 65 be 77 9c 08 3e 17 b5 d8 be
       0.10221711 -0.22435118 0.13340937 -0.4232566
000190 fa 30 8a 3c e1 96 d5 bd cb 4c 89 3d ab c5 c6 bd
       0.016869057 -0.104291685 0.067041 -0.09705671
0001a0 60 f5 93 be d5 4e 06 3e d8 e0 12 be 70 d5 55 3e
       -0.28898144 0.1311601 -0.14343584 0.20882201
0001b0 07 86 26 be c9 e4 88 3e ff f7 9f 3c 6a f0 99 3e
       -0.16262065 0.2673705 0.019527433 0.30066234
0001c0 e5 b7 15 3e 21 92 76 3d 65 e6 0d bd 34 f8 b9 bd
       0.14620931 0.060197953 -0.03464355 -0.09080544
0001d0 05 e7 cd be c9 6b 1b be b2 9a e1 bc f9 61 1b be
       -0.40215316 -0.15177836 -0.027539585 -0.15174092
0001e0 94 64 b6 3d 39 bc c0 3d ba 5e 04 be c6 52 68 be
       0.089059025 0.094109006 -0.1292676 -0.22687826
0001f0 85 d8 2d bc 22 7e 09 3e 10 71 75 be 84 4f 2f 3e
       -0.010610704 0.13427022 -0.23968911 0.17120177
000200 41 b8 03 be 77 f3 22 3e 8d a7 87 bd 2e 19 83 3e
       -0.12863256 0.15913187 -0.06623755 0.25605148
000210 f3 d0 24 be 35 97 4b 3e 06 c4 03 3e 02 7e a1 bd
       -0.16095333 0.198819 0.12867746 -0.07885362
000220 68 58 e4 bd ba 7d 18 3e 9d 23 ef be 3d a7 20 3e
       -0.11149675 0.14891711 -0.46706858 0.15688796
000230 c8 59 8f be 50 73 ee 3e 60 d5 9a 3a 92 65 f9 bd
       -0.27998185 0.4657235 0.0011812858 -0.12177576
000240 f4 db c3 3d 04 c6 c0 3d 2f b4 c0 3d 5d f7 d4 3e
       0.09563437 0.094127685 0.09409367 0.41594973
000250 68 fc d2 bd c6 54 ec bd 6e 4b 8e 3e 3e 32 e5 3d
       -0.10302049 -0.11539607 0.27791923 0.111912236
000260 c3 cb f4 bd 87 ac 5d 3e da 32 61 bd 0b c9 18 be
       -0.11952927 0.21647845 -0.054980136 -0.14920442
000270 2f 32 e1 bd df c1 81 3e b8 ee c4 3d 8a e2 a1 3c
       -0.109959 0.25343224 0.096158445 0.019761343
000280 f6 39 66 3d e6 93 85 3e 28 c7 06 3e 36 95 ae 3d
       0.05620762 0.260894 0.1316191 0.085245535
000290 b6 d8 bd 3b 1e e6 b7 3e d4 3f 95 bd a9 10 db 3d
       0.005793656 0.35917753 -0.07287565 0.10696537
0002a0 8c 95 0f 3f 70 d0 71 3c 80 96 4e bc 3b e0 b3 3e
       0.56087565 0.014759168 -0.012609124 0.35132012
0002b0 75 11 f4 bd 9f 3d 82 be 1f f8 bd 3e 05 df 07 3c
       -0.11917392 -0.25437638 0.37103364 0.008292918
0002c0 d1 d1 11 be 92 a8 70 bd 6c c1 29 be 31 db 8b 3e
       -0.14240195 -0.05875451 -0.16577691 0.27315667
0002d0 06 ee 19 be 6f f2 f0 3d df bd de bb f7 25 62 3c
       -0.15032205 0.117649905 -0.0067975367 0.013802997
0002e0 b1 60 8f 3e 1c da c9 3c e2 1c aa 3e 46 e8 19 be
       0.28003457 0.024640135 0.3322516 -0.15030012
0002f0 06 10 78 bd 04 fb 65 3b f0 e6 f0 3d ab 65 4d be
       -0.060562156 0.0035092244 0.11762798 -0.20058315
000300 c0 41 de 3e 02 12 1d be d8 ee 8e 3d 70 9c f4 3c
       0.43409538 -0.153389 0.069791496 0.029859751
000310 5f 76 d4 3d d0 d2 a5 3e 19 ff 24 3e 08 f3 e3 bc
       0.1037414 0.323874 0.16112937 -0.027825847
000320 ef 1b be be b7 49 09 bf da 7b e2 bc 07 9c d0 3d
       -0.37130687 -0.53628105 -0.027646948 0.1018601
000330 9f f3 cc 3e bc 10 f2 bd c1 30 85 3c 99 9b cf bd
       0.40029618 -0.11819598 0.0162586 -0.101371
000340 d4 24 d4 3d 6f 2c cf 3c f3 29 9e be c5 17 7e 3c
       0.10358587 0.025289742 -0.3089138 0.015508597
000350 38 f5 15 bd 27 11 f9 3d 0c bf 1d 3e 86 c0 b4 3d
       -0.036610812 0.12161475 0.1540491 0.088257834
000360 6f 83 b9 bd 40 15 88 3e b2 35 cb bd bb 10 f3 3d
       -0.09058272 0.26578712 -0.09922351 0.118684255
000370 1c 97 1b 3e 6d 60 62 be 06 5b 01 3f 39 30 03 3d
       0.15194362 -0.22107096 0.50529516 0.03202841
000380 f1 8f a7 bd c8 7d f3 bc b7 3d b3 3e 00 69 16 3e
       -0.081817515 -0.029723063 0.35008022 0.14688492
000390 92 69 30 be b5 57 d2 be bf 38 82 3e f6 e8 c2 be
       -0.17227772 -0.4108254 0.2543392 -0.3806836
0003a0 1c d2 c4 bd ee 22 33 be f6 d9 e6 bc f3 d6 5d 3e
       -0.09610388 -0.17493793 -0.028180104 0.21664028
0003b0 a7 52 0e bc a7 c2 e9 3c cb 35 49 be 30 c7 57 3d
       -0.008686698 0.0285352 -0.19649427 0.052680194
0003c0 20 70 17 3e fd 2e 64 bd 41 6a 20 bd 38 55 1d be
       0.14788866 -0.055708874 -0.03916383 -0.1536454
0003d0 34 96 4f be 2a 3c a3 bd 9f b3 84 be 98 e9 24 3e
       -0.20272142 -0.0797046 -0.2591829 0.16104734
0003e0 d1 e1 ae 3d 6a bc 3d 3e 41 27 e4 bd 21 8e f5 3e
       0.08539165 0.18528906 -0.111402996 0.47959998
0003f0 32 4a 8e 3e a6 84 09 bd 49 68 89 be 78 34 5a 3e
       0.27790982 -0.03357377 -0.26837376 0.21309078

linear_layer.0.bias f4 [100]
000000 79 50 b0 bc 3e 74 96 bd 68 d5 4c 3e 91 98 32 bd
       -0.021522747 -0.0734639 0.20003283 -0.04360253
000010 f2 25 96 3c e7 80 14 bd a8 2f b1 3d 07 4d 11 3e
       0.01832864 -0.036255743 0.08651668 0.1418954
000020 83 0f 4c be 4a 74 5f 3d be f2 6c 3d 81 bd 0e be
       -0.19927792 0.05455426 0.057848684 -0.13939478
000030 6f 30 66 3e 17 32 7f 3e 1b fc 8a 3d 12 ba cc 3a
       0.22479413 0.24921452 0.067863666 0.0015619418
000040 2f 5a 17 be a4 05 a4 3c 3b 63 05 bd 06 23 b3 bb
       -0.14780496 0.02002222 -0.032565337 -0.0054668216
000050 0d e7 06 be dc 0e 9c bd ba 88 3d bd 09 ef db 3c
       -0.13174076 -0.07620022 -0.04627297 0.02684738
000060 7c da 40 3d 5b 19 36 3e 74 d2 ef 3d 7b 1a 18 bd
       0.047083363 0.1778311 0.117100626 -0.03713463
000070 c8 b9 6a 3d 58 37 03 be 4c 99 9a bd 87 42 73 bc
       0.05730608 -0.1281408 -0.0754877 -0.014847404
000080 79 f1 13 3e 8f db e3 bd ad 5e ad bd e3 3b 98 3d
       0.14447583 -0.11125862 -0.084653236 0.074332975
000090 1c 93 d8 bc a0 af 55 be 49 c6 24 3e 85 2f 48 3e
       -0.026437335 -0.20867777 0.16091265 0.19549377
0000a0 f2 85 c4 3d c7 73 82 bd 0d d7 9a 3d 57 99 a1 be
       0.095958605 -0.06369739 0.07560549 -0.31562302
0000b0 f4 27 ba 3c 40 5a 0b be 45 46 08 be e0 2b c0 3c
       0.02272413 -0.13608646 -0.13308056 0.023458421
0000c0 9c bb ca bd d5 42 53 be 2f c6 99 3e f7 57 b9 3d
       -0.09899065 -0.20630963 0.30034015 0.09049981
0000d0 29 d0 c4 3a 0b f1 82 be 0c 6c e2 3d 9c 9b 03 3e
       0.001501565 -0.25574526 0.110557646 0.12852329
0000e0 03 99 00 3d bd d9 10 bc b1 26 06 bc 28 7b 43 3c
       0.031395923 -0.008840975 -0.008187936 0.011931218
0000f0 40 90 f5 bd f1 f3 94 bc da 89 a6 3b 1d bd 38 3e
       -0.11990404 -0.018182727 0.005082351 0.18040891
000100 01 21 18 be 07 fa ba 3d 2a 61 7a be b2 36 b2 3b
       -0.1485634 0.0912972 -0.24451128 0.005438649
000110 15 f3 bb bd 3f 2a d5 3d 93 66 48 3e c0 72 c7 bd
       -0.091772236 0.104084484 0.19570379 -0.09738684
000120 4c dc d7 bd 6c 04 6e 3e 92 d8 9d bc b2 ba 06 3d
       -0.10540065 0.23243874 -0.019268308 0.03289289
000130 61 28 c8 3c 6b 2a a9 3d f1 64 04 be df ec 03 bd
       0.024433317 0.08260044 -0.12929131 -0.03220832
000140 50 37 1f 3e e2 62 0b 3e 23 68 5b bd 33 e1 81 3c
       0.15548444 0.1361194 -0.05356611 0.015854454
000150 9f 86 0a 3d 01 d1 7b 3d 0a 29 0a 3e 1b 9c 24 3e
       0.03381979 0.06147862 0.13492218 0.16075175
000160 62 be e6 bd 94 9e d8 bd a4 b7 0f be f7 89 51 be
       -0.112667814 -0.105771214 -0.14034897 -0.20462786
000170 ac e3 98 bd 4c d0 0d 3e c5 3b 22 bd 9c 9e 20 3d
       -0.074653 0.1384899 -0.039607782 0.03921376
000180 34 eb 8c 3e d3 ec 8a 3d 66 2f a1 bd 19 ad 76 3d
       0.27523196 0.06783452 -0.07870369 0.060223673

linear_layer.1.weight f4 [100, 100]
000000 6b c8 63 3d 02 6f 1b 3e 83 e3 86 bd ac 00 c2 bc
       0.055611055 0.15179065 -0.06586363 -0.023681961
000010 80 e0 74 bc 88 47 9e 3b de da cb 3d b9 da 68 3d
       -0.014946103 0.0048303045 0.09953855 0.056849215
000020 45 12 16 3e 7b ba 1a be 71 b3 a1 bd 36 76 31 3c
       0.14655407 -0.15110199 -0.07895554 0.010831406
000030 8c 38 7f be d5 73 9e bd 18 9b 86 3d ca 6f 8c 3d
       -0.24923915 -0.07736937 0.065725505 0.068572596
000040 2b ad 63 be 02 b0 1c be 1a 32 5d 3e cd 48 15 3b
       -0.22234027 -0.15301517 0.21601143 0.0022778988
000050 fe 4c b8 bd 5c a4 e0 3d b5 b8 11 3d be d1 17 3e
       -0.0899906 0.10968849 0.03557654 0.14826104
000060 90 de 8f bd 2e 14 42 3b a0 25 ae bd 61 9e 64 bc
       -0.07024872 0.0029614079 -0.0850327 -0.013953776
000070 06 af 71 be 79 24 b6 bd f9 0c 4d bc 15 71 e2 bb
       -0.23601922 -0.08893675 -0.0125153 -0.006910453
000080 f0 d1 2c bd a4 ba 6d 3e e5 a4 a8 bd 19 67 81 bd
       -0.0421924 0.23215729 -0.08234576 -0.063184924
000090 b2 52 bb bd a6 61 43 bc ed 71 04 3e 7b c0 12 be
       -0.09146632 -0.011925137 0.12934084 -0.14331238
0000a0 0b dc 4e 3d 43 7f 2c 3e 76 63 0e be b1 0c 61 bd
       0.050502818 0.16845421 -0.13905129 -0.054943744
0000b0 2e 13 dc 3a 05 4e 07 bd 69 ef 68 3d 26 33 b0 3c
       0.0016790384 -0.03303339 0.056868944 0.021508764
0000c0 58 6d e3 3a d3 70 fc 3d 50 40 6e bc a0 da 91 be
       0.0017351313 0.12326207 -0.0145417005 -0.2848711
0000d0 65 9d ec 3d e4 a1 c0 3d 0e b2 0d bd ed bf 5f be
       0.11553458 0.09405878 -0.034593634 -0.21850558
0000e0 df 4e 18 be 6f ef 9c bd c7 c9 15 3e 56 65 2e 3e
       -0.14873837 -0.07662856 0.14627753 0.17030844
0000f0 8c 58 60 3c d2 76 81 3d d6 7b 2e bc 4c 11 25 be
       0.013692986 0.06321491 -0.010649642 -0.1611988
000100 b2 4e c1 bc 73 27 3a 3e d8 0f 43 bc 2a ec 75 3d
       -0.023597095 0.18179111 -0.011905633 0.060039677
000110 84 c8 c5 3c b1 59 b6 bd cd 39 28 3c 08 4c c9 3d
       0.024143465 -0.08903826 0.010267687 0.09828955
000120 5e 66 95 bd 4f 38 27 3d d8 e7 81 be 2e 50 f1 3c
       -0.072949156 0.040825184 -0.25372195 0.029457178
000130 c6 c4 1d bd af 5d 1b 3c b4 34 33 be 26 74 ef bd
       -0.038517736 0.009482785 -0.17500573 -0.116920754
000140 04 e5 09 bd fc b5 4c bc 32 b5 cf bc f6 df cb bd
       -0.033665672 -0.01249456 -0.025354955 -0.099548265
000150 ae b3 6e 3d bd 90 00 3e e3 05 f5 bc 54 a5 9e bd
       0.058276825 0.12555213 -0.029910034 -0.077463776
000160 d0 3a c0 3d 30 28 fc 3d 30 8b cc bb 02 e5 08 3e
       0.093862176 0.12312353 -0.0062421784 0.1336861
000170 db 46 b4 bd 75 e5 83 bd d2 c0 fd bb 7d a1 da bd
       -0.08802577 -0.0644025 -0.0077439332 -0.10675333
000180 72 46 82 bd 96 a9 a1 bc 7e 24 05 be 74 5c a0 bd
       -0.063610926 -0.019734185 -0.13002202 -0.07830134
000190 44 51 44 3d cf 32 5e 3e 80 7d a0 bc 60 96 78 3d
       0.047929063 0.2169907 -0.019591093 0.060690284
0001a0 58 c0 5b bd 17 ea 2b be 60 ea 09 3e 3f 24 8d be
       -0.05365023 -0.16788517 0.13468313 -0.27566716
0001b0 37 ba 4f bd 4f c3 90 bd f2 c0 87 bd 45 ad 1c 3d
       -0.050714698 -0.07068502 -0.06628598 0.03825118
0001c0 a5 d6 de 3d b1 00 f6 3d 6a e8 22 3e 5c 7e 18 be
       0.10880784 0.120118506 0.15908971 -0.14891952
0001d0 2c 3f 30 bd 5c 14 92 be a4 20 5d 3c 8d a7 41 3e
       -0.043028995 -0.28531158 0.013496552 0.18911572
0001e0 df 5c e7 bd cf ec c0 bc de 75 f3 3c d6 7f f3 3d
       -0.11297011 -0.02355042 0.02971929 0.11889617
0001f0 71 65 41 3e 68 44 a5 3d b4 a5 b9 bd f2 e3 f4 3d
       0.18886353 0.08069688 -0.090648085 0.119575396
000200 a4 a2 fb bd 0b 21 a7 bd 73 d3 8c bd b7 dd d1 bd
       -0.122868806 -0.08160599 -0.06876268 -0.10247367
000210 d9 2e 33 3e 4a c0 e7 bd 8b 69 dd bd f8 d9 14 3d
       0.1749834 -0.11315973 -0.10811146 0.036340684
000220 e0 f1 40 3e d9 92 8c 3c 38 6d ac bc ab c4 a6 bd
       0.18842268 0.017159866 -0.021048173 -0.0814298
000230 d7 5d 4f 3e 0a 23 cb bd 9b 30 01 3e c3 03 3e be
       0.20250641 -0.099187925 0.12616198 -0.18556122
000240 f8 5d 4d 3e 44 43 6c be 2b 79 8a be 1d 16 89 bd
       0.20055377 -0.23072535 -0.2704557 -0.06693671
000250 8a c2 18 3d 2d 63 c3 bd 1e 7e 71 bc 1e a2 0a bd
       0.037294902 -0.09540401 -0.014739541 -0.033846013
000260 0c 08 b3 3d e9 84 30 be 71 1c 27 bd 92 3f c5 3d
       0.08741769 -0.17238201 -0.04079861 0.09631266
000270 4e f3 cf 3c c0 a5 9b bd 2b 5e f7 bd 92 19 2c bd
       0.025384571 -0.07599974 -0.12078508 -0.042016573
000280 72 78 08 3e dd b0 b6 bd c7 ea a7 bc e3 d4 71 3d
       0.13327196 -0.08920453 -0.020497693 0.059040915
000290 85 00 10 be 60 6a 18 3e 1f 70 1c bd ad b9 3a be
       -0.14062698 0.14884329 -0.038192865 -0.18234892
0002a0 6a 34 c0 be b4 47 70 3e 16 d7 8c bc a6 8e 9f 3d
       -0.3753999 0.23464853 -0.017192405 0.0779088
0002b0 0b c9 3c 3d d2 b4 0b 3e 75 f7 e3 3d 65 26 3f 3e
       0.046090167 0.13643196 0.11131183 0.1866699
0002c0 a7 c0 03 3c 74 7f 57 bb 4c 11 e5 bd 90 88 48 3d
       0.008041537 -0.0032882364 -0.1118494 0.04895836
0002d0 f5 ef 50 3e 46 cc 50 be 29 4c 26 bd 3a 92 a6 3d
       0.20404036 -0.20390424 -0.040599976 0.08133359
0002e0 04 79 77 3c a6 6e a1 bd ed 70 05 3d 60 90 21 3d
       0.015104536 -0.07882433 0.032578398 0.039444327
0002f0 1b 49 54 3c 9a c7 0a be 25 d6 a5 3d e5 c7 04 be
       0.012956883 -0.13552704 0.080974855 -0.12966879
000300 63 3c d6 3c 06 33 c2 bd 6b 1a fa 3d eb d4 06 be
       0.026151842 -0.09482388 0.1221207 -0.1316716
000310 98 25 25 3e 7a 50 10 3e 85 0d f0 bd f4 93 4c 3e
       0.16127622 0.140932 -0.11721329 0.19978315
000320 1b 08 e5 bd 3f 54 4e bd f1 d3 d2 3d ec 52 88 bd
       -0.111831866 -0.050373312 0.10294331 -0.06656441
000330 24 9e 04 be 00 f9 41 3d c5 0e 04 bd 15 8c 18 3e
       -0.12950951 0.047356606 -0.032240648 0.14897187
000340 90 07 46 be c6 1c e5 bc e8 ce ad 3d 09 0a 17 3d
       -0.19338822 -0.027967822 0.0848673 0.036874805
000350 e4 d4 da bd 55 79 19 3c fc 70 f2 3c 20 dd f6 bc
       -0.10685137 0.009367307 0.02959489 -0.030134737
000360 c8 24 a5 bc ed b5 fe 3d 2c 5c 22 be 57 eb 2b be
       -0.02015914 0.12437043 -0.15855473 -0.16788994
000370 bc c7 99 3d db 1e 99 3d 1c 7c 1b 3d 41 95 0c be
       0.075087994 0.07476588 0.037960157 -0.13728811
000380 f4 11 23 be 05 2d 2b be 3f 5f 39 3d cf 63 9e 3d
       -0.15924817 -0.16716392 0.04525685 0.07733881
000390 ca b2 25 bd dc f2 c9 3d 85 e8 01 be f6 c6 9c bd
       -0.04045371 0.09860775 -0.12686355 -0.07655136
0003a0 1c a8 04 3d 6f b1 2c 3c c2 ca 81 3c 73 db d8 3b
       0.032386884 0.01054035 0.015843753 0.0066179573
0003b0 50 40 d2 bd 55 c0 ad bd b4 b7 8a bd 70 a5 8b 3c
       -0.10266173 -0.0848395 -0.0677332 0.01704666
0003c0 1f ed 6a 3e 88 ff 51 3e e6 b6 aa bc 2e ed 0c 3e
       0.22942017 0.20507634 -0.020839166 0.13762352
0003d0 77 36 fe bd 50 2c 15 3e c8 01 e8 3d 0c 29 0e be
       -0.12412732 0.14567685 0.11328465 -0.13882846
0003e0 fb 04 8b bd 45 ae be bd ab 05 45 3d a1 27 af 3b
       -0.06788059 -0.09310583 0.04810111 0.0053453003
0003f0 b6 63 3b bd 93 e7 7c bd 75 41 17 be bc 3f 0b bd
       -0.04574939 -0.061744284 -0.14771064 -0.03399633

linear_layer.1.bias f4 [100]
000000 04 27 ac bd ce b8 aa 3d 12 7f c9 bc e1 3e 46 3e
       -0.08405879 0.0833603 -0.024596725 0.19359924
000010 7c 11 c1 bc 40 be 85 bd 94 01 eb bd e6 9f 0b 3e
       -0.023567908 -0.06530428 -0.114749104 0.13635215
000020 e5 b3 e1 bd 7b 53 b6 3d 8d a1 ad bd 83 2e b0 bc
       -0.1102064 0.089026414 -0.08478079 -0.021506554
000030 04 c5 0f 3e 7c d7 c4 3d 34 1a 92 bd f4 ee 9e bd
       0.14039999 0.09611413 -0.07133904 -0.077604204
000040 9f b8 a5 3b f7 f9 03 3e a7 1c ba 3c cd 27 70 bd
       0.005057409 0.12888323 0.02271874 -0.058631707
000050 36 53 59 bd 92 ba 34 3d d5 05 fd bc 15 38 c5 3d
       -0.05305787 0.04412324 -0.03088657 0.096298374
000060 6e b2 17 3e 7b e2 0e 3d 36 c7 1e 3e 10 40 5f bd
       0.1481416 0.034883957 0.1550568 -0.054504454
000070 85 4b c2 bd 41 42 77 bd d1 70 6d be 63 ea 07 3e
       -0.094870605 -0.06036592 -0.23187567 0.13273005
000080 05 45 71 3b 8d 33 b7 bd c9 36 97 bd 4b 81 ac 3d
       0.003681482 -0.089453794 -0.07383496 0.08423098
000090 62 f2 07 3e f1 33 1e be e0 46 26 3c 82 4c a0 bc
       0.13276055 -0.15449502 0.010148734 -0.019567732
0000a0 e3 fd e6 bd f7 b0 0b be 7e 5f 05 3d 09 22 26 3e
       -0.11278894 -0.13641725 0.03256177 0.16223921
0000b0 e0 db 90 bd e5 e8 29 3c 77 51 11 3b 5a 0d 13 be
       -0.07073188 0.010370468 0.00221738 -0.14360562
0000c0 a7 60 a5 3d 72 16 e0 bd 08 5a 5a bd eb 58 24 3b
       0.080750756 -0.10941781 -0.053308517 0.0025077413
0000d0 9f a2 b5 bb 94 63 f3 bd 4c 8f 10 3c d9 4b ad 3c
       -0.0055430676 -0.118842274 0.008823227 0.021154331
0000e0 aa 15 12 3e 1e 74 bf bd e7 cd 3d bb d6 16 fe 3c
       0.14266077 -0.093483195 -0.0028961839 0.031016748
0000f0 79 d1 13 be d5 1a c4 bb 7b f4 12 3d 8f 8f 2d 3e
       -0.14435376 -0.005984644 0.035877686 0.16949295
000100 21 c7 33 3d ac d4 18 3d 8d 9a f3 bd c1 b1 b3 3c
       0.043891076 0.037312195 -0.118947126 0.021935346
000110 da 85 82 3b 94 22 33 be 14 1f c6 bd 24 82 d0 3b
       0.0039832415 -0.1749366 -0.096738964 0.00636317
000120 84 a3 36 bd 8d bc 23 bd f1 49 ae 3d 57 ad 32 3c
       -0.044589534 -0.039974738 0.08510197 0.010905585
000130 8f 29 a9 3d b9 30 0e be 35 1f 72 3d 21 8b 5b bd
       0.0825988 -0.13885774 0.059111793 -0.05359948
000140 3e 5a 0e be c6 4d 94 bd ce af 15 3d 2b 3d e4 bc
       -0.13901612 -0.072413966 0.036544614 -0.027861198
000150 e2 e3 c8 3d 38 43 16 3d 4f ad 21 bc d7 3f 77 3d
       0.0980909 0.0366852 -0.00986798 0.060363617
000160 c0 87 2a 3e 04 69 11 bd 0a c9 b6 bd c0 bb 53 be
       0.16653347 -0.03550054 -0.08925064 -0.2067709
000170 a3 ea c8 3d f6 3e e1 3c 61 cb 59 3d 69 c9 10 3d
       0.098103784 0.027495842 0.053172473 0.03534833
000180 91 bd 87 3d 19 ef 24 bc bd 31 1c bc c4 de c0 3d
       0.06627954 -0.010066771 -0.009533343 0.09417489

linear_layer.2.weight f4 [100, 100]
000000 b7 32 53 bd 48 bd ec 3c f3 7b 86 3d 30 b4 86 be
       -0.051562037 0.02889885 0.0656661 -0.26309347
000010 2a 60 c1 3d 44 c4 22 bd c4 6b 7b 3d 0c 38 b8 bd
       0.0944217 -0.039737955 0.06138207 -0.08995065
000020 21 40 c6 3d f0 af 69 bd 2b dc 2c bd 63 4c 1b 3d
       0.096802 -0.057052553 -0.042202156 0.037914645
000030 53 51 8b bd 5b f9 c0 bd bd 7d dd 3c 77 9f 0a be
       -0.06802621 -0.09422561 0.027037496 -0.13537394
000040 08 71 3d 3d 1c 3d b5 bd 4e b4 0c bd 13 8c 03 3e
       0.046250373 -0.08849546 -0.03435164 0.12846403
000050 65 1f e5 3c 0d 4f 45 3d ed 63 7c bd 62 07 9b bd
       0.027969072 0.04817109 -0.061618734 -0.075697675
000060 e2 04 05 be 45 f0 62 3a 67 f7 66 be 47 49 82 bc
       -0.12990144 0.0008657019 -0.22555314 -0.015904082
000070 0d 2a ee 3c 74 f0 16 ba 83 41 58 3d d7 10 7e bd
       0.029072786 -0.0005757876 0.05279685 -0.06202778
000080 dc 54 87 3c 97 b9 df 3b 34 f2 93 3d 00 a3 10 bc
       0.016519956 0.006827544 0.07223931 -0.008827925
000090 f9 dc de bc 20 c7 9b 3e 5a fa f5 3c 3b 52 8b bd
       -0.027204977 0.30425358 0.030026603 -0.068027936
0000a0 76 e5 10 3e cc a4 2a 3e 9c 81 9e 3d fb f1 0b 3c
       0.14150032 0.16664428 0.07739565 0.008541579
0000b0 97 1e fa 3d c8 ea 85 bc 01 1d ec 3d fb 61 4e 3d
       0.12212866 -0.016347304 0.115289696 0.05038641
0000c0 f5 97 25 be 20 a6 f5 3d 8b c2 5c 3c 82 ba 82 3d
       -0.16171248 0.119945765 0.013474117 0.0638323
0000d0 3b cc 08 be 35 64 34 3d 26 84 ea bd b3 6b 05 bd
       -0.13359158 0.044040877 -0.114509866 -0.032573413
0000e0 ed 20 ad be 39 a2 6b 3d 68 79 b8 3d 00 32 52 3c
       -0.33814183 0.057527754 0.090075314 0.012829304
0000f0 a8 33 05 bd 91 77 74 3b 9e 44 e2 bc 30 9c cc bc
       -0.032519966 0.0037302712 -0.02762061 -0.02497682
000100 04 e2 09 3d f3 1a 01 3e 55 64 81 3d 51 c5 66 bd
       0.03366281 0.12607937 0.06317965 -0.05634052
000110 4f b8 b8 3d c2 6d f2 3c fc 7a 79 3e 6c d6 82 3e
       0.09019529 0.029593352 0.24363321 0.25554216
000120 37 3e 8e 3c f9 0f 02 be 0b 94 4e be 5d a3 eb 3c
       0.01736365 -0.12701406 -0.20173661 0.028764421
000130 c0 c5 1a bd 59 09 6c bc d9 a6 9c bd 65 25 d4 3d
       -0.037786245 -0.0144065255 -0.07649011 0.10358695
000140 e0 57 ae bd 03 3d 61 3d c8 23 3e bc a9 dc de 3d
       -0.085128546 0.054989826 -0.011605211 0.10881931
000150 d4 54 6e 3e fa 7c 07 be 91 4a 27 3e c7 4e 8b be
       0.23274547 -0.13231269 0.16337039 -0.2720854
000160 f9 c9 a1 bd 43 01 ea bd de 80 54 3d f6 f1 14 3e
       -0.07899851 -0.11426022 0.05188071 0.14545426
000170 db fd f4 3a e2 e4 f0 bd 4b 6c f4 bc 30 1b f8 bc
       0.0018691377 -0.11762406 -0.029836794 -0.030286402
000180 09 23 8b bd 79 b9 98 3c 80 7b 2f 3c d6 9f 5b 3d
       -0.06793792 0.018643128 0.010710597 0.05361923
000190 c4 80 70 bc d3 2c 89 3c 7f 42 43 bd 87 fb ad be
       -0.014679138 0.016745007 -0.047670837 -0.33980963
0001a0 3d 0c 9a 3a 7e 32 99 3d e7 be b2 3d e8 79 88 be
       0.0011752915 0.07480334 0.08727818 -0.26655507
0001b0 c2 4b 58 3d 41 78 19 be a2 0b ec 3d ce 40 03 be
       0.052806623 -0.1498728 0.11525656 -0.1281769
0001c0 0b 35 ac bd 4e ee 98 be 5c 7f b6 bd 96 7c 1a 3d
       -0.08408555 -0.29869312 -0.089110106 0.03771647
0001d0 2f 76 a4 bb c6 b9 f0 bd 6d 2b a5 3d 3a 66 77 3d
       -0.0050189714 -0.117541835 0.080649234 0.060400225
0001e0 53 76 e6 3d 25 a5 0d 3e cb 2f 43 bc 9f 07 9f bd
       0.11253037 0.13832529 -0.01191325 -0.077651255
0001f0 6f 29 2e 3d cc 10 5c 3d 58 27 8a be 64 d6 bd 3d
       0.042519983 0.053726956 -0.26983142 0.092694074
000200 e2 f8 d7 3d 10 b9 52 3c 28 07 fc 3d 91 77 6f be
       0.105455175 0.012861505 0.123060524 -0.23385455
000210 5f dc 8a 3e d8 82 db 3d 6a 54 32 bd c0 9a a9 bd
       0.27121255 0.10718316 -0.043537535 -0.08281469
000220 e7 73 62 bb dc b7 b8 3d c7 a6 6b 3e b6 72 2c ba
       -0.0034553946 0.090194434 0.2301284 -0.00065783726
000230 87 8f 43 3e 91 81 8b bb 0c ff 15 3e 28 bb 53 3c
       0.1909772 -0.004257389 0.14648074 0.0129230395
000240 ca 50 04 3e bb 5f 37 3e f5 cb 32 be 8d 20 79 3d
       0.12921444 0.17907612 -0.17460616 0.06082206
000250 33 2f 72 be d8 c7 a4 3d 29 28 c6 bc 2d 2a 27 be
       -0.23650818 0.0804593 -0.024189072 -0.16324683
000260 2b ee b0 3d 2e eb ab 3d a4 b2 63 3e 0f 2a 20 3e
       0.08639177 0.08394466 0.22236115 0.15641044
000270 a9 7a bb bd d6 9b 8d 3c 76 d0 7a bd d3 18 99 bd
       -0.09154255 0.017286222 -0.06123396 -0.07475438
000280 fc ff 4b 3d 21 8c 18 3e db 45 40 3e f6 2c 06 bd
       0.049804673 0.14897205 0.18776648 -0.03275772
000290 69 67 80 be b7 d2 7f bd 8a 28 21 3c 84 c1 85 3c
       -0.25078896 -0.062456813 0.009836325 0.016327627
0002a0 6d 6e b2 bb e2 2f 2f 3d 68 b4 5b bc 34 94 90 3d
       -0.0054452927 0.042770274 -0.013409711 0.070595175
0002b0 ca 07 a0 3c 00 bc fd bd da ff 89 bb f2 33 a4 bd
       0.019534964 -0.12389374 -0.004211408 -0.0801772
0002c0 4c 07 aa bb 6d dd 1a 3e db cb 99 3b c3 82 c2 3d
       -0.005188858 0.1512353 0.004693491 0.09497597
0002d0 f2 dd a5 3c ec af ac bd d8 1f 06 be b6 be 1b be
       0.020247433 -0.08431992 -0.13098085 -0.15209469
0002e0 7f 79 38 bd a1 c9 06 3e b4 b0 68 3d e3 5a 00 be
       -0.045037743 0.13162853 0.056809142 -0.1253467
0002f0 31 23 08 bd 08 69 84 bd f0 e3 56 3d b9 4c d9 3d
       -0.033236686 -0.064653456 0.052463472 0.10610337
000300 8c 2f 3f 3d d5 38 0c be 2c cc 97 bc 7f 19 c6 bd
       0.046676204 -0.13693555 -0.018529974 -0.09672832
000310 f7 95 4e 3d f0 02 28 3d 8d 91 95 3c 6e 75 5f bd
       0.050435986 0.041018426 0.01825788 -0.05455535
000320 e7 29 cb bc 15 b0 be bd bd a0 08 bd bb c7 5f 3d
       -0.024800254 -0.09310929 -0.033356417 0.054633837
000330 52 0d 20 3e 58 fb aa bd b1 b8 9f 3d e7 91 06 3d
       0.15630081 -0.08348721 0.07798899 0.032853987
000340 7a 8f 70 bd f2 43 4d 3e 3a fc 26 be fb d7 05 be
       -0.05873058 0.2004545 -0.16307154 -0.13070671
000350 dd 83 cb bd 10 51 2b be 71 91 19 bd 72 8d 84 3d
       -0.0993726 -0.16730142 -0.03749222 0.06472291
000360 95 13 3b 3e 4d a3 c9 3d 1e 20 27 be cb d6 01 bc
       0.18269189 0.098456 -0.16320845 -0.007924746
000370 6b e3 06 be ac e8 f4 3d 78 57 81 be aa 23 a0 3d
       -0.1317269 0.11958441 -0.25262046 0.078193024
000380 3a 4f dd bd d5 b1 a8 bd 43 17 e7 3d d2 06 93 3c
       -0.10806127 -0.08237044 0.11283734 0.017947588
000390 f1 ef 1e be 3e cf 72 3d 77 0b 0c be 33 fe c3 3d
       -0.15521218 0.059279673 -0.13676248 0.09569969
0003a0 6f a2 a6 bd 33 b3 0d 3d 82 89 40 bd f1 4e 01 3e
       -0.081364505 0.034594726 -0.047006138 0.1262777
0003b0 63 b8 88 bd 8f 72 38 be 87 87 0b bc 8c 3d 8d 3d
       -0.06675794 -0.1801245 -0.008516199 0.06896505
0003c0 c3 11 14 be fc d3 4d 3c ac da ec bd 01 e6 2f 3b
       -0.144599 0.012562748 -0.11565146 0.0026839974
0003d0 b5 3b 4f 3c 21 8f b3 bd 0c 67 15 bc ae 15 19 3c
       0.012648513 -0.08767534 -0.009118807 0.009343548
0003e0 a3 36 d7 bc 86 18 18 bd dc 47 0d be 48 f5 72 3d
       -0.02627117 -0.037132762 -0.13796943 0.05931595
0003f0 4f 25 df bd 94 7e 0b 3d c2 74 af 3c 59 7b 95 3c
       -0.10895788 0.03405626 0.02141798 0.018247293

linear_layer.2.bias f4 [100]
000000 87 3c 8d bd 8f d9 6f bd 0a 80 a2 3c b4 2a 11 3d
       -0.0689631 -0.05855709 0.019836444 0.035441115
000010 81 bc 8d 3c 0a f8 33 3d 1a 8c 6e 3d 67 68 51 3d
       0.0173018 0.04393772 0.05823908 0.051124956
000020 e4 d4 ea bb b5 d3 08 3d cf 27 1a bd 83 ad 80 bd
       -0.007166492 0.033405025 -0.03763562 -0.06283095
000030 1f 9e d4 bd b2 83 41 3e 3d 69 84 bc e0 3e e5 bc
       -0.10381722 0.18897894 -0.016163463 -0.027984083
000040 e3 55 98 bd 3c ff 1d 3e a8 8e b4 3b d5 6c dc bc
       -0.074382566 0.15429395 0.00551017 -0.026907364
000050 62 fd 10 be 1a 36 54 bd 84 52 7a 3c 64 48 af 3d
       -0.14159158 -0.051809408 0.015278462 0.08558729
000060 f9 f3 74 3c a9 25 76 bd 3f 65 6d bd 74 f9 8f bd
       0.014950746 -0.06009451 -0.057957884 -0.07030001
000070 33 8a 6e 3d 5b e5 93 bd 8c 0d f5 bd 45 cb 48 bd
       0.058237266 -0.072214805 -0.119654745 -0.049021978
000080 1b dd 02 3d d9 33 5b 3d f1 a4 a8 bc 8b a5 9f bd
       0.031949144 0.053516243 -0.020586463 -0.07795247
000090 9c 7f 05 bd 8f 6b 85 bd 36 65 02 bd e9 40 f7 bc
       -0.0325924 -0.06514656 -0.031834804 -0.030182319
0000a0 b4 ca 04 bd 20 04 ce bd 40 c9 2c bd a8 0e 19 3d
       -0.032419875 -0.100593805 -0.042184114 0.037367493
0000b0 fb 10 25 3c 95 42 ef 3c e2 fc d6 3c c3 45 fd 3b
       0.010074849 0.029206553 0.02624363 0.0077292635
0000c0 d7 bd 06 3e 3d 78 14 3c be 78 cb bc a8 7a 96 3b
       0.13158356 0.00906187 -0.024837848 0.0045922585
0000d0 be 4b ab 3d 3d 2c df 3d 20 82 a1 3d 37 34 cb be
       0.08364056 0.1089711 0.078861475 -0.39688274
0000e0 4b 6b 8d bd 77 33 94 bc 99 e5 ec 3b 4a 0e 61 bd
       -0.0690523 -0.018090947 0.0072295186 -0.054945268
0000f0 ce d3 32 3e f7 b0 4b 3d e3 02 26 3e 7a 9a 22 3d
       0.1746361 0.049729314 0.16212039 0.0396981
000100 4d 86 34 bd 80 2f e8 bc 83 9b 88 bd 51 62 16 3c
       -0.04407339 -0.028342962 -0.066702865 0.009178714
000110 fd 83 52 be 4e fe 28 3c 5e a1 9a 3c 01 c8 e7 3c
       -0.20558162 0.010314537 0.018875774 0.028293611
000120 e8 48 d2 3c d6 56 d5 bb cf ce c1 bc b1 9f 65 bd
       0.02566953 -0.006510596 -0.023658184 -0.056060497
000130 b9 d4 58 bc ac 72 0e 3c c2 f5 e8 3c 90 0e c0 bd
       -0.013234311 0.008694332 0.028437499 -0.093777776
000140 71 40 8c bd cd 32 8e bc 12 e0 ca bd 7f 6f 20 bd
       -0.06848229 -0.017358208 -0.09906019 -0.03916883
000150 e9 0c 36 3d 2f 64 6a 3d b6 94 9e 3c ef 6d 6f 3e
       0.044445906 0.05722445 0.01935802 0.2338178
000160 f9 f9 2e bd 81 1b a6 bb 42 8f 97 3c d6 b1 42 3d
       -0.04271886 -0.0050691967 0.018500928 0.04753288
000170 be 1c ad bc 81 7b 9d be b6 fa ad 3b ef 50 93 bd
       -0.02113187 -0.30758289 0.005309428 -0.07193171
000180 95 da 30 bd f7 f7 60 3c f2 31 88 bd 60 2e 9e bc
       -0.043177206 0.013730994 -0.06650151 -0.019309223

linear_layer.3.weight f4 [100, 100]
000000 0b 65 27 be fc 89 d1 3d 03 0e 4a bd d1 ab 2a 3e
       -0.16347139 0.102313966 -0.04932977 0.16667105
000010 d9 f8 81 bb 6c 6e be bc 7a fe 7a 3d 71 fa e9 3d
       -0.0039664325 -0.023246013 0.061277844 0.11424721
000020 cf ad ff bd cc 7d cd bd b1 f2 61 be 74 f0 9b 3d
       -0.12484323 -0.100337595 -0.22065236 0.07614222
000030 14 94 10 be d5 57 23 3f 0a cd 7b bd 4d 94 11 3d
       -0.14118987 0.63805896 -0.061474837 0.03554182
000040 01 b1 81 be 9f 4b 1b 3e 20 23 be bd c9 80 98 3c
       -0.25330356 0.15165566 -0.09284043 0.018616097
000050 61 f8 d8 be 2c 23 fb bd 68 5a 01 bd 36 1e 11 3e
       -0.42376998 -0.12262568 -0.03158036 0.14171681
000060 c2 c9 9e 3b 8e 8d 95 3d 86 6a 82 bc 0e e3 91 bd
       0.0048458287 0.0730239 -0.015919935 -0.07123385
000070 72 ae 5e 3e 98 7f 5d bc 09 20 24 be 52 2a 17 be
       0.21746233 -0.01351919 -0.16027845 -0.14762238
000080 be bd ff bd 87 17 0e bd 58 ec 82 bd 40 40 80 bc
       -0.12487362 -0.034690406 -0.06392735 -0.015655637
000090 ab 2b 9c be a7 b8 56 be 38 46 7d be 8d 8d ed bd
       -0.30502066 -0.20968877 -0.24733818 -0.11599264
0000a0 99 8f 0e 3e 2d 4f 4f be 67 67 25 be 5f f9 15 3e
       0.13921966 -0.20245047 -0.16152726 0.14645909
0000b0 2b 51 22 3d ee 17 b3 bc 74 43 59 3d 8a fc 2e 3e
       0.03962819 -0.021861997 0.053042844 0.17088524
0000c0 19 73 77 be 77 d6 e2 3d c7 70 03 3e c1 5a 81 bd
       -0.24165 0.11076062 0.1283599 -0.06316138
0000d0 f0 1b e2 bc e5 b0 a0 3e 0e 4e 79 3e aa 0d 82 3b
       -0.027601212 0.3138496 0.24346182 0.003968914
0000e0 fe 6a b4 3d 8d 75 23 be 39 c9 20 be a9 0e 06 be
       0.0880947 -0.15962811 -0.1570176 -0.1309153
0000f0 6f 1b 80 3c d9 0a 09 be a8 01 ac 3e d2 67 b7 bd
       0.015638081 -0.13383044 0.33595014 -0.08955349
000100 e3 25 cc 3d ca 03 38 3c 5a d1 6c 3d 7c 1c 96 bc
       0.09968164 0.011231372 0.05781684 -0.01832413
000110 ba d8 d2 3d bb 59 91 bc 2d b2 43 3e 20 ac 3f bd
       0.102952436 -0.017742982 0.19110937 -0.04679501
000120 d9 1e cb 3d 45 ad bd bc a9 92 45 3e 7f d6 d3 3d
       0.09917993 -0.02315391 0.19294228 0.10343646
000130 43 74 9d bd 71 79 4a bc 1b 64 5c 3c ff 3d 88 be
       -0.07688191 -0.012358055 0.013451601 -0.266098
000140 27 8f b6 3b 88 39 f6 3d 6e df 9f bd 18 66 a0 bc
       0.0055712643 0.12022692 -0.07806288 -0.019579932
000150 db 22 7b 3e 9e 9e 10 be af 09 19 3d f7 ac f9 3c
       0.24525015 -0.14123008 0.03736275 0.030477984
000160 a5 8c 04 be 30 0e 14 3d 64 15 45 be 66 b4 8c 3e
       -0.12944277 0.036146343 -0.19246441 0.27481383
000170 3d e8 89 bb 3c 18 96 3d d6 0e 0b 3c 35 85 07 3e
       -0.004208593 0.07328841 0.008487424 0.13234408
000180 ed 33 a0 3d b0 e8 0b 3d 33 9c 40 be f4 ef bf bd
       0.07822404 0.034157455 -0.18809585 -0.09371939
000190 6f d7 34 3e f4 1b 33 bc 36 3e 22 3c af 28 f5 bd
       0.17660306 -0.0109319575 0.009902528 -0.119706504
0001a0 a0 09 02 3d e0 17 c2 3c ef a7 e0 bd 40 89 7d 3d
       0.03174746 0.023693025 -0.10969531 0.06189847
0001b0 09 80 bb 3b f6 da 89 bd 95 58 d4 bd 74 17 06 3e
       0.00572205 -0.067312166 -0.10368458 0.13094884
0001c0 24 93 27 bd 63 3a 93 3e 70 1f dd bd 16 44 bd bc
       -0.04091181 0.28755483 -0.10797012 -0.023103755
0001d0 fb f0 79 bd ec 2a b1 bd ad 2e d0 3d 71 4e 9a 3c
       -0.061020833 -0.08650765 0.10165153 0.018836232
0001e0 ca 87 c6 3d d0 44 91 bd 5b fc a1 ba 36 b1 38 be
       0.096938685 -0.07093203 -0.0012358533 -0.1803635
0001f0 3e 2a 1f be b8 89 cc 3d 32 43 c9 3c 33 96 41 be
       -0.15543458 0.09987205 0.024568174 -0.18904953
000200 0e 1a 1f 3e b3 7e c9 3d 67 5f 34 be 43 af 4d 3e
       0.15537283 0.09838619 -0.17614518 0.20086388
000210 c8 c8 49 3d 1c f1 2a be 0d 0f 94 3d a9 b7 5d bd
       0.049263746 -0.16693538 0.07229433 -0.05413023
000220 9f cf ed 3d 9e 88 65 be 86 2c 31 3b 98 2a e5 bb
       0.11611866 -0.22415397 0.0027034595 -0.006993603
000230 96 38 89 3c af bf cd 3d 2c 46 2e bd 96 e8 13 3d
       0.016750615 0.10046326 -0.04254739 0.036110483
000240 54 f0 4c 3e c2 a9 e9 bb 90 e3 31 be 28 1a 1e 3d
       0.20013553 -0.0071308324 -0.17371964 0.038599163
000250 0d 77 1f 3d 86 9e 29 3e 00 61 77 3d d6 99 70 3c
       0.038931895 0.16564378 0.06039524 0.014685115
000260 30 eb ef 3d 12 a3 df bc 18 77 4f 3d f9 33 2a bd
       0.1171478 -0.027299438 0.050650686 -0.04155347
000270 40 8b 5f bd 91 48 9d bd 65 ab 00 3e 01 a0 86 3d
       -0.05457616 -0.076798566 0.12565382 0.06573487
000280 0e 99 7e 3d 36 7a b0 bd cb f5 b7 bb 9f 46 2e bd
       0.062157683 -0.0861706 -0.0056140176 -0.04254782
000290 34 e7 b9 3d 4a 82 cf bd dd 71 29 be 19 59 cc bc
       0.090773016 -0.101322725 -0.16547342 -0.024944829
0002a0 62 07 06 be 7f fd 39 be 2a b1 91 bd b1 57 ab bc
       -0.13088754 -0.18163107 -0.071138695 -0.020915838
0002b0 28 74 4e 3e 79 2d 8c bd 75 30 b7 bd c0 d4 3e bd
       0.20161498 -0.06844611 -0.08944789 -0.046589613
0002c0 f7 29 be bd a1 2b 19 be 0d f7 18 3c 3d fd 36 bc
       -0.09285348 -0.1495805 0.009336245 -0.011168775
0002d0 a0 40 1c bd 9e 4e 3c bd 8e e1 b4 bc 31 1c 20 3e
       -0.03814757 -0.045973413 -0.02208021 0.15635754
0002e0 66 ce 2c 3d 54 31 86 3d bd 3f 4d 3b 23 cb ea bd
       0.042189024 0.06552377 0.0031318509 -0.114645265
0002f0 41 ae e9 bc 20 03 e9 bc 3a e9 1b 3c 3e 2e d1 3d
       -0.028525474 -0.028443873 0.009516055 0.10213898
000300 c2 42 f4 bc a2 50 39 bd 17 ce c0 3c cb 98 f1 bd
       -0.029816989 -0.045242913 0.023535771 -0.11796721
000310 d7 10 5b ba f8 05 d8 bd 73 21 4f be c8 d1 99 3c
       -0.00083566963 -0.105480134 -0.20227604 0.01877679
000320 0e 89 9e bc ff b1 e1 3c 01 0f 53 bd 1e a1 b7 bd
       -0.019352462 0.027550695 -0.05152798 -0.089662775
000330 22 ba 83 bc b8 a0 af bd ad ba 53 bd 6e fd eb bd
       -0.016079966 -0.085755765 -0.0516917 -0.11522947
000340 6d ed 2b 3d 18 9b 1c be 2b 81 5d 3d 04 43 13 3e
       0.041974474 -0.15293539 0.054078262 0.14381033
000350 f8 ba cd bd e2 05 f5 bb 2b 48 c5 3c 7a 32 59 3d
       -0.10045427 -0.007477508 0.024082264 0.053026654
000360 7e 2d 12 bc bc fa 01 be 90 00 6f be 76 15 20 bd
       -0.008921979 -0.12693304 -0.23340058 -0.039082967
000370 14 3c 5c 3e 59 01 5a 3c 96 86 e9 3c fa a4 e1 bd
       0.21507293 0.013305985 0.028506558 -0.11017795
000380 9b 13 08 3c b5 aa 43 bd 86 e8 fb 3d bb 67 af 3d
       0.008305456 -0.04777022 0.1230021 0.08564707
000390 bb 9c 45 bd 04 f7 b4 3d 84 ef 88 bd 7d a0 82 bd
       -0.048245173 0.08836177 -0.06686309 -0.06378267
0003a0 2e 6a 58 3d f4 4b e7 bd 05 0c 48 be 9f 2e 55 3e
       0.052835636 -0.11293784 -0.19535835 0.20818566
0003b0 06 d4 a2 3d 70 fe 62 3d 89 a7 82 3d 7f 7c 82 3e
       0.079505965 0.05541843 0.06379611 0.25485608
0003c0 eb ba 6f 3d 37 77 85 3d 83 07 90 bd 94 99 f4 bd
       0.05852787 0.06516879 -0.07032683 -0.11943355
0003d0 7e cc ad 3d 1e f1 67 bd 26 d2 e9 bd 68 67 58 bc
       0.084862694 -0.05662643 -0.11417036 -0.013208248
0003e0 7d af 12 bc 1e bd 37 be 55 4c 16 3d 90 41 bb 3d
       -0.0089529725 -0.17943236 0.03669389 0.091433644
0003f0 68 b1 9b bd c1 32 3b bd 2e ff 42 be 71 23 5d 3e
       -0.07602197 -0.0457027 -0.19042656 0.21595551

linear_layer.3.bias f4 [100]
000000 da 71 d2 3d ab 3e 80 3c a9 35 78 bd d5 5f f0 bd
       0.10275622 0.015654882 -0.06059805 -0.117370285
000010 4d 0a 99 bc 00 b5 2a bd 47 ae c0 3d 94 b3 45 3d
       -0.01868167 -0.04167652 0.09408241 0.048266962
000020 37 4a 39 3d 8a 2e 88 3b 9d 37 3e bd a3 f2 fc bc
       0.045236792 0.0041559385 -0.046439756 -0.030877417
000030 db fb c3 3c 95 74 19 3d 14 d3 16 3c af 8b c1 3c
       0.023923805 0.037464697 0.009205598 0.023626177
000040 1b 6b a4 bd 55 96 a6 ba e1 9d 9d 3c 82 90 30 3d
       -0.08028241 -0.0012709597 0.019240322 0.043106563
000050 19 cb 66 bd 75 eb 66 3d e5 ed f1 3c f1 e2 27 3d
       -0.056346033 0.056376893 0.029532382 0.040987913
000060 c9 fb 0a 3c 18 9a 40 bd 9c cf 8c 3d e0 5f 87 3d
       0.008482882 -0.047021955 0.06875536 0.066100836
000070 e0 7c 1f 3d c5 92 76 3d 6a 23 d5 bc 7d 18 69 bb
       0.03893745 0.060198564 -0.026017863 -0.0035567575
000080 8f 4c b4 3c 02 a8 f4 3c f4 de 26 bb 3a 09 f1 bc
       0.022009162 0.029865269 -0.002546248 -0.029423345
000090 3b bc 86 3c 0f 71 7f bc 94 15 48 bd ff b4 24 bc
       0.016447177 -0.01559092 -0.048848704 -0.010052918
0000a0 f2 52 4e bc c4 03 7f 3c ad 56 60 3d 77 a3 58 bc
       -0.012593018 0.015564863 0.05477016 -0.013222567
0000b0 bd 01 a3 3d e5 00 8e 3d c7 df de 3d ad 4b 53 be
       0.07959316 0.06933764 0.10882526 -0.20634337
0000c0 0a 3a 5b 3d aa ec 45 bd 07 fe 05 3d 2f 5b d2 bc
       0.053522147 -0.048321404 0.032712962 -0.025678245
0000d0 c6 68 2c bc 43 4e da ba 99 a4 b9 bc 8b 0d e4 bc
       -0.010523027 -0.0016655404 -0.022661494 -0.027838489
0000e0 e6 6d 4f bd fb 34 6e bc 53 a9 45 3d 43 c6 40 3d
       -0.050641917 -0.014538999 0.048257183 0.047064077
0000f0 be 06 af 3b 6e 5d f6 3c 13 8e 1b 3c eb 80 64 3c
       0.00534138 0.030073848 0.009494322 0.013946752
000100 3a fd d6 3c 5e 6a 86 3c 79 d9 8a 3d 01 a7 b3 bb
       0.026243795 0.016408142 0.06779761 -0.005482555
000110 15 a5 58 3c 5c e8 39 bd 9c 54 e6 3c 70 86 22 bd
       0.013222952 -0.04538761 0.028116517 -0.03967899
000120 f0 5c 57 3a 1a 25 38 bc 00 98 27 bd f8 a3 bd 3c
       0.0008215448 -0.011239314 -0.040916443 0.023149475
000130 0c b2 64 bc ed 89 aa be 41 2c 66 3d 4b 5f 7f bd
       -0.013958465 -0.33308354 0.056194548 -0.062346738
000140 ab 79 db bb 36 7f b7 3c 9f 73 c8 3a d7 3d c5 bc
       -0.0066978536 0.022399526 0.0015293247 -0.02407734
000150 a0 31 b7 bc 41 2b 2b 3d b1 c9 bc 3c 58 7a 83 3d
       -0.02236253 0.041789297 0.023045393 0.064198196
000160 9b 74 18 bd 59 e5 7f 3c 9c b5 00 3d 7d 23 ef 3c
       -0.03722058 0.015618646 0.031423196 0.029191727
000170 20 5a 2d 3d be ac 19 bd 29 cf 83 3c be 52 33 3d
       0.042322278 -0.037518255 0.016089993 0.04378008
000180 90 1b b7 3c 79 45 a7 3c 52 16 38 bd 42 5c 69 bd
       0.02235201 0.02041887 -0.04494316 -0.05697275

linear_layer.4.weight f4 [100, 100]
000000 ad 9d 96 bc 3b 6f 0f 3d a9 7f 94 3d 13 5e 9e 3d
       -0.018385733 0.035018187 0.07250912 0.07732787
000010 a0 f0 60 3d b1 6f 53 bb 69 73 56 bd 4f c0 16 3e
       0.054916978 -0.0032262618 -0.052356157 0.14721797
000020 2d dd 9e 3d 47 af cd 3c d5 12 17 be 65 6e d0 3d
       0.0775703 0.025107993 -0.14753278 0.10177306
000030 72 6b b6 3d a8 e2 1b 3e 0d 30 03 3e 68 31 60 3e
       0.08907212 0.15223181 0.12811299 0.21893847
000040 16 c0 01 3e ee 9e ac 3e 63 f4 45 3c 67 1e 17 3d
       0.12670931 0.33715004 0.012082192 0.03689423
000050 75 a6 8a 3c ba dc 54 3d ec f7 ae bc 2d 40 09 3e
       0.016925076 0.051968314 -0.021358453 0.13403387
000060 07 ec 1b 3e f9 77 d0 bd eb e5 92 3d 57 49 d2 bd
       0.15226756 -0.10179133 0.071727596 -0.10267895
000070 7a ff 27 3e 6d 53 0c bd d4 fe 05 3e ac 5c 83 bd
       0.1640605 -0.03425925 0.1308549 -0.0641416
000080 54 ce 24 be b4 a2 35 3d b9 7a c5 3b 8d 73 a6 3b
       -0.16094333 0.04434462 0.0060265926 0.0050796927
000090 e8 56 4b be d7 2d 7b 3d 78 47 11 3e 2e a8 b5 3c
       -0.19857371 0.061323013 0.1418742 0.02217492
0000a0 8e 3c 54 be 9e 92 8a be f7 df 8a be 16 32 aa 3d
       -0.20726225 -0.27064985 -0.27123997 0.083103344
0000b0 13 05 34 bd b2 33 88 be b7 3a 34 3e d8 d1 60 bd
       -0.04395015 -0.2660194 0.17600523 -0.054887623
0000c0 83 a6 8f 3d ce a3 b6 3c c0 eb 4f bd 6c 32 cb bd
       0.070141815 0.022294905 -0.050761938 -0.099217266
0000d0 38 45 c2 bd ba 8f a6 bc a0 a0 ee 3b 5f e2 7c 3d
       -0.09485859 -0.020332206 0.0072823316 0.06173932
0000e0 43 a4 5d 3d 24 be 96 3d 55 f9 b2 3d ee f5 77 3d
       0.05411173 0.07360485 0.087389626 0.06053727
0000f0 a4 f9 a5 3d 24 15 1c 3c 33 e8 90 3c 3a 69 e8 3c
       0.08104256 0.009526525 0.017688846 0.028370488
000100 51 a7 07 3e 47 d4 1d 3d f7 d4 5d 3c 69 07 22 bc
       0.1324742 0.03853252 0.013539544 -0.009889462
000110 43 a5 5b be 20 33 e0 3d 34 b3 8b 3c 04 c8 4f 3d
       -0.21449761 0.10947251 0.017053224 0.05072786
000120 02 ae b5 bd ca b6 43 3e 28 fb a2 3c bc bf 21 be
       -0.0887108 0.19112697 0.019895151 -0.15795797
000130 f6 a8 b0 3d cd 99 c3 3d c8 27 80 bc ba 60 fc 3c
       0.08625977 0.095508195 -0.01564397 0.030807842
000140 15 ee 33 3d 70 71 a6 3d 2c 1a 6b 3d 2b 80 9e bb
       0.043928225 0.08127105 0.057398006 -0.004837056
000150 15 fe 3a bd e7 24 1a bc e3 3a 09 3e 62 36 78 bc
       -0.045652468 -0.009408212 0.1340137 -0.015149685
000160 93 13 b6 bc 92 e1 ed bc 84 7a 94 bc 23 99 00 3e
       -0.02222613 -0.029038224 -0.018124826 0.12558417
000170 14 f8 59 be 3d 02 98 3d 13 88 a3 bd 11 4b b0 bd
       -0.2128604 0.07422302 -0.079849385 -0.08608068
000180 7e 96 9e 3c 40 bd 96 bc ce 63 e1 bd fc 21 fd bc
       0.01935887 -0.018400788 -0.11005364 -0.030899994
000190 cc 2f d2 bd e3 0d 6d 3b 94 6c fd bd a9 f7 80 3c
       -0.10263023 0.0036171607 -0.12374225 0.015743094
0001a0 3c d7 e5 bc 7e 4b 92 bd 6c 1d 5a be 8d 9f 7b 3c
       -0.028056733 -0.07143305 -0.21300286 0.015357864
0001b0 3d 3a 4f 3c f8 3a 8b bd e1 26 f5 bc 04 be 98 bc
       0.012648162 -0.06798357 -0.029925765 -0.018645294
0001c0 e4 11 09 3e 71 85 de 3d 80 84 64 3e ce 63 3f bd
       0.13385731 0.10865296 0.2231617 -0.04672604
0001d0 9e cc f5 bd 64 f4 a5 bd 6f 1d 7e bd 6b cf 8a 3d
       -0.12001918 -0.081032544 -0.06203979 0.06777843
0001e0 f1 91 a6 bd 34 37 d6 3d 5b 57 bd 3d e5 4c 99 bd
       -0.08133305 0.10459748 0.09245177 -0.074853696
0001f0 64 fd 95 3c 97 50 40 bd 92 f2 96 3d 9e 9e 0a 3e
       0.018309303 -0.046951856 0.07370485 0.1353707
000200 47 a4 6f 3e 14 79 ab 3d d5 81 89 bd 99 e8 89 3d
       0.2340251 0.08372703 -0.067142166 0.067338176
000210 bc 5c 65 3d 0b ad e1 3c d8 1a d8 bc b5 3c 68 be
       0.05599664 0.027548334 -0.026379988 -0.22679408
000220 a3 42 f6 bd 70 2a c4 bd a8 93 df 3d 84 7b bc 3d
       -0.12024429 -0.09578407 0.10916835 0.09203246
000230 26 06 23 3d 1b 5a 03 3d 05 bc b9 3d c2 fb 26 3e
       0.039800785 0.032068353 0.09069065 0.16306975
000240 1a 91 30 3d 7c 10 2c bd de e7 68 3e c8 87 e6 3d
       0.04310713 -0.04200791 0.227447 0.11256367
000250 2b 11 1a bd ab 89 22 be 56 9c 20 bd 58 61 58 3d
       -0.03761403 -0.15872829 -0.039211594 0.05282721
000260 2c 5a 32 bd 55 97 b9 bd c7 98 54 bd f8 e2 c2 bd
       -0.043543026 -0.090620674 -0.051903512 -0.09515947
000270 27 05 4f bd 52 e0 b2 3d 43 1e 57 bd 0c 78 3a bc
       -0.050542023 0.08734192 -0.052519094 -0.0113811605
000280 29 87 4f bc 78 8b 28 3d 5a ce 8d 3c e9 32 63 be
       -0.012666502 0.041148633 0.01731031 -0.2218739
000290 9b 3f 22 bd b3 ad 14 3e fa 73 0e 3e 49 aa 14 3e
       -0.03961144 0.14519386 0.13911429 0.14518084
0002a0 40 7e f1 bd fb 11 d0 bd ea 37 d6 bd 58 87 e7 bd
       -0.117916584 -0.101596795 -0.104598835 -0.11305112
0002b0 61 03 2b 3b 56 4e 3b be 6d 44 3c bb 8b 3a a3 3d
       0.0026094543 -0.18291602 -0.0028727308 0.079701506
0002c0 35 b6 51 3d 3c 46 53 be 56 bf 2f be 03 eb ed 3d
       0.051199157 -0.20632261 -0.17162833 0.116170906
0002d0 02 69 15 3e 59 30 20 be 8d 16 de 3c 34 20 ce bc
       0.14590839 -0.15643443 0.027110362 -0.02516184
0002e0 9b 5e 7a 3d b7 00 ff bc e0 c7 1f be 16 7d 7f bd
       0.06112538 -0.03112827 -0.1560359 -0.06237515
0002f0 41 46 2d be bf bc 21 be 0e 82 b6 3d e0 28 97 bd
       -0.16921331 -0.15794657 0.08911525 -0.07380843
000300 62 9b 07 be 10 b0 4f 3d 31 cf d6 3c 55 d5 c5 3c
       -0.13242868 0.050705016 0.026221843 0.024149576
000310 92 7d 01 bd 37 7e aa bd 41 19 dc 3d 6b a0 d0 3c
       -0.031613894 -0.08324855 0.10747004 0.025467118
000320 82 15 66 3d 2f a3 18 bc da 33 44 be 9c 01 c9 3d
       0.056172855 -0.00931625 -0.19160405 0.0981476
000330 77 76 64 be ff 9f ba bd 04 3b 03 3d d8 66 e8 3d
       -0.22310816 -0.09112548 0.032038704 0.11347741
000340 3f e0 94 be bd 23 8b 3c be 76 90 3d 0b 7c e7 3c
       -0.29077336 0.016984815 0.07053898 0.02825739
000350 49 e1 82 3b 28 af dd bd cb 09 25 3d c1 ca 2b 3e
       0.0039941412 -0.10824424 0.040292542 0.16776563
000360 ba 4c 3b be 1c ef 39 be 41 58 47 3d 59 a6 82 3d
       -0.18290988 -0.18157619 0.04866815 0.063793845
000370 68 47 25 bd 00 c0 95 bb d7 b7 33 3e 06 14 0a 3d
       -0.0403513 -0.0045700073 0.17550598 0.033710502
000380 fe bc 8a 3c ab e3 81 bd 8b 58 39 bd 65 b9 d9 3a
       0.016935822 -0.06342252 -0.045250457 0.0016611038
000390 25 25 2e 3e b6 b3 94 bd ab 3c 40 be 9e 98 92 3d
       0.17006357 -0.0726084 -0.18773143 0.07158016
0003a0 bf 88 37 3e a0 97 25 3e 32 51 80 bd 62 bf f7 3c
       0.17923258 0.16171122 -0.06265487 0.030242626
0003b0 ad 05 2c bd 4f d7 26 3e df 4d 0f be 0e 0a b7 bc
       -0.0419976 0.16293071 -0.13994549 -0.022343662
0003c0 29 1d 14 be be df 64 3d 05 6e 46 3e a4 93 19 be
       -0.14464249 0.05587744 0.19377907 -0.14997727
0003d0 84 2a 10 be b6 5f 26 3b aa c9 1f 3e 6c bd af 3e
       -0.14078718 0.0025386638 0.15604272 0.34324205
0003e0 63 a5 bd 3d a0 95 6e 3d 55 a6 a3 3e 89 8b 6d 3b
       0.09260061 0.058248162 0.3196284 0.00362465
0003f0 1f 2b 82 3d fe 80 69 3d b1 8c 57 3e cb 1f cb 3d
       0.06355881 0.057007782 0.21049763 0.099181734

linear_layer.4.bias f4 [100]
000000 2f d3 0f bc d0 26 10 bd c0 02 85 3d 70 c4 9c bc
       -0.008778377 -0.035193264 0.06494665 -0.019136637
000010 53 2a 0e be b8 6b a8 bc 9c 2d 1e bd b1 a9 48 3c
       -0.13883333 -0.020559177 -0.038617715 0.012247489
000020 ff 8a 3d 3d 33 69 ff 3c 35 c5 7f 3c 85 6c bf bd
       0.046275135 0.031178093 0.015610983 -0.0934687
000030 90 16 d4 bc 87 2e 94 3c f5 07 f5 bc 33 11 a5 3c
       -0.025889665 0.018088592 -0.02991102 0.020149803
000040 32 e0 0e 3d ef a9 df bc 26 76 96 bd 41 72 74 3d
       0.034881778 -0.02730271 -0.07346754 0.059679274
000050 ae 45 61 3d 48 49 e6 bc f4 2c d9 3b 73 0d be 3b
       0.054998092 -0.028111115 0.0066276733 0.005799943
000060 21 49 73 3c 98 ae 00 3d 5b 80 a5 bc 50 23 fd bb
       0.014848978 0.031416506 -0.020202806 -0.007725157
000070 cb b0 18 bd 4c 89 3b bd e7 cd e7 3c 6a 57 85 3c
       -0.037277978 -0.045785233 0.028296424 0.016277034
000080 f7 83 d1 bc e8 aa 19 bd c2 4a 46 3d cb ea 98 bd
       -0.025575621 -0.037516505 0.04841114 -0.07466658
000090 af 89 3d 3d 79 e4 1d 3e cf b5 68 3c 9d 62 2a bd
       0.046273883 0.15419187 0.014203503 -0.04159795
0000a0 7d 23 9a ba 2d b4 b3 3c 14 1f f1 3a b3 5e 16 bc
       -0.0011759844 0.0219365 0.0018396103 -0.0091778515
0000b0 ba f2 67 bd 0e 53 88 3c 5f db 0a bd fc 3d b8 bc
       -0.056627966 0.016641166 -0.033900615 -0.022490494
0000c0 07 37 d3 3a 5d 8f a4 bc 14 92 c1 3a ce 92 1f bc
       0.0016114422 -0.020087892 0.0014768266 -0.009739591
0000d0 51 45 25 3b a2 a2 ab 3c f3 fd 0e 3c ad 0d d6 bc
       0.0025218318 0.020951573 0.008727538 -0.026129568
0000e0 c0 6c 4d 3b ac 1a 85 3b fb c5 a7 bc 2f ec 5e bb
       0.0031345338 0.0040620174 -0.020480147 -0.0034015288
0000f0 2f 13 df 3a 87 dc 9f 3d 35 c9 19 3c 63 b5 11 bc
       0.0017019267 0.07805734 0.00938635 -0.008893344
000100 fb a6 41 3c fc 59 a2 3b 29 0f c1 3a 34 dd a1 bc
       0.011819596 0.0049545746 0.001472925 -0.019758798
000110 de 08 39 3d 71 e2 c9 bc f0 7d 81 bd ec 64 1f bc
       0.045174472 -0.024644108 -0.06322849 -0.0097286515
000120 ba be f6 3c 92 d4 0d 3c 44 a3 ec 3c a7 71 1f bd
       0.030120242 0.008656638 0.028886445 -0.038926747
000130 96 28 11 bb 8b 74 df 3c 1d 18 30 3d 3b b0 37 3c
       -0.0022149435 0.027277252 0.042991746 0.01121145
000140 a2 62 70 3d 79 ae fc bc 59 7c a6 3d 0e 44 78 3d
       0.058687814 -0.030844914 0.08129186 0.060611777
000150 02 b6 64 bd 78 87 6a bd 98 09 0c bc 6f 7f a0 bc
       -0.05583764 -0.0572581 -0.008547209 -0.019592015
000160 8c 68 26 bc 79 10 63 3c 6b 81 bb 3b 1b e3 28 3c
       -0.010156762 0.013858908 0.005722215 0.010308052
000170 06 84 03 bd 8b b2 c2 3c 66 67 74 3d 7a 82 f1 bc
       -0.03210833 0.023766777 0.05966892 -0.029481161
000180 17 09 61 3b 44 57 a8 bc b9 6a 3a bd ea 43 98 bc
       0.0034337693 -0.020549424 -0.045511935 -0.018587071
