ac_2d_model_para_5/checkpoint_750.pth (torch, 291130 bytes, 17 tensors)

linear_layer.0.weight f4 [100, 3]
000000 e0 84 60 3e 72 86 22 3e 43 6c 44 be b3 88 4a 3c
       0.21925688 0.158716 -0.19181924 0.012361693
000010 86 37 96 bd 2d a2 e2 3d 61 31 4d 3d 1b 79 80 bd
       -0.07334809 0.11066089 0.05009592 -0.06273099
000020 f6 a7 90 be ec 16 68 3e 9d 95 11 bd 71 63 5e 3e
       -0.28253144 0.22664994 -0.035543073 0.21717621
000030 d8 b8 20 be 86 f2 1d be 33 33 b9 be c0 70 63 bd
       -0.15695512 -0.15424547 -0.36171874 -0.05552745
000040 47 62 4d be a5 89 04 be 6f 12 d2 bd 4c 21 0b 3e
       -0.20057021 -0.12943132 -0.10257422 0.1358692
000050 48 4c fe bd f7 3d 9c bd 0a 40 39 bd c3 77 a8 be
       -0.12416893 -0.07629006 -0.045227088 -0.3290387
000060 8d 56 06 3f 3c e1 4b 3d 26 be b0 3c df 68 1b be
       0.52475816 0.049775347 0.021575045 -0.15176724
000070 45 7c 40 be db d4 99 bd 94 38 34 3d 55 aa 7e be
       -0.18797405 -0.07511302 0.04399927 -0.24869664
000080 a6 0d 09 3e ec b9 d1 bd 0e 08 87 3d f2 86 74 be
       0.13384113 -0.1024054 0.06593333 -0.23879603
000090 40 6d c0 3e 78 b6 93 bb cb 22 e5 bd 29 1a 84 3e
       0.3758335 -0.004507836 -0.11188277 0.2580121
0000a0 75 41 1e bc 3b a7 77 3e f6 11 41 3e 22 55 21 3e
       -0.009659161 0.24184887 0.18854508 0.15755132
0000b0 f5 e7 37 3e cc 7c 36 be eb 16 4a be 2b eb c3 3c
       0.17959578 -0.17821044 -0.19735305 0.023915848
0000c0 7b 8c 9f 3e 25 f9 b3 3c 15 ca 93 be 2d 43 57 be
       0.31161866 0.021969387 -0.28865114 -0.2102172
0000d0 48 a8 19 be 7a 30 1f be ab 5b 8b be c8 35 8f bc
       -0.150056 -0.15545836 -0.27218375 -0.0174817
0000e0 89 07 c9 3d a2 19 1c 3e e1 96 25 3e 7a d2 71 be
       0.0981589 0.15244153 0.16170837 -0.23615447
0000f0 86 20 b2 3d 7c 7e 4f be 9e bc 9e 3d fd 49 d9 3e
       0.086976096 -0.20263094 0.077508196 0.4243926
000100 7b d5 ae bd e4 d9 a2 3d cc dd 8b be c7 f7 1d be
       -0.08536812 0.079517156 -0.27317655 -0.15426551
000110 2d f0 c0 3c ee c9 13 3e cf 64 cb 3c 7c 46 f5 be
       0.023552025 0.14432499 0.024828343 -0.47905338
000120 38 06 6d 3e 08 78 0c 3d da 03 9d 3e 4f 58 33 3e
       0.23146904 0.03429416 0.30667 0.17514156
000130 6f 58 aa 3d 49 43 20 3c 5f 21 9d be 46 5e 5d be
       0.083176486 0.009781667 -0.30689523 -0.21617994
000140 03 03 b7 bd c0 03 5e 3d d3 6a 8a 3e d1 65 63 3d
       -0.08936121 0.054202795 0.27034625 0.05551702
000150 be 36 51 3e 5f ef 58 be a3 72 5b 3d e4 de c0 3d
       0.20431039 -0.21185063 0.053576123 0.09417513
000160 ba 1b 9b bc 0d b4 d2 bd 9b e0 40 bd 38 05 26 be
       -0.01893412 -0.10288248 -0.0470892 -0.16212928
000170 41 ba 0e be 73 e4 d4 3e 2f 15 87 3c 77 25 a7 3e
       -0.13938238 0.41580543 0.016489593 0.3264577
000180 3e 36 c0 3d 82 1f 67 be d6 cf 02 3e a2 b1 c5 be
       0.09385346 -0.22570613 0.12774596 -0.38612086
000190 b8 a9 8c 3c c0 e3 de bd b7 ad 83 3d 8c 9c c7 bd
       0.017170772 -0.108832836 0.06429618 -0.09746656
0001a0 b0 67 94 be 6b 65 01 3e ae c0 13 be 53 cd 52 3e
       -0.28985357 0.12636344 -0.1442897 0.20586137
0001b0 bf 76 20 be 3a 8a 89 3e d3 54 a3 3c 23 6f 89 3e
       -0.15670298 0.2686327 0.019937908 0.26842603
0001c0 ca ce 16 3e d2 e7 88 3d ec 9e cb bc 6a 8a bc bd
       0.14727321 0.06684841 -0.024856053 -0.09206088
0001d0 e9 6d c9 be a9 ea 02 be 44 69 e7 bc 5b f6 1b be
       -0.39341667 -0.12784828 -0.028248437 -0.15230696
0001e0 01 24 bc 3d 8a c5 c4 3d bd c9 02 be 43 f6 31 be
       0.09186555 0.0960799 -0.1277227 -0.17379098
0001f0 59 a9 2f bc 18 03 06 3e 18 48 70 be 34 32 30 3e
       -0.010721528 0.13087118 -0.23465002 0.17206651
000200 38 fc 01 be 5f 83 0f 3e 6a 90 88 bd fc ed 78 3e
       -0.1269387 0.14014958 -0.0666817 0.24309534
000210 a6 7f 1f be f9 2a 4d 3e 2b 74 02 3e 97 f4 97 bd
       -0.15576038 0.20035924 0.12739627 -0.07419699
000220 ef 91 e5 bd 7f 26 14 3e 35 24 e7 be 30 75 21 3e
       -0.11209475 0.1446781 -0.4514481 0.1576736
000230 e8 b6 92 be 72 c3 bb 3e 3e 99 98 3a 39 6c 04 be
       -0.2865517 0.3667255 0.001164235 -0.12931909
000240 e1 b7 b8 3d 1f a6 c3 3d 66 aa c1 3d 4e 4a b8 3e
       0.09019447 0.095531695 0.09456329 0.3599419
000250 3e ed d3 bd 03 31 ed bd 28 b9 55 3e a2 67 e6 3d
       -0.10347985 -0.11581614 0.20871413 0.11250235
000260 4f 27 02 be 27 a8 44 3e a0 ba 65 bd aa fd 17 be
       -0.12710308 0.1920477 -0.056086183 -0.14842859
000270 c2 a0 da bd 09 ff 82 3e 25 85 c0 3d dc 81 8c 3c
       -0.10675193 0.255852 0.09400395 0.017151766
000280 27 e1 6a 3d 8c b9 82 3e b4 4e ee 3d 4e b6 af 3d
       0.05734363 0.25532186 0.11636105 0.08579694
000290 d1 bb 91 3b 3b 91 aa 3e 67 78 96 bd 83 fb e7 3d
       0.0044474383 0.33313927 -0.07347184 0.11327269
0002a0 2b 4b 0b 3f aa d6 72 3c 0d ea 41 bc cf 7c ad 3e
       0.5441157 0.014821688 -0.011835587 0.33884284
0002b0 44 15 f5 bd 21 f1 83 be 3e 62 a6 3e 8c 36 0a 3c
       -0.11966947 -0.25769904 0.32496828 0.008435857
0002c0 80 4c 11 be de d6 5d bd 67 8c 3a be a2 9e 87 3e
       -0.14189339 -0.05415999 -0.18217622 0.26488215
0002d0 75 4d 09 be a3 13 f3 3d 67 d6 e7 bb b1 26 19 3c
       -0.13408454 0.1186898 -0.0070751193 0.009347604
0002e0 56 78 93 3e ad f1 d0 3c fe 0b a4 3e 35 7c 1a be
       0.28802747 0.025505865 0.320404 -0.15086444
0002f0 b3 13 80 bd bd af 35 bb 63 cf f2 3d ef 90 48 be
       -0.06253757 -0.0027723156 0.11855962 -0.19586538
000300 56 00 c7 3e 91 d7 1d be 53 a0 a0 3d ca 4a f0 3c
       0.38867444 -0.15414263 0.078430794 0.029332537
000310 d2 cc d5 3d 53 e8 a4 3e 1c db 0f 3e 33 e5 e4 bc
       0.10439457 0.322085 0.14048427 -0.027941322
000320 bd 7b bf be ac 19 c3 be 74 61 e5 bc fb 7d f1 3d
       -0.37399092 -0.38105524 -0.02800057 0.11791607
000330 4c 77 c1 3e 39 27 f3 bd fb c3 98 3c 1d fa c2 bd
       0.3778633 -0.118727155 0.018648138 -0.095203616
000340 5e ca d5 3d 40 e4 d0 3c 2c 76 8c be a6 92 7f 3c
       0.10438989 0.025499463 -0.27433908 0.015598929
000350 d5 22 1c bd 99 4a ee 3d c9 30 1f 3e 97 8e b9 3d
       -0.038119156 0.11635322 0.15545954 0.090604
000360 01 5c ae bd c5 f6 88 3e 22 28 c7 bd fc 0e d1 3d
       -0.08513642 0.2675077 -0.097244516 0.10207936
000370 14 a3 1c 3e fd a4 55 be 09 b9 f7 3e 59 7e 04 3d
       0.15296584 -0.2086372 0.48383358 0.032347057
000380 c2 6b a6 bd 1a 03 ef bc b1 fc b4 3e bc 88 15 3e
       -0.08126022 -0.029176284 0.35349038 0.14602941
000390 0a 20 2a be 5e ac d3 be fe bc 80 3e 9d cd be be
       -0.16613784 -0.41342443 0.2514419 -0.37266245
0003a0 f9 fe c5 bd d3 42 34 be 96 5d 94 bc 94 78 5f 3e
       -0.09667773 -0.17603616 -0.018111032 0.2182334
0003b0 a3 3b d0 bb 9b b2 ea 3c 2b 3c 4d be 9e f0 57 3d
       -0.0063547655 0.028649619 -0.20042484 0.052719705
0003c0 c3 96 16 3e 3c b9 6a bd 3d 77 16 bd 0e e3 0e be
       0.14705949 -0.05730556 -0.03673481 -0.13953802
0003d0 40 84 50 be 9e 81 a2 bd 59 92 80 be 9b d9 25 3e
       -0.2036295 -0.07934879 -0.25111654 0.16196291
0003e0 d0 23 af 3d a8 bc 33 3e fc 52 e5 bd 6e 87 f4 3e
       0.085517526 0.17552435 -0.11197469 0.47759575
0003f0 48 6f 8b 3e 3d b8 0c bd 30 1d 89 be 47 94 56 3e
       0.27233338 -0.03435539 -0.2678008 0.20955001

linear_layer.0.bias f4 [100]
000000 a6 9c ad bc 16 a3 8f bd 4b 57 45 3e fc 96 07 bd
       -0.02119286 -0.07013528 0.19271581 -0.033102974
000010 68 a1 c4 3c 13 3b c6 bc 08 23 9f 3d 96 cd 07 3e
       0.024002746 -0.02419809 0.077703536 0.13262019
000020 69 16 41 be a5 0e 67 3d 4d 93 62 3d 13 f7 fc bd
       -0.18856205 0.05641045 0.05531626 -0.12351813
000030 72 b8 2f 3e 54 18 41 3e 6e 9c 36 3d d8 51 66 39
       0.17160204 0.18856937 0.044582777 0.00021964998
000040 c9 f6 0a be cd b3 91 3c dc 9f d4 bc 90 d4 55 bb
       -0.13570704 0.017785931 -0.025955133 -0.0032627918
000050 59 4f e9 bd 0b f9 89 bd a3 df 39 bd 45 d2 aa 3c
       -0.113920875 -0.06736954 -0.045379292 0.020852217
000060 3a e4 33 3d d6 45 20 3e e6 d3 d0 3d e3 94 0c bd
       0.043918826 0.1565164 0.101966664 -0.034321677
000070 71 a9 58 3d 44 3a e4 bd 62 b2 8d bd c2 03 7a bc
       0.052895967 -0.11143926 -0.069187894 -0.015259685
000080 f3 52 e5 3d b2 ce cb bd bf 27 a4 bd e1 78 82 3d
       0.11197462 -0.099515334 -0.080153935 0.06370712
000090 c0 77 dc bc ec 06 23 be 87 61 1f 3e 28 f1 1e 3e
       -0.02691257 -0.15920609 0.15564547 0.15521681
0000a0 d7 9d b7 3d 3d ed 49 bd d3 22 96 3d 93 ce 8d be
       0.089656524 -0.049298514 0.07330861 -0.27696666
0000b0 0e e4 a2 3c d5 73 e7 bd 13 d6 03 be 9a 81 92 3c
       0.019884136 -0.1130139 -0.12874632 0.017884064
0000c0 d8 4b b5 bd 8c 2f 30 be 72 31 55 3e cd 0d 9f 3d
       -0.08852357 -0.17205638 0.20819643 0.07766304
0000d0 6d a0 8a bb 91 49 70 be 73 83 c6 3d 0a 81 e0 3d
       -0.00423055 -0.23465563 0.09693041 0.10962112
0000e0 d9 8d f6 3c e2 63 21 bc f9 fe c7 bb 73 76 1c 3c
       0.030096935 -0.009850474 -0.006103393 0.009549725
0000f0 77 ce e2 bd bd 0c 9b bc 42 cb 94 3b cc 27 22 3e
       -0.11074536 -0.018926973 0.004540832 0.15835494
000100 61 55 02 be 55 39 ab 3d c2 da 4b be 64 17 96 3a
       -0.12727882 0.083605446 -0.19907668 0.0011451063
000110 c8 63 ab bd 87 7a c7 3d 60 25 30 3e 4e 2a b5 bd
       -0.08368641 0.09740167 0.17201757 -0.088459596
000120 df 62 c9 bd f5 3b 4d 3e 59 63 66 bc 90 c4 e8 3c
       -0.09833311 0.20042403 -0.014061772 0.02841404
000130 df 4c 81 3c 4f c5 a0 3d 7b f6 e5 bd 4b 98 e9 bc
       0.015783725 0.07850134 -0.11228653 -0.028515002
000140 d3 4e 1d 3e 08 73 ff 3d 15 87 5f bd f5 f2 5d 3c
       0.153621 0.12473112 -0.054572184 0.013546695
000150 9f f2 07 3d d4 02 33 3d 3f 94 f1 3d 4c d5 18 3e
       0.033190366 0.04370387 0.11795854 0.14925116
000160 7f 58 dc bd 9c 5b cf bd ad 50 0a be 4b 24 46 be
       -0.10759067 -0.10124895 -0.13507338 -0.19349782
000170 ed a7 8e bd f3 d1 02 3e cd 33 0f bd 39 79 2b 3d
       -0.06965623 0.12775402 -0.03496151 0.041863654
000180 82 52 72 3e ee 81 71 3d 8b b3 98 bd ba e5 58 3d
       0.23664287 0.0589618 -0.0745612 0.05295346

linear_layer.1.weight f4 [100, 100]
000000 f2 aa 67 3d f8 98 1a 3e 1a 5e 84 bd 97 7c ba bc
       0.05655951 0.15097415 -0.06463261 -0.022764487
000010 18 0c 7f bc 41 29 88 3b 74 04 cd 3d 66 e1 6a 3d
       -0.015566848 0.0041553085 0.10010615 0.057343863
000020 d4 e1 19 3e 34 65 1b be 1c a7 a2 bd 84 be 26 3c
       0.15027553 -0.15175325 -0.0794203 0.010177258
000030 c6 e5 72 be 60 56 90 bd 23 a9 88 3d 57 a7 8a 3d
       -0.23720464 -0.07047725 0.06672885 0.06770199
000040 23 64 62 be 93 9e 1d be a2 ca 53 3e b0 77 4e 3b
       -0.22108512 -0.15392523 0.20682767 0.0031504445
000050 44 b3 b9 bd 14 d9 e1 3d f4 92 0c 3d 09 6e 1d 3e
       -0.09067395 0.110277325 0.034319833 0.15374006
000060 a2 26 8b bd f0 cb a4 3b a9 e9 af bd 38 e3 5a bc
       -0.06794478 0.005029194 -0.08589489 -0.013359837
000070 00 e8 71 be 8c bd b9 bd 9c f9 59 bc 5f cc e2 ba
       -0.23623657 -0.09069356 -0.01330414 -0.0017303339
000080 b6 e6 2d bd ca 77 67 3e 3c 34 aa bd 89 df 81 bd
       -0.04245635 0.2260429 -0.08310744 -0.06341464
000090 82 7d ba bd 11 87 38 bc 10 d4 04 3e 85 c2 11 be
       -0.0910597 -0.011262671 0.1297152 -0.1423436
0000a0 15 44 54 3d 97 41 1f 3e 0a ff 0d be 5c 36 68 bd
       0.05182274 0.15552364 -0.13866821 -0.056692466
0000b0 49 69 0b 3b 22 78 0c bd 28 37 66 3d 2e f6 fd 3c
       0.0021272472 -0.034294255 0.056204945 0.031001177
0000c0 85 31 0c 3b f1 55 fb 3d 07 d9 4a bc 8a 58 91 be
       0.002139182 0.122722514 -0.012380845 -0.28387862
0000d0 bc a0 ed 3d 91 51 bd 3d da ae 07 bd 85 37 5e be
       0.11602923 0.09244073 -0.033125736 -0.21700867
0000e0 f8 bb 0c be ee ea 9c bd 5a ff 23 3e a8 a1 2d 3e
       -0.1374358 -0.07661997 0.16015378 0.16956198
0000f0 e9 8b 5d 3c 5a 9a 82 3d e1 2d 2e bc 66 e7 23 be
       0.013522127 0.063770965 -0.010631056 -0.1600624
000100 ca ca c2 bc cf 01 3b 3e 59 6c 68 bc 6a 17 53 3d
       -0.023778338 0.18262409 -0.014185988 0.051536
000110 07 15 c6 3c dc bd b4 bd 0d 45 31 3c ac 6e ca 3d
       0.024179948 -0.08825275 0.010819686 0.0988439
000120 96 a6 94 bd 4a ec 2c 3d 54 0a 7c be a4 7e f6 3c
       -0.07258336 0.04221753 -0.24613315 0.030089684
000130 c7 a7 20 bd d6 cf 02 3c 7e d3 32 be 54 a1 f0 bd
       -0.039222505 0.007984122 -0.1746349 -0.11749521
000140 e2 b3 03 bd 62 2f 55 bc 97 d4 cf bc 41 c9 cc bd
       -0.03215397 -0.013011785 -0.025369925 -0.09999324
000150 86 c3 74 3d a3 50 01 3e 59 36 e8 bc 09 5d 9c bd
       0.05975678 0.12628417 -0.028346227 -0.076349325
000160 47 37 bf 3d 4c 0c f8 3d 4f 3e d2 bb 4d 9f 08 3e
       0.09336715 0.121117204 -0.006416119 0.13342018
000170 3d 36 b3 bd af ef 84 bd b5 02 0a bc 47 fb d6 bd
       -0.087505795 -0.064910285 -0.008423497 -0.10497146
000180 c4 f6 7e bd 4a d2 98 bc 21 fd 05 be 21 79 a1 bd
       -0.062247053 -0.018654961 -0.13084842 -0.07884432
000190 1e 2d 47 3d 9d ab 5f 3e c7 1c db bc 62 2b 7c 3d
       0.04862701 0.21842809 -0.02674712 0.06156481
0001a0 b1 cd 66 bd a1 c4 2c be f5 ff 08 3e 1e b4 8f be
       -0.056348506 -0.16871883 0.1337889 -0.28067106
0001b0 7d 70 45 bd b2 19 93 bd 7a eb 88 bd ff e2 1f 3d
       -0.04820298 -0.07182635 -0.066855386 0.03903484
0001c0 30 8c dc 3d dd b2 f3 3d 52 aa 23 3e 60 2f 19 be
       0.10768926 0.1189935 0.15982941 -0.14959478
0001d0 a6 6d 2a bd 53 b7 92 be c9 77 55 3c ba 17 42 3e
       -0.041608475 -0.2865549 0.013029047 0.18954363
0001e0 56 99 e5 bd f5 71 b6 bc eb 8e f0 3c 0e c1 f3 3d
       -0.11210887 -0.022271136 0.029365024 0.11902057
0001f0 6c ba 41 3e f6 80 a1 3d 93 c8 bc bd 49 75 f6 3d
       0.1891877 0.078859255 -0.09217944 0.12034089
000200 7a a4 fc bd be cf a3 bd 79 9b 8d bd e6 b9 d0 bd
       -0.12336059 -0.07998608 -0.0691442 -0.10191707
000210 5e 5f 32 3e 8b fc e6 bd 75 79 dc bd 61 db 12 3d
       0.17419192 -0.112786375 -0.107653536 0.035853747
000220 60 35 41 3e 6a 9a 9c 3c 9b 49 06 bd 02 1d b0 bd
       0.18868017 0.0191166 -0.03278504 -0.08599283
000230 5e b8 4e 3e 84 bc ca bd 79 72 00 3e 72 ac 34 be
       0.20187518 -0.09899238 0.12543668 -0.17643908
000240 ae 91 4d 3e 68 2d 6b be 23 24 8a be 2a 3c 87 bd
       0.20075104 -0.2296654 -0.26980695 -0.06603272
000250 2c e3 21 3d f3 7c bd bd 7a f6 91 bc f5 21 10 bd
       0.03952329 -0.09252348 -0.017817724 -0.035188634
000260 da 8e b3 3d 10 22 2b be ef 07 2c bd 87 b0 c3 3d
       0.08767481 -0.16712213 -0.041999754 0.09555154
000270 03 49 d4 3c 8d ab 99 bd c8 ab f5 bd d4 33 2d bd
       0.025913721 -0.07503424 -0.11995655 -0.042285755
000280 99 82 09 3e 3a 7f b5 bd cd 73 a5 bc b5 f6 67 3d
       0.13428725 -0.08862157 -0.02019682 0.056631763
000290 de 62 0e be 7f 53 18 3e 39 24 17 bd 8d c6 3b be
       -0.13904902 0.14875601 -0.03689978 -0.1833746
0002a0 d7 6f bf be c5 7b 6d 3e 85 03 a5 bc 63 3b a2 3d
       -0.37390015 0.23191746 -0.02014328 0.07921483
0002b0 85 9f 3f 3d 01 77 09 3e 05 63 e6 3d 12 9a 3f 3e
       0.04678299 0.13424303 0.11249355 0.18711117
0002c0 94 3a f2 3b 00 11 a8 bb 98 14 e3 bd 71 81 48 3d
       0.007392237 -0.0051289797 -0.11087912 0.04895157
0002d0 39 8d 4f 3e 8f 50 52 be 13 fc 24 bd b4 ad a6 3d
       0.20268716 -0.20538543 -0.04027946 0.081386
0002e0 1f 4c 7e 3c af f7 9d bd 46 e6 02 3d 12 19 1d 3d
       0.015521078 -0.077132575 0.031957887 0.038353987
0002f0 a7 60 5e 3c b6 5f 08 be 0f 93 a8 3d be e5 00 be
       0.013572848 -0.13317761 0.08231174 -0.1258764
000300 97 af f8 3c e0 0c c6 bd 0b 39 fa 3d 83 48 06 be
       0.030357165 -0.096704245 0.12217911 -0.13113599
000310 f7 94 23 3e f9 71 10 3e 2b 02 ef bd 25 26 4c 3e
       0.15974794 0.14105977 -0.116703354 0.19936426
000320 7f 8b e4 bd 82 65 4c bd 77 9d d7 3d fe 48 86 bd
       -0.11159419 -0.049901493 0.10528081 -0.06556891
000330 9a 87 03 be ed 5b 45 3d ad fd 06 bd 4d 18 1b 3e
       -0.12844697 0.04818337 -0.032956768 0.15145989
000340 1c 68 42 be 0a ec df bc 8f de ae 3d 74 0f 17 3d
       -0.18985027 -0.027334232 0.085385434 0.03687997
000350 91 77 d1 bd 3e 24 21 3c 9e 10 ed 3c 27 d6 f3 bc
       -0.102278836 0.009835301 0.028938588 -0.029765202
000360 5c 9e 92 bc e2 03 00 3e f6 72 28 be 05 d2 2b be
       -0.017897777 0.12501481 -0.16450104 -0.16779335
000370 6c 49 9b 3d f1 54 9c 3d ac 85 1b 3d c8 e5 09 be
       0.075823635 0.07633389 0.037969276 -0.13466561
000380 db 95 23 be 3b ec 2a be 2f 9c 3a 3d ad e7 9c 3d
       -0.15975134 -0.16691677 0.045559105 0.07661376
000390 24 23 22 bd a1 db cc 3d a4 0d 01 be 3b 78 9a bd
       -0.039584294 0.100028284 -0.1260286 -0.075424634
0003a0 84 38 07 3d aa de 03 3c 03 6b 8c 3c 60 73 e7 3b
       0.033012882 0.008048693 0.01714087 0.0070633143
0003b0 cb 0c d4 bd 1b f5 ad bd 43 ac 86 bd 35 7a 8d 3c
       -0.103540026 -0.08494016 -0.06575825 0.017270187
0003c0 11 25 6b 3e 10 67 4b 3e 99 d5 b1 bc 76 4c 0d 3e
       0.22963358 0.19863534 -0.021708297 0.13798699
0003d0 c6 24 00 be f7 27 15 3e 0e fb e5 3d ce 17 0a be
       -0.12514028 0.14566027 0.112295255 -0.13485643
0003e0 4f 83 8c bd cb 96 bb bd 02 9c 47 3d f4 4c f2 3b
       -0.068609826 -0.09159621 0.048732765 0.0073944274
0003f0 2b 11 3f bd a3 1e 83 bd a3 6f 17 be 69 81 05 bd
       -0.046647232 -0.06402328 -0.1478868 -0.03259412

linear_layer.1.bias f4 [100]
000000 94 c6 98 bd 51 69 a5 3d 57 41 ca bc ed 7b 34 3e
       -0.07459751 0.08076728 -0.02468936 0.17625399
000010 1e 8a a6 bc 2b de 7a bd d9 b9 e6 bd 76 f7 f8 3d
       -0.020329531 -0.061247032 -0.112659164 0.121565744
000020 0b 87 dd bd b2 4e 8b 3d f6 ad a1 bd 63 10 a9 bc
       -0.10816773 0.06802119 -0.078945085 -0.020637697
000030 2e 5a 03 3e db 98 c0 3d 51 b0 8c bd 3b 9c 96 bd
       0.1282737 0.09404155 -0.06869567 -0.07354017
000040 1d ce 08 ba 64 e0 f7 3d 65 5f 95 3c 79 78 69 bd
       -0.00052187016 0.12103346 0.018233964 -0.056999657
000050 95 33 4a bd 6e 7c 38 3d ea ee ee bc 9d 2e 99 3d
       -0.0493656 0.04504054 -0.029166657 0.07479594
000060 4b 03 e9 3d e9 99 e1 3c a7 66 14 3e 23 ca 54 bd
       0.11377581 0.02753921 0.14492284 -0.051950585
000070 61 65 b8 bd b4 90 89 bd 5b 15 5d be d8 8c bb 3d
       -0.090037115 -0.06717053 -0.21590178 0.09157723
000080 06 52 a7 3b 3d 7b 99 bd db c3 89 bd 7a 8d 84 3d
       0.0051062135 -0.07494209 -0.067268096 0.06472297
000090 e1 0a 01 3e c8 fc fa bd d9 4e 3b 3c f7 2f a7 bc
       0.12601806 -0.122552454 0.011432373 -0.020408614
0000a0 09 f7 e0 bd 4d bc ef bd 6e 84 02 3d 3f 01 1d 3e
       -0.10984618 -0.117058374 0.031864576 0.15332507
0000b0 32 b8 8b bd a0 16 36 3c c3 88 89 3a e9 72 f9 bd
       -0.06822242 0.011113793 0.0010493029 -0.121801205
0000c0 50 3f 4e 3d b9 d3 d1 bd d4 75 3c bd fc 80 0e bc
       0.05035335 -0.10245461 -0.046010807 -0.008697744
0000d0 b9 24 22 bb b8 eb e6 bd 01 a0 4c 3c b2 69 d3 3c
       -0.0024741127 -0.112754285 0.01248932 0.025807235
0000e0 a6 a1 04 3e 00 6f a6 bd 46 34 4b bb 10 bb 02 3d
       0.12952289 -0.0812664 -0.00310065 0.031916678
0000f0 fa b5 ea bd da 45 c4 bb d3 fb 0c 3d 27 b0 24 3e
       -0.114604905 -0.0059897723 0.034419846 0.16082822
000100 e8 a8 0e 3d a6 01 19 3d cc ae cc bd 4b 24 ae 3c
       0.03482905 0.037355088 -0.09994277 0.02125754
000110 3a 06 88 3b 6c ce 25 be ca cc b9 bd fd 06 fd 3b
       0.004151133 -0.16192025 -0.090722635 0.0077217803
000120 b5 be 2c bd 0d 82 0d bd 87 8f 90 3d 9b 56 15 3c
       -0.04217406 -0.034547854 0.07058626 0.009114887
000130 45 71 9f 3d d5 6e f5 bd 33 a5 71 3d 4c 75 4f bd
       0.07785276 -0.1198403 0.058995437 -0.050648972
000140 3d 2f 0b be 3c e5 8b bd 65 76 f3 3c 92 de f2 bc
       -0.13592239 -0.06830832 0.02971954 -0.029647145
000150 03 47 ba 3d 9b 98 31 3b 10 eb 85 bb fc 1f 68 3d
       0.09095576 0.0027099017 -0.0040868595 0.056671128
000160 dc 67 1b 3e 5f d4 dc bc 50 d1 ac bd f4 f5 1d be
       0.15176338 -0.026956735 -0.08438361 -0.15425855
000170 2e c2 b8 3d 47 f3 df 3c 6b 61 43 3d 0c f9 1b 3d
       0.09021412 0.027337683 0.047700327 0.038079306
000180 95 b5 83 3d 2c f7 83 bb c8 c5 37 bc 75 40 af 3d
       0.064311184 -0.004027268 -0.011216588 0.08557216

linear_layer.2.weight f4 [100, 100]
000000 ae 3d 5a bd de ca c9 3c 57 24 8b 3d b8 7f 76 be
       -0.05328148 0.024632867 0.06794041 -0.24072158
000010 fa 79 b9 3d bc d4 27 bd 1b 26 83 3d d7 9e b0 bd
       0.09056468 -0.040974364 0.064037524 -0.08624046
000020 8c b2 c6 3d 92 c9 55 bd 7e 91 2c bd c2 db 17 3d
       0.09702024 -0.052194186 -0.04213094 0.03707481
000030 59 29 7f bd 53 68 be bd 9d 9a d2 3c 89 34 0d be
       -0.06229529 -0.09297242 0.025708491 -0.13789572
000040 53 49 43 3d 5b 5d ac bd 92 68 14 bd 4c 39 05 3e
       0.04767735 -0.08416244 -0.03623254 0.13010138
000050 8b c0 d4 3c ab df 3f 3d 7b 50 7d bd 28 c1 98 bd
       0.025970718 0.046844166 -0.06184433 -0.07458717
000060 31 5b 06 be b0 9c 14 3b db ac 61 be 14 41 92 bc
       -0.13120724 0.00226764 -0.22038595 -0.017853297
000070 8c 7c b8 3c 93 87 8f ba 1b 0c 50 3d 36 95 3a bd
       0.022520326 -0.0010950438 0.050792795 -0.045552455
000080 1d f5 40 3c c6 8f a4 3b 7d f7 85 3d 71 90 11 bc
       0.01177719 0.005022022 0.06541345 -0.008884535
000090 d4 be d5 bc 4e 3b 96 3e 14 83 dc 3c fa 1f 87 bd
       -0.02609197 0.2934212 0.026917972 -0.06597896
0000a0 e5 f7 11 3e a4 dd 2a 3e 17 44 9c 3d 0b 31 4a 3c
       0.1425472 0.16686112 0.076301746 0.012340794
0000b0 e3 98 fc 3d c3 05 9f bc 5e 22 f2 3d 17 b4 3f 3d
       0.12333848 -0.019411927 0.11822961 0.046802606
0000c0 5c 92 21 be d3 77 f0 3d 46 98 21 3c 95 92 7c 3d
       -0.15778488 0.11741605 0.009862965 0.06166323
0000d0 5d ff 09 be 76 f2 2f 3d 3a 7b f0 bd 6c eb 15 bd
       -0.1347632 0.04295584 -0.117422536 -0.03660147
0000e0 bc 26 ac be 37 86 64 3d e4 1d bb 3d 0a b8 3d 3c
       -0.33623302 0.05579206 0.091365606 0.011579523
0000f0 eb 96 fa bc 4a a9 03 3b 52 de db bc 75 21 cc bc
       -0.030589541 0.0020089918 -0.026839409 -0.024918297
000100 63 31 17 3d 59 36 fe 3d 4b 9c 76 3d e6 4a 6f bd
       0.036912333 0.1241271 0.060207646 -0.058421038
000110 a5 55 b3 3d 39 66 f1 3c d5 38 7b 3e 96 eb 81 3e
       0.0875657 0.029467689 0.24533398 0.2537505
000120 8e e1 88 3c 67 6d ff bd 4b 7b 4b be cc e3 e1 3c
       0.016709115 -0.12472039 -0.19871251 0.027574442
000130 4b 01 14 bd 7b 28 9e bc a8 ef 9c bd df e3 cd 3d
       -0.036134046 -0.019306412 -0.07662898 0.100532286
000140 fd 31 b3 bd d6 09 69 3d ec d8 e2 bb 6e 9a d9 3d
       -0.08749769 0.056894146 -0.0069228318 0.10625158
000150 39 5c 70 3e 24 6a 09 be ea 90 25 3e 32 41 8b be
       0.2347268 -0.13419396 0.16168562 -0.27198178
000160 3c cf 97 bd 10 25 e4 bd c6 d1 47 3d 54 89 13 3e
       -0.07412574 -0.111398816 0.04878404 0.14407855
000170 ca 97 37 ba 33 16 ef bd a6 1c 0e bd ec b6 e6 bc
       -0.00070035143 -0.11674156 -0.03469529 -0.028163396
000180 54 e4 90 bd 0a a3 a3 3c d9 d5 4b 3c ce 6e 64 3d
       -0.070748 0.019975204 0.012441122 0.055769734
000190 41 3a 75 bc e4 bf be 3c 5d 02 4a bd 78 46 a8 be
       -0.014967502 0.02328486 -0.04931866 -0.32866263
0001a0 5a 59 e1 3b 56 19 9a 3d f1 af 93 3d b8 99 86 be
       0.0068771066 0.07524364 0.072112925 -0.26289153
0001b0 c7 72 44 3d 82 17 10 be 4b 00 e5 3d 88 1a 02 be
       0.047961023 -0.14071468 0.111816965 -0.12705433
0001c0 b6 ee 97 bd 50 1d 99 be 66 e2 b4 bd 53 5b 12 3d
       -0.074185774 -0.29905176 -0.088322446 0.035731625
0001d0 ef c0 a9 bb 9b a4 ce bd 20 46 aa 3d c1 1b 70 3d
       -0.00518047 -0.1008999 0.083141565 0.05862022
0001e0 a8 9d e6 3d d8 78 0f 3e 7f 3e 38 bc b9 6b 99 bd
       0.11260539 0.14010942 -0.011245369 -0.074912496
0001f0 dc 79 38 3d 24 36 5d 3d e5 fe 87 be 14 08 bf 3d
       0.04503809 0.05400671 -0.26561657 0.09327713
000200 ca 02 a5 3d 04 3c 64 3c 90 2c f5 3d 4e 55 51 be
       0.080571726 0.013930324 0.1197139 -0.20442697
000210 87 16 8d 3e a8 9a d6 3d c7 9f 32 bd 50 6d a6 bd
       0.2755625 0.10478717 -0.043609407 -0.081263185
000220 e9 fe 22 bb a2 1a a7 3d f4 97 75 3e c5 d6 df b9
       -0.0024871177 0.08159377 0.23983747 -0.0004269389
000230 ee 18 40 3e 79 92 ef bb 98 0a 18 3e 61 a8 95 3c
       0.1875951 -0.007311162 0.14847791 0.018268766
000240 eb d9 00 3e fe 4e 38 3e b7 3b 33 be 8d 60 6f 3d
       0.12583129 0.17998883 -0.17503248 0.058441687
000250 a2 ad 61 be ec 4a a1 3d 83 c3 c6 bc 6b 17 2a be
       -0.22038892 0.07875618 -0.02426315 -0.16610496
000260 de 88 b2 3d e8 15 a9 3d d2 63 62 3e 67 4f 1b 3e
       0.087175116 0.082561314 0.22108391 0.15167008
000270 e5 c7 aa bd 33 87 87 3c b5 e3 80 bd eb b5 95 bd
       -0.08338908 0.01654396 -0.06293432 -0.07310089
000280 16 e7 43 3d 27 ed 16 3e b0 55 43 3e 13 ae ee bc
       0.047827803 0.14738904 0.19075656 -0.02913574
000290 32 78 7b be 33 66 79 bd e9 b1 16 3c 4f c8 ae 3c
       -0.2455757 -0.06088848 0.0091976905 0.021335749
0002a0 8c b7 7b 3c 05 29 29 3d 3d cd 88 bc 10 da 92 3d
       0.015363585 0.041298885 -0.016699428 0.07170498
0002b0 b1 06 8f 3c c7 61 01 be aa dc 93 ba 82 91 a3 bd
       0.017459245 -0.12634955 -0.0011280973 -0.07986738
0002c0 d7 f2 36 bb 25 49 e7 3d a2 a2 d7 3b 8a cd c4 3d
       -0.002791574 0.11293248 0.0065806666 0.09609516
0002d0 f0 bf a0 3c 2d e8 b1 bd 1b dc 02 be 91 f5 1a be
       0.019622773 -0.08686862 -0.12779276 -0.15132739
0002e0 fe 4b 3d bd 8c 86 08 3e 9b 35 6f 3d d4 0f f5 bd
       -0.04621505 0.13332576 0.05840073 -0.119659096
0002f0 af 6f ae bc 06 07 86 bd d8 0a 54 3d c4 ed d2 3d
       -0.02129349 -0.06544308 0.051768154 0.102992564
000300 96 59 50 3d 50 16 0a be c0 34 95 ba 3e 6a c8 bd
       0.050866686 -0.13485074 -0.0011383519 -0.09785889
000310 79 6d 6e 3d 6c 03 23 3d 17 c1 87 3c 4c f2 36 bd
       0.05820987 0.039798185 0.016571565 -0.044664666
000320 0b d1 d6 bc d1 19 c2 bd d9 a4 f8 bc cd 09 5a 3d
       -0.026222726 -0.0947758 -0.030352043 0.053232003
000330 fd 04 1d 3e c8 b1 af bd 22 6b a3 3d 44 56 07 3d
       0.15333934 -0.08578831 0.07979418 0.033041254
000340 2a 88 6b bd b7 e2 4c 3e e6 d6 22 be 20 0e 06 be
       -0.057502903 0.2000836 -0.1590229 -0.13091326
000350 f8 bb c4 bd f8 8a 28 be f3 cc 20 bd 1f 9f 85 3d
       -0.09606165 -0.16459262 -0.039257955 0.065244906
000360 56 2f 3b 3e 7b 0a d1 3d 7c 2d 28 be 94 24 f3 bb
       0.18279776 0.10207077 -0.16423601 -0.007420132
000370 29 8a 08 be 45 49 f0 3d 13 83 81 be 0f 69 a0 3d
       -0.13333954 0.11732725 -0.25295314 0.07832538
000380 03 a2 e1 bd 52 78 a7 bd b6 c4 ef 3d bb 13 81 3c
       -0.110172294 -0.08177246 0.117074415 0.015756479
000390 1d 4b 23 be 9e e8 6a 3d 63 20 0b be 66 db c2 3d
       -0.15946622 0.057350747 -0.13586573 0.09514503
0003a0 98 a1 ae bd 27 11 17 3d b1 99 49 bd 66 e4 00 3e
       -0.08526915 0.036881592 -0.049218837 0.12587127
0003b0 f0 51 83 bd 0a a8 37 be e9 54 83 bc f8 c5 8c 3d
       -0.06412113 -0.17935196 -0.0160317 0.06873697
0003c0 96 a7 12 be d4 7d 4e 3c 30 53 ed bd a2 9a 5a 3b
       -0.14321741 0.012603242 -0.115881324 0.0033356328
0003d0 b4 99 63 3c e4 79 c1 bd 3b 5a fe b9 c0 f4 38 3c
       0.013891626 -0.09447077 -0.00048513882 0.011288822
0003e0 73 0e d3 bc cb dd 1b bd 49 fd 0f be a2 79 7a 3d
       -0.025763726 -0.038053315 -0.14061464 0.061151154
0003f0 44 e5 de bd ad 15 08 3d c7 04 ba 3c 1a e2 91 3c
       -0.10883573 0.033223797 0.022707356 0.017808009

linear_layer.2.bias f4 [100]
000000 b9 fa 81 bd 75 86 5d bd bd 2f 8f 3c 7f e4 dd 3c
       -0.0634665 -0.054083306 0.017478818 0.027086494
000010 60 7f a6 3c b5 c0 2f 3d 91 bf 6b 3d c6 b4 a2 bb
       0.020324409 0.04290839 0.05755574 -0.0049653975
000020 dd df 38 bc 6d e8 09 3d 12 8d 0e bd c5 96 7b bd
       -0.011283842 0.033668924 -0.034802504 -0.061423082
000030 a8 93 c5 bd df 24 25 3e 70 c7 8a bc 0a e7 b0 bc
       -0.09647304 0.16127346 -0.016940802 -0.021594543
000040 57 c2 8f bd 2e 88 02 3e 37 4a 63 3c c2 ff f0 bc
       -0.07019489 0.12747261 0.013872675 -0.02941883
000050 9d e1 f5 bd 89 6f 41 bd 04 e8 5b 3c 76 32 ad 3d
       -0.12005923 -0.04722551 0.013422016 0.0845689
000060 52 da 04 3d 31 d4 71 bd b7 70 43 bd c0 33 8c bd
       0.03243477 -0.059040252 -0.047714915 -0.06845808
000070 b1 83 87 3d 67 38 8a bd f8 1e d9 bd b5 53 1c bd
       0.06616915 -0.06749039 -0.1060161 -0.038165767
000080 50 2e f8 3c 99 d4 5c 3d 37 da 95 bc bf b7 9c bd
       0.030295521 0.053913686 -0.01829253 -0.07652234
000090 39 b2 f0 bc a6 7a 68 bd 17 68 ff bc 20 eb 06 bd
       -0.029381858 -0.05675759 -0.031177564 -0.032939076
0000a0 7b dc 41 bd ee 31 c7 bd 7f 53 05 bd 38 3a 07 3d
       -0.047329407 -0.0972632 -0.03255033 0.033014506
0000b0 07 7d 60 3c 38 d9 ca 3c c8 7c 08 3d 59 06 99 3b
       0.013701684 0.024761781 0.033322126 0.004669946
0000c0 07 fe 65 bd d6 2c 04 3c 67 53 b5 bc 6a 9a 3b 3b
       -0.056150462 0.00806733 -0.022134496 0.0028625974
0000d0 f3 1d a3 3d 58 01 c2 3d 95 35 6c 3d f9 95 76 be
       0.07964697 0.094729125 0.057668287 -0.24080648
0000e0 91 79 7c bd 2f 3b 98 bc 30 3b 1f 3c 47 b1 5a bd
       -0.061639372 -0.018582908 0.009718701 -0.05339172
0000f0 06 94 11 3e 34 0f 3e 3d 4f d6 16 3e eb 2f f7 3c
       0.14216623 0.046401218 0.1473019 0.030174216
000100 88 1c 2d bd 50 ca cc bc 53 bd 81 bd 02 27 f7 3b
       -0.042263538 -0.024998814 -0.06334939 0.007542492
000110 98 50 45 be 45 71 4e 3c 49 41 6d 3c 12 df e8 3c
       -0.19269025 0.012600248 0.014480897 0.02842668
000120 8d f0 17 3c 80 fe 1b bc 4a 66 dc bc 62 d7 6d bd
       0.00927366 -0.009521127 -0.026904244 -0.058066733
000130 40 af 78 bc 74 5a 12 3c 6b eb e3 3c 4f 30 b1 bd
       -0.015178502 0.0089326985 0.027822217 -0.08651792
000140 10 c4 88 bd c4 a1 9f bc 62 52 ca bd 0d 26 26 bd
       -0.06678021 -0.019486316 -0.098789945 -0.04056363
000150 ba 50 30 3d e4 e3 55 3d 2a b2 82 3c 8a 82 40 3e
       0.043045737 0.052219287 0.015954096 0.18799797
000160 e1 a1 13 bd 66 f8 d3 bb bf 81 95 3c 4b 15 31 3d
       -0.03604305 -0.0064688204 0.018250344 0.043233197
000170 e5 16 80 bc 62 3e 81 be b9 a6 e4 3b bb e4 95 bd
       -0.015635917 -0.25242907 0.0069778827 -0.073190175
000180 68 bc 26 bd c7 c2 4a 3c 2f aa 79 bd 68 5c b0 bc
       -0.040707022 0.01237554 -0.060953315 -0.021528438

linear_layer.3.weight f4 [100, 100]
000000 17 26 29 be 89 00 d3 3d 96 a7 49 bd f6 d8 24 3e
       -0.16518436 0.103028364 -0.049232088 0.16098389
000010 98 40 69 bb f7 6d b9 bc 58 ed 75 3d 9b 0c 58 3d
       -0.003559148 -0.022635443 0.0600408 0.052746397
000020 6f 6c ce bd b6 56 cb bd ce f9 5e be 6e b6 9a 3d
       -0.10079276 -0.09928648 -0.2177498 0.07554327
000030 83 26 14 be a7 52 0b 3f bc 36 76 bd 2e b9 11 3d
       -0.14467816 0.5442299 -0.060110793 0.03557699
000040 a9 cf 81 be 76 6e 16 3e 15 23 bf bd f8 26 93 3c
       -0.25353745 0.14690575 -0.09332863 0.017962918
000050 05 77 c3 be 52 0f fa bd 91 f9 01 bd 80 85 10 3e
       -0.38176742 -0.12209953 -0.031732146 0.14113426
000060 01 2d ae 3b 69 36 94 3d d1 1d 81 bc 4d 55 92 bd
       0.0053154235 0.072369404 -0.015761288 -0.07145176
000070 d7 9c 5f 3e 8c 8f 46 bc cf 4c 1d be bb a3 05 be
       0.21837173 -0.012119185 -0.15361331 -0.1305074
000080 e3 03 fe bd f5 b4 0b bd 14 2e 85 bd 3f 4c 8c bc
       -0.12403085 -0.03410812 -0.06502929 -0.0171262
000090 ba 86 9c be 8a b0 54 be e7 91 65 be c3 a3 ee bd
       -0.30571538 -0.2077047 -0.22418939 -0.11652329
0000a0 15 f7 06 3e cd 5a 50 be 1a a5 23 be 9e d2 12 3e
       0.13180192 -0.20347138 -0.1598095 0.14338157
0000b0 3d 94 21 3d cc 88 94 bc b4 85 5c 3d b8 7d 2e 3e
       0.03944801 -0.018131636 0.053838447 0.17040145
0000c0 16 ad 86 be 38 ab e2 3d d7 00 f5 3d 6a 8c 7c bd
       -0.2630393 0.11067814 0.11963051 -0.061657347
0000d0 bb e9 de bc ac 89 95 3e 9f 56 7a 3e f6 67 55 3b
       -0.02721106 0.29206598 0.24447106 0.0032563186
0000e0 d6 40 b4 3d 8e 62 24 be 4d 66 20 be e0 a9 06 be
       0.08801429 -0.1605322 -0.15664025 -0.1315074
0000f0 64 bd 3c 3c 67 aa 08 be c4 01 90 3e af 8c be bd
       0.011519764 -0.13346253 0.28126347 -0.09304177
000100 ee ff c9 3d b0 07 4d 3c a3 23 3c 3d e4 87 7f bc
       0.09863268 0.01251404 0.045932423 -0.015596364
000110 f1 2c d1 3d 9b b1 9a bc b2 72 43 3e 3f 42 3b bd
       0.1021365 -0.018883517 0.19086722 -0.045717474
000120 00 5b cb 3d ba 5d cd bc c8 12 47 3e 3e 17 d5 3d
       0.09929466 -0.025069106 0.19440758 0.10404824
000130 a1 e2 9b bd 4c ff 4b bc cd 14 50 3c 19 ae 80 be
       -0.076115854 -0.012451004 0.012700272 -0.25132826
000140 27 cb a8 3b 52 96 f5 3d bb a5 94 bd 41 92 a4 bc
       0.005151171 0.11991562 -0.07258173 -0.02008927
000150 ff d2 7d 3e 6d c4 11 be 3a d2 15 3d 52 9c d2 3c
       0.2478752 -0.14235087 0.03657744 0.025709305
000160 a1 84 03 be d7 b3 11 3d e8 f7 44 be 91 b3 8a 3e
       -0.12843563 0.0355719 -0.19235194 0.27090123
000170 7c 00 8e bb a0 83 93 3d c1 20 11 3c d8 c8 06 3e
       -0.004333554 0.0720284 0.008857907 0.13162553
000180 e2 a3 9e 3d c9 5f 0a 3d d9 b8 3d be 61 54 9f bd
       0.07746102 0.033782754 -0.18527545 -0.07779766
000190 22 d2 31 3e 8d 76 5f bc f4 55 1d 3c 36 50 f3 bd
       0.17365316 -0.013639105 0.009603012 -0.118805334
0001a0 04 3f 01 3d cc 2a c4 3c c1 50 e1 bd 3c 9e 6a 3d
       0.031554237 0.023946188 -0.11001731 0.05727981
0001b0 03 2f 92 3b 3f 53 8d bd 68 cd ce bd 31 b9 08 3e
       0.0044611706 -0.069006436 -0.10097772 0.13351895
0001c0 55 c2 28 bd 26 64 92 3e f4 de da bd 6f df b0 bc
       -0.041200954 0.28592032 -0.10687056 -0.021590916
0001d0 c8 2a 79 bd 82 c7 a6 bd d7 6d ce 3d df 2f 9f 3c
       -0.060831815 -0.08143522 0.10079544 0.019432006
0001e0 f5 5c ca 3d 76 08 8d bd 3c c3 e4 3a 51 5b 36 be
       0.098810114 -0.068863794 0.0017453204 -0.17808272
0001f0 d6 ca 1d be e1 03 cc 3d 02 c9 d1 3c 52 e4 41 be
       -0.15409407 0.09961677 0.025608543 -0.18934754
000200 9a 58 1f 3e 73 d2 c4 3d 90 88 30 be b1 4f 51 3e
       0.15561143 0.096104525 -0.17239594 0.20440556
000210 5d 11 41 3d 20 a3 2b be 34 36 91 3d 04 f9 5e bd
       0.0471357 -0.16761446 0.070904166 -0.0544367
000220 39 de f1 3d 37 c8 66 be 76 3f b8 3a ef 71 e6 bb
       0.11809964 -0.22537313 0.0014056999 -0.007032625
000230 50 47 76 3c 67 3c ce 3d bc 50 25 bd 98 17 16 3d
       0.015031651 0.100701146 -0.040360197 0.036643595
000240 71 4d 4d 3e d2 04 93 bb 3c 49 32 be 6d 23 1e 3d
       0.20049073 -0.0044866586 -0.17410749 0.038608003
000250 3e 40 23 3d ce c8 2a 3e 9a c7 71 3d d3 df 72 3c
       0.039856188 0.16678163 0.059028246 0.014823872
000260 5b f2 ec 3d b0 f5 cb bc 37 80 3e 3d 63 f4 26 bd
       0.11569663 -0.024897426 0.046508994 -0.04076041
000270 69 18 5c bd 3c 71 9f bd 70 5a fe 3d 7f cd 88 3d
       -0.053734217 -0.077852696 0.12419593 0.0667982
000280 c4 69 87 3d 78 2b b8 bd 71 a1 9a bb f0 85 1b bd
       0.0661197 -0.08992666 -0.0047189523 -0.03796953
000290 5b 82 b8 3d 48 f5 ce bd 98 3a 2d be 08 f6 c2 bc
       0.09009238 -0.101053774 -0.16916883 -0.023798957
0002a0 22 ed 04 be 00 6c 3a be f0 16 90 bd a7 77 93 bc
       -0.12981084 -0.18205261 -0.07035625 -0.01800139
0002b0 9e e6 4f 3e 4a 02 8e bd 5c 1a a7 bd 5b c1 42 bd
       0.20302817 -0.0693403 -0.081593245 -0.04754768
0002c0 2e cb bc bd 9b 51 1a be 1d 4e 0b 3c 91 5a 43 bc
       -0.09218441 -0.15070193 0.00850251 -0.011923448
0002d0 0c 64 20 bd c1 66 36 bd ef 2e b6 bc 74 85 21 3e
       -0.039157912 -0.044531588 -0.022239177 0.15773565
0002e0 97 5e 29 3d 2b 56 86 3d 69 19 ea 39 6e 13 de bd
       0.041349974 0.06559404 0.0004465089 -0.1084355
0002f0 2a 76 f6 bc 7f 93 ec bc 2f be 08 3c d3 bb ce 3d
       -0.030085642 -0.028878925 0.008346125 0.100944184
000300 75 da fb bc ff 03 39 bd 16 6d be 3c 12 cd f2 bd
       -0.030743817 -0.045169827 0.023245376 -0.1185552
000310 f1 75 51 3b 8b ea db bd e7 06 51 be 0b 99 a8 3c
       0.0031961168 -0.10738095 -0.2041279 0.02058079
000320 1b 6d b3 bc 78 f4 f0 3c 48 e8 66 bd a2 da b8 bd
       -0.021902611 0.029413447 -0.056373864 -0.09026076
000330 11 9e 52 bc 0f 34 ad bd fc de 4b bd b5 19 de bd
       -0.012855069 -0.08457195 -0.0497732 -0.10844747
000340 2b cb 2d 3d f6 d2 21 be a3 b2 67 3d d9 7f 12 3e
       0.042430084 -0.15803131 0.056566846 0.14306583
000350 9d 5a cc bd b9 24 d6 bb f6 62 91 3c 89 aa 4e 3d
       -0.099782206 -0.0065351394 0.017747384 0.050455604
000360 b4 bd 11 bc 0a 34 00 be 8a cd 6c be 02 c4 28 bd
       -0.008895326 -0.12519851 -0.23125282 -0.041202553
000370 c9 d9 5d 3e 50 85 16 3c 69 52 e6 3c be b5 e6 bd
       0.2166511 0.009187058 0.028115468 -0.11265133
000380 41 d0 3e 3c 30 12 3f bd 89 4e f2 3d 27 c4 a5 3d
       0.011646331 -0.046648204 0.11831386 0.08094054
000390 fd bd 37 bd cb be b6 3d 6e 09 87 bd d1 e5 74 bd
       -0.04485892 0.089231096 -0.065935954 -0.059789483
0003a0 6a c3 67 3d 28 98 e0 bd 12 12 48 be 0b de 57 3e
       0.056582846 -0.109665215 -0.19538143 0.21080796
0003b0 a1 ae 9b 3d 3f 27 5a 3d e0 c7 75 3d a9 24 84 3e
       0.07601667 0.053260084 0.06000507 0.2580922
0003c0 f7 f0 7f 3d 82 40 82 3d 22 d5 8e bd 1a 09 f5 bd
       0.06248566 0.0635996 -0.069742456 -0.119646266
0003d0 09 69 a5 3d d4 1e 5d bd ea ad e2 bd 27 be 13 bc
       0.080766745 -0.053984478 -0.11068328 -0.009017504
0003e0 68 a3 5b 3b fa 00 3d be 1d b7 14 3d 7e e8 b8 3d
       0.0033514146 -0.18457404 0.036307443 0.09028719
0003f0 40 96 a6 bd 01 91 2d bd 70 29 34 be 9e 27 4f 3e
       -0.08134127 -0.042374615 -0.17593932 0.20229957

linear_layer.3.bias f4 [100]
000000 a3 ab c8 3d 26 a9 93 3c eb b4 6d bd c9 8d e5 bd
       0.09798362 0.018024992 -0.058033865 -0.11208684
000010 da 27 75 bc 06 38 19 bd 2f 1d bb 3d 70 89 39 3d
       -0.014963115 -0.037406944 0.09136426 0.045297086
000020 b4 fc 2b 3d 47 78 51 3b 55 ee 33 bd 4e e7 f8 bc
       0.041989043 0.003196256 -0.043928463 -0.030383732
000030 fa 30 51 3b 40 f0 17 3d 4a d4 da 3b 45 d1 b3 3b
       0.0031920061 0.037094355 0.006678139 0.0054875934
000040 5e 1b 99 bd e4 0e 70 bc 57 9b 3e 3c 68 7f 21 3d
       -0.07475923 -0.014651988 0.011633716 0.039428145
000050 2f 63 86 bd 37 3a 54 3d 55 be ce 3c 85 77 22 3d
       -0.065618865 0.05181333 0.025237242 0.039664764
000060 88 b8 79 3b 4b 5b 1a bd 90 c8 8a 3d c8 da 79 3d
       0.0038104374 -0.03768472 0.067765355 0.06099966
000070 b2 12 10 3d 8e 3e 38 3d 11 56 ae bc 4f be 82 bb
       0.03517408 0.04498153 -0.021281274 -0.0039899717
000080 f6 ba 85 3c 3a 94 e8 3c b4 0f 3a ba 9b 8b e8 bc
       0.016324501 0.028390992 -0.0007097677 -0.028386882
000090 88 b1 8e 3c 23 33 ea bb 79 e9 20 bd e3 3d b3 bb
       0.017418638 -0.0071472093 -0.039285157 -0.005470024
0000a0 cc c7 97 bc b0 ac 53 3c 2d 51 c6 3c c9 9b 41 bc
       -0.018527888 0.01291959 0.02420863 -0.011816927
0000b0 a6 db 70 3d c7 64 49 3d bd 69 af 3d 3f 01 23 be
       0.058803223 0.049168374 0.0856509 -0.15918444
0000c0 d4 4b 4f 3d f1 61 31 bd 32 8a 13 3d 1b dd cd bc
       0.050609425 -0.043306295 0.036020465 -0.025129845
0000d0 55 ae eb bb f0 bf 99 3a 10 da a1 bc 53 30 a1 bc
       -0.007192413 0.0011730175 -0.0197573 -0.019676363
0000e0 b3 11 51 bd e4 61 ae bc a1 75 33 3d ed 4c 50 3d
       -0.05104227 -0.021286912 0.04381335 0.050854612
0000f0 0e 23 9b 3b 99 2b fd 3c f0 5f d3 3b d7 d5 51 3c
       0.0047344035 0.030904578 0.0064506456 0.012807331
000100 26 95 c4 3c 13 bb 7e 3c 8a 72 84 3d 8a 18 ca b9
       0.0239969 0.015547532 0.06467159 -0.00038546725
000110 d6 2f 92 3c 83 92 23 bd 96 e2 03 3d 5e 1d 1d bd
       0.017845076 -0.039934646 0.03219851 -0.038358085
000120 99 75 9e bb c0 46 24 bc 5a f0 cc bc a0 91 85 3c
       -0.004835796 -0.010026634 -0.025016952 0.016304791
000130 13 68 7b bb 64 b3 81 be ef e9 1b 3d be 4f 4c bd
       -0.0038361594 -0.25332177 0.038064893 -0.049880736
000140 7d f5 33 bc d2 5a ab 3c 73 0b cd bb 19 0a c7 bc
       -0.010983822 0.02091733 -0.0062574684 -0.024296807
000150 b2 49 9e bd aa bf 41 3d 92 e5 af 3c c0 92 4b 3d
       -0.077289 0.047301926 0.021471772 0.0497005
000160 81 8b ed bc 83 32 ba ba 84 eb e2 3c ab 36 d6 3c
       -0.028997185 -0.0014205727 0.027700193 0.026149115
000170 f0 8f 2f 3d e0 5c 08 bd 83 2f 8f 3b cb 95 3e 3d
       0.04286188 -0.033291698 0.0043696775 0.046529572
000180 02 28 c4 3c f7 f6 c1 3c 40 75 1b bd 0a b2 5f bd
       0.023944858 0.023677332 -0.037953615 -0.05461315

linear_layer.4.weight f4 [100, 100]
000000 85 54 c7 bc 56 37 1c 3d 4d 5a 90 3d 90 13 a2 3d
       -0.024332294 0.03813871 0.070484735 0.079138875
000010 ff 40 65 3d 53 79 b9 ba fd f5 51 bd 72 7f 14 3e
       0.05597019 -0.0014150537 -0.051259983 0.14501742
000020 fa 56 bc 3d e7 5a c0 3c 81 bf 17 be 66 c6 be 3d
       0.09196277 0.023480846 -0.14819147 0.09315185
000030 48 88 b5 3d c1 24 18 3e 5a f6 fd 3d 58 d0 5d 3e
       0.08863884 0.1485777 0.124005035 0.21661508
000040 2d fe 10 3e 1f 4f a7 3e 0c bb fc 3b 1a b4 13 3d
       0.1415946 0.32677552 0.0077127274 0.03606043
000050 0a 3e bd 3b c8 5b 57 3d 71 08 96 bc 8a 18 09 3e
       0.005775218 0.052577764 -0.018314572 0.13388267
000060 c3 fc 1c 3e 76 b7 c3 bd 0d 42 92 3d 59 b5 ce bd
       0.15330796 -0.09556477 0.071415044 -0.10093183
000070 e0 2f 25 3e 32 6a 34 bd 56 ae 0e 3e 4d eb 97 bd
       0.16131544 -0.04404659 0.13933691 -0.07417927
000080 b9 41 2d be df ac 28 3d bc 2d ef 3b dc 06 ba 3a
       -0.16919602 0.041180488 0.007299153 0.0014192718
000090 f4 45 46 be 37 0c 72 3d ec 3e 12 3e 6a c5 dd 3c
       -0.19362622 0.05909368 0.14281815 0.027071673
0000a0 98 27 5a be 9b 69 8a be 2a 84 94 be 62 6c a2 3d
       -0.21304166 -0.27033696 -0.29007083 0.07930829
0000b0 75 9f 30 bd 34 88 80 be 9e 85 2b 3e 4e 04 6f bd
       -0.04312082 -0.25103915 0.1675019 -0.058353715
0000c0 aa ad 8f 3d 68 31 a8 3c 90 eb 52 bd ef 1c d4 bd
       0.07015546 0.020531371 -0.05149418 -0.10357081
0000d0 21 52 cc bd 89 f3 2b bc d7 6a 93 3b 69 ea 87 3d
       -0.09976602 -0.010495075 0.0044988203 0.06636507
0000e0 a2 da 61 3d a9 da 90 3d 0e b3 aa 3d b6 5d 69 3d
       0.055140145 0.07072956 0.08334933 0.056974135
0000f0 6f 5c af 3d 5d d7 a1 3b 6d 86 9e 3c 1d 70 01 3d
       0.08562552 0.0049390034 0.019351209 0.03160106
000100 83 c9 ea 3d d1 e7 12 3d 62 a0 26 3c a9 d5 97 bc
       0.114642166 0.03586561 0.010170074 -0.018534498
000110 73 4c 62 be 3f b5 f8 3d 66 91 40 3d a0 f2 99 3d
       -0.22099476 0.12143945 0.047013663 0.0751698
000120 c9 7c c7 bd 57 8b 3c 3e d7 a7 a5 3c 29 84 2a be
       -0.09740598 0.18412529 0.020221634 -0.16651978
000130 c8 4d bc 3d 75 4b bb 3d ff 97 81 bc a2 98 02 3d
       0.09194523 0.09145252 -0.015819548 0.031883843
000140 52 5c 55 3d 80 7d 98 3d 3d a8 4a 3d 21 61 fd ba
       0.052089997 0.07445812 0.04947685 -0.0019331315
000150 ac 83 2e bd ff 96 f3 bb 72 52 0b 3e 8b ae 9f bc
       -0.04260604 -0.0074337716 0.13605669 -0.019492408
000160 1f 67 42 bd 9b de 2b bd 0b 18 9a bc a4 de 01 3e
       -0.047461625 -0.04196034 -0.018810293 0.12682587
000170 f7 b1 57 be 87 0e aa 3d 0a 6f b5 bd 84 29 a9 bd
       -0.21063982 0.08303552 -0.0885907 -0.082598716
000180 44 99 b0 3c b6 b0 40 bc 77 d6 c7 bd cd b3 db bc
       0.021557458 -0.011760881 -0.09757703 -0.026819134
000190 e5 85 c3 bd 82 a6 8b 3a 81 0b fb bd 0e 7c 90 3c
       -0.09547023 0.0010654482 -0.122580536 0.017637279
0001a0 d2 cb c4 bc be a9 8d bd 2e cf 54 be 50 98 b5 ba
       -0.02402297 -0.069171414 -0.20782158 -0.0013854597
0001b0 1a 20 94 bb 11 91 8f bd 7e 82 fc bc cb 93 94 bc
       -0.0045204284 -0.07010091 -0.030823942 -0.01813688
0001c0 f5 8a 0b 3e 5e 97 db 3d 2c 93 66 3e 9d 51 46 bd
       0.13627227 0.107222304 0.22517079 -0.048417676
0001d0 f6 31 ed bd bc 35 a7 bd b1 ec 7d bd bc cc 84 3d
       -0.11581795 -0.08164546 -0.061993305 0.064843625
0001e0 d8 9f a8 bd e3 64 d5 3d 8c 80 bb 3d 18 ac 9c bd
       -0.08233613 0.10419633 0.09155378 -0.07650012
0001f0 7f cc 80 3c 49 c5 23 bd 32 cd 8e 3d b6 dd 07 3e
       0.015722511 -0.039983068 0.06972732 0.1326817
000200 53 00 6d 3e f2 3f ac 3d d4 1e 8e bd c9 14 89 3d
       0.23144655 0.08410634 -0.06939474 0.066934176
000210 e6 25 67 3d c3 d2 d3 3c 5a 0c c6 bc 18 78 69 be
       0.056432627 0.025857335 -0.024175812 -0.22799718
000220 a7 89 f6 bd 1e 4a bb bd 4f 1b e2 3d 3c 02 b7 3d
       -0.12037974 -0.09144996 0.11040365 0.08935973
000230 f5 bc 29 3d ba d3 14 3d ce 02 b0 3d 81 71 26 3e
       0.04143997 0.03633473 0.08594285 0.16254236
000240 a9 41 32 3d ef 77 07 bd 20 bd 6a 3e de dc e3 3d
       0.04351965 -0.033073362 0.22923708 0.111261114
000250 9b 46 1e bd df 4b 24 be 2e f8 1a bd d2 52 54 3d
       -0.038641553 -0.16044568 -0.03783434 0.051836796
000260 b7 8c 2d bd 27 c7 a7 bd fe 2b 57 bd 6e 04 bd bd
       -0.042370524 -0.08192282 -0.05253219 -0.092293605
000270 40 51 52 bd 95 99 b6 3d 12 77 52 bd 65 2a 2c bc
       -0.051347017 0.08916012 -0.051383086 -0.0105081545
000280 4c 23 be bb a3 eb 32 3d 67 07 80 3c e2 1b 64 be
       -0.0058025476 0.043681752 0.01562853 -0.22276261
000290 af 23 19 bd 72 7b 19 3e 7a 4b 0d 3e d2 ec 14 3e
       -0.037387546 0.14988497 0.13798323 0.14543465
0002a0 69 ba f5 bd b3 d9 c7 bd da e7 d1 bd 81 29 e1 bd
       -0.119984455 -0.0975832 -0.102493 -0.10994244
0002b0 4c bd da 3b d6 65 3d be f0 5e b1 bb 0e 1b 9f 3d
       0.006675398 -0.18495879 -0.0054129288 0.07768832
0002c0 be 6f 5f 3d 87 b9 4f be ba e2 31 be 90 3a eb 3d
       0.054549925 -0.20285617 -0.17371646 0.11485779
0002d0 3a b1 14 3e ae 34 20 be 0e 41 11 3d bc 10 3d bd
       0.14520732 -0.15645096 0.03546243 -0.046158537
0002e0 48 3d 75 3d 16 0d c6 bc 9f 70 1d be d1 b5 79 bd
       0.059872895 -0.024176162 -0.15374993 -0.06096441
0002f0 35 1b 2e be e1 41 20 be 5b e9 b6 3d 96 7d 9c bd
       -0.17002566 -0.15650131 0.08931228 -0.07641141
000300 75 66 08 be 32 40 55 3d 48 34 d1 3c 7f e7 ca 3c
       -0.13320334 0.052063175 0.025537625 0.024768589
000310 76 6b f9 bc 60 c5 b0 bd d8 ad da 3d 4c 27 e7 3c
       -0.03044675 -0.08631396 0.10677689 0.02821698
000320 50 04 63 3d 2a 62 1e bc ff bf 36 be 0c af e6 3d
       0.055424035 -0.009666959 -0.17846678 0.11263856
000330 c2 b2 56 be d5 b3 b1 bd bc d5 64 3d de f0 e0 3d
       -0.20966628 -0.08676878 0.055867895 0.10983442
000340 3b 97 9a be 03 6f 10 3b cd da 76 3d d9 0a e0 3c
       -0.30193505 0.0022038824 0.06026726 0.027348923
000350 15 26 28 bd 8b 74 e9 bd c0 0f 24 3d 01 c4 2e 3e
       -0.041051943 -0.11399182 0.040054083 0.17066957
000360 73 50 13 be f7 23 3a be ba 58 30 3d b0 0c 53 3d
       -0.14386158 -0.18177782 0.043053366 0.05152577
000370 54 2c 7b bd 2a 4b 3e bc 5e 15 2d 3e 62 13 f5 3c
       -0.06132157 -0.0116146 0.16902682 0.029916469
000380 20 81 3c 3c ee 5d fb bc 2e f3 49 bd be 16 3e 3a
       0.011505395 -0.030684438 -0.04930418 0.00072513137
000390 dd 81 28 3e db f2 5a bd fb 1d 4e be 44 98 86 3d
       0.16455789 -0.05345426 -0.20128624 0.06572011
0003a0 18 08 34 3e 02 a5 0b 3e eb ca db bd 0f 8b 2f 3d
       0.17581213 0.13637164 -0.10732063 0.042857226
0003b0 ce 20 88 bb cd e4 22 3e 14 57 0a be 6d a3 68 bc
       -0.0041543012 0.15907593 -0.1350978 -0.01419912
0003c0 bd d9 ff bd 01 4d 6d 3d e5 56 1e 3e aa 64 1f be
       -0.12492702 0.057934765 0.15462835 -0.15565744
0003d0 1e 80 16 be 4a 71 67 3c 98 dc 18 3e e0 7b b1 3e
       -0.1469731 0.014126131 0.149279 0.34664822
0003e0 e3 c7 b0 3d 45 ea 87 3d 83 d5 a0 3e 40 d0 9a 3c
       0.08631875 0.0663648 0.31412897 0.01889813
0003f0 02 59 65 3d b4 61 89 3d da 0f 40 3e d4 e6 ca 3d
       0.055993088 0.067080885 0.18756047 0.09907308

linear_layer.4.bias f4 [100]
000000 81 27 ba bb 45 de 07 bd 9d a1 76 3d 9a 4a 9d bc
       -0.0056809788 -0.033170957 0.06021272 -0.019200612
000010 2b 0a 0a be 7d e2 28 bc b5 38 05 bd 6f 83 3c 3c
       -0.13480441 -0.010307905 -0.032524783 0.011505946
000020 25 3f 32 3d e6 2d b6 3c 6d e7 64 3c ca eb c0 bd
       0.04351725 0.022238683 0.013971192 -0.09419973
000030 b9 22 ac bc b1 08 9a 3c d6 22 cb bc c6 38 80 3c
       -0.02101265 0.018802973 -0.024796885 0.015652072
000040 a7 0e 18 3d 98 29 cb bc a9 74 61 bd 28 59 37 3d
       0.03712335 -0.024800107 -0.055042896 0.04476276
000050 4b 18 9e 3d f1 b7 c5 bc 8b 7f f3 3b 1f 45 92 3c
       0.07719477 -0.024135562 0.007430976 0.017855225
000060 a8 17 74 3c 9e 15 c5 3c 81 dc 5c bc 93 48 ed bb
       0.014898218 0.02405816 -0.013480307 -0.0072413175
000070 d0 f2 13 bd 82 71 2d bd fa ee d4 3c 5f d3 91 3c
       -0.036120236 -0.042344578 0.02599286 0.017800985
000080 e8 61 a9 bc 21 2f 16 bd 74 f9 ed 3c da d8 8e bd
       -0.020676568 -0.03666604 0.029049613 -0.06974955
000090 0e aa 1d 3d ba f5 2b 3e 28 d8 7f 3c 75 6d 0d bd
       0.038492255 0.16792956 0.0156155005 -0.034528214
0000a0 62 2d bf bb 30 76 67 3c 63 a8 f5 bb 81 a3 ec bb
       -0.0058342675 0.014127299 -0.00749688 -0.0072216396
0000b0 6d 0c 49 bd 1d 89 19 3c 4d 32 0c bd ac 17 8e bc
       -0.049084116 0.009371069 -0.034227658 -0.017345272
0000c0 f8 42 35 bc 06 f3 a3 bc de 23 51 3a b0 cd 0b bc
       -0.01106333 -0.020013344 0.0007978062 -0.008532926
0000d0 0c ff 86 3a c7 d0 88 3c ed ec 5b 3b 5e 25 c2 bc
       0.0010299399 0.016701115 0.0033557967 -0.023699459
0000e0 ac 46 97 ba cc f2 39 bb a1 0a a0 bc 2b 95 be 38
       -0.0011541448 -0.0028373478 -0.019536318 9.087691e-05
0000f0 24 a7 bb bb 46 c4 96 3d 58 50 33 3c 10 c8 1b bc
       -0.005726712 0.07361655 0.010944448 -0.009508148
000100 0c 4b f8 3b 10 0c 56 3b f5 69 68 3b e0 c8 b2 bc
       0.0075773057 0.0032660998 0.0035463546 -0.0218243
000110 58 7a 1a 3d 8b 4d c1 bc c8 5d 65 bd 5e a7 76 bc
       0.037714332 -0.023596546 -0.05599764 -0.015054552
000120 af 8c 2b 3c cc c4 c8 bb 4b ce ed 3c e6 d2 29 bd
       0.010470553 -0.0061269756 0.029029032 -0.041460894
000130 13 a6 85 bc 46 1d de 3c d5 c6 47 3d 48 e1 e2 3b
       -0.016314542 0.027113568 0.048773605 0.0069238283
000140 52 a1 2e 3d 68 27 e8 bc e4 ec ab 3d 74 8d 4d 3d
       0.042634316 -0.028339103 0.08394793 0.05018373
000150 b0 cb 6b bd 96 68 82 bd 17 82 9b bb 5c f9 f2 bc
       -0.0575673 -0.063676044 -0.0047457325 -0.02965992
000160 83 f4 50 bc 42 c6 1e 3c 71 d7 2f 3c 9f 18 ad 3c
       -0.012753609 0.009690823 0.010732518 0.021129904
000170 40 92 c1 bc ef 84 8d 3c cb 87 7c 3d e0 fa ab bc
       -0.023629308 0.017275302 0.06165294 -0.02099365
000180 70 39 ba bb df 4d 7a bc a2 c6 3c bd e3 5c 91 bc
       -0.0056831166 -0.015277355 -0.04608787 -0.017744487
