ac_2d_model_para_5/checkpoint_2250.pth (torch, 291152 bytes, 17 tensors)

linear_layer.0.weight f4 [100, 3]
0	0x3e6898c6	0.22714528
1	0x3e223148	0.15839112
2	0xbe44ae84	-0.19207197
3	0x3c5dbea0	0.013534218
4	0xbd924013	-0.071411274
5	0x3de49c95	0.11162678
6	0x3d4ac233	0.04950161
7	0xbd7cf322	-0.061755307
8	0xbe9174b2	-0.28409344
9	0x3e95c7b5	0.29253927
10	0xbd0f7cca	-0.035031117
11	0x3e5aa82a	0.21353212
12	0xbe2cef03	-0.1688805
13	0xbe1cf941	-0.15329458
14	0xbebbd082	-0.36682516
15	0xbd96faeb	-0.073720776
16	0xbe4c0593	-0.19924001
17	0xbe0ab59a	-0.13545838
18	0xbdd8d8a8	-0.10588199
19	0x3e09b812	0.13449124
20	0xbdfaa433	-0.1223835
21	0xbd9f10ff	-0.077669136
22	0xbd34469b	-0.044012647
23	0xbeaa64bc	-0.3327998
24	0x3f08d5ab	0.5345103
25	0x3d4a4035	0.04937764
26	0x3c9dac5b	0.019247225
27	0xbe2bca0c	-0.16776294
28	0xbe3fb32b	-0.18720691
29	0xbd9911a7	-0.0747407
30	0x3d1710e1	0.03688133
31	0xbe500b56	-0.20316824
32	0x3e07fdc2	0.13280395
33	0xbdebbd98	-0.115107715
34	0x3d855fe3	0.065124296
35	0xbe72af7c	-0.23699754
36	0x3eeab5cd	0.45841828
37	0xbb8eee2c	-0.0043618884
38	0xbde9952a	-0.11405404
39	0x3e9cd8a1	0.30634025
40	0xbc1a9634	-0.009435225
41	0x3e80e0fe	0.25171655
42	0x3e50305d	0.20330949
43	0x3e20ebb7	0.15714918
44	0x3e3e651e	0.1859326
45	0xbe403ca4	-0.18773133
46	0xbe4730d3	-0.19452219
47	0x3ce6bb52	0.028165493
48	0x3ea5463b	0.32280144
49	0x3cb1d790	0.021709234
50	0xbe93f3ab	-0.2889684
51	0xbe5c2094	-0.21496803
52	0xbe18c277	-0.14917932
53	0xbe1ea202	-0.15491489
54	0xbea41aa4	-0.32051575
55	0xbc8e9e12	-0.017409358
56	0x3dc46da1	0.095912226
57	0x3e20b739	0.15694894
58	0x3e24fdff	0.16112517
59	0xbe72bc3a	-0.23704615
60	0x3db22e0c	0.08700189
61	0xbe4d96aa	-0.20077005
62	0x3da54d2f	0.08071362
63	0x3ee345ae	0.443891
64	0xbdae0d9b	-0.08498689
65	0x3d9e4467	0.077278905
66	0xbe8ed9a4	-0.27900422
67	0xbe1d977b	-0.15389816
68	0x3cbf2bd3	0.023336327
69	0x3e25a005	0.16174324
70	0x3cc99f9f	0.024612246
71	0xbef60274	-0.48048747
72	0x3e79eebf	0.2440748
73	0x3d0b5532	0.034016795
74	0x3e9cbf52	0.30614716
75	0x3e3f0f00	0.18658066
76	0x3da902fe	0.08252524
77	0x3b7e9bd5	0.0038850207
78	0xbea40170	-0.32032347
79	0xbe5c8bd6	-0.21537718
80	0xbdada9bd	-0.08479641
81	0x3d6415ad	0.055684734
82	0x3e88e438	0.26736617
83	0x3d61976a	0.05507604
84	0x3e5a86cf	0.21340488
85	0xbe580b3d	-0.21098037
86	0x3d58c73e	0.052924387
87	0x3de05db5	0.10955373
88	0xbc9a1330	-0.018807977
89	0xbdd435df	-0.103618376
90	0xbd3fda8e	-0.04683929
91	0xbe2502f2	-0.16114405
92	0xbe0f33c6	-0.13984594
93	0x3ee43565	0.44571987
94	0x3c85c00d	0.016326929
95	0x3ea77f2e	0.32714218
96	0x3dcf5609	0.10123832
97	0xbe66082f	-0.2246406
98	0x3e07deff	0.1326866
99	0xbed583ca	-0.4170211
100	0x3c8aab82	0.016927484
101	0xbdd6a336	-0.10480349
102	0x3d88305f	0.06649851
103	0xbdc70642	-0.097179905
104	0xbe9410bf	-0.28919026
105	0x3e057be6	0.13035545
106	0xbe131367	-0.1436287
107	0x3e55305b	0.20819227
108	0xbe2551c0	-0.16144466
109	0x3e890b89	0.26766613
110	0x3ca1711d	0.019707257
111	0x3e963fb7	0.29345486
112	0x3e15ed4a	0.146413
113	0x3d7a8913	0.06116588
114	0xbd062c01	-0.03275681
115	0xbdba72d2	-0.091039315
116	0xbecd789f	-0.4013109
117	0xbe1832cb	-0.14863126
118	0xbce2c9f7	-0.027684195
119	0xbe1b7334	-0.15180665
120	0x3db73463	0.08945539
121	0x3dc17ac1	0.094472416
122	0xbe041f99	-0.12902679
123	0xbe5b989e	-0.21444938
124	0xbc2e2e2f	-0.010631128
125	0x3e096174	0.13416082
126	0xbe745e6f	-0.23864149
127	0x3e2f7edc	0.17138237
128	0xbe0350dc	-0.12823814
129	0x3e1f674b	0.15566747
130	0xbd87dd22	-0.066339746
131	0x3e829c6b	0.25509962
132	0xbe23af39	-0.15984811
133	0x3e4bf465	0.19917448
134	0x3e03ac46	0.12858686
135	0xbda06046	-0.07830863
136	0xbde49fd9	-0.11163301
137	0x3e18192b	0.14853351
138	0xbeedea5b	-0.46467862
139	0x3e20cec3	0.15703873
140	0xbe8fbf9c	-0.28075874
141	0x3ee36274	0.4441105
142	0x3a9ae3c8	0.0011817152
143	0xbdff20ce	-0.12457429
144	0x3dc1b0a2	0.09457518
145	0x3dc1603c	0.094421834
146	0x3dc0df52	0.09417595
147	0x3ed08e9b	0.407338
148	0xbdd331f0	-0.10312259
149	0xbded74c0	-0.11594534
150	0x3e882fd3	0.26598987
151	0x3de571fd	0.11203382
152	0xbdf792f5	-0.12088577
153	0x3e59a2d4	0.2125352
154	0xbd622add	-0.05521666
155	0xbe191467	-0.14949189
156	0xbddf7e15	-0.1091272
157	0x3e8209b3	0.25398025
158	0x3dc3b130	0.0955528
159	0x3c9a95ba	0.018870223
160	0x3d671783	0.056418907
161	0x3e8507ad	0.2598242
162	0x3e03d1ac	0.12872952
163	0x3daed8d5	0.08537451
164	0x3bb5a264	0.00554304
165	0x3eb5d0d5	0.3551089
166	0xbd957ff7	-0.07299798
167	0x3ddcd06e	0.10781942
168	0x3f0ed4ec	0.55793643
169	0x3c721c48	0.014777251
170	0xbc4e6515	-0.012597342
171	0x3eb2c12d	0.34913006
172	0xbdf447c7	-0.11927753
173	0xbe828e74	-0.25499308
174	0x3eb9f5ee	0.36320442
175	0x3c08367c	0.008313771
176	0xbe12abbf	-0.14323328
177	0xbd6ed06f	-0.058304247
178	0xbe2d30a6	-0.16913089
179	0x3e8b3006	0.27185076
180	0xbe179c6e	-0.14805767
181	0x3df16523	0.117868684
182	0xbbdcf9a2	-0.0067436257
183	0x3c56546d	0.013081652
184	0x3e9042c5	0.2817594
185	0x3cc90ee4	0.024543233
186	0x3ea908dc	0.33014572
187	0xbe1a0845	-0.15042217
188	0xbd797b0d	-0.060908366
189	0x3b057b10	0.002036754
190	0x3df15462	0.11783673
191	0xbe4cd472	-0.20002916
192	0x3eda1a14	0.4259802
193	0xbe1d3701	-0.15353014
194	0x3d91608c	0.07098493
195	0x3cf2e511	0.029650243
196	0x3dd4d80a	0.10392769
197	0x3ea599b4	0.3234383
198	0x3e21656a	0.15761343
199	0xbce44c33	-0.027868366
200	0xbebe4d39	-0.3716829
201	0xbf054d03	-0.52070636
202	0xbce30598	-0.027712628
203	0x3dd61588	0.104533255
204	0x3ecad185	0.39612976
205	0xbdf24725	-0.11829976
206	0x3c86f9d3	0.016476547
207	0xbdcd6df8	-0.100307405
208	0x3dd47a83	0.1037493
209	0x3ccf14c1	0.02527845
210	0xbe9acf9b	-0.30236515
211	0x3c7e66a6	0.015527403
212	0xbd150b38	-0.036387652
213	0x3df6e626	0.12055616
214	0x3e1e0876	0.15432915
215	0x3db598c7	0.088670306
216	0xbdb82130	-0.08990705
217	0x3e88458e	0.26615566
218	0xbdca8aa3	-0.09889724
219	0x3debccce	0.11513673
220	0x3e1bcfb0	0.15215945
221	0xbe6072ac	-0.21918744
222	0x3f0076e8	0.50181437
223	0x3d0370bf	0.032089945
224	0xbda77078	-0.081757486
225	0xbcf32b0f	-0.029683618
226	0x3eb3a262	0.35084826
227	0x3e164878	0.14676082
228	0xbe2f4c43	-0.17118935
229	0xbed2a603	-0.41142282
230	0x3e81c7b0	0.25347662
231	0xbec21c97	-0.37912437
232	0xbdc51a82	-0.096241966
233	0xbe333726	-0.17501506
234	0xbcd94c31	-0.026525589
235	0x3e5e30d9	0.21698321
236	0xbc084a81	-0.008318544
237	0x3cea9cf8	0.028639302
238	0xbe49fa92	-0.19724491
239	0x3d5825e3	0.052770507
240	0x3e174e39	0.14775933
241	0xbd659082	-0.056046017
242	0xbd1ec020	-0.038757443
243	0xbe1ae418	-0.15126073
244	0xbe4fc9dd	-0.20291848
245	0xbda30138	-0.07959217
246	0xbe83d064	-0.25744927
247	0x3e251990	0.16123033
248	0x3daedc5b	0.08538123
249	0x3e3befbd	0.18353172
250	0xbde46114	-0.11151329
251	0x3ef56bf9	0.4793394
252	0x3e8dc3f9	0.27688578
253	0xbd0a2fd6	-0.033737026
254	0xbe896898	-0.2683761
255	0x3e5a0379	0.21290387

linear_layer.0.bias f4 [100]
0	0xbcaf99fd	-0.021435732
1	0xbd955fa9	-0.07293636
2	0x3e4b8183	0.19873624
3	0xbd2b3d47	-0.041806486
4	0x3c9cdff2	0.019149754
5	0xbd0eb318	-0.034838766
6	0x3dad87ff	0.08473205
7	0x3e0f730e	0.14008734
8	0xbe4a1e82	-0.197382
9	0x3d61895a	0.05506263
10	0x3d6cf887	0.0578542
11	0xbe0c1465	-0.13679655
12	0x3e5d53df	0.21614026
13	0x3e756e27	0.23967801
14	0x3d8483ad	0.06470428
15	0x3aa765fc	0.0012771483
16	0xbe151145	-0.14557369
17	0x3c9fe95c	0.019520454
18	0xbd028c04	-0.03187181
19	0xbba3a86e	-0.0049944436
20	0xbe04c113	-0.12964277
21	0xbd98d95d	-0.07463334
22	0xbd3d56b2	-0.046225257
23	0x3cd646ac	0.026156746
24	0x3d3f5281	0.04670954
25	0x3e32d76a	0.17464986
26	0x3dea0bbf	0.11428022
27	0xbd15607b	-0.036468964
28	0x3d67a786	0.056556247
29	0xbe009812	-0.1255801
30	0xbd988f79	-0.0744924
31	0xbc6bf434	-0.014401484
32	0x3e0feed1	0.14055945
33	0xbde0a9c6	-0.10969882
34	0xbdabf9a7	-0.08397227
35	0x3d94cb57	0.072653465
36	0xbcd8f6cc	-0.02648487
37	0xbe4c5009	-0.19952406
38	0x3e23ca3d	0.15995117
39	0x3e419e66	0.1890808
40	0x3dc2a88c	0.09504804
41	0xbd79e3a0	-0.061008096
42	0x3d9a188a	0.07524212
43	0xbe9ea120	-0.30982304
44	0x3cb60680	0.022219896
45	0xbe07b242	-0.13251594
46	0xbe07abc5	-0.13249119
47	0x3cbfae52	0.023398552
48	0xbdc7584d	-0.09733639
49	0xbe4e0503	-0.201191
50	0x3e95855f	0.29203317
51	0x3db50c7e	0.08840273
52	0x393f77ee	0.00018259857
53	0xbe80de62	-0.25169665
54	0x3ddde8e4	0.10835436
55	0x3e011505	0.12605675
56	0x3d0080d2	0.031372853
57	0xbc12a50a	-0.008950481
58	0xbbf80431	-0.007568859
59	0x3c38f55f	0.01128897
60	0xbdf2d04c	-0.11856136
61	0xbc95bf5e	-0.018279728
62	0x3ba56a7a	0.0050480934
63	0x3e34a2fe	0.17640302
64	0xbe142c40	-0.14470005
65	0x3db8820f	0.09009182
66	0xbe74293e	-0.23843858
67	0x3b576f64	0.003287279
68	0xbdb8c55c	-0.09022018
69	0x3dd30687	0.10303979
70	0x3e4409db	0.19144385
71	0xbdc4076c	-0.09571728
72	0xbdd582c6	-0.10425334
73	0x3e688e07	0.22710429
74	0xbc94fff8	-0.018188462
75	0x3d03a9f6	0.03214451
76	0x3cb7f158	0.022453949
77	0x3da7ae34	0.081875235
78	0xbe01c56a	-0.12672964
79	0xbd003a84	-0.031305805
80	0x3e1eecb6	0.15519986
81	0x3e0959a1	0.13413097
82	0xbd5cf953	-0.05394871
83	0x3c801067	0.015632821
84	0x3d0aae12	0.033857413
85	0x3d720640	0.05908799
86	0x3e07dbff	0.13267516
87	0x3e22bdb3	0.15892677
88	0xbde4e7ce	-0.11177026
89	0xbdd6e406	-0.10492711
90	0xbe0ee8d4	-0.13956004
91	0xbe4f90d2	-0.20270088
92	0xbd967a51	-0.07347549
93	0x3e0c07e5	0.13674887
94	0xbd2149b2	-0.039376922
95	0x3d23dd96	0.040006243
96	0x3e8b154a	0.2716468
97	0x3d88c7d5	0.0667874
98	0xbd9fe441	-0.07807208
99	0x3d717281	0.05894709

linear_layer.1.weight f4 [100, 100]
0	0x3d64abf8	0.055828065
1	0x3e1b445b	0.15162794
2	0xbd8689c0	-0.065692425
3	0xbcc19d36	-0.023634534
4	0xbc7661f8	-0.015038006
5	0x3b9a36ad	0.004706225
6	0x3dcc1df1	0.09966648
7	0x3d695003	0.05696107
8	0x3e16e4c5	0.14735706
9	0xbe1ade3c	-0.15123838
10	0xbda1f590	-0.079081655
11	0x3c326737	0.010888866
12	0xbe7da849	-0.24771227
13	0xbd9d0b8a	-0.076682165
14	0x3d86ef3b	0.06588598
15	0x3d8c126a	0.0683945
16	0xbe62e85e	-0.22158954
17	0xbe1cd98f	-0.15317367
18	0x3e5b8d29	0.21440567
19	0x3b22d040	0.0024843365
20	0xbdb8952c	-0.09012827
21	0x3de0b842	0.109726444
22	0x3d10cbd3	0.035350632
23	0x3e194e77	0.14971338
24	0xbd8f70c1	-0.07003928
25	0x3b564bd3	0.0032699003
26	0xbdae83a2	-0.08521201
27	0xbc627e94	-0.013824124
28	0xbe71c5b5	-0.23610575
29	0xbdb663ac	-0.0890573
30	0xbc4f2443	-0.012642923
31	0xbbd0e3ca	-0.006374811
32	0xbd2d40a3	-0.04229797
33	0x3e6cf68c	0.23140925
34	0xbda8d064	-0.08242872
35	0xbd81a5fa	-0.06330486
36	0xbdbb1c62	-0.09136273
37	0xbc40ad4f	-0.01176007
38	0x3e048212	0.12940243
39	0xbe12a633	-0.14321212
40	0x3d4fdfe1	0.050750617
41	0x3e2a1474	0.16609365
42	0xbe0e4765	-0.13894422
43	0xbd623ca5	-0.055233616
44	0x3ae85d3c	0.0017727981
45	0xbd08457e	-0.033269398
46	0x3d68dd7c	0.05685185
47	0x3cb988f5	0.022648314
48	0x3af1297f	0.0018399208
49	0x3dfc4beb	0.12319168
50	0xbc68438e	-0.014176263
51	0xbe91c928	-0.28473783
52	0x3decd5f5	0.115642466
53	0x3dc02bbc	0.09383342
54	0xbd0cbbad	-0.03435867
55	0xbe5f9c37	-0.21836935
56	0xbe16e101	-0.1473427
57	0xbd9ceff4	-0.07662955
58	0x3e1749b7	0.14774214
59	0x3e2e3772	0.17013338
60	0x3c60f378	0.0137299225
61	0x3d81b77f	0.06333827
62	0xbc2f0413	-0.010682124
63	0xbe24d957	-0.16098534
64	0xbcc1db5d	-0.02366417
65	0x3e3a3e03	0.18187718
66	0xbc454d2a	-0.012042323
67	0x3d6f9dff	0.058500286
68	0x3cc58d2b	0.024115166
69	0xbdb613de	-0.08890508
70	0x3c286218	0.010277294
71	0x3dc98e4e	0.098415956
72	0xbd952a8f	-0.07283508
73	0x3d2840a8	0.041077286
74	0xbe813a4b	-0.25239787
75	0x3cf25435	0.029581169
76	0xbd1e6db8	-0.038678855
77	0x3c174d80	0.009234786
78	0xbe331778	-0.17489421
79	0xbdefb536	-0.11704485
80	0xbd0947e6	-0.033515833
81	0xbc4ecbda	-0.012621844
82	0xbccf6db7	-0.02532087
83	0xbdcc40ae	-0.09973274
84	0x3d6fcddb	0.05854593
85	0x3e00b061	0.12567283
86	0xbcf3f2f8	-0.029778942
87	0xbd9e3854	-0.077255875
88	0x3dc00069	0.09375078
89	0x3dfb7ea8	0.12280017
90	0xbbcb3826	-0.006201762
91	0x3e08e9a2	0.13370374
92	0xbdb4199c	-0.08793947
93	0xbd842733	-0.06452789
94	0xbc01714c	-0.007900547
95	0xbdd9e32a	-0.10639031
96	0xbd81cb85	-0.063376464
97	0xbc9fdbe2	-0.019514028
98	0xbe0555c2	-0.13020995
99	0xbda0ea19	-0.078571506
100	0x3d44bba4	0.04803051
101	0x3e5e76cd	0.21725006
102	0xbca99439	-0.02070056
103	0x3d796a28	0.060892254
104	0xbd5dc959	-0.0541471
105	0xbe2c1b47	-0.1680728
106	0x3e09bbf1	0.134506
107	0xbe8d8fab	-0.27648672
108	0xbd4e10a8	-0.050308853
109	0xbd912d4b	-0.07088717
110	0xbd87eeaa	-0.066373184
111	0x3d1d1303	0.03834821
112	0x3dde9831	0.10868872
113	0x3df5b6ad	0.11997733
114	0x3e2318ca	0.15927425
115	0xbe189e3e	-0.14904115
116	0xbd2f776f	-0.04283851
117	0xbe9234fa	-0.28556043
118	0x3c5b9272	0.0134016145
119	0x3e41b5b4	0.1891697
120	0xbde7102b	-0.11282381
121	0xbcbec42c	-0.023286901
122	0x3cf2d6e4	0.029643483
123	0x3df37e11	0.1188928
124	0x3e4183a6	0.18897876
125	0x3da4dcea	0.080499485
126	0xbdba2fc5	-0.090911426
127	0x3df52913	0.11970725
128	0xbdfbc001	-0.12292481
129	0xbda6a9eb	-0.08137878
130	0xbd8d3de8	-0.06896573
131	0xbdd18d94	-0.10232082
132	0x3e3310e1	0.17486908
133	0xbde7c6fe	-0.113172516
134	0xbddd66a9	-0.108105965
135	0x3d149f66	0.036284827
136	0x3e40f786	0.18844423
137	0x3c8f50ca	0.017494578
138	0xbcba7f99	-0.022765921
139	0xbda854a9	-0.08219273
140	0x3e4f46e6	0.2024189
141	0xbdcb1a85	-0.099171676
142	0x3e010817	0.12600742
143	0xbe3c7eb9	-0.18407716
144	0x3e4d66e6	0.20058784
145	0xbe6c15c4	-0.23055178
146	0xbe8a72ba	-0.27040654
147	0xbd88c00f	-0.06677257
148	0x3d1a5b3d	0.037684668
149	0xbdc27bb5	-0.094962515
150	0xbc783d5d	-0.015151349
151	0xbd0b6aac	-0.034037277
152	0x3db319f0	0.087451816
153	0xbe2fac28	-0.17155516
154	0xbd278032	-0.04089374
155	0x3dc51aa3	0.09624221
156	0x3cd0f2a4	0.025506325
157	0xbd9b5aaa	-0.07585652
158	0xbdf717eb	-0.12065109
159	0xbd2c389d	-0.042046178
160	0x3e089c89	0.13340963
161	0xbdb67d9f	-0.08910679
162	0xbca7365d	-0.020411665
163	0x3d700bcd	0.058605004
164	0xbe0fb160	-0.14032507
165	0x3e1877a3	0.14889388
166	0xbd1bb649	-0.038015638
167	0xbe3aeae0	-0.1825366
168	0xbec00ed9	-0.37511328
169	0x3e6fdd20	0.23424196
170	0xbc90c40a	-0.017671604
171	0x3d9fffa9	0.07812435
172	0x3d3d2f99	0.04618797
173	0x3e0b5416	0.13606295
174	0x3de46228	0.11151534
175	0x3e3f3d42	0.18675712
176	0x3c023d62	0.007949205
177	0xbb6e4a53	-0.0036360219
178	0xbde4c277	-0.11169904
179	0x3d48931a	0.048968412
180	0x3e50c4fd	0.20387645
181	0xbe510e97	-0.20415722
182	0xbd263c96	-0.040585123
183	0x3da6a46d	0.081368305
184	0x3c787462	0.015164467
185	0xbda0a905	-0.07844738
186	0x3d054093	0.032532286
187	0x3d20dea2	0.03927482
188	0x3c5655ac	0.013081949
189	0xbe0a666f	-0.13515638
190	0x3da63bc5	0.08116869
191	0xbe041d63	-0.12901835
192	0x3cdca868	0.026935771
193	0xbdc2dd49	-0.09514863
194	0x3dfa266b	0.12214359
195	0xbe06c0c9	-0.13159479
196	0x3e24ea0b	0.16104905
197	0x3e10566e	0.1409547
198	0xbdefdce3	-0.11712053
199	0x3e4c87e2	0.1997371
200	0xbde517d9	-0.11186189
201	0xbd4dbea7	-0.05023065
202	0x3dd3b86f	0.10337912
203	0xbd87ac6b	-0.06624683
204	0xbe046eab	-0.12932841
205	0x3d42aa29	0.04752556
206	0xbd04ce8b	-0.032423537
207	0x3e18f6c7	0.14937888
208	0xbe455ed0	-0.1927445
209	0xbce3ea49	-0.027821677
210	0x3dae1c57	0.08501499
211	0x3d167b8b	0.036738914
212	0xbdd8f9ab	-0.105944954
213	0x3c1d9d90	0.009620085
214	0x3cf18329	0.029481487
215	0xbcf6046f	-0.030031411
216	0xbca2971b	-0.019847443
217	0x3dfef85d	0.12449715
218	0xbe237b05	-0.15964897
219	0xbe2bfb40	-0.16795063
220	0x3d9a2141	0.07525874
221	0x3d99d6e2	0.07511689
222	0x3d1b9ab6	0.03798934
223	0xbe0c3d41	-0.13695242
224	0xbe22fd4e	-0.1591694
225	0xbe2b1543	-0.1670733
226	0x3d39ba02	0.045343406
227	0x3d9e0b5b	0.0771701
228	0xbd24d4af	-0.040241893
229	0x3dca590d	0.09880266
230	0xbe01bf31	-0.1267059
231	0xbd9bf035	-0.07614175
232	0x3d0564f7	0.03256699
233	0x3c231ae7	0.0099551445
234	0x3c837fed	0.01605221
235	0x3bde1be0	0.0067782253
236	0xbdd2ab14	-0.10286537
237	0xbdaddf41	-0.08489848
238	0xbd89ffa9	-0.067382164
239	0x3c8b919e	0.01703721
240	0x3e6aec8e	0.22941801
241	0x3e50d4e7	0.20393716
242	0xbcac750e	-0.02105191
243	0x3e0d0b86	0.13773927
244	0xbdfea52b	-0.12433847
245	0x3e1535ce	0.14571306
246	0x3de773ed	0.11301408
247	0xbe0d637b	-0.1380748
248	0xbd8b5a16	-0.06804292
249	0xbdbe1554	-0.09281412
250	0x3d45abdb	0.048259597
251	0x3bbc5a8e	0.0057480996
252	0xbd3c328d	-0.045946646
253	0xbd7eb139	-0.06218073
254	0xbe17475c	-0.14773315
255	0xbd09cd21	-0.03364289

linear_layer.1.bias f4 [100]
0	0xbdaa5863	-0.0831764
1	0x3da9f033	0.082977675
2	0xbcc8afee	-0.024497952
3	0x3e423bc7	0.18968116
4	0xbcbbf39a	-0.022943307
5	0xbd845163	-0.06460836
6	0xbdea4a88	-0.11439997
7	0x3e088171	0.13330628
8	0xbde11ed4	-0.10992208
9	0x3dae6fc2	0.0851741
10	0xbdac288e	-0.08406173
11	0xbcaf4c1b	-0.021398595
12	0x3e0dba0c	0.13840503
13	0x3dc41bce	0.09575616
14	0xbd918b39	-0.07106633
15	0xbd9d883d	-0.07692001
16	0x3b8392b9	0.0040152934
17	0x3e027483	0.12739758
18	0x3cb49170	0.022042006
19	0xbd700416	-0.058597647
20	0xbd577733	-0.05260391
21	0x3d35da11	0.044397417
22	0xbcfb8d01	-0.030706884
23	0x3dbbf041	0.09176684
24	0x3e12fcc8	0.14354241
25	0x3d0b0848	0.033943444
26	0x3e1d009c	0.15332264
27	0xbd5e0834	-0.05420704
28	0xbdc06c30	-0.09395635
29	0xbd7a1ccf	-0.06106263
30	0xbe6b4f17	-0.22979389
31	0x3e01ae97	0.12664257
32	0x3b7ce395	0.0038587798
33	0xbdbe5c28	-0.09294921
34	0xbd952126	-0.07281713
35	0x3da6ed83	0.081507705
36	0x3e06add0	0.13152242
37	0xbe196d57	-0.14983116
38	0x3c296914	0.010339994
39	0xbca097d0	-0.01960364
40	0xbde603de	-0.11231206
41	0xbe09d84f	-0.13461421
42	0x3d04bd56	0.032407127
43	0x3e247f01	0.16064073
44	0xbd900922	-0.07032992
45	0x3c29d1c7	0.010364956
46	0x3b03e61c	0.002012617
47	0xbe10386a	-0.1408402
48	0x3d9a67b3	0.0753931
49	0xbdddd70a	-0.10832031
50	0xbd55aefb	-0.052168828
51	0xbb6a72d4	-0.003577401
52	0xbba26308	-0.004955653
53	0xbdf16111	-0.11786092
54	0x3c1b527a	0.009480113
55	0x3cb4397c	0.022000067
56	0x3e101718	0.1407131
57	0xbdbba51e	-0.09162353
58	0xbb371bd9	-0.0027940182
59	0x3cfdd031	0.030983062
60	0xbe0ed755	-0.1394933
61	0xbbc6b4b0	-0.00606402
62	0x3d12659e	0.03574144
63	0x3e2cc7e5	0.16873129
64	0x3d2c73fd	0.042102803
65	0x3d186a43	0.037210714
66	0xbdeb30c1	-0.114839084
67	0x3cb2978b	0.021800777
68	0x3b7e361d	0.0038789578
69	0xbe310e16	-0.1729053
70	0xbdc479f0	-0.0959357
71	0x3bdb33a9	0.006689508
72	0xbd34ea73	-0.0441689
73	0xbd207962	-0.03917826
74	0x3da90f42	0.08254863
75	0x3c280909	0.01025606
76	0x3da6daca	0.081471995
77	0xbe0aa767	-0.13540421
78	0x3d71fd87	0.059079673
79	0xbd546079	-0.051849816
80	0xbe0dd94f	-0.13852428
81	0xbd92b3c8	-0.07163197
82	0x3d108f01	0.03529263
83	0xbce6bf1f	-0.028167306
84	0x3dc6c2e3	0.097051404
85	0x3d01169f	0.031515714
86	0xbc159932	-0.009130763
87	0x3d75089b	0.05982266
88	0x3e27db5c	0.16392273
89	0xbd0c7797	-0.034293737
90	0xbdb4a07e	-0.08819674
91	0xbe48b868	-0.19601595
92	0x3dc68014	0.09692398
93	0x3ce048ea	0.027378518
94	0x3d55fb38	0.052241534
95	0x3d144372	0.036197133
96	0x3d8731e0	0.0660131
97	0xbc1a09f4	-0.009401787
98	0xbc2b6ed3	-0.010463434
99	0x3dbdf3dc	0.09275028

linear_layer.2.weight f4 [100, 100]
0	0xbd5613dc	-0.052265033
1	0x3ce8493d	0.028355235
2	0x3d869c39	0.06572766
3	0xbe84816e	-0.25879997
4	0x3dc0aad0	0.0940758
5	0xbd23ffc5	-0.040038843
6	0x3d7a2b9f	0.061076757
7	0xbdb77028	-0.08956939
8	0x3dc6786f	0.0969094
9	0xbd67f968	-0.056634337
10	0xbd2dda2e	-0.0424444
11	0x3d19a4d3	0.037510704
12	0xbd869ff3	-0.06573477
13	0xbdc0733f	-0.093969814
14	0x3cdb18df	0.026745258
15	0xbe0b2386	-0.1358777
16	0x3d3f53d8	0.04671082
17	0xbdb4c864	-0.08827284
18	0xbd0e563d	-0.034750212
19	0x3e03e8ed	0.12881823
20	0x3ce27e10	0.027648002
21	0x3d4458f3	0.04793639
22	0xbd7e7420	-0.062122464
23	0xbd99193e	-0.07475518
24	0xbe045b0d	-0.12925358
25	0x3ab9b9f6	0.00141698
26	0xbe665650	-0.22493863
27	0xbc867736	-0.016414266
28	0x3ce8c6d8	0.028415129
29	0xba43ead4	-0.0007473652
30	0x3d547103	0.05186559
31	0xbd73f030	-0.059555233
32	0x3c837a06	0.016049396
33	0x3bc4bbc1	0.0060038273
34	0x3d91c342	0.071173206
35	0xbc13cd63	-0.009021136
36	0xbcd94cd6	-0.026525896
37	0x3e9b0498	0.30276942
38	0x3cf52a44	0.02992738
39	0xbd8b17a5	-0.06791619
40	0x3e112f21	0.14178135
41	0x3e2af540	0.16695118
42	0x3d9ddcdf	0.077081434
43	0x3c0c86f0	0.0085770935
44	0x3dfab47d	0.12241457
45	0xbc7f6904	-0.0155890025
46	0x3dec8724	0.115492135
47	0x3d4a935c	0.04945694
48	0xbe257f6a	-0.16161886
49	0x3df524ad	0.11969886
50	0x3c5446d3	0.012956339
51	0x3d810023	0.06298854
52	0xbe093f6b	-0.13403098
53	0x3d311e53	0.04324181
54	0xbdea0bb7	-0.11428016
55	0xbd06296a	-0.03275434
56	0xbeac3ea5	-0.33641544
57	0x3d680196	0.056642137
58	0x3db93747	0.090437464
59	0x3c4d01af	0.012512608
60	0xbd07a4d0	-0.03311616
61	0x3b85bc73	0.004081303
62	0xbcd7355f	-0.026270567
63	0xbccbfa80	-0.024899721
64	0x3d099154	0.03358586
65	0x3e00c671	0.125757
66	0x3d7feb23	0.062480103
67	0xbd671209	-0.056413684
68	0x3db77b1d	0.08959029
69	0x3ceba044	0.028762944
70	0x3e78d9b5	0.24301799
71	0x3e82b6b1	0.25530007
72	0x3c9058fd	0.017620558
73	0xbe0199fd	-0.12656398
74	0xbe4e56bc	-0.20150274
75	0x3ce84d29	0.028357105
76	0xbd1a302b	-0.037643593
77	0xbc7261f8	-0.014793865
78	0xbd9d291a	-0.07673855
79	0x3dd2dea6	0.10296373
80	0xbdaf73d8	-0.08567017
81	0x3d5f660f	0.05454069
82	0xbc41a943	-0.01182014
83	0x3ddd1511	0.10795034
84	0x3e6ec290	0.23316407
85	0xbe07de16	-0.13268313
86	0x3e2707d4	0.1631158
87	0xbe8aff34	-0.2714783
88	0xbda0e2ba	-0.07855745
89	0xbdeaba72	-0.11461343
90	0x3d537ce4	0.051632777
91	0x3e13b05d	0.14422746
92	0x3b054fb4	0.0020341696
93	0xbdf1716d	-0.117892124
94	0xbcf6d62e	-0.030131426
95	0xbcf44350	-0.029817253
96	0xbd8b92ae	-0.06815086
97	0x3c9b64c5	0.01896895
98	0x3c348673	0.011018383
99	0x3d5cba78	0.053888768
100	0xbc6fd4d9	-0.014638149
101	0x3c90bda3	0.01766855
102	0xbd433040	-0.047653437
103	0xbead1768	-0.3380692
104	0x3b06aee6	0.0020551025
105	0x3d997100	0.07492256
106	0x3dae4a96	0.0851032
107	0xbe8801b6	-0.26563805
108	0x3d553643	0.0520537
109	0xbe17457e	-0.14772603
110	0x3deb8222	0.1149943
111	0xbe02fb93	-0.1279128
112	0xbda8a4f1	-0.08234585
113	0xbe98f6e8	-0.29875875
114	0xbdb62792	-0.08894266
115	0x3d17f4ff	0.03709888
116	0xbba68f96	-0.0050830347
117	0xbde953b0	-0.11392915
118	0x3da62d5b	0.081141196
119	0x3d75e83b	0.060035925
120	0x3de66d1e	0.11251281
121	0x3e0de694	0.1385749
122	0xbc3f1969	-0.011663773
123	0xbd9e0c5c	-0.07717201
124	0x3d2fe0ae	0.04293888
125	0x3d5bf586	0.053700946
126	0xbe89c077	-0.26904652
127	0x3dbe1ccd	0.09282837
128	0x3dcf307f	0.10116672
129	0x3c570421	0.013123543
130	0x3dfad074	0.122467905
131	0xbe69292c	-0.22769612
132	0x3e8b3cc1	0.2719479
133	0x3dda193f	0.106493466
134	0xbd317ca1	-0.043331746
135	0xbda91f05	-0.0825787
136	0xbb5a6d28	-0.0033329222
137	0x3db57ebf	0.088620655
138	0x3e6d3761	0.23165657
139	0xb9e7aeb1	-0.0004418991
140	0x3e42f3da	0.19038334
141	0xbb9fc095	-0.0048752525
142	0x3e166a20	0.14688921
143	0x3c6842d8	0.014176093
144	0x3e03c098	0.12866437
145	0x3e37588f	0.17904876
146	0xbe32a9c9	-0.1744758
147	0x3d7785af	0.060430225
148	0xbe6d0720	-0.23147249
149	0x3da3d3de	0.07999395
150	0xbcc6181c	-0.024181418
151	0xbe27f0d8	-0.16400468
152	0x3db151cc	0.0865818
153	0x3dab95ea	0.08378203
154	0x3e63451f	0.22194336
155	0x3e1df86f	0.15426801
156	0xbdb89ec4	-0.09014657
157	0x3c8d5e57	0.017256899
158	0xbd7c4030	-0.06158465
159	0xbd985c45	-0.07439474
160	0x3d4ac848	0.04950741
161	0x3e181813	0.14852934
162	0x3e40a73f	0.188138
163	0xbd040631	-0.032232467
164	0xbe7f8c11	-0.24955775
165	0xbd7eb682	-0.06218577
166	0x3c206a1f	0.009790926
167	0x3c8a4fce	0.016883757
168	0x3ac05bf3	0.001467584
169	0x3d2e5d5f	0.042569514
170	0xbc63b46d	-0.013897997
171	0x3d90dd14	0.07073417
172	0x3c9c2809	0.019062059
173	0xbdfeaccd	-0.12435303
174	0xbb5cdf8d	-0.0033702583
175	0xbda43656	-0.08018176
176	0xbb9f038e	-0.0048527187
177	0x3e0b1106	0.13580713
178	0x3ba6a5ce	0.0050856834
179	0x3dc31173	0.095248125
180	0x3ca5318d	0.02016523
181	0xbdad7be6	-0.084708974
182	0xbe05473c	-0.13015455
183	0xbe1b7858	-0.15182626
184	0xbd397096	-0.045273386
185	0x3e071f7d	0.13195606
186	0x3d69bc8c	0.057064578
187	0xbdfdf8a4	-0.1240094
188	0xbcfc8a38	-0.030827627
189	0xbd846888	-0.0646525
190	0x3d55ac12	0.052166052
191	0x3dd8395c	0.105578154
192	0x3d41e835	0.04734059
193	0xbe0bbb1d	-0.13645597
194	0xbc788c78	-0.015170209
195	0xbdc69970	-0.09697235
196	0x3d52cd66	0.051465414
197	0x3d26d7d8	0.04073319
198	0x3c930f01	0.01795149
199	0xbd550231	-0.052004043
200	0xbccda98c	-0.02510526
201	0xbdbf22b2	-0.093327895
202	0xbd0786da	-0.03308759
203	0x3d5ea151	0.054353062
204	0x3e1f9d7e	0.15587422
205	0xbdabc5c8	-0.08387333
206	0x3da03b7f	0.07823848
207	0x3d063176	0.032762013
208	0xbd6fe8e8	-0.058571726
209	0x3e4d1f98	0.20031583
210	0xbe265c84	-0.1624623
211	0xbe05f8b3	-0.13083152
212	0xbdcaa2fc	-0.09894368
213	0xbe2ad506	-0.16682824
214	0xbd1abd41	-0.037778143
215	0x3d84b9b6	0.06480734
216	0x3e3b498d	0.18289776
217	0x3dca7325	0.09885243
218	0xbe2752b4	-0.16340142
219	0xbc0074a2	-0.007840307
220	0xbe0727ec	-0.13198823
221	0x3df42a44	0.11922124
222	0xbe817195	-0.2528197
223	0x3da133d6	0.07871215
224	0xbddca0a9	-0.10772831
225	0xbda8228a	-0.08209713
226	0x3de7f996	0.113269016
227	0x3c8fe760	0.017566383
228	0xbe1f69c0	-0.15567684
229	0x3d71d613	0.059042048
230	0xbe0c10e9	-0.13678326
231	0x3dc3a5ba	0.09553094
232	0xbda7df7c	-0.08196923
233	0x3d0f7093	0.03501947
234	0xbd41b22a	-0.04728905
235	0x3e01326f	0.12616895
236	0xbd8799b3	-0.06621113
237	0xbe384450	-0.17994809
238	0xbc14328c	-0.009045254
239	0x3d8d0def	0.06887423
240	0xbe13d824	-0.1443792
241	0x3c4e3bdb	0.012587513
242	0xbdecf755	-0.11570612
243	0x3b2f84c0	0.0026782006
244	0x3c522ec0	0.012828529
245	0xbdb4c965	-0.088274755
246	0xbc01a0e8	-0.007911898
247	0x3c1ebbe8	0.009688355
248	0xbcd766f7	-0.026294215
249	0xbd186d0b	-0.037213366
250	0xbe0d9774	-0.13827306
251	0x3d745167	0.059647944
252	0xbddf4fcb	-0.10903891
253	0x3d09fcb2	0.033688255
254	0x3cb1f2d0	0.021722227
255	0x3c960035	0.018310646

linear_layer.2.bias f4 [100]
0	0xbd8a7885	-0.067612685
1	0xbd6c7251	-0.057726208
2	0x3c9f56c2	0.019450549
3	0x3d0f519e	0.034989946
4	0x3c907f7f	0.01763892
5	0x3d336d7a	0.043805577
6	0x3d6e4ef0	0.05818075
7	0x3d250a20	0.04029286
8	0xbbff1f77	-0.0077857333
9	0x3d079eb6	0.033110343
10	0xbd184d08	-0.037182838
11	0xbd8084a1	-0.06275297
12	0xbdd0c2e4	-0.101934224
13	0x3e3c9cd6	0.18419203
14	0xbc8483fb	-0.016176214
15	0xbcde56d7	-0.027141018
16	0xbd966120	-0.07342744
17	0x3e19c52a	0.15016618
18	0x3bdd0f68	0.0067462213
19	0xbce16b6c	-0.027517043
20	0xbe0b8b3b	-0.13627331
21	0xbd5230fc	-0.051316246
22	0x3c6e2410	0.014534965
23	0x3daf1621	0.08549143
24	0x3c9551e7	0.01822753
25	0xbd76308c	-0.06010489
26	0xbd63ba5a	-0.05559764
27	0xbd8f2f9f	-0.06991505
28	0x3d72f146	0.059312128
29	0xbd92dac0	-0.071706295
30	0xbdf1d08f	-0.118073575
31	0xbd3f4527	-0.04669681
32	0x3d01837f	0.031619545
33	0x3d5c1211	0.053728167
34	0xbca5c9ea	-0.020237882
35	0xbd9f4dbb	-0.07778498
36	0xbd059a89	-0.03261808
37	0xbd823ab4	-0.06358853
38	0xbcfd1146	-0.030892026
39	0xbcfad42a	-0.030618746
40	0xbd0ce611	-0.034399096
41	0xbdcc5e7b	-0.09978958
42	0xbd264488	-0.0405927
43	0x3d159d40	0.03652692
44	0x3c2fa24f	0.01071985
45	0x3ce7e328	0.028306559
46	0x3cdb4896	0.02676801
47	0x3bef9901	0.0073119407
48	0x3db9f41b	0.090797625
49	0x3c12093d	0.008913335
50	0xbcc6e8ed	-0.02428099
51	0x3b9de5e5	0.0048186653
52	0x3daa1cb1	0.08306254
53	0x3dda939d	0.10672686
54	0x3d9918ab	0.07475408
55	0xbec19a21	-0.37812904
56	0xbd8aa480	-0.06769657
57	0xbc96082c	-0.018314444
58	0x3be50f84	0.006990375
59	0xbd608565	-0.054814715
60	0x3e2f9953	0.17148332
61	0x3d4a1c76	0.04934355
62	0x3e23b1ef	0.15985845
63	0x3d1a50f5	0.037674863
64	0xbd2e5080	-0.04255724
65	0xbce3adc6	-0.027792823
66	0xbd8bd841	-0.068283565
67	0x3c117cd7	0.008879862
68	0xbe56d90f	-0.20981239
69	0x3c2fc255	0.010727485
70	0x3c957b72	0.01824734
71	0x3cf40a53	0.02979008
72	0x3cc2be63	0.023772424
73	0xbbdf2b03	-0.0068105473
74	0xbcc16d25	-0.023611614
75	0xbd661d39	-0.056180213
76	0xbc671224	-0.014103446
77	0x3c0fcf78	0.008777492
78	0x3ce88c8b	0.028387329
79	0xbdbe1579	-0.09281439
80	0xbd8ced33	-0.0688118
81	0xbc9356b5	-0.017985681
82	0xbdcabef5	-0.098997034
83	0xbd207142	-0.03917051
84	0x3d35c0a3	0.044373166
85	0x3d67cbff	0.05659103
86	0x3c97978d	0.018504882
87	0x3e69eb3f	0.22843646
88	0xbd283bd6	-0.04107269
89	0xbbaaf5ee	-0.0052173054
90	0x3c96bb59	0.018399881
91	0x3d3fdc50	0.046840966
92	0xbc9ed0eb	-0.01938673
93	0xbe9a7357	-0.30166122
94	0x3bb06650	0.0053832904
95	0xbd934fdd	-0.07192967
96	0xbd2f241f	-0.042759057
97	0x3c613655	0.013745864
98	0xbd861ec8	-0.0654884
99	0xbc9a7bbc	-0.01885783

linear_layer.3.weight f4 [100, 100]
0	0xbe27d91b	-0.16391413
1	0x3dd1830c	0.10230073
2	0xbd4a10d0	-0.04933244
3	0x3e29ebd4	0.16593868
4	0xbb7da0ba	-0.0038700537
5	0xbcbd08e5	-0.02307553
6	0x3d7a2f83	0.061080467
7	0x3de92896	0.11384694
8	0xbdfba826	-0.12287931
9	0xbdcd4fad	-0.100249626
10	0xbe61d19b	-0.22052614
11	0x3d9bb7af	0.07603394
12	0xbe104efc	-0.1409263
13	0x3f1fb2ae	0.6238202
14	0xbd7aefee	-0.06126397
15	0x3d11b0ad	0.03556888
16	0xbe81ba96	-0.25337666
17	0x3e1b2f3b	0.15154736
18	0xbdbe4f57	-0.092924766
19	0x3c976d8f	0.018484859
20	0xbed5e75f	-0.41778085
21	0xbdfaff9f	-0.12255787
22	0xbd00fccc	-0.031491086
23	0x3e110f51	0.14165999
24	0x3ba1fec2	0.0049436996
25	0x3d957347	0.07297378
26	0xbc8360e7	-0.016037418
27	0xbd920dbe	-0.07131527
28	0x3e5ed30c	0.21760195
29	0xbc5b5c19	-0.013388657
30	0xbe23154c	-0.15926093
31	0xbe14af64	-0.14520031
32	0xbdff8d04	-0.124780685
33	0xbd0dca7a	-0.034616925
34	0xbd836018	-0.06414813
35	0xbc82edb9	-0.015982496
36	0xbe9c382b	-0.30511603
37	0xbe567276	-0.20942101
38	0xbe7c5aaa	-0.2464396
39	0xbdedcbf5	-0.11611167
40	0x3e0e2f66	0.13885269
41	0xbe4f82fb	-0.20264809
42	0xbe252ee2	-0.16131166
43	0x3e15c372	0.14625338
44	0x3d2252e1	0.03962982
45	0xbcb07eb9	-0.021544801
46	0x3d5a00f8	0.05322358
47	0x3e2ee8f9	0.1708106
48	0xbe78a689	-0.24282278
49	0x3de2dc65	0.11077193
50	0x3e021f66	0.1270729
51	0xbd81226a	-0.06305392
52	0xbce1e9b8	-0.027577266
53	0x3e9f2bac	0.31088006
54	0x3e79d595	0.24397881
55	0x3b763f28	0.0037574265
56	0x3db453df	0.0880506
57	0xbe23a8f8	-0.15982425
58	0xbe20ba10	-0.15695977
59	0xbe06356f	-0.13106321
60	0x3c7ef079	0.015560263
61	0xbe090513	-0.13380842
62	0x3ea75ddb	0.32688794
63	0xbdb78255	-0.08960406
64	0x3dcbc9a9	0.09950573
65	0x3c3a5f0d	0.011375201
66	0x3d612793	0.05496938
67	0xbc931675	-0.017955044
68	0x3dd270f9	0.10275454
69	0xbc92dbed	-0.017927134
70	0x3e43a52f	0.19105981
71	0xbd3ed83e	-0.046592943
72	0x3dcb471d	0.09925673
73	0xbcc48b93	-0.023992335
74	0x3e45e1bb	0.1932439
75	0x3dd409b1	0.10353411
76	0xbd9d3a46	-0.076771304
77	0xbc4a6e65	-0.012355422
78	0x3c5af536	0.013364127
79	0xbe872ba6	-0.2640049
80	0x3bb4a87e	0.00551325
81	0x3df62c50	0.12020171
82	0xbd9e6159	-0.07733411
83	0xbca0ff84	-0.01965309
84	0x3e7bc5d3	0.24587183
85	0xbe10e508	-0.14149868
86	0x3d18d06f	0.037308153
87	0x3cf8c76c	0.03036853
88	0xbe046bb2	-0.12931708
89	0x3d13a21e	0.03604328
90	0xbe45208f	-0.19250701
91	0x3e8c71c2	0.2743054
92	0xbb89d0ed	-0.004205814
93	0x3d95bc42	0.07311298
94	0x3c0a4f66	0.008441782
95	0x3e07621b	0.13221018
96	0x3da00ffe	0.0781555
97	0x3d0bb05f	0.034103747
98	0xbe4093ac	-0.18806332
99	0xbdbbed4b	-0.091761194
100	0x3e34849b	0.1762871
101	0xbc3b9396	-0.011448761
102	0x3c21c173	0.009872782
103	0xbdf4fef5	-0.11962692
104	0x3d01b4bf	0.031666514
105	0x3cc25446	0.023721825
106	0xbde0d760	-0.109785795
107	0x3d78f428	0.06077972
108	0x3bb89c5d	0.0056338743
109	0xbd8a279e	-0.06745838
110	0xbdd34f87	-0.10317903
111	0x3e066775	0.13125403
112	0xbd27b19b	-0.040940862
113	0x3e92eb14	0.28694975
114	0xbddcaac5	-0.10774759
115	0xbcbb75bb	-0.022883287
116	0xbd79fd41	-0.061032537
117	0xbdafcb5d	-0.0858371
118	0x3dcfe184	0.101504356
119	0x3c9c6cd4	0.019094862
120	0x3dc76c39	0.09737439
121	0xbd90b936	-0.07066576
122	0xba5f2df8	-0.0008513625
123	0xbe388132	-0.18018034
124	0xbe1f06ba	-0.1552991
125	0x3dccb286	0.09994988
126	0x3cca7f1a	0.02471881
127	0xbe418f38	-0.1890229
128	0x3e1f115a	0.15533963
129	0x3dc90dfa	0.09817119
130	0xbe33b189	-0.17548193
131	0x3e4e3182	0.20136073
132	0x3d4930f8	0.049118966
133	0xbe2b26bd	-0.16713996
134	0x3d93daa0	0.07219434
135	0xbd5e3c7b	-0.054256897
136	0x3dee834e	0.11646138
137	0xbe6582dc	-0.224132
138	0x3b2f9f1a	0.0026797713
139	0xbbe5ee11	-0.007016905
140	0x3c8675e8	0.016413644
141	0x3dcdabad	0.1004251
142	0xbd2d1e3e	-0.04226517
143	0x3d1384c6	0.036015294
144	0x3e4d2db5	0.20036967
145	0xbbe037b9	-0.00684258
146	0xbe31d9a1	-0.17368175
147	0x3d1ddcf4	0.038540795
148	0x3d1ef932	0.03881187
149	0x3e29cbe1	0.1658168
150	0x3d762be3	0.060100447
151	0x3c6f0530	0.014588639
152	0x3def8746	0.11695723
153	0xbcde654a	-0.027147908
154	0x3d4d34b1	0.05009908
155	0xbd2a2b6e	-0.041545324
156	0xbd5f0e00	-0.05445671
157	0xbd9d6769	-0.076857395
158	0x3e008904	0.12552267
159	0x3d86f4ee	0.065896854
160	0x3d806c72	0.06270684
161	0xbdb18dc6	-0.08669619
162	0xbbbe9272	-0.0058157975
163	0xbd2b3496	-0.041798197
164	0x3db9a863	0.0906532
165	0xbdcfda0e	-0.101490125
166	0xbe2a16bc	-0.16610235
167	0xbcca290d	-0.024677778
168	0xbe05d939	-0.13071145
169	0xbe3a1bc8	-0.1817466
170	0xbd916840	-0.07099962
171	0xbca99185	-0.020699272
172	0x3e4e90f6	0.20172486
173	0xbd8c53b1	-0.068519
174	0xbdb4018e	-0.08789359
175	0xbd3f1c6a	-0.046657957
176	0xbdbddd8c	-0.09270772
177	0xbe194d43	-0.1497088
178	0x3c166321	0.009178908
179	0xbc35234c	-0.011055779
180	0xbd1cc02e	-0.038269214
181	0xbd3b25a7	-0.045690205
182	0xbcb4528b	-0.022012016
183	0x3e20458b	0.15651529
184	0x3d2bef94	0.041976526
185	0x3d863ec4	0.0655494
186	0x3b314255	0.0027047594
187	0xbde926c6	-0.113843486
188	0xbcea955e	-0.028635677
189	0xbce97065	-0.028495977
190	0x3c19e57c	0.009393092
191	0x3dd078bc	0.10179278
192	0xbcf51058	-0.02991502
193	0xbd391134	-0.04518242
194	0x3cbd73f3	0.023126578
195	0xbdf17e8b	-0.11791714
196	0xb922dfdc	-0.00015532918
197	0xbdd8908e	-0.105744466
198	0xbe4f516d	-0.20245905
199	0x3c9b19b8	0.018933162
200	0xbca09dc6	-0.019606482
201	0x3ce28beb	0.027654609
202	0xbd54a722	-0.051917203
203	0xbdb745b2	-0.0894884
204	0xbc80bfc9	-0.01571645
205	0xbdaf32f3	-0.0855464
206	0xbd513b51	-0.05108196
207	0xbde9e21d	-0.11420081
208	0x3d2bef92	0.04197652
209	0xbe1d144e	-0.15339777
210	0x3d5b3603	0.053518306
211	0x3e1323f0	0.14369178
212	0xbdcdbb3e	-0.10045479
213	0xbbdf37b0	-0.0068120584
214	0x3cb9924d	0.02265277
215	0x3d57e63c	0.052709803
216	0xbc137888	-0.009000905
217	0xbe00ffba	-0.12597552
218	0xbe6eb7ea	-0.23312345
219	0xbd20bd42	-0.03924299
220	0x3e5c2279	0.21497525
221	0x3c519c45	0.012793605
222	0x3ce89c80	0.028394938
223	0xbde2578a	-0.11051853
224	0x3c0df2c9	0.0086638415
225	0xbd436f2f	-0.047713455
226	0x3df828e1	0.12117172
227	0x3dae0d01	0.08498574
228	0xbd43f8d4	-0.047844723
229	0x3db52f3c	0.088469
230	0xbd899c3c	-0.067192525
231	0xbd829a80	-0.06377125
232	0x3d5c1cda	0.053738452
233	0xbde68d28	-0.11257392
234	0xbe4814d9	-0.19539203
235	0x3e55825d	0.20850511
236	0x3da187bb	0.07887217
237	0x3d5dae7e	0.054121487
238	0x3d81a868	0.06330949
239	0x3e82b7e4	0.25530922
240	0x3d716297	0.058931913
241	0x3d84d9d1	0.06486858
242	0xbd90c83a	-0.0706944
243	0xbdf3ab0d	-0.1189786
244	0x3dacd4ae	0.08439003
245	0xbd65844c	-0.05603437
246	0xbde95497	-0.11393087
247	0xbc5193f4	-0.012791622
248	0xbbecf91c	-0.0072318446
249	0xbe3888e6	-0.18020973
250	0x3d17904b	0.037002843
251	0x3dbad7ab	0.09123167
252	0xbd9b8630	-0.075939536
253	0xbd358e85	-0.04432537
254	0xbe3f4b76	-0.1868113
255	0x3e5b4f5e	0.21416995

linear_layer.3.bias f4 [100]
0	0x3dd23868	0.10264665
1	0x3c8265f8	0.015917763
2	0xbd76f18d	-0.060288955
3	0xbdecae84	-0.11556724
4	0xbc93ef97	-0.018058581
5	0xbd282b9c	-0.041057214
6	0x3dbf104b	0.093292795
7	0x3d435922	0.047692426
8	0x3d35d96f	0.044396814
9	0x3b7cb6a0	0.0038561001
10	0xbd3d0388	-0.046145946
11	0xbcffa968	-0.031208709
12	0x3c9a5402	0.018838886
13	0x3d174d88	0.036939174
14	0x3c132687	0.008981354
15	0x3ca94e08	0.020667091
16	0xbda375b2	-0.07981433
17	0xbb6d7e89	-0.003623875
18	0x3c98dac3	0.018659001
19	0x3d2bc5c8	0.041936666
20	0xbd6c0564	-0.05762233
21	0x3d64df7d	0.055877198
22	0x3cef8571	0.029238435
23	0x3d250418	0.040287107
24	0x3c045ec5	0.008079235
25	0xbd3fbeb1	-0.046812717
26	0x3d8c1f46	0.068419024
27	0x3d85948c	0.06522474
28	0x3d1c2d12	0.03812892
29	0x3d727ab9	0.05919907
30	0xbcce8dbc	-0.025214069
31	0xbb5a970d	-0.0033354193
32	0x3cb04ecf	0.021521954
33	0x3cf3c226	0.029755663
34	0xba4a03f0	-0.0007706275
35	0xbcee56a0	-0.02909404
36	0x3c87bdd1	0.016570004
37	0xbc6f4f0b	-0.014606248
38	0xbd433a41	-0.047662977
39	0xbc1c516a	-0.009540895
40	0xbc56fe4c	-0.013122153
41	0x3c77c735	0.015123178
42	0x3d597ab5	0.05309554
43	0xbc539354	-0.012913544
44	0x3d9c674b	0.07636889
45	0x3d88b81d	0.06675742
46	0x3dd53ec3	0.104123615
47	0xbe4cd3c1	-0.20002653
48	0x3d59174b	0.05300073
49	0xbd42efa6	-0.047591828
50	0x3d06ecf3	0.032940816
51	0xbcd3519b	-0.025795748
52	0xbc214e83	-0.009845379
53	0xb9e9caeb	-0.0004459241
54	0xbcb5562b	-0.022135815
55	0xbcd7b160	-0.026329696
56	0xbd4cb6e2	-0.0499791
57	0xbc756e66	-0.014979934
58	0x3d425af4	0.04745002
59	0x3d4358ea	0.047692217
60	0x3ba65788	0.0050763525
61	0x3cfa4555	0.030550638
62	0x3c0e45fc	0.008683678
63	0x3c674143	0.014114681
64	0x3cd3a303	0.025834566
65	0x3c87cad2	0.016576204
66	0x3d8b6572	0.068064585
67	0xbb7ed54f	-0.0038884466
68	0x3c67b981	0.014143349
69	0xbd38a1d0	-0.04507619
70	0x3cf763c9	0.030198948
71	0xbd1d56d6	-0.03841289
72	0xba23b74b	-0.00062452693
73	0xbc302672	-0.010751354
74	0xbd232009	-0.039825473
75	0x3cb77201	0.022393228
76	0xbc55fd09	-0.013060817
77	0xbea85839	-0.3287981
78	0x3d5716c3	0.05251194
79	0xbd7666fe	-0.060156815
80	0xbbf9669f	-0.0076111103
81	0x3cb11ba5	0.021619627
82	0x3aacf113	0.0013194404
83	0xbcc6e876	-0.024280768
84	0xbce38390	-0.027772695
85	0x3d3e3541	0.046437506
86	0x3cbc5c4b	0.022993227
87	0x3d7cff09	0.061766658
88	0xbd142245	-0.036165494
89	0x3c58d89b	0.0132352365
90	0x3cfeb21c	0.031090789
91	0x3ced8a18	0.028996512
92	0x3d2dc513	0.042424273
93	0xbd18056a	-0.03711454
94	0x3c605b57	0.013693652
95	0x3d31ac86	0.04337742
96	0x3cb8f729	0.022578793
97	0x3cabe1d9	0.020981716
98	0xbd30a2cf	-0.043124016
99	0xbd65f77d	-0.056144226

linear_layer.4.weight f4 [100, 100]
0	0xbca361c5	-0.019944081
1	0x3d109f5a	0.03530822
2	0x3d94be95	0.07262913
3	0x3d9f4c81	0.07778264
4	0x3d623c2a	0.05523316
5	0xbb2cc1ae	-0.002636056
6	0xbd56bcd0	-0.05242616
7	0x3e160764	0.14651257
8	0x3d9fd243	0.07803776
9	0x3cc9ef68	0.02465029
10	0xbe16a80c	-0.14712542
11	0x3dcff6e4	0.101545125
12	0x3db34f9c	0.08755419
13	0x3e1b60bf	0.15173624
14	0x3e01f763	0.12692027
15	0x3e5fce4b	0.21856038
16	0x3e038b16	0.12846026
17	0x3eabe739	0.33574846
18	0x3c3eddc2	0.011649551
19	0x3d17755d	0.03697716
20	0x3c82e4d0	0.015978247
21	0x3d53d297	0.051714506
22	0xbcaf5e63	-0.021407312
23	0x3e093a74	0.13401204
24	0x3e1c1db3	0.15245704
25	0xbdce00ac	-0.10058722
26	0x3d92d1af	0.071689
27	0xbdd20332	-0.10254516
28	0x3e26c1c8	0.16284859
29	0xbd1477b2	-0.036246963
30	0x3e076b53	0.13224535
31	0xbd83641c	-0.06415579
32	0xbe24e0e0	-0.16101408
33	0x3d31babe	0.04339098
34	0x3bc50fd6	0.0060138507
35	0x3b966fd4	0.0045909677
36	0xbe4addd3	-0.19811182
37	0x3d7d0551	0.06177265
38	0x3e119a02	0.14218906
39	0x3cbdbc56	0.023161095
40	0xbe54ecfa	-0.20793524
41	0xbe8a7f8b	-0.27050433
42	0xbe8d0fdf	-0.2755117
43	0x3daa9971	0.08330048
44	0xbd33c748	-0.04389122
45	0xbe87006d	-0.26367512
46	0x3e32c6e0	0.17458677
47	0xbd62ab78	-0.055339307
48	0x3d8f2f23	0.069914125
49	0x3cb840d3	0.022491848
50	0xbd53a194	-0.051667765
51	0xbdcc2567	-0.099680714
52	0xbdc1ce17	-0.09463137
53	0xbc9dbc38	-0.019254789
54	0x3c043923	0.008070263
55	0x3d80633c	0.062689275
56	0x3d5ec175	0.054383714
57	0x3d975043	0.073883556
58	0x3db0f83d	0.08641098
59	0x3d75a244	0.0599692
60	0x3da7dc52	0.0819632
61	0x3c0fdfbd	0.008781371
62	0x3c807da0	0.015684903
63	0x3ce548fd	0.027988905
64	0x3e03e84d	0.12881584
65	0x3d1ca253	0.038240742
66	0x3c589a1b	0.013220335
67	0xbc27bc2b	-0.010237734
68	0xbe5c66f4	-0.21523649
69	0x3de45e03	0.11150744
70	0x3cade191	0.021225723
71	0x3d61f8a1	0.05516875
72	0xbdb75696	-0.08952062
73	0x3e428966	0.18997726
74	0x3ca17c28	0.019712523
75	0xbe23285d	-0.15933366
76	0x3db05784	0.08610442
77	0x3dc3f5ce	0.09568368
78	0xbc7c0031	-0.015380905
79	0x3cfec4c8	0.031099692
80	0x3d36676b	0.04453222
81	0x3da351b4	0.07974568
82	0x3d670cd3	0.056408715
83	0xbb8d17ed	-0.0043058307
84	0xbd39fc65	-0.045406718
85	0xbc15ac32	-0.009135293
86	0x3e090564	0.13380963
87	0xbc8209a5	-0.01587374
88	0xbcd2adca	-0.025717635
89	0xbcef6b4b	-0.029225966
90	0xbc96d3a9	-0.018411474
91	0x3e007593	0.12544851
92	0xbe5903de	-0.21192881
93	0x3d99b114	0.07504478
94	0xbda58419	-0.08081836
95	0xbdaf4157	-0.085573845
96	0x3ca154ad	0.019693697
97	0xbc9077f9	-0.017635332
98	0xbddc43c9	-0.107551165
99	0xbcf6cebc	-0.030127876
100	0xbdd0c089	-0.10192973
101	0x3b59ddcf	0.003324378
102	0xbdfd44d3	-0.12366643
103	0x3c80bf9d	0.015716368
104	0xbce1aea7	-0.027549101
105	0xbd9166a4	-0.07099655
106	0xbe5942b4	-0.21216851
107	0x3c5a3293	0.013317722
108	0x3c2f4914	0.0106985755
109	0xbd8c3f55	-0.06848017
110	0xbcf47ef9	-0.029845702
111	0xbc97679a	-0.018482018
112	0x3e097430	0.13423228
113	0x3dde6bd2	0.10860409
114	0x3e6512d6	0.22370467
115	0xbd40325c	-0.046923026
116	0xbdf4b2ca	-0.11948164
117	0xbda5f19f	-0.08102726
118	0xbd7de5bc	-0.06198667
119	0x3d8a533b	0.06754156
120	0xbda66ef9	-0.08126635
121	0x3dd64e22	0.104641214
122	0x3dbd2a41	0.09236575
123	0xbd990fb8	-0.07473701
124	0x3c90bcae	0.017668094
125	0xbd3bdc8d	-0.04586463
126	0x3d96a3f6	0.07355492
127	0x3e0a66e7	0.13515817
128	0x3e6eb15d	0.23309846
129	0x3dab70ef	0.0837115
130	0xbd8a0962	-0.06740071
131	0x3d89e226	0.067325875
132	0x3d66b7b3	0.056327533
133	0x3cdfd292	0.027322087
134	0xbcd5c777	-0.026096089
135	0xbe682e01	-0.22673799
136	0xbdf7357a	-0.12070747
137	0xbdc2bda0	-0.09508824
138	0x3de001d7	0.10937851
139	0x3dbba733	0.0916275
140	0x3d23ec46	0.04002025
141	0x3d055277	0.032549348
142	0x3db85350	0.090002656
143	0x3e2794c1	0.16365339
144	0x3d3177fc	0.043327317
145	0xbd28ca67	-0.04120865
146	0x3e6862db	0.2269396
147	0x3de662f1	0.1124934
148	0xbd1a6e61	-0.03770292
149	0xbe229e41	-0.15880682
150	0xbd215cc1	-0.039395098
151	0x3d57e50a	0.052708663
152	0xbd304efb	-0.04304407
153	0xbdb6d686	-0.08927636
154	0xbd50ae22	-0.050947316
155	0xbdc22439	-0.09479565
156	0xbd4f1f8d	-0.0505672
157	0x3db37c84	0.08763984
158	0xbd57d04c	-0.05268888
159	0xbc37fdcd	-0.011229944
160	0xbc4c0cd4	-0.01245423
161	0x3d2b3893	0.041802
162	0x3c89b043	0.016807681
163	0xbe635030	-0.22198558
164	0xbd215a5e	-0.03939282
165	0x3e15812a	0.14600053
166	0x3e0e8b5d	0.1392035
167	0x3e156318	0.14588583
168	0xbdf18596	-0.117930576
169	0xbdce95e8	-0.10087186
170	0xbdd544bc	-0.10413501
171	0xbde7233a	-0.11286016
172	0x3b6f0cc2	0.003647611
173	0xbe3bf0f1	-0.1835363
174	0xbb5c4be1	-0.0033614563
175	0x3da1b78a	0.078963354
176	0x3d5363b5	0.05160876
177	0xbe52ab78	-0.20573223
178	0xbe3000a8	-0.1718775
179	0x3ded6476	0.11591427
180	0x3e156460	0.14589071
181	0xbe20885b	-0.15677015
182	0x3ce9f0bd	0.028557176
183	0xbcefd364	-0.029275604
184	0x3d7a2812	0.06107337
185	0xbcf8250d	-0.030291105
186	0xbe1f8ec7	-0.15581809
187	0xbd7ea286	-0.062166713
188	0xbe2d1ddb	-0.1690592
189	0xbe215232	-0.15754011
190	0x3db6aede	0.08920072
191	0xbd981636	-0.074261114
192	0xbe076d2b	-0.13225238
193	0x3d4f8482	0.05066348
194	0x3cd6b97e	0.026211496
195	0x3cc2d53e	0.023783322
196	0xbcffdb98	-0.03123264
197	0xbdab73af	-0.08371674
198	0x3ddbef1a	0.107389644
199	0x3cd51983	0.026013141
200	0x3d708d0b	0.05872826
201	0xbc1e2029	-0.009651222
202	0xbe44ee39	-0.192315
203	0x3dcde55b	0.10053512
204	0xbe63af11	-0.22234751
205	0xbdb69b87	-0.08916383
206	0x3d2470a9	0.040146504
207	0x3de86a25	0.113483705
208	0xbe8fce3a	-0.28087026
209	0x3c4cbdbd	0.012496409
210	0x3d8ff42a	0.070289925
211	0x3ce41fa6	0.027847122
212	0x3b7a034f	0.0038148945
213	0xbdde5693	-0.108563565
214	0x3d2b88c7	0.041878488
215	0x3e2cdded	0.16881533
216	0xbe390f38	-0.18072212
217	0xbe398339	-0.18116464
218	0x3d49bd36	0.04925271
219	0x3d80856c	0.06275448
220	0xbd2d21c6	-0.042268537
221	0xbae95641	-0.0017802195
222	0x3e333ef0	0.17504478
223	0x3d08b0ce	0.03337174
224	0x3c89fd06	0.016844284
225	0xbd78055d	-0.06055199
226	0xbd3a574e	-0.045493416
227	0x3ae5f1d7	0.0017543387
228	0x3e2cb2d5	0.16865094
229	0xbd8f35fe	-0.0699272
230	0xbe41d50c	-0.18928927
231	0x3d92d9a3	0.07170417
232	0x3e377bae	0.17918274
233	0x3e227ca5	0.1586786
234	0xbd879abd	-0.06621311
235	0x3d04b479	0.032398675
236	0xbd19472b	-0.037421387
237	0x3e279115	0.16363938
238	0xbe0f1b90	-0.13975358
239	0xbcb96173	-0.022629475
240	0xbe12627e	-0.14295384
241	0x3d5fe812	0.05466468
242	0x3e42ace1	0.1901126
243	0xbe18a694	-0.14907295
244	0xbe104b09	-0.14091124
245	0x3b3fdad4	0.002927472
246	0x3e1f623d	0.15564819
247	0x3eb07ee4	0.3447181
248	0x3dbd36d7	0.092389755
249	0x3d64b4c1	0.055836443
250	0x3ea3bcf9	0.31980112
251	0x3bd0bddb	0.006370289
252	0x3d8080fe	0.06274603
253	0x3d6b86ef	0.05750173
254	0x3e550543	0.20802788
255	0x3dcc1375	0.09964649

linear_layer.4.bias f4 [100]
0	0xbc07f389	-0.008297809
1	0xbd0e6733	-0.034766387
2	0x3d84eeb0	0.064908385
3	0xbc9b1aba	-0.018933643
4	0xbe0ce9a7	-0.13761006
5	0xbca2db27	-0.01987989
6	0xbd1ac917	-0.03778943
7	0x3c4c1986	0.012457257
8	0x3d3b9298	0.0457941
9	0x3cf4b39f	0.029870806
10	0x3c804663	0.015658563
11	0xbdc07841	-0.093979366
12	0xbccb052d	-0.024782741
13	0x3c8f89cc	0.017521761
14	0xbcebc846	-0.028782021
15	0x3ca01502	0.019541267
16	0x3d10f2e4	0.03538789
17	0xbcdc1177	-0.026863797
18	0xbd9164fc	-0.07099339
19	0x3d684de1	0.056714896
20	0x3d6afb2c	0.057368442
21	0xbce2da5a	-0.027692009
22	0x3bd6e1cf	0.00655768
23	0x3bea0922	0.007142202
24	0x3c7245a3	0.0147871105
25	0x3cf5cf08	0.030005947
26	0xbc9ac204	-0.018891342
27	0xbc0363e0	-0.0080194175
28	0xbd18eb46	-0.03733375
29	0xbd396900	-0.04526615
30	0x3ce5637a	0.028001536
31	0x3c84c570	0.016207427
32	0xbccb127e	-0.024789091
33	0xbd19278c	-0.03739123
34	0x3d41287f	0.04715776
35	0xbd97b698	-0.07407874
36	0x3d36c90b	0.044625323
37	0x3e1e3b39	0.15452279
38	0x3c720154	0.014770824
39	0xbd24c2a3	-0.040224683
40	0xbb0e315e	-0.0021696906
41	0x3cab0d5d	0.020880396
42	0x39d89028	0.00041306135
43	0xbc2b0724	-0.010438714
44	0xbd62f856	-0.055412613
45	0x3c806015	0.015670815
46	0xbd0c33b4	-0.034228995
47	0xbcb04da1	-0.021521391
48	0xb86742d3	-5.5136927e-05
49	0xbca36021	-0.019943299
50	0x3ac7060d	0.0015184298
51	0xbc1938c1	-0.00935191
52	0x3b24182d	0.0025038824
53	0x3ca6322f	0.020287601
54	0x3c0a648c	0.008446824
55	0xbcd301cb	-0.02575769
56	0x3b30d46d	0.0026982084
57	0x3b37402c	0.0027961833
58	0xbca6bd31	-0.020353885
59	0xbb323aea	-0.002719576
60	0x39ef6664	0.0004566192
61	0x3d9f8031	0.077881224
62	0x3c23670c	0.009973299
63	0xbc0a66d5	-0.008447369
64	0x3c3ab911	0.011396662
65	0x3b9db2df	0.004812583
66	0x3adb355a	0.0016724274
67	0xbca2aea6	-0.01985867
68	0x3d356917	0.044289675
69	0xbccb4f99	-0.024818229
70	0xbd7dfdf8	-0.06200978
71	0xbc21ab2e	-0.009867473
72	0x3cde62ab	0.027146658
73	0x3beaa934	0.007161284
74	0x3cedda49	0.02903475
75	0xbd1ad705	-0.037802715
76	0xbbca5dbb	-0.0061757243
77	0x3cdd4b7d	0.027013535
78	0x3d31abf9	0.043376897
79	0x3c2bc4b3	0.0104839085
80	0x3d67b866	0.05657234
81	0xbcf9bf8c	-0.030486844
82	0x3da70c56	0.0815665
83	0x3d711953	0.05886204
84	0xbd66a29c	-0.05630742
85	0xbd6eb3d6	-0.058276974
86	0xbc033734	-0.008008767
87	0xbca7d33b	-0.020486465
88	0xbc2208b4	-0.00988977
89	0x3c5f3434	0.013623286
90	0x3bd9260e	0.006626851
91	0x3c48c3e0	0.0122537315
92	0xbcdffca8	-0.027342156
93	0x3cb87a89	0.022519367
94	0x3d755867	0.05989876
95	0xbce567fd	-0.028003687
96	0x3b1e7bdd	0.0024182715
97	0xbca505ec	-0.020144425
98	0xbd36fd0b	-0.044674914
99	0xbc9adec0	-0.018905044
