ac_2d_model_para_5/checkpoint_250.pth (torch, 291130 bytes, 17 tensors)

linear_layer.0.weight f4 [100, 3]
0	0x3e48620f	0.19568656
1	0x3e21b6ab	0.15792339
2	0xbe44a490	-0.192034
3	0x3b889772	0.0041684443
4	0xbd91534d	-0.070959665
5	0x3ddc24a8	0.10749179
6	0x3d65c8b3	0.056099605
7	0xbd800ebd	-0.06252811
8	0xbe90f588	-0.28312325
9	0x3e1019fe	0.14072415
10	0xbd10987f	-0.03530168
11	0x3e5c32b5	0.21503718
12	0xbe0d949c	-0.13826221
13	0xbe1c9dbe	-0.15294549
14	0xbeb778ba	-0.35834295
15	0xbd419104	-0.04725744
16	0xbe4b3f6f	-0.19848417
17	0xbe0bb9a2	-0.13645032
18	0xbda9edd8	-0.08297318
19	0x3e088571	0.13332154
20	0xbe0252ce	-0.127269
21	0xbd51a9ac	-0.051187202
22	0xbd35b345	-0.044360418
23	0xbea392fe	-0.31948084
24	0x3f0136da	0.5047432
25	0x3d4a815c	0.049439773
26	0x3cc08ef7	0.023505671
27	0xbe07c773	-0.13259678
28	0xbe3f39e3	-0.18674426
29	0xbd7cf07c	-0.06175278
30	0x3d337d3c	0.043820605
31	0xbe77e7e9	-0.2420956
32	0x3e10da2d	0.14145727
33	0xbdb3d23c	-0.087803334
34	0x3d8769b7	0.066119604
35	0xbe74558a	-0.23860756
36	0x3e87c95f	0.2652082
37	0xbb9ca237	-0.0047800797
38	0xbde58b1d	-0.112081744
39	0x3e50f02f	0.20404123
40	0xbc22afe9	-0.009929636
41	0x3e60ea1f	0.2196431
42	0x3e33c69a	0.17556229
43	0x3e212587	0.15736972
44	0x3e4384f9	0.19093694
45	0xbe31a721	-0.17348911
46	0xbe464922	-0.19363835
47	0x3c9d74b8	0.019220695
48	0x3e9503a3	0.29104337
49	0x3cb1e169	0.02171393
50	0xbe90ccb8	-0.28281188
51	0xbe463d32	-0.19359282
52	0xbe17d97b	-0.14829056
53	0xbe2a536f	-0.1663339
54	0xbe40036f	-0.1875131
55	0xbc8ee8b2	-0.017444942
56	0x3dbca79e	0.09211658
57	0x3e108260	0.14112234
58	0x3e249c47	0.1607524
59	0xbe6ed36b	-0.23322837
60	0x3db4d49a	0.08829613
61	0xbe4e038e	-0.20118544
62	0x3d91d1e5	0.07120112
63	0x3eb8eead	0.36119595
64	0xbdae8a10	-0.08522427
65	0x3dbdc880	0.09266758
66	0xbe7aa718	-0.24477804
67	0xbe1cd012	-0.15313748
68	0x3cae4153	0.021271383
69	0x3e0352a5	0.12824495
70	0x3cca226b	0.024674615
71	0xbef288c1	-0.4736996
72	0x3e5a7996	0.21335444
73	0x3d0d84c3	0.03455044
74	0x3e9cf8f4	0.30658686
75	0x3e24d15d	0.16095491
76	0x3da9e5cb	0.08295783
77	0x3c92c54b	0.017916342
78	0xbe8e99a5	-0.27851596
79	0xbe5c110a	-0.21490875
80	0xbdc662c3	-0.09686806
81	0x3d58ae55	0.05290063
82	0x3e881d4f	0.2658486
83	0x3d49d614	0.049276426
84	0x3e492b0f	0.19645332
85	0xbe589428	-0.21150267
86	0x3d7bb875	0.06145521
87	0x3d8d9dcf	0.06914865
88	0xbc99b252	-0.018761788
89	0xbdd56b65	-0.104208745
90	0xbd338300	-0.043826103
91	0xbe2596ab	-0.16170757
92	0xbe0f377d	-0.13986011
93	0x3ea40691	0.3203626
94	0x3c86f7a1	0.0164755
95	0x3e9ee653	0.31035098
96	0x3dab738d	0.08371649
97	0xbe66309f	-0.22479485
98	0x3e08dc97	0.13365398
99	0xbeaa72e0	-0.33290768
100	0x3c8d0c6e	0.017217841
101	0xbdf042fa	-0.11731525
102	0x3d800f7f	0.06252956
103	0xbdc7c179	-0.09753699
104	0xbe93bced	-0.28855076
105	0x3df4b8f9	0.11949343
106	0xbe1398c2	-0.14413741
107	0x3e57e3b2	0.21082953
108	0xbde6f418	-0.11277026
109	0x3e88a7ed	0.26690617
110	0x3c1e74c3	0.009671393
111	0x3e6f3a2d	0.23362036
112	0x3e15bf5e	0.14623782
113	0x3d6b7afd	0.057490338
114	0xbccc59c5	-0.02494515
115	0xbdbb7d54	-0.09154764
116	0xbec1f9fc	-0.37886035
117	0xbdcf53b9	-0.10123391
118	0xbce43e99	-0.02786188
119	0xbe122135	-0.1427048
120	0x3dd696dd	0.10477994
121	0x3dc54c76	0.096337244
122	0xbe03d3e4	-0.12873799
123	0xbe0a8a6b	-0.13529365
124	0xbc2e7c5e	-0.010649769
125	0x3e025e07	0.12731181
126	0xbe4f324e	-0.20234033
127	0x3e2f237e	0.17103383
128	0xbde210cf	-0.11038362
129	0x3dbddfb8	0.092711866
130	0xbd87e5ae	-0.06635605
131	0x3e5fd3c2	0.21858123
132	0xbe1747b3	-0.14773445
133	0x3e4bcc56	0.19902167
134	0x3e01e1d9	0.1268381
135	0xbd8d7ac9	-0.06908185
136	0xbde46d47	-0.111536555
137	0x3e1253ee	0.14289829
138	0xbed588f4	-0.4170605
139	0x3e21203b	0.15734951
140	0xbe9b48d9	-0.30329016
141	0x3e9524e8	0.2912972
142	0x3aa6b8ec	0.0012719906
143	0xbe07014a	-0.13184085
144	0x3dab6591	0.08368982
145	0x3dc14ad1	0.09438098
146	0x3db14a79	0.08656783
147	0x3ea19d73	0.31565437
148	0xbdd31cf3	-0.10308256
149	0xbddb7124	-0.10714939
150	0x3e263d5c	0.16234344
151	0x3de60963	0.11232259
152	0xbdf1f17f	-0.1181364
153	0x3e13141d	0.14363141
154	0xbd65d4fd	-0.056111325
155	0xbe092444	-0.1339274
156	0xbdc0c1e2	-0.0941198
157	0x3e8148b2	0.25250775
158	0x3dcc0303	0.09961512
159	0x3c31ed50	0.010859802
160	0x3d6a4173	0.057191323
161	0x3e8041df	0.25050256
162	0x3dcce794	0.100051075
163	0x3daee5a5	0.08539895
164	0x3bc1119d	0.0058919922
165	0x3e9a7b2a	0.30172092
166	0xbd96b598	-0.07358855
167	0x3dfc4224	0.12317303
168	0x3f01f88b	0.5076987
169	0x3c6a04be	0.014283357
170	0xbc61e385	-0.013787155
171	0x3ea1f07b	0.31628785
172	0xbdf4e1bf	-0.1195712
173	0xbe86fa6f	-0.2636294
174	0x3e90a8d5	0.2825381
175	0x3c07788e	0.008268489
176	0xbe18a743	-0.14907555
177	0xbd768262	-0.060182936
178	0xbe39c066	-0.181398
179	0x3e7815fc	0.24227136
180	0xbde5b82b	-0.11216768
181	0x3df26747	0.11836105
182	0xbc512006	-0.012763983
183	0x3bfed224	0.0077765156
184	0x3e8da176	0.27662247
185	0x3cdcb8e1	0.026943626
186	0x3e940261	0.28908065
187	0xbe19f17e	-0.15033528
188	0xbd9853ba	-0.074378446
189	0xbc1786aa	-0.009248415
190	0x3def9c9f	0.11699795
191	0xbe402190	-0.18762803
192	0x3eb117cc	0.34588468
193	0xbe1d635d	-0.15369935
194	0x3dbc314f	0.09189092
195	0x3cc137b3	0.02358613
196	0x3dd52943	0.10408261
197	0x3ea41213	0.3204504
198	0x3dfd3221	0.12363077
199	0xbcdd2fdf	-0.027000366
200	0xbebb68e1	-0.36603454
201	0xbe893acc	-0.2680267
202	0xbce24f6e	-0.027625766
203	0x3e02c7e4	0.12771565
204	0x3e9aef10	0.30260515
205	0xbdf2bf20	-0.118528605
206	0x3b3c895a	0.0028768391
207	0xbdada289	-0.08478267
208	0x3dd5c953	0.1043879
209	0x3cde4522	0.027132574
210	0xbe6d5dc6	-0.23180303
211	0x3c81500f	0.015785245
212	0xbd228d7e	-0.03968572
213	0x3de7fa3a	0.11327024
214	0x3e1d8c7d	0.15385623
215	0x3dc12dd7	0.094325714
216	0xbd9e045f	-0.077156775
217	0x3e881fac	0.26586664
218	0xbdd0b1c5	-0.10190157
219	0x3d9e1a74	0.07719889
220	0x3e1c07f6	0.15237412
221	0xbe4d1087	-0.20025836
222	0x3ee15a88	0.44014382
223	0x3d032899	0.03202114
224	0xbda7ac9e	-0.08187221
225	0xbcef28d8	-0.02919428
226	0x3eb3b5e2	0.35099703
227	0x3e1828db	0.14859335
228	0xbe236b54	-0.15958911
229	0xbed086b7	-0.4072778
230	0x3e808af9	0.25106028
231	0xbeb3e230	-0.35133505
232	0xbdc42443	-0.09577229
233	0xbe321692	-0.17391422
234	0xbbec4df4	-0.007211441
235	0x3e5f198f	0.21787094
236	0xbc5541d1	-0.01301618
237	0x3cf3f0b0	0.029777855
238	0xbe47674a	-0.19472995
239	0x3d49d13b	0.049271803
240	0x3e0f30ab	0.13983409
241	0xbd670ac2	-0.056406744
242	0xbd0e13d2	-0.03468687
243	0xbe017e48	-0.12645829
244	0xbe4eedc0	-0.20207882
245	0xbd981a96	-0.07426946
246	0xbe5e7a51	-0.21726348
247	0x3e24e87b	0.1610431
248	0x3da50a61	0.0805862
249	0x3e247385	0.16059692
250	0xbde44f27	-0.111479096
251	0x3eede18c	0.4646114
252	0x3e87564e	0.26433033
253	0xbd0a8999	-0.03382263
254	0xbe88caa3	-0.267171
255	0x3e3ed0d1	0.18634345

linear_layer.0.bias f4 [100]
0	0xbca432bd	-0.020043725
1	0xbd839288	-0.06424433
2	0x3e30fb22	0.172833
3	0xbcaabd35	-0.020842174
4	0x3cd9e523	0.026598519
5	0xbcc61c3e	-0.024183389
6	0x3d848015	0.06469742
7	0x3de9e6f3	0.11421003
8	0xbe2d066a	-0.16896978
9	0x3d72d890	0.05928856
10	0x3d5536e6	0.05205431
11	0xbddfa61f	-0.10920357
12	0x3de94967	0.113909535
13	0x3df71c36	0.12065928
14	0x3d1b499d	0.037912
15	0xbbf25738	-0.007395651
16	0xbdeb6b19	-0.11495037
17	0x3bbaa748	0.005696211
18	0xbcc11bc1	-0.023572804
19	0xb81acfe5	-3.6910078e-05
20	0xbdae7ff4	-0.08520499
21	0xbd27181b	-0.040794473
22	0xbd32daac	-0.043665573
23	0x3cae3a2d	0.021267975
24	0x3d2cd1c9	0.042192254
25	0x3dfe7c05	0.124259986
26	0x3da5d3cc	0.08097038
27	0xbcff0356	-0.03112952
28	0x3d4fe122	0.050751813
29	0xbdb14a52	-0.086567536
30	0xbd7c1ad5	-0.061549027
31	0xbce03c75	-0.027372578
32	0x3dbc61aa	0.091983154
33	0xbda1fb4d	-0.0790926
34	0xbd9094db	-0.07059642
35	0x3d63e31b	0.055636507
36	0xbcd8f4de	-0.02648395
37	0xbde467ae	-0.11152588
38	0x3e180b73	0.14848118
39	0x3ddf6368	0.10907632
40	0x3d9f4e2b	0.07778581
41	0xbd1a1be0	-0.03762424
42	0x3dac80b2	0.08422984
43	0xbe5935b4	-0.21211892
44	0x3c8ece68	0.017432407
45	0xbdbb6a17	-0.091510944
46	0xbdee7554	-0.11643472
47	0x3c196c76	0.009364238
48	0xbda1cdbe	-0.0790057
49	0xbdf5e6e1	-0.12006927
50	0x3e1959e1	0.14975692
51	0x3d8fad56	0.07015483
52	0xba12ecc2	-0.00056047377
53	0xbe388b86	-0.18021974
54	0x3db237c8	0.08702046
55	0x3dba75c2	0.09104492
56	0x3ca34b74	0.01993344
57	0xbc54097f	-0.012941717
58	0xbc456568	-0.012048103
59	0xbb501ad4	-0.0031754272
60	0xbdcce296	-0.10004155
61	0xbc75e9d1	-0.015009359
62	0xbb9fc3cb	-0.0048756353
63	0x3e033a47	0.128152
64	0xbdbd6cb1	-0.09249247
65	0x3d9ae1c9	0.07562596
66	0xbe098998	-0.13431394
67	0x3ac0d24c	0.0014711111
68	0xbd98e423	-0.074653886
69	0x3db73a68	0.08946687
70	0x3e0d0311	0.13770701
71	0xbd88a315	-0.066717304
72	0xbdb9a48c	-0.09064588
73	0x3e2137b0	0.157439
74	0xbc174aa7	-0.009234107
75	0x3cf8737a	0.030328501
76	0x3b0ac1ec	0.0021172715
77	0x3d8d30e9	0.068940945
78	0xbdcd4464	-0.1002281
79	0xbcb90ce8	-0.022589162
80	0x3e15f2d3	0.14643411
81	0x3dd627eb	0.104568325
82	0xbd4d5e8b	-0.05013899
83	0x3bc3e00e	0.005977637
84	0x3d0556dd	0.032553542
85	0x3d045995	0.032311995
86	0x3dcd7445	0.10031942
87	0x3e0a71e1	0.13520004
88	0xbddd1087	-0.10794168
89	0xbdc33047	-0.095306925
90	0xbdf2a9a3	-0.11848762
91	0xbe380374	-0.17970067
92	0xbd808164	-0.06274679
93	0x3de7b904	0.11314586
94	0xbcf58dd3	-0.029974854
95	0x3d35d5f6	0.044393502
96	0x3e221147	0.15826903
97	0x3d62cedd	0.05537306
98	0xbd824a01	-0.063617714
99	0x3d321935	0.04348107

linear_layer.1.weight f4 [100, 100]
0	0x3d6eeb44	0.058329836
1	0x3e198498	0.14991987
2	0xbd76f3a2	-0.06029094
3	0xbcb61201	-0.022225382
4	0xbc79a111	-0.015236155
5	0x3b8ac1dd	0.004234536
6	0x3dcd398e	0.10020743
7	0x3d7782c5	0.060427446
8	0x3e241a50	0.16025662
9	0xbe1bb148	-0.15204346
10	0xbda2c302	-0.07947351
11	0x3c1cb581	0.009564758
12	0xbe5419b6	-0.20712933
13	0xbd81634d	-0.06317768
14	0x3d89bc29	0.06725342
15	0x3d88e1d7	0.066837005
16	0xbe58617a	-0.21130934
17	0xbe1e3239	-0.15448846
18	0x3e4014e3	0.18757968
19	0x3b9a719e	0.0047132513
20	0xbdb9b2c0	-0.09067297
21	0x3de7c12a	0.1131614
22	0x3d055822	0.032554753
23	0x3e274176	0.16333565
24	0xbd86ac2e	-0.065758094
25	0x3bf8e41f	0.0075955535
26	0xbdb18ccd	-0.08669434
27	0xbc5af563	-0.013364169
28	0xbe710d4a	-0.23540226
29	0xbdb7e107	-0.089784674
30	0xbc5b48d0	-0.013384059
31	0x3ba82bf4	0.0051321927
32	0xbd2cde3c	-0.042204127
33	0x3e5c142f	0.21492074
34	0xbda8b84e	-0.08238278
35	0xbd81620f	-0.06317531
36	0xbdbbba46	-0.09166388
37	0xbc2b4d45	-0.010455434
38	0x3e073e71	0.13207413
39	0xbe0f7a6d	-0.14011545
40	0x3d5c81ab	0.0538346
41	0x3e002239	0.12513055
42	0xbe0e9c13	-0.13926725
43	0xbd704909	-0.0586634
44	0x3aa59804	0.0012633805
45	0xbd133677	-0.035940614
46	0x3d5f9bc2	0.0545919
47	0x3d8cc88f	0.06874191
48	0x3af968d4	0.0019028434
49	0x3dfef6bc	0.124494046
50	0xbc1c8a1e	-0.009554414
51	0xbe8f5a36	-0.27998513
52	0x3dec6fde	0.115447745
53	0x3db4d02b	0.088287674
54	0xbd00eb59	-0.031474445
55	0xbe5ab948	-0.21359742
56	0xbdda3451	-0.1065451
57	0xbd97baf5	-0.07408706
58	0x3e4b8937	0.19876562
59	0x3e2ca512	0.16859844
60	0x3c46fcb1	0.012145207
61	0x3d826c75	0.06368343
62	0xbc0f28ea	-0.008737782
63	0xbe2286dc	-0.15871757
64	0xbcb7a6a1	-0.022418322
65	0x3e3ac2ed	0.18238421
66	0xbc637794	-0.01388349
67	0x3d126f1f	0.035750505
68	0x3cd67ea4	0.026183434
69	0xbdb52dfd	-0.08846662
70	0x3bec6675	0.0072143623
71	0x3dca7d65	0.09887198
72	0xbd9518d7	-0.072801284
73	0x3d342ea4	0.043989792
74	0xbe680c06	-0.22660837
75	0x3cf3ad55	0.029745737
76	0xbd24b1a6	-0.04020848
77	0x3bc4ebf6	0.006009574
78	0xbe331b88	-0.17490971
79	0xbdf0b6f7	-0.11753648
80	0xbce5872f	-0.028018562
81	0xbc5635aa	-0.013074318
82	0xbcdd95c6	-0.027048957
83	0xbdce532c	-0.100744575
84	0x3d89231e	0.06696151
85	0x3e01345d	0.12617631
86	0xbcd5dd14	-0.026106395
87	0xbd99bc5c	-0.0750663
88	0x3dc13552	0.09433998
89	0x3de86e79	0.11349196
90	0xbc0204a2	-0.007935675
91	0x3e073e76	0.1320742
92	0xbdb48a2f	-0.08815419
93	0xbd84d5cc	-0.06486091
94	0xbc1381d0	-0.009003118
95	0xbdcf1f99	-0.10113449
96	0xbd78826e	-0.060671262
97	0xbc8c06b2	-0.017093036
98	0xbe06f904	-0.1318093
99	0xbda4c7da	-0.08045931
100	0x3d4fd23d	0.05073761
101	0x3e5e583c	0.21713346
102	0xbcfbec4c	-0.030752324
103	0x3d71bca0	0.059017777
104	0xbd52e001	-0.051483158
105	0xbe2cfd0d	-0.16893406
106	0x3e0a7c14	0.13523895
107	0xbe8e2b37	-0.27767345
108	0xbd3d9b14	-0.046290472
109	0xbd968870	-0.07350242
110	0xbd8d36a5	-0.06895188
111	0x3d2cd4b4	0.042195037
112	0x3dd7c499	0.10535545
113	0x3dec125d	0.1152694
114	0x3e218b7c	0.15775865
115	0xbe1aae43	-0.15105538
116	0xbd1e31ed	-0.03862183
117	0xbe92903f	-0.28625676
118	0x3c430223	0.011902365
119	0x3e44415f	0.19165562
120	0xbde7e420	-0.11322808
121	0xbcbf63a9	-0.023362951
122	0x3ce9d38f	0.028543262
123	0x3df99999	0.121874996
124	0x3e3e1851	0.18563963
125	0x3d98c7ec	0.07460007
126	0xbdc017fe	-0.09379576
127	0x3df9b3bd	0.121924855
128	0xbe00834b	-0.12550084
129	0xbd9b92bf	-0.07596349
130	0xbd881b66	-0.06645851
131	0xbdd5ee3d	-0.10445831
132	0x3e300308	0.17188656
133	0xbde11042	-0.10989429
134	0xbdd1c96c	-0.10243496
135	0x3d0882ce	0.03332787
136	0x3e42ec5a	0.19035473
137	0x3cad7145	0.021172175
138	0xbce07e7a	-0.027404059
139	0xbdb4eecd	-0.0883461
140	0x3e5008ec	0.20315903
141	0xbdce399f	-0.10069584
142	0x3e01f44d	0.1269085
143	0xbe312ae0	-0.17301512
144	0x3e4e2fb9	0.20135392
145	0xbe6c81ab	-0.2309634
146	0xbe88cbc2	-0.26717955
147	0xbd84bf21	-0.064817674
148	0x3d2a156e	0.041524343
149	0xbdb7e89e	-0.08979915
150	0xbc9701d8	-0.018433496
151	0xbd14a2af	-0.03628796
152	0x3db6104b	0.088898264
153	0xbe26b7e8	-0.16281092
154	0xbd355627	-0.044271614
155	0x3dbdc074	0.09265223
156	0x3ccead23	0.025229042
157	0xbd95b280	-0.07309437
158	0xbdf1ebf5	-0.11812583
159	0xbd35d97c	-0.044396862
160	0x3e0c2fe0	0.13690138
161	0xbdb237ac	-0.08702025
162	0xbcaffe25	-0.02148349
163	0x3d6c462a	0.0576841
164	0xbe0f3452	-0.13984802
165	0x3e12e8e2	0.1434665
166	0xbd080d21	-0.033215646
167	0xbe3d8354	-0.18507129
168	0xbebfa632	-0.37431484
169	0x3e6a2cd4	0.22868663
170	0xbcbaa0fa	-0.022781838
171	0x3da5a270	0.08087623
172	0x3d4881ce	0.048951916
173	0x3e0a60c4	0.13513476
174	0x3de7f71d	0.1132643
175	0x3e409b68	0.18809283
176	0x3bbbfa8a	0.0057366537
177	0xbbadc4e5	-0.0053030127
178	0xbdde9f59	-0.10870237
179	0x3d420921	0.047371987
180	0x3e4c34cb	0.19942014
181	0xbe545c66	-0.20738372
182	0xbd1dd9db	-0.03853784
183	0x3da16c08	0.078819335
184	0x3c91ace9	0.017782645
185	0xbda0823d	-0.07837341
186	0x3ced9298	0.029000565
187	0x3d21429d	0.039370168
188	0x3c4b966d	0.012426001
189	0xbe0a49d1	-0.13504721
190	0x3dae36c7	0.08506542
191	0xbdfbd05c	-0.12295601
192	0x3cdf6831	0.027271362
193	0xbdca298f	-0.09871208
194	0x3df65f3c	0.12029883
195	0xbe047f31	-0.12939145
196	0x3e243e2f	0.16039346
197	0x3e122d88	0.14275181
198	0xbdf2f87b	-0.118638
199	0x3e492082	0.19641307
200	0xbdde94bb	-0.10868212
201	0xbd4de7b0	-0.050269783
202	0x3dd48368	0.10376626
203	0xbd573dc8	-0.052549154
204	0xbe07703f	-0.13226412
205	0x3d3c7936	0.046014033
206	0xbd085ebe	-0.03329348
207	0x3e1525ea	0.14565244
208	0xbe300fb3	-0.17193489
209	0xbcf6a47d	-0.030107731
210	0x3dae353a	0.08506246
211	0x3ceb9a93	0.02876023
212	0xbdadc33f	-0.08484506
213	0x3ce79163	0.028267568
214	0x3d06c80c	0.032905623
215	0xbd0612a0	-0.032732606
216	0xbc82dfad	-0.015975798
217	0x3df716a4	0.12064865
218	0xbe3be370	-0.1834848
219	0xbe29f379	-0.16596784
220	0x3d9a3b7c	0.07530877
221	0x3da65ff7	0.081237726
222	0x3d084595	0.033269484
223	0xbe0cadda	-0.13738194
224	0xbe188548	-0.14894593
225	0xbe2583d0	-0.16163564
226	0x3d2948c3	0.041329157
227	0x3da07ff4	0.07836905
228	0xbd1f78fa	-0.03893373
229	0x3dcabe85	0.0989962
230	0xbe03847e	-0.1284351
231	0xbd3514fe	-0.044209473
232	0x3d081500	0.033223152
233	0xbcb33862	-0.021877471
234	0x3c75f736	0.015012553
235	0x3c130e72	0.008975612
236	0xbdd35041	-0.103180416
237	0xbda3eda7	-0.08004313
238	0xbd8d3b33	-0.06896057
239	0x3b8b3dbc	0.0042493027
240	0x3e6ded77	0.23235117
241	0x3e40b16e	0.18817684
242	0xbcba7000	-0.022758484
243	0x3e0f1119	0.13971366
244	0xbdff1a50	-0.124561906
245	0x3e13302e	0.14373848
246	0x3dd9fe43	0.106442
247	0xbe00ae19	-0.12566413
248	0xbd85da58	-0.065357864
249	0xbdb90b2c	-0.09035334
250	0x3d58a18b	0.052888434
251	0x3c0fec1b	0.008784319
252	0xbd3b6635	-0.04575177
253	0xbd79616f	-0.060883936
254	0xbe137cf1	-0.1440313
255	0xbccc59e2	-0.024945203

linear_layer.1.bias f4 [100]
0	0xbd81d154	-0.06338754
1	0x3d9c94eb	0.07645591
2	0xbca9155e	-0.020640071
3	0x3e1b425f	0.15162037
4	0xbc9ee3c3	-0.019395715
5	0xbd1d9a43	-0.038477194
6	0xbdd8868b	-0.10572537
7	0x3ddabe1e	0.10680793
8	0xbdd1d5b5	-0.102458395
9	0x3d47a9fe	0.0487461
10	0xbd960921	-0.0732596
11	0xbcb41459	-0.021982359
12	0x3de542e9	0.11194403
13	0x3dc388e7	0.095475964
14	0xbd879f11	-0.066221364
15	0xbd7ae5b3	-0.061254214
16	0x395d93df	0.00021131289
17	0x3dd8cad5	0.10585562
18	0x3c939fd4	0.018020548
19	0xbd6e2c67	-0.058147814
20	0xbd3960e3	-0.045258414
21	0x3d29a46e	0.041416578
22	0xbce6c0aa	-0.028168041
23	0x3d7c2390	0.061557353
24	0x3d979185	0.074008025
25	0x3cc97625	0.024592469
26	0x3dfa48ba	0.12220903
27	0xbd46887d	-0.04847001
28	0xbda6c1bd	-0.081424214
29	0xbd5ed0fb	-0.054398518
30	0xbe1d0ba4	-0.15336472
31	0x3d88ac11	0.06673444
32	0xbb825b5a	-0.003978175
33	0xbd206122	-0.039155133
34	0xbd48c78a	-0.04901842
35	0x3d0d657f	0.034520622
36	0x3de52435	0.111885466
37	0xbdbd9cc2	-0.09258415
38	0x3c5811fa	0.01318788
39	0xbc8aeb17	-0.016957803
40	0xbdd43985	-0.103625335
41	0xbdda8024	-0.10668972
42	0x3cdb991b	0.026806405
43	0x3e0a3c67	0.13499604
44	0xbd850831	-0.06495703
45	0x3bbb1731	0.0057095517
46	0x3a9c3bf6	0.0011919725
47	0xbdb835d1	-0.0899464
48	0x3c7ccfe1	0.015430422
49	0xbdc4e928	-0.096147835
50	0xbd2e8502	-0.042607315
51	0x3c8a2ee6	0.016868066
52	0xba953fd3	-0.0011386819
53	0xbdc33765	-0.0953205
54	0x3c84d432	0.016214464
55	0x3d0c7d1d	0.034299005
56	0x3de24af7	0.11049455
57	0xbd870d01	-0.06594277
58	0x3c7812fc	0.015141245
59	0x3cf6cab7	0.030125959
60	0xbd838ef2	-0.06423749
61	0xbbf1dea1	-0.0073812758
62	0x3cb1202c	0.021621786
63	0x3e14c2f4	0.14527494
64	0x3ce03256	0.027367752
65	0x3d27c1bd	0.040956248
66	0xbd95ca32	-0.07313956
67	0x3cb8e1ba	0.022568572
68	0xbc9415b6	-0.018076759
69	0xbe021b53	-0.12705736
70	0xbd9aaddd	-0.07552693
71	0x3bd9dcd2	0.0066486383
72	0xbd28898c	-0.0411468
73	0xbd23a286	-0.039949916
74	0x3d6e1a7b	0.058130722
75	0x3ca4891a	0.020084906
76	0x3d938c6c	0.07204518
77	0xbdb3f547	-0.08787017
78	0x3d7bcce5	0.0614747
79	0xbd5da6a0	-0.054113984
80	0xbe078d82	-0.13237575
81	0xbd58c189	-0.052918945
82	0x3cd868c3	0.026417142
83	0xbce55dfa	-0.027998913
84	0x3da994dd	0.082803465
85	0xbb0dec98	-0.0021655913
86	0x3bccbd31	0.0062481393
87	0x3d3cb8f0	0.046074808
88	0x3df89202	0.12137224
89	0xbc65e407	-0.014031417
90	0xbd921a86	-0.07133965
91	0xbdc585f8	-0.09644693
92	0x3d9fb9a5	0.07799081
93	0x3cf2ad02	0.029623512
94	0x3d42d22a	0.04756371
95	0x3cff7ea8	0.031188324
96	0x3d7fc5b3	0.0624444
97	0xba0650ca	-0.0005123733
98	0x3ab996a1	0.0014159271
99	0x3d8316a2	0.06400801

linear_layer.2.weight f4 [100, 100]
0	0xbd69296f	-0.05692428
1	0x3cbaf8be	0.022823688
2	0x3d914030	0.07092321
3	0xbe5cf824	-0.21579033
4	0x3db66cfb	0.08907505
5	0xbd2f7862	-0.042839415
6	0x3d66d488	0.05635503
7	0xbda5c93a	-0.080950215
8	0x3dc3865e	0.09547113
9	0xbd435b0d	-0.047694255
10	0xbd29a222	-0.041414388
11	0x3d10d0b9	0.035355303
12	0xbd746e9a	-0.05967579
13	0xbdbaa7ad	-0.09114013
14	0x3cc3c6d5	0.023898521
15	0xbe12869f	-0.14309166
16	0x3d4c6967	0.049905207
17	0xbda127b4	-0.07868901
18	0xbd25b3dc	-0.04045473
19	0x3e07feeb	0.13280837
20	0x3cb8e4ef	0.022570102
21	0x3d3903dc	0.045169696
22	0xbd82e8fb	-0.06392094
23	0xbd8eaf5a	-0.069670394
24	0xbe031d5f	-0.12804173
25	0x3b94d0fa	0.0045415135
26	0xbe5b13ed	-0.2139432
27	0xbcae1937	-0.021252258
28	0x3c73ab13	0.01487233
29	0xba723a23	-0.00092402304
30	0x3d314b00	0.043284416
31	0xbc9c27ad	-0.019061888
32	0x3c19049f	0.009339481
33	0x3943af53	0.00018661963
34	0x3d6ec6f2	0.058295198
35	0xbc1fa4c6	-0.009743875
36	0xbcb9433c	-0.022615068
37	0x3e8e696d	0.27814808
38	0x3ccb1e20	0.024794638
39	0xbd805260	-0.06265712
40	0x3e123200	0.14276886
41	0x3e2b6897	0.16739117
42	0x3d97a6a0	0.07404828
43	0x3c8cd3c9	0.01719083
44	0x3dfcc965	0.123431005
45	0xbc8159dd	-0.01578992
46	0x3df9da1f	0.121998064
47	0x3d24b787	0.040214088
48	0xbe1c27f4	-0.15249616
49	0x3de69cf0	0.11260402
50	0x3ba748ce	0.0051051145
51	0x3d664c5a	0.05622516
52	0xbe0bedbc	-0.13664907
53	0x3d1d58e5	0.038414855
54	0xbdf4fa7d	-0.11961839
55	0xbd254f68	-0.04035893
56	0xbea9c7f3	-0.33160362
57	0x3d4b2a87	0.049601104
58	0x3dc0b5c9	0.09409673
59	0x3c1dd9eb	0.009634475
60	0xbcf7b107	-0.03023578
61	0x3ac142e8	0.0014744671
62	0xbc8fcc10	-0.01755336
63	0xbcca8a37	-0.02472411
64	0x3d2b0dee	0.04176133
65	0x3df82e43	0.12118199
66	0x3d620b0c	0.055186316
67	0xbd786a3b	-0.060648184
68	0x3dbb8b26	0.091574
69	0x3cc40d3a	0.023932088
70	0x3e7b82c6	0.24561605
71	0x3e809f57	0.25121567
72	0x3c917d7c	0.01776003
73	0xbdf684b1	-0.120370276
74	0xbe466938	-0.19376075
75	0x3ccfbce9	0.025358634
76	0xbd134e4f	-0.035963353
77	0xbcc585c0	-0.024111629
78	0xbda25f12	-0.079282895
79	0x3dc68aa4	0.09694412
80	0xbdbb4e32	-0.09145774
81	0x3d647a0c	0.055780455
82	0xb9741338	-0.00023276813
83	0x3dd17c5c	0.10228798
84	0x3e739fb7	0.23791395
85	0xbe0c27ad	-0.1368701
86	0x3e22fa08	0.15915692
87	0xbe874fb1	-0.26427987
88	0xbd8e3f7c	-0.069457024
89	0xbde1598d	-0.110034086
90	0x3d357050	0.044296563
91	0x3e0cccab	0.1374995
92	0xb910ea2f	-0.0001382015
93	0xbdf140a3	-0.117799066
94	0xbd0c4c6f	-0.03425258
95	0xbccd4bd2	-0.025060568
96	0xbd91ad16	-0.07113092
97	0x3cb50ae7	0.022099925
98	0x3c7575e7	0.014981723
99	0x3d7c537e	0.06160306
100	0xbc90943d	-0.01764881
101	0x3ca356de	0.019938882
102	0xbd1ead9c	-0.038739786
103	0xbeb65858	-0.35614276
104	0x3c0d69a0	0.00863114
105	0x3d943805	0.072372474
106	0x3d9201e2	0.07129265
107	0xbe80e22e	-0.2517256
108	0x3d510f40	0.051039934
109	0xbe059a12	-0.13047054
110	0x3dff9b39	0.12480778
111	0xbe059153	-0.13043718
112	0xbdd94a06	-0.10609822
113	0xbe97c143	-0.29639634
114	0xbdbb6c69	-0.09151537
115	0x3cf7a20a	0.030228633
116	0xbaa39040	-0.0012478903
117	0xbdba5cd9	-0.090997405
118	0x3da2caa1	0.07948805
119	0x3d7f40d7	0.062317695
120	0x3dddf7d3	0.10838284
121	0x3e0a57f7	0.13510118
122	0xbc7099e2	-0.014685126
123	0xbd8ddc9e	-0.06926845
124	0x3d4fbd01	0.050717358
125	0x3d6ceb43	0.05784155
126	0xbe88393b	-0.26606163
127	0x3dbc81e0	0.09204459
128	0x3da9ef16	0.08297555
129	0x3c45b9f8	0.012068264
130	0x3dea63fe	0.11444853
131	0xbe581cb3	-0.21104698
132	0x3e8db416	0.27676457
133	0x3dcbcf5b	0.09951659
134	0xbd21093b	-0.039315443
135	0xbdb022ad	-0.08600364
136	0xb96d0e6f	-0.00022607458
137	0x3db0af50	0.08627188
138	0x3e6dafdf	0.23211621
139	0x3c1e98b8	0.009679966
140	0x3e432fa0	0.19061136
141	0xbba4df63	-0.0050315126
142	0x3e14c1ea	0.14527097
143	0x3c9742b2	0.01846442
144	0x3e0420cd	0.12903138
145	0x3e3e600a	0.18591323
146	0xbe2cde5c	-0.16881698
147	0x3d603a23	0.054742943
148	0xbe5bdc12	-0.21470669
149	0x3d96021e	0.073246226
150	0xbcdea908	-0.02718021
151	0xbe30252d	-0.17201681
152	0x3dab13c3	0.083533786
153	0x3da19b00	0.07890892
154	0x3e5f6413	0.21815519
155	0x3e136794	0.1439498
156	0xbdb22d64	-0.08700064
157	0x3c8898aa	0.016674358
158	0xbd774652	-0.060369797
159	0xbd9b3fce	-0.07580529
160	0x3d350920	0.044198155
161	0x3e19cc99	0.15019454
162	0x3e44c10c	0.19214267
163	0xbd129044	-0.035782114
164	0xbe79aade	-0.24381587
165	0xbd879a11	-0.06621183
166	0x3bdb5105	0.006693008
167	0x3c4b8727	0.01242236
168	0x3cf71920	0.030163348
169	0x3d1dc904	0.03852178
170	0xbc6044cd	-0.013688278
171	0x3d870c36	0.06594126
172	0x3c98d856	0.018657845
173	0xbdf9aa50	-0.12190688
174	0x3bf67f95	0.007522533
175	0xbdad7238	-0.08469051
176	0xbc25882a	-0.010103265
177	0x3dd0a31b	0.1018736
178	0x3bb36c61	0.0054755663
179	0x3dc3071c	0.095228404
180	0x3c8462f5	0.016160468
181	0xbdbd89bd	-0.09254787
182	0xbe062534	-0.1310013
183	0xbe1a42da	-0.15064564
184	0xbd3378f0	-0.043816507
185	0x3e046c0e	0.12931845
186	0x3d571a0b	0.05251507
187	0xbde6730f	-0.112524144
188	0xbc2e25d1	-0.010629133
189	0xbd8d866b	-0.06910404
190	0x3d3fd867	0.046837237
191	0x3dd30c71	0.103051074
192	0x3d6326d7	0.055456962
193	0xbe0b0413	-0.13575773
194	0x3af8d92b	0.001898562
195	0xbdc1a21d	-0.09454749
196	0x3d5f797c	0.054559216
197	0x3d30b3f2	0.04314036
198	0x3cad75e2	0.021174375
199	0xbd0caa7f	-0.034342285
200	0xbcfe0ca7	-0.031011892
201	0xbdbfdc6b	-0.09368213
202	0xbd3cb057	-0.04606661
203	0x3d7c72f2	0.061633058
204	0x3e1dd2b8	0.15412414
205	0xbdb1d2c0	-0.086827755
206	0x3da38cea	0.079858616
207	0x3cb7fa5b	0.022458246
208	0xbd6ac089	-0.057312522
209	0x3e41d9b6	0.18930706
210	0xbe358002	-0.17724612
211	0xbe090349	-0.1338016
212	0xbd93d323	-0.072180055
213	0xbe2bafa7	-0.16766225
214	0xbd1bda46	-0.03804996
215	0x3d8dc859	0.06922979
216	0x3e3cc772	0.18435457
217	0x3db30003	0.087402366
218	0xbe290011	-0.16503932
219	0xbbce52ca	-0.0062964903
220	0xbe04b9c1	-0.12961484
221	0x3df84b12	0.121236935
222	0xbe848a3e	-0.2588672
223	0x3dac5a68	0.08415681
224	0xbdd18adb	-0.10231563
225	0xbd9fdaa1	-0.07805372
226	0x3de81d42	0.113337055
227	0x3c38658b	0.0112546785
228	0xbe1dd1ae	-0.15412018
229	0x3d749077	0.059708085
230	0xbe0cd76e	-0.13754055
231	0x3dc1c5df	0.09461569
232	0xbdab8c66	-0.08376388
233	0x3d1bbaaf	0.038019832
234	0xbd5f92b5	-0.05458327
235	0x3dff8c11	0.124778874
236	0xbd67d1d3	-0.05659659
237	0xbe357567	-0.17720567
238	0xbadf9cf4	-0.0017060325
239	0x3d61ac2b	0.055095833
240	0xbe1186d6	-0.14211592
241	0x3c7d17f6	0.015447607
242	0xbdf0a85a	-0.117508605
243	0xbbbf38c0	-0.0058356225
244	0x3c67d563	0.014149996
245	0xbdb7660c	-0.08955011
246	0xbc0ac118	-0.008468889
247	0x3c295235	0.010334541
248	0xbd1f964a	-0.038961686
249	0xbd03bcc9	-0.03216246
250	0xbe0e8184	-0.13916594
251	0x3d7d5569	0.06184903
252	0xbde38021	-0.11108423
253	0x3ce2a87a	0.027668227
254	0x3d26b60b	0.040700953
255	0x3d2626bb	0.04056428

linear_layer.2.bias f4 [100]
0	0xbd60091d	-0.05469619
1	0xbd4b5e06	-0.049650215
2	0x3c898e92	0.016791616
3	0x3c95d302	0.018289093
4	0x3c8e188b	0.017345687
5	0x3d28c931	0.041207496
6	0x3d6f2468	0.05838433
7	0xbc9a0b1b	-0.018804124
8	0x3c594763	0.013261649
9	0x3cea5b63	0.02860803
10	0xbcd64b06	-0.02615882
11	0xbd8494a5	-0.06473664
12	0xbdcbeb63	-0.09957006
13	0x3e04c9ab	0.12967555
14	0xbca448ec	-0.020054303
15	0xbc82fdb1	-0.01599011
16	0xbd8277fa	-0.0637054
17	0x3d980696	0.07423131
18	0x3c521d24	0.0128243305
19	0xbce824c0	-0.028337836
20	0xbdb5bbd0	-0.08873713
21	0xbd7e3dab	-0.06207053
22	0xbb7facf2	-0.0039012996
23	0x3db63914	0.088976055
24	0x3cbe05be	0.023196097
25	0xbd61718d	-0.05503993
26	0xbd331fc7	-0.043731477
27	0xbd8b52ac	-0.06802878
28	0x3d670a5f	0.056406375
29	0xbd7edca2	-0.06222213
30	0xbda47146	-0.08029418
31	0xbcf4ffa8	-0.029907063
32	0x3c7207d1	0.014772371
33	0x3d2474be	0.040150397
34	0xbc6f2cec	-0.014598113
35	0xbdb3afb2	-0.087737456
36	0xbcd22099	-0.02565031
37	0xbd6593a4	-0.056049004
38	0xbcb55e07	-0.022139562
39	0xbcf77723	-0.030208176
40	0xbd10ef4a	-0.035384454
41	0xbdb7c8fa	-0.0897388
42	0xbcca9e4e	-0.024733689
43	0x3d05c399	0.03265724
44	0x3c4442ef	0.011978849
45	0x3c7db37e	0.015484689
46	0x3c1ecd3e	0.009692488
47	0x39ed937f	0.00045314056
48	0x3b721ca4	0.003694334
49	0x3c8bc862	0.017063323
50	0xbcc53554	-0.02407328
51	0xb918c59e	-0.00014569468
52	0x3da2beb8	0.07946533
53	0x3d83957f	0.064249985
54	0x3d65eb16	0.0561324
55	0xbde827b8	-0.11335701
56	0xbd38002d	-0.044922043
57	0xbc05ea65	-0.00817356
58	0x3b5a5a4c	0.0033317981
59	0xbd53e8b0	-0.05173558
60	0x3d881690	0.066449285
61	0x3d1e0103	0.038575184
62	0x3dbd0973	0.09230318
63	0x3b7629bf	0.0037561504
64	0xbd0c00a6	-0.034180306
65	0xbc5923ab	-0.013253133
66	0xbce6932e	-0.028146353
67	0x3c239c0b	0.009985934
68	0xbd93ccca	-0.07216795
69	0x3c8177b5	0.015804151
70	0x3c50f0b3	0.0127527
71	0xbb036b60	-0.0020053014
72	0xbc713c35	-0.014723827
73	0xbc2131d9	-0.009838545
74	0xbd14af38	-0.036299914
75	0xbd7e3dff	-0.062070843
76	0x3c1e76be	0.009671865
77	0x3c2e0541	0.01062137
78	0x3cfc02ca	0.030763049
79	0xbd734ca5	-0.059399266
80	0xbd58f648	-0.052969247
81	0xbc35af84	-0.0110892095
82	0xbdab76e0	-0.08372283
83	0xbd2ba930	-0.041909397
84	0x3d3dfc3c	0.046383128
85	0x3d3e7108	0.046494514
86	0x3c93c57a	0.0180385
87	0x3e11361a	0.14180794
88	0xbd1c87f9	-0.03821561
89	0xbb7af6ee	-0.0038294154
90	0x3c53c701	0.012925864
91	0x3d124f5f	0.035720225
92	0xbccbfc99	-0.024900721
93	0xbe0cbc55	-0.13743718
94	0x3c6ff540	0.0146458745
95	0xbd8fc1f7	-0.07019418
96	0xbd157201	-0.036485676
97	0x3c5662f2	0.013085114
98	0xbd5913e0	-0.05299747
99	0xbcb35427	-0.021890713

linear_layer.3.weight f4 [100, 100]
0	0xbe25828f	-0.16163085
1	0x3ddf02aa	0.1088918
2	0xbd4f1e11	-0.050565783
3	0x3e1c556d	0.15266962
4	0xbaab004f	-0.0013046357
5	0xbcb7ab40	-0.022420526
6	0x3d75015d	0.059815753
7	0x3c2c2044	0.01050574
8	0xbd427b66	-0.047480963
9	0xbdcaa220	-0.09894204
10	0xbe537442	-0.20649818
11	0x3d977b41	0.07396556
12	0xbde5c91f	-0.112200014
13	0x3ec7a0cc	0.38989866
14	0xbd75104e	-0.059830002
15	0x3d099d74	0.033597425
16	0xbe7d7e2c	-0.24755162
17	0x3de90ae3	0.113790296
18	0xbdbd83ed	-0.092536785
19	0x3c8b7e59	0.01702802
20	0xbe6d9460	-0.23201132
21	0xbdfa9f54	-0.12237421
22	0xbd6bf91b	-0.057610612
23	0x3e0ddb29	0.13853134
24	0x3c050090	0.00811781
25	0x3d99b02a	0.07504304
26	0xbc27fb2d	-0.010252756
27	0xbd8a79d9	-0.06761522
28	0x3e62eba3	0.22160201
29	0x3bdeb551	0.006796517
30	0xbe0b37c6	-0.13595495
31	0xbda0f46d	-0.078591205
32	0xbdf7291c	-0.12068388
33	0xbcfd5ec2	-0.030928973
34	0xbd8b22f0	-0.06793773
35	0xbc863c1e	-0.016386088
36	0xbe9df901	-0.30854037
37	0xbe4e9b5b	-0.20176451
38	0xbe19bad6	-0.15012679
39	0xbdecc015	-0.11560074
40	0x3e0f3828	0.13986266
41	0xbe4f3216	-0.2023395
42	0xbe2186c7	-0.1577407
43	0x3e0bcc75	0.13652213
44	0x3d153bf5	0.036434133
45	0xbcc5d7b7	-0.024150712
46	0x3d5a4fdb	0.053298812
47	0x3e2f59a3	0.17124037
48	0xbe8e6eb6	-0.2781884
49	0x3ddddbb6	0.10832922
50	0x3dd76933	0.10518112
51	0xbd637fd3	-0.055541825
52	0xbcecd838	-0.028911695
53	0x3e83ff9b	0.2578095
54	0x3e775263	0.24152522
55	0x3b895ad6	0.0041917367
56	0x3dbb7128	0.09152442
57	0xbe272e29	-0.16326202
58	0xbe1e7bca	-0.1547691
59	0xbe03d34a	-0.12873569
60	0xbca287e2	-0.019840185
61	0xbe06bc3b	-0.13157742
62	0x3e2afe01	0.16698457
63	0xbe028a41	-0.12748052
64	0x3dc9db39	0.098562665
65	0x3c85a2d0	0.016312987
66	0x3d19d85f	0.037559863
67	0xbc865649	-0.016398566
68	0x3dd1ecea	0.10250266
69	0xbc9827c5	-0.018573651
70	0x3e41dcb6	0.18931851
71	0xbd8bfec8	-0.06835705
72	0x3dcef3ff	0.10105132
73	0xbbdd640b	-0.006756311
74	0x3e42fbeb	0.19041412
75	0x3dd8c272	0.105839625
76	0xbd9c3e62	-0.07629086
77	0xbc35a6f2	-0.011087166
78	0x3c59719c	0.0132717155
79	0xbe632063	-0.22180323
80	0x3c28d49a	0.010304594
81	0x3df0129c	0.117222995
82	0xbd82f406	-0.063942
83	0xbcba40d2	-0.022735987
84	0x3e7ddc5d	0.24791093
85	0xbe1212f3	-0.14265041
86	0x3d1bd82b	0.03804795
87	0xbbecf329	-0.0072311354
88	0xbdfefd03	-0.12450602
89	0x3d14ba34	0.03631039
90	0xbe45d35d	-0.1931891
91	0x3e88289e	0.26593488
92	0xbb516a96	-0.00319544
93	0x3d8c16fe	0.06840323
94	0x3c3a2b9a	0.0113629345
95	0x3e03d02b	0.12872379
96	0x3d9aa6b0	0.07551324
97	0x3d0ef150	0.034898102
98	0xbe2d3c9c	-0.16917652
99	0xbd7f1979	-0.062280152
100	0x3e2dd9eb	0.1697766
101	0xbc3709f0	-0.011171803
102	0x3c1b6037	0.009483389
103	0xbe015723	-0.12630896
104	0x3d0eb823	0.034843575
105	0x3cddb349	0.027063029
106	0xbde2edee	-0.11080538
107	0x3d6c930f	0.057757434
108	0x3c0e01f4	0.008667458
109	0xbd8ad1c4	-0.06778291
110	0xbdd3d75e	-0.103438124
111	0x3e06115f	0.13092564
112	0xbd2f5d33	-0.04281349
113	0x3e8e4749	0.2778876
114	0xbdda1e7b	-0.10650345
115	0xbcc270cd	-0.023735428
116	0xbd79933d	-0.060931433
117	0xbda77400	-0.08176422
118	0x3dcf2866	0.10115127
119	0x3c949b1a	0.018140364
120	0x3dcdc87c	0.10048005
121	0xbd8fb892	-0.07017626
122	0xbb333542	-0.0027344977
123	0xbe36327c	-0.17792696
124	0xbe1856e4	-0.14876896
125	0x3dc4a067	0.09600907
126	0x3ce6b357	0.028161688
127	0xbe41b71e	-0.1891751
128	0x3e24cc7c	0.1609363
129	0x3dc1a0c8	0.09454495
130	0xbe2d5ec0	-0.16930676
131	0x3e5219b6	0.2051762
132	0x3d44d315	0.048052866
133	0xbe2689b0	-0.16263461
134	0x3d8cfe0e	0.068843946
135	0xbd6510f7	-0.055924382
136	0x3de79542	0.113077655
137	0xbe65edb0	-0.22453952
138	0x3ad1af95	0.0015997762
139	0xbc0029c3	-0.007822457
140	0x3c7e1b76	0.015509477
141	0x3dc8c336	0.098028585
142	0xbd2998b3	-0.04140539
143	0x3d193045	0.03739955
144	0x3e48f002	0.19622806
145	0xbbd636d0	-0.006537296
146	0xbe331abc	-0.17490667
147	0x3d1d1f02	0.03835965
148	0x3d287c28	0.04113403
149	0x3e285f79	0.1644267
150	0x3d70ee6f	0.058821138
151	0x3c409b74	0.011755813
152	0x3dea24b3	0.11432781
153	0xbd07231c	-0.032992467
154	0x3d48d78a	0.04903368
155	0xbd15d788	-0.0365825
156	0xbd535c3d	-0.051601637
157	0xbda88ff1	-0.0823058
158	0x3e012cb2	0.12614706
159	0x3d8a6ae1	0.06758667
160	0x3d7d89ee	0.061899118
161	0xbdb015cd	-0.08597908
162	0xbc5ca79e	-0.013467697
163	0xbd332318	-0.04373464
164	0x3dba9c44	0.091118366
165	0xbdbfae09	-0.093593664
166	0xbe2ee269	-0.17078556
167	0xbccdb0b9	-0.025108682
168	0xbe03bc18	-0.12864721
169	0xbe3b6de6	-0.18303642
170	0xbd91f0d6	-0.07126014
171	0xbcb1b7a6	-0.021694016
172	0x3e5059a2	0.20346692
173	0xbd8e03e0	-0.06934333
174	0xbdb50ea2	-0.088406816
175	0xbd40d77b	-0.0470805
176	0xbdbaff1a	-0.09130688
177	0xbe1988a7	-0.14993535
178	0x3c275274	0.010212529
179	0xbbd7a57e	-0.0065810075
180	0xbd213571	-0.039357606
181	0xbd47471f	-0.04865181
182	0xbc88f08a	-0.01671626
183	0x3e1e2f03	0.15447621
184	0x3d36014d	0.044434834
185	0x3d83d5f1	0.064372905
186	0x3a7a1a8b	0.00095406984
187	0xbdd7b434	-0.10532418
188	0xbcdc0c24	-0.026861258
189	0xbcf05bd0	-0.029340655
190	0x3c008f4d	0.007846666
191	0x3dcc054f	0.0996195
192	0xbcf6bc9c	-0.030119233
193	0xbd4c2286	-0.04983761
194	0x3cf20f62	0.02954835
195	0xbdfc82aa	-0.1232961
196	0xbb3c3f2c	-0.0028724177
197	0xbdd9f0bc	-0.106416196
198	0xbe5297a6	-0.20565662
199	0x3c91867f	0.017764328
200	0xbcfa05fb	-0.03052043
201	0x3cceccef	0.025244204
202	0xbd774b83	-0.060374748
203	0xbddbf7f1	-0.107406504
204	0xbb833e2b	-0.0040052137
205	0xbd9d6686	-0.076855704
206	0xbd3c9303	-0.04603864
207	0xbdc5c3f8	-0.09656519
208	0x3d6d5d13	0.05795009
209	0xbe22cad0	-0.1589768
210	0x3d60efd6	0.054916225
211	0x3e19c163	0.15015177
212	0xbde48d99	-0.1115982
213	0xbc35044f	-0.0110483905
214	0x3c2482cb	0.010040949
215	0x3d5c884a	0.053840913
216	0xbc98602a	-0.018600542
217	0xbe0603c4	-0.13087374
218	0xbe672c1f	-0.22575425
219	0xbd42c368	-0.047549635
220	0x3e5840dc	0.21118492
221	0x3b4d3943	0.0031314648
222	0x3cdcd2c6	0.026955973
223	0xbdb99770	-0.090620875
224	0x3caeeb13	0.021352326
225	0xbd49abd0	-0.04923612
226	0x3dd59763	0.10429265
227	0x3d82b018	0.063812435
228	0xbd11e053	-0.035614323
229	0x3da56bad	0.08077178
230	0xbd8fac84	-0.070153266
231	0xbd79ee4e	-0.06101828
232	0x3d769225	0.060197968
233	0xbdceeae3	-0.10103395
234	0xbe510c01	-0.20414735
235	0x3e59866f	0.21242689
236	0x3d8c1867	0.06840592
237	0x3d89eb78	0.06734365
238	0x3d765eb6	0.060148917
239	0x3e841265	0.25795284
240	0x3d80be7e	0.062863335
241	0x3d612986	0.05497124
242	0xbd99c4a4	-0.07508209
243	0xbe04a88e	-0.12954924
244	0x3d98cee8	0.07461339
245	0xbd5815aa	-0.052755035
246	0xbda3e00a	-0.080017164
247	0xbb83b937	-0.004019882
248	0x3c63a19f	0.013893514
249	0xbe3fb78a	-0.18722358
250	0x3cffeaa0	0.031239808
251	0x3dba2bdc	0.09090397
252	0xbda10378	-0.0786199
253	0xbd58a50b	-0.052891772
254	0xbe2541dc	-0.16138405
255	0x3e060211	0.13086726

linear_layer.3.bias f4 [100]
0	0x3d853b77	0.06505483
1	0x3c963b5a	0.018338848
2	0xbd3e910a	-0.04652504
3	0xbdc2d189	-0.09512622
4	0xbbfd54bd	-0.007731049
5	0xbd0b69ee	-0.03403657
6	0x3d6c8a33	0.057748985
7	0x3d27c67a	0.040960766
8	0x3d2b7ebb	0.041868906
9	0xbc00f465	-0.007870768
10	0xbd369ce6	-0.044583224
11	0xbd367586	-0.044545673
12	0x3c74493a	0.014910037
13	0x3d02f40e	0.03197103
14	0x3b950d5d	0.004548712
15	0xbaf68831	-0.0018808899
16	0xbd4a65b9	-0.049413417
17	0xbbff9ad6	-0.0078004403
18	0x3b80782c	0.0039205756
19	0x3d2c92bd	0.042132128
20	0xbd3eda7c	-0.04659508
21	0x3d324941	0.04352689
22	0x3cc88f69	0.024482446
23	0x3d285a83	0.041101944
24	0x3c495dbf	0.012290417
25	0xbc88b067	-0.016685678
26	0x3d77c96d	0.06049483
27	0x3d59723f	0.05308747
28	0x3d13b145	0.03605773
29	0x3d6bfc82	0.057613857
30	0xbc889efc	-0.016677372
31	0xbc0c7627	-0.008573092
32	0x3d060ec8	0.03272894
33	0x3d2140e2	0.039368518
34	0x3c4bdd02	0.012442829
35	0xbd0c5acd	-0.034266282
36	0x3ca0f2fd	0.019647116
37	0x3bc0f915	0.005889068
38	0xbd329822	-0.043602116
39	0x39dd4c99	0.00042209474
40	0xbcba09d6	-0.022709768
41	0x3c37b626	0.011212861
42	0xbcce213a	-0.025162328
43	0xbc371713	-0.011174935
44	0x3d00427b	0.0313134
45	0x3cfde0d5	0.030990997
46	0x3d9a8812	0.075454846
47	0xbd0a0b59	-0.03370223
48	0x3d48769f	0.04894125
49	0xbd17e681	-0.03708506
50	0x3d2db83e	0.042412035
51	0xbcefa25a	-0.02925222
52	0xbc3bc931	-0.011461542
53	0xbaa905b7	-0.001289538
54	0xbc643b99	-0.013930225
55	0xbc966d9e	-0.018362816
56	0xbd44a464	-0.048008338
57	0xbd009116	-0.031388365
58	0x3d21b721	0.039481286
59	0x3d5e2897	0.05423793
60	0x3b19566c	0.0023397459
61	0x3cad2301	0.021134855
62	0x3b179acb	0.0023133035
63	0x3c428fdc	0.011875119
64	0x3c4bf4b0	0.012448475
65	0x3c909a9d	0.01765185
66	0x3da418d4	0.08012548
67	0xbc1eec03	-0.009699824
68	0x3c3015d2	0.01074739
69	0xbc53c1dc	-0.012924638
70	0x3d399cac	0.04531543
71	0xbc965825	-0.018352577
72	0xbbe4d76c	-0.006983688
73	0xbc0a9772	-0.008458959
74	0xbd37109a	-0.044693567
75	0xbb3090fb	-0.0026941884
76	0x3b592261	0.0033132064
77	0xbdbdc577	-0.09266179
78	0x3d0ddc40	0.034633875
79	0xbd18a7e4	-0.037269488
80	0x3858daef	5.170231e-05
81	0x3c64223c	0.013924178
82	0xbbc71ead	-0.006076655
83	0xbcb0153e	-0.021494504
84	0xbda5e291	-0.08099855
85	0x3ce9f81c	0.02856069
86	0x3cb6dd1f	0.022322236
87	0x3d209b22	0.039210446
88	0xbd014aea	-0.031565584
89	0xbc37c6d6	-0.01121684
90	0x3c95d760	0.018291175
91	0x3ce82a8c	0.0283406
92	0x3d39b94c	0.04534273
93	0xbcbd22be	-0.023087855
94	0x3b741de7	0.0037249268
95	0x3c6b3113	0.014354962
96	0x3c6db234	0.014507819
97	0x3ccf4a51	0.025303992
98	0xbd4831d1	-0.048875634
99	0xbd3b635f	-0.045749065

linear_layer.4.weight f4 [100, 100]
0	0xbcbab54b	-0.022791525
1	0x3d248001	0.040161137
2	0x3d84f965	0.06492881
3	0x3d9b0ad3	0.07570424
4	0x3d5dfdb0	0.054197013
5	0xbbcd4982	-0.0062648663
6	0xbd527949	-0.051385198
7	0x3e1456d1	0.14486243
8	0x3dbdfd05	0.09276775
9	0x3d04da1a	0.03243456
10	0xbe17869a	-0.1479744
11	0x3da80309	0.08203704
12	0x3db36691	0.08759797
13	0x3e16f042	0.14740089
14	0x3ded97d7	0.11601227
15	0x3e4874fa	0.19575873
16	0x3e273677	0.1632937
17	0x3ea0a80c	0.3137821
18	0x3b622e1a	0.0034512342
19	0x3d01eb06	0.031718276
20	0xbc16a375	-0.009194245
21	0x3d61c7d5	0.055122215
22	0xbc0fe7e4	-0.008783314
23	0x3e0d1f72	0.13781527
24	0x3e1d818e	0.15381452
25	0xbdaef037	-0.08541911
26	0x3d96c41c	0.07361624
27	0xbdc7a8cd	-0.09748993
28	0x3e206ff7	0.15667711
29	0xbd6d429a	-0.057924844
30	0x3e168e7d	0.14702792
31	0xbdab6bcf	-0.08370172
32	0xbe3412af	-0.17585252
33	0x3d2a2806	0.041542076
34	0x3c59c1a9	0.013290801
35	0x3ae45f8a	0.0017423492
36	0xbe3e9854	-0.18612796
37	0x3d64baa9	0.055842075
38	0x3e104ea4	0.14092499
39	0x3ced44c0	0.028963447
40	0xbe61b5d5	-0.2204202
41	0xbe85b6f6	-0.2611615
42	0xbe9ea74a	-0.30987006
43	0x3d9df650	0.07712996
44	0xbd20ea5a	-0.039285995
45	0xbe6f34fc	-0.23360056
46	0x3e297eed	0.16552325
47	0xbd9cd560	-0.076578856
48	0x3d9701f5	0.0737342
49	0x3c9e5fca	0.019332785
50	0xbd4dd54b	-0.05025224
51	0xbdd76a9b	-0.1051838
52	0xbdae145b	-0.08499976
53	0x3bca3f21	0.0061720763
54	0xbc789450	-0.015172079
55	0x3d86f359	0.06589384
56	0x3d67c1fe	0.05658149
57	0x3d84bd2d	0.06481395
58	0x3dac8c9c	0.084252566
59	0x3d7112df	0.058855888
60	0x3db864d8	0.090036094
61	0x3b504ad8	0.0031782892
62	0x3c9d2131	0.019180866
63	0x3d068272	0.032839246
64	0x3dda56d5	0.10661093
65	0x3d1a95fc	0.037740692
66	0x3b9d6f78	0.004804548
67	0xbcef9064	-0.029243656
68	0xbe66aa32	-0.22525862
69	0x3e0e2811	0.13882472
70	0x3d81fe01	0.063472755
71	0x3dc0b81f	0.09410118
72	0xbdcd3750	-0.10020316
73	0x3e3a12b0	0.18171191
74	0x3c9294a2	0.01789314
75	0xbe300286	-0.17188463
76	0x3dde2318	0.10846537
77	0x3d98e011	0.07464612
78	0xbce306ac	-0.027713142
79	0x3cf96384	0.03044296
80	0x3d901dc8	0.0703693
81	0x3d973345	0.07382826
82	0x3d2207d8	0.03955826
83	0xba474e1e	-0.0007602888
84	0xbd5617cc	-0.05226879
85	0xbbc26f32	-0.0059336657
86	0x3e0f83bc	0.14015096
87	0xbcb3d33a	-0.021951307
88	0xbd3677cc	-0.04454784
89	0xbd7d8fe5	-0.061904807
90	0xbc6d80cb	-0.014496039
91	0x3e05ed2a	0.13078752
92	0xbe551f5d	-0.20812745
93	0x3db40fa3	0.08792045
94	0xbdce848c	-0.10083875
95	0xbda9d090	-0.08291733
96	0x3ce341b4	0.02774129
97	0xbc22bb36	-0.00993233
98	0xbda1df7a	-0.07903953
99	0xbcc20e79	-0.023688542
100	0xbdaec553	-0.0853373
101	0xbbc8ba70	-0.0061257407
102	0xbdeba278	-0.11505598
103	0x3c873fdd	0.016509945
104	0xbc5c4c28	-0.013445891
105	0xbd80e877	-0.06294339
106	0xbe51a8e3	-0.20474581
107	0xbcd52068	-0.026016429
108	0xbb2f23c6	-0.0026724203
109	0xbd98cf65	-0.07461432
110	0xbcdc5fa9	-0.026901083
111	0xbc934d96	-0.017981332
112	0x3e153f64	0.14574963
113	0x3dcd664e	0.10029279
114	0x3e58db69	0.21177448
115	0xbd6ab561	-0.057301883
116	0xbde36f04	-0.11105159
117	0xbd99e80e	-0.07514964
118	0xbd7e343c	-0.062061533
119	0x3d769893	0.0602041
120	0xbdab3aed	-0.083608486
121	0x3dc8feb4	0.09814206
122	0x3dadedc2	0.08492614
123	0xbd9f028c	-0.07764158
124	0x3bfd12d5	0.007723192
125	0xbd427ed6	-0.04748424
126	0x3d8b47a4	0.06800774
127	0x3e060a54	0.13089877
128	0x3e5de38d	0.21668835
129	0x3dad7d13	0.08471122
130	0xbd83b6a7	-0.064313225
131	0x3d81cb79	0.063376375
132	0x3d4fea2a	0.050760426
133	0x3cb73b67	0.022367192
134	0xbc40a659	-0.01175841
135	0xbe65cd2e	-0.22441551
136	0xbe019a85	-0.12656601
137	0xbdaffbef	-0.085929744
138	0x3de63186	0.112399146
139	0x3da73cf9	0.081659265
140	0x3d48f822	0.049064763
141	0x3d158253	0.03650124
142	0x3da3b963	0.07994344
143	0x3e222d87	0.1583768
144	0x3d283b50	0.04107219
145	0xbb95c71a	-0.004570854
146	0x3e6e9faa	0.23303095
147	0x3ddb2d21	0.10701967
148	0xbd3628dd	-0.044472564
149	0xbe232548	-0.1593219
150	0xbd193841	-0.037407164
151	0x3d733538	0.059376925
152	0xbd3cd25c	-0.04609905
153	0xbd8e2ac1	-0.069417484
154	0xbd84fa1b	-0.06493016
155	0xbdb40055	-0.08789126
156	0xbd403172	-0.046922155
157	0x3dc0fca7	0.094231896
158	0xbd654005	-0.055969257
159	0xbc12634c	-0.008934807
160	0xbc21e113	-0.009880322
161	0x3d583202	0.052782066
162	0x3c17aaf3	0.009257066
163	0xbe645c90	-0.22300935
164	0xbd06a73a	-0.032874323
165	0x3e259f24	0.16173989
166	0x3e0c49c2	0.13700011
167	0x3e23e7d0	0.16006398
168	0xbe015828	-0.12631285
169	0xbdc19241	-0.09451724
170	0xbdd3b239	-0.10336728
171	0xbdd44346	-0.10364394
172	0x3bae1f8c	0.0053138193
173	0xbe3dd04b	-0.18536489
174	0xbb2ca5ae	-0.002634387
175	0x3da3d990	0.08000481
176	0x3d7924cd	0.06082611
177	0xbe4508bc	-0.19241613
178	0xbe375ffa	-0.17907706
179	0x3df054ca	0.11734922
180	0x3e0cb31b	0.13740198
181	0xbe2431d8	-0.16034639
182	0x3d609b4a	0.054835595
183	0xbd5dfae1	-0.054194335
184	0x3d777818	0.060417265
185	0xbbec64c2	-0.0072141597
186	0xbe1b6f9b	-0.15179293
187	0xbd7dca69	-0.06196061
188	0xbe1b5698	-0.15169752
189	0xbe23ef78	-0.16009319
190	0x3db2a879	0.0872354
191	0xbda6a4d5	-0.08136908
192	0xbe0954e5	-0.13411291
193	0x3d3e07c7	0.046394136
194	0x3ce845e1	0.028353633
195	0x3cd1c1b6	0.025605064
196	0xbd12ed9b	-0.03587113
197	0xbdb13251	-0.08652175
198	0x3ddb09fc	0.10695264
199	0x3d1fa6bb	0.038977366
200	0x3d2d6f0a	0.042342223
201	0xbbc44d08	-0.005990628
202	0xbe1c5b06	-0.15269098
203	0x3dd22f8b	0.10262974
204	0xbe423f58	-0.18969476
205	0xbdb15ed3	-0.086606644
206	0x3d21f3a4	0.039538994
207	0x3e008034	0.12548906
208	0xbe571871	-0.21005417
209	0x3c9cc86b	0.019138535
210	0x3b4d8809	0.00313616
211	0x3c89b948	0.016811982
212	0xbd68c684	-0.056829944
213	0xbdf983d5	-0.12183348
214	0x3d697ab4	0.057001784
215	0x3e3a0141	0.18164541
216	0xbdcf82fe	-0.10132407
217	0xbe3dc7bc	-0.18533224
218	0x3bf4b6de	0.0074680885
219	0x3d5c3b60	0.053767562
220	0xbdb01963	-0.08598592
221	0xbc18dcc0	-0.009329975
222	0x3e230013	0.15917997
223	0x3d200600	0.039068222
224	0x3da1e07e	0.079041466
225	0xbb2301fc	-0.002487301
226	0xbd5b3fdb	-0.053527694
227	0xbafaad9c	-0.0019125226
228	0x3e58ebba	0.21183673
229	0xbd7e77e5	-0.06212606
230	0xbe659d0f	-0.22423194
231	0x3c7bbd6a	0.015364984
232	0x3df88548	0.121347964
233	0x3e16ffff	0.14746092
234	0xbe214997	-0.15750729
235	0x3d3f4a31	0.046701614
236	0xbb8411e7	-0.0040304544
237	0x3e0dee95	0.13860543
238	0xbdfc63ae	-0.123237
239	0x3bfd45b3	0.007729256
240	0xbded4ac1	-0.11586524
241	0x3d5683a9	0.052371655
242	0x3e026f7d	0.12737842
243	0xbe43df72	-0.19128206
244	0xbe2ce258	-0.16883218
245	0x3b2d2a57	0.0026422942
246	0x3e0fd193	0.1404479
247	0x3ea0582e	0.31317276
248	0x3da5962b	0.08085283
249	0x3d963aae	0.07335411
250	0x3ec8f998	0.39252925
251	0x3cd8ed25	0.026480267
252	0x3ca2a836	0.0198556
253	0x3d327d83	0.04357673
254	0x3e3db4d1	0.18526007
255	0x3dca8bf0	0.09889972

linear_layer.4.bias f4 [100]
0	0x3abc2eac	0.0014357171
1	0xbcf55fa4	-0.029952832
2	0x3d1716d8	0.03688702
3	0xbc9ed480	-0.019388437
4	0xbe0fc03d	-0.14038177
5	0x3c01d878	0.007925145
6	0xbcbced2f	-0.023062317
7	0x3c14f3a6	0.009091293
8	0x3d1556fc	0.036459908
9	0x3ca8525d	0.020547086
10	0x3c5c1513	0.013432759
11	0xbd93209c	-0.07183954
12	0x39b3906f	0.00034249152
13	0x3ccb49a7	0.024815394
14	0xbca67662	-0.020320121
15	0x3c2c3072	0.010509597
16	0x3d2e5ea5	0.04257073
17	0xbcc5fb27	-0.02416761
18	0xbd2e7da9	-0.042600308
19	0x3d1b8bc2	0.03797508
20	0x3db533ed	0.08847795
21	0xbc9c3ab8	-0.019070968
22	0x3c3201f4	0.0108647235
23	0x3cb40bca	0.021978278
24	0x3c6e59f6	0.014547816
25	0x3c85ec5c	0.016348056
26	0xbc613ed0	-0.013747886
27	0xbb90d084	-0.0044193882
28	0xbd0c9df8	-0.03433034
29	0xbd13542b	-0.03596894
30	0x3cd2c235	0.02572737
31	0x3c75ae28	0.014995135
32	0xbc8126c9	-0.015765565
33	0xbd056c38	-0.03257391
34	0x3c6655b3	0.014058518
35	0xbd822e7c	-0.063565224
36	0x3d04fda0	0.03246844
37	0x3deedcbf	0.11663198
38	0x3ce50c6b	0.027960023
39	0xbcd22aaa	-0.02565511
40	0xbbb5afe2	-0.0055446485
41	0x3b82fcf5	0.00399744
42	0xbc5a387e	-0.013319133
43	0xbc22ca50	-0.00993593
44	0xbd35091d	-0.044198144
45	0x3b5564dd	0.003256134
46	0xbcf6ba42	-0.030118112
47	0xbc49dbbe	-0.012320457
48	0xbcad2073	-0.021133637
49	0xbc8654e9	-0.01639791
50	0xbb4f8785	-0.003166647
51	0xbc8e6b3a	-0.017385114
52	0x3c7c95fc	0.015416618
53	0x3c22a688	0.009927399
54	0xbbec2b79	-0.007207331
55	0xbcc073e0	-0.023492754
56	0xbb415ca9	-0.0029504693
57	0xbca1d444	-0.019754536
58	0xbc7d4e6f	-0.015460595
59	0xb8de86c0	-0.00010610884
60	0xbc6a8dfa	-0.014316076
61	0x3d672995	0.05643614
62	0x3bbfc356	0.0058521433
63	0xbc70b9c5	-0.014692728
64	0x3af6220e	0.001877846
65	0xb9cc6492	-0.00038984843
66	0x3caf43ea	0.021394689
67	0xbcd2d0d9	-0.025734352
68	0x3cc00c18	0.023443267
69	0xbcccfad8	-0.025021955
70	0xbd47bbc1	-0.04876304
71	0xbb8d1a95	-0.0043061473
72	0xbb5dca33	-0.0033842444
73	0xbc8c50ba	-0.017128337
74	0x3d09dbd4	0.03365691
75	0xbd2e3385	-0.0425296
76	0xbbbd1b59	-0.0057710824
77	0x3cbdf8a8	0.023189858
78	0x3d2f3acc	0.042780682
79	0x3d008b32	0.031382747
80	0x3cf642f9	0.030061232
81	0xbce34e26	-0.027747225
82	0x3da162f4	0.07880202
83	0x3d1a77f6	0.03771206
84	0xbd4ef900	-0.050530434
85	0xbd6ec231	-0.058290664
86	0x3be1063d	0.0068671987
87	0xbd07e92f	-0.033181366
88	0xbc73db69	-0.014883854
89	0x3b805aa0	0.0039170533
90	0x3c7bd3b3	0.015370297
91	0x3b2733e4	0.0025513107
92	0xbcb5ddd9	-0.022200512
93	0x3c479f87	0.01218403
94	0x3d837af5	0.064199366
95	0xbc699798	-0.014257334
96	0x3a94748b	0.0011326236
97	0xbc3ebdd9	-0.011641943
98	0xbd499670	-0.049215734
99	0xbc7b187c	-0.015325662
