ac_2d_model_para_5/checkpoint_1950.pth (torch, 291152 bytes, 17 tensors)

linear_layer.0.weight f4 [100, 3]
0	0x3e674874	0.22586232
1	0x3e224418	0.15846288
2	0xbe44ae23	-0.19207053
3	0x3c5b41f1	0.013382421
4	0xbd92fbc7	-0.07176929
5	0x3de43bd6	0.11144225
6	0x3d4b03cc	0.049564168
7	0xbd7db431	-0.061939422
8	0xbe915056	-0.28381604
9	0x3e9147dc	0.28375137
10	0xbd0fd9cd	-0.03511982
11	0x3e5b2155	0.21399434
12	0xbe2aff29	-0.16698898
13	0xbe1d33e2	-0.15351823
14	0xbebb5f06	-0.36595935
15	0xbd911355	-0.070837654
16	0xbe4c50b9	-0.19952668
17	0xbe096ef0	-0.13421226
18	0xbdd7ce35	-0.10537378
19	0x3e09f676	0.13472924
20	0xbdfb46d1	-0.122693665
21	0xbd9ec043	-0.07751515
22	0xbd3533b9	-0.04423878
23	0xbeaa1279	-0.3321722
24	0x3f086f74	0.53295064
25	0x3d4a8e37	0.049452033
26	0x3c9f48fd	0.019443983
27	0xbe28b2bc	-0.16474432
28	0xbe3fdd6c	-0.1873681
29	0xbd98291f	-0.07429718
30	0x3d193623	0.037405144
31	0xbe542d4d	-0.20720406
32	0x3e07f7ca	0.13278118
33	0xbde8d829	-0.11369354
34	0x3d85adc7	0.06527286
35	0xbe72c17f	-0.23706625
36	0x3ee37966	0.44428557
37	0xbb8fcd91	-0.004388519
38	0xbde9c6da	-0.11414881
39	0x3e9911c9	0.29896381
40	0xbc1b35a8	-0.009473242
41	0x3e800c48	0.2500937
42	0x3e4ce68e	0.20009825
43	0x3e210059	0.15722789
44	0x3e3d06d6	0.18459639
45	0xbe3eb3b6	-0.18623242
46	0xbe47d2d9	-0.19514026
47	0x3ce1efe5	0.027580211
48	0x3ea46cc4	0.32114232
49	0x3cb23dcc	0.021757983
50	0xbe93e19d	-0.28883067
51	0xbe5b4410	-0.21412683
52	0xbe18f1c5	-0.14935978
53	0xbe1ea5e8	-0.15492976
54	0xbea09b02	-0.31368262
55	0xbc8ec165	-0.017426202
56	0x3dc4ff08	0.09618956
57	0x3e1fcfe7	0.15606652
58	0x3e251ebb	0.16125004
59	0xbe728717	-0.23684345
60	0x3db1aeda	0.086759284
61	0xbe4df675	-0.20113547
62	0x3da47801	0.080307014
63	0x3ee1c924	0.4409877
64	0xbdae33c5	-0.08505968
65	0x3d9eb253	0.077488564
66	0xbe8e5d1b	-0.2780541
67	0xbe1daeb3	-0.15398674
68	0x3cbfaf5f	0.023399053
69	0x3e2308d4	0.15921336
70	0x3cca0088	0.024658456
71	0xbef5fb35	-0.48043218
72	0x3e77ca6d	0.24198313
73	0x3d0b9336	0.03407594
74	0x3e9cbd12	0.30613
75	0x3e3d89e4	0.18509632
76	0x3da94882	0.08265783
77	0x3b931d74	0.004489595
78	0xbea2e0e8	-0.31812215
79	0xbe5cb4c7	-0.21553336
80	0xbdae4a94	-0.085103184
81	0x3d63ef69	0.05564824
82	0x3e89388b	0.2680095
83	0x3d62414d	0.055238057
84	0x3e58df06	0.21178827
85	0xbe583c0b	-0.21116655
86	0x3d594ddb	0.053052764
87	0x3ddb1df6	0.10699074
88	0xbc9a50fe	-0.018837448
89	0xbdd4702d	-0.10372958
90	0xbd4045c3	-0.04694153
91	0xbe254037	-0.16137777
92	0xbe0efda1	-0.13963939
93	0x3ee1f26a	0.4413026
94	0x3c86097c	0.016361944
95	0x3ea76bf6	0.32699555
96	0x3dcd92aa	0.100377396
97	0xbe66420a	-0.2248613
98	0x3e073155	0.13202412
99	0xbed30386	-0.41213626
100	0x3c8b08dc	0.016971998
101	0xbdd7a875	-0.105301775
102	0x3d876de5	0.066127576
103	0xbdc7330a	-0.09726532
104	0xbe942188	-0.28931832
105	0x3e04e01b	0.12976114
106	0xbe1338df	-0.14377163
107	0x3e54bb98	0.20774686
108	0xbe247aeb	-0.16062514
109	0x3e8927c4	0.2678815
110	0x3ca2b7ef	0.019863097
111	0x3e93afdf	0.28845116
112	0x3e16179f	0.14657448
113	0x3d7ea207	0.06216624
114	0xbd003237	-0.03129789
115	0xbdbad623	-0.091228746
116	0xbeccffd3	-0.40038928
117	0xbe159ab4	-0.14609796
118	0xbce3b7ac	-0.027797543
119	0xbe1b6b34	-0.15177613
120	0x3db7c2a5	0.089726724
121	0x3dc2107a	0.09475799
122	0xbe03ddbc	-0.12877554
123	0xbe53076e	-0.20608303
124	0xbc2e7023	-0.010646853
125	0x3e08e605	0.13368995
126	0xbe73a506	-0.2379342
127	0x3e2fa1eb	0.1715161
128	0xbe0301ef	-0.12793706
129	0x3e1cbdf2	0.15306833
130	0xbd8802c1	-0.0664115
131	0x3e81f1c4	0.25379765
132	0xbe22db11	-0.1590388
133	0x3e4c39aa	0.19943872
134	0x3e038d26	0.12846813
135	0xbd9f5774	-0.07780352
136	0xbde4d370	-0.11173141
137	0x3e17a2d9	0.14808215
138	0xbeeceacb	-0.46272883
139	0x3e20ed93	0.15715627
140	0xbe902187	-0.2815058
141	0x3edaf780	0.42766953
142	0x3a9ac3d8	0.0011807634
143	0xbe01f6aa	-0.12691751
144	0x3dc027ab	0.09382566
145	0x3dc1d660	0.09464717
146	0x3dc0f175	0.09421054
147	0x3eccf7aa	0.40032703
148	0xbdd35896	-0.10319631
149	0xbdee3729	-0.11631615
150	0x3e82cb8e	0.25545925
151	0x3de5a1ec	0.11212525
152	0xbdf9f64b	-0.1220518
153	0x3e56af44	0.20965296
154	0xbd62e581	-0.055394653
155	0xbe192b02	-0.14957812
156	0xbdde7d84	-0.10863784
157	0x3e823f74	0.25439036
158	0x3dc2de15	0.09515015
159	0x3c969d65	0.018385598
160	0x3d67c79d	0.05658685
161	0x3e849b4d	0.25899735
162	0x3e01988d	0.1265585
163	0x3daf0897	0.0854656
164	0x3bb0d0ab	0.005395969
165	0x3eb42ac1	0.3518887
166	0xbd95b0d2	-0.073091164
167	0x3dde62cf	0.1085869
168	0x3f0e424a	0.555699
169	0x3c725279	0.014790171
170	0xbc4cdfb6	-0.012504509
171	0x3eb1e863	0.3474761
172	0xbdf470b8	-0.11935562
173	0xbe82cd73	-0.2554737
174	0x3eb6e4ff	0.35721585
175	0x3c087d92	0.00833072
176	0xbe12f26b	-0.14350288
177	0xbd6d2927	-0.057900574
178	0xbe308890	-0.17239594
179	0x3e8aa333	0.27077636
180	0xbe15b05c	-0.14618057
181	0x3df1bc6c	0.11803517
182	0xbbdb688c	-0.0066958126
183	0x3c4d43bc	0.012528356
184	0x3e90eece	0.28307194
185	0x3cc8c0a3	0.024505919
186	0x3ea833bc	0.3285197
187	0xbe1a1fbe	-0.15051171
188	0xbd7abe9a	-0.061216928
189	0x3a872cf6	0.0010313082
190	0x3df1a5d2	0.11799206
191	0xbe4c3ee7	-0.1994587
192	0x3ed6d3a5	0.41958347
193	0xbe1d5394	-0.15363914
194	0x3d9364a2	0.071969286
195	0x3cf1c048	0.029510632
196	0x3dd51995	0.1040527
197	0x3ea56de9	0.32310417
198	0x3e1ecac4	0.15507036
199	0xbce48234	-0.027894117
200	0xbebe722f	-0.3719649
201	0xbf016df9	-0.5055843
202	0xbce3728c	-0.027764581
203	0x3dd9f81e	0.10643028
204	0x3ec93596	0.39298695
205	0xbdf2707b	-0.1183786
206	0x3c88f9c1	0.016720654
207	0xbdcbc23f	-0.09949159
208	0x3dd4bba0	0.10387349
209	0x3ccf10c9	0.025276558
210	0xbe9858ad	-0.29755154
211	0x3c7e9bbd	0.015540061
212	0xbd15075a	-0.036383964
213	0x3df5487f	0.11976718
214	0x3e1e425b	0.15455
215	0x3db640c3	0.08899071
216	0xbdb6cf34	-0.089262396
217	0x3e886a74	0.26643717
218	0xbdc9f729	-0.09861595
219	0x3de5ff3b	0.11230322
220	0x3e1bfa3f	0.1523218
221	0xbe5e962c	-0.21736974
222	0x3eff8f5b	0.4991406
223	0x3d03a3e2	0.032138713
224	0xbda72b09	-0.08162505
225	0xbcf2b37f	-0.029626606
226	0x3eb3ecb5	0.3514153
227	0x3e1639fd	0.14670558
228	0xbe2e81e8	-0.17041743
229	0xbed2e354	-0.41189063
230	0x3e81700f	0.25280806
231	0xbec17f4d	-0.37792435
232	0xbdc55021	-0.09634424
233	0xbe334909	-0.1750833
234	0xbccde952	-0.02513567
235	0x3e5e7516	0.21724352
236	0xbc030fca	-0.00799937
237	0x3ceb22a2	0.028703038
238	0xbe4a9700	-0.19784164
239	0x3d586982	0.052834995
240	0x3e17334d	0.14765663
241	0xbd669bca	-0.056300916
242	0xbd1d497b	-0.038400155
243	0xbe1915a4	-0.14949661
244	0xbe4ff1e4	-0.20307118
245	0xbda2f064	-0.07956007
246	0xbe8335df	-0.25627038
247	0x3e253e8e	0.16137144
248	0x3daecfcd	0.085357286
249	0x3e3a928c	0.18219966
250	0xbde48dcc	-0.11159858
251	0x3ef54842	0.4790669
252	0x3e8d63d7	0.27615234
253	0xbd0ab2bd	-0.033861864
254	0xbe89644f	-0.26834342
255	0x3e59d78a	0.21273628

linear_layer.0.bias f4 [100]
0	0xbcaed254	-0.021340527
1	0xbd94822c	-0.07251391
2	0x3e4a771c	0.19771999
3	0xbd25d263	-0.040483844
4	0x3ca36554	0.019945778
5	0xbd098df9	-0.03358266
6	0x3daab703	0.08335688
7	0x3e0e16df	0.13875912
8	0xbe487eda	-0.1957964
9	0x3d62f726	0.05541148
10	0x3d6c8b2f	0.057749923
11	0xbe09ecfd	-0.1346931
12	0x3e5634a3	0.20918517
13	0x3e6d0f5f	0.23150395
14	0x3d7d28de	0.061806552
15	0x3a8d538e	0.0010782348
16	0xbe13350c	-0.14375705
17	0x3c9cb12a	0.019127447
18	0xbd004db3	-0.0313241
19	0xbb9688af	-0.0045939307
20	0xbe02e2ba	-0.12781802
21	0xbd960b4c	-0.073263735
22	0xbd3d31da	-0.04619012
23	0x3cd2b508	0.025721088
24	0x3d3ddc77	0.04635283
25	0x3e3031e8	0.17206538
26	0x3de54cad	0.11196265
27	0xbd13911c	-0.03602706
28	0x3d65549e	0.0559889
29	0xbdfcb91f	-0.123399965
30	0xbd96e56c	-0.073679775
31	0xbc67d8e6	-0.014150834
32	0x3e0c6446	0.13710126
33	0xbddde4d6	-0.108346626
34	0xbdaab78c	-0.0833579
35	0x3d91f65c	0.071270674
36	0xbcd99d8e	-0.026564386
37	0xbe43bb04	-0.1911431
38	0x3e231935	0.15927584
39	0x3e3bfff4	0.18359357
40	0x3dc136bd	0.094342686
41	0xbd725e68	-0.059172064
42	0x3d996fbb	0.07492014
43	0xbe9c2ae5	-0.30501476
44	0x3cb281ac	0.021790348
45	0xbe04b614	-0.12960082
46	0xbe072636	-0.1319817
47	0x3cc14883	0.023594147
48	0xbdc48fbe	-0.09597729
49	0xbe492c60	-0.19645834
50	0x3e91675a	0.28399163
51	0x3db1cea5	0.086819924
52	0xba640f36	-0.00086997764
53	0xbe7e83e5	-0.24855001
54	0x3dda42bd	0.106572606
55	0x3dfde127	0.1239646
56	0x3d007a48	0.031366616
57	0xbc14153d	-0.009038267
58	0xbbddb097	-0.006765436
59	0x3c30ce3b	0.010791357
60	0xbdf08674	-0.11744395
61	0xbc96832e	-0.018373098
62	0x3ba3f664	0.0050037373
63	0x3e3170bb	0.1732816
64	0xbe10fabe	-0.1415815
65	0x3db67302	0.08908655
66	0xbe6e8fc9	-0.23297037
67	0x38c7664d	9.5081145e-05
68	0xbdb63e17	-0.088985614
69	0x3dd139fa	0.10216136
70	0x3e406654	0.18789035
71	0xbdc15032	-0.09439124
72	0xbdd38d18	-0.10329646
73	0x3e642ad9	0.2228197
74	0xbc8d8e6a	-0.017279822
75	0x3d011fb4	0.031524375
76	0x3cabdf7a	0.020980585
77	0x3da69101	0.08133126
78	0xbdff10a1	-0.124543436
79	0xbcfb579c	-0.030681424
80	0x3e1eb2f9	0.1549796
81	0x3e07afc6	0.13250646
82	0xbd5e15a3	-0.054219853
83	0x3c7bac57	0.015360913
84	0x3d0ad43b	0.033893805
85	0x3d696b44	0.056987062
86	0x3e05e1c4	0.13074404
87	0x3e213c65	0.15745695
88	0xbde379e6	-0.11107235
89	0xbdd59d74	-0.104304224
90	0xbe0e3f5c	-0.13891357
91	0xbe4e0749	-0.20119967
92	0xbd9500ec	-0.072755665
93	0x3e0a8d1b	0.1353039
94	0xbd202291	-0.039095465
95	0x3d26b0c9	0.04069594
96	0x3e896f55	0.26842752
97	0x3d86f53e	0.06589745
98	0xbd9ef98b	-0.0776244
99	0x3d6cea6f	0.05784076

linear_layer.1.weight f4 [100, 100]
0	0x3d6553dd	0.05598818
1	0x3e1b2328	0.1515013
2	0xbd86352c	-0.065531105
3	0xbcc1517b	-0.023598423
4	0xbc776e71	-0.015102015
5	0x3b9735cf	0.004614569
6	0x3dcc4fd1	0.09976161
7	0x3d69c648	0.05707386
8	0x3e177be2	0.14793351
9	0xbe1af7bb	-0.15133564
10	0xbda223c1	-0.07916976
11	0x3c32c3b4	0.010910917
12	0xbe7c5037	-0.24639975
13	0xbd9be099	-0.07611198
14	0x3d872f83	0.06600859
15	0x3d8bcd8e	0.06826316
16	0xbe622bd4	-0.22087032
17	0xbe1cf839	-0.15329064
18	0x3e5a31de	0.21308085
19	0x3b2cca1b	0.0026365581
20	0xbdb8cb2f	-0.09023129
21	0x3de0cd40	0.10976648
22	0x3d10164b	0.03517751
23	0x3e1a9677	0.1509646
24	0xbd8f1b1e	-0.06987594
25	0x3b66ac8c	0.003519806
26	0xbdaec72d	-0.085340835
27	0xbc60f99a	-0.013731385
28	0xbe71d467	-0.23616181
29	0xbdb69f3c	-0.0891709
30	0xbc50bb88	-0.012740023
31	0xbbc383dc	-0.0059666466
32	0xbd2d8882	-0.042366512
33	0x3e6c54b1	0.23079182
34	0xbda8f15f	-0.08249163
35	0xbd81cf9a	-0.06338425
36	0xbdbaf6b5	-0.09129087
37	0xbc3edd43	-0.011649433
38	0x3e04939a	0.1294693
39	0xbe1283f8	-0.14308155
40	0x3d50aa31	0.050943557
41	0x3e2801be	0.16406915
42	0xbe0e3375	-0.13886817
43	0xbd63381a	-0.055473424
44	0x3af113eb	0.0018392777
45	0xbd090668	-0.033453375
46	0x3d68bf11	0.05682284
47	0x3cc1d0cb	0.02365913
48	0x3afa0b77	0.0019076903
49	0x3dfc2f22	0.12313677
50	0xbc63769d	-0.01388326
51	0xbe91b928	-0.28461576
52	0x3decfe42	0.11571933
53	0x3dbfbe8c	0.09362516
54	0xbd0bf8f1	-0.034172956
55	0xbe5f7af5	-0.21824248
56	0xbe15a979	-0.1461543
57	0xbd9ceb80	-0.076621056
58	0x3e18b5c9	0.14913096
59	0x3e2e146d	0.1699998
60	0x3c612950	0.01374276
61	0x3d81e5ae	0.06342636
62	0xbc2f449d	-0.010697511
63	0xbe24ad79	-0.160818
64	0xbcc23b12	-0.023709808
65	0x3e3a4f8f	0.18194412
66	0xbc474590	-0.012162581
67	0x3d6a72e5	0.05723848
68	0x3cc56e2b	0.024100384
69	0xbdb5de4a	-0.08880289
70	0x3c28d02e	0.01030354
71	0x3dc9bc78	0.09850401
72	0xbd950298	-0.07275885
73	0x3d291057	0.04127535
74	0xbe80af9b	-0.25133976
75	0x3cf314bf	0.029672978
76	0xbd1ee6cd	-0.038794328
77	0x3c14453a	0.009049708
78	0xbe3303e2	-0.1748195
79	0xbdefe4f0	-0.11713588
80	0xbd08b053	-0.03337128
81	0xbc5039dc	-0.012709107
82	0xbccf4c55	-0.025304953
83	0xbdcc8987	-0.09987169
84	0x3d70c0b2	0.05877752
85	0x3e00c886	0.12576494
86	0xbcf2fe6c	-0.029662333
87	0xbd9de395	-0.077094235
88	0x3dbfd60c	0.09366998
89	0x3dfae905	0.12251476
90	0xbbcac625	-0.0061881715
91	0x3e08e5d3	0.13368921
92	0xbdb3fc10	-0.087883115
93	0xbd84538a	-0.06461246
94	0xbc035655	-0.008016189
95	0xbdd95223	-0.106113695
96	0xbd816a5a	-0.06319113
97	0xbc9e7d51	-0.019346865
98	0xbe057ace	-0.13035128
99	0xbda14ea2	-0.07876326
100	0x3d4507af	0.04810303
101	0x3e5eb3cc	0.21748275
102	0xbcb1b84e	-0.021694329
103	0x3d7a1f14	0.061064795
104	0xbd5f9eab	-0.054594677
105	0xbe2c40a6	-0.16821536
106	0x3e09931d	0.13435026
107	0xbe8df214	-0.27723753
108	0xbd4cb18f	-0.04997402
109	0xbd918037	-0.07104533
110	0xbd880e32	-0.066433325
111	0x3d1d5c06	0.03841784
112	0x3dde5bc3	0.10857346
113	0x3df57d44	0.11986783
114	0x3e2341a5	0.1594301
115	0xbe18b50b	-0.14912812
116	0xbd2ed484	-0.04268314
117	0xbe924f8d	-0.28576317
118	0x3c5a8142	0.0133364815
119	0x3e41be5c	0.18920273
120	0xbde6c8c8	-0.11268765
121	0xbcbd0673	-0.023074364
122	0x3cf26dfb	0.029593458
123	0x3df37418	0.118873775
124	0x3e419f33	0.18908386
125	0x3da47a59	0.080311485
126	0xbdba9de8	-0.091121495
127	0x3df55d2a	0.1198066
128	0xbdfbd561	-0.12296558
129	0xbda6496e	-0.08119474
130	0xbd8d85f6	-0.06910317
131	0xbdd14868	-0.102188885
132	0x3e32fa50	0.17478299
133	0xbde7c8aa	-0.113175705
134	0xbddd6b9e	-0.10811542
135	0x3d147a8e	0.03624969
136	0x3e40fb3b	0.18845837
137	0x3c918152	0.01776186
138	0xbcc7da08	-0.024395958
139	0xbda9a7e8	-0.08283979
140	0x3e4f2bfe	0.20231625
141	0xbdcb0901	-0.09913827
142	0x3e00e4f8	0.12587345
143	0xbe3b2e8b	-0.18279473
144	0x3e4d6e09	0.20061506
145	0xbe6be8bc	-0.23038
146	0xbe8a6dc9	-0.27036884
147	0xbd887caf	-0.066644065
148	0x3d1ba730	0.03800124
149	0xbdc1b9bd	-0.09459255
150	0xbc7e983b	-0.015539224
151	0xbd0c25d1	-0.034215752
152	0x3db32720	0.08747697
153	0xbe2eef2d	-0.17083426
154	0xbd27f60a	-0.041006126
155	0x3dc4fbd9	0.09618349
156	0x3cd1b54c	0.025599144
157	0xbd9b21ac	-0.07574782
158	0xbdf6e29e	-0.120549425
159	0xbd2c44f2	-0.04205794
160	0x3e08b973	0.13351993
161	0xbdb65875	-0.089035906
162	0xbca6ad2b	-0.020346245
163	0x3d6e7f12	0.058226652
164	0xbe0f7026	-0.14007625
165	0x3e1886f0	0.14895225
166	0xbd1b23ae	-0.037875824
167	0xbe3b1069	-0.18267979
168	0xbebff069	-0.37488106
169	0x3e6f8150	0.23389173
170	0xbc940b7d	-0.018071884
171	0x3da05bfa	0.07830043
172	0x3d3d7b9a	0.046260454
173	0x3e0afc44	0.13572794
174	0x3de4b6c9	0.11167676
175	0x3e3f4de5	0.18682058
176	0x3c012359	0.007881963
177	0xbb807e0c	-0.003921276
178	0xbde48517	-0.111581974
179	0x3d48a590	0.048986018
180	0x3e509f04	0.2037316
181	0xbe514309	-0.20435728
182	0xbd262943	-0.040566694
183	0x3da6bbcc	0.08141288
184	0x3c78f468	0.01519499
185	0xbda00b9b	-0.078147136
186	0x3d051c46	0.032497667
187	0x3d202ebd	0.039107073
188	0x3c581487	0.013188488
189	0xbe0a080e	-0.13479635
190	0x3da68ece	0.081327066
191	0xbe039001	-0.12847902
192	0x3ce23e1d	0.027617509
193	0xbdc36623	-0.095409654
194	0x3dfa37d3	0.12217679
195	0xbe06b3a8	-0.13154471
196	0x3e24b124	0.16083199
197	0x3e105626	0.14095363
198	0xbdefa993	-0.117022656
199	0x3e4c8207	0.19971476
200	0xbde512eb	-0.11185249
201	0xbd4d6726	-0.0501472
202	0x3dd47dbe	0.10375546
203	0xbd87515b	-0.06607314
204	0xbe04401c	-0.12915081
205	0x3d433a45	0.047662992
206	0xbd054e2c	-0.032545254
207	0x3e19639b	0.14979403
208	0xbe44da36	-0.19223866
209	0xbce2fd00	-0.02770853
210	0x3dae4d96	0.08510892
211	0x3d165a84	0.036707416
212	0xbdd78e1a	-0.105251506
213	0x3c1f3df5	0.009719362
214	0x3cf09a9f	0.029370604
215	0xbcf56c95	-0.029959003
216	0xbc9ff37a	-0.019525278
217	0x3dff3446	0.12461142
218	0xbe246297	-0.16053234
219	0xbe2bfe05	-0.1679612
220	0x3d9a6161	0.07538105
221	0x3d9a59ca	0.07536657
222	0x3d1bae93	0.038008284
223	0xbe0bd76e	-0.13656399
224	0xbe230fab	-0.15923946
225	0xbe2b0a33	-0.1670311
226	0x3d3a0020	0.045410275
227	0x3d9dc93c	0.07704398
228	0xbd243929	-0.040093575
229	0x3dcac2a1	0.09900404
230	0xbe019bb0	-0.12657046
231	0xbd9b9848	-0.07597405
232	0x3d05de15	0.032682497
233	0x3c1cb7cf	0.009565308
234	0x3c8526ff	0.016253946
235	0x3be0f875	0.006865556
236	0xbdd2f907	-0.103014044
237	0xbdadf490	-0.08493912
238	0xbd895628	-0.06705886
239	0x3c8c2156	0.01710574
240	0x3e6af14c	0.2294361
241	0x3e4fd5e2	0.20296434
242	0xbcada53b	-0.021196952
243	0x3e0d19db	0.13779394
244	0xbdfefbe6	-0.124503896
245	0x3e153843	0.14572243
246	0x3de71c69	0.11284716
247	0xbe0cc4a8	-0.13746893
248	0xbd8b9e83	-0.06817343
249	0xbdbd9a4a	-0.09257944
250	0x3d461d9d	0.048368085
251	0x3bc6ea56	0.0060704155
252	0xbd3cd00a	-0.04609684
253	0xbd801d8d	-0.06255636
254	0xbe174f2a	-0.14776292
255	0xbd08da9c	-0.033411607

linear_layer.1.bias f4 [100]
0	0xbda8ae45	-0.08236364
1	0x3da94929	0.08265907
2	0xbcc87aea	-0.024472672
3	0x3e3f8c26	0.18705806
4	0xbcb76c5f	-0.022390543
5	0xbd836d6d	-0.06417356
6	0xbde9bc0c	-0.1141282
7	0x3e061f15	0.13097794
8	0xbde0a19d	-0.10968325
9	0x3da7e301	0.081975944
10	0xbdaaf86a	-0.083481625
11	0xbcae8b56	-0.021306675
12	0x3e0c4299	0.1369728
13	0x3dc38112	0.095461026
14	0xbd9106b6	-0.07081358
15	0xbd9c44fd	-0.07630346
16	0x3b4ed2fa	0.0031558857
17	0x3e013461	0.12617637
18	0x3cb0744f	0.021539835
19	0xbd6ff5af	-0.05858391
20	0xbd55cf78	-0.05219981
21	0x3d36d0d1	0.044632737
22	0xbcfa3b91	-0.030545982
23	0x3db50284	0.088383704
24	0x3e0ee2c8	0.13953698
25	0x3d074b98	0.033031076
26	0x3e1ba888	0.15201008
27	0xbd5cf3ac	-0.05394332
28	0xbdbf14d2	-0.09330143
29	0xbd7d05bf	-0.061773058
30	0xbe696868	-0.22793734
31	0x3df94cca	0.121728495
32	0x3b8255e6	0.003977525
33	0xbdc1c740	-0.09461832
34	0xbd9384ac	-0.072030395
35	0x3da2ccad	0.07949195
36	0x3e05b9e9	0.130592
37	0xbe157199	-0.14594115
38	0x3c2c29a0	0.010507971
39	0xbca12198	-0.019669339
40	0xbde5367e	-0.11192034
41	0xbe081f03	-0.1329308
42	0x3d046ff7	0.03233334
43	0x3e232770	0.15933013
44	0xbd8f57fe	-0.06999205
45	0x3c2a2533	0.010384846
46	0x3aebdf89	0.0017995696
47	0xbe0dc444	-0.138444
48	0x3d9056e2	0.070478216
49	0xbddbc644	-0.107311755
50	0xbd51a5e2	-0.05118359
51	0xbbd72693	-0.0065658777
52	0xbb92f0ee	-0.0044842875
53	0xbdefb2dd	-0.11704037
54	0x3c25634e	0.010094477
55	0x3cba1495	0.022714892
56	0x3e0e913c	0.1392259
57	0xbdb89fd0	-0.09014857
58	0xbb37a22b	-0.0028020244
59	0x3cfdcb5f	0.030980764
60	0xbe0aba82	-0.1354771
61	0xbbc9013b	-0.00613418
62	0x3d1237a9	0.035697613
63	0x3e2c13a8	0.16804373
64	0x3d263cae	0.040585212
65	0x3d181c3a	0.037136294
66	0xbde4b7c0	-0.1116786
67	0x3cb1faab	0.021725973
68	0x3b7511cd	0.0037394643
69	0xbe2f5ee5	-0.17126043
70	0xbdc32fba	-0.095305875
71	0x3be1e4b7	0.00689372
72	0xbd33736d	-0.04381125
73	0xbd1d939c	-0.03847085
74	0x3da48e91	0.08035005
75	0x3c2243cb	0.009903858
76	0x3da53e79	0.08068556
77	0xbe07a968	-0.13248217
78	0x3d71e568	0.05905667
79	0xbd51c0f7	-0.051209416
80	0xbe0d76a8	-0.13814795
81	0xbd9186ec	-0.071058124
82	0x3d0c6cbc	0.034283385
83	0xbce9e5a1	-0.028551878
84	0x3dc4dde0	0.09612632
85	0x3cd57fd2	0.026061926
86	0xbc0b0d96	-0.008487126
87	0x3d73316c	0.059373304
88	0x3e257059	0.16156138
89	0xbd086332	-0.033297725
90	0xbdb3223a	-0.087467626
91	0xbe40a071	-0.18811204
92	0x3dc47389	0.09592349
93	0x3cdf99da	0.027295042
94	0x3d52dc2b	0.0514795
95	0x3d17c48b	0.037052672
96	0x3d86b0b8	0.06576675
97	0xbc104d5d	-0.008807507
98	0xbc34af4f	-0.011028125
99	0x3dbb8615	0.091564335

linear_layer.2.weight f4 [100, 100]
0	0xbd57d15d	-0.0526899
1	0x3ce47db7	0.027891977
2	0x3d86c4db	0.06580516
3	0xbe82d425	-0.25552478
4	0x3dbff698	0.09373206
5	0xbd24c831	-0.04022998
6	0x3d7a3e38	0.061094493
7	0xbdb6d828	-0.08927947
8	0x3dc698de	0.09697126
9	0xbd66538f	-0.05623203
10	0xbd2ea510	-0.042637885
11	0x3d18ab64	0.037272826
12	0xbd83a00d	-0.06427012
13	0xbdc01de2	-0.093807
14	0x3cd98eb8	0.026557311
15	0xbe0b79d8	-0.13620698
16	0x3d408679	0.047003243
17	0xbdb444aa	-0.08802159
18	0xbd0f68a7	-0.035011914
19	0x3e042746	0.12905607
20	0x3ce0be33	0.027434444
21	0x3d43bc64	0.047787085
22	0xbd7f877f	-0.06238508
23	0xbd9815e6	-0.07426052
24	0xbe041f39	-0.12902535
25	0x3ae57c8c	0.0017508431
26	0xbe65d46f	-0.22444318
27	0xbc89287a	-0.016742934
28	0x3ce40744	0.027835496
29	0xba5cc52a	-0.0008421714
30	0x3d524617	0.051336374
31	0xbd6be8b8	-0.057594985
32	0x3c7fb02a	0.015605966
33	0x3bb5c4af	0.005547128
34	0x3d900d9e	0.07033847
35	0xbc157710	-0.009122625
36	0xbcd632ea	-0.026147325
37	0x3e9a71f9	0.3016508
38	0x3cf3abf2	0.029745076
39	0xbd8aebc7	-0.06783252
40	0x3e115f11	0.14196421
41	0x3e2b228d	0.16712399
42	0x3d9d75b5	0.076884665
43	0x3c0f23be	0.008736549
44	0x3dfb1aab	0.12260946
45	0xbc7b3653	-0.015332776
46	0x3dece93b	0.11567923
47	0x3d481e5f	0.04885709
48	0xbe2554d0	-0.16145635
49	0x3df4ccc3	0.11953118
50	0x3c4e0a8c	0.012575757
51	0x3d8002c9	0.06250531
52	0xbe0986b8	-0.13430297
53	0x3d2f4e72	0.04279942
54	0xbdea0d02	-0.11428262
55	0xbd072f58	-0.033004135
56	0xbeabc1a4	-0.33546174
57	0x3d65d995	0.056115706
58	0x3db9ad46	0.090662524
59	0x3c49a877	0.012308232
60	0xbd085e14	-0.033292845
61	0x3b898eac	0.004197916
62	0xbcd12e70	-0.025534838
63	0xbccb4108	-0.024811283
64	0x3d09d181	0.033647064
65	0x3e008d42	0.12553886
66	0x3d7e0f75	0.06202646
67	0xbd676ebd	-0.056502093
68	0x3db66df5	0.089076914
69	0x3ce84153	0.028351462
70	0x3e789ede	0.24279353
71	0x3e82a193	0.25513896
72	0x3c9130f1	0.017723532
73	0xbe0149c8	-0.12625802
74	0xbe4e26c2	-0.20131972
75	0x3ce6514d	0.02811494
76	0xbd1987dc	-0.03748308
77	0xbc788864	-0.015169237
78	0xbd9d67be	-0.07685803
79	0x3dd1f029	0.10250885
80	0xbdb02a21	-0.086017855
81	0x3d5efa9c	0.05443822
82	0xbc4104a6	-0.011780893
83	0x3ddbe579	0.10737128
84	0x3e6f0b48	0.23344147
85	0xbe081ffe	-0.13293454
86	0x3e26dbd5	0.16294797
87	0xbe8adfde	-0.27123922
88	0xbda009bd	-0.078143574
89	0xbdeac433	-0.11463203
90	0x3d529d85	0.051419754
91	0x3e130005	0.14355476
92	0x3b012f6b	0.0019712101
93	0xbdf1a710	-0.11799443
94	0xbcfa1476	-0.030527335
95	0xbcf1ab13	-0.02950052
96	0xbd8c0144	-0.06836179
97	0x3c9d1cc6	0.01917876
98	0x3c37e563	0.011224124
99	0x3d5d5e17	0.05404481
100	0xbc6f76df	-0.014615743
101	0x3c973484	0.018457659
102	0xbd434edd	-0.04768263
103	0xbeac56d8	-0.33660007
104	0x3b3688ab	0.0027852457
105	0x3d99a864	0.07502821
106	0x3daa4698	0.08314246
107	0xbe87a5da	-0.26493722
108	0x3d52966e	0.051412992
109	0xbe159b47	-0.14610015
110	0x3deaec35	0.11470834
111	0xbe02c40c	-0.12770098
112	0xbda5ccad	-0.080956794
113	0xbe98ff7a	-0.29882413
114	0xbdb5df3d	-0.0888047
115	0x3d162e9d	0.036665548
116	0xbba88418	-0.0051427
117	0xbde30f6a	-0.110869244
118	0x3da6facd	0.08153305
119	0x3d74b7ea	0.059745707
120	0x3de66a34	0.112507254
121	0x3e0e204b	0.13879506
122	0xbc3c04cc	-0.011475753
123	0xbd9d506d	-0.076813556
124	0x3d3127d2	0.043250866
125	0x3d5bdc65	0.05367698
126	0xbe896b9e	-0.26839918
127	0x3dbe5855	0.09294192
128	0x3dc79586	0.09745316
129	0x3c5a9639	0.01334148
130	0x3df9e273	0.12201395
131	0xbe63d2c6	-0.22248372
132	0x3e8b8a97	0.27254173
133	0x3dd92023	0.10601833
134	0xbd311b68	-0.043239027
135	0xbda8b05d	-0.082367636
136	0xbb54642c	-0.003240834
137	0x3db2d461	0.08731914
138	0x3e6e74c5	0.23286732
139	0xb99b9335	-0.00029673582
140	0x3e4274de	0.18989894
141	0xbbafebee	-0.005368701
142	0x3e16c053	0.14721803
143	0x3c781c16	0.015143415
144	0x3e0346fc	0.12820047
145	0x3e3759db	0.17905371
146	0xbe3293f7	-0.17439257
147	0x3d763b35	0.060115058
148	0xbe698891	-0.22806002
149	0x3da320e4	0.07965258
150	0xbcc622d7	-0.024186535
151	0xbe287d3d	-0.16454025
152	0x3db1a2f9	0.08673663
153	0x3dab51b5	0.08365194
154	0x3e62f226	0.22162685
155	0x3e1ca005	0.15295418
156	0xbdb65f6c	-0.08904919
157	0x3c8d17cf	0.017223267
158	0xbd7d6c0e	-0.061870627
159	0xbd97c420	-0.07410455
160	0x3d49e27e	0.049288265
161	0x3e17bf6e	0.14819118
162	0x3e40f9f0	0.18845344
163	0xbd022203	-0.031770717
164	0xbe7e95e6	-0.24861869
165	0xbd7dcf7e	-0.061965458
166	0x3c1fa18e	0.0097431075
167	0x3c8e75e2	0.017390195
168	0x3bc2f13b	0.005949167
169	0x3d2dbf19	0.042418573
170	0xbc69ee0e	-0.014277948
171	0x3d911d4a	0.070856646
172	0x3c99107a	0.018684614
173	0xbdff6ca3	-0.12471893
174	0xbb339536	-0.002740217
175	0xbda42bc4	-0.0801616
176	0xbb94f7ed	-0.0045461566
177	0x3e019653	0.12655
178	0x3bb1417e	0.0054094186
179	0x3dc37e9b	0.095456325
180	0x3ca4a8db	0.020100048
181	0xbdae1717	-0.08500498
182	0xbe04a42b	-0.1295325
183	0xbe1b4446	-0.15162763
184	0xbd3a3bc1	-0.045467142
185	0x3e076490	0.13221955
186	0x3d6a983f	0.0572741
187	0xbdfc0636	-0.12305872
188	0xbcecc684	-0.028903253
189	0xbd846a56	-0.064655945
190	0x3d54cb33	0.0519516
191	0x3dd76478	0.1051721
192	0x3d43fdff	0.04784965
193	0xbe0b5750	-0.13607526
194	0xbc4d446f	-0.012528523
195	0xbdc70081	-0.09716893
196	0x3d568bee	0.05237954
197	0x3d25e468	0.04050103
198	0x3c91098f	0.017704753
199	0xbd4d8d3f	-0.05018353
200	0xbccff5c2	-0.025385741
201	0xbdbf80ff	-0.09350776
202	0xbd0708d0	-0.03296739
203	0x3d5de8d5	0.054177124
204	0x3e1f3cf5	0.15550597
205	0xbdac7324	-0.08420399
206	0x3da0a529	0.07844002
207	0x3d05f278	0.03270194
208	0xbd6f6619	-0.058446977
209	0x3e4d034f	0.20020793
210	0xbe25e907	-0.16202174
211	0xbe060da2	-0.13091138
212	0xbdc96d52	-0.09835304
213	0xbe2a697a	-0.16641799
214	0xbd1bc2dc	-0.03802763
215	0x3d84d922	0.06486727
216	0x3e3b6963	0.1830192
217	0x3dcb49a7	0.099261574
218	0xbe27786f	-0.16354536
219	0xbbff07b8	-0.0077829026
220	0xbe0767ac	-0.13223141
221	0x3df39226	0.1189311
222	0xbe8184e5	-0.25296703
223	0x3da1f3a2	0.079077974
224	0xbddc464a	-0.10755594
225	0xbda7b9e0	-0.0818975
226	0x3de8f711	0.11375249
227	0x3c8d304f	0.01723495
228	0xbe1fed6e	-0.15617916
229	0x3d70eb67	0.058818247
230	0xbe0c15ba	-0.13680163
231	0x3dc37857	0.095444374
232	0xbda8edff	-0.08248519
233	0x3d10c291	0.035341803
234	0xbd42dc93	-0.047573637
235	0x3e012142	0.12610343
236	0xbd869bdb	-0.06572696
237	0xbe382817	-0.17984043
238	0xbc18f4ae	-0.00933568
239	0x3d8ccf63	0.068754934
240	0xbe13ab00	-0.144207
241	0x3c4e4022	0.012588533
242	0xbded06cf	-0.11573564
243	0x3b31c22c	0.0027123792
244	0x3c547e6d	0.012969595
245	0xbdb61aa9	-0.08891804
246	0xbbe0d094	-0.006860802
247	0x3c229152	0.009922342
248	0xbcd752f4	-0.026284672
249	0xbd18e4ad	-0.037327457
250	0xbe0debd3	-0.13859491
251	0x3d755bc4	0.059901968
252	0xbddf6448	-0.10907799
253	0x3d08ab28	0.033366352
254	0x3cb43ea0	0.022002518
255	0x3c96a584	0.01838947

linear_layer.2.bias f4 [100]
0	0xbd889e9b	-0.066708766
1	0xbd69d310	-0.05708605
2	0x3c9cfabf	0.019162534
3	0x3d0e320c	0.034715697
4	0x3c92ad73	0.017904973
5	0x3d330b1c	0.043711767
6	0x3d6e2fd8	0.058151096
7	0x3cff0704	0.031131275
8	0xbc0af1ff	-0.008480548
9	0x3d06fdb8	0.03295681
10	0xbd175084	-0.03694202
11	0xbd804632	-0.06263389
12	0xbdce271e	-0.10066055
13	0x3e385c7c	0.1800403
14	0xbc84dc5c	-0.016218357
15	0xbcd7841c	-0.026308112
16	0xbd9525f8	-0.072826326
17	0x3e161466	0.14656219
18	0x3c00e00b	0.007865916
19	0xbce57f6f	-0.028014867
20	0xbe07d098	-0.13263166
21	0xbd506aac	-0.05088298
22	0x3c625787	0.013814813
23	0x3daeef86	0.08541779
24	0x3ca9d4b4	0.020731308
25	0xbd75fefd	-0.06005763
26	0xbd5cb65b	-0.053884845
27	0xbd8e8891	-0.06959642
28	0x3d774402	0.06036759
29	0xbd924011	-0.07141126
30	0xbdeed5d2	-0.11661877
31	0xbd383f05	-0.044981975
32	0x3d004ba9	0.031322155
33	0x3d5cdec0	0.05392337
34	0xbca356b7	-0.01993881
35	0xbd9ef01a	-0.077606395
36	0xbd052c98	-0.03251323
37	0xbd7e3f9a	-0.062072374
38	0xbcf680d5	-0.030090729
39	0xbcfddc27	-0.030988766
40	0xbd13298c	-0.035928294
41	0xbdcb2d7c	-0.09920785
42	0xbd2043bb	-0.039127093
43	0x3d129e0e	0.035795264
44	0x3c37c17a	0.011215562
45	0x3ce1af8f	0.027549533
46	0x3cdf80af	0.02728304
47	0x3be2c119	0.0069199917
48	0x3d630503	0.0554247
49	0x3c10936f	0.008824213
50	0xbcc22026	-0.02369697
51	0x3b9d4b5d	0.004800244
52	0x3da94f84	0.082671195
53	0x3dd6dc8e	0.10491286
54	0x3d92b434	0.07163277
55	0xbeb96f0e	-0.3621754
56	0xbd883b94	-0.066519886
57	0xbc96eaf3	-0.01842258
58	0x3be01093	0.0068379133
59	0xbd5fffaa	-0.05468718
60	0x3e2c39b4	0.16818887
61	0x3d48c886	0.04901936
62	0x3e21cfb5	0.1580189
63	0x3d134498	0.035954088
64	0xbd2b9c0e	-0.041896872
65	0xbcdfe5f6	-0.027331334
66	0xbd8e0946	-0.069353625
67	0x3c0c3056	0.008556446
68	0xbe5a5489	-0.2132131
69	0x3c364a9b	0.011126186
70	0x3c90fdf7	0.017699225
71	0x3cf7693e	0.03020155
72	0x3cb269c2	0.021778945
73	0xbbe7f707	-0.0070790085
74	0xbcc3caed	-0.023900473
75	0xbd66e1cd	-0.056367684
76	0xbc72a46b	-0.014809708
77	0x3c106f4d	0.008815599
78	0x3ce7b6ca	0.028285403
79	0xbdbc68fd	-0.091997124
80	0xbd8d6e34	-0.06905785
81	0xbc9729c2	-0.018452529
82	0xbdcaa155	-0.09894053
83	0xbd20bc64	-0.039242163
84	0x3d355545	0.044270772
85	0x3d652b65	0.055949587
86	0x3c928af6	0.017888527
87	0x3e643631	0.22286297
88	0xbd236b8f	-0.039897498
89	0xbbaccdc5	-0.005273553
90	0x3c965956	0.018353146
91	0x3d3d56f2	0.046225496
92	0xbc93c81c	-0.018039756
93	0xbe974869	-0.29547432
94	0x3bb43f1b	0.005500687
95	0xbd934074	-0.07190028
96	0xbd2e759e	-0.042592637
97	0x3c61c6f5	0.013780345
98	0xbd849339	-0.06473393
99	0xbc9b1904	-0.018932827

linear_layer.3.weight f4 [100, 100]
0	0xbe28549c	-0.16438526
1	0x3dd16381	0.10224057
2	0xbd49fb7e	-0.049312107
3	0x3e293fcf	0.16528247
4	0xbb7af138	-0.003829075
5	0xbcbc3659	-0.022975134
6	0x3d7973d1	0.060901467
7	0x3de63bb1	0.11241854
8	0xbdf7027f	-0.12061023
9	0xbdcd1507	-0.10013776
10	0xbe61b11e	-0.22040221
11	0x3d9b947d	0.07596681
12	0xbe10b59b	-0.14131777
13	0x3f1cd40c	0.6126106
14	0xbd7a23ef	-0.061069425
15	0x3d11da1f	0.035608407
16	0xbe81c687	-0.25346777
17	0x3e1b2397	0.15150295
18	0xbdbe7cfe	-0.09301184
19	0x3c96d39b	0.018411448
20	0xbed38529	-0.4131253
21	0xbdfad51d	-0.122476794
22	0xbd003410	-0.03129965
23	0x3e1108c9	0.14163508
24	0x3ba36571	0.004986458
25	0x3d953c0e	0.07286845
26	0xbc84399f	-0.016140757
27	0xbd9239bd	-0.07139919
28	0x3e5ee87e	0.21768376
29	0xbc5c497f	-0.013445257
30	0xbe224a2a	-0.15848604
31	0xbe12e0bd	-0.14343543
32	0xbdff6b91	-0.124716885
33	0xbd0da7b1	-0.03458375
34	0xbd839ee2	-0.06426789
35	0xbc8503d3	-0.016237175
36	0xbe9c406d	-0.30517903
37	0xbe563d76	-0.20921883
38	0xbe7ac909	-0.24490751
39	0xbdee01c1	-0.11621428
40	0x3e0d4a13	0.13797788
41	0xbe4fae9b	-0.2028145
42	0xbe24fb0c	-0.16111392
43	0x3e15823e	0.14600465
44	0x3d226bcd	0.039653588
45	0xbca9c886	-0.0207255
46	0x3d5aa09a	0.053375818
47	0x3e2ed3cb	0.1707298
48	0xbe79fae5	-0.24412115
49	0x3de2eacd	0.11079941
50	0x3e00fc09	0.12596144
51	0xbd810cda	-0.06301279
52	0xbce19054	-0.027534641
53	0x3e9de6cd	0.3084015
54	0x3e7a368a	0.24434868
55	0x3b6b1c9e	0.0035875211
56	0x3db433c8	0.08798939
57	0xbe23c700	-0.15993881
58	0xbe20b429	-0.15693726
59	0xbe065541	-0.1311846
60	0x3c7ecf70	0.015552387
61	0xbe0901e9	-0.13379635
62	0x3ea3aad8	0.3196628
63	0xbdb77448	-0.08957726
64	0x3dcb75fe	0.099346146
65	0x3c3c2f8f	0.011485948
66	0x3d57a06b	0.05264322
67	0xbc900629	-0.017581062
68	0x3dd21f6d	0.102599
69	0xbc943bb9	-0.018094884
70	0x3e43a030	0.19104075
71	0xbd3da094	-0.046295717
72	0x3dcb5160	0.099276304
73	0xbcc92f78	-0.024558768
74	0x3e462858	0.19351327
75	0x3dd42c58	0.103600204
76	0xbd9cfddf	-0.076656096
77	0xbc4ad5a0	-0.012380034
78	0x3c5943af	0.013260766
79	0xbe864656	-0.26225537
80	0x3bb0b081	0.0053921347
81	0x3df62b45	0.12019972
82	0xbd9d0f7f	-0.07668971
83	0xbca1496e	-0.019688334
84	0x3e7c413c	0.2463426
85	0xbe1115e4	-0.14168507
86	0x3d18684e	0.037208848
87	0x3cf866be	0.030322429
88	0xbe045513	-0.12923078
89	0x3d133544	0.03593947
90	0xbe452065	-0.19250639
91	0x3e8c355e	0.27384466
92	0xbb8aad5b	-0.0042320914
93	0x3d957ec3	0.072995685
94	0x3c09ef6d	0.0084189
95	0x3e074f62	0.13213876
96	0x3d9fec54	0.07808748
97	0x3d0b68ec	0.03403561
98	0xbe4089c8	-0.1880256
99	0xbdb695d8	-0.08915299
100	0x3e3438e4	0.17599827
101	0xbc4208d4	-0.011842925
102	0x3c2165d0	0.009850934
103	0xbdf494b6	-0.11942427
104	0x3d0156c9	0.031576905
105	0x3cc24d95	0.023718635
106	0xbde0f72a	-0.10984643
107	0x3d751aaf	0.0598399
108	0x3bb2a0cc	0.0054512974
109	0xbd8a7418	-0.067604244
110	0xbdd28731	-0.10279692
111	0x3e06b955	0.13156636
112	0xbd27ce4e	-0.04096823
113	0x3e92b200	0.28651428
114	0xbddc4df0	-0.10757053
115	0xbcb9ae75	-0.022666195
116	0xbd79fcb3	-0.06103201
117	0xbdae9531	-0.0852455
118	0x3dcf9b57	0.101370506
119	0x3c9e3102	0.019310478
120	0x3dc81a87	0.09770685
121	0xbd9030c4	-0.07040551
122	0xba05945d	-0.0005095655
123	0xbe384a28	-0.17997038
124	0xbe1ef0a1	-0.1552148
125	0x3dccd482	0.1000147
126	0x3ccb69e1	0.02483076
127	0xbe418ea7	-0.18902074
128	0x3e1f0069	0.155275
129	0x3dc89be3	0.09795358
130	0xbe332111	-0.17493083
131	0x3e4ea874	0.20181447
132	0x3d485fd4	0.048919514
133	0xbe2b58aa	-0.16733041
134	0x3d93aa4c	0.07210216
135	0xbd5e91cb	-0.054338258
136	0x3def41f5	0.11682502
137	0xbe6591a8	-0.22418845
138	0x3b29c4c2	0.002590463
139	0xbbe6628a	-0.0070307897
140	0x3c840170	0.016113967
141	0x3dcdab8a	0.10042484
142	0xbd2bf9b0	-0.041986167
143	0x3d13a7c6	0.036048673
144	0x3e4d5dbc	0.20055288
145	0xbbd8083a	-0.0065927776
146	0xbe31d69a	-0.1736702
147	0x3d1db21c	0.038499936
148	0x3d1eb0dc	0.038742885
149	0x3e29fc1e	0.16600081
150	0x3d756811	0.0599137
151	0x3c6e6831	0.014551208
152	0x3def33fe	0.116798386
153	0xbcdc8875	-0.026920537
154	0x3d4b0eac	0.04957454
155	0xbd2a1b07	-0.04152968
156	0xbd5ebcae	-0.054379158
157	0xbd9d795d	-0.07689164
158	0x3e005c54	0.1253522
159	0x3d873c7c	0.06603333
160	0x3d8165a0	0.063182116
161	0xbdb29166	-0.08719139
162	0xbbc0bc87	-0.005881849
163	0xbd2879ed	-0.041131902
164	0x3db97597	0.090556316
165	0xbdd018fa	-0.10161014
166	0xbe2aa6a2	-0.16665128
167	0xbcc88bb0	-0.02448067
168	0xbe05b20d	-0.13056202
169	0xbe3a30e6	-0.18182716
170	0xbd912dd9	-0.07088823
171	0xbca7970a	-0.020457763
172	0x3e4eadab	0.20183437
173	0xbd8c8865	-0.06861953
174	0xbdb1528b	-0.08658322
175	0xbd3f771b	-0.046744447
176	0xbdbd997c	-0.092577904
177	0xbe19714d	-0.14984627
178	0x3c140abc	0.009035762
179	0xbc34eaa2	-0.011042269
180	0xbd1d2d44	-0.038373247
181	0xbd3a1505	-0.045430202
182	0xbcb43db4	-0.022002079
183	0x3e20768a	0.15670219
184	0x3d2b3a6e	0.04180377
185	0x3d864487	0.06556039
186	0x3b17cccc	0.002316284
187	0xbde7ac12	-0.11312117
188	0xbcec3367	-0.028833104
189	0xbce9fa66	-0.028561782
190	0x3c1817e8	0.009283043
191	0x3dcff111	0.10153402
192	0xbcf615f2	-0.030039761
193	0xbd38b39b	-0.04509316
194	0x3cbb1dc5	0.022841344
195	0xbdf163a8	-0.11786586
196	0x39ecfdc3	0.00045202495
197	0xbdd9180d	-0.106002904
198	0xbe4f7dd9	-0.20262851
199	0x3c9c3809	0.019069688
200	0xbca22284	-0.019791849
201	0x3ce43fec	0.027862512
202	0xbd56455b	-0.052312236
203	0xbdb6c6e3	-0.089246534
204	0xbc7c8582	-0.01541269
205	0xbdaef2cd	-0.08542404
206	0xbd4f87ad	-0.0506665
207	0xbde80e40	-0.11330843
208	0x3d2b53e1	0.04182804
209	0xbe1d9456	-0.15388617
210	0x3d5a62cb	0.053316873
211	0x3e13178c	0.14364451
212	0xbdcd8186	-0.1003447
213	0xbbd3b00b	-0.006460195
214	0x3cb00ee0	0.021491468
215	0x3d56e689	0.05246595
216	0xbc139906	-0.009008652
217	0xbe008d8f	-0.12554
218	0xbe6e829d	-0.23292013
219	0xbd215547	-0.039387967
220	0x3e5c3130	0.21503139
221	0x3c4a0d7d	0.012332317
222	0x3ce6c655	0.028170744
223	0xbde32098	-0.11090201
224	0x3c12e46e	0.008965595
225	0xbd430d9c	-0.0476204
226	0x3df55d90	0.11980736
227	0x3dace10e	0.08441363
228	0xbd4294f5	-0.047505338
229	0x3db57d4d	0.0886179
230	0xbd89e1c7	-0.06732517
231	0xbd8225df	-0.063548796
232	0x3d5ec919	0.054391
233	0xbde5eac8	-0.112264216
234	0xbe4806db	-0.19533865
235	0x3e55be40	0.20873356
236	0x3da09a74	0.078419596
237	0x3d59e6c0	0.053198576
238	0x3d80ad43	0.06283047
239	0x3e82e702	0.2556687
240	0x3d73610f	0.059418734
241	0x3d8474f5	0.0646762
242	0xbd912527	-0.07087164
243	0xbdf2ee91	-0.11861909
244	0x3dabe3d7	0.083930664
245	0xbd64088d	-0.055672217
246	0xbde89d2a	-0.11358102
247	0xbc4b1120	-0.01239422
248	0xbbb4d33d	-0.0055183456
249	0xbe392ca8	-0.18083441
250	0x3d1862c1	0.037203554
251	0x3dba86e0	0.091077566
252	0xbd9c274e	-0.07624684
253	0xbd315f0b	-0.04330353
254	0xbe3c2b79	-0.18375959
255	0x3e5998c4	0.21249682

linear_layer.3.bias f4 [100]
0	0x3dd22053	0.102600716
1	0x3c846898	0.016163155
2	0xbd760b00	-0.060069084
3	0xbdeb56d7	-0.11491173
4	0xbc90dada	-0.017682482
5	0xbd25ef2c	-0.040511295
6	0x3dbdd6e5	0.092695035
7	0x3d41c97c	0.04731129
8	0x3d32cd88	0.04365304
9	0x3b6d40b5	0.0036201898
10	0xbd3be9d8	-0.045877308
11	0xbd01298e	-0.03153377
12	0x3c80a196	0.01570205
13	0x3d160b98	0.03663215
14	0x3c0f6662	0.008752437
15	0x3c92b9b4	0.017910816
16	0xbda29ed9	-0.07940454
17	0xbbb427d4	-0.005497912
18	0x3c94386c	0.01809331
19	0x3d28fe4c	0.04125814
20	0xbd71577a	-0.058921315
21	0x3d62e17b	0.055390816
22	0x3cee0676	0.029055815
23	0x3d2365a4	0.039891854
24	0x3bf930ef	0.0076047103
25	0xbd3c520a	-0.045976676
26	0x3d8bc7e3	0.06825235
27	0x3d842ef2	0.064542666
28	0x3d195365	0.037433047
29	0x3d6d83c5	0.057986993
30	0xbcc7868a	-0.024356145
31	0xbb523c29	-0.0032079315
32	0x3caac76f	0.02084705
33	0x3cf4000c	0.029785179
34	0x39c50e10	0.00037585245
35	0xbcecfde5	-0.02892966
36	0x3c88aa4b	0.016682765
37	0xbc606e1e	-0.013698129
38	0xbd3e79a3	-0.04650272
39	0xbc11bead	-0.008895558
40	0xbc5e9c8a	-0.0135871265
41	0x3c70884c	0.014680933
42	0x3d50ecd3	0.051007103
43	0xbc4f6118	-0.012657426
44	0x3d9748d6	0.07386939
45	0x3d837d37	0.06420367
46	0x3dcd7b2d	0.100332595
47	0xbe47ef9e	-0.19525
48	0x3d57c68e	0.05267959
49	0xbd402e3c	-0.046919093
50	0x3d080a47	0.033212926
51	0xbcd38b28	-0.02582319
52	0xbc160188	-0.0091556385
53	0x3957c786	0.00020578326
54	0xbcb2be79	-0.02181934
55	0xbccb25a6	-0.024798226
56	0xbd4d229d	-0.050081838
57	0xbc7d0e8c	-0.015445363
58	0x3d402997	0.046914663
59	0x3d459af1	0.048243467
60	0x3ba52eab	0.0050409636
61	0x3cfb8484	0.030702837
62	0x3c03c6d4	0.00804301
63	0x3c6a0865	0.014284228
64	0x3cd1f51f	0.025629578
65	0x3c877af6	0.016538125
66	0x3d8bac30	0.068199515
67	0xbb48130c	-0.003052893
68	0x3c769496	0.015050074
69	0xbd36a25f	-0.044588443
70	0x3cff2e63	0.031150049
71	0xbd1bf3bb	-0.038074236
72	0xbad110eb	-0.0015950477
73	0xbc2af100	-0.010433435
74	0xbd1c0b42	-0.038096674
75	0x3cb111b1	0.021614881
76	0xbc45dedc	-0.01207706
77	0xbea6a70a	-0.32549316
78	0x3d4a56a3	0.04939903
79	0xbd6f6119	-0.05844221
80	0xbc097156	-0.008388838
81	0x3cacc15b	0.021088293
82	0x3a119ddb	0.00055548333
83	0xbcc8555d	-0.024454767
84	0xbd08ed60	-0.033429503
85	0x3d485528	0.048909336
86	0x3cbbacca	0.02290954
87	0x3d749c81	0.059719566
88	0xbd0fd386	-0.035113834
89	0x3c38ec84	0.0112868585
90	0x3cfb35d5	0.030665318
91	0x3cec090b	0.028812906
92	0x3d2e1a20	0.042505383
93	0xbd16705e	-0.036728255
94	0x3c3d265e	0.011544792
95	0x3d2f54e2	0.04280556
96	0x3cba2ab9	0.02272545
97	0x3caf47f7	0.02139662
98	0xbd2b124c	-0.041765496
99	0xbd638e59	-0.055555675

linear_layer.4.weight f4 [100, 100]
0	0xbcae2fad	-0.021262968
1	0x3d1163e8	0.03549567
2	0x3d94d4e7	0.072671704
3	0x3da0546b	0.078286014
4	0x3d6398d5	0.055565674
5	0xbb0baa49	-0.0021311215
6	0xbd571961	-0.052514438
7	0x3e155d19	0.14586295
8	0x3da14cbe	0.078759655
9	0x3cc5de02	0.024153713
10	0xbe1609d9	-0.14652194
11	0x3dcf3c3c	0.10118911
12	0x3db1b137	0.08676379
13	0x3e1ac5ab	0.15114467
14	0x3e011a78	0.12607753
15	0x3e5f64e4	0.2181583
16	0x3e0552d8	0.13019884
17	0x3eab4c74	0.33456767
18	0x3c361dc0	0.011115491
19	0x3d170b36	0.036875926
20	0x3c78fbf0	0.015196785
21	0x3d53590c	0.051598594
22	0xbcadfedf	-0.021239696
23	0x3e090e7e	0.13384435
24	0x3e1c202c	0.15246648
25	0xbdcc3120	-0.09970307
26	0x3d926d3e	0.071497425
27	0xbdd20565	-0.10254935
28	0x3e2644f3	0.1623724
29	0xbd1bdec5	-0.038054246
30	0x3e08dd5b	0.1336569
31	0xbd83f131	-0.06442488
32	0xbe252782	-0.16128352
33	0x3d2edcf5	0.04269119
34	0x3bc2c2c9	0.0059436304
35	0x3b8bd8b2	0.0042677755
36	0xbe4a7aea	-0.1977345
37	0x3d7d9b7d	0.061915863
38	0x3e120291	0.14258792
39	0x3cc4f935	0.024044612
40	0xbe55a1ba	-0.20862475
41	0xbe8a8711	-0.27056172
42	0xbe8eb4a1	-0.27872184
43	0x3daab92b	0.08336099
44	0xbd34022a	-0.043947376
45	0xbe861069	-0.26184395
46	0x3e315dba	0.1732091
47	0xbd62ea85	-0.055399437
48	0x3d8e9e20	0.06963754
49	0x3cb9abdc	0.022664957
50	0xbd556e82	-0.05210734
51	0xbdcce19c	-0.10003969
52	0xbdc26c0d	-0.09493265
53	0xbc96974e	-0.018382695
54	0x3c0f5a1f	0.008749514
55	0x3d81ba48	0.063343585
56	0x3d6035f6	0.05473896
57	0x3d9796dd	0.07401822
58	0x3daf3715	0.08555428
59	0x3d72e73d	0.059302557
60	0x3da8f48e	0.0824977
61	0x3c05547b	0.0081378175
62	0x3c71eaf2	0.014765488
63	0x3ce49909	0.027905004
64	0x3e00e1c8	0.12586129
65	0x3d1b21ed	0.03787415
66	0x3c50729e	0.012722639
67	0xbc337343	-0.0109527735
68	0xbe5d2b41	-0.21598531
69	0x3de787cf	0.113052
70	0x3ccae863	0.024769014
71	0x3d704bb6	0.058665954
72	0xbdb98c4d	-0.090599634
73	0x3e41915b	0.18903105
74	0x3ca191af	0.019722788
75	0xbe24639b	-0.16053621
76	0x3db09dab	0.08623823
77	0x3dc3d111	0.095613606
78	0xbc7a194b	-0.015264819
79	0x3d00e549	0.031468663
80	0x3d372add	0.044718612
81	0x3da0a235	0.078434385
82	0x3d63605a	0.05551181
83	0xbb7579c2	-0.0037456607
84	0xbd379fd8	-0.044830173
85	0xbc15cd94	-0.009143252
86	0x3e08f2a0	0.13373804
87	0xbc87e208	-0.016587272
88	0xbcea3321	-0.028588833
89	0xbcf37735	-0.029719928
90	0xbc9a5484	-0.018839128
91	0x3e004892	0.12527683
92	0xbe588c6d	-0.21147318
93	0x3d9b89a9	0.07594616
94	0xbda76c52	-0.08174957
95	0xbdae68dc	-0.08516094
96	0x3ca3cc2e	0.019994821
97	0xbc8a7e3a	-0.016905893
98	0xbdd7c740	-0.10536051
99	0xbcf0d49b	-0.029398253
100	0xbdcf71d3	-0.10129132
101	0x3b49d820	0.0030798987
102	0xbdfd2abc	-0.123616666
103	0x3c81a5ec	0.015826188
104	0xbcde4633	-0.027133083
105	0xbd90b59f	-0.070658915
106	0xbe58799a	-0.21140137
107	0x3c3b2695	0.011422773
108	0x3c12b2e1	0.008953781
109	0xbd8cf869	-0.06883318
110	0xbcf49270	-0.029854983
111	0xbc9651a1	-0.01834947
112	0x3e09a6eb	0.1344258
113	0x3dde69df	0.10860037
114	0x3e656941	0.22403432
115	0xbd40c15f	-0.047059413
116	0xbdf37e47	-0.1188932
117	0xbda5ef65	-0.081023015
118	0xbd7d88b4	-0.06189795
119	0x3d89fee9	0.067380734
120	0xbda68529	-0.08130867
121	0x3dd67048	0.10470635
122	0x3dbcf76e	0.09226881
123	0xbd9924e6	-0.07477741
124	0x3c8da943	0.017292624
125	0xbd39213a	-0.045197703
126	0x3d962dde	0.07332967
127	0x3e0a281f	0.13491867
128	0x3e6df1e1	0.232368
129	0x3dab9a7b	0.08379074
130	0xbd8aa047	-0.06768852
131	0x3d89d345	0.067297496
132	0x3d675a1d	0.056482423
133	0x3cde2cb9	0.027120935
134	0xbcd3dd55	-0.025862375
135	0xbe6842a1	-0.22681667
136	0xbdf7c15e	-0.12097429
137	0xbdc190c2	-0.094514385
138	0x3de04b9e	0.10951923
139	0x3dbae6a8	0.091260254
140	0x3d249988	0.04018548
141	0x3d071d2c	0.032986805
142	0x3db70fee	0.08938585
143	0x3e27d267	0.16388856
144	0x3d32230e	0.043490462
145	0xbd2672c5	-0.040636797
146	0x3e683246	0.22675428
147	0x3de617fd	0.11235044
148	0xbd1ab7ab	-0.037772816
149	0xbe22cf50	-0.15899396
150	0xbd21a2df	-0.039461967
151	0x3d570349	0.052493367
152	0xbd2f076c	-0.042731687
153	0xbdb4495c	-0.08803055
154	0xbd4ee183	-0.050508033
155	0xbdc16643	-0.09443333
156	0xbd4f8c89	-0.050671134
157	0x3db40855	0.08790652
158	0xbd57d2e2	-0.052691348
159	0xbc34e7a2	-0.011041554
160	0xbc4016ae	-0.011724157
161	0x3d2db647	0.04241016
162	0x3c86e601	0.016467096
163	0xbe63714c	-0.22211188
164	0xbd205b28	-0.039149433
165	0x3e1633bc	0.14668173
166	0x3e0e88cc	0.13919371
167	0x3e15da2f	0.14634012
168	0xbdf1bcc9	-0.11803586
169	0xbdcd8f83	-0.10037138
170	0xbdd481e1	-0.10376335
171	0xbde702f0	-0.11279857
172	0x3b900108	0.004394654
173	0xbe3c5a92	-0.18393925
174	0xbb773d6f	-0.0037725826
175	0x3da0bc98	0.078484714
176	0x3d54f522	0.05199159
177	0xbe521f9b	-0.20519869
178	0xbe304510	-0.17213845
179	0x3decdecb	0.11565932
180	0x3e15624a	0.14588276
181	0xbe20a621	-0.15688373
182	0x3cf2cbda	0.02963822
183	0xbd04adb2	-0.03239221
184	0x3d79bf2d	0.060973335
185	0xbcf1f415	-0.029535333
186	0xbe1f4cfc	-0.15556711
187	0xbd7dd359	-0.061969135
188	0xbe2d0d99	-0.16899718
189	0xbe210b56	-0.1572698
190	0x3db6e24c	0.089298815
191	0xbd98c424	-0.07459286
192	0xbe0765c9	-0.13222422
193	0x3d4f8638	0.05066511
194	0x3cd6963c	0.026194684
195	0x3cc14511	0.023592504
196	0xbcfd9a5c	-0.030957393
197	0xbdac3b76	-0.08409779
198	0x3ddbb35a	0.10727568
199	0x3cd82ded	0.026389087
200	0x3d752151	0.059846226
201	0xbc1ea478	-0.009682767
202	0xbe44990e	-0.1919901
203	0x3dd2982e	0.10282932
204	0xbe62aba3	-0.22135787
205	0xbdb3aefc	-0.0877361
206	0x3d3b956a	0.04579679
207	0x3de742ea	0.1129206
208	0xbe8cfd35	-0.27536932
209	0x3c11abee	0.008891089
210	0x3d8edc27	0.069755845
211	0x3cdf2c85	0.027242908
212	0x3b16bc61	0.0023000466
213	0xbddefd7e	-0.108881935
214	0x3d31900c	0.043350264
215	0x3e2dd1e0	0.16974592
216	0xbe361718	-0.17782247
217	0xbe39794e	-0.1811268
218	0x3d4ba1d2	0.04971487
219	0x3d7c4df0	0.061597764
220	0xbd356838	-0.044288844
221	0xba83c77e	-0.001005396
222	0x3e3319c5	0.17490299
223	0x3d06e6b3	0.032934856
224	0x3c8a9c95	0.016920367
225	0xbd6b9718	-0.05751714
226	0xbd3ba079	-0.045807336
227	0x3aecd914	0.0018070065
228	0x3e2b5959	0.16733302
229	0xbd8a5a51	-0.06755508
230	0xbe436f6b	-0.19085471
231	0x3d92869e	0.071545824
232	0x3e3742a5	0.17896517
233	0x3e1f963a	0.1558465
234	0xbd8f4328	-0.06995231
235	0x3d0c58e8	0.034264475
236	0xbd047427	-0.032337334
237	0x3e2797d8	0.16366518
238	0xbe0ecb48	-0.13944733
239	0xbcb71ca1	-0.022352519
240	0xbe10f692	-0.14156559
241	0x3d5ed88e	0.05440574
242	0x3e3eee69	0.18645634
243	0xbe180218	-0.14844549
244	0xbe109ad0	-0.14121556
245	0x3b8196f9	0.003954765
246	0x3e1e9f2c	0.15490407
247	0x3eb11429	0.34585693
248	0x3dbc7470	0.09201896
249	0x3d61318f	0.054978903
250	0x3ea3d6fd	0.3199996
251	0x3c1502d1	0.00909491
252	0x3d7f75fe	0.062368385
253	0x3d6ce64e	0.057836823
254	0x3e52b3ae	0.20576355
255	0x3dccdfa7	0.10003596

linear_layer.4.bias f4 [100]
0	0xbc038e29	-0.008029499
1	0xbd0cf92c	-0.034417316
2	0x3d848dd0	0.06472361
3	0xbc998d5c	-0.018744163
4	0xbe0c67db	-0.13711493
5	0xbc9d5a90	-0.019208223
6	0xbd17a37a	-0.037021138
7	0x3c4c22e7	0.012459493
8	0x3d3a4890	0.045479357
9	0x3ceb8787	0.028751148
10	0x3c7e484a	0.015520165
11	0xbdc177d5	-0.09446684
12	0xbcbe88bb	-0.023258558
13	0x3c8f5bdb	0.017499855
14	0xbce553a5	-0.027993986
15	0x3c9cacdf	0.0191254
16	0x3d1302fa	0.03589151
17	0xbcd9d9d7	-0.026593132
18	0xbd8c7a8e	-0.06859313
19	0x3d5f1524	0.05446352
20	0x3d7348d7	0.059395637
21	0xbcdfcabb	-0.02731835
22	0x3bd69332	0.006548309
23	0x3c0b2c68	0.008494474
24	0x3c7397b3	0.014867711
25	0x3cece512	0.028917823
26	0xbc926f1c	-0.017875247
27	0xbc06d9b5	-0.008230616
28	0xbd18e18e	-0.03732448
29	0xbd378a31	-0.044809524
30	0x3ce2eb69	0.027700143
31	0x3c85b08f	0.016319541
32	0xbcc59083	-0.02411676
33	0xbd18bfb3	-0.037292194
34	0x3d37a1c5	0.04483201
35	0xbd96b5da	-0.07358904
36	0x3d31e6a8	0.04343286
37	0x3e1e7b38	0.15476692
38	0x3c7a76d9	0.015287125
39	0xbd20ade8	-0.03922835
40	0xbb40c8f7	-0.002941666
41	0x3ca3853c	0.019960992
42	0xba1f424b	-0.0006075247
43	0xbc369272	-0.011143314
44	0xbd5eb0a6	-0.054367684
45	0x3c70e217	0.0147023415
46	0xbd0d6af3	-0.034525823
47	0xbcaa9f21	-0.020827832
48	0xbac0deb4	-0.0014714808
49	0xbca37d50	-0.019957215
50	0x3abc722e	0.001437729
51	0xbc0ef958	-0.00872644
52	0x3b228b5f	0.002480231
53	0x3ca100cd	0.019653702
54	0x3c053fe7	0.008132911
55	0xbcd01fe4	-0.025405832
56	0x3b0fea21	0.002195962
57	0x3aeae85d	0.0017922033
58	0xbca536d1	-0.02016774
59	0xbb0d738f	-0.002158377
60	0xba1518ca	-0.0005687593
61	0x3d9ec6e4	0.07752779
62	0x3c2ab1b8	0.010418348
63	0xbc068223	-0.008209738
64	0x3c34b037	0.011028341
65	0x3b97abfe	0.0046286574
66	0x3ae44c51	0.0017417764
67	0xbca3dba4	-0.020002194
68	0x3d329b43	0.0436051
69	0xbccbf8ff	-0.024899004
70	0xbd79e1b5	-0.061006267
71	0xbc2544f2	-0.010087239
72	0x3cc92659	0.024554418
73	0x3bb9f72d	0.0056752176
74	0x3ceee58c	0.02916219
75	0xbd199c9c	-0.03750287
76	0xbc1a2e64	-0.009410474
77	0x3cdb5913	0.026775872
78	0x3d338460	0.043827415
79	0x3c21140b	0.009831439
80	0x3d5f8d9e	0.054578416
81	0xbcf6fcb6	-0.030149799
82	0x3da7fbc8	0.0820232
83	0x3d6b5888	0.057457477
84	0xbd680171	-0.056642
85	0xbd729087	-0.059219863
86	0xbbf170aa	-0.007368167
87	0xbcae957a	-0.02131151
88	0xbc2109a5	-0.00982896
89	0x3c582367	0.013192034
90	0x3befb247	0.0073149535
91	0x3c6fcb4b	0.014635871
92	0xbcbf643b	-0.023363223
93	0x3caf444b	0.02139487
94	0x3d75fcc7	0.06005552
95	0xbcdc2bd8	-0.026876375
96	0x3ac58ba9	0.0015071529
97	0xbca19fe2	-0.019729558
98	0xbd359caf	-0.04433888
99	0xbc9c3d37	-0.019072158
