ac_2d_model_para_5/checkpoint_1200.pth (torch, 291152 bytes, 17 tensors)

linear_layer.0.weight f4 [100, 3]
00000000: 8c90 633e 1272 223e 6182 44be 6c67 543c
00000010: f3f6 94bd 464a e33d ee24 4c3d 83be 7fbd
00000020: 1cec 90be b84b 833e ffe1 10bd dd95 5c3e
00000030: 3eaa 25be 79bd 1dbe 6410 babe 94b1 80bd
00000040: f007 4dbe c828 06be 3ba9 d4bd a0a9 0a3e
00000050: 8906 fdbd 5d2b 9ebd edb9 37bd b127 a9be
00000060: 9d47 073f 975f 4b3d c5b9 a63c f32c 21be
00000070: b246 40be 147f 97bd 2802 243d f360 6ebe
00000080: c04b 083e 332c debd d681 863d a852 73be
00000090: b068 cf3e 7313 92bb d66e e8bd e4d0 8d3e
000000a0: 27fd 1cbc ac90 7b3e 8801 453e ab36 213e
000000b0: 297e 393e 40ec 39be 4465 49be 3f77 d13c
000000c0: a1c0 a13e 2c54 b33c f9cd 93be acfe 58be
000000d0: aa69 19be 31c9 1ebe a0a7 95be 6012 8fbc
000000e0: 53de c63d cf80 1d3e e26d 253e 5f00 72be
000000f0: 7425 b03d b5ec 4ebe 527c a13d ab45 dd3e
00000100: 4d98 aebd bb1a a03d 6aff 8cbe 27e4 1dbe
00000110: b6f8 c03c bc11 1b3e cff1 ca3c 5eb5 f5be
00000120: 8bd2 713e ce21 0c3d 43d9 9c3e dc59 383e
00000130: 5bf4 a93d 4f70 e83b 43bb 9fbe 6321 5dbe
00000140: bfdc b1bd 1f30 623d ac08 8a3e 3fe4 633d
00000150: f66a 543e 3fb0 58be 12b0 5a3d b849 cc3d
00000160: 5ada 9abc 8892 d4bd 678d 41bd f9c9 25be
00000170: 59a0 0ebe 340e db3e 91be 863c 8746 a73e
00000180: d108 c83d a3d4 66be badd 043e 55a0 cbbe
00000190: d3fe 8b3c 295a dbbd ed24 853d c385 c7bd
000001a0: ef51 94be 191b 033e ed93 13be 618d 533e
000001b0: 2548 22be 506a 893e 651a a53c 4381 8d3e
000001c0: 928a 163e b1b6 843d d832 e1bc ece5 bbbd
000001d0: 9f3f cbbe ad0d 0dbe 991b e6bc 3067 1bbe
000001e0: e77a b93d aaa6 c33d 951f 03be c7d8 3ebe
000001f0: 9833 2fbc b630 073e a1d4 71be 58fd 2f3e
00000200: 8054 02be 6e74 153e 4a5e 88bd 00cc 7e3e
00000210: 1bc4 20be fee3 4c3e a112 033e ebe3 9bbd
00000220: e350 e5bd 3ec5 153e 48c6 e9be aa41 213e
00000230: 3c79 91be 7f83 c73e 8300 9a3a ddbc 05be
00000240: 8932 bc3d a803 c33d e731 c13d cdb0 c13e
00000250: fbb8 d3bd 3a9e efbd 0534 643e 0a1c e63d
00000260: c08f 00be 9399 4d3e 8bad 64bd 1e12 19be
00000270: c1d5 dbbd 48c3 823e 4318 c13d 6e4d 8f3c
00000280: 2ea8 693d 7c80 833e 8f45 f73d 067a af3d
00000290: 257c a23b 591b af3e f22e 96bd b1c4 e33d
000002a0: e49a 0c3f 97cb 723c 4f5c 47bc fa7d af3e
000002b0: 51d7 f4bd 157c 83be 6de7 ad3e 2064 093c
000002c0: 19df 12be 9906 65bd 8bc3 37be 40fe 883e
000002d0: e795 0fbe 4697 f23d 9cbb d8bb 1a84 343c
000002e0: c8a0 923e 5fab ca3c 38df a53e 6f5a 1abe
000002f0: 043c 7ebd 5fc5 98ba c76f f23d 133f 4abe
00000300: 01d5 cd3e e3a1 1dbe f07d 993d 550f f13c
00000310: 4aa0 d53d 6e17 a53e 86b8 163e 75d1 e4bc
00000320: 3229 bfbe 17d9 e4be af9e e4bc 2888 e43d
00000330: 04d7 c43e c2de f2bd 5647 903c ecb9 c6bd
00000340: 1864 d53d aa09 d03c c19c 91be 7c29 7f3c
00000350: 18b9 16bd 7e08 f13d f1dd 1e3e 7bf5 b73d
00000360: 787a b2bd 9bc8 883e bd3f c8bd c21f d83d
00000370: bd64 1c3e 06fe 58be 1b5e fb3e e92e 043d
00000380: 8596 a6bd e43b eebc 559e b43e 2700 163e
00000390: a616 2cbe f977 d3be 94bd 803e 60e3 bfbe
000003a0: 7ece c5bd aeb1 33be e9f2 acbc 3f1f 5f3e
000003b0: 3ba3 e2bb 3938 ea3c e140 4cbe 63c0 583d
000003c0: 7de0 163e 6138 69bd 5efd 18bd 03b1 13be
000003d0: 4856 50be 63ba a2bd c8b1 81be 4ba0 253e
000003e0: c8f1 ae3d 82ba 363e c70b e5bd 40d7 f43e
000003f0: bd4e 8c3e fbff 0bbd 7f47 89be b60d 593e
0.22223109 0.15863827 -0.1919036 0.012964111 -0.07273664 0.11098151 0.049839906 -0.062437546
-0.28305137 0.25643706 -0.035371777 0.21541543 -0.16178223 -0.1540431 -0.3634063 -0.0628387
-0.20022559 -0.13101494 -0.10383841 0.1354127 -0.12354762 -0.07723115 -0.044855047 -0.33038095
0.5284365 0.04965171 0.020352254 -0.15739803 -0.18776968 -0.07397285 0.04004112 -0.2327917
0.13310146 -0.10848274 0.06567733 -0.23762 0.40509558 -0.004457885 -0.11349265 0.27698433
-0.009581841 0.24566907 0.19238865 0.1574351 0.18114533 -0.18156528 -0.19667536 0.025569556
0.31592277 0.021890722 -0.28868082 -0.211909 -0.14981714 -0.15506436 -0.2922945 -0.017464817
0.09710374 0.15381168 0.16155198 -0.23632954 0.086008936 -0.20207484 0.0788504 0.43217215
-0.08525143 0.078175984 -0.27538615 -0.15419064 0.023556095 0.15143484 0.024773506 -0.47989935
0.23615472 0.034211926 0.30634508 0.18003029 0.0829856 0.0070934664 -0.31197557 -0.21594767
-0.08684682 0.055221673 0.2695974 0.055637594 0.20743927 -0.21160983 0.05339057 0.09974998
-0.018902946 -0.10379511 -0.047253992 -0.16190328 -0.13928355 0.42784274 0.016448291 0.32670996
0.097673066 -0.22542052 0.12975207 -0.3977076 0.017089283 -0.10710556 0.06501184 -0.0974231
-0.2896876 0.12803306 -0.14411898 0.206594 -0.15847833 0.26838923 0.020154187 0.2763768
0.14701298 0.06480158 -0.027490065 -0.091747135 -0.39696977 -0.13774748 -0.028089331 -0.15176082
0.09056645 0.09553273 -0.12805016 -0.18637381 -0.010693453 0.13202175 -0.23616268 0.17186487
-0.12727547 0.14595196 -0.06658609 0.24882507 -0.15699808 0.20008847 0.12800075 -0.07611831
-0.111970685 0.14626023 -0.4565909 0.15747705 -0.28412807 0.3896751 0.001174942 -0.13060327
0.09189326 0.09522182 0.09433346 0.378302 -0.103380166 -0.11700101 0.22285469 0.11235817
-0.12554836 0.20078115 -0.055829566 -0.14948317 -0.1073413 0.25539613 0.09428456 0.017492976
0.057045154 0.25683963 0.12073814 0.08568196 0.004958647 0.34200552 -0.07333173 0.111215
0.54923844 0.014819047 -0.012168004 0.342758 -0.11955131 -0.25680605 0.33965626 0.008385688
-0.14342918 -0.055914495 -0.17945687 0.26756477 -0.14022027 0.11845259 -0.0066141617 0.011017824
0.2863829 0.02473992 0.32396865 -0.1507356 -0.062068954 -0.0011655501 0.11837726 -0.19750623
0.40201572 -0.15393786 0.07494724 0.029426256 0.10430963 0.32244438 0.14718828 -0.027931908
-0.37336117 -0.44696876 -0.027907697 0.11158782 0.38445294 -0.11858894 0.01761214 -0.097034305
0.10419482 0.025395233 -0.28439906 0.0155738555 -0.036797613 0.11769198 0.15514351 0.089823686
-0.08714765 0.2671555 -0.09777782 0.10552932 0.15272804 -0.21190652 0.49095234 0.0322713
-0.08134178 -0.029081292 0.35277048 0.14648496 -0.16805515 -0.4130247 0.25144637 -0.3747816
-0.09658526 -0.17548248 -0.021111922 0.21789263 -0.0069164312 0.028591262 -0.19946624 0.05291785
0.14734073 -0.056938533 -0.037351005 -0.14422993 -0.20345414 -0.07945707 -0.2533095 0.16174428
0.0854221 0.17844585 -0.11183887 0.47820473 0.27403823 -0.03417967 -0.2681236 0.21196637

linear_layer.0.bias f4 [100]
00000000: 7094 adbc 6de2 91bd aba5 473e c3b7 19bd
00000010: e264 b83c 0943 e9bc 54ba a33d 92c8 0a3e
00000020: 5448 44be aaba 663d 60e1 683d feb0 03be
00000030: 19fd 403e 0647 543e 0eaa 553d 218d 303a
00000040: 1289 0ebe acdd 963c caba ecbc e9e0 76bb
00000050: db8d f8bd 4139 8fbd 1fb9 3bbd ea00 c13c
00000060: 3299 383d cd0b 283e 243e d93d c20c 10bd
00000070: 2604 5e3d 32e8 efbd 7d01 92bd f96a 6bbc
00000080: cc49 003e 1740 d4bd d50a a7bd 193e 893d
00000090: 5c43 dbbc 38d9 2fbe cd5a 213e d327 2c3e
000000a0: 427e bc3d 4938 5cbd 9daa 973d b305 95be
000000b0: 08bb a93c 2140 f7bd 2c44 05be a855 ad3c
000000c0: 9b8e bcbd 874d 3bbe 1848 753e aad9 a73d
000000d0: 992c 55bb bc6e 76be 4613 cf3d 2661 ef3d
000000e0: 3d57 fc3c 2fe9 1abc 2bec c0bb ad15 1f3c
000000f0: 3257 e9bd 4fe3 99bc 6845 9b3b 6afd 283e
00000100: d1e5 08be da58 b03d 4a3b 5dbe 36d4 6ebb
00000110: 4b2d b0bd 9012 cc3d a739 373e cd60 babd
00000120: 5cd5 cdbd 2ba4 573e d06f 7abc 2259 f23c
00000130: 66c7 8f3c dc8b a33d 441c f1bd 898a f0bc
00000140: 3807 1e3e ef65 033e 9954 5fbd 9a7c 693c
00000150: 59eb 093d 10f0 4c3d 3ba1 fe3d 9ccf 1c3e
00000160: 6c9d dfbd 342a d2bd 2a39 0cbe 1fe1 49be
00000170: e0b7 91bd 6375 063e f49a 1abd dbab 2b3d
00000180: 0fd2 823e 1389 7f3d d03e 9cbd 6594 603d
-0.021188945 -0.071232654 0.19496791 -0.037528764 0.022509042 -0.028474348 0.07994524 0.13553074
-0.19168216 0.05633036 0.05685556 -0.12860486 0.18846549 0.20730218 0.05216413 0.0006734897
-0.13919476 0.018416248 -0.028897662 -0.0037670678 -0.12136432 -0.06993342 -0.045830842 0.023560006
0.045067973 0.16410752 0.106075555 -0.035168417 0.054203175 -0.117142096 -0.0712919 -0.014368766
0.12528151 -0.10363787 -0.08156363 0.06701297 -0.026765518 -0.17172706 0.15757294 0.16812067
0.09203769 -0.053764615 0.07405589 -0.2910591 0.020719066 -0.120727785 -0.13014287 0.021159008
-0.09206887 -0.18291293 0.23953283 0.08195813 -0.0032527803 -0.2406568 0.10111098 0.116884515
0.030803317 -0.009455009 -0.0058875284 0.009709758 -0.11393584 -0.018785147 0.0047384985 0.1650292
-0.13368918 0.08610697 -0.21604648 -0.0036442406 -0.08602389 0.09964478 0.17893086 -0.091004945
-0.10050461 0.21058719 -0.015285447 0.029583517 0.017551135 0.079856604 -0.11772969 -0.029362934
0.15432441 0.12831853 -0.054524038 0.014250899 0.03367171 0.05003363 0.12433096 0.15313572
-0.10918698 -0.10261956 -0.13693681 -0.19714783 -0.071151495 0.13130717 -0.03774543 0.04191194
0.25550887 0.062386584 -0.07629168 0.05482902

linear_layer.1.weight f4 [100, 100]
00000000: 9101 673d 1dcc 1a3e 6b19 85bd 91dd bebc
00000010: 75a7 7abc 0529 8f3b 79c5 cc3d fb05 6b3d
00000020: 0131 193e bd39 1bbe 2489 a2bd 5837 303c
00000030: f670 77be c1f4 96bd c8ef 873d 6119 8b3d
00000040: 0b50 60be cb50 1dbe d903 563e 9fbb 453b
00000050: 7653 b9bd dd51 e13d 780d 0e3d ad7f 1d3e
00000060: 41a0 8dbd 6c08 8d3b c178 afbd a248 5dbc
00000070: 44ea 71be 818f b7bd 224d 55bc 9083 88bb
00000080: 1102 2ebd 45f2 693e e95d a9bd a70e 82bd
00000090: ada7 babd 4c65 3abc 58cc 043e 861d 12be
000000a0: 40d9 523d e0f8 213e c30c 0ebe dcfe 65bd
000000b0: 335a 023b ae1a 0bbd 30cc 673d 8cf5 e13c
000000c0: 6af5 063b 23ec fb3d 1564 55bc 107e 91be
000000d0: 795b ed3d 575e be3d 2caf 09bd d4e6 5ebe
000000e0: 77f7 10be 9dc3 9cbd df08 1f3e 29bc 2d3e
000000f0: 4020 603c 7d54 823d a6b8 2ebc 2036 24be
00000100: 50a3 c2bc 1e8e 3a3e db07 50bc 2d90 5a3d
00000110: e5cb c53c 304e b5bd f17d 293c 0c2c ca3d
00000120: e4b3 94bd 2055 2b3d 99fe 7dbe 11fb f43c
00000130: 4413 20bd a9cc 0a3c 1edd 32be da59 f0bd
00000140: 464d 06bd 738c 53bc 6c83 cfbc dc14 cdbd
00000150: 49db 733d 610d 013e de78 eebc 6bfb 9cbd
00000160: 3879 bf3d 5b01 f93d 7ada ccbb 3acb 083e
00000170: 28a9 b3bd 7cba 84bd 39ef 07bc aac3 d7bd
00000180: a252 80bd 80d7 9abc e7d5 05be 0704 a2bd
00000190: 7bf9 453d 4363 5f3e 1f49 cbbc 1fe0 7b3d
000001a0: 90b5 64bd 6e97 2cbe b522 093e 631c 8fbe
000001b0: 8497 48bd 2f6b 92bd 2371 88bd 8670 1e3d
000001c0: 315a dd3d 74a6 f43d 1d9a 233e 36f3 18be
000001d0: cbac 2cbd 9094 92be 5c2b 583c e7dc 413e
000001e0: 04f0 e5bd f192 b8bc 438e f13c 4164 f33d
000001f0: b8d5 413e a1ea a23d cadb bbbd 74f3 f53d
00000200: 7e2a fcbd 8e05 a5bd e5db 8dbd 3ab2 d0bd
00000210: 40b0 323e 4485 e7bd 953c ddbd 2de3 133d
00000220: ef0e 413e 07e8 973c b542 f3bc ea99 adbd
00000230: 43d2 4e3e 83b6 cabd 7689 003e 122a 37be
00000240: ec80 4d3e 695f 6bbe 5551 8abe c5d5 87bd
00000250: 8c63 1f3d 4b5d bfbd 4eda 8abc 0f9b 0ebd
00000260: dc53 b33d d2a2 2cbe 6b24 2abd 186b c43d
00000270: 163e d33c e076 9abd a34c f6bd e379 2cbd
00000280: 651e 093e 08ec b5bd 2b99 a5bc 5a10 6a3d
00000290: d2bd 0ebe 9797 183e fe30 19bd 0d70 3bbe
000002a0: d59d bfbe 4e51 6e3e 78f9 9dbc da6f a13d
000002b0: 057b 3e3d a7f6 093e a89c e53d ca77 3f3e
000002c0: 8a2d fb3b 66b7 99bb 2fc5 e3bd a6cf 483d
000002d0: 2a11 503e 37dd 51be e2a9 25bd f2ed a63d
000002e0: cb40 7a3c 2292 9ebd ad47 043d e101 1e3d
000002f0: 0cbc 5c3c ddde 08be 94a0 a73d 9bf2 01be
00000300: 2fa7 f13c 19f4 c4bd 2863 fa3d 218c 06be
00000310: 0cf6 233e bb52 103e 2c13 efbd 1467 4c3e
00000320: c4de e4bd 90b8 4cbd 4da3 d63d 63a8 86bd
00000330: a7bd 03be e8b5 443d 5c71 06bd 999a 1a3e
00000340: 6f78 43be 5aa1 e0bc 4cb9 ae3d c486 163d
00000350: b3b3 d3bd 844b 213c 6f0c ee3c 8f0a f4bc
00000360: a7f9 97bc 77d6 ff3d 6bdc 26be 1af0 2bbe
00000370: 05fd 9a3d dc9b 9b3d 91cb 1b3d 1597 0abe
00000380: 676d 23be e9f6 2abe beab 3a3d bc24 9d3d
00000390: 33c4 22bd f6fe cb3d 733b 01be 7411 9bbd
000003a0: 7fe9 063d fd0f 0d3c 7be2 893c 5b56 e63b
000003b0: 34b9 d3bd 2626 aebd 327c 87bd 3476 8f3c
000003c0: a30a 6b3e 690e 4d3e 5d70 b0bc f92d 0d3e
000003d0: 40dd ffbd 3633 153e 4c57 e63d 201a 0bbe
000003e0: 1553 8cbd 3d56 bcbd a51e 473d 5444 e33b
000003f0: d15f 3ebd 0c46 82bd ee67 17be 749e 06bd
0.05639798 0.15116926 -0.06498989 -0.02329901 -0.015298714 0.0043689036 0.099986024 0.05737875
0.149601 -0.15158744 -0.07936314 0.0107553825 -0.24164185 -0.07370902 0.066375315 0.0679195
-0.21905534 -0.15362851 0.20899905 0.0030171645 -0.09049122 0.11001942 0.034680814 0.15380736
-0.06915332 0.0043039825 -0.08567954 -0.013506087 -0.23624521 -0.08962918 -0.013018878 -0.004166074
-0.04248244 0.22846325 -0.08269865 -0.06350451 -0.09114013 -0.01137669 0.12968576 -0.14269075
0.051476717 0.15817595 -0.13872056 -0.056151256 0.0019890189 -0.03396099 0.056591213 0.027582906
0.0020593056 0.12300899 -0.01302435 -0.2841649 0.11589713 0.09295338 -0.033614323 -0.21767741
-0.141569 -0.07654498 0.15530728 0.16966309 0.013679564 0.06363771 -0.010664141 -0.16036272
-0.023759514 0.18218276 -0.012697185 0.053360153 0.024145076 -0.08852804 0.010344968 0.098716825
-0.07260874 0.04182923 -0.24804153 0.029904874 -0.039080873 0.008471646 -0.17467162 -0.11735888
-0.032788537 -0.012911904 -0.025331222 -0.10013744 0.0595353 0.1260276 -0.029110368 -0.07665142
0.093492925 0.12158462 -0.0062516304 0.13358775 -0.08772498 -0.064808816 -0.008296781 -0.10535367
-0.06265761 -0.018901587 -0.13069879 -0.079109244 0.048333626 0.21815209 -0.02481514 0.061493035
-0.055837214 -0.16854641 0.13392146 -0.27951345 -0.04897262 -0.0714935 -0.06662204 0.03868153
0.10808218 0.11945811 0.15976758 -0.14936528 -0.042156976 -0.2862897 0.013193931 0.18931924
-0.1122742 -0.022531005 0.029486781 0.11884356 0.18929183 0.07954908 -0.09172781 0.120093256
-0.12312792 -0.080577 -0.06926707 -0.10190244 0.17450047 -0.11304715 -0.10802571 0.036105324
0.18853353 0.018543256 -0.029694894 -0.084766224 0.20197396 -0.098980926 0.12552437 -0.17887142
0.20068711 -0.22985615 -0.27015176 -0.0663257 0.038913295 -0.09343966 -0.016949799 -0.034815844
0.08756229 -0.16858986 -0.041538637 0.09590739 0.02578644 -0.07542205 -0.12026336 -0.042108428
0.13390501 -0.0888291 -0.020214638 0.0571445 -0.13939598 0.14901577 -0.03740024 -0.18304463
-0.37425104 0.23273203 -0.019283995 0.07882662 0.04650404 0.13472997 0.112115204 0.1869804
0.007665341 -0.0046910523 -0.11121594 0.049026154 0.20319048 -0.20494543 -0.040445216 0.08150853
0.015274237 -0.07742716 0.032294918 0.03857601 0.013472568 -0.13366266 0.08184925 -0.12690203
0.029498665 -0.096168704 0.12225944 -0.13139392 0.16011828 0.14094059 -0.116735786 0.19961196
-0.11175302 -0.0499807 0.10480366 -0.06575086 -0.12865315 0.04802504 -0.03282295 0.15098037
-0.1908891 -0.027420688 0.08531436 0.036749616 -0.10337009 0.0098446645 0.029058663 -0.029790191
-0.01855166 0.12492078 -0.1629502 -0.1679081 0.07567791 0.07598087 0.038035933 -0.13534196
-0.15959702 -0.16695751 0.045573942 0.07673022 -0.03973789 0.09960739 -0.12620334 -0.07571688
0.032937523 0.008609769 0.016831627 0.0070293373 -0.10338059 -0.0850337 -0.06615485 0.017512418
0.22953276 0.20025028 -0.021537954 0.13787068 -0.12493372 0.14570317 0.11247119 -0.13584185
-0.06851784 -0.09196136 0.04861321 0.0069356356 -0.046478096 -0.06361017 -0.1478574 -0.032865956

linear_layer.1.bias f4 [100]
00000000: 9725 a2bd b728 a73d d796 c8bc a528 393e
00000010: 7864 abbc 45a4 81bd 152e e8bd 6556 003e
00000020: e115 dfbd 7831 973d 8a66 a6bd 3b30 abbc
00000030: 7bbe 073e 95e3 c13d 7d12 8fbd bdd5 98bd
00000040: fca1 393a c189 fc3d 1761 a53c 931c 6ebd
00000050: 3d67 50bd 1e8a 383d a149 f4bc eacd a33d
00000060: 186a 013e 3531 f53c 9081 173e 0645 59bd
00000070: 9d38 bbbd bbec 83bd 0148 63be 9446 d63d
00000080: 022e 8d3b 5d07 b7bd 11a6 8ebd 8bcb 933d
00000090: 1620 033e bbfc 08be 348d 333c ef05 a4bc
000000a0: e7c2 e2bd 4446 01be c6b8 033d 5dc8 1f3e
000000b0: f660 8dbd 2498 2f3c e665 ab3a 6579 05be
000000c0: 4a63 6f3d 61de d5bd 9418 46bd b8d9 0fbc
000000d0: 8bb8 48bb 629e eabd 1591 3e3c 4bfa c83c
000000e0: 1fdd 093e 02ac afbd d028 3ebb 7b48 003d
000000f0: 9399 fdbd 6b23 cdbb d03f 103d 394b 293e
00000100: ebae 173d bbc9 173d 1018 d6bd dfb6 af3c
00000110: df37 7c3b a15c 2abe bdb8 bebd ed41 ef3b
00000120: 44bf 2fbd a49f 14bd 33a2 983d 9a99 1a3c
00000130: 7e67 a13d ca4e 00be 5d96 713d 7f59 4dbd
00000140: 2c43 0cbe 32a8 8ebd 7348 023d 2188 f0bc
00000150: a76d bf3d 7c2c 263c 6496 cebb 0cdb 6d3d
00000160: 027a 1f3e 2985 f5bc 85c2 b0bd 2ca9 2bbe
00000170: d33c be3d 0df5 de3c d3af 493d 7cca 1e3d
00000180: b60a 853d 0a53 d7bb db2f 45bc 94b2 b43d
-0.07917326 0.081620626 -0.024485989 0.18081911 -0.02092193 -0.0633016 -0.113369144 0.12532957
-0.10892845 0.07382482 -0.081250265 -0.020897022 0.13256256 0.09467236 -0.06985948 -0.07462642
0.00070813275 0.12330962 0.020187898 -0.05813272 -0.050879706 0.045053594 -0.029820265 0.07998259
0.12638128 0.02993069 0.14795518 -0.05304434 -0.091416575 -0.06441637 -0.22195436 0.104626805
0.004308463 -0.08936951 -0.069652684 0.07216557 0.12805209 -0.13377659 0.010958958 -0.02002236
-0.11072331 -0.1262446 0.032158636 0.15603776 -0.069032595 0.0107174255 0.0013076633 -0.1303459
0.0584443 -0.10442806 -0.048363283 -0.008779936 -0.0030627574 -0.114559904 0.01163127 0.024533411
0.13463257 -0.0857773 -0.0029016025 0.031319123 -0.123828076 -0.0062603257 0.035217106 0.16532601
0.03703205 0.03705762 -0.10453808 0.021449504 0.003848545 -0.16636898 -0.0931258 0.00730156
-0.042907014 -0.036285058 0.07452812 0.0094360355 0.07881068 -0.12530056 0.05898129 -0.05013418
-0.13697499 -0.069656745 0.031807374 -0.029361786 0.093470864 0.010142442 -0.006304549 0.058070228
0.15573886 -0.029970722 -0.08630852 -0.16763753 0.09288945 0.027216459 0.049239945 0.038767323
0.064961836 -0.0065711783 -0.012035335 0.088231236

linear_layer.2.weight f4 [100, 100]
00000000: b619 5abd 1d17 d63c 9a78 883d 4944 7dbe
00000010: 2aae bc3d 497b 26bd cc50 803d 641e b4bd
00000020: f3e2 c63d 5392 5ebd bbef 2ebd 1099 173d
00000030: 5f41 7fbd 3d48 bfbd 09e6 d53c 9441 0cbe
00000040: 176b 423d 4cd7 b0bd 8123 12bd 57bf 043e
00000050: a445 db3c 25e9 413d 2294 7fbd 1f86 97bd
00000060: a2c3 04be 084a 103b 32d9 63be 79af 8ebc
00000070: 4843 cf3c cabd 81ba 5906 503d dce9 52bd
00000080: c402 603c 1920 a93b 52c8 8a3d bc74 15bc
00000090: 37a6 d3bc e284 983e 743c e93c 457d 89bd
000000a0: 91cb 113e 403b 2b3e 75b6 9c3d 3ea7 263c
000000b0: c61a fc3d adfa 87bc b427 ef3d 5249 433d
000000c0: 4ed0 23be 6617 f33d 31dd 383c f8e4 7d3d
000000d0: 9eeb 09be ad27 2e3d d981 ecbd 12ce 0dbd
000000e0: b496 abbe fc8d 633d e090 ba3d 29c2 423c
000000f0: 9bb9 04bd ff4b 683b 2813 d0bc d0b3 cabc
00000100: 61b7 0e3d 96ad ff3d d1f8 793d aea6 6abd
00000110: 9fd2 b33d 6ce7 e83c 3a7d 793e d150 823e
00000120: bbfc 8e3c 0070 00be 8b12 4dbe 535e e33c
00000130: 139d 16bd 8de7 8bbc e665 9dbd be8b cf3d
00000140: c0c4 b1bd 5494 623d 91b9 24bc 2edd d93d
00000150: eac2 6f3e edce 08be 7a40 263e d914 8bbe
00000160: 6a32 9cbd 9b3e e8bd 31f4 4d3d 299d 123e
00000170: 3c1e 5b3a 76ef f0bd 80c3 05bd b662 ebbc
00000180: b867 8ebd 60cb a03c 7dd1 413c afdb 5f3d
00000190: f181 72bc 6e12 ac3c 2f48 46bd baf2 a9be
000001a0: a3f1 a23b 1efd 993d 276a 9d3d 3dee 86be
000001b0: b2d9 4a3d 1126 12be c8f0 e73d 475a 02be
000001c0: c81f 9dbd 290e 99be d449 b5bd 92db 123d
000001d0: 0e71 a9bb c500 d5bd a3ed a83d 40e8 713d
000001e0: 1f68 e63d d2d5 0e3e 3f84 38bc d90d 9bbd
000001f0: 1556 353d 2b6e 5c3d a087 88be 0cb7 be3d
00000200: a478 b23d d59a 613c 0819 f73d 390e 57be
00000210: a361 8c3e 4121 d73d bff6 31bd bf77 a7bd
00000220: 48e7 37bb 69bb ab3d 78bf 723e 61c8 8bb9
00000230: 0722 413e e400 d6bb bf88 173e d6ba 8c3c
00000240: 30f0 013e 5bcf 373e 43bb 32be b922 723d
00000250: 75e1 63be 3abc a13d d9d6 c6bc 92a8 29be
00000260: c530 b23d de16 aa3d 2990 623e 8d72 1b3e
00000270: 6d84 afbd 44ef 893c 6d05 80bd f373 96bd
00000280: 5987 463d 202a 173e c449 423e d102 f8bc
00000290: 9c9b 7cbe ec69 7bbd 855a 1a3c a3c4 9f3c
000002a0: c414 523c b126 2b3d 1a9b 80bc abfd 913d
000002b0: b0a9 923c bfa9 00be a60f caba a7f8 a3bd
000002c0: 14f0 6abb 0d5f ed3d 51dd c83b 0d44 c43d
000002d0: b447 a23c 573b b0bd 1671 03be 6b11 1bbe
000002e0: 39f6 3bbd 270b 083e cb18 6d3d a994 f7bd
000002f0: 771a c7bc 2629 85bd f492 533d 80b4 d43d
00000300: f9f5 4a3d a28b 0abe cbc6 b7bb 5bd9 c7bd
00000310: 3365 633d 06f5 233d 50d5 8b3c d579 3ebd
00000320: e032 d5bc 5eda c0bd a126 03bd 2d81 5b3d
00000330: 8200 1e3e f36b aebd 1e1f a23d 802c 063d
00000340: 7d7c 6dbd 1dcc 4c3e 6c55 24be 6521 06be
00000350: 0a11 c6bd f23e 29be 03c3 1ebd 153f 853d
00000360: b76c 3b3e 075e ce3d d8e0 27be a213 f9bb
00000370: 5d1b 08be 10bc f13d e39b 81be 6749 a23d
00000380: 5ccc ddbd 4f27 a7bd 5c7e ec3d e290 853c
00000390: debd 21be 0fa9 6d3d 15bf 0bbe 0b03 c33d
000003a0: 1e33 acbd c0b2 143d 887e 46bd c7fa 003e
000003b0: 8527 84bd bcd9 37be 9ab7 41bc d272 8c3d
000003c0: c11c 13be 1315 4e3c 922b edbd 77f1 423b
000003d0: 9f5c 5c3c 1a22 bcbd bc68 5cbb 3880 2f3c
000003e0: 8da4 d5bc a9cb 1abd bf01 0fbe 148f 783d
000003f0: 8a40 dfbd 1ad5 063d 8cb7 b93c 62bf 963c
-0.053247176 0.026134068 0.06663628 -0.2473308 0.09212907 -0.040644918 0.06265411 -0.08794859
0.09711256 -0.054338764 -0.042709094 0.037011206 -0.062318202 -0.0933995 0.026110666 -0.13696891
0.04746541 -0.086348146 -0.03567839 0.12963615 0.026766606 0.047341485 -0.06239713 -0.073986284
-0.12965253 0.0022016782 -0.22250822 -0.017417656 0.025300637 -0.000989848 0.050787304 -0.051492557
0.013672534 0.005161297 0.06776489 -0.00912207 -0.025836093 0.29788882 0.02847121 -0.067133464
0.1423781 0.16721821 0.076519884 0.01017171 0.12309794 -0.016599024 0.11677495 0.047677346
-0.1599743 0.11869697 0.011283205 0.06198594 -0.13468787 0.042518307 -0.11548204 -0.034620352
-0.33513415 0.05555533 0.09109664 0.011887112 -0.03240357 0.0035445688 -0.02539976 -0.024743944
0.034842853 0.12484281 0.061028305 -0.057287864 0.08780407 0.028430663 0.24364176 0.25452283
0.017454496 -0.12542725 -0.20026605 0.027754938 -0.03677089 -0.017078185 -0.07685451 0.101340756
-0.08680105 0.055317238 -0.010054008 0.1063789 0.23414198 -0.13360186 0.16235533 -0.27164343
-0.07626803 -0.11340066 0.050281707 0.14317764 0.0008358692 -0.117644235 -0.032657146 -0.028733592
-0.069533765 0.019628227 0.011829731 0.054652866 -0.014801488 0.021004882 -0.048408683 -0.33192998
0.004972653 0.075189814 0.076862626 -0.26353636 0.049524017 -0.14272334 0.11325222 -0.1272975
-0.076720774 -0.29893616 -0.08851972 0.03585393 -0.005170948 -0.104005374 0.082484506 0.05905938
0.11250328 0.13948753 -0.011261999 -0.075710006 0.044271547 0.053816 -0.26665974 0.09312257
0.087144166 0.013769825 0.12065321 -0.2100152 0.2741824 0.105043896 -0.043448206 -0.08177137
-0.0028061438 0.08385355 0.23705852 -0.0002666144 0.18860637 -0.006530868 0.14798258 0.017178934
0.1268928 0.17950194 -0.17454247 0.059115145 -0.22253974 0.078972295 -0.02427237 -0.1656821
0.08700708 0.08305143 0.22125305 0.15180416 -0.0857018 0.016837724 -0.06251035 -0.07346334
0.04846892 0.14762163 0.18973452 -0.03027478 -0.24668735 -0.06138031 0.009420996 0.019502943
0.012822334 0.041784946 -0.015698958 0.071284615 0.017903179 -0.12564753 -0.001541604 -0.08006411
-0.0035848664 0.11590395 0.0061298986 0.09583292 0.019809581 -0.08605068 -0.12836108 -0.15143363
-0.045889113 0.13285504 0.057884973 -0.120889015 -0.024304612 -0.06501989 0.051653817 0.1038599
0.049550984 -0.13529828 -0.0056084148 -0.09758254 0.055516433 0.040028594 0.017069489 -0.046502907
-0.026025236 -0.0941665 -0.03201926 0.05358999 0.15429881 -0.085166834 0.079160914 0.032757282
-0.05798005 0.19999738 -0.16048211 -0.13098677 -0.09671219 -0.16527918 -0.038760196 0.065061726
0.1830319 0.10076528 -0.16394365 -0.0076012174 -0.13291688 0.11803448 -0.25314245 0.07924157
-0.10829994 -0.081617944 0.11547539 0.016304437 -0.15795085 0.058022555 -0.13647111 0.09522065
-0.08408187 0.03630328 -0.048460513 0.12595664 -0.0645285 -0.17954153 -0.011823559 0.06857838
-0.14366437 0.012578267 -0.11580576 0.0029745975 0.013449817 -0.09186192 -0.0033631762 0.010711722
-0.02607944 -0.03779188 -0.1396551 0.060683325 -0.10900982 0.032918073 0.02267053 0.018401805

linear_layer.2.bias f4 [100]
00000000: 90c9 84bd 236f 62bd 4425 953c 5674 093d
00000010: 1dad 9b3c 3993 313d bf7f 6d3d 4028 fa3b
00000020: 8cb8 24bc ca1f 073d e310 15bd 8fac 7ebd
00000030: 8b0d c8bd 4139 2c3e 9993 87bc dcab c1bc
00000040: ca80 92bd 4afa 0b3e 8819 353c 2c85 efbc
00000050: 705e 00be b6d6 48bd 994a 613c 7728 ae3d
00000060: 120e de3c 85b7 74bd 0ceb 4cbd 0be3 8cbd
00000070: 8f6f 823d 48d7 8ebd 7b84 e4bd 9a91 27bd
00000080: 02b3 fb3c 1819 5e3d 3bc0 9bbc 40c5 9dbd
00000090: 7e2b 00bd cce8 6dbd cf6b f3bc f14d 03bd
000000a0: 7031 2bbd c146 c8bd 8c1b 10bd 7352 0b3d
000000b0: 002f 4e3c 6c4f d33c ac63 f23c 41c2 b43b
000000c0: 9f94 dcbc dcee 093c e3a2 b7bc d907 8d3b
000000d0: c0ce a63d b4cc cb3d 8259 813d d05c 9ebe
000000e0: add6 82bd 0e51 96bc 1421 003c 0967 5dbd
000000f0: c444 223e 3acb 433d b12c 1c3e 28a4 013d
00000100: 62c3 28bd acb7 d4bc 7e2b 8dbd 0afb 003c
00000110: 6343 5fbe 393f 463c d86e 823c 8ed1 f63c
00000120: 9ca6 743c 4c5e 07bc 2f30 d1bc c317 6abd
00000130: 8af7 81bc da5f 153c 6227 e53c bf86 b6bd
00000140: f0fd 8cbd 5aef 9ebc 7097 cabd c51f 23bd
00000150: 3d95 323d 98be 5d3d e1a8 853c f168 513e
00000160: c635 19bd 6307 aebb d3ad 963c 0dd4 353d
00000170: 39d8 81bc 844d 8dbe 6b8b c83b 77ea 93bd
00000180: 29d9 2bbd dd33 5c3c 832b 80bd b722 a1bc
-0.064837575 -0.05528177 0.018206246 0.033558212 0.019003445 0.043353293 0.057983156 0.0076341927
-0.010053765 0.0329893 -0.036393058 -0.062176283 -0.09768208 0.16818716 -0.016549872 -0.02364152
-0.07153471 0.13669696 0.01105345 -0.029238306 -0.12536025 -0.04903289 0.013750696 0.08503812
0.027106319 -0.05974533 -0.050028846 -0.068792425 0.06368934 -0.069746554 -0.11158081 -0.04091034
0.030725006 0.05422315 -0.019012561 -0.07703638 -0.031291477 -0.05808334 -0.029714493 -0.032056753
-0.041795194 -0.0977912 -0.03518252 0.034014177 0.012584448 0.025794707 0.029588543 0.005516321
-0.026926337 0.008418765 -0.022416538 0.004303914 0.08144903 0.099511534 0.063159004 -0.30930185
-0.063886024 -0.018349197 0.007820386 -0.05405334 0.15846545 0.047801234 0.15251423 0.031650692
-0.041201957 -0.025966488 -0.06893061 0.007872352 -0.2180305 0.012100034 0.015921995 0.03012922
0.014932301 -0.008262228 -0.025535671 -0.057151567 -0.015865106 0.009117091 0.02797288 -0.089124195
-0.06884372 -0.019401241 -0.09892166 -0.03982522 0.043599356 0.054136842 0.01631588 0.20450188
-0.037404798 -0.005310939 0.018393433 0.04439168 -0.015850173 -0.27598202 0.0061201355 -0.07222455
-0.041955147 0.0134401 -0.06258299 -0.019669874

linear_layer.3.weight f4 [100, 100]
00000000: 1d26 29be 6283 d13d 9381 49bd f000 273e
00000010: de05 78bb c7f7 babc d71e 773d 2d13 ca3d
00000020: c6c8 e2bd 7516 ccbd 33d8 60be 5e4a 9b3d
00000030: 3fdf 12be 3ffc 133f c29c 77bd 7457 123d
00000040: 74e7 81be 20ff 193e c80c bfbd 4bce 953c
00000050: e63e ccbe a833 fabd 20cd fdbc 82e4 103e
00000060: 2c4b a63b b47e 943d e25d 85bc aaa9 92bd
00000070: ca20 5f3e 43fc 5fbc c2dd 1fbe 4a10 0dbe
00000080: 7102 ffbd 2f48 0dbd 0f1c 84bd 5a5f 8abc
00000090: 6057 9cbe a198 55be c682 71be 0497 eebd
000000a0: 1dcc 083e f31a 50be 0e3e 24be f95b 143e
000000b0: 3db0 223d 1414 99bc 2037 5c3d 958e 2e3e
000000c0: 87bc 80be 4616 e33d ba65 fb3d 0ba2 80bd
000000d0: 3edf dfbc f6bf 993e e1b4 7a3e 1aa0 523b
000000e0: 12df b33d 8404 24be 23ad 20be 8da6 06be
000000f0: a006 703c 36f1 08be d9c1 983e ebe2 b8bd
00000100: 4278 ca3d e619 423c fc74 473d e6c7 85bc
00000110: ea54 d13d d781 98bc b198 433e f469 3abd
00000120: 282a cb3d cf23 d0bc 1cf2 463e c194 d43d
00000130: 2034 9cbd a914 4dbc ec00 533c 626b 83be
00000140: a3ec a33b 102b f63d 7b96 98bd 46e5 a1bc
00000150: 2f49 7d3e a783 11be 726c 163d ef30 ef3c
00000160: 600e 04be 0ceb 113d 71fe 44be ed65 8b3e
00000170: 4752 8fbb 4bb6 943d 36a6 0a3c b425 073e
00000180: 4a5c 9f3d 3666 0a3d 01c1 3fbe 8688 aabd
00000190: 4ff1 323e 5d12 55bc fb72 1f3c 85c6 f2bd
000001a0: e9b9 003d 93e9 c23c 2218 e1bd a296 6b3d
000001b0: 8d8a 953b 3cf9 8bbd 2648 d0bd b8db 073e
000001c0: 32e5 28bd 2e71 923e b76f dbbd 6e5c b4bc
000001d0: d526 7abd 322d aabd 6ee1 ce3d 0447 9f3c
000001e0: 2e67 c93d c453 8ebd 229c 483a 5940 37be
000001f0: b185 1ebe 1c77 cc3d a9e5 cd3c aebb 41be
00000200: 89f8 1e3e ff81 c63d 6dbd 31be 9a11 503e
00000210: 3df3 443d 0bbc 2bbe 2e69 923d d7ec 5ebd
00000220: 1b49 f13d 0643 66be c768 f63a f8d7 e5bb
00000230: 97b6 783c 05cc cd3d 3319 28bd 9865 153d
00000240: b891 4d3e 6d72 b2bb 720a 32be 2fc9 1d3d
00000250: 150e 1f3d df82 2a3e 2477 733d 4ecf 733c
00000260: bc18 ee3d b7bc d1bc a770 433d 0c04 29bd
00000270: 9ec5 5dbd 0129 9ebd 0561 ff3d 750b 883d
00000280: 66e1 843d 51bb b5bd e26e acbb ddd4 1fbd
00000290: fb01 b93d 41e5 cfbd 2567 2cbe d985 c4bc
000002a0: 172f 05be a44f 3abe f473 90bd c135 9dbc
000002b0: 664a 4f3e 5971 8dbd 2e07 aabd 1a65 41bd
000002c0: 6405 bdbd 0eed 19be 940f 0e3c fcff 3dbc
000002d0: f435 1fbd ee6c 37bd 9f60 b6bc f91b 213e
000002e0: 3041 2a3d 3d72 863d 0dfd 933a a05b e2bd
000002f0: ffc4 f3bc 6260 ebbc 1913 103c f305 cf3d
00000300: e879 f9bc fc17 38bd 8621 bd3c 69a8 f1bd
00000310: 63f7 0d3b 0cc5 dabd db55 50be 1aaa a23c
00000320: 7fa7 a8bc 9726 ea3c 0444 5dbd 47e4 b6bd
00000330: a6d1 6abc fa6c aebd 2688 4dbd 1c93 e2bd
00000340: 48ac 2b3d e47d 1fbe f461 603d e1ca 123e
00000350: 225a ccbd f9c8 d7bb 479d 9e3c a23c 533d
00000360: b059 0fbc 1ef8 ffbd 1bd8 6dbe f54c 24bd
00000370: 0518 5d3e b4c4 303c c93d e63c b8f6 e5bd
00000380: b101 253c 734c 41bd dad7 f23d f12d aa3d
00000390: 14d0 3dbd 9666 b63d 2f9b 88bd f601 7cbd
000003a0: 0e3b 643d d5a8 e3bd 8bbd 47be e27f 563e
000003b0: 55e7 9d3d 8944 563d 3bd8 7b3d 1573 833e
000003c0: d63a 7b3d c985 833d b977 90bd e915 f3bd
000003d0: 0d85 a83d 8ab4 5fbd b1f0 e5bd 840b 34bc
000003e0: 9c41 93b8 f83f 3bbe 0b02 173d 3412 ba3d
000003f0: 4507 a2bd 1e9d 2cbd f5da 36be 0b60 543e
-0.16518445 0.102301374 -0.049195837 0.16308951 -0.0037845294 -0.022823228 0.060332146 0.09866939
-0.11073451 -0.09965221 -0.21957473 0.07582544 -0.14342974 0.5780677 -0.06045223 0.035727933
-0.25371897 0.15038729 -0.0932861 0.018286845 -0.39891738 -0.12216884 -0.0309816 0.14149669
0.005074879 0.07250729 -0.016280118 -0.07161267 0.21789852 -0.013670984 -0.15611938 -0.13775745
-0.124516375 -0.034492668 -0.06450664 -0.01689117 -0.30535412 -0.20859005 -0.23585042 -0.11649898
0.13359113 -0.2032278 -0.16039297 0.1448821 0.039718855 -0.018686332 0.05376351 0.17046578
-0.25143835 0.11088233 0.12275262 -0.06280907 -0.02732813 0.30029267 0.24483062 0.0032138885
0.08782782 -0.16017348 -0.15691046 -0.13149472 0.014650017 -0.13373265 0.29835394 -0.09027656
0.098862186 0.011846995 0.04869555 -0.01633067 0.10221274 -0.0186166 0.19101216 -0.0455112
0.0992015 -0.0254077 0.19428295 0.10379935 -0.076271296 -0.012517133 0.012878638 -0.25667864
0.0050025745 0.12019932 -0.07450577 -0.019762646 0.24734949 -0.14210378 0.036724515 0.029198138
-0.12896109 0.03562455 -0.19237687 0.272262 -0.004373822 0.07261332 0.008462479 0.13197976
0.077812746 0.033788882 -0.18725969 -0.08326821 0.17474864 -0.013004866 0.009732003 -0.11854271
0.031427298 0.023793017 -0.10990931 0.0575167 0.0045636357 -0.06834647 -0.10170011 0.1326741
-0.041234203 0.28601974 -0.10714667 -0.02201673 -0.06107219 -0.083094016 0.10101591 0.019443043
0.09834133 -0.06949571 0.000765266 -0.1789564 -0.15480687 0.09983656 0.025133925 -0.1891925
0.15524496 0.096927635 -0.17357416 0.20319214 0.048083533 -0.16770951 0.07148968 -0.054425087
0.11781522 -0.22486505 0.0018799537 -0.007014271 0.015180252 0.10048679 -0.041039657 0.03647384
0.20075119 -0.0054457695 -0.17386797 0.03852194 0.03883179 0.16651486 0.059439793 0.014880968
0.116258115 -0.025602682 0.047714856 -0.041263625 -0.05414354 -0.077226646 0.12469677 0.0664281
0.06488304 -0.088736184 -0.0052622417 -0.03902136 0.09033581 -0.101511486 -0.16836222 -0.023989605
-0.13006245 -0.18194443 -0.07053366 -0.01919067 0.20243225 -0.06906385 -0.08302151 -0.04721556
-0.09229544 -0.15031835 0.008670706 -0.011596676 -0.038869813 -0.044781618 -0.02226287 0.15733327
0.041566074 0.06564758 0.0011290625 -0.11052632 -0.029757021 -0.028732482 0.008793616 0.101085566
-0.030453637 -0.04494475 0.023087274 -0.117997 0.0021662347 -0.10682115 -0.20345251 0.019856501
-0.02058768 0.028582854 -0.054019943 -0.08930259 -0.014332211 -0.085168794 -0.05017867 -0.11063215
0.041912347 -0.15575367 0.054780915 0.14335205 -0.09978129 -0.006585237 0.019362105 0.051571496
-0.0087494105 -0.124984965 -0.23226969 -0.040112454 0.21591194 0.010789085 0.028105633 -0.112286985
0.010071204 -0.04719205 0.11857577 0.08309544 -0.046341017 0.089062855 -0.06670224 -0.061525308
0.05572038 -0.111161865 -0.19505899 0.20947221 0.07710139 0.052311454 0.06148551 0.25673738
0.061335407 0.06422002 -0.07054085 -0.118694134 0.082285024 -0.054615535 -0.11227549 -0.010989074
-7.021727e-05 -0.18286121 0.036867183 0.09085503 -0.07911543 -0.042142026 -0.17856963 0.20739762

linear_layer.3.bias f4 [100]
00000000: 3ed2 cf3d 4df7 8c3c c2e3 72bd b806 e8bd
00000010: cd57 87bc 4697 1fbd 6161 bb3d 2f88 3c3d
00000020: 1937 2c3d 1fea 443b 767b 38bd ea31 02bd
00000030: 3955 043c f4d7 153d 4c87 003c cc69 253c
00000040: 9cd4 9cbd 3cdd 33bc 33f2 7c3c 58c3 243d
00000050: dd07 84bd eb0f 5b3d 8f16 e63c 2164 203d
00000060: de86 b73b 92b3 2bbd 08d9 8a3d 1532 803d
00000070: 3ac2 113d e2e4 533d afda b3bc 7a17 5dbb
00000080: 54d3 943c ce85 f13c 969c a43a 49d3 ecbc
00000090: 93a8 8a3c 4f67 29bc bff7 2dbd 24e9 dfbb
000000a0: fb7e 81bc 5943 5e3c 0b6a 1f3d 1d6b 48bc
000000b0: 89a2 873d 09bf 633d d49a b93d 160f 38be
000000c0: 2a6c 533d 4c36 39bd fb51 0c3d fa9a d1bc
000000d0: a4a5 edbb 7fc4 993a a174 abbc 62d9 a2bc
000000e0: 3a82 4fbd 8d6d 91bc ff48 393d 1785 4c3d
000000f0: a308 ac3b cd81 fd3c 0ad7 d53b 53e8 6d3c
00000100: 1eee ca3c d1be 823c b115 8a3d 5a53 b0ba
00000110: 6abb 8b3c d44e 2fbd 2a8a 003d 1ed6 1dbd
00000120: 2caa 68bb fb6b 22bc 2bd3 f9bc 3f95 9d3c
00000130: bb53 f4bb b288 9bbe 7954 293d 4eb8 5bbd
00000140: f0ff 29bc 1b17 a73c be77 63bb cb19 cabc
00000150: 7b9b 65bd a909 503d 737d b63c b81d 5c3d
00000160: 4b9f 00bd bb5a a33b 2fa8 ef3c b18c e03c
00000170: 3895 2e3d bda2 10bd e47f bf3b e7c9 2f3d
00000180: f6e2 be3c 9905 b43c 1a72 1fbd 2d1c 60bd
0.101475224 0.017207766 -0.059299238 -0.113294065 -0.016521359 -0.038962625 0.09149433 0.046028312
0.042044733 0.0030046774 -0.045039617 -0.031785883 0.008076959 0.036582902 0.007844757 0.010096025
-0.076577395 -0.010978039 0.015438604 0.040225357 -0.06446812 0.053481977 0.028086929 0.03915799
0.005600794 -0.0419193 0.06779677 0.062595524 0.03558562 0.05173195 -0.021954862 -0.0033735917
0.018167175 0.029482748 0.0012558873 -0.028909342 0.016926086 -0.010339572 -0.042472597 -0.0068332125
-0.01580762 0.013565862 0.03891949 -0.012232569 0.06622798 0.055602107 0.09062734 -0.17974505
0.051616825 -0.045217797 0.03425787 -0.025586594 -0.007252412 0.0011731534 -0.020929636 -0.019879047
-0.050661303 -0.017752433 0.04523563 0.049931612 0.005250053 0.030945683 0.006525879 0.014520722
0.024771746 0.015960129 0.067424186 -0.0013452575 0.01705714 -0.042799786 0.031381764 -0.038534276
-0.003550182 -0.00991344 -0.0304962 0.019236205 -0.0074562705 -0.30377728 0.041340325 -0.053642564
-0.010375962 0.02039676 -0.0034708823 -0.024670502 -0.05605648 0.050790463 0.022276616 0.05373928
-0.031401914 0.004985181 0.029255 0.027410837 0.042622775 -0.03531145 0.005844103 0.04291716
0.023301583 0.021975325 -0.038927175 -0.05471437

linear_layer.4.weight f4 [100, 100]
00000000: 0975 c7bc a8fe 143d 2682 933d 85e8 a23d
00000010: e46f 663d 9504 42ba e3b7 55bd 1716 143e
00000020: d073 ac3d f660 bd3c 1433 14be 3597 ca3d
00000030: d8a5 b13d 03d2 183e a4f2 fe3d d896 5e3e
00000040: 7e91 0b3e a04c a93e bc9c 153c cd69 143d
00000050: b97d 3b3c 31cc 543d beae a1bc f986 083e
00000060: 3714 1c3e 4248 c7bd d74d 913d 6e6b d1bd
00000070: 5f6a 253e 0d4b 2dbd e5d3 0d3e 8150 8abd
00000080: 8db4 27be 31ee 293d 653e cf3b 90cd 503b
00000090: ced8 48be ce6c 7a3d 66ec 123e e730 d93c
000000a0: 9235 58be 7aa3 8abe 8975 92be 67cd a83d
000000b0: c4de 33bd a0da 82be 5b11 2d3e c2ad 63bd
000000c0: 9cc5 8d3d a2e5 b73c 6eb8 54bd 6e0f d0bd
000000d0: 50f7 c6bd 4aae 6ebc b7db 183c f723 843d
000000e0: 1a08 643d 2f85 963d 8d32 ab3d 7003 6a3d
000000f0: 92a7 ab3d b0d6 c53b bb92 773c 4ca3 ee3c
00000100: 7ab4 f13d b0b7 153d 2990 343c a68d 71bc
00000110: d7ec 5fbe cf5b f03d d1da 143d 2206 8c3d
00000120: 3b2f c2bd 7ce3 3e3e 4c60 a63c a93a 28be
00000130: c1e5 b33d bbb8 c13d e7cb 79bc a6ca 033d
00000140: d75f 3b3d 1f9f 993d 556c 573d 2108 12bb
00000150: 9cd8 2ebd 3a1e 13bc 9826 093e c42d 98bc
00000160: e26c 1abd 0a0b 0bbd 5c28 a2bc 6553 003e
00000170: 4602 58be 7239 a33d 12ca aebd 6ad2 abbd
00000180: 7d05 ac3c 9e4e 6bbc e2b4 cabd df9e dfbc
00000190: c22b cabd 16c8 0d3b f7c6 fcbd ab22 873c
000001a0: 5575 d4bc 5ed9 8ebd ce25 56be 30de ad3b
000001b0: 2fb1 353b 8abb 8ebd 812a fabc 7de8 93bc
000001c0: d916 0a3e 7e21 de3d 3c3d 663e de21 42bd
000001d0: 7d0d f0bd 5b4f a6bd 285b 7cbd 6170 883d
000001e0: c4b2 a7bd 49ba d63d 7948 bc3d ee05 9abd
000001f0: 5101 893c 5c3a 30bd 3b96 933d 2232 093e
00000200: 7191 6c3e e178 ac3d 4e0e 8dbd fd66 893d
00000210: 2cd5 673d 0654 d93c 0e68 cebc d7fd 68be
00000220: 332e f8bd ba0d bebd 36ba e03d f46e b83d
00000230: 0884 263d a1fe 0d3d 42e5 b23d 7a99 273e
00000240: 166e 333d 0675 1cbd 37f9 683e 78c0 e43d
00000250: 007b 1bbd e6dd 23be 53e1 1ebd a954 533d
00000260: a7fb 2cbd 8f64 acbd dcb1 4fbd 1225 bfbd
00000270: 8126 52bd 4e82 b53d 5e15 55bd 2c7b 2abc
00000280: e2e5 06bc 2e8b 333d dc0d 833c 539c 63be
00000290: cbe4 1bbd cb3d 183e 6a38 0e3e f559 163e
000002a0: 7d47 f3bd 7003 cbbd 0455 d2bd ab6f e6bd
000002b0: d1fc c93b 9632 3dbe 7828 9fbb 4b7c 9f3d
000002c0: 5bec 593d cd7c 50be 1d16 31be 005c eb3d
000002d0: 7f5a 153e 2567 20be 5f4d 053d 6b5b 28bd
000002e0: 08fa 763d 9a42 dbbc 2c3a 1ebe 90cf 79bd
000002f0: 7bec 2dbe e482 20be 4789 b73d 2344 9abd
00000300: 72af 07be 9542 513d a959 d43c 973d c13c
00000310: 270f f9bc ac61 aebd 25ad da3d 81f9 de3c
00000320: f94b 723d 442c 14bc ccdb 3fbe 1f7b df3d
00000330: bd02 5ebe 773e afbd 2d9d 643d 8313 e43d
00000340: 8e17 8dbe 473e 073b 9dad 853d 3f1d d13c
00000350: efd2 71bc 2943 e2bd 50ac 3a3d d97f 2f3e
00000360: c894 26be c395 3abe 356c 4a3d b5a8 693d
00000370: e2a6 58bd b135 88bb 3ced 313e b0ed 013d
00000380: 7913 8c3c c861 38bd 7ff9 3fbd 874a 063b
00000390: ecee 273e 68b2 74bd 8493 49be 3ad6 8c3d
000003a0: 93bf 353e 2358 153e 7e24 b0bd aabf 1e3d
000003b0: ab99 60bc 7223 253e 5c4b 0dbe acb9 9cbc
000003c0: 40b4 0abe 172a 673d adcb 2f3e 63ec 18be
000003d0: ab79 12be f3cc 213c 5e93 1b3e 4556 b13e
000003e0: 2c8b b83d 0478 6d3d 169e a33e 502b 793c
000003f0: 511b 793d efda 773d 3c34 493e 2c08 cf3d
-0.024347799 0.03637567 0.07202558 0.07954506 0.05625905 -0.00074011955 -0.05217732 0.14461552
0.08420527 0.023117524 -0.1447261 0.09892122 0.0867421 0.14923863 0.12448624 0.2173723
0.1362972 0.33066273 0.009131607 0.036233712 0.011443549 0.051952545 -0.019736644 0.13332738
0.15242086 -0.09730579 0.07094925 -0.10225569 0.16153859 -0.042307902 0.13850363 -0.06753636
-0.16377468 0.041486923 0.0063245767 0.0031860806 -0.19613954 0.06113892 0.14347991 0.026512576
-0.21114185 -0.27077848 -0.28605297 0.082423024 -0.043913618 -0.25557423 0.16901152 -0.05558563
0.069224566 0.022448365 -0.0519337 -0.10159193 -0.0971514 -0.014567921 0.009329728 0.06452172
0.05567179 0.073496215 0.08359251 0.057132185 0.08381571 0.0060375556 0.015110667 0.0291306
0.11802001 0.03655213 0.011020699 -0.014743244 -0.21867691 0.11736261 0.036341492 0.06837107
-0.09481665 0.18641466 0.02030959 -0.16428627 0.087840565 0.09459063 -0.015246368 0.032175682
0.045745697 0.07501053 0.052593548 -0.0022282677 -0.042687044 -0.008979375 0.13393629 -0.01857651
-0.037701495 -0.033946075 -0.019794635 0.12531812 -0.21094617 0.07969941 -0.085346356 -0.08389743
0.02099871 -0.0143620055 -0.09897782 -0.027297435 -0.098716274 0.0021634153 -0.12342637 0.016496023
-0.025934855 -0.06975053 -0.20912859 0.005306028 0.0027724018 -0.06969364 -0.030537846 -0.018055195
0.13485278 0.10846232 0.22484297 -0.04739558 -0.11721323 -0.081206046 -0.06161037 0.066620596
-0.08188394 0.1048475 0.091935106 -0.07520662 0.01672426 -0.043024406 0.072063886 0.1339803
0.23102356 0.08421493 -0.06887494 0.067090966 0.05659978 0.026529323 -0.025196102 -0.22753082
-0.12118187 -0.09279962 0.10973017 0.09005538 0.04065326 0.03466666 0.08735134 0.1636714
0.043806158 -0.03819754 0.22751318 0.11169523 -0.0379591 -0.16002616 -0.038789105 0.05159441
-0.042232182 -0.084176175 -0.05070673 -0.093332425 -0.05130625 0.08862744 -0.05202233 -0.010405343
-0.008233519 0.043833904 0.01599782 -0.22227602 -0.03805999 0.14867322 0.13888708 0.14682753
-0.1187887 -0.09912765 -0.10270122 -0.11251768 0.0061641713 -0.18476328 -0.004857119 0.07787379
0.05320392 -0.20360108 -0.17293592 0.11492157 0.14585303 -0.15664347 0.03254449 -0.041102808
0.060297042 -0.026765157 -0.15451878 -0.060988963 -0.16984741 -0.15674931 0.089617305 -0.07532527
-0.13250521 0.05108889 0.02592166 0.023588939 -0.030402733 -0.08514723 0.10677556 0.027218582
0.059154484 -0.009043757 -0.1873619 0.10912155 -0.21680732 -0.08556836 0.055813957 0.11136534
-0.27557033 0.0020636485 0.06527255 0.025526641 -0.014759763 -0.11047966 0.045574486 0.17138614
-0.16267693 -0.18221192 0.0494196 0.057045657 -0.052893527 -0.004156791 0.17375654 0.031720817
0.017099129 -0.045015126 -0.046868797 0.00204912 0.16399735 -0.059740454 -0.19685179 0.06876798
0.17748861 0.14584403 -0.0860071 0.038757004 -0.013708512 0.16126803 -0.13798279 -0.019131504
-0.13545322 0.056436624 0.1716754 -0.14933924 -0.14304225 0.009875524 0.15192935 0.3463613
0.0901092 0.057975784 0.31956547 0.01520808 0.060817067 0.060511526 0.19648832 0.101089805

linear_layer.4.bias f4 [100]
00000000: 5679 eabb 7252 09bd 01f8 813d af5f 99bc
00000010: a631 0abe b918 81bc 36b1 0cbd 8b70 443c
00000020: 855d 373d cdf8 cc3c 75c7 703c 82d0 c2bd
00000030: 98ab a3bc 25ef 933c 34cd d7bc 3b1e 913c
00000040: b03e 173d 074d d4bc 2f41 7abd e525 473d
00000050: f800 8b3d 5729 d4bc 36dc de3b bebc 5a3c
00000060: 9e2a 793c 02c8 d53c 8f62 79bc 095b 05bc
00000070: d64f 17bd b559 33bd 815e db3c ecc2 8b3c
00000080: a500 b4bc 7e3e 18bd 2eb5 053d aafa 92bd
00000090: a0a2 253d 6185 1e3e a703 863c 9934 15bd
000000a0: b7aa 9dbb f49d 8b3c a400 7abb b435 24bc
000000b0: 111b 53bd 7691 3d3c 9525 0fbd 7a7f 9bbc
000000c0: cda8 c9bb 7ec7 a5bc cfad 663a e402 e9bb
000000d0: ab06 ff3a 4b63 923c 484c cc3b 9550 c8bc
000000e0: e56e bd39 5b41 f5b9 8fff a1bc 671c 3dba
000000f0: 9541 5abb 0e4b 9b3d 35e5 393c f307 07bc
00000100: bb4f 1e3c b5e8 6a3b b9df 193b 1077 a9bc
00000110: d0df 273d a013 c9bc ff23 6ebd 6300 4bbc
00000120: 6a05 8a3c 2694 54b9 56b3 f23c 066e 1fbd
00000130: 4214 7dbc 2c84 d83c 0757 3c3d e5ea fa3b
00000140: f819 463d e350 efbc 52b6 aa3d 100e 5b3d
00000150: ec1c 68bd 002b 7ebd f791 bcbb 2747 cdbc
00000160: 177a 33bc 86f0 3b3c fa8d 163c 19fb b33c
00000170: 0fcd a0bc 6ed1 973c 79fe 783d 9073 c2bc
00000180: e3e2 3ebb e5c3 90bc abf4 37bd d76a 9abc
-0.0071555777 -0.03352589 0.06346131 -0.018722383 -0.13495502 -0.015758859 -0.03434869 0.011989723
0.04476692 0.025020981 0.014695992 -0.09512426 -0.019979283 0.018058369 -0.026342966 0.01771461
0.036925018 -0.025915636 -0.06109732 0.048620123 0.06787294 -0.025898619 0.0068011535 0.013350664
0.015207915 0.026096348 -0.015221252 -0.00813938 -0.03694137 -0.043786723 0.026778461 0.01706072
-0.021972964 -0.037168972 0.03264349 -0.071767166 0.040438294 0.15480568 0.016359163 -0.036427114
-0.0048116106 0.017043091 -0.0038147354 -0.010022569 -0.051539484 0.011570325 -0.03494795 -0.018981684
-0.006154156 -0.020236727 0.0008799703 -0.0071109403 0.0019456943 0.017869612 0.0062346794 -0.024452487
0.00036131512 -0.00046778735 -0.01977518 -0.000721401 -0.003330325 0.07582675 0.011346151 -0.008241641
0.009662564 0.003584427 0.0023479296 -0.020686656 0.04098493 -0.02454549 -0.058139797 -0.012390229
0.016848285 -0.00020273085 0.02962653 -0.038923286 -0.015446724 0.026430212 0.045981433 0.007657396
0.04836461 -0.029213374 0.08335556 0.053480208 -0.056668207 -0.062052727 -0.005754705 -0.025058342
-0.010954401 0.0114709195 0.009189123 0.021970319 -0.01962903 0.018532481 0.06078956 -0.023736745
-0.0029126934 -0.017671535 -0.044911068 -0.018849773

linear_layer.5.weight f4 [100, 100]
00000000: 4ea7 703d e28b 3a3d df8b b33c 4361 db3c
00000010: e757 cfbc 074e 62be 1707 0abe 9a0f 29bd
00000020: 718e 78bd 9c4c 993d 0cbb 453d aa4b 39bd
00000030: 6809 ecbd 7860 a7bd 04f9 7c3c 168e 993d
00000040: b491 39bd da5a 79bd 8a26 883d 7909 a2bc
00000050: 6e1a 42be dff2 ca3d c919 e53c 306c f83c
00000060: f162 03be 45e9 ca3d 2bec 1abd 225a 0abc
00000070: 90bb 863b 62fd 2fbe 9a5f 953d 073e 203d
00000080: d113 bc3d c5af aabc a3f8 423e 823c f73c
00000090: c802 b73d 116e 8cbe 649f 913d bcb1 573e
000000a0: a6bb 10be ac2a 0fbe 7952 0fbc 58bc b03d
000000b0: 847f a2bd bff7 d53d 03d5 9f3d 68a0 1c3e
000000c0: 7d22 80be 35f1 52bd 9a23 2cbe 1d3a 47bc
000000d0: 0912 abbc e0a6 9c3d fc5e e13b 3459 f03b
000000e0: 149c 0a3e 24b6 02be e501 413d 3534 0e3e
000000f0: 28b7 483c 84a9 393d 2414 cebd 6448 553e
00000100: 15ba 98bd 6379 20be d3d6 93bd b33c c33d
00000110: 4bfb 7abd 99fe febd 2ebe 10be a532 023e
00000120: fcd2 fb3c 2ce9 b03d 5dd0 90bc 9568 e3bd
00000130: 54a8 16bd f8bf d8bc 719c 933d 5201 103e
00000140: a7a7 4cbd 6ccf 5e3d 9058 44bd 593f 82be
00000150: 8d0e 873d 0d69 50be 440d 5d3e 8ba4 913d
00000160: c113 11bc 86bb 45ba bda9 e8bc e0d2 873e
00000170: ff11 51bc d891 89be 34fa 923d a626 633c
00000180: 3b50 003e 4dd4 06be 7f12 4ebd fc6f 143e
00000190: a6c9 a0bd 2eae 833d 1cb1 fabc d0ef de3d
000001a0: 1e44 6fbd d35d a13d d1c7 243e 96e6 463d
000001b0: af15 25bd e239 14be 5919 3fbe b4c8 803d
000001c0: 31f0 a7bd 2501 21bb 53b0 3abd a981 c8bd
000001d0: ea80 78ba ff3a 0b3e 2349 ee3d 9e04 41be
000001e0: 6de3 3cbe 8906 3cbd d767 f73c 6e0b fb3d
000001f0: c727 ca3d 4c3d c73d ce1e b43d bcc9 2f3c
00000200: 5b2b c63d 7e17 a63d 61b3 87bc fa26 8f3d
00000210: fe64 1abd db7e 4d3c 2000 6dbe 8227 c93d
00000220: f7d1 663d 0060 0fbe e68b cdbd f0d8 a13d
00000230: 007a 7ebb f388 cdbd 194c 0c3e fc61 cdbd
00000240: 527d 233e 2ed5 06bd c08f 313e a8bc 123d
00000250: 806f 863d 81df 483c ce43 7bbb 0763 6c3e
00000260: 9f64 9dbd dac9 233d a66c 85bd 0526 ff3d
00000270: 449f dfbd f929 283e 252a 523e d7bf c03d
00000280: b07d debc e424 03be 9a17 693b 75f3 dc3d
00000290: 0642 ae3d 82a9 b9b9 ce50 313e d9d4 28bd
000002a0: 2a33 2abe 3f73 803d dba3 173e 1fec a1bd
000002b0: 3d32 08b9 07a7 083d 99cd 163d e257 373e
000002c0: 333b 84bd 177a d9bc 1408 53bc d883 e1bd
000002d0: a852 f9bd 0d8d c7ba a04b c8bd 6846 9abd
000002e0: b6c3 d3bd a071 243e 80bb 62bd 45f6 a53d
000002f0: 8dfe ac3d 9eab f43c f340 3fbe 5c0e a63d
00000300: c483 903d 3011 bebd ec51 d0bb 74d9 3f3c
00000310: b72d 84bc 0c41 acbd 25f1 113d 87af f7bd
00000320: 6be6 a4bd 2d0b 043d f13c 1ebd cfe3 20be
00000330: e5f2 99bd 5a67 fc3d c8e5 c8bd 13ba 2cbe
00000340: a0d8 973d 6451 223c 02a4 cb3c 09e8 0abe
00000350: f8eb 073c ef8e 0f3d 665f f83d 3a4b 33be
00000360: d0d2 303e f859 533b 89f3 fe3c 0a71 90bc
00000370: cb40 de3d 3855 a1bd d14a 41bd 0579 033e
00000380: 7842 dc3d e36b aabd d131 e5bd 30c3 95bc
00000390: f2ca 5ebc b7c2 313e 792f 3a3e ab9d efbc
000003a0: 7c00 86bd 2535 e13d c596 f03d 122c b2bc
000003b0: e530 153e 0e78 363e 4885 dd3d cd51 1a3e
000003c0: 7fae bcbd db7b 84bd 575c fdbd bd80 a93d
000003d0: 148a 57bd 7e4a bcbd 2e06 133e 7878 ecbd
000003e0: 6b09 98bd 2bb7 e33d eb08 b63d 2f53 aebd
000003f0: 4b4b 0dbe 28f9 8a3c 6464 9abc 9644 d6bd
0.058753304 0.04554356 0.021917282 0.026779776 -0.02531047 -0.22100078 -0.13479267 -0.041274644
-0.060682718 0.07485315 0.048274085 -0.045238174 -0.115252316 -0.08172697 0.015440229 0.07497804
-0.04530497 -0.06087766 0.06647976 -0.019779908 -0.18955395 0.09909605 0.027966397 0.030325025
-0.12830712 0.09907774 -0.037822884 -0.008444341 0.0041117147 -0.17186502 0.07293625 0.039121654
0.09183467 -0.020835767 0.1904016 0.03018022 0.08936077 -0.27427724 0.071104795 0.21063894
-0.14134082 -0.13981122 -0.00874769 0.08629674 -0.07934478 0.104476444 0.07804301 0.15295565
-0.25026312 -0.051499564 -0.16810456 -0.012159851 -0.020882623 0.076490164 0.006877778 0.0073348526
0.13536102 -0.12764794 0.047120947 0.13887103 0.012250699 0.04532768 -0.10062435 0.20828396
-0.07457367 -0.15671305 -0.07218709 0.09533062 -0.061274808 -0.124509044 -0.14135048 0.12714632
0.030740254 0.08638224 -0.01767748 -0.11103932 -0.036781624 -0.026458725 0.07207573 0.14063004
-0.049964573 0.05439703 -0.047936022 -0.25438955 0.06594572 -0.20352574 0.21587092 0.07111462
-0.008854807 -0.0007542897 -0.02840125 0.26528072 -0.012760638 -0.26869082 0.07176629 0.013864195
0.12530605 -0.13166924 -0.050310608 0.14495844 -0.078509614 0.064297065 -0.03060203 0.10885584
-0.05841457 0.07879224 0.16091849 0.048559748 -0.040303882 -0.14475206 -0.18662013 0.06288281
-0.0820011 -0.0024567333 -0.045578312 -0.09790356 -0.0009479659 0.13596724 0.116350435 -0.18849418
-0.18446131 -0.04590467 0.030200882 0.122580394 0.09870868 0.09728488 0.08794938 0.01072925
0.09676238 0.081099495 -0.016565027 0.06989856 -0.03769397 0.012542452 -0.23144579 0.09821989
0.05635258 -0.14001465 -0.10036449 0.07902706 -0.0038830042 -0.100358866 0.13700904 -0.10028455
0.15965775 -0.032918148 0.17339993 0.035824448 0.06564236 0.012260319 -0.0038339975 0.23084651
-0.076852076 0.039987423 -0.06514864 0.124584235 -0.109190494 0.16422261 0.2052389 0.094115905
-0.027159542 -0.12807041 0.0035567046 0.10788623 0.08508687 -0.00035412243 0.17315981 -0.041218612
-0.1662108 0.062719814 0.148086 -0.07906365 -0.00012988686 0.033362415 0.036817167 0.17904618
-0.06456604 -0.026547475 -0.012880344 -0.11011475 -0.121739686 -0.0015224532 -0.09780049 -0.0753296
-0.10340063 0.1605897 -0.055354595 0.08103613 0.08446989 0.02986699 -0.1867712 0.081082076
0.07056382 -0.09280622 -0.006357422 0.01170956 -0.01613508 -0.08410844 0.035630364 -0.12094026
-0.08051761 0.03223722 -0.038632337 -0.15711902 -0.075170316 0.123244 -0.09809452 -0.16867857
0.07414365 0.0099071 0.024858478 -0.13565077 0.008296005 0.03504842 0.12127571 -0.17509165
0.17267919 0.003224967 0.031121986 -0.017632026 0.10852202 -0.07877582 -0.04719049 0.12839134
0.107548654 -0.08321359 -0.11191142 -0.01828155 -0.013598191 0.17359434 0.18182172 -0.029249987
-0.06543061 0.10996465 0.11747507 -0.02174953 0.14569433 0.17819235 0.10816437 0.15070267
-0.0921297 -0.06468936 -0.12371128 0.08276508 -0.052621916 -0.09193896 0.14357826 -0.11546415
-0.07423671 0.11118921 0.0888842 -0.0851196 -0.13798253 0.01696451 -0.018846698 -0.104623005
