ac_2d_model_para_5/checkpoint_650.pth (torch, 291130 bytes, 17 tensors)

linear_layer.0.weight f4 [100, 3]
000000 b4 7b 5f 3e 5f 86 22 3e 82 75 44 be 32 7a 47 3c
       0.21824533 0.15871571 -0.1918545 0.01217513
000010 40 69 96 bd e5 61 e2 3d 75 a2 4d 3d 96 92 80 bd
       -0.073442936 0.11053828 0.05020376 -0.06277959
000020 3c a0 90 be d7 6e 5b 3e d6 ba 11 bd 95 f2 5e 3e
       -0.2824725 0.21429001 -0.03557857 0.21772225
000030 3c 0f 1f be d8 f8 1d be bd 0e b9 be 0b 0c 5d bd
       -0.15533155 -0.15426958 -0.36144057 -0.053966563
000040 37 6e 4d be 9d 9f 04 be 03 37 d1 bd b4 37 0b 3e
       -0.20061575 -0.12951513 -0.10215571 0.13595468
000050 e2 8c fe bd 98 48 9b bd 21 87 39 bd 6b 62 a8 be
       -0.12429215 -0.075822055 -0.045294885 -0.32887587
000060 92 11 06 3f b7 f6 4b 3d 29 9f b3 3c ce b2 19 be
       0.5237056 0.049795832 0.02192648 -0.15009615
000070 71 83 40 be 78 6f 9a bd 55 fe 37 3d 72 dd 7f be
       -0.18800141 -0.07540792 0.044920284 -0.24986818
000080 18 6d 09 3e e4 92 cd bd 8c 23 87 3d cb 08 75 be
       0.13420522 -0.10037783 0.06598577 -0.23929136
000090 ea 2c bc 3e 86 22 94 bb 1d a1 e4 bd 11 75 81 3e
       0.36753017 -0.004520717 -0.111635424 0.25284627
0000a0 19 8a 1e bc 0d 87 76 3e 44 ea 3f 3e 0a 5b 21 3e
       -0.00967648 0.24074955 0.18741709 0.15757385
0000b0 59 e2 37 3e cf b4 35 be ec 22 4a be e9 c7 bf 3c
       0.17957439 -0.17744754 -0.19739884 0.023410754
0000c0 53 e7 9e 3e 8f 12 b4 3c c9 c9 93 be 33 b8 56 be
       0.3103586 0.021981506 -0.28864887 -0.20968704
0000d0 fd af 19 be 1c 78 1f be 4b fc 87 be fa 38 8f bc
       -0.1500854 -0.15573162 -0.26559672 -0.017483223
0000e0 4c e3 c9 3d 48 b1 1b 3e ae 9b 25 3e 74 d4 71 be
       0.098578066 0.15204346 0.16172668 -0.236162
0000f0 7d 14 b3 3d 3e 9a 4f be 4c 78 9d 3d a4 02 d8 3e
       0.08744142 -0.20273682 0.076889604 0.42189515
000100 d3 e1 ae bd c8 ba a3 3d b5 80 8b be 48 f6 1d be
       -0.08539166 0.0799461 -0.27246633 -0.1542598
000110 85 23 c0 3c d0 43 11 3e 70 73 cb 3c 4e 45 f5 be
       0.023454437 0.14186025 0.024835318 -0.47904438
000120 47 a4 6b 3e 72 96 0c 3d 3c 0b 9d 3e fc e6 31 3e
       0.23011886 0.034323163 0.30672634 0.1737327
000130 1e 6d aa 3d 98 ce 2b 3c 04 43 9c be 0e 68 5d be
       0.08321594 0.0104862675 -0.3051988 -0.21621725
000140 65 b6 b8 bd 11 cd 5c 3d 25 75 8a 3e 26 4b 62 3d
       -0.09019164 0.053906504 0.270425 0.05524745
000150 67 1e 50 3e 4b fc 58 be db f7 5b 3d c9 4a bd 3d
       0.20324098 -0.21189992 0.05370317 0.0924278
000160 57 28 9b bc 8b 0f d2 bd 08 c6 40 bd ba 0e 26 be
       -0.018940134 -0.10256871 -0.047063857 -0.16216555
000170 e6 db 0e be a3 e8 d2 3e 48 25 87 3c 78 e8 a6 3e
       -0.13951072 0.41193113 0.01649727 0.32599235
000180 43 37 bd 3d ae 29 67 be 3c a8 02 3e 5e f8 c3 be
       0.09239056 -0.22574493 0.12759489 -0.38275427
000190 bd cf 8c 3c 94 d0 df bd aa 39 83 3d 8b a2 c7 bd
       0.017188901 -0.10928455 0.06407483 -0.097477995
0001a0 8a 6e 94 be ff ae 00 3e 50 c7 13 be 6a d4 52 3e
       -0.28990585 0.12566756 -0.144315 0.20588842
0001b0 d4 be 1f be 38 8d 89 3e d2 e9 a1 3c 07 48 88 3e
       -0.15600139 0.26865554 0.019764815 0.26617453
0001c0 8c da 16 3e bd fd 89 3d 98 25 c7 bc e9 aa bc bd
       0.14731807 0.0673785 -0.024309918 -0.09212286
0001d0 37 d0 c8 be 31 ce fe bd 67 a4 e7 bc 92 25 1c be
       -0.39221355 -0.12441672 -0.028276635 -0.15248707
0001e0 be d1 bd 3d 9e 0e c5 3d bb eb 02 be 95 76 2e be
       0.09268521 0.09621929 -0.12785237 -0.17037423
0001f0 9a bf 2f bc ba 04 06 3e 9e ae 6f be 3e 3a 30 3e
       -0.010726834 0.1308774 -0.23406455 0.17209718
000200 36 c9 01 be dc 64 0d 3e 78 99 88 bd 23 df 76 3e
       -0.12674412 0.13808006 -0.06669897 0.24108557
000210 82 18 1f be b3 2f 4d 3e e6 47 02 3e d2 c4 96 bd
       -0.15536693 0.20037727 0.1272274 -0.07361759
000220 c6 9d e5 bd 46 e7 13 3e 77 53 e6 be 2e 7e 21 3e
       -0.112117335 0.14443693 -0.44985554 0.1577079
000230 60 25 93 be 11 ca b8 3e 52 29 98 3a fe 19 04 be
       -0.28739452 0.36091664 0.0011608994 -0.1290054
000240 66 a8 b7 3d e9 c1 c3 3d ce 74 c1 3d f9 b5 b5 3e
       0.08967666 0.0955847 0.09446107 0.35490397
000250 a6 f6 d3 bd 36 71 ec bd 0a 93 52 3e 4d 78 e6 3d
       -0.10349779 -0.11545031 0.20563903 0.11253414
000260 dd 33 02 be 8b 73 40 3e ec f4 65 bd 4c 78 17 be
       -0.12715097 0.18794076 -0.05614178 -0.14791983
000270 7a 46 da bd 67 04 83 3e 6a d7 c0 3d 4f f1 8b 3c
       -0.106579736 0.25589296 0.09416087 0.017082838
000280 b9 23 6b 3d 50 8a 82 3e 25 a1 eb 3d 7c c2 af 3d
       0.057407115 0.2549615 0.11505345 0.08582017
000290 26 ba 8e 3b e0 15 a9 3e 34 88 96 bd 48 4d e9 3d
       0.0043556867 0.33024502 -0.073501974 0.11391693
0002a0 e9 e5 0a 3f 11 b4 72 3c 55 e5 40 bc 52 de ac 3e
       0.54257065 0.014813439 -0.011773427 0.33763367
0002b0 a4 20 f5 bd 5f 17 84 be ae 1f a4 3e 05 69 0a 3c
       -0.11969116 -0.2579908 0.3205542 0.00844789
0002c0 7a 21 11 be e4 f2 5b bd dd f3 3a be 91 36 87 3e
       -0.14172927 -0.053698435 -0.18257089 0.26408818
0002d0 8b 2a 07 be 2f 2a f3 3d 1a b3 f3 bb 11 78 12 3c
       -0.13199823 0.1187328 -0.007437122 0.008939759
0002e0 6a 93 93 3e 8c 4d d3 3c fc 7f a3 3e 11 81 1a be
       0.28823406 0.025793813 0.31933582 -0.15088297
0002f0 31 87 80 bd 6e 61 53 bb 4e d8 f2 3d 89 fc 47 be
       -0.06275786 -0.0032254118 0.11857663 -0.19529928
000300 37 f1 c4 3e 35 e3 1d be cb 99 a2 3d 02 ef ef 3c
       0.38465282 -0.15418704 0.0793949 0.029288772
000310 77 d2 d5 3d 62 db a4 3e 62 da 0d 3e 0d e6 e4 bc
       0.104405336 0.32198626 0.13852838 -0.027941728
000320 69 aa bf be b2 03 b8 be 74 84 e5 bc fa 99 f6 3d
       -0.374347 -0.3594032 -0.02801726 0.120410874
000330 e8 6c c0 3e 75 36 f3 bd 8b c7 99 3c ce d5 c1 bd
       0.3758309 -0.11875621 0.018771907 -0.09464608
000340 61 e3 d5 3d f3 2a d1 3c df ea 8a be 5c ab 7f 3c
       0.1044376 0.025533175 -0.27132317 0.01560482
000350 77 f3 1d bd 0e a2 ed 3d 20 3b 1f 3e e5 11 ba 3d
       -0.038562264 0.11603175 0.15549898 0.09085444
000360 44 e1 ac bd 8f fb 88 3e ed 22 c7 bd cf 60 cf 3d
       -0.084414035 0.26754424 -0.097234584 0.10125887
000370 09 af 1c 3e a2 dd 54 be 28 94 f6 3e ec 88 04 3d
       0.15301146 -0.20787671 0.4815991 0.03235714
000380 7c 94 a6 bd e9 bb ef bc a3 0e b5 3e bb 8c 15 3e
       -0.0813379 -0.029264407 0.3536273 0.14604466
000390 77 87 29 be c0 a8 d3 be c2 d9 80 3e c6 7c be be
       -0.16555582 -0.41339684 0.25166136 -0.3720457
0003a0 57 ff c5 bd e1 67 34 be 7c 7c 8c bc ae 87 5f 3e
       -0.09667843 -0.17617752 -0.017149203 0.21829101
0003b0 2a b8 d2 bb e4 9c ea 3c 20 61 4d be e6 d0 56 3d
       -0.0064306455 0.028639264 -0.20056581 0.052445315
0003c0 5c 72 16 3e 0f fe 6a bd ab 13 16 bd 05 6a 0d be
       0.14692062 -0.057371195 -0.03663985 -0.13809974
0003d0 5c 87 50 be b6 56 a2 bd 60 2b 80 be af e2 25 3e
       -0.20364136 -0.07926695 -0.25033092 0.16199754
0003e0 b4 1d af 3d 78 fc 32 3e 7e 5a e5 bd cb 7c f4 3e
       0.08550587 0.17479122 -0.11198901 0.4775146
0003f0 97 2e 8b 3e b2 d2 0c bd c0 1e 89 be 8f bd 54 3e
       0.27183983 -0.034380622 -0.26781273 0.20775436

linear_layer.0.bias f4 [100]
000000 ff 9c ad bc 88 04 8f bd a0 90 44 3e 02 c3 fa bc
       -0.021193026 -0.06983286 0.19195795 -0.030610565
000010 45 bd c6 3c d1 a2 c1 bc 30 ef 9d 3d 66 b0 06 3e
       0.024260173 -0.023637207 0.07711637 0.13153228
000020 51 2a 40 be 27 37 67 3d 3e 8c 60 3d d5 32 fa bd
       -0.18766142 0.05644908 0.054821245 -0.12216727
000030 97 b7 2a 3e b2 08 3c 3e 8b f1 2f 3d 3d a4 c9 b8
       0.16671596 0.18362692 0.042954963 -9.615019e-05
000040 72 d5 09 be 5e cb 8e 3c 7c 5d cd bc 73 da 4a bb
       -0.13460329 0.017430957 -0.02506899 -0.003095296
000050 66 a7 e4 bd 35 21 88 bd 4d 9c 39 bd e7 e4 a2 3c
       -0.11164741 -0.06646959 -0.045315076 0.01988454
000060 fd c1 32 3d 8a e2 1d 3e 14 5d ce 3d 1f 4c 0b bd
       0.043642033 0.15418449 0.10076347 -0.03400814
000070 d4 f5 57 3d 97 b3 e0 bd 83 5e 8c bd 32 4d 81 bc
       0.052724674 -0.10971754 -0.06853964 -0.01578388
000080 11 97 dd 3d d4 91 c9 bd ca 6d a3 bd 10 1b 81 3d
       0.10819829 -0.09842268 -0.07979925 0.0630399
000090 92 4e dd bc 78 44 1f be fe c2 1e 3e 30 1c 1b 3e
       -0.027015004 -0.15553463 0.15504071 0.15147471
0000a0 e0 ee b5 3d 55 b4 44 bd dc b0 95 3d ec 62 8b be
       0.088834524 -0.04802354 0.07309124 -0.2722391
0000b0 fc fe a0 3c 89 cc e2 bd 11 af 03 be 27 2f 87 3c
       0.019652836 -0.11074168 -0.12859751 0.016501976
0000c0 f4 2d b3 bd c5 a4 2c be d5 ce 4f 3e 53 82 9c 3d
       -0.08748999 -0.1685973 0.20293744 0.07642045
0000d0 11 77 8e bb 17 56 6e be be a1 c4 3d 87 9b dc 3d
       -0.00434769 -0.23275028 0.096011624 0.10771852
0000e0 ab 96 f4 3c 19 a5 24 bc f7 2b d7 bb e3 c9 1c 3c
       0.029857 -0.010049128 -0.0065665203 0.009569618
0000f0 89 d2 e0 bd fc ef 99 bc 6b 07 91 3b 63 29 20 3e
       -0.109776564 -0.018791191 0.004425933 0.15640788
000100 69 58 00 be f6 cd a9 3d 1b 13 46 be b4 bf 25 3b
       -0.12533726 0.08291237 -0.19343226 0.0025291266
000110 52 18 aa bd dc 23 c6 3d 42 09 2e 3e 6d 9f b3 bd
       -0.0830542 0.096748084 0.16995719 -0.087706424
000120 bc 39 c8 bd d2 62 4a 3e 30 48 61 bc 60 fb e8 3c
       -0.09776637 0.1976426 -0.013750121 0.028440177
000130 16 fe 7b 3c 1f f4 9f 3d 99 0c e3 bd b7 fb e7 bc
       0.015380403 0.07810234 -0.11086387 -0.02831827
000140 8a 0d 1d 3e af 1b fd 3d de 9a 5f bd 78 f3 5c 3c
       0.15337196 0.12358796 -0.054591052 0.013485782
000150 6b 28 07 3d 01 ef 2b 3d d9 d8 ed 3d a8 bb 17 3e
       0.03299753 0.04197598 0.11613626 0.14817679
000160 be 99 db bd ce 93 ce bd 3d 9d 09 be b5 0f 45 be
       -0.10722683 -0.10086785 -0.13438888 -0.19244273
000170 9d 7a 8d bd c3 9b 01 3e d4 e5 0a bd ee 2f 2b 3d
       -0.06908152 0.12657075 -0.033910587 0.041793756
000180 bf af 6a 3e 4e 59 6e 3d d3 20 97 bd 84 9d 57 3d
       0.22918604 0.058190636 -0.073793076 0.052640453

linear_layer.1.weight f4 [100, 100]
000000 33 e1 67 3d 69 8c 1a 3e fe 31 84 bd d9 cf b8 bc
       0.05661125 0.15092625 -0.06454848 -0.022560047
000010 49 45 80 bc 36 13 86 3b f7 10 cd 3d a0 9f 6a 3d
       -0.015658038 0.0040916456 0.100130014 0.057281137
000020 a7 29 1a 3e ba 73 1b be 31 ae a2 bd cc c6 23 3c
       0.15054952 -0.15180865 -0.079433806 0.009996127
000030 66 67 71 be 07 64 8e bd 4f e3 88 3d 7b 83 8a 3d
       -0.235746 -0.069526725 0.06683981 0.06763359
000040 22 cc 62 be 3d b8 1d be d0 2e 53 3e 32 06 51 3b
       -0.22148183 -0.15402313 0.20623326 0.0031894562
000050 8e ca b9 bd ac 14 e2 3d c2 1a 0c 3d 31 4d 1d 3e
       -0.09071837 0.11039099 0.034205206 0.15361477
000060 1d 42 8a bd bb ee ab 3b 0a 11 b0 bd 80 2a 5a bc
       -0.06750891 0.0052469647 -0.08597 -0.013315797
000070 2c e5 71 be a0 68 ba bd 1b 63 5b bc 0f 67 5d ba
       -0.23622578 -0.09101987 -0.013390328 -0.0008445838
000080 d4 dd 2d bd 6f aa 66 3e 16 79 aa bd e0 cb 81 bd
       -0.04244788 0.22525953 -0.083238766 -0.06337714
000090 5c 74 ba bd 40 ac 37 bc f1 cf 04 3e 3b be 11 be
       -0.09104225 -0.011210501 0.12969948 -0.14232723
0000a0 94 a9 54 3d 3a 9b 1e 3e 33 ff 0d be 32 b1 68 bd
       0.051919535 0.15488902 -0.13866882 -0.05680961
0000b0 a7 a9 0d 3b 3f d6 0c bd e0 ae 65 3d 00 af 05 3d
       0.0021616013 -0.03438401 0.056074977 0.032637596
0000c0 36 7f 0e 3b 61 34 fb 3d d1 de 47 bc f6 4c 91 be
       0.0021743304 0.1226585 -0.01219912 -0.2837903
0000d0 8b b2 ed 3d 70 16 bd 3d 3a 15 07 bd a1 fe 5d be
       0.1160632 0.09232795 -0.032979228 -0.21679164
0000e0 51 4c 0b be 8c f1 9c bd 5e 7d 25 3e 4e 9b 2d 3e
       -0.13603331 -0.07663259 0.16161105 0.16953775
0000f0 3c b8 5c 3c ac ae 82 3d 5d ca 2d bc d3 d3 23 be
       0.013471659 0.06380972 -0.010607329 -0.15998773
000100 ff a2 c2 bc 18 28 3b 3e c7 d5 70 bc 67 3a 51 3d
       -0.023759363 0.18277013 -0.014699406 0.051081087
000110 0d 5e c6 3c 17 98 b4 bd 88 14 32 3c 28 86 ca 3d
       0.024214769 -0.08818071 0.010869153 0.098888695
000120 7e a3 94 bd 4f 5b 2d 3d bd 6f 7b be 36 e6 f6 3c
       -0.07257746 0.042323407 -0.24554344 0.03013907
000130 3c db 20 bd a5 ef ff 3b 7b d0 32 be a1 b4 f0 bd
       -0.03927158 0.0078105503 -0.17462341 -0.11753202
000140 cd ec 02 bd 1c ca 55 bc 17 ff cf bc 58 a3 cc bd
       -0.031964112 -0.013048675 -0.025390191 -0.09992093
000150 6e 15 75 3d d7 63 01 3e 93 38 e6 bc 32 32 9c bd
       0.05983489 0.12635742 -0.028103149 -0.076267615
000160 a1 2c bf 3d 72 c8 f7 3d ed e4 d3 bb b9 9b 08 3e
       0.09334684 0.12098779 -0.006466499 0.13340653
000170 c6 0c b3 bd 32 04 85 bd 74 85 0a bc 5d bd d6 bd
       -0.08742671 -0.06494941 -0.008454669 -0.10485337
000180 b1 7c 7e bd 4a 3d 98 bc 50 05 06 be 70 44 a1 bd
       -0.062130634 -0.018583912 -0.13087964 -0.078743815
000190 dd dd 47 3d da 9f 5f 3e f1 e2 dc bc 6f 19 7c 3d
       0.04879557 0.21838322 -0.026963683 0.061547693
0001a0 12 2a 67 bd 72 de 2c be 3e 09 09 3e 2d c0 8f be
       -0.056436606 -0.16881731 0.13382432 -0.28076306
0001b0 c5 5d 44 bd aa 66 93 bd b8 25 89 bd d4 6d 20 3d
       -0.047940988 -0.07197316 -0.066966474 0.03916724
0001c0 40 a0 dc 3d 3c 73 f3 3d 65 c3 23 3e 35 55 19 be
       0.10772753 0.118872136 0.15992506 -0.1497391
0001d0 f0 79 29 bd 44 c9 92 be 22 5d 52 3c c2 3e 42 3e
       -0.041376054 -0.28669178 0.012839587 0.18969253
0001e0 1f ab e5 bd 47 a5 b5 bc 16 55 ef 3c e9 16 f4 3d
       -0.112142794 -0.022173537 0.029215377 0.11918432
0001f0 6e ac 41 3e da 71 a1 3d 0c 28 bd bd d4 b1 f6 3d
       0.18913433 0.078830436 -0.09236154 0.12045637
000200 b6 cf fc bd 1e 5b a3 bd 65 ae 8d bd f4 b9 d0 bd
       -0.12344305 -0.079763636 -0.06918029 -0.10191718
000210 05 41 32 3e 1b f2 e6 bd d1 08 dc bd 7f 68 12 3d
       0.17407615 -0.11276647 -0.10743869 0.035744186
000220 03 47 41 3e 90 3f 9e 3c d5 74 07 bd 0b b4 b0 bd
       0.18874745 0.019317418 -0.033070404 -0.086280905
000230 cd d7 4e 3e 2b 1e cb bd db 76 00 3e e8 42 34 be
       0.20199509 -0.099178635 0.1254534 -0.17603648
000240 e7 93 4d 3e 61 47 6b be 3d 17 8a be d5 cc 86 bd
       0.20075952 -0.22976448 -0.26970854 -0.06582037
000250 70 a6 22 3d 04 da bc bd 85 bb 91 bc f5 dd 0f bd
       0.03970951 -0.09221271 -0.017789612 -0.035123784
000260 2d ac b3 3d e0 dd 2a be 97 d2 2b bd 7b 8a c3 3d
       0.08773074 -0.16686201 -0.04194888 0.095478974
000270 75 65 d5 3c dc 29 99 bd 51 3b f5 bd 97 b5 2d bd
       0.026049355 -0.07478687 -0.11974204 -0.042409506
000280 fd 9d 09 3e 18 48 b5 bd a5 18 a5 bc 59 0e 68 3d
       0.13439174 -0.088516414 -0.020153353 0.056654308
000290 6c 4c 0e be ae 2b 18 3e 7b 52 16 bd 9a ff 3b be
       -0.1389634 0.14860412 -0.036699753 -0.18359223
0002a0 ce 5f bf be 89 4c 6d 3e 45 38 a7 bc 38 88 a2 3d
       -0.3737778 0.23173727 -0.020412574 0.07936138
0002b0 08 15 40 3d 06 86 09 3e ce d1 e6 3d 71 ae 3f 3e
       0.046895057 0.13430032 0.11270486 0.18718888
0002c0 f8 b0 ed 3b 03 b6 ad bb 3a d4 e2 bd a9 2b 48 3d
       0.0072537623 -0.0053012385 -0.11075635 0.048869763
0002d0 b0 73 4f 3e 21 7a 52 be 1b ec 24 bd 38 79 a6 3d
       0.20258975 -0.20554401 -0.04026423 0.081285894
0002e0 c5 17 81 3c 6e b5 9d bd 8e 81 02 3d 2f 6d 1d 3d
       0.015758405 -0.077006206 0.031861834 0.038434204
0002f0 be 54 5e 3c 5a 8c 08 be b9 d3 a8 3d 89 a1 00 be
       0.013570009 -0.1333479 0.08243508 -0.12561621
000300 9b dd f9 3c ef 69 c6 bd 7d 05 fa 3d 8e 15 06 be
       0.030501178 -0.09688174 0.12208078 -0.1309416
000310 d3 aa 23 3e de 96 10 3e d6 2f ef bd 1b 02 4c 3e
       0.15983133 0.14120051 -0.11679046 0.19922678
000320 ac 4d e4 bd a7 62 4c bd 80 b4 d7 3d b1 12 86 bd
       -0.11147627 -0.04989877 0.105324745 -0.06546534
000330 00 8a 03 be 57 59 45 3d 92 12 07 bd 2c 17 1b 3e
       -0.12845612 0.048180904 -0.032976694 0.15145558
000340 eb dc 41 be 26 45 e0 bc f7 d4 ae 3d fe 48 17 3d
       -0.1893193 -0.027376723 0.085367136 0.036934845
000350 43 c0 d0 bd 1a ae 21 3c 67 4e ed 3c 3f 49 f4 bc
       -0.10192921 0.009868169 0.02896805 -0.029820083
000360 b7 8d 90 bc 1d ed ff 3d 56 0d 29 be 99 ba 2b be
       -0.0176457 0.12496398 -0.16508994 -0.167704
000370 f3 51 9b 3d ba 94 9c 3d 6d 20 1b 3d 6e b5 09 be
       0.0758399 0.07645555 0.03787272 -0.13448116
000380 4d 85 23 be 71 dd 2a be 77 3c 3a 3d bc f0 9c 3d
       -0.15968819 -0.16686036 0.04546782 0.07663104
000390 b7 12 22 bd fd 25 cd 3d e9 0b 01 be b5 cc 99 bd
       -0.03956863 0.10017011 -0.126022 -0.07509748
0003a0 d6 25 07 3d e3 12 00 3c ae e9 8c 3c 8d fe e6 3b
       0.032995068 0.007817003 0.01720127 0.007049388
0003b0 95 12 d4 bd 07 ad ad bd 0a 9f 86 bd 63 cf 89 3c
       -0.10355107 -0.08480268 -0.06573303 0.016822523
0003c0 61 36 6b 3e d6 e0 4a 3e df 21 b2 bc 2d 60 0d 3e
       0.22969963 0.1981233 -0.021744667 0.1380622
0003d0 82 2c 00 be 87 1c 15 3e ae e0 e5 3d d3 bd 09 be
       -0.12516978 0.14561664 0.11224495 -0.13451318
0003e0 e6 65 8c bd f4 5a bb bd a0 e8 47 3d 7e c2 f5 3b
       -0.06855373 -0.09148207 0.048805833 0.007499992
0003f0 61 1d 3f bd 0c 14 83 bd 52 65 17 be 34 29 05 bd
       -0.046658877 -0.06400308 -0.14784744 -0.032509997

linear_layer.1.bias f4 [100]
000000 9c f1 95 bd 72 f8 a4 3d 71 4d cb bc 61 1d 33 3e
       -0.07321474 0.080552 -0.0248172 0.17491676
000010 8b 97 a6 bc c1 bf 75 bd b9 49 e6 bd 02 c9 f6 3d
       -0.020335933 -0.059997324 -0.1124453 0.12050058
000020 25 09 dd bd 4d ff 87 3d e5 91 a0 bd e0 09 a9 bc
       -0.1079276 0.06640492 -0.07840327 -0.020634592
000030 9b 15 02 3e e6 54 c0 3d 2f 16 8c bd 78 07 96 bd
       0.12703554 0.09391193 -0.06840169 -0.07325643
000040 07 0e e0 b9 0a 60 f6 3d 48 65 8e 3c cd 41 67 bd
       -0.0004273506 0.12030037 0.017382279 -0.056459237
000050 41 05 48 bd 0e 91 38 3d 15 e2 ed bc cb 8c 96 3d
       -0.048833136 0.04506021 -0.029038468 0.07351073
000060 93 63 df 3d c2 e6 dc 3c 9c b9 13 3e 7d e1 52 bd
       0.10907664 0.026965503 0.14426273 -0.051484574
000070 4c cf b7 bd b2 6b 8b bd 66 66 5a be 3a f4 b5 3d
       -0.089750856 -0.068076506 -0.21328124 0.08884473
000080 af ac b0 3b e4 f0 90 bd 5f 1a 88 bd 50 d1 7c 3d
       0.0053916792 -0.07077196 -0.06645655 0.061723053
000090 0e 68 00 3e 01 ac f4 bd f7 c2 3e 3c 7b 06 a7 bc
       0.12539694 -0.1194687 0.011643163 -0.020388832
0000a0 19 5c e0 bd ab eb ea bd a6 95 01 3d fd 27 1c 3e
       -0.10955066 -0.11470731 0.031636856 0.1524963
0000b0 ae 49 8b bd 14 79 36 3c 1f 88 86 3a f6 dd f3 bd
       -0.06801163 0.011137266 0.0010263956 -0.1190757
0000c0 f5 93 43 3d dd d4 d0 bd 0f 07 3a bd d3 bb 08 bc
       0.047748525 -0.101968504 -0.045416888 -0.008345562
0000d0 06 bc 2c bb c9 13 e6 bd ba dd 4f 3c 1f 7b d6 3c
       -0.0026357188 -0.112342425 0.012687141 0.026181756
0000e0 fb df 02 3e e0 47 a3 bd 41 b7 4e bb 83 8a 02 3d
       0.12780754 -0.079726934 -0.0031542333 0.031870376
0000f0 a9 c3 e4 bd 62 fa c1 bb 87 c1 0b 3d 76 fb 22 3e
       -0.11170132 -0.0059197405 0.03412011 0.15916237
000100 af 4d 0c 3d 1a 35 1a 3d 53 a2 c9 bd 5b 30 ae 3c
       0.034253772 0.037648298 -0.09845414 0.021263292
000110 6a 24 89 3b d1 2b 24 be ee 41 b8 bd 58 3d 01 3c
       0.004185249 -0.1603234 -0.0899695 0.007888161
000120 92 f1 2b bd 9e fe 0c bd 04 9e 8e 3d 18 7b 15 3c
       -0.041978426 -0.03442251 0.06963733 0.009123586
000130 0a ec 9e 3d 7c c1 f1 bd 4e 22 72 3d 9a ce 52 bd
       0.07759865 -0.11804482 0.059114747 -0.05146656
000140 bb e4 0a be aa 9d 8a bd 6a 56 ef 3c a2 dc f2 bc
       -0.13563816 -0.06768353 0.02921601 -0.029646222
000150 9c 52 b8 3d 26 88 eb 3a 5d bf 5f bb 8b d1 65 3d
       0.090001315 0.0017969653 -0.003414116 0.05610804
000160 e2 34 1a 3e e7 25 d5 bc cd 63 aa bd 5a 6a 1a be
       0.15059236 -0.02601905 -0.08319817 -0.15079632
000170 40 64 b7 3d 93 b5 e0 3c fa ba 42 3d 58 ca 19 3d
       0.08954668 0.027430331 0.047541596 0.037546486
000180 d2 6b 83 3d 49 aa 61 bb 9f 74 28 bc ed 8c ad 3d
       0.064170495 -0.0034433773 -0.010281711 0.08474145

linear_layer.2.weight f4 [100, 100]
000000 db 45 5a bd 76 ed c6 3c 83 fe 8b 3d 0a 5a 74 be
       -0.053289276 0.024283152 0.06835654 -0.23862472
000010 e1 ae b8 3d 0a 3a 28 bd 4b 38 83 3d a8 7d af bd
       0.090177305 -0.041070975 0.064072214 -0.08568889
000020 07 82 c6 3d 5c 3e 53 bd fd a1 2b bd e6 f6 17 3d
       0.096927695 -0.051573142 -0.04190253 0.037100695
000030 1f 5e 7f bd 0e 1f be bd 4f 91 d1 3c fc 9b 0d be
       -0.06234562 -0.09283267 0.025581984 -0.13829035
000040 58 95 43 3d bd f4 aa bd ec 2a 15 bd 89 60 05 3e
       0.047749847 -0.083474614 -0.036417887 0.13025106
000050 3e 83 d2 3c f3 35 3f 3d f7 88 7c bd ea 37 99 bd
       0.025697347 0.04668231 -0.061654057 -0.07481368
000060 06 ec 06 be af 36 15 3b e6 01 61 be 09 63 93 bc
       -0.13175973 0.002276819 -0.2197338 -0.01799156
000070 98 b4 b1 3c 4a 12 91 ba 3a b4 4f 3d bc 02 33 bd
       0.02169256 -0.0011068073 0.050708987 -0.04370378
000080 5c 29 39 3c fe 18 9e 3b 5e 98 84 3d 8e 62 10 bc
       0.011301365 0.0048247566 0.06474374 -0.00881256
000090 91 74 d6 bc 79 6f 95 3e be b9 d8 3c ec 59 86 bd
       -0.02617863 0.2918661 0.026455756 -0.0656012
0000a0 32 f8 11 3e 2d b5 2a 3e 7a 1c 9c 3d c5 33 56 3c
       0.14254835 0.16670676 0.07622619 0.013073866
0000b0 0d a5 fc 3d de a5 a6 bc 03 14 f3 3d 9b 68 3e 3d
       0.123361684 -0.020342764 0.11869051 0.04648648
0000c0 18 d9 20 be 59 8c ef 3d 51 42 1a 3c 88 8b 7b 3d
       -0.15707815 0.11696691 0.009415225 0.061412364
0000d0 9e 04 0a be 0b 7d 30 3d 3e b6 f1 bd 49 59 18 bd
       -0.13478324 0.043088 -0.11802338 -0.037194524
0000e0 39 4b ac be 59 dc 64 3d 01 4e bb 3d ad 0c 3c 3c
       -0.3365114 0.055874202 0.091457374 0.0114776315
0000f0 aa 97 f5 bc aa f9 bb 3a 8c a7 df bc 9f 9c cc bc
       -0.029979546 0.0014341373 -0.027301572 -0.024977027
000100 e3 19 1a 3d f8 c0 fd 3d f2 78 75 3d 8b bd 70 bd
       0.037622344 0.123903215 0.059929796 -0.058774512
000110 04 93 b3 3d 46 3d f4 3c d8 bc 7b 3e e9 ca 81 3e
       0.087682754 0.029814374 0.24583757 0.2535012
000120 15 b1 86 3c 7a f8 fe bd e5 f1 4a be 78 3b e1 3c
       0.016441861 -0.12449737 -0.19818838 0.027494177
000130 ee 75 13 bd 22 a6 a3 bc 6b d1 9c bd ee 74 cd 3d
       -0.03600114 -0.01997668 -0.07657131 0.10032068
000140 f4 b1 b3 bd 3b 25 6b 3d 79 21 be bb d9 b2 d9 3d
       -0.08774176 0.057408553 -0.00580233 0.106298156
000150 19 8d 70 3e 73 99 09 be 73 59 25 3e ad 2f 8b be
       0.23491324 -0.13437442 0.16147403 -0.2718481
000160 5e 89 96 bd 7e ca e2 bd 94 d6 45 3d e5 dc 13 3e
       -0.073504195 -0.110737786 0.04830034 0.14439733
000170 88 e3 97 ba 57 6d ee bd dd 22 10 bd af 50 e5 bc
       -0.0011588195 -0.11641949 -0.0351895 -0.027992574
000180 46 7c 91 bd 16 8c a4 3c 56 01 4f 3c 5b 3b 66 3d
       -0.071037814 0.02008633 0.012634596 0.05620895
000190 ee 0f 75 bc 35 64 c3 3c fd 54 4a bd d5 0c a8 be
       -0.014957411 0.023851493 -0.049397457 -0.3282229
0001a0 7f 19 f4 3b 63 24 9a 3d 33 8d 91 3d dc 78 86 be
       0.0074493284 0.075264715 0.0710701 -0.26264083
0001b0 1f d8 42 3d 36 66 0f be 85 aa e4 3d 23 07 02 be
       0.04756939 -0.14003834 0.111653365 -0.12698035
0001c0 1a 9c 97 bd 2c 23 99 be ff c4 b4 bd e6 54 12 3d
       -0.07402821 -0.29909647 -0.088266365 0.035725497
0001d0 98 fd a9 bb 8b 0d cd bd 89 a1 aa 3d 4c b1 6f 3d
       -0.0051877014 -0.10012349 0.08331592 0.058518693
0001e0 17 b2 e6 3d b2 9d 0f 3e 6e df 37 bc ed 0e 99 bd
       0.11264437 0.14025 -0.011222703 -0.0747355
0001f0 ba 26 39 3d 1f 5e 5d 3d 26 ed 87 be 38 3a bf 3d
       0.04520295 0.05404484 -0.26548117 0.09337276
000200 14 ce a2 3d 70 c3 64 3c b3 c5 f4 3d 4f 91 50 be
       0.079494625 0.013962612 0.11951771 -0.20367931
000210 d9 53 8d 3e 3d 90 d6 3d 0d 06 32 bd d2 31 a6 bd
       0.27603033 0.1047673 -0.0434628 -0.08114971
000220 c4 36 21 bb 7c 35 a6 3d c4 f4 75 3e ba ee bd b9
       -0.0024599293 0.0811567 0.24019152 -0.00036226754
000230 bb d3 3f 3e 89 7d f6 bb cc 2b 18 3e 2a 1f 98 3c
       0.18733113 -0.007522289 0.14860457 0.018569548
000240 dd 92 00 3e 45 6a 38 3e a9 59 33 be 56 e5 6e 3d
       0.12556024 0.18009289 -0.17514671 0.05832418
000250 60 08 61 be e4 2f a1 3d 05 4b c6 bc ce 2b 2a be
       -0.21975851 0.078704625 -0.024205694 -0.16618273
000260 fe a2 b2 3d 29 ea a8 3d 90 38 62 3e ab 0a 1b 3e
       0.087224945 0.082477875 0.2209189 0.15140788
000270 04 f2 a9 bd a5 b2 87 3c d9 26 81 bd 9c 88 95 bd
       -0.08298114 0.016564677 -0.06306238 -0.07301447
000280 aa 69 43 3d f9 d9 16 3e 13 84 43 3e 50 1c ed bc
       0.04770819 0.14731587 0.19093351 -0.028944165
000290 4a 1c 7b be 6d e2 78 bd 41 c1 16 3c ef 1f b1 3c
       -0.2452251 -0.06076281 0.009201349 0.021621672
0002a0 9f 91 84 3c bc e2 28 3d 30 af 89 bc 29 06 93 3d
       0.016182719 0.041231856 -0.016807169 0.07178909
0002b0 bd e0 8d 3c f4 91 01 be 1c 85 82 ba d9 76 a3 bd
       0.017319078 -0.12653333 -0.0009957883 -0.07981653
0002c0 d7 80 2d bb 24 7d e5 3d 8b 50 dc 3b 9f 12 c5 3d
       -0.00264745 0.11205509 0.0067234687 0.09622692
0002d0 b9 a4 a0 3c f1 43 b2 bd 77 b6 02 be 77 d2 1a be
       0.019609796 -0.08704365 -0.12764917 -0.15119348
0002e0 a0 ce 3d bd 33 a7 08 3e b8 ad 6f 3d 3e 6d f4 bd
       -0.04633963 0.13345031 0.05851528 -0.11934899
0002f0 fc ff a6 bc fe 2f 86 bd de 47 54 3d c6 b1 d2 3d
       -0.020385735 -0.065521225 0.05182635 0.10287814
000300 7e 72 51 3d 83 ef 09 be 6a 42 4a b9 9a 9a c8 bd
       0.05113458 -0.13470273 -0.00019288962 -0.09795113
000310 e0 de 70 3d a7 c8 22 3d e9 c5 86 3c 12 d1 34 bd
       0.0588063 0.03974214 0.016451793 -0.044144697
000320 49 5a d7 bc 9c 83 c2 bd 1d 51 f8 bc bd 19 5b 3d
       -0.026288169 -0.09497759 -0.030312115 0.053491343
000330 8a ae 1c 3e 34 d1 af bd cb d3 a3 3d 14 1b 07 3d
       0.15300956 -0.08584824 0.07999381 0.032984808
000340 fd f3 6a bd 0a d4 4c 3e 32 16 23 be 9b fa 05 be
       -0.05736159 0.20002761 -0.15926436 -0.1308388
000350 34 f7 c2 bd f6 88 28 be c6 ec 20 bd 48 06 86 3d
       -0.095198065 -0.16458496 -0.039288305 0.06544167
000360 d1 fb 3a 3e 5a a8 d1 3d 6c 4c 28 be 5a ef f1 bb
       0.18260123 0.10237189 -0.16435403 -0.0073832693
000370 e0 80 08 be 93 26 f0 3d be 75 81 be 24 98 9f 3d
       -0.13330412 0.117261074 -0.25285143 0.077926904
000380 97 01 e3 bd a6 bf a7 bd c4 06 f1 3d 2e ed 7e 3c
       -0.110842876 -0.08190851 0.117688686 0.015559478
000390 45 df 23 be 3b af 6a 3d b2 dc 0a be 67 2d c3 3d
       -0.1600314 0.05729602 -0.13560751 0.09530144
0003a0 d8 75 af bd de fd 17 3d 04 d1 4b bd 35 02 01 3e
       -0.08567399 0.03710734 -0.04975988 0.12598498
0003b0 5d 18 83 bd d5 b7 37 be b3 cb 8a bc 71 2f 8c 3d
       -0.06401131 -0.1794122 -0.016942834 0.06844986
0003c0 75 8b 12 be 2d f4 4e 3c df 5d ed bd 91 13 5f 3b
       -0.14311011 0.012631458 -0.1159017 0.0034038762
0003d0 3c 77 65 3c 6c 0e c3 bd c9 53 19 39 bb 0e 3b 3c
       0.0140054785 -0.09524235 0.0001462243 0.011417086
0003e0 8b 14 d3 bc 90 65 1b bd 53 5b 10 be 3d 45 7b 3d
       -0.025766632 -0.037938654 -0.14097337 0.061345328
0003f0 e2 a2 de bd 83 b8 08 3d 91 d2 ba 3c dd 2e 91 3c
       -0.10870911 0.03337909 0.022805484 0.017722541

linear_layer.2.bias f4 [100]
000000 8d fd 80 bd 2d 82 5c bd d7 9a 8d 3c 69 72 cc 3c
       -0.06298361 -0.053835083 0.017285747 0.024956899
000010 22 dd aa 3c b5 11 2f 3d be 09 6b 3d 56 ba 02 bc
       0.020857397 0.042741496 0.057382338 -0.007978996
000020 30 43 3c bc 48 e3 0a 3d da 7f 0b bd a5 f9 7a bd
       -0.011490628 0.03390816 -0.034057476 -0.061273236
000030 8f 7b c5 bd e8 67 23 3e a5 b7 8b bc d4 7c ab bc
       -0.096427076 0.15957606 -0.017055342 -0.020933546
000040 f0 89 8e bd bd 95 fe 3d bd 27 72 3c 35 cc f0 bc
       -0.06959903 0.12430904 0.014779982 -0.029394249
000050 f3 17 f1 bd d1 02 41 bd d2 66 53 3c 22 f0 ac 3d
       -0.11772146 -0.047121827 0.012902932 0.08444239
000060 ba 84 09 3d e8 c6 70 bd 1c d8 40 bd 86 17 8c bd
       0.033573844 -0.05878344 -0.047081098 -0.06840424
000070 32 72 88 3d 37 e5 88 bd 85 d3 d5 bd f0 b1 18 bd
       0.06662406 -0.06684344 -0.10440735 -0.03727907
000080 8b 56 f5 3c 71 f7 5c 3d de 09 94 bc 1b b6 9c bd
       0.029948493 0.053946916 -0.018071111 -0.07651921
000090 89 1c ec bc ee 06 68 bd 00 43 fe bc 42 e4 07 bd
       -0.0288222 -0.056647234 -0.031037807 -0.033176668
0000a0 ff 26 41 bd ca 33 c7 bd d9 8d 01 bd cb 59 05 3d
       -0.04715633 -0.09726675 -0.031629417 0.032556336
0000b0 5c b1 63 3c 3f bb c7 3c 8c 62 0b 3d a4 96 97 3b
       0.013897266 0.024381278 0.03402953 0.004626112
0000c0 d1 d7 64 bd 67 13 04 3c 26 87 b6 bc 0f 27 0c 3b
       -0.05586988 0.0080612665 -0.02228124 0.0021385585
0000d0 88 e7 a1 3d a6 cb be 3d 6e bd 67 3d 1c fd 61 be
       0.07905489 0.093161866 0.05657714 -0.2206921
0000e0 af 93 78 bd dd 22 98 bc 3f da 18 3c a8 de 59 bd
       -0.060687717 -0.018571312 0.009329378 -0.053190857
0000f0 53 a8 07 3e 86 d2 3b 3d 9e c3 14 3e 39 eb f6 3c
       0.13247804 0.045855068 0.14527747 0.03014146
000100 d7 04 2d bd c4 05 ca bc 9b 96 77 bd cb 8a f8 3b
       -0.042240944 -0.024660952 -0.060446363 0.007584905
000110 c8 00 38 be 2b d8 50 3c e2 95 68 3c 4b 09 e1 3c
       -0.17969048 0.012746851 0.014195891 0.027470252
000120 0b 2a 02 3c d3 79 1e bc 97 f4 df bc 32 23 6f bd
       0.007944594 -0.0096726 -0.02733831 -0.058383174
000130 98 ce 71 bc 0e a4 10 3c e2 bc e4 3c 49 e0 af bd
       -0.014758728 0.008828176 0.027922098 -0.08587701
000140 6b ac 86 bd e9 15 9f bc bd d6 c9 bd bd d6 26 bd
       -0.06575855 -0.019419627 -0.09855411 -0.040732134
000150 8e b8 2f 3d ac ed 52 3d fd 6f 82 3c eb e2 3b 3e
       0.042900614 0.051496193 0.01592254 0.18348281
000160 3d 4b 12 bd 18 1c e3 bb fe db 93 3c da b8 2f 3d
       -0.035716284 -0.0069308393 0.018049236 0.042900898
000170 a5 2d 86 bc 0e 69 78 be 2e f4 f1 3b 0d 6c 97 bd
       -0.016379187 -0.24258825 0.007383845 -0.07393656
000180 c7 92 25 bd 7c 24 48 3c 0d 30 77 bd 84 46 b7 bc
       -0.04042318 0.01221573 -0.06034856 -0.022372492

linear_layer.3.weight f4 [100, 100]
000000 18 34 29 be 0a 66 d3 3d 1e d5 49 bd 81 26 24 3e
       -0.16523778 0.10322197 -0.04927551 0.16030313
000010 ae d2 5e bb 80 69 b8 bc 0a c5 75 3d d9 e0 20 3d
       -0.0034000087 -0.022511244 0.060002364 0.03927693
000020 58 01 c8 bd ec 36 cb bd 9d 1c 5e be 03 62 9a 3d
       -0.09765881 -0.09922585 -0.21690603 0.075382255
000030 ba a2 14 be 63 62 08 3f 24 f3 75 bd 52 36 11 3d
       -0.145152 0.53275126 -0.06004633 0.035452195
000040 e1 be 81 be 1c 74 15 3e de 11 bf bd 20 4e 91 3c
       -0.25340942 0.14595073 -0.0932958 0.017737448
000050 2e 4a bf be 7e 1f fa bd 8c fc 01 bd 79 71 10 3e
       -0.37361282 -0.12213038 -0.031734988 0.14105786
000060 58 1a b4 3b 70 05 94 3d 55 20 7d bc a0 13 92 bd
       0.0054963045 0.072275996 -0.015449603 -0.071326494
000070 ef e2 5f 3e 9e 57 42 bc cd 70 1c be e1 8b 02 be
       0.21863912 -0.01186171 -0.15277405 -0.12748672
000080 ca 74 fd bd 4d b7 0a bd 08 c6 85 bd 29 6d 8c bc
       -0.12375791 -0.033866215 -0.06531912 -0.017141895
000090 72 a2 9c be 96 4f 54 be 31 1a 62 be 94 98 ee bd
       -0.30592686 -0.20733485 -0.22080304 -0.11650196
0000a0 65 b2 06 3e f6 6f 50 be 1e 83 23 be 57 4d 12 3e
       0.1315399 -0.2035521 -0.15967986 0.14287315
0000b0 3b bb 20 3d 35 b5 90 bc 60 99 5c 3d 85 80 2e 3e
       0.039241057 -0.017664531 0.053857207 0.17041214
0000c0 51 29 88 be 59 5c e2 3d be 30 f2 3d b5 ef 79 bd
       -0.26594022 0.1105277 0.11825703 -0.061019618
0000d0 07 f5 de bc 48 16 94 3e 06 32 7a 3e 27 59 56 3b
       -0.027216448 0.2892325 0.24433145 0.0032706948
0000e0 54 95 b4 3d 8c 97 24 be 58 3b 20 be 2d 9a 06 be
       0.088175446 -0.16073436 -0.15647638 -0.13144751
0000f0 f4 07 2f 3c 52 7f 08 be 18 92 8d 3e f6 fb bf bd
       0.0106830485 -0.13329819 0.27650523 -0.093742296
000100 b1 e1 c9 3d ee f4 52 3c fa d8 36 3d 91 74 7c bc
       0.098575 0.012875779 0.04464052 -0.015408651
000110 4f 1b d1 3d 40 0b 9b bc 7b 69 43 3e 81 27 3b bd
       0.10210287 -0.018926263 0.19083206 -0.04569197
000120 b7 91 cb 3d 15 53 ca bc 69 e0 46 3e b5 29 d5 3d
       0.09939902 -0.02469782 0.19421543 0.104083456
000130 98 d5 9b bd c2 fe 4a bc f6 0e 50 3c 6f a7 7f be
       -0.07609099 -0.012389841 0.012698879 -0.24966215
000140 a5 e5 a8 3b 5a 2d f5 3d bf 7d 93 bd 5b 21 a6 bc
       0.005154329 0.11971541 -0.072017185 -0.020279577
000150 ca 13 7e 3e c3 c4 11 be c5 ee 15 3d aa c2 ca 3c
       0.24812236 -0.14235215 0.03660466 0.024751026
000160 f4 42 03 be a7 b7 11 3d 29 02 45 be 74 82 8a 3e
       -0.1281851 0.035575535 -0.19239105 0.27052653
000170 e3 6b 8c bb ef ef 92 3d e5 8d 15 3c 50 90 06 3e
       -0.004285322 0.0717467 0.009128069 0.13140988
000180 90 4b 9e 3d 79 99 0a 3d 9d 1a 3d be 14 b1 9a bd
       0.07729256 0.03383777 -0.18467183 -0.07553306
000190 c0 a2 31 3e ff 46 60 bc a5 ef 1c 3c f1 3d f4 bd
       0.1734724 -0.013688802 0.00957862 -0.11925877
0001a0 28 86 01 3d 81 5b c4 3c d6 80 e1 bd 2d c8 6a 3d
       0.031622082 0.023969414 -0.11010902 0.05731981
0001b0 d0 59 9b 3b 95 84 8d bd 37 5f ce bd 34 ee 08 3e
       0.004740931 -0.06910054 -0.100767545 0.13372117
0001c0 60 47 28 bd e7 41 92 3e bc 9c da bd a5 f4 af bc
       -0.041083694 0.28565904 -0.10674426 -0.02147896
0001d0 b0 5c 78 bd f0 45 a6 bd c5 40 ce 3d 32 91 a0 3c
       -0.06063527 -0.08118808 0.100709476 0.019600485
0001e0 26 e6 ca 3d 59 bb 8c bd f4 ed f1 3a ed 2c 36 be
       0.099071786 -0.06871671 0.0018457756 -0.17790575
0001f0 7d 85 1d be 30 10 cc 3d ce 2d d4 3c d6 dd 41 be
       -0.15382953 0.09964025 0.025900748 -0.1893228
000200 c2 83 1f 3e 0a 86 c4 3d f0 07 30 be aa c1 51 3e
       0.15577605 0.095958784 -0.17190528 0.20484033
000210 f3 ae 3f 3d 70 89 2b be 3f e9 90 3d a1 12 5f bd
       0.046797704 -0.16751647 0.07075738 -0.054461125
000220 48 cb f1 3d 4e c8 66 be 6d 92 b4 3a 88 b3 e7 bb
       0.11806351 -0.22537348 0.0013776548 -0.0070709623
000230 d4 71 77 3c c6 84 ce 3d fc 9a 24 bd f1 f6 15 3d
       0.015102822 0.10083918 -0.040186867 0.036612455
000240 d8 2e 4d 3e e9 0d 8f bb 9b 40 32 be 69 10 1e 3d
       0.200374 -0.004365672 -0.17407458 0.03858987
000250 c8 d2 24 3d f1 db 2a 3e 23 46 71 3d 32 c8 70 3c
       0.04024008 0.16685463 0.05890478 0.014696168
000260 b8 96 ec 3d 65 48 cd bc fa 60 3d 3d 50 6d 26 bd
       0.11552185 -0.025058934 0.046235062 -0.040631592
000270 c9 3e 5b bd b8 dc 9f bd b1 1b fe 3d 8e 12 89 3d
       -0.053526673 -0.07805771 0.124076255 0.06692992
000280 7e af 87 3d ea ce b8 bd b6 43 9f bb c7 c1 1b bd
       0.06625269 -0.09023841 -0.0048603667 -0.038026597
000290 85 33 b8 3d 60 bc ce bd 87 4f 2d be 36 d8 c2 bc
       0.089942016 -0.100945234 -0.16924869 -0.023784738
0002a0 8e fc 04 be 88 83 3a be 7c 0c 90 bd c9 43 92 bc
       -0.12986967 -0.18214238 -0.07033631 -0.017854588
0002b0 9a 11 50 3e ab 0f 8e bd c5 db a6 bd c8 fe 42 bd
       0.20319214 -0.06936582 -0.081473865 -0.04760626
0002c0 9b 9d bc bd ba 75 1a be b7 80 0a 3c e3 24 41 bc
       -0.09209748 -0.15083972 0.00845354 -0.01178858
0002d0 8f 65 20 bd f3 4a 36 bd ed 87 b4 bc 06 9c 21 3e
       -0.039159354 -0.04450507 -0.02203747 0.15782174
0002e0 46 b6 28 3d 0f 3f 86 3d 12 da 8c 39 4b 4d dd bd
       0.041189454 0.06554996 0.00026865356 -0.10805758
0002f0 a7 e5 f5 bc a8 88 ed bc 30 41 07 3c 48 89 ce 3d
       -0.030016733 -0.028995827 0.008255288 0.10084778
000300 87 b3 fc bc 7e 60 39 bd 17 55 bd 3c f6 34 f3 bd
       -0.030847324 -0.045258038 0.023111863 -0.11875336
000310 3d f1 5c 3b 54 37 dc bd ad 18 51 be 2d 0e aa 3c
       0.0033713125 -0.107527405 -0.2041957 0.020758713
000320 72 ce b7 bc 87 40 f2 3c 43 97 69 bd 66 ca b9 bd
       -0.022437308 0.029571785 -0.05702902 -0.090718076
000330 6b 15 49 bc c2 80 ac bd f9 83 4b bd bc 9c dc bd
       -0.012273173 -0.08422996 -0.049686406 -0.10772082
000340 7f fe 2e 3d a6 72 22 be cf 86 68 3d dc 9e 12 3e
       0.042723175 -0.15864047 0.05676919 0.14318413
000350 e5 fb cc bd b9 2b de bb dd a6 8b 3c 62 51 4d 3d
       -0.100089826 -0.0067801145 0.01704734 0.05012644
000360 8e d2 18 bc b7 8b 00 be 65 5f 6c be 70 8a 2a bd
       -0.009327544 -0.12553297 -0.23083265 -0.04163593
000370 80 04 5e 3e 02 96 0d 3c 5c 7f e4 3c d9 13 e6 bd
       0.21681404 0.008641722 0.027892761 -0.112342544
000380 0a aa 49 3c 39 5a 3e bd 73 11 f1 3d f0 e6 a2 3d
       0.012308607 -0.04647276 0.11770906 0.07954204
000390 4b 40 35 bd e2 c4 b6 3d c1 7d 86 bd 54 f0 73 bd
       -0.044250768 0.08924271 -0.065669544 -0.059555367
0003a0 37 22 69 3d 22 50 df bd 84 57 48 be 72 55 58 3e
       0.056917395 -0.10903956 -0.19564635 0.21126345
0003b0 ed 16 9b 3d 70 7a 5c 3d ff 2c 74 3d 57 54 84 3e
       0.07572732 0.053827703 0.059613224 0.25845596
0003c0 36 3b 80 3d a0 7a 81 3d 36 7d 8e bd a6 ba f5 bd
       0.062612936 0.06322217 -0.06957476 -0.11998491
0003d0 ed 8e a4 3d 49 ff 5c bd 4f 07 e1 bd 37 ed 08 bc
       0.080350734 -0.053954396 -0.10987722 -0.008357338
0003e0 96 b2 85 3b cc 5e 3d be 94 4a 14 3d b0 47 b8 3d
       0.004080127 -0.18493193 0.036203936 0.08998048
0003f0 62 e9 a6 bd bd 12 2f bd ac bd 32 be e8 89 4c 3e
       -0.08149983 -0.04274248 -0.17455167 0.19974482

linear_layer.3.bias f4 [100]
000000 c4 b4 c6 3d 64 48 94 3c da 42 6b bd 64 a1 e4 bd
       0.09702447 0.018100925 -0.0574368 -0.11163595
000010 dc ed 6a bc fc ae 16 bd 09 f4 b9 3d c4 07 38 3d
       -0.014338937 -0.03678797 0.09079749 0.04492928
000020 b2 6e 2c 3d 93 d1 49 3b 47 c8 32 bd 53 16 f4 bc
       0.042097755 0.0030795082 -0.04364803 -0.029795801
000030 53 39 31 3b 71 1c 18 3d b2 67 ce 3b bf f7 9a 3b
       0.0027042225 0.0371365 0.0062989825 0.0047292407
000040 d9 93 98 bd 23 da 7c bc c0 3f 29 3c df dc 20 3d
       -0.07450075 -0.015432867 0.010330141 0.03927314
000050 57 43 83 bd d2 00 52 3d 61 fb c7 3c 9b 03 24 3d
       -0.064093284 0.051270314 0.024411859 0.0400425
000060 c6 ca 6a 3b d3 b2 14 bd b1 d2 8a 3d fa 70 78 3d
       0.0035826429 -0.036303353 0.067784674 0.060654618
000070 ac 6f 11 3d 5f 84 33 3d 2d cd ab bc b3 35 8f bb
       0.03550689 0.04382741 -0.020971859 -0.004370415
000080 d6 60 7f 3c 3d 7b e5 3c 96 dd 81 ba 58 33 e7 bc
       0.015587052 0.028012866 -0.0009907957 -0.028222725
000090 6b 6a 91 3c 88 fe cc bb 28 71 1d bd f9 c1 aa bb
       0.01775094 -0.0062559284 -0.038437992 -0.0052111116
0000a0 5a 4d 9d bc b6 f7 4e 3c 39 c2 98 3c a0 5a 3d bc
       -0.019201923 0.012632301 0.0186473 -0.011557251
0000b0 06 41 66 3d d0 33 43 3d 76 0a ad 3d 7f 6b 1d be
       0.056214355 0.047656834 0.08449261 -0.15373038
0000c0 2e fa 4d 3d 07 43 2e bd 38 08 16 3d cc 17 cc bc
       0.050287418 -0.04254439 0.03662893 -0.024913691
0000d0 40 b9 f1 bb 59 3b 69 3a 11 1a 9f bc bb f8 a8 bc
       -0.00737682 0.0008897088 -0.01942161 -0.020626416
0000e0 0a 5b 52 bd b4 91 b7 bc 8a b6 30 3d 18 ae 50 3d
       -0.051356353 -0.022408344 0.043142833 0.05094728
0000f0 d7 64 8e 3b d0 a5 fc 3c a7 d6 da 3b 18 78 42 3c
       0.004345517 0.030840784 0.0066784206 0.011869453
000100 21 e8 c2 3c 16 ad 7c 3c e0 b2 82 3d 19 c6 9a b9
       0.023792328 0.015422126 0.06381774 -0.00029520763
000110 d8 69 91 3c 91 0b 1f bd 97 1b 05 3d fd 6a 1b bd
       0.017750666 -0.03882939 0.032497015 -0.03794383
000120 f9 7e aa bb 1f 33 25 bc 58 2d c9 bc b9 76 74 3c
       -0.0052031246 -0.010082989 -0.024557754 0.014920884
000130 8b 37 46 bb 3c 5f 6f be f3 e7 1b 3d 2d 10 48 bd
       -0.0030245509 -0.23376173 0.038063 -0.04884355
000140 b6 38 35 bc c7 48 ac 3c b6 8c dd bb 15 4b c5 bc
       -0.011060884 0.021030797 -0.006761159 -0.024083653
000150 9d 80 ad bd f7 df 39 3d 19 85 ae 3c 47 5d 47 3d
       -0.08471797 0.045379605 0.0213037 0.04867294
000160 7d 4c ed bc f7 85 5f bb 10 54 dd 3c aa 90 d3 3c
       -0.028967137 -0.003410695 0.027017623 0.025825817
000170 bc b9 30 3d 21 91 05 bd 85 c7 94 3b 3c f2 3d 3d
       0.04314588 -0.03260911 0.004540386 0.04637359
000180 a6 2f c3 3c 1e cd c7 3c d8 8b 1b bd 66 54 5d bd
       0.023826431 0.0243898 -0.037975162 -0.054035567

linear_layer.4.weight f4 [100, 100]
000000 3f 23 c4 bc 7d c0 1e 3d 15 5b 8f 3d a2 1f a1 3d
       -0.023942588 0.03875779 0.069997944 0.078673616
000010 5f 5d 64 3d 98 82 06 bb f7 5f 50 bd 4d c4 14 3e
       0.055753108 -0.0020524617 -0.05087277 0.14528008
000020 e5 bc c0 3d 74 79 c3 3c 9c dc 19 be 97 ed b9 3d
       0.09411029 0.023861624 -0.15025562 0.0907852
000030 f4 28 b6 3d 3d 20 18 3e c0 08 fe 3d 2d 83 5d 3e
       0.0889453 0.14856048 0.12404013 0.21632071
000040 57 94 12 3e 7e ba a6 3e bb 9a f1 3b e8 73 13 3d
       0.143144 0.32564157 0.0073731816 0.03599921
000050 31 2b 7e 3b 62 2e 58 3d 30 ee 92 bc 1e 85 09 3e
       0.0038783068 0.05277861 -0.017935842 0.13429686
000060 f2 71 1d 3e fe a7 c2 bd 29 07 93 3d 5c a5 cd bd
       0.15375498 -0.09504698 0.071791 -0.100413054
000070 2f 88 25 3e 83 e0 35 bd 4b e1 0d 3e d0 7e 9c bd
       0.16165231 -0.044403564 0.13855474 -0.07641375
000080 71 41 2f be 7f f7 28 3d d3 4b e4 3b 92 4a 5a 3a
       -0.17114808 0.041251656 0.0069670468 0.0008327152
000090 49 7b 45 be 4d 01 6f 3d d3 b7 11 3e 28 cd db 3c
       -0.19285311 0.05835085 0.1423028 0.026831225
0000a0 aa 9b 5a be 23 4d 8a be 12 be 94 be 95 07 a0 3d
       -0.21348444 -0.27011976 -0.29051262 0.07813946
0000b0 a4 41 2f bd e6 59 80 be 3d 87 2b 3e 46 21 76 bd
       -0.04278721 -0.25068587 0.16750808 -0.060090326
0000c0 de a5 90 3d 03 25 a2 3c 34 b4 50 bd 07 98 d5 bd
       0.07062887 0.01979304 -0.050953105 -0.104293875
0000d0 96 54 ce bd cd 6f 11 bc a3 5e ff 3a e6 a0 8a 3d
       -0.10074727 -0.008876753 0.001948316 0.0676897
0000e0 e3 9b 60 3d 6b 70 8e 3d 6d f7 aa 3d 08 37 6b 3d
       0.054836165 0.06955036 0.08347974 0.05742553
0000f0 48 8b b0 3d 59 43 9e 3b fb 21 ac 3c b5 e3 04 3d
       0.08620316 0.004829806 0.021012297 0.03244372
000100 fb 22 ea 3d 90 10 13 3d 17 05 21 3c df 86 a1 bc
       0.11432453 0.035904467 0.009827874 -0.019717632
000110 6b e2 62 be 94 47 fb 3d 76 5d 4c 3d da 2f 9d 3d
       -0.22156684 0.12269512 0.04989382 0.076751426
000120 a9 96 c8 bd 4d 06 3c 3e 67 ca a1 3c 3f d5 2a be
       -0.09794361 0.18361779 0.019749833 -0.1668291
000130 7c af c0 3d 2c b9 b8 3d 7a f6 83 bc 29 3e 02 3d
       0.09408471 0.09019694 -0.01610874 0.03179756
000140 1f 67 63 3d 33 03 99 3d 98 08 47 3d b0 4b 09 bb
       0.055518266 0.07471313 0.04859218 -0.0020949654
000150 8c ff 30 bd ff ac e1 bb b1 75 0c 3e 86 55 a0 bc
       -0.04321246 -0.006887078 0.1371677 -0.01957203
000160 6d 74 4e bd aa ae 35 bd 64 e0 96 bc 61 97 02 3e
       -0.050404 -0.044356026 -0.018417545 0.12753059
000170 53 9a 57 be 47 48 ab 3d d4 20 b7 bd 84 e7 a7 bd
       -0.21054964 0.08363395 -0.08941808 -0.08198455
000180 99 52 b1 3c ee 5f 38 bc 1f a2 c8 bd 5f 5c dc bc
       0.021645831 -0.01125334 -0.09796547 -0.026899515
000190 73 11 c1 bd e2 d7 46 3a 04 73 fa bd 4b ea 92 3c
       -0.09427156 0.00075852696 -0.12228969 0.017933985
0001a0 86 d7 bf bc fa 66 8d bd 10 75 54 be 9f 1f 4f bb
       -0.0234182 -0.06904407 -0.20747781 -0.003160454
0001b0 34 b0 c9 bb cd 82 8f bd 4b 5e fa bc f3 c6 95 bc
       -0.0061550383 -0.0700737 -0.03056254 -0.018283343
0001c0 16 3f 0c 3e 19 a0 da 3d 83 58 66 3e 52 89 48 bd
       0.1369594 0.106750675 0.22494702 -0.048959084
0001d0 3b 72 ec bd 9e 54 a7 bd c5 41 7e bd 68 98 83 3d
       -0.11545225 -0.08170436 -0.06207444 0.064255536
0001e0 11 bf a8 bd 93 0d d5 3d ee 26 bb 3d cf 75 9d bd
       -0.08239568 0.1040298 0.091382846 -0.07688486
0001f0 2f e5 79 3c cb ee 1f bd 6e 65 8d 3d e7 8c 07 3e
       0.0152523955 -0.03904609 0.06904112 0.13237344
000200 f3 49 6d 3e 80 11 ac 3d e9 16 8e bd 7b 1f 89 3d
       0.2317274 0.08401775 -0.069379635 0.066954575
000210 c8 71 66 3d 0d c2 d2 3c 4c bc c1 bc cf 9e 69 be
       0.056260854 0.025727296 -0.023649357 -0.22814487
000220 94 de f5 bd b6 96 ba bd b2 7f e2 3d fd 73 b6 3d
       -0.12005344 -0.09110777 0.11059512 0.08908842
000230 d5 0d 2b 3d 4d dd 16 3d 0a 57 af 3d 02 ed 25 3e
       0.041761238 0.036832143 0.08561523 0.16203693
000240 81 7f 32 3d 66 cf fd bc 74 6d 6b 3e 53 7f e3 3d
       0.04357863 -0.030982684 0.22990972 0.111082695
000250 03 f0 1e bd 7d 69 24 be 02 7b 19 bd 62 9c 55 3d
       -0.03880311 -0.16055866 -0.037470825 0.05215109
000260 d3 10 2e bd 7d be a6 bd cb c2 5a bd 51 35 bc bd
       -0.042496514 -0.081418015 -0.053408425 -0.09189857
000270 a9 40 52 bd 0c e2 b6 3d 5c dd 51 bd 09 5c 2b bc
       -0.051331196 0.08929834 -0.051236495 -0.010458955
000280 94 a8 ae bb 07 f0 31 3d 2c 86 7b 3c 33 3c 64 be
       -0.0053301547 0.0434418 0.015351813 -0.22288589
000290 a9 ee 18 bd cc cc 19 3e ff ee 0c 3e 9d 69 14 3e
       -0.03733698 0.1501953 0.13763045 0.14493413
0002a0 94 8b f6 bd 80 db c6 bd fb 42 d2 bd 48 7f de bd
       -0.12038341 -0.09709835 -0.10266682 -0.10864121
0002b0 60 96 d9 3b 9d 1c 3d be 61 00 b3 bb b9 37 9f 3d
       0.0066402406 -0.18467946 -0.0054626917 0.077743
0002c0 dd d4 61 3d 93 82 4f be cb 39 32 be 3c 43 eb 3d
       0.055134643 -0.20264654 -0.17404859 0.11487433
0002d0 b9 3e 14 3e 5f 1b 20 be 4d ce 15 3d cb c1 41 bd
       0.14477052 -0.15635441 0.036573697 -0.047303956
0002e0 1d 83 75 3d 57 a9 bd bc 9a 51 1d be 5b bd 78 bd
       0.059939492 -0.023152037 -0.1536316 -0.06072746
0002f0 9b 50 2d be 1d 36 20 be f3 8f b6 3d d8 f4 9c bd
       -0.1692528 -0.15645643 0.08914175 -0.07663888
000300 45 a2 08 be 82 74 56 3d da 53 d0 3c 26 35 cf 3c
       -0.13343151 0.052357204 0.025430609 0.025293898
000310 ab 19 fa bc ce 99 b1 bd 9c dc da 3d aa 93 e9 3c
       -0.030529818 -0.08671914 0.10686609 0.028512795
000320 5b 4a 5e 3d 91 f3 20 bc ba 7d 33 be 86 e9 e8 3d
       0.05427013 -0.009823696 -0.1752843 0.11372666
000330 ee 05 54 be c8 de b3 bd 1b 4e 67 3d b5 d4 df 3d
       -0.20705387 -0.087827265 0.05647097 0.109292425
000340 a7 5c 9e be 08 4f 3f 3b 6a b8 6e 3d a4 f4 e1 3c
       -0.30930063 0.0029191393 0.05828134 0.027582474
000350 94 3d 4a bd 42 1c ec bd 79 ab 1e 3d 93 62 2d 3e
       -0.04937513 -0.11528827 0.038737748 0.16932134
000360 8a a7 0d be f2 d1 39 be a2 99 23 3d 03 97 4b 3d
       -0.13833442 -0.18146494 0.039941438 0.049704563
000370 b9 39 86 bd c5 56 5e bc d8 72 2b 3e 7d 6e ee 3c
       -0.065539785 -0.013570492 0.16743028 0.02910542
000380 68 bc 1d 3c b3 4c d9 bc 82 22 50 bd a2 cf 7d b9
       0.009627439 -0.02652583 -0.05081416 -0.0002420531
000390 a3 7b 2b 3e 41 17 59 bd 71 dc 4e be 55 21 83 3d
       0.16746382 -0.053000692 -0.20201279 0.06402842
0003a0 59 c6 32 3e 1d c6 09 3e bc 5b eb bd 36 42 32 3d
       0.17458476 0.1345448 -0.11492106 0.043520175
0003b0 38 8a 3b bb f4 43 22 3e 93 b4 08 be e5 3d 4b bc
       -0.002861632 0.15846235 -0.13350134 -0.0124048935
0003c0 27 92 f9 bd 4b c2 6d 3d 02 1c 16 3e 91 ea 22 be
       -0.121860795 0.05804662 0.14659122 -0.15909792
0003d0 12 5b 18 be f4 b4 7a 3c 92 97 17 3e df 07 b2 3e
       -0.1487849 0.015301932 0.14803913 0.3477163
0003e0 9a e2 ac 3d 59 a5 8c 3d 29 98 a0 3e 43 91 9b 3c
       0.08441658 0.06867475 0.3136609 0.018990165
0003f0 79 c5 5a 3d e9 9a 8c 3d dc 9f 3d 3e cf ad c6 3d
       0.05341098 0.06865484 0.18518013 0.0970112

linear_layer.4.bias f4 [100]
000000 ae 8f a6 bb 59 af 06 bd 85 9d 6f 3d 52 26 9d bc
       -0.005083046 -0.03288207 0.05849983 -0.019183312
000010 cf ab 09 be bf f8 04 bc fa 6c 03 bd 6c 60 39 3c
       -0.13444446 -0.008115946 -0.03208635 0.011314493
000020 17 de 2f 3d 3e 4f b0 3c ad 30 63 3c cb af be bd
       0.04293641 0.02152216 0.013866586 -0.093108736
000030 ac a1 ac bc 1f 51 9c 3c 34 96 c5 bc 5e a9 73 3c
       -0.021073185 0.01908165 -0.024119474 0.014871923
000040 99 ca 18 3d ca d2 c7 bc 2a c7 5a bd 3b 28 33 3d
       0.037302587 -0.024392504 -0.053412594 0.04373954
000050 42 45 a2 3d 33 1b c1 bc 21 c1 fd 3b 20 72 9b 3c
       0.07923366 -0.02357254 0.00774397 0.018975317
000060 83 dc 70 3c 10 29 c0 3c 8b da 5a bc 1a ce e6 bb
       0.014701012 0.02345708 -0.013357769 -0.007043612
000070 d0 d2 12 bd 8f 6a 2b bd a2 e7 d0 3c 24 15 93 3c
       -0.035845578 -0.04184967 0.025501076 0.017954417
000080 2c 09 a7 bc 9e e7 14 bd e5 6d ff 3c c4 b3 8d bd
       -0.020390116 -0.0363537 0.031180331 -0.06919053
000090 90 7a 1b 3d 20 bd 30 3e b8 c7 7c 3c b7 9b 0b bd
       0.03795868 0.17259645 0.015428476 -0.034084048
0000a0 6a fd c6 bb 4d d0 56 3c 41 b1 0d bc 3d 47 dd bb
       -0.00607269 0.013111186 -0.008648218 -0.006752877
0000b0 30 3e 46 bd 71 5e 11 3c 82 95 0a bd 44 93 89 bc
       -0.04839915 0.008872614 -0.033833988 -0.016793855
0000c0 82 71 50 bc ee 46 a2 bc 2b a1 5a 3a 82 da 13 bc
       -0.012722375 -0.019809213 0.0008340056 -0.009024264
0000d0 72 cb 50 3a dc 3c 86 3c d3 33 15 3b ad aa c0 bc
       0.0007964886 0.016386442 0.0022766485 -0.023518885
0000e0 0c 37 d2 ba 92 b8 64 bb c7 c5 9e bc 74 ca 84 39
       -0.0016038134 -0.0034900052 -0.019381417 0.0002532784
0000f0 4a b1 d4 bb 57 78 94 3d 0c a0 2c 3c c6 02 27 bc
       -0.006490861 0.072495155 0.010536205 -0.010193532
000100 72 8c da 3b 93 ea 5c 3b 1f 94 8c 3b f5 01 b5 bc
       0.0066695744 0.0033709153 0.0042901183 -0.02209566
000110 44 6b 16 3d 42 43 bf bc a0 cc 62 bd 93 ac 7f bc
       0.03672339 -0.0233475 -0.055370927 -0.01560511
000120 85 85 0e 3c ff 46 00 bc 91 5d ed 3c d1 6d 2e bd
       0.008698826 -0.007829427 0.02897528 -0.042585198
000130 e8 5c 82 bc a0 4b e0 3c 4d 3c 4a 3d 43 02 ef 3b
       -0.015913442 0.02737981 0.049373914 0.007293971
000140 84 b2 29 3d fc 92 e6 bc 5d 19 ac 3d 6b d1 48 3d
       0.04143001 -0.02814626 0.08403275 0.04902784
000150 c6 1a 6e bd 78 78 83 bd 76 a0 93 bb a3 1a 00 bd
       -0.058131002 -0.06419462 -0.0045052124 -0.031275403
000160 88 58 5b bc 5b 94 16 3c 15 45 36 3c 61 80 9f 3c
       -0.013387807 0.009190644 0.011124869 0.019470396
000170 29 82 c2 bc e5 24 8b 3c 82 ab 7c 3d b4 06 a6 bc
       -0.023743706 0.016985366 0.061687 -0.020266868
000180 a5 d7 ad bb 6b 89 6f bc cf ea 3d bd 08 62 8d bc
       -0.005305248 -0.014620165 -0.04636651 -0.017258659
