ac_2d_model_para_5/checkpoint_1400.pth (torch, 291152 bytes, 17 tensors)

linear_layer.0.weight f4 [100, 3]
0	0x3e64a46b	0.22328345
1	0x3e2262ca	0.15857998
2	0xbe4498e9	-0.19198956
3	0x3c5648cb	0.013078879
4	0xbd946634	-0.07246056
5	0x3de398c9	0.11113126
6	0x3d4bb154	0.04972966
7	0xbd7f38a8	-0.06230989
8	0xbe910e0b	-0.28331026
9	0x3e8782f8	0.2646711
10	0xbd10a3d1	-0.035312477
11	0x3e5c584e	0.2151806
12	0xbe271f03	-0.16320424
13	0xbe1d989c	-0.15390247
14	0xbeba7f09	-0.36425045
15	0xbd858ab0	-0.06520593
16	0xbe4cd550	-0.20003247
17	0xbe0722c4	-0.13196856
18	0xbdd588ea	-0.10426505
19	0x3e0a76de	0.13521907
20	0xbdfc971a	-0.12333508
21	0xbd9e5594	-0.077311665
22	0xbd370bcf	-0.044688996
23	0xbea97c2d	-0.3310255
24	0x3f079e8a	0.52976286
25	0x3d4b1c93	0.049587797
26	0x3ca41d24	0.020033427
27	0xbe232aa0	-0.15934229
28	0xbe402803	-0.18765263
29	0xbd977ed8	-0.073972404
30	0x3d1ff684	0.039053455
31	0xbe646d3b	-0.22307293
32	0x3e081e1a	0.13292733
33	0xbde1b4dc	-0.11020824
34	0x3d864d72	0.0655774
35	0xbe731e23	-0.23741965
36	0x3ed51808	0.41619897
37	0xbb91e8e6	-0.0044528125
38	0xbde94166	-0.11389427
39	0x3e9138e0	0.28363705
40	0xbc1cae1b	-0.009562994
41	0x3e7cee8a	0.2470037
42	0x3e46dfda	0.1942133
43	0x3e212463	0.15736537
44	0x3e3a8d94	0.1821807
45	0xbe3b581d	-0.18295331
46	0xbe48fb5b	-0.19627135
47	0x3cd6b57c	0.026209585
48	0x3ea290ad	0.31751004
49	0x3cb2fd82	0.021849398
50	0xbe93ce5f	-0.28868386
51	0xbe59a2d3	-0.21253519
52	0xbe1947b8	-0.14968765
53	0xbe1ebe68	-0.15502322
54	0xbe9901a1	-0.29884055
55	0xbc8ee0f7	-0.017441256
56	0x3dc65831	0.0968479
57	0x3e1e21a7	0.15442525
58	0x3e255631	0.1614616
59	0xbe722d2b	-0.23650043
60	0x3db06938	0.08613819
61	0xbe4ea905	-0.20181663
62	0x3da28c20	0.07936883
63	0x3ede954b	0.43473276
64	0xbdae83a8	-0.08521205
65	0x3d9faa01	0.077960975
66	0xbe8d662d	-0.27617016
67	0xbe1dd38e	-0.15412733
68	0x3cc0a65f	0.023516832
69	0x3e1d73cb	0.15376203
70	0x3cca9903	0.024731165
71	0xbef5e412	-0.48025566
72	0x3e737e92	0.23778751
73	0x3d0bf01d	0.034164537
74	0x3e9cd484	0.30630887
75	0x3e39f803	0.18161015
76	0x3da9c112	0.08288778
77	0x3bc9703c	0.0061474126
78	0xbea09dc0	-0.31370354
79	0xbe5d01fa	-0.21582785
80	0xbdb09fbf	-0.08624219
81	0x3d62ded0	0.05538827
82	0x3e89d1d1	0.2691789
83	0x3d63a5a6	0.055577897
84	0x3e55a8dd	0.20865197
85	0xbe5895f6	-0.21150956
86	0x3d5a401f	0.053283807
87	0x3dd09082	0.10183813
88	0xbc9ac721	-0.01889378
89	0xbdd4b5aa	-0.10386212
90	0xbd411131	-0.047135536
91	0xbe25a60c	-0.16176623
92	0xbe0eb43c	-0.13935941
93	0x3edd160e	0.4318089
94	0x3c8674b3	0.016413068
95	0x3ea764b3	0.32694015
96	0x3dc9d613	0.098552845
97	0xbe66b0ce	-0.22528383
98	0x3e0593e5	0.13044699
99	0xbecdc693	-0.40190563
100	0x3c8bd76a	0.01707049
101	0xbdda487f	-0.10658359
102	0x3d85dae0	0.06535888
103	0xbdc776aa	-0.0973943
104	0xbe944647	-0.28959867
105	0x3e03a0aa	0.12854257
106	0xbe137feb	-0.14404266
107	0x3e53edf3	0.20696239
108	0xbe22df0b	-0.15905397
109	0x3e895b88	0.26827645
110	0x3ca4cb7b	0.020116558
111	0x3e8f2b87	0.27962896
112	0x3e166984	0.14688689
113	0x3d834b3a	0.06410833
114	0xbce96fb2	-0.028495643
115	0xbdbb9950	-0.091601014
116	0xbecbe258	-0.39821124
117	0xbe0fb766	-0.14034805
118	0xbce578a7	-0.028011633
119	0xbe1b8b50	-0.15189862
120	0x3db8ec26	0.09029417
121	0x3dc331f5	0.09531013
122	0xbe036af0	-0.12833762
123	0xbe442119	-0.19153251
124	0xbc2ec0fa	-0.010666126
125	0x3e07c120	0.13257265
126	0xbe724884	-0.23660475
127	0x3e2fe81f	0.17178391
128	0xbe028d10	-0.12749124
129	0x3e177767	0.14791642
130	0xbd88475e	-0.06654237
131	0x3e806481	0.25076678
132	0xbe214ea3	-0.15752654
133	0x3e4cbb39	0.19993295
134	0x3e033fce	0.12817308
135	0xbd9ce5e7	-0.07661038
136	0xbde52a95	-0.111897625
137	0x3e1670a7	0.14691411
138	0xbeeab5e1	-0.45841888
139	0x3e212e26	0.1574026
140	0xbe910cbe	-0.28330034
141	0x3ecc7db3	0.3993965
142	0x3a989206	0.0011640198
143	0xbe0535e3	-0.13008837
144	0x3dbd32f3	0.092382334
145	0x3dc2b0a9	0.095063515
146	0x3dc12b8c	0.09432134
147	0x3ec50b79	0.38485315
148	0xbdd3a3e1	-0.10333992
149	0xbdef67a0	-0.11689687
150	0x3e6cdd1a	0.23131219
151	0x3de5f45c	0.112282485
152	0xbdff54b8	-0.12467331
153	0x3e504b57	0.2034124
154	0xbd644544	-0.05573012
155	0xbe193eee	-0.14965412
156	0xbddc8c2f	-0.107689254
157	0x3e82a355	0.25515237
158	0x3dc19ac1	0.09453345
159	0x3c90db93	0.017682826
160	0x3d692711	0.056922022
161	0x3e83de90	0.2575574
162	0x3dfa8a89	0.12233455
163	0x3daf565a	0.08561392
164	0x3ba6c82d	0.005089781
165	0x3eb0a46e	0.3450045
166	0xbd961460	-0.07328105
167	0x3de1f7d2	0.11033596
168	0x3f0d1580	0.5511093
169	0x3c727803	0.014799121
170	0xbc48ca5d	-0.012255278
171	0x3eb02ec2	0.34410673
172	0xbdf4c30e	-0.11951266
173	0xbe834831	-0.25641015
174	0x3eb089f7	0.3448026
175	0x3c08e576	0.008355489
176	0xbe132889	-0.14370932
177	0xbd681657	-0.05666193
178	0xbe36256e	-0.17787716
179	0x3e898c08	0.26864648
180	0xbe1176d8	-0.14205492
181	0x3df26479	0.1183557
182	0xbbd8e3d4	-0.006618956
183	0x3c3afb03	0.011412385
184	0x3e922dfd	0.2855071
185	0x3cc979d4	0.024594225
186	0x3ea684ea	0.3252328
187	0xbe1a4e72	-0.15068987
188	0xbd7d14bd	-0.061787356
189	0xba168196	-0.00057413557
190	0x3df2363f	0.11826753
191	0xbe4afe6b	-0.19823615
192	0x3ed045c5	0.4067823
193	0xbe1d8eb6	-0.15386471
194	0x3d97bd4e	0.07409154
195	0x3cf0a0be	0.029373523
196	0x3dd57bfc	0.10424039
197	0x3ea52da8	0.32261395
198	0x3e192f91	0.14959551
199	0xbce4c672	-0.027926657
200	0xbebeff6b	-0.37304243
201	0xbeeeef2a	-0.46666843
202	0xbce42f4e	-0.027854588
203	0x3de17174	0.110079676
204	0x3ec607e2	0.3867789
205	0xbdf2c694	-0.11854282
206	0x3c8e2506	0.017351639
207	0xbdc83db3	-0.09777393
208	0x3dd53a0a	0.10411461
209	0x3ccf86cd	0.025332833
210	0xbe938696	-0.28813618
211	0x3c7f20ec	0.015571814
212	0xbd15f1bc	-0.03660749
213	0x3df23404	0.118263274
214	0x3e1eb3e2	0.15498307
215	0x3db78337	0.08960574
216	0xbdb3db13	-0.087820195
217	0x3e88b0fb	0.26697525
218	0xbdc8bfa0	-0.098021746
219	0x3ddbca79	0.10731978
220	0x3e1c4604	0.15261084
221	0xbe5acb92	-0.21366718
222	0x3efca283	0.49342737
223	0x3d03fbb4	0.032222465
224	0xbda6c7dc	-0.08143589
225	0xbcf02d62	-0.029318515
226	0x3eb47206	0.35243243
227	0x3e161685	0.14657028
228	0xbe2cd5c7	-0.16878425
229	0xbed351be	-0.41273302
230	0x3e80e9bc	0.25178325
231	0xbec0525d	-0.37562838
232	0xbdc5a982	-0.09651472
233	0xbe339374	-0.17536718
234	0xbcb67bdc	-0.022275858
235	0x3e5ef5f3	0.2177351
236	0xbbeccbbb	-0.007226435
237	0x3cea7dbd	0.02862441
238	0xbe4bcce8	-0.19902384
239	0x3d5904d2	0.052983113
240	0x3e16f40f	0.14741538
241	0xbd689582	-0.056783207
242	0xbd1a46f0	-0.037665308
243	0xbe155019	-0.14581336
244	0xbe503aaf	-0.20334886
245	0xbda2cfc5	-0.07949785
246	0xbe8218de	-0.25409597
247	0x3e258942	0.16165641
248	0x3daedd5f	0.08538317
249	0x3e37ce58	0.17949808
250	0xbde4ef14	-0.11178413
251	0x3ef50042	0.4785176
252	0x3e8c9c44	0.2746297
253	0xbd0bb5ce	-0.03410893
254	0xbe895534	-0.26822817
255	0x3e595d41	0.2122698

linear_layer.0.bias f4 [100]
0	0xbcadd422	-0.021219317
1	0xbd92a42d	-0.0716022
2	0x3e486e59	0.19573344
3	0xbd1c6fef	-0.038192686
4	0x3cb1bae2	0.021695558
5	0xbcf85f35	-0.030318836
6	0x3da58ec1	0.08083869
7	0x3e0ba053	0.13635378
8	0xbe45702a	-0.19281068
9	0x3d656f1f	0.056014176
10	0x3d6a4e48	0.05720356
11	0xbe058c5d	-0.13041826
12	0x3e47562b	0.19466464
13	0x3e5b9a3c	0.21445554
14	0x3d625c54	0.055263832
15	0x3a4a23d2	0.0007711026
16	0xbe0fcaf8	-0.1404227
17	0x3c980c09	0.018560426
18	0xbcf3b11d	-0.02974754
19	0xbb827ca6	-0.0039821444
20	0xbdfcd9d0	-0.12346232
21	0xbd90f043	-0.07077076
22	0xbd3c52ad	-0.045977283
23	0x3cc7152b	0.024302086
24	0x3d3a85ee	0.04553788
25	0x3e2a8646	0.16652784
26	0x3ddc5b1f	0.107595675
27	0xbd10c700	-0.03534603
28	0x3d60281b	0.054725748
29	0xbdf3b9c4	-0.11900666
30	0xbd938093	-0.07202258
31	0xbc65c664	-0.014024351
32	0x3e042cbc	0.1290769
33	0xbdd76c9e	-0.10518764
34	0xbda82433	-0.082100295
35	0x3d8be9b6	0.06831686
36	0xbcdae1c5	-0.026718983
37	0xbe34dc4d	-0.17662163
38	0x3e21c905	0.15799339
39	0x3e30aac2	0.17252639
40	0x3dbde7a3	0.09272697
41	0xbd62e40f	-0.055393275
42	0x3d981241	0.07425357
43	0xbe971311	-0.29506734
44	0x3cac34d4	0.021021284
45	0xbdfcb6bb	-0.123395406
46	0xbe05dc73	-0.13072376
47	0x3cb68aaa	0.022282917
48	0xbdbedbb2	-0.09319247
49	0xbe3f3a48	-0.18674576
50	0x3e849280	0.2589302
51	0x3daad22d	0.08340869
52	0xbb2e65de	-0.002661101
53	0xbe78950c	-0.24275607
54	0x3dd26ee4	0.10275057
55	0x3df3f8e8	0.119127095
56	0x3cfe78f0	0.031063527
57	0xbc18454d	-0.009293866
58	0xbbc2fc85	-0.005950513
59	0x3c241f65	0.010017251
60	0xbdeb89aa	-0.11500867
61	0xbc98c00f	-0.018646268
62	0x3b9fa5e9	0.004872073
63	0x3e2b4d65	0.16728742
64	0xbe0b1086	-0.13580522
65	0x3db2354d	0.087015726
66	0xbe62a74f	-0.22134136
67	0xbb8634a6	-0.0040956317
68	0xbdb1bd5a	-0.08678694
69	0x3dcd9618	0.10038394
70	0x3e39bc1c	0.18138164
71	0xbdbc4029	-0.09191925
72	0xbdcf7c4f	-0.10131132
73	0x3e5b2d1f	0.21403931
74	0xbc8153c7	-0.015787018
75	0x3cf7037d	0.03015303
76	0x3c973198	0.018456265
77	0x3da46103	0.08026316
78	0xbdf54933	-0.11976852
79	0xbcf2d8bf	-0.029644368
80	0x3e1e3a17	0.15451847
81	0x3e049855	0.12948735
82	0xbd5f389b	-0.054497343
83	0x3c6ff8ce	0.014646722
84	0x3d0a6832	0.033790775
85	0x3d55fae4	0.05224122
86	0x3e0169e0	0.12638044
87	0x3e1e22ea	0.15443006
88	0xbde0aaae	-0.109700546
89	0xbdd31ada	-0.10307856
90	0xbe0cd4f2	-0.13753107
91	0xbe4affac	-0.19824094
92	0xbd927547	-0.07151275
93	0x3e0795cb	0.13240735
94	0xbd1ca872	-0.03824658
95	0x3d2aac59	0.04166827
96	0x3e851fa1	0.26000693
97	0x3d82269c	0.063550204
98	0xbd9d067a	-0.07667251
99	0x3d642b30	0.05570525

linear_layer.1.weight f4 [100, 100]
0	0x3d66a355	0.05630811
1	0x3e1ae066	0.15124664
2	0xbd857539	-0.06516499
3	0xbcbffc48	-0.023435727
4	0xbc79c571	-0.015244828
5	0x3b9116c0	0.004427761
6	0x3dccade6	0.09994106
7	0x3d6aade2	0.057294734
8	0x3e18c62b	0.14919345
9	0xbe1b2b40	-0.15153217
10	0xbda2785e	-0.079331145
11	0x3c32143b	0.010869081
12	0xbe790252	-0.24317291
13	0xbd98c2de	-0.07459043
14	0x3d87bb12	0.06627478
15	0x3d8b436b	0.06799968
16	0xbe607c10	-0.21922326
17	0xbe1d39d8	-0.15354097
18	0x3e572972	0.21011904
19	0x3b406f33	0.0029363155
20	0xbdb934a5	-0.09043244
21	0x3de11d19	0.10991878
22	0x3d0e951c	0.03481017
23	0x3e1ce553	0.15321855
24	0xbd8e2bd3	-0.069419526
25	0x3b857778	0.0040730797
26	0xbdaf4faf	-0.0856012
27	0xbc5e0c90	-0.0135528
28	0xbe71ea57	-0.2362455
29	0xbdb72f81	-0.089446075
30	0xbc541893	-0.012945312
31	0xbb9da536	-0.0048109544
32	0xbd2dfd80	-0.042478085
33	0x3e6abf68	0.22924578
34	0xbda93a9e	-0.082631335
35	0xbd820f16	-0.06350534
36	0xbdbab3e4	-0.09116343
37	0xbc3b42ee	-0.0114295315
38	0x3e04ba35	0.12961657
39	0xbe124321	-0.1428342
40	0x3d524a89	0.051340614
41	0x3e238fd0	0.15972829
42	0xbe0e1203	-0.13874058
43	0xbd65391d	-0.05596267
44	0x3b007593	0.001960133
45	0xbd0a92d8	-0.033831447
46	0x3d683e68	0.05670014
47	0x3cd7bb61	0.026334466
48	0x3b056e59	0.0020359962
49	0x3dfc001a	0.12304707
50	0xbc594abd	-0.013262448
51	0xbe919182	-0.28431326
52	0x3ded496d	0.115862705
53	0x3dbed133	0.09317245
54	0xbd0a5347	-0.033770826
55	0xbe5f1e93	-0.21789007
56	0xbe1279d7	-0.1430429
57	0xbd9cd324	-0.076574594
58	0x3e1cebe7	0.15324365
59	0x3e2dce17	0.16973148
60	0x3c60ecfa	0.013728375
61	0x3d823e37	0.06359523
62	0xbc2f337f	-0.01069343
63	0xbe24544e	-0.16047785
64	0xbcc2adf4	-0.023764588
65	0x3e3a7961	0.18210365
66	0xbc4c4b70	-0.012469158
67	0x3d5ece33	0.054395866
68	0x3cc5897b	0.024113407
69	0xbdb57348	-0.08859879
70	0x3c28ef3b	0.010310943
71	0x3dca1623	0.098675035
72	0xbd94bd40	-0.07262659
73	0x3d2abd1d	0.04168426
74	0xbe7eed7d	-0.24895282
75	0x3cf48d64	0.029852577
76	0xbd1fd3ea	-0.039020456
77	0x3c0d6fe8	0.008632638
78	0xbe32e1db	-0.1746897
79	0xbdf041ab	-0.11731275
80	0xbd072c37	-0.03300115
81	0xbc52f268	-0.012875177
82	0xbccf48a6	-0.025303196
83	0xbdcd05fd	-0.10010908
84	0x3d72f8f3	0.059319448
85	0x3e00fb84	0.12595946
86	0xbcf043ca	-0.0293292
87	0xbd9d3634	-0.07676354
88	0x3dbf8b18	0.09352702
89	0x3df992ab	0.12186178
90	0xbbcb37f1	-0.006201737
91	0x3e08da6b	0.1336457
92	0xbdb3bddf	-0.087764494
93	0xbd84a7f2	-0.064773455
94	0xbc06fcaf	-0.008238955
95	0xbdd826dc	-0.10554287
96	0xbd809dc5	-0.06280092
97	0xbc9bb6c1	-0.019008042
98	0xbe05c227	-0.13062344
99	0xbda1f49a	-0.07907982
100	0x3d45a3fa	0.048252083
101	0x3e5f34ae	0.2179744
102	0xbcc3bd17	-0.023893876
103	0x3d7b7551	0.06139118
104	0xbd635698	-0.055502504
105	0xbe2c7f67	-0.16845475
106	0x3e093f3c	0.13403028
107	0xbe8ec790	-0.2788663
108	0xbd49d2a9	-0.049273167
109	0xbd922388	-0.07135683
110	0xbd884e78	-0.06655592
111	0x3d1e0b94	0.03858526
112	0x3dddb0c0	0.10824728
113	0x3df4f15a	0.11960097
114	0x3e2384e9	0.1596867
115	0xbe18defe	-0.14928815
116	0xbd2d6452	-0.042332
117	0xbe92814d	-0.28614274
118	0x3c58e117	0.013237259
119	0x3e41d02d	0.18927069
120	0xbde629f4	-0.11238471
121	0xbcb9b88d	-0.022671008
122	0x3cf1d943	0.029522544
123	0x3df36015	0.118835606
124	0x3e41cd33	0.18925934
125	0x3da36e73	0.07980051
126	0xbdbb7bb3	-0.09154453
127	0x3df5c3d5	0.120002426
128	0xbdfc09b3	-0.123065375
129	0xbda56f2f	-0.08077847
130	0xbd8dd242	-0.06924869
131	0xbdd0cf84	-0.101958305
132	0x3e32c963	0.17459635
133	0xbde7a792	-0.113112584
134	0xbddd5b26	-0.10808401
135	0x3d142122	0.03616441
136	0x3e4105b6	0.18849835
137	0x3c95fa5b	0.018307855
138	0xbce66139	-0.028122531
139	0xbdac7255	-0.084202446
140	0x3e4ee9e9	0.20206417
141	0xbdcacbf8	-0.09902185
142	0x3e009fa9	0.12560906
143	0xbe3855d8	-0.18001497
144	0x3e4d7a6a	0.20066229
145	0xbe6b83bb	-0.2299947
146	0xbe8a5d4e	-0.2702431
147	0xbd8805d0	-0.06641734
148	0x3d1e49d0	0.03864461
149	0xbdc0157a	-0.09379096
150	0xbc875260	-0.016518772
151	0xbd0ddd69	-0.03463498
152	0x3db341f8	0.08752817
153	0xbe2d519f	-0.16925667
154	0xbd296d06	-0.04136374
155	0x3dc4a1b7	0.09601157
156	0x3cd2e5b4	0.025744297
157	0xbd9aad6b	-0.07552608
158	0xbdf67c9f	-0.12035488
159	0xbd2c5b61	-0.042079333
160	0x3e08fcc0	0.13377666
161	0xbdb61017	-0.08889788
162	0xbca5cc78	-0.0202391
163	0x3d6b43b8	0.05743763
164	0xbe0eedbb	-0.13957874
165	0x3e189acd	0.14902802
166	0xbd19d64b	-0.03755788
167	0xbe3b54ae	-0.18294021
168	0xbebfb420	-0.37442112
169	0x3e6ead0d	0.23308201
170	0xbc9b0014	-0.018920936
171	0x3da11ae6	0.078664586
172	0x3d3e21fd	0.046419133
173	0x3e0a3e6d	0.13500376
174	0x3de55951	0.111986764
175	0x3e3f6a89	0.18692984
176	0x3bfdb04a	0.0077419626
177	0xbb92b0bb	-0.0044766343
178	0xbde4031a	-0.11133404
179	0x3d48cff7	0.049026456
180	0x3e50402c	0.2033698
181	0xbe51ae73	-0.20476703
182	0xbd25deff	-0.04049587
183	0x3da6e9d6	0.081500694
184	0x3c79aa6f	0.015238388
185	0xbd9ef3c0	-0.077613354
186	0x3d04a222	0.032381184
187	0x3d1e994c	0.038720414
188	0x3c5b979d	0.013402847
189	0xbe0931c5	-0.13397892
190	0x3da748d3	0.08168187
191	0xbe026b72	-0.127363
192	0x3ced7243	0.028985148
193	0xbdc47d06	-0.09594159
194	0x3dfa5de3	0.12224939
195	0xbe069b28	-0.13145125
196	0x3e242a9e	0.16031882
197	0x3e1050c5	0.14093311
198	0xbdef37b6	-0.11680548
199	0x3e4c738a	0.1996595
200	0xbde4ebbe	-0.11177777
201	0xbd4cf274	-0.05003591
202	0x3dd60a53	0.10451188
203	0xbd86dac1	-0.06584693
204	0xbe03e276	-0.12879357
205	0x3d4444ed	0.047917295
206	0xbd0617c3	-0.032737505
207	0x3e1a4763	0.15066294
208	0xbe43e032	-0.19128492
209	0xbce1547f	-0.027506111
210	0x3dae9776	0.08524983
211	0x3d167920	0.036736608
212	0xbdd4ce79	-0.10390944
213	0x3c20d055	0.009815295
214	0x3ceecef8	0.029151425
215	0xbcf47a74	-0.029843546
216	0xbc9a464f	-0.018832354
217	0x3dffa71a	0.12483044
218	0xbe262708	-0.16225827
219	0xbe2bf307	-0.16791926
220	0x3d9acd21	0.075586565
221	0x3d9b3d0f	0.075800054
222	0x3d1bbddc	0.03802286
223	0xbe0af059	-0.13568248
224	0xbe2352bc	-0.1594953
225	0xbe2af8a9	-0.16696419
226	0x3d3a77c5	0.045524377
227	0x3d9d55d2	0.076823846
228	0xbd233363	-0.039843928
229	0x3dcb9ff9	0.09942622
230	0xbe01583e	-0.12631318
231	0xbd9b3ff3	-0.07580557
232	0x3d069994	0.032861307
233	0x3c119a2a	0.008886853
234	0x3c8883ac	0.016664349
235	0x3be4a4a1	0.006977633
236	0xbdd38030	-0.10327184
237	0xbdae177b	-0.08500572
238	0xbd87fe8f	-0.0664035
239	0x3c8e9bff	0.01740837
240	0x3e6b05fd	0.22951503
241	0x3e4dd64a	0.20101276
242	0xbcaf97bd	-0.02143466
243	0x3e0d246d	0.13783427
244	0xbdff9a85	-0.12480644
245	0x3e153238	0.14569938
246	0x3de692cd	0.11258469
247	0xbe0b938c	-0.13630503
248	0xbd8c1eca	-0.0684181
249	0xbdbcb4f5	-0.09214202
250	0x3d46ed5b	0.048566204
251	0x3bdb2568	0.006687809
252	0xbd3de95b	-0.046365123
253	0xbd81ae41	-0.063320644
254	0xbe175e3b	-0.1478204
255	0xbd074581	-0.03302527

linear_layer.1.bias f4 [100]
0	0xbda47d74	-0.08031741
1	0x3da7d2d4	0.08194509
2	0xbcc86861	-0.024463834
3	0x3e3ac6de	0.18239924
4	0xbcae73eb	-0.021295508
5	0xbd82301e	-0.06356834
6	0xbde899a1	-0.113574274
7	0x3e01d71c	0.12679714
8	0xbddf91ff	-0.109165184
9	0x3d9bfaaa	0.0761617
10	0xbda7e451	-0.08197845
11	0xbcac65aa	-0.021044571
12	0x3e09179d	0.13387914
13	0x3dc2544c	0.094887346
14	0xbd8fbaca	-0.07018049
15	0xbd99cd5b	-0.075098716
16	0x3ab961e4	0.0014143554
17	0x3dfe0f7a	0.12405296
18	0x3ca8a53a	0.020586599
19	0xbd6eea00	-0.05832863
20	0xbd522374	-0.051303342
21	0x3d381770	0.044944227
22	0xbcf6887f	-0.030094383
23	0x3da8842f	0.08228337
24	0x3e05ea7d	0.13077731
25	0x3cfcf1c5	0.030877003
26	0x3e18af88	0.1491071
27	0xbd5a4e67	-0.053297427
28	0xbdbc334f	-0.09189474
29	0xbd8234ba	-0.06357713
30	0xbe654000	-0.22387695
31	0x3de0daee	0.109792575
32	0x3b8a248c	0.0042157825
33	0xbdbde6fe	-0.09272574
34	0xbd901012	-0.07034315
35	0x3d9825fb	0.07429119
36	0x3e03d689	0.12874807
37	0xbe0c8bce	-0.13725206
38	0x3c317f03	0.010833505
39	0xbca2bb08	-0.019864574
40	0xbde373fc	-0.11106107
41	0xbe03b9e5	-0.12863882
42	0x3d03c662	0.032171614
43	0x3e20bba6	0.15696582
44	0xbd8df8b7	-0.06932204
45	0x3c2dc316	0.010605594
46	0x3ab963d6	0.0014144133
47	0xbe082e84	-0.13298994
48	0x3d7c9d03	0.061673176
49	0xbdd79227	-0.10525923
50	0xbd496eba	-0.049177863
51	0xbc0d191b	-0.008611943
52	0xbb648af5	-0.0034872864
53	0xbdec332a	-0.11533196
54	0x3c37fa05	0.011229043
55	0x3cc50909	0.02405216
56	0x3e0b5901	0.13608171
57	0xbdb25a18	-0.0870859
58	0xbb3ac947	-0.0028501318
59	0x3cfee930	0.031117052
60	0xbe02597c	-0.12729448
61	0xbbccf3e3	-0.0062546595
62	0x3d1128a6	0.035439156
63	0x3e2a465c	0.16628402
64	0x3d1b7a63	0.037958514
65	0x3d17ab7c	0.037028775
66	0xbdd9c556	-0.10633342
67	0x3cb06d85	0.021536598
68	0x3b77b3b3	0.0037796318
69	0xbe2be57a	-0.16786757
70	0xbdc0330c	-0.093847364
71	0x3bebc4eb	0.0071951053
72	0xbd30b5fe	-0.04314231
73	0xbd175f44	-0.036956087
74	0x3d9bcf12	0.07607855
75	0x3c1acc60	0.009448141
76	0x3da24bce	0.07924615
77	0xbe024994	-0.1272338
78	0x3d71a164	0.058991805
79	0xbd4cc30a	-0.04999069
80	0xbe0c9ee9	-0.13732494
81	0xbd8f7c0f	-0.07006084
82	0x3d04e30f	0.032443102
83	0xbceea8bb	-0.029133191
84	0x3dc0f9c5	0.0942264
85	0x3c6eaa7c	0.014567014
86	0xbbe57911	-0.0070029576
87	0x3d6f8799	0.058478925
88	0x3e2128d2	0.15738228
89	0xbcfedce9	-0.031111198
90	0xbdb11e92	-0.08648409
91	0xbe3163ba	-0.17323199
92	0x3dc01b57	0.09380215
93	0x3cded1e3	0.027199691
94	0x3d4c8b86	0.049937747
95	0x3d1d2362	0.03836382
96	0x3d85930b	0.06522187
97	0xbbf0d915	-0.007350097
98	0xbc42e236	-0.011894753
99	0x3db6af2e	0.089201316

linear_layer.2.weight f4 [100, 100]
0	0xbd59dedf	-0.053191062
1	0x3cdae3bf	0.026719926
2	0x3d87bcff	0.06627845
3	0xbe7f95ac	-0.24959439
4	0x3dbddcab	0.09270605
5	0xbd2610e3	-0.04054345
6	0x3d7dd473	0.061970185
7	0xbdb51ff0	-0.08843982
8	0x3dc6d6f7	0.0970897
9	0xbd6162af	-0.055025753
10	0xbd2f3d66	-0.042783163
11	0x3d179cc5	0.03701474
12	0xbd801e63	-0.06255796
13	0xbdbf8311	-0.09351171
14	0x3cd6dd79	0.026228653
15	0xbe0c0c27	-0.13676511
16	0x3d421b06	0.047389053
17	0xbdb22ff7	-0.08700555
18	0xbd115ddb	-0.0354899
19	0x3e049754	0.12948352
20	0x3cdd0933	0.026981926
21	0x3d4279ac	0.047479317
22	0xbd800aac	-0.062520355
23	0xbd974f62	-0.07388188
24	0xbe045cea	-0.12926069
25	0x3b0cf6b3	0.002150935
26	0xbe648aff	-0.22318648
27	0xbc8d5e57	-0.017256899
28	0x3cd6bb50	0.026212364
29	0xba7da4e5	-0.0009675755
30	0x3d50095e	0.050790183
31	0xbd5af0e1	-0.053452376
32	0x3c6b451c	0.014359739
33	0x3ba89c16	0.00514556
34	0x3d8c7480	0.06858158
35	0xbc168677	-0.009187332
36	0xbcd36096	-0.025802892
37	0x3e992fe5	0.29919353
38	0x3ced4273	0.02896235
39	0xbd8a1880	-0.06742954
40	0x3e11b24a	0.14228168
41	0x3e2b48ac	0.16726941
42	0x3d9cdc33	0.07659187
43	0x3c1cd637	0.009572557
44	0x3dfbda4e	0.12297498
45	0xbc81fef6	-0.015868645
46	0x3dee4788	0.11634737
47	0x3d4467d4	0.04795058
48	0xbe2472b0	-0.16059375
49	0x3df3c0d6	0.11902015
50	0x3c3ff9e3	0.0117172925
51	0x3d7e0866	0.062019728
52	0xbe09dfd1	-0.13464285
53	0x3d2dd031	0.042434875
54	0xbdeb6091	-0.11493028
55	0xbd0b4718	-0.034003347
56	0xbeab735a	-0.33486444
57	0x3d639402	0.055561073
58	0x3dba5f54	0.09100214
59	0x3c444f45	0.01198179
60	0xbd06b5df	-0.03288829
61	0x3b80507c	0.0039158445
62	0xbccd888c	-0.025089525
63	0xbcca9304	-0.024728306
64	0x3d0c7fab	0.03430144
65	0x3e0011e4	0.12506825
66	0x3d7b0a79	0.061289284
67	0xbd694e14	-0.056959227
68	0x3db47a4d	0.088123895
69	0x3ce6f330	0.028192133
70	0x3e78fed3	0.24315958
71	0x3e826d69	0.25474098
72	0x3c907946	0.017635953
73	0xbe00afa2	-0.12566999
74	0xbe4d7fc1	-0.20068265
75	0x3ce3c5ce	0.027804282
76	0xbd17b4a1	-0.037037496
77	0xbc862af5	-0.016377905
78	0xbd9d8555	-0.07691447
79	0x3dd0366d	0.10166631
80	0xbdb1584e	-0.08659421
81	0x3d60c3af	0.05487412
82	0xbc32097c	-0.010866519
83	0x3dda3afd	0.10655782
84	0x3e6f8f18	0.2339443
85	0xbe089cd6	-0.13341078
86	0x3e267560	0.16255713
87	0xbe8af1e3	-0.2713767
88	0xbd9d9700	-0.076948166
89	0xbde96725	-0.113966264
90	0x3d4fbea6	0.050718926
91	0x3e127515	0.14302476
92	0x3aacd343	0.001318552
93	0xbdf162d2	-0.117864266
94	0xbd029aec	-0.031886026
95	0xbced135d	-0.028939897
96	0xbd8d80d1	-0.069093354
97	0x3c9fea77	0.019520981
98	0x3c3ec031	0.011642502
99	0x3d5ee850	0.05442077
100	0xbc713bb7	-0.01472371
101	0x3ca5ac0a	0.020223636
102	0xbd44f9b0	-0.048089683
103	0xbeaaaaf7	-0.3333356
104	0x3b8de573	0.004330331
105	0x3d99ec3f	0.075157635
106	0x3da131d1	0.0787083
107	0xbe8714d0	-0.26383066
108	0x3d4d2355	0.050082523
109	0xbe12f668	-0.14351809
110	0x3de90a16	0.11378877
111	0xbe0273aa	-0.12739435
112	0xbd9fa7b3	-0.07795658
113	0xbe9909cc	-0.29890287
114	0xbdb5713c	-0.08859488
115	0x3d1376f7	0.036002126
116	0xbba96c1b	-0.005170358
117	0xbdd840b7	-0.105592184
118	0x3da86886	0.08223061
119	0x3d72a80a	0.059242286
120	0x3de660f7	0.11248963
121	0x3e0e9c47	0.13926803
122	0xbc38eb8c	-0.0112866275
123	0xbd9bb36e	-0.07602583
124	0x3d341c00	0.043972015
125	0x3d5c2efd	0.05375575
126	0xbe88c6e5	-0.26714244
127	0x3dbea3f8	0.09308618
128	0x3db875f6	0.09006874
129	0x3c5ff81d	0.013669995
130	0x3df7e28d	0.12103758
131	0xbe5a398c	-0.21311015
132	0x3e8c2588	0.27372384
133	0x3dd78db1	0.10525072
134	0xbd317184	-0.043321148
135	0xbda7d82e	-0.0819553
136	0xbb41118c	-0.0029459922
137	0x3dadb371	0.08481491
138	0x3e717be4	0.23582417
139	0xb9568129	-0.00020456746
140	0x3e418232	0.18897322
141	0xbbcc04e8	-0.006226171
142	0x3e175430	0.14778209
143	0x3c88c52c	0.016695581
144	0x3e0253f3	0.12727337
145	0x3e37a2b6	0.17933163
146	0xbe329da0	-0.17442942
147	0x3d734f0b	0.059401553
148	0xbe64f9aa	-0.22360864
149	0x3da203a3	0.0791085
150	0xbcc69bbb	-0.02424418
151	0xbe296606	-0.16542825
152	0x3db20ef4	0.08694258
153	0x3daa7bd3	0.08324399
154	0x3e629b20	0.22129488
155	0x3e1b82e0	0.15186644
156	0xbdb17f36	-0.08666842
157	0x3c8b1b13	0.016980683
158	0xbd7f5f7e	-0.062346928
159	0xbd96c8f6	-0.07362549
160	0x3d478ee0	0.04872024
161	0x3e1748a0	0.14773798
162	0x3e41dfce	0.18933031
163	0xbcfbca00	-0.03073597
164	0xbe7d12c2	-0.24714187
165	0xbd7c1c6a	-0.061550535
166	0x3c1c26a2	0.009530695
167	0x3c99fd30	0.018797487
168	0x3c3d61f5	0.011558999
169	0x3d2bf7c2	0.041984327
170	0xbc7a07ff	-0.0152606955
171	0x3d91b1c0	0.07113981
172	0x3c943159	0.018089937
173	0xbe00663e	-0.12539002
174	0xbae92abf	-0.0017789229
175	0xbda41241	-0.08011294
176	0xbb7ee142	-0.0038891588
177	0x3df0d07e	0.11758517
178	0x3bc2f09d	0.0059490935
179	0x3dc41a79	0.09575362
180	0x3ca30048	0.019897595
181	0xbdaf9614	-0.08573547
182	0xbe03b68e	-0.12862608
183	0xbe1b1341	-0.15144064
184	0xbd3b85b3	-0.045781802
185	0x3e07dda5	0.13268144
186	0x3d6c5660	0.05769956
187	0xbdf8abfb	-0.12142178
188	0xbcd0cc37	-0.025488002
189	0xbd84ddff	-0.06487655
190	0x3d53b291	0.051683966
191	0x3dd57e2e	0.104244575
192	0x3d48e037	0.049041953
193	0xbe0abbc0	-0.13548183
194	0xbbf46609	-0.0074584526
195	0xbdc7a3d7	-0.09748047
196	0x3d5f6659	0.054540966
197	0x3d246b29	0.04014126
198	0x3c8d5177	0.01725076
199	0xbd41dc23	-0.04732908
200	0xbcd3ed19	-0.025869893
201	0xbdc06738	-0.093946874
202	0xbd04ed56	-0.032452904
203	0x3d5c69af	0.053811725
204	0x3e1e5f96	0.1546615
205	0xbdadd3ab	-0.08487638
206	0x3da1a33d	0.07892463
207	0x3d05f148	0.032700807
208	0xbd6e2d5e	-0.058148734
209	0x3e4cd743	0.20003991
210	0xbe24eab7	-0.16105162
211	0xbe061ca5	-0.13096865
212	0xbdc6c37e	-0.09705256
213	0xbe299610	-0.1656115
214	0xbd1dd494	-0.03853281
215	0x3d852681	0.06501485
216	0x3e3b728b	0.18305413
217	0x3dcd7392	0.10031809
218	0xbe27c0f0	-0.16382194
219	0xbbfb85a1	-0.007675842
220	0xbe07e58e	-0.13271162
221	0x3df25571	0.11832703
222	0xbe819901	-0.25312045
223	0x3da27a0f	0.07933437
224	0xbddcf83f	-0.10789537
225	0xbda73f97	-0.08166426
226	0x3deb7bb7	0.11498206
227	0x3c87b5e1	0.016566219
228	0xbe213bf5	-0.15745528
229	0x3d6ec65f	0.05829465
230	0xbe0be7d1	-0.1366265
231	0x3dc33511	0.09531606
232	0xbdab40e7	-0.083619885
233	0x3d139659	0.036032055
234	0xbd458f98	-0.048232645
235	0x3e010dc1	0.12602903
236	0xbd84c662	-0.06483151
237	0xbe37f7d0	-0.17965627
238	0xbc313c9f	-0.010817676
239	0x3d8c687c	0.06855866
240	0xbe134bfc	-0.14384454
241	0x3c4ddf0c	0.012565386
242	0xbded1833	-0.11576881
243	0x3b3d94bc	0.0028927764
244	0x3c59a076	0.013282886
245	0xbdba368c	-0.09092435
246	0xbb90d08d	-0.0044193924
247	0x3c2b73dd	0.010464636
248	0xbcd645be	-0.026156303
249	0xbd1a2d38	-0.03764078
250	0xbe0eb088	-0.13934529
251	0x3d77a8ab	0.06046359
252	0xbddf4cf5	-0.1090335
253	0x3d070a52	0.032968827
254	0x3cb8712f	0.022514908
255	0x3c97141a	0.018442202

linear_layer.2.bias f4 [100]
0	0xbd85b449	-0.06528527
1	0xbd647999	-0.055780027
2	0x3c979a98	0.018506333
3	0x3d0d4cad	0.03449695
4	0x3c9889f3	0.018620467
5	0x3d3214fd	0.043477047
6	0x3d6da628	0.058019787
7	0x3c6159b7	0.0137543
8	0xbc217ff2	-0.009857165
9	0x3d06a610	0.032873213
10	0xbd15d833	-0.036583137
11	0xbd7f4fb4	-0.06233187
12	0xbdc97d75	-0.09838382
13	0x3e2f9603	0.17147069
14	0xbc866cb6	-0.01640926
15	0xbcc81557	-0.024424238
16	0xbd92f98a	-0.07176502
17	0x3e0f009b	0.13965075
18	0x3c2623ad	0.010140342
19	0xbcecf595	-0.028925696
20	0xbe020803	-0.12698369
21	0xbd4b7e19	-0.049680803
22	0x3c5e992e	0.013586326
23	0x3dae7190	0.08517754
24	0x3cd09ec6	0.025466334
25	0xbd75402e	-0.05987566
26	0xbd50eac8	-0.051005155
27	0xbd8d3ecd	-0.06896744
28	0x3d808774	0.06275836
29	0xbd901ce3	-0.0703676
30	0xbde7a0e7	-0.113099866
31	0xbd2bccb4	-0.041943267
32	0x3cfc98d2	0.03083459
33	0x3d5e0ff0	0.054214418
34	0xbc9e150b	-0.019297143
35	0xbd9e122d	-0.077183105
36	0xbd02064f	-0.031744298
37	0xbd722674	-0.059118703
38	0xbcf32c02	-0.02968407
39	0xbd01f46a	-0.031727232
40	0xbd221f7c	-0.039580807
41	0xbdc8eafb	-0.09810444
42	0xbd13b464	-0.036060706
43	0x3d0d549f	0.03450453
44	0x3c47b717	0.012189648
45	0x3cd6e650	0.026232868
46	0x3cead30f	0.028665094
47	0x3bc1810a	0.0059052752
48	0xbbdf8910	-0.006821759
49	0x3c0c49ec	0.008562546
50	0xbcb9986f	-0.022655694
51	0x3b93ecb7	0.0045143026
52	0x3da7a9f0	0.0818671
53	0x3dcf4aef	0.10121714
54	0x3d85d530	0.06534803
55	0xbea7b624	-0.3275615
56	0xbd8406ce	-0.064466104
57	0xbc96a968	-0.018391326
58	0x3beca69e	0.0072220108
59	0xbd5e396a	-0.054253973
60	0x3e259ef4	0.16173917
61	0x3d45336f	0.048144754
62	0x3e1df2bc	0.15424627
63	0x3d065be3	0.032802474
64	0xbd28b889	-0.04119161
65	0xbcd83023	-0.02639014
66	0xbd8ed4ac	-0.06974158
67	0x3c03a2c7	0.008034415
68	0xbe601fc1	-0.21887113
69	0x3c4248f9	0.011858218
70	0x3c86e6ee	0.016467538
71	0x3cf8c760	0.030368507
72	0x3c8cdc0a	0.017194767
73	0xbc013c8f	-0.007887973
74	0xbccbf650	-0.024897724
75	0xbd68eb66	-0.05686512
76	0xbc81758e	-0.015803125
77	0x3c137d51	0.009002046
78	0x3ce5c637	0.028048618
79	0xbdb89a89	-0.0901385
80	0xbd8d8620	-0.06910348
81	0xbc9d1788	-0.01917626
82	0xbdca9616	-0.09891908
83	0xbd222ef4	-0.03959556
84	0x3d338ed2	0.043837376
85	0x3d5fd40b	0.05464558
86	0x3c887743	0.01665843
87	0x3e57468d	0.21023007
88	0xbd1bda03	-0.03804971
89	0xbbac16bc	-0.0052517336
90	0x3c9642e2	0.01834244
91	0x3d37c0c8	0.044861585
92	0xbc848293	-0.016175544
93	0xbe903953	-0.28168735
94	0x3bc0df80	0.0058860183
95	0xbd939ac1	-0.07207251
96	0xbd2cda49	-0.04220036
97	0x3c606b38	0.013697438
98	0xbd81653c	-0.06318137
99	0xbc9e7f2f	-0.019347755

linear_layer.3.weight f4 [100, 100]
0	0xbe28f2ef	-0.16498922
1	0x3dd16565	0.102244176
2	0xbd4993b6	-0.049213134
3	0x3e27b95d	0.16379304
4	0xbb7a33c3	-0.0038177825
5	0xbcbb6465	-0.02287502
6	0x3d77bb93	0.06048162
7	0x3dd7e2e1	0.105413206
8	0xbde99518	-0.114053905
9	0xbdcc6008	-0.09979254
10	0xbe614284	-0.2199803
11	0x3d9b692b	0.075884186
12	0xbe1210b0	-0.14264178
13	0x3f16c150	0.5888872
14	0xbd784aa1	-0.060618047
15	0x3d12518f	0.03572231
16	0xbe81e273	-0.2536808
17	0x3e1a810f	0.15088294
18	0xbdbeef82	-0.09323026
19	0x3c9655b6	0.018351417
20	0xbece8bde	-0.40341085
21	0xbdfa59b4	-0.12224141
22	0xbcfed8ec	-0.031109296
23	0x3e10f751	0.14156844
24	0x3ba4aebf	0.005025714
25	0x3d94cde7	0.07265835
26	0xbc85a9a8	-0.01631625
27	0xbd929d13	-0.07158866
28	0x3e5f081f	0.21780442
29	0xbc5d8c58	-0.01352223
30	0xbe20a7bd	-0.15688987
31	0xbe0f069d	-0.13967367
32	0xbdff3167	-0.124605946
33	0xbd0d873b	-0.034552794
34	0xbd83e74c	-0.06440601
35	0xbc892146	-0.016739499
36	0xbe9c4d24	-0.30527604
37	0xbe55d347	-0.20881377
38	0xbe74da41	-0.23911382
39	0xbdee79c2	-0.11644317
40	0x3e0ae7a7	0.13564931
41	0xbe4ffa19	-0.20310248
42	0xbe247759	-0.16061153
43	0x3e14cb66	0.14530715
44	0x3d22c277	0.039736237
45	0xbc9db4a9	-0.019251185
46	0x3d5be795	0.05368765
47	0x3e2e9d2c	0.17052144
48	0xbe7e1964	-0.24814373
49	0x3de319a4	0.11088875
50	0x3dfd7de7	0.123775296
51	0xbd80f344	-0.06296399
52	0xbce047bf	-0.027377961
53	0x3e9b12ae	0.3028769
54	0x3e7ab49b	0.24482958
55	0x3b564ee2	0.0032700826
56	0x3db3e3a8	0.08783656
57	0xbe23edc1	-0.16008665
58	0xbe20b626	-0.15694484
59	0xbe069754	-0.13143665
60	0x3c76b7f8	0.01505851
61	0xbe08fea6	-0.1337839
62	0x3e9bfaa4	0.3046466
63	0xbdb83b25	-0.08995656
64	0x3dcab553	0.09897866
65	0x3c3fba97	0.011702201
66	0x3d4b9f4f	0.049712475
67	0xbc88f50a	-0.016718406
68	0x3dd17c33	0.10228767
69	0xbc9761a4	-0.018479176
70	0x3e439e66	0.19103393
71	0xbd3b9156	-0.0457929
72	0x3dcb2e0b	0.099208914
73	0xbccf60bc	-0.025314681
74	0x3e46b7a9	0.19405998
75	0x3dd46acd	0.10371933
76	0xbd9c63f0	-0.07636249
77	0xbc4cb336	-0.012493899
78	0x3c54951f	0.012975006
79	0xbe84522c	-0.25843942
80	0x3ba7def2	0.0051230127
81	0x3df63ba8	0.12023097
82	0xbd99f4c9	-0.07517392
83	0xbca17ddd	-0.019713337
84	0x3e7cfe9d	0.24706502
85	0xbe1164f0	-0.14198661
86	0x3d170715	0.03687199
87	0x3cf34781	0.029697182
88	0xbe042c07	-0.1290742
89	0x3d122f27	0.0356895
90	0xbe45065c	-0.19240707
91	0x3e8ba55c	0.27274597
92	0xbb8e99f3	-0.0043518483
93	0x3d95051d	0.07276366
94	0x3c09a69e	0.008401541
95	0x3e0738c6	0.13205251
96	0x3d9f96e2	0.077924505
97	0x3d0a9b5a	0.03383956
98	0xbe4022bd	-0.18763252
99	0xbdae09a3	-0.08497932
100	0x3e3360a6	0.17517337
101	0xbc4fce66	-0.012683487
102	0x3c205b10	0.009787336
103	0xbdf3485c	-0.11879036
104	0x3d00ba20	0.031427503
105	0x3cc27a22	0.023739878
106	0xbde11949	-0.10991151
107	0x3d6dab78	0.058024853
108	0x3b9ea17e	0.0048410287
109	0xbd8b679b	-0.068068705
110	0xbdd0ea2f	-0.10200917
111	0x3e078514	0.13234359
112	0xbd288ce4	-0.04114999
113	0x3e927338	0.2860353
114	0xbddba37f	-0.10724544
115	0xbcb5c3d2	-0.022188101
116	0xbd7a2534	-0.061070636
117	0xbdab9138	-0.08377308
118	0x3dcf0d2d	0.10109935
119	0x3c9fb65c	0.019496135
120	0x3dc924d9	0.09821481
121	0xbd8edf12	-0.06976141
122	0x39bad7b5	0.000356374
123	0xbe3797f9	-0.17929067
124	0xbe1eb4f3	-0.15498714
125	0x3dccac23	0.0999377
126	0x3ccd124e	0.025033142
127	0xbe41aab2	-0.18912771
128	0x3e1eeb0c	0.15519351
129	0x3dc733a8	0.097266495
130	0xbe321972	-0.17392519
131	0x3e4fa980	0.20279503
132	0x3d460d5a	0.048352577
133	0xbe2bae92	-0.16765812
134	0x3d92e0b5	0.07171766
135	0xbd5ef06d	-0.054428507
136	0x3df0cf1d	0.11758254
137	0xbe65fe67	-0.22460328
138	0x3b0c7898	0.0021434184
139	0xbbe679bf	-0.0070335562
140	0x3c7c6908	0.015405901
141	0x3dcdc211	0.10046781
142	0xbd293834	-0.041313365
143	0x3d14c081	0.0363164
144	0x3e4d96a1	0.20076992
145	0xbbbf4e3a	-0.0058381828
146	0xbe31eec6	-0.17376241
147	0x3d1da02a	0.038482822
148	0x3d1e843a	0.03870032
149	0x3e2a6332	0.16639403
150	0x3d7400bc	0.059571013
151	0x3c71d2b3	0.014759707
152	0x3dee7d66	0.116450116
153	0xbcd590bd	-0.026069993
154	0x3d45b72c	0.04827039
155	0xbd2992b0	-0.041399658
156	0xbd5e247a	-0.054234006
157	0xbd9dd24a	-0.07706125
158	0x3dffc5eb	0.12488922
159	0x3d87c8c5	0.066300906
160	0x3d83ca98	0.06435126
161	0xbdb4d3f7	-0.088294916
162	0xbbb68ca9	-0.005570967
163	0xbd22514c	-0.039628312
164	0x3db91a61	0.090382345
165	0xbdd025e5	-0.10163478
166	0xbe2beaa7	-0.16788732
167	0xbcc572be	-0.024102565
168	0xbe0558cc	-0.13022155
169	0xbe3a4c87	-0.18193255
170	0xbd90a2d4	-0.07062307
171	0xbca0ed43	-0.019644385
172	0x3e4f1085	0.20221145
173	0xbd8d216d	-0.06891141
174	0xbdabf637	-0.08396571
175	0xbd40ca05	-0.04706766
176	0xbdbd1f09	-0.09234435
177	0xbe19c9e4	-0.15018421
178	0x3c0f6281	0.0087515125
179	0xbc39e3d0	-0.011345819
180	0xbd1e9506	-0.03871634
181	0xbd3804e0	-0.044926524
182	0xbcb56fe1	-0.022148075
183	0x3e20eed3	0.15716104
184	0x3d2a5a3e	0.041589968
185	0x3d866bc6	0.06563525
186	0x3abf42c3	0.001459204
187	0xbde406e6	-0.11134128
188	0xbcf17fbc	-0.029479854
189	0xbceb1c8b	-0.028700134
190	0x3c130a4f	0.008974626
191	0x3dcf29c5	0.10115389
192	0xbcf8990a	-0.030346412
193	0xbd380f04	-0.044936195
194	0x3cbb4db9	0.02286421
195	0xbdf16ab9	-0.11787934
196	0x3adf3fc4	0.0017032553
197	0xbdda4d95	-0.10659329
198	0xbe5009f9	-0.20316304
199	0x3ca05178	0.019570097
200	0xbca615c0	-0.020274043
201	0x3ce842ed	0.028352225
202	0xbd5ad3d6	-0.05342468
203	0xbdb686ec	-0.08912453
204	0xbc70ff01	-0.014709235
205	0xbdae98a7	-0.0852521
206	0xbd4da8c0	-0.05020976
207	0xbde44617	-0.11146181
208	0x3d2b1348	0.041766435
209	0xbe1ee5f6	-0.1551741
210	0x3d5d72de	0.054064624
211	0x3e12f165	0.14349897
212	0xbdcca6f6	-0.09992783
213	0xbbd25b36	-0.0064195646
214	0x3ca1de1f	0.019759236
215	0x3d5492d0	0.051897824
216	0xbc10e60d	-0.008843911
217	0xbe001add	-0.12510248
218	0xbe6e14bf	-0.23250102
219	0xbd232d3c	-0.03983806
220	0x3e5cb775	0.21554358
221	0x3c38c561	0.011277528
222	0x3ce58f83	0.028022533
223	0xbde52cc0	-0.11190176
224	0x3c1e9075	0.009677996
225	0xbd41ec03	-0.04734422
226	0x3df2d0a5	0.11856202
227	0x3daaf9b2	0.08348407
228	0xbd3f720b	-0.04673962
229	0x3db63384	0.088965446
230	0xbd895231	-0.0670513
231	0xbd7f41d5	-0.06231864
232	0x3d630700	0.055426598
233	0xbde47300	-0.11154747
234	0xbe47cdc8	-0.19512093
235	0x3e5639f1	0.2092054
236	0x3d9ec349	0.077520914
237	0x3d562531	0.052281562
238	0x3d7d4899	0.061836813
239	0x3e834756	0.25640363
240	0x3d78c6a8	0.06073633
241	0x3d83d3d5	0.06436888
242	0xbd90f33b	-0.070776425
243	0xbdf2a0b7	-0.1184706
244	0x3da99627	0.082805924
245	0xbd610561	-0.05493677
246	0xbde6c57a	-0.112681344
247	0xbc3b9ae6	-0.011450505
248	0xbad614a1	-0.0016333052
249	0xbe3a9b2f	-0.1822326
250	0x3d17f382	0.03709746
251	0x3dba37c7	0.0909267
252	0xbda011f7	-0.078159265
253	0xbd2ce29a	-0.04220829
254	0xbe37e3e4	-0.17958027
255	0x3e55df19	0.20885886

linear_layer.3.bias f4 [100]
0	0x3dd0d836	0.10197489
1	0x3c8a2708	0.016864315
2	0xbd740be6	-0.05958166
3	0xbde8a3f8	-0.113593996
4	0xbc8a6583	-0.016894108
5	0xbd217727	-0.039420273
6	0x3dbc1477	0.09183591
7	0x3d3de36c	0.046359465
8	0x3d2d8850	0.042366326
9	0x3b4f6768	0.0031647328
10	0xbd399305	-0.045306224
11	0xbd02b7bd	-0.031913508
12	0x3c204858	0.009782873
13	0x3d1538a0	0.036430955
14	0x3c051fdb	0.008125271
15	0x3c48c14f	0.01225312
16	0xbd9e924a	-0.07742746
17	0xbc1a68fd	-0.009424445
18	0x3c864090	0.016388208
19	0x3d25b78d	0.04045825
20	0xbd808ded	-0.0627707
21	0x3d5d8123	0.054078232
22	0x3cea6c2e	0.028616037
23	0x3d20b125	0.03923144
24	0x3bcd2e12	0.0062615955
25	0xbd31e069	-0.043426905
26	0x3d8b0a4f	0.067890756
27	0x3d815a5c	0.06316063
28	0x3d13a3d2	0.036044903
29	0x3d5d65df	0.05405223
30	0xbcb80547	-0.022463454
31	0xbb53ea83	-0.0032335825
32	0x3c9b1e9e	0.018935498
33	0x3cf2e37f	0.029649494
34	0x3ac30b44	0.0014880677
35	0xbcecfaca	-0.02892818
36	0x3c8a1ed4	0.016860403
37	0xbc3a86ca	-0.011384675
38	0xbd32fafb	-0.043696385
39	0xbbf39959	-0.007434052
40	0xbc755849	-0.014974662
41	0x3c62eff4	0.013851155
42	0x3d32ca54	0.043649986
43	0xbc49acc6	-0.012309259
44	0x3d8c7f11	0.068601735
45	0x3d6e613d	0.058198202
46	0x3dbdb294	0.09262577
47	0xbe3d80f6	-0.18506226
48	0x3d54d06a	0.05195657
49	0xbd3aee41	-0.045637373
50	0x3d0a97d2	0.033836193
51	0xbcd26a7d	-0.025685543
52	0xbbfc9f54	-0.007709423
53	0x3a827011	0.0009951611
54	0xbcadf11b	-0.021233132
55	0xbcae9945	-0.021313319
56	0xbd4e5a28	-0.05037895
57	0xbc8a29af	-0.01686558
58	0x3d3ba37f	0.04581022
59	0x3d4a6a70	0.049417913
60	0x3baa3d38	0.005195286
61	0x3cfd643e	0.030931588
62	0x3be03ea0	0.006843403
63	0x3c6ddee7	0.014518476
64	0x3ccd0b18	0.025029704
65	0x3c848913	0.016178643
66	0x3d8b04e9	0.06788046
67	0xbae38c7a	-0.0017360591
68	0x3c878814	0.01654438
69	0xbd321d51	-0.04348499
70	0x3d009f46	0.031401895
71	0xbd1caa3e	-0.038248293
72	0xbb4c4af9	-0.0031172617
73	0xbc23b59f	-0.009992032
74	0xbd070c4d	-0.032970715
75	0x3ca3baad	0.019986475
76	0xbc149d9c	-0.00907078
77	0xbea039ea	-0.31294185
78	0x3d32922c	0.04359643
79	0xbd616248	-0.05502537
80	0xbc216860	-0.009851545
81	0x3ca73aeb	0.020413836
82	0xbb16028f	-0.0022889709
83	0xbcc9e47c	-0.024645083
84	0xbd47d4a7	-0.048786785
85	0x3d505263	0.05085982
86	0x3cb867a9	0.022510367
87	0x3d630964	0.055428877
88	0xbd05779c	-0.03258477
89	0x3be47ddf	0.006973013
90	0x3cf387af	0.029727785
91	0x3ce48648	0.027896062
92	0x3d2e6e4a	0.04258565
93	0xbd12cfdb	-0.035842758
94	0x3bedfc5f	0.007262751
95	0x3d30aed6	0.043135487
96	0x3cbcc01a	0.02304082
97	0x3cb2818c	0.021790288
98	0xbd221934	-0.039574817
99	0xbd606f66	-0.054793738

linear_layer.4.weight f4 [100, 100]
0	0xbcc22a16	-0.023701709
1	0x3d1381fe	0.036012642
2	0x3d943507	0.07236677
3	0x3da26129	0.07928688
4	0x3d65f2cf	0.056139763
5	0xba89f113	-0.0010524116
6	0xbd56a353	-0.052401852
7	0x3e144958	0.14481103
8	0x3da7f9e8	0.08201963
9	0x3cbece00	0.023291588
10	0xbe14871a	-0.14504662
11	0x3dcca9bf	0.09993314
12	0x3db0c5fa	0.08631511
13	0x3e195a0a	0.14975753
14	0x3dffa05e	0.124817595
15	0x3e5ea0d3	0.21741037
16	0x3e099f7e	0.13439748
17	0x3ea9f1f0	0.33192396
18	0x3c1fbcd7	0.009749613
19	0x3d15535b	0.036456447
20	0x3c523af4	0.012831438
21	0x3d53faec	0.05175297
22	0xbca663f7	-0.020311339
23	0x3e089dfa	0.13341513
24	0x3e1c061e	0.15236709
25	0xbdc8c8a8	-0.09803897
26	0x3d91808c	0.071045965
27	0xbdd1d130	-0.102449775
28	0x3e25b8a1	0.16183712
29	0xbd294b19	-0.041331384
30	0x3e0c6037	0.13708578
31	0xbd87a567	-0.06623345
32	0xbe269b1f	-0.16270112
33	0x3d2ac65f	0.041693088
34	0x3bc65651	0.00605277
35	0x3b69e71b	0.0035690728
36	0xbe4975c1	-0.19673826
37	0x3d7c624f	0.061617192
38	0x3e12c51f	0.14333008
39	0x3cd3a0cc	0.02583351
40	0xbe57662a	-0.21035066
41	0xbe8aa3f9	-0.27078226
42	0xbe917ad1	-0.28414014
43	0x3da9d42e	0.08292423
44	0xbd343b1c	-0.044001684
45	0xbe83e8d4	-0.2576357
46	0x3e2e3886	0.1701375
47	0xbd62cbaa	-0.05537001
48	0x3d8dc43f	0.069221966
49	0x3cb9f6c8	0.022700682
50	0xbd557137	-0.052109923
51	0xbdcefb4c	-0.10106525
52	0xbdc57f47	-0.09643417
53	0xbc819847	-0.015819682
54	0x3c1c4297	0.009537361
55	0x3d83ea56	0.064411804
56	0x3d635551	0.055501286
57	0x3d974cef	0.07387721
58	0x3dac0eda	0.0840127
59	0x3d6c543f	0.05769753
60	0x3daacde9	0.083400555
61	0x3bdbb537	0.006704952
62	0x3c6e682f	0.0145512065
63	0x3ce9c3bf	0.028535722
64	0x3df603c9	0.12012441
65	0x3d178e02	0.037000664
66	0x3c3cccef	0.011523469
67	0xbc5bb31f	-0.013409405
68	0xbe5f0bde	-0.2178187
69	0x3ded9f18	0.1160261
70	0x3d068756	0.03284391
71	0x3d86466e	0.06556402
72	0xbdbf73bb	-0.09348246
73	0x3e3fb3f9	0.18720998
74	0x3ca4eed3	0.020133412
75	0xbe2714a7	-0.16316472
76	0x3db29c1d	0.087211825
77	0x3dc2c2b4	0.09509793
78	0xbc7b98d2	-0.015356259
79	0x3d036a9b	0.03208409
80	0x3d381b29	0.044947777
81	0x3d9b53dd	0.07584355
82	0x3d5b0a29	0.053476486
83	0xbb2b2672	-0.0026115444
84	0xbd314859	-0.043281887
85	0xbc165d1b	-0.0091774715
86	0x3e0913dd	0.13386483
87	0xbc93d5f8	-0.018046364
88	0xbd0e574b	-0.034751218
89	0xbd03c234	-0.03216763
90	0xbca12048	-0.019668713
91	0x3e0028af	0.1251552
92	0xbe5815ef	-0.21102117
93	0x3da0884f	0.07838499
94	0xbdac5161	-0.08413959
95	0xbdac6e26	-0.08419447
96	0x3ca98251	0.020692023
97	0xbc773892	-0.015089171
98	0xbdce8df0	-0.10085666
99	0xbce42011	-0.027847322
100	0xbdcbfd8e	-0.09960471
101	0x3b22a434	0.002481711
102	0xbdfcfff8	-0.1235351
103	0x3c84b6db	0.016200474
104	0xbcd7e958	-0.026356384
105	0xbd8f59c3	-0.069995426
106	0xbe56c5d8	-0.20973909
107	0x3bf0a6af	0.007344089
108	0x3ba232df	0.004949912
109	0xbd8e3c01	-0.069450386
110	0xbcf7dd54	-0.030256905
111	0xbc94613a	-0.018112767
112	0x3e09dacf	0.13462375
113	0x3dde7231	0.10861624
114	0x3e65f73f	0.22457598
115	0xbd41b754	-0.047293976
116	0xbdf10dce	-0.11770211
117	0xbda611f5	-0.08108894
118	0xbd7c658d	-0.061620284
119	0x3d89397a	0.06700416
120	0xbda74a11	-0.08168424
121	0x3dd6c5a5	0.104869165
122	0x3dbc769f	0.09202313
123	0xbd99886d	-0.07496724
124	0x3c8a7975	0.016903618
125	0xbd339706	-0.0438452
126	0x3d94b412	0.07260908
127	0x3e099254	0.13434726
128	0x3e6cc9b5	0.2312382
129	0x3dac443a	0.08411451
130	0xbd8c5602	-0.06852342
131	0x3d898c19	0.06716175
132	0x3d67cf9f	0.056594487
133	0x3cdad0e3	0.026710933
134	0xbccfea28	-0.02538021
135	0xbe68c22c	-0.2273032
136	0xbdf83799	-0.121199794
137	0xbdbf1140	-0.09329462
138	0x3de08a11	0.10963834
139	0x3db90ff9	0.0903625
140	0x3d25ee95	0.040510733
141	0x3d0baa36	0.034097873
142	0x3db421b0	0.08795488
143	0x3e27c823	0.1638494
144	0x3d336010	0.043792784
145	0xbd2098e6	-0.039208315
146	0x3e688bec	0.22709626
147	0x3de51bec	0.11186966
148	0xbd1b0988	-0.037850887
149	0xbe238a7b	-0.15970795
150	0xbd2030f7	-0.039109197
151	0x3d541eb7	0.051787104
152	0xbd2d6ca1	-0.042339925
153	0xbdae89c7	-0.08522373
154	0xbd4eb544	-0.050465837
155	0xbdbfbdcc	-0.09362373
156	0xbd516ef9	-0.051131222
157	0x3db521d6	0.08844344
158	0xbd56222b	-0.05227868
159	0xbc2c7ef7	-0.010528318
160	0xbc184fd7	-0.009296379
161	0x3d327df7	0.04357716
162	0x3c839ab0	0.016064972
163	0xbe638ace	-0.22220919
164	0xbd1d4e64	-0.038404837
165	0x3e17b578	0.14815319
166	0x3e0e6c10	0.1390841
167	0x3e1673ab	0.14692561
168	0xbdf2aa9a	-0.11848946
169	0xbdcbd7fb	-0.099533044
170	0xbdd2e570	-0.10297668
171	0xbde6fe4d	-0.11278973
172	0x3bbd329f	0.005773857
173	0xbe3cef51	-0.18450667
174	0xbb9568e7	-0.0045596245
175	0x3d9fc681	0.078015335
176	0x3d588acd	0.052866746
177	0xbe50eba2	-0.20402387
178	0xbe30dfcd	-0.17272873
179	0x3deba7cd	0.11506615
180	0x3e155d37	0.1458634
181	0xbe20844b	-0.15675466
182	0x3d019453	0.031635594
183	0xbd1ea271	-0.038729135
184	0x3d77e54a	0.0605214
185	0xbce24850	-0.027622372
186	0xbe1e8e48	-0.15483963
187	0xbd7ac6c1	-0.061224703
188	0xbe2d7314	-0.1693843
189	0xbe20a560	-0.15688086
190	0x3db774cc	0.08957824
191	0xbd99c007	-0.075073294
192	0xbe078036	-0.13232502
193	0x3d504147	0.050843503
194	0x3cd56ed5	0.026053825
195	0x3cc09b3d	0.023511523
196	0xbcfa2534	-0.030535318
197	0xbdadb62d	-0.08482013
198	0x3ddaf15f	0.10690569
199	0x3cdcf051	0.02697006
200	0x3d752502	0.059849747
201	0xbc165725	-0.00917605
202	0xbe41f03f	-0.18939303
203	0x3ddc35dd	0.10752461
204	0xbe5fbc57	-0.2184919
205	0xbdafe1ef	-0.08588015
206	0x3d5dfcdb	0.05419622
207	0x3de4e98d	0.11177359
208	0xbe8b15c8	-0.27165055
209	0x3b45728d	0.0030128092
210	0x3d896394	0.06708446
211	0x3cd2c732	0.02572975
212	0xbbf56f22	-0.0074900547
213	0xbde0d758	-0.109785736
214	0x3d3b6f54	0.045760468
215	0x3e2f4185	0.17114837
216	0xbe2c408c	-0.16821498
217	0xbe3a2975	-0.18179877
218	0x3d4d157e	0.050069325
219	0x3d7005e1	0.058599357
220	0xbd4d3e8a	-0.05010847
221	0xbb19dbbd	-0.0023476921
222	0x3e32a694	0.17446357
223	0x3d03448f	0.032047804
224	0x3c8e52d3	0.017373478
225	0xbd4a093f	-0.049325224
226	0xbd3e869c	-0.046515092
227	0x3b04dce6	0.0020273267
228	0x3e28d9fb	0.16489403
229	0xbd7ed474	-0.06221433
230	0xbe4799d2	-0.19492272
231	0x3d8f4639	0.06995816
232	0x3e364685	0.17800339
233	0x3e18d1be	0.1492376
234	0xbda4a537	-0.08039325
235	0x3d194034	0.037414744
236	0xbc9e157f	-0.01929736
237	0x3e2628a1	0.16226436
238	0xbe0dddb5	-0.13854106
239	0xbca756b5	-0.020427087
240	0xbe0d3b8e	-0.1379225
241	0x3d635e1b	0.055509668
242	0x3e34c628	0.17653716
243	0xbe17f7b1	-0.1484058
244	0xbe11b2d2	-0.14228371
245	0x3bfc1521	0.0076929484
246	0x3e1c60a0	0.15271235
247	0x3eb17a63	0.34663686
248	0x3dba1380	0.090857506
249	0x3d66314c	0.056199357
250	0x3ea42fb4	0.32067645
251	0x3c5f37f6	0.013624182
252	0x3d7c511e	0.061600797
253	0x3d722e96	0.05912646
254	0x3e4c747b	0.19966309
255	0x3dce6c27	0.10079222

linear_layer.4.bias f4 [100]
0	0xbbf50f0f	-0.0074786018
1	0xbd0a18bf	-0.033715006
2	0x3d831958	0.06401318
3	0xbc98576f	-0.01859638
4	0xbe0a5918	-0.13510549
5	0xbc8c61b8	-0.01713644
6	0xbd100a7f	-0.03516626
7	0x3c472b94	0.012156386
8	0x3d38156d	0.04494231
9	0x3cd69f0b	0.026198884
10	0x3c74b5bb	0.014935906
11	0xbdc32944	-0.09529355
12	0xbca5ccb6	-0.020239215
13	0x3c917eff	0.017760752
14	0xbcdaecfc	-0.026724331
15	0x3c94e1fa	0.01817416
16	0x3d166728	0.03671947
17	0xbcd6194a	-0.026135106
18	0xbd819cf2	-0.06328763
19	0x3d4da6fc	0.050208077
20	0x3d84783c	0.064682454
21	0xbcd831a4	-0.026390858
22	0x3bda6ebf	0.006666034
23	0x3c40df9b	0.011772062
24	0x3c784397	0.015152833
25	0x3cdbca33	0.026829815
26	0xbc834745	-0.016025195
27	0xbc084a1c	-0.00831845
28	0xbd180cd3	-0.037121605
29	0xbd34b7ee	-0.04412072
30	0x3cdd596c	0.027020179
31	0x3c89678f	0.016773013
32	0xbcb926f5	-0.022601584
33	0xbd186834	-0.03720875
34	0x3d17af1c	0.03703223
35	0xbd942612	-0.07233824
36	0x3d28ff2f	0.041258987
37	0x3e1dae61	0.15398552
38	0x3c8518e2	0.016247217
39	0xbd18882e	-0.037239246
40	0xbb8d52c9	-0.0043128473
41	0x3c92f8a1	0.017940821
42	0xbb3edfb3	-0.0029125034
43	0xbc31fac0	-0.010863006
44	0xbd565aa2	-0.052332528
45	0x3c4d0b56	0.01251491
46	0xbd0f25ae	-0.034948044
47	0xbc9fe718	-0.019519374
48	0xbb983182	-0.0046445737
49	0xbca540c6	-0.020172488
50	0x3a8a8a6e	0.001056982
51	0xbbf2c20e	-0.007408387
52	0x3b12b228	0.0022384021
53	0x3c96aa4c	0.01839175
54	0x3be40a8a	0.006959264
55	0xbccace07	-0.024756445
56	0x3a7dafee	0.00096773996
57	0x392a4010	0.00016236329
58	0xbca29a8f	-0.01984909
59	0xba8f63e8	-0.0010939809
60	0xbb25453d	-0.0025218271
61	0x3d9cc192	0.07654108
62	0x3c368910	0.011141077
63	0xbc041947	-0.008062667
64	0x3c26192c	0.010137837
65	0x3b818160	0.0039521903
66	0x3b072a4d	0.0020624578
67	0xbca72d60	-0.020407379
68	0x3d2bda7b	0.041956406
69	0xbccafaa4	-0.024777718
70	0xbd717e3f	-0.05895829
71	0xbc3c05e0	-0.01147601
72	0x3c9cc911	0.019138845
73	0x3aeb3583	0.0017945025
74	0x3cf21de7	0.029555274
75	0xbd1c62e9	-0.038180266
76	0xbc68483e	-0.01417738
77	0x3cd89118	0.026436374
78	0x3d3922ff	0.04519939
79	0x3c0864db	0.008324827
80	0x3d4e39f1	0.050348226
81	0xbcf1a36a	-0.029496867
82	0x3da9f318	0.082983196
83	0x3d5fb3ae	0.054614715
84	0xbd68e1e6	-0.05685606
85	0xbd7a90de	-0.061173312
86	0xbbcb1157	-0.0061971354
87	0xbcc3d350	-0.023904473
88	0xbc2625c0	-0.010140836
89	0x3c4515ba	0.012029106
90	0x3c0d9455	0.008641322
91	0x3ca5d06a	0.020240981
92	0xbc9a4dcb	-0.018835923
93	0x3c9d76ff	0.01922178
94	0x3d77e3a2	0.060519822
95	0xbcc9eda2	-0.024649445
96	0xbaae3292	-0.0013290218
97	0xbc9713d8	-0.01844208
98	0xbd366fb1	-0.04454011
99	0xbc9be238	-0.019028768
