ac_2d_model_para_5/checkpoint_950.pth (torch, 291130 bytes, 17 tensors)

linear_layer.0.weight f4 [100, 3]
00000000: cb0e 623e a27e 223e 006e 44be e0cd 4f3c
00000010: 7eaf 95bd 3907 e33d d6d9 4c3d c439 80bd
00000020: 96c5 90be b380 783e 604a 11bd b1d2 5d3e
00000030: 614f 23be 6bde 1dbe db9f b9be cbd7 70bd
00000040: 913d 4dbe c329 05be 325b d3bd 5ced 0a3e
00000050: 98d0 fdbd c171 9dbd 1298 38bd 68cc a8be
00000060: 55cb 063f 8fa6 4b3d 27f1 ab3c d43b 1ebe
00000070: 2366 40be 2fa4 98bd e9f1 2b3d e2f9 79be
00000080: 67a2 083e 252c d8bd d6cf 863d 87ea 73be
00000090: a164 c73e 1d0a 93bb eca6 e6bd a0af 883e
000000a0: 0eb9 1dbc 689a 793e 0a9f 423e 8947 213e
000000b0: 6673 383e fa00 38be e6d6 49be e669 ca3c
000000c0: d199 a03e fbb0 b33c 4ac8 93be 4817 58be
000000d0: 788e 19be 64f4 1ebe 2e89 90be da21 8fbc
000000e0: 64be c73d fabd 1c3e 9485 253e 52e1 71be
000000f0: 9dc2 b03d 923f 4fbe 2844 a03d 1b4e db3e
00000100: d3bc aebd b88b a13d 1b6c 8cbe 2bf1 1dbe
00000110: d33b c13c e095 173e 8b32 cb3c 1e79 f5be
00000120: 1748 6f3e 8a49 0c3d c9fb 9c3e 5bc6 353e
00000130: 732b aa3d 522f 0a3c 7d72 9ebe 7844 5dbe
00000140: 5484 b4bd 112b 603d 1545 8a3e 4c41 643d
00000150: cdcd 523e fed4 58be d91d 5b3d 7b67 c63d
00000160: ee05 9bbc 9bc7 d3bd 457a 41bd 83ed 25be
00000170: d2a1 0ebe 86f4 d73e d7e9 863c 876c a73e
00000180: 6cc8 c43d d802 67be e1d2 033e 9e7e c8be
00000190: eb61 8c3c 0b5c ddbd 934a 843d 3094 c7bd
000001a0: 2961 94be c23f 023e 38b0 13be 5521 533e
000001b0: c76e 21be 207e 893e 63b5 a43c f25c 8b3e
000001c0: a4b1 163e f805 873d 0d5d d5bc 2c41 bcbd
000001d0: 3f6f cabe 163a 08be f2db e6bc 43d9 1bbe
000001e0: 2478 ba3d b53d c43d 52de 02be 67e8 37be
000001f0: c86b 2fbc fd6f 063e 591f 71be 361d 303e
00000200: 5439 02be 3875 123e ec7b 88bd 3d4d 7c3e
00000210: 9f25 20be 8713 4d3e febc 023e 2d1f 9abd
00000220: d475 e5bd d1e8 143e 1866 e8be 5560 213e
00000230: 5b1d 92be 9514 c13e 06ee 983a 891a 05be
00000240: 8791 ba3d 9d61 c33d 9d9b c13d e0c5 bc3e
00000250: d1d8 d3bd 0171 eebd 6a6d 5b3e 9444 e63d
00000260: cba3 01be 91b6 493e 4746 65bd 00b4 18be
00000270: 3027 dbbd 67e9 823e 3c85 c03d 48da 8c3c
00000280: d756 6a3d d01f 833e e09c f23d 1e9b af3d
00000290: 26ed 993b 47db ac3e 365a 96bd 3de6 e53d
000002a0: 13ec 0b3f edd4 723c cadb 43bc 867b ae3e
000002b0: 18fc f4bd dbb5 83be e31b aa3e fcc3 093c
000002c0: d70c 12be 302b 61bd e27d 39be d759 883e
000002d0: 629b 0cbe 1ce1 f23d c91d debb 1065 283c
000002e0: fb23 933e 2e6b cd3c bcf1 a43e fd6e 1abe
000002f0: 6005 7fbd 5d04 fcba 4aaa f23d 5a7b 49be
00000300: 9664 ca3e 8bc0 1dbe 146d 9d3d e6e3 f03c
00000310: 5bbb d53d 6005 a53e 4d39 133e 32de e4bc
00000320: 1958 bfbe 3e71 d4be 2405 e5bc 0f07 ea3d
00000330: cd25 c33e b908 f3bd 349b 953c 8ebc c4bd
00000340: dd9d d53d 0850 d03c e5f1 8ebe 5f6c 7f3c
00000350: f674 19bd d590 ef3d d70f 1f3e b4c7 b83d
00000360: 6f8e b0bd 77e5 883e ada1 c7bd cd17 d43d
00000370: a387 1c3e 0e38 57be ca84 f93e e65a 043d
00000380: a35b a6bd 771a edbc 4ad4 b43e f5c5 153e
00000390: 521a 2bbe 209d d3be daab 803e b44c bfbe
000003a0: c0ed c5bd 2e09 34be d028 a0bc 9d54 5f3e
000003b0: 122a d6bb 1bfd e93c 1fd3 4cbe e5d8 583d
000003c0: e7c6 163e 3f17 6abd a88a 17bd e040 11be
000003d0: 1173 50be 51a9 a2bd 3124 81be 61c2 253e
000003e0: 8a0c af3d 9d13 353e 9639 e5bd e0b5 f43e
000003f0: cadc 8b3e df6f 0cbd 8b2c 89be 591d 583e
0.22075956 0.15868619 -0.19182587 0.012683362 -0.07308863 0.11085362 0.050012432 -0.06261018
-0.28275746 0.24267845 -0.03547132 0.21662404 -0.1594825 -0.15416877 -0.36254773 -0.058799546
-0.20043017 -0.13004212 -0.103201285 0.13567108 -0.12393302 -0.076877125 -0.0450669 -0.3296845
0.5265401 0.04971939 0.020989014 -0.1545251 -0.18788962 -0.074531905 0.04197875 -0.24411729
0.13343202 -0.10555295 0.0658261 -0.23819934 0.3894396 -0.0044872896 -0.112623066 0.2669649
-0.00962664 0.24375308 0.19005981 0.15749945 0.18012771 -0.17969123 -0.19710883 0.0247087
0.31367353 0.021934977 -0.28863746 -0.21102631 -0.14995754 -0.15522915 -0.2822966 -0.017472196
0.09753111 0.15306845 0.16164237 -0.23621109 0.086308695 -0.20239094 0.078255 0.42833027
-0.08532109 0.07887977 -0.27426228 -0.1542403 0.023588097 0.14803267 0.024804374 -0.47943968
0.23367344 0.03424982 0.30660847 0.17751448 0.083090685 0.008434134 -0.30946723 -0.2160815
-0.08814302 0.05472857 0.2700583 0.055726334 0.2058632 -0.21175 0.05349526 0.09687706
-0.018923726 -0.10340806 -0.047235746 -0.16203885 -0.13928917 0.42178744 0.016468925 0.32699987
0.0960854 -0.22559679 0.12873413 -0.391591 0.017136535 -0.108085714 0.064595364 -0.097450614
-0.28980377 0.12719634 -0.14422691 0.20618184 -0.15764914 0.26854038 0.020106023 0.2721935
0.14716202 0.06592935 -0.026045347 -0.09192118 -0.39538 -0.13303408 -0.02818105 -0.15219598
0.09104946 0.09582082 -0.12780121 -0.17959748 -0.010706849 0.13128658 -0.23547114 0.17198643
-0.12717181 0.14302528 -0.06664261 0.24638839 -0.15639351 0.2002698 0.12767407 -0.075254776
-0.112041146 0.14541937 -0.4539039 0.15759404 -0.2853802 0.37711015 0.0011667616 -0.12998404
0.091097884 0.09540103 0.09453509 0.36869717 -0.10344089 -0.116426475 0.21428457 0.11243549
-0.12660138 0.1969855 -0.055975225 -0.14912415 -0.10700834 0.25568697 0.094004124 0.017193928
0.057211723 0.2561021 0.11846328 0.08574508 0.0046974597 0.33761045 -0.07341425 0.11225555
0.54657096 0.014821273 -0.011954257 0.34078616 -0.119621456 -0.25724682 0.332244 0.008408543
-0.1426271 -0.054972827 -0.18114427 0.26631042 -0.13731149 0.118593425 -0.006778453 0.010278001
0.28738388 0.025075521 0.3221568 -0.15081401 -0.062260985 -0.0019227375 0.11848886 -0.19675961
0.39529866 -0.1540548 0.076868206 0.029405545 0.10436126 0.32230663 0.14377327 -0.027937982
-0.373719 -0.41492647 -0.027956553 0.114271276 0.38114777 -0.11866898 0.018262483 -0.096062765
0.10430501 0.025428787 -0.27918926 0.0155898025 -0.03746506 0.116975464 0.15533386 0.09022465
-0.08620917 0.26737568 -0.09747634 0.10356102 0.15286116 -0.21017477 0.48734123 0.03231325
-0.08122947 -0.028943283 0.35318214 0.14626296 -0.16709259 -0.41330814 0.25131112 -0.37363207
-0.09664488 -0.17581627 -0.01955071 0.21809621 -0.006535777 0.028563073 -0.20002411 0.05294122
0.14724313 -0.057151075 -0.036997467 -0.14184904 -0.20356394 -0.07942451 -0.25222924 0.16187431
0.085473135 0.17683263 -0.11192624 0.4779501 0.27316886 -0.034286376 -0.26791796 0.21104945

linear_layer.0.bias f4 [100]
00000000: 0b76 adbc f7ab 90bd 1b7f 463e a9e1 11bd
00000010: 3fc4 be3c 23b7 d5bc 4232 a13d 1450 093e
00000020: 0f97 42be 4eb7 663d 72e8 653d ee15 01be
00000030: 2f33 383e a026 4a3e 39e7 443d 18aa 033a
00000040: 56b7 0cbe 85a1 943c 26bc e1bc 5a90 66bb
00000050: 4f2a f1bd 916d 8cbd 94bc 3abd 50c9 b63c
00000060: b47d 363d 4231 243e 7aa2 d43d be56 0ebd
00000070: ecff 5a3d 19f8 e9bd ece7 8fbd 52bb 6cbc
00000080: 5db1 f33d c90d d0bd 1084 a5bd e09c 853d
00000090: 39d8 dbbc 5909 29be 974f 203e 352d 253e
000000a0: 6922 ba3d d725 53bd d8c9 963d 3676 91be
000000b0: 43fc a53c d23f efbd 5378 04be a435 a33c
000000c0: 64ca b8bd ee77 35be 48fd 603e fe6b a33d
000000d0: 192c 7fbb d83b 73be 8574 ca3d f6de e73d
000000e0: 78e1 f93c 673b 1dbc c79f bcbb 2fe9 1d3c
000000f0: 782c e6bd 77bb 9abc 9c00 9a3b 4377 253e
00000100: 635f 05be 22cd ad3d 27c4 54be 2e56 ffba
00000110: 857d adbd 49ba c93d 8f86 333e d8a7 b7bd
00000120: 7080 cbbd e322 523e 180c 6fbc d657 ec3c
00000130: 4da5 873c 4108 a23d eb3f ebbd 2282 ecbc
00000140: 2bae 1d3e d98d 013e 427b 5fbd f1c5 633c
00000150: 1f26 093d 8dbb 3f3d 856c f83d 6cd0 1a3e
00000160: 1ec7 ddbd 16b9 d0bd 0d49 0bbe 3be0 47be
00000170: ec1b 90bd f694 043e 8b50 15bd 44fb 2b3d
00000180: 18e8 7c3e 6821 783d 3387 9abd 3b3d 5c3d
-0.021174451 -0.0706405 0.19384424 -0.035615597 0.023286937 -0.026088303 0.07870914 0.13409454
-0.19002937 0.056327157 0.05612988 -0.12606022 0.17988275 0.19741297 0.048072074 0.00050225994
-0.13741812 0.018143425 -0.027555536 -0.0035181255 -0.11775648 -0.06856836 -0.04559 0.02231279
0.044553474 0.16034415 0.103825524 -0.034750693 0.053466722 -0.11424274 -0.070266575 -0.0144489575
0.11899064 -0.10158879 -0.080818295 0.06524062 -0.026836501 -0.16507472 0.15655361 0.16130526
0.090885945 -0.05154976 0.073627174 -0.284105 0.02026189 -0.11682095 -0.12936525 0.019923039
-0.09022978 -0.17721531 0.21971619 0.07979582 -0.0038936196 -0.23753297 0.098855056 0.11321823
0.03050302 -0.009596682 -0.0057563516 0.009638115 -0.112389505 -0.018888218 0.0046997797 0.16158776
-0.13024668 0.084863916 -0.20777951 -0.001948064 -0.084712066 0.09849984 0.17531799 -0.089675605
-0.09936607 0.2052112 -0.014590286 0.028850477 0.016558314 0.079117306 -0.11486801 -0.028870646
0.15398471 0.12651767 -0.054560907 0.013902173 0.03348362 0.04680972 0.121300735 0.15118569
-0.10828994 -0.10191552 -0.13602085 -0.19519131 -0.07036576 0.12947449 -0.036453765 0.041987672
0.24697912 0.060578734 -0.075453185 0.05376933

linear_layer.1.weight f4 [100, 100]
00000000: 1d6b 673d dcaf 1a3e 3cb2 84bd bed9 bcbc
00000010: c9b5 7cbc 95a2 8b3b 09e9 cc3d 7719 6b3d
00000020: fd9e 193e d650 1bbe 2a9e a2bd dc0d 2c3c
00000030: f526 75be 1fc0 93bd 1d4c 883d e6db 8a3d
00000040: 8e21 61be fa77 1dbe a2b5 543e 8f70 4b3b
00000050: 2186 b9bd a295 e13d 2f46 0d3d 02b6 1d3e
00000060: 1b80 8cbd 05fa 983b 7fb5 afbd 9202 5cbc
00000070: e2ea 71be 147e b8bd a495 57bc fd99 44bb
00000080: 00ff 2dbd 4cb6 683e b1bb a9bd 3400 82bd
00000090: 4c90 babd aa49 39bc 9ad5 043e 6eed 11be
000000a0: e59d 533d a44f 203e 1804 0ebe fc25 67bd
000000b0: a8ce 063b 41d8 0bbd a30e 673d b4e3 ef3c
000000c0: 5dd2 093b c9aa fb3d 74dc 4fbc 0e69 91be
000000d0: 1a7f ed3d accf bd3d 75ab 08bd 1c91 5ebe
000000e0: 78c4 0ebe 3cce 9cbd 5dea 213e 8da9 2d3e
000000f0: 55f1 5e3c d679 823d ac6c 2ebc 9b0b 24be
00000100: d0ba c2bc 99c1 3a3e 6ffd 59bc c5fa 553d
00000110: 4bf5 c53c 8d07 b5bd f185 2c3c 0550 ca3d
00000120: 85a8 94bd c72d 2c3d 7ee1 7cbe f5c1 f53c
00000130: f667 20bd e3b0 063c 45d6 32be a080 f0bd
00000140: cc04 05bd 5079 54bc e8ac cfbc c103 cdbd
00000150: f989 743d 2f2f 013e b978 ebbc b9a6 9cbd
00000160: 3b56 bf3d 376f f83d 6e4f cfbb 22b6 083e
00000170: 0d74 b3bd 3ed8 84bd db2c 09bc 534f d7bd
00000180: 61c4 7fbd 2cb4 99bc bbed 05be a7da a1bd
00000190: 566c 463d a999 5f3e fed6 d4bc 1b23 7c3d
000001a0: 4d05 66bd edab 2cbe de05 093e 577d 8fbe
000001b0: a20b 47bd abbb 92bd 96a3 88bd b516 1f3d
000001c0: 67ca dc3d de29 f43d 169e 233e a109 19be
000001d0: 41ad 2bbd d1a4 92be 0bd6 573c c2ef 413e
000001e0: ddad e5bd d691 b7bc 9471 f13c 4d72 f33d
000001f0: 0ece 413e d311 a23d 124c bcbd 242d f63d
00000200: f663 fcbd 6476 a4bd abb8 8dbd 66b6 d0bd
00000210: dc8a 323e b632 e7bd a8fd dcbd af74 133d
00000220: 4c1f 413e 283d 9a3c 7581 01bd 21fc aebd
00000230: 9bb2 4e3e e58c cabd 2b77 003e f9b8 35be
00000240: b98b 4d3e cc31 6bbe 013a 8abe eba6 87bd
00000250: f7b0 203d 7371 bebd bf9e 8fbc 0db7 0fbd
00000260: 5f6d b33d bfc6 2bbe 6c63 2bbd 6e05 c43d
00000270: 6f4e d33c 7e33 9abd 3e19 f6bd 5baf 2cbd
00000280: 7251 093e 39be b5bd 99aa a5bc a99e 683d
00000290: 268d 0ebe 0084 183e 6a47 18bd f38c 3bbe
000002a0: 4487 bfbe 0bde 6d3e e190 a1bc 17d3 a13d
000002b0: 7dfe 3e3d 4f9b 093e d4e6 e53d f085 3f3e
000002c0: d29e f73b 649f a0bb 5171 e3bd a9c6 483d
000002d0: aac9 4f3e d515 52be 2442 25bd 62e1 a63d
000002e0: 5cf4 7a3c 5542 9ebd ab93 033d 2d41 1d3d
000002f0: dfc5 5d3c 4774 08be b11d a83d de60 01be
00000300: 42fa f53c 7e82 c5bd 5662 fa3d f378 06be
00000310: 8dac 233e 3755 103e 32ef eebd 2550 4c3e
00000320: 20c6 e4bd 7c83 4cbd 4142 d73d 7675 86bd
00000330: ca9a 03be ab21 453d 7bc6 06bd 56ed 1a3e
00000340: f903 43be 5401 e0bc 07d8 ae3d 7da6 163d
00000350: 1172 d2bd a7e1 213c a65c ed3c 2db5 f3bc
00000360: c087 95bc 0400 003e 88a9 27be 2de8 2bbe
00000370: 332b 9b3d 9ffe 9b3d c8c4 1b3d 193b 0abe
00000380: fe84 23be f0f0 2abe eccc 3a3d faf7 9c3d
00000390: 815a 22bd 8a64 cc3d 9f1f 01be fccf 9abd
000003a0: 222f 073d 1fe4 073c f83f 8b3c 1fad e73b
000003b0: 8aef d3bd 8829 aebd d9f8 86bd 4404 903c
000003c0: 2b15 6b3e c22e 4c3e 9a42 b1bc 8236 0d3e
000003d0: 1b0f 00be 0d30 153e 431a e63d ab94 0abe
000003e0: 9581 8cbd c8f5 bbbd de60 473d b7d7 eb3b
000003f0: a3d0 3ebd 82e1 82bd 926e 17be 1bef 05bd
0.056498636 0.15106148 -0.06479308 -0.023053046 -0.0154242 0.0042613246 0.100053854 0.057397332
0.15002055 -0.15167555 -0.07940324 0.010501351 -0.23940642 -0.072143786 0.066551425 0.067802235
-0.21985456 -0.15377799 0.20772412 0.0031042432 -0.09058786 0.11014868 0.03449076 0.15401462
-0.06860372 0.0046684765 -0.085795395 -0.013428347 -0.23624757 -0.090084225 -0.013158236 -0.002999901
-0.042479515 0.2272579 -0.082877524 -0.06347695 -0.09109554 -0.011309067 0.12972108 -0.14250728
0.05166425 0.1565538 -0.13868749 -0.05643271 0.0020569954 -0.034141783 0.056410443 0.029283382
0.0021029927 0.12288434 -0.012686837 -0.28400463 0.11596508 0.09268126 -0.03336664 -0.21735042
-0.13942134 -0.076565236 0.15812059 0.1695921 0.013607343 0.063708946 -0.010646027 -0.16020052
-0.02377072 0.18237914 -0.013305052 0.052241106 0.024164816 -0.08839331 0.010529981 0.09878544
-0.07258705 0.042035844 -0.24695393 0.029999712 -0.039161645 0.008220884 -0.1746455 -0.11743283
-0.032475278 -0.012968376 -0.025351003 -0.100104816 0.059701893 0.12615655 -0.028744088 -0.07648987
0.09342619 0.121305875 -0.0063266074 0.13350728 -0.08762369 -0.064865574 -0.008372511 -0.10513177
-0.06244314 -0.01876267 -0.13078968 -0.07903033 0.04844316 0.2183596 -0.025981423 0.061556917
-0.0561574 -0.1686246 0.13381144 -0.28025314 -0.04859508 -0.07164701 -0.066718265 0.038840014
0.10780793 0.11922048 0.15978274 -0.1494508 -0.041913275 -0.2864137 0.01317359 0.18939117
-0.112148024 -0.022408407 0.029473104 0.118870355 0.1892626 0.07913556 -0.09194197 0.12020329
-0.123237535 -0.08030394 -0.06919988 -0.1019104 0.17435783 -0.11288969 -0.107905686 0.03599995
0.18859595 0.01882799 -0.0316176 -0.085441835 0.2018532 -0.09890155 0.12545459 -0.17746343
0.20072831 -0.22968215 -0.26997378 -0.06623634 0.039231267 -0.092989825 -0.01753175 -0.03508668
0.08761095 -0.16775034 -0.041842863 0.09571348 0.025794236 -0.075293526 -0.12016533 -0.04215942
0.13409975 -0.08874173 -0.020222949 0.056791935 -0.13921031 0.14894104 -0.03717748 -0.18315487
-0.37407887 0.23229234 -0.019722404 0.0790159 0.046629418 0.13438152 0.112256676 0.18703437
0.0075567747 -0.0049018133 -0.11105598 0.049017582 0.20291772 -0.20516141 -0.04034628 0.08148457
0.015317049 -0.077274956 0.03212325 0.038392235 0.013535946 -0.13325606 0.08208788 -0.12634608
0.030026559 -0.0964403 0.12225787 -0.13132076 0.15983792 0.14095007 -0.11666717 0.19952448
-0.11170602 -0.04993008 0.10510684 -0.06565373 -0.12852016 0.04812781 -0.03290413 0.15129599
-0.19044484 -0.027344383 0.08537298 0.03677987 -0.10275663 0.00988046 0.028974842 -0.029749477
-0.018253207 0.12500006 -0.16373265 -0.16787787 0.07576599 0.076169245 0.038029462 -0.13499106
-0.15968701 -0.16693473 0.045605585 0.07664485 -0.039637093 0.09980114 -0.12609719 -0.07559201
0.033003934 0.008294134 0.016998276 0.007070198 -0.10348423 -0.08504015 -0.06590433 0.017580159
0.22957294 0.19939712 -0.021638203 0.13790324 -0.12505762 0.14569111 0.11235478 -0.13533275
-0.06860653 -0.091777384 0.048676364 0.007197346 -0.04658569 -0.063906685 -0.14788273 -0.032698732

linear_layer.1.bias f4 [100]
00000000: a5d5 9dbd ed3e a63d 85db c8bc 8bac 363e
00000010: 24c4 a7bc cc1d 80bd 317b e7bd d69b fc3d
00000020: cd5c debd 40a4 903d 31e6 a3bd 70ce a9bc
00000030: 1685 053e ab38 c13d 9bef 8dbd 49a1 97bd
00000040: f057 12b9 d224 fa3d 8e25 9f3c d114 6cbd
00000050: ea82 4dbd 489d 383d a876 f1bc 723c 9e3d
00000060: 4f92 f73d 6dd4 ea3c 67a3 153e 6e25 57bd
00000070: cb6a b9bd 28b1 86bd a2a4 60be 4504 c73d
00000080: d842 993b 3ebb a8bd 7727 8cbd c433 8c3d
00000090: 9515 023e 68c4 02be d0b7 363c 930a a6bc
000000a0: dde2 e1bd db4d f9bd 3043 033d 0951 1e3e
000000b0: 4092 8cbd 0636 343c 2051 953a 2942 01be
000000c0: a802 5e3d 8ba7 d3bd 4de2 40bd bad4 10bc
000000d0: 35b4 2cbb e4b5 e8bd 1f9e 463c 4f36 ce3c
000000e0: ab67 073e 133c abbd 1426 42bb 36c2 013d
000000f0: 6630 f4bd ae8b c8bb dcc7 0e3d 6b57 273e
00000100: 5c7e 123d bbfd 173d 583c d1bd 74a3 ae3c
00000110: cee9 833b 402c 28be 2d4e bcbd 4dfc f43b
00000120: 4016 2ebd b6bb 10bd b44d 943d e833 173c
00000130: 8c34 a03d 1b07 fbbd 8355 713d 0cbf 4bbd
00000140: fbb1 0bbe 9d88 8dbd 5451 fb3c 0ff7 f1bc
00000150: 6af8 bc3d d8cb c13b 47b6 abbb 7458 6b3d
00000160: 073a 1d3e 787c e9bc f351 afbd 5d36 24be
00000170: fe7c bb3d 5711 df3c 4518 463d c63e 1e3d
00000180: fc55 843d 1668 acbb c0ff 45bc b2ed b13d
-0.07706765 0.08117471 -0.024518738 0.17839257 -0.02047927 -0.06255683 -0.11302794 0.12334411
-0.10857544 0.07062578 -0.0800289 -0.02072832 0.1303905 0.09434637 -0.06930467 -0.074038096
-0.00013956404 0.12214054 0.019427087 -0.05763704 -0.050173678 0.04507187 -0.029475525 0.07726373
0.12088453 0.028665746 0.14613114 -0.05252593 -0.09053572 -0.065767586 -0.21937802 0.09717611
0.004677158 -0.082388386 -0.06843465 0.06845811 0.12703545 -0.12770236 0.011152223 -0.020268714
-0.11029599 -0.12173053 0.032046497 0.154606 -0.068638325 0.010999208 0.0011391975 -0.12622894
0.054201752 -0.10334691 -0.047090817 -0.00883978 -0.002635253 -0.11362818 0.01212266 0.02517238
0.1322314 -0.083610676 -0.0029624747 0.031679355 -0.11923294 -0.0061201667 0.03485857 0.16341941
0.035765037 0.03710721 -0.10216588 0.021318175 0.0040256744 -0.1642313 -0.09194598 0.0074763657
-0.042501688 -0.035335265 0.07241383 0.009228684 0.078225225 -0.12257215 0.05891944 -0.049742743
-0.13642113 -0.069108225 0.030678429 -0.029536752 0.09227069 0.0059141926 -0.005240235 0.057457402
0.15354167 -0.028501734 -0.085605524 -0.16036363 0.091547 0.027229948 0.04836299 0.038634084
0.06461713 -0.0052614314 -0.012084901 0.08687915

linear_layer.2.weight f4 [100, 100]
00000000: 8119 5abd d449 cf3c 1dd6 893d 6816 7abe
00000010: 5bf0 ba3d 3423 27bd d532 823d 7851 b2bd
00000020: 5adc c63d c4eb 59bd 6ecb 2dbd a1c3 173d
00000030: 0942 7fbd 59de bebd 624e d43c f3aa 0cbe
00000040: 24cb 423d 6d89 aebd ba46 13bd 9afb 043e
00000050: 741e d83c 0fe7 403d 4866 7ebd 9026 98bd
00000060: 838c 05be c9d6 113b 2bbb 62be 3467 90bc
00000070: 8367 c33c 210f 88ba e440 503d 30a1 46bd
00000080: be40 4f3c bf7b a93b 2757 883d 9b67 13bc
00000090: 26db d4bc cb67 973e 0d93 e23c 884a 88bd
000000a0: a6e7 113e aa0f 2b3e 0d82 9c3d d35d 383c
000000b0: 0067 fc3d cf82 93bc 0ead f03d 93a1 413d
000000c0: b1ab 22be 78cf f13d 7437 2d3c 5090 7d3d
000000d0: 60f3 09be 5a2a 2f3d 6b92 eebd bd10 12bd
000000e0: 98e9 abbe eb28 643d 3ed3 ba3d 9165 403c
000000f0: 72fc 00bd cb66 373b e45a d6bc 8878 cbbc
00000100: 77ed 123d b4ee fe3d 0861 783d 600b 6dbd
00000110: 4f5f b33d ac53 ed3c 5a67 7a3e f31d 823e
00000120: 6cf3 8b3c ac11 00be 6847 4cbe 5ec5 e23c
00000130: dd26 15bd ae79 95bc 5c23 9dbd a6ad ce3d
00000140: 3771 b2bd 34db 653d e7a3 0bbc 85b2 d93d
00000150: 0b0f 703e 0d1d 09be 3ae7 253e b83c 8bbe
00000160: bbe3 99bd 642b e6bd 51d8 4a3d 9919 133e
00000170: acd8 1c38 3104 f0bd 915c 0abd 1d04 e9bc
00000180: e8c7 8fbd a026 a23c 23d7 463c 84f8 613d
00000190: 9a76 74bc 58d2 b53c 5262 48bd f8f9 a8be
000001a0: d7d1 c23b 9b07 9a3d d411 983d 44c2 86be
000001b0: 0487 473d f51d 11be 124b e63d 593c 02be
000001c0: 93e9 99bd ec13 99be 4019 b5bd d95d 123d
000001d0: cf10 a9bb 3b7c d1bd b29f a93d e1f5 703d
000001e0: 8279 e63d 7b29 0f3e 4195 38bc 9623 9abd
000001f0: 221b 373d b7e4 5c3d af37 88be 45d1 be3d
00000200: 0ed5 aa3d 8f15 633c 5401 f63d 048d 53be
00000210: c4bb 8c3e 33b4 d63d 7d9b 32bd 7bf1 a6bd
00000220: 9eab 2abb f22c a93d 7a72 743e de3d c3b9
00000230: aa99 403e d52a e3bb e8cb 173e 5d70 913c
00000240: c460 013e 5e19 383e 4cfa 32be 4a86 703d
00000250: a5b3 62be 6d73 a13d fe0c c7bc 1bf3 29be
00000260: 9457 b23d 9280 a93d 1887 623e 7677 1b3e
00000270: 9acf acbd 9342 883c 8673 80bd a00f 96bd
00000280: ab05 453d 6b0c 173e 54e3 423e 9cd5 f2bc
00000290: cc07 7cbe d766 7abd d2d8 173c 4430 a83c
000002a0: d237 693c e6f4 293d 5b8d 85bc f96e 923d
000002b0: eed7 903c 0508 01be d9a1 aaba 31cd a3bd
000002c0: ef5b 4fbb aa0b ea3d d635 d03b fa7b c43d
000002d0: cd42 a13c 452c b1bd 9023 03be ae0f 1bbe
000002e0: a590 3cbd 5c49 083e e42f 6e3d 5926 f6bd
000002f0: 0b65 babc fba7 85bd 65b1 533d 60a4 d33d
00000300: b500 4e3d e851 0abe a0ce 49bb 871d c8bd
00000310: fc4e 693d ba76 233d e2c0 893c f154 3abd
00000320: a048 d6bc 0080 c1bd eb2b ffbc 1232 5a3d
00000330: 6d7f 1d3e c62f afbd 67cf a23d d7d9 063d
00000340: 0773 6cbd c0d3 4c3e 6266 23be 7320 06be
00000350: 6097 c5bd 9ccf 28be ecfd 1fbd b85b 853d
00000360: 3f5b 3b3e 85b9 cf3d 0909 28be c96e f5bb
00000370: b061 08be 0fe4 f03d 3e96 81be 4e9c a13d
00000380: 856d dfbd 3e2e a7bd 92f9 ed3d 131a 833c
00000390: 6a75 22be 9a0a 6c3d 6f75 0bbe 71c1 c23d
000003a0: d973 adbd 3f04 163d 6faa 47bd d9df 003e
000003b0: b893 83bd 4eb0 37be c44c 61bc b1bb 8c3d
000003c0: d8da 12be 0761 4e3c ae46 edbd ed98 4d3b
000003d0: c554 603c bed5 bebd e589 f3ba d60d 353c
000003e0: 5452 d4bc 7aa0 1bbd 1975 0fbe 799c 793d
000003f0: 2125 dfbd 1326 073d 7f4e ba3c 58d9 943c
-0.05324698 0.025303759 0.06730292 -0.2442261 0.091278754 -0.040805057 0.06357352 -0.08706945
0.097099975 -0.05320336 -0.042430334 0.0370518 -0.062318835 -0.09319753 0.025916282 -0.13737087
0.04755701 -0.08522306 -0.035956122 0.12986603 0.026381709 0.047095355 -0.06210926 -0.0742923
-0.13041882 0.0022253266 -0.22141711 -0.017627336 0.02385307 -0.0010380485 0.050843135 -0.048493564
0.012649713 0.0051722224 0.06657248 -0.008996869 -0.025983404 0.29571375 0.02765801 -0.06654841
0.14248523 0.16705194 0.07641993 0.011252838 0.12324333 -0.01800671 0.117517576 0.04727323
-0.15885808 0.1180715 0.010572303 0.061905205 -0.13471746 0.042765 -0.11649021 -0.035660494
-0.33576655 0.055703085 0.091223225 0.011742965 -0.03149075 0.0027984853 -0.026166387 -0.024837747
0.035870995 0.12447873 0.06063941 -0.057872176 0.08758413 0.028970562 0.24453488 0.25413474
0.017083846 -0.12506741 -0.19949114 0.027682003 -0.036414016 -0.018246498 -0.0767276 0.100917146
-0.08713 0.05611725 -0.008522964 0.10629753 0.23443238 -0.13389988 0.16201487 -0.27194762
-0.07514139 -0.11238745 0.0495227 0.14365233 3.739509e-05 -0.117195494 -0.033779684 -0.028444344
-0.07020551 0.019793808 0.0121362535 0.055168644 -0.014920855 0.022195026 -0.04892189 -0.3300321
0.005945425 0.07520982 0.074252754 -0.26320088 0.048712745 -0.14171584 0.11244787 -0.12718333
-0.07515254 -0.29898012 -0.08842707 0.03573403 -0.0051594744 -0.10228773 0.082824126 0.05882824
0.112536445 0.13980667 -0.011266054 -0.07526319 0.04470361 0.053929057 -0.26604983 0.09317259
0.08341418 0.01386012 0.12011972 -0.20659262 0.27487004 0.10483589 -0.043605316 -0.081515275
-0.0026042233 0.08260526 0.23871794 -0.00037239393 0.18808618 -0.006932596 0.14823878 0.017753774
0.1263457 0.17978427 -0.17478293 0.058721818 -0.22138841 0.07883344 -0.024298187 -0.16596644
0.087081105 0.08276476 0.22121847 0.1518229 -0.08438034 0.016633308 -0.06272034 -0.07327199
0.04810111 0.14750831 0.19032031 -0.029642873 -0.2461235 -0.061133232 0.009268003 0.020530827
0.0142345 0.04149332 -0.016302755 0.071500726 0.017681088 -0.12600715 -0.0013018205 -0.079981215
-0.003164049 0.11428006 0.006354074 0.09593959 0.019685173 -0.08651022 -0.12806535 -0.151427
-0.04603638 0.13309234 0.05815114 -0.12019033 -0.02275326 -0.0652618 0.05168285 0.103340864
0.050293643 -0.13507807 -0.0030793324 -0.09771257 0.05696009 0.03990815 0.016815607 -0.045491163
-0.026157677 -0.09448242 -0.031148871 0.053270407 0.1538064 -0.08554034 0.07949715 0.032922592
-0.057726886 0.20002651 -0.15957025 -0.13098316 -0.09648013 -0.16485447 -0.03906052 0.065116346
0.18296526 0.10142807 -0.16409697 -0.0074900133 -0.13318515 0.11762249 -0.25309938 0.07891141
-0.10909561 -0.08163117 0.116198674 0.016003644 -0.15865102 0.057627298 -0.13619016 0.09509552
-0.08469362 0.036625143 -0.048746523 0.12585391 -0.064246595 -0.17938349 -0.0137512125 0.06871737
-0.14341295 0.012596375 -0.11585747 0.0031371668 0.013692086 -0.09318112 -0.0018580524 0.011050662
-0.025918163 -0.03799484 -0.14009513 0.06094024 -0.10895754 0.032995295 0.022742508 0.018170044

linear_layer.2.bias f4 [100]
00000000: cf73 83bd 1ba9 5fbd e7c8 913c b444 ff3c
00000010: 7c3b a13c d9b9 303d 84cd 6c3d e0e4 6239
00000020: 0c4d 31bc 6922 083d 798d 12bd 0b4e 7dbd
00000030: b550 c6bd 5240 283e 9eff 88bc c741 b9bc
00000040: b33c 91bd fe67 073e 4258 4b3c 0103 f1bc
00000050: fae8 fbbd d76d 44bd 5518 643c c9a3 ad3d
00000060: d15b f63c ea41 73bd 5bf4 47bd 1a6f 8cbd
00000070: 1d56 853d f580 8cbd 99fd debd 07ea 21bd
00000080: 2d87 fa3c 29d4 5d3d 7cd8 98bc b235 9dbd
00000090: de63 f8bc 5e3f 6abd 2d7a fbbc 1a26 05bd
000000a0: 4875 39bd 347c c7bd c217 0bbd 43ad 093d
000000b0: 6a36 583c 3f08 cf3c 4ac2 003d 2545 a23b
000000c0: 00a3 41bd c58f 063c 0765 b5bc ee34 763b
000000d0: 5107 a53d 6413 c73d 3ac2 753d 07d1 8dbe
000000e0: c2c2 80bd 4192 97bc 5bc5 143c 07ea 5bbd
000000f0: 26ec 1b3e 2805 413d aac0 193e 8d26 fa3c
00000100: 5ad7 29bd 9fad d0bc e7e9 88bd d05b fa3b
00000110: d5e8 56be 8056 4a3c 6e87 773c 2a2a f23c
00000120: e14e 433c 326e 14bc 6e12 d7bc 61d6 6bbd
00000130: 1f27 80bc a736 153c e233 e43c 62cd b3bd
00000140: c948 8bbd a5e8 9fbc a8b0 cabd dbbd 24bd
00000150: b119 313d 05fc 593d ae3c 833c 47c4 483e
00000160: b63a 16bd 5d9e bbbb 30b1 963c 0f27 333d
00000170: bf3a 7dbc bb4b 89be 4ea4 d43b fe8e 94bd
00000180: 1712 29bd 4612 543c 6eae 7cbd 9b17 a7bc
-0.06418573 -0.05460463 0.017795993 0.03116069 0.019681685 0.043145988 0.057813182 0.00021638302
-0.010821592 0.03323594 -0.03577945 -0.061842006 -0.096833624 0.16430786 -0.01672345 -0.022614373
-0.070916556 0.13223264 0.012411179 -0.029420378 -0.12300296 -0.047956314 0.013921817 0.08478505
0.030073078 -0.059389032 -0.04881702 -0.068571284 0.065105654 -0.06860534 -0.10888214 -0.039529826
0.030582035 0.05415741 -0.018657915 -0.07676257 -0.030321058 -0.057189338 -0.030697906 -0.03250704
-0.045277864 -0.09740487 -0.033958204 0.0336125 0.013196567 0.025272487 0.03143529 0.0049520903
-0.04727459 0.008212988 -0.0221429 0.003756817 0.08058036 0.09720495 0.059999682 -0.27698538
-0.06287147 -0.018502356 0.009080256 -0.053689983 0.15226802 0.047124058 0.15014902 0.03053596
-0.04146514 -0.025473414 -0.06685238 0.0076403394 -0.20987256 0.012349725 0.015107973 0.029561121
0.011920662 -0.009059476 -0.026253905 -0.057577495 -0.015643654 0.009107268 0.02785677 -0.08779408
-0.06800992 -0.019520113 -0.09896976 -0.040220123 0.04323739 0.05321886 0.016020145 0.19606124
-0.036677085 -0.0057256655 0.018395036 0.04373842 -0.015455901 -0.2681559 0.006489313 -0.07253836
-0.041277017 0.01294381 -0.061689787 -0.020396998

linear_layer.3.weight f4 [100, 100]
00000000: 2a20 29be 7b4e d23d 7e7a 49bd e1f6 253e
00000010: 2e76 73bb 3675 babc 705f 763d 14a1 a93d
00000020: 78c8 d8bd 3da8 cbbd e616 60be 0817 9b3d
00000030: 5071 13be 10c5 0f3f 97c6 76bd e53a 123d
00000040: 96e1 81be a02b 183e 432a bfbd fe0e 953c
00000050: 4269 c8be 790c fabd 6a51 01bd 84b3 103e
00000060: afd4 a83b e667 943d e10c 84bc 0d9b 92bd
00000070: 0850 5f3e 4dff 51bc b0a2 1ebe a0be 09be
00000080: eaa5 febd ecbb 0cbd a381 84bd 38bd 8bbc
00000090: ce67 9cbe 2e35 55be c203 6cbe 61ae eebd
000000a0: 6bbc 073e 3f39 50be 8ee9 23be 87ad 133e
000000b0: 3b65 223d 775e 98bc 397e 5c3d 2e7f 2e3e
000000c0: 5faa 83be 9ffc e23d 769d f83d 5695 7fbd
000000d0: d738 dfbc 31be 973e ce91 7a3e 28c4 513b
000000e0: 04f1 b33d fd28 24be 8e96 20be d7b3 06be
000000f0: d56b 553c d6da 08be ac41 943e 52e8 bbbd
00000100: e92c ca3d d451 463c 8978 423d 8db7 82bc
00000110: 5532 d13d cbd6 99bc 2085 433e 8366 3bbd
00000120: 632c cb3d 7899 d0bc ef26 473e b6db d43d
00000130: 99fb 9bbd 6b1d 4dbc 9cfc 503c f816 82be
00000140: 7c33 a73b 56ff f53d 1d96 96bd 14cc a2bc
00000150: 4985 7d3e d6ad 11be f1e1 153d 988e e03c
00000160: 51d8 03be 85ad 113d 76f4 44be ad09 8b3e
00000170: 79b7 8fbb 3533 943d 1f9a 0c3c 5603 073e
00000180: 0410 9f3d 0238 0a3d d2cc 3ebe ae96 a5bd
00000190: ff43 323e 7edb 5bbc ad5a 1e3c bda7 f2bd
000001a0: 42ea 003d 3dbb c33c 8527 e1bd 8670 6a3d
000001b0: 72fa 8e3b 2fbe 8cbd f57f cfbd 9752 083e
000001c0: 7752 29bd fd76 923e 1c2a dbbd 2c81 b2bc
000001d0: 360f 7abd 3530 a8bd faa6 ce3d f751 9e3c
000001e0: baba c93d 8d9a 8dbd 9219 b23a 92bb 36be
000001f0: ed2f 1ebe 3f10 cc3d 9721 cf3c d0dc 41be
00000200: a620 1f3e d877 c53d 2a3b 31be fca4 503e
00000210: 192f 433d ffb9 2bbe 32c3 913d 00f1 5ebd
00000220: edb0 f13d 869e 66be 2334 cd3a cfd2 e5bb
00000230: 16bc 753c 82de cd3d 949c 26bd 90f0 153d
00000240: 5076 4d3e 694f 9fbb 8a33 32be 1903 1e3d
00000250: 99c2 203d 3da8 2a3e 4291 723d 79cc 743c
00000260: d388 ed3d d752 cdbc 35a8 403d 77fd 27bd
00000270: ad27 5dbd c9c7 9ebd e2d4 fe3d 1461 883d
00000280: d46b 863d d0f6 b6bd 41fb 9ebb c1c1 1cbd
00000290: c0d0 b83d bb62 cfbd 68f6 2cbe 216b c3bc
000002a0: 3cfd 04be 1059 3abe 9333 90bd 617c 97bc
000002b0: fa9b 4f3e 6fc7 8dbd e311 a8bd a849 42bd
000002c0: 11eb bcbd 2f1f 1abe 4779 0c3c 66b1 42bc
000002d0: e61c 20bd 79cd 36bd 3ffb b6bc 7655 213e
000002e0: 1323 2a3d c676 863d 5c47 433a 6eee dfbd
000002f0: b2fe f5bc 6bcf ebbc c412 0c3c 72e7 ce3d
00000300: dcaf fabc ab79 38bd 8440 bf3c df2f f2bd
00000310: 32d8 323b 7164 dbbd 84c9 50be a3fa a53c
00000320: 0fd9 adbc fe2a ed3c effd 61bd 7dc0 b7bd
00000330: d963 5fbc eded adbd f4b8 4cbd 807f e0bd
00000340: eea4 2c3d 4aa8 20be 811e 653d c082 123e
00000350: b528 ccbd 753d d5bb 31c1 993c e6dd 503d
00000360: d929 0ebc dfae ffbd 1f5d 6dbe 8e85 26bd
00000370: eb89 5d3e 0dcc 233c 57fb e73c ac9b e6bd
00000380: 61de 303c 0b86 40bd a650 f33d 1bbd a83d
00000390: 81f1 3abd 217a b63d 3fb5 87bd dfa1 77bd
000003a0: e0f0 653d d23a e2bd d3d7 47be 6028 573e
000003b0: 75a1 9c3d a49e 573d 98d9 783d 37cc 833e
000003c0: eaed 7d3d 18f8 823d 619b 8fbd 8014 f4bd
000003d0: 17d3 a63d daad 5dbd 2295 e4bd bf28 25bc
000003e0: 69a1 eb3a b83e 3cbe 1162 153d b4d4 b93d
000003f0: aafb a4bd 828a 2cbd 3bee 35be 132c 523e
-0.16516176 0.10268875 -0.049189083 0.16207458 -0.0037149298 -0.022760969 0.06014961 0.08282676
-0.105851114 -0.09944198 -0.21883735 0.07572752 -0.14398694 0.5616007 -0.060247984 0.035700697
-0.2536742 0.14860392 -0.09334233 0.018195625 -0.39142805 -0.1220941 -0.031571783 0.1413098
0.005152307 0.072463796 -0.016119422 -0.0715848 0.21807873 -0.012817216 -0.15491748 -0.13451624
-0.12433989 -0.034358904 -0.06470039 -0.017058 -0.30547947 -0.20821068 -0.23048308 -0.11654354
0.1325547 -0.20334338 -0.16007063 0.14421664 0.039647322 -0.018599732 0.053831313 0.17040703
-0.2571592 0.1108334 0.12139408 -0.062398277 -0.027248783 0.29637292 0.24469683 0.0032007787
0.087862045 -0.16031261 -0.15682432 -0.13154541 0.013026197 -0.1336473 0.28956354 -0.09175171
0.09871847 0.01210447 0.047478233 -0.015956664 0.10214678 -0.01877918 0.19093752 -0.04575206
0.099205755 -0.025463805 0.19448446 0.10393469 -0.07616348 -0.012519221 0.012755539 -0.2540815
0.005102573 0.12011592 -0.073528506 -0.019872703 0.24757876 -0.1422647 0.036592428 0.027411744
-0.12875487 0.03556587 -0.1923388 0.2715582 -0.0043858853 0.072363295 0.008581667 0.13184866
0.077667266 0.03374482 -0.1863282 -0.080853805 0.17408751 -0.01341903 0.0096651735 -0.118484
0.031473406 0.023892993 -0.10993866 0.057236217 0.0043633515 -0.06872212 -0.10131828 0.13312756
-0.04133841 0.28606406 -0.10701391 -0.02179011 -0.061049663 -0.0821232 0.10090442 0.019326193
0.098500684 -0.06914244 0.0013587943 -0.1784499 -0.1544797 0.09964036 0.025284572 -0.1893189
0.15539798 0.09641999 -0.17307726 0.20375437 0.047652338 -0.1677017 0.07117309 -0.054429054
0.11801324 -0.2252141 0.0015655797 -0.0070136557 0.014998456 0.100522056 -0.04067667 0.03660637
0.20064664 -0.0048617614 -0.17402473 0.038577173 0.039248083 0.1666574 0.05922056 0.014941328
0.11598363 -0.025063915 0.047035415 -0.041013207 -0.053992916 -0.0775295 0.12442948 0.06659141
0.06563535 -0.089337945 -0.004851729 -0.038270716 0.09024191 -0.10126253 -0.16890872 -0.023854794
-0.12987226 -0.18198037 -0.07041087 -0.018491926 0.20274344 -0.069228046 -0.082065366 -0.047433525
-0.09224523 -0.15050958 0.008573837 -0.011883115 -0.03909006 -0.044629548 -0.0223366 0.15755257
0.041537356 0.06565623 0.0007449293 -0.10934149 -0.030028675 -0.028785428 0.008549396 0.101027384
-0.030601434 -0.045037907 0.023346193 -0.11825537 0.0027289507 -0.10712517 -0.20389372 0.020261114
-0.021221666 0.028951164 -0.05517381 -0.08972261 -0.013634645 -0.08492646 -0.049981073 -0.10961819
0.042149477 -0.15689197 0.055937294 0.1430769 -0.09968702 -0.0065075704 0.018768879 0.05099287
-0.008676969 -0.12484526 -0.23180054 -0.04065471 0.21634643 0.00999738 0.02831809 -0.11260161
0.010795207 -0.047002833 0.11880617 0.08239194 -0.045640472 0.08910013 -0.06626367 -0.060457107
0.05613792 -0.11046375 -0.19515924 0.21011496 0.07647983 0.052641526 0.06075439 0.2574174
0.06199447 0.063949764 -0.07012058 -0.119179726 0.08145731 -0.054120876 -0.11161257 -0.010080515
0.0017977181 -0.183833 0.036470477 0.09073773 -0.080558136 -0.04212428 -0.17766659 0.20524625

linear_layer.3.bias f4 [100]
00000000: fb28 cc3d e92c 913c 3a8f 70bd 8098 e6bd
00000010: 9d27 81bc c3b2 1cbd 6e9c bb3d 9feb 3a3d
00000020: 2f9a 2b3d 5346 4b3b f67c 36bd 6107 00bd
00000030: f6ef 9e3b 6b85 163d 9a23 ee3b ab2b f33b
00000040: 4f90 9abd f3be 54bc cb79 603c be04 233d
00000050: 62c1 87bd 7a56 573d 5073 db3c 0ada 203d
00000060: 8eec 953b 9a1b 23bd 59a9 8a3d ecc0 7c3d
00000070: 7d5f 103d fd15 453d 1984 b0bc 99e9 6cbb
00000080: 49a4 8c3c 869b ed3c bcbf 3139 c573 ebbc
00000090: 4e26 8c3c a979 0ebc 9b6a 27bd 38ce c5bb
000000a0: 3504 8dbc 4a01 593c 454f fb3c e663 46bc
000000b0: 2356 803d fa23 553d 88e2 b23d 44c7 2fbe
000000c0: 0341 513d 23db 35bd 24b3 0f3d b42f d0bc
000000d0: c739 e5bb f401 b03a 719f a6bc 22d6 9abc
000000e0: 3643 4fbd 8f47 9fbc 98a1 363d 71dd 4e3d
000000f0: 6ab8 a73b 1880 fd3c f44b cd3b b676 643c
00000100: c80b c73c eec3 803c 9e95 873d 9b2f 52ba
00000110: d711 903c d91e 2abd a4f3 013d ddfe 1dbd
00000120: 3bc5 8abb f015 23bc 282e dfbc 7381 933c
00000130: 413c b1bb 55ce 90be 280b 1f3d e1b0 53bd
00000140: 5794 31bc 978b a83c 6a11 a7bb ef43 c9bc
00000150: 58de 87bd 8a5c 4b3d 9e28 b33c aa19 533d
00000160: 93d1 f4bc 4b90 fa3a 5003 ea3c f84e da3c
00000170: 8acc 2e3d 2bc2 0cbd 4431 953b dab6 3b3d
00000180: 5777 c23c 012c b93c 0a2a 1dbd 4aa3 60bd
0.09968754 0.01772161 -0.05873034 -0.11259556 -0.01576596 -0.038256418 0.09160696 0.045634862
0.041895088 0.0031017258 -0.044552766 -0.031257037 0.004850383 0.03674833 0.0072674276 0.007420977
-0.07547056 -0.012984979 0.013700913 0.039799444 -0.06628682 0.052572705 0.026788384 0.03927044
0.0045753187 -0.039821245 0.06770582 0.061707422 0.035247315 0.048116673 -0.021547364 -0.0036149977
0.017168181 0.029004823 0.00016951462 -0.028741727 0.017108109 -0.008695998 -0.04087315 -0.006036546
-0.01721392 0.013244936 0.030677447 -0.012108779 0.06266429 0.052036263 0.08734614 -0.17165858
0.05108739 -0.04439844 0.03508295 -0.025413372 -0.006995413 0.0013428316 -0.0203397 -0.018900935
-0.050601207 -0.019443301 0.0445877 0.05050415 0.0051184194 0.030944869 0.006265158 0.0139443185
0.02429761 0.015718427 0.06620334 -0.0008017958 0.017586632 -0.041533325 0.031726494 -0.038573135
-0.0042349375 -0.009953961 -0.027243689 0.018006062 -0.005408794 -0.2828242 0.038829 -0.051682357
-0.01083859 0.020574374 -0.0050985115 -0.024568526 -0.066342056 0.0496488 0.021869954 0.051538147
-0.029885089 0.0019116489 0.028566033 0.026648983 0.042675532 -0.03436486 0.004552992 0.045828678
0.023738546 0.02260399 -0.03837017 -0.054843225

linear_layer.4.weight f4 [100, 100]
00000000: df43 cabc 50eb 173d 3a04 923d e0ee a23d
00000010: bf3c 663d 6154 3fba d737 54bd 6a2b 143e
00000020: 576a b43d d749 bd3c f230 15be 37bd c53d
00000030: 74cd b33d 3851 183e 616b fe3d 833b 5e3e
00000040: 6f4d 0e3e ec4c a83e 5f16 093c 0fcb 133d
00000050: fb7f 0f3c f327 563d 2643 9bbc 59ac 083e
00000060: 0975 1c3e 257b c5bd ed81 913d dd42 d0bd
00000070: 5404 253e 4a4d 31bd 62e9 0e3e 6544 90bd
00000080: 3515 2abe 2a16 293d a2a4 ec3b 572e 1f3b
00000090: 70ad 47be 4211 773d e2ca 123e f189 dd3c
000000a0: e849 59be 298e 8abe eace 93be 6533 a63d
000000b0: 018a 32bd 9c6c 81be 55eb 2b3e cf21 68bd
000000c0: 336e 8e3d d1bf b13c 64e2 53bd 77d3 d1bd
000000d0: da6b c9bd b8e5 4ebc c017 fe3b f654 853d
000000e0: e2b8 633d 2c4a 943d 008d aa3d 5188 683d
000000f0: 5b39 ad3d 05db af3b 8386 8a3c a01b f83c
00000100: 153d ed3d f7e4 133d 6bcc 2c3c d207 88bc
00000110: f239 61be 0460 f43d 2c21 2b3d 9585 933d
00000120: 934c c5bd 049d 3d3e 9e39 a73c b394 29be
00000130: e65d b73d e317 bf3d 96fd 7dbc 4270 033d
00000140: bf55 443d 2e4f 983d fd3b 513d fd70 01bb
00000150: a552 2dbd 0e04 08bc 22e5 093e d0c3 9cbc
00000160: 4518 2ebd e140 1abd 6e6e 9fbc aaec 003e
00000170: 24dd 57be 13fb a63d 2f5a b2bd dfe7 aabd
00000180: 4606 af3c 975a 55bc b704 c8bd c6a2 dbbc
00000190: 4f26 c7bd aec0 d33a 9c01 fcbd d59e 8b3c
000001a0: cf37 cdbc a72c 8ebd eb6d 55be d5ff f63a
000001b0: 89f5 85ba 5b58 8fbd adfe fcbc ba9a 93bc
000001c0: bfaf 0a3e 1b19 dd3d 3987 663e a0a8 43bd
000001d0: 698e eebd 63c4 a6bd 501c 7dbd 6dc8 863d
000001e0: c941 a8bd 4922 d63d e8ef bb3d 4a35 9bbd
000001f0: 3668 853c 574f 2abd e555 913d 7f85 083e
00000200: 2e9a 6c3e d485 ac3d 22d6 8dbd af23 893d
00000210: 3ea8 673d 5b76 d63c d200 cbbc 083e 69be
00000220: a193 f7bd 8099 bcbd c355 e13d fcc3 b73d
00000230: 7de1 273d 2781 113d 8e3f b13d de21 273e
00000240: afc3 323d 8401 13bd 26c4 693e 5958 e43d
00000250: e0da 1cbd 7225 24be 7413 1dbd 9a33 533d
00000260: 32f4 2cbd 40d0 a9bd f7a6 52bd 3229 bebd
00000270: 857c 52bd a012 b63d bfae 53bd 5b9c 2abc
00000280: 2215 e0bb 97ea 333d d02d 823c 32d0 63be
00000290: f430 1abd e7ec 183e e0cf 0d3e cbca 153e
000002a0: a86d f4bd 4185 c9bd 28ce d1bd a683 e4bd
000002b0: 95dd d63b 7c78 3dbe 8f06 aabb 7322 9f3d
000002c0: 604b 5c3d fb04 50be b070 31be 1132 eb3d
000002d0: d627 153e 3c4e 20be 67c3 0a3d 2cd7 33bd
000002e0: 1cba 753d 712d d1bc 6dc6 1dbe 71d1 79bd
000002f0: d874 2ebe 325f 20be e765 b73d 1765 9bbd
00000300: 3005 08be 862b 533d fcc7 d23c 3265 c43c
00000310: 97b5 f8bc 6373 afbd 157c da3d 73e1 e23c
00000320: 130f 6b3d 5b10 16bc 8ed9 3bbe 8918 e33d
00000330: 81c6 5abe 5ea7 afbd 2dbf 653d d0e9 e23d
00000340: 532c 93be 7744 0b3b 6793 803d b243 d63c
00000350: 03e6 e2bc bd67 e5bd eab8 2f3d 6a8a 2f3e
00000360: 6f25 1dbe 4fc1 3abe 3190 403d 3c0b 5f3d
00000370: 5f92 67bd 56bc fdbb 1ff0 2f3e 00b7 fe3c
00000380: 79df 743c a65c 1bbd 3b43 43bd 483a e23a
00000390: b005 273e 5612 66bd c715 4cbe 25c3 893d
000003a0: fa16 353e d812 103e 01d7 c3bd 6ff7 273d
000003b0: 486d f2bb 79ae 233e cb2a 0cbe 3acb 89bc
000003c0: 1db1 05be 92de 6b3d 157c 283e 0869 1bbe
000003d0: 751f 14be 73fc 4c3c 1b6a 1a3e 2c09 b13e
000003e0: 897b b53d da6d 7d3d 9cfe a13e b7a1 8e3c
000003f0: 54ad 713d 2442 823d 8574 443e aad3 ce3d
-0.024690567 0.037089646 0.071297124 0.07955718 0.056210276 -0.0007298645 -0.051811066 0.14469686
0.08809345 0.023106499 -0.14569452 0.096552305 0.087794214 0.14874732 0.12422825 0.2170239
0.13896726 0.32871187 0.00836715 0.036082324 0.00875854 0.052284192 -0.018952917 0.13346995
0.1527902 -0.096426286 0.071048595 -0.10169003 0.16114932 -0.0432866 0.13956216 -0.07044295
-0.16609652 0.041280903 0.007221774 0.0024289095 -0.19499755 0.060319193 0.14335206 0.027043315
-0.21219599 -0.27061585 -0.288688 0.081152715 -0.043588642 -0.25278175 0.16788991 -0.056672867
0.069546126 0.02169791 -0.051729575 -0.10245412 -0.09835024 -0.012628011 0.007754296 0.06510346
0.05559624 0.0724071 0.08327675 0.056770626 0.08458205 0.0053666853 0.016909843 0.03028661
0.11583916 0.03610703 0.010546784 -0.016605292 -0.2199476 0.11932376 0.041779682 0.07203213
-0.09633746 0.18516928 0.020413216 -0.1656063 0.089534566 0.09330728 -0.015502354 0.03208948
0.047933336 0.07436977 0.0510826 -0.0019751184 -0.042315144 -0.008301748 0.13466313 -0.01913634
-0.042503614 -0.03765953 -0.019461837 0.1259028 -0.21080452 0.08153357 -0.087086074 -0.08345007
0.021365296 -0.013022087 -0.09766524 -0.026811015 -0.09724104 0.0016155445 -0.123049945 0.01704351
-0.025051026 -0.069421105 -0.20842712 0.0018844554 -0.001022027 -0.06999274 -0.030883158 -0.018018115
0.13543604 0.10795804 0.22512521 -0.047768235 -0.11648256 -0.081429265 -0.06179458 0.06581197
-0.082156725 0.10455758 0.09176618 -0.075785235 0.016285043 -0.04157957 0.07096461 0.13332175
0.2310569 0.08423963 -0.06925608 0.06696259 0.056556933 0.026179483 -0.024780665 -0.2277757
-0.12088705 -0.09208965 0.11002686 0.08972928 0.040986527 0.03552356 0.086547 0.16321513
0.04364365 -0.035890117 0.22828731 0.111496635 -0.038294673 -0.16029909 -0.03834863 0.051562883
-0.04222507 -0.08291674 -0.05142876 -0.09285201 -0.051388282 0.08890271 -0.051680323 -0.010413255
-0.0068384567 0.043924894 0.015890986 -0.22247389 -0.03764434 0.14934121 0.1384883 0.1462814
-0.11934978 -0.09839869 -0.10244399 -0.111579224 0.0065571764 -0.18502992 -0.00518877 0.077702425
0.05378282 -0.203144 -0.17328143 0.11484159 0.14565977 -0.15654844 0.033877756 -0.043906376
0.05999194 -0.025534363 -0.15407725 -0.060990755 -0.1703676 -0.15661314 0.08954983 -0.07587641
-0.13283229 0.05155518 0.025730126 0.023974035 -0.030360026 -0.0856693 0.10668198 0.027695393
0.057387423 -0.009159173 -0.1834471 0.11088664 -0.21364786 -0.08576845 0.056090523 0.110797524
-0.28744754 0.0021250525 0.06278115 0.026155327 -0.027697569 -0.11201427 0.042900957 0.17142645
-0.15346311 -0.18237804 0.04701251 0.054454073 -0.056536075 -0.0077433987 0.17181443 0.03109312
0.014945858 -0.037930153 -0.047671538 0.0017259801 0.16310763 -0.05616983 -0.19930182 0.06726674
0.17684546 0.14069688 -0.09562493 0.041007455 -0.0073982812 0.15984525 -0.13688199 -0.016820539
-0.13055845 0.057585306 0.16453584 -0.15176785 -0.14465125 0.01251136 0.15079539 0.3457731
0.08861453 0.06187234 0.31639564 0.017411096 0.05900319 0.063602716 0.19185074 0.100989655

linear_layer.4.bias f4 [100]
00000000: d6f9 d4bb d2c2 08bd 77cd 7e3d ad4a 9bbc
00000010: a32c 0abe 81d7 59bc 9a6c 08bd e487 403c
00000020: 8590 353d e554 c03c 5294 6a3c efc0 c2bd
00000030: 5c53 a7bc 4a06 973c d031 d2bc ef8b 893c
00000040: e7b3 173d e443 d0bc 1d6f 6dbd 6cbe 3e3d
00000050: f548 943d 574a cdbc 0ed8 e63b d293 803c
00000060: 7716 783c a15c cd3c 333b 67bc 8062 fdbb
00000070: edc1 15bd f4bc 30bd dfba d83c 4eb8 8e3c
00000080: 0fa0 adbc 8da3 17bd d7d2 e83c bee4 90bd
00000090: 0c59 213d 8c0d 243e 821b 833c 23b2 10bd
000000a0: be49 b0bb 1779 803c 76aa babb 297d 0bbc
000000b0: 96bc 4dbd c714 2a3c ac16 0ebd 52d0 94bc
000000c0: 07fd 0bbc d9dd a5bc b0d2 4e3a 1843 f9bb
000000d0: 34dd bf3a 8759 8d3c 1b57 a13b d83e c5bc
000000e0: b72b b2b9 f11c d0ba 4683 a1bc 8fed 96b9
000000f0: 66da 93bb 1ec2 993d 22ba 393c 5e78 0ebc
00000100: 5b74 0f3c eefd 563b fe12 373b a12c aebc
00000110: af3e 213d 9813 c5bc 5e8f 69bd 6c7b 63bc
00000120: f63c 5e3c 2427 4dbb 1406 f13c 94dc 23bd
00000130: 817c 86bc bad4 da3c 7369 423d 4a20 e63b
00000140: 9080 393d 91a6 ebbc 1a77 ab3d 53b2 543d
00000150: ff64 68bd 54bc 80bd 2918 abbb 4479 e0bc
00000160: 72a4 3cbc 1b47 2d3c de59 233c 666e b83c
00000170: b39e b6bc e1a2 913c 7d12 7b3d 95d2 b6bc
00000180: c0d0 a4bb 06d5 86bc b6aa 3abd 93e4 96bc
-0.0064995093 -0.03338892 0.062207665 -0.018956507 -0.1349359 -0.013296009 -0.033306696 0.011751149
0.044327278 0.02347798 0.014317589 -0.095094554 -0.020425491 0.018435616 -0.025658518 0.016790358
0.037036803 -0.025422998 -0.057967294 0.04656832 0.07240478 -0.025059862 0.0070447987 0.015695486
0.015142075 0.025068583 -0.014113235 -0.0077326894 -0.036561895 -0.04314895 0.026456295 0.017421868
-0.021194486 -0.03702121 0.028420849 -0.07074879 0.039391562 0.16020793 0.016004328 -0.035326134
-0.0053798845 0.01568274 -0.00569659 -0.008513727 -0.050228678 0.01038093 -0.03468959 -0.018165741
-0.008544213 -0.020247387 0.0007889671 -0.007606875 0.0014638067 0.017254604 0.004923714 -0.024077818
-0.00033983376 -0.0015877766 -0.019715916 -0.00028787224 -0.004512119 0.07507728 0.011335881 -0.00869569
0.008755769 0.0032805162 0.0027934904 -0.021261515 0.03936642 -0.024057195 -0.05702149 -0.013884407
0.013564339 -0.0031303847 0.029421844 -0.04000528 -0.01641679 0.026712764 0.047463845 0.007022892
0.045288622 -0.028765948 0.08372326 0.051927876 -0.056736942 -0.06285921 -0.005221386 -0.027401574
-0.011513816 0.010576035 0.0099701565 0.02251358 -0.02229247 0.017777862 0.06129693 -0.02231721
-0.0050297678 -0.016459 -0.04557296 -0.01841954

linear_layer.5.weight f4 [100, 100]
00000000: a989 733d 877a 3b3d 86f4 b13c 8e5f da3c
00000010: 14b9 cebc 9205 62be 5309 0abe c335 2dbd
00000020: 6497 77bd e597 993d ced1 3e3d 6979 3bbd
00000030: 1677 ecbd dff6 a8bd 940f 813c 24db 993d
00000040: b72f 36bd f041 7cbd fe48 883d 6df5 a6bc
00000050: 5f24 42be 5417 cb3d c4d8 e43c a48b fe3c
00000060: ec9f 03be da03 ca3d 1d15 1abd 79b0 0dbc
00000070: efbc 813b 8dbd 2fbe 3602 953d 9d0e 1f3d
00000080: 7373 bb3d cc9d abbc fb24 413e ac3a f53c
00000090: 5cde b63d 06de 8cbe f45e 913d cc49 583e
000000a0: 14a0 10be 685e 0ebe 40fd 15bc 2ca9 b03d
000000b0: 6dd0 a1bd 5d1c d63d 8ef1 9f3d a133 1d3e
000000c0: 4c71 7fbe f87f 52bd 2f03 2cbe 7040 4bbc
000000d0: 89ed b1bc 9757 9b3d e56e 013c 73b9 ce3b
000000e0: 8fe7 053e e0ea 01be 8c5f 433d 01c5 0e3e
000000f0: cb7d 443c 13af 393d 4645 cdbd a4cd 533e
00000100: c787 9bbd 6373 20be 36d0 95bd 131c c33d
00000110: 692a 7bbd c410 ffbd b7a3 10be 12e5 013e
00000120: 78f2 f83c 8e8b b03d 4ea3 8fbc 8d96 e2bd
00000130: 1fba 12bd 0b85 d8bc 51b8 933d 5978 0f3e
00000140: 756c 4cbd 88f3 5f3d 9344 41bd ed2c 82be
00000150: b76f 873d 792d 50be c69e 5b3e 84f9 903d
00000160: 845a 16bc fdf9 9b3a ab60 e4bc aeaf 863e
00000170: d915 58bc c3ac 89be ef90 923d 40db 633c
00000180: 504a fe3d 0126 06be bd41 4abd 7751 153e
00000190: 7f65 9fbd b4aa 863d f6a8 f6bc 4fdf dc3d
000001a0: 8f52 71bd 9cf0 9f3d 5147 243e 446a 4e3d
000001b0: d3a9 19bd f7bd 15be 11ba 41be 20b1 803d
000001c0: c7bd a7bd 79ff 43bb 99a0 34bd d5f1 ccbd
000001d0: 6774 04ba 4420 0d3e c2c5 ea3d a927 41be
000001e0: d609 3cbe 582a 44bd b778 f93c 9059 fe3d
000001f0: 2c51 c93d cc5c c73d 6494 b13d aa49 3d3c
00000200: a135 c63d 8926 a43d 169d 75bc f4d5 8e3d
00000210: f59c 1dbd c89d 3c3c 5745 6abe af21 c83d
00000220: 9606 6c3d fc5b 0fbe 5d03 c8bd af57 a33d
00000230: c7ed c4bb 7afa cbbd 12ff 0d3e f86d ccbd
00000240: 1185 213e 0a3f 0abd f3b6 2f3e 7089 143d
00000250: d20b 883d 95c0 3b3c 5146 b6bb 7da4 6c3e
00000260: 4bcc 9bbd bf3f 2d3d 4cef 82bd c4e7 fa3d
00000270: 6322 dabd ccaa 283e b0de 513e b397 bf3d
00000280: e9b3 e0bc a1b9 01be 98c1 6d3b 0964 db3d
00000290: 47f9 b23d aedf 8638 417c 303e 2642 30bd
000002a0: 38b3 2bbe 788b 7d3d 7531 163e f25f a6bd
000002b0: 4d2f d1ba d3dd fa3c 2e85 123d 8d00 363e
000002c0: 225c 81bd 8e7a d9bc 5127 58bc de97 ddbd
000002d0: a52f f6bd 1401 e9ba 5979 c7bd b329 9ebd
000002e0: fb4c d5bd 895f 223e 1834 65bd c459 a73d
000002f0: 1976 ad3d 54aa f93c 2ddd 40be 8fa3 a73d
00000300: f4e4 8e3d 54d5 bfbd d14e 86bb 6b18 343c
00000310: deb8 6bbc a76a abbd 9817 0a3d 10ff f5bd
00000320: 499d a5bd 108a 033d 1b6f 1ebd 8e9a 20be
00000330: b108 98bd 5507 fb3d 49a8 c9bd 657a 2dbe
00000340: 1259 973d 7a6f 163c cbce ce3c 9b55 0bbe
00000350: 2b44 033c 5477 113d 3a03 f83d fd20 33be
00000360: e83f 303e cecc 663b e6b7 013d 55c4 8bbc
00000370: 06bd dd3d c02d a0bd 6d51 3fbd 4634 033e
00000380: d900 db3d 87ae a9bd 3eb9 e5bd 63c1 97bc
00000390: 72d0 5fbc b514 323e 0c5c 3b3e 7ac7 f1bc
000003a0: 5727 85bd d8c8 e13d 912a f23d 8eeb aebc
000003b0: 36d1 143e 8d81 353e 171c de3d 592a 1a3e
000003c0: 6559 bcbd 668c 85bd adfb febd 178f aa3d
000003d0: eded 55bd d8b1 bbbd 76a3 133e 42e4 e9bd
000003e0: 24f2 99bd cde6 e33d 0edb b53d 25d0 adbd
000003f0: 83ab 0dbe 6d62 7d3c fea6 9ebc a504 d7bd
0.059457455 0.045771148 0.021723043 0.026656892 -0.025234737 -0.22072437 -0.1348012 -0.0422876
-0.06044711 0.07499675 0.046586804 -0.045770083 -0.11546151 -0.08250212 0.015754499 0.07512501
-0.0444791 -0.06158632 0.06654547 -0.0203807 -0.18959187 0.09916559 0.027935393 0.031072445
-0.12853974 0.09864016 -0.03761779 -0.008648031 0.00395929 -0.17162152 0.07275812 0.038832296
0.091528796 -0.020949267 0.18861763 0.029935203 0.089291304 -0.2751314 0.07098189 0.21121901
-0.14123565 -0.139032 -0.009154618 0.08626017 -0.07901082 0.104546286 0.07809745 0.15351726
-0.24945563 -0.05139157 -0.1679809 -0.0124055 -0.02171971 0.07585066 0.0078999745 0.0063087284
0.13076614 -0.12687254 0.047698542 0.13942339 0.011992882 0.04533298 -0.100229785 0.20683914
-0.07594257 -0.15669017 -0.07315104 0.09526839 -0.061319742 -0.1245437 -0.14124952 0.1268504
0.030389056 0.08620368 -0.017533924 -0.110638715 -0.03582203 -0.026430627 0.0721289 0.14010753
-0.04990812 0.05467561 -0.047184538 -0.254249 0.06613105 -0.20329846 0.21447286 0.07078841
-0.009176854 0.0011900064 -0.027878126 0.26305908 -0.013188803 -0.2688962 0.0715655 0.013907254
0.12416518 -0.13100435 -0.0493791 0.14581858 -0.07783031 0.06575528 -0.030109864 0.1078478
-0.058916625 0.078095645 0.1604283 0.05039431 -0.037515473 -0.14623247 -0.18918635 0.06283784
-0.08190494 -0.0029906912 -0.04409847 -0.10007063 -0.00050527457 0.1378184 0.114635006 -0.18862785
-0.18363127 -0.047891945 0.03045307 0.124194264 0.098299354 0.097344965 0.086708814 0.011553207
0.09678198 0.080151625 -0.0149910655 0.06974402 -0.038479764 0.011512227 -0.22878014 0.0977205
0.05762347 -0.13999933 -0.097662665 0.07975709 -0.0060097906 -0.09959884 0.13866833 -0.099819124
0.15773417 -0.033751525 0.17159633 0.036263883 0.066428795 0.011459489 -0.0055625816 0.23109622
-0.07607325 0.04229712 -0.063932985 0.12251237 -0.1065109 0.16471404 0.20495105 0.09355106
-0.027429538 -0.12668468 0.003627872 0.107124396 0.08738952 6.4312815e-05 0.17234899 -0.043031834
-0.16767585 0.061900586 0.14667304 -0.08123769 -0.0015959531 0.030623352 0.03577154 0.17773648
-0.06316401 -0.026547696 -0.0131929675 -0.10819982 -0.12020806 -0.001777681 -0.09739942 -0.07722797
-0.104150735 0.15856756 -0.055957884 0.08171418 0.08469791 0.030476727 -0.18834372 0.08185493
0.06977263 -0.09366861 -0.004098751 0.01099215 -0.0143873375 -0.08369952 0.033713907 -0.1201154
-0.080866404 0.03211409 -0.038680177 -0.15683958 -0.07423533 0.12257258 -0.09846551 -0.16941221
0.07390036 0.0091818515 0.025245091 -0.13606875 0.008011858 0.03551419 0.121099904 -0.17493053
0.17211878 0.0035217288 0.03166952 -0.017061392 0.10827069 -0.07821226 -0.046708513 0.1281291
0.10693521 -0.082852416 -0.11216973 -0.018524831 -0.013660537 0.17390712 0.18296832 -0.029514063
-0.06501644 0.11024636 0.11824525 -0.021352556 0.14532933 0.17725201 0.108452015 0.15055217
-0.09196738 -0.065209195 -0.12450347 0.083280735 -0.052228857 -0.091647804 0.14417824 -0.1142049
-0.07516888 0.11128006 0.08879672 -0.08486966 -0.13834958 0.015465361 -0.019366737 -0.10498933
