ac_2d_model_para_5/checkpoint_2400.pth (torch, 291152 bytes, 17 tensors)

linear_layer.0.weight f4 [100, 3]
00000000: 2e3f 693e 5628 223e 90ac 44be f009 5f3c
00000010: f2e2 91bd 37cf e43d 0aab 4a3d 5a97 7cbd
00000020: 9b88 91be 05e1 973e c64e 0fbd 8373 5a3e
00000030: 3edd 2dbe 54dc 1cbe 6408 bcbe 09f5 99bd
00000040: 21e0 4bbe 7c5f 0bbe b85c d9bd e899 093e
00000050: e756 fabd c243 9fbd e1d7 33bd 738f aabe
00000060: 8907 093f 731c 4a3d d923 9d3c ea60 2dbe
00000070: 709e 3fbe 57af 99bd 5042 163d cc9b 4ebe
00000080: 7b00 083e a502 edbd 3c3a 853d c7b3 72be
00000090: e439 ee3e b182 8ebb 6d39 e9bd aa9d 9e3e
000000a0: 174d 1abc 544e 813e 09cd 513e 63e1 203e
000000b0: 5d0e 3f3e 9bec 40be 71e1 46be edda e83c
000000c0: 81ac a53e 07ab b13c 95fe 93be f28d 5cbe
000000d0: 72ab 18be f5a3 1ebe 87c4 a5be c08c 8ebc
000000e0: 4225 c43d ea2f 213e 9eed 243e 33d5 72be
000000f0: 1265 b23d e366 4dbe 3d99 a53d 90fa e33e
00000100: 70fa adbd 0215 9e3d f716 8fbe f68b 1dbe
00000110: 73cf be3c b9e5 263e dd71 c93c 3003 f6be
00000120: ecf6 7a3e b835 0b3d bcc4 9c3e e7bc 3f3e
00000130: f7de a83d 125c 6f3b b68a a4be df78 5cbe
00000140: 0b68 adbd d319 643d bcba 883e 6f45 613d
00000150: 605b 5b3e 99f2 57be 538a 583d 15f6 e23d
00000160: 95ef 99bc f81f d4bd 83a7 3fbd 95e2 24be
00000170: 5152 0fbe 6c44 e53e b99d 853c a58a a73e
00000180: 3026 d03d b1eb 65be 4c2d 083e 9fb4 d6be
00000190: ec7c 8a3c 453e d6bd 8491 883d 85ed c6bd
000001a0: 0a09 94be 17c8 053e 5b00 13be 8a71 553e
000001b0: 69c1 25be 31fd 883e bee4 a03c 2193 973e
000001c0: 8ed9 153e c7c6 783d 82fd 08bd 0b45 babd
000001d0: d2a9 cdbe 805f 19be 865a e2bc 9071 1bbe
000001e0: 70ee b63d 8e31 c13d 403c 04be 1d1b 60be
000001f0: b80f 2ebc 8e84 093e 44be 74be 426d 2f3e
00000200: 137c 03be e7b9 203e 7bc8 87bd 23da 823e
00000210: 4e19 24be 2fd1 4b3e a4b8 033e b3d8 a0bd
00000220: 9f84 e4bd 4648 183e ca60 eebe 9ebf 203e
00000230: b295 8fbe 1196 e73e 3efe 9a3a acb0 fcbd
00000240: af73 c23d 0e27 c13d 1bd3 c03d 8e39 d23e
00000250: 5a1d d3bd 4328 edbd 018f 8a3e e359 e53d
00000260: 6079 f6bd f120 5b3e 22ce 61bd c601 19be
00000270: f614 e0bd c2ee 813e 552e c43d 51eb 9c3c
00000280: fac4 663d 5c44 853e 52ec 043e d2bf ae3d
00000290: 3484 b83b 5e99 b63e dd67 95bd 6116 dc3d
000002a0: b41b 0f3f aa03 723c e5a7 4ebc 7a2b b33e
000002b0: 3533 f4bd a06f 82be 2b71 bb3e d718 083c
000002c0: c172 12be e985 6fbd 61c4 2bbe 5c76 8b3e
000002d0: 2180 18be 043a f13d 1106 debb 8bbb 5a3c
000002e0: 2eee 8f3e 0456 c93c 2770 a93e 54fc 19be
000002f0: fadb 78bd 22e8 283b c82a f13d fa19 4dbe
00000300: 12ac db3e b428 1dbe 4e5d 903d bd8c f33c
00000310: 30b4 d43d f7b1 a53e 01ad 223e 7b27 e4bc
00000320: eb47 bebe caea 06bf a1d2 e2bc dbfc d33d
00000330: 199a cb3e 6c32 f2bd 143c 863c 6839 cebd
00000340: 5759 d43d fc29 cf3c 2108 9cbe 4743 7e3c
00000350: 6a3b 15bd 66ad f73d 31ed 1d3e 1744 b53d
00000360: 34b2 b8bd 6e33 883e 8fce cabd 29a3 ee3d
00000370: 22ba 1b3e 8247 61be e8ca 003f 7759 033d
00000380: 598b a7bd 1244 f3bc ce7c b33e 5653 163e
00000390: b6b2 2fbe 7b88 d2be 53f6 813e fa67 c2be
000003a0: 5e00 c5bd d532 33be 569f debc 290f 5e3e
000003b0: d7be 0abc 6141 ea3c 11af 49be 760e 583d
000003c0: 895b 173e 490d 65bd 3a76 1fbd 70c4 1bbe
000003d0: bdb6 4fbe d108 a3bd 3a21 84be 6b07 253e
000003e0: 72e4 ae3d 3795 3c3e be4a e4bd dd7b f53e
000003f0: 8ef4 8d3e 1cef 09bd 4a6a 89be dd19 5a3e
0.22778007 0.158357 -0.19206452 0.013613209 -0.071233645 0.111723356 0.04947952 -0.061667778
-0.28424534 0.29663864 -0.034987234 0.21333127 -0.16978928 -0.15318424 -0.36725152 -0.0751744
-0.19909717 -0.13610643 -0.10613388 0.13437617 -0.122236066 -0.07776596 -0.04390705 -0.33312568
0.5352712 0.049343538 0.019182133 -0.16931501 -0.18712783 -0.075041465 0.036684334 -0.2017662
0.13281433 -0.1157277 0.06505248 -0.23701392 0.46528542 -0.0043490757 -0.11387906 0.30979663
-0.009417794 0.25255072 0.20488371 0.15710978 0.18657823 -0.18840258 -0.19421937 0.028424704
0.32358173 0.021687998 -0.28905168 -0.21538523 -0.14909151 -0.15492232 -0.323765 -0.0174011
0.09577419 0.15740934 0.16106269 -0.23714142 0.08710684 -0.2005878 0.080858685 0.44527102
-0.08495033 0.07718851 -0.27947208 -0.15385422 0.023292279 0.1629857 0.024590427 -0.48049307
0.24508256 0.033986777 0.30618846 0.18724404 0.08245652 0.0036523384 -0.32137078 -0.21530484
-0.0846711 0.05568869 0.26704967 0.054997858 0.21421576 -0.21088637 0.05286629 0.11082093
-0.018791 -0.1035766 -0.04679061 -0.16102059 -0.13996245 0.44778764 0.01631056 0.32722965
0.10163534 -0.2245319 0.1329853 -0.41934678 0.01690527 -0.10461096 0.0666838 -0.09713272
-0.28913146 0.1306461 -0.14355604 0.20844093 -0.16187061 0.2675567 0.019640323 0.29604438
0.14633772 0.060736444 -0.03344489 -0.090952 -0.40168625 -0.14977837 -0.027631056 -0.1518004
0.08932197 0.0943328 -0.12913609 -0.21885343 -0.010623865 0.13429472 -0.23900706 0.17131522
-0.128403 0.15695916 -0.066300355 0.2555705 -0.16025278 0.19904016 0.12863404 -0.07853832
-0.11158108 0.1487132 -0.4655822 0.15698096 -0.28043896 0.4523168 0.0011825038 -0.12338385
0.09494721 0.09431277 0.09415265 0.41059536 -0.10308333 -0.11579945 0.27062228 0.11198785
-0.12034869 0.21399285 -0.055128224 -0.14942083 -0.10941498 0.2537747 0.0957915 0.019155176
0.056340195 0.26028717 0.12980774 0.085326806 0.005630994 0.35663885 -0.07295201 0.10746456
0.55901647 0.014771381 -0.012613271 0.34994107 -0.119238295 -0.25475788 0.36609778 0.0083067035
-0.14301588 -0.058477316 -0.16774131 0.2723874 -0.14892627 0.11778644 -0.0067756255 0.013350378
0.28111404 0.024577148 0.33093378 -0.15037662 -0.06075666 0.0025773128 0.11775738 -0.2002944
0.42904717 -0.15347558 0.070490465 0.029730195 0.103859305 0.3236234 0.15886308 -0.027850857
-0.37164244 -0.5270201 -0.027688326 0.10350963 0.39766005 -0.118260235 0.01638607 -0.10069543
0.10368603 0.025288574 -0.30474952 0.01551897 -0.036433615 0.1209362 0.15422513 0.08850878
-0.090183645 0.26601738 -0.09902679 0.11652214 0.15207723 -0.21999934 0.5030961 0.032067742
-0.08180875 -0.029695544 0.35056156 0.14680228 -0.17158017 -0.4111975 0.25383243 -0.37969953
-0.09619211 -0.1749986 -0.027175587 0.2168547 -0.008468351 0.028595628 -0.19695689 0.052748166
0.14781012 -0.055920873 -0.03893111 -0.15211654 -0.20284553 -0.07960666 -0.258066 0.16116111
0.08539666 0.18416296 -0.111470684 0.47946063 0.27725643 -0.033675298 -0.26838905 0.21298929

linear_layer.0.bias f4 [100]
00000000: 9c07 b0bc 93c3 95bd 1900 4c3e 5c0f 2ebd
00000010: c6f0 993c c7eb 10bd efec ae3d 9920 103e
00000020: cce7 4abe f6c7 603d 8ef6 6c3d 6a1e 0dbe
00000030: ec9a 603e 374a 793e c51d 873d 5e23 b63a
00000040: acfa 15be e691 a13c 996e 03bd 8781 aabb
00000050: 9f99 05be cf2d 9abd f75e 3dbd d39d d73c
00000060: fafd 3f3d da15 343e e156 ec3d ac5b 16bd
00000070: dfc4 683d 68aa 01be 485e 99bd 1969 6ebc
00000080: 0188 113e e1e2 e1bd 3491 acbd 3025 963d
00000090: fab5 d8bc c530 50be cc24 243e 8e36 443e
000000a0: 7c5b c33d d26e 7dbd 7f62 9a3d cac7 9fbe
000000b0: 20bb b73c 5e19 09be 94e4 07be 979c be3c
000000c0: 75a8 c8bd e33a 50be cd37 973e bf96 b63d
000000d0: ea74 3a3a 8ba4 81be ce9c df3d ec08 023e
000000e0: fa6a 003d 4622 12bc f8ae 02bc dc7d 3d3c
000000f0: 30de f3bd b868 95bc ab00 a63b 6727 363e
00000100: 7fc1 15be f47c b93d 74be 76be 457a 923b
00000110: 3b0a babd e4e2 d33d 0cd0 453e 365d c5bd
00000120: bd6c d6bd 2ea0 6a3e 62c7 98bc 16e1 043d
00000130: fc4c be3c 033d a83d e9cc 02be 3481 01bd
00000140: 1606 1f3e 762a 0a3e 0b4c 5cbd cde8 803c
00000150: e58d 0a3d 01f6 753d 9dbe 083e e375 233e
00000160: d296 e5bd 837e d7bd b237 0fbe f64f 50be
00000170: 8646 97bd 80ba 0c3e f8ac 21bd 5955 223d
00000180: 9dcb 8b3e 028c 893d 965a a0bd f9a2 733d
-0.021488003 -0.073126934 0.19921912 -0.042495117 0.018791568 -0.035381105 0.08541285 0.14074935
-0.19814986 0.054878198 0.05785232 -0.13781133 0.21934098 0.24344717 0.06597475 0.0013896038
-0.14646405 0.01972289 -0.032087896 -0.005203429 -0.13046883 -0.075282685 -0.046233144 0.026320374
0.04687307 0.1758646 0.11540008 -0.03670852 0.056828376 -0.12662661 -0.07488686 -0.014551424
0.14212038 -0.11029602 -0.08426133 0.07331312 -0.02645396 -0.20331104 0.16029662 0.19161436
0.09538934 -0.061873265 0.07538318 -0.31207114 0.022428095 -0.13388583 -0.1327079 0.023268027
-0.09797756 -0.20334964 0.2953476 0.08915471 0.00071127585 -0.2532085 0.1091858 0.12698716
0.03135202 -0.008919304 -0.007976286 0.011565652 -0.11907613 -0.01823841 0.0050659976 0.17788468
-0.14624594 0.09057036 -0.2409609 0.004470142 -0.090839826 0.1034601 0.19317645 -0.09636919
-0.10469959 0.22912666 -0.01864976 0.03244122 0.023230068 0.08214762 -0.1277348 -0.03161736
0.15529665 0.1349276 -0.053783458 0.015736008 0.033826727 0.06004906 0.13353963 0.15962939
-0.11210407 -0.10522177 -0.1398609 -0.20343003 -0.07386498 0.13743019 -0.039471596 0.039632175
0.27303782 0.067161575 -0.07829778 0.059481595

linear_layer.1.weight f4 [100, 100]
00000000: 4756 643d bf54 1b3e a6ae 86bd 09b5 c1bc
00000010: 85e0 75bc dbb1 9b3b 7204 cc3d 4c19 693d
00000020: 5598 163e 1cd1 1abe a2dc a1bd dfff 313c
00000030: d341 7ebe 8290 9dbd b3d0 863d 1835 8c3d
00000040: 363a 63be 84ca 1cbe f52d 5c3e f0af 1d3b
00000050: ed79 b8bd 32b1 e03d 0c24 113d a3b8 183e
00000060: e194 8fbd ecb9 4e3b 4461 aebd ad46 63bc
00000070: 5dbd 71be 974c b6bd 7e60 4ebc ba03 d7bb
00000080: 0f17 2dbd c93f 6d3e 93c1 a8bd f28d 81bd
00000090: 7a30 bbbd 44a6 41bc 677a 043e 6eb3 12be
000000a0: 3a7d 4f3d b805 2b3e fe51 0ebe 7fc6 61bd
000000b0: 38e2 e33a 96e7 07bd 71e2 683d c6e7 b53c
000000c0: fa52 ec3a 4459 fc3d d683 6abc 01d0 91be
000000d0: 24c1 ec3d bd5b c03d a117 0dbd 42a9 5fbe
000000e0: be6c 17be ccf0 9cbd 91b0 163e 5149 2e3e
000000f0: c0bb 603c a39f 813d c8d3 2ebc a1ee 24be
00000100: 2fa6 c1bc 6f36 3a3e 468c 44bc 7b03 723d
00000110: 93a3 c53c f82d b6bd cf44 283c 4076 c93d
00000120: da40 95bd 6fdc 273d 957b 81be 47f4 f13c
00000130: 532e 1ebd 13c3 183c 3322 33be c59c efbd
00000140: 8784 09bd 9809 4ebc b086 cfbc ab19 ccbd
00000150: ab5d 6f3d eba4 003e 8e51 f4bc 7561 9ebd
00000160: f215 c03d 8dc2 fb3d f8ad cbbb 5ce9 083e
00000170: 8d28 b4bd 980f 84bd f277 00bc dc2a dabd
00000180: ddf9 81bd 448a a0bc e742 05be ceb2 a0bd
00000190: 1193 443d 645c 5e3e 73e0 a5bc 221b 793d
000001a0: eff9 5cbd 8307 2cbe 56cd 093e a564 8dbe
000001b0: afb5 4ebd 6b03 91bd 81dc 87bd b1ea 1c3d
000001c0: 73b3 de3d 49d4 f53d 9105 233e be91 18be
000001d0: 38c4 2fbd 3328 92be 821e 5c3c 5ab0 413e
000001e0: 212d e7bd cc8f bfbc 8213 f33c ff7f f33d
000001f0: 3878 413e 0108 a53d a5f9 b9bd 140d f53d
00000200: 24b3 fbbd d8d7 a6bd e212 8dbd 52ab d1bd
00000210: fc1c 333e d2c6 e7bd df65 ddbd 47b7 143d
00000220: 64f4 403e cf3f 8e3c afc4 b4bc cdb6 a7bd
00000230: ec50 4f3e 8a20 cbbd fd16 013e 0217 3dbe
00000240: de61 4d3e 6c28 6cbe 9775 8abe e0df 88bd
00000250: 53ba 193d bdd4 c2bd 987a 75bc b314 0bbd
00000260: f710 b33d 4603 30be 1754 27bd eb2a c53d
00000270: bc96 d03c 6574 9bbd c431 f7bd 912c 2cbd
00000280: b48d 083e 6892 b6bd e46f a7bc dcbd 703d
00000290: c7ce 0fbe f271 183e 18fe 1bbd 85d8 3abe
000002a0: be1c c0be 2505 703e 723d 8fbc 5ad2 9f3d
000002b0: f605 3d3d 867a 0b3e c739 e43d 8b33 3f3e
000002c0: 50d7 023c ea71 65bb 1ce2 e4bd 1591 483d
000002d0: fad6 503e 74f4 50be b748 26bd b69d a63d
000002e0: 592d 783c c9f7 a0bd 5256 053d 6c26 213d
000002f0: a39d 553c 1990 0abe c512 a63d 2560 04be
00000300: 8517 da3c 549a c2bd 0d22 fa3d f7c7 06be
00000310: 1f02 253e ab54 103e 48f0 efbd 7f8c 4c3e
00000320: 5b15 e5bd b4f2 4dbd fa61 d33d b8e3 87bd
00000330: 1c82 04be a366 423d 358a 04bd 83cb 183e
00000340: fa9f 45be 7d5b e4bc ed01 ae3d 029f 163d
00000350: bda5 d9bd 4474 1c3c 1fe6 f13c 1752 f6bc
00000360: 2aaf a3bc 3cde fe3d d70e 23be 11f7 2bbe
00000370: 5f00 9a3d 0e94 993d 468f 1b3d 2d64 0cbe
00000380: 5ffe 22be ed1b 2bbe 6499 393d 952b 9e3d
00000390: ab23 25bd 9a2c ca3d 5ecf 01be 7831 9cbd
000003a0: b124 053d 416d 263c 13cc 823c 286b dc3b
000003b0: 6984 d2bd 8dd5 adbd d747 8abd a49f 8b3c
000003c0: 15ec 6a3e 1347 513e b6d5 abbc 9d00 0d3e
000003d0: c67b febd a732 153e d2a3 e73d bcad 0dbe
000003e0: ce3a 8bbd eb4f bebd b975 453d 9f72 b73b
000003f0: 44e6 3bbd 9a07 7ebd e943 17be 8d4c 0abd
0.055746343 0.15169047 -0.0657628 -0.023645895 -0.015007143 0.0047514266 0.099617854 0.05690889
0.14706548 -0.15118831 -0.079034105 0.010864227 -0.24829797 -0.07693578 0.06582775 0.06846064
-0.22190174 -0.15311629 0.21501906 0.0024061166 -0.090076305 0.10971297 0.035434768 0.14914183
-0.07010818 0.0031543924 -0.08514646 -0.013871831 -0.23607393 -0.08901327 -0.012596248 -0.0065617235
-0.04225832 0.23168863 -0.08240046 -0.06325902 -0.091401055 -0.011819426 0.12937318 -0.1432626
0.050656535 0.167014 -0.13898465 -0.05512094 0.0017386144 -0.033179842 0.056856576 0.022205245
0.00180301 0.123217136 -0.014313659 -0.28479007 0.11560276 0.09392498 -0.034446362 -0.2184191
-0.14787576 -0.07663116 0.14715792 0.17020155 0.013716638 0.063292764 -0.01067061 -0.16106655
-0.023638813 0.18184827 -0.011996334 0.05908535 0.02412585 -0.088954866 0.0102703115 0.098370075
-0.0728776 0.040981706 -0.25289598 0.029535426 -0.038618397 0.009323853 -0.17493515 -0.11699823
-0.033573654 -0.0125755295 -0.025332779 -0.09965833 0.058438938 0.12562911 -0.029824045 -0.07733432
0.09379186 0.12292967 -0.006215807 0.1337027 -0.08796797 -0.06448287 -0.007841097 -0.10652706
-0.06346486 -0.01959718 -0.13013802 -0.07846604 0.047991816 0.21714932 -0.020248627 0.06081689
-0.053949293 -0.1679974 0.13457236 -0.27615848 -0.050466236 -0.0708073 -0.06633855 0.038309757
0.10874071 0.12003381 0.15920092 -0.14899346 -0.04291174 -0.28546295 0.013435008 0.18914929
-0.112879045 -0.023383997 0.029672388 0.11889648 0.18893516 0.08058167 -0.09080819 0.11965385
-0.12290028 -0.08146638 -0.06888367 -0.10237755 0.17491525 -0.11317219 -0.10810446 0.0363076
0.18843228 0.01736441 -0.022066442 -0.08189163 0.20245713 -0.09918316 0.12606426 -0.18465808
0.20056865 -0.23062295 -0.2704284 -0.06683326 0.03753121 -0.09513233 -0.014982842 -0.033955287
0.0874347 -0.17188749 -0.04085168 0.096273266 0.0254625 -0.0759056 -0.12070039 -0.04203469
0.13335305 -0.089146435 -0.020439096 0.058774814 -0.14043723 0.14887217 -0.03808412 -0.18246658
-0.3752193 0.23439462 -0.017485354 0.07803793 0.046148263 0.13620958 0.11143833 0.18672006
0.007985905 -0.0035010525 -0.111759394 0.048966486 0.20394507 -0.20405751 -0.04059669 0.0813555
0.0151475305 -0.07859761 0.032553025 0.039343283 0.013038072 -0.13531531 0.08109049 -0.12927301
0.026622543 -0.09502092 0.12213526 -0.13162218 0.1611409 0.14094798 -0.11715752 0.1997547
-0.11185714 -0.050280288 0.10321422 -0.06635231 -0.12940258 0.047461163 -0.032358367 0.14921384
-0.19299307 -0.027875656 0.08496461 0.036772735 -0.10627315 0.009549204 0.029528676 -0.03006844
-0.019980986 0.124447316 -0.1592363 -0.16793467 0.07519602 0.07498942 0.037978433 -0.13710089
-0.15917347 -0.16709872 0.0453123 0.07723156 -0.04031722 0.09871788 -0.1267676 -0.07626623
0.032505695 0.010157884 0.01596645 0.006726641 -0.102791615 -0.08487997 -0.067519836 0.017043896
0.2294162 0.20437269 -0.020975929 0.13769765 -0.12425952 0.14570104 0.11310543 -0.13835806
-0.067983255 -0.09292587 0.048207972 0.0055983807 -0.045873895 -0.06201897 -0.14772 -0.03376441

linear_layer.1.bias f4 [100]
00000000: 910b abbd 223f aa3d b1d7 c8bc 50a4 433e
00000010: 7b0a bebc 97d9 84bd 558f eabd 1fb7 093e
00000020: 4b5a e1bd fea1 b13d 76ac acbd 7a9d afbc
00000030: 5e6f 0e3e 7c64 c43d bbc7 91bd 591c 9ebd
00000040: cc31 913b 7f0f 033e 80a5 b63c fe03 70bd
00000050: 193b 58bd 254e 353d 221d fcbc f871 bf3d
00000060: 0bea 143e 6d97 0c3d 76a7 1d3e bf6f 5ebd
00000070: 5f12 c1bd 2efb 78bd f430 6cbe 6411 043e
00000080: 89d0 783b 58fb bbbd e9db 95bd 4ce9 a83d
00000090: b71f 073e 0348 1bbe 5b1a 283c 7f48 a0bc
000000a0: 3163 e6bd 479e 0abe d1fc 043d 3a25 253e
000000b0: 3a5c 90bd 58ed 293c d676 093b 2859 11be
000000c0: 9d2a 9f3d 00c8 debd ac83 57bd c6d7 beba
000000d0: 99e6 a9bb fd25 f2bd c687 163c 395b b13c
000000e0: 00d5 103e db15 bdbd 1720 39bb 4aef fd3c
000000f0: 66c6 10be 74d1 c5bb 3281 123d df10 2d3e
00000100: 8d85 2f3d 6e8e 183d 3761 eebd bdec b23c
00000110: d44d 823b 61da 31be e712 c5bd 202d d73b
00000120: bf98 35bd f2cd 21bd c828 ab3d 9efb 2a3c
00000130: 49a5 a73d 1c1c 0cbe e508 723d 429b 56bd
00000140: c308 0ebe d652 93bd db8c 123d d920 e5bc
00000150: bd8c c73d f331 0a3d 5084 1abc cceb 753d
00000160: 92f9 283e 756d 0ebd 1364 b5bd e2c5 4cbe
00000170: 6d78 c73d a2a2 e03c 347b 573d f4c2 123d
00000180: 736b 873d 3e56 1ebc c10c 26bc f01c bf3d
-0.083518155 0.08312823 -0.024516912 0.19105649 -0.023198357 -0.064868145 -0.1145312 0.13448761
-0.1100355 0.08673476 -0.08431332 -0.021437395 0.1390967 0.095894784 -0.07118174 -0.07720251
0.004430985 0.1279888 0.022295713 -0.058597557 -0.052790735 0.044263978 -0.03077561 0.0934791
0.14542405 0.0343241 0.15395913 -0.054305788 -0.09427332 -0.06078642 -0.23065549 0.12897259
0.0037966094 -0.091787994 -0.07317335 0.08247623 0.13195692 -0.15164189 0.01026019 -0.019565819
-0.11249388 -0.1353694 0.032467667 0.16127482 -0.07048841 0.010371529 0.0020975373 -0.14194167
0.077718 -0.10877991 -0.052615806 -0.0014560155 -0.00518496 -0.11823652 0.009187644 0.021649944
0.14143753 -0.09232684 -0.0028247887 0.030997891 -0.14138183 -0.0060369316 0.03576774 0.16900967
0.042851973 0.037245207 -0.11639636 0.021841401 0.003976563 -0.17368461 -0.09622746 0.0065666586
-0.044335123 -0.039503045 0.08357388 0.010435967 0.081858225 -0.13682598 0.059090514 -0.05239416
-0.1387053 -0.07193534 0.03577886 -0.027969765 0.097436406 0.03373904 -0.00943096 0.060039327
0.16501454 -0.034772355 -0.08856978 -0.19997361 0.09739766 0.0274213 0.05260773 0.035830453
0.06612291 -0.009664116 -0.010134877 0.09331691

linear_layer.2.weight f4 [100, 100]
00000000: 970e 55bd 3f15 ea3c 708f 863d 0f57 85be
00000010: bdf8 c03d 1691 23bd db69 7a3d 89b8 b7bd
00000020: d162 c63d cf9e 68bd d772 2dbd 9739 1a3d
00000030: fb51 88bd ada1 c0bd fdf0 db3c 00f6 0abe
00000040: d5aa 3e3d 54f7 b4bd 0bbd 0dbd 27c7 033e
00000050: ef6b e33c 3aaf 443d 4fbd 7dbd b3c1 99bd
00000060: 3e92 04be 9861 a03a 0c93 66be 4ef3 84bc
00000070: c5df ea3c ff10 35ba 5dbc 553d 5fc0 77bd
00000080: 5714 853c efba cd3b d09a 923d b4c0 12bc
00000090: 673c dbbc e84b 9b3e 2197 f53c c12a 8bbd
000000a0: e013 113e 5dd8 2a3e c817 9e3d ef29 0c3c
000000b0: 8f7c fa3d e3b9 81bc b45d ec3d d1ea 4b3d
000000c0: 3689 25be 7251 f53d 3b6a 573c ee94 813d
000000d0: e916 09be 643f 323d 1831 eabd d1d6 05bd
000000e0: 378c acbe 434c 693d 01f3 b83d 94dd 4e3c
000000f0: 6bdc 06bd 3cf0 813b 080e dbbc e942 ccbc
00000100: e1a8 093d 3fe5 003e cc78 803d 5bf0 66bd
00000110: 5e00 b83d fdee ed3c 4f0e 793e 01c2 823e
00000120: 27a1 8f3c 66c5 01be 3f6c 4ebe 3672 e93c
00000130: 4b74 1abd 84f0 6fbc b2fb 9cbd 355a d33d
00000140: bf0f afbd 2ff9 5f3d 0fa7 40bc aabd dd3d
00000150: 889a 6e3e d0ba 07be f11f 273e 7516 8bbe
00000160: 6439 a1bd f982 eabd dcdf 533d 6320 143e
00000170: 8617 033b 7641 f1bd 2c9d f5bc 0daa f5bc
00000180: 9361 8bbd bb70 9a3c bbb2 323c 0669 5c3d
00000190: 88eb 6fbc fab5 8d3c 5326 43bd 9077 adbe
000001a0: 4fd9 e03a 6359 993d d321 b03d e82e 88be
000001b0: db71 563d 5a16 18be 8cc4 eb3d 7d15 03be
000001c0: d020 aabd b1f3 98be 7b48 b6bd 4be9 183d
000001d0: 4bdd a5bb 2740 ecbd 7bcb a53d ed79 763d
000001e0: 8171 e63d 3ccc 0d3e 7c8b 40bc e070 9ebd
000001f0: f22e 2f3d e1fa 5b3d 3dea 89be 3204 be3d
00000200: cac8 d23d f85d 553c 7a4c fb3d d3ce 6bbe
00000210: 7e18 8b3e 77a2 da3d beae 31bd 4752 a9bd
00000220: b10d 5ebb 1ace b63d fe7a 6c3e 5f2f 07ba
00000230: 7f30 433e c8fe 97bb 2541 163e 8e80 603c
00000240: bff9 033e 3a57 373e 25b6 32be 472f 783d
00000250: 32e2 6ebe 7430 a43d 040a c6bc 0fa5 27be
00000260: e02c b13d 31bc ab3d 7a6a 633e c2ab 1e3e
00000270: ccc9 b9bd 2b94 8d3c 99b4 7bbd 56a4 98bd
00000280: 604a 4b3d bf42 183e ac7c 403e 7fea 04bd
00000290: 8d02 80be ca22 7fbd fee2 203c 1f60 883c
000002a0: 52a6 88ba bfb8 2e3d 4f45 60bc 2ec0 903d
000002b0: 1f9e 9d3c 1951 febd 41bd 71bb 3437 a4bd
000002c0: 24b5 a3bb 44b0 103e 7bbe a13b 02df c23d
000002d0: 7f80 a53c 8127 adbd 5f98 05be 1a90 1bbe
000002e0: 2e15 39bd 9afe 063e 6e55 693d a101 ffbd
000002f0: 480c 02bd 5b62 84bd e623 563d 65aa d83d
00000300: 8dcc 403d 37ea 0bbe ae6c 87bc 4b6a c6bd
00000310: 2c12 513d cc49 273d 0b04 943c bee7 58bd
00000320: a9ab ccbc 34fa bebd 06ce 07bd 1606 5f3d
00000330: 99c6 1f3e 5d79 abbd 1c0d a03d b256 063d
00000340: 6922 70bd df2c 4d3e bc95 26be 44ed 05be
00000350: cf11 cbbd cd04 2bbe 264c 1abd 1dac 843d
00000360: 7636 3b3e 631e ca3d 3b41 27be 23e2 00bc
00000370: 600d 07be 3070 f43d f567 81be 16ce a03d
00000380: 5de0 dcbd 3857 a8bd aa9b e73d 5f17 913c
00000390: a337 1fbe a933 723d 740b 0cbe 8bc2 c33d
000003a0: de69 a7bd 9dd3 0e3d 0c46 41bd 383c 013e
000003b0: e109 88bd 1954 38be e1d6 11bc 2a25 8d3d
000003c0: a6ec 13be 932e 4e3c 4eef ecbd 813c 2f3b
000003d0: eb25 513c ee4e b4bd 5df9 08bc 58c5 1c3c
000003e0: b15d d7bc f545 18bd 0a79 0dbe 7dd7 733d
000003f0: cd41 dfbd f998 0a3d a4f9 b03c 07c6 953c
-0.052015867 0.028574584 0.06570327 -0.26042983 0.09422443 -0.039933287 0.061136108 -0.08970744
0.096868165 -0.056792077 -0.042345848 0.03765258 -0.066562615 -0.09405837 0.02684831 -0.13570404
0.046549637 -0.088362366 -0.034604114 0.1286894 0.027761428 0.04801867 -0.061948117 -0.07507648
-0.12946412 0.0012236116 -0.22517031 -0.016229298 0.028671155 -0.00069071347 0.05218159 -0.060486194
0.01624505 0.0062783877 0.071584344 -0.008957077 -0.0267622 0.3033135 0.02997929 -0.06795264
0.14167738 0.16684099 0.0771938 0.00855492 0.12230789 -0.015835708 0.1154131 0.049784485
-0.16165623 0.11978425 0.013147886 0.06327234 -0.13387646 0.043517485 -0.11435145 -0.032675568
-0.33700725 0.056957494 0.09030724 0.0126260705 -0.03292505 0.0039654057 -0.026740089 -0.024934249
0.03360832 0.1258745 0.0627304 -0.056381565 0.08984445 0.029044623 0.24321865 0.25538638
0.017532898 -0.12672958 -0.2015848 0.028496843 -0.037708562 -0.014644746 -0.076651946 0.1031994
-0.08547925 0.054681 -0.01175858 0.10827191 0.23301136 -0.13254857 0.16320778 -0.2716557
-0.078722745 -0.11450762 0.05172716 0.1446548 0.0020003035 -0.11780064 -0.029982172 -0.029988313
-0.0680572 0.018852582 0.0109068705 0.053811096 -0.014643557 0.017298687 -0.04764397 -0.3388028
0.0017154607 0.07487752 0.086002015 -0.26598287 0.052354675 -0.14852276 0.11512098 -0.12801166
-0.0830704 -0.29873422 -0.08900543 0.03733186 -0.0050617806 -0.115356736 0.080954514 0.06017487
0.11252118 0.1384744 -0.011752006 -0.07736373 0.04276938 0.053706054 -0.26936522 0.09278144
0.10292204 0.013022892 0.12270446 -0.23028116 0.27167124 0.10675519 -0.043379538 -0.08267646
-0.0033882672 0.089260295 0.23093793 -0.00051569 0.19061469 -0.0046385266 0.14673288 0.013702525
0.1288824 0.17904368 -0.17452295 0.060591962 -0.23328474 0.08017054 -0.024174698 -0.16371559
0.08651137 0.08385504 0.22208586 0.15495208 -0.09071693 0.017282566 -0.06145153 -0.074532196
0.049631476 0.14869212 0.18797559 -0.032450195 -0.25001946 -0.062289037 0.009819744 0.016647397
-0.0010425544 0.042656656 -0.013688399 0.07067905 0.019240437 -0.12417812 -0.0036886486 -0.08018342
-0.004995959 0.1412974 0.004936037 0.095151916 0.020202873 -0.084548004 -0.13046406 -0.15191689
-0.045186214 0.1318306 0.056966238 -0.124514826 -0.031749994 -0.06464072 0.05228033 0.10579375
0.047070075 -0.13663565 -0.016531315 -0.096882425 0.05104272 0.040841863 0.018068334 -0.05295538
-0.024984198 -0.09325066 -0.033155464 0.054449163 0.15603103 -0.083727576 0.078150004 0.032797523
-0.058626566 0.20036648 -0.16268057 -0.13078791 -0.09915506 -0.1670105 -0.037670277 0.064781405
0.18282494 0.09869077 -0.16333477 -0.007866415 -0.13188696 0.119354606 -0.25274625 0.07851808
-0.107849814 -0.08219761 0.113089874 0.01771134 -0.15548567 0.0591313 -0.13676244 0.095585905
-0.081744894 0.03486978 -0.047185943 0.12620628 -0.06642509 -0.1800083 -0.008901329 0.06891854
-0.14445743 0.012584346 -0.11569081 0.0026738944 0.012765388 -0.08804117 -0.008360234 0.009568535
-0.026289793 -0.03717609 -0.13815704 0.059531678 -0.109012224 0.033837292 0.021603413 0.018282903

linear_layer.2.bias f4 [100]
00000000: 7173 8bbd 90c9 6dbd 1778 a03c 3a3e 103d
00000010: f862 8f3c 6694 333d ee5d 6e3d bfce 363d
00000020: 74d1 f9bb f2fa 073d 20e8 18bd 4b95 80bd
00000030: 5913 d2bd 668a 3e3e 746a 84bc 9d25 e1bc
00000040: 0dfb 96bd 928f 1b3e 578d cc3b 8879 dfbc
00000050: f18e 0dbe 87f2 52bd 7cfb 743c b224 af3d
00000060: 2615 8b3c 3a3f 76bd 4842 67bd 2379 8fbd
00000070: 702a 713d 942e 93bd f61d f3bd 58c7 42bd
00000080: 4a0d 023d 7bb7 5b3d c8ee a6bc 4d6f 9fbd
00000090: 8a8e 05bd 1183 83bd d73a 00bd 176f f9bc
000000a0: e4b2 09bd e9ef ccbd 16d8 28bd 840a 173d
000000b0: 2774 2b3c 04d5 ea3c 0d94 d93c ad36 f53b
000000c0: 282f db3d 45cb 123c f901 c9bc 108f 9c3b
000000d0: e276 aa3d 3662 dc3d cf5c 9c3d c884 c5be
000000e0: 4eaf 8bbd de6d 95bc 811d eb3b 72ba 60bd
000000f0: 951a 313e 37aa 4a3d 269f 243e 06bb 1d3d
00000100: 301a 30bd ee81 e5bc 999a 8abd b5eb 133c
00000110: 423d 55be a6e2 2c3c fa7c 973c 039e f13c
00000120: f254 c93c 0bad dbbb eb6e c0bc 5cd6 65bd
00000130: b67d 61bc d8f1 0e3c d9c4 e83c d6e1 bebd
00000140: 6fa8 8cbd 3066 91bc f3d1 cabd fc5f 20bd
00000150: 62ec 353d 07d4 683d e31c 9a3c 7253 6c3e
00000160: 86c5 2abd b157 a9bb dff5 963c c8f0 403d
00000170: 4320 a4bc dac7 9bbe f505 af3b f459 93bd
00000180: e08f 2fbd 8d04 613c d1d8 86bd 0500 9bbc
-0.06809128 -0.058053553 0.019588513 0.035215594 0.017503247 0.043842696 0.058195047 0.044630762
-0.0076238457 0.033198304 -0.037330747 -0.062784754 -0.102575965 0.18607482 -0.016164042 -0.027483756
-0.07372103 0.15191486 0.006242435 -0.02727963 -0.13824059 -0.051500823 0.014952537 0.08551921
0.016977858 -0.06011889 -0.056459695 -0.07005527 0.058878362 -0.071866184 -0.11870949 -0.04755339
0.031750955 0.053641777 -0.020377532 -0.07784901 -0.03260664 -0.06421483 -0.031306114 -0.03044848
-0.03361787 -0.10006697 -0.0412217 0.036875263 0.010464705 0.028666027 0.026559854 0.0074833245
0.10702354 0.008959596 -0.024537073 0.0047777966 0.08323456 0.1076092 0.07634889 -0.38577867
-0.06820546 -0.018240865 0.007175148 -0.054865308 0.17295296 0.049478736 0.16076335 0.038508438
-0.042993724 -0.028016057 -0.067677684 0.009028365 -0.20824149 0.010552084 0.01849221 0.029494291
0.024576638 -0.006703978 -0.02349039 -0.056112632 -0.013762882 0.008724652 0.028414177 -0.093204185
-0.06868064 -0.017748922 -0.09903326 -0.039154038 0.044414885 0.05684283 0.018812602 0.23078707
-0.04169228 -0.0051679243 0.018427787 0.047104627 -0.020034915 -0.30425912 0.0053412863 -0.071948916
-0.04286182 0.013733995 -0.06584323 -0.018920908

linear_layer.3.weight f4 [100, 100]
00000000: 4c9e 27be c592 d13d a416 4abd 5b3a 2a3e
00000010: 849b 7fbb 7686 bdbc 3686 7a3d f286 e93d
00000020: 7286 fdbd 6b66 cdbd 97de 61be 8fcb 9b3d
00000030: bc50 10be 9516 213f a04a 7bbd 18a2 113d
00000040: 6cb5 81be 5033 1b3e ba3b bebd 6bcf 973c
00000050: 6d10 d7be 6010 fbbd b642 01bd 1712 113e
00000060: bdf8 a03b 198f 953d 8ff8 82bc d2f9 91bd
00000070: 62c6 5e3e 5f8b 5bbc cd77 23be 8f97 15be
00000080: 019f ffbd 76e3 0dbd cd39 83bd 4ce3 81bc
00000090: 7833 9cbe d88c 56be c4e8 7cbe 83b1 edbd
000000a0: e062 0e3e 216e 4fbe d145 25be 17dd 153e
000000b0: 754e 223d 4f01 b2bc ecb3 593d 01f2 2e3e
000000c0: 1424 78be 42d8 e23d d3ac 023e 7a31 81bd
000000d0: 9609 e2bc 28c5 9f3e 13a1 793e 0ac5 7b3b
000000e0: 0b60 b43d 3b97 23be 6ebe 20be c625 06be
000000f0: a1fc 7e3c 5507 09be ff28 a93e f786 b7bd
00000100: f2ef cb3d 6174 393c cada 653d b475 94bc
00000110: 9f99 d23d e73a 92bc 8fa7 433e f34d 3fbd
00000120: fe3b cb3d e63a c2bc c5c4 453e 71f9 d33d
00000130: d553 9dbd 6858 4abc c19f 5b3c 6e97 87be
00000140: 4f43 b63b ea2f f63d 6afc 9ebd d1ce a0bc
00000150: 9182 7b3e f3cc 10be 24ef 183d dee9 f83c
00000160: 8477 04be b4d1 133d 8e1e 45be ca8c 8c3e
00000170: 38a7 89bb 43dd 953d 9b7d 0a3c d96d 073e
00000180: 681f a03d 61cb 0b3d 4793 40be f0b7 bdbd
00000190: e9a4 343e 5888 38bc eefa 213c 591c f5bd
000001a0: 0ad8 013d 9342 c23c 89c7 e0bd 88c6 7a3d
000001b0: 7259 ba3b 7b07 8abd 62af d3bd 9546 063e
000001c0: 42ad 27bd 1408 933e f7d5 dcbd 2432 bcbc
000001d0: 75fc 79bd c256 b0bd beff cf3d 4692 9b3c
000001e0: d418 c73d 5af1 90bd 778d 83ba 8d94 38be
000001f0: 4513 1fbe cc9c cc3d 330e ca3c b291 41be
00000200: 1a16 1f3e 3d38 c93d 5ff3 33be 69fe 4d3e
00000210: 4778 493d 6d11 2bbe 54ef 933d 770e 5ebd
00000220: 2633 ee3d 7781 65be f617 313b 75ba e5bb
00000230: 2b8c 873c e4b0 cd3d 2094 2dbd 5e91 133d
00000240: 9c16 4d3e d1cf e3bb dddc 31be 0ef2 1d3d
00000250: 6c24 1f3d 8db8 293e d893 763d ee72 6f3c
00000260: 5db1 ef3d dc05 dfbc 631b 4e3d 1930 2abd
00000270: 4c3b 5fbd b95c 9dbd fc98 003e ffd2 863d
00000280: eaf6 7f3d 1b1e b1bd 2095 bcbb 5273 2cbd
00000290: cbc0 b93d 26ba cfbd e4d5 29be 56e8 cabc
000002a0: 47eb 05be 6a11 3abe 7880 91bd be56 aabc
000002b0: 7184 4e3e c73e 8cbd 9b46 b5bd 3c02 3fbd
000002c0: aefb bdbd f83e 19be da63 173c 5c91 35bc
000002d0: ec97 1cbd 559b 3bbd f275 b4bc 5933 203e
000002e0: 4f46 2c3d bb3f 863d 8b98 3c3b 4fce e9bd
000002f0: 0314 eabc 053d e9bc c9bd 1a3c f6ba d03d
00000300: 15b3 f4bc 7f30 39bd 34af be3c 7789 f1bd
00000310: 81f5 e2b9 5e58 d8bd 703e 4fbe ca9c 9a3c
00000320: 8fc9 9fbc ceed e13c b1ff 53bd 127f b7bd
00000330: 46f1 81bc a95d afbd d72c 52bd 15bb eabd
00000340: 6e24 2c3d bce2 1cbe 4dff 5b3d 1130 133e
00000350: 69bf cdbd 43b9 e6bb 8c40 be3c 956b 583d
00000360: 49dd 12bc ec52 01be 53d4 6ebe 8b78 20bd
00000370: fb2a 5c3e 1219 553c d827 e93c 2909 e2bd
00000380: e49b 0b3c 498d 43bd 4aad f93d 18a6 ae3d
00000390: 94a0 44bd ae15 b53d e358 89bd 93a2 82bd
000003a0: 65bf 5a3d 9bd9 e6bd 0e13 48be 2664 553e
000003b0: 0301 a23d 9dba 5f3d e014 823d 1ea1 823e
000003c0: 05a9 703d ac18 853d 587e 90bd ca13 f4bd
000003d0: 533a ad3d a85a 66bd d587 e9bd a868 54bc
000003e0: 8430 02bc b63b 38be 360c 173d e900 bb3d
000003f0: 4f8b 9bbd 52bd 37bd d8cf 40be b109 5c3e
-0.16368979 0.10233072 -0.049337998 0.16623823 -0.0039002607 -0.023135405 0.06116315 0.11402692
-0.12379159 -0.100293 -0.22057568 0.07607185 -0.14093298 0.6292508 -0.061350465 0.035554975
-0.25333726 0.15156293 -0.09288736 0.018531522 -0.4200472 -0.12258983 -0.03155776 0.14167057
0.0049124644 0.07302684 -0.015987663 -0.071277276 0.21755365 -0.013399928 -0.15963669 -0.14608596
-0.124814995 -0.03464075 -0.06407509 -0.015855454 -0.30508018 -0.20952165 -0.24698168 -0.11606123
0.13904905 -0.20256855 -0.16139914 0.1463512 0.039625604 -0.02172914 0.053150102 0.17084505
-0.24232513 0.11076404 0.1276124 -0.06308265 -0.027592462 0.31205106 0.24377851 0.0038417005
0.08807381 -0.15975659 -0.15697643 -0.13100347 0.015563161 -0.13381703 0.3303909 -0.089612894
0.09957875 0.011319251 0.056116857 -0.018122531 0.10283207 -0.017850352 0.19106887 -0.046705198
0.09923552 -0.023709726 0.19313343 0.103503115 -0.07682005 -0.012350179 0.0134047875 -0.2648272
0.005562223 0.12020858 -0.07762988 -0.019629868 0.24561526 -0.14140682 0.037337437 0.030384954
-0.12936217 0.03608866 -0.19249937 0.27451164 -0.004200842 0.07317593 0.008452798 0.13225497
0.0781849 0.034129504 -0.18806182 -0.09263599 0.17641033 -0.011262976 0.009886486 -0.119682975
0.03170017 0.023713386 -0.10975558 0.06122449 0.0056869322 -0.06739708 -0.10336186 0.13112862
-0.040936716 0.287171 -0.10782998 -0.022973128 -0.061031777 -0.08610298 0.10156201 0.018990647
0.097215325 -0.07077284 -0.0010036667 -0.18025418 -0.15534694 0.09990844 0.024664974 -0.18903235
0.15535775 0.0982518 -0.17573307 0.20116581 0.04918697 -0.16705866 0.072233826 -0.054213013
0.116308495 -0.22412668 0.0027022338 -0.007010753 0.01654633 0.10043505 -0.04237759 0.036027305
0.20028156 -0.006952264 -0.17369409 0.03856092 0.038853094 0.16574307 0.06019959 0.014614804
0.11703751 -0.027224474 0.050319087 -0.041549776 -0.05449991 -0.07683701 0.12558359 0.06583213
0.062491335 -0.0864832 -0.005755082 -0.042102166 0.090699755 -0.10142927 -0.16585499 -0.02476899
-0.13078032 -0.18170705 -0.071045816 -0.020793315 0.2016771 -0.06847911 -0.088513575 -0.04663299
-0.0927652 -0.14965427 0.009240115 -0.01108202 -0.03823082 -0.045802433 -0.022028897 0.15644588
0.04205924 0.06555124 0.0028777446 -0.11416303 -0.028573995 -0.02847148 0.009444662 0.1019191
-0.02987055 -0.045212265 0.023276903 -0.117937975 -0.00043288994 -0.1056373 -0.20238662 0.018873591
-0.01950529 0.027579214 -0.05175752 -0.089597836 -0.015862118 -0.08562786 -0.051312294 -0.11461464
0.04202693 -0.15320867 0.05371027 0.14373805 -0.10046274 -0.007041128 0.023224138 0.052836973
-0.008963891 -0.12629288 -0.23323183 -0.03917746 0.21500771 0.0130064655 0.028461382 -0.110369034
0.008521054 -0.047742162 0.121912554 0.085277736 -0.0480047 0.08842026 -0.06706407 -0.06378665
0.053405184 -0.11271974 -0.19538519 0.20838985 0.07910349 0.054621328 0.06351638 0.25513548
0.05875494 0.064988464 -0.07055348 -0.11917837 0.0845839 -0.0562388 -0.11402861 -0.012964405
-0.007946137 -0.17991528 0.03687688 0.09131033 -0.075949304 -0.044858284 -0.18829286 0.21488072

linear_layer.3.bias f4 [100]
00000000: 1741 d23d af8a 813c a071 77bd f56c edbd
00000010: 3296 95bc 7a38 29bd c8c8 bf3d 1d34 443d
00000020: 8a38 373d 7152 823b f488 3dbd b58d febc
00000030: f2e9 a73c 26cf 173d 1262 143c 9808 b33c
00000040: 8da5 a3bd a85f 32bb 9dad 9a3c 9368 2d3d
00000050: dcf3 69bd e3ad 653d 0679 f03c 12ed 253d
00000060: 681a 073c 9b7b 40bd 385b 8c3d 4c3d 863d
00000070: b483 1d3d 8241 743d ad72 d1bc 9f1c 5ebb
00000080: ef5a b23c c4d7 f33c 3709 baba 543d efbc
00000090: d75f 873c e1b0 75bc 0829 45bd 2525 20bc
000000a0: db73 53bc d6a9 7a3c 076f 5c3d 8ba9 55bc
000000b0: 81e7 9e3d 6aec 8a3d d7c2 d83d ef3c 4fbe
000000c0: bcd2 593d 8900 44bd 1f7c 063d 872c d3bc
000000d0: c3ba 25bc 7f41 5bba 3fdd b6bc 4a8c dcbc
000000e0: fb86 4cbd 1234 72bc e253 433d b751 423d
000000f0: dc53 a83b a4cd f93c 9ed4 123c edbd 653c
00000100: ee8e d43c cf9c 873c 2421 8b3d ebfd 8fbb
00000110: 4861 613c 6a59 39bd b37a f13c b262 1ebd
00000120: f2a7 edb8 f713 33bc 9348 25bd 0210 ba3c
00000130: b31b 5cbc c73a a9be 91f6 5c3d 1bbd 79bd
00000140: 9262 eebb 905e b33c 92fc bd3a 0e31 c6bc
00000150: ae10 d1bc 4d54 373d 2996 bc3c d167 803d
00000160: eefe 15bd 07c3 673c c8ee ff3c 600b ee3c
00000170: 8997 2d3d b3bf 18bd 478c 6f3c 084c 333d
00000180: 223d b83c 020e aa3c 9073 33bd 1048 67bd
0.10266321 0.0158132 -0.060411096 -0.115930475 -0.018260095 -0.041313626 0.09364468 0.04790126
0.044731654 0.003977113 -0.046273187 -0.03107343 0.020497296 0.037062787 0.009056585 0.021854684
-0.07990561 -0.002721766 0.018881613 0.042336058 -0.057117328 0.056074034 0.029354583 0.04050929
0.008246042 -0.04699288 0.06853336 0.0655466 0.03845568 0.059632786 -0.025567377 -0.0033891571
0.021771876 0.029765971 -0.001419342 -0.029204048 0.016525192 -0.0149957845 -0.048134834 -0.009774481
-0.01290604 0.015299281 0.05381682 -0.0130409105 0.077589996 0.06783374 0.10584038 -0.20238088
0.053179488 -0.047852073 0.032833215 -0.025778068 -0.010115328 -0.00083639467 -0.022322295 -0.026922364
-0.049933415 -0.014782922 0.04768742 0.04744121 0.00513695 0.030493565 0.008961825 0.014022333
0.02594706 0.016554264 0.067934304 -0.004394283 0.013756104 -0.045251288 0.029477453 -0.038668342
-0.00011332323 -0.010930053 -0.040352415 0.022712711 -0.013434338 -0.33052656 0.05394608 -0.06097136
-0.007274934 0.021895677 0.0014494827 -0.024193313 -0.025520649 0.04475813 0.02302082 0.062698014
-0.036620073 0.014145619 0.03124179 0.029058158 0.042380843 -0.037292194 0.014620847 0.04377368
0.022490088 0.020758633 -0.04381138 -0.05646521

linear_layer.4.weight f4 [100, 100]
00000000: 9278 9ebc 7c27 103d bbae 943d 4de9 9e3d
00000010: 2aba 613d eeda 3abb 1c9e 56bd 2f4c 163e
00000020: a454 9f3d 2e8d cb3c 05d4 16be c93c d03d
00000030: 6757 b43d 9c97 1b3e d76a 023e 74fa 5f3e
00000040: 10ce 023e b02d ac3e cd02 423c 5265 173d
00000050: 59f5 853c ee22 543d a982 afbc 4041 093e
00000060: c20c 1c3e e0f8 cebd 07e4 923d 8f1a d2bd
00000070: 7121 273e 5432 11bd 34da 063e 5345 83bd
00000080: f8cf 24be b718 333d 90a0 c53b c672 9c3b
00000090: 6f07 4bbe 2990 7c3d 7c76 113e 6773 ba3c
000000a0: faa0 54be 0884 8abe 4839 8cbe 1376 aa3d
000000b0: 4cd1 33bd 4172 87be ec5b 333e 8c06 62bd
000000c0: ba60 8f3d c2b1 b73c 4a76 52bd d2c9 cbbd
000000d0: d1d8 c1bd 58ed a0bc ce89 fe3b 0c61 7f3d
000000e0: 2548 5e3d fd26 973d 2ec0 b13d 02a0 763d
000000f0: ca2b a73d f1e5 143c 9da9 853c 1800 e63c
00000100: 0d56 053e 1d44 1d3d 1fe1 5a3c e53b 24bc
00000110: c615 5cbe 0fc5 e23d 9362 a03c 75ff 5a3d
00000120: fa93 b6bd a5fc 423e 24ce a13c d298 22be
00000130: 0057 b03d 68e4 c33d 8115 7dbc bcb6 fd3c
00000140: 3d8d 353d 9283 a43d 04c5 683d cd0e 95bb
00000150: 8699 3abd 96e8 16bc 0618 093e 173c 7fbc
00000160: da42 c7bc 7e71 eebc b8ae 95bc 4883 003e
00000170: 1556 59be 07f1 983d 39b6 a4bd 2da8 afbd
00000180: 262c a03c 3d15 93bc 8c32 debd b63c f9bc
00000190: 8753 d1bd 5a98 613b ce56 fdbd 94a6 803c
000001a0: 1c57 e3bc d2bd 91bd 1a98 59be aacc 673c
000001b0: 8579 3c3c 4ede 8bbd d9bb f4bc 97f1 97bc
000001c0: 7250 093e 1575 de3d 8ae0 643e faea 3fbd
000001d0: 5925 f5bd 1bf4 a5bd 3efa 7dbd 7382 8a3d
000001e0: 7c77 a6bd 1446 d63d ba40 bd3d 791a 99bd
000001f0: ac96 923c 7f90 3dbd b1cc 963d df80 0a3e
00000200: c012 6f3e 616a ab3d b7d0 89bd 89e3 893d
00000210: 3143 663d 0f99 e03c 1b9d d6bc 592f 68be
00000220: 33d5 f6bd e04a c3bd b2d6 df3d defa bb3d
00000230: e792 233d 148f 043d 56df b83d 5262 273e
00000240: 3428 313d cf06 2abd 748b 683e a374 e63d
00000250: 5943 1abd a892 22be 331a 21bd bc21 583d
00000260: ce07 31bd 70f6 b7bd c901 52bd e56e c2bd
00000270: c209 4fbd ea3b b33d 16a0 57bd 4e17 39bc
00000280: 1ee4 4ebc ca37 2a3d f032 8b3c 2143 63be
00000290: 29c2 21bd 892e 153e 3585 0e3e 4423 153e
000002a0: 9679 f1bd 0027 cfbd e19d d5bd ec3c e7bd
000002b0: f95e 563b 1bb7 3bbe b6c3 4fbb 5d47 a23d
000002c0: 42b3 523d 0dea 52be 3ae5 2fbe 419b ed3d
000002d0: 8a64 153e 3c6e 20be 7326 e53c 4cf6 e2bc
000002e0: 973b 7a3d ddd0 fabc dfa5 1fbe 00f1 7ebd
000002f0: 622b 2dbe 357a 21be dca1 b63d 07ba 97bd
00000300: 4a79 07be d582 4f3d cdb8 d63c 75f4 c33c
00000310: dc7d 00bd 1414 abbd 9701 dc3d b56f d33c
00000320: ddfb 6c3d 3e45 1cbc afce 44be a0de cb3d
00000330: 440f 64be f81c b8bd 665e 183d 9eb4 e83d
00000340: b285 91be db9f 683c c233 903d ada2 e53c
00000350: bab7 833b d80d debd 8de4 283d d56d 2c3e
00000360: 5320 3abe 3a9a 39be c2d5 483d 8e79 813d
00000370: 60e1 29bd cac5 2abb 635f 333e 3267 093d
00000380: 2020 8a3c 5f20 7dbd 30d0 39bd cfae e43a
00000390: 944e 2d3e f750 91bd ec33 41be 6ccb 923d
000003a0: 3b7e 373e 98c4 233e 7678 84bd a61b 013d
000003b0: 3a25 21bd d45c 273e 3539 0fbe 0e2c b9bc
000003c0: 9e0a 13be a738 613d 3f37 443e c012 19be
000003d0: 5e31 10be 65d6 2c3b 3392 1f3e 6233 b03e
000003e0: ce7a bd3d 76c9 673d 99af a33e 95a5 a93b
000003f0: 4ffa 803d 21bc 6a3d 53fd 553e 1ec3 cb3d
-0.019344602 0.035193905 0.0725989 0.07759342 0.05510918 -0.002851184 -0.05239688 0.14677499
0.07779816 0.024847593 -0.14729317 0.10167844 0.08805733 0.15194553 0.12736069 0.21872884
0.12773919 0.33628607 0.011841488 0.03696186 0.016352342 0.051791124 -0.021424608 0.13403797
0.15239242 -0.10106063 0.07172399 -0.10258972 0.1632135 -0.035448387 0.13169175 -0.06409707
-0.16094959 0.04372474 0.0060311034 0.0047744242 -0.19827054 0.06166092 0.14205354 0.022760106
-0.20764533 -0.27053857 -0.27387452 0.08323302 -0.043900773 -0.26454356 0.17515534 -0.055182025
0.07000871 0.022423629 -0.05138234 -0.099506035 -0.094651826 -0.019644424 0.0077678924 0.06234841
0.05426802 0.07380483 0.086792335 0.06021119 0.08162649 0.009088025 0.01631623 0.028076217
0.13021107 0.038395036 0.013359337 -0.010024046 -0.21492681 0.11072742 0.019578254 0.05346628
-0.08914943 0.19041689 0.019751616 -0.15878609 0.08610344 0.095650494 -0.015447021 0.030970924
0.04432415 0.080329075 0.056828514 -0.0045488835 -0.045556568 -0.009210726 0.1338807 -0.015578291
-0.02432387 -0.029106852 -0.018271789 0.1255008 -0.21224244 0.07467847 -0.08042569 -0.08576999
0.019552302 -0.017954463 -0.10849485 -0.030424457 -0.1022101 0.0034423084 -0.12370072 0.01570443
-0.027751498 -0.071162835 -0.21249428 0.014147917 0.011503582 -0.06829511 -0.029874729 -0.018547816
0.13409594 0.108621754 0.2235128 -0.04685495 -0.11970014 -0.081032 -0.062006228 0.067631625
-0.081282586 0.10462585 0.09240861 -0.074757524 0.017894112 -0.04628038 0.073632605 0.13525723
0.23346996 0.083698995 -0.06729262 0.06732852 0.056216422 0.027416734 -0.02619796 -0.22674312
-0.12052383 -0.09535766 0.10929622 0.091787085 0.03993502 0.032363012 0.09026973 0.163461
0.04325123 -0.0415104 0.22709447 0.112527154 -0.037661884 -0.15876257 -0.039331626 0.052766547
-0.043220334 -0.08982551 -0.051271234 -0.09493808 -0.050546415 0.08751662 -0.052642904 -0.01129706
-0.01262763 0.04155711 0.016992062 -0.22193576 -0.039491806 0.14568533 0.13918002 0.14564234
-0.11790769 -0.101148605 -0.10430504 -0.11290917 0.0032710417 -0.18331568 -0.0031702346 0.07923768
0.051440485 -0.20597096 -0.17177287 0.11601878 0.14589134 -0.15667051 0.027972436 -0.027705334
0.061091986 -0.030617172 -0.15590619 -0.062241554 -0.1691108 -0.15769275 0.08917591 -0.07408529
-0.13229862 0.05066188 0.026211167 0.023920277 -0.03137003 -0.08353439 0.10742491 0.025810102
0.057857383 -0.009537993 -0.19219469 0.09954572 -0.22271448 -0.089899 0.0371994 0.11362575
-0.28422314 0.014198269 0.07041122 0.028031671 0.0040197046 -0.10842484 0.041233588 0.16838773
-0.18176393 -0.18125239 0.04903198 0.06322013 -0.0414747 -0.0026057833 0.17516856 0.03354568
0.016861022 -0.06179845 -0.04536456 0.0017447117 0.16924506 -0.07095521 -0.18867463 0.07167706
0.17919247 0.15992963 -0.064682886 0.03152051 -0.039342143 0.16344005 -0.13986667 -0.022604015
-0.14359519 0.05498567 0.191617 -0.14948559 -0.14081332 0.0026372906 0.15583114 0.34414202
0.09251939 0.056588612 0.31969908 0.0051772096 0.062977426 0.05730832 0.20897417 0.09949325

linear_layer.4.bias f4 [100]
00000000: 4bb5 0abc c60d 0fbd 850e 853d fdb2 9bbc
00000010: a82b 0dbe ee11 a5bc e618 1cbd b6fd 4a3c
00000020: 8852 3c3d 3a05 f93c 6e4b 803c 2c43 c0bd
00000030: acff cebc 1c0a 913c b225 efbc 0eef a13c
00000040: c812 103d fd4c ddbc 7379 93bd 70d9 6c3d
00000050: 6ea2 663d 4a3c e4bc dc8d d73b 1354 d73b
00000060: ab3f 723c 6302 fa3c 73e4 9ebc 7ded 01bc
00000070: 7edf 18bd 3340 3abd 7647 e63c 3885 843c
00000080: 81a4 cdbc 9a63 19bd e4cf 433d 6029 98bd
00000090: f045 393d d6ec 1d3e 08bc 6d3c f4c8 26bd
000000a0: 298f eaba c66f ae3c 579d 6f3a 0d93 23bc
000000b0: 60d6 64bd dcb1 833c b694 0bbd 0836 b3bc
000000c0: 76bd 1f3a 26bf a3bc 015a c83a ae9f 1cbc
000000d0: a848 243b ec5f a83c 1078 0c3c f754 d4bc
000000e0: 834a 3d3b 444e 573b d93a a7bc 2bdb 43bb
000000f0: c27a 763a e2d2 9f3d d1ea 1f3c b9ca 0cbc
00000100: 5a75 3d3c b508 a03b 0be4 da3a c937 a2bc
00000110: faca 363d e1b6 cabc 82db 7fbd 9cae 20bc
00000120: 5315 e83c 1362 fe3b 9131 ed3c 6cf5 1bbd
00000130: 6474 96bb 3a2c de3c 6713 313d b121 303c
00000140: 6949 6b3d 2806 fbbc 81b6 a63d e6d1 733d
00000150: 3108 66bd 02f9 6cbd 386d 07bc 6c75 a5bc
00000160: 3ebb 22bc 6fd8 603c 99c6 cd3b 7eed 3a3c
00000170: c8fc eebc 2b82 bc3c 0d04 753d 12a9 e9bc
00000180: 13de 393b df40 a6bc 3804 38bd d500 9abc
-0.008466075 -0.034925245 0.0649691 -0.019006247 -0.13786185 -0.020150151 -0.038109683 0.012389591
0.045977145 0.030398 0.015660968 -0.09387812 -0.025268398 0.017705016 -0.02919278 0.01976731
0.03517416 -0.02701425 -0.07200899 0.057824552 0.05630725 -0.02786078 0.0065781903 0.0065713017
0.014785687 0.030518716 -0.019396042 -0.007930157 -0.037322514 -0.04547138 0.028110247 0.016176805
-0.025102856 -0.037448503 0.04780568 -0.07429767 0.045232713 0.15422377 0.014510162 -0.040718988
-0.0017895448 0.021293532 0.0009140572 -0.00998379 -0.055868506 0.01607602 -0.03407737 -0.02187635
0.00060936005 -0.019988608 0.0015285612 -0.009559555 0.002506772 0.020553552 0.008573547 -0.02591942
0.0028883524 0.0032853046 -0.020413803 -0.0029885273 0.00094024476 0.078038946 0.009760574 -0.008593255
0.011563623 0.0048838505 0.0016700042 -0.019801991 0.044627167 -0.024745407 -0.0624652 -0.009807255
0.02833048 0.007763156 0.0289543 -0.03807585 -0.0045915116 0.027120698 0.043231394 0.01075022
0.057443056 -0.030642584 0.081402786 0.059526347 -0.056160156 -0.05785466 -0.008265786 -0.020197593
-0.009932337 0.013723477 0.006279778 0.011409162 -0.02917327 0.023011288 0.059818316 -0.028523002
0.0028361126 -0.020294605 -0.0449259 -0.018799225

linear_layer.5.weight f4 [100, 100]
00000000: 54a8 663d 0f5c 3f3d 1bf2 c03c f489 d33c
00000010: d1c3 dfbc c130 62be ece0 09be 344f 16bd
00000020: 0e15 7abd 850e 953d 9035 5e3d ef93 30bd
00000030: 481c eabd 172f a2bd b020 733c aaea 953d
00000040: 62fb 47bd af0b 64bd 857d 893d 64cc 90bc
00000050: eaec 42be a69c c73d c1a2 f93c e8b5 e13c
00000060: 8b59 03be 3e6d cd3d 0e00 28bd 61ed efbb
00000070: 7f5e a23b 4ee0 30be 113d 983d 9f2d 203d
00000080: 6591 bf3d f263 a1bc f981 473e 9a62 053d
00000090: 7799 b43d 001b 8cbe 1f55 933d 2222 573e
000000a0: a498 10be 1e13 13be 7dd9 c3bb 1699 b23d
000000b0: bb85 a7bd b7e3 d33d dc81 9e3d 6e1c 1b3e
000000c0: 2405 7fbe 5d01 52bd cdaa 2cbe f144 33bc
000000d0: 3b7a a5bc 5c32 af3d 1707 a43b be9d 103c
000000e0: 3a7e 113e 2047 02be 3b8b 413d bfcd 0a3e
000000f0: 78d5 3b3c 2a5b 3b3d 262d cebd a6a1 583e
00000100: 98c6 8cbd bbdf 20be 86fd 8cbd 2777 c43d
00000110: 1fa2 7ebd f5ec fcbd 6ec6 0fbe 77f5 023e
00000120: 350d 053d d5dd ad3d 57a6 9dbc 951c e3bd
00000130: ce61 21bd 14e0 d6bc ebb1 8f3d 12c5 123e
00000140: d037 4fbd 4960 613d 5efe 48bd b346 83be
00000150: 7231 8c3d 94eb 4fbe b927 613e 6a32 973d
00000160: c202 c8bb 97ad d1bb f0d1 02bd e336 8a3e
00000170: 9aaf 3bbc a58b 89be 1971 903d b923 813c
00000180: d354 053e 7795 07be 8edb 5dbd acea 133e
00000190: 416e a5bd 1973 783d 727a 04bd 2a2b e23d
000001a0: a39f 6bbd 35f0 a23d 7186 253e d467 2d3d
000001b0: 666e 32bd 98af 10be fa2a 39be ef1f 843d
000001c0: 844c a9bd f181 f6ba a1c5 4bbd d8a6 b5bd
000001d0: abc0 01bb 09cc 083e 8c41 f93d c35f 3ebe
000001e0: 7fa1 3dbe e6d6 26bd 9e6c ff3c 2cc9 f03d
000001f0: 2f34 cb3d d557 c53d 8516 b73d 7113 0d3c
00000200: 3c3d c13d 8a01 ab3d 5141 91bc 4a07 953d
00000210: b003 26bd 0a94 793c 1156 72be e454 cb3d
00000220: 87b2 5c3d 6292 0ebe c5be d6bd 5a67 9e3d
00000230: 43ef 0e3b cc63 d3bd 14e4 073e 91b0 cdbd
00000240: e683 293e 3278 f8bc ddde 363e cbaf 103d
00000250: b8ce 813d 922c 823c c27f eeb9 de91 6b3e
00000260: 7da5 a3bd de8f d93c 2b5e 90bd 0fd3 023e
00000270: 5281 f0bd b732 273e 600d 533e b229 c03d
00000280: fbef cebc fa81 06be 365f 883b 9223 e23d
00000290: c090 a33d 2d7a 35bb 33f8 323e 1bc2 1dbd
000002a0: b898 28be 4709 873d 291d 1c3e eb5b 92bd
000002b0: 43d9 583b ab18 1b3d 1212 1a3d 11a1 3c3e
000002c0: be7b 8cbd b143 d3bc 77c6 30bc 5140 e5bd
000002d0: 6297 00be eb9a 7736 4e78 c9bd 5767 91bd
000002e0: 672e d0bd 513a 293e 9e66 5ebd 5642 a43d
000002f0: 52d2 ab3d 1d60 e83c 13dc 37be 3384 a03d
00000300: bf3a 943d f671 b3bd 088d 4dbc ca27 2d3c
00000310: a4c0 9ebc a00c adbd 25bb 273d bb04 01be
00000320: 4571 a4bd 7a14 0a3d 8182 1cbd 586f 21be
00000330: b492 a0bd ee5a ff3d 0e2d c7bd a6da 2abe
00000340: 4b99 983d 0f26 3c3c 8779 c43c 487a 09be
00000350: 6992 0d3c 682a 0b3d cea0 fa3d 0708 33be
00000360: afbf 313e 6c77 ff3a 33ac dc3c c1e9 97bc
00000370: d30d de3d 54c5 a4bd c6aa 47bd a2af 043e
00000380: f0e4 df3d 61d0 abbd 0cc0 e4bd 3936 8fbc
00000390: 9bbb 58bc 57e5 303e c8b9 373e 9f55 e4bc
000003a0: 2045 89bd 4c9c df3d 62d3 ec3d 3bb3 b9bc
000003b0: 043f 163e 4676 393e 1e06 dd3d d910 1b3e
000003c0: c5b3 bfbd 151d 82bd 8930 f9bd 7db1 a63d
000003d0: 3838 5ebd 4f2a bebd 0f5e 103e 3c56 f6bd
000003e0: 85e8 91bd 0985 e13d f963 b73d c573 afbd
000003f0: d7e4 0cbe 7c7f b13c afb1 8fbc f13e d1bd
0.056312874 0.046718653 0.023552945 0.025822617 -0.027315052 -0.2208891 -0.13464707 -0.036696628
-0.061055236 0.0727816 0.0542503 -0.04310983 -0.114311755 -0.07919138 0.014839336 0.07320149
-0.04882372 -0.055675205 0.06713394 -0.017675586 -0.19035688 0.09746675 0.030473115 0.02755256
-0.12827127 0.10030602 -0.041015677 -0.007321999 0.0049551125 -0.17273065 0.074335225 0.039106008
0.09353904 -0.019700978 0.19483174 0.032564737 0.088183336 -0.2736435 0.0719397 0.21009114
-0.14120728 -0.14362761 -0.0059768544 0.08720605 -0.08179804 0.103461675 0.077396125 0.15147564
-0.24904305 -0.05127083 -0.1686203 -0.01094173 -0.020199886 0.08554527 0.005005728 0.008826671
0.14208308 -0.12722445 0.04725192 0.13555048 0.011464469 0.045741238 -0.10067205 0.21155414
-0.06873816 -0.15710346 -0.06884293 0.09593039 -0.06216633 -0.123498835 -0.14040539 0.1278895
0.0324833 0.08489577 -0.019244356 -0.11089436 -0.039399914 -0.026229896 0.07016357 0.14332989
-0.050590336 0.055023465 -0.04907071 -0.25639877 0.068453684 -0.2030471 0.21987809 0.073826626
-0.0061038444 -0.0063988674 -0.031938493 0.26995 -0.011455441 -0.26864353 0.07052822 0.015764104
0.13020639 -0.1324061 -0.05416446 0.14444989 -0.0807767 0.06065664 -0.032343335 0.11043389
-0.05752529 0.07955972 0.16164567 0.042335346 -0.043562315 -0.14129484 -0.180828 0.06451403
-0.08266547 -0.0018807036 -0.04974902 -0.088697135 -0.0019798677 0.13359083 0.12170705 -0.18591218
-0.18518637 -0.040732287 0.031179722 0.117571205 0.099220626 0.09635893 0.08939842 0.008610592
0.09435508 0.08349903 -0.01773134 0.07276781 -0.04053086 0.015233049 -0.23665644 0.09928301
0.053881194 -0.13923028 -0.10485605 0.077345565 0.0021810092 -0.10321769 0.13270599 -0.10043443
0.16554222 -0.030330751 0.17858453 0.0353239 0.063382566 0.015890393 -0.00045490084 0.23004863
-0.07990549 0.026557859 -0.07049211 0.12775825 -0.11743416 0.1632794 0.20610571 0.09382953
-0.025260916 -0.1313552 0.0041617407 0.11041941 0.07986593 -0.002769123 0.17477493 -0.03851519
-0.16464508 0.065935664 0.15245499 -0.07146438 0.0033088482 0.037865322 0.03761489 0.18420817
-0.068595394 -0.025789114 -0.010789505 -0.11193908 -0.12557748 3.6896042e-06 -0.098373994 -0.07099789
-0.101651005 0.16526152 -0.054297082 0.08020465 0.08389725 0.028366143 -0.17955045 0.07837715
0.072377674 -0.08761971 -0.0125458315 0.0105685685 -0.019378968 -0.08449674 0.04094996 -0.12599461
-0.08029417 0.033710934 -0.038210396 -0.1576513 -0.078404814 0.12468515 -0.097253904 -0.1668497
0.07451113 0.011483683 0.02398373 -0.13425553 0.008640864 0.03397599 0.12237702 -0.17483531
0.17358278 0.0019490547 0.02693758 -0.01854408 0.108424805 -0.0804545 -0.048746847 0.12957624
0.10932338 -0.083893545 -0.111694425 -0.01748191 -0.013228322 0.17274986 0.17941964 -0.027872859
-0.06702638 0.10918483 0.115637556 -0.022668472 0.14672476 0.18111524 0.107921824 0.15143146
-0.0936046 -0.06353203 -0.121674605 0.08139322 -0.054252833 -0.092854135 0.1409838 -0.12028167
-0.07124428 0.110117026 0.08954615 -0.08567003 -0.1375917 0.021667235 -0.01754078 -0.10217083
