ac_2d_model_para_5/checkpoint_1800.pth (torch, 291152 bytes, 17 tensors)

linear_layer.0.weight f4 [100, 3]
0.22518331 0.15849681 -0.19206211 0.0133037595 -0.071950935 0.11135848 0.04960598 -0.06203738
-0.28367376 0.27893397 -0.035167173 0.21429367 -0.16599245 -0.1536282 -0.36552912 -0.06937893
-0.19966803 -0.13361353 -0.105088815 0.13485354 -0.12285169 -0.077440046 -0.04435843 -0.33186755
0.5321075 0.049490318 0.019548895 -0.16324028 -0.18744706 -0.07413843 0.037741676 -0.21011339
0.1327795 -0.11288936 0.06535138 -0.23714963 0.43691617 -0.004404152 -0.11412648 0.295108
-0.009495517 0.24936663 0.19846801 0.15726548 0.18395966 -0.18539786 -0.19545041 0.027249748
0.32021645 0.02178386 -0.28880116 -0.21369106 -0.14945067 -0.15493394 -0.30994523 -0.017432494
0.09635171 0.15560319 0.1613105 -0.23675628 0.08659903 -0.20131795 0.080062754 0.43938386
-0.0850982 0.0775929 -0.27755535 -0.15402882 0.023432638 0.15781224 0.024680031 -0.4804618
0.24088876 0.034102876 0.30616206 0.1842657 0.082721025 0.0048727915 -0.31692466 -0.21561368
-0.08530504 0.055605065 0.2683318 0.055337206 0.21094808 -0.21125945 0.05311418 0.10562455
-0.018851072 -0.10381757 -0.046996806 -0.16148844 -0.13955483 0.43888807 0.01637804 0.32696262
0.099935494 -0.22497506 0.13166812 -0.40951467 0.016996494 -0.10561597 0.0659228 -0.097302884
-0.28940547 0.12944677 -0.143845 0.20754647 -0.16020304 0.2679903 0.019944808 0.2859683
0.14665794 0.06261692 -0.03053377 -0.09132875 -0.3998722 -0.1446261 -0.027856454 -0.15175374
0.089874566 0.09490277 -0.12865373 -0.20199312 -0.010653386 0.13344872 -0.23757151 0.17158496
-0.12780829 0.1516839 -0.06644526 0.25306568 -0.158616 0.19957098 0.1284166 -0.07751801
-0.11177735 0.1477978 -0.4616538 0.15721932 -0.2819344 0.41959038 0.0011785094 -0.12808597
0.09342735 0.09476159 0.09423037 0.3963987 -0.103233196 -0.116567336 0.24955334 0.11216843
-0.12260568 0.20803855 -0.055485096 -0.14962867 -0.108383484 0.25459558 0.09498383 0.018147735
0.0566757 0.25858945 0.12544125 0.0855076 0.005340401 0.35015637 -0.07314093 0.109029084
0.5544975 0.014794961 -0.012450455 0.34659788 -0.119396016 -0.25572586 0.35399133 0.008338555
-0.14367731 -0.057628382 -0.17400771 0.2702405 -0.14514887 0.118120626 -0.0066743037 0.01223291
0.2837336 0.024505079 0.32765675 -0.15055837 -0.06136838 0.0005723032 0.11806743 -0.19914605
0.41615516 -0.1536961 0.072459735 0.029457217 0.10410884 0.32296625 0.15365095 -0.027903782
-0.37228954 -0.49643186 -0.027790258 0.10748242 0.39132464 -0.11841974 0.016848283 -0.09904898
0.10393548 0.025293147 -0.29502937 0.015546235 -0.036354076 0.11934905 0.15466613 0.08914205
-0.088912174 0.26658148 -0.09846938 0.110930905 0.1524002 -0.21639344 0.49767593 0.03216271
-0.08158691 -0.029573858 0.3516932 0.14668459 -0.16999404 -0.4121246 0.2525036 -0.3772961
-0.096394375 -0.17513725 -0.024408266 0.21737605 -0.007824065 0.02870737 -0.19814982 0.052879784
0.1475974 -0.056431483 -0.03821112 -0.14853817 -0.20314768 -0.07953303 -0.25567088 0.16144504
0.085363634 0.18150325 -0.111644514 0.4789329 0.27575344 -0.0339264 -0.268334 0.21264571
00000000: 7496 663e fd4c 223e eeab 44be 03f8 593c
00000010: 035b 93bd ea0f e43d a42f 4b3d e81a 7ebd
00000020: b03d 91be 6fd0 8e3e 740b 10bd cd6f 5b3e
00000030: edf9 29be b650 1dbe a226 bbbe 8a16 8ebd
00000040: c775 4cbe fcd1 08be ce38 d7bd 0c17 0a3e
00000050: ab99 fbbd e398 9ebd 2fb1 35bd 8bea a9be
00000060: 3238 083f 5cb6 4a3d 0125 a03c 7628 27be
00000070: 1ff2 3fbe e4d5 97bd 0497 1a3d f727 57be
00000080: 59f7 073e 8932 e7bd f2d6 853d 5ad7 72be
00000090: 7ab3 df3e b450 90bb 25bb e9bd 6518 973e
000000a0: 1693 1bbc f759 7f3e 333b 4b3e 340a 213e
000000b0: ec5f 3c3e f0d8 3dbe 2724 48be dd3a df3c
000000c0: 69f3 a33e 1174 b23c bfdd 93be d4d1 5abe
000000d0: 9909 19be 01a7 1ebe 24b1 9ebe 97ce 8ebc
000000e0: 0c54 c53d 7156 1f3e 942e 253e 3d70 72be
000000f0: d55a b13d 4b26 4ebe f1f7 a33d ecf6 e03e
00000100: f747 aebd 07e9 9e3d bc1b 8ebe bbb9 1dbe
00000110: cef5 bf3c 8899 213e c72d ca3c 17ff f5be
00000120: 8bab 763e 75af 0b3d 46c1 9c3e 26b0 3c3e
00000130: a469 a93d f0ab 9f3b f343 a2be d5c9 5cbe
00000140: 69b4 aebd 23c2 633d c962 893e 44a9 623d
00000150: c602 583e 6654 58be 418e 593d af51 d83d
00000160: 906d 9abc 4e9e d4bd b97f 40bd 3a5d 25be
00000170: 76e7 0ebe f0b5 e03e 3d2b 863c a567 a73e
00000180: fbaa cc3d dd5f 66be 02d4 063e e8ab d1be
00000190: 3b3c 8b3c 304d d8bd 8802 873d bc46 c7bd
000001a0: f42c 94be b28d 043e 1b4c 13be 1087 543e
000001b0: 440c 24be 0636 893e 4b63 a33c 706a 923e
000001c0: 802d 163e 4d3d 803d f521 fabc 910a bbbd
000001d0: 0dbc ccbe dd18 14be 3833 e4bc 5565 1bbe
000001e0: 2810 b83d 625c c23d cebd 03be 49d7 4ebe
000001f0: 8a8b 2ebc c8a6 083e f245 73be f8b3 2f3e
00000200: 2de0 02be 0653 1b3e 7414 88bd d391 813e
00000210: 3c6c 22be 565c 4c3e a47f 033e c3c1 9ebd
00000220: 86eb e4bd 4e58 173e e35d ecbe 1afe 203e
00000230: b559 90be 8dd4 d63e 3778 9a3a f828 03be
00000240: d756 bf3d 5d12 c23d dafb c03d c5f4 ca3e
00000250: ed6b d3bd dbba eebd e98a 7f3e 90b8 e53d
00000260: b018 fbbd 0f08 553e 5744 63bd 4238 19be
00000270: 29f8 ddbd 5a5a 823e e286 c23d 8faa 943c
00000280: c724 683d d665 843e ac73 003e 9c1e af3d
00000290: 88fe ae3b b247 b33e e9ca 95bd a44a df3d
000002a0: 8cf3 0d3f 9066 723c fefc 4bbc 4775 b13e
000002b0: e685 f4bd 80ee 82be 5a3e b53e 6f9e 083c
000002c0: 2520 13be bd0b 6cbd 142f 32be f65c 8a3e
000002d0: e8a1 14be 3ae9 f13d 1eb4 dabb 8b6c 483c
000002e0: 8845 913e e0be c83c a0c2 a73e f92b 1abe
000002f0: 695d 7bbd 9e06 163a 56cd f13d f1ec 4bbe
00000300: 4a12 d53e 8362 1dbe c565 943d 4350 f13c
00000310: 0437 d53d d55b a53e ad56 1d3e 7996 e4bc
00000320: bc9c bebe 512c febe 65a8 e3bc be1f dc3d
00000330: b45b c83e 0c86 f2bd 6905 8a3c 31da cabd
00000340: 20dc d43d 9333 cf3c 170e 97be a3b5 7e3c
00000350: 03e8 14bd 466d f43d cc60 1e3e 1b90 b63d
00000360: 9617 b6bd 5e7d 883e 50aa c9bd be2f e33d
00000370: cc0e 1c3e 3e96 5dbe 61cf fe3e 0cbd 033d
00000380: 0a17 a7bd e044 f2bc 2211 b43e 7c34 163e
00000390: eb12 2ebe ff01 d3be 2748 813e f42c c1be
000003a0: 6a6a c5bd 2e57 33be d8f3 c7bc d497 5e3e
000003b0: 8230 00bc b82b eb3c c9e7 4abe 7998 583d
000003c0: c623 173e b324 67bd 4383 1cbd 641a 18be
000003d0: f205 50be 37e2 a2bd 4be7 82be d951 253e
000003e0: 21d3 ae3d fddb 393e e1a5 e4bd b136 f53e
000003f0: 8e2f 8d3e 69f6 0abd 1363 89be ccbf 593e

linear_layer.0.bias f4 [100]
-0.02130804 -0.07228289 0.19720164 -0.03987419 0.020392014 -0.03281754 0.082679145 0.13811518
-0.1950223 0.0556043 0.057648607 -0.13359597 0.2054022 0.22716337 0.060188245 0.0009936666
-0.14287962 0.018969156 -0.030941725 -0.0044274484 -0.12680262 -0.07261088 -0.04614472 0.025381727
0.046147726 0.17068642 0.11081953 -0.03582961 0.055670578 -0.12231171 -0.07325691 -0.01409824
0.13518208 -0.10756558 -0.08304746 0.070530474 -0.026603082 -0.18714577 0.15894805 0.18078588
0.09395463 -0.05812534 0.07475559 -0.3025145 0.021588793 -0.12804712 -0.13167363 0.02324363
-0.09527853 -0.19403133 0.27901918 0.08594204 -0.0013710818 -0.24700114 0.10560543 0.12278747
0.03130275 -0.009107045 -0.006546207 0.010567026 -0.11683467 -0.018437743 0.0049665975 0.1716903
-0.14007838 0.08856081 -0.23012963 -0.0011300532 -0.08841479 0.1017159 0.18619765 -0.093738
-0.10279304 0.22056678 -0.016880302 0.031186923 0.020280829 0.08106576 -0.123358525 -0.030381897
0.15486097 0.13172172 -0.054307275 0.015188364 0.033878267 0.055843517 0.12965423 0.15669195
-0.11071957 -0.10397592 -0.13856845 -0.20045276 -0.07241457 0.13457167 -0.03893071 0.04097246
0.2665371 0.065346666 -0.077388585 0.057291985
00000000: 338e aebc 0d09 94bd 3aef 493e 1e53 23bd
00000010: 270d a73c af6b 06bd af53 a93d 116e 0d3e
00000020: edb3 47be 56c1 633d f220 6c3d 62cd 08be
00000030: f454 523e 849d 683e f387 763d eb3d 823a
00000040: 094f 12be 3465 9b3c 8079 fdbc 2114 91bb
00000050: 8cd8 01be 03b5 94bd 3f02 3dbd 57ed cf3c
00000060: 6605 3d3d 6cc8 2e3e 5af5 e23d 12c2 12bd
00000070: d506 643d 907e fabd b807 96bd 4efc 66bc
00000080: 2c6d 0a3e 584b dcbd c914 aabd 4872 903d
00000090: b5ee d9bc 24a3 3fbe 47c3 223e ef1f 393e
000000a0: 496b c03d d614 6ebd 7519 993d 2ee3 9abe
000000b0: fbda b03c c91e 03be 74d5 06be 6d69 be3c
000000c0: 6421 c3bd 26b0 46be 9adb 8e3e 6102 b03d
000000d0: dfb5 b3ba deed 7cbe a947 d83d ff77 fb3d
000000e0: 5037 003d b735 15bc 9081 d6bb 5221 2d3c
000000f0: 0447 efbd c00a 97bc d7be a23b 95cf 2f3e
00000100: b570 0fbe 5f5f b53d 1aa7 6bbe 4b1e 94ba
00000110: d012 b5bd 6d50 d03d 99aa 3e3e b5f9 bfbd
00000120: 2885 d2bd 42dc 613e 8f48 8abc b87b ff3c
00000130: fb23 a63c ce05 a63d 65a3 fcbd 75e3 f8bc
00000140: e093 1e3e 0fe2 063e 4e71 5ebd 9ed8 783c
00000150: f0c3 0a3d 2cbc 643d 14c4 043e db73 203e
00000160: f1c0 e2bd 54f1 d4bd e3e4 0dbe 7d43 4dbe
00000170: 174e 94bd 28cd 093e cf75 1fbd bdd2 273d
00000180: 8d77 883e 79d4 853d e87d 9ebd 00ab 6a3d

linear_layer.1.weight f4 [100, 100]
0.056075767 0.15143307 -0.06543593 -0.02357323 -0.015133776 0.0045671775 0.09981057 0.057141427
0.14826962 -0.1513871 -0.07921498 0.0109206075 -0.24562901 -0.07579046 0.06607394 0.06819325
-0.22036906 -0.15335268 0.21231316 0.0027193746 -0.090284556 0.109798186 0.035083015 0.15165168
-0.069786206 0.003656337 -0.085409366 -0.013683643 -0.23618819 -0.0892233 -0.012790442 -0.0057276688
-0.042400733 0.23043433 -0.08252018 -0.06342353 -0.09125563 -0.011589583 0.12951212 -0.14301518
0.05104782 0.16290613 -0.13883148 -0.055600926 0.0018708551 -0.03355275 0.05680241 0.024295121
0.0019423268 0.12311651 -0.0137243625 -0.2845386 0.11575748 0.09350798 -0.034072194 -0.21816564
-0.14542823 -0.076607704 0.15006413 0.16992581 0.013744983 0.063471936 -0.010699409 -0.16072795
-0.023727752 0.18197596 -0.012216218 0.056499418 0.02410007 -0.08875157 0.010301667 0.09854951
-0.07272054 0.041382287 -0.2507266 0.029719552 -0.03885583 0.008947501 -0.17478217 -0.117183104
-0.033285867 -0.012754355 -0.025301825 -0.09994666 0.05892173 0.12581232 -0.029594703 -0.07700744
0.09363129 0.12234324 -0.0061856513 0.13368021 -0.08785638 -0.06465607 -0.008077143 -0.10596049
-0.06309121 -0.019256247 -0.13042608 -0.07886724 0.048137877 0.21761326 -0.022247579 0.06115861
-0.054841585 -0.16828464 0.1342633 -0.27765855 -0.049794853 -0.071126215 -0.06646165 0.038452916
0.10850432 0.11980991 0.15951028 -0.14916953 -0.042600717 -0.2858683 0.0133065265 0.18921605
-0.112608686 -0.022961609 0.02957212 0.11885811 0.18914147 0.080200434 -0.091230914 0.11985607
-0.122985594 -0.081096716 -0.06916303 -0.102117464 0.17474017 -0.1131739 -0.1081219 0.03623403
0.18846413 0.017901534 -0.02533119 -0.08318958 0.20225264 -0.09911241 0.12579961 -0.18208782
0.20062716 -0.23028077 -0.27034804 -0.066580534 0.0381676 -0.094392106 -0.01576647 -0.03431638
0.08748789 -0.17043704 -0.04107975 0.09615059 0.025645524 -0.075692214 -0.120498784 -0.042059466
0.13357845 -0.089001745 -0.02031179 0.058018953 -0.13994214 0.14898583 -0.037802506 -0.18275234
-0.3747566 0.23369415 -0.018287754 0.07839273 0.046296716 0.13554196 0.11176021 0.18684983
0.007849464 -0.004072 -0.11152212 0.04899921 0.20365056 -0.20446151 -0.040555667 0.08144224
0.015204611 -0.07799333 0.032479297 0.03900848 0.013247665 -0.13458766 0.08141163 -0.12819065
0.027986448 -0.095546246 0.122199 -0.13152246 0.16070578 0.14094692 -0.11696373 0.19970705
-0.11183785 -0.05011319 0.10395871 -0.06600032 -0.12905584 0.047732286 -0.032601062 0.15002504
-0.19198017 -0.02765239 0.08515115 0.036703523 -0.10488718 0.009758981 0.029312622 -0.029925779
-0.019346565 0.12467046 -0.16099778 -0.1679561 0.0754389 0.07548846 0.03801369 -0.13633938
-0.15929349 -0.16700833 0.045442645 0.07698203 -0.04002231 0.09911272 -0.12650147 -0.07591107
0.032735813 0.009373187 0.016362308 0.006902198 -0.103086725 -0.08495933 -0.06688364 0.017174274
0.22945386 0.20244095 -0.021265227 0.13780889 -0.12458745 0.14571935 0.112769745 -0.13715261
-0.068240605 -0.09246018 0.048426542 0.006238668 -0.046171494 -0.062761955 -0.14777681 -0.03330004
00000000: b4af 653d 4511 1b3e 4603 86bd a51c c1bc
00000010: a8f3 77bc 43a8 953b 7c69 cc3d 210d 6a3d
00000020: fed3 173e 3805 1bbe 773b a2bd 59ec 323c
00000030: 2c86 7bbe 0738 9bbd c651 873d e7a8 8b3d
00000040: 6da8 61be 7c08 1dbe 9f68 593e 8937 323b
00000050: 1ce7 b8bd dfdd e03d 35b3 0f3d 944a 1b3e
00000060: 12ec 8ebd 289f 6f3b 1beb aebd 5c31 60bc
00000070: 51db 71be b5ba b6bd 018f 51bc 2baf bbbb
00000080: 64ac 2dbd faf6 6b3e 5700 a9bd 32e4 81bd
00000090: 3be4 babd 3ce2 3dbc d39e 043e 9272 12be
000000a0: 8517 513d ddd0 263e d729 0ebe ccbd 63bd
000000b0: 7b37 f53a 9c6e 09bd a5a9 683d 9006 c73c
000000c0: ac95 fe3a 8224 fc3d 26dc 60bc 0baf 91be
000000d0: 4212 ed3d 1d81 bf3d 498f 0bbd d066 5fbe
000000e0: 23eb 14be 80e4 9cbd 69aa 193e 0801 2e3e
000000f0: a332 613c 93fd 813d 934c 2fbc de95 24be
00000100: b460 c2bc e857 3a3e 8826 48bc ef6b 673d
00000110: 836d c53c 62c3 b5bd 53c8 283c 53d4 c93d
00000120: 82ee 94bd 7980 293d 3d5f 80be 6b76 f33c
00000130: 4a27 1fbd 8a98 123c 19fa 32be b2fd efbd
00000140: c356 08bd a4f7 50bc c645 cfbc d6b0 ccbd
00000150: e957 713d f2d4 003e 9770 f2bc 14b6 9dbd
00000160: c3c1 bf3d 188f fa3d 01b1 cabb 77e3 083e
00000170: 0cee b3bd 676a 84bd fe55 04bc d001 d9bd
00000180: f735 81bd 47bf 9dbc 6a8e 05be 2685 a1bd
00000190: 392c 453d 03d6 5e3e 8e40 b6bc 7381 7a3d
000001a0: 92a1 60bd cf52 2cbe 527c 093e 4329 8ebe
000001b0: b0f5 4bbd 9faa 91bd 0c1d 88bd ce80 1d3d
000001c0: 8337 de3d e65e f53d aa56 233e e6bf 18be
000001d0: 177e 2ebd 545d 92be 9e03 5a3c dac1 413e
000001e0: 629f e6bd fc19 bcbc 3b41 f23c e16b f33d
000001f0: 4dae 413e 2040 a43d 46d7 babd 1977 f53d
00000200: dfdf fbbd 0916 a6bd 59a5 8dbd f622 d1bd
00000210: 16ef 323e b8c7 e7bd 046f ddbd 226a 143d
00000220: befc 403e 3da6 923c 5b83 cfbc 4c5f aabd
00000230: 511b 4f3e 72fb cabd 9dd1 003e 3b75 3abe
00000240: 3571 4d3e b9ce 6bbe 0f6b 8abe 605b 88bd
00000250: a155 1c3d a650 c1bd af28 81bc 558f 0cbd
00000260: da2c b33d 0c87 2ebe 3d43 28bd 9aea c43d
00000270: 9016 d23c 8504 9bbd 11c8 f6bd 8c46 2cbd
00000280: cac8 083e 8c46 b6bd e964 a6bc 48a5 6d3d
00000290: fe4c 0fbe be8f 183e cdd6 1abd 6e23 3bbe
000002a0: 19e0 bfbe 854d 6f3e 33d0 95bc 5e8c a03d
000002b0: a0a1 3d3d 83cb 0a3e 89e2 e43d 9055 3f3e
000002c0: 0a9b 003c 696e 85bb b665 e4bd 65b3 483d
000002d0: c689 503e 5c5e 51be b31d 26bd 30cb a63d
000002e0: c31c 793c f8ba 9fbd 0309 053d 5bc7 1f3d
000002f0: bc0c 593c 59d1 09be 24bb a63d 6944 03be
00000300: d643 e53c c0ad c3bd 7843 fa3d d3ad 06be
00000310: 0e90 243e 6454 103e ae8a efbd 0180 4c3e
00000320: 3e0b e5bd 7d43 4dbd 4ee8 d43d 2d2b 87bd
00000330: 3727 04be ee82 433d b188 05bd 2aa0 193e
00000340: 7396 44be 4487 e2bc ba63 ae3d 6f56 163d
00000350: 17cf d6bd 22e4 1f3c 0621 f03c e826 f5bc
00000360: b07c 9ebc 3a53 ff3d 9adc 24be affc 2bbe
00000370: b67f 9a3d b299 9a3d 3eb4 1b3d 8d9c 0bbe
00000380: d51d 23be 3b04 2bbe 1122 3a3d c1a8 9d3d
00000390: 6fee 23bd 9cfb ca3d 9a89 01be 4377 9bbd
000003a0: fd15 063d ff91 193c 3f0a 863c d52b e23b
000003b0: 221f d3bd 28ff adbd 4afa 88bd 10b1 8c3c
000003c0: f4f5 6a3e ae4c 4f3e 6a34 aebc c61d 0d3e
000003d0: b427 ffbd 7437 153e d3f3 e63d bc71 0cbe
000003e0: bbc1 8bbd c35b bdbd e95a 463d be6d cc3b
000003f0: 521e 3dbd 5789 80bd ce52 17be 9f65 08bd

linear_layer.1.bias f4 [100]
-0.081906036 0.08248613 -0.024461133 0.18577044 -0.022102837 -0.06398355 -0.11398616 0.12985276
-0.10955559 0.0804584 -0.08313485 -0.021246852 0.13618526 0.09530988 -0.07067092 -0.075989075
0.002707654 0.1256118 0.021285743 -0.058543082 -0.0519878 0.04472535 -0.030440213 0.08670986
0.13737601 0.032507498 0.15131049 -0.053769745 -0.0929509 -0.062199615 -0.22691038 0.11894408
0.0040298933 -0.094854556 -0.07160595 0.07830246 0.13009532 -0.14382201 0.010590274 -0.019695532
-0.111698836 -0.13198158 0.03228878 0.15871044 -0.06982014 0.010412699 0.0016995155 -0.13715369
0.06817364 -0.10679935 -0.050680622 -0.007514212 -0.0042372625 -0.116600364 0.010381788 0.023066474
0.13844953 -0.08936859 -0.0028245624 0.030983599 -0.13335757 -0.0061808266 0.035652746 0.16764772
0.039885364 0.03709785 -0.11015605 0.021679314 0.0037353307 -0.17039712 -0.094950676 0.006981379
-0.04363041 -0.0380962 0.07924212 0.009749369 0.08028094 -0.13108492 0.059043836 -0.050811626
-0.13794462 -0.070785455 0.03380477 -0.028699752 0.09562626 0.023147315 -0.008138259 0.0591394
0.16046406 -0.032758344 -0.08716393 -0.18411137 0.09538283 0.027262637 0.05108593 0.03745178
0.0656332 -0.008475338 -0.011289447 0.09096254
00000000: 5abe a7bd 7dee a83d b762 c8bc 9b3a 3e3e
00000010: 0211 b5bc cf09 83bd 9371 e9bd 1ff8 043e
00000020: ae5e e0bd 60c7 a43d 9b42 aabd e10d aebc
00000030: 2674 0b3e d431 c33d eabb 90bd 29a0 9bbd
00000040: e572 313b 61a0 003e 705f ae3c dfca 6fbd
00000050: 29f1 54bd ee31 373d c15d f9bc f094 b13d
00000060: 4cac 0c3e 9526 053d 23f1 1a3e aa3d 5cbd
00000070: 0b5d bebd 06c5 7ebd 325b 68be f498 f33d
00000080: 320d 843b 1b43 c2bd 24a6 92bd 0a5d a03d
00000090: b537 053e 1446 13be d482 2d3c 8658 a1bc
000000a0: 5cc2 e4bd 2e26 07be 3d41 043d fd84 223e
000000b0: ddfd 8ebd 069a 2a3c 47c2 de3a 0472 0cbe
000000c0: 9f9e 8b3d 9eb9 dabd 7c96 4fbd c739 f6bb
000000d0: bcd8 8abb 2ccc eebd 6018 2a3c e7f5 bc3c
000000e0: b7c5 0d3e e106 b7bd 4b1c 39bb 51d1 fd3c
000000f0: e38e 08be 8888 cabb 9d08 123d d8ab 2b3e
00000100: d65e 233d eaf3 173d 7f99 e1bd d198 b13c
00000110: 73cc 743b 957c 2ebe 8075 c2bd 0dc4 e43b
00000120: cdb5 32bd c30a 1cbd b149 a23d d1bb 1f3c
00000130: 556a a43d 203b 06be f3d7 713d da1f 50bd
00000140: 5b41 0dbe f7f7 90bd df76 0a3d be1b ebbc
00000150: b3d7 c33d 709f bd3c 5556 05bc 283c 723d
00000160: b150 243e 9d2d 06bd 0183 b2bd b187 3cbe
00000170: 1358 c33d e555 df3c 7b3f 513d 0a67 193d
00000180: b36a 863d 25dc 0abc 5ff7 38bc 914a ba3d

linear_layer.2.weight f4 [100, 100]
-0.05286806 0.027629837 0.06587512 -0.25390244 0.09352371 -0.040318497 0.061189193 -0.08910854
0.097000115 -0.055977978 -0.042714253 0.037174765 -0.063658185 -0.09372879 0.026468016 -0.13636787
0.047132533 -0.08784004 -0.0351366 0.12917134 0.02732528 0.047711194 -0.06247629 -0.07407472
-0.12898888 0.0018929306 -0.22416742 -0.016891206 0.027495 -0.00088166684 0.051118523 -0.05657823
0.015345771 0.0053698393 0.06991429 -0.009164981 -0.026001016 0.3010757 0.029604258 -0.06776789
0.14205138 0.16718887 0.07679633 0.0088772215 0.12270567 -0.015310956 0.115802474 0.048583087
-0.16131635 0.11943153 0.012377064 0.06231035 -0.13442014 0.04262865 -0.11435895 -0.03318897
-0.33511415 0.055902693 0.09076236 0.012213561 -0.033295117 0.004200957 -0.025263665 -0.024772113
0.033738077 0.1254273 0.06181827 -0.05657386 0.088825144 0.02821335 0.24277163 0.2550525
0.017740782 -0.1261076 -0.20120126 0.02800857 -0.037394103 -0.015412321 -0.07689514 0.102287956
-0.08617954 0.054460388 -0.011674553 0.107117265 0.23357329 -0.13305753 0.16286047 -0.271185
-0.07788695 -0.114558876 0.05128598 0.14329828 0.0018777666 -0.11800694 -0.030795682 -0.029349556
-0.06849913 0.019276114 0.011327072 0.054131545 -0.014615589 0.018891022 -0.047735844 -0.33581477
0.003178076 0.075078614 0.08205948 -0.26460925 0.051071856 -0.1453264 0.114523016 -0.12759909
-0.080228984 -0.29885608 -0.088736236 0.036472093 -0.005169574 -0.109340645 0.08173216 0.05959971
0.11250789 0.13891646 -0.011393809 -0.07662701 0.04341585 0.05367313 -0.26807147 0.09299741
0.0955164 0.013447151 0.12177769 -0.21989575 0.27285364 0.105804294 -0.043215066 -0.082255825
-0.003187077 0.08665534 0.23354027 -0.0002452301 0.18964909 -0.005614824 0.14738338 0.015607785
0.12795636 0.17908056 -0.17437454 0.05994848 -0.22659296 0.079495296 -0.024189888 -0.16478616
0.08681051 0.083574355 0.22148867 0.15246738 -0.088470995 0.017193532 -0.062013812 -0.07396065
0.04916799 0.14803556 0.18863766 -0.031517424 -0.24817206 -0.061849847 0.009711346 0.017697565
0.00779195 0.042332854 -0.014490312 0.0709278 0.018501068 -0.1249062 -0.0024506387 -0.08014519
-0.0043792697 0.123218976 0.005571503 0.09555645 0.020063056 -0.08516658 -0.12924387 -0.15154174
-0.045565065 0.13235284 0.05738752 -0.122610554 -0.02794339 -0.06467491 0.051862527 0.10495699
0.04812422 -0.13589059 -0.011199956 -0.09726678 0.052893236 0.04038749 0.01757721 -0.049345493
-0.025525177 -0.093612134 -0.032883495 0.054097317 0.15529466 -0.08437595 0.07855531 0.032686673
-0.058377948 0.20015591 -0.1618026 -0.13093638 -0.09799166 -0.16620755 -0.03815647 0.0649051
0.18304776 0.099515855 -0.1636213 -0.007755655 -0.13235748 0.11878143 -0.2530244 0.07920407
-0.10756046 -0.08181765 0.114056416 0.017056726 -0.15649427 0.058696646 -0.1367829 0.09541489
-0.08277532 0.03551956 -0.047753204 0.12608522 -0.06547943 -0.17979583 -0.009612724 0.06868856
-0.14411694 0.01258419 -0.11574596 0.00274769 0.013044983 -0.08937077 -0.0062549924 0.01005081
-0.02626371 -0.037401274 -0.13878813 0.060044903 -0.10907761 0.033229183 0.022147104 0.018417614
00000000: 2e8c 58bd f857 e23c 89e9 863d 80ff 81be
00000010: 5c89 bf3d 0225 25bd 85a1 7a3d 8a7e b6bd
00000020: ffa7 c63d 2a49 65bd 24f5 2ebd 9144 183d
00000030: 395f 82bd e1f4 bfbd 74d3 d83c 05a4 0bbe
00000040: 0b0e 413d 7be5 b3bd 65eb 0fbd 7e45 043e
00000050: 44d9 df3c d06c 433d 23e7 7fbd 7db4 97bd
00000060: a915 04be 361c f83a 258c 65be 6d5f 8abc
00000070: 323d e13c a91f 67ba a861 513d 93be 67bd
00000080: d46c 7b3c 7af5 af3b 392f 8f3d b728 16bc
00000090: 1500 d5bc 9826 9a3e a184 f23c e4c9 8abd
000000a0: eb75 113e 8f33 2b3e 6547 9d3d c471 113c
000000b0: 1c4d fb3d ceda 7abc d929 ed3d 0fff 463d
000000c0: 1d30 25be 8598 f43d 2bc9 4a3c 2339 7f3d
000000d0: 6fa5 09be 619b 2e3d 0635 eabd 28f1 07bd
000000e0: 1594 abbe 39fa 643d 9ee1 b93d 631b 483c
000000f0: 7660 08bd 2ea8 893b bff5 cebc e3ee cabc
00000100: f030 0a3d 0470 003e 2735 7d3d feb9 67bd
00000110: f5e9 b53d af1f e73c 2099 783e 3e96 823e
00000120: 1e55 913c 5a22 01be b407 4ebe 3b72 e53c
00000130: 8f2a 19bd f683 7cbc 337b 9dbd 597c d13d
00000140: e67e b0bd db11 5f3d a046 3fbc 4c60 db3d
00000150: d62d 6f3e 3c40 08be e5c4 263e c3d8 8abe
00000160: 3183 9fbd d89d eabd 3f11 523d c9bc 123e
00000170: 641f f63a 9fad f1bd 3a47 fcbc 7b6e f0bc
00000180: 4649 8cbd f1e8 9d3c 2f95 393c 0ab9 5d3d
00000190: 3976 6fbc 58c1 9a3c a986 43bd eaef abbe
000001a0: 4447 503b d1c2 993d cd0e a83d dd7a 87be
000001b0: b930 513d 72d0 14be 0b8b ea3d 56a9 02be
000001c0: 184f a4bd aa03 99be 58bb b5bd c363 153d
000001d0: 8865 a9bb fded dfbd 3163 a73d d31e 743d
000001e0: 896a e63d 1e40 0e3e 19ad 3abc 9fee 9cbd
000001f0: d1d4 313d 5bd8 5b3d aa40 89be 6d75 be3d
00000200: 1a9e c33d 7051 5c3c 9566 f93d 5a2c 61be
00000210: 79b3 8b3e ecaf d83d 4802 31bd be75 a8bd
00000220: 47de 50bb 5b78 b13d 2e25 6f3e 3a92 80b9
00000230: 5f33 423e 8ffc b7bb abeb 163e ccb7 7f3c
00000240: fe06 033e e560 373e 3d8f 32be 8a8c 753d
00000250: fc07 68be 6ece a23d df29 c6bc b4bd 28be
00000260: b5c9 b13d 0829 ab3d edcd 623e 6920 1c3e
00000270: 4830 b5bd 73d9 8c3c 3202 7ebd ae78 97bd
00000280: 6064 493d a296 173e 3b2a 413e 6a18 01bd
00000290: d120 7ebe 4456 7dbd 561c 1f3c 7cfa 903c
000002a0: 9d53 ff3b 3765 2d3d c668 6dbc 9842 913d
000002b0: 8d8f 973c d2ce ffbd e59a 20bb 2923 a4bd
000002c0: fa7f 8fbb 3b5a fc3d 2891 b63b 1ab3 c33d
000002d0: 475b a43c d16b aebd 8158 04be c22d 1bbe
000002e0: 6fa2 3abd 8187 073e 2d0f 6b3d 3e1b fbbd
000002f0: 89e9 e4bc 4774 84bd cd6d 543d b1f3 d63d
00000300: e71d 453d e726 0bbe 0580 37bc ce33 c7bd
00000310: 94a6 583d 5a6d 253d 15fe 8f3c 801e 4abd
00000320: 2d1a d1bc b8b7 bfbd d8b0 06bd 2695 5d3d
00000330: 9005 1f3e 4ccd acbd 9be1 a03d 76e2 053d
00000340: b71d 6fbd acf5 4c3e 95af 25be 3014 06be
00000350: daaf c8bd 5032 2abe f549 1cbd f7ec 843d
00000360: df70 3b3e f8ce cb3d 588c 27be 2623 febb
00000370: b888 07be ae43 f33d 6a8c 81be be35 a23d
00000380: a948 dcbd 0390 a7bd 6996 e93d 8cba 8b3c
00000390: 0940 20be e56b 703d d110 0cbe e268 c33d
000003a0: 1b86 a9bd f57c 113d dd98 43bd 7c1c 013e
000003b0: 141a 86bd 661c 38be b07e 1dbc 96ac 8c3d
000003c0: 6493 13be eb2d 4e3c 380c edbd 9712 343b
000003d0: a0ba 553c 0608 b7bd aef6 ccbb 27ac 243c
000003e0: fe26 d7bc 1432 19bd 7a1e 0ebe a5f1 753d
000003f0: 1564 dfbd 531b 083d d86d b53c 89e0 963c

linear_layer.2.bias f4 [100]
-0.06628422 -0.056757767 0.0190045 0.034649484 0.018063296 0.043659285 0.058127023 0.026554648
-0.008867593 0.032899503 -0.036834978 -0.062557966 -0.10000484 0.17780383 -0.016249927 -0.025838275
-0.07252286 0.14483584 0.008459997 -0.028276253 -0.13093603 -0.05061764 0.013654141 0.08537174
0.02207311 -0.06004188 -0.05305784 -0.06942273 0.060964964 -0.07120225 -0.115772136 -0.044140562
0.031172609 0.054017734 -0.019776028 -0.07750442 -0.032389827 -0.06128687 -0.029827427 -0.031178609
-0.03675968 -0.09890927 -0.0382777 0.035427548 0.011471967 0.027181974 0.027580937 0.006672327
0.03773978 0.008772254 -0.023403037 0.0047698608 0.082472116 0.103963874 0.069893375 -0.35373485
-0.06588824 -0.01844002 0.006746308 -0.054598555 0.16663937 0.048813 0.15705393 0.035107337
-0.041625664 -0.027088972 -0.06973019 0.008419964 -0.21498343 0.011323794 0.017406138 0.03037958
0.020669613 -0.007226763 -0.024104258 -0.05647512 -0.015136158 0.008843393 0.028226003 -0.09155975
-0.06915919 -0.018673085 -0.098924965 -0.03930653 0.044187903 0.055616286 0.017552424 0.2199204
-0.039365556 -0.0052741147 0.018331762 0.04588303 -0.017440738 -0.29178134 0.0055871755 -0.071907364
-0.042534478 0.013796068 -0.06433242 -0.018977178
00000000: 05c0 87bd d57a 68bd 53af 9b3c 9eec 0d3d
00000010: 7af9 933c 14d4 323d 9a16 6e3d 2289 d93c
00000020: 6149 11bc a1c1 063d 46e0 16bd 641e 80bd
00000030: 56cf ccbd 3512 363e 911e 85bc caaa d3bc
00000040: dd86 94bd d94f 143e cd9b 0a3c 9aa3 e7bc
00000050: 1814 06be 7154 4fbd 9eb5 5f3c 61d7 ae3d
00000060: abd2 b43c 79ee 75bd 2d53 59bd 812d 8ebd
00000070: 66b6 793d 7cd2 91bd f119 edbd bccc 34bd
00000080: b35d ff3c b341 5d3d 5601 a2bc a3ba 9ebd
00000090: 32ab 04bd f107 7bbd a658 f4bc 486a ffbc
000000a0: 5191 16bd f190 cabd 14c9 1cbd 7a1c 113d
000000b0: ebf4 3b3c bbac de3c 6bf1 e13c 89a3 da3b
000000c0: 0795 1a3d 80b9 0f3c bab7 bfbc 7e4c 9c3b
000000d0: 24e7 a83d 03eb d43d 4224 8f3d bc1c b5be
000000e0: 6af0 86bd 860f 97bc 2210 dd3b bca2 5fbd
000000f0: 83a3 2a3e 24f0 473d bfd2 203e b6cc 0f3d
00000100: ac7f 2abd b1e9 ddbc b4ce 8ebd e4f3 093c
00000110: 9e24 5cbe 6f87 393c 5197 8e3c 99de f83c
00000120: 5253 a93c 7bce ecbb 4b76 c5bc 7552 67bd
00000130: a6fd 77bc e1e3 103c 383a e73c ae83 bbbd
00000140: 55a3 8dbd 4cf8 98bc 2c99 cabd e2ff 20bd
00000150: 60fe 343d e7cd 633d 1aca 8f3c d032 613e
00000160: c73d 21bd 7bd2 acbb 7e2c 963c d8ef 3b3d
00000170: e1df 8ebc 5d64 95be a014 b73b 2b44 93bd
00000180: a238 2ebd e708 623c b7c0 83bd 0776 9bbc

linear_layer.3.weight f4 [100, 100]
-0.16460727 0.10220373 -0.04928893 0.16491415 -0.0038215034 -0.02293908 0.060795814 0.11135424
-0.119127534 -0.100059666 -0.22032379 0.07594076 -0.14165556 0.6066657 -0.060955543 0.03563781
-0.25353053 0.15145902 -0.09306721 0.018384272 -0.41068846 -0.12242078 -0.031182632 0.14163153
0.0049981643 0.072803445 -0.0161989 -0.071452364 0.2177155 -0.013516286 -0.15808894 -0.14252213
-0.124687925 -0.034575764 -0.06431022 -0.016372703 -0.30520797 -0.20911679 -0.2437291 -0.116275415
0.13743956 -0.20289864 -0.16099562 0.14584753 0.03967455 -0.020241901 0.053460315 0.17067711
-0.24494664 0.11082157 0.12536836 -0.0630062 -0.027499534 0.3070361 0.24451755 0.0034965975
0.08794819 -0.15998368 -0.15693697 -0.13125308 0.015533966 -0.13379242 0.3158083 -0.08957237
0.0992522 0.011541187 0.05170065 -0.017353754 0.1025138 -0.01819343 0.19104296 -0.046116274
0.09926708 -0.024780018 0.19364165 0.103625365 -0.07658355 -0.0124057615 0.013192389 -0.26130176
0.0053015216 0.12020665 -0.0763201 -0.019696686 0.2465672 -0.14176452 0.03713718 0.030277641
-0.12919077 0.035875086 -0.19248809 0.27357852 -0.0042589447 0.07293949 0.0084115835 0.13211422
0.078047596 0.03398847 -0.18799101 -0.08787088 0.17583834 -0.0120443525 0.009833338 -0.11927729
0.03153275 0.023714643 -0.10986627 0.059353955 0.005314234 -0.06770472 -0.10260481 0.13175137
-0.040977374 0.28632754 -0.107484624 -0.022546684 -0.061023712 -0.08491065 0.10130151 0.019404652
0.09786671 -0.07025442 -0.00031850627 -0.17983824 -0.1551667 0.100052185 0.024889598 -0.18902478
0.15524441 0.09782828 -0.174645 0.20206702 0.04879465 -0.1674249 0.07202904 -0.054367684
0.11703323 -0.22425413 0.002509916 -0.0070307716 0.015952079 0.10044225 -0.0418241 0.03610198
0.20063105 -0.006446091 -0.17368041 0.038489312 0.03872398 0.1661022 0.059832904 0.014570192
0.116707884 -0.026753109 0.049266063 -0.041509118 -0.05433866 -0.0769197 0.12524752 0.06610781
0.06344897 -0.087472126 -0.0058644623 -0.04076479 0.0905099 -0.10164963 -0.16694476 -0.02438995
-0.1304756 -0.18185608 -0.0708319 -0.020301534 0.20191401 -0.06869082 -0.085899755 -0.04680074
-0.092513375 -0.14992408 0.008962193 -0.011076374 -0.038428657 -0.045294646 -0.02202068 0.15681158
0.041717134 0.06556459 0.0021056086 -0.11271351 -0.028973516 -0.028596016 0.0092111835 0.10141634
-0.030112466 -0.045046113 0.022754624 -0.11785086 0.00079045893 -0.10614714 -0.20272547 0.019155627
-0.019907461 0.027992642 -0.052579943 -0.08913166 -0.015233901 -0.085355625 -0.05046913 -0.112864025
0.041740213 -0.15421128 0.053347815 0.14361437 -0.100264095 -0.0063288305 0.020921985 0.05232669
-0.009007451 -0.12539726 -0.23280558 -0.039490577 0.21507338 0.012055119 0.028074212 -0.11113443
0.009142681 -0.047565617 0.11925445 0.08411615 -0.04730992 0.088703185 -0.06737324 -0.06336996
0.054701928 -0.11208331 -0.19530748 0.20886175 0.07819692 0.052805062 0.0625319 0.25587255
0.05970708 0.06457681 -0.07093736 -0.11847241 0.083651446 -0.055492993 -0.11336643 -0.012151395
-0.004557819 -0.18117763 0.03725368 0.09103478 -0.07662048 -0.04285414 -0.18239443 0.21158223
00000000: cf8e 28be 3050 d13d 30e3 49bd 41df 283e
00000010: 3072 7abb bdea bbbc 0805 793d b10d e43d
00000020: 23f9 f3bd 15ec ccbd 8f9c 61be d486 9b3d
00000030: 280e 11be 714e 1b3f 85ac 79bd f4f8 113d
00000040: c1ce 81be 1318 1b3e 059a bebd 9d9a 963c
00000050: c245 d2be bfb7 fabd b872 ffbc db07 113e
00000060: a4c7 a33b f919 953d 8eb3 84bc 9e55 92bd
00000070: d0f0 5e3e 6a73 5dbc 11e2 21be 52f1 11be
00000080: 625c ffbd 519f 0dbd 14b5 83bd 0c20 86bc
00000090: 3844 9cbe b622 56be 1f94 79be ce21 eebd
000000a0: f5bc 0c3e a9c4 4fbe 09dc 24be 0e59 153e
000000b0: c881 223d 58d2 a5bc 34f9 5a3d fbc5 2e3e
000000c0: 4bd3 7abe 6bf6 e23d 9060 003e 6509 81bd
000000d0: b446 e1bc d633 9d3e cf62 7a3e 2c27 653b
000000e0: 2e1e b43d c3d2 23be 16b4 20be 3567 06be
000000f0: 2d82 7e3c e100 09be a0b1 a13e b871 b7bd
00000100: bd44 cb3d 3f17 3d3c 10c4 533d 7629 8ebc
00000110: c1f2 d13d 630a 95bc c4a0 433e 6be4 3cbd
00000120: 8a4c cb3d 77ff cabc ff49 463e 8939 d43d
00000130: d6d7 9cbd 8941 4bbc e424 583c 58c9 85be
00000140: 63b8 ad3b e72e f63d b64d 9cbd f25a a1bc
00000150: 1d7c 7c3e b82a 11be 281d 183d d108 f83c
00000160: 964a 04be c1f1 123d 991b 45be 7c12 8c3e
00000170: 9e8e 8bbb 4d61 953d bdd0 093c f348 073e
00000180: 6bd7 9f3d 7e37 0b3d b780 40be a6f5 b3bd
00000190: f70e 343e ad55 45bc 021c 213c a747 f4bd
000001a0: 7c28 013d 3645 c23c 9101 e1bd 221d 733d
000001b0: 0723 ae3b c6a8 8abd 7822 d2bd d5e9 063e
000001c0: e4d7 27bd 8699 923e e620 dcbd d3b3 b8bc
000001d0: 00f4 79bd a3e5 adbd 2b77 cf3d 81f6 9e3c
000001e0: 576e c83d 8de1 8fbd 30fd a6b9 8427 38be
000001f0: 05e4 1ebe 29e8 cc3d 45e5 cb3c b68f 41be
00000200: 64f8 1e3e 315a c83d 24d6 32be a8ea 4e3e
00000210: e6dc 473d 6f71 2bbe f683 933d a6b0 5ebd
00000220: 1eaf ef3d e0a2 65be 677d 243b 6362 e6bb
00000230: efad 823c abb4 cd3d bf4f 2bbd abdf 133d
00000240: 3a72 4d3e bb39 d3bb 47d9 31be f8a6 1d3d
00000250: 099d 1e3d b216 2a3e 5913 753d d1b7 6e3c
00000260: 8b04 ef3d 5629 dbbc 36cb 493d 7705 2abd
00000270: 3792 5ebd 1388 9dbd e340 003e 8863 873d
00000280: 89f1 813d 9624 b3bd ad2a c0bb fbf8 26bd
00000290: 415d b93d ae2d d0bd 91f3 2abe 6fcd c7bc
000002a0: 659b 05be 7b38 3abe 5110 91bd 674f a6bc
000002b0: 8cc2 4e3e c6ad 8cbd 36ec afbd 22b2 3fbd
000002c0: a777 bdbd b385 19be 29d6 123c ae79 35bc
000002d0: 5e67 1dbd e186 39bd b764 b4bc 3793 203e
000002e0: 96df 2a3d ba46 863d 40fe 093b 57d6 e6bd
000002f0: de59 edbc 3142 eabc 81ea 163c 5fb3 cf3d
00000300: 6bae f6bc 4682 38bd e867 ba3c cb5b f1bd
00000310: cd36 4f3a ac63 d9bd 4497 4fbe 43ec 9c3c
00000320: f914 a3bc d350 e53c 115e 57bd a98a b6bd
00000330: 9d97 79bc eece aebd b8b8 4ebd 4125 e7bd
00000340: c9f7 2a3d 90e9 1dbe 3d83 5a3d a50f 133e
00000350: 4357 cdbd 1462 cfbb 9564 ab3c 8354 563d
00000360: fd93 13bc 2468 00be 9664 6ebe dfc0 21bd
00000370: 323c 5c3e d582 453c e4fb e53c 739a e3bd
00000380: 2fcb 153c 2ad4 42bd ad3b f43d 1745 ac3d
00000390: 0cc8 41bd 04aa b53d fbfa 89bd 1cc8 81bd
000003a0: 210f 603d ef8b e5bd affe 47be dbdf 553e
000003b0: b525 a03d 1f4a 583d ba10 803d ba01 833e
000003c0: 698f 743d d940 843d 9b47 91bd aaa1 f2bd
000003d0: 7351 ab3d 9f4c 63bd a92c e8bd a516 47bc
000003e0: c259 95bb a186 39be 5197 183d 7170 ba3d
000003f0: 33eb 9cbd d387 2fbd 9bc5 3abe 03a9 583e

linear_layer.3.bias f4 [100]
0.10255568 0.016302532 -0.05993982 -0.11450342 -0.017485369 -0.040217698 0.09237312 0.04705952
0.04328859 0.0034986676 -0.04572563 -0.031689852 0.01407573 0.036516037 0.008615489 0.01642554
-0.07897233 -0.006509959 0.017732196 0.040981065 -0.059739076 0.05508133 0.028994184 0.039690547
0.007300736 -0.04553729 0.06814567 0.064181626 0.037050907 0.057170883 -0.023865141 -0.0031613724
0.020380901 0.029777871 0.0008758848 -0.028900016 0.016728453 -0.013154861 -0.045815997 -0.008546726
-0.013870203 0.01445915 0.04960018 -0.012532476 0.07254708 0.06279486 0.09834783 -0.19272599
0.05250235 -0.04655611 0.033337474 -0.025800422 -0.008766562 0.00045368713 -0.02166921 -0.023929536
-0.050205987 -0.015750347 0.046667665 0.048540216 0.0050746994 0.030820467 0.0077178287 0.014365325
0.025492057 0.016477209 0.06817215 -0.002617353 0.0154608 -0.044370923 0.031479236 -0.0381599
-0.002059477 -0.010287896 -0.03695039 0.02119796 -0.011438014 -0.3232341 0.04782025 -0.057542074
-0.0087923985 0.020853836 -4.476388e-05 -0.024532894 -0.036889438 0.049810793 0.022828428 0.05861972
-0.034500033 0.010223242 0.030431282 0.02865493 0.04253581 -0.036534533 0.010385288 0.042622723
0.022790123 0.021542478 -0.041096244 -0.055279706
00000000: b608 d23d e38c 853c 7583 75bd c580 eabd
00000010: 7a3d 8fbc 50bb 24bd 1e2e bd3d 7cc1 403d
00000020: 604f 313d e749 653b cc4a 3bbd 38cd 01bd
00000030: e49d 663c d791 153d fb27 0d3c db8e 863c
00000040: 3fbc a1bd 7f51 d5bb 1c43 913c c3db 273d
00000050: f6b0 74bd f69c 613d 3685 ed3c 8e92 223d
00000060: 033b ef3b 4f85 3abd f58f 8b3d a871 833d
00000070: b1c2 173d 042c 6a3d d480 c3bc 072f 4fbb
00000080: d9f5 a63c b9f0 f33c a29b 653a babf ecbc
00000090: 1c0a 893c 7c87 57bc 8ea9 3bbd 9107 0cbc
000000a0: d93f 63bc 12e6 6c3c 8f29 4b3d 0455 4dbc
000000b0: 9093 943d 979a 803d 966a c93d f659 45be
000000c0: b40c 573d 9fb1 3ebd e08c 083d 685b d3bc
000000d0: a0a1 0fbc dbdc ed39 a183 b1bc e007 c4bc
000000e0: cba4 4dbd df06 81bc 9826 3f3d 1bd2 463d
000000f0: aa49 a63b 347b fc3c d7e5 fc3b 8a5c 6b3c
00000100: b8d4 d03c 36fb 863c d79d 8b3d e687 2bbb
00000110: 4c4f 7d3c 49be 35bd 5ff0 003d 8e4d 1cbd
00000120: 4af8 06bb 908e 28bc 4b59 17bd 58a7 ad3c
00000130: 8266 3bbc f17e a5be 2bdf 433d 3db1 6bbd
00000140: fe0d 10bc aad5 aa3c dac0 3bb8 35f9 c8bc
00000150: 6119 17bd 6706 4c3d af02 bb3c 3b1b 703d
00000160: e84f 0dbd 637f 273c 064b f93c bebd ea3c
00000170: 083a 2e3d 3ca5 15bd 0e27 2a3c 2a95 2e3d
00000180: 5ab2 ba3c da79 b03c 8954 28bd f96c 62bd

linear_layer.4.weight f4 [100, 100]
-0.021947423 0.03561045 0.0726357 0.07854805 0.055719465 -0.0018677167 -0.05253434 0.14555718
0.07936474 0.02390827 -0.14620027 0.10092748 0.086463794 0.15080988 0.12571837 0.21793306
0.13118334 0.33390725 0.010814701 0.036808245 0.014680991 0.051600184 -0.021062803 0.13374865
0.15247464 -0.0992909 0.0713903 -0.10253456 0.16219833 -0.03900052 0.13442634 -0.06473708
-0.16152027 0.04238312 0.0059266514 0.0040881657 -0.19751187 0.061922744 0.14278458 0.024481563
-0.2090508 -0.27061144 -0.28027633 0.0833473 -0.04396608 -0.26087922 0.17243224 -0.05540533
0.069515295 0.022719292 -0.052156277 -0.10027268 -0.09522391 -0.017789956 0.009036753 0.06369925
0.054935127 0.07402952 0.08511764 0.05892628 0.08274689 0.007828254 0.014526315 0.027994145
0.124323696 0.037701778 0.0124549875 -0.01142294 -0.216398 0.11380108 0.026776765 0.060442634
-0.09124854 0.18856174 0.01976191 -0.16116494 0.086416155 0.095524855 -0.01526015 0.031650048
0.044741724 0.077742316 0.054993674 -0.003475386 -0.044477254 -0.009159241 0.13378388 -0.01695076
-0.03013748 -0.030173834 -0.019071056 0.12522338 -0.21129291 0.07645083 -0.08231529 -0.0849013
0.020181764 -0.016428929 -0.10426029 -0.029014207 -0.10091021 0.0029528176 -0.123596005 0.015901044
-0.026928432 -0.07049276 -0.21097581 0.0104475515 0.008002592 -0.0689941 -0.029912066 -0.018289613
0.134466 0.10862291 0.2241627 -0.047116075 -0.118567735 -0.081027724 -0.061840057 0.06731662
-0.081366576 0.10475184 0.092212245 -0.07481616 0.01714806 -0.04488481 0.07318417 0.13478865
0.23201725 0.083859146 -0.067877926 0.067274325 0.056535162 0.027020086 -0.025743343 -0.22691767
-0.121056035 -0.094210364 0.109567545 0.09104619 0.04026885 0.033243697 0.08904163 0.16393137
0.043574214 -0.040346846 0.22675335 0.11224814 -0.037799317 -0.15914962 -0.039440777 0.052316844
-0.042601097 -0.08731314 -0.05041269 -0.094229944 -0.05077622 0.088044405 -0.05262933 -0.010920771
-0.0111562805 0.04274358 0.016315477 -0.22215424 -0.038992323 0.1470629 0.13919404 0.14655983
-0.11811133 -0.10013992 -0.10356643 -0.1128033 0.0047827284 -0.18409172 -0.0039898832 0.078298554
0.052207727 -0.20490225 -0.17228639 0.11550427 0.14588411 -0.15688285 0.030121233 -0.034018006
0.060891017 -0.029090006 -0.15540871 -0.061814014 -0.16901378 -0.15715037 0.08936542 -0.074732125
-0.13222623 0.05068068 0.026174745 0.023536118 -0.030831596 -0.08429122 0.10719227 0.026543759
0.06014102 -0.009571166 -0.19158262 0.10408677 -0.22073953 -0.08713114 0.048347846 0.112598516
-0.27328706 0.0070997193 0.06930552 0.02681325 0.00074630906 -0.10905156 0.044109106 0.1701929
-0.175836 -0.18124086 0.04994456 0.060909558 -0.045585524 -0.0009669372 0.17488319 0.032690223
0.017017165 -0.05567145 -0.045978975 0.001855372 0.16663396 -0.06626665 -0.19178662 0.07132915
0.17879568 0.1542887 -0.07226793 0.035121456 -0.029222853 0.16347165 -0.13925242 -0.022018762
-0.14082052 0.05452417 0.18421414 -0.14822038 -0.14142168 0.0047055 0.15441173 0.34628838
0.09177697 0.054881994 0.3202689 0.010390042 0.06224502 0.058031637 0.20439589 0.10023515
00000000: 15cb b3bc 43dc 113d 07c2 943d cddd a03d
00000010: 183a 643d 2cce f4ba 402e 57bd f10c 153e
00000020: fb89 a23d 47db c33c 86b5 15be 11b3 ce3d
00000030: ee13 b13d e86d 1a3e 51bc 003e d829 5f3e
00000040: ed54 063e e4f5 aa3e 2530 313c 3ec4 163d
00000050: 8a88 703c b75a 533d e68b acbc 68f5 083e
00000060: 5022 1c3e 0759 cbbd 1435 923d a4fd d1bd
00000070: 5217 263e 02bf 1fbd 0fa7 093e e094 84bd
00000080: 9265 25be ec99 2d3d 5b34 c23b 05f6 853b
00000090: 8d40 4abe b4a2 7d3d 1f36 123e 8f8d c83c
000000a0: 6a11 56be 958d 8abe 6180 8fbe fdb1 aa3d
000000b0: c715 34bd f691 85be 1492 303e b3f0 62bd
000000c0: 095e 8e3d cf1d ba3c d2a1 55bd c35b cdbd
000000d0: c104 c3bd 3ebc 91bc e40e 143c c174 823d
000000e0: a803 613d ca9c 973d 2852 ae3d af5c 713d
000000f0: 3477 a93d 1442 003c c8ff 6d3c fa53 e53c
00000100: 6c9d fe3d 2e6d 1a3d 0110 4c3c 4827 3bbc
00000110: 7097 5dbe 8a10 e93d f25a db3c b292 773d
00000120: 84e0 babd 5416 413e bbe3 a13c 6c08 25be
00000130: f4fa b03d 89a2 c33d b505 7abc 7ba3 013d
00000140: 1943 373d 5d37 9f3d 0c41 613d 4dc3 63bb
00000150: c82d 36bd a410 16bc a4fe 083e 52dc 8abc
00000160: e0e2 f6bc 1e2f f7bc e73a 9cbc 8f3a 003e
00000170: 2b5d 58be 4192 9c3d eb94 a8bd bce0 adbd
00000180: 3a54 a53c f695 86bc 6b86 d5bd 34af edbc
00000190: 03aa cebd 0f84 413b e71f fdbd e842 823c
000001a0: 0499 dcbc 825e 90bd 0b0a 58be 352c 2b3c
000001b0: 4e1d 033c c74c 8dbd 260a f5bc 19d4 95bc
000001c0: 75b1 093e b075 de3d e88a 653e c9fc 40bd
000001d0: a4d3 f2bd ddf1 a5bd 004c 7dbd 4cdd 893d
000001e0: 85a3 a6bd 2288 d63d c6d9 bc3d 3739 99bd
000001f0: 177a 8c3c 22d9 37bd 95e1 953d 0906 0a3e
00000200: ee95 6d3e 58be ab3d 9503 8bbd 1fc7 893d
00000210: 6a91 673d 3a59 dd3c b4e3 d2bc 1b5d 68be
00000220: 3aec f7bd 5df1 c0bd f364 e03d 6d76 ba3d
00000230: f3f0 243d 8b2a 083d 755b b63d a0dd 273e
00000240: e07a 323d bc42 25bd 0832 683e 5ae2 e53d
00000250: 75d3 1abd 1ef8 22be a78c 21bd 304a 563d
00000260: 7d7e 2ebd 3bd1 b2bd 897d 4ebd a1fb c0bd
00000270: bafa 4fbd a050 b43d da91 57bd 09ed 32bc
00000280: d5c8 36bc e413 2f3d 09a8 853c 677c 63be
00000290: 6ab6 1fbd a897 163e e288 0e3e c813 163e
000002a0: 5ae4 f1bd 2916 cdbd a31a d4bd 6b05 e7bd
000002b0: 6fb8 9c3b 8a82 3cbe 91bd 82bb fe5a a03d
000002c0: c5d7 553d e5d1 51be d86b 30be 818d ec3d
000002d0: a562 153e e6a5 20be cec0 f63c 7756 0bbd
000002e0: dc68 793d 2a4e eebc 7623 1fbe b130 7dbd
000002f0: f311 2dbe 07ec 20be 3805 b73d 280d 99bd
00000300: 5066 07be 8b96 4f3d 6b6c d63c d1ce c03c
00000310: 8b92 fcbc e0a0 acbd 9f87 db3d 4c72 d93c
00000320: 6e56 763d 61d0 1cbc 3c2e 44be 722b d53d
00000330: 8b09 62be d071 b2bd 6408 463d 0d9a e63d
00000340: 48ec 8bbe c3a4 e83b 0df0 8d3d 76a7 db3c
00000350: f4a3 433a 6d56 dfbd c0ab 343d 0c47 2e3e
00000360: 5a0e 34be 3497 39be ab92 4c3d 4d7c 793d
00000370: e3b7 3abd 0f7a 7dba 9414 333e 2fe6 053d
00000380: 9567 8b3c bf07 64bd 7354 3cbd f42f f33a
00000390: 18a2 2a3e cfb6 87bd b663 44be 0415 923d
000003a0: 3716 373e dbfd 1d3e 3501 94bd 84db 0f3d
000003b0: c464 efbc 1d65 273e 3098 0ebe b160 b4bc
000003c0: 4133 10be bc54 5f3d a2a2 3c3e 15c7 17be
000003d0: d8d0 10be 9830 9a3b 1c1e 1e3e b64c b13e
000003e0: 90f5 bb3d f1cb 603d 49fa a33e ff3a 2a3c
000003f0: a2f4 7e3d 95b2 6d3d 284d 513e 1648 cd3d

linear_layer.4.bias f4 [100]
-0.007885988 -0.034232255 0.064594746 -0.018669423 -0.13666077 -0.018796265 -0.036573898 0.0124191595
0.045314956 0.02812816 0.015409012 -0.09466756 -0.022318993 0.017487198 -0.02761378 0.018905755
0.036094893 -0.026458448 -0.06727838 0.05332824 0.060592275 -0.027099345 0.006554746 0.0092635965
0.014930653 0.028361335 -0.017378064 -0.008287515 -0.037304576 -0.044600975 0.02752386 0.016411476
-0.0237297 -0.03727327 0.043254808 -0.0732831 0.04283699 0.15460224 0.015581893 -0.038711328
-0.0033239143 0.019459516 -0.0012213312 -0.011319367 -0.053809397 0.01416485 -0.034673985 -0.020486394
-0.0022605448 -0.019997407 0.0013559515 -0.008356181 0.0024482463 0.019323831 0.007902778 -0.025222411
0.00190056 0.0012991724 -0.020072795 -0.0018592007 -0.0010775062 0.077294484 0.01062431 -0.008113183
0.010794349 0.004487504 0.0017957521 -0.0200884 0.043238297 -0.024914447 -0.060462825 -0.010328967
0.023209363 0.004798176 0.029265942 -0.037514124 -0.010850007 0.026673134 0.044097263 0.009444586
0.053570487 -0.029964978 0.082269356 0.0567147 -0.056741484 -0.059704393 -0.00704645 -0.021846876
-0.009871715 0.012932963 0.0076784072 0.016059557 -0.02159721 0.020807907 0.06013801 -0.026298678
0.00088677206 -0.019458858 -0.044267844 -0.01912193
00000000: 3b34 01bc 1f37 0cbd 404a 843d 9ef0 98bc
00000010: cdf0 0bbe a0fa 99bc 83ce 15bd bb79 4b3c
00000020: 2d9c 393d 076d e63c 1576 7c3c 11e1 c1bd
00000030: 52d6 b6bc 5041 8f3c 4b36 e2bc 3ee0 9a3c
00000040: 3dd8 133d 63bf d8bc 3fc9 89bd b66e 5a3d
00000050: 9b2f 783d 72ff ddbc 32c9 d63b 57c6 173c
00000060: b39f 743c 0856 e83c 715c 8ebc 5bc8 07bc
00000070: afcc 18bd 83af 36bd b879 e13c 5c71 863c
00000080: ca64 c2bc dbab 18bd f42b 313d 7315 96bd
00000090: d775 2f3d 0d50 1e3e 324b 7f3c c58f 1ebd
000000a0: 07d6 59bb 9069 9f3c 1315 a0ba de74 39bc
000000b0: 3e67 5cbd b013 683c 4f06 0ebd 15d3 a7bc
000000c0: a625 14bb 9ad1 a3bc 2fba b13a 5de8 08bc
000000d0: c272 203b 034d 9e3c a77a 013c 3b9f cebc
000000e0: 361c f93a fe48 aa3a b46f a4bc 6cb0 f3ba
000000f0: 1c3b 8dba 924c 9e3d 9611 2e3c 28ed 04bc
00000100: c8da 303c e90b 933b 715f eb3a 6e90 a4bc
00000110: a41a 313d 6219 ccbc dea7 77bd d43a 29bc
00000120: 9021 be3c 053a 9d3b 21bf ef3c 69a8 19bd
00000130: 3ac4 31bc 9e81 da3c 559f 343d 77bd 1a3c
00000140: ba6c 5b3d 1d79 f5bc d67c a83d ac4d 683d
00000150: c269 68bd 988c 74bd e8e5 e6bb 38f8 b2bc
00000160: f9bc 21bc c7e4 533c 269b fb3b 558f 833c
00000170: a2ec b0bc 5875 aa3c 4653 763d 5370 d7bc
00000180: 4476 683a 2f68 9fbc 3352 35bd 98a5 9cbc

linear_layer.5.weight f4 [100, 100]
0.057334173 0.04592689 0.022601742 0.026401658 -0.026516581 -0.22103399 -0.13455178 -0.038719565
-0.061000634 0.07389396 0.051649876 -0.044030186 -0.11466284 -0.080385946 0.015070941 0.07400882
-0.047057584 -0.058332287 0.066762224 -0.018814137 -0.18981554 0.09834443 0.02921533 0.028779048
-0.1279682 0.099794075 -0.03926613 -0.007829209 0.0046257926 -0.17226788 0.07350243 0.039273355
0.0928643 -0.020225175 0.19310771 0.031370997 0.088793464 -0.2735278 0.07137687 0.21017824
-0.14132258 -0.14177549 -0.007302219 0.08661556 -0.080437176 0.10398037 0.07769473 0.15208258
-0.25007674 -0.051551666 -0.1683181 -0.011522317 -0.019972512 0.08109207 0.005724572 0.008504281
0.13953546 -0.12799318 0.046879712 0.13727394 0.0122056855 0.045351934 -0.100829914 0.21067551
-0.07132857 -0.1569558 -0.07035075 0.095678404 -0.06167493 -0.12408053 -0.14097345 0.12771952
0.03168398 0.08591183 -0.018306674 -0.111163884 -0.03839153 -0.026503079 0.07117289 0.14182346
-0.05031682 0.054560956 -0.04874291 -0.255392 0.06713386 -0.20330471 0.21817753 0.07255058
-0.007506195 -0.004068367 -0.030108562 0.26839882 -0.011830236 -0.2687377 0.071138985 0.014644646
0.12779994 -0.13239315 -0.05238936 0.1443152 -0.08015639 0.062083002 -0.031584706 0.11000821
-0.05793982 0.079306655 0.16138463 0.045008708 -0.043308854 -0.14261113 -0.18270934 0.06387528
-0.08231954 -0.0020824065 -0.04793841 -0.09278567 -0.001457045 0.13394524 0.11935098 -0.18727364
-0.18472406 -0.042593718 0.030686846 0.119755365 0.098925844 0.09673051 0.08918492 0.009524192
0.0962035 0.08273956 -0.017484779 0.07110435 -0.03855255 0.013791844 -0.23472442 0.09877469
0.054730926 -0.139739 -0.10306286 0.07787463 -0.00021127766 -0.102404386 0.13437982 -0.10030668
0.16340405 -0.03153947 0.17647214 0.035398487 0.06425381 0.014368414 -0.0016474663 0.23046447
-0.078687474 0.035806667 -0.06818451 0.12673137 -0.114319086 0.16372482 0.20572826 0.094232395
-0.026000122 -0.13010481 0.0039576706 0.10930533 0.081847325 -0.0017625021 0.17411047 -0.039023276
-0.1653072 0.06465855 0.15038355 -0.07477138 0.002015916 0.036635246 0.037374314 0.1816935
-0.06716551 -0.026171848 -0.011847206 -0.1116802 -0.12427997 -0.00065920054 -0.09810197 -0.07296103
-0.10230134 0.16351408 -0.05474649 0.080385365 0.084238514 0.029109145 -0.18275706 0.07954007
0.071774475 -0.08973335 -0.01021335 0.01179143 -0.018058728 -0.084324345 0.03913125 -0.123312496
-0.08025952 0.032952886 -0.03844222 -0.15754269 -0.0769233 0.12428704 -0.09757107 -0.16753548
0.07442194 0.010935184 0.024204876 -0.13488577 0.008560233 0.034405764 0.12186128 -0.1750497
0.17330547 0.0025786797 0.028976234 -0.018342454 0.108465254 -0.0797781 -0.04806714 0.12916702
0.108613074 -0.083707586 -0.1116917 -0.017821059 -0.013347532 0.17310996 0.18020919 -0.028565736
-0.06625042 0.10955684 0.11631215 -0.022314074 0.14625573 0.17988464 0.1079929 0.15108138
-0.09292785 -0.06394271 -0.12249822 0.08192195 -0.053492576 -0.09246337 0.14206733 -0.117991954
-0.07249033 0.11059756 0.089147314 -0.08541233 -0.13765723 0.019766245 -0.018091222 -0.10331271
00000000: 3dd7 6a3d d61d 3c3d 4a27 b93c 4a48 d83c
00000010: 4d39 d9bc bc56 62be f1c7 09be 6898 1ebd
00000020: cddb 79bd b755 973d d28e 533d ff58 34bd
00000030: 5ad4 eabd 63a1 a4bd 1cec 763c f091 973d
00000040: 74bf 40bd d6ed 6ebd a2ba 883d 1b20 9abc
00000050: 015f 42be ce68 c93d fd54 ef3c 0ac2 eb3c
00000060: 190a 03be d660 cc3d 86d5 20bd 1546 00bc
00000070: f693 973b fe66 30be 7188 963d 19dd 203d
00000080: a32f be3d 44af a5bc 07be 453e e07e 003d
00000090: 59d9 b53d d60b 8cbe 092e 923d f738 573e
000000a0: deb6 10be 982d 11be 7447 efbb 8063 b13d
000000b0: 3fbc a4bd a9f3 d43d 6a1e 9f3d 89bb 1b3e
000000c0: 0f0a 80be d727 53bd 945b 2cbe 1ac8 3cbc
000000d0: 659d a3bc 9913 a63d 3195 bb3b 8a55 0b3c
000000e0: 62e2 0e3e a510 03be f104 403d 8a91 0c3e
000000f0: 5bfa 473c f3c2 393d ea7f cebd 52bb 573e
00000100: b714 92bd 05b9 20be 0e14 90bd 0af3 c33d
00000110: da9e 7cbd ef1d febd 585b 10be e8c8 023e
00000120: 10c7 013d 8bf2 af3d e1f7 95bc e4a9 e3bd
00000130: 7040 1dbd fc1c d9bc 18c3 913d 2b3a 113e
00000140: 0319 4ebd 4f7b 5f3d a5a6 47bd bdc2 82be
00000150: 7a7d 893d 1c2f 50be ee69 5f3e 6695 943d
00000160: 87f6 f5bb f04f 85bb 3ba6 f6bc 926b 893e
00000170: 9bd3 41bc fd97 89be 51b1 913d 19f0 6f3c
00000180: fddd 023e 1292 07be 3a96 56bd 5dc7 133e
00000190: 0929 a4bd bf4a 7e3d f75e 01bd fc4b e13d
000001a0: 4e52 6dbd 876b a23d 0342 253e 0d5b 383d
000001b0: a064 31bd a708 12be 2818 3bbe 0bd1 823d
000001c0: 2697 a8bd fc78 08bb 115b 44bd 6a06 bebd
000001d0: 51fa beba f128 093e 496e f43d a9c4 3fbe
000001e0: 4e28 3dbe c076 2ebd fb62 fb3c 4d42 f53d
000001f0: a299 ca3d a51a c63d 95a6 b63d 5b0b 1c3c
00000200: 5706 c53d 5c73 a93d 3d3c 8fbc 289f 913d
00000210: 47e9 1dbd 30f7 613c 995b 70be 624a ca3d
00000220: 892d 603d be17 0fbe 9f12 d3bd bc7c 9f3d
00000230: 6a8a 5db9 64b9 d1bd dd9a 093e 976d cdbd
00000240: 6453 273e 882f 01bd 1db5 343e 01fe 103d
00000250: 8097 833d 7f69 6b3c ccef d7ba e1fe 6b3e
00000260: e626 a1bd 03aa 123d 52a4 8bbd dec5 013e
00000270: 2020 eabd 7ba7 273e 6eaa 523e eafc c03d
00000280: 35fe d4bc 323a 05be 59af 813b 79db df3d
00000290: 929f a73d c203 e7ba 044a 323e dfd6 1fbd
000002a0: 4a46 29be b46b 843d 25fe 193e bd21 99bd
000002b0: 751d 043b d70e 163d cf15 193d dc0d 3a3e
000002c0: 128e 89bd 5866 d6bc c91a 42bc 97b8 e4bd
000002d0: 7f86 febd 33ce 2cba b0e9 c8bd 986c 95bd
000002e0: 5d83 d1bd 3c70 273e db3d 60bd 15a1 a43d
000002f0: 3e85 ac3d 4d76 ee3c ab24 3bbe e7e5 a23d
00000300: 7ffe 923d 1ec6 b7bd e555 27bc d830 413c
00000310: e6ef 93bc 3eb2 acbd 1748 203d 438b fcbd
00000320: 1a5f a4bd 9bf9 063d 9775 1dbd df52 21be
00000330: f789 9dbd 348a fe3d 57d3 c7bd 6c8e 2bbe
00000340: 886a 983d 7c29 333c 4e49 c63c 7f1f 0abe
00000350: 3840 0c3c 0fed 0c3d 6892 f93d 3b40 33be
00000360: fd76 313e 11ff 283b 915f ed3c ea42 96bc
00000370: 0823 de3d b362 a3bd 0de2 44bd 5c44 043e
00000380: 8870 de3d e26e abbd 9ebe e4bd 78fd 91bc
00000390: 9baf 5abc bd43 313e c288 383e b102 eabc
000003a0: 4dae 87bd 565f e03d 1135 ee3d 01cc b6bc
000003b0: 10c4 153e ae33 383e 622b dd3d 14b5 1a3e
000003c0: f550 bebd 65f4 82bd 59e0 fabd b2c6 a73d
000003d0: 081b 5bbd 6f5d bdbd 197a 113e c4a5 f1bd
000003e0: cf75 94bd f980 e23d de92 b63d a9ec aebd
000003f0: 04f6 0cbe d2ec a13c 0b34 94bc 9d95 d3bd
