ac_2d_model_para_5/checkpoint_1500.pth (torch, 291152 bytes, 17 tensors)

linear_layer.0.weight f4 [100, 3]
0	0x3e6528fa	0.22378913
1	0x3e225fcf	0.1585686
2	0xbe449bb5	-0.19200023
3	0x3c57a4a4	0.013161812
4	0xbd942286	-0.07233147
5	0x3de3af92	0.11117472
6	0x3d4b7b9b	0.049678426
7	0xbd7eeb29	-0.062235985
8	0xbe911802	-0.2833863
9	0x3e899a8d	0.26875725
10	0xbd1071c2	-0.035264738
11	0x3e5bf7c4	0.21481234
12	0xbe27eb3f	-0.16398333
13	0xbe1d89b3	-0.1538456
14	0xbebaa1b2	-0.3645149
15	0xbd8806d2	-0.06641926
16	0xbe4cbfca	-0.19995037
17	0xbe0772a2	-0.13227323
18	0xbdd606f2	-0.104505435
19	0x3e0a5ca0	0.13511896
20	0xbdfc4b7f	-0.12319087
21	0xbd9e7de7	-0.07738858
22	0xbd36b2b3	-0.044604015
23	0xbea99241	-0.33119395
24	0x3f07c800	0.5303955
25	0x3d4b0ab3	0.04957075
26	0x3ca2e23b	0.019883266
27	0xbe243eb2	-0.16039541
28	0xbe401ce8	-0.18761027
29	0xbd975f3a	-0.0739121
30	0x3d1e41b2	0.03863687
31	0xbe602a64	-0.2189117
32	0x3e080ff4	0.13287336
33	0xbde34318	-0.110967815
34	0x3d862ab6	0.06551115
35	0xbe72fd32	-0.23729399
36	0x3ed7e5c9	0.421675
37	0xbb913606	-0.004431489
38	0xbde975c6	-0.113994166
39	0x3e92c7ad	0.28667966
40	0xbc1c491b	-0.009538914
41	0x3e7d9164	0.24762493
42	0x3e48183a	0.19540492
43	0x3e212002	0.15734866
44	0x3e3aeec2	0.18255141
45	0xbe3c07d2	-0.18362358
46	0xbe48c784	-0.19607359
47	0x3cd91323	0.026498383
48	0x3ea2f0e8	0.31824422
49	0x3cb2e714	0.021838702
50	0xbe93d17d	-0.28870764
51	0xbe59f2d1	-0.21284033
52	0xbe193a31	-0.14963605
53	0xbe1eb15f	-0.15497349
54	0xbe9a9191	-0.30189183
55	0xbc8ef047	-0.017448558
56	0x3dc60a21	0.09669901
57	0x3e1e6ecb	0.15471952
58	0x3e254eb8	0.1614331
59	0xbe7238ec	-0.23654526
60	0x3db0b811	0.08628858
61	0xbe4e8809	-0.20169081
62	0x3da2e29d	0.07953379
63	0x3edf3e34	0.43602145
64	0xbdae6f2a	-0.085172966
65	0x3d9f6cd4	0.07784429
66	0xbe8d965d	-0.2765378
67	0xbe1dcfce	-0.15411302
68	0x3cc07dc1	0.023497464
69	0x3e1e9051	0.1548474
70	0x3cca9242	0.024727944
71	0xbef5e812	-0.48028618
72	0x3e7460ee	0.238651
73	0x3d0be9d8	0.034158558
74	0x3e9cc790	0.30621004
75	0x3e3ab072	0.18231371
76	0x3da9ae0e	0.082851514
77	0x3bbddd7f	0.0057942267
78	0xbea113bb	-0.31460366
79	0xbe5cf58b	-0.21578042
80	0xbdafe804	-0.08589175
81	0x3d635982	0.055505283
82	0x3e89b726	0.26897544
83	0x3d63450d	0.055485774
84	0x3e564017	0.20922886
85	0xbe588357	-0.21143852
86	0x3d5a26e1	0.053259734
87	0x3dd29eb2	0.10284175
88	0xbc9aa1e4	-0.018876024
89	0xbdd4b490	-0.10386002
90	0xbd40fc00	-0.047115326
91	0xbe25955a	-0.16170254
92	0xbe0eb907	-0.1393777
93	0x3ede2016	0.43383855
94	0x3c8675da	0.016413618
95	0x3ea75316	0.32680577
96	0x3dca9115	0.098909535
97	0xbe669b09	-0.22520079
98	0x3e05edf5	0.13079055
99	0xbeced64c	-0.4039787
100	0x3c8b9d1f	0.017042695
101	0xbdd9a5ae	-0.10627304
102	0x3d862872	0.06550683
103	0xbdc768e3	-0.097368024
104	0xbe943f1c	-0.289544
105	0x3e03e2ef	0.12879537
106	0xbe1370db	-0.1439852
107	0x3e54105e	0.20709369
108	0xbe232fce	-0.15936205
109	0x3e895103	0.2681962
110	0x3ca473e1	0.020074787
111	0x3e9005e6	0.281295
112	0x3e165b94	0.14683372
113	0x3d8272bb	0.06369539
114	0xbcee1b1d	-0.029065663
115	0xbdbb7765	-0.09153632
116	0xbecc178c	-0.39861715
117	0xbe111e99	-0.14171828
118	0xbce52bf5	-0.027975062
119	0xbe1b5f2c	-0.15173024
120	0x3db898c1	0.090135105
121	0x3dc2fb8d	0.09520636
122	0xbe0377b5	-0.12838633
123	0xbe46d747	-0.1941806
124	0xbc2ed9b4	-0.010672022
125	0x3e07fe61	0.13280632
126	0xbe729373	-0.2368906
127	0x3e2fd825	0.17172296
128	0xbe0299b2	-0.12753943
129	0x3e18a0d7	0.14905106
130	0xbd88380c	-0.06651315
131	0x3e80a912	0.2512899
132	0xbe21939f	-0.15778969
133	0x3e4ca11d	0.19983335
134	0x3e03522f	0.1282432
135	0xbd9d61f1	-0.076846965
136	0xbde51ddf	-0.11187338
137	0x3e16ae95	0.14715035
138	0xbeeb2a20	-0.45930576
139	0x3e211f77	0.15734659
140	0xbe90dab7	-0.28291866
141	0x3ecf200c	0.40454137
142	0x3a9a4c14	0.0011771941
143	0xbe04e873	-0.12979297
144	0x3dbdd906	0.092699096
145	0x3dc28bcc	0.094993204
146	0x3dc10df3	0.09426489
147	0x3ec6ae4e	0.3880486
148	0xbdd39204	-0.10330585
149	0xbdef5c77	-0.11687558
150	0x3e71c568	0.23610461
151	0x3de5e8ea	0.112260655
152	0xbdfe5d39	-0.124201246
153	0x3e518d00	0.20463943
154	0xbd63fad7	-0.05565914
155	0xbe193a35	-0.1496361
156	0xbddce364	-0.10785559
157	0x3e828fe6	0.2550041
158	0x3dc1c613	0.09461608
159	0x3c92579b	0.01786404
160	0x3d68e36f	0.056857523
161	0x3e83f881	0.2577553
162	0x3dfc2cf9	0.12313265
163	0x3daf4c9b	0.08559533
164	0x3ba9370b	0.0051640323
165	0x3eb1561c	0.3463601
166	0xbd95fd73	-0.07323732
167	0x3de16022	0.11004664
168	0x3f0d514a	0.5520216
169	0x3c729b4b	0.014807533
170	0xbc49e5e2	-0.012322875
171	0x3eb08897	0.3447921
172	0xbdf4ae68	-0.11947328
173	0xbe8332b2	-0.25624615
174	0x3eb1cbe3	0.34725866
175	0x3c08f824	0.008359943
176	0xbe132db2	-0.143729
177	0xbd6904e7	-0.05688944
178	0xbe353ab3	-0.17698173
179	0x3e89baaa	0.26900226
180	0xbe1251f5	-0.14289077
181	0x3df240b7	0.118287496
182	0xbbd8f706	-0.0066212444
183	0x3c3ef94e	0.011656119
184	0x3e91f4ab	0.2850698
185	0x3cc90d1a	0.02454238
186	0x3ea6dc8b	0.32590136
187	0xbe1a4329	-0.15064682
188	0xbd7cc0d4	-0.061707333
189	0xb9c01679	-0.00036637837
190	0x3df21e70	0.11822212
191	0xbe4b2d88	-0.19841588
192	0x3ed19184	0.40931332
193	0xbe1d80d3	-0.15381174
194	0x3d96b7e0	0.0735929
195	0x3cf0d507	0.029398454
196	0x3dd56ed0	0.104215264
197	0x3ea5359d	0.32267466
198	0x3e1a4ee5	0.15069158
199	0xbce4b350	-0.027917534
200	0xbebedc3f	-0.3727741
201	0xbef34ee4	-0.47521126
202	0xbce4209e	-0.027847584
203	0x3ddfecb4	0.109338194
204	0x3ec6a840	0.3880024
205	0xbdf2b123	-0.118501924
206	0x3c8cbcb7	0.01717983
207	0xbdc8f06f	-0.09811484
208	0x3dd51ea2	0.10406233
209	0x3ccf6e5f	0.025321184
210	0xbe947725	-0.2899715
211	0x3c7ee60c	0.015557777
212	0xbd157a2b	-0.03649346
213	0x3df2c9d1	0.118549
214	0x3e1e9f79	0.15490521
215	0x3db73ea3	0.08947494
216	0xbdb469ea	-0.08809264
217	0x3e88a388	0.26687264
218	0xbdc903a5	-0.09815148
219	0x3ddd59a9	0.10808117
220	0x3e1c3935	0.15256198
221	0xbe5b68ea	-0.2142674
222	0x3efd39e1	0.4945822
223	0x3d03f51d	0.03221618
224	0xbda6d751	-0.08146537
225	0xbcf0d855	-0.02940003
226	0x3eb45900	0.35224152
227	0x3e161ee2	0.14660218
228	0xbe2d2538	-0.16908729
229	0xbed33f49	-0.4125922
230	0x3e80fb55	0.2519175
231	0xbec08ce4	-0.3760749
232	0xbdc59ea6	-0.096494004
233	0xbe337959	-0.17526759
234	0xbcbaf34d	-0.022821093
235	0x3e5edc92	0.21763828
236	0xbbf289fd	-0.0074017034
237	0x3ceb0157	0.028687162
238	0xbe4b9089	-0.19879355
239	0x3d58d244	0.0529349
240	0x3e17006c	0.14746255
241	0xbd6830f8	-0.056687325
242	0xbd1ad10f	-0.03779703
243	0xbe161bc5	-0.1465903
244	0xbe502f1d	-0.20330472
245	0xbda2d5d1	-0.079509385
246	0xbe824f04	-0.2545091
247	0x3e2578bb	0.16159336
248	0x3daed66f	0.08536994
249	0x3e386b55	0.18009694
250	0xbde4d763	-0.11173894
251	0x3ef5088f	0.47858092
252	0x3e8cc4e5	0.2749397
253	0xbd0b7b9e	-0.034053437
254	0xbe895a39	-0.26826647
255	0x3e598300	0.21241379

linear_layer.0.bias f4 [100]
0	0xbcadec1c	-0.02123075
1	0xbd9308d6	-0.0717942
2	0x3e48d577	0.1961268
3	0xbd1eb3ca	-0.03874568
4	0x3caf6bd6	0.021413725
5	0xbcfda1a7	-0.03096087
6	0x3da68ced	0.08132348
7	0x3e0c21ad	0.13684721
8	0xbe460829	-0.1933905
9	0x3d65460c	0.055975005
10	0x3d6ade1f	0.057340737
11	0xbe065e34	-0.13121873
12	0x3e4a319f	0.19745491
13	0x3e5f0427	0.21778928
14	0x3d676624	0.056493893
15	0x3a57bb0f	0.0008229473
16	0xbe10718e	-0.14105818
17	0x3c98f5ef	0.018671958
18	0xbcf659ad	-0.030072058
19	0xbb856d50	-0.004071869
20	0xbdfed5ac	-0.124430984
21	0xbd91f4da	-0.0712678
22	0xbd3c860c	-0.046026275
23	0x3cc9f34d	0.024652148
24	0x3d3afe9d	0.045652974
25	0x3e2bb3ad	0.1676776
26	0x3dde244f	0.10846769
27	0xbd115b75	-0.03548761
28	0x3d6137c9	0.05498484
29	0xbdf58de0	-0.11989951
30	0xbd942642	-0.072338596
31	0xbc680132	-0.014160441
32	0x3e05e433	0.13075332
33	0xbdd8a665	-0.10578612
34	0xbda8a78a	-0.082350805
35	0x3d8d157e	0.06888865
36	0xbcdaa181	-0.02668834
37	0xbe378ce8	-0.17924845
38	0x3e221aa0	0.15830469
39	0x3e32ff2c	0.17480153
40	0x3dbea975	0.09309665
41	0xbd65b8bf	-0.05608439
42	0x3d986aff	0.07442283
43	0xbe98298e	-0.29719204
44	0x3cad6196	0.021164697
45	0xbdff4d6a	-0.124659374
46	0xbe061f15	-0.13097794
47	0x3cb8419d	0.022492224
48	0xbdc00baa	-0.09377225
49	0xbe4138de	-0.1886935
50	0x3e87f046	0.26550502
51	0x3dac37c9	0.08409078
52	0xbb1aa535	-0.0023597006
53	0xbe79bf8a	-0.24389473
54	0x3dd3fdbb	0.103511296
55	0x3df6198f	0.12016594
56	0x3cfeebc1	0.031118276
57	0xbc17ad3a	-0.009257609
58	0xbbc75d25	-0.0060841017
59	0x3c251df8	0.010077946
60	0xbdec84be	-0.11548756
61	0xbc98540e	-0.018594768
62	0x3b9f6d28	0.0048653074
63	0x3e2c87de	0.16848704
64	0xbe0c4352	-0.13697556
65	0x3db305c8	0.08741337
66	0xbe6511ec	-0.22370118
67	0xbb6c8da4	-0.0036095167
68	0xbdb2acf6	-0.08724396
69	0x3dce554f	0.10074865
70	0x3e3b069a	0.18264237
71	0xbdbd3a4b	-0.09239634
72	0xbdd049df	-0.1017034
73	0x3e5d0a2b	0.2158591
74	0xbc8387bb	-0.016055932
75	0x3cf952a1	0.030434908
76	0x3c9aa236	0.018876176
77	0x3da4e1b2	0.080508605
78	0xbdf73d73	-0.120722674
79	0xbcf49154	-0.029854454
80	0x3e1e5470	0.15461898
81	0x3e052ea1	0.13006069
82	0xbd5f0f8c	-0.054458186
83	0x3c718195	0.014740367
84	0x3d0a8642	0.033819444
85	0x3d59e5b3	0.053197574
86	0x3e024558	0.12721765
87	0x3e1ec221	0.15503742
88	0xbde14060	-0.10998607
89	0xbdd39ce1	-0.10332657
90	0xbe0d1e7d	-0.13781162
91	0xbe4baa85	-0.19889267
92	0xbd930c85	-0.07180122
93	0x3e08358b	0.13301675
94	0xbd1db4fe	-0.038502686
95	0x3d2a2383	0.041537773
96	0x3e861fc7	0.2619612
97	0x3d83377e	0.06407069
98	0xbd9d8847	-0.076920085
99	0x3d65b7ef	0.056083616

linear_layer.1.weight f4 [100, 100]
0	0x3d665ff5	0.056243856
1	0x3e1aee36	0.15129933
2	0xbd859588	-0.065226614
3	0xbcc04e2b	-0.023474773
4	0xbc792792	-0.015207188
5	0x3b927cc6	0.0044704406
6	0x3dcc99e9	0.099902935
7	0x3d6a9269	0.057268534
8	0x3e1885c3	0.14894776
9	0xbe1b1fc9	-0.15148844
10	0xbda26614	-0.07929626
11	0x3c3251d1	0.010883764
12	0xbe79b002	-0.24383548
13	0xbd9975a7	-0.074931435
14	0x3d879baf	0.06621491
15	0x3d8b60af	0.0680555
16	0xbe60c4c3	-0.21950059
17	0xbe1d2aeb	-0.15348403
18	0x3e57bf09	0.21068968
19	0x3b3c7ef5	0.0028762196
20	0xbdb91dee	-0.09038912
21	0x3de10d53	0.109888695
22	0x3d0ee624	0.034887448
23	0x3e1c832c	0.15284413
24	0xbd8e6800	-0.0695343
25	0x3b81a71c	0.0039566886
26	0xbdaf324a	-0.08554514
27	0xbc5eb2c9	-0.01359243
28	0xbe71e549	-0.23622622
29	0xbdb70ad1	-0.0893761
30	0xbc535246	-0.0128980335
31	0xbba6b627	-0.005087632
32	0xbd2de41c	-0.04245387
33	0x3e6b1483	0.22957043
34	0xbda926ec	-0.08259377
35	0xbd820286	-0.063481376
36	0xbdbac312	-0.09119238
37	0xbc3c0a1e	-0.0114770215
38	0x3e04b59a	0.129599
39	0xbe124b75	-0.14286597
40	0x3d51f60b	0.051260035
41	0x3e24615b	0.16052763
42	0xbe0e192b	-0.13876788
43	0xbd64d3a1	-0.055865888
44	0x3afd1d39	0.0019311077
45	0xbd0a422e	-0.03375452
46	0x3d68598a	0.056726016
47	0x3cd32936	0.025776487
48	0x3b036aae	0.00200526
49	0x3dfc0ca2	0.12307097
50	0xbc5b5776	-0.0133875515
51	0xbe919861	-0.28436568
52	0x3ded3813	0.11582961
53	0x3dbef9b5	0.093249716
54	0xbd0aac91	-0.03385598
55	0xbe5f316c	-0.21796197
56	0xbe132896	-0.14370951
57	0xbd9cd444	-0.07657674
58	0x3e1bfd1e	0.15233275
59	0x3e2ddc37	0.16978537
60	0x3c60ee1a	0.013728643
61	0x3d822a99	0.06355781
62	0xbc2f269a	-0.010690356
63	0xbe246660	-0.16054678
64	0xbcc29285	-0.023751507
65	0x3e3a6e3e	0.18206117
66	0xbc4b0345	-0.012390916
67	0x3d610a33	0.054941367
68	0x3cc589ec	0.024113618
69	0xbdb58b32	-0.0886444
70	0x3c28d899	0.010305547
71	0x3dca01c3	0.09863617
72	0xbd94cc5d	-0.07265542
73	0x3d2a65fb	0.041601162
74	0xbe7f6857	-0.24942146
75	0x3cf43843	0.029811984
76	0xbd1fa203	-0.038972866
77	0x3c0ef127	0.008724487
78	0xbe32e990	-0.1747191
79	0xbdf02d4c	-0.1172739
80	0xbd07764d	-0.033071805
81	0xbc5256ed	-0.0128381075
82	0xbccf5261	-0.025307836
83	0xbdccefa4	-0.10006645
84	0x3d729469	0.059223566
85	0x3e00ef61	0.12591316
86	0xbcf0d940	-0.029400468
87	0xbd9d59f5	-0.076831736
88	0x3dbf9bdc	0.093559
89	0x3df9cf5c	0.12197754
90	0xbbcb38da	-0.0062018456
91	0x3e08daac	0.13364667
92	0xbdb3cef8	-0.087797105
93	0xbd8494fa	-0.064737275
94	0xbc063a07	-0.008192546
95	0xbdd8618d	-0.10565481
96	0xbd80c884	-0.06288245
97	0xbc9c4756	-0.019076984
98	0xbe05b3cb	-0.13056867
99	0xbda1d8c6	-0.079026744
100	0x3d4584ee	0.048222475
101	0x3e5f1bc9	0.21787943
102	0xbcc01082	-0.023445372
103	0x3d7b3be1	0.0613364
104	0xbd62a81c	-0.055336103
105	0xbe2c74ff	-0.16841505
106	0x3e094ecc	0.13408965
107	0xbe8e9da0	-0.27854633
108	0xbd4a5e2f	-0.049406227
109	0xbd9204f5	-0.07129852
110	0xbd8840f2	-0.06653012
111	0x3d1de2b1	0.038546268
112	0x3ddddb3c	0.10832831
113	0x3df51193	0.11966243
114	0x3e237b91	0.15965106
115	0xbe18d764	-0.14925915
116	0xbd2db099	-0.042404745
117	0xbe9278d6	-0.28607816
118	0x3c590a08	0.013247021
119	0x3e41cc59	0.18925609
120	0xbde648f5	-0.11244384
121	0xbcba4687	-0.022738708
122	0x3cf1e7ff	0.02952957
123	0x3df36321	0.11884142
124	0x3e41c6e6	0.1892353
125	0x3da3ae05	0.07992176
126	0xbdbb51c8	-0.09146458
127	0x3df5afe6	0.119964406
128	0xbdfbfccf	-0.12304079
129	0xbda59c9b	-0.08086511
130	0xbd8dcd24	-0.06923893
131	0xbdd0e116	-0.10199182
132	0x3e32d3f2	0.17463663
133	0xbde7b5b1	-0.11313952
134	0xbddd62fb	-0.10809895
135	0x3d1437aa	0.036185898
136	0x3e4102ac	0.18848675
137	0x3c951de4	0.01820273
138	0xbce02ced	-0.027365172
139	0xbdabe77d	-0.08393762
140	0x3e4ef81d	0.20211835
141	0xbdcadcae	-0.099053726
142	0x3e00abb4	0.125655
143	0xbe38e611	-0.18056513
144	0x3e4d775b	0.20065062
145	0xbe6b9852	-0.23007324
146	0xbe8a61c7	-0.27027723
147	0xbd8817b4	-0.06645146
148	0x3d1dc7d8	0.038520664
149	0xbdc06718	-0.093946636
150	0xbc858b1e	-0.016301688
151	0xbd0d7b89	-0.03454164
152	0x3db33b8f	0.08751594
153	0xbe2da521	-0.16957523
154	0xbd290f43	-0.04127432
155	0x3dc4b93d	0.09605644
156	0x3cd2c542	0.025728825
157	0xbd9ac14a	-0.07556398
158	0xbdf68d62	-0.120386854
159	0xbd2c5515	-0.042073328
160	0x3e08ede5	0.13372
161	0xbdb61e6a	-0.0889252
162	0xbca5e5e5	-0.020251224
163	0x3d6be4f7	0.057591405
164	0xbe0f0517	-0.13966785
165	0x3e189971	0.14902283
166	0xbd1a1d4e	-0.037625603
167	0xbe3b49e9	-0.18289913
168	0xbebfbecc	-0.37450254
169	0x3e6ed7ef	0.2332456
170	0xbc99a8bc	-0.018757217
171	0x3da0f5b9	0.07859368
172	0x3d3dfdd4	0.046384647
173	0x3e0a64b7	0.13514982
174	0x3de53e3d	0.11193512
175	0x3e3f654f	0.1869099
176	0x3bfea3eb	0.0077710054
177	0xbb8f7cea	-0.0043789046
178	0xbde41e00	-0.111385345
179	0x3d48c91c	0.049019918
180	0x3e5055cb	0.20345227
181	0xbe5199a1	-0.20468761
182	0xbd25f64b	-0.040518086
183	0x3da6e301	0.08148766
184	0x3c799aa9	0.015234628
185	0xbd9f2291	-0.07770265
186	0x3d04c497	0.032414045
187	0x3d1eec6c	0.03879969
188	0x3c5afd9d	0.01336613
189	0xbe095e1b	-0.13414805
190	0x3da72134	0.0816063
191	0xbe02a416	-0.12757906
192	0x3ceb5f86	0.028732073
193	0xbdc44718	-0.095838726
194	0x3dfa5746	0.12223677
195	0xbe069f64	-0.1314674
196	0x3e24476b	0.16042869
197	0x3e105238	0.14093864
198	0xbdef4d94	-0.11684719
199	0x3e4c7787	0.19967471
200	0xbde4f77a	-0.11180015
201	0xbd4cfe0e	-0.050046973
202	0x3dd5c65c	0.10438225
203	0xbd86ebf5	-0.06587974
204	0xbe03f075	-0.12884696
205	0x3d441e9b	0.04788075
206	0xbd05fccc	-0.03271179
207	0x3e1a2121	0.150517
208	0xbe440c7e	-0.1914539
209	0xbce18e9e	-0.027533825
210	0x3dae8e6f	0.08523261
211	0x3d166eaf	0.03672665
212	0xbdd54ff7	-0.10415643
213	0x3c20787f	0.0097943535
214	0x3cef0c82	0.029180769
215	0xbcf492eb	-0.029855212
216	0xbc9b42ce	-0.018952753
217	0x3dff97a8	0.12480098
218	0xbe25d542	-0.16194633
219	0xbe2bf760	-0.16793585
220	0x3d9abe6a	0.0755585
221	0x3d9b1845	0.075729884
222	0x3d1bc5ef	0.03803056
223	0xbe0b198f	-0.13583969
224	0xbe2348ae	-0.15945694
225	0xbe2afe91	-0.16698672
226	0x3d3a6bea	0.04551307
227	0x3d9d65de	0.07685445
228	0xbd2359a6	-0.039880417
229	0x3dcb7c72	0.099358454
230	0xbe0161f3	-0.12635021
231	0xbd9b5197	-0.075839214
232	0x3d068084	0.032837406
233	0x3c139a7b	0.009008999
234	0x3c87fd2c	0.016600214
235	0x3be43d77	0.006965335
236	0xbdd36c82	-0.103234306
237	0xbdae1532	-0.085001364
238	0xbd883797	-0.06651228
239	0x3c8e1baa	0.017347176
240	0x3e6aff89	0.22949041
241	0x3e4e32e8	0.20136607
242	0xbcaf50a7	-0.021400763
243	0x3e0d257e	0.13783833
244	0xbdff82b8	-0.124761045
245	0x3e1535f5	0.14571364
246	0x3de6a883	0.1126261
247	0xbe0bc957	-0.13651024
248	0xbd8c0c13	-0.068382405
249	0xbdbcd94a	-0.09221132
250	0x3d46be6c	0.048521444
251	0x3bd7ba68	0.0065835007
252	0xbd3dc03b	-0.046325903
253	0xbd816878	-0.06318754
254	0xbe175e28	-0.14782012
255	0xbd0788b3	-0.03308935

linear_layer.1.bias f4 [100]
0	0xbda566e5	-0.08076266
1	0x3da82124	0.08209446
2	0xbcc87be6	-0.024473142
3	0x3e3bb8ed	0.18332262
4	0xbcb02438	-0.021501645
5	0xbd8267df	-0.06367468
6	0xbde8d94c	-0.11369571
7	0x3e029fa3	0.12756209
8	0xbddfc8f9	-0.10927004
9	0x3d9e33fe	0.077247605
10	0xbda89d16	-0.08233087
11	0xbcace22c	-0.02110394
12	0x3e09c2c1	0.13453199
13	0x3dc28dc4	0.09499696
14	0xbd900400	-0.07032013
15	0xbd9a401a	-0.07531758
16	0x3ae45698	0.0017420826
17	0x3dfee76e	0.124464855
18	0x3caa43f0	0.020784348
19	0xbd6f4b01	-0.05842114
20	0xbd52e1d5	-0.0514849
21	0x3d37fce5	0.044918913
22	0xbcf73f0d	-0.030181432
23	0x3daaa2dc	0.08331844
24	0x3e0776fa	0.1322898
25	0x3d004b12	0.031321593
26	0x3e195db5	0.14977153
27	0xbd5adfc8	-0.05343607
28	0xbdbcebe9	-0.09224684
29	0xbd816315	-0.063177265
30	0xbe65fee4	-0.22460514
31	0x3de664b4	0.11249676
32	0x3b87d988	0.004145805
33	0xbdbfc6b0	-0.093640685
34	0xbd90cb01	-0.0706997
35	0x3d9aecf8	0.075647295
36	0x3e04317b	0.129095
37	0xbe0ea0f2	-0.13928583
38	0x3c305d5a	0.010764444
39	0xbca25a23	-0.019818371
40	0xbde3cc9d	-0.11123011
41	0xbe04b553	-0.12959795
42	0x3d03f426	0.03221526
43	0x3e21337e	0.15742299
44	0xbd8e3add	-0.06944821
45	0x3c2c1389	0.010502704
46	0x3ac4afa0	0.0015005954
47	0xbe095a91	-0.13413455
48	0x3d81a92b	0.06331094
49	0xbdd86097	-0.10565298
50	0xbd4b271b	-0.04959784
51	0xbc09a1e3	-0.008400413
52	0xbb703678	-0.003665356
53	0xbdeccc19	-0.11562366
54	0x3c3489ec	0.011019211
55	0x3cc2ef22	0.023795668
56	0x3e0c05b7	0.13674055
57	0xbdb3a83b	-0.08772322
58	0xbb3bef1a	-0.0028676451
59	0x3cfe7e3e	0.031066056
60	0xbe03e681	-0.12880899
61	0xbbccfa7d	-0.0062554465
62	0x3d11673b	0.03549884
63	0x3e2ab3aa	0.16670099
64	0x3d1d7c79	0.038448785
65	0x3d17c310	0.03705126
66	0xbddba9e7	-0.10725766
67	0x3cb0c399	0.021577643
68	0x3b74aadf	0.0037333292
69	0xbe2c939b	-0.16853182
70	0xbdc0d1c4	-0.094150096
71	0x3bea2518	0.007145535
72	0xbd31340f	-0.043262538
73	0xbd189380	-0.037250042
74	0x3d9d7b2f	0.07689511
75	0x3c1d1433	0.009587335
76	0x3da2e235	0.07953302
77	0xbe03493c	-0.12820905
78	0x3d71baee	0.05901616
79	0xbd4de2b0	-0.050265014
80	0xbe0ccd85	-0.13750274
81	0xbd8fce2b	-0.07021745
82	0x3d0683bf	0.032840487
83	0xbcee2352	-0.029069576
84	0x3dc1b1bf	0.094577305
85	0x3c8901ff	0.016724585
86	0xbbefaf05	-0.007314565
87	0x3d703187	0.058640983
88	0x3e21f108	0.15814602
89	0xbd0110fa	-0.03151033
90	0xbdb18523	-0.08667972
91	0xbe3447b4	-0.17605478
92	0x3dc0ed08	0.0942021
93	0x3cdef15a	0.027214695
94	0x3d4dabf5	0.05021282
95	0x3d1cba9e	0.03826391
96	0x3d85ca49	0.065327235
97	0xbbfb3c2c	-0.007667085
98	0xbc409eae	-0.011756582
99	0x3db7a344	0.08966687

linear_layer.2.weight f4 [100, 100]
0	0xbd599f29	-0.053130303
1	0x3cdcff48	0.026977196
2	0x3d87704c	0.06613216
3	0xbe805880	-0.2506752
4	0x3dbe5b75	0.09294788
5	0xbd25d210	-0.040483534
6	0x3d7cd352	0.06172497
7	0xbdb5923d	-0.08865783
8	0x3dc6cb86	0.09706788
9	0xbd629aa1	-0.055323247
10	0xbd2f5083	-0.04280139
11	0x3d17bab3	0.037043285
12	0xbd807dd1	-0.062739976
13	0xbdbfa46b	-0.09357532
14	0x3cd7689a	0.026294995
15	0xbe0bee7a	-0.1366519
16	0x3d41dd92	0.047330447
17	0xbdb2c215	-0.087284245
18	0xbd10f9a8	-0.03539434
19	0x3e048198	0.12940061
20	0x3cdde4bc	0.027086608
21	0x3d42c380	0.047549725
22	0xbd801486	-0.062539145
23	0xbd9753c2	-0.073890224
24	0xbe043c3b	-0.12913601
25	0x3b099845	0.00209953
26	0xbe64d891	-0.22348239
27	0xbc8ca471	-0.017168256
28	0x3cd9ef82	0.026603464
29	0xba77ae9f	-0.0009448323
30	0x3d504a5d	0.05085217
31	0xbd5e7c61	-0.054317836
32	0x3c700994	0.014650721
33	0x3ba9defb	0.005184052
34	0x3d8d3153	0.068941735
35	0xbc168e2a	-0.009189168
36	0xbcd38c1f	-0.02582365
37	0x3e997769	0.29973915
38	0x3ceef8f7	0.02917145
39	0xbd8a5a9d	-0.06755564
40	0x3e11a2f8	0.14222324
41	0x3e2b4796	0.16726527
42	0x3d9cf680	0.07664204
43	0x3c18f561	0.009335847
44	0x3dfbb56e	0.12290464
45	0xbc80191e	-0.015636977
46	0x3dede938	0.116167486
47	0x3d450d66	0.04810848
48	0xbe24b525	-0.16084726
49	0x3df40b12	0.11916174
50	0x3c4328da	0.011911595
51	0x3d7e4635	0.062078673
52	0xbe09d376	-0.13459572
53	0x3d2dde9a	0.042448618
54	0xbdeaef89	-0.11471469
55	0xbd0a2e16	-0.033735357
56	0xbeab6fef	-0.33483836
57	0x3d63c74a	0.05560998
58	0x3dba4078	0.09094328
59	0x3c45474d	0.012040925
60	0xbd0767e7	-0.033058073
61	0x3b844e62	0.0040376643
62	0xbccd3902	-0.025051598
63	0xbcca8958	-0.024723694
64	0x3d0ba714	0.034094885
65	0x3e002d66	0.12517318
66	0x3d7b9861	0.061424617
67	0xbd68c286	-0.056826137
68	0x3db4cac5	0.08827738
69	0x3ce6934c	0.028146408
70	0x3e78d1cc	0.24298781
71	0x3e827a48	0.25483918
72	0x3c90e7fc	0.017688744
73	0xbe00cef0	-0.1257894
74	0xbe4dae99	-0.20086135
75	0x3ce42ac8	0.027852431
76	0xbd1819b0	-0.037133873
77	0xbc83a577	-0.01607011
78	0xbd9d88ff	-0.076921456
79	0x3dd089e2	0.10182549
80	0xbdb11e3e	-0.08648346
81	0x3d601d7e	0.054715626
82	0xbc36e249	-0.011162349
83	0x3dda7512	0.10666861
84	0x3e6f751c	0.23384517
85	0xbe08836f	-0.13331388
86	0x3e268d9c	0.16264957
87	0xbe8ae883	-0.27130517
88	0xbd9e2e40	-0.07723665
89	0xbde9d8e4	-0.11418322
90	0x3d50816b	0.050904673
91	0x3e12762b	0.1430289
92	0x3ac4d5a2	0.0015017281
93	0xbdf18661	-0.11793209
94	0xbd014980	-0.031564236
95	0xbcedf5b9	-0.029047834
96	0xbd8d2199	-0.06891174
97	0x3c9f6559	0.019457506
98	0x3c3d4383	0.011551741
99	0x3d5e79af	0.054315265
100	0xbc70896c	-0.014681201
101	0x3ca2d0a8	0.019874886
102	0xbd4482a6	-0.04797616
103	0xbeab03e7	-0.33401415
104	0x3b848b40	0.00404492
105	0x3d99e76d	0.07514844
106	0x3da2fb6a	0.0795811
107	0xbe872c89	-0.26401165
108	0x3d4e2e61	0.0503372
109	0xbe136232	-0.14392927
110	0x3de97da6	0.11400919
111	0xbe027e68	-0.12743533
112	0xbda0e71c	-0.078565806
113	0xbe990943	-0.2988988
114	0xbdb57f99	-0.08862228
115	0x3d13e483	0.036106598
116	0xbba9b3ec	-0.005178919
117	0xbdda1d54	-0.10650125
118	0x3da82be0	0.082114935
119	0x3d72fdfd	0.059324253
120	0x3de665a1	0.11249853
121	0x3e0e8490	0.13917756
122	0xbc391adc	-0.011297908
123	0xbd9c0800	-0.076187134
124	0x3d337d81	0.04382086
125	0x3d5c0bef	0.05372232
126	0xbe88e7f4	-0.26739466
127	0x3dbe9e8b	0.093075834
128	0x3dbb78bf	0.0915389
129	0x3c5f3c88	0.013625272
130	0x3df8498f	0.12123405
131	0xbe5bef65	-0.2147804
132	0x3e8c0a97	0.2735183
133	0x3dd7d0ca	0.1053787
134	0xbd312ea4	-0.04325737
135	0xbda800ff	-0.08203315
136	0xbb45e6f6	-0.0030197478
137	0x3daeab1d	0.08528731
138	0x3e70e102	0.23523334
139	0xb953a46b	-0.00020183779
140	0x3e41ae13	0.1891406
141	0xbbc74ef7	-0.0060824114
142	0x3e173c4d	0.14769097
143	0x3c86ba0f	0.016446142
144	0x3e028107	0.12744533
145	0x3e378da9	0.17925133
146	0xbe329840	-0.17440891
147	0x3d73ec76	0.05955168
148	0xbe659e44	-0.22423655
149	0x3da23459	0.07920141
150	0xbcc66418	-0.02421765
151	0xbe293eb4	-0.16527826
152	0x3db20255	0.08691851
153	0x3daaaf16	0.08334176
154	0x3e62a1a6	0.22131976
155	0x3e1b974a	0.15194431
156	0xbdb278f8	-0.08714479
157	0x3c8bb314	0.017053165
158	0xbd7f132a	-0.062274136
159	0xbd96efc4	-0.073699504
160	0x3d4812d7	0.048846092
161	0x3e17580a	0.14779678
162	0x3e41ac54	0.18913394
163	0xbcfd7ced	-0.030943358
164	0xbe7d4fd2	-0.2473748
165	0xbd7c660f	-0.06162077
166	0x3c1d2657	0.00959166
167	0x3c977fdf	0.01849359
168	0x3c311648	0.010808535
169	0x3d2c6223	0.042085778
170	0xbc7683cf	-0.015046074
171	0x3d9195a7	0.07108622
172	0x3c94ec12	0.018178973
173	0xbe004821	-0.12527515
174	0xbafd7883	-0.0019338283
175	0xbda416a2	-0.08012129
176	0xbb83cd80	-0.0040223002
177	0x3df302fc	0.118658036
178	0x3bc03953	0.0058662086
179	0x3dc40922	0.095720544
180	0x3ca36e40	0.019950032
181	0xbdaf441a	-0.08557911
182	0xbe03dac6	-0.12876424
183	0xbe1b13fd	-0.15144344
184	0xbd3b5802	-0.045738228
185	0x3e07c9e2	0.13260606
186	0x3d6c06b0	0.057623565
187	0xbdf940f9	-0.12170596
188	0xbcd5a0c2	-0.026077632
189	0xbd84ba78	-0.064808786
190	0x3d53e01b	0.051727396
191	0x3dd5e3f0	0.10443866
192	0x3d47ddc9	0.048795495
193	0xbe0ad2e7	-0.13557015
194	0xbc093487	-0.00837434
195	0xbdc78d92	-0.09743799
196	0x3d5d99a0	0.054101586
197	0x3d249ff8	0.04019162
198	0x3c8df252	0.017327461
199	0xbd43c0ed	-0.04779141
200	0xbcd34de3	-0.025793975
201	0xbdc032de	-0.09384702
202	0xbd059645	-0.03261401
203	0x3d5cecaa	0.053936638
204	0x3e1e8b59	0.15482844
205	0xbdad8c4b	-0.084740244
206	0x3da168e1	0.07881332
207	0x3d05eef1	0.032698575
208	0xbd6e7dc3	-0.058225404
209	0x3e4cdffe	0.20007321
210	0xbe253047	-0.16131698
211	0xbe0619d1	-0.13095786
212	0xbdc70e05	-0.09719471
213	0xbe29bf41	-0.16576864
214	0xbd1d67a3	-0.038428914
215	0x3d851491	0.06498063
216	0x3e3b7339	0.18305673
217	0x3dcd0cae	0.10012184
218	0xbe27b2a8	-0.16376746
219	0xbbfc79b0	-0.007704936
220	0xbe07ce3f	-0.1326227
221	0x3df29c54	0.118462235
222	0xbe819651	-0.25309995
223	0x3da27e7c	0.07934281
224	0xbddcaf43	-0.10775616
225	0xbda75057	-0.081696205
226	0x3deb0ce6	0.114770696
227	0x3c88b625	0.016688416
228	0xbe21024d	-0.15723534
229	0x3d6f4512	0.05841548
230	0xbe0bf9f0	-0.13669562
231	0x3dc352c4	0.09537271
232	0xbdaacfe7	-0.083404355
233	0x3d130500	0.03589344
234	0xbd4530a6	-0.048142098
235	0x3e0116d7	0.12606369
236	0xbd85162d	-0.0649837
237	0xbe380789	-0.17971624
238	0xbc2ac682	-0.0104233045
239	0x3d8c716e	0.068575725
240	0xbe1361be	-0.14392754
241	0x3c4dc9bc	0.012560304
242	0xbded1106	-0.115755126
243	0x3b3ba552	0.0028632474
244	0x3c5860ee	0.013206704
245	0xbdb9578c	-0.09049901
246	0xbba0716c	-0.0048963334
247	0x3c294c54	0.010333139
248	0xbcd674d8	-0.026178762
249	0xbd19f349	-0.03758553
250	0xbe0e90eb	-0.1392247
251	0x3d772f8f	0.06034809
252	0xbddf51cc	-0.109042734
253	0x3d073391	0.033008162
254	0x3cb7b701	0.02242613
255	0x3c970dba	0.018439163

linear_layer.2.bias f4 [100]
0	0xbd863873	-0.065537356
1	0xbd6585be	-0.05603575
2	0x3c98d2dc	0.018655233
3	0x3d0c954d	0.03432207
4	0x3c9724cf	0.018450169
5	0x3d32512e	0.04353445
6	0x3d6dd7ab	0.058067005
7	0x3c8cba8c	0.017178796
8	0xbc1ac20f	-0.009445681
9	0x3d06a24d	0.032869626
10	0xbd163d56	-0.03667959
11	0xbd7f90c5	-0.062393922
12	0xbdca67f5	-0.098831095
13	0x3e31407a	0.17309752
14	0xbc86159d	-0.016367728
15	0xbccb9b98	-0.024854466
16	0xbd938a4a	-0.07204111
17	0x3e106760	0.14101934
18	0x3c1f7a01	0.009733678
19	0xbcebbe7a	-0.02877735
20	0xbe030b4b	-0.12797277
21	0xbd4ca1fb	-0.049959164
22	0x3c5e14a3	0.013554725
23	0x3dae9877	0.08525174
24	0x3cca18b7	0.024669988
25	0xbd758692	-0.05994279
26	0xbd52e2e4	-0.05148591
27	0xbd8d80f9	-0.06909365
28	0x3d7f1382	0.062274463
29	0xbd90a190	-0.070620656
30	0xbde93ba9	-0.113883324
31	0xbd2e0ad9	-0.042490814
32	0x3cfd1ef2	0.030898545
33	0x3d5ded66	0.05418148
34	0xbc9f1c24	-0.019422598
35	0xbd9e3e8f	-0.07726776
36	0xbd031e9e	-0.03201162
37	0xbd745a01	-0.059656147
38	0xbcf0b61b	-0.02938371
39	0xbd015d9a	-0.031583406
40	0xbd1ec27e	-0.0387597
41	0xbdc9717b	-0.09836098
42	0xbd1608bd	-0.036629427
43	0x3d0de0e6	0.034638308
44	0x3c44cd84	0.012011889
45	0x3cd8af1b	0.026450684
46	0x3ce7b51d	0.028284604
47	0x3bc8f215	0.006132374
48	0x3b584737	0.0033001432
49	0x3c0d8604	0.008637909
50	0xbcbb4a3b	-0.022862544
51	0x3b9708e7	0.0046092155
52	0x3da80b53	0.08205285
53	0x3dd09f1d	0.101865984
54	0x3d88471e	0.066541895
55	0xbeab680f	-0.33477828
56	0xbd849da6	-0.064753816
57	0xbc969ecc	-0.018386267
58	0x3be2a6e5	0.006916868
59	0xbd5eb2fa	-0.054369904
60	0x3e26fdc1	0.16307737
61	0x3d462168	0.048371702
62	0x3e1e9cea	0.15489545
63	0x3d0896ce	0.033346944
64	0xbd294aa3	-0.041330945
65	0xbcd9a8ab	-0.026569685
66	0xbd8f1a4d	-0.06987438
67	0x3c05a73e	0.008157549
68	0xbe5f4dd7	-0.21807037
69	0x3c3ffd6f	0.011718138
70	0x3c891561	0.016733827
71	0x3cf90885	0.03039957
72	0x3c93ceac	0.018042885
73	0xbbf8c51e	-0.0075918576
74	0xbcca9c12	-0.024732623
75	0xbd687f51	-0.056762043
76	0xbc808845	-0.015689978
77	0x3c133b74	0.008986343
78	0x3ce6178c	0.0280874
79	0xbdb94fee	-0.090484485
80	0xbd8db05d	-0.06918404
81	0xbc9c4434	-0.01907549
82	0xbdca8f04	-0.09890559
83	0xbd21cc70	-0.039501607
84	0x3d340065	0.04394569
85	0x3d610381	0.054934982
86	0x3c8a8ff3	0.016914343
87	0x3e59f175	0.21283515
88	0xbd1d1785	-0.038352508
89	0xbbabc506	-0.005241993
90	0x3c963c77	0.018339379
91	0x3d390b26	0.045176648
92	0xbc8768c4	-0.016529448
93	0xbe9182a0	-0.2841997
94	0x3bbe8f26	0.0058154045
95	0xbd937471	-0.07199944
96	0xbd2db349	-0.042407308
97	0x3c611de2	0.013740035
98	0xbd82245c	-0.06354591
99	0xbc9d39dc	-0.019192629

linear_layer.3.weight f4 [100, 100]
0	0xbe290506	-0.16505823
1	0x3dd10e0f	0.102077596
2	0xbd49a9e2	-0.04923428
3	0x3e28013c	0.16406721
4	0xbb79ef2d	-0.0038136945
5	0xbcbb66dd	-0.022876197
6	0x3d7810e7	0.060562994
7	0x3ddb5faf	0.107116096
8	0xbdec3f76	-0.11535542
9	0xbdcc893b	-0.09987112
10	0xbe61537e	-0.22004506
11	0x3d9b6bf1	0.075889476
12	0xbe121843	-0.14267068
13	0x3f17f469	0.59357315
14	0xbd78a553	-0.06070454
15	0x3d123523	0.035695206
16	0xbe81e094	-0.25366652
17	0x3e1b0dbb	0.15141957
18	0xbdbed72c	-0.093183845
19	0x3c962503	0.018328195
20	0xbecf8f3b	-0.40538964
21	0xbdfa74db	-0.1222932
22	0xbcfbd1a5	-0.030739615
23	0x3e1105ae	0.14162323
24	0x3ba49304	0.0050224084
25	0x3d94ad8c	0.07259664
26	0xbc856694	-0.016284265
27	0xbd928cb9	-0.07155747
28	0x3e5f025b	0.21778242
29	0xbc642a09	-0.013926038
30	0xbe20fd31	-0.15721585
31	0xbe0fd2fd	-0.1404533
32	0xbdff3945	-0.12462095
33	0xbd0d8b8c	-0.03455691
34	0xbd83de33	-0.064388655
35	0xbc88569f	-0.016642867
36	0xbe9c4cd7	-0.30527374
37	0xbe55e6f2	-0.2088888
38	0xbe761380	-0.24030876
39	0xbdee62da	-0.11639948
40	0x3e0a8024	0.13525444
41	0xbe4ff32e	-0.2030761
42	0xbe2493f6	-0.16072068
43	0x3e14e851	0.14541747
44	0x3d22ab9c	0.03971444
45	0xbc9b47a9	-0.018955069
46	0x3d5ba742	0.053626306
47	0x3e2ea86d	0.17056437
48	0xbe7d73ca	-0.24751201
49	0x3de30d80	0.11086559
50	0x3dfe0766	0.12403755
51	0xbd80f65b	-0.062969886
52	0xbce099a1	-0.027417006
53	0x3e9b9f30	0.30394888
54	0x3e7aa27a	0.24476042
55	0x3b5a1898	0.003327882
56	0x3db3f4d0	0.08786929
57	0xbe23e813	-0.16006498
58	0xbe20b48e	-0.15693876
59	0xbe0689e1	-0.13138534
60	0x3c7f0df1	0.015567289
61	0xbe08fb10	-0.13377023
62	0x3e9d6e97	0.30748436
63	0xbdb73913	-0.08946433
64	0x3dcadd62	0.09905507
65	0x3c3f2fe3	0.011669132
66	0x3d4cd89d	0.050011266
67	0xbc89881d	-0.016788537
68	0x3dd19c23	0.10234859
69	0xbc96d288	-0.018410936
70	0x3e43a547	0.19106017
71	0xbd3a81a2	-0.045533784
72	0x3dcb3a8d	0.09923277
73	0xbccd7261	-0.025078954
74	0x3e469ab2	0.19394949
75	0x3dd457be	0.10368298
76	0xbd9c84f2	-0.07642545
77	0xbc4c4a14	-0.0124688335
78	0x3c559a35	0.013037254
79	0xbe84b04b	-0.2591575
80	0x3ba4da35	0.005030895
81	0x3df634ce	0.120217904
82	0xbd9a9400	-0.0754776
83	0xbca17eda	-0.019713808
84	0x3e7cf72e	0.24703667
85	0xbe115170	-0.14191222
86	0x3d174d8d	0.036939193
87	0x3cf7ae1a	0.030234385
88	0xbe04327a	-0.1290988
89	0x3d1264a1	0.0357405
90	0xbe450d11	-0.19243266
91	0x3e8bc278	0.27296805
92	0xbb8d9d6f	-0.004321746
93	0x3d951dc1	0.07281066
94	0x3c0a0971	0.008425103
95	0x3e073c38	0.13206565
96	0x3d9f9ff2	0.07794179
97	0x3d0ac8b7	0.033882823
98	0xbe405bc9	-0.18785013
99	0xbdaefb83	-0.08544066
100	0x3e339d36	0.1754044
101	0xbc4cbc22	-0.012496026
102	0x3c20704c	0.009792399
103	0xbdf38cec	-0.11892113
104	0x3d00d453	0.03145249
105	0x3cc24e7d	0.023719067
106	0xbde1128b	-0.10989865
107	0x3d6f1bdf	0.05837619
108	0x3ba2d6c9	0.004969452
109	0xbd8b3221	-0.06796671
110	0xbdd1402c	-0.10217318
111	0x3e075a43	0.13218026
112	0xbd282619	-0.041051958
113	0x3e927584	0.28605282
114	0xbddbc4a5	-0.10730866
115	0xbcb69122	-0.022286002
116	0xbd79f86e	-0.061027937
117	0xbdac45b2	-0.08411731
118	0x3dcf2a2d	0.10115466
119	0x3c9fe86a	0.019520003
120	0x3dc90615	0.09815613
121	0xbd8f2712	-0.06989874
122	0x3919a5f7	0.00014653044
123	0xbe37c7dd	-0.17947336
124	0xbe1ec280	-0.15503883
125	0x3dccdb2e	0.10002743
126	0x3ccceb8c	0.025014661
127	0xbe419c4d	-0.1890728
128	0x3e1eed24	0.1552015
129	0x3dc79cae	0.09746681
130	0xbe32427b	-0.17408173
131	0x3e4f7b60	0.20261908
132	0x3d4697ea	0.04848472
133	0xbe2b9fdf	-0.16760205
134	0x3d93176a	0.071822
135	0xbd5edd3a	-0.054410197
136	0x3df0884f	0.11744749
137	0xbe65de10	-0.22447991
138	0x3b14a098	0.002267873
139	0xbbe63f93	-0.0070266216
140	0x3c7f3df8	0.015578739
141	0x3dcdcacf	0.10048448
142	0xbd29c632	-0.04144878
143	0x3d1484a5	0.036259312
144	0x3e4d8fde	0.20074412
145	0xbbc5fbab	-0.006041964
146	0xbe31e7d4	-0.17373592
147	0x3d1da23b	0.038484793
148	0x3d1e9891	0.038719717
149	0x3e2a4e8e	0.16631529
150	0x3d7457d3	0.05965407
151	0x3c7069e3	0.014673683
152	0x3dee9ba0	0.11650777
153	0xbcd758ef	-0.026287524
154	0x3d46d78d	0.04854541
155	0xbd29b66d	-0.04143374
156	0xbd5e3848	-0.054252893
157	0xbd9dba94	-0.077016026
158	0x3dfffc16	0.124992535
159	0x3d87b4c8	0.06626278
160	0x3d833bc9	0.064078875
161	0xbdb464c1	-0.0880828
162	0xbbbaa39a	-0.0056957724
163	0xbd23a424	-0.03995146
164	0x3db92cf1	0.09041775
165	0xbdd02fd0	-0.101653695
166	0xbe2ba110	-0.16760659
167	0xbcc62dc2	-0.02419174
168	0xbe056969	-0.13028492
169	0xbe3a4681	-0.18190958
170	0xbd90c867	-0.07069474
171	0xbca2b6f8	-0.019862637
172	0x3e4efa37	0.20212637
173	0xbd8d04b3	-0.06885662
174	0xbdacfed9	-0.08447046
175	0xbd4062a4	-0.04696907
176	0xbdbd3598	-0.09238738
177	0xbe19b623	-0.15010886
178	0x3c104b70	0.008807048
179	0xbc383fd5	-0.0112456875
180	0xbd1e1e29	-0.03860298
181	0xbd386759	-0.045020435
182	0xbcb51329	-0.022103863
183	0x3e20d54a	0.15706363
184	0x3d2a5b86	0.04159119
185	0x3d8657c3	0.06559708
186	0x3ad6b90a	0.001638205
187	0xbde4de93	-0.11175265
188	0xbcf049fd	-0.029332155
189	0xbceadc8d	-0.02866962
190	0x3c140a7c	0.009035703
191	0x3dcf45c5	0.10120729
192	0xbcf80d9a	-0.030279923
193	0xbd3827e5	-0.04495992
194	0x3cbab8d4	0.022793211
195	0xbdf16137	-0.117861204
196	0x3ac241f2	0.0014820679
197	0xbdda0d86	-0.10647111
198	0xbe4fdfff	-0.20300291
199	0x3c9f20e4	0.019424863
200	0xbca549b5	-0.020176748
201	0x3ce79eb0	0.02827391
202	0xbd59b6f2	-0.053152986
203	0xbdb66f03	-0.089078926
204	0xbc734092	-0.014846938
205	0xbdae9d3a	-0.08526082
206	0xbd4ddf0e	-0.05026155
207	0xbde50d0f	-0.11184131
208	0x3d2af99e	0.04174196
209	0xbe1e9ab9	-0.1548871
210	0x3d5c372e	0.05376356
211	0x3e12fa44	0.14353281
212	0xbdcce131	-0.10003889
213	0xbbd093f9	-0.006365296
214	0x3ca3b85a	0.019985367
215	0x3d550c9d	0.052013982
216	0xbc127890	-0.008939877
217	0xbe002ee3	-0.12517886
218	0xbe6e2afa	-0.23258582
219	0xbd22c8c6	-0.039742254
220	0x3e5c8815	0.21536286
221	0x3c3c13f7	0.011479369
222	0x3ce54d86	0.027991068
223	0xbde4b7d9	-0.11167879
224	0x3c1c4a1a	0.009539152
225	0xbd423464	-0.047413245
226	0x3df2d3a0	0.118567705
227	0x3dab165d	0.08353875
228	0xbd4008a8	-0.046883255
229	0x3db60e56	0.08889453
230	0xbd89adcf	-0.067226045
231	0xbd806490	-0.06269181
232	0x3d625913	0.05526073
233	0xbde4ba65	-0.111683644
234	0xbe47dc7b	-0.195177
235	0x3e561850	0.20907712
236	0x3d9f24a3	0.0777066
237	0x3d564d98	0.052320093
238	0x3d7deef5	0.061995465
239	0x3e833071	0.25622895
240	0x3d779214	0.060442045
241	0x3d83e3ec	0.06439957
242	0xbd912c96	-0.07088582
243	0xbdf278c2	-0.11839439
244	0x3daa0a14	0.083027035
245	0xbd61adbd	-0.05509733
246	0xbde721e2	-0.112857595
247	0xbc3ef328	-0.011654653
248	0xbb1d6f03	-0.0024022467
249	0xbe3a4ee7	-0.18194161
250	0x3d1856bd	0.037192095
251	0x3dba47c6	0.09095721
252	0xbd9f0255	-0.07764117
253	0xbd2d45a8	-0.042302758
254	0xbe38622e	-0.18006203
255	0x3e569b44	0.20957667

linear_layer.3.bias f4 [100]
0	0x3dd1f20c	0.10251245
1	0x3c8895db	0.01667302
2	0xbd7466c9	-0.059668336
3	0xbde949e6	-0.11391048
4	0xbc8c0087	-0.017090095
5	0xbd22511b	-0.03962813
6	0x3dbbc7d7	0.09168976
7	0x3d3ea049	0.04653958
8	0x3d2e5eeb	0.04257099
9	0x3b533d0c	0.0032232432
10	0xbd39f9e7	-0.04540434
11	0xbd02a9d4	-0.031900242
12	0x3c37b317	0.011212132
13	0x3d15b1a8	0.03654638
14	0x3c08010d	0.008301032
15	0x3c5a867c	0.013337728
16	0xbd9f6ab5	-0.077840246
17	0xbc0de2f9	-0.0086600715
18	0x3c895fb8	0.016769275
19	0x3d261873	0.04055066
20	0xbd7d3730	-0.06182021
21	0x3d5ecbb0	0.05439347
22	0x3ceb7815	0.028743783
23	0x3d2111cc	0.039323613
24	0x3bd8334f	0.0065979133
25	0xbd348638	-0.044073313
26	0x3d8b3d95	0.06798855
27	0x3d81eea6	0.06344347
28	0x3d1489dd	0.03626429
29	0x3d61409d	0.05499326
30	0xbcbb60fb	-0.022873392
31	0xbb519259	-0.00319781
32	0x3c9e0fcf	0.019294647
33	0x3cf2fa74	0.029660441
34	0x3ab57943	0.0013845343
35	0xbcec7be9	-0.028867679
36	0x3c89e171	0.016831132
37	0xbc43598d	-0.011923206
38	0xbd3562db	-0.04428373
39	0xbbfd7ae8	-0.007735599
40	0xbc6f8d7c	-0.014621135
41	0x3c657728	0.01400546
42	0x3d3a3f3c	0.04547046
43	0xbc4a3531	-0.012341783
44	0x3d8ea268	0.0696457
45	0x3d73c3b8	0.059512824
46	0x3dc24afa	0.09486957
47	0xbe3fcd32	-0.1873062
48	0x3d55817d	0.052125443
49	0xbd3bfff8	-0.045898408
50	0x3d09f592	0.03368146
51	0xbcd27e33	-0.025694942
52	0xbc02acdc	-0.007975783
53	0x3a5d24ab	0.0008435945
54	0xbcaeedcc	-0.021353625
55	0xbcb46c62	-0.022024337
56	0xbd4f7b84	-0.050654903
57	0xbc87864f	-0.016543536
58	0x3d3cca9e	0.04609167
59	0x3d4979b7	0.049188342
60	0x3ba94ccb	0.005166625
61	0x3cfd5ac5	0.030927071
62	0x3be8785d	0.0070944265
63	0x3c6ddd61	0.014518113
64	0x3ccea5ed	0.025225604
65	0x3c855d66	0.016279887
66	0x3d8b53da	0.06803103
67	0xbaff9921	-0.0019500592
68	0x3c85cd15	0.016333142
69	0xbd335b67	-0.04378834
70	0x3d01049b	0.031498533
71	0xbd1c4f40	-0.038161516
72	0xbb3c4bf9	-0.0028731807
73	0xbc246ec9	-0.010036179
74	0xbd0b44e5	-0.03400125
75	0x3ca63bee	0.020292249
76	0xbc20a9dd	-0.009806124
77	0xbea1eb07	-0.31624624
78	0x3d3691e9	0.044572745
79	0xbd64011b	-0.055665117
80	0xbc1dafe9	-0.00962446
81	0x3ca8386e	0.02053472
82	0xbac98d1c	-0.0015377137
83	0xbcc9c53a	-0.024630178
84	0xbd3a1212	-0.04542739
85	0x3d4ffa5e	0.050775878
86	0x3cb90bd2	0.022588644
87	0x3d66606e	0.056244306
88	0xbd07779b	-0.03307305
89	0x3c014b01	0.0078914175
90	0x3cf512ab	0.029916128
91	0x3ce701a7	0.02819903
92	0x3d2e646a	0.04257623
93	0xbd13a872	-0.036049314
94	0x3c037237	0.008022836
95	0x3d2ba8df	0.041909095
96	0x3cbc1a7c	0.022961847
97	0x3cb23957	0.021755857
98	0xbd239409	-0.0399361
99	0xbd607057	-0.054794636

linear_layer.4.weight f4 [100, 100]
0	0xbcbeeb33	-0.023305511
1	0x3d1324b4	0.035923675
2	0x3d946de0	0.072475195
3	0x3da2042c	0.07910952
4	0x3d658ffd	0.05604552
5	0xbaab05f9	-0.0013048045
6	0xbd5701ba	-0.05249188
7	0x3e147844	0.14499003
8	0x3da64948	0.08119446
9	0x3cbfc7c9	0.023410695
10	0xbe14d87c	-0.14535707
11	0x3dcd4472	0.100228205
12	0x3db095bd	0.0862231
13	0x3e19a45b	0.15004103
14	0x3e0006ec	0.1250264
15	0x3e5ec9ef	0.21756719
16	0x3e08b64c	0.1335079
17	0x3eaa393d	0.33246794
18	0x3c2490cb	0.010044287
19	0x3d15cfc8	0.03657511
20	0x3c5b73d4	0.013394315
21	0x3d53b9d2	0.051690884
22	0xbca82618	-0.020525977
23	0x3e08b2ab	0.13349406
24	0x3e1c0b9d	0.15238805
25	0xbdc975f3	-0.0983695
26	0x3d91ab32	0.07112731
27	0xbdd1e5d9	-0.10248918
28	0x3e25ea4d	0.1620266
29	0xbd270eba	-0.04078553
30	0x3e0ba39a	0.13636628
31	0xbd86b98c	-0.06578359
32	0xbe263b14	-0.16233474
33	0x3d2b7b44	0.041865602
34	0x3bc2f503	0.005949618
35	0x3b73c491	0.003719602
36	0xbe49a4d2	-0.1969178
37	0x3d7cb14f	0.061692532
38	0x3e12a4fc	0.14320749
39	0x3cd0fd64	0.025511451
40	0xbe570b85	-0.21000488
41	0xbe8aa0f5	-0.27075925
42	0xbe90fc29	-0.28317383
43	0x3daa0c95	0.08303181
44	0xbd344430	-0.04401034
45	0xbe84699e	-0.2586183
46	0x3e2ed611	0.17073847
47	0xbd62c9b5	-0.055368144
48	0x3d8ddee4	0.06927279
49	0x3cba4504	0.022737987
50	0xbd5588f0	-0.052132547
51	0xbdce80ce	-0.10083161
52	0xbdc4c3c5	-0.096076526
53	0xbc8691f6	-0.016427021
54	0x3c1ab8ae	0.009443445
55	0x3d8399ab	0.06425794
56	0x3d62c538	0.055363864
57	0x3d976597	0.073924236
58	0x3dac940b	0.084266745
59	0x3d6da6c8	0.058020383
60	0x3daa7c34	0.08324471
61	0x3be5ad90	0.0070092157
62	0x3c6c6540	0.014428437
63	0x3ce82b26	0.028340887
64	0x3df823aa	0.121161774
65	0x3d18463d	0.03717636
66	0x3c4137c9	0.011793085
67	0xbc523d34	-0.012831975
68	0xbe5e99d3	-0.21738367
69	0x3dec67b8	0.1154322
70	0x3cff8901	0.031193258
71	0x3d8384f9	0.06421847
72	0xbdbe2eb7	-0.09286254
73	0x3e4013f5	0.18757613
74	0x3ca3de15	0.020003358
75	0xbe2687e3	-0.16262774
76	0x3db1f351	0.08688987
77	0x3dc30e7d	0.09524248
78	0xbc79d648	-0.015248843
79	0x3d031271	0.03200001
80	0x3d37dcf5	0.044888455
81	0x3d9c4ca3	0.07631805
82	0x3d5c8fe9	0.05384818
83	0xbb38ae83	-0.002818019
84	0xbd328bea	-0.043590464
85	0xbc16d956	-0.00920709
86	0x3e090bbd	0.13383384
87	0xbc918ccb	-0.01776733
88	0xbd098d85	-0.03358223
89	0xbd01425c	-0.031557426
90	0xbca00906	-0.019535553
91	0x3e002681	0.12514688
92	0xbe582458	-0.21107614
93	0x3d9f6592	0.07783045
94	0xbdab44b0	-0.083627105
95	0xbdacdb65	-0.08440284
96	0x3ca8725a	0.02056234
97	0xbc7cd866	-0.015432453
98	0xbdd0aa79	-0.10188765
99	0xbce6dbb0	-0.028180927
100	0xbdccbfe9	-0.099975415
101	0x3b2cd9b1	0.0026374871
102	0xbdfd0bc3	-0.12355759
103	0x3c83f5bf	0.016108392
104	0xbcd93808	-0.026515976
105	0xbd8fa5d9	-0.07014055
106	0xbe572082	-0.21008494
107	0x3c0628cb	0.008188437
108	0x3bbe9fb9	0.0058173803
109	0xbd8df8f4	-0.0693225
110	0xbcf6c519	-0.03012328
111	0xbc94e348	-0.018174782
112	0x3e09c7b2	0.13455084
113	0x3dde7eca	0.10864027
114	0x3e65cd03	0.22441487
115	0xbd417385	-0.04722931
116	0xbdf180f2	-0.117921725
117	0xbda604ba	-0.0810637
118	0xbd7c9e6d	-0.061674524
119	0x3d897545	0.067118205
120	0xbda70c2a	-0.08156617
121	0x3dd6bb25	0.10484914
122	0x3dbc93c2	0.0920787
123	0xbd99723f	-0.07492494
124	0x3c8ab94e	0.016934063
125	0xbd34c673	-0.04413457
126	0x3d951385	0.07279114
127	0x3e09b156	0.13446555
128	0x3e6cfaa3	0.23142485
129	0x3dac1f5f	0.08404421
130	0xbd8bef02	-0.068326965
131	0x3d89a1d9	0.06720323
132	0x3d67c163	0.056580912
133	0x3cdb8c66	0.026800346
134	0xbcd0dc3a	-0.025495637
135	0xbe68a614	-0.22719604
136	0xbdf81353	-0.12113061
137	0xbdbf9e11	-0.09356321
138	0x3de081e7	0.10962277
139	0x3db98198	0.09057921
140	0x3d25a920	0.040444493
141	0x3d0aae30	0.033857524
142	0x3db4c48e	0.08826552
143	0x3e27cf21	0.16387607
144	0x3d332dee	0.043744974
145	0xbd21ed8c	-0.039533183
146	0x3e686b88	0.2269727
147	0x3de55bf4	0.11199179
148	0xbd1af69a	-0.037832834
149	0xbe2363ae	-0.15955994
150	0xbd20c051	-0.039245907
151	0x3d54b43b	0.051929694
152	0xbd2da2e9	-0.04239169
153	0xbdafbd80	-0.08581066
154	0xbd4e96f0	-0.050436914
155	0xbdc01663	-0.0937927
156	0xbd5117ba	-0.051048018
157	0x3db4e57a	0.08832832
158	0xbd569715	-0.052390177
159	0xbc2e6a08	-0.010645397
160	0xbc1ffc18	-0.009764694
161	0x3d319a12	0.043359824
162	0x3c83d039	0.0160905
163	0xbe638846	-0.22219953
164	0xbd1e0e45	-0.038587827
165	0x3e1761ba	0.14783373
166	0x3e0e7562	0.13911965
167	0x3e165f70	0.14684844
168	0xbdf2639c	-0.11835405
169	0xbdcc234f	-0.09967672
170	0xbdd33e50	-0.103146195
171	0xbde70730	-0.11280668
172	0x3bb4ca96	0.005517314
173	0xbe3ccc1b	-0.18437235
174	0xbb90bf4f	-0.004417337
175	0x3d9fd99d	0.07805178
176	0x3d57bc2c	0.05266969
177	0xbe512800	-0.20425415
178	0xbe30bd34	-0.17259675
179	0x3debdd35	0.11516801
180	0x3e156414	0.14588958
181	0xbe208e5a	-0.15679303
182	0x3cffa571	0.031206818
183	0xbd191324	-0.03737177
184	0x3d786e47	0.060652044
185	0xbce59e8f	-0.028029708
186	0xbe1ebdca	-0.15502086
187	0xbd7b7f18	-0.061400503
188	0xbe2d4670	-0.16921401
189	0xbe20b716	-0.15694842
190	0x3db758f4	0.08952513
191	0xbd9991da	-0.07498522
192	0xbe07796d	-0.13229914
193	0x3d50195b	0.05080543
194	0x3cd5c09a	0.026092816
195	0x3cc015ac	0.023447834
196	0xbcfab18b	-0.030602237
197	0xbdad71d9	-0.0846898
198	0x3ddb1cc8	0.10698849
199	0x3cdbd04e	0.026832726
200	0x3d75e9ea	0.06003753
201	0xbc1736f5	-0.009229411
202	0xbe427b4e	-0.1899235
203	0x3ddaa490	0.10675919
204	0xbe6054d9	-0.21907367
205	0xbdb074ff	-0.08616065
206	0x3d57a717	0.052649584
207	0x3de52538	0.111887395
208	0xbe8af6fb	-0.27141556
209	0x3b7e46d3	0.0038799539
210	0x3d8af587	0.06785112
211	0x3cd41f40	0.025893807
212	0xbb9adb43	-0.004725845
213	0xbde06586	-0.10956864
214	0x3d39e413	0.045383524
215	0x3e2f1d85	0.17101105
216	0xbe2e89b9	-0.17044725
217	0xbe39ffce	-0.18163988
218	0x3d4d2c37	0.050090995
219	0x3d729b83	0.05923034
220	0xbd47b9ab	-0.04876105
221	0xbaf68fc2	-0.0018811154
222	0x3e32ddce	0.17467424
223	0x3d03991b	0.032128435
224	0x3c8d63fc	0.01725959
225	0xbd513bac	-0.0510823
226	0xbd3e3f4b	-0.04644708
227	0x3afa2013	0.0019083045
228	0x3e295812	0.16537502
229	0xbd81bced	-0.06334863
230	0xbe46a7be	-0.19399926
231	0x3d905503	0.07047465
232	0x3e3684b5	0.17824061
233	0x3e1a496d	0.15067072
234	0xbd9ff0d3	-0.078096054
235	0x3d171c40	0.036892176
236	0xbcb36db6	-0.0219029
237	0x3e267fee	0.16259739
238	0xbe0e0341	-0.13868429
239	0xbcaafc48	-0.02087225
240	0xbe0e29b1	-0.13883092
241	0x3d61b062	0.055099852
242	0x3e370f9f	0.17877053
243	0xbe17cd73	-0.14824466
244	0xbe118272	-0.14209917
245	0x3bdfcbc2	0.0068297097
246	0x3e1ce468	0.15321505
247	0x3eb185a4	0.34672272
248	0x3dba7a7a	0.09105392
249	0x3d64056b	0.05566923
250	0x3ea430db	0.32068524
251	0x3c54724f	0.012966706
252	0x3d7d65e0	0.061864734
253	0x3d702634	0.058630183
254	0x3e4dda35	0.2010277
255	0x3dce04d6	0.10059516

linear_layer.4.bias f4 [100]
0	0xbbf90395	-0.007599304
1	0xbd0a9eed	-0.03384297
2	0x3d83553a	0.0641274
3	0xbc988e52	-0.018622551
4	0xbe0aa64b	-0.13539998
5	0xbc908f2e	-0.017646398
6	0xbd11854f	-0.035527524
7	0x3c48d00b	0.012256633
8	0x3d38721a	0.04503069
9	0x3cdaa368	0.026689246
10	0x3c77b686	0.015119201
11	0xbdc1ece2	-0.0946901
12	0xbca9b5df	-0.020716606
13	0x3c904952	0.017613087
14	0xbcdcddb6	-0.026961189
15	0x3c96ac4a	0.0183927
16	0x3d15aa79	0.03653953
17	0xbcd6df81	-0.026229622
18	0xbd83cc7a	-0.06435485
19	0x3d50cf90	0.050979197
20	0x3d831ec0	0.064023495
21	0xbcd9c4cc	-0.026583098
22	0x3bd928d5	0.006627182
23	0x3c3593ed	0.011082632
24	0x3c77584a	0.015096733
25	0x3cdf25d3	0.027239716
26	0xbc860308	-0.016358867
27	0xbc07d5aa	-0.008290688
28	0xbd18545f	-0.037189838
29	0xbd35279a	-0.04422722
30	0x3cde715a	0.02715366
31	0x3c88ea0f	0.01671317
32	0xbcbba89f	-0.022907553
33	0xbd1884fd	-0.037236203
34	0x3d1ef8a0	0.038811326
35	0xbd94c5fe	-0.072643265
36	0x3d2a9cff	0.04165363
37	0x3e1e02dc	0.15430778
38	0x3c843a40	0.016141057
39	0xbd1a2d03	-0.037640583
40	0xbb85fffe	-0.0040893545
41	0x3c9640dc	0.018341474
42	0xbb1bc145	-0.002376632
43	0xbc37a4e9	-0.011208751
44	0xbd580956	-0.05274328
45	0x3c5451ef	0.012958988
46	0xbd0f1395	-0.034930784
47	0xbca1dec4	-0.019759543
48	0xbb83d862	-0.0040235976
49	0xbca4dc80	-0.020124674
50	0x3a933ee0	0.0011233948
51	0xbbfb13ee	-0.007662288
52	0x3b172800	0.0023064613
53	0x3c9886bc	0.018618934
54	0x3bed68e8	0.007245172
55	0xbccb8287	-0.024842514
56	0x3a97e42b	0.0011588385
57	0x39d64802	0.0004087091
58	0xbca2e9fb	-0.019886961
59	0xbaa72773	-0.0012752846
60	0xbb0c87dc	-0.0021443283
61	0x3d9cdee9	0.07659704
62	0x3c34f087	0.011043674
63	0xbc042518	-0.008065484
64	0x3c292388	0.010323413
65	0x3b86c229	0.004112501
66	0x3b037476	0.002005843
67	0xbca65c90	-0.02030781
68	0x3d2d5406	0.04231646
69	0xbccbc670	-0.024874896
70	0xbd731328	-0.05934444
71	0xbc355cb6	-0.011069467
72	0x3ca5bb32	0.020230863
73	0x3b29a519	0.002588576
74	0x3cf1a96d	0.029499734
75	0xbd1bd1e1	-0.038041953
76	0xbc5b97ab	-0.01340286
77	0x3cd8e20f	0.02647498
78	0x3d3765da	0.044774868
79	0x3c0d045a	0.0086069945
80	0x3d51816e	0.051148824
81	0xbcf28a80	-0.029607058
82	0x3da97fdc	0.0827634
83	0x3d61de14	0.05514343
84	0xbd68a7b0	-0.056800544
85	0xbd7966df	-0.06088912
86	0xbbd251f1	-0.0064184596
87	0xbcbd07a6	-0.023074936
88	0xbc286148	-0.0102771
89	0x3c496e82	0.0122944135
90	0x3c09fe5f	0.008422463
91	0x3c9d890f	0.019230394
92	0xbc9d5c0a	-0.019208927
93	0x3ca08d0e	0.01959851
94	0x3d772f29	0.06034771
95	0xbccda167	-0.025101377
96	0xba36b59d	-0.00069698115
97	0xbc996ba4	-0.018728085
98	0xbd35c689	-0.04437879
99	0xbc9c6bc9	-0.019094365
