ac_2d_model_para_1/checkpoint_450.pth (torch, 291130 bytes, 17 tensors)

linear_layer.0.weight f4 [100, 3]
0	0x3e1a73fb	0.15083306
1	0x3e21d586	0.15804109
2	0xbe26a8e6	-0.16275367
3	0xbd3ffc0f	-0.04687124
4	0xbd986a4d	-0.0744215
5	0x3dbec2bd	0.09314487
6	0x3da45357	0.08023708
7	0xbd88cb36	-0.066793844
8	0xbe8814e1	-0.2657843
9	0x3da01bb2	0.078177825
10	0xbd03d4d6	-0.032185398
11	0x3e4dfe88	0.20116627
12	0xbde9cab9	-0.114156194
13	0xbe0a3295	-0.13495858
14	0xbe9f39e7	-0.31098863
15	0xbcf6b948	-0.030117646
16	0xbe2e645b	-0.1703047
17	0xbdfe6bd7	-0.124229126
18	0xbd8c1787	-0.06840425
19	0x3e00e67f	0.12587927
20	0xbdec100e	-0.115265
21	0xbc878b59	-0.016545938
22	0xbd26c1ce	-0.04071217
23	0xbe94d098	-0.29065394
24	0x3ee47382	0.44619375
25	0x3d596361	0.05307329
26	0x3d12c688	0.035833865
27	0xbde3f906	-0.11131482
28	0xbe3270c5	-0.1742583
29	0xbd3d5f52	-0.046233483
30	0x3d81a79d	0.06330798
31	0xbe5d779d	-0.2162766
32	0x3e1bd4f8	0.1521796
33	0xbd6b2885	-0.05741169
34	0x3d7a2475	0.061069924
35	0xbe5df4c9	-0.2167541
36	0x3e3d4c75	0.18486197
37	0xbbe21c65	-0.0069003575
38	0xbdab9177	-0.083773546
39	0x3e3347f0	0.1750791
40	0xbc4d46ac	-0.0125290565
41	0x3e486b31	0.1957214
42	0x3e151684	0.1455937
43	0x3e1bfa41	0.15232183
44	0x3e4913cc	0.19636458
45	0xbe17165c	-0.14754623
46	0xbe20641a	-0.15663186
47	0x3d1b7274	0.037950948
48	0x3e825a70	0.25459623
49	0x3cd45a61	0.025922002
50	0xbe8e51c0	-0.27796745
51	0xbe236b9c	-0.15959018
52	0xbe0e3d63	-0.13890605
53	0xbe216a05	-0.157631
54	0xbe14098c	-0.14456767
55	0xbcadc37f	-0.021211384
56	0x3da0c3d1	0.07849849
57	0x3dd9ab9a	0.106284335
58	0x3e1a6eee	0.15081379
59	0xbe4a253e	-0.1974077
60	0x3dc0e937	0.09419482
61	0xbe44f4ca	-0.19234005
62	0x3d8d385f	0.068955176
63	0x3e9091f7	0.28236362
64	0xbd9e8d45	-0.07741789
65	0x3daeb72d	0.08531032
66	0xbe2777aa	-0.16354242
67	0xbe184bad	-0.14872618
68	0x3d15aca4	0.036541596
69	0x3db6b896	0.08921926
70	0x3cd894b4	0.026438095
71	0xbedd14de	-0.43179983
72	0x3e3541bb	0.17700855
73	0x3cf8d004	0.030372627
74	0x3e964ea1	0.29356864
75	0x3e0cc8be	0.13748452
76	0x3da3ef69	0.08004648
77	0x3cc088f4	0.023502804
78	0xbe7e57e9	-0.24838223
79	0xbe589a18	-0.21152532
80	0xbdb78eea	-0.089628056
81	0x3d04ca7c	0.032419667
82	0x3e61711f	0.22015809
83	0x3d1b96e2	0.03798569
84	0x3e2e5c99	0.1702751
85	0xbe4fd129	-0.20294632
86	0x3d8ff5b0	0.07029283
87	0x3d641a98	0.055689424
88	0xbbd737a8	-0.006567914
89	0xbdb42ca6	-0.087975785
90	0xbd2a3a99	-0.04155979
91	0xbe1bc604	-0.15212256
92	0xbe05b850	-0.13058591
93	0x3e7d8681	0.2475834
94	0x3c9fb203	0.019494062
95	0x3e8c432a	0.27394992
96	0x3dbe3db1	0.092891105
97	0xbe619c9c	-0.22032398
98	0x3e0ca6c9	0.13735498
99	0xbe7391f2	-0.23786142
100	0x3c9cbd0f	0.019133119
101	0xbdf3d7b2	-0.11906375
102	0x3d8cfd8c	0.06884298
103	0xbd9d580e	-0.07682811
104	0xbe839f39	-0.25707415
105	0x3dabc3ff	0.08386993
106	0xbe0c2f0b	-0.1368982
107	0x3e50003f	0.20312594
108	0xbd95beb8	-0.07311767
109	0x3e85bad6	0.26119107
110	0xbcebcaf2	-0.028783295
111	0x3e4ad85c	0.19809097
112	0x3e110e16	0.1416553
113	0x3d48d6d1	0.04903299
114	0xbcd91feb	-0.026504477
115	0xbdbc76f7	-0.09202378
116	0xbeb88f93	-0.36047038
117	0xbda9316c	-0.082613796
118	0xbcdb7440	-0.02678883
119	0xbe0280fa	-0.12744513
120	0x3de18b3c	0.11012885
121	0x3db2ef67	0.087370686
122	0xbdf309d0	-0.11867106
123	0xbd817f3f	-0.063230984
124	0xbbfb633b	-0.0076717413
125	0x3dc8acc4	0.097985774
126	0xbe1f5fa7	-0.15563832
127	0x3e227a1d	0.15866895
128	0xbdb6ec09	-0.08931739
129	0x3daddce3	0.084893964
130	0xbd805d65	-0.062678136
131	0x3e419598	0.18904722
132	0xbe015e26	-0.12633571
133	0x3e1e0cd5	0.15434583
134	0x3e033599	0.12813415
135	0xbd79de21	-0.061002854
136	0xbdd3f268	-0.1034897
137	0x3e0cdc1c	0.1375584
138	0xbea74ebe	-0.32677263
139	0x3e20ac80	0.15690804
140	0xbe914e14	-0.2837988
141	0x3e5a9e12	0.21349362
142	0x3b5a7cf6	0.0033338643
143	0xbe248fb9	-0.16070451
144	0x3d949118	0.07254237
145	0x3dac9a2d	0.08427844
146	0x3d9634d4	0.07334295
147	0x3e87bdfa	0.26512128
148	0xbdbf18bf	-0.09330892
149	0xbdd20e7f	-0.10256671
150	0x3e0ce039	0.13757409
151	0x3de335d0	0.11094248
152	0xbdd6d4c3	-0.104898
153	0x3df1025d	0.11768029
154	0xbd587cf4	-0.05285354
155	0xbddaa492	-0.106759205
156	0xbdc0bcc5	-0.09411005
157	0x3e628689	0.22121634
158	0x3d7b45dc	0.06134592
159	0x3c78b954	0.015180904
160	0x3d6d2a25	0.05790152
161	0x3e6c1a69	0.2305695
162	0x3dacb3c1	0.08432723
163	0x3da1140c	0.07865152
164	0x3bcff978	0.0063468777
165	0x3e83c321	0.2573481
166	0xbd94b1c8	-0.072604716
167	0x3e036b4c	0.128339
168	0x3ed6e02c	0.41967905
169	0x3c67cfd4	0.014148671
170	0xbc977c25	-0.018491814
171	0x3e81ccb2	0.25351483
172	0xbdf2372d	-0.1182693
173	0xbe852d25	-0.26011005
174	0x3e7bacdb	0.24577658
175	0x3c503347	0.012707538
176	0xbdfce464	-0.123482496
177	0xbdabfb7d	-0.08397577
178	0xbe24e2ae	-0.16102096
179	0x3e4ded5e	0.2011008
180	0xbd9d68f2	-0.07686032
181	0x3de3d926	0.11125402
182	0xbc137c0c	-0.009001743
183	0x3c138c62	0.009005638
184	0x3e469a8e	0.19394895
185	0x3c8e7a54	0.017392315
186	0x3e5a7677	0.21334253
187	0xbe15593f	-0.14584826
188	0xbde7a399	-0.11310501
189	0x3c0e3ff3	0.008682239
190	0x3de3c2dd	0.111211516
191	0xbe309e78	-0.17247951
192	0x3ea0408d	0.31299248
193	0xbe186cbe	-0.14885232
194	0x3dacc1b2	0.08435382
195	0x3cb428d1	0.021992119
196	0x3dc0b8a2	0.09410216
197	0x3e9b8eb8	0.30382323
198	0x3de5eb53	0.11226525
199	0xbc92c266	-0.017914962
200	0xbea72598	-0.3264587
201	0xbe5619c9	-0.20908274
202	0xbcd608e9	-0.026127296
203	0x3df16152	0.117861405
204	0x3e5f2c8b	0.21794336
205	0xbde98824	-0.1140292
206	0xbca111e2	-0.019661848
207	0xbd7c0b6e	-0.061534338
208	0x3db7ca01	0.08974076
209	0x3d37077f	0.044684883
210	0xbe2955e1	-0.16536666
211	0x3c57571c	0.013143327
212	0xbd4f0745	-0.050544042
213	0x3dcd0841	0.1001134
214	0x3e1972df	0.14985226
215	0x3d9ba509	0.07599837
216	0xbd75fdaa	-0.060056366
217	0x3e83824f	0.25685355
218	0xbdcded17	-0.10054987
219	0x3d819e75	0.063290514
220	0x3e16ac0f	0.14714073
221	0xbe383457	-0.17988716
222	0x3ea77bf3	0.32711753
223	0x3cfdaad2	0.030965243
224	0xbd2e4a70	-0.042551458
225	0xbd14173a	-0.036154963
226	0x3e9167a4	0.28399384
227	0x3e0fe824	0.14053398
228	0xbe0ab6c2	-0.13546279
229	0xbebc9845	-0.36834922
230	0x3e50fccc	0.20408934
231	0xbe94745f	-0.28995034
232	0xbdc6de7b	-0.097104035
233	0xbe11803b	-0.14209072
234	0xba1483e5	-0.0005665406
235	0x3e59cf82	0.21270564
236	0xbcb68ca8	-0.022283867
237	0x3ca6ea91	0.020375522
238	0xbe2eb48a	-0.17061058
239	0x3d383099	0.04496822
240	0x3dee5e0b	0.11639031
241	0xbd7a3b8e	-0.061091952
242	0xbbb3de3e	-0.00548914
243	0xbdcf8ce9	-0.10134298
244	0xbe42d042	-0.19024757
245	0xbdafa0dd	-0.08575604
246	0xbe2b9658	-0.1675657
247	0x3e1e3b5c	0.15452331
248	0x3d3d605b	0.04623447
249	0x3e0c1aac	0.1368205
250	0xbddabf9f	-0.1068108
251	0x3ed35ff0	0.41284132
252	0x3e620b56	0.22074637
253	0xbd08ab83	-0.03336669
254	0xbe7b786e	-0.24557659
255	0x3e2482ff	0.16065596

linear_layer.0.bias f4 [100]
0	0xbbfc7516	-0.0077043874
1	0xbd1bb82b	-0.038017433
2	0x3dd9dab7	0.1063742
3	0xbc51ad3c	-0.01279765
4	0x3cd00f04	0.025397785
5	0xbce3e1f1	-0.027817698
6	0x3d279186	0.040910266
7	0x3da11012	0.07864393
8	0xbdce8031	-0.10083044
9	0x3d0fd0b4	0.035111144
10	0x3d12b6c6	0.035818838
11	0xbd6d9a7c	-0.058008656
12	0x3d5f54e6	0.054524325
13	0x3d8c8e8e	0.06863128
14	0x3cab9c9b	0.020948699
15	0xbba413b1	-0.00500723
16	0xbd99e242	-0.075138584
17	0x3bfd2b63	0.0077261194
18	0xbc49da37	-0.012320093
19	0x3c346e7e	0.0110126715
20	0xbd44ec74	-0.04807706
21	0xbcb69f53	-0.022292769
22	0xbcd6a89a	-0.026203442
23	0x3cf65460	0.03006953
24	0x3c8b88aa	0.01703294
25	0x3d92472b	0.071424805
26	0x3d571f0f	0.052519854
27	0xbc2f68c8	-0.010706134
28	0x3cecadda	0.028891493
29	0xbd409a76	-0.047022305
30	0xbd2e3feb	-0.042541426
31	0xbd39059e	-0.045171373
32	0x3d5fd424	0.054645672
33	0xbd1ad6ff	-0.037802693
34	0xbd36831c	-0.04455863
35	0x3cfcb1ac	0.03084644
36	0xbc0ccf41	-0.008594335
37	0xbd8cb151	-0.06869758
38	0x3ddca297	0.10773199
39	0x3d5ee05c	0.054413185
40	0x3d50ac96	0.05094584
41	0xbcc88591	-0.024477752
42	0x3d77f8ee	0.060540132
43	0xbdd3a5a4	-0.10334328
44	0x3c85436f	0.016267506
45	0xbd5882ee	-0.05285924
46	0xbd3d1385	-0.046161193
47	0xba23a17d	-0.000624202
48	0xbd48b036	-0.048996173
49	0xbd9bb53d	-0.07602928
50	0x3dafabf5	0.0857772
51	0x3d15122a	0.036394276
52	0xbb161217	-0.0022898966
53	0xbdd50281	-0.10400868
54	0x3d5b64c5	0.0535629
55	0x3d5eba87	0.054377105
56	0xbbedf76e	-0.007262162
57	0xb92fe6a0	-0.00016775215
58	0xbbb1a51a	-0.005421293
59	0xbc10b61f	-0.008832484
60	0xbd79ef2d	-0.06101911
61	0xba7bea16	-0.00096097717
62	0xbc9c6c4a	-0.019094605
63	0x3d94beea	0.072629765
64	0xbd827ef1	-0.063718684
65	0x3d5673b6	0.052356444
66	0xbda08341	-0.07837535
67	0xbc4c4897	-0.012468479
68	0xbd469293	-0.048479628
69	0x3d863ead	0.06554923
70	0x3d3ebf76	0.04656931
71	0xbd05dbdf	-0.03268039
72	0xbd64e6d1	-0.055884186
73	0x3dd1e8b7	0.10249465
74	0x3b92cb15	0.0044797757
75	0x3ce06252	0.027390633
76	0xbcbcfb9f	-0.023069201
77	0x3ced9b29	0.02900465
78	0xbd9408a3	-0.0722821
79	0xbc2a1d89	-0.010383018
80	0x3da3e4e0	0.08002639
81	0x3d541a06	0.05178263
82	0xbd1b1580	-0.0378623
83	0xbc1f775e	-0.009733049
84	0x3c63cd8f	0.013903989
85	0x3bbeb693	0.0058201044
86	0x3d3c11db	0.045915466
87	0x3dba13e7	0.09085827
88	0xbda0a7d3	-0.0784451
89	0xbd762ea4	-0.060103074
90	0xbd8a64b2	-0.06757487
91	0xbdf8937d	-0.12137506
92	0xbd3d5bdf	-0.046230193
93	0x3daa0532	0.08301772
94	0xbc98f66b	-0.018672189
95	0x3d04ca78	0.03241965
96	0x3db80f10	0.08987248
97	0x3d0b538d	0.034015227
98	0xbd2dff98	-0.04248008
99	0x3c9840b1	0.018585535

linear_layer.1.weight f4 [100, 100]
0	0x3d6ec894	0.058296755
1	0x3e1319df	0.14365338
2	0xbd3d911a	-0.046280958
3	0xbca7f54a	-0.020502705
4	0xbc3c618e	-0.011497868
5	0x3c005c2a	0.007834474
6	0x3dd7db04	0.10539821
7	0x3d8e64cb	0.069528185
8	0x3e25a022	0.16174367
9	0xbe11ca60	-0.14237356
10	0xbda1cca3	-0.079003595
11	0x3b0f2713	0.0021843358
12	0xbe2ebd29	-0.17064346
13	0xbd4eec37	-0.05051824
14	0x3d838d03	0.0642338
15	0x3d8c059e	0.06837009
16	0xbe5d56a7	-0.21615086
17	0xbe19444f	-0.14967464
18	0x3e23544c	0.15950125
19	0x3bcdf33f	0.0062851007
20	0xbdc61e1e	-0.09673713
21	0x3ddf2715	0.10896126
22	0x3d040a7b	0.032236557
23	0x3e2c2af8	0.16813266
24	0xbd7ca65d	-0.061682094
25	0x3c25ac94	0.010111947
26	0xbd9d7d02	-0.07689859
27	0xbc9fa391	-0.019487174
28	0xbe721148	-0.23639405
29	0xbdc85506	-0.09781842
30	0xbc389c48	-0.011267729
31	0x3c2daaf1	0.010599838
32	0xbd289eba	-0.041167
33	0x3e4c1910	0.19931436
34	0xbdaa1b7f	-0.08306026
35	0xbd7c8fd6	-0.06166061
36	0xbdbd2030	-0.09234655
37	0xbcc1524f	-0.023598818
38	0x3e105bef	0.1409757
39	0xbe022185	-0.12708099
40	0x3d76ad1a	0.060223676
41	0x3d8db1dd	0.0691869
42	0xbe074d51	-0.13213088
43	0xbd8fea60	-0.07027125
44	0xbac9870b	-0.0015375329
45	0xbd2c036a	-0.041995443
46	0x3d502883	0.050819885
47	0x3db3a49f	0.08771633
48	0xbc26e8f0	-0.010187373
49	0x3df64757	0.12025326
50	0x38289d39	4.0200746e-05
51	0xbe89dc07	-0.2692568
52	0x3de4048c	0.1113368
53	0x3d973bdf	0.073844664
54	0xbcf11b8e	-0.029432084
55	0xbe550ca5	-0.20805605
56	0xbd9f7425	-0.07785825
57	0xbd91461c	-0.070934504
58	0x3e60aab7	0.21940123
59	0x3e2b9dad	0.16759367
60	0x3bd04201	0.0063555245
61	0x3d727806	0.059196495
62	0xbbe40e4e	-0.006959713
63	0xbe1b0dc2	-0.15141967
64	0xbcf778b3	-0.030208921
65	0x3e3bb6ef	0.18331502
66	0xbca8cbbc	-0.02060496
67	0x3c4586f1	0.012056098
68	0x3cad5d26	0.02116258
69	0xbdacc7c8	-0.08436543
70	0x3cc127f6	0.023578625
71	0x3db86083	0.09002783
72	0xbd97b322	-0.07407214
73	0x3d535736	0.051596843
74	0xbe4e0357	-0.20118462
75	0x3cd6668c	0.026171945
76	0xbd274036	-0.04083272
77	0x3c31408d	0.010818613
78	0xbe384b20	-0.17997408
79	0xbdf6389b	-0.120225154
80	0xbc5cc5c0	-0.013474882
81	0xbb5349db	-0.0032240066
82	0xbd080b4e	-0.033213906
83	0xbdc83b80	-0.09776974
84	0x3d989c51	0.0745169
85	0x3dfb9315	0.12283913
86	0xbc95ada5	-0.018271277
87	0xbd8ae9d7	-0.06782883
88	0x3dbdf212	0.09274687
89	0x3dcaeb97	0.099082164
90	0xbca2d59f	-0.019877253
91	0x3de996b8	0.114057004
92	0xbdc07451	-0.093971856
93	0xbd59bee5	-0.053160567
94	0xbc32ca33	-0.010912466
95	0xbdc6b14e	-0.09701787
96	0xbd61a2bf	-0.055086847
97	0xbc5e9817	-0.013586066
98	0xbe0b11d2	-0.13581017
99	0xbd9d88a0	-0.07692075
100	0x3d1b7e2e	0.03796213
101	0x3e74303f	0.2384653
102	0xbd3a9193	-0.045548987
103	0x3d82a989	0.063799925
104	0xbc5bf1e9	-0.013424375
105	0xbe14278c	-0.14468211
106	0x3de5e468	0.11225206
107	0xbe90effa	-0.28308088
108	0xbd4da587	-0.050206687
109	0xbd632cb7	-0.055462565
110	0xbd604fe9	-0.05476371
111	0x3d27966a	0.04091493
112	0x3da7a06d	0.08184896
113	0x3ddab539	0.10679097
114	0x3e00dd19	0.12584342
115	0xbe060c22	-0.13090566
116	0xbd21a8c2	-0.03946758
117	0xbe85ac8a	-0.261082
118	0x3cc198b1	0.02363238
119	0x3e364836	0.17800984
120	0xbdb6fc9d	-0.08934901
121	0xbc94af69	-0.018150048
122	0x3d529fc5	0.0514219
123	0x3df7234c	0.12067279
124	0x3e2f263e	0.17104432
125	0x3cdff6ba	0.027339328
126	0xbd9bb368	-0.076025784
127	0x3dd14583	0.102183364
128	0xbde5ea79	-0.11226363
129	0xbd8c3de2	-0.06847741
130	0xbd0a3be5	-0.033748526
131	0xbdf07f31	-0.1174301
132	0x3e3d1f14	0.18468887
133	0xbdc846f0	-0.09779155
134	0xbdad98ae	-0.08476387
135	0x3d2db872	0.04241223
136	0x3e3010d8	0.17193925
137	0x3befada0	0.007314399
138	0xbcbfa35a	-0.023393322
139	0xbdb59f82	-0.08868314
140	0x3e3b79b1	0.1830814
141	0xbdb6df0b	-0.08929261
142	0x3dd6565e	0.10465692
143	0xbe0b6f95	-0.13616784
144	0x3e38e301	0.18055345
145	0xbe56a120	-0.20959902
146	0xbe89114a	-0.26771003
147	0xbd91c640	-0.07117891
148	0x3cefa963	0.029255575
149	0xbd955f27	-0.072935395
150	0xbd43118c	-0.047624156
151	0xbd253c4a	-0.0403407
152	0x3d8e6aa9	0.069539376
153	0xbe1f8923	-0.15579657
154	0xbdac2a34	-0.08406487
155	0x3dbbd678	0.09171766
156	0x3c42bc1d	0.01188567
157	0xbd7b8840	-0.061409235
158	0xbdfd1089	-0.123566695
159	0xbcfc0658	-0.030764744
160	0x3e0284dc	0.12745994
161	0xbddc15b1	-0.10746325
162	0xbb8da360	-0.0043224543
163	0x3d0a1e45	0.033720274
164	0xbdfdd931	-0.123949416
165	0x3df99e15	0.12188355
166	0xbce52b17	-0.027974648
167	0xbe3544a6	-0.17701969
168	0xbeb58080	-0.354496
169	0x3e3cd9b2	0.18442419
170	0xbcf0b064	-0.029380985
171	0x3d818e11	0.06325925
172	0x3d0c9d9c	0.034329996
173	0x3de17759	0.11009092
174	0x3dd20912	0.10255636
175	0x3e294f79	0.16534223
176	0x3cbae93e	0.022816297
177	0x3c49f496	0.01232638
178	0xbdfe65fc	-0.12421796
179	0x3d90456f	0.070444934
180	0x3e4a4f78	0.19756877
181	0xbe4362b5	-0.19080622
182	0xbd4ac382	-0.049502857
183	0x3da75a96	0.08171575
184	0x3c874dfb	0.016516676
185	0xbdd6dab3	-0.10490932
186	0x3cdcee20	0.026969016
187	0x3c4f9920	0.012670785
188	0x3d133aec	0.035944864
189	0xbe02785c	-0.12741226
190	0x3d9dfc5e	0.07714151
191	0xbdfeef8c	-0.12448034
192	0x3b5f96d9	0.0034117012
193	0xbdada285	-0.08478264
194	0x3e0bdf25	0.13659342
195	0xbe11b6d3	-0.14229898
196	0x3e0b243e	0.13588044
197	0x3dffc07e	0.12487887
198	0xbdd0d761	-0.1019733
199	0x3e4c587d	0.1995563
200	0xbdc3cb8c	-0.09560308
201	0xbd82473c	-0.06361243
202	0x3de3474f	0.110975854
203	0xbd174b9f	-0.036937352
204	0xbe0bf64c	-0.13668174
205	0x3d1ccd47	0.038281705
206	0xbcc718e3	-0.02430386
207	0x3e162457	0.146623
208	0xbe1549a8	-0.14578879
209	0xbd193200	-0.0374012
210	0x3d9f9c82	0.07793523
211	0x3c9dd0bc	0.019264571
212	0xbd2564e6	-0.040379427
213	0x3d5fe21c	0.054658994
214	0x3d27ef50	0.04099971
215	0xbd329024	-0.043594494
216	0xbbba203a	-0.0056801112
217	0x3de5c1bd	0.11218593
218	0xbe66b6e5	-0.22530706
219	0xbe1c92c6	-0.15290365
220	0x3d8914b1	0.066934
221	0x3dbd5d82	0.09246351
222	0x3c9c5bc7	0.019086732
223	0xbe036a9f	-0.12833641
224	0xbe0a8f8c	-0.13531321
225	0xbe15b9ad	-0.14621611
226	0x3d04f4f8	0.032460183
227	0x3db11038	0.086456716
228	0xbd2799a3	-0.040918004
229	0x3dca1e70	0.09869087
230	0xbe0af269	-0.13569035
231	0xbc8b6f5c	-0.017020874
232	0x3ce7dadd	0.028302604
233	0xbd95d08e	-0.07315169
234	0x3c5c62ca	0.0134512875
235	0x3bdda010	0.0067634657
236	0xbdc5b735	-0.096540846
237	0xbd912182	-0.07086469
238	0xbd8c6b0f	-0.06856357
239	0xbb5dcfc2	-0.0033845757
240	0x3e7f7aaf	0.24949144
241	0x3e1a7d2c	0.15086812
242	0xbc92cf84	-0.017921217
243	0x3e05e0e3	0.13074069
244	0xbdfb813e	-0.1228051
245	0x3e039c81	0.1285267
246	0x3dc77ce3	0.09740617
247	0xbdc81c7f	-0.0977106
248	0xbd7408be	-0.05957865
249	0xbdb08b1f	-0.08620285
250	0x3d901674	0.070355326
251	0x3c99d90b	0.018780252
252	0xbd25125d	-0.040300716
253	0xbd81c467	-0.06336289
254	0xbe05fc71	-0.1308458
255	0xbc00e224	-0.007866416

linear_layer.1.bias f4 [100]
0	0xbd0d934c	-0.0345643
1	0x3d86956d	0.065714695
2	0xbc353e6f	-0.011062249
3	0x3dbc9481	0.09208012
4	0xbca6d551	-0.020365389
5	0xbc9fc315	-0.019502202
6	0xbd7554b3	-0.05989523
7	0x3dbb8f27	0.091581635
8	0xbd8c2c50	-0.068443894
9	0x3b652102	0.00349623
10	0xbd58d2c2	-0.05293537
11	0xbce550f8	-0.02799271
12	0x3d6c4d68	0.057691008
13	0x3dae0ae2	0.084981695
14	0xbd1cc950	-0.038277924
15	0xbc7b2954	-0.015329678
16	0xbbfa57c0	-0.007639855
17	0x3d8e7840	0.069565296
18	0x3c3a29f2	0.01136254
19	0xbd43ce62	-0.047804244
20	0xbcd5e727	-0.026111199
21	0x3cfbcdf1	0.030737849
22	0xbc47979c	-0.012182143
23	0x3d1cfd6c	0.03832762
24	0x3d03e534	0.032201007
25	0x3c55cc62	0.013049217
26	0x3d8955a6	0.06705789
27	0xbd21e89f	-0.039528485
28	0xbd674398	-0.056460947
29	0xbcc8f1c7	-0.02452935
30	0xbd922b99	-0.07137222
31	0x3cd31f33	0.025771713
32	0x3bbffe24	0.0058591533
33	0xbc40ea27	-0.011774576
34	0xbd1c079b	-0.03809319
35	0x3ce2dce6	0.027693223
36	0x3d995c17	0.07488268
37	0xbd6425ed	-0.05570023
38	0xbb6f5ff2	-0.0036525694
39	0xbcf8c0d7	-0.03036539
40	0xbd794160	-0.060853362
41	0xbd6e6839	-0.058204863
42	0x3cae65fe	0.021288868
43	0x3db3801c	0.08764669
44	0xbd3c5960	-0.045983672
45	0x3b6e2e71	0.00363436
46	0xba7c4fcb	-0.0009624927
47	0xbd474582	-0.048650272
48	0xba8b6575	-0.0010635095
49	0xbd746b9e	-0.059672944
50	0xbcb086dd	-0.021548683
51	0x3cfd55ee	0.030924764
52	0x3bf220b8	0.0073891543
53	0xbd35e752	-0.044410057
54	0x3c244da2	0.010028275
55	0x3d392e8b	0.045210402
56	0x3d9434d8	0.07236642
57	0xbd3373ef	-0.043811735
58	0x3bc91578	0.0061365925
59	0x3d13ffda	0.03613267
60	0xbd207d79	-0.03918216
61	0x3b7d4988	0.0038648564
62	0x3c3cb35d	0.011517373
63	0x3dafd364	0.085852414
64	0x3c19377e	0.009351609
65	0x3d13639e	0.035983674
66	0xbd2e8aa2	-0.04261268
67	0xb93a238c	-0.00017751585
68	0xbd05d5da	-0.032674648
69	0xbda3dfc7	-0.080016665
70	0xbd6398de	-0.055565707
71	0x3c1ae60c	0.0094542615
72	0xbd067e58	-0.032835335
73	0xbcf1157c	-0.02942919
74	0x3d2594ec	0.040425226
75	0x3c4ba725	0.012429987
76	0x3d522ad1	0.051310364
77	0xbd15a34c	-0.036532685
78	0x3d542ab8	0.051798552
79	0xbcff60c8	-0.031174079
80	0xbdcb8faf	-0.09939515
81	0xbc56852c	-0.013093274
82	0x3c226dcc	0.009913873
83	0xbca77b11	-0.020444425
84	0x3d5e1327	0.054217484
85	0xb9c559be	-0.0003764163
86	0x3c82d281	0.015969517
87	0x3cfd8893	0.030948913
88	0x3da82630	0.08210409
89	0xbb92558f	-0.004465766
90	0xbd463693	-0.04839189
91	0xbd766c75	-0.060162026
92	0x3bdd81a4	0.006759839
93	0x3c99c942	0.018772725
94	0x3cd43c0f	0.025907544
95	0x3c2e58ee	0.01064132
96	0x3d320ccb	0.04346923
97	0xbc3f4ac7	-0.011675543
98	0xbc2e0ac8	-0.010622688
99	0x3cbaf554	0.02282206

linear_layer.2.weight f4 [100, 100]
0	0xbd80e9c9	-0.06294591
1	0x3cb35d79	0.021895157
2	0x3d872310	0.065984845
3	0xbe359e86	-0.17736253
4	0x3da0ee93	0.078580044
5	0xbd3d1429	-0.046161804
6	0x3d578208	0.05261424
7	0xbda50472	-0.080574885
8	0x3dabefea	0.08395369
9	0xbd418c8e	-0.047253184
10	0xbd6da693	-0.058020186
11	0x3d2ddb1a	0.04244528
12	0xbd08ba62	-0.033380874
13	0xbdbf873e	-0.09351967
14	0x3cd16102	0.025558952
15	0xbe103b7a	-0.14085189
16	0x3d31c468	0.0434002
17	0xbd866b89	-0.065634795
18	0xbd35c868	-0.044380575
19	0x3e03db4c	0.12876624
20	0x3cbb5d93	0.022871768
21	0x3d5f63a3	0.05453838
22	0xbd6e90f0	-0.058243692
23	0xbd912318	-0.07086772
24	0xbe097b81	-0.13426019
25	0x3b59d05d	0.0033235766
26	0xbe46cc84	-0.19413954
27	0xbcf924ef	-0.03041312
28	0xbc089d39	-0.008338266
29	0x3b2a4098	0.0025978442
30	0x3d2f0150	0.04272586
31	0x3cc85142	0.02445281
32	0xbbc644b5	-0.006050671
33	0x3bc668af	0.0060549597
34	0x3cda07a5	0.026614973
35	0x3ba0ba43	0.0049050166
36	0xbc72c312	-0.014817016
37	0x3e789324	0.2427488
38	0x3cba94ed	0.022776091
39	0xbd8dde08	-0.06927115
40	0x3e0a4df0	0.13506293
41	0x3e21db50	0.15806317
42	0x3d9b18ff	0.07573127
43	0x3d05886f	0.032600816
44	0x3deb4f14	0.11489692
45	0xbcf88af2	-0.030339692
46	0x3e05e0eb	0.1307408
47	0x3d085ead	0.033293415
48	0xbe0f61ad	-0.14002104
49	0x3de3b007	0.11117559
50	0xba9efd41	-0.0012129919
51	0x3d8282a6	0.063725755
52	0xbe0259b5	-0.12729533
53	0x3d18d91b	0.037316423
54	0xbde6e1e4	-0.11273554
55	0xbd2caf73	-0.04215951
56	0xbea46f73	-0.3211628
57	0x3d0fc519	0.035100076
58	0x3dc1c6a5	0.094617166
59	0x3c6ac93b	0.014330204
60	0xbcec5262	-0.028847877
61	0xbc1d7d02	-0.009612324
62	0xbbf55988	-0.0074874796
63	0xbc15808f	-0.009124889
64	0x3d5388b4	0.051644042
65	0x3df1520b	0.117832266
66	0x3d262673	0.04056401
67	0xbd6c2119	-0.057648752
68	0x3d88ad0b	0.0667363
69	0x3c91a44a	0.017778534
70	0x3e711f84	0.23547179
71	0x3e8299c9	0.25507954
72	0x3c829869	0.015941815
73	0xbdeea81b	-0.11653157
74	0xbe41f1ba	-0.18939868
75	0x3d12dc3c	0.035854563
76	0xbc34a955	-0.0110267
77	0xbce979be	-0.028500434
78	0xbdaba71a	-0.083814815
79	0x3daddd10	0.0848943
80	0xbdc597a6	-0.09648065
81	0x3d739b16	0.059474073
82	0x3ce157d8	0.027507707
83	0x3db14f36	0.086576864
84	0x3e7b426f	0.24537061
85	0xbe0ec783	-0.13943295
86	0x3e232cb5	0.15935023
87	0xbe8b109f	-0.27161118
88	0xbd920374	-0.07129565
89	0xbdd661d8	-0.10467881
90	0x3d0da015	0.034576494
91	0x3df83528	0.12119514
92	0xbbb78625	-0.005600708
93	0xbdf5066e	-0.11964117
94	0xbd250a2c	-0.040292904
95	0xbca62eec	-0.020286046
96	0xbd8c22fa	-0.06842609
97	0x3cc3f0c3	0.023918515
98	0x3c6e0b0c	0.014529001
99	0x3d67850d	0.05652337
100	0xbd262280	-0.040560246
101	0x3cb34afa	0.021886338
102	0xbce905d5	-0.028445164
103	0xbe9919f3	-0.2990261
104	0xbc8bb2cf	-0.017053036
105	0x3d5aaf5b	0.05338989
106	0x3d61c727	0.055121567
107	0xbe5d7486	-0.21626481
108	0x3d1b18ee	0.03786557
109	0xbdfc2f84	-0.123137504
110	0x3dd24432	0.102669135
111	0xbe0b3ff4	-0.13598615
112	0xbd6fde58	-0.058561653
113	0xbe8be2cf	-0.2732148
114	0xbdd85f30	-0.105650306
115	0x3c3c086a	0.011476615
116	0x3c3e6d55	0.0116227465
117	0xbcfe0735	-0.031009296
118	0x3d9baf47	0.07601791
119	0x3d8e7c94	0.06957355
120	0x3daec98a	0.08534534
121	0x3e05ae59	0.1305479
122	0xbcd13ea0	-0.025542557
123	0xbd3cbc7c	-0.04607819
124	0x3d4a00e4	0.049317256
125	0x3d96e894	0.073685795
126	0xbe5a8627	-0.21340238
127	0x3d9de5e7	0.07709866
128	0x3c71336f	0.014721735
129	0xbb971a98	-0.0046113245
130	0x3db6ece5	0.08931903
131	0xbe1ef17a	-0.15521803
132	0x3e76f76f	0.24117826
133	0x3dbda6a9	0.092603035
134	0xbd8cecb6	-0.068810865
135	0xbda8a76a	-0.08235057
136	0x3cbf032f	0.023316948
137	0x3d517be8	0.051143557
138	0x3e756b65	0.23966749
139	0x3c8dd490	0.017313272
140	0x3e38fd78	0.1806544
141	0xbc8b34d5	-0.016992966
142	0x3e15f52d	0.14644308
143	0x3d38845e	0.04504811
144	0x3dfb690b	0.12275895
145	0x3e222e51	0.15837981
146	0xbe08a3ea	-0.13343778
147	0x3cd0bf08	0.025481716
148	0xbe492d58	-0.19646204
149	0x3d1a7284	0.037706867
150	0xbd896dbe	-0.06710385
151	0xbe33dd64	-0.17564923
152	0x3d9bf59f	0.07615208
153	0x3d662258	0.056185097
154	0x3e6bcdac	0.23027676
155	0x3e15ec18	0.14640844
156	0xbd853b3c	-0.06505439
157	0xbc1a0da1	-0.009402663
158	0xbd593e1d	-0.05303775
159	0xbda9398b	-0.082629286
160	0x3d00488e	0.031319194
161	0x3e18c8ef	0.149204
162	0x3e66f79f	0.22555397
163	0xbced3a06	-0.028958332
164	0xbe711ca3	-0.2354608
165	0xbd9d3d34	-0.07677689
166	0xbcd5aa44	-0.026082166
167	0x3bcda978	0.0062763058
168	0x3c6efb42	0.014586272
169	0x3c86acc4	0.016439803
170	0xbd3754c0	-0.04475856
171	0x3d57038d	0.05249362
172	0x3caaf88c	0.02087047
173	0xbdf8d1ff	-0.121494286
174	0x3d585cb3	0.05282278
175	0xbdb2be52	-0.08727707
176	0x3c45612b	0.012047092
177	0x3dbef4be	0.093240246
178	0x3bd00901	0.0063487296
179	0x3d9969c7	0.074908786
180	0xbc143b6d	-0.009047371
181	0xbdbbb616	-0.091655895
182	0xbdd67f12	-0.104734555
183	0xbe30a899	-0.17251815
184	0xbcf3d984	-0.029766805
185	0x3df7cc49	0.12099511
186	0x3d2be537	0.041966643
187	0xbde68296	-0.11255376
188	0x3c21f845	0.009885852
189	0xbd97857a	-0.073985055
190	0x3c05beb7	0.008163146
191	0x3d8bc46e	0.06824575
192	0x3cef6a98	0.029225633
193	0xbe0d1f19	-0.13781394
194	0xbc89440e	-0.016756084
195	0xbd90343c	-0.07041213
196	0x3d6f8e44	0.058485284
197	0x3d4e9147	0.050431516
198	0x3d04e07f	0.03244066
199	0xbc4b88a0	-0.012422711
200	0xbcedbb58	-0.029019997
201	0xbdbde5f2	-0.09272374
202	0xbd13c1a5	-0.036073346
203	0x3d1d31bb	0.038377505
204	0x3e337882	0.17526439
205	0xbdb6a1ea	-0.089176014
206	0x3da22460	0.07917094
207	0x3ccad6bb	0.024760595
208	0xbd3c4ddb	-0.045972686
209	0x3e3f4c86	0.18681535
210	0xbe229d18	-0.15880239
211	0xbe194a39	-0.1496972
212	0xbdb6e5fe	-0.08930586
213	0xbe230aad	-0.15922041
214	0xbd3fa85f	-0.04679143
215	0x3d5f2a6c	0.054483816
216	0x3e4b5d7a	0.19859877
217	0x3d9aae61	0.075527914
218	0xbe276918	-0.16348684
219	0x3c068d6d	0.0082124295
220	0xbe09ed6a	-0.13469473
221	0x3dc3dc50	0.09563506
222	0xbe8b50ea	-0.2721017
223	0x3dc9dbea	0.098563984
224	0xbdabf5d4	-0.08396497
225	0xbd8b4325	-0.06799916
226	0x3dba0d96	0.090846226
227	0x3c8e8edb	0.017402103
228	0xbe083ad9	-0.13303699
229	0x3d482c76	0.048870526
230	0xbe182d04	-0.14860922
231	0x3d876fc8	0.066131175
232	0xbd7df4e7	-0.062001135
233	0x3c54d931	0.012991236
234	0xbcc174f7	-0.023615343
235	0x3dba33c7	0.09091907
236	0xbd637ef9	-0.055541012
237	0xbe19e227	-0.15027677
238	0x3bddd3ef	0.006769649
239	0x3d86056c	0.06544003
240	0xbe0614ea	-0.13093916
241	0x3cd4d01a	0.025978137
242	0xbe00db46	-0.12583646
243	0xbc4ff809	-0.0126934135
244	0x3cde46de	0.027133401
245	0xbd817863	-0.0632179
246	0xbcaaa0c6	-0.020828616
247	0x3c8390ef	0.01606032
248	0xbd6329b7	-0.055459704
249	0xbd02cf95	-0.031936247
250	0xbe04b2ce	-0.12958834
251	0x3d3ba2c2	0.045809515
252	0xbe0675d3	-0.13130884
253	0x3cb1be66	0.021697234
254	0x3d3aa8dd	0.045571197
255	0x3d4bcc9e	0.049755685

linear_layer.2.bias f4 [100]
0	0xbd3ff863	-0.04686774
1	0xbc665bd3	-0.014059979
2	0x3c3f0975	0.01165997
3	0x3c135657	0.008992753
4	0x3c6594e1	0.014012546
5	0x3d134a3f	0.03595948
6	0x3d11b05d	0.035568584
7	0x3c0a47f2	0.008440005
8	0x3cd51f0a	0.026015777
9	0x3cff3209	0.031151788
10	0xbd055739	-0.032553885
11	0xbd4b1d89	-0.049588714
12	0xbd81196a	-0.063036755
13	0x3d72cc85	0.059277076
14	0xbce2b637	-0.027674777
15	0xbc37fa3c	-0.011229094
16	0xbd3432e5	-0.04399385
17	0x3d5b632b	0.05356137
18	0x3c0ec280	0.008713365
19	0xbcccb0d1	-0.024986656
20	0xbd899ca8	-0.06719333
21	0xbd1564e0	-0.036473155
22	0xbc65860d	-0.014009011
23	0x3d7f93ee	0.062396936
24	0x3ce02751	0.027362498
25	0xbcf241ff	-0.029572485
26	0xbd0ce85e	-0.03440129
27	0xbd7076f4	-0.058707193
28	0x3cc19de3	0.023634857
29	0xbd2fc5c0	-0.0429132
30	0xbd6be772	-0.05759377
31	0xbcd5a974	-0.026081778
32	0x3a83cb83	0.0010055158
33	0x3c2827cb	0.010263394
34	0xbca2309e	-0.019798573
35	0xbd4bca30	-0.049753368
36	0xbc39b3e9	-0.011334398
37	0xbd3fba7f	-0.046808716
38	0xbca4b86a	-0.020107467
39	0xbc13b353	-0.009014922
40	0xbcbc0492	-0.022951398
41	0xbd707bdf	-0.058711883
42	0xbc9e1117	-0.019295258
43	0x3cbc8edd	0.023017341
44	0x3c105b32	0.008810805
45	0x3b507c3d	0.0031812333
46	0xbab43536	-0.0013748768
47	0x3bf307c7	0.0074166986
48	0x3cae3364	0.02126474
49	0x3cab0892	0.02087811
50	0xbc9c6774	-0.019092299
51	0x3ac69a1d	0.001515213
52	0x3d57b45b	0.052662235
53	0x3d084e51	0.033277813
54	0x3d45420f	0.0481587
55	0xbd136d7d	-0.035993088
56	0xbd0ff716	-0.03514775
57	0xbc17db5c	-0.009268608
58	0x3c755452	0.014973717
59	0xbd3f56e4	-0.046713725
60	0xbbd44542	-0.0064779827
61	0x3d1c5b07	0.038172748
62	0x3cbf42a0	0.023347199
63	0xbc60c840	-0.013719618
64	0xbcc4f705	-0.02404357
65	0x39c65429	0.00037828207
66	0xbc9296c7	-0.017894162
67	0xbab8a784	-0.001408801
68	0x3ae03b48	0.0017107511
69	0x3ba237a7	0.004950482
70	0xbaaff270	-0.0013423692
71	0xbc520e60	-0.01282081
72	0xbc84183b	-0.016124835
73	0xbc1ad4a6	-0.009450113
74	0xbd13b333	-0.03605957
75	0xbd4ff7ba	-0.05077336
76	0xbc3b2141	-0.011421503
77	0x3c0c356c	0.008557659
78	0x3cbcbe77	0.02304004
79	0xbd14ae03	-0.036298763
80	0xbd18e19a	-0.037324525
81	0xbb83bd2f	-0.004020355
82	0xbcc4f759	-0.024043726
83	0xbcd2625d	-0.025681669
84	0x3d2bebab	0.041972797
85	0x3d1c2488	0.038120776
86	0x3cb567b1	0.02214417
87	0x3d9fa6d6	0.07795493
88	0xbcf52c18	-0.029928252
89	0x3b672d0e	0.0035274657
90	0x3bd1237a	0.006382403
91	0x3c919c5f	0.017774759
92	0xbca269f6	-0.019825917
93	0xbda09267	-0.07840424
94	0x3bca3bd7	0.0061716842
95	0xbd48c911	-0.049019877
96	0xbc33ee47	-0.010982103
97	0x3c831cec	0.016005002
98	0xbd17b015	-0.03703316
99	0xbcbc7041	-0.023002746

linear_layer.3.weight f4 [100, 100]
0	0xbe1a51dc	-0.1507029
1	0x3dc149d2	0.09437908
2	0xbd301fb1	-0.042998973
3	0x3db31ae2	0.08745362
4	0xbc6c1b97	-0.014410875
5	0xbd1d2a10	-0.038370192
6	0x3d2e99c0	0.042627096
7	0x3d3df6f8	0.046378106
8	0x3c927093	0.017875945
9	0xbd83d16d	-0.06436429
10	0xbe125d70	-0.14293456
11	0x3d92f0be	0.07174824
12	0xbddf17e4	-0.10893229
13	0x3e734d76	0.23760018
14	0xbd2ec76b	-0.04267065
15	0x3d17ab0c	0.037028357
16	0xbe701703	-0.23446278
17	0x3db50311	0.088384755
18	0xbdc2f6d5	-0.09519736
19	0x3c726bbd	0.014796195
20	0xbde90fbf	-0.113799565
21	0xbdf0c348	-0.11755997
22	0xbd4c7bdd	-0.049922813
23	0x3e0f7b63	0.14011912
24	0xbb5a295c	-0.0033288812
25	0x3d814cc5	0.06313471
26	0x3b89a4d3	0.004200557
27	0xbd7afa1e	-0.061273687
28	0x3e5c1489	0.21492209
29	0x3b8707e3	0.004120813
30	0xbda9e10e	-0.08294879
31	0x3b875c08	0.004130844
32	0xbddf156f	-0.1089276
33	0xbd314255	-0.04327615
34	0xbd4d1911	-0.050072733
35	0xbcb1d940	-0.021710038
36	0xbea4510f	-0.32093093
37	0xbe3c2985	-0.18375213
38	0x3cd79fba	0.02632128
39	0xbdfd76e2	-0.12376191
40	0x3e2fb735	0.17159732
41	0xbe4290d6	-0.19000563
42	0xbdf27810	-0.11839306
43	0x3d808421	0.062752016
44	0x3d267114	0.040635183
45	0xbc29b707	-0.0103585785
46	0x3d5d9b93	0.054103445
47	0x3e251d02	0.16124347
48	0xbe820ecc	-0.25401914
49	0x3dd64535	0.10462419
50	0x3d841562	0.06449391
51	0xbd75cb82	-0.060008533
52	0xbc92666d	-0.017871106
53	0x3e1ca545	0.1529742
54	0x3e4fb087	0.20282184
55	0x3bbee8ae	0.0058260774
56	0x3dbae664	0.09125975
57	0xbe1e2ce8	-0.15446818
58	0xbe1fe2f6	-0.15613922
59	0xbe06013f	-0.13086413
60	0xbcae4160	-0.021271408
61	0xbdfdff2f	-0.12402188
62	0x3c81511f	0.015785752
63	0xbe0c5c4a	-0.1370708
64	0x3dca185f	0.0986793
65	0x3c3a5a07	0.011374003
66	0x3d8262d3	0.063665055
67	0x3cdb8aa2	0.026799504
68	0x3dcd6e20	0.1003077
69	0xbd28c6cb	-0.04120521
70	0x3e4c5ea8	0.19957983
71	0xbd6c1c65	-0.057644267
72	0x3dbdb6dc	0.09263393
73	0x3d8edcca	0.06975706
74	0x3e3534d4	0.17695934
75	0x3dd45586	0.10367875
76	0xbd95e079	-0.073182054
77	0xbc3114d2	-0.010808187
78	0xbbf06b04	-0.007336976
79	0xbd01306e	-0.031540327
80	0xbadeef39	-0.001700855
81	0x3dfb4d4b	0.12270602
82	0xbcac9b48	-0.021070138
83	0xbcc0caeb	-0.023534259
84	0x3e793e3a	0.24340144
85	0xbdfd7d89	-0.123774596
86	0x3d02f485	0.031971473
87	0xbd05b5ec	-0.032644197
88	0xbdd5ec0a	-0.104454115
89	0x3ce1c45e	0.027559455
90	0xbe3704bc	-0.178729
91	0x3e6b0bd9	0.22953738
92	0xbbca25bb	-0.0061690486
93	0x3db240fc	0.08703801
94	0x3cba9e1e	0.022780474
95	0x3e0dd862	0.13852075
96	0x3d9650c7	0.07339626
97	0x3cc256dc	0.023723058
98	0xbdef81eb	-0.11694702
99	0xbd495f64	-0.049163237
100	0x3e30a287	0.172495
101	0xbb77a4c9	-0.0037787429
102	0x3bcd8bf3	0.0062727868
103	0xbe02db7b	-0.12779038
104	0x3cc6e5f4	0.024279572
105	0x3cc171e6	0.023613881
106	0xbdedc86a	-0.116104916
107	0x3d830325	0.06397084
108	0xbaa2fac0	-0.0012434348
109	0xbd8dd4ee	-0.06925379
110	0xbdc86268	-0.097843945
111	0x3e068565	0.13136823
112	0xbd22367a	-0.039602734
113	0x3e8975c4	0.2684766
114	0xbdd489be	-0.10377835
115	0xbcacfece	-0.021117594
116	0xbd64f6c5	-0.0558994
117	0xbd9083b8	-0.07056373
118	0x3dc282db	0.09497615
119	0x3cd8c485	0.026460895
120	0x3ddbb989	0.107287474
121	0xbd86229e	-0.065495715
122	0x3a9b9919	0.0011871188
123	0xbe3ce4a0	-0.18446589
124	0xbe22b824	-0.15890557
125	0x3dbca17c	0.09210488
126	0x3d19b330	0.037524402
127	0xbe3a1b06	-0.18174371
128	0x3e1b6125	0.15173776
129	0x3dc16bab	0.09444364
130	0xbe255424	-0.16145378
131	0x3e572687	0.21010791
132	0x3d3bfba5	0.045894284
133	0xbe2ef956	-0.17087302
134	0x3da5f4e9	0.081033535
135	0xbd342099	-0.0439764
136	0x3dde31de	0.10849355
137	0xbe5cdd8e	-0.21568891
138	0x3c267f4d	0.010162187
139	0xb977c0bd	-0.00023627556
140	0x3cb8f186	0.022576105
141	0x3dc43bdb	0.09581729
142	0xbd26bd23	-0.04070772
143	0x3d0213a8	0.031757027
144	0x3e47e5bc	0.1952123
145	0xbbee37b8	-0.007269826
146	0xbe3f9fa6	-0.18713245
147	0x3d1c9748	0.03823021
148	0x3d25c60c	0.040472075
149	0x3e24e1ed	0.16101809
150	0x3d8282e9	0.063726254
151	0x3c3765db	0.011193718
152	0x3dd7bbfc	0.10533902
153	0xbd0f9c89	-0.035061393
154	0x3d465ca4	0.048428193
155	0xbcc47b5e	-0.023984607
156	0xbd2bc62d	-0.041937042
157	0xbd98b1b2	-0.07455768
158	0x3dfa4293	0.12219729
159	0x3da21a26	0.07915144
160	0x3d81ef9c	0.0634453
161	0xbda33b2b	-0.0797027
162	0xbc8e5639	-0.017375099
163	0xbd20fea9	-0.039305363
164	0x3dbbb588	0.09165484
165	0xbdda9f78	-0.106749475
166	0xbe2544c0	-0.16139507
167	0xbcfd5a77	-0.030926926
168	0xbdf9ff5d	-0.1220691
169	0xbe3c57dd	-0.18392892
170	0xbd9a84f3	-0.07544889
171	0xbcc14fb1	-0.02359757
172	0x3e581d77	0.2110499
173	0xbd92855f	-0.07154345
174	0xbdbcb464	-0.09214094
175	0xbd20b36e	-0.039233617
176	0xbdb5f1da	-0.0888402
177	0xbe19f516	-0.15034899
178	0x3b1728fe	0.0023065205
179	0xbb96469f	-0.0045860554
180	0xbd1324b6	-0.035923682
181	0xbd200b8d	-0.039073516
182	0xbc392984	-0.011301402
183	0x3e1e5af0	0.15464377
184	0x3d0c9c8c	0.034328982
185	0x3d71d7c6	0.05904367
186	0x3b170f8f	0.0023050045
187	0xbdbf25da	-0.093333915
188	0xbc8ce52d	-0.017199123
189	0xbce2af40	-0.027671456
190	0x3c011c05	0.0078802155
191	0x3dc5e1d6	0.096622154
192	0xbcc55c42	-0.024091844
193	0xbd2ea49a	-0.042637445
194	0x3cc3f170	0.023918837
195	0xbde79655	-0.113079704
196	0xbc0a7c9f	-0.008452564
197	0xbdeb6e18	-0.11495608
198	0xbe4c6b47	-0.19962798
199	0x3cc63c88	0.024198785
200	0xbd22a09a	-0.039703943
201	0x3ca02bad	0.019552076
202	0xbd5da43c	-0.054111704
203	0xbdfb1fa1	-0.12261892
204	0xbaf075ae	-0.0018345618
205	0xbd909416	-0.07059495
206	0xbd39ace4	-0.045330897
207	0xbd861a2a	-0.06547959
208	0x3d99cf6a	0.07510264
209	0xbe1e6ab7	-0.15470396
210	0x3d43d76c	0.047812864
211	0x3e17732e	0.14790031
212	0xbe0f7681	-0.1401005
213	0xbcb13713	-0.021632707
214	0x3bc39e8b	0.0059698275
215	0x3d455953	0.04818089
216	0xbd23acc5	-0.039959688
217	0xbe07a196	-0.13245234
218	0xbe62ebbd	-0.2216024
219	0xbd3cee20	-0.04612553
220	0x3e521899	0.20517196
221	0xbbc8ad3e	-0.0061241677
222	0x3cb41a64	0.02198524
223	0xbd997493	-0.07492938
224	0x3cb877a2	0.022517983
225	0xbd4fc429	-0.050724182
226	0x3d9167ec	0.070999
227	0x3d03ba64	0.032160178
228	0xbce6582c	-0.028118216
229	0x3d704a2a	0.05866448
230	0xbda2e561	-0.07953907
231	0xbd90113d	-0.07034538
232	0x3d973ed4	0.073850304
233	0xbdcab1ab	-0.09897169
234	0xbe4d7583	-0.20064358
235	0x3e496321	0.19666721
236	0x3d4cf228	0.050035626
237	0x3da735c4	0.08164552
238	0x3d857200	0.065158844
239	0x3e7f25f0	0.24916816
240	0x3d982b09	0.07430083
241	0x3d0f1279	0.034929726
242	0xbdad4147	-0.08459716
243	0xbe0e19f9	-0.13877095
244	0x3d96212e	0.07330547
245	0xbd7ac944	-0.061227098
246	0xbd7eeeb3	-0.06223936
247	0xbbbff9e7	-0.005858648
248	0x3d6b6777	0.05747172
249	0xbe4a931b	-0.19782679
250	0x3d02b1b7	0.031907763
251	0x3d99ab52	0.0750338
252	0xbd356ba3	-0.044292103
253	0xbd890afe	-0.0669155
254	0xbe0d7322	-0.13813451
255	0x3db77993	0.08958735

linear_layer.3.bias f4 [100]
0	0x3d10bf8d	0.035338927
1	0x3c6c1b9a	0.014410878
2	0xbd18cf2c	-0.03730695
3	0xbd625a8b	-0.05526213
4	0xbc69b314	-0.014263887
5	0xbd102893	-0.035194945
6	0x3d48259c	0.048863992
7	0x3d0af4e1	0.03392494
8	0x3d1f2d2c	0.03886144
9	0xbae2d3de	-0.0017305573
10	0xbd7f5877	-0.062340226
11	0xbcec70db	-0.028862407
12	0x3cf0e2aa	0.029404957
13	0x3ac2b8d4	0.0014856108
14	0x3bb678da	0.005568606
15	0xbc190eab	-0.009341876
16	0xbc2f699e	-0.010706333
17	0xbb828098	-0.0039826147
18	0xbb88f02c	-0.0041790213
19	0x3d0c2cd8	0.034222454
20	0xbd78bfc1	-0.060729746
21	0x3d3682ee	0.044558458
22	0x3cf52943	0.029926902
23	0x3d02c9a9	0.0319306
24	0xbb599d3c	-0.0033205291
25	0x3b2e35e2	0.002658241
26	0x3d137f88	0.036010295
27	0x3d0d7916	0.034539305
28	0x3cab1c6e	0.02088758
29	0x3d33bdb5	0.04388209
30	0xbc9cf1ac	-0.019158207
31	0xbab32aef	-0.0013669411
32	0x3d0c3d91	0.0342384
33	0x3cfbaa17	0.030720754
34	0x3c189046	0.009311741
35	0xbc8ebe33	-0.017424678
36	0x3ca59ae2	0.020215455
37	0x3ba6e75f	0.0050934996
38	0xbcdd375c	-0.027003936
39	0x3aceef94	0.0015787953
40	0xbcbb0024	-0.022827215
41	0x3c3c124e	0.011478974
42	0xbd0bb138	-0.034104556
43	0xbc7cbc70	-0.015425786
44	0x3cc73df6	0.024321537
45	0x3d0e0d5e	0.034680717
46	0x3d47939f	0.048724767
47	0xbd99a385	-0.07501892
48	0x3d4237e2	0.047416575
49	0xbc94e0c9	-0.018173592
50	0x3cfe175e	0.031017002
51	0xbcb6ae61	-0.022299947
52	0xbc116287	-0.008873588
53	0xbc69a7a3	-0.014261159
54	0xbc86e1d4	-0.016465105
55	0xbc6a6ab5	-0.0143076675
56	0xbce2d694	-0.02769021
57	0xbd105ec3	-0.03524662
58	0x3c886ed8	0.016654417
59	0x3d15ace2	0.036541827
60	0x3a4da688	0.00078449445
61	0x3bc5be6c	0.006034663
62	0xb9206052	-0.00015294671
63	0x3c6ffe10	0.014647976
64	0xbbf085ce	-0.0073401695
65	0x3bbf0415	0.005829344
66	0x3d63a805	0.055580158
67	0xbca68fe1	-0.020332279
68	0x3c087308	0.008328207
69	0xbbe89633	-0.0070979833
70	0x3ce41ffb	0.02784728
71	0x3c685141	0.014179529
72	0xbbdab4a1	-0.0066743647
73	0xbc2bf5c6	-0.010495609
74	0xbcf956f1	-0.030436965
75	0xbc93cbcc	-0.018041514
76	0xba87af83	-0.0010351989
77	0xbc9105a8	-0.017702892
78	0x3c23fba8	0.01000873
79	0xbce9851b	-0.028505852
80	0x3bd04590	0.0063559487
81	0x3c553185	0.013012295
82	0xbbd71998	-0.0065643303
83	0xbb0b93b5	-0.0021297757
84	0xbd30ec1d	-0.043193925
85	0x3c7a6d2f	0.01528482
86	0x3caa5ad9	0.020795273
87	0x3cb6cea0	0.022315323
88	0xbc56d57b	-0.013112421
89	0xbbf0a6a9	-0.007344086
90	0x3c566eb0	0.013087913
91	0x3c9b9142	0.018990163
92	0x3d1c94da	0.038227893
93	0xbc94a424	-0.018144675
94	0x3b471f56	0.0030383668
95	0x3c19a460	0.009377569
96	0x3c675bbc	0.014120992
97	0x3c88f7f9	0.016719805
98	0xbd18e421	-0.037326936
99	0xbce72a7d	-0.028218502

linear_layer.4.weight f4 [100, 100]
0	0xbcd5b8da	-0.02608912
1	0x3d3151fd	0.04329108
2	0x3d93ad80	0.07210827
3	0x3da8511b	0.08218595
4	0x3d7ed665	0.06221618
5	0xbb8cb9c0	-0.004294604
6	0xbd50ac7c	-0.050945744
7	0x3e0fa815	0.14028962
8	0x3da0a277	0.07843488
9	0x3d239a22	0.039941914
10	0xbe089e9d	-0.13341756
11	0x3da401b2	0.08008136
12	0x3da13b1d	0.07872603
13	0x3e109fed	0.14123507
14	0x3ddc9105	0.10769848
15	0x3e42e653	0.19033174
16	0x3e2effca	0.17089763
17	0x3e9ef47c	0.31045902
18	0xbb883685	-0.00415689
19	0x3cd40363	0.025880521
20	0xba886905	-0.0010407275
21	0x3d4acd7a	0.049512364
22	0xbc401a19	-0.011724972
23	0x3e063ca2	0.13109067
24	0x3e1635a6	0.14668903
25	0xbd99f298	-0.07516974
26	0x3d866630	0.065624595
27	0xbdd446ff	-0.10365104
28	0x3e18e3cf	0.14930652
29	0xbd87e389	-0.06635196
30	0x3e2497c7	0.16073523
31	0xbd97d9ee	-0.07414614
32	0xbe39d75f	-0.18148564
33	0x3d1b4404	0.03790666
34	0x3c2656ce	0.010152532
35	0xbbab9669	-0.005236436
36	0xbe32989f	-0.17441033
37	0x3d43a1b9	0.047761653
38	0x3e181296	0.1485084
39	0x3d29b442	0.041431673
40	0xbe5b7694	-0.21431953
41	0xbe855709	-0.26042965
42	0xbe99baa2	-0.30025202
43	0x3d8d0816	0.06886308
44	0xbd3f8e2d	-0.04676645
45	0xbe662e43	-0.22478585
46	0x3e2662a2	0.16248563
47	0xbd83e569	-0.06440241
48	0x3d8b8011	0.06811536
49	0x3c8d4060	0.01724261
50	0xbd5355d5	-0.051595528
51	0xbde1e06c	-0.11029133
52	0xbd9ce2e1	-0.07660461
53	0x3b5e53c8	0.003392445
54	0xbd1365e2	-0.035985835
55	0x3d830c86	0.06398873
56	0x3d6aa028	0.057281643
57	0x3d87df03	0.06634333
58	0x3da60391	0.08106149
59	0x3d4907cb	0.049079698
60	0x3dd57ca0	0.10424161
61	0xbc4219b5	-0.011846949
62	0x3b371929	0.002793858
63	0x3cdc5adc	0.026898794
64	0x3dcda833	0.10041847
65	0x3cc876f1	0.024470778
66	0xba2d7566	-0.000661692
67	0xbd230b7a	-0.039805867
68	0xbe681991	-0.22666003
69	0x3e1cea25	0.15323694
70	0x3d6d2f6e	0.05790656
71	0x3dd95013	0.10610976
72	0xbddbd566	-0.10734062
73	0x3e472783	0.19448666
74	0x3ca7f237	0.02050124
75	0xbe357b5d	-0.1772284
76	0x3dcbe32c	0.09955439
77	0x3d88b7e6	0.06675701
78	0xbce6cce4	-0.028173871
79	0x3d089ae2	0.033350833
80	0x3d88c185	0.06677536
81	0x3d9069df	0.07051443
82	0x3d440b48	0.04786232
83	0x3c216c31	0.009852455
84	0xbd1ecbd5	-0.038768608
85	0x3c87ef78	0.01659368
86	0x3e05ef00	0.13079453
87	0xbcff2b36	-0.031148534
88	0xbd3960e4	-0.045258418
89	0xbd914668	-0.07093507
90	0xbcbc2b9c	-0.022970013
91	0x3dffa890	0.124833226
92	0xbe5b1605	-0.21395119
93	0x3dcc2351	0.099676736
94	0xbddf49b1	-0.109027274
95	0xbd863c9e	-0.065545306
96	0x3cc95426	0.024576258
97	0xbc83e3c4	-0.016099818
98	0xbd7ca00b	-0.061676066
99	0xbcceb2f3	-0.025231814
100	0xbd98dd1b	-0.074640475
101	0xbca809e2	-0.020512525
102	0xbded8ca0	-0.11599088
103	0xbc4c79e1	-0.01248023
104	0xbc9c386d	-0.019069875
105	0xbd86e13f	-0.06585931
106	0xbe383660	-0.17989492
107	0xbd004924	-0.031319752
108	0xbc9bb0e6	-0.01900525
109	0xbd656a9b	-0.05600987
110	0xbc67f0cb	-0.014156531
111	0xbca8f2c4	-0.020623572
112	0x3e09605f	0.13415669
113	0x3dd1880e	0.102310285
114	0x3e792519	0.24330558
115	0xbd882c09	-0.06649024
116	0xbe094c9f	-0.13408135
117	0xbdab81e3	-0.08374383
118	0xbce817a0	-0.028331578
119	0x3d720213	0.05908401
120	0xbd993309	-0.07480437
121	0x3dc93cfb	0.09826084
122	0x3db94d7b	0.09047981
123	0xbd5fd323	-0.054644715
124	0x3d115a81	0.035486702
125	0xbd9dba40	-0.0770154
126	0x3dada9b1	0.08479632
127	0x3e02da99	0.12778701
128	0x3e3558b1	0.17709614
129	0x3da21078	0.079132974
130	0xbd8c85b7	-0.068614416
131	0x3d8fdbe8	0.07024366
132	0x3d673e30	0.05645579
133	0x3ca4972b	0.020091614
134	0x3be59aaf	0.007006965
135	0xbe726d98	-0.23674619
136	0xbe030b9d	-0.12797399
137	0xbd9de127	-0.0770896
138	0x3dd1dec5	0.10247568
139	0x3d7e434c	0.062075898
140	0x3d288f77	0.041152444
141	0x3d58e8e6	0.052956484
142	0x3d9b5461	0.075844534
143	0x3e31b4c6	0.17354116
144	0x3d4a3152	0.04936344
145	0x3c9be7ad	0.01903137
146	0x3e6b35d4	0.22969753
147	0x3d9c0270	0.076176524
148	0xbd2d62e3	-0.042330634
149	0xbe205153	-0.15656023
150	0xbd14fbe8	-0.03637305
151	0x3d81b7ca	0.06333883
152	0xbd1d93d3	-0.038471054
153	0xbd52d16d	-0.051469255
154	0xbd7091be	-0.05873274
155	0xbda20eb5	-0.079129614
156	0xbd24ecfc	-0.04026507
157	0x3dbf27c4	0.093337566
158	0xbd5988b5	-0.05310889
159	0x398f1fc1	0.00027298744
160	0xbd12b8e8	-0.03582087
161	0x3dabc672	0.0838746
162	0x3c40d90d	0.011770499
163	0xbe5a7d9b	-0.21336977
164	0xbbdb9589	-0.0067011756
165	0x3e393f66	0.18090591
166	0x3e1221dd	0.1427073
167	0x3e3acc1a	0.18241921
168	0xbe0d8b2f	-0.13822626
169	0xbdcf24a5	-0.10114411
170	0xbdd1e2b5	-0.10248319
171	0xbe05ae7d	-0.13054843
172	0x3a95def5	0.0011434244
173	0xbe438fd4	-0.19097835
174	0xbc54a196	-0.012977978
175	0x3de50e3d	0.11184356
176	0x3d889769	0.06669504
177	0xbe48f4c3	-0.19624619
178	0xbe3f4128	-0.18677199
179	0x3dca973f	0.09892129
180	0x3e00840b	0.1255037
181	0xbe21a6dd	-0.1578631
182	0x3d957f14	0.07299629
183	0xbda60553	-0.08106484
184	0x3d8343e3	0.06409433
185	0x3d05d4ac	0.032673523
186	0xbe152c68	-0.14567721
187	0xbd7d8635	-0.061895568
188	0xbe04fa40	-0.12986088
189	0xbe190576	-0.1494349
190	0x3db85cc8	0.090020716
191	0xbda40e36	-0.08010523
192	0xbe0eb364	-0.1393562
193	0x3cef24c6	0.02919234
194	0x3ccc679a	0.024951745
195	0x3d7bc666	0.061468504
196	0xbd0303d6	-0.03198608
197	0xbdc65f14	-0.096861035
198	0x3ded306c	0.11581501
199	0x3d49a3b9	0.049228404
200	0x3d3285df	0.0435847
201	0x3b9573b0	0.00456091
202	0xbdda9bb2	-0.10674228
203	0x3e1b9d97	0.15196835
204	0xbe2000c7	-0.15625297
205	0xbdac2aa1	-0.08406568
206	0x3d388c79	0.04505584
207	0x3df428f3	0.11921873
208	0xbe3837de	-0.17990062
209	0x3cf454de	0.029825624
210	0x3c5a74fc	0.013333555
211	0x3cbbd24b	0.022927424
212	0xbd87e04a	-0.066345766
213	0xbe039b4d	-0.12852211
214	0x3d2e00ba	0.04248116
215	0x3ddf6f8e	0.10909949
216	0xbe019a09	-0.12656416
217	0xbe345548	-0.17610657
218	0x3b93b8a8	0.0045080967
219	0x3d5ae84e	0.0534442
220	0xbd9ea0e8	-0.07745534
221	0xbc92529f	-0.017861662
222	0x3e177f96	0.14794764
223	0x3c18302e	0.009288831
224	0x3d1c28ae	0.038124733
225	0xbb83e4ee	-0.0040250933
226	0xbd9c7543	-0.076395534
227	0xbc8923e1	-0.016740741
228	0x3e38c1a4	0.18042618
229	0xbd478bbc	-0.048717245
230	0xbe62e286	-0.22156724
231	0x3c54046d	0.012940508
232	0x3cc2eaae	0.023793545
233	0x3dcb1ba7	0.09917384
234	0xbddb6bdf	-0.10713934
235	0x3d2c05c8	0.0419977
236	0xbb6cc605	-0.003612877
237	0x3e17d56f	0.14827512
238	0xbdb9c10d	-0.09070025
239	0xbbaf5d73	-0.005351716
240	0xbd629d61	-0.05532587
241	0x3c97b248	0.018517628
242	0x3dbb3f2a	0.09142907
243	0xbe57aded	-0.21062441
244	0xbe4e9c6d	-0.20176859
245	0x3c210be0	0.009829491
246	0x3e1d65e8	0.15370905
247	0x3e543ae3	0.20725589
248	0x3cd0d17c	0.025490515
249	0x3d6cc4e9	0.057804976
250	0x3e71a683	0.23598675
251	0x3cb64d16	0.022253554
252	0xbbfa88d7	-0.007645707
253	0x3d4b1293	0.04957826
254	0x3e33e800	0.1756897
255	0x3e0f9035	0.14019854

linear_layer.4.bias f4 [100]
0	0xbb7dd0c7	-0.0038729177
1	0xbc93daec	-0.018048726
2	0x3c8d3bc7	0.017240418
3	0xbcb03302	-0.021508697
4	0xbde9cda6	-0.114161775
5	0x3c5cc64e	0.013475014
6	0xbcc162a3	-0.023606604
7	0xb8a14a22	-7.6908866e-05
8	0x3c97aada	0.018514086
9	0x3c73dabe	0.014883695
10	0x3c95721d	0.01824289
11	0xbd42ca4d	-0.04755621
12	0xbc12f46e	-0.008969409
13	0x3c9d37dc	0.019191675
14	0xbc539107	-0.012912995
15	0x3b079d1a	0.0020693005
16	0x3cd38326	0.025819372
17	0xbbb870ad	-0.0056286664
18	0xbd09416f	-0.033509668
19	0x3ccf5e44	0.025313504
20	0x3d7ad16b	0.061234873
21	0xbc9c658a	-0.019091386
22	0x3c02d7c0	0.007986009
23	0x3c938abd	0.018010492
24	0x3c8786be	0.016543742
25	0x3c4ccca2	0.01249996
26	0xbc319cc5	-0.010840599
27	0xbc036843	-0.008020463
28	0xbd148330	-0.036257923
29	0xbced2a35	-0.02895079
30	0x3d165d9f	0.036710378
31	0x3c1df355	0.009640534
32	0xbc283674	-0.010266889
33	0xbca1e16b	-0.019760808
34	0xbc0310ad	-0.007999581
35	0xbd26d722	-0.04073251
36	0x3cc7995e	0.024365123
37	0x3dbaf20a	0.091281965
38	0x3c92d8a2	0.017925564
39	0xbca0aed0	-0.019614607
40	0xbb92db96	-0.004481743
41	0xbb0b5a64	-0.0021263594
42	0xbbae8bb5	-0.005326713
43	0xbc69d5e9	-0.014272192
44	0xbc7db939	-0.015486055
45	0xbae8bca0	-0.001775641
46	0xbcc50686	-0.024050962
47	0xbbba9719	-0.005694282
48	0xbc72980c	-0.014806759
49	0xbc330e6d	-0.010928732
50	0xbb0c179f	-0.0021376384
51	0xbccf9852	-0.025341187
52	0x3c6694da	0.014073575
53	0x3ba11258	0.004915517
54	0xbc9a2614	-0.018816985
55	0xbc6ec4cb	-0.014573286
56	0xbbc125fc	-0.0058944207
57	0xbccded2e	-0.02513751
58	0xbc715acd	-0.014731121
59	0x3af24779	0.0018484435
60	0xbc0ff5b2	-0.008786606
61	0x3d0f787e	0.03502702
62	0xba871c14	-0.001030805
63	0xbc87de96	-0.01658563
64	0xbbd87b3b	-0.006606487
65	0xbb7da076	-0.0038700378
66	0x3ca4e296	0.020127576
67	0xbc901b83	-0.017591244
68	0x3c8edf26	0.01744039
69	0xbcc8618d	-0.024460578
70	0xbd042b1d	-0.03226768
71	0x3996ff16	0.00028800283
72	0xbbe9eafc	-0.007138608
73	0xbcec36b2	-0.028834675
74	0x3cbb12b0	0.02283606
75	0xbcea2c40	-0.028585553
76	0xbc9311fe	-0.017952915
77	0x3ca20300	0.019776821
78	0x3d3fbfc8	0.046813756
79	0x3d01cbed	0.03168862
80	0x3ce10679	0.027468907
81	0xbca0bc0b	-0.019620916
82	0x3d3b0b77	0.04566523
83	0x3c93c1ce	0.01803675
84	0xbd509fe4	-0.050933734
85	0xbd6d2289	-0.057894263
86	0x3c3f9ca6	0.011695063
87	0xbce29bb9	-0.027662145
88	0xbbbbc6d3	-0.005730489
89	0x3a028892	0.0004979457
90	0x3c7fb53c	0.0156071745
91	0xbb0e08ac	-0.002167265
92	0xbc65edc2	-0.014033737
93	0x3c1f3b87	0.009718782
94	0x3c92b1ee	0.01790711
95	0xbba576bb	-0.005049554
96	0xbc738199	-0.014862441
97	0xbc440b46	-0.011965578
98	0xbd046e48	-0.032331735
99	0xbbffc56b	-0.0078055165
