ac_2d_model_para_1/checkpoint_50.pth (torch, 291108 bytes, 17 tensors)

linear_layer.0.weight f4 [100, 3]
000000 17 e0 d2 3d bc 67 19 3e 1b e2 31 be 7a e2 25 bd
       0.10296648 0.14980978 -0.17371409 -0.040499188
000010 ca bb 8d bd 05 08 e8 3d 82 9b a7 3d a7 c3 8d bd
       -0.069205835 0.113296546 0.08183958 -0.06922083
000020 f7 94 8c be ca eb 6b 3d fc 83 02 bd 06 1f 65 3e
       -0.274574 0.057597913 -0.03186415 0.22375116
000030 8d 07 d7 bd 26 1d 02 be 19 aa a3 be b3 f9 b2 bc
       -0.10499487 -0.12706432 -0.31965712 -0.021847581
000040 55 cb 1b be 25 ac 0e be b1 b4 8d bd 0f 96 ec 3d
       -0.15214284 -0.13932855 -0.0691923 0.11552059
000050 97 db 02 be a9 63 84 bc 50 d3 05 bd 7a 2d 9a be
       -0.1277908 -0.016160803 -0.032672226 -0.3011282
000060 4f 23 df 3e 5c c3 51 3d 70 c2 46 3d d0 b2 ce bd
       0.43581626 0.0512117 0.048525274 -0.100926995
000070 2c 60 2e be cc f5 74 bd 6b c1 66 3d a3 03 4a be
       -0.17028874 -0.059804723 0.0563368 -0.1972795
000080 70 a9 0e 3e 81 cf 45 bd 7c 05 3e 3d 84 d1 6c be
       0.13931823 -0.048293594 0.04639195 -0.23126799
000090 dd 12 1c 3e e6 93 08 bc b0 67 b6 bd fb a5 2c 3e
       0.15241571 -0.008336043 -0.089064956 0.16860192
0000a0 43 55 55 bc 4c f4 47 3e ee 41 0d 3e 4d c9 1b 3e
       -0.013020816 0.19526786 0.13794681 0.15213509
0000b0 ef 29 5c 3e 5a d8 11 be 6e 82 0c be 45 51 11 3d
       0.21500371 -0.14242688 -0.1372163 0.035477895
0000c0 3c 31 73 3e e9 05 0d 3d f0 d4 93 be f3 42 20 be
       0.2374925 0.034429464 -0.28873396 -0.15650539
0000d0 b1 d7 0c be de 83 23 be a8 d7 0b be c7 bf c7 bc
       -0.13754155 -0.15968272 -0.13656485 -0.024383439
0000e0 33 a7 d0 3d f3 ab b8 3d 3e 24 16 3e e9 0c 4e be
       0.10188141 0.09017172 0.14662263 -0.20122112
0000f0 c3 a4 da 3d f0 c5 3c be 5f 25 90 3d aa 27 80 3e
       0.10675957 -0.18434882 0.07038378 0.2503026
000100 15 a5 92 bd 50 d2 64 3d e5 b9 12 be bb 41 17 be
       -0.07160393 0.055864632 -0.14328726 -0.14771168
000110 be b7 1d 3d 55 4e ac 3d 4c ad e0 3c 8c b5 e3 be
       0.03850531 0.08413378 0.027426384 -0.44474447
000120 2d db 0e 3e 79 f8 e3 3c 1b a3 aa 3e 9f 65 07 3e
       0.13950796 0.027828442 0.33327565 0.13222359
000130 a1 18 a0 3d 0e d0 96 3c c2 a9 6a be 99 4a 4c be
       0.078171976 0.018409755 -0.2291632 -0.19950332
000140 20 34 c7 bd 1f 13 e0 3c d1 4b 41 3e 52 80 17 3d
       -0.09726739 0.027352868 0.18876578 0.03698761
000150 a2 81 22 3e 3d 78 4a be 0d 48 88 3d 81 ed 1a 3d
       0.15869763 -0.1977243 0.066543676 0.037824158
000160 a4 72 69 ba df d0 b2 bd ca 79 32 bd a1 34 18 be
       -0.00089053274 -0.08731245 -0.04357318 -0.14863826
000170 69 a1 f6 bd 0c 17 68 3e 80 bd af 3c 7e cc 96 3e
       -0.12042505 0.22665042 0.021452665 0.2945289
000180 39 7b c3 3d e7 5a 5a be d0 96 12 3e 29 fe 2b be
       0.09544987 -0.21323739 0.14315343 -0.16796173
000190 ee 76 a3 3c ac db 04 be 4b 4e 6b 3d cf 50 88 bd
       0.019954171 -0.12974423 0.057447713 -0.06656038
0001a0 46 d1 8d be 58 b6 5a 3d b2 e6 04 be f7 4e 6b 3e
       -0.27698725 0.053396553 -0.12978628 0.22979341
0001b0 f3 25 89 bd 65 d4 83 3e cd a6 91 bd 5f 60 3f 3e
       -0.06696691 0.25747982 -0.07111893 0.18689106
0001c0 c2 72 0a 3e 51 28 0b 3d c2 1e c9 bc 4e 46 c3 bd
       0.13520339 0.033973996 -0.0245508 -0.09534894
0001d0 b1 50 ce be 8a 76 ab bd 5b 5f cd bc d5 16 04 be
       -0.40295938 -0.08372219 -0.025069883 -0.12899335
0001e0 9c a7 f1 3d 60 b6 88 3d 68 78 f4 bd e9 03 13 bd
       0.11799547 0.0667541 -0.11937028 -0.0358924
0001f0 50 60 f7 bb ee 31 ed 3d cd 01 0f be 2c 22 12 3e
       -0.007549323 0.11581789 -0.1396553 0.14270848
000200 fc c4 ad bd 8e 15 9c 3d f4 d6 8c bd 32 63 48 3e
       -0.084848374 0.07621299 -0.068769366 0.1956909
000210 68 18 f3 bd b9 e8 13 3e ef 17 ef 3d b4 1e 47 bd
       -0.118698895 0.14444245 0.11674487 -0.048613265
000220 5e 29 ca bd 47 a5 15 3e 65 26 a0 be 1a 75 1a 3e
       -0.098711714 0.1461383 -0.31279293 0.15083733
000230 38 da 9f be 18 b7 41 3e a7 92 37 3b 24 4f 1a be
       -0.31221175 0.18917501 0.0028010996 -0.15069252
000240 25 54 88 3d 19 26 8d 3d d7 6f 84 3d 19 d2 7d 3e
       0.06656674 0.06892032 0.06466644 0.24787177
000250 d5 5b a1 bd ea 3d e9 bd 67 b5 09 3e 90 74 e4 3d
       -0.07878844 -0.11388762 0.13448106 0.11155045
000260 f2 3c d0 bd 3d 2b b5 3d e9 9c 5e bd ff 4e d9 bd
       -0.101678744 0.08846138 -0.05434886 -0.106107704
000270 7c 28 bf bd af 72 52 3e 0f ad 96 3d 54 da 50 3c
       -0.09333894 0.20551561 0.07357227 0.012747366
000280 54 52 6f 3d c8 bb 6c 3e b3 7a 73 3d d1 06 92 3d
       0.058428124 0.23118508 0.059443187 0.071302064
000290 32 47 ef 3b ab 19 66 3e 18 99 94 bd b6 30 0b 3e
       0.0073021883 0.22470729 -0.07255763 0.135928
0002a0 13 43 ba 3e 1e 7d 4d 3c 6b 18 37 bc a4 ee 52 3e
       0.363793 0.012542037 -0.011175255 0.20598847
0002b0 a6 e1 f4 bd a8 af 8e be 44 16 53 3e 01 32 9a 3c
       -0.119571015 -0.2786839 0.20613962 0.018822672
0002c0 e0 fa 13 be e0 22 b3 bd f5 e6 1a be 49 7b 4c 3e
       -0.1445117 -0.08746886 -0.15127166 0.19968905
0002d0 cb f0 86 bd 01 14 d8 3d 7b de fc 3a a8 c3 b3 3a
       -0.06588896 0.105506904 0.0019292379 0.0013714926
0002e0 d4 08 22 3e d5 28 4b bc 3e 0c 3c 3e dd a8 12 be
       0.1582368 -0.012399872 0.18364045 -0.14322229
0002f0 88 87 01 be ef ca df 3b 0e 26 cd 3d c0 c5 36 be
       -0.12649357 0.0068296115 0.10017024 -0.17848873
000300 f0 67 92 3e 9a cf 13 be 4e 34 ea 3d b5 71 87 3c
       0.28594923 -0.14434662 0.114357576 0.016533712
000310 8e f4 b2 3d ba c9 a6 3e a2 49 ca 3d a0 ed 52 bc
       0.08738051 0.3257578 0.098773256 -0.012874037
000320 3f 05 ac be 44 9e 36 be 7e c0 98 bc 13 25 0d 3e
       -0.33597752 -0.17833811 -0.018646475 0.13783674
000330 53 e7 2a 3e fe fd ed bd 30 cd 63 bc 72 d3 39 bd
       0.16689806 -0.11620711 -0.013903901 -0.045367666
000340 97 8b 93 3d 83 84 80 3d 9a a9 21 be 75 ee cd 3c
       0.07204359 0.062752746 -0.15787354 0.02513812
000350 9a f6 8b bd cb de ca 3d a7 30 19 3e 70 e1 8f 3d
       -0.06834145 0.09905776 0.14959966 0.07025421
000360 04 17 7a bd 9c e5 74 3e 8d 44 e2 bd 98 8e 77 3d
       -0.061057106 0.23915714 -0.11048231 0.060438722
000370 e1 32 14 3e 0f 90 39 be 48 62 74 3e 54 e9 fc 3c
       0.14472534 -0.1812136 0.23865616 0.030872978
000380 dc 1b 77 bd d8 47 38 bd 03 5e 7c 3e 23 c8 2b 3e
       -0.060329303 -0.04499039 0.24645238 0.16775565
000390 82 35 08 be ee b5 a5 be 0f bc 46 3e 24 a7 8a be
       -0.13301662 -0.32365364 0.19407676 -0.27080643
0003a0 b5 1a c1 bd b1 88 1c be cb 26 52 3b 88 db 54 3e
       -0.09428922 -0.15286519 0.003206658 0.2078687
0003b0 95 fa 0e bd 10 f9 a5 3c 66 db 28 be 2d fa 66 3d
       -0.034906942 0.020260364 -0.16489944 0.05639093
0003c0 00 88 00 3e 20 10 73 bd 86 58 fb 3a b9 d5 c7 bd
       0.1255188 -0.05934155 0.0019176162 -0.09757561
0003d0 e6 33 36 be ab 90 bb bd bf 9e 26 be 95 f6 17 3e
       -0.17793235 -0.091584526 -0.16271494 0.14840157
0003e0 7b 4d 12 3d a1 d6 01 3e 59 21 d0 bd 69 fd ea 3e
       0.035718422 0.1267953 -0.101626106 0.45896462
0003f0 14 0b 57 3e b1 67 02 bd 35 3c 85 be 73 90 1d 3e
       0.2100032 -0.03183717 -0.26022497 0.15387134

linear_layer.0.bias f4 [100]
000000 f7 b3 e1 bb 9f 99 56 bc 20 62 8f 3d 2d a8 c8 bb
       -0.0068879086 -0.01309815 0.07001138 -0.0061235637
000010 da 0f 95 3b c4 10 8f bc 33 ef da 3c b3 93 d6 3c
       0.004549009 -0.01746405 0.026725387 0.026193475
000020 57 a9 80 bd b7 54 a4 3c 24 12 9e 3c 9b bb de bc
       -0.06282299 0.020059926 0.01929576 -0.027189067
000030 7a 88 d0 3c d1 b2 52 3d 38 02 aa 3c 16 fa 30 bb
       0.025455702 0.051440064 0.020753011 -0.0027004532
000040 57 5a 58 bd a3 25 50 bc 97 5a ed bb 5f 6f 06 3c
       -0.05282053 -0.012704286 -0.007243465 0.008205264
000050 55 d6 ce bc b5 db 6c bc 00 69 8c bc 53 39 8c 3c
       -0.025248686 -0.014456679 -0.017139912 0.017117178
000060 ae 60 87 3c e1 7d 48 3d f6 ce db 3c 72 1a 26 bb
       0.016525593 0.048948172 0.026832085 -0.0025345352
000070 da cb aa 3c dd cb fb bc 08 36 d1 bc d0 6a a6 bc
       0.020849157 -0.030736858 -0.02553846 -0.020314604
000080 88 f2 1e 3d 4a b6 bf bc d7 79 0f bd b2 e8 b9 3c
       0.038805515 -0.023402352 -0.035028305 0.022693966
000090 3b 7b 17 bc 73 e4 2f bd 60 e9 f6 3c ec 95 03 3d
       -0.009245689 -0.042942476 0.030140579 0.0321254
0000a0 6c 79 c0 3c d0 59 4a bc c8 c3 ea 3c 98 74 18 bd
       0.023495398 -0.0123505145 0.028657809 -0.037220567
0000b0 06 f0 2c 3c 4b 3f 00 bd e4 7b c9 bc 1f 40 db 3b
       0.010555273 -0.03131036 -0.024595208 0.0066909934
0000c0 d9 34 bd bc a0 c3 26 bd 51 0f 0b 3d 3e ef 6d 3c
       -0.023096489 -0.040713906 0.033950154 0.014522372
0000d0 d1 45 80 3b 3c bd 7d bd 0e 8d ba 3c 65 4f 19 3d
       0.0039145728 -0.061948046 0.022772338 0.037429232
0000e0 03 f2 af ba 44 da 39 3b 3b bd 43 bc 5c 70 29 ba
       -0.0013423566 0.0028358856 -0.0119469715 -0.0006463581
0000f0 1e a5 da bc 43 01 b5 bb 96 70 d2 ba 15 f0 d9 3c
       -0.026690062 -0.005523832 -0.0016055282 0.026603738
000100 f2 60 20 bd 3d 06 e2 3c 60 9e 7e bd ac 56 1a bc
       -0.039154954 0.027590865 -0.062162757 -0.009420078
000110 30 4e 86 bc 60 a3 17 3d 41 af c8 3c 5f bd a1 bc
       -0.016394705 0.03702104 0.02449763 -0.01974362
000120 ca ca 0f bd 34 10 66 3d f7 a6 aa bb 9e 3e ff 3c
       -0.035105504 0.056167796 -0.005207892 0.031157788
000130 37 a1 f0 bb 45 84 56 3c f6 33 09 bd 53 c9 47 bb
       -0.007343437 0.013093059 -0.03349682 -0.0030484989
000140 b9 51 6d 3d f0 e4 db 3c f6 17 c3 bc 94 3f 9c 3b
       0.057939265 0.026842564 -0.023815136 0.0047683213
000150 e4 f2 04 3c b8 9f 10 3c 5d c9 f0 3c 35 66 51 3d
       0.00811455 0.008827142 0.029392892 0.051122863
000160 0e 63 33 bd f5 dc 01 bd 15 42 e7 bc f2 88 94 bd
       -0.043795638 -0.03170486 -0.028229753 -0.07252683
000170 da ff de bc b8 35 4f 3d c7 7e 23 bc 3f 6d 58 3c
       -0.027221609 0.05058834 -0.009978957 0.01320964
000180 bb 5e 29 3d 35 f6 b1 3c d8 a1 8e bc 82 63 8d 3c
       0.041350108 0.021723846 -0.017411157 0.017259363

linear_layer.1.weight f4 [100, 100]
000000 5f 8c 77 3d b8 01 0b 3e 6d 55 9c bc 73 0c ef bc
       0.060436603 0.13574874 -0.019083703 -0.029180741
000010 05 3a 09 3b 2e 7f 54 3c fd b0 e9 3d 50 40 bb 3d
       0.0020939123 0.012969775 0.11410711 0.09143126
000020 12 59 2e 3e d2 d1 0b be c6 d9 a3 bd df 9f 9a 3b
       0.17026165 -0.13654259 -0.08000521 0.004718765
000030 46 6b 19 be 2a 43 45 bd fd 38 6f 3d c4 b1 8a 3d
       -0.14982328 -0.048159756 0.058403958 0.06772187
000040 3e de 57 be ad c8 12 be b8 09 11 3e 6e 4a 2e 3c
       -0.21080872 -0.14334364 0.14163864 0.010637863
000050 df f8 cb bd a7 76 df 3d b4 15 ee 3c 6c c5 38 3e
       -0.09959578 0.10911303 0.029063083 0.1804406
000060 df 2f 88 bd 10 f2 82 3c 46 93 93 bd 43 74 b7 bc
       -0.06649756 0.015984565 -0.072058246 -0.022394305
000070 4c 15 73 be 6c c9 c2 bd 64 58 ec bb 81 71 0c 3b
       -0.23738593 -0.095110744 -0.0072126854 0.0021429958
000080 89 9d 26 bd 26 e1 4a 3e 18 ce 92 bd 24 24 82 bd
       -0.04067758 0.1981245 -0.071682155 -0.063545495
000090 84 4d bb bd 21 23 e6 bc e5 69 27 3e e1 f0 da bd
       -0.09145644 -0.028092923 0.1634899 -0.10690475
0000a0 ac 3b 8f 3d f2 62 4e 3d 8e af 03 be bd ee ae bd
       0.069938034 0.05038733 -0.12859938 -0.085416295
0000b0 0e b1 f6 bb e2 ff 58 bd 5f ea 5e 3d ee 7e d8 3d
       -0.007528431 -0.052978404 0.054422732 0.10571085
0000c0 8b 22 b1 bc dc 88 fe 3d b2 fd 22 3c d2 b4 82 be
       -0.021622917 0.124284476 0.009948181 -0.2552858
0000d0 52 d2 dc 3d 64 27 35 3d 46 b3 dc bc 68 98 53 be
       0.10782303 0.04422702 -0.026940953 -0.20663607
0000e0 02 6e 84 bd 84 b8 77 bd 1c 03 72 3e 73 59 28 3e
       -0.06466295 -0.060478702 0.23633999 0.16440372
0000f0 ee 09 76 3a 64 30 6c 3d d0 d2 06 ba 7d 31 10 be
       0.0009385635 0.057663336 -0.0005143108 -0.14081378
000100 83 a5 05 bd 3a 60 2f 3e 31 07 7f bc 31 4d f6 bb
       -0.032628547 0.17126551 -0.015565679 -0.007516526
000110 92 ae be 3c 97 85 b0 bd d8 34 d6 3c d0 3d aa 3d
       0.023276601 -0.0861923 0.026148245 0.08312571
000120 da d5 99 bd 19 f2 80 3d 36 02 3c be bf 43 b7 3c
       -0.07511492 0.062961765 -0.18360218 0.022371171
000130 e2 6e 2e bd c2 b1 83 3c f0 9f 3b be b1 7e fb bd
       -0.042586215 0.016075972 -0.1832273 -0.12280024
000140 9e 22 92 bb 23 ec 8f 3b 2a 4f 1c bd 1c 44 d7 bd
       -0.004459693 0.0043921634 -0.038161434 -0.10511038
000150 61 ca ba 3d ea 43 f1 3d b6 00 a9 bc 30 3a 6d bd
       0.09120632 0.11780532 -0.020630222 -0.05791682
000160 5b 0a c0 3d d1 f2 95 3d 33 d7 df bc 49 a3 c6 3d
       0.09376975 0.07321704 -0.027324295 0.09699113
000170 e3 a7 e3 bd 15 80 34 bd bd 6f 84 bc d6 70 b8 bd
       -0.11116006 -0.04406746 -0.016166562 -0.09005897
000180 a6 55 49 bd 9b 32 f8 bb 0d 15 15 be 6e c0 a7 bd
       -0.049153946 -0.007574392 -0.14558811 -0.08191
000190 2a 1c 16 3d 12 fb 7b 3e 87 90 38 bd 0c 1b 84 3d
       0.036647953 0.24607494 -0.045059707 0.06450471
0001a0 f0 b1 ba ba 05 70 01 be 30 2d af 3d c7 61 8e be
       -0.0014243703 -0.12640388 0.08553541 -0.27808973
0001b0 c6 e2 20 bd f1 87 5a bd 48 c9 3d bd 2b 93 3e 3d
       -0.039278768 -0.0533523 -0.046334535 0.04652707
0001c0 99 5f b4 3d 15 9e c9 3d e7 aa eb 3d da be 03 be
       0.08807296 0.09844605 0.115072064 -0.12865773
0001d0 33 2f d8 bc c4 55 83 be 4a 9c 90 3c d7 24 33 3e
       -0.026389694 -0.2565137 0.01765265 0.17494522
0001e0 2d 82 74 bd 63 cd 14 3b eb 29 60 3d 60 13 06 3e
       -0.059694458 0.0022705428 0.054727476 0.13093328
0001f0 cf cf 24 3e 50 d2 9b 3c 9e c9 a1 bd f6 6d bc 3d
       0.16094898 0.019021183 -0.078997836 0.09200661
000200 33 2f c3 bd 12 5d 5e bd 44 2f 86 bc 32 82 e2 bd
       -0.09530487 -0.054287978 -0.01637996 -0.11059989
000210 63 5a 44 3e b3 59 ca bd ad c5 73 bd 56 b7 38 3d
       0.19175105 -0.0988039 -0.05951469 0.045096718
000220 65 d6 1f 3e 54 28 29 3c f8 5d 45 bc e3 63 db bd
       0.15609129 0.010324556 -0.01204633 -0.10712411
000230 df 87 37 3e ba 7d bd bd e2 41 98 3d 88 50 e3 bd
       0.17922924 -0.09252496 0.07434441 -0.110993445
000240 43 93 1f 3e 20 97 4a be 87 cf 8a be ae 5e 78 bd
       0.1558352 -0.19784212 -0.27111456 -0.06063717
000250 7f 79 07 3d 55 e2 52 bd 57 89 60 bd 9a 27 c2 bc
       0.033074852 -0.05148538 -0.054818477 -0.023700524
000260 9d 73 3c 3d c5 a5 14 be 80 02 c2 bd 72 ae c1 3d
       0.046008695 -0.14516361 -0.09473133 0.09457101
000270 bd f5 c3 3c 17 12 18 bd 75 a8 e9 bd c5 47 e5 bc
       0.023920888 -0.037126627 -0.11409084 -0.027988324
000280 5a 34 e9 3d ae 00 f8 bd 19 20 a4 3c ff 56 ad 3c
       0.113869384 -0.12109505 0.020034837 0.021159647
000290 65 93 cb bd 57 e7 c5 3d d7 3d 32 bc 1f c4 3c be
       -0.09940223 0.09663265 -0.010879002 -0.1843419
0002a0 de f0 a8 be 65 65 23 3e 0b ec 42 bd 02 13 80 3d
       -0.32996267 0.15956648 -0.04758839 0.062536255
0002b0 62 21 d5 3c 87 c6 ba 3d a4 6d e3 3d 3c e4 12 3e
       0.026016895 0.09119897 0.11104897 0.14344877
0002c0 ca 8b e6 3c cc d5 86 ba 0c a1 06 be 59 bd b0 3d
       0.028142828 -0.0010287105 -0.13147372 0.08629865
0002d0 9e 7a 4a 3e 1e 9b 41 be ca b9 93 bd 75 84 9f 3d
       0.19773337 -0.18906829 -0.07213171 0.07788936
0002e0 48 06 01 3d ff 4e f5 bd 61 22 c1 3c f1 07 f9 bb
       0.03150013 -0.11977958 0.023575963 -0.0075998236
0002f0 80 d0 78 3d 41 7c 0d be f9 a7 7f 3d be f4 eb bd
       0.060745716 -0.1381693 0.06241605 -0.1152129
000300 2a 0b da 3a e3 1d ac bd 03 fa 12 3e a7 37 10 be
       0.0016635407 -0.08404138 0.14353184 -0.1408373
000310 15 31 05 3e 9e 53 f4 3d 86 1c bc bd f2 c4 45 3e
       0.13007005 0.11930011 -0.09185128 0.1931341
000320 12 dc bd bd 09 dd 89 bd 06 9c dc 3d ad 0a 19 bd
       -0.09270491 -0.06731612 0.107719466 -0.037363697
000330 58 48 11 be 0f b6 0f 3d 36 79 b7 bc dd df 13 3e
       -0.14187753 0.035085734 -0.022396665 0.14440866
000340 dd 99 0e be e9 68 27 bd 60 7f 9c 3d 73 ec 98 3c
       -0.13925882 -0.040871534 0.07641482 0.018667435
000350 15 dd 13 bd fb 98 81 3d cd b0 3d 3d dc 37 43 bd
       -0.036099512 0.06328007 0.04631119 -0.047660694
000360 45 c5 00 bc d8 a0 da 3d ea ac 6a be e0 9f 19 be
       -0.007859533 0.1067521 -0.22917524 -0.15002394
000370 37 42 86 3d aa 99 c1 3d 77 ab 75 3c 29 7b fd bd
       0.06555598 0.09453137 0.014994494 -0.123770066
000380 75 1e 02 be 77 15 0f be 6f 36 e2 3c 77 ba b6 3d
       -0.12706931 -0.13973032 0.027613847 0.08922284
000390 34 98 29 bd 82 e5 c0 3d 7f c2 0e be 96 40 39 bc
       -0.041404918 0.09418775 -0.13941382 -0.011306902
0003a0 03 e4 dd 3c 6d 38 a3 bd 61 9b 21 3c 38 e9 b3 3b
       0.027086264 -0.07969747 0.009863705 0.0054904483
0003b0 58 19 c2 bd 28 a3 88 bd 9b 04 97 bd 74 5d 03 bc
       -0.0947749 -0.066717446 -0.07373925 -0.008017886
0003c0 11 53 82 3e 73 f6 15 3e 8a c0 89 bc b2 b3 02 3e
       0.25454 0.14644794 -0.016815443 0.12763861
0003d0 3a a7 fa bd d5 3c ff 3d bc 01 c5 3d 41 60 c5 bd
       -0.12238927 0.12462775 0.096194714 -0.096374996
0003e0 f5 bd 62 bd 4c 5b b1 bd dd 18 9a 3d 15 db 9e 3c
       -0.05535694 -0.086599916 0.075242735 0.019391576
0003f0 f7 25 20 bd 18 90 70 bd 70 b7 00 be bc 89 83 bb
       -0.039098706 -0.05873117 -0.12569976 -0.004014222

linear_layer.1.bias f4 [100]
000000 3e a7 c6 bc f9 d9 56 3d 39 a6 c5 bb 22 94 54 3d
       -0.02424967 0.05245397 -0.006031778 0.051899083
000010 6c 42 93 bb ad 26 95 bc 1b 0d 07 bd ef 0f 68 3d
       -0.004494002 -0.018206919 -0.032971483 0.05665582
000020 77 79 09 bd 48 d6 9c 3b e2 b9 0e bd a1 d2 d1 bc
       -0.033563104 0.0047862865 -0.03484524 -0.025613131
000030 5c 0f 08 3d 13 f7 8c 3d c4 0e 08 bd 1f 84 7c bc
       0.033217773 0.06883063 -0.033217207 -0.0154123595
000040 6c 9e 01 3c 68 c2 2c 3d b0 23 7b 3c df bd 95 bc
       0.007911306 0.042177588 0.015328333 -0.018279014
000050 e5 2b 41 bc 13 0c 93 3c 39 15 bc bb fe 1a 12 3d
       -0.01179025 0.017950093 -0.0057398346 0.035670273
000060 9c 0f ee 3c 42 e5 83 3c 8e 22 ed 3c 24 48 c2 bc
       0.029060178 0.01610053 0.028947141 -0.02371604
000070 c9 d4 f3 bc 8e 8f b1 bc c7 cd 4c bd 89 ef 96 3c
       -0.02976455 -0.021674898 -0.050000932 0.018424766
000080 7d 17 8b 3c 5d 9a 52 bc 5b a6 b4 bc d4 f1 1e 3b
       0.016978974 -0.012854186 -0.02205198 0.0024253028
000090 da 91 04 3d 6a 76 14 bd a2 fa 7c ba 60 c5 0e bc
       0.032365657 -0.03624574 -0.00096503843 -0.00871405
0000a0 08 df 15 bd 4d 5a 0b bd c7 09 51 3c 9b c7 35 3d
       -0.036589652 -0.034021664 0.012758679 0.04437981
0000b0 18 83 d2 bc 55 97 a0 3b fe b4 03 bb 26 ac 15 bd
       -0.025697276 0.0049008527 -0.0020096893 -0.036541127
0000c0 1e b1 81 bb 11 65 22 bd 6b b7 4a bc 2a 86 92 3c
       -0.0039578816 -0.039647166 -0.012372832 0.01788624
0000d0 7f 84 44 3b 8d 02 d7 bc 23 1c 99 3a 5f c7 4a 3c
       0.00299862 -0.026246333 0.0011681359 0.012376635
0000e0 9e 5a 1c 3d 5f 67 01 bd b5 9a 56 3b 82 d2 b2 3c
       0.038172357 -0.031592723 0.0032746021 0.021828894
0000f0 0b 48 1a bc 85 2d 9d 3b 87 4e c2 3b 74 e1 32 3d
       -0.00941659 0.004796686 0.0059297713 0.04367204
000100 a6 0e df 3b 5c a5 e5 3c 4b 65 07 bd 54 34 41 bc
       0.006807166 0.028032951 -0.033055585 -0.011792261
000110 70 0b a3 bc 71 e8 09 bd ea b0 04 bd 8d 8d 82 bb
       -0.019902915 -0.03366894 -0.03239528 -0.0039841593
000120 61 72 aa bc 8b c1 8a bc 75 f9 fa 3c 97 8f 2c ba
       -0.020806493 -0.016937992 0.030636529 -0.0006582676
000130 1a 1a 0b 3d 87 ac bd bc 4d b2 05 3d 62 68 4a bc
       0.03396044 -0.023153557 0.032640744 -0.012353988
000140 18 99 8e bd 0d cc 2d ba d3 71 92 bb 38 7f 0c bc
       -0.06962794 -0.0006629832 -0.0044691353 -0.008575253
000150 49 10 03 3d 78 9a 15 3b 13 2e d8 3b e5 84 cd 3c
       0.031997953 0.0022827666 0.0065972893 0.025087783
000160 b1 94 70 3d b0 b6 38 bc 35 c7 d4 bc b8 f3 23 bd
       0.058735553 -0.011274025 -0.025973896 -0.04002735
000170 31 20 0b 3c 60 46 82 3c fa 6b 99 3c f4 90 25 3c
       0.008491562 0.015902698 0.018728245 0.01010536
000180 e4 b3 e4 3c ec 33 38 3b 7d c8 1e bc 42 65 5e 3c
       0.02791781 0.002810712 -0.009691355 0.013573946

linear_layer.2.weight f4 [100, 100]
000000 5f f9 81 bd 3e cc e7 3c 0e 5a 92 3d 1c 9c 28 be
       -0.06346392 0.028295632 0.07146083 -0.16465801
000010 67 03 9d 3d 19 a0 48 bd 6d f8 2c 3d 27 c3 8d bd
       0.076666646 -0.048980806 0.042229105 -0.06921988
000020 c5 f9 97 3d 47 7a ec bc ee b6 7d bd aa 61 2d 3d
       0.07420687 -0.0288669 -0.061942033 0.042329468
000030 78 3c e3 bc 86 19 b2 bd 2f f7 be 3c 7f 8e 15 be
       -0.027738795 -0.086962745 0.023311226 -0.14605139
000040 c2 4e 30 3d 62 15 51 bd 38 c6 2a bd 22 eb 03 3e
       0.04304386 -0.051045783 -0.041692942 0.12882665
000050 f5 65 a1 3c b8 dd 60 3d 62 57 64 bd c8 b4 90 bd
       0.019701937 0.054898947 -0.055747397 -0.07065731
000060 bd 72 0e be 12 c6 35 3b 20 2d 3a be 92 48 04 bd
       -0.13910957 0.0027736467 -0.18181276 -0.03229577
000070 f9 bc d8 bc e4 d3 85 ba e0 29 24 3d 6d 2d 23 3d
       -0.026457297 -0.0010210243 0.040078998 0.039838243
000080 bc 5a 79 bc 81 91 8d 3b 4f 81 9b 3c 39 70 0f 3c
       -0.015219387 0.004320324 0.018982558 0.008754783
000090 17 d3 5b bc b1 aa 66 3e fa 2b 87 3c c3 ee 85 bd
       -0.013417027 0.22526051 0.016500462 -0.06539681
0000a0 d8 1a 02 3e 0d 30 19 3e 40 71 a3 3d 58 e9 45 3d
       0.12705553 0.14959736 0.07980585 0.048318237
0000b0 f0 d9 dd 3d 39 3a 32 bd d5 04 0d 3e 3d c6 ff 3c
       0.10832584 -0.043512557 0.13771375 0.031222457
0000c0 21 2e f5 bd 26 dc d5 3d c7 b6 cc bb 07 e7 71 3d
       -0.11971689 0.104423806 -0.0062473747 0.059058215
0000d0 c1 66 fe bd d2 b7 19 3d 88 c5 fa bd 0d 14 4b bd
       -0.124219425 0.03752882 -0.12244707 -0.04957967
0000e0 fb 4b a0 be d4 2a 0a 3d 3e 43 c2 3d c9 cb 7b 3c
       -0.31307968 0.03373225 0.09485482 0.01536841
0000f0 eb 3f b5 bc 85 5d 82 bc 54 fd 9d bb f8 1a 63 bb
       -0.022125205 -0.015913734 -0.004821459 -0.0034653526
000100 1f 2a 8b 3d 36 69 ef 3d 00 46 04 3d 63 05 77 bd
       0.06795143 0.11689989 0.03229332 -0.06030787
000110 d2 1b 8e 3d a0 1d 95 3c 13 69 6f 3e 27 0c 81 3e
       0.069389 0.018202603 0.23379926 0.25204584
000120 1a ab 3a 3c 6b 43 fa bd 28 9d 38 be 3a d1 1c 3d
       0.011393333 -0.1221989 -0.180287 0.03828547
000130 5b 37 e5 ba 5b ab 37 bd 41 8b a2 bd ff 23 a8 3d
       -0.0017487811 -0.04484115 -0.07936717 0.08209991
000140 c9 19 cf bd 0b 8c 7d 3d 23 4a 18 3d 7a 70 af 3d
       -0.1011234 0.061901134 0.037180077 0.08566375
000150 8e 65 7e 3e b8 4f 0d be 2b 31 24 3e 20 59 88 be
       0.24843428 -0.13799942 0.16034381 -0.26630497
000160 ab d6 55 bd 7f 9d c7 bd b8 10 de 3c f0 aa e3 3d
       -0.052206676 -0.09746837 0.027107581 0.11116588
000170 93 c1 b6 bb 48 40 e5 bd a0 28 2a bd e6 4c 92 bc
       -0.005577275 -0.11193901 -0.04154265 -0.017858934
000180 2f e3 7e bd fe 58 ca 3c 51 02 9c 3c 2f 93 7a 3d
       -0.062228378 0.024700638 0.019044073 0.06117552
000190 1c e7 30 bd bc 9f 8d 3c b7 6f 1f bc 6b 9f 89 be
       -0.043189153 0.017288081 -0.009731225 -0.2687944
0001a0 40 b7 10 bd 96 c1 3e 3d 93 2e 59 3d c0 31 47 be
       -0.03533101 0.046571337 0.053022932 -0.19452572
0001b0 c9 af dd 3c 86 d6 c8 bd a8 cb de 3d 5b 49 03 be
       0.02706136 -0.09806542 0.10878688 -0.12820952
0001c0 79 bb 00 bd a6 11 88 be f0 6c d5 bd d4 9c 60 3b
       -0.031428788 -0.26575965 -0.10421169 0.0034273164
0001d0 ad 4f 42 3c 26 ba 06 b7 e5 1d 9a 3d c8 fd 86 3d
       0.0118598165 -8.0303635e-06 0.07525233 0.06591374
0001e0 61 a4 ad 3d e1 01 04 3e 4b 6e b1 bc d0 65 39 bd
       0.084786184 0.12891342 -0.021659037 -0.04526311
0001f0 35 cf 2e 3d 87 0a 95 3d 28 e6 40 be 51 8c a1 3d
       0.042678077 0.072773986 -0.18837798 0.07888091
000200 c0 d1 8f bc 6e f0 44 bc 4e 67 b3 3d dc 14 eb bd
       -0.017556071 -0.0120202135 0.08759938 -0.11478588
000210 5d cc 61 3e 49 27 ba 3d 0e e7 9d bd 4f d2 a0 bd
       0.22050615 0.09089524 -0.07710086 -0.07852613
000220 4b 6b ae 3c e7 5c c3 3c 35 31 5f 3e 84 ff cd 3c
       0.021291396 0.02384801 0.21796115 0.025146253
000230 30 3c 2b 3e 50 96 e9 bc 2d 91 18 3e 68 6b 6e 3d
       0.16722178 -0.028514057 0.1489913 0.0582079
000240 b6 ed df 3d 16 bb e8 3d a0 44 f7 bd ce 7a cb 3c
       0.10934012 0.11363809 -0.12073636 0.024838831
000250 dd 18 2b be ff 31 fc 3c 2c a4 9a bd 4e 3e 38 be
       -0.16708703 0.030785559 -0.075508446 -0.17992517
000260 60 8a a3 3d b8 ae 74 3d 7a f2 57 3e a3 a8 fb 3d
       0.07985377 0.059736937 0.21088591 0.12288024
000270 03 de 8c bd 07 48 18 bc 9d 21 72 bd 0e 65 90 bd
       -0.06878283 -0.009294516 -0.059114087 -0.07050525
000280 4b c2 3e 3d ce c3 11 3e 4e ca 62 3e a9 62 af bc
       0.04657201 0.1423485 0.22147486 -0.02140935
000290 f0 85 5e be f8 a2 ad bd d1 66 39 bd 7d a1 aa bb
       -0.2173078 -0.084783494 -0.04526407 -0.005207239
0002a0 79 00 49 3c ea 98 c7 3c 8e 14 1e bd 5e 91 2a 3d
       0.012268179 0.024364907 -0.03859382 0.04164254
0002b0 d3 34 37 3c 39 94 01 be 68 83 93 3d 8b 97 b0 bd
       0.011182028 -0.12654199 0.07202798 -0.086226545
0002c0 11 77 a1 3c 83 00 95 3d ab 95 6a 3c 24 d6 9a 3d
       0.019710096 0.07275488 0.01431791 0.07560375
0002d0 66 b7 59 bc ac ff 89 bd 3f 1b bf bd 07 40 28 be
       -0.0132883545 -0.06738219 -0.09331369 -0.16430674
0002e0 64 48 be bc 3a 1b 02 3e 86 ce 2c 3d ec e3 ec bd
       -0.023227878 0.12705699 0.042189144 -0.1156691
0002f0 d9 aa e8 3c a4 58 81 bd a2 cb 21 bb ec f0 8d 3d
       0.028401779 -0.06315735 -0.0024688025 0.06930718
000300 72 0b 23 3c 1f ec 01 be 16 66 13 bd 58 f8 85 bd
       0.009951459 -0.1268773 -0.03598603 -0.065415084
000310 c9 2b 6a 3d 3b e5 52 3d 02 b8 17 3d 4a f8 2b bc
       0.057170663 0.051488142 0.037040718 -0.010496208
000320 c1 e5 69 bc c6 bf c1 bd 76 29 25 bd a8 3b 01 3d
       -0.014275969 -0.09460406 -0.040322743 0.031551033
000330 fc bd 3b 3e 79 59 a4 bd 2c a3 ad 3d 78 59 8a 3c
       0.18334192 -0.08024878 0.08478388 0.016888365
000340 9b 7f 41 bd d9 16 3d 3e 7e ac 21 be fd b1 10 be
       -0.047240835 0.18465747 -0.15788457 -0.14130397
000350 55 f9 bd bd de 95 2b be e3 6e 21 bd 0c 98 7a 3d
       -0.09276072 -0.16756389 -0.03941239 0.06118016
000360 1b 09 42 3e 90 da 85 3d 98 27 23 be 8e 38 ae 3a
       0.18948786 0.06535828 -0.15933073 0.0013292001
000370 38 8f 01 be d2 07 ce 3d c0 12 87 be 44 a6 be 3d
       -0.1265229 0.10060085 -0.26381493 0.093090564
000380 92 db a9 bd d0 b7 9e bd 69 05 a4 3d bb ef b4 3c
       -0.08293833 -0.07749903 0.080088444 0.022086969
000390 e9 76 f6 bd 5d 28 6f 3d e9 40 09 be 13 b2 6b 3d
       -0.12034399 0.058388103 -0.13403668 0.05754287
0003a0 70 10 50 bd c9 04 af 3c 9d 78 53 bc 34 7f c0 3d
       -0.050796926 0.021364586 -0.012907174 0.09399262
0003b0 26 60 83 bd 5b b2 13 be 71 60 41 3c 0f f6 78 3d
       -0.06414823 -0.14423506 0.011802779 0.060781535
0003c0 4f 67 07 be 28 2b c0 3c c8 82 fb bd 85 85 74 bc
       -0.13223003 0.023458079 -0.12280804 -0.014924412
0003d0 a6 86 bd 3c 7c e7 5c bd 0a 5b f5 bc 3e 63 dd 3c
       0.023135494 -0.0539317 -0.029950637 0.027024861
0003e0 52 ab 76 bd 72 e8 b1 bc bb 01 ea bd 16 e1 53 3d
       -0.060221978 -0.021717284 -0.11426111 0.05172833
0003f0 fb 29 ff bd 1e 75 e9 3c 24 84 41 3d 6c f8 64 3d
       -0.12459179 0.028498229 0.04724516 0.055900976

linear_layer.2.bias f4 [100]
000000 11 b5 0c bd 63 28 07 bc f2 91 58 3b b1 28 db 3b
       -0.034352366 -0.008249375 0.0033045975 0.0066882004
000010 eb 71 7a 3c 23 4d 96 3c b7 8f da 3c 15 b3 76 3a
       0.015285949 0.018347329 0.026679857 0.00094108406
000020 18 4d 83 bb d7 28 31 3c 54 28 c8 bc 2a 84 ec bc
       -0.004006993 0.01081296 -0.024433292 -0.028871614
000030 92 54 29 bd 88 5b 1d 3d 0c ff a4 bc 5e bd 65 bc
       -0.04134042 0.03841737 -0.020141147 -0.014022199
000040 4f a0 15 bd 14 5f 37 3d 26 b2 e5 3b c8 ec ad bc
       -0.036529835 0.044768408 0.0070097623 -0.02123107
000050 29 ea 26 bd e2 4a 71 bc e5 32 89 bc f7 3f 49 3d
       -0.040750656 -0.014727326 -0.016747901 0.049133267
000060 b1 a9 95 3c 6b f2 1c bc c7 84 d1 bc 74 ab 54 bd
       0.018269392 -0.009579281 -0.025576008 -0.051921323
000070 c0 c3 91 3c ef 64 00 bd 27 53 31 bd 27 70 92 bc
       0.017793536 -0.031346258 -0.04329219 -0.017875744
000080 80 08 73 bb 5c 5c ad 3b 2c cd 52 bc 8f ae f5 bc
       -0.0037083924 0.005290551 -0.0128663 -0.029990463
000090 7d 78 1b bc f1 c7 3a bd fc b2 0b bc 21 6f e7 b9
       -0.009489176 -0.045600835 -0.00852656 -0.0004414255
0000a0 46 a5 af bc c7 be 0e bd 00 71 67 bb 01 b8 42 3c
       -0.021441113 -0.03484991 -0.0035315156 0.01188469
0000b0 21 3e 8a 3b 00 4a 34 3c 97 87 d5 b9 3b 44 7d 3c
       0.004218832 0.011003971 -0.00040727548 0.015458162
0000c0 c5 5b 05 3c 1c a5 a5 3c fc e4 c4 bc 8b dd 8e 39
       0.008139555 0.020220332 -0.02403497 0.00027249413
0000d0 7d b5 21 3d 0a d5 d1 3c fe 35 e2 3c 65 f8 19 bd
       0.03947972 0.02561428 0.027613636 -0.037590403
0000e0 79 be ce bc 60 2d 17 bc 6c 99 b4 3b 78 39 13 bd
       -0.025237309 -0.009227127 0.0055114534 -0.03594348
0000f0 14 02 90 bb 9f 20 ed 3c 93 b2 b0 ba 19 1e 66 bc
       -0.004394779 0.028946219 -0.0013480954 -0.014045262
000100 b0 4f e1 bc 3a 92 9d 3a 94 12 5f bc 88 90 69 bb
       -0.027503818 0.0012021728 -0.013615269 -0.0035639126
000110 0c 90 88 3b 59 c7 84 ba fe aa 54 bb 27 20 05 bc
       0.0041675624 -0.0010130211 -0.0032450552 -0.0081253415
000120 bf 11 2b bc 96 24 2f bc 9d 34 d0 bc 27 a5 27 bd
       -0.010441243 -0.010689875 -0.025415713 -0.040928986
000130 57 d6 e8 bb e2 c7 0e 3b 02 1c 90 3c b9 e7 b6 bc
       -0.0071056294 0.002178662 0.01759148 -0.02232729
000140 77 ac de bc 07 7d 1e 3a 86 92 82 bc cf d7 22 bc
       -0.027181847 0.0006045852 -0.015939008 -0.009939148
000150 a4 b1 13 3d bd 95 e0 3c 4e 43 82 3c 7c 55 7b 3d
       0.036058083 0.02741515 0.015901234 0.06136082
000160 d8 f5 ec bc 99 06 e1 3b d8 5a 65 3a 67 d2 86 3c
       -0.028925821 0.0068672416 0.00087491935 0.01645775
000170 8a 69 80 bc 50 18 4d bd 16 ff 56 3a 39 b6 0d bc
       -0.015675325 -0.050072014 0.0008201463 -0.008649402
000180 b3 ec 2b bb 9e cb 56 3c 5b 2e ef bc 19 42 e3 bb
       -0.0026233613 0.01311007 -0.029196909 -0.0069353697

linear_layer.3.weight f4 [100, 100]
000000 8c 04 11 be 4d d5 a6 3d 80 57 11 bd 53 ff 70 3d
       -0.14161891 0.08146153 -0.035483837 0.058837246
000010 3b 41 c3 bc 81 21 6d bd 9c 31 e8 3c b3 6e 69 3d
       -0.023834815 -0.05789328 0.028343968 0.056990337
000020 e8 00 23 3d a6 ca 3d bd 71 02 da bd 1d b1 ac 3d
       0.039795786 -0.04633584 -0.10644997 0.08432219
000030 8f 57 d5 bd f5 31 53 3e da fd d6 bc 6f 91 4a 3d
       -0.10417091 0.20624526 -0.026244093 0.049455103
000040 08 76 67 be f3 78 b9 3d b0 d2 d2 bd 81 12 ba 3b
       -0.22603619 0.09056272 -0.10294092 0.0056784754
000050 7d c1 ad bd 46 ac db bd 82 ad 08 bd 35 9a 16 3e
       -0.084841706 -0.10726218 -0.033368595 0.14707263
000060 08 e5 a9 bb 72 38 4a 3d f4 67 a2 3c 6b 71 73 bd
       -0.0051847734 0.049370237 0.01982496 -0.059434336
000070 8d 9c 54 3e 9b 62 c8 bb 06 a0 8f bd 4d bf 2c 3d
       0.20762844 -0.0061152703 -0.07012944 0.042174626
000080 51 dc df bd f1 27 38 bd 7e 2b 00 bd bd 60 d1 bc
       -0.10930694 -0.044959966 -0.031291477 -0.025558824
000090 71 97 a5 be 43 2c 37 be f3 6a 82 3d 96 67 09 be
       -0.32342103 -0.17887978 0.06368055 -0.13418421
0000a0 af f9 30 3e c4 18 31 be a6 03 bf bd 25 14 fb 3c
       0.17282747 -0.17294604 -0.09326868 0.030649254
0000b0 a3 3f 2d 3d bf 33 6c 3a f8 c0 74 3d 3c ad 19 3e
       0.042297017 0.00090103963 0.05975434 0.1500749
0000c0 f8 8a 82 be 89 24 d3 3d 7d de 45 3d 3e 66 6a bd
       -0.2549665 0.10309703 0.048307884 -0.057226412
0000d0 5a f6 95 bc 68 4f f1 3d 5c 79 1a 3e 52 ba 2a 3a
       -0.018305946 0.11782724 0.15085357 0.0006512749
0000e0 d9 60 bf 3d 9f 20 1c be f0 d9 23 be bf e9 fb bd
       0.09344644 -0.15246819 -0.16001105 -0.12300443
0000f0 cb a9 ff bb 1b 7f ed bd 09 1a 0a bc 73 16 f8 bd
       -0.0078022233 -0.11596509 -0.008429059 -0.12113657
000100 8f 36 c1 3d 58 81 3f 3c b8 66 72 3d 39 c6 49 3d
       0.09434234 0.011688553 0.05917999 0.049261305
000110 7f ce bc 3d 5a 6f 5a bd 75 13 55 3e 80 59 07 bd
       0.092190735 -0.05332885 0.20808204 -0.03304434
000120 a6 a7 b9 3d 82 9f c6 3d ba 79 43 3e f0 77 c8 3d
       0.090651795 0.096983925 0.19089404 0.09788501
000130 fc a1 7a bd 8b f5 44 bc 50 f6 b8 bc 75 c7 8e ba
       -0.061189637 -0.012021433 -0.022578388 -0.0010893183
000140 ec 1e 56 bc f4 5a 02 3e 9d 56 a6 39 11 3f 90 bc
       -0.013068896 0.12730008 0.0003172652 -0.017608197
000150 0a 4c 7a 3e 6b 74 e3 bd 99 5a d8 3c ad 43 f4 bc
       0.24443069 -0.11106189 0.026410388 -0.029817427
000160 a7 b9 b9 bd 44 ef 88 3c 81 00 27 be 16 22 54 3e
       -0.090686135 0.016715653 -0.16308786 0.20716128
000170 cd 43 4a bc ac 40 be 3d 1c cd ec 3c 2e 13 16 3e
       -0.0123452665 0.09289679 0.028906398 0.14655754
000180 6c 45 99 3d 38 1b 66 3c 43 91 c3 bd 50 1d f2 bc
       0.07483944 0.014044575 -0.09549191 -0.029554993
000190 d1 b6 2e 3e b1 9a 45 bc 52 e9 1a 3c bd 9e 0e be
       0.17061926 -0.012060807 0.009455042 -0.13927741
0001a0 80 bb ae 3c 58 d2 cd 3c ef 95 f9 bd 45 39 8f 3d
       0.021329641 0.025124714 -0.12186801 0.06993345
0001b0 b4 f9 3f 3c 36 8d 73 bd 96 dd c1 bd 55 4d 05 3e
       0.011717249 -0.05946084 -0.09466092 0.13017781
0001c0 23 a7 28 bd a9 46 86 3e 24 c3 ce bd d9 ff 97 bc
       -0.04117502 0.26225784 -0.10095814 -0.018554615
0001d0 17 cd 61 bd 50 e3 81 bd 86 2e be 3d e9 30 bb 3c
       -0.05512723 -0.063421845 0.092862174 0.02285047
0001e0 99 ce e3 3d a4 c3 83 bd 4b 6f 08 3c 9c 68 37 be
       0.1112339 -0.064338 0.008327316 -0.17910999
0001f0 2b 2d 22 be 6d b7 aa 3d 10 57 34 3d 9e f1 38 be
       -0.15837543 0.08335767 0.04402834 -0.1806092
000200 c5 cd 1a 3e 7a 3f b4 3d d6 5d 22 be 5c 1c 59 3e
       0.15117557 0.0880117 -0.15856108 0.21202224
000210 75 e0 53 3d c2 05 2e be 39 1a ad 3d 4e af 30 bd
       0.05172773 -0.16994384 0.08452267 -0.043135934
000220 40 59 ce 3d cf b7 5e be 5b b8 86 3c 30 8b cb bb
       0.10075617 -0.21749805 0.01644533 -0.006211661
000230 d8 ff af 3c 61 3f be 3d d0 6c 20 bd 87 a4 df 3c
       0.0214843 0.09289432 -0.03916627 0.027300132
000240 5e 69 47 3e 21 fd e3 ba 4d 7e 3d be 99 0c 0f 3d
       0.19473788 -0.0017394164 -0.18505211 0.034924123
000250 87 41 21 3d 3a 1d 23 3e b6 05 5c 3d 0e 21 6f 3c
       0.039369132 0.15929118 0.053716384 0.014595283
000260 98 34 cc 3d 2d 2e 2f bd 21 ce 3b 3d ed 93 d6 bc
       0.09970969 -0.042768646 0.045850877 -0.026193583
000270 16 38 ff bc 64 a5 9b bd 9d 0b fb 3d 58 e6 a8 3d
       -0.031154674 -0.07599905 0.122580744 0.082470596
000280 71 8a 8c 3d d0 c0 97 bd 74 92 c8 bc 44 cd fb bc
       0.06862343 -0.07409823 -0.024483897 -0.030737527
000290 d5 b1 b6 3d 31 e6 d5 bd c7 13 22 be 15 f2 ab bc
       0.089206375 -0.10444296 -0.15827857 -0.020989457
0002a0 a3 c6 fc bd c7 5c 40 be 27 49 8e bd 04 af 8a bc
       -0.123425744 -0.18785392 -0.069475465 -0.016929157
0002b0 87 35 5b 3e a6 cd 82 bd 47 66 bb bd 2a b6 2a bd
       0.21407138 -0.063868806 -0.09150367 -0.04167763
0002c0 83 a2 b1 bd 6d ff 18 be 9c 10 1a bb ea f6 35 3b
       -0.08673575 -0.14941187 -0.0023508435 0.002776558
0002d0 5a a1 2a bd be c0 20 bd 8d 72 a1 bb 15 70 1d 3e
       -0.041657783 -0.039246313 -0.0049269856 0.15374787
0002e0 6e f5 11 3d 1b 3c 88 3d 2d eb 1e 3b e8 87 b3 bd
       0.03563445 0.06652089 0.0024249062 -0.087661564
0002f0 38 67 05 bc 26 14 ff bc d2 2d 22 3c b9 a6 bb 3d
       -0.008142285 -0.031137537 0.00989862 0.09162659
000300 69 d1 cd bc 09 79 2d bd 08 88 04 3d 63 05 e4 bd
       -0.025124269 -0.042351756 0.032356292 -0.1113384
000310 b9 4b 21 bc 2e fe f0 bd b1 c2 4b be 4f fa ce 3c
       -0.009844714 -0.11767231 -0.19898488 0.02526584
000320 9b ca 35 bd 77 02 7f bc a9 46 06 bd 9a 00 14 be
       -0.044382673 -0.0155645525 -0.03278223 -0.14453354
000330 53 8b 10 bc 81 54 8f bd 2c fc 81 bd 19 52 01 bd
       -0.00882228 -0.0699854 -0.06346926 -0.031572435
000340 fd 88 c3 3d b6 b3 0f be e6 1d 3d 3d 33 f9 25 3e
       0.09547613 -0.14033398 0.04617109 0.16208343
000350 7c a0 1a be d4 9a ca bc b2 23 a7 3c 1f d8 88 3d
       -0.15100282 -0.02473203 0.020402763 0.06681847
000360 80 4e 3a bd 6a 13 bc bd 57 ae 6c be 84 09 68 bd
       -0.04548502 -0.091833904 -0.2311338 -0.0566497
000370 2a c1 56 3e c0 e0 c9 3b 5a 00 35 3d f2 c2 02 bd
       0.20972124 0.0061608255 0.04418979 -0.031924196
000380 6a 20 6f 3c ca b8 8a bd 2d 81 78 3d 93 8e 10 39
       0.01459513 -0.06773527 0.060670067 0.00013786023
000390 ff a7 2e bd e7 da e0 3b 76 95 b7 bd 6b 43 7b bd
       -0.042640682 0.0068620327 -0.08964054 -0.06134359
0003a0 4c 98 90 3d 61 a4 dd bd b2 10 48 be 8b 66 30 3e
       0.07060298 -0.108223684 -0.19537619 0.17226617
0003b0 fc 47 31 3d d8 48 8b 3d 99 b2 96 3d 67 e1 71 3e
       0.04328154 0.06801003 0.073582835 0.2362114
0003c0 f6 f6 db 3c 2c a3 18 3d ba 21 a4 bd a7 bc 1f be
       0.026851159 0.037264988 -0.08014245 -0.15599309
0003d0 7c 09 a2 3d 4c 66 4a bd 3b 38 fb bc 35 43 92 bc
       0.07911965 -0.049413964 -0.030666461 -0.017854312
0003e0 79 45 a8 3d 75 1f 3d be 61 5c a0 3c 46 44 84 3d
       0.08216376 -0.18469031 0.0195753 0.064583346
0003f0 bc 2b f5 bc ff 14 af bd e0 b3 09 be c7 75 7c 3d
       -0.02992808 -0.085489266 -0.13447523 0.06163576

linear_layer.3.bias f4 [100]
000000 de 37 f9 3c 67 21 88 3c 72 8a f3 bc 78 9a 2b bd
       0.030422147 0.01661749 -0.029729102 -0.04189536
000010 cd 5f 2e bc 92 f7 00 bd 11 b0 c0 3c 55 54 f8 3c
       -0.010642958 -0.0314861 0.023521455 0.03031365
000020 e5 cf 11 3d c3 4a f7 b9 2d 74 3f bd da 24 a9 bc
       0.035598654 -0.00047167213 -0.046741653 -0.020647455
000030 6a 7d a0 3c 3d 3d 75 bb 0c be e9 3b 0e 83 12 bc
       0.019591052 -0.0037420534 0.007133251 -0.008942379
000040 37 51 90 bc 82 49 37 bb 01 cb 19 bc fb 1e d4 3c
       -0.017616851 -0.0027967398 -0.009386779 0.025893679
000050 9d b3 49 bd bc bb 2c 3d 82 a1 e8 3c 6d 37 d6 3c
       -0.04924356 0.042171225 0.028397325 0.026149476
000060 cc ae 05 bc f6 ec 01 3c 79 07 f1 3c f5 34 ea 3c
       -0.008159351 0.007930031 0.029422509 0.028589705
000070 a3 88 7f 3c 87 f9 1e 3d 65 e0 99 bc a3 d5 89 bb
       0.015596542 0.038812187 -0.018783757 -0.0042063757
000080 f6 9a 22 3d 12 3f 8a 3c 75 b8 0e 3c 08 a2 9f bc
       0.039698564 0.016875777 0.00871097 -0.019486442
000090 4d d5 a1 3c cc cd b6 3b e9 7c c5 bc 1a 71 0e 3b
       0.01975503 0.005578732 -0.024107413 0.0021734894
0000a0 9f 4a 9e bc fa b8 38 3c 23 69 12 bd dc ae 83 bc
       -0.019322691 0.011274571 -0.035744797 -0.01607459
0000b0 47 ac 96 3c a3 6b 0b 3d e9 54 28 3d 0e c0 38 bc
       0.018392695 0.034038197 0.0410966 -0.011276258
0000c0 78 f5 1a 3d cc 43 45 bc bf 21 f0 3c 2b 9f 88 bc
       0.037831753 -0.01204009 0.029312966 -0.01667746
0000d0 c9 dc f5 bb de da c1 bb ff fe 76 bc 35 c1 a3 ba
       -0.0075031263 -0.0059159836 -0.015075444 -0.0012493493
0000e0 28 85 96 bc 4f ce dd bc df 2c 1b 3c a0 bc be 3c
       -0.01837404 -0.027075915 0.009471147 0.023283303
0000f0 f4 ab 90 ba 6e 85 7e 3c 88 b3 0b 3c b5 4b 10 3c
       -0.0011037574 0.015534742 0.00852669 0.008807112
000100 59 c1 53 bb 83 f1 2d 3c 65 50 38 3d 88 6f ca bc
       -0.003231129 0.010616663 0.044998545 -0.024711385
000110 40 48 05 3c b7 45 7d 3b 7e 2a c4 3b b1 41 83 3c
       0.0081349015 0.003864629 0.005986511 0.016022535
000120 fc ef 4f bc 31 69 30 bc 30 04 f5 bc 21 42 81 bc
       -0.012691494 -0.010767267 -0.029909223 -0.015778603
000130 ff 41 80 3a 67 bd 03 bc d5 a7 a8 bb 3e 76 b9 bc
       0.0009785293 -0.0080407625 -0.0051469603 -0.02263939
000140 9d d9 96 b9 7f 5a 5d 3c fd 46 f3 bb 7a e4 b9 3a
       -0.00028772364 0.0135103455 -0.007424234 0.0014182471
000150 4a d9 27 bd 28 05 6e 3c 52 01 a0 3c 35 3d 84 3c
       -0.040978707 0.0145275965 0.01953188 0.016142467
000160 51 63 70 bc b8 ec e9 bb 1f e8 44 3c 1e d3 6a 3c
       -0.014672116 -0.007138815 0.012018233 0.014332561
000170 92 80 ca 3c a5 32 24 bc 3a 2f 2f bb ce 5d 81 3b
       0.02471951 -0.01002184 -0.002673103 0.00394795
000180 e6 60 37 3c 8e e7 89 3c b9 04 d1 bc 6b 6f de bc
       0.011192536 0.016834047 -0.025514947 -0.027152738

linear_layer.4.weight f4 [100, 100]
000000 a8 cf 8d bc d9 91 4b 3d fc fd 88 3d 3b 32 a5 3d
       -0.017310932 0.049699638 0.06689069 0.08066221
000010 a4 78 7c 3d bb db 20 bc 1f 08 3f bd ec 52 14 3e
       0.06163849 -0.009818013 -0.046638604 0.14484757
000020 72 47 a6 3d 96 7f 27 3d 0e 3b 07 be 38 a3 94 3d
       0.08119096 0.04089316 -0.13206121 0.07257694
000030 9d 15 9e 3d de f7 13 3e 04 95 db 3d 75 a1 46 3e
       0.07718966 0.14450023 0.10721782 0.19397528
000040 08 71 2e 3e 25 31 9c 3e 09 58 f7 bb 99 11 bb 3c
       0.17035306 0.30506244 -0.0075483364 0.02283554
000050 9b 5b b4 ba a8 39 63 3d 6a f7 70 bb b0 b1 05 3e
       -0.0013760211 0.055474907 -0.0036768564 0.13056064
000060 4c 02 14 3e 20 7b 92 bd da 2a 83 3d d4 25 cf bd
       0.14454001 -0.071523905 0.06404658 -0.10114637
000070 04 8b 19 3e 75 bb 8a bd 2e e9 27 3e 69 46 96 bd
       0.14994437 -0.06774036 0.16397545 -0.073376484
000080 72 c6 40 be d3 70 23 3d 28 b2 a3 3b 36 03 56 bb
       -0.18825701 0.03990252 0.004995603 -0.0032655722
000090 68 1a 2e be f0 95 35 3d b0 e7 14 3e 85 0d 31 3d
       -0.1700226 0.044332445 0.14541507 0.043225784
0000a0 a5 fd 64 be 41 84 82 be fb 93 9a be 3f 2c 83 3d
       -0.22362383 -0.25491527 -0.30191025 0.06404924
0000b0 b0 45 30 bd 2d 56 68 be 6f 79 2b 3e a3 f7 79 bd
       -0.04303521 -0.22689123 0.16745542 -0.06102718
0000c0 2f d3 8d 3d 93 42 29 3c bf 24 52 bd c7 f6 ed bd
       0.06925046 0.010330814 -0.051304575 -0.11619335
0000d0 89 a8 92 bd ef 5a 13 bb bf 26 1d bd dd a9 70 3d
       -0.07161052 -0.002248462 -0.03836703 0.058755744
0000e0 95 ef 56 3d 9e 91 6d 3d 8e 75 b4 3d d8 59 44 3d
       0.052474577 0.0580002 0.08811484 0.047937244
0000f0 4a b9 db 3d ea 08 85 bc e6 ae 1b bb e8 14 f5 3c
       0.107287005 -0.016239602 -0.002375537 0.029917195
000100 c3 c0 c0 3d 86 2c ac 3c b4 94 29 3b 99 69 2e bd
       0.094117664 0.021017324 0.0025875987 -0.042581175
000110 92 e4 5f be bd 7d 1f 3e c8 23 6a 3d b5 70 db 3d
       -0.21864536 0.15575309 0.05716303 0.107148565
000120 1f 4a dd bd d6 a9 4b 3e eb 08 91 3c 76 b8 3d be
       -0.10805153 0.19889006 0.017704448 -0.18527398
000130 66 68 b9 3d 4e 02 62 3d 1f e6 c0 bc 78 98 09 3d
       0.090531155 0.05517798 -0.02354723 0.03359267
000140 31 33 90 3d 87 b2 9e 3d 37 31 3c 3d 6a 8b 6a 3c
       0.07041014 0.07748895 0.045945372 0.014315465
000150 d6 2f 2c bd 9e 6d 07 3d 62 c7 03 3e 02 20 07 bd
       -0.042037807 0.033063523 0.12869027 -0.03298951
000160 1d 5a 21 bd 20 14 96 bd 1a 6a 90 bc 46 59 02 3e
       -0.03939258 -0.07328057 -0.017628718 0.12729368
000170 0c e5 59 be 41 04 d6 3d 0b 6f ef bd f8 be 6e bd
       -0.2127878 0.1045003 -0.11691102 -0.05828759
000180 9d 03 ff 3c cc 5e 5c bc 9c 30 77 bd 31 f3 06 bd
       0.031129653 -0.013450336 -0.060349092 -0.03294677
000190 de cc 9b bd 58 dc bd bc c6 38 e2 bd 40 8c 9a 3b
       -0.07607435 -0.023176357 -0.11045985 0.004716426
0001a0 fc 1b 81 bc ce e8 64 bd 57 1c 3e be 36 f7 fd bc
       -0.015760414 -0.055886082 -0.18565498 -0.031001668
0001b0 e3 a8 80 bc 22 a4 97 bd cb e1 e2 bc cc 12 94 bc
       -0.015705531 -0.07404353 -0.027695557 -0.01807537
0001c0 90 31 19 3e e1 2f d7 3d a8 9a 7a 3e 7d 47 8d bd
       0.14960313 0.10507179 0.24473059 -0.06898401
0001d0 9d 63 14 be 0f 5b a6 bd 90 a1 62 bc 14 4e 7b 3d
       -0.14491124 -0.08122837 -0.013832465 0.061353758
0001e0 eb 57 a0 bd 69 bf c4 3d 39 90 ab 3d ff 35 23 bd
       -0.07829269 0.09606821 0.08377118 -0.039846417
0001f0 81 aa 5e 3d b1 04 83 bd 8f fc b5 3d db 04 07 3e
       0.054361824 -0.06397379 0.08886062 0.13185446
000200 27 93 4d 3e 4a ab ac 3d 04 2f a1 bd 8b 1f 85 3d
       0.20075665 0.08431108 -0.07870296 0.06500157
000210 7c da 43 3d 8a 7e b1 3c aa 04 39 3c 58 89 79 be
       0.047815785 0.021666784 0.011292616 -0.24368799
000220 b8 92 0e be b4 69 92 bd 75 72 d1 3d 39 0e 54 3d
       -0.13923156 -0.071490675 0.10226909 0.051771376
000230 a2 11 39 3d c8 d7 43 3d e5 a7 99 3d 10 1d 2d 3e
       0.04518283 0.047813207 0.075027265 0.16905618
000240 94 8c 39 3d d7 38 94 3b 59 7c 6b 3e 9b 2b 97 3d
       0.04530008 0.0045233774 0.22996654 0.07381364
000250 c6 e9 37 bd 11 9b 11 be 7c 04 1b bd f2 4c 63 3d
       -0.044900678 -0.1421931 -0.037846074 0.055493303
000260 83 09 2a bd ba 30 48 bd 56 5d 85 bd b7 46 a0 bd
       -0.041512977 -0.048874594 -0.06511943 -0.07825988
000270 9c 99 1b bd d5 ac c8 3d 81 5e 5c bd fd 1a 86 3b
       -0.03798829 0.0979859 -0.053801063 0.0040925727
000280 94 e3 fd bc e6 e6 8b 3d b5 2d b3 3c 86 90 5d be
       -0.030992307 0.0683115 0.02187238 -0.21637163
000290 a5 10 98 bb b2 9c 33 3e e2 2f 16 3e d3 da 3a 3e
       -0.004640656 0.17540243 0.14666703 0.18247537
0002a0 a2 d6 0a be 1e 4a df bd 1f 38 d0 bd cb ce 15 be
       -0.13558438 -0.109028086 -0.10166954 -0.14629667
0002b0 c8 ab 83 3c 07 f1 3f be ca c3 ed bb d3 80 e5 3d
       0.016073123 -0.18744288 -0.007256006 0.11206212
0002c0 a8 68 8e 3d 46 3c 46 be 29 fc 41 be 71 30 c9 3d
       0.06953555 -0.1935893 -0.18943848 0.098236926
0002d0 d3 67 fd 3d 0b 85 25 be 56 45 8d 3d b5 9c 9d bd
       0.123733185 -0.16164033 0.068979904 -0.07695905
0002e0 1f 8d 7d 3d b1 df ca 3c 1f 5b 13 be d7 ec 75 bd
       0.06190216 0.024764867 -0.14390229 -0.06004032
0002f0 0e b8 11 be dc 3a 1d be 28 3f b2 3d de fd ae bd
       -0.14230368 -0.15354484 0.08703452 -0.08544515
000300 02 47 0a be b0 3e f4 3c c9 f3 ea 3c cb 14 5e 3d
       -0.1350365 0.029815048 0.028680699 0.05421905
000310 eb c8 00 bd a5 d8 bf bd 94 20 d4 3d a5 48 57 3d
       -0.03144161 -0.093674935 0.10357776 0.052559514
000320 77 e2 34 3d d0 09 ba 3b 55 87 cb bd 0d d9 22 3e
       0.044161286 0.0056774393 -0.09937922 0.15903111
000330 1e 40 1e be 9b 91 a4 bd 4d 78 23 3d f2 b8 f3 3d
       -0.15454146 -0.080355845 0.03990965 0.1190051
000340 81 88 34 be cd d4 0d 3d 92 66 c1 3c e7 61 dc 3c
       -0.17630197 0.03462677 0.02360848 0.026902152
000350 fb 9d 8e bd b0 c1 00 be b1 ae 17 3d 89 1f c9 3d
       -0.06963726 -0.12573886 0.037031833 0.09820468
000360 66 23 f4 bd 61 a9 32 be aa a7 29 3b 2a 2f 55 3d
       -0.11920814 -0.17447425 0.002588729 0.052046932
000370 20 22 9c bd 43 93 9a bc 34 a7 13 3e 88 c4 e0 ba
       -0.07623696 -0.018869048 0.14419252 -0.0017148415
000380 e7 2b 56 3c 23 33 83 ba e2 27 a4 bd 7f 1d 91 bc
       0.013071991 -0.0010009747 -0.080154195 -0.01771426
000390 86 e5 2d 3e be b8 44 bd 33 16 5b be d6 e5 47 3c
       0.16982087 -0.048027746 -0.21395187 0.012200793
0003a0 45 61 8c 3c 44 ff bc 3d 1f 3c dc bd 7b 01 21 3d
       0.017136225 0.092283756 -0.10753655 0.039308053
0003b0 ea 66 e6 ba bd 30 19 3e 98 83 b9 bd 6f 60 19 bc
       -0.0017578278 0.14959998 -0.09058303 -0.0093613705
0003c0 5a b5 32 bd 86 c5 b9 3c ac 1e bf 3d 42 b6 5d be
       -0.04362998 0.022677194 0.09332022 -0.21651557
0003d0 c2 2f 4f be da 98 67 3c ff 37 1e 3e 57 1c 46 3e
       -0.20233062 0.014135564 0.15451048 0.19346748
0003e0 df c1 b1 3c e4 8e 69 3d 23 65 2c 3e 30 86 82 3c
       0.02169889 0.057021037 0.16835456 0.015933126
0003f0 34 2c 33 bc af 66 43 3d df 25 2f 3e 9f 92 0c 3e
       -0.010935832 0.04770535 0.1710429 0.13727807

linear_layer.4.bias f4 [100]
000000 c5 bc 37 bb f2 91 20 bc 1f 7f b2 3c be 39 c4 bc
       -0.00280361 -0.009800421 0.021789132 -0.023953315
000010 16 10 1e bd a7 00 31 3c e9 17 9f bc 5a 8c d8 b9
       -0.03858956 0.010803378 -0.019420581 -0.000413033
000020 26 43 99 3c 93 37 45 3c a8 b6 a8 3c a6 58 cf bc
       0.018708777 0.012037176 0.02059491 -0.025310826
000030 60 41 e2 ba 0a 93 42 3c 2a 62 26 bc cc d4 d7 3a
       -0.0017261915 0.011875877 -0.01015524 0.0016466617
000040 01 03 b3 3c 1b 7a f0 bb 9d d1 eb bc 0e 7e c8 3c
       0.021852018 -0.007338775 -0.028786475 0.02447417
000050 d4 90 50 3d f7 90 98 bc e6 5b af 3c c3 f4 74 3c
       0.05091937 -0.018623812 0.021406125 0.014950934
000060 d8 f6 3b 3c 34 90 5d 3c eb 87 06 bc 11 fd a2 bb
       0.011472426 0.01352315 -0.008211116 -0.0049740155
000070 0a d6 06 bd 81 91 ae bc 4e 55 02 3d f1 bb c1 3b
       -0.032918967 -0.021309616 0.031819634 0.005912297
000080 82 58 1c bc 50 d0 9d bc a5 7e 6d bc 1f 52 15 bd
       -0.009542586 -0.01926437 -0.014495526 -0.03645527
000090 4e d6 8b 3c 5e c3 4c 3d cc 0e 85 3c fc fe 81 bc
       0.017069962 0.049991004 0.016242407 -0.015868656
0000a0 6e 6e 44 bb f8 b8 af ba c3 8b f5 bb 71 1a c6 bb
       -0.0029973048 -0.0013406565 -0.0074934675 -0.0060456325
0000b0 e9 1c 87 bc 57 67 5c bb 57 e4 8c bc 05 45 a0 bb
       -0.016493278 -0.0033630931 -0.017198725 -0.0048910403
0000c0 f6 06 0f bb ba 83 33 bc 86 2d ef ba 76 84 cb bc
       -0.0021824217 -0.010956699 -0.001824782 -0.024843436
0000d0 b7 1d 34 3c 43 70 a3 3b bf e9 ed bc 98 38 56 bc
       0.010993413 0.004987748 -0.029042123 -0.013075016
0000e0 2a c9 b8 bb 75 4c 93 bc f0 47 38 bc e0 f6 2c 3a
       -0.005639215 -0.017980793 -0.01124762 0.00065980665
0000f0 25 88 07 bc dc 4a e1 3c 81 ee e4 ba b2 78 94 bc
       -0.0082722055 0.027501516 -0.0017466099 -0.018123958
000100 d1 88 5a bc 78 0b 10 bc aa 65 1d 3c 5c c9 94 bc
       -0.013338284 -0.008791797 0.009606758 -0.018162422
000110 3a 3d 8d 3c 15 b9 d8 bc 8b 28 cc bc 13 a5 14 3c
       0.01724111 -0.026455441 -0.024921676 0.00907256
000120 6e 1d 32 bc 0a e1 f7 bb 8e 71 18 3d 6b 7c f2 bc
       -0.010871274 -0.0075646685 0.03721767 -0.029600343
000130 b0 db b5 bc 46 40 a3 3c fd 84 2a 3d b0 69 f2 3c
       -0.022199482 0.019928109 0.041630734 0.029591411
000140 04 00 8d 3c e1 fa 9c bc dc 1a c8 3c 0d e9 91 3c
       0.017211922 -0.019162597 0.02442687 0.017811323
000150 db 4d 15 bd 97 bf 2f bd 70 e9 0e 3b ca 37 c3 bc
       -0.036451202 -0.042907324 0.002180662 -0.023830313
000160 78 99 d8 b8 77 2e 5c 3a b7 51 80 3c 65 f6 06 bc
       -0.000103282684 0.0008399258 0.015663965 -0.008237456
000170 af 09 bd bb a2 e9 4d 3c bc cc dc 3c f5 bf 4f bb
       -0.0057689766 0.012567909 0.026953094 -0.0031700109
000180 8b 54 a0 bc 87 45 ef bb b8 84 fe bc 13 8d 45 bb
       -0.019571563 -0.0073019895 -0.031069145 -0.0030143901
