ac_2d_model_para_1/checkpoint_600.pth (torch, 291130 bytes, 17 tensors)

linear_layer.0.weight f4 [100, 3]
00000000: ed84 1d3e 24d8 213e 65e8 26be 0edb 3ebd
00000010: 631b 98bd 7bc4 bd3d bcd1 a23d 8774 88bd
00000020: 9e42 88be 8ad8 ac3d 948e 03bd ad20 4c3e
00000030: b7f0 eebd 390c 0abe 64c5 a0be ad7f 01bd
00000040: e3a7 2ebe 5ad9 ffbd fe7f 8dbd 9519 013e
00000050: 4566 f1bd 150c 8ebc 7223 29bd bbda 95be
00000060: 1cc3 e43e 34ec 583d ab9f 023d 5a3f e5bd
00000070: f2a4 32be 147c 3ebd 491c 823d f523 5ebe
00000080: bf78 1b3e 1381 71bd fa59 7a3d b71d 5ebe
00000090: c9e5 3f3e a866 debb 3992 afbd 1411 393e
000000a0: 8878 4bbc d3ff 4d3e 1bed 153e c5f0 1b3e
000000b0: 9ecf 443e a1c7 17be 0620 21be 3e9e 153d
000000c0: fad1 833e 06ab d23c 02cd 8cbe 4dae 21be
000000d0: 7cdf 0dbe 4eae 1fbe dc1f 15be 525c adbc
000000e0: b9bc 973d feb9 db3d da8c 1a3e 2460 4dbe
000000f0: f198 bf3d 7e76 45be 71bf 933d 48c6 923e
00000100: 7a70 9ebd a90e b13d 3280 2abe c66b 18be
00000110: 4878 023d 92cc b53d dc57 d93c 8bc3 dfbe
00000120: 332a 373e 4cb5 f93c 6800 943e 2521 0e3e
00000130: 60f3 a33d fdd6 cf3c 2d5a 7dbe 1d92 58be
00000140: cf1f b2bd a507 163d 44ab 623e f031 1f3d
00000150: e387 2f3e ec02 50be cbbf 8c3d 3e13 643d
00000160: 0a7b ecbb 12b4 b8bd 8ddb 2ebd 421e 1cbe
00000170: 62f1 07be 18d7 7f3e 7a9c 9e3c ee4e 8b3e
00000180: 2bfe be3d a4dc 61be 6b95 0c3e 36e2 7abe
00000190: 75e9 9b3c 6130 f0bd 2000 893d 12e0 9ebd
000001a0: ec4e 85be a090 b03d 263e 0cbe 4858 513e
000001b0: e992 93bd a6ce 853e c8d9 cfbc 8e36 4b3e
000001c0: 5205 113e e962 473d d15f dabc 6f0f bbbd
000001d0: 4967 b4be 9515 a7bd 11f4 dbbc 1e58 06be
000001e0: bbd8 dd3d c53b b33d dad2 f9bd 9916 8abd
000001f0: 3e8d fbbb 2d21 ca3d e871 21be 84aa 223e
00000200: c240 bdbd 2a00 ad3d 66af 80bd 5eb7 4b3e
00000210: a0c1 01be c165 1e3e 775c 023e e599 81bd
00000220: 724b d4bd 371b 0d3e 6be5 a8be 528a 203e
00000230: a413 92be b2b6 5d3e 1267 4b3b a50e 1bbe
00000240: 1a6a 943d 9944 ad3d 99a2 983d 012d 883e
00000250: 34f7 bfbd a98d ccbd 2e63 0e3e 7373 e33d
00000260: ece3 dcbd 43ba f23d 130e 59bd 77d7 dcbd
00000270: a895 bfbd dd22 633e 436c 813d 538f 773c
00000280: ffbd 6c3d 3514 6e3e c797 b13d 31d0 a13d
00000290: 3fd5 e53b f517 863e a0b1 94bd f404 033e
000002a0: e7ed da3e d076 683c a1c8 84bc a54d 873e
000002b0: 499b f2bd 3ec3 85be 89a3 7f3e f204 4c3c
000002c0: ddc8 01be 4c83 aabd 4265 24be f8c0 4e3e
000002d0: 7046 a2bd 35f8 e33d 5b61 39bc 9c30 0c3c
000002e0: 5c07 493e d337 923c c6a0 5e3e e163 15be
000002f0: 2c39 e6bd 05ad 0d3c 1b23 e43d a325 35be
00000300: f4dd 9f3e ddbb 18be 5a75 a33d 56b1 bf3c
00000310: 5b66 c13d d80c 9b3e 3249 e43d 94e0 95bc
00000320: f27c a9be 1964 5abe 6f15 d7bc df78 ec3d
00000330: 0ac6 623e 6d7f e9bd 1995 b4bc 8fdf 82bd
00000340: ae70 b83d c309 253d 1f8b 28be 7f10 583c
00000350: 9160 3fbd 8b06 c83d 3657 193e 960b a13d
00000360: 7096 7abd 7dc3 833e 24cd ccbd b420 833d
00000370: 61ee 163e a80e 42be 9de1 ae3e 5c44 fd3c
00000380: 522f 38bd 50b8 11bd ddf3 913e a8d9 0d3e
00000390: d029 0cbe 997b bdbe 0c97 533e 369b 95be
000003a0: 65a6 c6bd ba4f 12be 71f9 80ba def8 593e
000003b0: a61a aabc c568 9b3c 7612 2fbe faa6 343d
000003c0: 6911 ee3d ff4a 79bd fb41 14bc 2a0d cfbd
000003d0: a91d 43be adfb a9bd d40f 2cbe 9b6d 1e3e
000003e0: 31f6 4b3d 935f 0c3e e564 dabd 9ab3 d03e
000003f0: bbae 613e f2f6 08bd 9baf 7bbe d8ad 243e
0.15382738 0.15805107 -0.16299589 -0.046595626 -0.074270986 0.09265991 0.0795016 -0.06662851
-0.26613325 0.08439739 -0.032118395 0.1993434 -0.116670065 -0.13481225 -0.31400597 -0.0316159
-0.17056231 -0.124926284 -0.06909178 0.12607415 -0.117870845 -0.017339746 -0.04129357 -0.2926844
0.44680107 0.052959636 0.031890552 -0.11193724 -0.17445734 -0.04650505 0.06353051 -0.21693404
0.1518278 -0.058960985 0.061120965 -0.21691023 0.1874 -0.00678714 -0.08572812 0.18072921
-0.012418874 0.2011712 0.1464123 0.15228565 0.19219825 -0.14822246 -0.15734872 0.036527865
0.25746137 0.025716316 -0.2750016 -0.15789147 -0.13854784 -0.15593836 -0.14562935 -0.021162186
0.07409043 0.107288346 0.15092793 -0.20056206 0.09355343 -0.19283482 0.07214249 0.28666902
-0.07736297 0.08645374 -0.16650465 -0.14884862 0.03185299 0.08876909 0.026531152 -0.43703875
0.17887191 0.030481957 0.2890656 0.13879831 0.080054045 0.02537107 -0.2474143 -0.21149488
-0.08697473 0.036628384 0.22135645 0.038865983 0.1714168 -0.20313615 0.06872519 0.055682413
-0.007216816 -0.09018721 -0.04268985 -0.15245917 -0.13275674 0.24984396 0.019361723 0.27208656
0.093258224 -0.22056824 0.13728873 -0.24500355 0.01903222 -0.117279775 0.06689477 -0.07757582
-0.26036775 0.08621335 -0.13695583 0.20443833 -0.07205755 0.26134223 -0.0253724 0.1984503
0.14162186 0.048678312 -0.026657017 -0.09133803 -0.3523505 -0.08158413 -0.026849778 -0.13119552
0.10832354 0.087516345 -0.1219842 -0.067425914 -0.0076767495 0.09869609 -0.15766108 0.15885359
-0.09240867 0.08447297 -0.062834546 0.19894168 -0.12671518 0.15468504 0.12730585 -0.06328181
-0.103659526 0.13779913 -0.32987532 0.15677765 -0.2853061 0.21651724 0.0031036776 -0.15142305
0.072468 0.084603496 0.07452888 0.26596835 -0.09373322 -0.09987957 0.13905022 0.111060046
-0.1078566 0.11851933 -0.052991938 -0.10783284 -0.093547165 0.22181268 0.063194774 0.015109855
0.057798382 0.23249896 0.08671527 0.079010375 0.0070139463 0.26190153 -0.07260442 0.12794858
0.4275963 0.014188483 -0.016208949 0.26426426 -0.118460245 -0.2612552 0.24964727 0.012452351
-0.1267428 -0.08325824 -0.16054252 0.20190799 -0.07923591 0.11131326 -0.011314715 0.008556511
0.19631714 0.017848885 0.21741018 -0.14588882 -0.112413734 0.008647208 0.11139508 -0.17690139
0.31224024 -0.14915414 0.079813674 0.02339999 0.09443351 0.30283237 0.111467734 -0.018295564
-0.33103138 -0.21327247 -0.026255338 0.11546492 0.22145858 -0.11401258 -0.022043752 -0.06390297
0.09005867 0.040292513 -0.1645932 0.013187527 -0.046722952 0.09766873 0.14974675 0.07863538
-0.061178625 0.25735083 -0.10000065 0.06402722 0.14739372 -0.18950903 0.34156504 0.030916385
-0.044967003 -0.035576165 0.28506365 0.1385256 -0.13687825 -0.3700836 0.20663089 -0.2921998
-0.09699706 -0.14288226 -0.0009839964 0.21286342 -0.02076466 0.018970856 -0.17096886 0.044104554
0.116244145 -0.060862537 -0.009048934 -0.10109933 -0.19054283 -0.082999565 -0.16802913 0.15471499
0.049795333 0.13708334 -0.10663775 0.40762025 0.2203931 -0.03343863 -0.24578707 0.16081941

linear_layer.0.bias f4 [100]
00000000: 4c8b 0cbc d79d 2abd e767 e53d 9c2e 59bc
00000010: b366 f63c 8d61 f1bc bdfe 2e3d 9cf2 ae3d
00000020: 70a6 d7bd e0f1 163d a114 263d c522 7ebd
00000030: c7b4 6f3d a765 943d 7add ae3c 9e0a 8dbb
00000040: 6db0 9ebd 566f ed3b 9d4b 55bc 089d 373c
00000050: 98de 4dbd 30e4 c9bc 6fad e0bc 90ea fb3c
00000060: d39e 893c daf0 993d 1213 6a3d 950c 56bc
00000070: b089 f63c a534 4bbd c5be 35bd 24a0 41bd
00000080: 5cf8 693d 0e9a 24bd c6e6 3cbd 8446 043d
00000090: ff29 15bc 7452 93bd a554 eb3d 0515 6e3d
000000a0: bf1a 5b3d 65e7 d8bc b36f 823d 893e eebd
000000b0: b55c 893c f82f 64bd 4257 53bd 24e2 adba
000000c0: 4707 53bd e1e9 a2bd c661 c23d 1fc5 1f3d
000000d0: abcc 89bb 9bff dfbd 7bdc 643d 547e 6a3d
000000e0: b7da c2bb 25ef a8ba 08f2 b5bb eaad 2fbc
000000f0: 4e2e 85bd 98c8 02bb aa41 b0bc 0cfa aa3d
00000100: 1bb1 87bd 3aa2 613d c3f4 a4bd 5d30 4ebc
00000110: d15e 56bd 00a7 8b3d b703 523d 901f 0cbd
00000120: 2ff9 74bd 0977 dc3d 5425 993b 4e41 de3c
00000130: cc58 b8bc de9b 023d a0b1 99bd 1707 4bbc
00000140: e078 a83d d3e8 663d aad7 20bd 7f8c 32bc
00000150: a55d 763c 35a5 ce3b fde0 403d 4dd2 c13d
00000160: 7c5b a9bd deaf 81bd 51d7 94bd e235 03be
00000170: 55e9 46bd 91a8 b13d c0c7 9fbc deac 0b3d
00000180: a26b c93d 7bea 103d e982 34bd 0e58 a23c
-0.008578133 -0.041654434 0.112014584 -0.013255741 0.030078268 -0.029465461 0.042723406 0.08542368
-0.10529792 0.036851764 0.040547017 -0.062044878 0.058522012 0.07245951 0.021345843 -0.004304244
-0.07748494 0.0072459383 -0.013018516 0.011206873 -0.05026111 -0.024644941 -0.02742645 0.030751497
0.016799366 0.07516642 0.057147093 -0.013064523 0.030094951 -0.049610753 -0.044371385 -0.047271863
0.05712162 -0.04018598 -0.04611852 0.03229381 -0.009104251 -0.07193461 0.11490754 0.058125515
0.053492304 -0.026477525 0.06368961 -0.116330214 0.016767839 -0.05570981 -0.051596887 -0.0013266248
-0.051520612 -0.07954765 0.09491305 0.03900635 -0.0042053065 -0.10937425 0.05587433 0.057249382
-0.005946483 -0.0012888653 -0.005552534 -0.010722617 -0.065029725 -0.001995599 -0.021515686 0.08348474
-0.06625577 0.055086352 -0.08054497 -0.012584773 -0.052336518 0.06818962 0.051273074 -0.034209788
-0.059807952 0.10764892 0.0046736393 0.02713075 -0.02250328 0.031886928 -0.075045824 -0.012391827
0.0822618 0.056374382 -0.039268173 -0.010897755 0.015036975 0.0063063153 0.047089566 0.0946394
-0.082694024 -0.06332372 -0.07267631 -0.12813523 -0.048562367 0.086747296 -0.019504428 0.034100406
0.098349825 0.035379868 -0.04407016 0.019817378

linear_layer.1.weight f4 [100, 100]
00000000: 189f 6e3d 4863 133e 8e12 3ebd 7945 b1bc
00000010: 509a 2bbc 4096 073c eee5 d73d 5110 903d
00000020: 4589 233e 3490 11be 642d a2bd ba11 553b
00000030: 9a15 30be 2209 57bd 02b6 813d d5a6 8c3d
00000040: 50c1 5abe 7678 18be 64db 243e e6b1 cd3b
00000050: b5fa c5bd f2cc dd3d 3aed 053d 2864 2e3e
00000060: 21ca 83bd 6bde 113c 9381 9cbd f0f4 a0bc
00000070: 2b45 72be 3672 c4bd dd33 2fbc 499c f83b
00000080: a893 29bd f5d8 4d3e 18e9 a7bd a75a 7ebd
00000090: 3128 bdbd e3cb c3bc 3ef9 103e 704d 01be
000000a0: 02b9 743d 1f02 903d 5c4c 07be 33d0 8fbd
000000b0: c13d e1ba 70eb 2abd 4518 543d 8254 b33d
000000c0: 57e3 29bc 47dc f63d 703d 34ba 40f9 89be
000000d0: 4ddd e33d 5903 973d a8da f7bc 9e26 56be
000000e0: 6cb8 a3bd cdca 90bd 26ac 5f3e 3c9a 2b3e
000000f0: b3b3 da3b 10e3 713d 4e77 e1bb 5a3f 1bbe
00000100: 1869 f9bc be4b 3a3e 94aa 95bc da60 5d3c
00000110: c18a ad3c 40ce adbd 7785 c63c 9cc8 b73d
00000120: 646b 97bd 60cc 513d 4f35 50be 7938 d43c
00000130: 13c4 26bd c588 4a3c 2831 38be 6913 f6bd
00000140: ea89 68bc a600 46bb 1863 07bd 0f75 cabd
00000150: 501e 993d b212 fa3d 69dd a0bc 9891 8bbd
00000160: 0934 be3d bc01 cb3d 21b5 a0bc 55ba e93d
00000170: 8832 c2bd e435 59bd f428 33bc 1663 c7bd
00000180: 72af 63bd 1913 62bc 7f2a 0bbe a688 9fbd
00000190: 7034 1e3d fae6 723e 0f5f 36bd 578e 7d3d
000001a0: 8f42 52bc 0f03 15be d417 e93d bf8b 8dbe
000001b0: 95be 50bd 1be3 64bd 57e2 63bd 5349 2b3d
000001c0: e356 a73d 8bb0 d83d 92f8 003e 159e 06be
000001d0: 8b5e 21bd 9faf 85be ecad c03c d529 373e
000001e0: 86ee b9bd fcd5 a2bc ca40 503d 35cf f93d
000001f0: 4263 2d3e 01f8 e43c 1ef2 9bbd 1ed4 d23d
00000200: c803 e8bd 515c 8cbd 40bc 0dbd ea3f f4bd
00000210: 7447 3c3e eaf5 c5bd d193 adbd 7498 293d
00000220: 9a11 313e 7b0b f13b fd95 b2bc 3f6b b2bd
00000230: 867c 3c3e 29df b8bd 9320 da3d 1ad0 0fbe
00000240: 3369 3a3e ece6 57be 919b 88be 85eb 91bd
00000250: a0fe ef3c 675d 99bd 0493 3ebd c0a1 27bd
00000260: b4a6 903d a0f5 20be da50 aabd fab8 b93d
00000270: 91ea 363c e499 80bd ee84 fdbd 95bf 01bd
00000280: 8a42 033e be49 dabd 6f5c c9bb d623 113d
00000290: ddf2 00be 8eb1 f73d 38ab e1bc 4c51 35be
000002a0: 88a6 b6be d805 403e 0192 e3bc 2749 823d
000002b0: e8c8 0f3d 9599 e43d 111e d13d 9868 2a3e
000002c0: 285e b43c e48f 513c c11b fdbd 4e1e 8e3d
000002d0: f8bc 493e 93c7 43be 0a6b 46bd 3181 a43d
000002e0: 319b 863c a53f d6bd c9ab d33c 44c2 673c
000002f0: 265b 0c3d 08e5 03be 8c35 9f3d 2b28 00be
00000300: 0ca2 3c3b 4e00 aebd aec9 0a3e f215 11be
00000310: 0f09 0c3e 50c9 003e 6ffc d3bd 073f 4b3e
00000320: 707e c5bd 0e36 80bd 65e4 e23d 9915 15bd
00000330: ba69 0bbe 82f3 1f3d 79ab cdbc 1c08 163e
00000340: b7d8 15be b67e 16bd 38f8 a03d adbd 9a3c
00000350: c971 28bd 1634 5e3d c1bc 243d df46 2fbd
00000360: ffb6 d0bb c83d e73d b8ca 65be d57d 1dbe
00000370: 32a2 8a3d 1d8e bd3d 5f77 a33c 413a 05be
00000380: f33b 0bbe 8aea 16be dc97 073d 6aa2 af3d
00000390: e652 25bd 2f74 ca3d f218 0abe fa5e 8fbc
000003a0: 19e1 ec3c 47ec 94bd d692 643c ad91 f13b
000003b0: 0a1d c7bd 6954 92bd 9d54 8cbd 3987 4dbb
000003c0: 0757 7e3e 3282 1b3e 789e 98bc 78c8 063e
000003d0: 39ac fcbd e0af 043e 2a06 c73d f6a8 c9bd
000003e0: df26 76bd bef8 afbd 56a9 8d3d e496 9a3c
000003f0: b4a8 27bd a1dc 81bd c11a 07be 62f8 00bc
0.058257192 0.14393342 -0.046404414 -0.021639572 -0.010473803 0.0082755685 0.105419025 0.07034362
0.15970333 -0.14215165 -0.07918814 0.0032511787 -0.1719574 -0.052498944 0.06333543 0.06867758
-0.21362805 -0.14889702 0.16099316 0.0062773107 -0.09666959 0.10830106 0.03269694 0.17030394
-0.064350374 0.008903126 -0.07641902 -0.019648045 -0.23659198 -0.095920965 -0.0106935175 0.00758699
-0.04140058 0.20102294 -0.08198756 -0.06209817 -0.092361815 -0.023900932 0.14157578 -0.12627196
0.05974675 0.070316546 -0.13212723 -0.07022133 -0.0017184542 -0.041728437 0.051780958 0.08756353
-0.010369143 0.12053733 -0.000687561 -0.26947975 0.11126194 0.073736854 -0.03025563 -0.20913169
-0.0799416 -0.07069931 0.21843013 0.16758054 0.006674254 0.059054434 -0.0068806773 -0.15160885
-0.03044562 0.18192956 -0.018269815 0.013511861 0.021184327 -0.08486605 0.024233563 0.0897381
-0.0739353 0.051220298 -0.20332836 0.025905835 -0.040714335 0.01236171 -0.17987502 -0.12015421
-0.0141930375 -0.003021279 -0.033053488 -0.098856084 0.07476485 0.12210597 -0.019636827 -0.06814879
0.09287269 0.0991244 -0.019617619 0.11412493 -0.09482294 -0.05302991 -0.010935057 -0.09735696
-0.05558724 -0.013798499 -0.1359043 -0.077897355 0.038624227 0.23720923 -0.04452425 0.061903324
-0.012833252 -0.14551948 0.11381498 -0.2764568 -0.050963003 -0.055880647 -0.055635776 0.041817974
0.08170869 0.10580548 0.12594822 -0.13146241 -0.039396804 -0.2611055 0.023520432 0.17887051
-0.09078698 -0.019877426 0.050843038 0.12197725 0.16932395 0.027950289 -0.076145396 0.102943644
-0.11328846 -0.068535455 -0.034603357 -0.11926253 0.18386632 -0.09666045 -0.08475459 0.041405156
0.1729187 0.007356105 -0.021800036 -0.08711862 0.18406877 -0.090269394 0.10650744 -0.14044228
0.18204193 -0.21084183 -0.26681188 -0.07125 0.02929622 -0.07488518 -0.046526924 -0.04092574
0.07063046 -0.15718699 -0.083162025 0.090684846 0.011164323 -0.06279352 -0.1237887 -0.031676847
0.12818351 -0.106585965 -0.006145052 0.035434566 -0.12592645 0.12094413 -0.027547464 -0.17706794
-0.35673928 0.18752229 -0.027779581 0.06361609 0.03510371 0.11162106 0.10210813 0.16641462
0.022017553 0.012790654 -0.12358809 0.06939374 0.19700992 -0.191191 -0.048441924 0.08032454
0.016431423 -0.10461358 0.02583875 0.014145438 0.034266613 -0.12880337 0.07773885 -0.12515323
0.002878311 -0.08496152 0.13553497 -0.14168528 0.1367533 0.12576795 -0.10350882 0.19848262
-0.09643257 -0.0626031 0.11078719 -0.03639755 -0.1361455 0.039050587 -0.025106179 0.14651531
-0.14633451 -0.036741935 0.07859844 0.018889273 -0.04112414 0.05424889 0.040219072 -0.042792197
-0.006369471 0.11291081 -0.22440612 -0.15380032 0.067692176 0.092556216 0.019954382 -0.13010503
-0.13597088 -0.14737907 0.03310381 0.085759 -0.04036226 0.098854415 -0.13486078 -0.017501343
0.028915929 -0.07271629 0.013951024 0.0073721022 -0.09722336 -0.07145006 -0.06852076 -0.0031361117
0.24837886 0.15186384 -0.018630251 0.1316241 -0.12337536 0.12957716 0.097179726 -0.0984668
-0.060095664 -0.08592366 0.06917064 0.018870778 -0.040932372 -0.0634091 -0.131938 -0.007871719

linear_layer.1.bias f4 [100]
00000000: cae7 14bd 93ef 873d 960e 3cbc 97a5 c53d
00000010: 210e aabc 8792 9fbc 7e66 8dbd 408f c43d
00000020: 49ee 95bd f5eb 493b 8d42 5ebd 143e e2bc
00000030: a526 7a3d 7a7e b33d 163d 1dbd 0df7 87bc
00000040: 9dc5 0cbc a9ba 943d 750e 2e3c f0e9 48bd
00000050: 3692 dabc 97cb 043d c15a 49bc 960f 1c3d
00000060: 6683 033d bd7d 553c 9f21 943d f025 25bd
00000070: 94ef 78bd c2f1 d1bc 16f4 96bd 9a0d dd3c
00000080: a6da b73b 131e 45bc 0593 22bd 1382 f13c
00000090: e76c a63d e52b 6bbd 9ab9 1ebb b330 f9bc
000000a0: baeb 83bd 00ae 84bd 18f1 b33c dd37 c43d
000000b0: 2c12 43bd 03b9 663b d613 e4b9 60a7 50bd
000000c0: fe2b 8ab9 2989 7fbd a37f b5bc e887 fb3c
000000d0: 401c ea3b 25b4 49bd 74b9 333c 9012 3d3d
000000e0: 6fe6 9b3d ef9f 38bd 39bd b53b d72d 133d
000000f0: d9d2 2bbd 5e39 813b e823 423c b19e b63d
00000100: 0a51 233c bccf 0e3d 1f4a 33bd 5548 0639
00000110: b00e 16bd fffe a9bd 8c62 6fbd fc2f 453c
00000120: 1f32 0bbd 89ee 00bd a2da 2b3d 126d 663c
00000130: 69ba 523d cafa 14bd 69de 6f3d 0aa0 0fbd
00000140: 26f7 d3bd bcb2 67bc 1d58 403c 37de b2bc
00000150: 7010 693d 01b0 47ba e423 873c 70c4 003d
00000160: ec30 b03d 02f9 4bbb 7e0b 4fbd 38f2 82bd
00000170: 9681 eb3b 6663 a03c 6a48 f53c c87d 2c3c
00000180: 93f1 373d 19be 4cbc f844 31bc 3aa0 d53c
-0.036353864 0.06637492 -0.011478087 0.096507244 -0.02075869 -0.01947905 -0.069043145 0.09597635
-0.0732084 0.0030810807 -0.054262687 -0.027617492 0.06107201 0.08764358 -0.038388334 -0.016597295
-0.008592037 0.07262165 0.010623564 -0.049051225 -0.026681047 0.03242072 -0.012289704 0.0381008
0.032107733 0.013030467 0.07232975 -0.040319383 -0.060775355 -0.025627974 -0.073707744 0.026984025
0.0056107817 -0.012031096 -0.03969099 0.02948097 0.0812624 -0.057414908 -0.0024219514 -0.03041873
-0.06441446 -0.064785 0.021965548 0.095809676 -0.047624752 0.003520549 -0.00043502328 -0.05094087
-0.00026354188 -0.062386665 -0.022155588 0.030704454 0.007144481 -0.049244065 0.010969508 0.04616028
0.07612311 -0.0450744 0.0055462387 0.03593239 -0.041949127 0.0039436063 0.011849381 0.08916987
0.009968052 0.03486608 -0.04377186 0.00012806182 -0.0366351 -0.0830059 -0.05844359 0.012035366
-0.033983346 -0.031477485 0.04195655 0.01406409 0.051447306 -0.036371984 0.058561716 -0.035064735
-0.10349874 -0.014141735 0.011739758 -0.021834476 0.05690044 -0.0007617474 0.016496606 0.031437337
0.08603081 -0.0031123762 -0.05054807 -0.06393856 0.0071870787 0.019578647 0.029941756 0.010528035
0.044908118 -0.012496495 -0.010819666 0.026077379

linear_layer.2.weight f4 [100, 100]
00000000: 744b 82bd b354 a93c 9958 863d ca83 36be
00000010: 923a a03d 6dc6 3dbd ff5c 5d3d a996 a6bd
00000020: fdef ae3d 7372 4fbd 0232 70bd 8ee2 2a3d
00000030: 4eb0 09bd 1ac0 bfbd 65a3 ce3c 0219 10be
00000040: bb50 343d 77a5 87bd 0b80 38bd 2967 043e
00000050: 8ca2 ba3c 56d8 5d3d 552f 73bd 1791 90bd
00000060: 1425 08be 4400 833b 19e1 46be 1677 fcbc
00000070: 6249 fcbb 822c 273b 0ec8 2d3d 8b8e bd3c
00000080: 2877 bbbb 9a17 c13b cea8 d83c f825 823b
00000090: 4a18 6cbc 6096 7a3e 0288 bf3c 4952 8ebd
000000a0: 76d8 0b3e f265 233e ef7d 993d d853 e63c
000000b0: ee43 ed3d 5c7e e6bc 05b7 053e 21b3 063d
000000c0: cfb7 13be 8057 e43d ff8e 7cba 21ba 823d
000000d0: 4a34 03be b1fe 153d 676e e2bd 365b 28bd
000000e0: 0c7d a4be 5e56 0d3d 4f58 c33d 7a97 613c
000000f0: 6fe4 f3bc 5767 f3bb 9aad cfbb b1d4 1fbc
00000100: e8c7 3b3d 805d f03d ea2a 263d c2c1 6cbd
00000110: 9b09 883d 15c9 883c 9fa1 703e 229c 823e
00000120: 0104 8e3c 538a ecbd 886f 42be f8f8 0f3d
00000130: 7fa5 3fbc c4a2 dabc 59ca adbd d85c ad3d
00000140: 0bdc c5bd abd3 723d e5aa c93c 62b2 af3d
00000150: acb7 7b3e 1862 0fbe f9ae 223e 0187 8bbe
00000160: ce47 96bd 3874 dbbd f481 0e3d 4044 f73d
00000170: a18e c8bb 5993 f8bd 436f 25bd 9610 a4bc
00000180: 7226 8ebd c791 c73c a4ca 723c dcc1 673d
00000190: ebca 21bd d94d c33c ca5b e5bc eedc 9cbe
000001a0: ea53 69bc 356d 5e3d a9db 593d 334b 5dbe
000001b0: 316f 193d 93e3 f9bd 3e5b d73d 1b9f 0abe
000001c0: d063 89bd 1722 8cbe 33c8 d6bd 0282 333c
000001d0: 6498 343c 9c30 09bd 7942 9e3d 8d76 8c3d
000001e0: e4bd af3d 333d 053e f1f8 cabc c6ef 3dbd
000001f0: 05bf 4c3d 0b27 953d 4d6b 5ebe ec4f a03d
00000200: f5ba 973c 72de 81bb d384 b63d 7e8c 2abe
00000210: 3738 793e afbf bb3d eb2b 88bd 6e16 abbd
00000220: 5751 b63c 8e6c 603d e1fb 753e d8e7 983c
00000230: 650b 383e ba92 90bc d7fc 163e 1bce 393d
00000240: 4682 fa3d 9112 273e 2634 0abe 79b6 d63c
00000250: d122 49be eb02 1c3d 6d8d 88bd 0b03 37be
00000260: 32a8 9c3d 9a07 693d 760b 6a3e a77e 163e
00000270: 5b12 86bd 591c 05bc da25 5dbd 4886 a7bd
00000280: 45f2 003d 4d34 183e 8d6c 663e c514 f4bc
00000290: 85eb 6fbe c03e 9abd 23bb c2bc 221a dc3b
000002a0: b8ea 953c c74a 8b3c 1374 31bd c2c2 573d
000002b0: e537 a43c c684 fbbd f0a4 553d c081 b3bd
000002c0: b2e9 1b3c 7860 bd3d eacc f33b b26d 9c3d
000002d0: 7ccf 04bc 2bcd c2bd 8165 d7bd dbe3 2ebe
000002e0: ffb4 febc 5b48 fa3d d57e 2f3d e93b ddbd
000002f0: 60f7 483c 495c 96bd 43cd 183c c441 8e3d
00000300: ae9e 093d c228 0cbe 2b18 64bc 77b7 91bd
00000310: 023c 763d b8b9 4a3d 7b6b 013d f0e9 36bc
00000320: 1882 fcbc 0097 bfbd d953 15bd 6836 273d
00000330: 67f2 313e edbf b8bd 2d28 a43d 7df5 cb3c
00000340: 66d8 39bd ae2a 3e3e a236 24be 0fa0 1abe
00000350: b889 b2bd 6722 22be 8156 44bd 308e 5e3d
00000360: 2d7d 4c3e 0e94 9b3d cb7e 28be 327b 1a3c
00000370: 2497 0abe 02ea c33d 0429 8cbe 4415 cb3d
00000380: 5304 acbd c201 88bd f9c1 bd3d 5cb9 803c
00000390: 37bd 09be 8413 453d ada4 18be d9af 8b3d
000003a0: 3f40 81bd 90b9 5d3c 8c85 d5bc 7dbf bc3d
000003b0: eede 5bbd a04b 1bbe 3814 f43b ea4a 853d
000003c0: e6a2 04be 7eca dd3c 72ff 01be 5c0d 5bbc
000003d0: 8ae7 e33c f36d 82bd 91d6 a4bc 8784 6c3c
000003e0: 77c4 65bd e5b5 04bd 7b31 05be d9c7 3b3d
000003f0: 7966 07be 3bd1 a53c 8333 403d a1b8 4e3d
-0.06362048 0.02067027 0.065598674 -0.17823711 0.078236714 -0.04633181 0.054043766 -0.08134205
0.08541868 -0.050646257 -0.05864144 0.041719966 -0.033615403 -0.09362812 0.025224397 -0.1407204
0.044022303 -0.06623357 -0.045043986 0.12929977 0.022782587 0.054161392 -0.05937131 -0.07058924
-0.13295394 0.0039978344 -0.19421805 -0.030818503 -0.0076991776 0.0025508706 0.042427115 0.023139259
-0.0057209916 0.005892706 0.02644768 0.0039718114 -0.014410088 0.24471426 0.023380283 -0.069492884
0.13656792 0.15956858 0.07494723 0.028116152 0.11585222 -0.028136425 0.13058098 0.032885674
-0.14425586 0.11149502 -0.0009634345 0.063831575 -0.12812915 0.036619846 -0.11056214 -0.04110261
-0.32126653 0.034506194 0.09538328 0.013769025 -0.029772012 -0.0074280906 -0.0063378336 -0.009755299
0.045844942 0.11736584 0.04056827 -0.05780197 0.06642457 0.016697446 0.23499154 0.25509745
0.017335894 -0.11549821 -0.18987858 0.035149544 -0.011697172 -0.02668894 -0.084858604 0.08464974
-0.096611105 0.059283894 0.024617622 0.08578946 0.24581784 -0.14002264 0.1588706 -0.27251437
-0.073379144 -0.10715526 0.0347919 0.120735645 -0.0061205183 -0.12137479 -0.04038931 -0.02002744
-0.069409266 0.024361504 0.014818821 0.056581363 -0.03950016 0.023840832 -0.02799787 -0.30637306
-0.014241198 0.054303367 0.053188 -0.21610717 0.037459556 -0.122016095 0.1051545 -0.13537256
-0.06708491 -0.27369758 -0.10487404 0.010956289 0.011022661 -0.033493623 0.077275224 0.06858549
0.08581141 0.13011627 -0.024776908 -0.046371244 0.049986858 0.072828375 -0.2172062 0.07827744
0.018521765 -0.003963285 0.08912053 -0.16655156 0.2433785 0.0916742 -0.06649002 -0.083538875
0.022255583 0.054791026 0.24021865 0.01866524 0.17973097 -0.01764809 0.14744888 0.045362573
0.12231879 0.16315676 -0.13496456 0.026210057 -0.19642188 0.03808872 -0.066676 -0.17872255
0.07649268 0.056892015 0.22855935 0.14696752 -0.0654647 -0.008124434 -0.053991176 -0.08179909
0.031481046 0.14863701 0.22502346 -0.02979506 -0.23429687 -0.075315 -0.023770874 0.0067169825
0.0183004 0.01700343 -0.043323588 0.05267597 0.020046184 -0.12281184 0.05215925 -0.08764982
0.0095161665 0.092469156 0.007440199 0.0763811 -0.008106109 -0.09511789 -0.10517407 -0.17079107
-0.031092165 0.12220832 0.042845566 -0.108024426 0.01226601 -0.07341821 0.009326282 0.069461375
0.033598594 -0.13687423 -0.013921778 -0.07115071 0.06011582 0.04949352 0.031596642 -0.0111641735
-0.030823752 -0.09354973 -0.036456916 0.04082337 0.17377625 -0.09020982 0.080154754 0.024897331
-0.04537239 0.18570969 -0.16036466 -0.1510012 -0.08717674 -0.15833436 -0.04793406 0.05433482
0.19969626 0.075965986 -0.16454618 0.009428786 -0.13534218 0.09566118 -0.27375042 0.099161655
-0.08399262 -0.0664096 0.09265513 0.015713386 -0.13451086 0.048114315 -0.14906569 0.0682065
-0.06311082 0.013533011 -0.026064657 0.09216211 -0.0536794 -0.15165567 0.0074486993 0.06508429
-0.12952766 0.027074095 -0.12695101 -0.013369884 0.027820367 -0.063686274 -0.020121844 0.014435894
-0.056095567 -0.03240003 -0.13007157 0.045844886 -0.13222684 0.02024137 0.046924125 0.050469045

linear_layer.2.bias f4 [100]
00000000: 1b67 41bd 96c6 6ebc 4115 493c e404 143c
00000010: 8775 713c ee4a 153d 6ecd 193d 729a 033c
00000020: 22e5 e03c bc5f 0a3d b198 06bd b75a 51bd
00000030: cef1 7fbd 85d0 7e3d 27bc e7bc 20bb 35bc
00000040: efd1 39bd 23c2 5f3d 6ab4 f93b 5d4d d3bc
00000050: e39f 90bd 71b3 16bd 47e9 66bc 8809 813d
00000060: da75 f63c 5bd2 edbc 146c 0ebd e342 6ebd
00000070: d6c7 e93c 51e1 36bd 4e15 74bd 1ed8 d8bc
00000080: 3664 ed3a 91a1 403c 7691 a6bc 4b3d 51bd
00000090: 10d2 40bc a5d9 42bd 29f9 b0bc 545a 1fbc
000000a0: 2526 c0bc 43e7 77bd 786c a4bc d1ba c13c
000000b0: 992a 133c d94e 293a 7443 27ba 6a07 013c
000000c0: fd8b c33c 356a ab3c 22a3 90bc bd2c 2ab8
000000d0: 6a96 5c3d 434f 0d3d 3ea1 4b3d 5189 23bd
000000e0: 43ae 11bd 7eac 22bc f647 7e3c 0f89 39bd
000000f0: 759f f2bb 93cf 1f3d da53 de3c 7ec6 6abc
00000100: f3d4 c9bc 9de3 e33a 0cbd 9bbc 1777 1abb
00000110: 6207 023b ad30 ad3b 1317 96ba 80ef 56bc
00000120: 805d 7ebc 796b 17bc d8d2 14bd 652f 53bd
00000130: f90e 47bc 1aea 083c a768 c23c a3df 16bd
00000140: 631b 1cbd a667 a5bb 10e6 dabc 687e e0bc
00000150: 2956 2c3d a686 213d 3bb1 ad3c a257 a13d
00000160: a0dd f5bc aba1 6e3b 4bc0 c63b c32b 9a3c
00000170: b58d a2bc 693d b0bd c722 dd3b 38e9 52bd
00000180: 6105 51bc 7ae6 8c3c 31a5 17bd 68b9 d7bc
-0.04721747 -0.014573714 0.012273134 0.009034369 0.014737493 0.03644841 0.03754943 0.008032428
0.027453009 0.033782706 -0.03286046 -0.051111903 -0.062486462 0.06221058 -0.02828796 -0.011091977
-0.045366224 0.054628503 0.007620384 -0.025793726 -0.07061746 -0.036792222 -0.014093704 0.06300646
0.030085493 -0.02903097 -0.03477104 -0.058169257 0.028537672 -0.044648472 -0.05959063 -0.02647024
0.001811153 0.01175727 -0.020333033 -0.051083844 -0.011768833 -0.047570843 -0.021603184 -0.009726126
-0.023455689 -0.060523283 -0.020071253 0.023648651 0.008982324 0.00064585876 -0.0006380596 0.007875303
0.023870463 0.020924667 -0.017655913 -4.0572824e-05 0.053854384 0.034499418 0.04971432 -0.039925877
-0.03556658 -0.009928821 0.0155200865 -0.045296725 -0.0074042627 0.039016318 0.027139593 -0.014329551
-0.024637675 0.001738656 -0.019011043 -0.0023569518 0.0019840826 0.0052853436 -0.0011450968 -0.013118625
-0.015525222 -0.009241932 -0.03633389 -0.05155887 -0.012149566 0.008356595 0.023731543 -0.03683437
-0.038112056 -0.0050477562 -0.02672103 -0.027404025 0.042074356 0.03943505 0.021202674 0.07878043
-0.030012906 0.003641228 0.0060654036 0.018819695 -0.019842962 -0.08605463 0.0067485305 -0.051491946
-0.01275763 0.017199744 -0.037022773 -0.026333526

linear_layer.3.weight f4 [100, 100]
00000000: ecc0 1cbe 698b c23d 8422 32bd 8c56 b83d
00000010: e61f 63bc 2890 17bd 94f0 313d 42c4 403d
00000020: 9163 913c 1653 86bd ab9a 1bbe 161b 913d
00000030: c5ee dfbd a8bc 763e 9081 32bd 084e 153d
00000040: a19e 70be 0c1e b73d 1cf1 c1bd 7b3d 6c3c
00000050: 64d1 f0bd 736a f2bd 92c7 4dbd 2aff 0e3e
00000060: fa6f 50bb 5cf1 7f3d 3e44 803b 9dc7 7abd
00000070: 10a6 5c3e 17dc 953b 675b acbd c653 3a3a
00000080: 878e ddbd 64a3 2fbd 9594 4fbd cd5b afbc
00000090: 6ea4 a4be 7619 3cbe 4c51 ae3c 4521 fcbd
000000a0: f232 303e 928c 44be 6b9c f6bd 0321 843d
000000b0: fe94 253d c8c1 30bc beb6 5b3d e0b0 253e
000000c0: ed13 82be 14f1 d43d 2327 883d b518 77bd
000000d0: f46d 92bc dec9 1f3e 40d0 573e ecb9 c53b
000000e0: 20d0 ba3d dba2 1ebe 5953 1fbe 7e12 06be
000000f0: fe5a b1bc f54e fbbd 88df 953c 59d6 0cbe
00000100: 630d cb3d 4015 3f3c 7d63 8c3d 7b55 d03c
00000110: bc32 ce3d 32ad 25bd 52de 4b3e 2c2d 7cbd
00000120: 8930 be3d e94d 8b3d 43ee 323e 54eb d43d
00000130: 3a31 97bd dab8 27bc 1e12 d2bb 7f6d 09bd
00000140: 68de b3ba 817d fa3d 8925 b7bc 1cd1 c3bc
00000150: cc29 7a3e d56a febd c932 073d f5ab 03bd
00000160: 29b3 d5bd f780 e63c c3ae 37be e953 6c3e
00000170: 3e09 bfbb a54d b13d 4624 be3c 366a 0d3e
00000180: 5f1a 933d 3b0f c73c 30ea f2bd 96f8 65bd
00000190: 4378 303e 5bd6 69bb 01b4 da3b 7286 01be
000001a0: aa7f c53c 9838 c43c 5985 edbd b4a7 823d
000001b0: 687a 35bb 4ad7 8dbd 4402 cabd 06a9 063e
000001c0: 9aea 24bd 6d18 8a3e b6b6 d4bd bdaf abbc
000001d0: b083 67bd 13cf 92bd c765 c23d 4249 db3c
000001e0: 8579 d93d 1233 86bd 7387 a139 5ec8 3cbe
000001f0: 6e27 23be 27ad c03d 8a41 133d 91c8 3abe
00000200: 7a4e 1b3e 95d1 c13d 3899 26be d583 563e
00000210: 83e6 343d faa6 2fbe 0bd0 a43d 5b0a 36bd
00000220: 9da6 e23d 2fa7 5ebe 6801 163c 48e2 b1b9
00000230: dba2 a93c bbe3 c33d c031 29bd d611 053d
00000240: efcd 483e 533b 09bc 3373 3fbe 752f 1c3d
00000250: e64b 263d 7ff2 253e 947b 843d b0bc 2b3c
00000260: 750b d93d 4ad0 0bbd 0b3d 493d 2ee3 c5bc
00000270: 69ef 2fbd b51b 98bd 50ad f93d 0a83 a03d
00000280: 9d01 803d 0039 a5bd d8c1 85bc 2b3a 25bd
00000290: e13f bb3d d7ec dbbd a56a 25be 61cf 01bd
000002a0: c86c fabd 5b39 3cbe ee66 9abd 7ed0 c5bc
000002b0: 0e90 573e 23cb 94bd 4e9f bcbd 3812 22bd
000002c0: 65fb b5bd 9757 1abe 1edd 243b 1158 a5bb
000002d0: b7f1 12bd 1978 1ebd 25b7 3fbc 0cdf 1e3e
000002e0: 52b2 0c3d 5e5e 703d c0c5 023b a6c8 bfbd
000002f0: bdbf 9ebc 3cea e2bc 4437 fb3b 7eda c63d
00000300: 386f c8bc ce1d 2dbd 7dbe b13c 7502 e7bd
00000310: ed28 00bc 1f90 ebbd 2856 4dbe e409 c33c
00000320: 0d6e 23bd 4833 a43c 4e81 64bd 40bf fdbd
00000330: cc38 b1ba f880 8fbd 8925 38bd 6b63 88bd
00000340: 02a7 993d d244 1ebe b628 423d 1639 163e
00000350: 37f3 0dbe d014 b4bc 7f9b a33b 839f 3b3d
00000360: 9506 23bd 34a7 0abe 17ce 61be 2680 3dbd
00000370: 0cdc 513e 8236 d4bb e60c a13c 06f5 a7bd
00000380: 2382 c23c 5397 51bd 01fb 943d 9d09 0e3d
00000390: a3e3 e2bc 7352 793d 70a9 a2bd 0e8a 90bd
000003a0: 2b50 9a3d 2032 c7bd 5bb6 4dbe 2ba1 4c3e
000003b0: b30a 4c3d d15f ac3d 2d8f 853d 71df 7f3e
000003c0: 66d7 b83d ca50 0d3d bd37 adbd 64dd 0ebe
000003d0: abe8 943d d13e 80bd 1855 89bd aa0e 8ebb
000003e0: 55a0 653d 8241 4dbe 38d2 073d 3405 9b3d
000003f0: 518f 39bd ec27 89bd 2518 0dbe a5da be3d
-0.15307969 0.094992466 -0.043489948 0.090008825 -0.013862586 -0.037002712 0.043442324 0.047062166
0.017747672 -0.06558816 -0.1519572 0.07085244 -0.109342135 0.24095404 -0.04358059 0.03645137
-0.23498012 0.08941278 -0.09469816 0.014418955 -0.11758688 -0.1183671 -0.050239153 0.13964525
-0.0031805024 0.062486038 0.003914385 -0.061225522 0.21547723 0.004573356 -0.08415871 0.000710782
-0.108182006 -0.04288043 -0.05067881 -0.021406079 -0.321567 -0.18369088 0.021279 -0.12311033
0.17206934 -0.19194248 -0.12041553 0.06451609 0.040425293 -0.010788389 0.053641073 0.16180754
-0.25405827 0.103975445 0.0664809 -0.060326297 -0.017874695 0.1560435 0.21075535 0.0060341265
0.09121728 -0.15491812 -0.15559138 -0.13092992 -0.021649834 -0.12270919 0.018295065 -0.13753642
0.09914663 0.011662781 0.068549134 0.025431385 0.100682706 -0.040448375 0.19909027 -0.061566517
0.09286601 0.068019696 0.17473702 0.10396448 -0.07382436 -0.010236943 -0.006410851 -0.03355169
-0.0013722898 0.12230969 -0.022356765 -0.023903422 0.24430007 -0.1242272 0.033007417 -0.032146413
-0.10434563 0.028137667 -0.1793776 0.23078884 -0.005829959 0.08657388 0.023210656 0.13810048
0.07182764 0.024299255 -0.11861074 -0.056145273 0.17233376 -0.0035680744 0.00667429 -0.12648943
0.024108727 0.023952767 -0.115977 0.06379643 -0.0027691368 -0.06925829 -0.098637134 0.13150415
-0.040262796 0.2697176 -0.10386412 -0.020957822 -0.05652207 -0.071684025 0.09492069 0.02676833
0.10618881 -0.0655271 0.0003080923 -0.18435809 -0.1593301 0.09408026 0.035951175 -0.18240573
0.15166655 0.09463803 -0.16269386 0.20948727 0.044165146 -0.1715354 0.080474935 -0.04444347
0.11066935 -0.21743463 0.009155609 -0.00033928663 0.020707538 0.095649205 -0.04130721 0.032487713
0.19609807 -0.00837596 -0.18696289 0.038131196 0.040599726 0.16205786 0.06468883 0.010481998
0.105978884 -0.034134187 0.04913048 -0.02415618 -0.04295293 -0.0742716 0.1219126 0.07837494
0.06250308 -0.080675125 -0.016327783 -0.040338676 0.09143043 -0.10738533 -0.16153963 -0.031691913
-0.122277796 -0.18381254 -0.075391635 -0.024147268 0.21051046 -0.07265308 -0.092100725 -0.039568156
-0.0888584 -0.15072475 0.002515621 -0.0050458987 -0.03587505 -0.038688753 -0.01170138 0.15514773
0.034349747 0.058683746 0.0019954294 -0.093644425 -0.019378537 -0.027699582 0.0076665003 0.09709643
-0.024467096 -0.042264752 0.021697277 -0.112797655 -0.0078222575 -0.11502098 -0.20052397 0.023808427
-0.039899874 0.020043984 -0.055787377 -0.12389994 -0.0013520955 -0.07007021 -0.04495767 -0.066595875
0.07502557 -0.1545594 0.047402106 0.14670214 -0.1386231 -0.02198258 0.004992902 0.04580642
-0.0398012 -0.13540345 -0.22051273 -0.04626479 0.20494097 -0.0064762244 0.01965947 -0.082010314
0.023743695 -0.051169705 0.07274438 0.034677137 -0.027696436 0.060869645 -0.07942474 -0.07057582
0.07534822 -0.097263575 -0.20089094 0.19983356 0.04981489 0.08416713 0.06521449 0.2498758
0.09025459 0.034500875 -0.08457897 -0.13951641 0.072709404 -0.06261981 -0.067056835 -0.004335244
0.056061108 -0.2004452 0.033159465 0.07569352 -0.045302693 -0.066970676 -0.13778742 0.09319047

linear_layer.3.bias f4 [100]
00000000: 37f9 153d 28ce 773c 7a3a 18bd ee45 5cbd
00000010: 0dcd 6ebc e2dd 0fbd 7c7f 673d e75f 0f3d
00000020: c796 1f3d 38e6 c4ba c69a 78bd 1f49 eabc
00000030: fe0e ee3c bc67 043b 532f 9e3b e7f3 f6bb
00000040: f5e9 21bc db18 aebb c3ba 82bb 11c6 0e3d
00000050: 6d9a 7ebd 90fe 323d f435 fe3c b415 043d
00000060: 0e92 06bb 4453 253b 28fd 103d 6f81 0e3d
00000070: 441e c73c 6ebc 343d 0421 95bc 3299 a7ba
00000080: 332e 073d 04e9 003d e254 573c 7d1a 92bc
00000090: 4a18 ac3c 9e7f af3b 7420 ddbc b242 c03a
000000a0: b070 bbbc b041 393c 1c9a 0cbd 375d 75bc
000000b0: cc28 c63c 57dc 083d 2b00 513d 8ae8 b6bd
000000c0: efe0 403d 972f 9abc c7ca fb3c 48d2 b9bc
000000d0: 6830 11bc dd0e 61bc fbe2 89bc 7e4f 65bc
000000e0: dde8 e3bc 83e4 14bd a9ca 9c3c 1292 1d3d
000000f0: 8e2e 603a b77a b03b 714d 0bbb 4250 813c
00000100: ee1d 16bc 5d86 9f3b db53 623d d963 acbc
00000110: 676b 0c3c d513 07bc cd80 073d dc5c 643c
00000120: c2d0 d6bb ac4c 27bc 406e f1bc c848 93bc
00000130: 7fd8 93b9 ba68 83bc 9fa2 313c 12c5 efbc
00000140: be57 843b 5355 473c fdeb d5bb c5b7 7fb9
00000150: f6da 38bd 7a56 843c 6967 ae3c 5ac5 b83c
00000160: 8f9b 4ebc c141 e5bb 2f84 553c e17a 9f3c
00000170: 44ea 1c3d 3800 9cbc 67b6 703b ac60 203c
00000180: 3202 5d3c 7ae5 793c fd5c 1abd bc77 e4bc
0.036614623 0.015124835 -0.037165143 -0.053777628 -0.014575255 -0.035123713 0.056518063 0.03500357
0.03896215 -0.0015022224 -0.06069448 -0.02859932 0.029059883 0.0020203432 0.004827419 -0.0075363996
-0.00988244 -0.0053130216 -0.003989549 0.03485686 -0.06215899 0.0436998 0.031031586 0.03224726
-0.0020533833 0.0025226632 0.03539768 0.034791406 0.024306424 0.044125013 -0.01820422 -0.0012786745
0.033003043 0.03147222 0.013142796 -0.017834896 0.021007676 0.0053557893 -0.026993014 0.0014668314
-0.022880882 0.011307165 -0.034326658 -0.014975837 0.024189375 0.033413257 0.05102555 -0.08931072
0.047089513 -0.01882152 0.03073634 -0.022683278 -0.008861639 -0.013736454 -0.016831866 -0.013996003
-0.027820999 -0.03635074 0.019139605 0.03846938 0.0008551859 0.0053857225 -0.0021255875 0.01578534
-0.009162409 0.0048683123 0.055255752 -0.021043705 0.008570529 -0.008244474 0.03308182 0.013938155
-0.0065556476 -0.010211151 -0.029471517 -0.01797904 -0.00028199327 -0.016041148 0.010841995 -0.029268775
0.00403878 0.012166339 -0.006528376 -0.00024387155 -0.045130692 0.016154516 0.021289544 0.022555042
-0.01261033 -0.006996364 0.013032003 0.019467773 0.03830935 -0.019043073 0.0036729814 0.009788673
0.013489293 0.015252465 -0.037686337 -0.027889125

linear_layer.4.weight f4 [100, 100]
00000000: 0083 d8bc 2d4b 313d b729 933d 613e a73d
00000010: 1ee1 7c3d 2f7e 9cbb 10f4 4fbd 6b7f 0f3e
00000020: b506 9e3d 591f 253d 6d51 09be a019 a33d
00000030: cfb5 9f3d fc85 103e 9671 dc3d 59bf 433e
00000040: 28b1 2e3e 8541 9e3e a8ee 7abb e53f d13c
00000050: 5f21 85ba ae9f 4a3d 785f 39bc 6e67 063e
00000060: 35bf 163e fb81 9cbd 8f27 873d 2d46 d4bd
00000070: b109 183e b412 8abd 8329 243e 9bf0 97bd
00000080: 9ce9 37be d59a 1b3d 94c5 193c e2fd 52bb
00000090: ff7c 32be 9f1f 413d 14e2 173e 9644 2a3d
000000a0: f51e 5cbe c9a3 84be 3693 99be 4b98 8f3d
000000b0: a87c 3ebd 126b 65be 1e5d 263e 1b9f 83bd
000000c0: ef09 8c3d bae6 8f3c 20e7 52bd aabe e0bd
000000d0: c526 99bd f114 753b 37c0 0fbd e1c5 813d
000000e0: 308a 6b3d 096c 873d ac00 a63d 10c0 4a3d
000000f0: 6af0 d53d 2ba1 37bc 9880 3c3b 2f63 dd3c
00000100: 1d42 cd3d dad7 c93c ed03 35ba 6bf5 21bd
00000110: 7844 68be a3d9 1c3e 5ca6 6c3d 9d59 da3d
00000120: 9c7f dbbd 99d4 463e 05d2 9e3c e517 35be
00000130: 2131 ca3d aff7 883d 2a12 e1bc 0aca 0a3d
00000140: 39ca 893d 82a8 903d 4986 443d d201 203c
00000150: 990b 1ebd 1b9d 513c d718 063e 0df8 fabc
00000160: 41ab 3cbd 94d2 8fbd 08e3 bbbc f332 003e
00000170: db45 5bbe 8861 cb3d 3365 e1bd d416 87bd
00000180: b4ce ca3c 6542 85bc 288a 7fbd 143b cfbc
00000190: d945 9abd 38a0 a6bc 32e0 edbd 7be1 5cbc
000001a0: 766d 9bbc 0009 87bd 1d73 39be 61ad ffbc
000001b0: 6745 9dbc 5ba4 65bd ce9b 7dbc 434b abbc
000001c0: df31 093e c254 d03d fea5 7a3e a134 87bd
000001d0: f1bd 0abe 9204 acbd d2b0 e2bc 6fb4 6e3d
000001e0: f18d 99bd 1c2d c93d cb8c b93d 069a 5ebd
000001f0: 4ffe 173d 4131 a0bd a3c8 ad3d 2ee8 023e
00000200: f026 353e 03d7 a13d b377 8cbd 1d0a 903d
00000210: 2aeb 683d e756 a73c ad4f cb3b 825c 70be
00000220: 6515 04be a8a3 9ebd b2d1 d23d 01a2 7f3d
00000230: 29ac 273d a22b 573d ea8d 9b3d d980 323e
00000240: 0446 493d cad1 973c ddc0 6a3e 6a2d 9e3d
00000250: ce5c 2dbd 29f9 1fbe 697c 12bd 37f9 843d
00000260: aef8 1bbd df64 52bd c089 6abd ab0d a3bd
00000270: 82f1 21bd 820a bf3d ad9a 5abd 3244 6e3a
00000280: 4ad3 1cbd ccdf b23d 64a1 3b3c f568 5abe
00000290: 21b9 e6bb ba18 3b3e 0ce4 133e eaaf 3a3e
000002a0: 7e85 0dbe 646f cfbd 9f47 d2bd 9fab 05be
000002b0: 0177 883a 6b75 44be 302b 5abc cae6 e43d
000002c0: 1a89 873d 315e 49be ccb6 3ebe 88ae cd3d
000002d0: 02ee 003e a53a 22be 5407 963d 0ad1 acbd
000002e0: 2d5b 833d e205 f03c 4357 15be a2d7 78bd
000002f0: 3b5e 06be 77ca 18be e567 b73d 66db a3bd
00000300: 3833 0fbe 7a3f ef3c 57c7 c93c eaf0 783d
00000310: 5a4f 02bd 94a3 c7bd 3b83 ec3d 7f91 493d
00000320: 6823 373d 96e5 a23b df34 e3bd e1dc 173e
00000330: c8de 23be 3391 aebd afcd 3a3d 58a1 f73d
00000340: 2360 3bbe 07de e53c 38ea 173c 2c6b a93c
00000350: a4fe 84bd c78e 02be 4eee 383d f7eb f33d
00000360: c5a0 04be 9a1b 37be 7dc9 df3b 1a2e 5a3d
00000370: f5c5 9ebd 8dcc 80bc ee51 193e 6422 463c
00000380: a8ce 373d 80a3 7abb 4201 99bd 9fa2 77bc
00000390: f5c2 3a3e a311 4abd 3cf8 65be c33b 553c
000003a0: b1e6 f83c 9cc3 d23d fd57 d8bd 56fa 313d
000003b0: 4ca7 6dbb 14f1 173e b95e bebd da5a bcbb
000003c0: 034c 77bd d686 993c 7839 c33d 3a6f 57be
000003d0: 2c73 4cbe 8a8d 073c 8fbb 1e3e 04ec 653e
000003e0: 7889 f43c ebca 683d 60ed 8a3e f854 b33c
000003f0: ba7e 90bb 60b9 493d f096 333e 4f96 0d3e
-0.026429653 0.043284584 0.07185691 0.08166195 0.061738126 -0.0047757844 -0.050769866 0.1401345
0.07716123 0.0403131 -0.13409968 0.07963872 0.07798349 0.14113611 0.10763852 0.19115962
0.17059767 0.30909362 -0.0038289223 0.025543163 -0.001015704 0.04946869 -0.011314265 0.13125393
0.14721377 -0.07641979 0.06599342 -0.103649475 0.14847447 -0.067418486 0.1603146 -0.07418939
-0.17960209 0.037989456 0.009385485 -0.0032194783 -0.17430495 0.047149297 0.14832336 0.041569315
-0.21496184 -0.25906208 -0.29995126 0.070114695 -0.0465056 -0.22404125 0.16246459 -0.06426831
0.06837832 0.017566074 -0.05148995 -0.10973866 -0.07478098 0.0037396515 -0.03509542 0.063365705
0.057504833 0.06612403 0.08105597 0.04949957 0.10446246 -0.011207859 0.0028763171 0.027024833
0.10022376 0.024639059 -0.0006905187 -0.03954069 -0.22682369 0.15317397 0.05777584 0.106616236
-0.10717699 0.19417037 0.019387254 -0.17684896 0.09872652 0.06687867 -0.027474482 0.033884086
0.06728024 0.0706339 0.047979627 0.009766059 -0.03858528 0.0127938045 0.13095413 -0.030635858
-0.046061758 -0.070225865 -0.022935405 0.12519436 -0.21413366 0.09930712 -0.1100563 -0.06596151
0.024756767 -0.016267011 -0.062387615 -0.025296725 -0.07532854 -0.02034007 -0.116150275 -0.013481493
-0.018973093 -0.065935135 -0.18110318 -0.031210603 -0.019198133 -0.056064945 -0.015479041 -0.020909911
0.1339793 0.10172416 0.24477383 -0.06601835 -0.1354902 -0.08399309 -0.027672205 0.058277544
-0.07497776 0.09823057 0.09060057 -0.054346107 0.037107762 -0.078218944 0.08485534 0.12783882
0.17690635 0.07902338 -0.06858768 0.07033179 0.056864895 0.02042718 0.0062045665 -0.23472789
-0.12898786 -0.07746059 0.102939025 0.06241036 0.04093567 0.052531846 0.07595427 0.17431964
0.049139038 0.018532652 0.22925134 0.07723506 -0.042324834 -0.15622391 -0.035763178 0.064928465
-0.038078956 -0.05136573 -0.057260275 -0.07961591 -0.03953696 0.09328176 -0.053370167 0.00090891414
-0.03828744 0.08734092 0.011452053 -0.213291 -0.007041112 0.18271151 0.14442462 0.18231168
-0.13820454 -0.10128668 -0.10267567 -0.1305375 0.0010411442 -0.19185416 -0.013315961 0.11176832
0.06617947 -0.19664837 -0.18624419 0.10043055 0.12590793 -0.15842684 0.073256165 -0.084383085
0.06413875 0.02929968 -0.14584069 -0.06075252 -0.13121884 -0.14920984 0.08955363 -0.08000831
-0.13984382 0.029205073 0.024631185 0.06077663 -0.031813957 -0.09747997 0.11548468 0.04921102
0.0447115 0.0049712164 -0.11094069 0.14830352 -0.16002953 -0.08523788 0.04560631 0.12091321
-0.18298392 0.028059972 0.009272151 0.020680986 -0.06493881 -0.12749778 0.04514914 0.11910241
-0.12951954 -0.17881623 0.006829439 0.053266622 -0.07752601 -0.015722537 0.1497266 0.01209316
0.044874817 -0.0038244426 -0.07470943 -0.0151144555 0.18238433 -0.049333226 -0.22457975 0.013014737
0.03038344 0.10291216 -0.105636574 0.04345163 -0.0036263047 0.14838058 -0.09295411 -0.005748135
-0.060375225 0.018741053 0.09532446 -0.21038523 -0.1996581 0.008273492 0.15501235 0.22453314
0.029850706 0.056834143 0.27134228 0.021891102 -0.0044096382 0.049249053 0.17538047 0.1382687

linear_layer.4.bias f4 [100]
00000000: 2444 6abb 998b 9bbc d183 943c 76ac a8bc
00000010: 43b7 ebbd 9f44 663c 9488 c3bc be90 beb9
00000020: f247 8c3c ef3a 6f3c ae36 993c b6a1 54bd
00000030: 7ecb 1fbc 2b90 a53c c4a1 5dbc 8535 133b
00000040: fd05 d03c d5fe dabb 9a5b 0abd fa20 c93c
00000050: d194 843d 84ea 9cbc 4458 ee3b ee84 953c
00000060: 07f1 8a3c e06c 453c 4bc1 43bc 683e 05bc
00000070: d2aa 14bd 23ae e1bc 5b6a 0e3d 8c62 243c
00000080: d173 26bc 8855 97bc e9e3 f7bb af28 29bd
00000090: 2a88 cc3c ee2c c23d 2db5 983c b90b a6bc
000000a0: f1db 98bb d71e 2bbb e12d c4bb 8788 48bc
000000b0: 10ef 8ebc 4b15 6dba da89 c4bc 0884 c9bb
000000c0: fafd 8cbc 9543 30bc 2d00 13bb 3a10 ccbc
000000d0: b76d 693c f51d 983b f127 91bc ec6c 78bc
000000e0: 8a42 c1bb deee d2bc fc36 77bc 1387 1b3b
000000f0: fa6f 11bc a56b 0f3d 5350 87b8 e622 81bc
00000100: cf21 b9bb c5b2 87bb 5c2f b13c fa9f 85bc
00000110: d6c8 883c 4c40 c0bc e379 04bd fc9d 1d3a
00000120: e169 e1bb 4b4a 01bd 5867 b03c 5357 f1bc
00000130: 8790 97bc 2b0c 9f3c 8730 443d af71 f83c
00000140: 84b3 e53c 78e6 a3bc f4ad 363d 6546 963c
00000150: a59b 5ebd c2e2 66bd dc9a 353c ff49 f1bc
00000160: 89f1 b6bb 6040 2a3b e6ad 803c 0cfe deba
00000170: f366 5dbc 325e 2b3c dee8 5c3c 00a8 b7bb
00000180: 0349 83bc 429b 54bc 77a8 04bd aea7 02bc
-0.0035746181 -0.018987464 0.018129261 -0.020590048 -0.11509564 0.0140544465 -0.023868836 -0.00036347465
0.01712415 0.014601453 0.018702831 -0.051912032 -0.009753106 0.020210346 -0.013527337 0.002246232
0.02539348 -0.0066832104 -0.033778764 0.024551857 0.06473697 -0.019154795 0.0072737057 0.018251862
0.016960634 0.012049884 -0.01194794 -0.008132555 -0.03629572 -0.027548855 0.034769397 0.010033261
-0.010159449 -0.018473402 -0.007565011 -0.041298565 0.024967272 0.09481226 0.018641079 -0.020269262
-0.004664891 -0.0026110911 -0.0059869145 -0.012239582 -0.017447978 -0.00090440054 -0.023991514 -0.0061497726
-0.01721095 -0.0107583 -0.0022430525 -0.024910081 0.014247349 0.004642243 -0.01771924 -0.015162688
-0.0058978247 -0.025748666 -0.015088793 0.0023731634 -0.008876795 0.035014767 -6.452263e-05 -0.015763711
-0.0056497823 -0.004141184 0.021629028 -0.016311634 0.016697329 -0.02346816 -0.032342803 0.0006012616
-0.006879077 -0.031564992 0.021533653 -0.029460585 -0.018501533 0.019414982 0.04789784 0.030327646
0.028039701 -0.020007357 0.04459949 0.018344114 -0.054347653 -0.056368597 0.011084285 -0.02945423
-0.0055829925 0.0025978312 0.015707921 -0.0017012968 -0.013513315 0.01045947 0.013483254 -0.005604744
-0.016026026 -0.0129764695 -0.032387223 -0.007974548

linear_layer.5.weight f4 [100, 100]
00000000: 1743 763d 83d6 513d 0950 8e3c 3860 ae3c
00000010: 43a8 2cbd aaea 58be e67c 06be d310 58bd
00000020: 77d6 83bd b79f 903d 1f85 ed3c ffed 0cbd
00000030: 491e f3bd d537 a4bd 9cc7 a73c 2ee8 9b3d
00000040: 8b7e 17bd d613 96bd 7565 8d3d 84e4 babc
00000050: 2caa 3cbe 7310 e03d d741 e83c 5cbb 043d
00000060: ed2a 10be cd53 c33d 3a5b 0cbd c902 eabb
00000070: a8e9 213b 557d 2ebe 9f28 8e3d ce89 153d
00000080: c236 c13d 8f90 a5bc 869a 2e3e 32a0 f93c
00000090: 6aed b33d 1bd6 85be b61a 8d3d a306 583e
000000a0: 826c 1cbe 20fd 08be 1d0d acba 6e4c b33d
000000b0: c102 94bd 9d7f c93d 86c0 a23d 0030 173e
000000c0: ecdd 74be 0e98 57bd cdc2 29be bbec e1bb
000000d0: ad33 c1bc 6cfc c43d d40b 4f3c 8f3c 4f3c
000000e0: 2eeb ea3d 1199 dbbd e728 4e3d e55d 0d3e
000000f0: ba49 533c 6643 3d3d b4e5 ccbd 9c2d 433e
00000100: 5f25 b6bd 5104 24be b136 8dbd a94a b63d
00000110: 59be 82bd 51c6 ffbd 50f2 11be ba92 003e
00000120: 83f3 023d f448 aa3d 47cc 71bc 3fd9 dabd
00000130: 2882 e4bc 0450 e4bc a74d 8b3d 28f7 063e
00000140: da68 74bd 075e 793d 9953 19bd bfc3 84be
00000150: d8ac 693d ac80 4cbe fead 4f3e 01cb aa3d
00000160: de59 b8ba 12b9 f73c 2307 c6bc 779d 773e
00000170: 87fa 91bc 899b 89be 930e 8f3d 0e42 b33c
00000180: 74fc d33d 5da3 06be e6d1 1fbd 9806 283e
00000190: c3f4 bfbd d47a a93d d4e6 5abc e0d0 b03d
000001a0: 8983 87bd 4c40 803d 7b67 143e 6e9d 663d
000001b0: 70d7 12bd 14e6 32be e00b 54be f267 7f3d
000001c0: 7e12 babd 3a3b f9bb fe6c 02bd b4da c2bd
000001d0: 9362 633c 7225 283e 3dbc dc3d 688a 2abe
000001e0: 4654 33bd ff7b 30bd fdbd 5b3d 8061 0f3e
000001f0: 3f4a a93d dc95 b13d 1167 913d 3d4f 9a3c
00000200: a124 e03d f0f0 9b3d fa63 e73c c5b1 a43d
00000210: c9a7 2ebd b62e a63b 02b4 45be 5ff4 c23d
00000220: 7d35 b23d d26a 08be e44e e6bc 7f3d ce3d
00000230: 1e16 22bd b615 efbd a4ee 1d3e 02e4 b1bd
00000240: 3e64 003e f918 24bd bd24 293e c42b 0c3d
00000250: ef35 853d 9db7 1c3d c64a 8abc f848 6c3e
00000260: c276 95bd 9f66 663d f07b 94bd d7cd c73d
00000270: f4c0 f0bd 8dd4 293e 8c06 523e 675f 893d
00000280: d39c a0bc 4779 e2bd e7fc cd3b d36e d13d
00000290: e039 fe3d 92f0 0fbc e261 2c3e 65a5 b5bd
000002a0: c2b7 33be 7dc3 4a3d 897c f93d 037e c8bd
000002b0: 62e8 4dbc 9acf da3b 4cae 2e3c 7d33 df3d
000002c0: efa5 6bbd 8a0c b3bc a91f 093d 0984 42bd
000002d0: 739c f5bd 3074 cabb ca65 a9bd 7582 74bd
000002e0: d982 bebd 69c1 e93d 813c 88bd 8a2e 673d
000002f0: 3686 703d e6a0 1e3d f3a4 39be d5b2 d23d
00000300: 2fe0 603d 397d b1bd 73dc beba d455 01bc
00000310: 32eb b33c 8126 94bd d6ce 803d 4ba3 02be
00000320: ba22 aebd e7cf 003d 1d3a 38bd 679e 19be
00000330: fef6 4abd 5c1b e83d 3828 c0bd bafc 3dbe
00000340: 452a 913d 3ff2 333c 932d 0f3d 404a 02be
00000350: 1218 ea3b c3b3 173d b7f3 023e 7347 28be
00000360: 4edc 273e cbb3 d63a d10e a63c 0dfa 12bc
00000370: 5000 b33d 87d1 92bd 507b 32bd d820 f63d
00000380: 4b17 d53d ec23 b4bd a4e2 ddbd 5fd8 84bc
00000390: a520 0abc 733d 373e fcaa 373e 55f4 c0bc
000003a0: 16e4 73bd d2c2 f03d c145 f23d 4d5d 80bc
000003b0: cc50 0e3e 2799 2b3e 0c22 cb3d 17fd 1c3e
000003c0: 3244 b4bd 488e 9bbd 4768 08be 0516 af3d
000003d0: 0ca4 40bd ae54 b4bd 541d 0f3e 8056 f6bd
000003e0: d99f a7bd 1fff ec3d d033 ca3d c93f a8bd
000003f0: 2373 0ebe 2640 d43c d2c5 d7bc ecd4 b0bd
0.060122576 0.051229965 0.017372148 0.021286115 -0.042152654 -0.21183267 -0.13133582 -0.05275042
-0.0643739 0.07061713 0.028994141 -0.03440666 -0.11871011 -0.080184616 0.020480923 0.07612644
-0.036985915 -0.07328002 0.06904117 -0.022814043 -0.1842429 0.109406374 0.028351707 0.032405242
-0.14078875 0.09537468 -0.034266688 -0.0071414453 0.002470592 -0.17039998 0.069413416 0.036508374
0.09434272 -0.020210532 0.17051134 0.030471895 0.087855175 -0.26139912 0.0688986 0.21096282
-0.15275767 -0.1337781 -0.0013126467 0.08754812 -0.07227088 0.098387934 0.07946877 0.14764404
-0.23912781 -0.052635245 -0.16578217 -0.0068946755 -0.023584211 0.09618458 0.012637097 0.012648716
0.11470638 -0.107225545 0.050331976 0.13805349 0.012895996 0.046206854 -0.1000475 0.19060367
-0.08893847 -0.16017272 -0.06895197 0.08900959 -0.06383962 -0.12488998 -0.14252591 0.12555972
0.031970512 0.08314696 -0.014758176 -0.10685968 -0.027894095 -0.027870186 0.068019204 0.1318022
-0.059670307 0.060880687 -0.03743324 -0.25930592 0.057049602 -0.1997096 0.20281217 0.08339501
-0.0014064868 0.030239616 -0.024173325 0.24181162 -0.017819656 -0.26876476 0.06985202 0.021882083
0.10350886 -0.13148256 -0.039018534 0.16408765 -0.093728565 0.08275381 -0.013360698 0.0863359
-0.06616885 0.06262264 0.144926 0.05630248 -0.03584999 -0.1747058 -0.20707655 0.06235499
-0.09085558 -0.0076059373 -0.031842224 -0.095143706 0.013878482 0.16420534 0.10778091 -0.1665436
-0.04378154 -0.043087002 0.053647984 0.14002037 0.082661144 0.086711615 0.070997365 0.018836612
0.109444864 0.076143146 0.028245915 0.08041719 -0.04264048 0.0050714863 -0.19306949 0.09519266
0.08701608 -0.13321999 -0.02811379 0.10070323 -0.039571874 -0.11674063 0.15423065 -0.08686067
0.1253824 -0.04006288 0.16517921 0.034221426 0.06504428 0.038261045 -0.016881358 0.2307471
-0.07298042 0.05625021 -0.07250202 0.09756058 -0.11755553 0.16584988 0.2051031 0.0670765
-0.01960603 -0.11058288 0.006286252 0.10226216 0.124133825 -0.008785384 0.16834214 -0.08869437
-0.17550567 0.04950284 0.12181956 -0.0978966 -0.012567611 0.00667758 0.010661673 0.108984925
-0.057531293 -0.021856565 0.03347746 -0.0474892 -0.11992731 -0.0061784014 -0.08271368 -0.059694726
-0.09302301 0.11413843 -0.06652165 0.056440867 0.058721744 0.038727663 -0.1812933 0.10288016
0.054901298 -0.086664625 -0.0014561549 -0.007893998 0.021962736 -0.072339065 0.06289451 -0.12757604
-0.08502717 0.03144827 -0.044977296 -0.15001832 -0.049551956 0.113333434 -0.09382671 -0.18553439
0.070881404 0.010983049 0.034955572 -0.12723637 0.0071439827 0.03703667 0.12788282 -0.16433506
0.16392633 0.0016380487 0.020270737 -0.00897075 0.08740294 -0.071688704 -0.04357463 0.12017983
0.104048334 -0.08795914 -0.10834244 -0.016216455 -0.008430635 0.17894535 0.17936319 -0.023554007
-0.05954369 0.11755909 0.11829711 -0.01566949 0.13898009 0.16757642 0.09918603 0.15330921
-0.0880207 -0.07595497 -0.13321029 0.08549122 -0.047031447 -0.08805214 0.13976032 -0.12028217
-0.081847854 0.11572098 0.09873164 -0.08215291 -0.13911109 0.025909495 -0.026339445 -0.086343616
