ac_2d_model_para_1/checkpoint_300.pth (torch, 291130 bytes, 17 tensors)

linear_layer.0.weight f4 [100, 3]
00000000: 0046 123e 65de 213e 8c72 25be 9b10 3fbd
00000010: 7152 98bd 6a69 c83d f78a a63d bcfe 88bd
00000020: 2623 87be 92a8 903d 3d29 04bd 1421 533e
00000030: c264 e5bd 6d0f 0abe 8b83 9dbe f3af e2bc
00000040: 6c98 2cbe cc97 fdbd 5d11 89bd 56ea ff3d
00000050: 48d5 e5bd 08ee 85bc 0ec5 1bbd 0e78 94be
00000060: 067b e33e e147 593d bd1c 2a3d 60e9 e0bd
00000070: 116d 31be 0a03 57bd 47b9 813d 7140 59be
00000080: 2195 193e 3732 5fbd c5de 783d bafb 5ebe
00000090: 890e 363e 7a7c e5bb 562e a6bd 7181 293e
000000a0: c5e9 4dbc 1177 423e 8eb9 133e 4f16 1c3e
000000b0: 4235 4e3e 9c3a 16be 3fb9 1dbe b476 1f3d
000000c0: 6ee3 7f3e 24bf d63c 9028 93be ad34 25be
000000d0: 357a 0ebe e7a0 23be 9e13 13be 6428 b2bc
000000e0: 2589 b13d 5c5e d43d 5037 1a3e 7ee6 46be
000000f0: 8d01 ca3d c2f1 43be 96d6 833d 4b9c 8b3e
00000100: 2e90 9dbd 6aef a73d 5ddb 21be b3ff 17be
00000110: ac0f 3e3d 8fd5 b93d d929 d93c 6624 dabe
00000120: d18c 2e3e fb0b f63c 4ddf 9d3e e2f1 0a3e
00000130: 9abb a33d 45fa 9f3c 5309 7fbe 5319 58be
00000140: 1f7f bbbd 8aa0 fd3c f4e1 5b3e ce39 163d
00000150: 1565 2d3e 5f85 4ebe dc18 933d 9b42 573d
00000160: 778c 86bb 2dcc abbd f20d 33bd 537f 1abe
00000170: 94f0 fcbd c0fd 773e 6bd7 a03c 20be 903e
00000180: 1117 bd3d b91f 60be c432 0c3e 9663 5cbe
00000190: 3132 9c3c 8555 ffbd 5989 8f3d 5c8e 95bd
000001a0: b312 81be 73cb a13d 039a 0bbe 397e 4c3e
000001b0: b11a 96bd c73a 853e fbf1 16bd 701b 493e
000001c0: 2872 103e 576c 403d 80f5 d7bc 3b0c bdbd
000001d0: b44e c1be e006 abbd 3b74 d3bc 9179 fdbd
000001e0: c92a e53d 260b b13d 1ef0 e6bd d92a 69bd
000001f0: 4977 fcbb 89cb c63d 823c 18be e59e 213e
00000200: 7eec a9bd 99cd af3d 472a 80bd ecd1 3a3e
00000210: d9ac fdbd dcf6 1c3e ef58 033e 5ff9 6cbd
00000220: 6ceb d2bd 9cd3 0c3e 6329 a5be 88b6 203e
00000230: 9fc2 8fbe f9ea 543e 1579 733b bb8d 2dbe
00000240: 2f0e 943d a0a9 a83d d25e 933d 8709 863e
00000250: 14a9 bbbd 8de9 d9bd f0c4 0a3e 3b40 e23d
00000260: 8deb d0bd 20af ef3d 6d6b 56bd a849 d7bd
00000270: 9647 bfbd e577 5f3e 48d4 753d f237 763c
00000280: 06ce 6c3d 49fd 693e e079 a53d bacf 9e3d
00000290: a442 d33b 69b8 7d3e 6a0f 94bd 45b0 063e
000002a0: 01ca cd3e 9b36 683c 9aa1 b4bc e54d 743e
000002b0: dcfa f0bd 23c3 84be 9a0e 6e3e dd39 673c
000002c0: 44f5 f3bd 450c afbd 8459 25be 992f 4c3e
000002d0: 646d 95bd 2979 e23d 71ed 3ebb ea2b 223c
000002e0: 4bda 3e3e e43f 813c 9cc6 533e fd0f 15be
000002f0: 9c6b f4bd 0342 0b3c ef98 e23d cc3b 2dbe
00000300: b966 9c3e 7356 17be 8fb8 c63d 9781 a53c
00000310: f9a9 be3d da5e 9d3e 1699 e63d 93a8 8bbc
00000320: d33a a3be 91e1 4ebe 4b48 d2bc 172c fc3d
00000330: a930 523e 960e e9bd 3317 7abc 199b 6abd
00000340: c491 b43d ab12 633d 4bda 28be 0f5a 523c
00000350: b9da 6cbd bb64 d13d c6c5 183e b968 953d
00000360: a972 6cbd 374c 823e 985e cebd 25fc 7e3d
00000370: dd16 163e 289e 32be 7a3a 993e 150f ff3c
00000380: f773 29bd c86f 15bd 243e 8f3e e8f0 143e
00000390: 7370 09be c9e0 b8be 2249 4d3e bff0 91be
000003a0: 168e c6bd e96a 11be 1266 e7b9 70bc 583e
000003b0: 7180 d2bc d253 b83c a3c8 2cbe 4b8f 443d
000003c0: e395 f33d a81a 7dbd 3b91 a9b9 e066 d0bd
000003d0: 372a 41be cec1 b7bd df8a 2abe 6a5c 1d3e
000003e0: f530 203d ec12 0a3e 6835 dbbd f46c dc3e
000003f0: b99d 623e 830a 07bd 61ad 79be e0f2 223e
0.14284515 0.15807493 -0.16156977 -0.046646696 -0.074375995 0.09785731 0.08131974 -0.06689212
-0.26394004 0.07063402 -0.03226589 0.20618087 -0.11200859 -0.13482447 -0.30764422 -0.02767179
-0.1685502 -0.123824686 -0.06692765 0.12495868 -0.11222321 -0.016348854 -0.038029723 -0.28997844
0.44429797 0.053047065 0.041531313 -0.10982013 -0.17326762 -0.052493133 0.06334167 -0.21215989
0.14998294 -0.054491248 0.060759325 -0.21775714 0.17778982 -0.007003364 -0.08114307 0.16553284
-0.012567942 0.18990733 0.14426252 0.15242885 0.20137504 -0.14670795 -0.15402697 0.038931563
0.24989101 0.02621419 -0.28741884 -0.16133375 -0.13913806 -0.15979348 -0.14362952 -0.021747775
0.08668736 0.1036956 0.15060163 -0.19423863 0.09863577 -0.19135192 0.064374134 0.2726768
-0.07693516 0.081999615 -0.15806337 -0.14843635 0.046401665 0.09073936 0.026509212 -0.42605895
0.17045905 0.03003501 0.30834427 0.13568833 0.079947665 0.019528517 -0.249059 -0.2110341
-0.09155106 0.03096034 0.21472913 0.03667622 0.16933091 -0.20168065 0.07182476 0.052553754
-0.0041061 -0.08388553 -0.04371447 -0.15087633 -0.12350574 0.24217892 0.01963397 0.28270054
0.09232915 -0.21887101 0.1369124 -0.21522364 0.019066902 -0.124674834 0.07008619 -0.073025435
-0.2520958 0.07900133 -0.1363297 0.19970025 -0.0732931 0.26021406 -0.036851864 0.19639373
0.14106047 0.04697832 -0.02636218 -0.092308484 -0.37755358 -0.08350921 -0.025812259 -0.123767026
0.11189801 0.086447045 -0.112762675 -0.05692563 -0.0077046496 0.0970679 -0.14866832 0.1578327
-0.082970604 0.085841365 -0.06258064 0.18244141 -0.12386484 0.15328544 0.12826894 -0.057855006
-0.102988094 0.13752598 -0.32258138 0.1569463 -0.28078172 0.2079276 0.0037151028 -0.16948597
0.07229268 0.082354784 0.0719582 0.26179144 -0.091631085 -0.106402494 0.13551688 0.11047407
-0.10201178 0.11703324 -0.052348543 -0.10512096 -0.09339826 0.2182308 0.0600169 0.015027987
0.057813667 0.22850527 0.080798864 0.077544644 0.006447153 0.24777378 -0.072295025 0.13153179
0.4019318 0.014173175 -0.022049714 0.2385784 -0.11766598 -0.25930128 0.23247758 0.014112917
-0.11912015 -0.08547262 -0.16147429 0.19940032 -0.07296255 0.11058266 -0.0029133225 0.009898165
0.1863796 0.015777536 0.20681232 -0.1455688 -0.11934587 0.008499625 0.11064326 -0.16917342
0.3054712 -0.14779072 0.097031705 0.020203395 0.093097635 0.30736428 0.112596676 -0.017048156
-0.31880817 -0.20203234 -0.025669238 0.12313097 0.20526375 -0.11379735 -0.01526432 -0.05727682
0.08816865 0.055437725 -0.16489522 0.012838854 -0.057825778 0.10224291 0.14919195 0.07295365
-0.057726536 0.25448772 -0.10076636 0.062252183 0.14657159 -0.17443144 0.29927427 0.031135121
-0.04137036 -0.036483556 0.27977097 0.14545023 -0.13421802 -0.36108997 0.20047429 -0.28503987
-0.096950695 -0.14200939 -0.00044135802 0.21165633 -0.025696011 0.022500906 -0.16873412 0.047988217
0.11893823 -0.061793 -0.00032342397 -0.10175872 -0.1886376 -0.08972512 -0.16654538 0.15367284
0.03910919 0.1348378 -0.10703546 0.43051875 0.22130479 -0.03296901 -0.24382545 0.15912962

linear_layer.0.bias f4 [100]
00000000: d118 e2bb e81b 01bd 82c3 c63d 47df 42bc
00000010: 5c3b 8f3c a80e c3bc 0669 1c3d 9e36 7f3d
00000020: b15d c1bd cdfe fa3c 68df 023d f5a5 4cbd
00000030: 7196 463d 799c 813d 96f1 c03c e2ed 84bb
00000040: cea1 90bd ddef c83b 13a0 36bc 6153 2d3c
00000050: cb6a 2abd febd a2bc 0635 c2bc d9b9 e43c
00000060: 4dbf 913c 24fa 853d e904 373d 071b 05bc
00000070: 8361 de3c 26eb 2cbd 67f0 1fbd c396 28bd
00000080: ee39 503d 4bed 0abd f4d9 2abd 2a0a eb3c
00000090: f1d9 0cbc 1510 82bd 4bc3 ba3d 4342 463d
000000a0: bea1 2e3d 6a40 aebc ae16 613d a0e1 97bd
000000b0: 1b96 6d3c 3e86 41bd 17e3 16bd f145 a13a
000000c0: 3496 36bd 43b1 8dbd 03fa 8f3d dc71 023d
000000d0: 1537 373a d255 bfbd 1113 453d 8c4c 4d3d
000000e0: 9759 08bc c402 cb3a 2bd1 9fbb 33e2 ffbb
000000f0: feae 5dbd f37f fab9 0b11 75bc 7441 5d3d
00000100: 036c 6fbd fc26 403d 0c3a 98bd fe6d 33bc
00000110: 79a2 29bd 441f 773d 1050 203d c638 f5bc
00000120: ba9c 4bbd cf7b ba3d 082e ee3a 6950 e83c
00000130: 5219 b5bc 10be cd3c fa2d 86bd 6029 efbb
00000140: 3649 9a3d 0db9 3b3d 78e6 14bd d8a0 f6bb
00000150: 9d0d 3e3c 3d64 ac3b ace5 2d3d 7082 a73d
00000160: c849 91bd 54a2 5bbd d080 65bd 202a debd
00000170: 333f 2bbd 2fbd 9b3d db4e 82bc 4016 e93c
00000180: 417a 993d a7de fe3c 09d8 19bd b382 883c
-0.006899931 -0.031520754 0.09705259 -0.011894054 0.01748436 -0.0238107 0.038186096 0.062307946
-0.09441698 0.030639077 0.031951338 -0.049962956 0.048483316 0.06328673 0.023552697 -0.004056678
-0.07062112 0.0061321096 -0.011146563 0.010578961 -0.041605752 -0.019865986 -0.023706924 0.02792065
0.017791415 0.06541851 0.044682417 -0.00812412 0.027146107 -0.042216443 -0.039047625 -0.041159403
0.050836496 -0.033917706 -0.041711763 0.02869137 -0.008596883 -0.06350724 0.091192804 0.048403036
0.042634718 -0.02127095 0.05495327 -0.074160814 0.01450112 -0.047247164 -0.036837664 0.0012304169
-0.04457684 -0.069185756 0.07030108 0.031846866 0.0006989104 -0.09342541 0.048113886 0.05012183
-0.008322141 0.0015488495 -0.0048772297 -0.0078089475 -0.054121964 -0.00047779045 -0.014957677 0.0540175
-0.058452617 0.04691218 -0.074329466 -0.010951517 -0.04141471 0.06033255 0.039138854 -0.029934298
-0.049710013 0.09105646 0.0018171677 0.028358655 -0.0221068 0.025115043 -0.06551738 -0.0072986335
0.07533495 0.045830775 -0.036352605 -0.0075264983 0.011599925 0.005260973 0.04245536 0.08179176
-0.07094151 -0.053621605 -0.05603105 -0.108478785 -0.04180832 0.07604443 -0.015906742 0.028452992
0.07494021 0.031112028 -0.037559543 0.016663885

linear_layer.1.weight f4 [100, 100]
00000000: f69e 6d3d 8414 133e 3fc1 3ebd 8892 92bc
00000010: f6a5 5ebc 1b91 e73b 703e d73d 5d65 893d
00000020: f9b0 293e ee1b 12be 9ab8 a0bd c515 6335
00000030: 6b98 2cbe c5c4 3ebd d116 873d 3b5e 8b3d
00000040: fd18 62be a3c3 1abe 5b62 223e fc13 c23b
00000050: c3fa c5bd e8fe e13d 52e5 013d 6501 283e
00000060: 7eea 64bd cb36 473c d125 9fbd 5d2a 9ebc
00000070: 9d92 71be 2d40 d1bd cf6c 49bc f650 8b3c
00000080: 703a 26bd 1993 483e 4df6 aebd 8c67 78bd
00000090: 235e bdbd 66ae bdbc dea7 0e3e 073c 04be
000000a0: 2323 783d 9e15 923d e080 07be 737c 8ebd
000000b0: e9a4 9aba 540f 2cbd e2bf 483d 139d ae3d
000000c0: ac0a 21bc 6a33 f53d 89fb 5e3a 1cc7 89be
000000d0: 7d2d e43d 0fc2 983d 758a e6bc 94f0 52be
000000e0: 7e6f 95bd 3881 92bd 41d5 603e 6d04 2c3e
000000f0: 6d70 bc3b ac08 733d 6ef3 e8bb 1f3e 1bbe
00000100: d51b f2bc dab2 3e3e a7c1 d1bc c175 3a3c
00000110: 7704 ae3c deeb aabd ae79 b23c 2654 b93d
00000120: 7983 98bd 855e 543d 1c5c 49be 4a15 da3c
00000130: 67fa 26bd f110 023c c099 38be 3913 f6bd
00000140: 7aed 47bc 506f 69bb 6869 09bd 6ea5 c3bd
00000150: 5846 963d ae5d fe3d 1b19 80bc 458a 8abd
00000160: 0db9 bd3d fe5a cc3d 1f86 a6bc e3f6 e93d
00000170: d4d2 bcbd c2a4 5abd a7ae 2cbc 3eb3 c6bd
00000180: 2681 5fbd 0495 5ebc 4576 0abe 6df4 98bd
00000190: 3cea 193d 1ac8 753e 13df 33bd a0b9 873d
000001a0: 94ee 56bc ecbd 11be 6069 df3d 83cb 92be
000001b0: 73a3 42bd d956 60bd 8912 5abd 3a8c 243d
000001c0: ca16 ad3d 20b0 dd3d 9a44 003e a47f 05be
000001d0: 4437 19bd 6ea8 85be 97a1 b33c de8d 353e
000001e0: 3049 b0bd fde8 5dbc a2c7 543d 14d9 f83d
000001f0: 7bd0 303e 2fcd db3c 7202 9cbd c0ba cd3d
00000200: e6ce e0bd 358e 87bd c061 00bd e6e3 e9bd
00000210: ecac 3e3e 992b cebd 20c3 a2bd d2c4 333d
00000220: 32c9 2d3e 646c fe3b f0f3 bfbc 0058 bbbd
00000230: f7b6 3a3e a58b b8bd 057f cd3d 9305 05be
00000240: bfff 333e 95fc 54be affb 89be 7a98 8cbd
00000250: 80b8 ef3c 2d65 88bd e35b 47bd 6e40 14bd
00000260: 0749 883d 99a2 1ebe 1bf1 aebd b92b c13d
00000270: 8648 733c 276c 61bd 70e8 f7bd 3afb f4bc
00000280: 7ca0 003e a01d e0bd 9d71 ae3a 0e33 003d
00000290: 0d97 f3bd d920 f33d b500 d3bc e932 37be
000002a0: dc63 b2be 4748 353e 5a0a 0bbd a14a 803d
000002b0: f478 063d 0ef2 dc3d d816 d73d 3144 263e
000002c0: 7318 c33c de15 303c 947b 00be 52bb 943d
000002d0: 312b 4c3e 549b 42be 63c2 57bd 2c5a a93d
000002e0: 2f91 a43c 5521 d9bd 74c9 e93c eaff 293c
000002f0: 5879 253d 014e 05be 5e65 9a3d f1ca fbbd
00000300: 6ff0 6b3b e402 adbd d058 0d3e 767d 11be
00000310: 8833 0a3e f8f8 fd3d b8f4 cbbd 25db 4c3e
00000320: 3502 c1bd d5a5 85bd 35f3 e33d 4b27 1abd
00000330: 15f9 0cbe 080e 173d 6015 bcbc 8d5a 163e
00000340: ac2d 14be 4619 1ebd d461 9d3d dce1 a13c
00000350: bbe0 20bd 1995 633d f1d6 2d3d 5d5a 38bd
00000360: e675 99bb 0bfa e23d 3508 68be cc17 1bbe
00000370: 5265 863d a34b bd3d bded 8f3c 6e97 00be
00000380: 4f71 09be 5eba 13be e2ab ff3c 1ea6 b33d
00000390: 375a 2bbd 8d08 c93d eb81 0cbe 8302 84bc
000003a0: 9dc5 df3c 8497 97bd 60c6 4c3c c6c7 be3b
000003b0: 434b c3bd e4eb 8ebd c06f 8cbd a54c 7ebb
000003c0: 77a4 803e b91b 193e 24e1 88bc d68a 043e
000003d0: b25e f9bd 9adf 013e 7ffa c73d a0ff c5bd
000003e0: e12b 70bd 18a1 b1bd 19ef 933d 01d6 983c
000003f0: 9067 20bd 3198 81bd dc09 04be 0519 fbbb
0.058012925 0.14363295 -0.046571013 -0.017892137 -0.013589373 0.0070668585 0.10509956 0.06708787
0.16571416 -0.14268467 -0.0784771 8.459577e-07 -0.16855018 -0.046574373 0.06596149 0.068050824
-0.22079845 -0.15113692 0.15857832 0.0059227925 -0.096669696 0.11034948 0.031712838 0.16406782
-0.05588769 0.01215906 -0.07770885 -0.01930731 -0.23591085 -0.10217319 -0.012294008 0.017006379
-0.040583074 0.19587363 -0.08543072 -0.060645625 -0.09246471 -0.023154449 0.13931224 -0.12913524
0.060580384 0.071330294 -0.13232756 -0.069573306 -0.0011798415 -0.042006806 0.04901112 0.08526053
-0.0098292045 0.11972697 0.00085061096 -0.2690972 0.11141489 0.07458889 -0.028142193 -0.20599586
-0.07296656 -0.07153553 0.2195635 0.16798563 0.005750707 0.059334442 -0.007109097 -0.15160416
-0.029554287 0.18622914 -0.025605036 0.011380614 0.021242363 -0.08345769 0.021786537 0.09049253
-0.074469514 0.051847953 -0.19664043 0.02662148 -0.040766146 0.007938609 -0.18027401 -0.12015385
-0.012202615 -0.0035619326 -0.03354779 -0.095530376 0.07337636 0.12420212 -0.015636971 -0.06764654
0.09263811 0.09978293 -0.020327626 0.11424043 -0.092199 -0.05337978 -0.010539687 -0.097021565
-0.054566525 -0.013585333 -0.13521679 -0.074684955 0.0375769 0.24002114 -0.043913912 0.06627202
-0.013118405 -0.14232606 0.109087706 -0.28670892 -0.04751916 -0.054770324 -0.053240333 0.040172793
0.08451612 0.10824609 0.1252617 -0.13036972 -0.03740622 -0.26105064 0.021927638 0.177299
-0.086077094 -0.013544318 0.051948197 0.12150779 0.17267029 0.026831238 -0.07617654 0.10045385
-0.10976963 -0.06618921 -0.03134322 -0.11420421 0.18620652 -0.10066909 -0.079473734 0.043888874
0.16971281 0.007764386 -0.023431748 -0.09147644 0.18233858 -0.0901101 0.10033993 -0.12990408
0.17578028 -0.20799477 -0.26949832 -0.0686502 0.029262781 -0.06659923 -0.048671614 -0.036194257
0.06654554 -0.15491714 -0.08542081 0.094321676 0.014848834 -0.055034783 -0.12104881 -0.02990495
0.1256122 -0.109431505 0.0013309006 0.03129869 -0.11894045 0.118714996 -0.025757173 -0.17890514
-0.34841812 0.17703353 -0.03394542 0.06264234 0.032830194 0.10788356 0.10502404 0.1623695
0.02381537 0.010747401 -0.12547141 0.07262291 0.19938351 -0.19004565 -0.052675616 0.08269152
0.02008876 -0.10602061 0.028538443 0.010375956 0.040398926 -0.13018037 0.075388655 -0.122945674
0.0036001464 -0.08447817 0.1380341 -0.14208016 0.1349622 0.12401003 -0.09958786 0.20005472
-0.09424249 -0.065257706 0.111303724 -0.03763513 -0.13766892 0.036878616 -0.022959411 0.1468298
-0.14470547 -0.03859832 0.07684675 0.019761018 -0.03927682 0.055562112 0.042441312 -0.045008052
-0.004683244 0.11082848 -0.2265938 -0.15145797 0.06562294 0.09242942 0.017569417 -0.12557766
-0.1342213 -0.14426562 0.03120989 0.08771919 -0.041834082 0.09816084 -0.13721435 -0.016114479
0.027315909 -0.07401946 0.012498468 0.0058221547 -0.095358394 -0.06978586 -0.06857252 -0.0038803008
0.25125477 0.14951982 -0.016708918 0.12943587 -0.12176265 0.12682953 0.09764575 -0.09667897
-0.058635596 -0.08673304 0.07223339 0.018656733 -0.039161265 -0.06327856 -0.12894386 -0.0076628947

linear_layer.1.bias f4 [100]
00000000: a561 01bd 7cd2 823d a8a3 25bc eed0 a93d
00000010: b7ae 91bc 5e93 a3bc 00cb 49bd f286 af3d
00000020: 6945 6dbd c865 973b b94c 4dbd 226c eebc
00000030: b690 563d 524e a73d f05a 19bd 394f 63bc
00000040: a824 a0bb 44d1 833d 8a97 613c a1d1 2fbd
00000050: 7113 cbbc a67d e03c baec 29bc bddc 1b3d
00000060: 079b ff3c 87dc 5d3c 82a0 643d 0d56 1cbd
00000070: 2c5f 40bd e104 bdbc fa66 86bd b532 c43c
00000080: 33db 023c acb3 35bc 54dc 0fbd 3a89 c63c
00000090: 6152 6e3d da93 53bd 9723 bbbb dfb2 d7bc
000000a0: 679b 62bd 3188 48bd 84b4 ae3c a166 953d
000000b0: fab5 2cbd 914a 8e3b 23e2 bcba 71c8 3abd
000000c0: 95ca 38bb 4f1f 60bd fcd9 9fbc 2b81 f73c
000000d0: 0b2e ea3b 4c2d 13bd f347 043c 8b8b 223d
000000e0: 72f2 843d 85d5 2bbd 1794 d63b fd67 143d
000000f0: 545a 06bd a60d 8f3b b82d 3a3c 63e8 9d3d
00000100: adff 193c ba9b 203d 972a 27bd 8c8e f1ba
00000110: 3012 e5bc ac69 92bd 6ffb 4cbd 338a b03b
00000120: a5ac ffbc 7719 d0bc 7d28 1c3d f48a 193c
00000130: 69e2 563d 8954 10bd fe15 2c3d 5444 d8bc
00000140: 3890 bcbd f1bd 0fbc 120c d03b 361c 95bc
00000150: 2041 493d 9d70 073a 6f2d 773c 31d7 f63c
00000160: d18d 9a3d 90c6 e1bb 4134 2bbd 7b87 62bd
00000170: 84e4 923b 47ce 913c 2937 8b3c 39bb 453c
00000180: abcc 243d 3776 2ebc 32c2 25bc 1c2c 9e3c
-0.03158726 0.06387803 -0.0101098195 0.08291803 -0.017783506 -0.019967731 -0.04926586 0.08570661
-0.057927523 0.0046202876 -0.050121997 -0.029104296 0.0523841 0.08169235 -0.03744024 -0.013873869
-0.0048871823 0.064363986 0.01376904 -0.042924527 -0.024789544 0.027403664 -0.010371381 0.03805231
0.031201852 0.013541347 0.055817135 -0.038168002 -0.046965763 -0.023073616 -0.0656261 0.02394996
0.0079868315 -0.0110902 -0.03512223 0.024235357 0.05818403 -0.051654674 -0.0057110297 -0.02633041
-0.055323984 -0.048958007 0.021326311 0.072949655 -0.042165734 0.004342385 -0.0014410656 -0.045601312
-0.002819692 -0.05471736 -0.019513123 0.03021296 0.007146602 -0.03593187 0.008073795 0.03968386
0.06491555 -0.041951675 0.0065484154 0.036231983 -0.032800987 0.0043656407 0.011363439 0.0771034
0.009399337 0.039211012 -0.0408121 -0.0018429323 -0.027962774 -0.071490616 -0.050044473 0.0053875684
-0.031210253 -0.025402768 0.03812455 0.009371508 0.052462015 -0.03523687 0.04201316 -0.026399769
-0.09207195 -0.008773313 0.006349095 -0.018201929 0.049134374 0.0005166622 0.015086516 0.030131908
0.075465806 -0.0068901256 -0.04179788 -0.055304985 0.0044828076 0.017798556 0.016994076 0.012068563
0.04023425 -0.010648302 -0.010117101 0.019308142

linear_layer.2.weight f4 [100, 100]
00000000: 57a3 7dbd 377a cc3c a3af 883d 4ae5 32be
00000010: 537a a23d bf83 3bbd a8ad 463d a3a6 a1bd
00000020: f7c5 a43d d86c 27bd 24be 6bbd 0645 333d
00000030: ebdf 02bd 085d bebd 4d50 d73c 0fc9 10be
00000040: 3f83 2d3d 85aa 83bd af41 2fbd 5f87 023e
00000050: f4d9 bb3c 4af2 623d 1e4f 66bd 17bd 91bd
00000060: c3f6 0abe 5fa1 073b 0070 46be 5074 f2bc
00000070: f07c 23bc 7bd4 223b f35f 2e3d eec9 e43c
00000080: 6cf7 dbbb 377d cd3b 4e1b da3c cd59 d73b
00000090: 64fb 7cbc 84ee 733e 03ab af3c cf1a 8dbd
000000a0: 44de 063e 7edd 1e3e 2cd9 9e3d 2b2d 1e3d
000000b0: 973c e63d d22a 0cbd 552d 063e 6261 0a3d
000000c0: f99a 07be ea11 e23d c7d6 f7ba bcaf 803d
000000d0: 71c6 00be 231a 1d3d 7f02 eebd b481 35bd
000000e0: e6df a3be 9aca 123d 8e8c be3d a324 813c
000000f0: 5d6b dcbc de71 50bc e298 09bc 5840 ecbb
00000100: f945 723d 34cd f33d 75a2 253d 8f15 6abd
00000110: 68e2 893d 897c 9c3c d527 713e 60a4 823e
00000120: 4dea 5c3c fc64 f3bd 02d0 40be 9d76 183d
00000130: eb58 1abc 8fb9 05bd dda2 a7bd 3f1d af3d
00000140: b131 c5bd 5737 753d 60be 023d 4d9a b33d
00000150: 3129 7a3e dd50 0dbe c280 243e eb12 88be
00000160: 0fbc 85bd 1030 cfbd 203f 0b3d e076 f83d
00000170: d08a 94bb 69e3 eebd 1a9b 23bd 0032 aabc
00000180: 3446 86bd d1e7 ba3c 6d0a 613c fb66 6a3d
00000190: bd89 2bbd cab9 983c 72eb e5bc 5e9d 93be
000001a0: 4ee8 b5bc 551c 553d 8094 6c3d baa7 5cbe
000001b0: 0f92 1d3d 4101 fbbd c266 d23d ccd9 0bbe
000001c0: f93d 3dbd a6ab 8bbe a697 dabd 0c01 483c
000001d0: 5815 463c 6272 d3bc 8c73 973d 819b 913d
000001e0: 7b10 ae3d dc6d 063e 9f04 d6bc 1152 3ebd
000001f0: cd8b 3f3d 0ebf 983d 317c 53be 6d88 9a3d
00000200: 83cf 003c 4f76 b2bb 10fe b83d 475e 0ebe
00000210: feca 723e 0e51 c03d 35eb 93bd 587c a4bd
00000220: 2d2f c83c 9a93 323d da37 703e 84af 853c
00000230: d103 3a3e 0349 88bc 0b62 143e aa34 3c3d
00000240: 8525 fc3d aca0 123e 34a9 05be a2ac cb3c
00000250: a2b9 45be 3f35 183d 8c98 8abd e3d4 2fbe
00000260: f91b 9c3d 4f86 643d 59f4 6b3e 88aa 0e3e
00000270: ff37 87bd 56bd 2bbc 5d43 54bd de81 abbd
00000280: 5ed4 093d c973 183e 1ad4 653e 3805 e4bc
00000290: 186d 71be 3cca a2bd fe96 f6bc 43a1 a33b
000002a0: 765e 1f3c 97fc 893c 85e7 32bd 1705 543d
000002b0: 45d2 ae3c 7152 f5bd 603e 603d 2386 b0bd
000002c0: f4d7 633c 2c2a b93d 77f2 a83b f673 953d
000002d0: 4b19 2dbc e9ab a7bd 255d d2bd ad9d 32be
000002e0: aca4 e0bc a585 f43d f37a 253d 365b f3bd
000002f0: e03e 0f3c c662 95bd 2d7a c63b 0ea7 8a3d
00000300: 8961 b03c 26e0 0dbe 0cf2 b6bc 4a9b 8ebd
00000310: 8b5c 643d 611a 543d 0907 0c3d c02a 72bc
00000320: 6929 d4bc 973e bdbd 4426 17bd bd21 0f3d
00000330: f592 363e ab0f b1bd 3725 a23d 376d c03c
00000340: c81e 3fbd 4de6 3f3e 493d 21be b9a9 16be
00000350: 6b8f bbbd f4b1 25be b7e5 33bd e4b1 653d
00000360: d5dd 483e cc93 963d a05b 25be 3bdf b93b
00000370: 5f66 07be e56d c63d 53ef 89be a275 c73d
00000380: 34dd aabd 19b3 90bd b13d b23d 4dce a33c
00000390: a5b7 04be 189a 523d 7140 15be ec43 803d
000003a0: 748d 72bd 8028 6d3c 0276 a2bc 9777 ba3d
000003b0: 618a 6fbd 0460 17be 2d3d e03b b8b5 843d
000003c0: 239b 07be f97e ca3c 8098 fdbd 9da2 4fbc
000003d0: 32d8 d43c b3ed 7cbd 824f bebc 3f1f a03c
000003e0: f1ae 64bd f2ac f2bc 7f0c 02be 9a41 403d
000003f0: 7c5e 04be 700d c73c bab4 363d 1707 4c3d
-0.06192335 0.02496062 0.06674125 -0.1747028 0.07933488 -0.04577994 0.048505455 -0.078931116
0.08045571 -0.040875286 -0.05755438 0.043766998 -0.031951826 -0.09295088 0.026283408 -0.14139198
0.042361494 -0.064290084 -0.04278725 0.12746952 0.022931077 0.055406846 -0.056227796 -0.07116144
-0.13570695 0.002069555 -0.19378662 -0.029596478 -0.009978518 0.0024845887 0.042571973 0.027928319
-0.0067128446 0.0062710303 0.026624348 0.0065719844 -0.015440796 0.23821455 0.02144385 -0.06889879
0.13170725 0.1551418 0.07756266 0.038617294 0.11242025 -0.034220524 0.1310323 0.033784278
-0.13242711 0.11038573 -0.0018908613 0.06283519 -0.125757 0.038355004 -0.1162157 -0.044313148
-0.32006758 0.035837747 0.093041524 0.01576454 -0.026906664 -0.012722461 -0.0083982665 -0.007209819
0.059148762 0.11904374 0.040438134 -0.057149466 0.06732637 0.019102352 0.23550351 0.25516033
0.013483596 -0.118844956 -0.18829349 0.037222493 -0.009420614 -0.032647666 -0.081853606 0.085505
-0.096286185 0.05986723 0.031919837 0.08769665 0.24429776 -0.13800378 0.16064742 -0.26576933
-0.0653001 -0.10116589 0.033995748 0.121320486 -0.0045331493 -0.11664469 -0.03994284 -0.020775795
-0.06556359 0.022815617 0.013735396 0.057227116 -0.041879404 0.018643279 -0.02806637 -0.28831
-0.022205498 0.052028973 0.057758808 -0.21548358 0.03846937 -0.122560985 0.10273506 -0.13657302
-0.04620168 -0.27279395 -0.10673456 0.012207281 0.01209005 -0.025811378 0.07395086 0.07109738
0.08499237 0.13127846 -0.02612525 -0.046464983 0.046764184 0.07458316 -0.20652844 0.075455524
0.007861975 -0.0054462324 0.090328336 -0.13903151 0.23710248 0.0939046 -0.072225966 -0.08031529
0.024436558 0.043597795 0.23458806 0.016319044 0.18165518 -0.016636377 0.14490525 0.045948662
0.12311844 0.14319104 -0.13052827 0.024862591 -0.19309095 0.037160154 -0.06767377 -0.17171054
0.07622523 0.05579215 0.2304243 0.1393224 -0.06602477 -0.010482153 -0.051822055 -0.083743796
0.033649795 0.14887919 0.22444192 -0.02783452 -0.23576772 -0.079487294 -0.030101296 0.004993589
0.009727111 0.016844077 -0.043677825 0.051762667 0.021340499 -0.11978615 0.054746985 -0.086193345
0.013906468 0.09041247 0.005155857 0.072975084 -0.010565112 -0.08187086 -0.10271672 -0.17442961
-0.027422272 0.11939553 0.040400457 -0.118826315 0.008743018 -0.0729423 0.006057045 0.067701444
0.021530883 -0.13855037 -0.022332214 -0.06963213 0.05575232 0.05178297 0.034186397 -0.0147807
-0.025898652 -0.09240454 -0.036901727 0.034944285 0.17829497 -0.086455666 0.079172544 0.023489578
-0.046660215 0.18740197 -0.15746035 -0.14713182 -0.09158214 -0.16181165 -0.043920245 0.056077853
0.19615872 0.07352409 -0.16148233 0.005672363 -0.13222645 0.096889295 -0.26940402 0.097392336
-0.083429724 -0.0706541 0.08703173 0.019995833 -0.1296068 0.051416487 -0.14575364 0.06262955
-0.05921693 0.014474988 -0.019831661 0.09104841 -0.058481578 -0.14782721 0.00684323 0.064799726
-0.13242774 0.024718748 -0.12382603 -0.012673047 0.025981996 -0.061750125 -0.023231272 0.01954615
-0.0558309 -0.029623482 -0.1270008 0.046937563 -0.12926668 0.0242984 0.044605948 0.04981145

linear_layer.2.bias f4 [100]
00000000: 7356 3abd 777d 60bc 45e0 113c 90ce 043c
00000010: 7c9e 743c c497 0c3d d517 083d 6ea4 053c
00000020: dcb7 a33c a2c8 db3c 0ea9 02bd b796 3dbd
00000030: e523 81bd 702c 613d cd04 c8bc ecd0 54bc
00000040: d00b 2fbd f0f3 533d 46bf 093c 66ba c8bc
00000050: 9542 79bd e42a 05bd 4dcf 81bc 09b4 7a3d
00000060: cde2 c43c 8945 01bd 5b46 06bd 8c87 74bd
00000070: a7ec a23c dc2f 20bd dd42 60bd 1a02 c6bc
00000080: 9d17 48b9 11c1 b43b 2d44 8dbc 0984 41bd
00000090: c66a 34bc dab7 37bd d8ab 89bc e5f3 f1bb
000000a0: 9df6 b5bc 3b65 64bd c107 84bc 9869 ac3c
000000b0: b805 fc3b be26 ac3b 6344 2cbb 09ce 133c
000000c0: edb0 903c 22e6 aa3c 102a a0bc 0489 d13a
000000d0: 0ff9 4f3d d1d8 fe3c 0567 383d ce30 06bd
000000e0: 36da 06bd 5642 15bc 1bd5 533c d42a 45bd
000000f0: 7d98 a7bb 6312 163d 279d 623c acd2 5fbc
00000100: b7af d3bc 7b18 90ba d037 7bbc 1065 03bb
00000110: 11d8 353b 0730 543b 1de5 e5ba 14f5 44bc
00000120: 97d2 7ebc 1c3f 26bc c508 13bd 2ef7 45bd
00000130: 5817 1dbc 1fc6 023c 94b6 a63c 4cc8 0cbd
00000140: 3a89 13bd 7a38 40bb a6e7 a1bc e457 babc
00000150: ce43 273d 3420 103d c401 bd3c 068f a23d
00000160: cc98 f9bc 5188 5d3b 0da9 cf3b 2093 7e3c
00000170: 39a4 a5bc 8b57 8bbd a7bc bb3b adf7 2abd
00000180: c5ea 10bc 0929 743c ade4 14bd 8b14 95bc
-0.0454926 -0.013701788 0.008903568 0.008105889 0.014930364 0.034324422 0.033225853 0.008156879
0.019985132 0.026829068 -0.031899504 -0.04628631 -0.063056745 0.05497402 -0.024416352 -0.012989264
-0.042735875 0.05174631 0.00840742 -0.024502944 -0.060854513 -0.032511607 -0.015845919 0.06120685
0.024033928 -0.031560455 -0.03278194 -0.05969958 0.019888235 -0.039108142 -0.054751266 -0.024170924
-0.00019082283 0.0055161794 -0.017244423 -0.04724506 -0.011011785 -0.04485307 -0.016805574 -0.007383811
-0.022212321 -0.055760603 -0.016116979 0.021046445 0.0076911114 0.005253642 -0.002628588 0.009021291
0.01766249 0.020861689 -0.019551307 0.0015986268 0.05077463 0.031109245 0.045020122 -0.032761388
-0.032922946 -0.009110054 0.012929226 -0.048136547 -0.0051146136 0.03663863 0.013831413 -0.013661068
-0.025840623 -0.0010993624 -0.015333131 -0.0020049252 0.0027747194 0.003237726 -0.0017539595 -0.012021322
-0.015553138 -0.010146882 -0.035897035 -0.048331432 -0.009588085 0.007981806 0.020350732 -0.034370705
-0.03601954 -0.0029330538 -0.019763779 -0.022746988 0.040836148 0.03518696 0.023072131 0.07937436
-0.030468367 0.0033803175 0.006337291 0.015538007 -0.020219909 -0.06803807 0.005729276 -0.04174011
-0.008845036 0.014902362 -0.036350895 -0.018198272

linear_layer.3.weight f4 [100, 100]
00000000: 92b0 19be 3706 bb3d b0a5 2abd f138 a43d
00000010: d588 7fbc 59cf 26bd 79c3 253d 3d03 3d3d
00000020: 7459 be3c 8c8d 77bd fc74 03be 300b 963d
00000030: a6ba dcbd 61ee 6b3e fa3b 26bd 0a9f 1d3d
00000040: c589 6ebe 9c14 b63d 9114 c5bd 8652 333c
00000050: c3e4 d5bd 6fdb edbd 5059 36bd 0971 113e
00000060: ebe5 43bb c284 723d 50c0 b03b 583a 7dbd
00000070: c211 5b3e 3331 d13a 3616 a6bd 587c 2f3c
00000080: 07fe dfbd e929 32bd d69b 49bd aea2 b6bc
00000090: a442 a4be bb41 3cbe 4b46 073d eb84 00be
000000a0: e64d 2e3e 7cad 3fbe 5c7d e7bd 9d39 623d
000000b0: e89a 253d cabb 7ebb 98be 623d 0fa3 233e
000000c0: 622b 82be 3043 d83d f4e0 683d bc77 6cbd
000000d0: bd1f 97bc 580a 133e 0887 3d3e fd97 9f3b
000000e0: ade9 bb3d 0e7c 1dbe c4aa 20be e7c9 05be
000000f0: d81f 88bc 44eb fabd 84aa fe3b 27b5 05be
00000100: 89e8 c73d 6a7b 413c c6ec 663d 285f 033d
00000110: 5e80 cb3d da06 31bd 7c39 4e3e 9a1f 3ebd
00000120: 9ba5 bc3d 6263 9e3d 7c96 383e 1e0d d13d
00000130: b8ce 92bd 3f62 43bc 0503 1abc b476 d6bc
00000140: 818e 81bb 1f37 fc3d 702c 8ebc ab8f bcbc
00000150: e98a 7a3e 0d98 f7bd b878 f73c ab82 00bd
00000160: fe31 d3bd fb5d d53c fbd2 34be 2e34 673e
00000170: 01a3 e0bb d1d3 b23d d0bc c43c bc9f 0e3e
00000180: ad4b 9b3d 07ab b83c 685e eabd a794 fcbc
00000190: e3d8 303e 3bb8 9fbb aeb0 bf3b e5f1 05be
000001a0: 9fdb c73c e8be bc3c 0b11 efbd 812c 843d
000001b0: d5fb 153b 0425 8cbd 3f0f c4bd da2d 063e
000001c0: b0fa 1bbd 45fe 873e fa9b d3bd fad6 adbc
000001d0: 510d 5ebd 8811 8bbd 49c4 c23d fea1 cc3c
000001e0: 62b0 e03d 5b14 86bd 311a 6d3b dcb3 3cbe
000001f0: f799 21be 65ef b43d 53f7 273d f17b 38be
00000200: b2bc 1b3e 3474 c03d 8791 22be ed79 583e
00000210: 7328 4a3d 7165 2dbe e429 a83d 747c 2fbd
00000220: 7d74 d63d a773 59be 3354 493c a7e5 b9b9
00000230: 7eaa ce3c e3e1 c43d 16d7 20bd c269 f13c
00000240: 916f 463e d726 98bb 7afa 3fbe 265b 1c3d
00000250: fe98 233d fa95 223e c080 793d 443d 4e3c
00000260: 8954 d43d e8f5 19bd c69d 3f3d cb60 bfbc
00000270: f434 22bd e6e2 99bd d3ee fb3d 7554 a63d
00000280: b790 863d 3f82 9ebd 311a a4bc 9dcd 15bd
00000290: deee bc3d 2a19 d7bd f288 26be 9a64 ebbc
000002a0: 6ebb f8bd 06f6 3cbe e0dc 99bd cb00 b0bc
000002b0: 2840 593e c9ab 8cbd d2f4 bbbd 9600 1fbd
000002c0: c8a1 b5bd 98e3 18be 08ff c93a 3a22 40bb
000002d0: 732e 16bd 1992 23bd cdc1 22bc 5efb 1c3e
000002e0: a7c6 0d3d 9721 763d dd7d 303b 6cf1 bcbd
000002f0: 3b9a 50bc 3976 e3bc 9e69 0d3c bcf3 c23d
00000300: 90fc bdbc f0d5 31bd 6bb0 e73c fbaa e8bd
00000310: fe09 1abc 4c96 ebbd 39a1 4abe fbfb ce3c
00000320: 2510 26bd 1ec4 8d3c 32e7 51bd b9bc fabd
00000330: ad3f 12bb 07e3 90bd 7fcb 3ebd f0ef 7abd
00000340: fdf1 9c3d 350e 1ebe 2faa 453d 6621 193e
00000350: dba0 13be f5d6 b2bc 7965 f93b e628 513d
00000360: 41f5 2bbd 46fd 00be 7571 64be b5e0 3ebd
00000370: 37f8 513e d0e1 c4bb 1241 d93c cecd 83bd
00000380: e68b a63c c9b8 4fbd 6733 8b3d f2d7 cf3c
00000390: 2d63 e9bc e893 4d3d 5545 a4bd ec9e 8fbd
000003a0: a966 923d ec6b d0bd af41 4dbe 3187 433e
000003b0: 2f8d 463d 1727 9f3d db7a 853d 4970 7d3e
000003c0: 2490 383d 36d8 0c3d 7cb9 adbd faaa 0dbe
000003d0: fa2d 983d f928 71bd d9ba 5fbd 1162 05bc
000003e0: 4e9a 793d b7ea 45be 322d f23c 18a2 953d
000003f0: 5918 26bd 8449 8bbd ed1b 0dbe 5c99 aa3d
-0.15008762 0.09132045 -0.04166192 0.08018673 -0.015596588 -0.040725086 0.04046962 0.046145666
0.023236014 -0.060437724 -0.12837595 0.073263526 -0.10777788 0.23040153 -0.04058454 0.03848175
-0.23294742 0.0889065 -0.09623063 0.010944968 -0.104440235 -0.11614119 -0.04451877 0.14203276
-0.002989168 0.05920864 0.005394019 -0.06182322 0.21393493 0.0015960097 -0.08109705 0.010710798
-0.10937124 -0.043497 -0.049220882 -0.022294369 -0.32082093 -0.18384449 0.03302602 -0.12550704
0.17021903 -0.18718523 -0.11303207 0.055230726 0.040430933 -0.0038869255 0.055357546 0.1598017
-0.25423723 0.1055969 0.056855157 -0.057731375 -0.018447751 0.14359415 0.18508542 0.0048704133
0.091754295 -0.15379354 -0.15690142 -0.13065301 -0.016616747 -0.122519046 0.007771792 -0.13057385
0.097611494 0.011809209 0.05637815 0.03207317 0.099365935 -0.043219425 0.20139116 -0.046416856
0.09211274 0.077337995 0.18026155 0.1020758 -0.07168335 -0.011925279 -0.009400134 -0.026179649
-0.0039537554 0.12315201 -0.017355174 -0.023017725 0.24467053 -0.12089548 0.03020893 -0.031374615
-0.1031227 0.02604579 -0.17658608 0.22578499 -0.006855369 0.08731807 0.024015814 0.13928121
0.075827934 0.02254249 -0.11443788 -0.030832602 0.17270236 -0.004874257 0.0058499193 -0.13080557
0.024396716 0.02304025 -0.116731726 0.06453801 0.00228857 -0.06842998 -0.095732205 0.13103428
-0.03808087 0.2656118 -0.103324845 -0.021220673 -0.05421192 -0.06790453 0.09510095 0.024979588
0.10971142 -0.06546851 0.0036178941 -0.18427986 -0.15781389 0.088347234 0.04100735 -0.1801603
0.152087 0.09397164 -0.15875827 0.21140261 0.04935498 -0.16933228 0.08211115 -0.042843297
0.10471437 -0.21235524 0.012288141 -0.00035457054 0.025227781 0.09613397 -0.039267622 0.029469375
0.19378497 -0.004643302 -0.18747893 0.038172863 0.039940827 0.15877524 0.0609138 0.012587849
0.10367686 -0.03758803 0.046781324 -0.023361584 -0.03960128 -0.075139806 0.123014115 0.08121578
0.06570571 -0.07739686 -0.02003202 -0.03657304 0.09225248 -0.105028465 -0.16263178 -0.028734494
-0.121451244 -0.18453225 -0.07512832 -0.021484753 0.2121588 -0.06868703 -0.09177555 -0.03881892
-0.08868748 -0.1493057 0.0015411088 -0.0029317276 -0.03666539 -0.03993425 -0.009933901 0.15330264
0.034613278 0.060090628 0.002693049 -0.09225735 -0.012732084 -0.027766334 0.008631138 0.09519145
-0.02319172 -0.043416917 0.028282365 -0.11360737 -0.009401796 -0.11503276 -0.19788064 0.025266638
-0.04054274 0.01730543 -0.051245876 -0.12243027 -0.0022315786 -0.07074552 -0.046580788 -0.06126398
0.07663343 -0.15435107 0.048258003 0.14954147 -0.1441683 -0.021831015 0.0076109734 0.051064394
-0.04198194 -0.12596616 -0.22308905 -0.046601016 0.20504843 -0.0060083643 0.026520286 -0.064357385
0.02033038 -0.050713334 0.067969136 0.025371525 -0.028489674 0.050189883 -0.080210365 -0.07012734
0.07148487 -0.101768345 -0.20044588 0.1909454 0.048474487 0.07771128 0.065175734 0.24749865
0.04505934 0.034385882 -0.08482644 -0.13834754 0.07430644 -0.058876965 -0.05462155 -0.008141057
0.060938172 -0.19327818 0.029562566 0.073063076 -0.040550563 -0.06801131 -0.13780184 0.08330032

linear_layer.3.bias f4 [100]
00000000: 261e 0f3d 54b4 5b3c 8ec7 12bd 2dd4 64bd
00000010: db98 5cbc 4bbf 0bbd 1e4b 233d 9842 023d
00000020: fd8c 1d3d 444e 3bbb 26e3 81bd 4378 d3bc
00000030: 21c5 da3c e404 053a 915f f53b 07b5 23bc
00000040: 0bd8 64bc af1a e1ba 279f b2bb c842 083d
00000050: 52f8 69bd a022 383d 5737 e13c f85f f43c
00000060: 10a9 a5bb 6f59 793b 4a61 143d ee68 0e3d
00000070: 6f59 8e3c 3f46 353d d2a5 a3bc d2ab 04bb
00000080: 3ea9 173d da26 f13c 01ca d63b e192 81bc
00000090: 671d 8f3c c504 a43b 51de d3bc d428 8e3a
000000a0: 3637 b7bc 4939 393c c738 0bbd 5c8f 80bc
000000b0: ca8c c83c d536 123d cb13 433d cd8b e5bc
000000c0: a50d 3a3d d81c 83bc d74f 003d faa3 b6bc
000000d0: 9e77 16bc f7f7 60bc 3adb 85bc ce57 63bc
000000e0: 6990 d8bc 2405 0abd cafc 6e3c 2405 063d
000000f0: ac68 00ba 6419 e63b 6eb6 8a3b 292b 453c
00000100: 39f2 98bb 5a24 203c 51e2 593d 9bd0 a6bc
00000110: c7b3 023c 1cd6 e5ba 4d18 a13c 1f80 553c
00000120: 79fa dabb 4888 3cbc 4b6b 00bd 9cf2 8cbc
00000130: a32f 18ba 4a61 9fbc 99a2 253c 1f23 e1bc
00000140: 3038 e53b 1274 643c 7664 cfbb 8c05 34bb
00000150: 9407 24bd 36e5 753c 1f5e a03c da8d b73c
00000160: 31c2 62bc c686 07bc 0b93 603c 9bab 923c
00000170: 8990 1b3d 687b 70bc d079 cc3a dcb1 cd3b
00000180: 24db 673c 47e4 8e3c a830 0cbd 81a6 dcbc
0.03494086 0.013409693 -0.03583484 -0.05586641 -0.013464178 -0.034117978 0.03986656 0.03180179
0.038464535 -0.0028580585 -0.06342153 -0.025814181 0.026705327 0.0005074276 0.007488199 -0.009991891
-0.013967524 -0.001717409 -0.0054511013 0.033266813 -0.057121582 0.044954896 0.027492208 0.029830918
-0.005055554 0.0038047691 0.036225595 0.034768037 0.01737663 0.044256445 -0.01997653 -0.0020244014
0.037026636 0.029437471 0.0065548425 -0.015817108 0.017470075 0.0050054514 -0.025862845 0.0010845908
-0.022365194 0.011305162 -0.033989694 -0.01569336 0.024481196 0.035696823 0.047626298 -0.028020764
0.04542317 -0.016004965 0.03132614 -0.022294987 -0.009183792 -0.013730994 -0.016339887 -0.013875915
-0.026436048 -0.03369631 0.014586637 0.032719746 -0.000489841 0.0070220698 0.004233173 0.012034216
-0.004667547 0.009774292 0.053194348 -0.020363143 0.007977433 -0.0017535123 0.019664908 0.013031035
-0.0066826907 -0.011507101 -0.031352323 -0.017205529 -0.0005805438 -0.01945557 0.010109567 -0.027482567
0.0069952235 0.013943689 -0.0063291145 -0.0027469127 -0.04004629 0.015008261 0.01957613 0.022406507
-0.013840244 -0.008271879 0.013706933 0.017904093 0.037979636 -0.01467786 0.0015600268 0.006277306
0.014151368 0.017442835 -0.03422609 -0.026934864

linear_layer.4.weight f4 [100, 100]
00000000: 5a55 d0bc d06e 323d 04a0 953d dbf0 a93d
00000010: 689c 813d 39b1 79bb 7f29 51bd 0519 103e
00000020: fe5e a73d b375 223d a844 07be 0229 a53d
00000030: 6e8a a23d 7306 113e 1736 db3d d145 403e
00000040: 54a3 2f3e fda4 a03e 1464 93bb 9e43 e13c
00000050: aa75 09bb 64a9 4b3d 308a 46bc 0afd 053e
00000060: 13f1 143e 1167 97bd b786 863d 5cd1 d3bd
00000070: 943d 1a3e ec69 83bd e920 253e 5bec 99bd
00000080: e517 3fbe 9928 1a3d 9ae1 2a3c 4396 17bc
00000090: ad61 32be 41fc 483d c399 183e 8ec9 283d
000000a0: c4a2 59be e095 86be cf4e 9bbe eb05 883d
000000b0: 2eb6 42bd 0896 67be a978 263e 2aa1 85bd
000000c0: 05ca 893d 58bc 853c a1b3 5abd b740 e5bd
000000d0: 81d2 a5bd d07f 343b ffb7 1abd 14ff 843d
000000e0: 8216 683d 7045 883d 0bde a63d 384c 4a3d
000000f0: 2bcb d53d ebbf 58bc a4b3 343b 9d25 d33c
00000100: bead cd3d 9319 c43c b8be 14ba b406 24bd
00000110: 667a 67be b5ec 1c3e c2e2 753d 0003 d83d
00000120: b396 dbbd 12f8 463e 6900 c13c 9976 36be
00000130: 5ff4 cc3d d573 883d d7b5 efbc 0dc6 ff3c
00000140: 1566 873d cf39 903d c9e1 3e3d d9ee 253c
00000150: 8374 24bd c820 e93c 8ad7 063e 43a2 06bd
00000160: 7bc7 32bd 0638 97bd f0bd a9bc 6ec5 fd3d
00000170: 4f0b 5bbe 544f cd3d 0435 dcbd 099d 85bd
00000180: f8a9 c53c a022 7abc aa45 78bd e080 d0bc
00000190: 3770 98bd 3edb a9bc 8c7b ecbd 7373 19bc
000001a0: abd2 9ebc 3da6 86bd 6d18 36be 56f6 03bd
000001b0: d292 9ebc f735 63bd e230 56bc 9f94 a6bc
000001c0: fa3b 093e 30d6 d03d 1745 773e 7704 89bd
000001d0: a77f 08be 9016 abbd 827f fabc 78fc 783d
000001e0: 390b 98bd 0746 c83d 3bfe b83d 2cde 60bd
000001f0: 15c6 093d 3804 95bd 9fc9 ac3d 5427 023e
00000200: c003 3a3e 9d65 a23d 03e8 8abd 8d23 8f3d
00000210: f61e 683d 10e3 983c b664 fb3b d0f4 75be
00000220: 925d fcbd a8b9 9dbd 2148 d13d bf9b 7f3d
00000230: 736b 293d cb63 5b3d df4e 9c3d 29dd 303e
00000240: c090 4a3d b29f 993c b422 6b3e 66b9 9a3d
00000250: 554e 2ebd 548e 20be 084f 1abd 5652 783d
00000260: 3c01 1fbd 7955 53bd 3689 79bd 50fc a0bd
00000270: 63a5 27bd aba6 bf3d 6d1f 58bd d93a 78ba
00000280: b878 01bd ce6e 9b3d a6e9 3d3c 60f9 5abe
00000290: a9b6 cdbb 74df 343e 85d2 0e3e 17fa 383e
000002a0: fa9c 0dbe 6ee6 c8bd 3226 d2bd 3415 02be
000002b0: d07e 293a 65eb 40be be01 4fbc d68a e53d
000002c0: 9621 893d a3c0 48be b3cf 3fbe 2bdf c73d
000002d0: 0bf4 ff3d fccc 20be ce91 953d 11de 8dbd
000002e0: 2e95 833d 8f3f 0b3d 1361 15be 2ff4 85bd
000002f0: 8529 05be 5682 19be 9fa6 b93d b0a5 a4bd
00000300: cea7 0dbe fab9 013d 4fcd cd3c 2199 7f3d
00000310: 315e 04bd 0ea7 c3bd 00c7 ee3d 07a6 483d
00000320: 65ae 243d 6d5f eb3a 8e5f c8bd f526 233e
00000330: 6f64 19be 1b27 a5bd ac6f 283d 7159 e93d
00000340: 3bd4 36be 0116 003d 9863 a43c 4484 f03c
00000350: 0eda 88bd c26d 07be de7c 283d 006b c83d
00000360: 4efd fbbd 2263 2fbe 5701 843b 378c 563d
00000370: d0b7 98bd 2f55 babc 7b37 133e bcaa 0b3b
00000380: e3a4 ca3c 33c6 dcbb ab27 a4bd 6e1f afbc
00000390: b42f 323e e13a 48bd 8242 5ebe 2a59 663c
000003a0: caa2 903c 67f3 b73d 8c90 d3bd e43f 293d
000003b0: c499 aebb 3166 193e c3b3 afbd 1aaa e8bb
000003c0: 57f8 32bd 947c 8d3c 706f b83d f238 56be
000003d0: 97bd 52be c62e 6c3c 2cc6 193e 4ae7 483e
000003e0: a03b 843c a926 793d e1e2 3a3e 5dba c33c
000003f0: 72a1 25bc 61da 563d 7346 353e 9379 153e
-0.025431324 0.04356271 0.07305911 0.08297893 0.0632866 -0.0038100018 -0.051064964 0.14072044
0.08172415 0.039663028 -0.13209784 0.08064462 0.079365596 0.14162616 0.10703676 0.18776633
0.17152148 0.31375876 -0.004498014 0.027498063 -0.0020974674 0.04972209 -0.012117907 0.13084808
0.14545088 -0.07392705 0.065686636 -0.103426665 0.15062553 -0.06416687 0.16125835 -0.07515784
-0.18661459 0.037636373 0.010429764 -0.009252134 -0.17420073 0.049068693 0.14902405 0.041207843
-0.21253496 -0.2628622 -0.30333564 0.06641754 -0.04753702 -0.22615826 0.16256966 -0.0652488
0.06727985 0.01632516 -0.053393964 -0.11193984 -0.08096791 0.0027542002 -0.03777313 0.06493965
0.05666209 0.06653869 0.0814782 0.049389094 0.10439142 -0.013229351 0.0027572894 0.025774771
0.10042904 0.023937976 -0.0005674171 -0.040045455 -0.22605285 0.15324672 0.060030706 0.10547447
-0.10722103 0.19430569 0.023559766 -0.17818679 0.100075476 0.06662718 -0.029261513 0.031222368
0.066112675 0.07042276 0.046602044 0.0101277465 -0.040150177 0.028458014 0.13168159 -0.03286959
-0.04364727 -0.073837325 -0.020720452 0.12391172 -0.21391033 0.10024896 -0.107522994 -0.06524093
0.024128899 -0.015267044 -0.06061331 -0.025452077 -0.07443278 -0.020734426 -0.11547002 -0.009365904
-0.019387564 -0.06574676 -0.17782755 -0.032217346 -0.019357119 -0.055471387 -0.013073178 -0.02033454
0.13401785 0.10197103 0.2414745 -0.06690305 -0.13329946 -0.08353913 -0.030578379 0.060787648
-0.074240156 0.09778982 0.090328656 -0.05489938 0.03363617 -0.07276195 0.08436894 0.12710315
0.18165493 0.079295374 -0.06782534 0.06989203 0.05667015 0.01866296 0.007671918 -0.2401917
-0.123225346 -0.07701427 0.102188356 0.06240439 0.041362237 0.053561967 0.07632231 0.17271866
0.04945445 0.018752906 0.22962457 0.07554893 -0.042555172 -0.15679294 -0.037673026 0.060625397
-0.038819537 -0.051595185 -0.06092187 -0.07860625 -0.04092921 0.09357961 -0.052764345 -0.0009469218
-0.031609267 0.07589494 0.011591351 -0.21384192 -0.0062778783 0.17663366 0.13947494 0.18064152
-0.13829413 -0.09809576 -0.102611914 -0.12703401 0.0006465735 -0.18839796 -0.012634693 0.112081215
0.06695859 -0.19604735 -0.18731575 0.09759363 0.124977194 -0.15703195 0.07303201 -0.069271214
0.06424938 0.03399616 -0.14587812 -0.06540715 -0.1300412 -0.14991125 0.090649836 -0.08039415
-0.13833544 0.0316715 0.025122313 0.062401894 -0.03231639 -0.095533475 0.1165905 0.04898646
0.040205378 0.0017957516 -0.097838506 0.1593283 -0.14979719 -0.080640994 0.041122124 0.11394013
-0.17854397 0.031270985 0.020067021 0.029359944 -0.06682216 -0.13225463 0.041134708 0.09786034
-0.123041734 -0.1712766 0.00402848 0.052379813 -0.074569345 -0.022745697 0.14376633 0.0021311482
0.024736827 -0.0067374944 -0.080153786 -0.021377292 0.1740101 -0.048884276 -0.21705058 0.014059344
0.017655749 0.08981972 -0.103303045 0.041320696 -0.005328389 0.14980389 -0.08579209 -0.007100356
-0.043693867 0.017271318 0.0900563 -0.2092016 -0.20580135 0.0144154485 0.15017003 0.1961948
0.016141713 0.060827885 0.1825061 0.023892576 -0.010109292 0.052454356 0.17702655 0.14597158

linear_layer.4.bias f4 [100]
00000000: faf5 8dbb 1db7 83bc b9df 6c3c a553 c2bc
00000010: 45be c6bd ad6f 4b3c 4505 bbbc ce75 213a
00000020: 15d1 963c 17f0 833c 1480 973c 4d5d 1dbd
00000030: 74b4 d3bb 36c8 893c 262b 44bc 75fc 0639
00000040: 7d86 dc3c a92f b6bb 72af 04bd 9612 e03c
00000050: f408 693d 2622 a1bc af32 1a3c b261 8d3c
00000060: 15a3 843c c5bb 5b3c 207c 16bc 3a10 f8bb
00000070: d929 12bd 395d ffbc 2cdd 1d3d 425c 183c
00000080: 7671 2dbc 6f56 a3bc b86f 1bbc 8d5f 1dbd
00000090: 9c26 c03c 36a1 a73d a30f 893c 9124 98bc
000000a0: e5d5 92bb 2334 beba 1eb6 98bb 737c 55bc
000000b0: 8882 87bc 0580 6fbb 24ef babc a0ba b0bb
000000c0: 2c5e 2dbc 7863 33bc a6d1 18bb d7ae cfbc
000000d0: d21f 633c 7afc 9f3b c62b b2bc 9369 6bbc
000000e0: e40f bdbb 4bd3 c1bc 0390 6abc 33b8 ce3a
000000f0: e5e7 efbb a5a3 093d 7291 aeba 542a 94bc
00000100: 6ffa f1bb 5717 57bb cc97 9e3c bd57 9abc
00000110: e741 923c b117 c6bc 9c6d 05bd 1ebf 143a
00000120: bf3f f5bb 3db4 b2bc 98d2 d03c e646 f3bc
00000130: de31 90bc a6b6 a83c 1dc7 393d cbf1 093d
00000140: 50be ca3c d049 98bc 80f2 383d f4ea 853c
00000150: 36a2 32bd f7ee 6dbd 2f39 283c 3b2b d8bc
00000160: f0ff b0bb e360 2fbb cb9c 753c 6678 5bbb
00000170: 9780 43bc 53b5 173c 4c57 c43c b9a6 9cbb
00000180: b1d8 52bc 5a51 1dbc 2e13 06bd 8d5d bbbb
-0.004332301 -0.016078526 0.0144576365 -0.023721525 -0.0970426 0.012416762 -0.022829661 0.0006159217
0.018410245 0.016105695 0.01849369 -0.038419057 -0.0064607207 0.0168191 -0.011973178 0.00012873283
0.026919598 -0.0055598808 -0.03239388 0.027352612 0.056893304 -0.019669604 0.009411498 0.017258499
0.016191045 0.013411467 -0.009184867 -0.0075702937 -0.03568444 -0.031172382 0.038541004 0.00929934
-0.010586133 -0.019938676 -0.009487085 -0.038421202 0.02345591 0.081850454 0.016731089 -0.018572124
-0.0044810646 -0.0014511388 -0.004660382 -0.013030159 -0.016541734 -0.0036544811 -0.02281911 -0.005393341
-0.010581534 -0.010949008 -0.002331832 -0.025351925 0.013862567 0.0048823925 -0.021749388 -0.014368433
-0.0057697166 -0.023660323 -0.014316562 0.0015771448 -0.007321345 0.03360333 -0.0013318493 -0.01808659
-0.0073845903 -0.0032820308 0.019359492 -0.018840665 0.01785369 -0.024181219 -0.032575235 0.00056742306
-0.007484406 -0.02181446 0.025491044 -0.029696893 -0.017601904 0.020594906 0.045355905 0.033677857
0.024748951 -0.018589884 0.04515314 0.016347386 -0.043611728 -0.058089223 0.01026754 -0.026387801
-0.005401604 -0.002676063 0.014990996 -0.003348851 -0.011932514 0.00925954 0.023967408 -0.004780617
-0.012869046 -0.009601915 -0.032733135 -0.005717939

linear_layer.5.weight f4 [100, 100]
00000000: 04ec 753d ef98 4f3d a4a6 923c f5e6 a03c
00000010: b148 3fbd a244 56be bd16 05be 4a3f 53bd
00000020: 5c0b 84bd f19c 933d 0618 ee3c e8c4 05bd
00000030: be8a f0bd 3834 aabd 5bc1 b53c 2760 9b3d
00000040: c2d7 16bd 1cfc 94bd dd65 8f3d 78df d7bc
00000050: f15b 3fbe 2a8e dd3d 4f97 df3c 09c9 013d
00000060: a99e 0ebe 7375 bd3d d86c 0abd d19c e9bb
00000070: 5e7e 403b a80e 2dbe ab82 8c3d 6291 0e3d
00000080: 1dcc c03d 2418 a0bc 0c7e 2a3e 14f2 013d
00000090: 8d5a b13d 938f 85be 6548 8a3d 1b48 583e
000000a0: 48ed 1abe a2de 06be 6ac8 8cba 5fac ad3d
000000b0: f226 8fbd c8a3 c53d 1926 a43d cba1 183e
000000c0: 5b98 71be 1296 52bd 4eb4 28be ebde ddbb
000000d0: 79bc c5bc b095 c73d 82f2 793c f4f8 153c
000000e0: d56f e53d fb6e e0bd f262 543d a873 0e3e
000000f0: 7941 8d3c 3039 3c3d b7b0 c6bd 00bb 423e
00000100: da92 b5bd 54c9 25be 1023 8bbd 828e bb3d
00000110: 1e4d 7abd 865e f8bd ce7c 11be 6c26 013e
00000120: cb00 013d 8830 a83d ac39 72bc fc1a dabd
00000130: 9088 ddbc cf3e f3bc 845b 893d 1abe 053e
00000140: 64ab 7abd 7483 833d 0119 1fbd c226 84be
00000150: d766 5a3d 911d 4abe 7821 4b3e 8d49 ab3d
00000160: bbf6 1fba 305b 0e3d 4f7e c4bc 91c0 783e
00000170: b191 92bc 00f4 8abe 5125 8d3d 36d5 c23c
00000180: 8ebf c83d 1cc8 07be e894 1abd 559d 2f3e
00000190: 572a c7bd 47e9 ad3d ce68 24bc 09f6 a83d
000001a0: 1920 88bd b24c 733d 0f55 113e c7b9 4c3d
000001b0: db88 0bbd f718 33be 4f3e 54be 2d93 5c3d
000001c0: c627 c3bd d992 63bc cbd2 e5bc 805f bfbd
000001d0: f851 903c 5ae4 2a3e b2cb d73d 8f13 27be
000001e0: 8a55 35bd 93e9 25bd 8734 663d 5397 113e
000001f0: c93e a23d e0e8 9e3d f6b9 8a3d cfd4 ae3c
00000200: 4f74 e43d 639b a73d 1e53 ee3c 41a8 ab3d
00000210: c228 38bd 902a f23a 788c 47be c27c bd3d
00000220: 1f5a b23d 6b52 05be 1a8d e4bc eeeb d43d
00000230: 9e3f 0cbd 7ee0 f5bd adbd 173e e297 a8bd
00000240: b53d 0a3e c508 30bd 9bfa 253e 815a ef3c
00000250: e8ea 893d bf08 683d 2798 6dbc c2f2 683e
00000260: 04d3 9cbd 8026 813d c1e2 99bd 6f15 c33d
00000270: 1038 f7bd c8a9 233e b3ab 563e ab74 823d
00000280: 655c 8bbc 11a6 dbbd 8efa 7e3b 5771 d43d
00000290: 572c fc3d cd00 33bc 5968 283e c6b9 afbd
000002a0: c870 36be c6fc 453d 91ba f83d dbf9 cdbd
000002b0: a372 81bc cdcb 963b d962 ed3b f172 da3d
000002c0: 158d 82bd 0647 91bc abf1 093d 7c1f 2dbd
000002d0: bc41 f9bd 4ea1 28bc 34ac a2bd e257 66bd
000002e0: 350a c5bd 92e7 e13d 6598 88bd 3d91 5c3d
000002f0: 0f7e 623d d03b 253d c512 36be 60d7 d23d
00000300: a7bc 553d 95df abbd 132a 66bb 0939 f8bb
00000310: 8de1 9d3c d8cd 8ebd 8cfb 8a3d 6186 01be
00000320: 2a73 adbd b49c fe3c 38da 39bd b535 19be
00000330: 1f90 3bbd 668f e53d b1c9 bfbd 8da5 3ebe
00000340: f1f9 913d c9e6 343c 2b56 193d 0124 01be
00000350: 05e1 0a3c 8bb2 193d 1706 033e b178 27be
00000360: b6f9 253e ce14 2b3b a187 933c 033a 05bc
00000370: 4325 b63d 1d7c 93bd 5120 2ebd 1e13 f03d
00000380: 5c4b d43d 113b b2bd cd39 dfbd 05aa 83bc
00000390: e32a 03bc cdad 373e 699e 353e 2047 b6bc
000003a0: 7744 70bd d322 f13d f10c f53d 41c4 7abc
000003b0: 0516 0e3e 1d44 293e 726c cc3d d586 1d3e
000003c0: 4433 b5bd 476e 9bbd 1c0b 09be 7ded ae3d
000003d0: 027e 40bd cd48 b4bd e516 0f3e 5580 f4bd
000003e0: fbe2 aabd 27b5 ed3d cf4f ca3d 6327 a7bd
000003f0: ee42 0ebe 5495 cf3c 5e45 e6bc 38e1 aebd
0.060039535 0.05068296 0.017901726 0.019641379 -0.046700183 -0.20924619 -0.12996955 -0.05157403
-0.06447479 0.072076686 0.02906419 -0.032658488 -0.11745213 -0.08310741 0.022186926 0.07586699
-0.036826856 -0.072746485 0.07001851 -0.026351675 -0.18687417 0.10818131 0.02729383 0.031685863
-0.13927712 0.09250917 -0.033795208 -0.0071292897 0.0029372196 -0.16900122 0.068608604 0.034806617
0.094139315 -0.019542761 0.16649646 0.031725004 0.08659849 -0.260861 0.067520894 0.21121256
-0.15129578 -0.13170865 -0.001074088 0.08480143 -0.0698985 0.096503794 0.08015079 0.14905469
-0.23593275 -0.05141265 -0.16475031 -0.0067709587 -0.024137722 0.097453475 0.015255572 0.009153593
0.11202971 -0.10958668 0.051852174 0.13911307 0.017243134 0.045952976 -0.097016744 0.19016647
-0.088659 -0.16190082 -0.06793797 0.091580406 -0.0611087 -0.12127404 -0.14207765 0.12612313
0.031494897 0.082123816 -0.014784258 -0.10649678 -0.027042657 -0.029693035 0.06706908 0.13060799
-0.061198607 0.06421557 -0.038842205 -0.2581082 0.053320732 -0.19737841 0.19836986 0.08363638
-0.00061021344 0.034754932 -0.02398601 0.24292208 -0.017891737 -0.27139282 0.06891883 0.023783308
0.09802161 -0.1325993 -0.037739664 0.17149861 -0.097248726 0.0849176 -0.010034753 0.082500525
-0.06646747 0.059399314 0.14192604 0.04998186 -0.034066062 -0.17489992 -0.20726894 0.053851295
-0.095290706 -0.013889992 -0.028054615 -0.09344387 0.01761721 0.16688672 0.10536899 -0.16316055
-0.04427103 -0.040505957 0.056202438 0.14217882 0.079221316 0.07759261 0.067737505 0.02134171
0.111549966 0.081839345 0.029092368 0.08381701 -0.044960745 0.0018475819 -0.19487178 0.09252311
0.087085955 -0.13019721 -0.027899314 0.103965625 -0.034240358 -0.12005709 0.1481845 -0.08232094
0.13500102 -0.042977113 0.1620888 0.02921796 0.06734258 0.056648966 -0.014501608 0.22748855
-0.076574355 0.063061714 -0.07513953 0.095255725 -0.1207124 0.15982735 0.20963936 0.06369909
-0.01701183 -0.10725034 0.0038906666 0.1037318 0.12313145 -0.010925484 0.16446055 -0.08580355
-0.1781646 0.048336767 0.1214496 -0.10057422 -0.015801733 0.0046019317 0.0072444496 0.106664546
-0.063745655 -0.017734062 0.03367774 -0.042266354 -0.12170741 -0.010292364 -0.079430014 -0.056236155
-0.096210875 0.11030497 -0.06669692 0.053849448 0.055296 0.040340245 -0.17780598 0.10294986
0.052181866 -0.08392254 -0.0035120293 -0.0075751585 0.01927259 -0.06972855 0.0678626 -0.12648918
-0.084692314 0.031080581 -0.045374125 -0.14961894 -0.04579174 0.11208992 -0.093646415 -0.1861784
0.07127751 0.011041352 0.03743569 -0.1261139 0.0084765 0.037523787 0.12795292 -0.16354634
0.16208538 0.002610493 0.018009009 -0.008131507 0.08893826 -0.07201407 -0.042511288 0.11722396
0.10365936 -0.08702672 -0.108996965 -0.016072283 -0.00800583 0.17937393 0.1773621 -0.022250712
-0.058659043 0.1177422 0.11965359 -0.01530558 0.13875587 0.1652989 0.09981622 0.15383466
-0.08847669 -0.07589393 -0.13383144 0.08541391 -0.04699517 -0.08802948 0.13973577 -0.1193854
-0.08344074 0.11606818 0.098785035 -0.08161809 -0.13892719 0.02533976 -0.028109249 -0.08539051
