ac_2d_model_para_1/checkpoint_250.pth (torch, 291130 bytes, 17 tensors)

linear_layer.0.weight f4 [100, 3]
0.13339877 0.15788 -0.16103163 -0.045922413 -0.073814966 0.100809574 0.08248501 -0.06675204
-0.2634905 0.06664127 -0.0322329 0.2080856 -0.11033984 -0.13414557 -0.30857804 -0.025829522
-0.16625716 -0.12426357 -0.06673436 0.123330824 -0.11362885 -0.016068865 -0.03584276 -0.28991538
0.44234875 0.05297899 0.043954905 -0.10817329 -0.17220484 -0.05649566 0.062454745 -0.20832619
0.1483533 -0.052787572 0.060324363 -0.22012499 0.17127189 -0.0070857573 -0.080930136 0.16262205
-0.012650075 0.19087861 0.14257267 0.15243165 0.20217411 -0.14581802 -0.15127848 0.03759447
0.24642503 0.026661301 -0.28915265 -0.16066708 -0.13872094 -0.15951455 -0.14260598 -0.022396991
0.08809019 0.10037171 0.15029861 -0.19477941 0.10161751 -0.19033082 0.06250016 0.2654637
-0.07616827 0.07582995 -0.15297455 -0.14802963 0.05034513 0.09068375 0.026476348 -0.42749324
0.16166607 0.029643083 0.31714275 0.13523139 0.07970804 0.019960405 -0.24618386 -0.20942965
-0.09055732 0.03148599 0.20944221 0.03826532 0.16775785 -0.20050131 0.07280111 0.04698711
-0.0016040902 -0.082942344 -0.044968426 -0.14973363 -0.12015533 0.23694739 0.019543493 0.2886323
0.091648616 -0.21736719 0.1384759 -0.19783634 0.018909762 -0.12920305 0.06717757 -0.06935944
-0.25297058 0.07422663 -0.13569708 0.20011403 -0.07167646 0.25918075 -0.044241957 0.19419487
0.13970634 0.04284758 -0.025432091 -0.092047475 -0.38498762 -0.08304861 -0.02492893 -0.1222953
0.11180355 0.08524316 -0.112762794 -0.05251854 -0.0076562176 0.09914798 -0.14394653 0.1567051
-0.08041097 0.08542948 -0.063264094 0.18405637 -0.12239335 0.15179032 0.12847213 -0.056979444
-0.102411695 0.13789333 -0.32048756 0.15668058 -0.28422746 0.20363127 0.0036886854 -0.16682807
0.071353205 0.07964208 0.07036998 0.25906923 -0.089102685 -0.108713 0.13496359 0.11011735
-0.10308208 0.11208411 -0.05190286 -0.10297284 -0.09201286 0.21495181 0.061370313 0.014368543
0.057539966 0.22789189 0.07862215 0.0765033 0.008267761 0.24173808 -0.07189325 0.13533373
0.3893769 0.014138715 -0.019442642 0.23112977 -0.11734195 -0.26056263 0.22477865 0.015482952
-0.12075581 -0.08555791 -0.1612236 0.19573522 -0.071050495 0.10980322 -0.0010914265 0.009866679
0.17941968 0.0128974235 0.20220579 -0.14533462 -0.12437765 0.008279283 0.1098358 -0.16934176
0.2977158 -0.14677301 0.104475684 0.019335276 0.0921736 0.30838174 0.11156547 -0.016063452
-0.31625673 -0.19786444 -0.025023479 0.12635033 0.19444297 -0.11357135 -0.015748523 -0.05417293
0.086114205 0.059666693 -0.16280356 0.013238892 -0.06121302 0.10208236 0.14884797 0.07196006
-0.056744732 0.25180873 -0.10300209 0.06177469 0.14601931 -0.17573233 0.28161308 0.03102729
-0.043617297 -0.03619851 0.27443534 0.1477269 -0.13365152 -0.35356286 0.19977519 -0.28029656
-0.096215524 -0.14402637 -2.051592e-05 0.21055686 -0.029631311 0.022547645 -0.1669994 0.04996068
0.121152416 -0.06214937 0.002032498 -0.101046994 -0.1865594 -0.0908245 -0.16502273 0.15261513
0.036334388 0.13264954 -0.10705949 0.43885893 0.22072832 -0.03249769 -0.24396281 0.15842016
00000000: b099 083e 4bab 213e 7ae5 24be 2419 3cbd
00000010: 4d2c 97bd 4075 ce3d e7ed a83d 4bb5 88bd
00000020: 3ae8 86be 387b 883d a506 04bd 6414 553e
00000030: dbf9 e1bd 755d 09be f1fd 9dbe 6f98 d3bc
00000040: 513f 2abe e67d febd 06ac 88bd df94 fc3d
00000050: 3eb6 e8bd daa2 83bc dccf 12bd ca6f 94be
00000060: 897b e23e 7f00 593d 0f0a 343d f589 ddbd
00000070: 7756 30be fe67 67bd 8cd0 7f3d 7653 55be
00000080: ede9 173e c837 58bd ae16 773d 7268 61be
00000090: e661 2f3e a42f e8bb b3be a5bd 6586 263e
000000a0: 4342 4fbc af75 433e 92fe 113e 0b17 1c3e
000000b0: bb06 4f3e 5251 15be bfe8 1abe a9fc 193d
000000c0: d856 7c3e cd68 da3c d10b 94be e985 24be
000000d0: dd0c 0ebe c857 23be 4d07 12be e579 b7bc
000000e0: a168 b43d af8f cd3d e1e7 193e 4174 47be
000000f0: d71c d03d 15e6 42be 1500 803d dcea 873e
00000100: 1cfe 9bbd bc4c 9b3d 5ca5 1cbe 1495 17be
00000110: b236 4e3d 67b8 b93d ede4 d83c 65e0 dabe
00000120: ca8b 253e 0dd6 f23c 8960 a23e 197a 0a3e
00000130: f83d a33d 0184 a33c 9f17 7cbe ba74 56be
00000140: 1e76 b9bd 74f7 003d 0578 563e 19bc 1c3d
00000150: b7c8 2b3e 3750 4dbe c018 953d 8e75 403d
00000160: 5640 d2ba addd a9bd d030 38bd c653 19be
00000170: ff13 f6bd 56a2 723e ad19 a03c 9dc7 933e
00000180: 45b2 bb3d 8195 5ebe a0cc 0d3e 9c95 4abe
00000190: a5e8 9a3c ce4d 04be 6594 893d 520c 8ebd
000001a0: 5c85 81be 2204 983d 2df4 0abe b1ea 4c3e
000001b0: 1ccb 92bd 57b3 843e 0e37 35bd 05db 463e
000001c0: 2e0f 0f3e f280 2f3d f656 d0bc 6383 bcbd
000001d0: 191d c5be 6415 aabd c137 ccbc f575 fabd
000001e0: 42f9 e43d f793 ae3d 2ef0 e6bd ae1d 57bd
000001f0: 02e1 fabb 190e cb3d b866 13be 4d77 203e
00000200: 82ae a4bd a7f5 ae3d 9b90 81bd 4679 3c3e
00000210: 5da9 fabd ec6e 1b3e 338e 033e 4763 69bd
00000220: 39bd d1bd e933 0d3e f216 a4be e070 203e
00000230: 4386 91be b784 503e dfbd 713b fad4 2abe
00000240: a121 923d 631b a33d 231e 903d b9a4 843e
00000250: 787b b6bd eca4 debd e533 0a3e 3585 e13d
00000260: b31c d3bd 5b8c e53d 1898 54bd 6de3 d2bd
00000270: 3d71 bcbd 541c 5c3e 705f 7b3d 0a6a 6b3c
00000280: 07af 6b3d 7e5c 693e a604 a13d c3ad 9c3d
00000290: 8175 073c 308a 773e c53c 93bd ed94 0a3e
000002a0: 695c c73e 12a6 673c 2d46 9fbc 48ad 6c3e
000002b0: fa50 f0bd 7768 85be 602c 663e 35ac 7d3c
000002c0: d24e f7bd fc38 afbd cd17 25be d06e 483e
000002d0: ec82 91bd 83e0 e03d 320e 8fba daa7 213c
000002e0: cbb9 373e b74f 533c 090f 4f3e 99d2 14be
000002f0: b6b9 febd d4a5 073c 98f1 e03d ed67 2dbe
00000300: 356e 983e aa4b 16be 59f7 d53d 0365 9e3c
00000310: 83c5 bc3d 36e4 9d3e 707c e43d 8097 83bc
00000320: 67ec a1be fa9c 4abe 0afe ccbc fb61 013e
00000330: 0f1c 473e 1998 e8bd 0c03 81bc 6fe4 5dbd
00000340: a55c b03d 1065 743d fab5 26be f0e7 583c
00000350: 81ba 7abd 8e10 d13d 9a6b 183e cc5f 933d
00000360: 2a6d 68bd 13ed 803e c2f2 d2bd 7507 7d3d
00000370: 1686 153e 2df3 33be 972f 903e f12c fe3c
00000380: 0da8 32bd e444 14bd ca82 8c3e b845 173e
00000390: f2db 08be 3106 b5be de91 4c3e 0883 8fbe
000003a0: a50c c5bd a67b 13be 9a19 acb7 389c 573e
000003b0: 5dbd f2bc d7b5 b83c e401 2bbe 92a3 4c3d
000003c0: c21e f83d 5690 7ebd a833 053b baf1 cebd
000003d0: 6d09 3fbe 3202 babd b8fb 28be 2447 1c3e
000003e0: 5ed3 143d 48d5 073e 0242 dbbd 1eb2 e03e
000003f0: 9b06 623e 4c1c 05bd 63d1 79be e538 223e

linear_layer.0.bias f4 [100]
-0.007871563 -0.027657485 0.09114736 -0.011549942 0.014422666 -0.022256354 0.036248762 0.053265855
-0.08896754 0.028587442 0.029688887 -0.0442445 0.043282893 0.060735706 0.023061452 -0.0038275623
-0.0667625 0.0034797117 -0.0099970065 0.009611821 -0.037679214 -0.019234361 -0.021068698 0.025610287
0.017504705 0.061885756 0.04098517 -0.007204291 0.026212854 -0.039439853 -0.03629885 -0.0394046
0.048545707 -0.031661257 -0.04033897 0.027105896 -0.009095512 -0.06029707 0.079347 0.045006257
0.037780873 -0.018937852 0.0515956 -0.06687579 0.013861055 -0.043644287 -0.031890955 0.0024637524
-0.041942194 -0.06467293 0.060193118 0.028386211 0.002299695 -0.08632893 0.043357234 0.04779887
-0.0095106 0.00132057 -0.005421426 -0.009419373 -0.04772405 -0.001785747 -0.014160638 0.047608197
-0.05489166 0.041080054 -0.07107718 -0.00979041 -0.03847548 0.05684502 0.03502852 -0.028335411
-0.046616767 0.08345746 -0.0011702444 0.030000106 -0.020522173 0.023665354 -0.058861084 -0.0062171677
0.07154535 0.042544916 -0.033465058 -0.0055091423 0.009714528 0.005170869 0.038667675 0.075021416
-0.066316694 -0.049042743 -0.04808948 -0.10205812 -0.03908839 0.071619965 -0.014430529 0.025170973
0.066791415 0.029061971 -0.034444943 0.016086865
00000000: baf7 00bc f391 e2bc 78ab ba3d f83b 3dbc
00000010: 0c4d 6c3c f552 b6bc 9579 143d 4c2d 5a3d
00000020: 9d34 b6bd 3630 ea3c 1c36 f33c b939 35bd
00000030: 6749 313d 01c6 783d 5feb bc3c d7d7 7abb
00000040: c7ba 88bd e00b 643b 7cca 23bc e67a 1d3c
00000050: 8555 1abd 6191 9dbc 4398 acbc aacc d13c
00000060: 0766 8f3c eb7b 7d3d 11e0 273d f911 ecbb
00000070: 57bc d63c af8b 21bd 1aae 14bd b866 21bd
00000080: ddd7 463d 3caf 01bd 7a3a 25bd 2f0d de3c
00000090: 5805 15bc 0ffa 76bd ae80 a23d 7b58 383d
000000a0: 1ec0 1a3d 8e23 9bbc e855 533d 2df6 88bd
000000b0: 7a19 633c 5ac4 32bd 17a0 02bd e876 213b
000000c0: 94cb 2bbd 3e73 84bd 0f8d 763d 338a e83c
000000d0: 7bb6 163b 39cd b0bd 5b97 313d bfc8 433d
000000e0: 59d2 1bbc fa16 ad3a 38a6 b1bb b753 1abc
000000f0: 4b7a 43bd ba0f eaba 0502 68bc d000 433d
00000100: 14d6 60bd 8f43 283d ea90 91bd f567 20bc
00000110: 7798 1dbd 53d6 683d 117a 0f3d aa1f e8bc
00000120: 39f1 3ebd bfeb aa3d e362 99ba c8c2 f53c
00000130: 1e1e a8bc d8dd c13c 5218 71bd 62b9 cbbb
00000140: 5e86 923d 9443 2e3d a812 09bd 0986 b4bb
00000150: af29 1f3c 6570 a93b ff61 1e3d d4a4 993d
00000160: 0cd1 87bd 0be1 48bd 79f9 44bd d903 d1bd
00000170: 261b 20bd 7dad 923d 076e 6cbc 5b33 ce3c
00000180: f0c9 883d 5f13 ee3c 2416 0dbd 9ac8 833c

linear_layer.1.weight f4 [100, 100]
0.058322612 0.14324261 -0.044784643 -0.017971518 -0.013412488 0.0073420936 0.10489543 0.06874108
0.16957861 -0.14262824 -0.07824675 -4.2829924e-05 -0.16516073 -0.04559105 0.06613323 0.06778412
-0.218738 -0.15137708 0.15467454 0.0062498352 -0.09631939 0.111541994 0.03133765 0.16620573
-0.055295948 0.013077238 -0.07807916 -0.01955075 -0.2353979 -0.10085446 -0.012118837 0.018423919
-0.040279273 0.19434805 -0.084239386 -0.060481627 -0.0928098 -0.022869267 0.14050743 -0.12892817
0.061374135 0.0682348 -0.13275832 -0.06958295 -0.0019081421 -0.04239497 0.048365206 0.09012264
-0.010029459 0.120966665 0.0015833819 -0.26759052 0.110916115 0.07327041 -0.02771299 -0.20493305
-0.06848252 -0.07016487 0.22481085 0.16773085 0.0051456 0.05907299 -0.0061962497 -0.1513789
-0.02874783 0.18560687 -0.024009496 0.0068468675 0.022079581 -0.08393398 0.020211091 0.09042927
-0.07476246 0.052213725 -0.19155449 0.026243545 -0.040834878 0.006438366 -0.18058158 -0.1199103
-0.011167571 -0.0034241632 -0.034306586 -0.09572142 0.076264046 0.1243004 -0.01513336 -0.06740848
0.093217835 0.097101785 -0.020948568 0.113873035 -0.09239981 -0.053186122 -0.010641831 -0.09595661
-0.054125436 -0.013208156 -0.13537396 -0.075177535 0.03764342 0.2402507 -0.040333126 0.06452513
-0.010079753 -0.14001781 0.10821182 -0.2818134 -0.04707269 -0.05378754 -0.053012703 0.041708246
0.085764535 0.10617972 0.12314327 -0.12979853 -0.03543677 -0.25954467 0.020922286 0.17745331
-0.084649555 -0.012491424 0.05253106 0.12462407 0.16913176 0.02558246 -0.07541695 0.09910483
-0.10890843 -0.06366329 -0.028946023 -0.11604182 0.18642735 -0.09978765 -0.0739131 0.04348346
0.16861764 0.007360401 -0.019196765 -0.09038004 0.18223286 -0.09199292 0.09874945 -0.12970592
0.17249344 -0.20774433 -0.268481 -0.066807434 0.028346907 -0.06325464 -0.04915012 -0.032837953
0.06459691 -0.15739356 -0.086847976 0.09391068 0.015476588 -0.050544642 -0.11972413 -0.03001363
0.12472702 -0.11077552 0.004744539 0.031080283 -0.11749479 0.11315207 -0.022395795 -0.1800299
-0.345648 0.1730471 -0.034787413 0.06157865 0.032345977 0.107347645 0.1056294 0.15999329
0.024160963 0.011453282 -0.12614775 0.07365686 0.19980162 -0.18892871 -0.05437915 0.08024252
0.022996759 -0.108194746 0.026745604 0.0097461045 0.04279167 -0.13411258 0.074273966 -0.123278186
0.0012733147 -0.083594196 0.13811255 -0.1416819 0.13439757 0.12382266 -0.099643074 0.19832969
-0.0932481 -0.06642479 0.111590095 -0.037845343 -0.13877112 0.0357098 -0.022082072 0.14677799
-0.14374709 -0.039636213 0.07611702 0.019822797 -0.038191225 0.056721255 0.043745924 -0.046177372
-0.004304907 0.10958507 -0.22764434 -0.15046193 0.064735115 0.0925913 0.016363978 -0.12440661
-0.13308431 -0.14275068 0.030018311 0.08875722 -0.042395636 0.097548805 -0.13846046 -0.015271094
0.026680283 -0.07501171 0.011468684 0.0052676783 -0.094519585 -0.068798505 -0.06884895 -0.0043734177
0.2525597 0.14845791 -0.015922213 0.12870009 -0.120975874 0.1256646 0.097648114 -0.09590913
-0.05776976 -0.08707112 0.073589265 0.018744351 -0.03831092 -0.06318079 -0.12745716 -0.007172897
00000000: b1e3 6e3d 31ae 123e 1a70 37bd 0139 93bc
00000010: 0dc0 5bbc f295 f03b 6ad3 d63d 20c8 8c3d
00000020: 04a6 2d3e 230d 12be d53f a0bd 48a4 33b8
00000030: e51f 29be aebd 3abd dc70 873d 67d2 8a3d
00000040: dbfc 5fbe 9802 1bbe 0163 1e3e 6bcb cc3b
00000050: 1a43 c5bd 2170 e43d e85b 003d d631 2a3e
00000060: 017e 62bd e941 563c f7e7 9fbd e528 a0bc
00000070: 260c 71be c88c cebd 168e 46bc c2ed 963c
00000080: e1fb 24bd 2d03 473e b385 acbd 95bb 77bd
00000090: 1013 bebd 5458 bbbc 2ee1 0f3e bf05 04be
000000a0: 7263 7b3d b0be 8b3d ccf1 07be 8181 8ebd
000000b0: a01a faba 59a6 2dbd 981a 463d 3892 b83d
000000c0: 9a52 24bc 5fbd f73d 7b89 cf3a a001 89be
000000d0: fd27 e33d cc0e 963d 5a06 e3bc f8d9 51be
000000e0: 9040 8cbd 99b2 8fbd d134 663e a3c1 2b3e
000000f0: 6c9c a83b 85f6 713d e909 cbbb 1203 1bbe
00000100: 9280 ebbc ba0f 3e3e 90af c4bc b05b e03b
00000110: 3de0 b43c 94e5 abbd bb91 a53c fb32 b93d
00000120: 101d 99bd 0fde 553d dc26 44be b4fc d63c
00000130: 7942 27bd eef8 d23b 61ea 38be 8893 f5bd
00000140: 30f8 36bc ed67 60bb 1085 0cbd 9809 c4bd
00000150: 5330 9c3d 3591 fe3d eaf1 77bc 750d 8abd
00000160: fee8 be3d 4ddd c63d 559c abbc 4436 e93d
00000170: 1d3c bdbd b1d9 59bd 135b 2ebc e684 c4bd
00000180: a2b2 5dbd 0667 58bc 799f 0abe aef6 99bd
00000190: fd2f 1a3d 4804 763e 5934 25bd c025 843d
000001a0: 8c25 25bc d460 0fbe 299e dd3d d949 90be
000001b0: 4bcf 40bd 5350 5cbd d923 59bd 44d6 2a3d
000001c0: 51a5 af3d c174 d93d 8a32 fc3d e8e9 04be
000001d0: 2626 11bd 0ae3 84be 3765 ab3c 52b6 353e
000001e0: bf5c adbd d4a8 4cbc cf2a 573d e83a ff3d
000001f0: e030 2d3e 4f92 d13c 3474 9abd 79f7 ca3d
00000200: 620b dfbd e661 82bd 3620 edbc 55a7 edbd
00000210: d0e6 3e3e 785d ccbd c05f 97bd b61b 323d
00000220: 1aaa 2c3e 852f f13b 8942 9dbc 2c19 b9bd
00000230: 409b 3a3e c966 bcbd 273d ca3d a1d1 04be
00000240: 1fa2 303e eeba 54be 5776 89be 56d2 88bd
00000250: c637 e83c a68b 81bd a351 49bd 1781 06bd
00000260: 624b 843d c72b 21be 5add b1bd 3e54 c03d
00000270: 8491 7d3c e607 4fbd ed31 f5bd 25df f5bc
00000280: e170 ff3d 47de e2bd 1478 9b3b 149c fe3c
00000290: 1ca1 f0bd 46bc e73d 6377 b7bc c259 38be
000002a0: c6f8 b0be 4233 313e 3f7d 0ebd e539 7c3d
000002b0: 377d 043d 15d9 db3d 3a54 d83d 48d5 233e
000002c0: 36ed c53c 8ca6 3b3c e02c 01be 68d9 963d
000002d0: cc98 4c3e 8776 41be acbc 5ebd 3156 a43d
000002e0: b363 bc3c 3595 ddbd 9919 db3c 20ae 1f3c
000002f0: 5146 2f3d cf54 09be f31c 983d 4679 fcbd
00000300: 5ae5 a63a 6f33 abbd 606d 0d3e 0f15 11be
00000310: 849f 093e bc96 fd3d ab11 ccbd f016 4b3e
00000320: dcf8 bebd b809 88bd 5989 e43d b803 1bbd
00000330: 041a 0ebe 7044 123d 76e5 b4bc f84c 163e
00000340: 7032 13be 9559 22bd 3de3 9b3d 6b63 a23c
00000350: 676e 1cbd 8c54 683d ed2e 333d 7c24 3dbd
00000360: 2d10 8dbb 236e e03d 991b 69be b112 1abe
00000370: d893 843d 82a0 bd3d c00d 863c e5c8 febd
00000380: 4147 08be 3c2d 12be f6e8 f53c 58c6 b53d
00000390: 0ca7 2dbd abc7 c73d 94c8 0dbe 9c33 7abc
000003a0: 9c90 da3c bd9f 99bd 26e7 3b3c 7d9c ac3b
000003b0: 7c93 c1bd 3be6 8cbd ae00 8dbd e34e 8fbb
000003c0: 814f 813e 5a05 183e 4d6f 82bc f5c9 033e
000003d0: 33c2 f7bd 39ae 003e bcfb c73d 026c c4bd
000003e0: fc9f 6cbd 5852 b2bd f8b5 963d c18d 993c
000003f0: e9eb 1cbd ee64 81bd 2184 02be 9f0a ebbb

linear_layer.1.bias f4 [100]
-0.030673256 0.062350187 -0.0090690935 0.076690815 -0.015465408 -0.020363195 -0.045201477 0.08024301
-0.0512046 0.0065836906 -0.047473308 -0.029194115 0.047639888 0.0797068 -0.037042145 -0.013908824
-0.0025698869 0.061106764 0.015521787 -0.0406968 -0.023545997 0.025599977 -0.009428816 0.0371399
0.02972599 0.013259077 0.05002734 -0.03707925 -0.043420933 -0.021349017 -0.061273705 0.023519402
0.009003134 -0.010682438 -0.03298439 0.02230755 0.05078388 -0.049070653 -0.0061441036 -0.019555597
-0.051966373 -0.045477767 0.021441018 0.067641206 -0.039012555 0.0044846134 -0.0013852637 -0.043966237
-0.00338937 -0.051327243 -0.018047076 0.028381487 0.0063031954 -0.03191637 0.006726392 0.032916572
0.059366714 -0.04046724 0.0054175705 0.035495054 -0.025277134 0.0048787124 0.01118073 0.070105225
0.009610654 0.039321356 -0.03957582 -0.002632868 -0.02613832 -0.059706874 -0.04684645 0.0032382545
-0.030985067 -0.02388439 0.03632343 0.0071931235 0.05175821 -0.034033325 0.03996915 -0.024276042
-0.08785019 -0.0060167485 0.004133764 -0.016524453 0.045891542 0.00073418923 0.012792409 0.029538136
0.0718328 -0.00722572 -0.038365178 -0.052518886 0.0041185934 0.019500786 0.016036795 0.013365711
0.03766351 -0.009201101 -0.009214093 0.018537102
00000000: 7b46 fbbc e962 7f3d 8996 14bc 1310 9d3d
00000010: 9f62 7dbc b7d0 a6bc 2f25 39bd 7256 a43d
00000020: eabb 51bd 00bc d73b 5f73 42bd 7f28 efbc
00000030: 0b22 433d 523d a33d 81b9 17bd d6e1 63bc
00000040: 8c6b 28bb 164b 7a3d 184f 7e3c b0b1 26bd
00000050: 89e3 c0bc 0bb7 d13c 527b 1abc 0220 183d
00000060: eb83 f33c 9a3c 593c 78e9 4c3d 69e0 17bd
00000070: 26da 31bd 22e4 aebc 23fa 7abd c3ab c03c
00000080: e281 133c 6405 2fbc a41a 07bd 53be b63c
00000090: c202 503d 4ffe 48bd 7a54 c9bb 0f33 a0bc
000000a0: b1da 54bd e546 3abd 13a5 af3c 7987 8a3d
000000b0: a1cb 1fbd aaf3 923b bd91 b5ba f115 34bd
000000c0: 3120 5ebb 843c 52bd 76d7 93bc 4b80 e83c
000000d0: 098b ce3b bdba 02bd 1169 dc3b 87d3 063d
000000e0: 832a 733d fac0 25bd e085 b13b 4363 113d
000000f0: fe11 cfbc 9bdd 9f3b 612f 373c 5493 8f3d
00000100: 0176 1d3c 6e0f 213d 411a 22bd 328c 2cbb
00000110: 0820 d6bc 328f 74bd 10e2 3fbd e538 543b
00000120: 65d4 fdbc 32a9 c3bc e0c7 143d 4bb4 eb3b
00000130: 6b00 543d 8766 0bbd b1b6 233d 8dde c6bc
00000140: cdea b3bd 2528 c5bb 8774 873b 4a5e 87bc
00000150: c5f8 3b3d 9b76 403a 4197 513c f6f9 f13c
00000160: 131d 933d bcc5 ecbb ce24 1dbd 0b1e 57bd
00000170: 44f5 863b 1dc0 9f3c 995f 833c dbfb 5a3c
00000180: 0d45 1a3d 37c0 16bc b5f6 16bc 1fdb 973c

linear_layer.2.weight f4 [100, 100]
-0.06142616 0.026567526 0.06766543 -0.17352706 0.079888 -0.045722697 0.046016373 -0.07738724
0.07866486 -0.036696877 -0.056983594 0.044404343 -0.031477172 -0.09227413 0.026579814 -0.1421839
0.042111613 -0.06291393 -0.041774772 0.12686655 0.02264877 0.055595376 -0.055203255 -0.07117045
-0.1361751 0.0015161823 -0.19359224 -0.028930245 -0.0113754235 0.0021344018 0.042033598 0.029540082
-0.007329104 0.0060638166 0.026716093 0.006832887 -0.015840337 0.23619688 0.02022333 -0.068316616
0.12978032 0.15382333 0.07865869 0.040966492 0.111210756 -0.03688446 0.13139854 0.033957817
-0.12820245 0.10960114 -0.0026884594 0.061424427 -0.12517162 0.03895592 -0.118716136 -0.046247486
-0.31965646 0.03625842 0.09212018 0.01658 -0.025171148 -0.014045027 -0.008575944 -0.0063807066
0.063016124 0.119843625 0.040207095 -0.05702402 0.06862773 0.019973984 0.23572399 0.25501063
0.012209502 -0.12040571 -0.18720339 0.03759535 -0.008817008 -0.035985827 -0.08074426 0.085927024
-0.0963088 0.060610455 0.033447303 0.08853613 0.24351001 -0.13718784 0.16134726 -0.2620072
-0.06061768 -0.09929672 0.033374425 0.12144086 -0.0039896076 -0.11483838 -0.040047437 -0.020790093
-0.0640296 0.022286529 0.013348111 0.058249954 -0.042462632 0.016161738 -0.026651552 -0.28239936
-0.026339833 0.051107604 0.059289843 -0.21411632 0.03900014 -0.12067278 0.104821704 -0.13671254
-0.040076513 -0.27252853 -0.10734343 0.01225447 0.012000531 -0.021857081 0.07246763 0.07175474
0.085021116 0.13184716 -0.025991661 -0.047214612 0.04455344 0.07474681 -0.2016397 0.074698694
0.002995181 -0.0057810815 0.09127494 -0.1323859 0.23379043 0.09448555 -0.0746202 -0.07883771
0.024638541 0.038750403 0.23019178 0.016421756 0.18192695 -0.017049832 0.14380307 0.047603853
0.123019546 0.1343629 -0.12820232 0.024932317 -0.1890769 0.03675642 -0.06796423 -0.17085357
0.07686304 0.056159344 0.2287784 0.13445666 -0.06772485 -0.010384431 -0.0512986 -0.08412557
0.03655082 0.14774464 0.22258852 -0.02676564 -0.23493798 -0.08190258 -0.033555996 0.003514271
0.0076604285 0.018214716 -0.0411598 0.050797258 0.02090906 -0.11893157 0.05668418 -0.08522393
0.013358481 0.08717881 0.004784773 0.0720271 -0.011641856 -0.07665505 -0.10048176 -0.17490758
-0.025673425 0.11852791 0.039115187 -0.12136377 0.009649573 -0.071090475 0.0044154795 0.068379246
0.016675072 -0.13825743 -0.027038744 -0.069237344 0.053614497 0.05252512 0.035788953 -0.016309928
-0.024801599 -0.091109514 -0.038317822 0.034025002 0.1812175 -0.08457933 0.07851946 0.02220207
-0.04769943 0.18664928 -0.15866378 -0.14617641 -0.09176253 -0.1634654 -0.04215544 0.05728453
0.19550695 0.071516715 -0.1598694 0.004415763 -0.13090128 0.09806849 -0.2689038 0.098484755
-0.081476085 -0.071220644 0.08399726 0.020827087 -0.12711254 0.053128347 -0.14597456 0.061001085
-0.056689598 0.015871473 -0.017893158 0.09078406 -0.0588644 -0.14631724 0.008272666 0.06366262
-0.13297254 0.024626786 -0.12238188 -0.013783469 0.02512 -0.05943751 -0.025420755 0.02065688
-0.057263155 -0.028052242 -0.12552868 0.047383588 -0.12891479 0.024427652 0.04531515 0.051361933
00000000: ff99 7bbd 24a4 d93c 2c94 8a3d 14b1 31be
00000010: 529c a33d b947 3bbd aa7b 3c3d 347d 9ebd
00000020: 0b1b a13d 774f 16bd a167 69bd 54e1 353d
00000030: 35ee 00bd 38fa bcbd e9bd d93c a898 11be
00000040: 3a7d 2c3d 05d9 80bd 061c 2bbd 4ee9 013e
00000050: ea89 b93c fab7 633d cf1c 62bd d0c1 91bd
00000060: 7c71 0bbe a3ba c63a 0b3d 46be 1fff ecbc
00000070: fc5f 3abc 52e1 0b3b 6c2b 2c3d 0bfe f13c
00000080: fb28 f0bb fbb2 c63b b5db da3c 69e6 df3b
00000090: 98c3 81bc 98dd 713e 66ab a53c 95e9 8bbd
000000a0: 22e5 043e dd83 1d3e cf17 a13d 7bcc 273d
000000b0: 77c2 e33d 2914 17bd 578d 063e 5a17 0b3d
000000c0: 8147 03be 9076 e03d dd30 30bb 2e98 7b3d
000000d0: fd2c 00be 3e90 1f3d 7221 f3bd 016e 3dbd
000000e0: 03aa a3be b683 143d 81a9 bc3d c8d2 873c
000000f0: b933 cebc 1d1d 66bc 1e82 0cbc 3f15 d1bb
00000100: 990e 813d 9370 f53d 32b0 243d 0592 69bd
00000110: b28c 8c3d 7ba0 a33c a161 713e c190 823e
00000120: 5d0a 483c 4597 f6bd 3fb2 3fbe 95fd 193d
00000130: 3675 10bc e065 13bd 3f5d a5bd 82fa af3d
00000140: 8c3d c5bd ab42 783d 0a00 093d 6e52 b53d
00000150: b05a 793e f87a 0cbe 3738 253e cf25 86be
00000160: 3f4a 78bd 145c cbbd 9fb3 083d fcb5 f83d
00000170: 41bb 82bb 6230 ebbd c808 24bd fc4f aabc
00000180: f321 83bd 3d92 b63c 09b2 5a3c 8197 6e3d
00000190: 4ced 2dbd 9f65 843c 5b54 dabc a696 90be
000001a0: a2c6 d7bc 3556 513d e8d9 723d 4f41 5bbe
000001b0: 9cbe 1f3d 4a23 f7bd c3ac d63d 5ffe 0bbe
000001c0: 4527 24bd dc88 8bbe dfd6 dbbd f9c6 483c
000001d0: e09d 443c 9f0d b3bc e969 943d 26f4 923d
000001e0: 8d1f ae3d f102 073e 77ec d4bc 1c64 41bd
000001f0: ab7d 363d db14 993d a37a 4ebe a1fb 983d
00000200: cc4a 443b 3a6f bdbb 5bee ba3d 2b90 07be
00000210: c266 6f3e a481 c13d 7ad2 98bd aa75 a1bd
00000220: c4d6 c93c beb8 1e3d 65b7 6b3e eb86 863c
00000230: 0f4b 3a3e 17ac 8bbc 1d41 133e 42fc 423d
00000240: acf1 fb3d 6e96 093e 7847 03be dc3e cc3c
00000250: 609d 41be e68d 163d d530 8bbd 3df4 2ebe
00000260: 5f6a 9d3d 5707 663d e344 6a3e 02af 093e
00000270: 53b3 8abd 7623 2abc 7b1e 52bd 074a acbd
00000280: 50b6 153d 5f4a 173e 3fee 633e 9e43 dbbc
00000290: 9593 70be 8abc a7bd 0372 09bd af4f 663b
000002a0: 5504 fb3b 0737 953c 2e97 28bd c910 503d
000002b0: 7a49 ab3c 6592 f3bd ac2d 683d e289 aebd
000002c0: 88dd 5a3c ce8a b23d 96c9 9c3b f282 933d
000002d0: 7cbd 3ebc 53fd 9cbd 62c9 cdbd f91a 33be
000002e0: 1351 d2bc c3be f23d 3f37 203d 918d f8bd
000002f0: 3e19 1e3c e297 91bd baaf 903b 6b0a 8c3d
00000300: 299a 883c 5b93 0dbe 5b80 ddbc 4fcc 8dbd
00000310: e09a 5b3d 9524 573d 7097 123d 669c 85bc
00000320: b92c cbbc a097 babd 26f3 1cbd cd5d 0b3d
00000330: 1591 393e ee37 adbd d0ce a03d 1ee1 b53c
00000340: 7a60 43bd fd20 3f3e c278 22be 45af 15be
00000350: feed bbbd 7963 27be 2fab 2cbd 2fa3 6a3d
00000360: f932 483e 5b77 923d ceb4 23be 1bb2 903b
00000370: fc0a 06be 22d8 c83d c2ad 89be 60b2 c93d
00000380: efdc a6bd 21dc 91bd c106 ac3d 919d aa3c
00000390: ca29 02be 1c9d 593d 5b7a 15be 46dc 793d
000003a0: 5a33 68bd e404 823c ac94 92bc feec b93d
000003b0: cc1b 71bd 30d4 15be 138a 073c 8c61 823d
000003c0: f429 08be 1dbe c93c 5aa3 fabd 0fd4 61bc
000003d0: 75c8 cd3c bf74 73bd 303f d0bc 9e38 a93c
000003e0: c58c 6abd d1cd e5bc 978a 00be 4b15 423d
000003f0: 3d02 04be 801c c83c 619c 393d e460 523d

linear_layer.2.bias f4 [100]
-0.044290945 -0.013882894 0.00822421 0.007741998 0.015853617 0.03293324 0.0314257 0.0073035643
0.016111994 0.024064839 -0.030961707 -0.044152513 -0.061946224 0.051495463 -0.0231058 -0.0139806215
-0.042346843 0.050995603 0.00812207 -0.024654573 -0.055904996 -0.029781122 -0.017749732 0.060139377
0.022452315 -0.031684034 -0.031051952 -0.05870201 0.019419206 -0.03742168 -0.05325199 -0.022960138
-0.0006913581 0.0023145215 -0.015216164 -0.043004103 -0.011102963 -0.04229976 -0.014201436 -0.0073224227
-0.022126976 -0.054555446 -0.012404744 0.01850009 0.006523863 0.0069008525 -0.0020596033 0.010240069
0.015671976 0.021251136 -0.020112861 -0.0008429743 0.049657617 0.029352814 0.042433355 -0.034513135
-0.03093708 -0.008726398 0.011393954 -0.048378672 -0.0057341177 0.0359779 0.007210044 -0.013783302
-0.026819544 0.00040160408 -0.014281685 -0.002242647 0.004325687 0.0025507987 -0.0018608316 -0.011186187
-0.01459261 -0.010782144 -0.036034014 -0.0466667 -0.008208767 0.007277899 0.01847287 -0.032340977
-0.034181032 -0.0027341065 -0.018106004 -0.021088902 0.03974705 0.033669434 0.023181004 0.078529395
-0.03022787 0.0030231643 0.0051852167 0.014820166 -0.02074408 -0.06317403 0.006800043 -0.03613585
-0.0084886355 0.014667798 -0.035457004 -0.015506666
00000000: 6c6a 35bd 1475 63bc d6be 063c 96b0 fd3b
00000010: 72df 813c 01e5 063d 3cb8 003d bd52 ef3b
00000020: 4dfd 833c a023 c53c 68a3 fdbc 44d9 34bd
00000030: 53bb 7dbd e8ec 523d 6048 bdbc fa0e 65bc
00000040: e273 2dbd c4e0 503d 6e12 053c 63f8 c9bc
00000050: a3fc 64bd 8af7 f3bc e367 91bc b554 763d
00000060: ebed b73c 1ec7 01bd aa60 febc 8571 70bd
00000070: 0715 9f3c 7a47 19bd c21e 5abd e616 bcbc
00000080: 423c 35ba 3aaf 173b 384d 79bc 1225 30bd
00000090: 34e9 35bc 8342 2dbd 24ad 68bc eff0 efbb
000000a0: a243 b5bc 8875 5fbd 443d 4bbc 808d 973c
000000b0: 21c6 d53b 8c20 e23b 69fa 06bb f6c5 273c
000000c0: 8462 803c dd16 ae3c bac3 a4bc 0cfb 5cba
000000d0: c965 4b3d 5075 f03c 99ce 2d3d a55d 0dbd
000000e0: c26f fdbc 2bf9 0ebc b5ad 3a3c b728 46bd
000000f0: 44e5 bbbb 905d 133d 3c42 ec3b 5cd3 61bc
00000100: a9b4 dbbc 638e d239 bbfd 69bc 60f9 12bb
00000110: 7ebe 8d3b 4d2b 273b 26e7 f3ba 4546 37bc
00000120: d815 6fbc 97a7 30bc 6798 13bd 9525 3fbd
00000130: 107e 06bc 717b ee3b 6b54 973c f977 04bd
00000140: 6901 0cbd b22e 33bb 0b53 94bc a2c2 acbc
00000150: cdcd 223d f6e8 093d 17e6 bd3c 05d4 a03d
00000160: 70a0 f7bc 4820 463b c0e8 a93b 48d0 723c
00000170: 7def a9bc 6361 81bd e5d2 de3b 2f03 14bd
00000180: eb13 0bbc 3451 703c 5d3b 11bd ac0f 7ebc

linear_layer.3.weight f4 [100, 100]
-0.1497277 0.08791764 -0.040279165 0.07408236 -0.016899124 -0.04274578 0.038263798 0.048515692
0.028417062 -0.05673611 -0.122598864 0.07449185 -0.10707584 0.22488816 -0.038486302 0.040030632
-0.23243381 0.09019023 -0.09740671 0.008561974 -0.09989378 -0.1149587 -0.0408425 0.14431396
-0.0029926896 0.05514309 0.006793673 -0.0624635 0.21291834 -0.0012532235 -0.08012062 0.015160345
-0.108937815 -0.04362595 -0.04696839 -0.02313513 -0.32170993 -0.18385808 0.042794958 -0.12731314
0.16967316 -0.1862431 -0.10887593 0.048002068 0.040736508 -0.0010255105 0.056784187 0.15820852
-0.25322506 0.10608299 0.05345253 -0.057130758 -0.018287852 0.13667925 0.176468 0.0033232037
0.091837175 -0.15305051 -0.15753642 -0.13055415 -0.013386869 -0.119252145 0.0023143978 -0.12684974
0.09638076 0.01243491 0.05601048 0.036976915 0.09824893 -0.045277953 0.20338978 -0.04196303
0.0913564 0.08399464 0.18159226 0.10028826 -0.07002862 -0.012661225 -0.011481135 -0.02092289
-0.0066632694 0.12377794 -0.013476518 -0.022539547 0.24574 -0.11738979 0.02912728 -0.029248605
-0.10076132 0.024424633 -0.1736513 0.22211486 -0.007681168 0.08758901 0.025884971 0.1403308
0.07628318 0.021129884 -0.111748956 -0.028389288 0.17331554 -0.0055158148 0.0058502466 -0.13339841
0.023953672 0.022338334 -0.117566906 0.065259665 0.004529452 -0.0668046 -0.09392285 0.13104302
-0.036931235 0.26299375 -0.10258045 -0.020891948 -0.052589882 -0.06751406 0.095015705 0.024507077
0.11169809 -0.06517819 0.005069223 -0.1844892 -0.15723032 0.086713165 0.043983936 -0.17814055
0.15210027 0.09403655 -0.15637389 0.21265249 0.051351376 -0.168357 0.08328705 -0.041799713
0.10310806 -0.20977919 0.014134672 -0.00084603124 0.027473241 0.09661728 -0.037984554 0.027420921
0.19334285 -0.003809947 -0.18790025 0.037756108 0.039440148 0.15698877 0.05895673 0.013492699
0.10193309 -0.039779186 0.0451183 -0.0230634 -0.037107725 -0.07536194 0.12346374 0.083432
0.06664075 -0.07631434 -0.02181471 -0.03489347 0.09262688 -0.10422994 -0.16292863 -0.02722752
-0.121035226 -0.18503182 -0.07487838 -0.019838218 0.2134282 -0.0665094 -0.09135339 -0.037997987
-0.08822225 -0.14836778 0.0004714122 -0.0009571984 -0.036890093 -0.040328573 -0.008332398 0.152324
0.034322366 0.060493205 0.0030263816 -0.092487484 -0.009527586 -0.027943281 0.0093995035 0.093816444
-0.022317948 -0.04351173 0.030620748 -0.113508835 -0.009633717 -0.11553815 -0.19622768 0.025796149
-0.042031873 0.011721005 -0.04824308 -0.12592044 -0.0028032314 -0.07001134 -0.048531536 -0.055760253
0.08062929 -0.15219648 0.048055626 0.15026581 -0.14873667 -0.021733684 0.009253919 0.053238418
-0.045433924 -0.11803402 -0.22417921 -0.048576936 0.20373437 -0.006245146 0.031192193 -0.05553186
0.019337947 -0.052531794 0.06521088 0.01691722 -0.028813401 0.040276386 -0.082527414 -0.07029552
0.070168525 -0.103485785 -0.19990137 0.18652661 0.046483718 0.074431635 0.06621022 0.24498467
0.033819493 0.032552417 -0.08575224 -0.14044113 0.07512535 -0.05575046 -0.048503812 -0.010452392
0.06422574 -0.19021286 0.027220115 0.072183445 -0.037781373 -0.071308605 -0.13673365 0.07813709
00000000: 3852 19be 2a0e b43d c4fb 24bd 7eb8 973d
00000010: 0870 8abc 3316 2fbd 80ba 1c3d 64b8 463d
00000020: e6ca e83c 2064 68bd 1d15 fbbd 2f8f 983d
00000030: 944a dbbd 1549 663e d0a3 1dbd 29f7 233d
00000040: 2103 6ebe a8b5 b83d 2b7d c7bd 8647 0c3c
00000050: 1c95 ccbd 786f ebbd 774a 27bd 0ac7 133e
00000060: 0021 44bb b9dd 613d 769d de3b bad9 7fbd
00000070: 4407 5a3e 3443 a4ba 4816 a4bd 1863 783c
00000080: ca1a dfbd 20b1 32bd ed61 40bd e285 bdbc
00000090: 2ab7 a4be 4b45 3cbe c449 2f3d 605e 02be
000000a0: cdbe 2d3e 83b6 3ebe 58fa debd d19d 443d
000000b0: 53db 263d 6c6a 86ba 8996 683d 6a01 223e
000000c0: b7a6 81be 0a42 d93d 0af1 5a3d f101 6abd
000000d0: 68d0 95bc a5f5 0b3e 07b4 343e 1bca 593b
000000e0: 2115 bc3d 46b9 1cbe 3a51 21be fdaf 05be
000000f0: 9954 5bbc 783a f4bd 27ad 173b e6e4 01be
00000100: 4763 c53d cbbb 4b3c 3f6b 653d 1b75 173d
00000110: bc36 c93d 6075 39bd 6945 503e 6de1 2bbd
00000120: 1019 bb3d 6205 ac3d 52f3 393e ee63 cd3d
00000130: 2a6b 8fbd 0771 4fbc 5f1b 3cbc 7b66 abbc
00000140: 8e57 dabb 4a7f fd3d 9dcc 5cbc dba4 b8bc
00000150: 44a3 7b3e 0f6a f0bd 559c ee3c c59a efbc
00000160: f35b cebd 2b16 c83c a5d1 31be 1472 633e
00000170: 4fb2 fbbb de61 b33d b80c d43c e1b2 0f3e
00000180: 5b3a 9c3d 9418 ad3c a3dc e4bd a790 e8bc
00000190: a179 313e 02be b4bb 6db3 bf3b 9899 08be
000001a0: 7e3a c43c e2fe b63c ebc6 f0bd dca6 853d
000001b0: cc6b 943b dad0 88bd a05a c0bd 2430 063e
000001c0: 3545 17bd 1ea7 863e b315 d2bd 9725 abbc
000001d0: 7d68 57bd d044 8abd 9897 c23d 11c3 c83c
000001e0: f8c1 e43d 257c 85bd ba1b a63b bdea 3cbe
000001f0: fc00 21be ac96 b13d 8028 343d 7a6a 36be
00000200: 2cc0 1b3e 3c96 c03d 7a20 20be 93c1 593e
00000210: d255 523d c765 2cbe 6792 aa3d 2d36 2bbd
00000220: 522a d33d 5bd0 56be 1c95 673c 32c8 5dba
00000230: 900f e13c 48df c53d b195 1bbd d7a1 e03c
00000240: abfb 453e 4eb0 79bb ec68 40be 26a6 1a3d
00000250: fe8b 213d aac1 203e 9d7c 713d 7b10 5d3c
00000260: 4cc2 d03d 80ef 22bd f7cd 383d 75ef bcbc
00000270: 45fe 17bd 5c57 9abd 8fda fc3d 65de aa3d
00000280: f27a 883d b14a 9cbd c3b4 b2bc 75ec 0ebd
00000290: 29b3 bd3d 8276 d5bd c3d6 26be 3f0c dfbc
000002a0: 51e1 f7bd fb78 3dbe d659 99bd c283 a2bc
000002b0: ec8c 5a3e 1536 88bd 7c17 bbbd c7a3 1bbd
000002c0: dead b4bd b9ed 17be e027 f739 7fec 7aba
000002d0: 111a 17bd 932f 25bd 9c84 08bc d3fa 1b3e
000002e0: 9c95 0c3d b9c7 773d 4256 463b 146a bdbd
000002f0: 9819 1cbc 4fe9 e4bc 6000 1a3c d622 c03d
00000300: 21d4 b6bc 5b39 32bd 5dd8 fa3c 5277 e8bd
00000310: bdd6 1dbc 449f ecbd e9ef 48be 7252 d33c
00000320: 9d29 2cbd 7509 403c 899a 45bd 4af1 00be
00000330: 6bb6 37bb 1b62 8fbd 01c9 46bd dd64 64bd
00000340: f820 a53d 65d9 1bbe fad5 443d 48df 193e
00000350: 6d4e 18be d70a b2bc c09d 173c 8710 5a3d
00000360: ec18 3abd d2bb f1bd 3c8f 65be 9cf8 46bd
00000370: be9f 503e 15a4 ccbb c586 ff3c 6075 63bd
00000380: 9d6a 9e3c 942b 57bd 488d 853d fb95 8a3c
00000390: 150a ecbc daf8 243d 2204 a9bd 19f7 8fbd
000003a0: 84b4 8f3d 5bf0 d3bd f2b2 4cbe d500 3f3e
000003b0: b665 3e3d 9d6f 983d 3999 873d 43dd 7a3e
000003c0: 4f86 0a3d af55 053d df9e afbd cdcf 0fbe
000003d0: 52db 993d 985a 64bd efab 46bd 8240 2bbc
000003e0: c988 833d 29c7 42be b8fc de3c ead4 933d
000003f0: a4c0 1abd 3f0a 92bd e803 0cbe 5706 a03d

linear_layer.3.bias f4 [100]
0.0348318 0.01229878 -0.033505544 -0.05503099 -0.013230095 -0.03344723 0.0334213 0.030915922
0.0378324 -0.003623224 -0.06061365 -0.024958707 0.024045112 -0.00019656384 0.008918073 -0.008573859
-0.016272819 -0.0015493085 -0.0059492188 0.03265901 -0.05537268 0.04530395 0.026916739 0.029245324
-0.0059881345 0.0052925935 0.035223104 0.034887955 0.016222024 0.043930072 -0.020601533 -0.0016465058
0.038127318 0.028547155 0.007802026 -0.014113275 0.0168693 0.0044996007 -0.024549268 0.0004159402
-0.021946643 0.011489464 -0.034395467 -0.014958722 0.023711285 0.035733957 0.046919424 -0.013644152
0.043365795 -0.01406043 0.031727504 -0.021066409 -0.01010951 -0.012120113 -0.01586729 -0.012836127
-0.024928605 -0.032061562 0.014648857 0.030302428 -0.0010753301 0.0068102977 0.008917914 0.010557429
-0.0031794251 0.011813917 0.052674748 -0.021783328 0.007749428 0.00018728703 0.0128107015 0.0142654525
-0.006669411 -0.01207452 -0.03057806 -0.016511656 0.0009539712 -0.01791522 0.007819798 -0.027394304
0.0057599363 0.013976935 -0.0057258876 -0.0019892775 -0.03879428 0.015450708 0.018478015 0.02279532
-0.013681406 -0.008306896 0.014386167 0.017645244 0.037741467 -0.01290256 0.00076249416 0.00311716
0.013264882 0.016896194 -0.03314156 -0.023598434
00000000: caab 0e3d d280 493c 1c3d 09bd 2d68 61bd
00000010: 0ac3 58bc f6ff 08bd c6e4 083d 6343 fd3c
00000020: 26f6 1a3d 9d73 6dbb 0546 78bd 3476 ccbc
00000030: 41fa c43c b41c 4eb9 1c1d 123c 5f79 0cbc
00000040: 934e 85bc 2b12 cbba aaf1 c2bb 74c5 053d
00000050: 77ce 62bd a290 393d 7e80 dc3c e493 ef3c
00000060: 1d38 c4bb 7e6d ad3b 1a46 103d ace6 0e3d
00000070: 0de4 843c 05f0 333d 8cc4 a8bc 91cf d7ba
00000080: 642b 1c3d b9db e93c 23a8 ff3b 5e3b 67bc
00000090: 7c31 8a3c 6371 933b 8c1b c9bc 8c12 da39
000000a0: 72c9 b3bc 4e3e 3c3c 43e2 0cbd 6d15 75bc
000000b0: 2b3e c23c c55d 123d 952e 403d b98b 5fbc
000000c0: 55a0 313d b85d 66bc b3f4 013d 7693 acbc
000000d0: 5ca2 25bc 7093 46bc 1efc 81bc 9e4e 52bc
000000e0: 1337 ccbc fc52 03bd c201 703c cc3c f83c
000000f0: 17f2 8cba eb28 df3b 711c 123c 11f9 2c3c
00000100: e75d 50bb 298f 413c 7ac1 573d f372 b2bc
00000110: eaee fd3b 7b62 4439 fae3 513c a5b9 693c
00000120: 138b dabb 35d4 45bc d77e fabc 7443 87bc
00000130: ec13 7a3a f1c2 92bc 9c1e 003c 056a e0bc
00000140: d9bd bc3b 84ff 643c 3aa0 bbbb 8a5e 02bb
00000150: c0e6 1ebd f724 7d3c 355f 973c 40bd ba3c
00000160: fa27 60bc a619 08bc f5b3 6b3c c28c 903c
00000170: cc96 1a3d 4265 53bc 1ee2 473a 4449 4c3b
00000180: f354 593c e369 8a3c 72bf 07bd 8151 c1bc

linear_layer.4.weight f4 [100, 100]
-0.024428284 0.04435339 0.07327647 0.08295571 0.06346713 -0.0046396665 -0.05033978 0.14141029
0.08366388 0.040511955 -0.13151462 0.08007962 0.078502856 0.14228998 0.1059929 0.18657163
0.17208192 0.31473324 -0.0048091374 0.029061468 -0.0027750444 0.050626654 -0.011326648 0.13057138
0.14467144 -0.073509246 0.065898456 -0.10281575 0.15040529 -0.06381896 0.16181357 -0.075805046
-0.18907326 0.03791319 0.009205722 -0.011163213 -0.1732738 0.049365368 0.14891101 0.041517697
-0.21205324 -0.26326045 -0.3059404 0.06489077 -0.047392707 -0.22638373 0.16324893 -0.06641727
0.066845685 0.015249251 -0.05500474 -0.11341156 -0.08228536 0.0020524696 -0.039032325 0.064767696
0.055765744 0.06588412 0.08236903 0.049804352 0.10503647 -0.014073509 0.0026048117 0.024818791
0.09967876 0.02362788 0.00018613721 -0.04022687 -0.22518621 0.15345804 0.061795127 0.10572246
-0.10742127 0.19429146 0.024725927 -0.17915305 0.09922896 0.06584612 -0.0294061 0.029038815
0.066357926 0.07111159 0.045740776 0.010819247 -0.04125711 0.033966336 0.13274233 -0.03413747
-0.041299935 -0.07565197 -0.018125433 0.123922996 -0.21366347 0.100638926 -0.107881084 -0.064419195
0.024474675 -0.014323404 -0.060099408 -0.02627944 -0.07512707 -0.021698715 -0.11413344 -0.0048201345
-0.01881565 -0.06489432 -0.1757763 -0.033602666 -0.018730853 -0.055946704 -0.01277673 -0.019603487
0.13488479 0.100535296 0.23927231 -0.06774845 -0.1325999 -0.0825944 -0.031145172 0.061943322
-0.07441216 0.09653079 0.08948323 -0.05510894 0.03261986 -0.06945017 0.084608756 0.12580922
0.1843923 0.08018898 -0.06793327 0.06889897 0.05616316 0.017058693 0.008482725 -0.24222302
-0.12187792 -0.076269604 0.10299428 0.061684422 0.04253267 0.052843206 0.07572572 0.17139876
0.048734646 0.018038789 0.22886777 0.075450264 -0.043499935 -0.15524651 -0.039308757 0.058881655
-0.039795864 -0.05047378 -0.0635667 -0.07773753 -0.039757177 0.0946522 -0.05360864 -0.0008031514
-0.029099317 0.07269006 0.012742895 -0.21512054 -0.0053394362 0.17452101 0.13746224 0.18025163
-0.1388413 -0.09770353 -0.102021486 -0.12590861 0.0009395129 -0.18860275 -0.011482159 0.1132412
0.0676101 -0.1948955 -0.1881253 0.09642858 0.12415519 -0.15729909 0.072673164 -0.06287359
0.0637724 0.033796262 -0.14510721 -0.06885008 -0.13111524 -0.15145764 0.09149807 -0.08171123
-0.13738069 0.032556437 0.025900653 0.06290327 -0.033244118 -0.09440669 0.11632933 0.049566437
0.040152356 0.001973655 -0.0962177 0.1620971 -0.14903514 -0.080725886 0.04030228 0.11344586
-0.17695871 0.033346545 0.02257423 0.030084692 -0.06762951 -0.13227504 0.038732145 0.09378559
-0.11932884 -0.17032953 0.0029580754 0.053440984 -0.07433374 -0.023193413 0.14394985 -0.0013973219
0.018133515 -0.0067056 -0.08089278 -0.022290641 0.17167497 -0.048963208 -0.2145488 0.014269568
0.017203962 0.087314434 -0.10288942 0.039295126 -0.004579233 0.14972614 -0.08535294 -0.0065883333
-0.041140195 0.018750384 0.08762266 -0.20953095 -0.20528838 0.015378158 0.15014388 0.19102699
0.0134623805 0.06078403 0.1687332 0.02280765 -0.010565253 0.05264228 0.17597598 0.14651623
00000000: d31d c8bc e6ab 353d f911 963d afe4 a93d
00000010: 0efb 813d 5808 98bb 1631 4ebd dccd 103e
00000020: f857 ab3d ddef 253d c5ab 06be c900 a43d
00000030: 1bc6 a03d 77b4 113e ce12 d93d a20c 3f3e
00000040: 3e36 303e b724 a13e f895 9dbb 5112 ee3c
00000050: 85dd 35bb e55d 4f3d 6893 39bc 81b4 053e
00000060: c024 143e 048c 96bd c5f5 863d 1091 d2bd
00000070: d803 1a3e 84b3 82bd 75b2 253e ad3f 9bbd
00000080: 6c9c 41be dc4a 1b3d 99d3 163c e9e5 36bc
00000090: b06e 31be 5733 4a3d 217c 183e 760e 2a3d
000000a0: 7c24 59be 13ca 86be 38a4 9cbe 74e5 843d
000000b0: db1e 42bd 23d1 67be ba2a 273e c705 88bd
000000c0: 64e6 883d ffd7 793c a64c 61bd 5244 e8bd
000000d0: 3a85 a8bd ba82 063b 5ce0 1fbd eda4 843d
000000e0: 9f6a 643d 41ee 863d 18b1 a83d a6ff 4b3d
000000f0: 5c1d d73d 9394 66bc 7db5 2a3b c750 cb3c
00000100: 6124 cc3d 418f c13c d42d 4339 eec4 24bd
00000110: 3797 66be 1b24 1d3e e31c 7d3d 0485 d83d
00000120: afff dbbd 57f4 463e 078e ca3c e673 37be
00000130: 8e38 cb3d 55da 863d 10e5 f0bc cfe2 ed3c
00000140: aae6 873d f4a2 913d ae5a 3b3d 3643 313c
00000150: 37fd 28bd 4920 0b3d 9bed 073e bbd3 0bbd
00000160: 1f2a 29bd 6cef 9abd ca7b 94bc 57cb fd3d
00000170: 99ca 5abe c81b ce3d c2f0 dcbd 36ee 83bd
00000180: 1d7f c83c b6ac 6abc cc2a 76bd fb47 d7bc
00000190: 39dc 99bd 81c1 b1bc cbbe e9bd 38f2 9dbb
000001a0: 4723 9abc 50e7 84bd b4fe 33be f3a2 09bd
000001b0: 7271 99bc 5f28 65bd 7d55 51bc 7e97 a0bc
000001c0: 3d1f 0a3e 73e5 cd3d cd03 753e b3bf 8abd
000001d0: 45c8 07be 4127 a9bd 2924 ffbc 48b8 7d3d
000001e0: 6765 98bd efb1 c53d fc42 b73d e9b9 61bd
000001f0: 679c 053d e43b 8ebd 5b47 ad3d 22d4 003e
00000200: 56d1 3c3e 1f3a a43d 9920 8bbd e71a 8d3d
00000210: 570b 663d acbe 8b3c 21fb 0a3c 5009 78be
00000220: 229b f9bd 3d33 9cbd aaee d23d cea8 7c3d
00000230: bd36 2e3d 1e72 583d 1616 9b3d 2883 2f3e
00000240: fb9d 473d 15c6 933c 505c 6a3e ab85 9a3d
00000250: fd2c 32bd f1f8 1ebe 3802 21bd e42d 713d
00000260: fd00 23bd 98bd 4ebd 422f 82bd db34 9fbd
00000270: 6cd8 22bd 03d9 c13d bc94 5bbd 948a 52ba
00000280: b161 eebc 87de 943d 93c7 503c 8f48 5cbe
00000290: 70f6 aebb a3b5 323e e7c2 0c3e e293 383e
000002a0: 6a2c 0ebe ca18 c8bd a4f0 d0bd 30ee 00be
000002b0: a549 763a 1421 41be aa1f 3cbc 01eb e73d
000002c0: 2a77 8a3d b092 47be eba3 40be 597c c53d
000002d0: 1445 fe3d 0313 21be abd5 943d dec3 80bd
000002e0: 1b9b 823d f36d 0a3d fc96 14be 4501 8dbd
000002f0: 1343 06be b617 1bbe 5763 bb3d 3858 a7bd
00000300: 86ad 0cbe e659 053d 9b2d d43c 6ed3 803d
00000310: fc2a 08bd 4b58 c1bd 123e ee3d 2d06 4b3d
00000320: cc76 243d 7058 013b c90d c5bd c8fc 253e
00000330: ab9c 18be 9d53 a5bd 0114 253d 4e56 e83d
00000340: aa34 35be 6396 083d 97ed b83c 2c74 f63c
00000350: 5781 8abd 1c73 07be 99a5 1e3d a912 c03d
00000360: ae62 f4bd dd6a 2ebe 45dc 413b efe4 5a3d
00000370: 4a3c 98bd 1d00 bebc 9767 133e 5826 b7ba
00000380: bd8c 943c a6ba dbbb 1dab a5bd dd9a b6bc
00000390: 90cb 2f3e a58d 48bd aeb2 5bbe e8ca 693c
000003a0: 53ef 8c3c e9d1 b23d b0b7 d2bd edf3 203d
000003b0: 640d 96bb cf51 193e 86cd aebd f2e2 d7bb
000003c0: 9f82 28bd 689a 993c 8273 b33d 488f 56be
000003d0: 1e37 52be abf4 7b3c 51bf 193e 949c 433e
000003e0: 5191 5c3c adf8 783d 65c8 2c3e 1cd7 ba3c
000003f0: e219 2dbc 6e9f 573d 0c33 343e 5a08 163e

linear_layer.4.bias f4 [100]
-0.004422034 -0.0151300635 0.015344108 -0.02495986 -0.07487611 0.011842848 -0.023200985 0.00092417776
0.017190121 0.016334869 0.018300591 -0.029408442 -0.004129846 0.015851643 -0.011634753 -2.970042e-06
0.026530493 -0.0057575214 -0.032384723 0.028902935 0.056614727 -0.019985454 0.011069354 0.016934006
0.016063435 0.013821428 -0.009202793 -0.0066015697 -0.035071105 -0.03110003 0.03806091 0.009363507
-0.011322244 -0.018995393 -0.009965193 -0.03600684 0.023463354 0.0738608 0.015056242 -0.018323902
-0.004196888 -0.0018275563 -0.0036372757 -0.013305919 -0.016718093 -0.0036253813 -0.021599717 -0.005664721
-0.008910102 -0.010444153 -0.0016255688 -0.025077455 0.014093306 0.005278402 -0.02268997 -0.014112023
-0.005856054 -0.021657493 -0.014058468 0.0016004433 -0.005992407 0.03116196 0.00068192725 -0.018101811
-0.0077103213 -0.003267233 0.018315848 -0.020031435 0.017828362 -0.023775734 -0.033161633 0.000715731
-0.0074935528 -0.018182151 0.026703099 -0.030229332 -0.017655993 0.021009991 0.04579408 0.033525556
0.022152124 -0.018394396 0.0400773 0.015464265 -0.04094789 -0.05595839 0.007908364 -0.023776533
-0.0055168383 -0.002781583 0.0147116855 -0.00496291 -0.012403736 0.009272767 0.026721908 -0.0051339604
-0.013134948 -0.008497211 -0.033260185 -0.0028707944
00000000: b6e6 90bb 16e4 77bc db65 7b3c 9f78 ccbc
00000010: a558 99bd 8108 423c fe0f bebc 8544 723a
00000020: 4cd2 8c3c b4d0 853c 1feb 953c f9e9 f0bc
00000030: a953 87bb 4edb 813c b19f 3ebc ef50 47b6
00000040: 7a56 d93c 97a9 bcbb d8a5 04bd d9c5 ec3c
00000050: d8e4 673d 89b8 a3bc 3c5c 353c 2fb9 8a3c
00000060: 7797 833c 4573 623c 50c7 16bc fb51 d8bb
00000070: b8a6 0fbd 7dc5 febc c2e5 1b3d 6569 193c
00000080: ef80 39bc 3a9c 9bbc 0d45 23bc e97b 13bd
00000090: 3836 c03c 5544 973d 75ae 763c 021c 96bc
000000a0: 0c86 89bb 9d8a efba 5c5f 6ebb 1201 5abc
000000b0: 62f4 88bc ce97 6dbb e4f1 b0bc 209f b9bb
000000c0: adfb 11bc f41d 2bbc 0a11 d5ba 3c6f cdbc
000000d0: 9ce7 663c 72f6 ac3b 51e0 b9bc 1d36 67bc
000000e0: 24e4 bfbb 0e6b b1bc 7d55 66bc f7c5 d13a
000000f0: f45b c4bb 5e47 ff3c 5dc3 323a 404a 94bc
00000100: dda6 fcbb 131f 56bb 1e0b 963c f718 a4bc
00000110: c90c 923c 54c5 c2bc 7ed4 07bd e59f 3b3a
00000120: 7a8c f5bb bcf2 94bc 75c0 da3c 81a3 f7bc
00000130: 4da3 90bc 251d ac3c 9392 3b3d 1852 093d
00000140: 5f78 b53c d8af 96bc 1828 243d d45d 7d3c
00000150: fab8 27bd a034 65bd 1592 013c 01c7 c2bc
00000160: 98c6 b4bb 384b 36bb 4809 713c e89f a2bb
00000170: 0a39 4bbc ceec 173c e7e7 da3c c83a a8bb
00000180: f733 57bc e337 0bbc d53b 08bd f023 3cbb

linear_layer.5.weight f4 [100, 100]
0.05957279 0.050758548 0.018505089 0.018888203 -0.047581613 -0.2077557 -0.12967077 -0.052421693
-0.06493114 0.071556665 0.027180798 -0.03157024 -0.11772812 -0.08340594 0.023552295 0.07426049
-0.03633128 -0.072074145 0.07086185 -0.027232172 -0.1877251 0.110683665 0.026743578 0.03207927
-0.13995777 0.092578396 -0.0337977 -0.0068901274 0.0028005745 -0.16946046 0.0682706 0.03358673
0.09450658 -0.01920816 0.16446674 0.03242865 0.08632305 -0.25953794 0.0668219 0.21193682
-0.15204611 -0.13271742 -0.0009243451 0.08667669 -0.06933361 0.09635051 0.080000885 0.14864667
-0.23497443 -0.051863723 -0.1645948 -0.006588328 -0.024967197 0.09664015 0.01592928 0.00885544
0.1121046 -0.10896171 0.052444857 0.13817024 0.016765162 0.045918982 -0.09767757 0.18956928
-0.088038795 -0.16197616 -0.067376636 0.092188805 -0.060086843 -0.12072201 -0.1423703 0.12607488
0.03073595 0.08109105 -0.014720291 -0.106943816 -0.027653176 -0.0295392 0.06668582 0.1295353
-0.060898762 0.06503679 -0.03800748 -0.2578873 0.05181788 -0.1960795 0.19789146 0.084060475
-5.803126e-05 0.035266154 -0.023278493 0.24290116 -0.018137667 -0.27221796 0.069836974 0.025865618
0.098493025 -0.13196951 -0.03743978 0.17306049 -0.09851406 0.08512161 -0.008835329 0.080876246
-0.067308575 0.05814957 0.14109552 0.04725224 -0.033898596 -0.1744216 -0.20654853 0.048218347
-0.09684964 -0.01649141 -0.026918184 -0.09236841 0.01889814 0.16798522 0.10443902 -0.16172579
-0.04284981 -0.03947554 0.057201896 0.14275908 0.078223 0.07554622 0.0664312 0.022598661
0.112348035 0.084509134 0.029321184 0.08483956 -0.045837417 0.0011685739 -0.19654275 0.09164435
0.08721637 -0.12911777 -0.027257977 0.10555815 -0.031808045 -0.12191051 0.14321665 -0.080670774
0.13849482 -0.043786675 0.16131365 0.027738178 0.06790655 0.06505228 -0.014175911 0.22727934
-0.078252904 0.064029455 -0.07672988 0.09585393 -0.121866934 0.15801501 0.21008982 0.062332578
-0.016456084 -0.1059716 0.0024171514 0.10340322 0.12244815 -0.012319345 0.16318552 -0.084081985
-0.17722231 0.046451792 0.1215426 -0.10177736 -0.016988374 0.0033463323 0.0055464795 0.10193616
-0.06700189 -0.014832142 0.034937758 -0.040938627 -0.1214891 -0.012386916 -0.07856466 -0.05434493
-0.09709136 0.108845755 -0.06642336 0.049832355 0.05200634 0.040351436 -0.17568915 0.10255339
0.05093953 -0.082487784 -0.0030732583 -0.0065149325 0.017921774 -0.06867541 0.070141025 -0.12772414
-0.08479379 0.030875068 -0.04536646 -0.14979066 -0.04422567 0.111533076 -0.09368642 -0.18685845
0.07121523 0.01081723 0.03806313 -0.12543365 0.009120077 0.037775557 0.12779291 -0.16289788
0.16179837 0.0025977117 0.017748827 -0.0072906846 0.08964455 -0.072072774 -0.041795786 0.11630543
0.10323702 -0.08657288 -0.109422036 -0.016220957 -0.00760623 0.1796955 0.17664494 -0.021657102
-0.05801743 0.118210375 0.12045105 -0.0149122635 0.1382982 0.16429877 0.099879056 0.15411352
-0.088608555 -0.07613544 -0.13408718 0.08527574 -0.047238953 -0.087790444 0.13964495 -0.119286984
-0.083992444 0.11630898 0.09912603 -0.08112601 -0.13905284 0.02596665 -0.02927143 -0.08505876
00000000: 9902 743d 32e8 4f3d fc97 973c 6fbb 9a3c
00000010: f0e4 42bd e9bd 54be 6ac8 04be 21b8 56bd
00000020: 9efa 84bd 4d8c 923d 44aa de3c cc4f 01bd
00000030: 711b f1bd bcd0 aabd bef0 c03c e215 983d
00000040: 1cd0 14bd 9c9b 93bd 0520 913d 0116 dfbc
00000050: 023b 40be 1eae e23d 5915 db3c 8d65 033d
00000060: 1751 0fbe be99 bd3d 756f 0abd 94c6 e1bb
00000070: d889 373b 0b87 2dbe 75d1 8b3d 3d92 093d
00000080: aa8c c13d 6e5a 9dbc f869 283e e7d3 043d
00000090: 24ca b03d 28e2 84be ecd9 883d f705 593e
000000a0: fab1 1bbe 13e7 07be c04f 72ba 8c83 b13d
000000b0: c8fe 8dbd 6b53 c53d 81d7 a33d d536 183e
000000c0: 239d 70be 0e6f 54bd 8a8b 28be e7e2 d7bb
000000d0: 0288 ccbc 45eb c53d 1f7e 823c 6816 113c
000000e0: 1997 e53d 5127 dfbd 6bd0 563d 807c 0d3e
000000f0: 1857 893c 8b15 3c3d 2e0b c8bd 731e 423e
00000100: af4d b4bd 14dd 25be c3fc 89bd 7ccd bc3d
00000110: 9f1d 76bd 1a3d f7bd 85c9 11be c619 013e
00000120: f6c9 fb3c 1013 a63d 602d 71bc 5c05 dbbd
00000130: ea88 e2bc 31fc f1bc 9392 883d e7a4 043e
00000140: fb70 79bd 0232 853d bbad 1bbd ce09 84be
00000150: fc3e 543d 10c9 48be 0fa4 4a3e e627 ac3d
00000160: 9766 73b8 3e73 103d 8ab2 bebc 15bb 783e
00000170: 7295 94bc 2760 8bbe b006 8f3d 22e4 d33c
00000180: b6b6 c93d 0423 07be 745a 19bd c536 313e
00000190: bdc1 c9bd 3d54 ae3d 0ec2 10bc 72a2 a53d
000001a0: 14d9 89bd 3e2e 6e3d 587b 103e 918b 413d
000001b0: 41d9 0abd 939b 32be 7581 53be 9a80 453d
000001c0: 1b59 c6bd fe18 87bc 8683 dcbc a62b bdbd
000001d0: 46d0 9a3c 5104 2c3e 20e4 d53d 729b 25be
000001e0: 4883 2fbd 1bb1 21bd 894c 6a3d 702f 123e
000001f0: 6133 a03d fab7 9a3d 150d 883d d420 b93c
00000200: ba16 e63d 2013 ad3d fb32 f03c 5dc0 ad3d
00000210: 04c0 3bbd d52a 993a 8142 49be 08b0 bb3d
00000220: 7f9e b23d 7337 04be 1f4c dfbc df2e d83d
00000230: 2749 02bd 38ac f9bd 63a7 123e b836 a5bd
00000240: 96d1 0d3e a859 33bd 682f 253e 2d3b e33c
00000250: 9712 8b3d 213a 853d 1542 68bc eabb 683e
00000260: 0f43 a0bd e021 833d 8e24 9dbd 114f c43d
00000270: 5f95 f9bd b0ce 213e c921 573e 7250 7f3d
00000280: e9ce 86bc a307 d9bd 1269 1e3b 11c5 d33d
00000290: 18c6 fa3d 14d7 49bc 1b1a 273e 2d33 acbd
000002a0: c479 35be 3c44 3e3d 54eb f83d a670 d0bd
000002b0: 342b 8bbc 244e 5b3b 3ebf b53b e8c3 d03d
000002c0: 4938 89bd 8302 73bc e51a 0f3d 43af 27bd
000002d0: 47cf f8bd 7ef2 4abc 82e6 a0bd ca98 5ebd
000002e0: d6d7 c6bd 86ea de3d f808 88bd 031d 4c3d
000002f0: 9a04 553d 8c47 253d dbe7 33be 8307 d23d
00000300: f8a5 503d 5bef a8bd b868 49bb 377b d5bb
00000310: afd0 923c b1a5 8cbd 19a6 8f3d 1eca 02be
00000320: 5ea8 adbd b6ed fc3c 2ed2 39bd b962 19be
00000330: fa25 35bd 746b e43d aade bfbd d257 3fbe
00000340: 4ad9 913d c03a 313c 16e8 1b3d ae71 00be
00000350: 606c 153c 8bba 1a3d 25dc 023e b4ce 26be
00000360: 79ae 253e 5f3e 2a3b fd65 913c b2e6 eebb
00000370: 9097 b73d e49a 93bd 0f32 2bbd 8b31 ee3d
00000380: ee6d d33d 1f4d b1bd a918 e0bd d0e1 84bc
00000390: af3d f9bb 1902 383e 69e2 343e 3c6a b1bc
000003a0: afa3 6dbd 4818 f23d 0aaf f63d 9152 74bc
000003b0: 0b9e 0d3e f03d 283e 648d cc3d efcf 1d3e
000003c0: 6778 b5bd e6ec 9bbd 264e 09be 0ca5 ae3d
000003d0: a27d 41bd 7acb b3bd 16ff 0e3e bc4c f4bd
000003e0: 3b04 acbd 6733 ee3d 9702 cb3d 6525 a6bd
000003f0: de63 0ebe 03b8 d43c a3ca efbc 4a33 aebd
