ac_2d_model_para_1/checkpoint_400.pth (torch, 291130 bytes, 17 tensors)

linear_layer.0.weight f4 [100, 3]
0.1492555 0.15804616 -0.16258885 -0.04685707 -0.07449158 0.094082735 0.08054847 -0.066849545
-0.26542377 0.07582252 -0.03220737 0.20219816 -0.1134011 -0.13496342 -0.30974376 -0.02946099
-0.1700735 -0.12417479 -0.068186864 0.12575111 -0.1142273 -0.016378932 -0.040217288 -0.29054078
0.4458427 0.05310008 0.037534647 -0.11097936 -0.17408918 -0.04737022 0.06340541 -0.21559897
0.15164368 -0.056715805 0.061018817 -0.2165312 0.18350017 -0.006935096 -0.08276251 0.17245907
-0.0125481 0.19340591 0.14531371 0.1523417 0.1982596 -0.14733353 -0.15615566 0.038457934
0.25343913 0.025997592 -0.2803172 -0.16033594 -0.13904065 -0.15854542 -0.14433183 -0.021286592
0.08112541 0.105742864 0.15076977 -0.19611572 0.094887145 -0.1920889 0.06776762 0.28017592
-0.07739893 0.08455606 -0.16226953 -0.14866796 0.039247595 0.08958989 0.026430242 -0.4291108
0.17609629 0.0303097 0.2963801 0.13686527 0.08003995 0.022314262 -0.24896531 -0.21150732
-0.09067354 0.031051869 0.2191847 0.037288275 0.1700051 -0.2027515 0.07068019 0.05539698
-0.006161865 -0.086832225 -0.04151155 -0.151901 -0.12937239 0.24645117 0.019558351 0.27558246
0.09276453 -0.22008313 0.13710348 -0.23398124 0.019150289 -0.12004636 0.06945346 -0.07628112
-0.2553743 0.08272548 -0.13682021 0.20216846 -0.073495194 0.26105377 -0.03072573 0.19786656
0.14159901 0.049088996 -0.02658751 -0.092235856 -0.3652737 -0.08305984 -0.026643915 -0.12630059
0.11088254 0.08726441 -0.11679327 -0.06151202 -0.0076793665 0.097320065 -0.15421645 0.15853775
-0.08769129 0.08510741 -0.0626119 0.18546218 -0.12574942 0.15417922 0.12831834 -0.059813797
-0.10339671 0.13732512 -0.32551885 0.15694441 -0.28264222 0.21204105 0.0034498053 -0.16417302
0.07257468 0.084020935 0.07294001 0.2644339 -0.09303313 -0.10329778 0.13695936 0.11086245
-0.103385344 0.11753211 -0.05275339 -0.106467195 -0.09422343 0.22070247 0.06077304 0.015212664
0.057911642 0.22994733 0.083267845 0.07843595 0.00609299 0.2551484 -0.07256283 0.12865233
0.41573945 0.014149025 -0.0197563 0.24884333 -0.11814696 -0.25955138 0.24294955 0.0129107805
-0.121902235 -0.08446047 -0.1611929 0.20099646 -0.07578393 0.11117365 -0.0074737226 0.009253084
0.19242832 0.017313173 0.21158512 -0.14580832 -0.11408471 0.008704044 0.111119695 -0.17096788
0.31243333 -0.14864676 0.0873295 0.021433832 0.09391083 0.30456448 0.11251469 -0.017736923
-0.3241034 -0.2070635 -0.026051145 0.11913003 0.21580648 -0.11400395 -0.018275864 -0.06043331
0.089495786 0.047483195 -0.16562468 0.013082773 -0.052201547 0.10095454 0.14977832 0.07505698
-0.05946249 0.25646392 -0.10046094 0.06300215 0.14701691 -0.17663792 0.31982273 0.0310037
-0.041627508 -0.03627364 0.2832503 0.14180094 -0.13496748 -0.36705267 0.20294693 -0.28892595
-0.09713545 -0.14176348 -0.00046566364 0.21255307 -0.022920867 0.02107167 -0.17028356 0.045368098
0.11677891 -0.06122856 -0.0039701667 -0.101514354 -0.18999742 -0.08696104 -0.16745053 0.154374
0.04441172 0.13672793 -0.106872365 0.41715056 0.22097552 -0.033300593 -0.24504095 0.16033135
00000000: 6fd6 183e dad6 213e b17d 26be 33ed 3fbd
00000010: 0b8f 98bd 73ae c03d 99f6 a43d 6ae8 88bd
00000020: a0e5 87be d648 9b3d e0eb 03bd 090d 4f3e
00000030: d63e e8bd da33 0abe bc96 9ebe 2d58 f1bc
00000040: bf27 2ebe 5a4f febd 8ea5 8bbd e6c4 003e
00000050: 01f0 e9bd 1c2d 86bc e2ba 24bd c3c1 94be
00000060: 7f45 e43e 787f 593d eebd 193d 2649 e3bd
00000070: 6f44 32be 4707 42bd b2da 813d fac5 5cbe
00000080: 7b48 1b3e d54e 68bd deee 793d 5bba 5dbe
00000090: 78e7 3b3e cd3f e3bb 647f a9bd 1c99 303e
000000a0: 8c96 4dbc 330c 463e 1ecd 143e 76ff 1b3e
000000b0: 9104 4b3e 9ade 16be 45e7 1fbe 1186 1d3d
000000c0: c6c2 813e e7f8 d43c bc85 8fbe 1b2f 24be
000000d0: ac60 0ebe bb59 22be b9cb 13be 3861 aebc
000000e0: 1425 a63d b78f d83d 6463 1a3e 8fd2 48be
000000f0: 3154 c23d f4b2 44be c0c9 8a3d 3873 8f3e
00000100: 5583 9ebd ba2b ad3d fc29 26be 6a3c 18be
00000110: 16c2 203d e77a b73d 3c84 d83c 69b4 dbbe
00000120: 9652 343e 0c4c f83c 22bf 973e 6926 0c3e
00000130: fceb a33d 66cc b63c c3f0 7ebe 6095 58be
00000140: 0db3 b9bd 7d60 fe3c f471 603e 97bb 183d
00000150: d115 2e3e 179e 4fbe c7c0 903d f2e7 623d
00000160: 78e9 c9bb 18d5 b1bd 0408 2abd f08b 1bbe
00000170: 327a 04be b25d 7c3e d638 a03c 2519 8d3e
00000180: 54fb bd3d 795d 61be db64 0c3e c798 6fbe
00000190: 11e1 9c3c deda f5bd 9e3d 8e3d 4739 9cbd
000001a0: 6cc0 82be fa6b a93d 991a 0cbe 4005 4f3e
000001b0: a684 96bd d7a8 853e 87b4 fbbc 889d 4a3e
000001c0: 55ff 103e 8b11 493d 0dce d9bc 27e6 bcbd
000001d0: 2805 bbbe 471b aabd 5744 dabc f154 01be
000001e0: 6316 e33d afb7 b23d 4f31 efbd 07f4 7bbd
000001f0: 32a3 fbbb be4f c73d ebea 1dbe b857 223e
00000200: 7e97 b3bd cb4c ae3d ab3a 80bd cce9 3d3e
00000210: 75c4 00be 28e1 1d3e e265 033e 50ff 74bd
00000220: a7c1 d3bd f59e 0c3e 68aa a6be 09b6 203e
00000230: 7bb6 90be 4a21 593e 2116 623b f91c 28be
00000240: 09a2 943d 2b13 ac3d 9261 953d e163 873e
00000250: 2788 bebd c98d d3bd 133f 0c3e da0b e33d
00000260: b2bb d3bd adb4 f03d f013 58bd 790b dabd
00000270: 37f8 c0bd d4ff 613e 27ed 783d 8a3e 793c
00000280: c234 6d3d 5077 6b3e 5588 aa3d 07a3 a03d
00000290: b4a7 c73b d0a2 823e d29b 94bd 70bd 033e
000002a0: cddb d43e 50d1 673c f7d7 a1bc c9d0 7e3e
000002b0: 09f7 f1bd ebe3 84be c4c7 783e bd87 533c
000002c0: e1a7 f9bd 9cf9 acbd c00f 25be 04d2 4d3e
000002d0: 9b34 9bbd 03af e33d 21e6 f4bb 3f9a 173c
000002e0: ee0b 453e 5bd4 8d3c c5a9 583e c74e 15be
000002f0: 3fa5 e9bd 689b 0e3c b992 e33d 3412 2fbe
00000300: 43f7 9f3e db36 18be cfd9 b23d 0196 af3c
00000310: 5254 c03d e0ef 9b3e 1a6e e63d 064d 91bc
00000320: e1f0 a5be 7408 54be 3669 d5bc 72fa f33d
00000330: 60fc 5c3e e77a e9bd 44b7 95bc eb88 77bd
00000340: 9149 b73d bd7d 423d 8499 29be 2159 563c
00000350: 4ad1 55bd 41c1 ce3d 7d5f 193e 79b7 993d
00000360: f18e 73bd 3d4f 833e 77be cdbd 4507 813d
00000370: 9a8b 163e 92e0 34be cebf a33e 79fb fd3c
00000380: 9b81 2abd ab93 14bd 2f06 913e 4434 113e
00000390: ea34 0abe 54ee bbbe 52d1 4f3e 1aee 93be
000003a0: f3ee c6bd 722a 11be 5124 f4b9 83a7 593e
000003b0: 8bc4 bbbc 7f9e ac3c d05e 2ebe e6d3 393d
000003c0: c829 ef3d ccca 7abd 2c18 82bb c2e6 cfbd
000003d0: af8e 42be a118 b2bd 2778 2bbe 3814 1e3e
000003e0: 10e9 353d 6802 0c3e e6df dabd c294 d53e
000003f0: 6847 623e 3466 08bd 04ec 7abe e72d 243e

linear_layer.0.bias f4 [100]
-0.0073811198 -0.036368422 0.1040121 -0.012571907 0.023025569 -0.026850488 0.04014863 0.07491796
-0.09913692 0.034013737 0.034587163 -0.056096904 0.053004354 0.06709316 0.021501457 -0.004951647
-0.07410341 0.0077452823 -0.01202495 0.010917758 -0.046674155 -0.02145772 -0.025592728 0.029628994
0.017183257 0.06982067 0.05036816 -0.009871081 0.028402016 -0.045876954 -0.041754175 -0.04407064
0.05361267 -0.03677238 -0.043846723 0.030283615 -0.0084295375 -0.06737406 0.10399471 0.052824017
0.049187195 -0.023650141 0.059173703 -0.09495979 0.01592601 -0.05154531 -0.04376605 -0.00022752078
-0.047785826 -0.07439223 0.08191547 0.03530472 -0.0012704746 -0.10143705 0.05237658 0.053146258
-0.0076460917 0.00036284057 -0.005279175 -0.008088743 -0.059373733 -0.0005134043 -0.017802415 0.06737212
-0.06248152 0.051154766 -0.077452414 -0.012130834 -0.04650947 0.06422997 0.044651486 -0.031988308
-0.05410856 0.099814564 0.0040165423 0.027569596 -0.023029428 0.027809868 -0.07084502 -0.0094542615
0.07897721 0.050042987 -0.037398428 -0.009220162 0.013400966 0.0057053566 0.045315515 0.08880192
-0.076462656 -0.058536418 -0.064777166 -0.117962554 -0.045085322 0.081269965 -0.018023938 0.031502668
0.086089246 0.033381063 -0.041465275 0.01805579
00000000: 52dd f1bb 0ef7 14bd 4c04 d53d 66fa 4dbc
00000010: 1ea0 bc3c 8ef5 dbbc e472 243d 966e 993d
00000020: 4c08 cbbd fd51 0b3d 45ab 0d3d dec5 65bd
00000030: 181b 593d 2368 893d d323 b03c 6d41 a2bb
00000040: 87c3 97bd 23cc fd3b 4c04 45bc 65e0 323c
00000050: 662d 3fbd 1ac8 afbc d7a7 d1bc 81b8 f23c
00000060: e7c3 8c3c 24fe 8e3d d84e 4e3d 51ba 21bc
00000070: 58ab e83c 79e9 3bbd 6d06 2bbd 6a83 34bd
00000080: f698 5b3d a39e 16bd 9f98 33bd 5815 f83c
00000090: 0b1c 0abc 69fb 89bd 2efb d43d ff5d 583d
000000a0: 8378 493d f1bd c1bc 2060 723d 477a c2bd
000000b0: 4477 823c 2d21 53bd 0844 33bd a592 6eb9
000000c0: 12bb 43bd f45a 98bd 4cc3 a73d af9b 103d
000000d0: 0e86 a6ba 3abe cfbd d388 563d e4af 593d
000000e0: 118c fabb a33b be39 eefc acbb a686 04bc
000000f0: df31 73bd fb95 06ba 5fd6 91bc 65fa 893d
00000100: 9fec 7fbd a987 513d 5f9f 9ebd 68c0 46bc
00000110: b780 3ebd 018b 833d 7ae4 363d 2c06 03bd
00000120: f0a0 5dbd 946b cc3d 339d 833b a2d9 e13c
00000130: 36a8 bcbc 85d1 e33c 3217 91bd 0ce6 1abc
00000140: cebe a13d e0f9 4c3d 182f 19bd 2a10 17bc
00000150: ba8f 5b3c 00f4 ba3b c39c 393d c8dd b53d
00000160: 7498 9cbd e2c3 6fbd e4a9 84bd 5a96 f1bd
00000170: 63ab 38bd de70 a63d f0a6 93bc f108 013d
00000180: 8f4f b03d 95ba 083d 7ed7 29bd bce9 933c

linear_layer.1.weight f4 [100, 100]
0.058153994 0.14367497 -0.046410237 -0.019773783 -0.012059018 0.007620331 0.10533109 0.0688423
0.16229337 -0.14242256 -0.07885189 0.0015345736 -0.17032714 -0.049479283 0.064674385 0.06833245
-0.2180414 -0.1500269 0.15969262 0.0061291503 -0.096741065 0.10923074 0.03214079 0.1665512
-0.06016535 0.010605646 -0.07705294 -0.019445715 -0.23628326 -0.09924187 -0.011552434 0.012204597
-0.041002702 0.19850947 -0.08379514 -0.061366178 -0.09236978 -0.023554962 0.14051895 -0.1275269
0.060253154 0.070277825 -0.13214639 -0.07015387 -0.0013962331 -0.04196784 0.050327063 0.08629656
-0.010135471 0.11996528 0.00021443296 -0.2692965 0.11137623 0.07404012 -0.02911465 -0.20755076
-0.077141866 -0.0712078 0.21848541 0.16774742 0.0061956705 0.05923096 -0.007069134 -0.1514708
-0.030116325 0.1841567 -0.022243371 0.012478204 0.021095747 -0.0840748 0.023390595 0.09012263
-0.07418723 0.05164667 -0.20059103 0.0263044 -0.040786665 0.010178637 -0.18006873 -0.120210126
-0.013163059 -0.0032847794 -0.033264916 -0.097088486 0.07394035 0.12319725 -0.017535524 -0.0677894
0.092673235 0.09941683 -0.01999684 0.114014596 -0.09351191 -0.053183522 -0.0107876845 -0.097146325
-0.05498575 -0.0136375455 -0.13563578 -0.07620731 0.03772948 0.23901898 -0.04591095 0.06475103
-0.013770065 -0.14427191 0.11143858 -0.2862251 -0.04965885 -0.055312384 -0.054341137 0.040507015
0.08215805 0.107333496 0.12588242 -0.13071078 -0.039295483 -0.26117313 0.023499034 0.17767222
-0.08858741 -0.017126393 0.05162103 0.12024744 0.17191647 0.02717336 -0.07605895 0.10181534
-0.11170052 -0.06827387 -0.033338297 -0.116381116 0.18509422 -0.098507345 -0.08439486 0.042895667
0.17143346 0.007394847 -0.024224008 -0.089602165 0.1826993 -0.088979825 0.1036497 -0.13415848
0.17969339 -0.20903811 -0.26822197 -0.07093182 0.02931126 -0.0717241 -0.048052266 -0.039830897
0.06894326 -0.15507519 -0.08442428 0.09234474 0.012443559 -0.06044256 -0.12323945 -0.03039616
0.12707034 -0.107894376 -0.0032617738 0.03292532 -0.12282437 0.12206718 -0.027952608 -0.17719056
-0.35322368 0.18281545 -0.030408865 0.06314586 0.033950597 0.10938301 0.1029771 0.16477922
0.02314017 0.011938116 -0.124514565 0.070968874 0.19791439 -0.19066639 -0.050119773 0.08233144
0.016842894 -0.1049942 0.027552038 0.011974853 0.036878996 -0.1270687 0.0768129 -0.12403912
0.0037572917 -0.084751904 0.13707283 -0.1424633 0.13554502 0.12452231 -0.101214685 0.20000303
-0.09529004 -0.063979074 0.11097701 -0.03705639 -0.13695124 0.037938476 -0.023986975 0.14657067
-0.14555109 -0.03768708 0.07766374 0.01937996 -0.04018941 0.054853108 0.04134963 -0.043918096
-0.0054642777 0.11185995 -0.2255714 -0.15257101 0.066615455 0.09242713 0.018742133 -0.12774524
-0.13497773 -0.1457718 0.032176197 0.08676157 -0.04116107 0.09854738 -0.13605985 -0.016754942
0.028048035 -0.0733245 0.013151139 0.006532803 -0.09624534 -0.07061106 -0.068640664 -0.0035496524
0.24988504 0.15064421 -0.0176272 0.13046554 -0.12252788 0.12814417 0.09747287 -0.09751516
-0.059337594 -0.08636418 0.070780255 0.018669175 -0.040013105 -0.063270986 -0.13041383 -0.007862323
00000000: e232 6e3d 881f 133e a918 3ebd a1fc a1bc
00000010: 3093 45bc f8b3 f93b d4b7 d73d 31fd 8c3d
00000020: 3c30 263e 38d7 11be 1a7d a1bd bf23 c93a
00000030: 3d6a 2ebe caaa 4abd 0174 843d e2f1 8b3d
00000040: 3f46 5fbe a7a0 19be 7686 233e 0ad7 c83b
00000050: 2e20 c6bd 5eb4 df3d 10a6 033d 668c 2a3e
00000060: f16f 76bd 4ec3 2d3c efcd 9dbd 9f4c 9fbc
00000070: 3df4 71be 523f cbbd 6c46 3dbc caf5 473c
00000080: 73f2 27bd 1146 4b3e c99c abbd 1a5b 7bbd
00000090: 5e2c bdbd 56f6 c0bc 33e4 0f3e 6996 02be
000000a0: 03cc 763d d2ed 8f3d 6251 07be d5ac 8fbd
000000b0: cf01 b7ba 78e6 2bbd c023 4e3d 40bc b03d
000000c0: 3f0f 26bc 5bb0 f53d 69d9 6039 3be1 89be
000000d0: 3919 e43d 59a2 973d d981 eebc 3088 54be
000000e0: 8efc 9dbd 65d5 91bd a4ba 5f3e fbc5 2b3e
000000f0: 0d05 cb3b 2a9c 723d 32a4 e7bb 291b 1bbe
00000100: 83b6 f6bc 9393 3c3e bb37 b6bc 6271 4c3c
00000110: fdd0 ac3c 692f acbd a29d bf3c 3792 b83d
00000120: 79ef 97bd 758b 533d bc67 4dbe 537c d73c
00000130: eb0f 27bd 4cc4 263c f063 38be ba30 f6bd
00000140: dfa9 57bc 7445 57bb cb40 08bd 54d6 c6bd
00000150: 0a6e 973d d74e fc3d a9a6 8fbc 2bd5 8abd
00000160: 77cb bd3d 0d9b cb3d 6ad0 a3bc 7c80 e93d
00000170: 2c83 bfbd f7d6 59bd d4be 30bc a7f4 c6bd
00000180: bd38 61bd 0370 5fbc 1be4 0abe 9412 9cbd
00000190: 3a8a 1a3d 64c1 743e 1f0d 3cbd 309c 843d
000001a0: d79b 61bc 04bc 13be e939 e43d 198c 92be
000001b0: 1467 4bbd 3d8f 62bd d094 5ebd afea 253d
000001c0: 7b42 a83d aad1 db3d 52e7 003e 0cd9 05be
000001d0: 4df4 20bd 7cb8 85be 0c81 c03c b5ef 353e
000001e0: 516d b5bd a64c 8cbc 9370 533d 4a44 f63d
000001f0: df0a 303e ab9a de3c cbc4 9bbd 9084 d03d
00000200: 3ec3 e4bd 2cd3 8bbd bd8d 08bd 3959 eebd
00000210: 5789 3d3e 38be c9bd 36d7 acbd 5eb3 2f3d
00000220: 418c 2f3e 7950 f23b 6d71 c6bc 5781 b7bd
00000230: 8615 3b3e 0e3b b6bd 4b46 d43d d760 09be
00000240: 8b01 383e 160e 56be 6454 89be b444 91bd
00000250: 2b1e f03c 16e4 92bd 74d2 44bd b925 23bd
00000260: 2032 8d3d 08cc 1ebe a3e6 acbd 3d1f bd3d
00000270: 12e0 4b3c 9e92 77bd f764 fcbd 5e01 f9bc
00000280: ba1e 023e baf7 dcbd 7cc3 55bb b3dc 063d
00000290: 588b fbbd 5cfe f93d defc e4bc 7171 35be
000002a0: bcd9 b4be f933 3b3e 031c f9bc 9e52 813d
000002b0: c80f 0b3d 3304 e03d a8e5 d23d e2bb 283e
000002c0: 7490 bd3c 1698 433c 7e01 ffbd 2158 913d
000002d0: 12aa 4a3e 0d3e 43be 644a 4dbd 639d a83d
000002e0: 1cfa 893c 3307 d7bd d0b4 e13c 2d32 443c
000002f0: 6e0e 173d 4c1e 02be 1550 9d3d 3908 febd
00000300: e53c 763b 6892 adbd d25c 0c3e e6e1 11be
00000310: 50cc 0a3e 8e05 ff3d a549 cfbd 98cd 4c3e
00000320: 6d27 c3bd 7607 83bd ea47 e33d 71c8 17bd
00000330: f23c 0cbe 6065 1b3d 5580 c4bc 9f16 163e
00000340: 580b 15be c55d 1abd 2b0e 9f3d b9c2 9e3c
00000350: a79d 24bd a7ad 603d 3b5e 293d 76e3 33bd
00000360: af0d b3bb d416 e53d 30fc 66be 933b 1cbe
00000370: af6d 883d 6f4a bd3d 1a89 993c a6cf 02be
00000380: 9a37 0abe 3445 15be 30cb 033d 0db0 b13d
00000390: 8398 28bd 35d3 c93d 4653 0bbe a941 89bc
000003a0: fec4 e53c 282b 96bd e077 573c 2011 d63b
000003b0: 471c c5bd 889c 90bd 7a93 8cbd 49a1 68bb
000003c0: dde1 7f3e 7a42 1a3e eb66 90bc c298 053e
000003d0: e6ef fabd 3a38 033e db9f c73d 07b6 c7bd
000003e0: fa0b 73bd b4df b0bd 3df5 903d 19f0 983c
000003f0: c8e4 23bd 3894 81bd 348b 05be f9d0 00bc

linear_layer.1.bias f4 [100]
-0.03367903 0.0653261 -0.010912594 0.08986707 -0.019943878 -0.019519867 -0.056783177 0.09007608
-0.0661025 0.003669935 -0.052214783 -0.028251715 0.056360703 0.08392912 -0.0380463 -0.01490772
-0.007060089 0.06807371 0.01190401 -0.04692425 -0.025837634 0.02985838 -0.011939897 0.038461477
0.032158446 0.013288791 0.06431123 -0.039178032 -0.05386163 -0.024279715 -0.07005705 0.025225425
0.006255044 -0.011641987 -0.037329573 0.02680373 0.07111051 -0.05478152 -0.004286528 -0.030124782
-0.059475247 -0.055293366 0.021147914 0.083603255 -0.045173556 0.0037539667 -0.0011760157 -0.04776667
-0.0015071617 -0.0587108 -0.021129392 0.030898118 0.0075411247 -0.042192053 0.009581682 0.044476166
0.07071588 -0.04330805 0.006417277 0.036225814 -0.037890416 0.0039594215 0.011441246 0.08387699
0.009279904 0.036801793 -0.042160835 -0.0005443395 -0.031089589 -0.07855191 -0.054052353 0.008074315
-0.03238298 -0.028344618 0.039894287 0.011628695 0.051760674 -0.036417846 0.048546996 -0.029680492
-0.0973826 -0.012340441 0.009078337 -0.019864023 0.052969296 -0.00013699073 0.01590677 0.030734358
0.08035351 -0.0052308296 -0.04694796 -0.058721498 0.0063438276 0.018340679 0.02345103 0.010784373
0.042789806 -0.011411921 -0.010548934 0.021777995
00000000: 06f3 09bd b1c9 853d bdca 32bc 3a0c b83d
00000010: 5861 a3bc 21e8 9fbc 7a95 68bd cf79 b83d
00000020: bf60 87bd 4b83 703b 2bdf 55bd 2470 e7bc
00000030: 7bda 663d 08e3 ab3d 70d6 1bbd 823f 74bc
00000040: 5258 e7bb 3b6a 8b3d 0909 433c a433 40bd
00000050: 72a9 d3bc 9099 f43c 8f9f 43bc c889 1d3d
00000060: 93b8 033d 3bb9 593c 9bb5 833d 2579 20bd
00000070: 039e 5cbd 41e6 c6bc 127a 8fbd 8da5 ce3c
00000080: 1df7 cc3b 08be 3ebc e5e6 18bd 7f93 db3c
00000090: 63a2 913d 9662 60bd 0176 8cbb 3fc8 f6bc
000000a0: 519c 73bd 4c7b 62bd 643e ad3c 2f38 ab3d
000000b0: e807 39bd 1c05 763b 8a24 9aba fca6 43bd
000000c0: f48b c5ba bc7a 70bd 8c17 adbc 0d1e fd3c
000000d0: 8a1b f73b 93d1 2cbd 7dfc 1c3c a42c 363d
000000e0: 7dd3 903d c863 31bd 0548 d23b 8561 143d
000000f0: fb32 1bbd 09be 813b 1074 3b3c b3c7 ab3d
00000100: bd0a 183c 7abd 163d d7b0 2cbd 01b2 0eba
00000110: 98af febc d3df a0bd 0066 5dbd 224a 043c
00000120: 04a4 04bd f932 e8bc 3168 233d 4886 3e3c
00000130: 0003 543d e12a 15bd 37d9 463d 8124 f3bc
00000140: 8770 c7bd 902f 4abc 4ebd 143c e0b9 a2bc
00000150: 55f6 583d 2ba5 0fb9 ea4e 823c 9fc6 fb3c
00000160: 6290 a43d 6167 abbb 814c 40bd f485 70bd
00000170: e2df cf3b 313f 963c 601c c03c f0b0 303c
00000180: 5d44 2f3d 11f9 3abc 70d5 2cbc c467 b23c

linear_layer.2.weight f4 [100, 100]
-0.062644154 0.022591649 0.066176064 -0.17674865 0.07873094 -0.046068445 0.051689498 -0.08017758
0.08311326 -0.045543533 -0.0578048 0.042808186 -0.033107188 -0.09342017 0.025741355 -0.14095026
0.043084428 -0.06530426 -0.044022143 0.12845482 0.022913167 0.054750927 -0.057690922 -0.07099755
-0.13482851 0.0029744846 -0.19402671 -0.03022231 -0.008736716 0.0025962372 0.042790744 0.025296925
-0.0062346356 0.0061371243 0.02662973 0.0054133656 -0.015001164 0.24157973 0.022450225 -0.069160454
0.13423896 0.15728022 0.07615866 0.03450519 0.11431715 -0.031437222 0.13082843 0.033458766
-0.13789594 0.11099689 -0.0013549268 0.06358245 -0.12686293 0.037633106 -0.113726765 -0.042708576
-0.32099667 0.035338275 0.094215356 0.014662685 -0.028334599 -0.01057116 -0.007900652 -0.008699872
0.053876758 0.118091896 0.04053233 -0.057552144 0.06681952 0.018205741 0.23559712 0.25508237
0.015261339 -0.11707239 -0.18913269 0.03623134 -0.0106297415 -0.029487597 -0.08330549 0.08502365
-0.09642341 0.059591886 0.028872555 0.08689661 0.24514002 -0.13909955 0.15962893 -0.27059305
-0.07000012 -0.10359029 0.03443954 0.12132115 -0.005362003 -0.11881911 -0.04023658 -0.020421743
-0.06781152 0.023661705 0.014361916 0.056589212 -0.040993065 0.021070998 -0.028680328 -0.2957343
-0.018304693 0.053044517 0.055868 -0.21632315 0.03796217 -0.12345982 0.10182997 -0.13618605
-0.05463172 -0.27311224 -0.10593929 0.011798419 0.011800054 -0.029863209 0.075494945 0.06997622
0.08523146 0.13083078 -0.025802415 -0.0460172 0.048900098 0.07399519 -0.21165586 0.07660482
0.012961727 -0.0048226635 0.089486934 -0.15002944 0.24018759 0.09307836 -0.06980729 -0.08177048
0.023738356 0.049167287 0.2392519 0.016699549 0.18098393 -0.016812399 0.14605527 0.045068514
0.12285075 0.15546447 -0.13277934 0.025215438 -0.19617586 0.037593283 -0.067242265 -0.17419514
0.07609836 0.055940777 0.23089628 0.14578864 -0.064870216 -0.009892671 -0.05267207 -0.08293703
0.031386074 0.14932321 0.2256461 -0.028529974 -0.23582633 -0.077415906 -0.027108157 0.006128324
0.012979851 0.016294863 -0.04537048 0.05245218 0.021129712 -0.120982304 0.053142603 -0.08698085
0.013159512 0.093263604 0.005952518 0.07431931 -0.009438596 -0.08986209 -0.1043827 -0.17321986
-0.029175892 0.12052682 0.04162595 -0.11452374 0.009078613 -0.0740892 0.0076826387 0.06777472
0.027437925 -0.13815272 -0.017955352 -0.070188195 0.05784064 0.050794207 0.032792933 -0.013053726
-0.02812307 -0.09258991 -0.036099736 0.0373466 0.17596212 -0.08854881 0.07906783 0.024556339
-0.0461446 0.1871714 -0.15820101 -0.14899549 -0.09012075 -0.15980858 -0.04609901 0.054775514
0.19793625 0.07516507 -0.1629962 0.0075607416 -0.1341539 0.09581531 -0.27128634 0.09811641
-0.083997674 -0.06878126 0.089965336 0.018151717 -0.13224596 0.04941735 -0.147894 0.06518728
-0.061394703 0.013151816 -0.022547122 0.09083595 -0.05643601 -0.1496595 0.0065852297 0.06543963
-0.13144746 0.025549112 -0.12531991 -0.012516364 0.026844447 -0.063015044 -0.021305809 0.016991096
-0.055339754 -0.031470325 -0.12906387 0.04602411 -0.13073823 0.022490751 0.04510276 0.04955023
00000000: 944b 80bd 1f12 b93c 5187 873d 99fd 34be
00000010: b03d a13d 44b2 3cbd 5eb8 533d 2534 a4bd
00000020: 4937 aa3d db8b 3abd bac4 6cbd a357 2f3d
00000030: 679b 07bd 1353 bfbd 89df d23c 4455 10be
00000040: 4c79 303d 3dbe 85bd 9050 34bd a989 033e
00000050: 65b4 bb3c 8242 603d 514d 6cbd 2a67 91bd
00000060: 7c10 0abe 92ef 423b f0ae 46be c794 f7bc
00000070: 7124 0fbc a225 2a3b 5945 2f3d 7f3b cf3c
00000080: ea4b ccbb ee19 c93b 9726 da3c 9a62 b13b
00000090: 71c7 75bc ad60 773e 89e9 b73c ffa3 8dbd
000000a0: f075 093e 110e 213e 12f9 9b3d 5055 0d3d
000000b0: 1c1f ea3d 51c4 00bd e3f7 053e 0f0c 093d
000000c0: 9834 0dbe 5652 e33d cd97 b1ba 8437 823d
000000d0: 5be8 01be 2c25 1a3d 94e9 e8bd 30ef 2ebd
000000e0: ad59 a4be debe 103d fbf3 c03d c23b 703c
000000f0: f61d e8bc a932 2dbc bc71 01bc e889 0ebc
00000100: e0ad 5c3d 2ada f13d 3a05 263d ccbb 6bbd
00000110: acd8 883d 3524 953c 5f40 713e 289a 823e
00000120: b20a 7a3c a6c3 efbd 00ac 41be 5067 143d
00000130: 5e28 2ebc f98f f1bc 129c aabd e120 ae3d
00000140: a379 c5bd 9f16 743d 2386 ec3c daf6 b13d
00000150: fc05 7b3e 1d70 0ebe c475 233e 2c8b 8abe
00000160: 395c 8fbd 2527 d4bd 7a10 0d3d 3977 f83d
00000170: beb3 afbb 6f57 f3bd 1dcf 24bd 804b a7bc
00000180: c4e0 8abd 31d6 c13c 3e4e 6b3c 17ca 673d
00000190: 58e8 27bd 169d ac3c 02f3 eabc 7c6a 97be
000001a0: b9f3 95bc 3545 593d d8d5 643d d183 5dbe
000001b0: 387e 1b3d 81d8 fcbd 3b8c d03d 5b74 0bbe
000001c0: 83c5 5fbd 5ed5 8bbe b3f6 d8bd 284e 413c
000001d0: 0455 413c b0a3 f4bc 189d 9a3d b14f 8f3d
000001e0: d58d ae3d 81f8 053e 965f d3bc 887c 3cbd
000001f0: 784b 483d ca8a 973d 50bc 58be fde2 9c3d
00000200: 6c5d 543c 6f07 9ebb ed44 b73d 51a1 19be
00000210: bcf3 753e de9f be3d 20f7 8ebd 4877 a7bd
00000220: f176 c23c a363 493d 73fe 743e 7ecd 883c
00000230: da53 393e 28ba 89bc 838f 153e c399 383d
00000240: 2d99 fb3d 1432 1f3e 4ff7 07be 9b90 ce3c
00000250: 53e2 48be 6afb 193d 50b6 89bd 3660 32be
00000260: 75d9 9b3d 2822 653d 1370 6c3e 9e49 153e
00000270: adda 84bd df14 22bc abbe 57bd e4da a9bd
00000280: af8e 003d 2fe8 183e c50f 673e b1b7 e9bc
00000290: 757c 71be 3b8c 9ebd ed11 debc 1cd0 c83b
000002a0: 71a9 543c ce7c 853c 65d6 39bd 19d8 563d
000002b0: 3818 ad3c 92c5 f7bd 0fac 593d 0423 b2bd
000002c0: fe9a 573c fd00 bf3d 570d c33b b934 983d
000002d0: 57a4 1abc 9e09 b8bd 99c6 d5bd 8c60 31be
000002e0: 4802 efbc c4d6 f63d f97f 2a3d 6c8b eabd
000002f0: 76be 143c 14bc 97bd a5be fb3b 79cd 8a3d
00000300: 80c5 e03c e877 0dbe 1a17 93bc d4be 8fbd
00000310: 4fea 6c3d 960d 503d e251 063d 4cdf 55bc
00000320: 5a62 e6bc c79f bdbd 51dd 13bd c0f8 183d
00000330: 6a2f 343e 1459 b5bd 51ee a13d 602a c93c
00000340: 1f02 3dbd dca9 3f3e 72ff 21be 4692 18be
00000350: 3a91 b8bd dca4 23be 51d2 3cbd 4a5c 603d
00000360: cdaf 4a3e 25f0 993d 7ae8 26be 19c0 f73b
00000370: a45f 09be d13a c43d 0be6 8abe 42f1 c83d
00000380: f906 acbd 30dd 8cbd bf3f b83d e9b2 943c
00000390: 7c6b 07be d969 4a3d 8671 17be e980 853d
000003a0: 0379 7bbd b77a 573c beb4 b8bc 3308 ba3d
000003b0: 7229 67bd 5740 19be e9c8 d73b 3605 863d
000003c0: 2a9a 06be 5f4c d13c dd53 00be 7011 4dbc
000003d0: e3e8 db3c 080e 81bd 8589 aebc e930 8b3c
000003e0: f0ab 62bd 07e7 00bd 5229 04be c783 3c3d
000003f0: 3ee0 05be 863e b83c acbd 383d 2ff5 4a3d

linear_layer.2.bias f4 [100]
-0.046611976 -0.013841908 0.011005171 0.008805157 0.013988192 0.035587028 0.03490496 0.008384727
0.024669908 0.029919013 -0.032445874 -0.04873289 -0.06323743 0.058177903 -0.026959158 -0.011577864
-0.04352057 0.053055394 0.008762624 -0.024776686 -0.06583437 -0.03587153 -0.014152868 0.06199926
0.026273744 -0.03002908 -0.034148823 -0.0590838 0.022040626 -0.04196295 -0.05680404 -0.025723316
0.00050727604 0.009519527 -0.019399306 -0.049357165 -0.011175077 -0.04643992 -0.019331563 -0.008495992
-0.022755638 -0.05797512 -0.018764544 0.022716817 0.008654747 0.0039137607 -0.0017789487 0.0073802443
0.020126041 0.020741453 -0.019445503 0.0021560113 0.05211693 0.032752126 0.04746622 -0.03353679
-0.034767766 -0.009207495 0.014697499 -0.04720768 -0.0057834685 0.037741795 0.02145079 -0.013530362
-0.02410765 -0.00032942256 -0.017318597 -0.0011347767 0.0018008662 0.0044234614 -0.0014065611 -0.012700077
-0.016180558 -0.009612276 -0.035951797 -0.050262373 -0.01093328 0.008524462 0.022518622 -0.036013603
-0.03708763 -0.0036800548 -0.022789842 -0.025016595 0.041834008 0.037461694 0.022464009 0.07800271
-0.030101597 0.003413701 0.006487022 0.017109657 -0.01981748 -0.07497326 0.005816849 -0.047522813
-0.010290743 0.015612388 -0.03702564 -0.021535056
00000000: 33ec 3ebd 2cc9 62bc 084f 343c 8143 103c
00000010: bb2e 653c b4c3 113d 81f8 0e3d 1860 093c
00000020: 8c18 ca3c b818 f53c f7e5 04bd 249c 47bd
00000030: a082 81bd f44b 6e3d 74d9 dcbc 15b1 3dbc
00000040: a042 32bd 9d50 593d 1c91 0f3c 7af8 cabc
00000050: 2cd4 86bd 07ee 12bd 6ee1 67bc f0f2 7d3d
00000060: 093c d73c 8cff f5bc a3df 0bbd db01 72bd
00000070: 8b8e b43c 58e1 2bbd 5aab 68bd b4b9 d2bc
00000080: b8fa 043a caf7 1b3c 4beb 9ebc bd2a 4abd
00000090: ac17 37bc c937 3ebd 3a5d 9ebc c632 0bbc
000000a0: 086a babc 5277 6dbd 1ab8 99bc 9e18 ba3c
000000b0: a4cc 0d3c 013f 803b 9d2b e9ba fad5 f13b
000000c0: 5edf a43c fbe9 a93c 2d4c 9fbc de4b 0d3b
000000d0: 9078 553d 1827 063d f06b 423d e05d 09bd
000000e0: a568 0ebd 08db 16bc c7cd 703c d75c 41bd
000000f0: 4083 bdbb 2497 1a3d 91b9 af3c 74ae 5dbc
00000100: 687d c5bc 59b6 acb9 bbdf 8dbc cabc 94ba
00000110: 0b0b ec3a aff2 903b 5c5c b8ba fc13 50bc
00000120: 178d 84bc cf7c 1dbc 3142 13bd ebdf 4dbd
00000130: 8021 33bc 2faa 0b3c f978 b83c 0083 13bd
00000140: 33e9 17bd 132d 71bb c3b1 babc 9aef ccbc
00000150: 235a 2b3d 6f71 193d 7106 b83c e3bf 9f3d
00000160: a097 f6bc 66b8 5f3b 1691 d43b 8d29 8c3c
00000170: 4558 a2bc 958b 99bd 449b be3b 48a7 42bd
00000180: 819a 28bc 1acb 7f3c 33a8 17bd 496a b0bc

linear_layer.3.weight f4 [100, 100]
-0.15012081 0.09386025 -0.042680457 0.08584424 -0.014723318 -0.039019894 0.04213452 0.046186622
0.01867218 -0.06353464 -0.13910706 0.072178915 -0.10880569 0.2360455 -0.04217098 0.037374835
-0.23420432 0.0882753 -0.095468946 0.014324556 -0.11172401 -0.11714937 -0.049086004 0.14047167
-0.003369362 0.06270353 0.004350017 -0.061399557 0.21463145 0.003671453 -0.08249151 0.0058054556
-0.109233186 -0.043451585 -0.04982029 -0.021877803 -0.3207151 -0.18381917 0.028266644 -0.124165766
0.17126852 -0.18916725 -0.117231816 0.06127173 0.040681817 -0.009165306 0.054375604 0.1609054
-0.25400856 0.10492818 0.06283037 -0.05965804 -0.017940074 0.15095331 0.19828331 0.005657621
0.09129156 -0.15423922 -0.15640429 -0.1308708 -0.020502392 -0.12413844 0.014070145 -0.13595292
0.09841932 0.011305257 0.061350852 0.027831294 0.10008271 -0.041640352 0.19994617 -0.054995306
0.092486635 0.07126955 0.17788811 0.10337787 -0.07282345 -0.011119099 -0.007853665 -0.030334774
-0.0020914595 0.12289276 -0.02027102 -0.023345565 0.24331845 -0.12328556 0.031497132 -0.032582287
-0.10439485 0.02722207 -0.17828411 0.22877073 -0.00636146 0.08722824 0.022768725 0.13874412
0.07411264 0.023410639 -0.116329625 -0.044222727 0.17252453 -0.003977545 0.0061097243 -0.12845153
0.02436289 0.023489058 -0.11619356 0.06404279 -0.00040577035 -0.069197275 -0.097407594 0.13128346
-0.03925223 0.26786995 -0.10372469 -0.021190912 -0.05556205 -0.06986311 0.09501862 0.026151093
0.107815735 -0.065498196 0.0017118747 -0.18444948 -0.1586392 0.091105215 0.038284644 -0.18143062
0.15181534 0.09430725 -0.16086622 0.21039407 0.04675816 -0.17050494 0.08126645 -0.043717682
0.10745762 -0.21484414 0.010634483 -0.00020362216 0.023372352 0.09588252 -0.040404752 0.031305138
0.19478533 -0.0066077923 -0.18722141 0.03826773 0.040379755 0.16048615 0.06314099 0.011558687
0.10496315 -0.035567965 0.048080675 -0.023848636 -0.041429665 -0.074712396 0.122375555 0.079563305
0.063975975 -0.07915299 -0.017951919 -0.038698256 0.09179639 -0.10634092 -0.16159181 -0.030461326
-0.12192935 -0.18401518 -0.07542405 -0.023202699 0.21130912 -0.070922785 -0.092114 -0.039134134
-0.08884004 -0.15012857 0.0021962915 -0.0043131714 -0.03605572 -0.039291408 -0.011066993 0.15434307
0.03440022 0.059293028 0.0024220962 -0.09304116 -0.01613012 -0.027661078 0.008011493 0.096358806
-0.023884501 -0.042845856 0.025037313 -0.11324037 -0.008745519 -0.11492228 -0.19923598 0.024430668
-0.03967737 0.019271107 -0.05337075 -0.1224105 -0.0020342625 -0.070811346 -0.04560046 -0.06434692
0.07527931 -0.15471858 0.04798253 0.14839561 -0.14101021 -0.021711182 0.0064010313 0.049003366
-0.04031364 -0.13124537 -0.22205749 -0.045997355 0.20526405 -0.0059790956 0.022967018 -0.072238415
0.021846434 -0.05062952 0.07038676 0.03084959 -0.028278565 0.05716999 -0.07950653 -0.0702441
0.07335496 -0.09973731 -0.20041728 0.19522835 0.04981956 0.08079483 0.065292075 0.24877566
0.06769434 0.034993883 -0.084552795 -0.13870935 0.073654406 -0.06079952 -0.06031463 -0.006473375
0.0584289 -0.19688761 0.031462893 0.074430056 -0.04332709 -0.067082025 -0.13820654 0.08803645
00000000: 45b9 19be ce39 c03d b4d1 2ebd 1bcf af3d
00000010: 123a 71bc 53d3 1fbd 3f95 2c3d 2f2e 3d3d
00000020: 66f6 983c 731e 82bd 1572 0ebe 8ad2 933d
00000030: 85d5 debd e9b5 713e 7abb 2cbd 5b16 193d
00000040: 42d3 6fbe aec9 b43d 3985 c3bd 8bb1 6a3c
00000050: 8fcf e4bd 02ec efbd 680e 49bd ced7 0f3e
00000060: 84d0 5cbb b56a 803d 968a 8e3b 1a7e 7bbd
00000070: 59c8 5b3e c39c 703b 4ff1 a8bd b13b be3b
00000080: a6b5 dfbd 4afa 31bd 5c10 4cbd 1439 b3bc
00000090: c534 a4be 183b 3cbe 738f e73c 9f4a febd
000000a0: 0461 2f3e 0fb5 41be 3c17 f0bd 11f8 7a3d
000000b0: faa1 263d 142a 16bc f4b8 5e3d 63c4 243e
000000c0: 690d 82be 96e4 d63d 36ad 803d fd5b 74bd
000000d0: 10f7 92bc 8193 1a3e c80a 4b3e 9163 b93b
000000e0: 12f7 ba3d e3f0 1dbe 7228 20be ff02 06be
000000f0: a2f4 a7bc 4b3c febd 7786 663c 3e37 0bbe
00000100: 1290 c93d af39 393c 084b 7b3d 74fe e33c
00000110: 2af8 cc3d 138f 2abd b0be 4c3e c242 61bd
00000120: a269 bd3d c5f5 913d 4d28 363e c7b7 d33d
00000130: 7624 95bd e22c 36bc a9ac 00bc a280 f8bc
00000140: de10 09bb 33af fb3d 690f a6bc 333f bfbc
00000150: 7928 793e 247d fcbd 2303 013d 0175 05bd
00000160: f8cc d5bd d200 df3c 1c90 36be e042 6a3e
00000170: cb73 d0bb b8a4 b23d 7a85 ba3c f012 0e3e
00000180: 5ec8 973d abc7 bf3c 3a3e eebd e422 35bd
00000190: 45aa 303e 1156 82bb 1534 c83b cc88 03be
000001a0: af94 c73c 206c c03c e4f6 edbd de28 833d
000001b0: 93bd d4b9 4db7 8dbd a27d c7bd 2c6f 063e
000001c0: f2c6 20bd 4026 893e 9c6d d4bd 9098 adbc
000001d0: 0895 63bd 6414 8fbd 1f99 c23d d13a d63c
000001e0: 7fce dc3d eb23 86bd fc60 e03a 53e0 3cbe
000001f0: 5072 22be 5f95 ba3d 5cd0 1c3d f3c8 39be
00000200: 7b75 1b3e 2924 c13d 1dba 24be 8b71 573e
00000210: 7c85 3f3d d998 2ebe 066f a63d 5011 33bd
00000220: be12 dc3d 1a00 5cbe 413c 2e3c 6883 55b9
00000230: 6077 bf3c 0e5e c43d 747f 25bd d139 003d
00000240: ce75 473e 2e86 d8bb f8b6 3fbe a0be 1c3d
00000250: 3e65 253d 7b56 243e 1050 813d a660 3d3c
00000260: ecf6 d63d b7af 11bd 3ef0 443d 375e c3bc
00000270: 27b2 29bd d002 99bd 09a0 fa3d 16f2 a23d
00000280: d605 833d f61a a2bd e70f 93bc 1082 1ebd
00000290: bfff bb3d 45c9 d9bd 5378 25be 088a f9bc
000002a0: 18b6 f9bd 7a6e 3cbe ed77 9abd 9613 bebc
000002b0: 6b61 583e f73f 91bd 44a6 bcbd 1d4b 20bd
000002c0: c4f1 b5bd 4ebb 19be a8ef 0f3b 8155 8dbb
000002d0: 2aaf 13bd 07f0 20bd 5552 35bc 1c0c 1e3e
000002e0: 3fe7 0c3d 3fdd 723d 08bc 1e3b 5d8c bebd
000002f0: 5023 84bc 7c99 e2bc a342 033c c457 c53d
00000300: 6ea9 c3bc 237f 2fbd 0d1b cd3c 91ea e7bd
00000310: 5e49 0fbc 5f5c ebbd 8404 4cbe d322 c83c
00000320: bd84 22bd 71de 9d3c 4a9b 5abd 5bb2 fabd
00000330: 4351 05bb 8a05 91bd 8cc7 3abd 51c8 83bd
00000340: 0a2c 9a3d 8c6e 1ebe 5489 443d 05f5 173e
00000350: fb64 10be a6db b1bc bebf d13b c1b7 483d
00000360: ea1f 25bd 3065 06be 0a63 63be b967 3cbd
00000370: bd30 523e 4aec c3bb 5425 bc3c bcf1 93bd
00000380: 4bf7 b23c e660 4fbd ef26 903d 48b8 fc3c
00000390: 73a8 e7bc 142b 6a3d 52d4 a2bd 24dc 8fbd
000003a0: 203b 963d 1343 ccbd 303a 4dbe f1e9 473e
000003b0: 980f 4c3d c377 a53d dab7 853d 0cbf 7e3e
000003c0: 55a3 8a3d bf55 0f3d 042a adbd d309 0ebe
000003d0: 1fd8 963d eb08 79bd 790c 77bd 9b1e d4bb
000003e0: 2453 6f3d e89c 49be 3cdf 003d c96e 983d
000003f0: bf77 31bd 4d62 89bd 0486 0dbe 744c b43d

linear_layer.3.bias f4 [100]
0.03510206 0.014174847 -0.037276037 -0.055850014 -0.0140772825 -0.034984834 0.046100385 0.03338915
0.038784992 -0.0019549874 -0.062928334 -0.028275497 0.029225955 0.0012512383 0.0058853566 -0.010063447
-0.011170319 -0.0032277915 -0.0044160513 0.033983365 -0.059864957 0.044719256 0.029332886 0.03143889
-0.003777256 0.0025595303 0.036338422 0.03448662 0.01979919 0.04401918 -0.01941521 -0.0015896691
0.034969937 0.030377679 0.0078854915 -0.017224718 0.01953013 0.005089344 -0.026958032 0.0015807619
-0.022757266 0.011490127 -0.03413896 -0.015705843 0.0244952 0.035089657 0.048211567 -0.064913586
0.04726958 -0.0177764 0.031047896 -0.022259979 -0.008905857 -0.014413217 -0.016373158 -0.0143826455
-0.02755232 -0.034885235 0.015627228 0.035566702 0.00048725164 0.0063623334 0.0006510818 0.013906095
-0.0065750694 0.006582974 0.055104345 -0.020078948 0.008264629 -0.005996007 0.025483843 0.013960153
-0.006725981 -0.01072938 -0.030956626 -0.017906463 -0.0012919374 -0.0183535 0.009984773 -0.028169474
0.0069200993 0.013352737 -0.006543172 -0.002757267 -0.042369187 0.015028117 0.02051141 0.022301717
-0.013432315 -0.0075340443 0.0132098505 0.01871319 0.03818776 -0.017451415 0.002679016 0.009003565
0.014330432 0.017084735 -0.03671083 -0.028503945
00000000: 2dc7 0f3d 9e3d 683c c2ae 18bd fcc2 64bd
00000010: 67a4 66bc 424c 0fbd c2d3 3c3d 10c3 083d
00000020: 03dd 1e3d 3f1f 00bb 92e0 80bd 04a2 e7bc
00000030: 456b ef3c 9700 a43a f3d9 c03b 28e1 24bc
00000040: b703 37bc 5b89 53bb 86b4 90bb 2432 0b3d
00000050: f534 75bd 8a2b 373d 854b f03c 11c6 003d
00000060: d78b 77bb cbbd 273b 99d7 143d d841 0d3d
00000070: e931 a23c 754d 343d a50c 9fbc 725c d0ba
00000080: a33c 0f3d 9cda f83c 2632 013c da1a 8dbc
00000090: a7fd 9f3c 83c4 a63b 17d7 dcbc 9131 cf3a
000000a0: 726d babc 1641 3c3c 4bd5 0bbd 8aa9 80bc
000000b0: 28aa c83c 2cba 0f3d 7e79 453d 6af1 84bd
000000c0: bf9d 413d d09f 91bc 2858 fe3c 8f5a b6bc
000000d0: dfe9 11bc 6a25 6cbc 0021 86bc 30a5 6bbc
000000e0: 67b5 e1bc d2e3 0ebd ac04 803c 64ae 113d
000000f0: cf75 ff39 1f7b d03b 5cad 2a3a 64d6 633c
00000100: ae73 d7bb fdb5 d73b 18b5 613d 9b7c a4bc
00000110: 5e68 073c 277a c4bb 7ec3 d03c 20b9 643c
00000120: 9e65 dcbb 48ca 2fbc c098 fdbc 93b0 92bc
00000130: 3a56 a9ba 145a 96bc 2c97 233c abc3 e6bc
00000140: 00c2 e23b 70c5 5a3c 1b68 d6bb 44b3 34bb
00000150: 508b 2dbd 7e38 763c 8b07 a83c 17b2 b63c
00000160: 3613 5cbc 25e0 f6bb 216e 583c 674c 993c
00000170: c56a 1c3d 45f6 8ebc 6e92 2f3b b083 133c
00000180: 30ca 6a3c 49f5 8b3c 185e 16bd 1b81 e9bc

linear_layer.4.weight f4 [100, 100]
-0.026057232 0.04321824 0.07235714 0.082512066 0.06253386 -0.0039809183 -0.05116635 0.1402915
0.07912051 0.039679714 -0.13299185 0.08034806 0.079126716 0.14118445 0.10772071 0.18979017
0.17102957 0.31127387 -0.0042242436 0.026018688 -0.001138059 0.04944256 -0.011990585 0.1309851
0.14635672 -0.07479629 0.06549408 -0.10373084 0.14962688 -0.0658454 0.16090457 -0.074127935
-0.18262655 0.03779495 0.010467108 -0.006092917 -0.17457418 0.048110534 0.14869337 0.04130979
-0.21385975 -0.2611896 -0.30068132 0.06845722 -0.047003772 -0.22506277 0.16238764 -0.064532034
0.067893535 0.017177911 -0.05183441 -0.11045375 -0.077618316 0.003339514 -0.036187775 0.06430101
0.057282366 0.066527635 0.08100311 0.04896671 0.10405437 -0.012082813 0.002802952 0.026702465
0.100559115 0.024465403 -0.0007723432 -0.039819155 -0.22661301 0.15322879 0.05816402 0.10586144
-0.107350536 0.19439767 0.021214426 -0.17735155 0.09987489 0.06680911 -0.028537843 0.033075023
0.06651153 0.07033181 0.047707252 0.009791141 -0.03892891 0.018903581 0.13084722 -0.03151188
-0.045063697 -0.071340285 -0.022814201 0.1245246 -0.21402147 0.09981025 -0.10851601 -0.06558128
0.024397708 -0.01614153 -0.06127316 -0.025131747 -0.0743992 -0.020582967 -0.11596977 -0.012013141
-0.01922958 -0.0658541 -0.17935452 -0.031404547 -0.019026121 -0.055972748 -0.013901409 -0.020542685
0.13422109 0.10247246 0.24296202 -0.06661617 -0.13385521 -0.08371387 -0.028562997 0.0595155
-0.074730255 0.0982506 0.09046906 -0.054547627 0.03517724 -0.07623028 0.08479416 0.12783115
0.17768933 0.07914054 -0.06860353 0.07019064 0.056503482 0.019883616 0.0072807446 -0.23765573
-0.12719166 -0.077008754 0.102259435 0.062000096 0.041145924 0.053199206 0.07593185 0.17337224
0.049499046 0.019152967 0.22986434 0.07574682 -0.042278994 -0.15667824 -0.036605578 0.0626199
-0.03854284 -0.051498163 -0.059173252 -0.07897176 -0.040604483 0.09332533 -0.05294323 2.4449744e-05
-0.034774918 0.08200305 0.011834457 -0.21337746 -0.006568505 0.1799649 0.14209278 0.18223585
-0.13823217 -0.10076216 -0.10248863 -0.13015291 0.0011259662 -0.19032446 -0.012934472 0.11188694
0.06683826 -0.19620089 -0.18694642 0.09845779 0.12536217 -0.15756108 0.07292277 -0.07931296
0.06410694 0.033545952 -0.1456889 -0.06235235 -0.12966026 -0.14943525 0.0901745 -0.08010315
-0.13907026 0.029515015 0.025016617 0.06169497 -0.032021347 -0.09653322 0.115929544 0.049201615
0.04272841 0.00380039 -0.10445287 0.15361096 -0.15447648 -0.08314886 0.044198602 0.117908604
-0.17902127 0.030214041 0.0150200315 0.024690988 -0.0665984 -0.12940688 0.04208863 0.10533551
-0.1258393 -0.17461097 0.0043504112 0.05328823 -0.076982416 -0.019145267 0.14677404 0.007779513
0.034852978 -0.0048126085 -0.077213034 -0.01782176 0.17875329 -0.04851434 -0.22052385 0.013044197
0.02168943 0.09698078 -0.10608898 0.041696675 -0.004067809 0.14884236 -0.089462705 -0.0059172325
-0.052356515 0.018246528 0.090481885 -0.21032521 -0.20286134 0.011149187 0.15281971 0.20217645
0.02323933 0.058652025 0.21971442 0.022690553 -0.008625104 0.05034698 0.1761803 0.14189042
00000000: fa75 d5bc 9c05 313d fb2f 943d 16fc a83d
00000010: c111 803d 5d72 82bb ce93 51bd 93a8 0f3e
00000020: ef09 a23d 3287 223d 042f 08be 868d a43d
00000030: 300d a23d a892 103e ad9c dc3d 5b58 423e
00000040: 6022 2f3e 4a5f 9f3e 866b 8abb 2525 d53c
00000050: ec2a 95ba 4884 4a3d 2974 44bc f520 063e
00000060: 89de 153e cc2e 99bd c321 863d d670 d4bd
00000070: ca37 193e f4d9 86bd 2bc4 243e 63d0 97bd
00000080: 7402 3bbe e1ce 1a3d 3c7e 2b3c 18a7 c7bb
00000090: 93c3 32be 8d0f 453d 1343 183e 7434 293d
000000a0: 0dfe 5abe a5ba 85be e7f2 99be 4d33 8c3d
000000b0: 0787 40bd db76 66be f248 263e 5f29 84bd
000000c0: c40b 8b3d b1b8 8c3c 5150 54bd 9335 e2bd
000000d0: 5af6 9ebd bfdb 5a3b a239 14bd 3fb0 833d
000000e0: eaa0 6a3d a43f 883d f5e4 a53d 5191 483d
000000f0: 751a d53d fef6 45bc bbb1 373b 21bf da3c
00000100: f0f1 cd3d ab6b c83c 1377 4aba 6919 23bd
00000110: 3e0d 68be 02e8 1c3e 653d 6e3d e2cd d83d
00000120: 99da dbbd 2f10 473e e0c9 ad3c a59b 35be
00000130: 358b cc3d 37d3 883d 32c8 e9bc ad79 073d
00000140: 3237 883d 200a 903d ae68 433d 066b 203c
00000150: ec73 1fbd afdb 9a3c d0fc 053e 9a12 01bd
00000160: b694 38bd db1a 92bd d9e4 babc c106 ff3d
00000170: 7228 5bbe 5169 cc3d a43d debd 7a4f 86bd
00000180: b4dd c73c 3e3b 84bc 91f9 7abd 18e1 cdbc
00000190: 9c5e 98bd 9c9d a8bc 8f81 edbd c4d2 44bc
000001a0: 5a87 9dbc 84de 86bd b6a8 37be 0ea2 00bd
000001b0: abdc 9bbc ae43 65bd bcc2 63bc 2249 a8bc
000001c0: 4171 093e 15dd d13d 09cb 783e 0f6e 88bd
000001d0: 5711 09be 2d72 abbd f2fc e9bc 86c6 733d
000001e0: 2d0c 99bd 9c37 c93d d847 b93d 556d 5fbd
000001f0: 0216 103d 9f1e 9cbd 90a8 ad3d 2be6 023e
00000200: 31f4 353e 6f14 a23d 0280 8cbd 1cc0 8f3d
00000210: 3270 673d f7e2 a23c 5093 ee3b 065c 73be
00000220: 883e 02be c4b6 9dbd 656d d13d d0f3 7d3d
00000230: a188 283d 69e7 593d 2882 9b3d 7e88 313e
00000240: 83bf 4a3d afe6 9c3c 8f61 6b3e 2621 9b3d
00000250: bd2c 2dbd 4370 20be bbef 15bd dd3e 803d
00000260: 19df 1dbd bdef 52bd a75f 72bd f2bb a1bd
00000270: e350 26bd 5a21 bf3d 00db 58bd 6d19 cd37
00000280: 2570 0ebd 37f1 a73d 4fe5 413c 9f7f 5abe
00000290: 9d3c d7bb b848 383e c580 113e 099c 3a3e
000002a0: bc8c 0dbe 645c cebd 8fe5 d1bd ce46 05be
000002b0: 2895 933a 6ae4 42be 1ceb 53bc fb24 e53d
000002c0: 7fe2 883d e3e8 48be e26e 3fbe 3da4 c93d
000002d0: f15e 003e b157 21be 8958 953d d56e a2bd
000002e0: 804a 833d 7b67 093d 792f 15be 2e65 7fbd
000002f0: a9c5 04be 8e05 19be 69ad b83d 1f0d a4bd
00000300: 6f68 0ebe 79c9 f13c a6ef cc3c ddb3 7c3d
00000310: d128 03bd 35b3 c5bd 786c ed3d a287 493d
00000320: fc03 2f3d f70f 793b 63eb d5bd 314c 1d3e
00000330: 152f 1ebe f349 aabd 9809 353d 117a f13d
00000340: 5a51 37be 7083 f73c 9416 763c c144 ca3c
00000350: be64 88bd 3d83 04be 2165 2c3d 25ba d73d
00000360: 04dc 00be 38cd 32be e58d 8e3b c244 5a3d
00000370: f5a8 9dbd 89d6 9cbc ef4b 163e 49eb fe3b
00000380: ffc1 0e3d 16b3 9dbb de21 9ebd f1fe 91bc
00000390: 1a0b 373e f9b6 46bd 01d1 61be 54b7 553c
000003a0: 08ae b13c dc9d c63d 2e45 d9bd 22ca 2a3d
000003b0: 414b 85bb 226a 183e 3938 b7bd 58e5 c1bb
000003c0: c973 56bd be79 953c 914e b93d 7e5f 57be
000003d0: e2ba 4fbe 14ab 363c c57c 1c3e 5807 4f3e
000003e0: 6860 be3c 1b3d 703d d1fc 603e 8ae1 b93c
000003f0: 4f50 0dbc a338 4e3d 9c68 343e b94b 113e

linear_layer.4.bias f4 [100]
-0.004054757 -0.017527247 0.016530296 -0.022028385 -0.11232514 0.013191101 -0.02321163 0.00011529319
0.018843206 0.015154139 0.018178819 -0.04577685 -0.008642926 0.018744683 -0.012682172 0.0016276011
0.026163042 -0.0055439463 -0.033280678 0.025727423 0.059863385 -0.019173093 0.008206039 0.01779678
0.01645489 0.012728498 -0.010309311 -0.007997604 -0.036193833 -0.029595051 0.03749568 0.009538719
-0.0102926195 -0.020066839 -0.008245505 -0.040384836 0.024111513 0.089433335 0.017677054 -0.01931238
-0.0044764923 -0.0018048504 -0.005170201 -0.014424511 -0.015507903 -0.0023580482 -0.023872878 -0.005553228
-0.013626965 -0.01099636 -0.002198947 -0.025447404 0.013953198 0.0049124174 -0.019460918 -0.014396962
-0.005846096 -0.024874335 -0.014601842 0.001701499 -0.008582994 0.035046715 -0.0014771118 -0.017000701
-0.0068825097 -0.0036770424 0.019772787 -0.018022113 0.017639857 -0.024808109 -0.032340314 0.00029273957
-0.0072554396 -0.027242355 0.023388244 -0.028201286 -0.01764409 0.019985253 0.046363942 0.032259364
0.027081566 -0.019360255 0.046405926 0.017761732 -0.048586242 -0.05857648 0.011751385 -0.027186379
-0.0056951907 -0.0005730359 0.015481721 -0.0022061917 -0.013734457 0.009525882 0.01974303 -0.004883277
-0.014301208 -0.011517243 -0.032437146 -0.0075761527
00000000: c4dd 84bb 4d95 8fbc 8b6a 873c df74 b4bc
00000010: b90a e6bd 7d1f 583c 5126 bebc 8fc9 f138
00000020: 115d 9a3c 1149 783c bfeb 943c 8280 3bbd
00000030: 0f9b 0dbc 738e 993c e2c8 4fbc 3b55 d53a
00000040: e053 d63c fea9 b5bb 5251 08bd 51c2 d23c
00000050: 4f33 753d e410 9dbc 9f72 063c 8eca 913c
00000060: 68cc 863c 318b 503c 62e8 28bc 6208 03bc
00000070: fc3f 14bd 5271 f2bc 1295 193d 4a48 1c3c
00000080: 60a2 28bc 3663 a4bc 2818 07bc 926a 25bd
00000090: 8285 c53c d328 b73d 78cf 903c ff34 9ebc
000000a0: 8aaf 92bb bb90 ecba ca6a a9bb c954 6cbc
000000b0: dc14 7ebc 7c89 1abb 0e91 c3bc daf7 b5bb
000000c0: a243 5fbc 142a 34bc 351c 10bb 1377 d0bc
000000d0: f49b 643c 58f8 a03b 816c 9fbc 3ce1 6bbc
000000e0: 9c90 bfbb 43c5 cbbc 903c 6fbc d504 df3a
000000f0: b09f 0cbc 258d 0f3d a69b c1ba 0e45 8bbc
00000100: ad86 e1bb 89fa 70bb 8afa a13c 1ca3 93bc
00000110: 7681 903c 603a cbbc 4777 04bd d77a 9939
00000120: 0abf edbb 5c2b dfbc b498 bf3c 6206 e7bc
00000130: 578a 90bc 1db8 a33c 1ee8 3d3d 6522 043d
00000140: 29da dd3c 6699 9ebc 2414 3e3d 0d81 913c
00000150: 5e02 47bd e4ed 6fbd e288 403c f8b5 debc
00000160: b99e babb ca37 16ba 0ba7 7d3c c195 10bb
00000170: 7d06 61bc 7212 1c3c 23bc a13c e603 a0bb
00000180: 9d4f 6abc d2b2 3cbc d0dc 04bd 6041 f8bb

linear_layer.5.weight f4 [100, 100]
0.05993816 0.051141843 0.017763082 0.020444088 -0.04457209 -0.21106727 -0.13099614 -0.052665666
-0.06416712 0.07120111 0.02919054 -0.03389365 -0.118180215 -0.08214489 0.02149041 0.07647404
-0.036848996 -0.07298579 0.06903937 -0.024469735 -0.1852997 0.10807617 0.028097931 0.032345623
-0.13959977 0.09372474 -0.03412366 -0.0070498893 0.0025109765 -0.16950493 0.06930686 0.03608123
0.09404004 -0.02011929 0.16919076 0.030766107 0.087382525 -0.2611967 0.06855666 0.21116292
-0.15184426 -0.13275017 -0.0014374425 0.08583305 -0.07118715 0.09719528 0.079659425 0.1488943
-0.23694554 -0.051647257 -0.16545448 -0.007123052 -0.023940131 0.09762058 0.013733076 0.010336613
0.1126981 -0.10891591 0.051185057 0.1388797 0.01564708 0.04634083 -0.098493084 0.19038914
-0.08868603 -0.16131729 -0.069124475 0.09035881 -0.06259547 -0.123273276 -0.14230016 0.12548248
0.031541068 0.082378834 -0.014916847 -0.10657187 -0.02752238 -0.028382989 0.06775142 0.13180226
-0.06017018 0.062157944 -0.038275618 -0.2586109 0.055121697 -0.19898108 0.20087285 0.08324219
-0.0010205305 0.033867463 -0.0239237 0.24292073 -0.01813718 -0.26978752 0.06917136 0.022327485
0.10064498 -0.13171291 -0.038285386 0.16723678 -0.09581127 0.08406366 -0.011432005 0.08428123
-0.06643508 0.06044939 0.1427466 0.053086236 -0.03403006 -0.17545949 -0.20753287 0.057363383
-0.09340898 -0.01101389 -0.029696679 -0.09489511 0.016064549 0.16563928 0.106465586 -0.1643444
-0.044202454 -0.04145089 0.05499099 0.14139566 0.080868796 0.0812805 0.06915039 0.020053819
0.10996772 0.07831777 0.028913628 0.08262534 -0.044530746 0.0028304148 -0.19347054 0.093433455
0.08726334 -0.13203335 -0.02766294 0.102248795 -0.037313443 -0.11853809 0.151221 -0.084347725
0.12968506 -0.041603833 0.16336448 0.03118109 0.06646961 0.047954462 -0.016205005 0.22805057
-0.074778594 0.0608036 -0.07414096 0.09587254 -0.11985345 0.16212107 0.2075478 0.065282054
-0.018161137 -0.10853526 0.004905512 0.103300445 0.12400289 -0.009944823 0.16592978 -0.08806272
-0.17721607 0.04908858 0.12143312 -0.09921485 -0.014355318 0.005442575 0.008938541 0.10786624
-0.060220044 -0.020093272 0.033910945 -0.043836337 -0.121777646 -0.008299507 -0.08047925 -0.057276234
-0.09487316 0.11209386 -0.06636086 0.055063453 0.056696333 0.0398614 -0.17968193 0.10353703
0.053325586 -0.08484877 -0.0037321195 -0.008206592 0.021028256 -0.07080483 0.0649873 -0.12681396
-0.08464547 0.031206457 -0.045176413 -0.14956519 -0.047484957 0.11289533 -0.0937488 -0.18584056
0.07118058 0.011034247 0.036396764 -0.12681684 0.0077882125 0.037443932 0.12784818 -0.1640255
0.16263135 0.0023906261 0.018776104 -0.0087071825 0.088308774 -0.0717924 -0.043187156 0.11877995
0.10394262 -0.08730676 -0.108659185 -0.01597841 -0.0082673 0.17913184 0.17826626 -0.023156274
-0.05916422 0.117549345 0.11886779 -0.015557324 0.13910358 0.16652621 0.09954224 0.1535748
-0.08834432 -0.07587342 -0.13366868 0.08541027 -0.04707497 -0.08795567 0.13990013 -0.11959562
-0.082719706 0.11571813 0.0985539 -0.081951834 -0.13888054 0.02526827 -0.027052546 -0.08568883
00000000: b781 753d 1c7a 513d e283 913c 5c7a a73c
00000010: 3991 36bd 0522 58be da23 06be f4b7 57bd
00000020: 0d6a 83bd e3d1 913d 0021 ef3c 11d4 0abd
00000030: 7808 f2bd 953b a8bd a80c b03c 6c9e 9c3d
00000040: f9ee 16bd 9379 95bd 8364 8d3d c174 c8bc
00000050: 34bf 3dbe 0a57 dd3d a22d e63c d87c 043d
00000060: 3ef3 0ebe c2f2 bf3d 40c5 0bbd c202 e7bb
00000070: 328f 243b b392 2dbe c1f0 8d3d e9c9 133d
00000080: 1198 c03d 36d1 a4bc 5840 2d3e 3409 fc3c
00000090: 9cf5 b23d 93bb 85be 6f67 8c3d 183b 583e
000000a0: 107d 1bbe a9ef 07be 9168 bcba 3dc9 af3d
000000b0: 92ca 91bd 520e c73d 7b24 a33d bf77 183e
000000c0: daa1 72be 138c 53bd e66c 29be 7e68 e9bb
000000d0: 181e c4bc 4ced c73d b200 613c e65a 293c
000000e0: 43ce e63d 4e0f dfbd 6ca7 513d 7b36 0e3e
000000f0: 4e2e 803c e2cf 3d3d beb6 c9bd 5ff5 423e
00000100: 05a1 b5bd 5c30 25be 2291 8dbd 0a0e b93d
00000110: 0e32 80bd b376 fcbd 22b7 11be 7b7e 003e
00000120: 3531 013d 3cb6 a83d cb65 74bc 5a42 dabd
00000130: 9d76 e1bc 7183 e8bc 42c1 8a3d 2cf7 063e
00000140: 0275 76bd 5499 7e3d e5c6 1cbd a668 84be
00000150: 4ac7 613d b2c1 4bbe 9db1 4d3e e27a aa3d
00000160: 52c3 85ba 9cb8 0a3d a3fb c3bc 36c0 783e
00000170: 6c94 94bc 9721 8abe b7a9 8d3d 21e8 b63c
00000180: f51e ce3d c0df 06be 23d1 1cbd 1e40 2b3e
00000190: b338 c4bd 9129 ac3d 4e4d 3bbc a39b ac3d
000001a0: 1d0f 88bd c899 773d 2a2c 123e f470 593d
000001b0: 1b63 0bbd a7ab 33be 7f83 54be def5 6a3d
000001c0: 354d bfbd 9a73 34bc 7346 f3bc 5e58 c2bd
000001d0: cd99 833c 589d 293e a10a da3d e649 28be
000001e0: a20d 35bd 69c8 29bd 3b3e 613d 06ca 103e
000001f0: 8a9e a53d 6476 a63d b89e 8d3d e847 a43c
00000200: c236 e13d 1165 a03d 46dc ec3c 7937 a93d
00000210: df65 36bd 7b7e 393b 241d 46be 0a5a bf3d
00000220: 1fb7 b23d c033 07be 649d e2bc d167 d13d
00000230: fbd5 18bd 19c4 f2bd aed9 1a3e 80be acbd
00000240: 29cc 043e c868 2abd 0549 273e 7c6f ff3c
00000250: 3821 883d e66b 443d 5cc0 84bc 1786 693e
00000260: 8525 99bd 320d 793d 37d7 97bd d258 c43d
00000270: ba75 f5bd 1103 263e 6987 543e 99b2 853d
00000280: aac6 94bc bc47 debd 6bbe a03b 2f8f d33d
00000290: 3af5 fd3d 9cef 22bc 7fe9 293e 3a5a b4bd
000002a0: 2178 35be 1b11 493d edb1 f83d 2831 cbbd
000002b0: 9132 6bbc a157 b23b f572 123c fae8 dc3d
000002c0: 4ba9 76bd a59a a4bc 34e6 0a3d bb8d 33bd
000002d0: 8f66 f9bd a8fa 07bc 4ed2 a4bd 7c9a 6abd
000002e0: dc4c c2bd 7791 e53d 34e8 87bd 378a 613d
000002f0: 6a3a 683d b545 233d 8afe 37be 390b d43d
00000300: ee6b 5a3d 31c5 adbd 9396 74bb f174 06bc
00000310: 7343 ac3c 1f02 91bd 1018 853d 85db 01be
00000320: 9b5a adbd afa4 ff3c e70a 39bd 9e27 19be
00000330: 967f 42bd ab35 e73d 5fff bfbd fd4c 3ebe
00000340: 20c7 913d fdc8 343c c614 153d 46dc 01be
00000350: 4334 ff3b cf5e 193d a2ea 023e 4df6 27be
00000360: d588 263e 0dac 1c3b 58d0 993c 92a8 0ebc
00000370: 3bdb b43d e507 93bd 04e5 30bd e742 f33d
00000380: dedf d43d e3cd b2bd b588 debd 28e5 82bc
00000390: 9273 07bc 566e 373e 6e8b 363e 3ab2 bdbc
000003a0: 2e56 72bd b6bd f03d f570 f33d 25e4 7ebc
000003b0: 2b71 0e3e d985 2a3e cddc cb3d b642 1d3e
000003c0: deed b4bd 8663 9bbd 71e0 08be 94eb ae3d
000003d0: afd1 40bd 1a22 b4bd fb41 0f3e 8cee f4bd
000003e0: f368 a9bd a0fd ec3d a1d6 c93d 5dd6 a7bd
000003f0: b336 0ebe 67ff ce3c 4d9d ddbc a07d afbd
